SimLoan/VACA/exper_test_10pct_noise/toy_/vaca/dgnn_elbo_8_8_16_4_normal_0.0_0.2_0.0_0.0_0_True_[BernoulliLikelihood()]_[NormalLikelihood()]_[NormalLikelihood()]_[BernoulliLikelihood()]_[NormalLikelihood()]_[NormalLikelihood()]_[BernoulliLikelihood()]_7_21/adam/0.005_0.9_0.999_1.2e-06_exp_lr_0.99/9/ckpt/checkpoint-epoch=445.ckpt (torch, 164822 bytes, 81 tensors)

model._encoder_embeddings.0.0.weight f4 [16, 1]
00000000: d7b1 0fbd b45c 55be 950a 0b3f a941 303f
00000010: d5c2 77bd eea3 fb3e 4508 f381 d851 333f
00000020: 3ee1 be81 a746 a1be b2b7 cd3c f22b 4402
00000030: 7d75 4ebd 1d08 d8be b0cb febe 5086 abbd
-0.03508171 -0.20836145 0.5431302 0.6885019 -0.06048854 0.49148506 -8.927597e-38 0.7004676
-7.0118184e-38 -0.31499216 0.025112007 1.4412417e-37 -0.050405014 -0.4219369 -0.49764776 -0.083752275

model._encoder_embeddings.0.0.bias f4 [16]
00000000: 561d 4ebd 5e4a fc3d 8b19 eb3e debe 523e
00000010: 856d 9bbd 55ac b43c a00a 76ab 5cac 28bf
00000020: e004 3a82 c66d 923e 7d84 5ebd 0eea 96bc
00000030: a335 19bd aa82 8c3e 18b4 1a3f bb43 b2bd
-0.050320946 0.12318872 0.45917925 0.20580623 -0.075892486 0.02205483 -8.74115e-13 -0.65888
-1.3666521e-37 0.28599375 -0.05432557 -0.018422153 -0.037404668 0.2744344 0.6043105 -0.08704325

model._encoder_embeddings.1.0.weight f4 [16, 1]
00000000: a48d 13bf 869f c1be a01c a180 db26 df3e
00000010: d452 5fbe 4136 bc3b 1017 66be 1462 09bf
00000020: 5dbc 77bd f1e4 0b3f f1e2 53bc d771 913e
00000030: 4377 1ebf 0ad9 a73e b3d5 3d3f d698 2c3f
-0.57638 -0.3781702 -1.4795784e-38 0.43584332 -0.2180894 0.0057437723 -0.22469735 -0.5366528
-0.06048237 0.5464621 -0.012932525 0.28407165 -0.6190073 0.32782775 0.74154204 0.6742071

model._encoder_embeddings.1.0.bias f4 [16]
00000000: b673 11bf c7f3 ecbe 6840 3082 2837 103e
00000010: cc2f 1a3f 0b8f f7bc 0137 613f 67d6 ee3e
00000020: ad84 313e 18f5 243e a819 14bd 6dc5 c23d
00000030: e5f3 4cbe eefb 9e3e 91a9 1fbf 9de9 533f
-0.56817186 -0.46279737 -1.2948922e-37 0.1408354 0.6022918 -0.030219575 0.87974554 0.4664795
0.17335768 0.16109121 -0.03615728 0.09510312 -0.20014913 0.31051582 -0.6236811 0.8277834

model._encoder_embeddings.2.0.weight f4 [16, 1]
00000000: d1dd 2dbf b8f6 edbe f990 63be 4d97 323f
00000010: a0e3 f9be c2c5 1bbf 50e0 0c3f 58a9 4c3f
00000020: fd0d 02bf 563c 243f c072 803e 2a2c 44bf
00000030: f8a9 56be 90ad b23e 9c66 b5be 10d0 1dbe
-0.6791659 -0.46477294 -0.22223271 0.69762117 -0.48806477 -0.6084863 0.55029774 0.799459
-0.50802594 0.64154565 0.25087547 -0.7662989 -0.20963275 0.34898043 -0.35429847 -0.15411401

model._encoder_embeddings.2.0.bias f4 [16]
00000000: 4608 e7bd 24ac 163f 64fc c63e 1cd0 58bf
00000010: 7de6 583f 4f84 3b3f 547b 1ebd 3da8 3a3f
00000020: a450 32be f15d 4f3e b58f fa3e f7f0 32bf
00000030: 28b0 793e 3eda 1abf 4ba1 df3e aaa7 9abe
-0.11280875 0.58856416 0.38864434 -0.8469255 0.847267 0.7324876 -0.038691834 0.7291296
-0.17413574 0.2025068 0.48937765 -0.69898933 0.24383605 -0.6048926 0.43677744 -0.30206043

model._encoder_embeddings.3.0.weight f4 [16, 1]
00000000: 422a 0582 8e16 c8bc 3bf9 a6bd 0dc0 0b3e
00000010: 84d1 d4bd 8e0c 3d3f d830 6bbd 83ef 2c02
00000020: 6aff f43b ed2e 0bbf dd19 163f 7084 eb3e
00000030: 3ed3 8c3e 37d3 40bf cd3c 2abe 5c62 123f
-9.783424e-38 -0.024424817 -0.08153006 0.1364748 -0.103915244 0.7384728 -0.057419628 1.2705301e-37
0.007476737 -0.5436848 0.58633214 0.4599948 0.27504915 -0.7532229 -0.16624756 0.57181334

model._encoder_embeddings.3.0.bias f4 [16]
00000000: f0b8 2cbd 9123 17bd 6d8c 5abd c5d1 043f
00000010: 8e7c b53d 2889 d23e 8991 f03d 9c72 79bc
00000020: 1db5 093f f95c 3d3f 2f06 1f3f 959a b0be
00000030: 16fb 243f 8155 433f 46f2 263e cf3e 4d3e
-0.042168558 -0.036899153 -0.053356577 0.5188258 0.088616475 0.41120267 0.11746509 -0.015225079
0.5379198 0.7396999 0.6211881 -0.34492937 0.64445627 0.76302344 0.16303357 0.20043491

model._encoder_embeddings.4.0.weight f4 [16, 1]
00000000: 853b 43bf 0cad eebd 83e7 e4bd 0f1e 06bf
00000010: 3287 8cbc 626e ca3e 1316 7ebc fcad 733e
00000020: d124 953e b0cb 80be c3db dc3e 89dc 193d
00000030: b761 ccbc a3fc 95be 9346 55be 57aa 1bbf
-0.76262695 -0.116541 -0.1117697 -0.52389616 -0.01715431 0.3953734 -0.015508193 0.23796839
0.2912965 -0.251554 0.43136415 0.037563834 -0.024948938 -0.2929431 -0.20827703 -0.6080679

model._encoder_embeddings.4.0.bias f4 [16]
00000000: 6efd 82bf 8989 06bd 8a63 0cbd 4199 ef3e
00000010: c00c 9fbd b2e6 b4be d2dc 9ebd a3c5 59be
00000020: c096 343f f1b5 193f 3302 83bf ea33 c93e
00000030: eb3f c4bd 24bd 3cbf fe54 473f c30e 51bf
-1.0233591 -0.032846007 -0.034274615 0.4679661 -0.07766104 -0.35332257 -0.07756962 -0.21266799
0.70542526 0.60043246 -1.0235046 0.3929742 -0.09582504 -0.73726106 0.7786406 -0.8166315

model._encoder_embeddings.5.0.weight f4 [16, 1]
00000000: 5696 113f fd9e 87be ee4f 84be 9488 d1bd
00000010: cd8f babe 4220 293f 647f 893a 99a9 403c
00000020: 088e 1abb 77ac 0a3f 0bfc c5be 151a ef3e
00000030: 9ac2 0abf 9ded b5be 2d19 8e3e 7475 4b3c
0.5687002 -0.26488486 -0.25842232 -0.10231128 -0.36437836 0.66064847 0.0010490236 0.011759185
-0.0023583192 0.5416941 -0.38668856 0.46699587 -0.5420319 -0.35532847 0.27753583 0.01241814

model._encoder_embeddings.5.0.bias f4 [16]
00000000: 3eb5 3d3f 2563 22bf 0d4e 21bf 7248 b53e
00000010: 3fd2 5abf b1d9 2dbf 3ade 03bd 33bd 43bd
00000020: 59a2 82bd 4af4 0cbf cf14 10be 5fcc 293e
00000030: cf90 34bf 5827 02be c669 91be d318 76bd
0.7410468 -0.6343253 -0.6300972 0.35406834 -0.8547706 -0.67910296 -0.032194354 -0.047787856
-0.063786216 -0.55060256 -0.14070438 0.16581868 -0.7053346 -0.12710321 -0.2840101 -0.060082268

model._encoder_embeddings.6.0.weight f4 [16, 1]
00000000: 8511 bfbe be12 c9af ffb2 85a7 b1d0 f2b7
00000010: 8fb6 3584 ad49 d8b9 319f 8b82 8f68 b8bd
00000020: 92d0 3f3f 6285 3db2 681f b7be e155 cebb
00000030: d4e6 ab3e 98f1 bc01 a368 483f 3aa2 51be
-0.37318054 -3.6575004e-10 -3.7108984e-15 -2.8945828e-05 -2.1360275e-36 -0.00041253623 -2.0515586e-37 -0.09004318
0.7492763 -1.1031576e-08 -0.3576615 -0.0062968587 0.33574545 6.9406963e-38 0.7828466 -0.20472041

model._encoder_embeddings.6.0.bias f4 [16]
00000000: 4a97 b23e c343 1bb3 1c66 d9ac d5fc d0ba
00000010: 6cf4 3884 3107 92bb 0e4e 33bc af71 b73d
00000020: 831c 63be b3a8 73b8 d87b 3e3f 73e2 86bc
00000030: 4fdb 023f 0e73 2782 47dc 0e3d b40d 573f
0.3488105 -3.615038e-08 -6.1788474e-12 -0.001594449 -2.1741329e-36 -0.0044564237 -0.010943903 0.0895723
-0.22178845 -5.8092828e-05 0.7440772 -0.016465401 0.5111589 -1.2302241e-37 0.03487804 0.84005284

model.encoder_module.convs.0.m_net_list.0.weights.weight f4 [256, 21]
00000000: 257a 3436 9d4b ad3d bc85 85be eef3 21be
00000010: e671 51bd db4d b43d 458f 08bd b451 a3bc
00000020: 8da9 843b 1a06 ce3d 5650 c33c be22 f03d
00000030: 0bf5 e63c bc0e 143e 13b5 80bd 4c12 2f3e
00000040: 6fc1 133e 48ab 22bd 92bf a8bb ea60 113e
00000050: 98df 873e bc20 6cbc 73d0 2a3c 432e 17bc
00000060: 872d 65bd 1c3c f4bc e9f9 823e e983 12be
00000070: eb07 513d 7ab9 b53d 42b3 a5bd 505c 6abd
00000080: 51bf 9fbc 6939 643a df97 0dbe 6caf d03d
00000090: bf72 1d3d 3afb 123e 200a 8f3d 6f75 143e
000000a0: 0c2e d93d f1dd 70bd 4035 7c33 a100 e6bd
000000b0: ebc1 84bd 5267 fcbd 0b9a f8bd 23de 06be
000000c0: 905d 7cbd f3a7 95bb f54d 993d 7f9a debd
000000d0: b434 abbd 88e8 053e 3e92 92bd 13b5 84bd
000000e0: 19f8 a5bd 7820 793b 8183 983c fcf7 123e
000000f0: a555 4b3e b377 3dbd 3d38 0ebd b186 8fb3
00000100: c122 15be 924c 0f3d 0c14 1e3e 4075 4bbe
00000110: 0015 b7bd 002e 31bd c266 d3bd ccd1 ad3d
00000120: df30 1a3e c33e 01be 2ee5 37be 8eb5 833d
00000130: 5180 423d 005d 0a3e d2a9 18be 7439 f53c
00000140: 58b5 953d 03e0 07be 7d05 263d 73ad 233e
00000150: 1f51 7b20 397e 1abb 7423 04bc f94f 02be
00000160: 2c56 13bd f951 be3c 78ee abbc ae8f 383c
00000170: f785 993d 4456 093d 404b 23bc 996a 8d3d
00000180: 646f c6bc b2f5 abbb 5064 32bd d7d3 d13c
00000190: c983 cabc 9a58 12be 81f8 aebd 9765 13bd
000001a0: c057 55bd 97ee 233a a111 523f 0e7d 80be
000001b0: b2ce 063e de98 c2bd 2d79 03bd cbfc c43d
000001c0: d5f8 10bd df55 cc3b 4285 253c 72f0 a1bd
000001d0: 3b7f 413c 728f f03c 421e 88bd d820 023e
000001e0: 37ce 3b3c 409b 433d a19c 40bd d609 29bd
000001f0: dc0a 58bd 1cc6 0e3e cc3a d29e dc2a 87bd
00000200: 3d60 313d ad22 2fbe e81c f03d 753f 293e
00000210: 0193 9abb 40d6 6f3b df9d e6bc a27b 98bd
00000220: ef81 a33c de98 37be 5ff1 0abc 6d6f a23d
00000230: 0cda f3bd de08 80bd 3679 343e a6bc 87bd
00000240: bd6d bebc ea97 61be 8b2e 073c cdc1 2c2b
00000250: a192 003d 4c4d 093e 3af2 f1bd 6a2f 82bd
00000260: c238 fb3d 93ef b43e a071 0e3c 49b4 2a3e
00000270: 0365 483e 4eca c2bd 9b08 5bbe ee91 5d3d
00000280: a251 26be ca4a 483e 570c 443e 505e 4dbd
00000290: 5604 813d 3821 903d cab3 a63c fd6b 3cbd
000002a0: 6315 933d c92e bb3d fd8a 063e 230a be3d
000002b0: 4f66 f9bb 5247 41bd 7bc5 e83d d360 b8b8
000002c0: 91e8 993b b0cb ba3d 4a5f b8b8 1392 14bc
000002d0: 6959 bfb8 c89e cdbd 5b69 f1bb 4007 ca39
000002e0: 71e8 f8bb 7fcf f791 44bb 913c 3cf1 f891
000002f0: 1b39 e89e e055 0a3f 48a6 063d 85eb cd3d
00000300: e528 90bd 2b69 b6bc a6c8 833e ed70 303e
00000310: f062 7330 07d2 983d f68d 2c3e 6274 7330
00000320: a746 d1bc 677e 8231 f126 2abd fa4a d2bc
00000330: 573d 113c a2ae cebc 7660 289c 2242 ca3c
00000340: 3262 289c 47eb 6ea0 cb46 053d 1f27 813d
00000350: 4b62 1abe 5569 c43c 29e9 483c 6947 cb3c
00000360: d582 3b3e dee8 d5ba 7cb0 fcbd d5a5 fdbd
00000370: cbbb d5ba 3a04 163c 4db0 15bb 7215 f93d
00000380: 3d2e 5e3c f621 2bbc 4062 8f3c b2e9 a689
00000390: 3f53 e5bb f5e2 a689 7c92 6c96 5a82 5a3d
000003a0: 754f 503c 5ada eebd ea1d 68bd 307f ec39
000003b0: 5ebb 873c 3868 eabd 0f4a a3b9 e856 10be
000003c0: f274 743e ef1e a3b9 992a 90bc a627 28ba
000003d0: 5d1f 9dbd ed53 343b 28ff 033e 18b1 833b
000003e0: 3edf e813 8ead 823c ed24 e913 e423 071a
000003f0: 7640 50bd f476 07bd 16e5 203e b30b fe3d
2.6893188e-06 0.08461688 -0.26078594 -0.15815708 -0.051134013 0.08803912 -0.033339757 -0.01993642
0.0040485323 0.100597575 0.023842018 0.117253765 0.028193017 0.14458746 -0.06284537 0.17096823
0.14429258 -0.039714128 -0.00514979 0.14197126 0.26537776 -0.014412101 0.010425675 -0.009227338
-0.05595162 -0.029813819 0.2558129 -0.14308132 0.05103294 0.088732675 -0.08090831 -0.057216942
-0.019500406 0.00087060645 -0.13827465 0.10189709 0.03843951 0.14353648 0.06984353 0.14497922
0.10604486 -0.05880541 5.8721753e-08 -0.11230589 -0.064822994 -0.12324394 -0.12138756 -0.13170676
-0.061612666 -0.0045671402 0.07485572 -0.108693115 -0.08359662 0.13076985 -0.071568 -0.0647985
-0.081039615 0.0038013738 0.018617393 0.14352411 0.1985689 -0.046256732 -0.0347216 -6.6834566e-08
-0.14564039 0.034985133 0.15437335 -0.19868946 -0.08939552 -0.04325676 -0.10322334 0.08487281
0.15057705 -0.12621598 -0.17958519 0.06431113 0.047485653 0.13512039 -0.14908531 0.029934622
0.07309979 -0.13269047 0.040532578 0.15984134 2.1287368e-19 -0.002357377 -0.008065093 -0.1272582
-0.03597085 0.023232447 -0.020987734 0.011264725 0.07496255 0.033529535 -0.0099666715 0.069050975
-0.024223037 -0.005247795 -0.043552697 0.025613708 -0.024721043 -0.14291611 -0.08543492 -0.035985555
-0.052085638 0.0006253509 0.8205815 -0.2509541 0.13164786 -0.09501813 -0.032097984 0.09618529
-0.035393555 0.0062358226 0.010102572 -0.079071894 0.011810119 0.029365275 -0.06646396 0.12707841
0.01146274 0.04775548 -0.047024373 -0.041269146 -0.05274473 0.1394276 -2.2258933e-20 -0.06599972
0.04330467 -0.17103072 0.117242634 0.16528113 -0.0047172313 0.0036596209 -0.02815145 -0.07445456
0.019959418 -0.17929408 -0.008480399 0.07931409 -0.119068235 -0.06251691 0.17624363 -0.06627779
-0.023245687 -0.22030607 0.008250843 6.137563e-13 0.031389836 0.13408393 -0.11813779 -0.063567
0.12266685 0.3533903 0.0086940825 0.16670336 0.19569783 -0.09511243 -0.21390001 0.054094248
-0.16242078 0.1955978 0.19145332 -0.05013877 0.06299655 0.07037586 0.020349402 -0.046001423
0.071818136 0.09139783 0.13138957 0.09279277 -0.007611073 -0.047187157 0.113657914 -8.7918386e-05
0.0046969135 0.091208816 -8.791553e-05 -0.00906803 -9.124244e-05 -0.10040051 -0.0073672957 0.00038533844
-0.0075960685 -3.9097608e-28 0.01778949 -3.9276173e-28 -2.4587574e-20 0.54037285 0.032873422 0.100546874
-0.0703905 -0.022266945 0.2573902 0.17230578 8.8543484e-10 0.074619345 0.16851029 8.8568275e-10
-0.025546385 3.7978682e-09 -0.041541044 -0.025670517 0.008864722 -0.025229756 -5.571121e-22 0.024689738
-5.571345e-22 -2.0237231e-19 0.032538217 0.0630629 -0.15076558 0.023976007 0.012262621 0.024814324
0.18311627 -0.001632001 -0.12338349 -0.123851456 -0.0016306577 0.009156281 -0.002284068 0.121622935
0.013560829 -0.010445109 0.017502904 -4.0182812e-33 -0.006998449 -4.0176476e-33 -1.911015e-25 0.05334697
0.0127142565 -0.11662741 -0.056669153 0.0004510819 0.016568836 -0.114456594 -0.0003114496 -0.14095652
0.23872736 -0.0003111283 -0.017598437 -0.00064145995 -0.07671998 0.0027515844 0.12890303 0.004018914
5.8785167e-27 0.015951898 5.885388e-27 2.7946338e-23 -0.050842725 -0.033072427 0.1571239 0.12404575

model.encoder_module.convs.0.m_net_list.0.bias.weight f4 [8, 21]
00000000: 35f2 cb3d e8ca a93c e121 0cbe 4746 56be
00000010: 7bb2 13be 10c4 dfbd 4107 1a3d 380e 273e
00000020: ef03 8d3d 854a 0e3e 88da 113e 96aa 80bd
00000030: e542 2f3e 5edd 6dbd 4823 edbb de49 0d3e
00000040: 030f 5b3d 16de 4f3e 3dc3 22bd 6893 2dbe
00000050: db3f 25bc d5d5 6a3e b1a7 1fbe e608 523e
00000060: fd2f 0ebe 53cb 833d 1278 c93d 65f3 c23d
00000070: 1527 2bbd 2546 173e 8b72 c63d c8db 66bc
00000080: e497 853c 4179 76bd 7e90 11bd 4c1d ae3d
00000090: b8ae 00be f914 543e 04a5 363e 3d55 1dbe
000000a0: 9a74 40bc 48eb 723d 91c8 673d 6cc7 183e
000000b0: a69d 2bbd 23e7 cf3d 27b2 b7bd 8ea0 d4bd
000000c0: 9516 e9bd 4b6d dbbb e8b9 c23d c845 27bd
000000d0: 0212 f8bd 6b85 293e b914 77bc d1a7 22be
000000e0: 3542 7bbd bb36 95bd 5566 12be c940 d2bd
000000f0: 1055 0bbe 0a2f f8bd aa5e 803d a320 8cbd
00000100: 0889 ad3d 5ca5 f0bc 1899 c4bd cf0d 433e
00000110: b506 94bd 1759 d3bd 3056 483e 9cd5 b83d
00000120: 2ae6 fcbd 942b 48be e65b 5abe 2685 19be
00000130: 67cd 27bd 497a 283e 0852 71bd 2d45 2c3e
00000140: ab8c 673d 8164 b1bd 7413 d93d a6e6 d93b
00000150: e49f 073e d141 48be 40fd 243d 43e1 f33d
00000160: d246 b0bd 7ad2 903c 2814 393d e762 27bd
00000170: 8cb3 b5bb ec4f aabd f05f 293e c796 e1bc
00000180: c61f 05be e167 643d b935 493e 514d 373e
00000190: f207 09be 71b6 0fbe 05cc 233d 413b f63d
000001a0: 052e c93d 1af6 eabe d497 31be fd9c 25be
000001b0: 9a4b 44be 2b33 5f3e 2da7 c3bf 5101 13be
000001c0: 28f5 2ebd 3b8f 4d3d b5a3 593b e932 68bd
000001d0: 6001 26be af2a 03bd 12f0 c8bd 3eb7 a4bd
000001e0: 860d 54be d52c 863d 1cb2 ee3c f4cf 91bc
000001f0: 62a2 143e 5f9e a83d e3bb 823d 7208 903e
00000200: 41f1 22be 7bb4 3ebe 6375 303e c16b 0abe
00000210: a9df b13d 4669 1fbd 1864 ee3d 12ca 143e
00000220: 09d2 0bbe 28eb 653e af67 2dbe d249 4c3e
00000230: 8b4d 3a3e a616 1d3d 4418 ebbd 4596 47bd
00000240: 31ae acbd 9f82 eabd 5a75 623d b5db 10be
00000250: 5430 c53d e82d 61be b8c9 723c e9d7 1d3e
00000260: 25b6 08be 29fc 66bd b412 a23d 4435 703e
00000270: 971c 97bf ea23 6cbc 7d58 393d e648 253e
00000280: b076 b7bd 3e43 69bd 871a b2bd 5fd5 47be
00000290: f9da b7bd 11ab a2bd ad06 243e 199e da3c
0.09958307 0.020726636 -0.13684799 -0.20925246 -0.14423554 -0.10926068 0.037604574 0.16314018
0.06885516 0.13895614 0.1424352 -0.06282537 0.17115362 -0.05807244 -0.007236872 0.1379771
0.053481113 0.20299563 -0.039736975 -0.16950762 -0.010086025 0.22933133 -0.15591313 0.20511207
-0.13885494 0.064352654 0.09837355 0.0951908 -0.04178532 0.14772852 0.09689816 -0.014090486
0.016307779 -0.06017423 -0.03553819 0.08501682 -0.1256665 0.20711125 0.17836386 -0.15364547
-0.01174655 0.059306413 0.05658776 0.14919823 -0.041898392 0.10151508 -0.08969527 -0.10382186
-0.1138126 -0.0066963783 0.09508115 -0.040838033 -0.1211281 0.16554801 -0.015080624 -0.1588433
-0.061342437 -0.0728583 -0.14296849 -0.10266263 -0.13606668 -0.12118347 0.06268056 -0.068421625
0.08473402 -0.029375724 -0.09599513 0.19048236 -0.07227842 -0.10319727 0.19564128 0.09025118
-0.12348588 -0.19547874 -0.21324119 -0.14992198 -0.04096737 0.16452898 -0.05891612 0.16823263
0.056530636 -0.08661748 0.105994135 0.00664981 0.13244587 -0.19556357 0.04028058 0.119082
-0.08607258 0.017678488 0.045185238 -0.040865805 -0.0055450853 -0.08316025 0.16540504 -0.027537717
-0.13000402 0.05576313 0.196494 0.17900588 -0.13381937 -0.1403444 0.03998949 0.120230205
0.09823231 -0.45890886 -0.17343074 -0.16173168 -0.19169465 0.21796863 -1.5285393 -0.14355971
-0.042714268 0.050185423 0.003320915 -0.056689177 -0.16211462 -0.032023128 -0.09811415 -0.08042763
-0.20708284 0.0655152 0.029137664 -0.017799355 0.14515069 0.08233332 0.06383493 0.28131443
-0.15912344 -0.18623535 0.1723228 -0.13517667 0.08685238 -0.038918756 0.11640185 0.14530209
-0.13654341 0.22452986 -0.16934083 0.19950035 0.18193643 0.038351677 -0.11479238 -0.048727293
-0.08431662 -0.11450695 0.055287696 -0.14146312 0.096283585 -0.21990168 0.014818601 0.15414394
-0.13350733 -0.056392822 0.079137236 0.23457819 -1.18056 -0.014412859 0.045250405 0.1614109
-0.08958185 -0.056948893 -0.08696466 -0.19514988 -0.089773126 -0.079427846 0.16018172 0.026686715

model.decoder_module.convs.0.m_net_list.0.weights.weight f4 [64, 21]
00000000: 4e13 31bd 00ab a43b 5e2a 233b cbe1 c9bd
00000010: 0605 033d d780 f9bc 098e 04bd ff8a d23d
00000020: 2aa2 0e3c 5c3f 323e 192e c8bd d590 7cbd
00000030: 3773 1f3e b44c 313c 1117 fc3c fec5 c43c
00000040: 219b 2c3c 66b9 83bc ccf9 15be 8a5c 0b3d
00000050: ed25 6dbd 0182 0539 e3a6 f23a fbe9 23be
00000060: bc60 113d 9d03 dcbd a060 cabc 34d7 893d
00000070: fc2b f23b 9dcf 3ebd a969 a53d 5ea4 dbbd
00000080: a4a7 70bd d6ea debc 3cea 9fbd dc5c 323d
00000090: 7ae3 913d 40a5 adbd 244c 2e3e 1b09 4e3e
000000a0: 9025 0bbe 5cd8 0c3d 7376 0fbc e107 0fba
000000b0: 0dfa ac3d 98e7 a0bd cad8 e43d 5728 e6bd
000000c0: 726c 103e 018c 103e 7b5b fbbc e256 97bd
000000d0: 801e b0bd 8048 6cbe 6e0a e3bd a23e acbd
000000e0: 7b5b 2f3e 080e c33d f28d 57bd 0122 a63d
000000f0: c947 23be 0738 193d 2ab0 34be 279a cf3c
00000100: e377 533b 1c8a 9d3c 02a7 2e3d 1822 c6bd
00000110: 236c fdbd 9f6f d0bd a788 e33c f700 1ebc
00000120: d99c 243e c9cf e3bb dccd 9c3d 35f6 f3bb
00000130: 5b2a 003e fee7 12be 5d71 0ebe 6401 b83d
00000140: 8599 99bd 27f3 7dbc 1b94 06be 4a55 f73d
00000150: cede 233d 5be5 0bbc 2ca8 a63c b8c7 4c3c
00000160: 991a d8bd 5dc4 ffba cf15 0f3d 6c0d a33d
00000170: 53d8 333e 527b af3c 9ad6 a33d 4201 48be
00000180: 0827 17be 4fc0 5dbc a447 f63d d661 f8b9
00000190: a7d9 283e e428 d3bd 2fc8 1bbe 1940 dd3d
000001a0: f9bb 38bc 128f 933d 9865 44bb 11cb 573e
000001b0: 8968 5ebd b464 86bd 2434 93bd eb25 efbd
000001c0: e20e 2a38 633e 383e d6eb aabd 6d83 173e
000001d0: edf2 99bd ab93 03bc fa52 3d3e e15a 4db9
000001e0: f63c 30be d727 373e bd9c dbbb 674a 0fbe
000001f0: 1390 fabc c734 c1bc 7d6b 9ebd 9ca6 5e39
00000200: 3b4a b0bd 8d40 00be f484 d8bd 6a97 ea3d
00000210: e7c0 f5bc b552 b53d 3375 3bbd 7c90 90bd
00000220: bcab b8bd d2f0 95bd 7c62 abbb e1f4 333e
00000230: 4b4b 533e 7c59 51bd 8767 0bbe dda3 ec3d
00000240: 9b90 3b3d a946 6e3d 231d 9c3d 2bb0 1f3e
00000250: d93b 37bc 238c 813d d467 5d3e 8024 033e
00000260: e2b7 cd3d b6d5 9fbd ac1f 743e d467 10be
00000270: 4750 823d 6ba1 acbd 96bf e03d bfb6 dc3c
00000280: 0bb9 7dbc 6620 403d 9e18 8b3d 1711 a33c
00000290: d215 e3bc a9fb 85be 764b eebd bd3e b83b
000002a0: ea4f adbe 39e2 b4bd 8f15 e7bd 709a 083e
000002b0: ce50 2e3c 2eba ecbd d09e ea3d dbdc febd
000002c0: 7747 b63d 0325 98bd 3ccf c03d c5ae a03c
000002d0: c2b6 62bd bda2 58be 4794 f9bd 7932 16be
000002e0: 452b cc3d cbe3 08be 79fb b93d 7b50 653c
000002f0: bb4b 88bd 6f7a f93e 0213 683e 9a79 4a3b
00000300: ad7f 9dbd 0092 04be f208 cb3e 3582 893d
00000310: 50fc fe3d d279 853d 6062 0ebe 4027 2cbe
00000320: fe89 8c3c b9fb f5bd f538 ba3c 40c7 45be
00000330: 9a03 d03d 51ba fa3d 4fb7 503e f408 14bd
00000340: 9595 09be 5124 19be 1422 013e 1d95 30be
00000350: 2a0e b03c d5cf 70bd 7676 c93d 7103 01bf
00000360: 40bf 7dbc f715 063c e981 4a3d 6e6c 233e
00000370: 6ec4 03be b427 67bd d2d1 463e f0c0 6d3c
00000380: 88fd 76bd dee5 223d 5586 9d3c a051 52be
00000390: 666f 573d af85 063e 4249 b03d e828 97be
000003a0: 8f23 323d 676f e7bc 951e 30bd ec45 c8bd
000003b0: 628a bf3e e0c9 f83c 4c49 1f3d 0fb9 933d
000003c0: b64f 6c3d 1e82 68bb 20ab 373e 959a 03be
000003d0: 484b f2bc c97e d5bd e060 38be c559 bb3d
000003e0: 6708 883d a81f 6bbd 88c5 823d c1fd f03d
000003f0: 3061 853d 00ab 48be c1ec 193e c31c 1abe
-0.0432313 0.0050252676 0.002489708 -0.0985752 0.031987213 -0.030456943 -0.032362018 0.10280418
0.008705655 0.17406982 -0.097744174 -0.06166156 0.15571295 0.01082151 0.030772718 0.024020191
0.0105350325 -0.016079616 -0.14646071 0.0340238 -0.057897497 0.00012732299 0.0018512871 -0.16007225
0.035492644 -0.10742877 -0.024704278 0.067305 0.0073904973 -0.046584714 0.08076794 -0.1072471
-0.058753625 -0.027211588 -0.078083485 0.04354559 0.07123466 -0.084787846 0.17021233 0.20120661
-0.13588548 0.034386024 -0.008756268 -0.0005456191 0.08446131 -0.07856673 0.11174162 -0.11238163
0.14103869 0.14115907 -0.03068327 -0.073896185 -0.085995674 -0.23074532 -0.11085974 -0.08410384
0.17124741 0.095241606 -0.052625604 0.081119545 -0.15945353 0.037406947 -0.17645326 0.02534206
0.0032267503 0.019230895 0.04263974 -0.096744716 -0.12374141 -0.1017754 0.027775122 -0.009643785
0.16075458 -0.00695226 0.07656452 -0.0074451216 0.12516157 -0.1434631 -0.13910432 0.0898464
-0.07499985 -0.015499867 -0.13142435 0.120768145 0.040007405 -0.008538569 0.020343862 0.012498789
-0.10551948 -0.0019513477 0.034932908 0.079615444 0.1756299 0.021421108 0.079999164 -0.1953173
-0.14760983 -0.0135346195 0.12025383 -0.0004737514 0.16489278 -0.10310534 -0.15213083 0.10803241
-0.011275285 0.07205023 -0.002996778 0.21073557 -0.05429891 -0.06562176 -0.071876794 -0.11677154
4.054502e-05 0.17992549 -0.083457634 0.14796229 -0.075170375 -0.008030812 0.18488684 -0.00019584179
-0.17210755 0.17886291 -0.0067020343 -0.13993226 -0.030586278 -0.023584737 -0.077353455 0.00021233637
-0.08607908 -0.12524624 -0.10572234 0.11454661 -0.02999921 0.08853666 -0.045766067 -0.07058808
-0.09017131 -0.073213235 -0.005230246 0.17573883 0.2063419 -0.05111073 -0.13613711 0.11554692
0.045792203 0.058172856 0.07622745 0.15594546 -0.011183702 0.06325557 0.21621639 0.12806892
0.100448385 -0.07804434 0.23840207 -0.14102107 0.06362968 -0.084292255 0.10974042 0.026942609
-0.015486012 0.046905898 0.06791805 0.01990561 -0.027720366 -0.26168564 -0.11635487 0.0056227134
-0.33850032 -0.08832211 -0.11283409 0.13340163 0.0106393825 -0.115589485 0.11456072 -0.124444686
0.089003496 -0.074289344 0.09414527 0.019614587 -0.055350073 -0.2115583 -0.12186485 -0.14667691
0.099691905 -0.13368146 0.09081168 0.013996239 -0.066550694 0.48726222 0.22663501 0.0030895234
-0.07690368 -0.1294632 0.39655262 0.06714288 0.124504685 0.06517376 -0.13904715 -0.16811848
0.017155644 -0.12010903 0.022732237 -0.19314289 0.10156937 0.12242568 0.20382427 -0.03614135
-0.13435967 -0.1495526 0.12610656 -0.17244382 0.021491129 -0.058791954 0.09837048 -0.50395876
-0.015487492 0.008183948 0.0494403 0.15959331 -0.128679 -0.05643435 0.19415978 0.014511332
-0.06030038 0.03977 0.019229094 -0.2053895 0.052596472 0.13136934 0.08607723 -0.29523396
0.043490943 -0.028251363 -0.042997915 -0.097789615 0.37410265 0.030369699 0.03888826 0.072130315
0.057693206 -0.0035477947 0.17936373 -0.12851937 -0.029576913 -0.10424573 -0.18005705 0.091479816
0.066422276 -0.057403237 0.06385332 0.1176715 0.06512678 -0.19596481 0.1503172 -0.15050034

model.decoder_module.convs.0.m_net_list.0.bias.weight f4 [8, 21]
00000000: 5204 99be 8b84 323e a879 9ebe 56ca 8dbe
00000010: 12e7 85be cd33 053f bdf0 88be 6686 72be
00000020: 22e5 a4bd 8aff 583f b86d 973d 5c51 7fbd
00000030: b653 8cbc 6c35 81be 364d 853d e072 33be
00000040: bcfa b93d 95c1 21be 4ca0 02be bfaf 43be
00000050: 59b8 3bbe 37bb 9cbe be34 0cbe 3707 0dbd
00000060: 2c9f 3d3d 1d0a 4abd 2b7d 8dbe d0d9 d03d
00000070: 69bf 97be 74bd ecbd 8580 a63c 1c57 93be
00000080: d3b0 46be 5f05 a9be 66d6 6ebe ad80 9cbe
00000090: dfa4 4ebe cfaf cabe 1866 07be 0079 b1be
000000a0: 5ea0 babe 5bbe f0be 87f9 83bc 9d3a 073e
000000b0: e2ec 7c3e 351d ffbd 9818 53bb 7a5b b23e
000000c0: c779 703e 02aa 15bd 7b47 d23d 5f52 ab3c
000000d0: df75 c6be 0048 30be d40f 84be 3af9 45be
000000e0: bcee 4e3e ad53 b03e a455 4a3e 400e e1be
000000f0: 7953 3e3e da0a f3be ef8f 44bd f75e eb3d
00000100: 7099 413e 7b66 0dbe cf7d c13c e550 e9bc
00000110: 1389 103f 8fa0 363b cabf eabd fc0e 1b3e
00000120: 1bcc 3d3e 9dd0 96be b7a6 8dbd 7998 2abe
00000130: 620b dbbc 16f5 8ebe bbdd 493e dff8 13be
00000140: c73b f3bd 6652 d1be 55cb adbe 9526 04be
00000150: a93c 12be 8fb9 af3d 2a59 f0bd 05f9 42be
00000160: 6402 55be e0f3 943e 65d1 6dbe e83f 0fbc
00000170: 9304 cdbd f747 7cbd 242d 9dbe 03bb 39bc
00000180: ea62 b6be 2f00 b73d 3e3e 183d 3627 83be
00000190: c20b 02be 33ca d5bd ddb5 a5be dc9a 4bbe
000001a0: 811e 15bf 8034 043d d037 99be da85 9b3e
000001b0: e770 eebe b536 8ebe 0a73 e2be 79a2 a8bc
000001c0: 25e3 19be 9019 fbbe acff 27bd cd0b 90be
000001d0: 6f11 f6bd fb44 90be 6831 bebd a698 f5be
000001e0: 702c 7c3e c713 fabd ec65 6abe ba3f f3be
000001f0: 68b2 c5be bb57 34be 4eb0 22be 0422 24bf
00000200: c13b dabd 96a2 34be 0c23 efbe 556c 9dbe
00000210: ff28 433c aac9 82bd 23ed d3be bcb8 09ba
00000220: baef f2b9 faca f5be 8156 6c3e bd9a 43be
00000230: 091a c4be 6fbd f9be f78f 84be 7039 fabe
00000240: fe12 ea3e 7f6e 78be d819 e6bd b562 083e
00000250: b65f d9bd cea4 a83d 4745 81bd 6971 c4be
00000260: 988b 78bd 7a94 4dbe 9a2a acbe f21e c6be
00000270: 00df b53d 2593 efbe 48a3 a3be 7fcb 01bf
00000280: 1b84 9ebe 84a2 82be 60a2 d8be 9622 c4be
00000290: b12e b0be 215c 99be f6b9 87be 2eb9 bebe
-0.2988611 0.17433374 -0.3095219 -0.27693433 -0.26152855 0.52032167 -0.2674617 -0.23684081
-0.08051516 0.8476492 0.07393974 -0.06233345 -0.01712976 -0.2523607 0.065088674 -0.1752429
0.09081027 -0.15796502 -0.12756461 -0.1911001 -0.18332042 -0.30611584 -0.13691995 -0.03443071
0.046294376 -0.04932605 -0.27634558 0.101977944 -0.29638222 -0.11559573 0.020324955 -0.28777397
-0.1940339 -0.3301191 -0.23323974 -0.30566922 -0.20180081 -0.39587256 -0.1322254 -0.34662628
-0.36450475 -0.4702023 -0.016110195 0.13205953 0.24699739 -0.12456743 -0.0032210704 0.34835416
0.23483954 -0.036539085 0.1026754 0.020913301 -0.38761804 -0.17214966 -0.25793326 -0.19333354
0.20208257 0.3443884 0.19759232 -0.43956184 0.1858653 -0.47469217 -0.04798883 0.114927225
0.18906188 -0.13808624 0.02361956 -0.028480956 0.5645916 0.0027866696 -0.11462362 0.15142435
0.18534891 -0.29456034 -0.06916564 -0.16659726 -0.026738826 -0.2792136 0.1971349 -0.14450406
-0.11876636 -0.40883178 -0.33944193 -0.12905343 -0.14280953 0.08580314 -0.11735757 -0.19040306
-0.20801693 0.29092312 -0.23224409 -0.008743264 -0.10010638 -0.06159207 -0.30698502 -0.011336091
-0.3562234 0.08935582 0.037168734 -0.25615853 -0.12699798 -0.10438957 -0.32365313 -0.19883293
-0.5824967 0.03227663 -0.29925394 0.30375558 -0.46570513 -0.27776113 -0.44228393 -0.020585285
-0.15028055 -0.4904294 -0.041015312 -0.28134003 -0.12015044 -0.28177628 -0.09286767 -0.47968024
0.24626327 -0.122108035 -0.22890443 -0.47509557 -0.38612676 -0.17611592 -0.15887567 -0.64114404
-0.106559284 -0.17640147 -0.46706426 -0.30746713 0.01191163 -0.063861206 -0.41391858 -0.0005253663
-0.00046336447 -0.4800642 0.23079874 -0.19101997 -0.38301113 -0.4877734 -0.25891086 -0.48871946
0.45717615 -0.24260901 -0.11235398 0.13318904 -0.106139585 0.08234559 -0.06312042 -0.38367775
-0.060680002 -0.2007617 -0.33626252 -0.38695484 0.088804245 -0.4679195 -0.3196051 -0.50701135
-0.30960163 -0.25514615 -0.42311382 -0.38307637 -0.34410623 -0.299531 -0.26509064 -0.37250656

model.decoder_module.convs.1.m_net_list.0.weights.weight f4 [128, 21]
00000000: a371 53bf e832 f23d 3463 89bb 7ad4 fcbc
00000010: 2066 1a3d 4499 853e 6925 05bd 38e7 a23d
00000020: fc9b bdbd 6113 94be e4f4 cdbd 2977 afbd
00000030: 5731 fbbd 401f 51be 09ad d73d f59a 36be
00000040: f6db 84be d054 9bbc 1ab3 713d 9dfb 50be
00000050: 1189 1fbe f936 1e3f 5a44 d0bd 5c5f b53d
00000060: fc54 043e 59a5 46be 315b 6ebe a077 36be
00000070: 1291 803d 7339 083e 711e aebd 0e54 65bd
00000080: 5e6b 02be d70e 263e 0acf c23d 1cd2 fb3d
00000090: 69f2 233e 5863 36be e402 aebd ea54 cd3d
000000a0: 5b5c 27be 34f5 8d3e adfd 613f 9354 06be
000000b0: 146a bbbd e635 d4bd 9f2b 493d 151f c33c
000000c0: adff 2fbe d372 2b3d 74c8 6abc c55f af3d
000000d0: 6867 5e3e f174 a93c f056 6fbe 26b8 173e
000000e0: 4ebf 31bd 9cb0 8c3e 2235 f4bd 1c64 153c
000000f0: 60ed 183e 8c54 323d e702 2b3e 022e 2d3f
00000100: 1d6f 443d 639d 07bf 5d09 7b3c a01a 24be
00000110: 4037 063e ac32 a9be b9b5 aabd 33c7 53be
00000120: 1af1 043f 1bec 333e 05f0 c5bd 899e 883d
00000130: 8e15 c53d 0f0e 203e 4a13 66bc 2487 f2bd
00000140: 5e5b abbd 9047 273e 4725 a23c 5de4 62bc
00000150: 43be 7f3f c5dc 3f3e 3dd5 9f3e 95ff d3bd
00000160: 18ad b2bc d02c b83d 94b6 093f d5fd 87bd
00000170: 8405 0e3e 8659 dfbe 1612 1cbe 4da5 04be
00000180: dbbc f5bc 5b5e 4cbd 47b9 efbd 4a36 e23d
00000190: 4c91 6aba a381 16be 9677 36bc c8c7 dbbd
000001a0: 4fc2 0d3e 693e 40bf cf7d 3c3e 18ba 113e
000001b0: 7273 6e3e deb2 99bd c8be 9c3d 5902 353e
000001c0: 6162 50bc 1b97 883d 0e79 32be 7f6f 45be
000001d0: 4e06 573d 9133 0abe 538c dfbc 400c a63d
000001e0: a686 49bd c9fa 9ebd a7de 6dbe be60 33be
000001f0: 0eac be3b 6dd0 f03b 7272 51bf 7c6f 8abe
00000200: 43c9 d7bd 18bc 4fbd d9cb 2f3d 5ca3 b93e
00000210: 4083 873c 0f6f e3bd 81d2 0a3e b60d dabd
00000220: b537 22be 9021 7d3b a1d6 323e 041f 81be
00000230: 1584 133c 18cd bcbc 4dd1 973d 0ea0 1ebe
00000240: 105c a6bd 66c3 e8bd b74e 963d fd06 7a3f
00000250: 8303 8bbe 28ab 8ebe 9d16 4d3d d93a 5a3e
00000260: 2083 cc3d 2813 9bbe 9b0c 07be 3b96 8abd
00000270: 6c66 e63e e4e8 de3d 1472 5b3d c14d 813c
00000280: 9b1f 593c feed 7a3d 4a23 3ebe 4fc4 b83d
00000290: 2f13 f5bd e122 94bc 5842 a23c 0139 523d
000002a0: 0339 1b3f 3df3 0a3e 1241 96bd 66e0 443e
000002b0: c5ec 653e 59db ccbe 1409 b13d 6226 f73d
000002c0: 1aea 50be 3fc6 17be 5c42 29bc ee30 0dbe
000002d0: 0901 ebbd f435 223e 7d43 11be 54c1 9a3b
000002e0: 435e 103e 81fc b0bd 50f0 ebbd 8ba5 153e
000002f0: d753 883c 359f 07bf 77f0 eb3d e348 13be
00000300: 51d0 0c3e 4593 aabd c275 9d3d 00ce aa3d
00000310: 0a49 29bd 160d 783c d62d 9a3e 8f70 0d3e
00000320: 70db 493d b1f4 d8bd f29d 613d 08ca 6ebd
00000330: 890d 56be be27 c0bd 92da d13d 2028 c63c
00000340: 9f70 d73d 97b8 2fbd f670 f2be 653e f7bd
00000350: d0db ab3d 9d19 5c3e fef0 e53d 03d2 b6be
00000360: 78f0 a93d 4db1 6cbc 874f 2abe 2748 9dbc
00000370: c357 d23d 0353 20bd 8322 d03c 6b5c 703d
00000380: 496b 02be 6a28 3d3c 0629 403e 8bfa bbbc
00000390: bfc3 2bbe 6b10 0abe 0676 e3bd 7934 28bf
000003a0: fd28 993d b4b6 063e 48de 8abd 3e02 953d
000003b0: 58cf 9abc 7ae9 45be 9471 003d cf15 d03c
000003c0: d0c4 4abc af5d c3bd ccd7 37bd 437d 163e
000003d0: df0c 38bd 8e64 4f3e 2b36 583d 47af 16be
000003e0: 1e63 2cbe 1f42 0fbe 6f9b 26be dd9a 0f3e
000003f0: af72 f7be e58c 163d cf04 943d d231 f6bd
-0.8259527 0.11826116 -0.004192734 -0.030863035 0.03769505 0.26093495 -0.03250638 0.07954258
-0.09258267 -0.28921035 -0.10056475 -0.0856765 -0.1226527 -0.20422077 0.10531051 -0.17832549
-0.25949067 -0.01896134 0.059008695 -0.20408483 -0.1557963 0.6180263 -0.10169287 0.08856079
0.12923044 -0.19399013 -0.23276974 -0.17819071 0.0627767 0.13303165 -0.085019 -0.055988364
-0.1273627 0.16216598 0.09512146 0.122959346 0.16010441 -0.17811334 -0.08496645 0.10025962
-0.16343825 0.27726138 0.88277704 -0.131182 -0.09151092 -0.10361843 0.049113866 0.023818532
-0.17187376 0.04185755 -0.014330018 0.085631885 0.21719134 0.020685645 -0.23373008 0.14816341
-0.043395333 0.27478492 -0.11924197 0.009118106 0.14934301 0.04353766 0.16700326 0.6764833
0.04795753 -0.5297453 0.015322057 -0.16025782 0.13107014 -0.33046472 -0.08335442 -0.20681457
0.5193039 0.17570536 -0.09664921 0.06670863 0.09623252 0.15630363 -0.014042685 -0.11842182
-0.08367036 0.16335893 0.019793166 -0.013848391 0.9989969 0.1873656 0.31217375 -0.10351483
-0.021811053 0.08992922 0.5379422 -0.066402115 0.13869292 -0.43622988 -0.15241274 -0.12953682
-0.02999728 -0.049894672 -0.11705261 0.11045511 -0.00089480425 -0.1469789 -0.01113691 -0.107314646
0.13843654 -0.7509523 0.18407367 0.14231145 0.23286226 -0.07504819 0.07653576 0.17676677
-0.012718768 0.06669446 -0.17428991 -0.19280814 0.052496247 -0.13496234 -0.027288591 0.08107805
-0.049200676 -0.07762677 -0.23229466 -0.17517373 0.0058188504 0.007349065 -0.81815255 -0.2703818
-0.105364345 -0.05071649 0.042919014 0.36257446 0.016542077 -0.11105167 0.13556863 -0.106471464
-0.15841563 0.003862474 0.17464687 -0.25218976 0.009003659 -0.023047015 0.07412968 -0.15490744
-0.08123028 -0.11365394 0.073392324 0.97666913 -0.27151117 -0.27864957 0.050070394 0.21311511
0.099859476 -0.30288053 -0.13188402 -0.067669354 0.45000017 0.10884264 0.05357559 0.015784146
0.013252164 0.061262123 -0.18568149 0.09021818 -0.119665496 -0.018083038 0.019807026 0.051323894
0.6063387 0.1356935 -0.0733663 0.19226226 0.22453602 -0.400111 0.0864431 0.12067868
-0.20401803 -0.14821719 -0.010330763 -0.13788196 -0.11474807 0.15840894 -0.14185901 0.0047227535
0.14098458 -0.08641911 -0.11520445 0.14613931 0.01664154 -0.52977306 0.115204744 -0.14383273
0.13751341 -0.08328871 0.07688476 0.08340073 -0.04132942 0.015139839 0.30113095 0.13812469
0.049281538 -0.10593546 0.05508227 -0.05829814 -0.20903601 -0.0938258 0.10246767 0.024189055
0.10519528 -0.042900648 -0.47351807 -0.12072448 0.08391535 0.21494146 0.11227606 -0.357071
0.08297819 -0.014446569 -0.166319 -0.019199444 0.102706455 -0.039141666 0.025407081 0.058681887
-0.12736239 0.01154528 0.18765649 -0.022946617 -0.1677389 -0.13482825 -0.111064956 -0.65705067
0.07478521 0.13155633 -0.06780678 0.07275818 -0.018897697 -0.19327345 0.031358317 0.025401024
-0.012376025 -0.09539353 -0.044883534 0.14696221 -0.04493415 0.20253202 0.052786034 -0.147153
-0.16834685 -0.13990067 -0.1627023 0.1402392 -0.48329684 0.03675546 0.0722748 -0.12021221

model.decoder_module.convs.1.m_net_list.0.bias.weight f4 [8, 21]
00000000: d03c 1d3e 198d e63d 679f e3be 8007 aebd
00000010: 7658 90bd cf85 98bc d040 e0be f78c ea3c
00000020: 9228 72bc f978 96bf 4619 a3be 795f 15be
00000030: 8c54 08be 3fd1 35be 4476 383e feef 1f3e
00000040: 6b58 51be 5080 95be f200 9dbc 7f11 86bd
00000050: 5fa4 8b3d 9502 343e e148 533c 433f a33e
00000060: 9eba 9ebe 2da5 01bf fa04 a7bc f2a0 d4bc
00000070: a71f d2bd c36d c7be a20a e73d 2836 03be
00000080: 49b2 01bf a9e9 46be 219c 78be 4bc3 babe
00000090: 21a8 d8bd c869 04bf e076 c13e 56d3 b33d
000000a0: a666 1e3d 2361 04be 523c 0c3e 2a46 b33e
000000b0: 56d9 0a3d 8721 89be 78d9 9ebe 1a6f 4a3f
000000c0: 82c4 f63d b321 473e 2dfb 2bbe eabf be3e
000000d0: b618 6d3e ef1a a8be b6bc 613e 281e 85bd
000000e0: 78ef b3be 863e 8ebd d2ba d3bd d8f3 e4bd
000000f0: 3373 a7bc 8fcc bdbe 3df2 b83e 59ee 4bbd
00000100: 1582 d43e 5ca4 bfbb d9e8 5a3e 08f5 17be
00000110: 8676 6e3e c564 463e 2c20 afbe 1d23 2c3e
00000120: d1b7 bb3f 06b6 6fbe 9e84 cbbd e184 43be
00000130: 19ad 963d 238b 8bbe 7513 2e3e f7b2 b8be
00000140: 7f59 1c3e a9c0 8fbe a2cc 533e cd50 edbd
00000150: 0f6b 08bd f2ca 423e 2ec8 debe fe38 e0bd
00000160: b30a 5cbd fcfe f23e 2d92 87be b4b9 993e
00000170: 7427 453c f44a e2bf 9e66 a93e 2d08 043e
00000180: f97c 393d 3273 ffbd 4fdc 4e3e 8641 eabd
00000190: eebe cd3c 17d3 0fbb ba47 543d 426d 3bbd
000001a0: f3f3 0dbd 3e0b 4bbe 81bf cc3c 9f4c 6cbe
000001b0: 4bcc e7bc d571 323f 4cce df3e 288e 18be
000001c0: 3c09 73bc 4aff ae3e 277f 54bf 3e32 bebe
000001d0: e55b 163f 6d39 36bd e26a 383e 8fde 103f
000001e0: 0023 553c 598a 143f 39b0 5cbe 2020 b33e
000001f0: 12bd 9dbe 0030 493d a8b0 203e c86d c4bc
00000200: ae6e 62be b786 9c3e 24c2 51be a1ed eb3f
00000210: 5463 ec3c 60e1 dc3d f401 a73e 8c5d 13be
00000220: 88b1 433e 5997 633d 0621 8d3e a560 9e3e
00000230: 37d7 613d f733 3c3e 3a36 00be 3a5a f43d
00000240: 309a fb3c e8b6 cc3d 2e64 883d 2f66 4b3e
00000250: 95a4 babc 9373 ac3e 53fa 073f dd17 753d
00000260: 1aa8 ba3e ae63 983e c3aa e5be f5fa 243f
00000270: de66 693f 676f 05be 70bf 1abd 77fe febd
00000280: 7056 323f 2f3c 9dbd 9571 b33d 4a76 e13d
00000290: f5ec 8c3e a925 b23d d217 143e 7c1a acbe
0.1535523 0.11257381 -0.44457552 -0.08497524 -0.070481226 -0.018618492 -0.43799448 0.02863167
-0.0147801805 -1.1755668 -0.3185522 -0.14587201 -0.13313502 -0.17755602 0.18013865 0.15618894
-0.20443885 -0.29199457 -0.01916549 -0.06546306 0.06818461 0.1757911 0.012895794 0.31884202
-0.31001753 -0.50642663 -0.020388115 -0.025955651 -0.102599435 -0.3895093 0.11281325 -0.12813628
-0.50662667 -0.19425072 -0.24278308 -0.36477122 -0.10578943 -0.5172391 0.37786007 0.087805435
0.038672112 -0.1292768 0.13694885 0.35014468 0.033898674 -0.26783392 -0.3102529 0.7907578
0.120492 0.19446449 -0.16795035 0.37255794 0.23153958 -0.3283305 0.22044644 -0.064998925
-0.35143638 -0.06945519 -0.103383675 -0.11179322 -0.020440673 -0.37070128 0.36122313 -0.049787853
0.41505495 -0.0058484506 0.21377887 -0.14839566 0.232874 0.19374378 -0.34204233 0.1681027
1.4665471 -0.2340928 -0.09937404 -0.19093658 0.073572345 -0.2725459 0.1699961 -0.3607404
0.15268515 -0.28076676 0.2068353 -0.11587677 -0.033305224 0.1902273 -0.435121 -0.109483704
-0.05372114 0.47460163 -0.2647871 0.30024493 0.012033332 -1.7679124 0.33086103 0.12893744
0.0452852 -0.12473144 0.20201229 -0.11438279 0.025115456 -0.0021945888 0.051826216 -0.045758493
-0.034656476 -0.19828507 0.02499366 -0.23076104 -0.028295657 0.69704944 0.4371208 -0.14897978
-0.014833745 0.34179145 -0.8300652 -0.37147707 0.5873397 -0.04448836 0.18009523 0.565896
0.013008833 0.580236 -0.21551599 0.34985447 -0.30808312 0.049118042 0.15692389 -0.023978129
-0.22112533 0.3057153 -0.20484215 1.8431894 0.028855957 0.10785174 0.32618678 -0.14391154
0.19110692 0.05556426 0.27564257 0.3093311 0.055136885 0.18379198 -0.12520686 0.11931272
0.03071317 0.09995824 0.06659733 0.19863199 -0.022783557 0.33681926 0.5311634 0.05983721
0.36456376 0.2976355 -0.44856843 0.6444543 0.9117259 -0.13030778 -0.037780225 -0.12450879
0.69663143 -0.07677495 0.087618984 0.1100889 0.27524534 0.08698589 0.14462212 -0.33613956

model.prob_model_x._decoder_embeddings.0.weight f4 [1, 8]
00000000: 641b 5bbf 4cdb 403f 03ed 153f 1568 3a3f
00000010: 4604 323f 9c67 47bf 9152 28bf 4857 fb3e
-0.8558867 0.7533462 0.58564776 0.72815067 0.6953777 -0.7789247 -0.65750986 0.49090028

model.prob_model_x._decoder_embeddings.1.weight f4 [2, 8]
00000000: aaeb a33e cb48 71be c258 c33d 8c9e e6bd
00000010: 9484 69bd 9096 29bd b5b4 8239 111c bf3d
00000020: b12d 3c3d 0c1a ddbc 8400 b0bf 93c0 33bf
00000030: 32d7 50bf 2eb2 6cbf f25a bbbf 0f69 87bf
0.32015735 -0.23562925 0.095384136 -0.11260709 -0.057011202 -0.041403353 0.0002493017 0.09331525
0.045942012 -0.02698996 -1.3750157 -0.7021572 -0.8157836 -0.9245938 -1.4637129 -1.0578936

model.prob_model_x._decoder_embeddings.2.weight f4 [2, 8]
00000000: dbf5 693c 9e7e 1bbe d898 30be 5688 743a
00000010: 9c1c 5e39 8b51 ddbc 3f10 3f3e 8b10 373c
00000020: a18c 643f d568 bebe e789 debe ef1b 73bf
00000030: 07ec 7a3f 22b1 3f3f 8ece 443e c08f 56bf
0.014279808 -0.1518502 -0.17245805 0.0009328177 0.00021182228 -0.027016422 0.18658541 0.011173378
0.8927708 -0.37189355 -0.43464586 -0.949645 0.980164 0.7487966 0.1921942 -0.83813095

model.prob_model_x._decoder_embeddings.3.weight f4 [1, 8]
00000000: a58f 3fbe 1c9b 66be e04e db3e e557 9fbe
00000010: 4a3f 213f 6f66 1bbf ab73 e53e bcbb a2be
-0.1870714 -0.22520107 0.42833614 -0.31121746 0.62987196 -0.60703176 0.4481481 -0.31783855

model.prob_model_x._decoder_embeddings.4.weight f4 [2, 8]
00000000: d3e3 b33d 1298 6e3e fe55 2cbe 5fce 30be
00000010: 6810 1bbe 4ab5 8e3b c213 2c3e b937 683c
00000020: 26cd d53e ce6d 893f dada e83e 1e84 09bf
00000030: 3853 5c3e 9ac0 99bf 920c 10bf 766a 58bf
0.087836884 0.23300198 -0.16829678 -0.17266224 -0.15142977 0.0043551074 0.16804412 0.014173442
0.41758078 1.0736635 0.4547947 -0.5371722 0.2151612 -1.2011902 -0.5626918 -0.84537446

model.prob_model_x._decoder_embeddings.5.weight f4 [2, 8]
00000000: ebd3 1b3c df9c e93b aba0 043e ab3c 3cbc
00000010: d721 e2bd dc1d acbc c4d6 b0be b641 e3bd
00000020: efef b13d af45 103f a86e 3b3f 46cb 043f
00000030: b365 49be 1790 63bf 4900 f33e 65a0 33bc
0.009510974 0.007129296 0.12951915 -0.011489074 -0.11041611 -0.021010332 -0.34538853 -0.11096518
0.08688342 0.5635633 0.73215723 0.5187267 -0.19667701 -0.8889174 0.47461155 -0.010963534

model.prob_model_x._decoder_embeddings.6.weight f4 [1, 8]
00000000: d8a7 263f e253 2abf 69fb 323f c651 65bf
00000010: abdf 103f 94e5 5e3f 8f42 25bf b7c7 f9be
0.6509986 -0.66534245 0.6991487 -0.895779 0.5659129 0.8706906 -0.64554685 -0.48785183

exp_avg f4 [16, 1]
00000000: ecd5 34b3 444a 86b4 67dd 853c c5f7 98bd
00000010: 27e5 9bb3 4b1f 76bc 5000 0080 ccf1 3fbd
00000020: 3800 0080 b0ee cab4 c078 0133 7f00 0000
00000030: 80e5 81b3 36ec 07b5 1e84 223d ccdd d7b3
-4.2104077e-08 -2.501348e-07 0.016340924 -0.07469133 -7.2594325e-08 -0.015022109 -1.12e-43 -0.046861455
-7.8e-44 -3.77991e-07 3.0144975e-08 1.78e-43 -6.0487764e-08 -5.063515e-07 0.039676778 -1.0052062e-07

exp_avg_sq f4 [16, 1]
00000000: 2665 c72d a36c 462c 68e8 e63f a4aa 6b3f
00000010: 6f7e 242e fe10 2d3e d88f 8e1f 5250 a93e
00000020: 2dea c917 3478 c135 6906 842c 42ca 811f
00000030: a2bd 1630 770d 2f2f 8d9c 163f fca1 802d
2.26686e-11 2.8197798e-12 1.8039675 0.9205725 3.740158e-11 0.16901013 6.037731e-20 0.33069092
1.3048435e-24 1.4414604e-06 3.7523773e-12 5.496823e-20 5.4839167e-10 1.5920941e-10 0.5883263 1.462385e-11

exp_avg f4 [16]
00000000: 57af 81b3 b20a 9fbe efe7 193e a7b6 9fbe
00000010: 1b98 c3b3 e01b 59bc 01de 9fa1 75f3 3fbd
00000020: 7900 0080 983a 1cbf 1603 8cb3 b91e beb2
00000030: 38c9 40b3 26f2 ac3d bc01 373e f954 e0b3
-6.038925e-08 -0.31062847 0.15029882 -0.3119404 -9.108063e-08 -0.013251275 -1.0833023e-18 -0.046863038
-1.7e-43 -0.61026907 -6.519819e-08 -2.2132882e-08 -4.488649e-08 0.08444624 0.17871755 -1.0446269e-07

exp_avg_sq f4 [16]
00000000: 653f da2e 6363 a23e 69d9 8240 d360 0840
00000010: 4135 352e f073 a53e 4d4b 2b25 5150 a93e
00000020: cf70 0820 5738 9d3f 5277 192e 12af b32a
00000030: f326 a630 8d68 763e 163f b43f eb60 3e2e
9.9247534e-11 0.3171645 4.0890393 2.1309097 4.1201934e-11 0.32315016 1.4857399e-16 0.3306909
1.1556973e-19 1.2282819 3.489415e-11 3.1918267e-13 1.208916e-09 0.2406332 1.4081752 4.328708e-11

exp_avg f4 [16, 1]
00000000: c0bf 88be d7d3 9cbd 0900 0080 7f64 a2bf
00000010: 2d30 533e 85d3 ec31 16b0 353e 9140 93be
00000020: 9f53 cdbe f977 48bf 9a68 85b2 e8ea 0dbf
00000030: 24a0 96bf 8b24 38bf cba6 7bbf 8592 66bf
-0.26708794 -0.07657593 -1.3e-44 -1.2686919 0.20623846 6.892551e-09 0.17742953 -0.28760198
-0.4010286 -0.78308064 -1.5530805e-08 -0.55436563 -1.1767621 -0.7193076 -0.9830138 -0.9006732

exp_avg_sq f4 [16, 1]
00000000: 4614 f840 009b b141 8919 0f19 2fbe 2241
00000010: 495d 8640 b6d6 4433 9cd5 ab41 2676 9340
00000020: 903b a33f 1276 d240 e442 5f2b 3382 eb40
00000030: dc21 1342 79f1 0c41 b16c a540 9bf7 8041
7.752475 22.200684 7.3980835e-24 10.171432 4.1988873 4.5830085e-08 21.479301 4.6081724
1.2752552 6.576913 7.9318344e-13 7.3596435 36.783066 8.808953 5.169518 16.120901

exp_avg f4 [16]
00000000: 47af 5d3e 951b 503c 7300 0080 8ef3 adbf
00000010: d79a 5d3f 3ac0 1bb3 12d5 7a3f 8d5d 363f
00000020: 31d9 0abf ca87 08bf 0e85 3ab3 8ac1 d9be
00000030: e51b c53f c6fc d4bf afd3 31bf bccf 1fc0
0.21648894 0.012701889 -1.61e-43 -1.3589952 0.8656439 -3.626358e-08 0.9798137 0.712365
-0.5423766 -0.533322 -4.3427512e-08 -0.4253047 1.5399138 -1.663964 -0.6946363 -2.497054

exp_avg_sq f4 [16]
00000000: 32bc 5040 b59f f940 6219 0820 08ea 7f41
00000010: 049c d840 529e a333 b728 fe41 5261 0741
00000020: 7c1b 973f aec2 1441 5966 202b 300b 3b41
00000030: 69d8 f141 1a34 8f41 c94b 1240 ae9d f041
3.2614865 7.8007455 1.1528047e-19 15.994637 6.769045 7.619077e-08 31.76988 8.46126
1.1805263 9.297529 5.6985455e-13 11.690231 30.230669 17.90044 2.2858756 30.076992

exp_avg f4 [16, 1]
00000000: 1e71 50be 4c63 e13d e1e8 e63f 68c2 c03e
00000010: 8978 f6bf d9e4 49bf 502c 0abd 895c af3f
00000020: 8c20 33be 38c6 bd3e a7e8 cd3f 9166 02bf
00000030: 7352 863e f065 a1be 2a43 00bf 9dd0 af3e
-0.20355651 0.110052675 1.8039819 0.3764832 -1.9255534 -0.7886482 -0.033733666 1.3700114
-0.17492884 0.3706529 1.6086625 -0.50937754 0.2623478 -0.31523085 -0.50102484 0.34338847

exp_avg_sq f4 [16, 1]
00000000: ab76 6440 bbc5 963e 8ea9 ff40 8561 9440
00000010: f84c 2141 6368 9f40 5df3 ad3e 471e 8741
00000020: 0c63 0e40 f6fe 813f 966c 4e41 59ed ed40
00000030: 95ea a73e 101f f93f ee57 c73f 384c b63f
3.569743 0.2944773 7.9894476 4.6369042 10.081291 4.9814925 0.33974734 16.889784
2.2247953 1.0155933 12.90151 7.435223 0.3279616 1.9462605 1.5573709 1.424201

exp_avg f4 [16]
00000000: 7af9 dd3d f927 b93e 7d73 d23f 12bf b63e
00000010: ef41 05c0 f997 33bf bcc3 8bbd 39c5 1c40
00000020: c34f 323e c29d 093f c0e8 b83f 6986 e93e
00000030: 1a2f f43e 3c5d 24be af2f 1dbf 9b1f 0fbe
0.108385995 0.3616331 1.6441494 0.3569265 -2.0821493 -0.70153767 -0.06824443 2.4495375
0.17413239 0.53756344 1.444603 0.4561036 0.47692186 -0.16051191 -0.61400884 -0.139769

exp_avg_sq f4 [16]
00000000: 956e 7040 7364 c53e f215 5741 a6d8 b93f
00000010: 5a16 8c41 2c3c 1241 590e 793e 4c7a cf41
00000020: 7604 ef3f f977 973f 6f9f 8f41 2851 7340
00000030: d999 2c3f 3eb6 cb3e 3452 4940 ea32 923e
3.7567494 0.385532 13.442858 1.4519241 17.510914 9.13969 0.2432188 25.934715
1.8673236 1.1833488 17.952848 3.8018284 0.6742225 0.39787477 3.1456423 0.2855447

exp_avg f4 [16, 1]
00000000: 5800 0080 cc4c fcb2 da52 d2b3 666d 0239
00000010: 010d 06b4 7b2e ef38 e947 3bb8 7100 0000
00000020: ffe5 6cb8 46d2 b538 953e 1f38 d9a9 5338
00000030: 5e18 9336 3265 0038 ac35 56b4 c5a2 50b8
-1.23e-43 -2.9371584e-08 -9.793958e-08 0.0001243852 -1.2484453e-07 0.00011405066 -4.4651246e-05 1.58e-43
-5.6480985e-05 8.669919e-05 3.7966838e-05 5.0464503e-05 4.383778e-06 3.0611824e-05 -1.9949829e-07 -4.9742655e-05

exp_avg_sq f4 [16, 1]
00000000: f501 f51e 7169 df29 e101 e42a a3e2 7e34
00000010: 3102 b92a f36c 8c34 2010 7434 7c5f 811f
00000020: 0605 3534 c332 3b34 6b76 2634 59e7 0a35
00000030: 81c5 9534 5a33 1634 7825 3832 c130 7c34
2.5941193e-20 9.9214805e-14 4.050224e-13 2.3738043e-07 3.2864122e-13 2.6156303e-07 2.2730137e-07 5.479159e-20
1.6858766e-07 1.7434199e-07 1.5503035e-07 5.174566e-07 2.7897116e-07 1.398852e-07 1.0718729e-08 2.3487065e-07

exp_avg f4 [16]
00000000: 5f5d 59b3 316f 3eb3 5ba0 89b3 4316 5539
00000010: 3fc4 bd34 d69f c138 64d5 0bb7 240e 9db2
00000020: c730 34b8 0001 e738 5fbf f738 b79c 4f38
00000030: 9089 b6b8 bb94 9236 43c0 a5b6 3d0a 81b8
-5.060917e-08 -4.433895e-08 -6.408728e-08 0.00020321556 3.534678e-07 9.232729e-05 -8.3347295e-06 -1.8283636e-08
-4.296077e-05 0.000110151246 0.000118135235 4.9498598e-05 -8.704059e-05 4.3684536e-06 -4.9397654e-06 -6.1531064e-05

exp_avg_sq f4 [16]
00000000: e27d db2d ec16 8a2a 9dcd 142b 2660 f934
00000010: b35e f934 a9d2 0035 3f6f f734 241e 6a2b
00000020: 9b59 b434 12b4 a534 74eb a334 73e7 0a35
00000030: 45b5 1335 4423 9434 216a 7534 00fb dd34
2.495332e-11 2.452963e-13 5.286551e-13 4.644982e-07 4.6448767e-07 4.7990267e-07 4.6088277e-07 8.317533e-13
3.359281e-07 3.0864663e-07 3.053243e-07 5.174581e-07 5.502555e-07 2.7592807e-07 2.2856013e-07 4.1347084e-07

exp_avg f4 [16, 1]
00000000: 1ce6 f8b7 a834 2a38 7ca7 bb38 be14 5539
00000010: e2ef b0b2 ddee a538 db0e a0b2 0b8a 4037
00000020: 7cb1 f7b8 bbf0 3d39 6630 aa37 f6ce acb6
00000030: ce99 00b3 9ebb bcb4 aaea 2fb9 31b1 4db8
-2.9671057e-05 4.05802e-05 8.948051e-05 0.0002032099 -2.0598183e-08 7.912305e-05 -1.8633207e-08 1.1476232e-05
-0.00011810937 0.00018114124 2.0288117e-05 -5.150093e-06 -2.9942207e-08 -3.5154238e-07 -0.0001677672 -4.904083e-05

exp_avg_sq f4 [16, 1]
00000000: 0df9 1b34 e48b a233 734e 9f35 9390 1b35
00000010: 9176 a12b 3504 7235 88e5 a02a 908a 9f35
00000020: 9c55 6b35 8be8 6535 6d74 0235 c6c2 0235
00000030: d143 162e 7b42 0630 7b5b 1c35 d10e 3834
1.4526104e-07 7.569159e-08 1.1869255e-06 5.795238e-07 1.1472647e-12 9.015815e-07 2.858098e-13 1.188675e-06
8.76689e-07 8.564754e-07 4.8598196e-07 4.8712207e-07 3.4166284e-11 4.884339e-10 5.824765e-07 1.7141726e-07

exp_avg f4 [16]
00000000: b777 b737 cd10 c9b7 599c 78b9 fbcd 06b9
00000010: 413f c8b3 1e45 0a38 0aff c7b3 db1c 4038
00000020: 0062 ddb7 da20 0cb9 a3d0 6e36 60e4 3139
00000030: 1dfe f6b3 9681 6db5 e8cb 6839 1d81 9e37
2.1871047e-05 -2.396889e-05 -0.00023709367 -0.0001285597 -9.3247316e-08 3.2966134e-05 -9.313051e-08 4.580324e-05
-2.6390888e-05 -0.00013363679 3.5586206e-06 0.00016965112 -1.15014906e-07 -8.847795e-07 0.00022201205 1.889519e-05

exp_avg_sq f4 [16]
00000000: 9698 4933 c790 5833 f569 3235 f6fc 0835
00000010: 82ce bf2b e34d 6834 3410 fe2b 8fef bb34
00000020: b6d2 0535 1de3 6a35 68e1 6133 bdb7 c934
00000030: ce3a 2e2d e829 b62e 5f76 0a35 88ed 6b33
4.6937735e-08 5.0423093e-08 6.6464355e-07 5.1032055e-07 1.3628684e-12 2.1635019e-07 1.8052283e-12 3.5005766e-07
4.9852986e-07 8.7502286e-07 5.25919e-08 3.7572855e-07 9.903812e-12 8.283846e-11 5.158126e-07 5.4931235e-08

exp_avg f4 [16, 1]
00000000: 33f5 7338 50d9 10b6 6299 2b37 6083 b0b8
00000010: c204 e4b6 8110 7c38 9982 ad30 5e73 7232
00000020: aedd 42b1 19e6 09b9 4cf3 0d38 11e4 d536
00000030: da82 8fb8 3048 0638 fcc5 c937 9c18 8032
5.8164074e-05 -2.1584165e-06 1.02281065e-05 -8.4168045e-05 -6.7954834e-06 6.0096852e-05 1.2624525e-09 1.4112485e-08
-2.8356726e-09 -0.00013151056 3.3843608e-05 6.374445e-06 -6.8431444e-05 3.201532e-05 2.405326e-05 1.4912352e-08

exp_avg_sq f4 [16, 1]
00000000: c07c 8034 d29e 8b31 87c9 ec32 3d91 1435
00000010: 0c7d 1f32 2545 a433 e5d6 6a29 0d82 3d2e
00000020: 955c f629 f2bb 5334 d70c cb33 7080 a834
00000030: c1e1 f333 4ec9 8334 33d0 c633 a50f 7f2b
2.3932625e-07 4.063488e-09 2.756566e-08 5.5345646e-07 9.2834505e-09 7.6494224e-08 5.214483e-14 4.3089133e-11
1.0940655e-13 1.971928e-07 9.45526e-08 3.138589e-07 1.1356634e-07 2.454712e-07 9.257965e-08 9.061591e-13

exp_avg f4 [16]
00000000: c473 f6b8 4c52 a9b1 79c4 a4b6 e5fb 48b8
00000010: c5af c235 513a 1138 8f53 26b3 3451 76b3
00000020: ae76 a4b3 7ec6 acb8 7f5c aeb7 4bb5 aa38
00000030: 04b8 2838 cdf3 0db8 056e b836 fff2 9ab3
-0.00011751757 -4.9279034e-09 -4.9104533e-06 -4.791831e-05 1.4505282e-06 3.4625005e-05 -3.8725883e-08 -5.7350192e-08
-7.658433e-08 -8.238571e-05 -2.0785488e-05 8.14e-05 4.02257e-05 -3.3844077e-05 5.4964353e-06 -7.2153846e-08

exp_avg_sq f4 [16]
00000000: fe03 b834 7a3a 1a30 1838 8231 1633 7a35
00000010: 20c9 ae30 c256 db32 3b60 ab29 4f39 942e
00000020: b2a9 e22b b320 8733 c946 ca33 1e9f b334
00000030: ac43 0f33 2d17 8534 3049 ec32 fddf 5b2b
3.4275575e-07 5.6107974e-10 3.789875e-09 9.32066e-07 1.2717329e-09 2.5534408e-08 7.610619e-14 6.740441e-11
1.6105366e-12 6.292375e-08 9.419234e-08 3.345712e-07 3.335633e-08 2.4790043e-07 2.7507298e-08 7.8115276e-13

exp_avg f4 [16, 1]
00000000: 3470 f0b4 a924 02a6 cdd9 ae9d 52d6 1aae
00000010: 2907 0080 826b 09b0 ac00 0080 4312 e8b3
00000020: 1a4d ec37 106e 74a8 0ddb 1cb8 ad90 02b2
00000030: a334 0f37 3f00 0000 cecc c3b7 f20b 0338
-4.4785122e-07 -4.5152494e-16 -4.6282617e-21 -3.52059e-11 -2.569e-42 -4.999309e-10 -2.41e-43 -1.0806664e-07
2.8169296e-05 -1.3568587e-14 -3.7397305e-05 -7.599891e-09 8.53572e-06 8.8e-44 -2.3341181e-05 3.124396e-05

exp_avg_sq f4 [16, 1]
00000000: b2a8 aa2e 7717 8325 e1f1 ae24 435c fa26
00000010: 7b98 5622 4eb7 8327 efa4 931f 72c7 d82d
00000020: 39e5 4832 35f3 c825 c0fd d831 d7c5 5728
00000030: 6359 8431 157e eb1f 1bd1 5a32 71d8 a431
7.760671e-11 2.2740778e-16 7.587023e-17 1.7372242e-15 2.908313e-18 3.6558543e-15 6.252978e-20 2.4644928e-11
1.1693651e-08 3.4859273e-16 6.3152754e-09 1.1977797e-14 3.8518677e-09 9.9734957e-20 1.2736815e-08 4.7976347e-09

exp_avg f4 [16]
00000000: 0dcc 07b7 fca7 47a9 0a53 0da3 f67e 03b1
00000010: 4a07 0080 6c71 b8b1 8b2a 62b2 ecbc dc37
00000020: af86 e237 eb44 9bae 021a f1b7 27f5 a9b2
00000030: 0261 3bb7 6d00 0080 a3b8 4637 5ce3 0c38
-8.094136e-06 -4.433258e-14 -7.6612095e-18 -1.9135178e-09 -2.615e-42 -5.3679994e-09 -1.31646045e-08 2.6314017e-05
2.7004016e-05 -7.060826e-11 -2.874155e-05 -1.9785672e-08 -1.1168655e-05 -1.53e-43 1.1844709e-05 3.3590346e-05

exp_avg_sq f4 [16]
00000000: cf8b 9531 fd2d 1126 f9ab 2225 ef30 692e
00000010: 3002 5922 ecf9 0329 9ab1 a629 270f b832
00000020: 62df 4832 d1f5 0d27 9156 5332 869f 852a
00000030: ebc4 1632 76d7 0220 0c13 ec32 8caa 1b32
4.352365e-09 5.0369307e-16 1.4109527e-16 5.3021528e-11 2.9410142e-18 2.9304616e-14 7.40269e-14 2.142731e-08
1.16923236e-08 1.9700938e-15 1.2301499e-08 2.3736238e-13 8.775923e-09 1.1082718e-19 2.7482677e-08 9.060965e-09
