SimLoan/VACA/exper_test_10pct_noise/toy_/vaca/dgnn_elbo_8_8_16_4_normal_0.0_0.2_0.0_0.0_0_True_[BernoulliLikelihood()]_[NormalLikelihood()]_[NormalLikelihood()]_[BernoulliLikelihood()]_[NormalLikelihood()]_[NormalLikelihood()]_[BernoulliLikelihood()]_7_21/adam/0.005_0.9_0.999_1.2e-06_exp_lr_0.99/9/ckpt/checkpoint-epoch=477.ckpt (torch, 164822 bytes, 81 tensors)

model._encoder_embeddings.0.0.weight f4 [16, 1]
0	0xbe2ce113	-0.16882734
1	0xbd8ef72c	-0.06980738
2	0x84014ad2	-1.5198233e-36
3	0x80faa170	-2.3016787e-38
4	0xbe5145ff	-0.20436858
5	0x01bfa978	7.0405495e-38
6	0x3be4a5c4	0.0069777686
7	0x83066a32	-3.9500967e-37
8	0x84afc541	-4.132345e-36
9	0x022cdb9a	1.2699587e-37
10	0x83059fbc	-3.9268553e-37
11	0xa48bff00	-6.071363e-17
12	0x3e9f870a	0.31157714
13	0x3f013dd1	0.5048495
14	0xbe88a6b6	-0.2668969
15	0x824d5cd4	-1.5087662e-37

model._encoder_embeddings.0.0.bias f4 [16]
0	0x3e2104b3	0.15724449
1	0x3d651c8a	0.05593542
2	0x844ce094	-2.4083206e-36
3	0x85125a89	-6.881516e-36
4	0x3e49bc72	0.19700792
5	0x83937a55	-8.6679695e-37
6	0xbbefecd5	-0.0073219338
7	0x83069f49	-3.956191e-37
8	0xbaa28b40	-0.0012401119
9	0x843eef48	-2.2444265e-36
10	0x833aed64	-5.4933e-37
11	0xa51631a9	-1.3027252e-16
12	0xbd2a036e	-0.041507177
13	0xbdd029a3	-0.101641916
14	0x3f46c556	0.7764486
15	0x824af5c0	-1.4911143e-37

model._encoder_embeddings.1.0.weight f4 [16, 1]
0	0x3e6c245b	0.23060744
1	0xbf481a32	-0.7816497
2	0x3f08f6bb	0.5350148
3	0x3e8ff1e2	0.2811423
4	0x3d9b414e	0.07580815
5	0xbf085e0a	-0.5326849
6	0x3f4b8eda	0.7951485
7	0xbbc883cc	-0.006119227
8	0xbea2ec03	-0.31820688
9	0xbe42ae01	-0.1901169
10	0x3e9d9c7c	0.3078345
11	0x3f2a1a0e	0.66446006
12	0xbc360a92	-0.011110919
13	0xbe95d36c	-0.29262865
14	0xbf001efa	-0.50047266
15	0x3e172424	0.1475988

model._encoder_embeddings.1.0.bias f4 [16]
0	0x3d00f480	0.031483173
1	0xbe22177f	-0.15829276
2	0xbec16c8e	-0.37778133
3	0xbf05797b	-0.5213849
4	0x3f312247	0.6919293
5	0x3ebe2359	0.37136343
6	0xbf0d4d4d	-0.55196077
7	0xbc777711	-0.015104071
8	0x3e635714	0.22201186
9	0x3f38684e	0.72034156
10	0x3f3a4860	0.72766685
11	0x3e08db4c	0.13364905
12	0xbcdaec5d	-0.026724035
13	0x3f0a69e2	0.54067814
14	0xbd6c1840	-0.057640314
15	0xbf084a3a	-0.5323826

model._encoder_embeddings.2.0.weight f4 [16, 1]
0	0x3f2b007b	0.6679761
1	0x3ab348f3	0.0013678357
2	0x3f37b52e	0.71760833
3	0xbedf2fc6	-0.43591136
4	0x3edcbd77	0.431133
5	0xbf038c2b	-0.51385754
6	0x3e728718	0.23684347
7	0x3f1abbb1	0.60442644
8	0xbf1fd35f	-0.624319
9	0x3327a437	3.903207e-08
10	0xb2aed277	-2.0351974e-08
11	0x3e39de59	0.18151225
12	0x3eb91a6d	0.36152974
13	0xbf195c70	-0.59906673
14	0xbe20a58d	-0.15688153
15	0xbd7407b8	-0.059577674

model._encoder_embeddings.2.0.bias f4 [16]
0	0x3e750abe	0.23929879
1	0xbba0649e	-0.004894807
2	0xbf54074f	-0.8282365
3	0xbeb776ab	-0.35832724
4	0xbc487073	-0.012233841
5	0x3b90f519	0.004423749
6	0x3f3d97c1	0.74059683
7	0x3efebd2a	0.49753696
8	0xbe62062a	-0.22072664
9	0xb518fb67	-5.699025e-07
10	0xb5ec053a	-1.7584891e-06
11	0x3effd66b	0.49968275
12	0xbedc8ae5	-0.43074718
13	0x3f318fa0	0.6935978
14	0x3f30ca11	0.6905833
15	0x3e18590f	0.14877723

model._encoder_embeddings.3.0.weight f4 [16, 1]
0	0x844da00d	-2.4171126e-36
1	0xbe947c28	-0.29000974
2	0x83e4886d	-1.3431957e-36
3	0x0192ff38	5.399815e-38
4	0xbe3049a6	-0.17215595
5	0x3e19dc0d	0.15025349
6	0x80d3c364	-1.9447383e-38
7	0x04b8ab73	4.3415643e-36
8	0x83ceca1a	-1.2153992e-36
9	0xbe1d93be	-0.1538839
10	0x3f8d2bc5	1.1028982
11	0x1353ee65	2.6749482e-27
12	0x01f3ed34	8.960447e-38
13	0x01776fda	4.5446985e-38
14	0x843e4528	-2.2366148e-36
15	0xbeb00dd3	-0.34385547

model._encoder_embeddings.3.0.bias f4 [16]
0	0x8449309b	-2.3649755e-36
1	0x3e95dcbc	0.2926997
2	0x841e2a79	-1.8592313e-36
3	0x83a2c4f8	-9.566726e-37
4	0x3e2df21a	0.16986886
5	0x3e66189d	0.22470327
6	0x8432aa43	-2.100198e-36
7	0x84b96b6c	-4.3591942e-36
8	0x841962d8	-1.803045e-36
9	0x3e1cc671	0.15310074
10	0xbf412ab8	-0.7545581
11	0x9496a9fa	-1.5213173e-26
12	0x845c91d2	-2.5927833e-36
13	0x82bbd3a9	-2.7598667e-37
14	0x84775090	-2.9071703e-36
15	0x3eb1648a	0.34647018

model._encoder_embeddings.4.0.weight f4 [16, 1]
0	0x3c53bad5	0.012922962
1	0x3c6336ac	0.013868015
2	0x3d221049	0.039566312
3	0xbda31d81	-0.07964612
4	0x3e35d27f	0.17756079
5	0x109ea283	6.25704e-29
6	0x3c5ccb9b	0.013476278
7	0x2a02b5cb	1.1609392e-13
8	0xada7f374	-1.9093817e-11
9	0x3cc56b29	0.02409895
10	0x3d8425ae	0.06452499
11	0x2167fee6	7.86032e-19
12	0xb986e370	-0.00025727926
13	0x3d511817	0.051048364
14	0x280ec0b9	7.9243735e-15
15	0xbb068814	-0.0020527886

model._encoder_embeddings.4.0.bias f4 [16]
0	0x3b8f3be8	0.004371155
1	0x3d77f4db	0.060536247
2	0x3e910c19	0.28329542
3	0x3e8e07f5	0.27740446
4	0xbea96219	-0.33082655
5	0x94ac52ed	-1.740027e-26
6	0xb983c559	-0.00025133303
7	0xab3a341c	-6.615279e-13
8	0xb0428cc0	-7.0776807e-10
9	0xbb3174ea	-0.0027077743
10	0xbbb88bf8	-0.00563192
11	0xa26ef853	-3.2386476e-18
12	0xbaf51012	-0.0018696806
13	0x3e15dee8	0.14635813
14	0xa998fd7b	-6.794128e-14
15	0x3e822017	0.25415108

model._encoder_embeddings.5.0.weight f4 [16, 1]
0	0x3defa9d4	0.11702314
1	0xba3e5890	-0.00072611216
2	0xa34ae376	-1.0998609e-17
3	0x3d11fb99	0.035640333
4	0x3d3516aa	0.044211067
5	0x39569ee0	0.00020467816
6	0x38c40e88	9.348715e-05
7	0x3d449daf	0.04800194
8	0xbe6454fa	-0.22298041
9	0x3dec2c14	0.11531845
10	0x3c817cb8	0.01580654
11	0x3c96b2a2	0.018395726
12	0x18cb637e	5.257473e-24
13	0x32a586ac	1.926977e-08
14	0x3c1c2650	0.009530619
15	0x3c9d0c72	0.019170973

model._encoder_embeddings.5.0.bias f4 [16]
0	0xbc208d2b	-0.009799282
1	0xbb001e9d	-0.0019549497
2	0xa90eb565	-3.168767e-14
3	0x3d047542	0.03233839
4	0x3ddba84f	0.10725462
5	0x3eeda81a	0.46417314
6	0xba5a13a2	-0.00083189656
7	0xbc06287a	-0.008188361
8	0xbe2a7e24	-0.16649681
9	0xbe1a336e	-0.15058681
10	0x3c520c49	0.012820312
11	0xbbf546bf	-0.00748524
12	0x9b5cd9d0	-1.8268352e-22
13	0xb420a21b	-1.4960135e-07
14	0xbbb838da	-0.0056220116
15	0x3eb7b967	0.35883638

model._encoder_embeddings.6.0.weight f4 [16, 1]
0	0x3f18ee0c	0.5973823
1	0x01598afe	3.9956327e-38
2	0x3f314365	0.6924346
3	0x8204cf81	-9.757379e-38
4	0xbec5c273	-0.38624915
5	0x82bf5249	-2.8112157e-37
6	0xbdefc0b8	-0.1170668
7	0x3d80b554	0.062845856
8	0x82fc51ba	-3.707498e-37
9	0x3f1de819	0.6168228
10	0x826eed7b	-1.7553632e-37
11	0x824526ee	-1.4484446e-37
12	0x3f024711	0.5088969
13	0xbd39c1f6	-0.04535099
14	0x3e8ae5fe	0.27128595
15	0x832443d2	-4.8273122e-37

model._encoder_embeddings.6.0.bias f4 [16]
0	0xbe312a23	-0.1730123
1	0x82cb1d13	-2.9844857e-37
2	0xbe9746ed	-0.295463
3	0x82161326	-1.1025755e-37
4	0x3f26c4d0	0.6514406
5	0x82e9a92d	-3.4333375e-37
6	0x3deffaa6	0.11717729
7	0x3eaf1e26	0.3420269
8	0x830fc61c	-4.225134e-37
9	0x3f1c34bd	0.6101797
10	0x82810744	-1.8959017e-37
11	0x822f51ca	-1.2880442e-37
12	0x3efc46b7	0.492727
13	0x3e9553d2	0.29165512
14	0x3ec0a8cc	0.37628782
15	0x8347697e	-5.8601943e-37

model.encoder_module.convs.0.m_net_list.0.weights.weight f4 [256, 21]
0	0x3dd14729	0.10218651
1	0x3c9574f1	0.018244239
2	0xbd982c3c	-0.07430312
3	0xbde19786	-0.11015229
4	0xbd21a2e2	-0.039461978
5	0x3da55e9e	0.080746874
6	0x3d32a0ea	0.04361049
7	0x830e5c1e	-4.1835795e-37
8	0x3cb1a309	0.021684187
9	0xbd15548c	-0.036457583
10	0x83173d93	-4.4445595e-37
11	0x3daa610a	0.0831929
12	0x83251ecd	-4.85245e-37
13	0x3b9329c6	0.0044910638
14	0x3d18ea7b	0.037332993
15	0x3d753369	0.05986348
16	0xbbf09d7f	-0.0073429937
17	0xbcb45b01	-0.02201605
18	0x3d1c17c6	0.03810861
19	0x3e469a05	0.19394691
20	0xbdbf4080	-0.09338474
21	0x3f19b0af	0.6003522
22	0x3c668f3c	0.014072236
23	0x3e1cec36	0.15324482
24	0x3e167786	0.14694032
25	0x3d5b182b	0.053489845
26	0x3e455e37	0.19274221
27	0xbdb566c0	-0.08857489
28	0x83bdb81d	-1.1150692e-36
29	0xbdf536e1	-0.11973358
30	0xbe2a2de3	-0.16619067
31	0x83bcd64a	-1.1098845e-36
32	0x3c4778f4	0.012174834
33	0x83be4dab	-1.1185028e-36
34	0xbb033e92	-0.0020026308
35	0xbc2be5b0	-0.0104917735
36	0xbdcc50e3	-0.099763654
37	0xbe0e0df0	-0.13872504
38	0x3b721e11	0.003694419
39	0x3dd8e49c	0.10590479
40	0x3e0c6ac7	0.13712607
41	0xbd6d5097	-0.057938185
42	0xbe412461	-0.18861534
43	0xbe32c041	-0.17456152
44	0x3e03db99	0.12876739
45	0xbce569fe	-0.028004643
46	0xbc6ead3e	-0.014567671
47	0x3e6c524f	0.23078273
48	0xbe279590	-0.16365647
49	0x8349842c	-5.9220317e-37
50	0x3e196f2b	0.14983813
51	0x3e3d8bb8	0.1851033
52	0x83497c76	-5.9211465e-37
53	0x3d05eeb0	0.032698333
54	0x834e552e	-6.063574e-37
55	0x3da3088e	0.07960616
56	0x3d5351d1	0.051591698
57	0xbe4f33c4	-0.20234591
58	0xbe080ca0	-0.13286066
59	0x3d19e76d	0.03757422
60	0xbd4fd392	-0.05073888
61	0xbd67903d	-0.05653404
62	0xbce7a4ad	-0.028276766
63	0xbe1f14ad	-0.15535231
64	0xbe59350c	-0.21211642
65	0xbdb59f2d	-0.08868251
66	0x3da29481	0.07938481
67	0x3cdf5fcd	0.027267361
68	0xbe0f3724	-0.13985878
69	0xbce4845c	-0.027895145
70	0x8336a90a	-5.367904e-37
71	0xbe0df1c6	-0.1386176
72	0x3e9b2a9d	0.3030595
73	0x833c3b6a	-5.531644e-37
74	0x3df9e0ce	0.12201081
75	0x83334601	-5.2683733e-37
76	0xbdc8b645	-0.0980039
77	0xbdafefb2	-0.0859064
78	0x3e3e2a9f	0.18570946
79	0x3d1c9673	0.038229417
80	0x3d431533	0.04762764
81	0xbcfcae7b	-0.030844918
82	0x3d8757f5	0.06608573
83	0x3df4cf06	0.11953549
84	0xbd8359c9	-0.064136095
85	0x3c0930b8	0.008373432
86	0x3e0077ac	0.12545651
87	0xbd1e0b24	-0.038584843
88	0x3d385d5b	0.045010906
89	0xbd952e85	-0.072842635
90	0x3d3fc537	0.046818938
91	0x029802c9	2.2335991e-37
92	0x3d766653	0.060156178
93	0x3d34e1e2	0.04416073
94	0x02a4edaa	2.4234047e-37
95	0xbb3829e7	-0.0028101148
96	0x02be672c	2.7977209e-37
97	0xbb65be41	-0.0035056027
98	0xbaec9662	-0.0018050189
99	0x3d2ab8a0	0.04167998
100	0xbd19f48d	-0.037586737
101	0xbe4750dd	-0.1946444
102	0xbc020980	-0.007936835
103	0xbdd040c1	-0.10168601
104	0x3e0daefd	0.13836284
105	0xbe2b0507	-0.16701137
106	0x3ea0c8f6	0.3140332
107	0x3de46c6b	0.111534916
108	0xbd8a75e1	-0.06760765
109	0xbd09f8d2	-0.03368456
110	0xbe1a286c	-0.15054482
111	0xbd29606e	-0.04135173
112	0x83971ef8	-8.882092e-37
113	0x3dba39d1	0.09093059
114	0xbcd58f21	-0.026069226
115	0x83971c9f	-8.881553e-37
116	0x3cc5bd5d	0.024138147
117	0x839f657d	-9.368481e-37
118	0x3c07dcc9	0.008292385
119	0x3c8e9851	0.017406614
120	0xbd2ba69f	-0.04190695
121	0xbcd776e0	-0.026301801
122	0xbdb9a546	-0.090647265
123	0x3bdff43c	0.006834535
124	0xbcf77e5a	-0.030211616
125	0x3d266136	0.04062005
126	0x3dccfe14	0.10009399
127	0x3db2f109	0.0873738
128	0x3d6b1b9b	0.057399374
129	0xbcded7fe	-0.027202602
130	0xbca4e6a0	-0.020129502
131	0x3e8654c3	0.26236543
132	0x3d984f51	0.074370034
133	0x02d7dc65	3.171791e-37
134	0x3d25414f	0.040345486
135	0xbe116e0d	-0.14202137
136	0x02dc89d0	3.2405195e-37
137	0xbd06cfc8	-0.032913
138	0x02bf730a	2.8130957e-37
139	0xbcf4242b	-0.029802402
140	0xbcbc36bc	-0.022975318
141	0xbd0e0825	-0.034675736
142	0x3da46f84	0.080290824
143	0xbd290c06	-0.041271232
144	0xba60833d	-0.0008564478
145	0x3c9a134a	0.018808026
146	0xbd552f45	-0.052047033
147	0xbd359d9e	-0.04433977
148	0xbd98ee30	-0.07467306
149	0x3d8dea88	0.06929499
150	0xbd899ea2	-0.0671971
151	0xbcb91cdd	-0.02259677
152	0xbe146f73	-0.1449564
153	0x3dcf2a95	0.10115544
154	0x83042a39	-3.8839783e-37
155	0x3d4c5016	0.049881063
156	0xbec04f48	-0.37560487
157	0x8308e059	-4.0224346e-37
158	0x3b566d07	0.0032718794
159	0x8310e76d	-4.258346e-37
160	0xbd8f5445	-0.06998495
161	0x3d673fb3	0.056457233
162	0x3d03181b	0.03200541
163	0xbd0383a4	-0.032107964
164	0xbd9a8e2e	-0.0754665
165	0xbbb4f157	-0.005521934
166	0xbd62d51c	-0.05537902
167	0xbc9f1013	-0.019416844
168	0xbd888a2d	-0.0666698
169	0xbda6cb79	-0.08144278
170	0x3907b633	0.00012942478
171	0x3e553400	0.20820618
172	0x376d600d	1.4148664e-05
173	0xbc488c7a	-0.0122405235
174	0x3907b633	0.00012942478
175	0xbc1afc74	-0.009459604
176	0xbe3e1c6d	-0.18565531
177	0x393e5c0f	0.00018154107
178	0x3db36b71	0.08760727
179	0x376d6461	1.4149672e-05
180	0xbd90ba50	-0.07066786
181	0x3d5596ba	0.052145697
182	0x376d625a	1.41492e-05
183	0xbd4fbbab	-0.050716083
184	0x376d6153	1.4148961e-05
185	0x0227e78a	1.2335671e-37
186	0xb8e2af14	-0.000108091306
187	0x8070ee88	-1.0371144e-38
188	0x81db6653	-8.059472e-38
189	0x3f440f82	0.76586163
190	0xbdf085f9	-0.11744303
191	0x353033a1	6.564024e-07
192	0x3e7197b1	0.23593022
193	0xb8c9426e	-9.5968004e-05
194	0xbe8bf255	-0.27333322
195	0x353033a1	6.564024e-07
196	0x3e6160b8	0.22009552
197	0xbd0e3e64	-0.03472747
198	0x3736c093	1.08928825e-05
199	0x3e93d1a7	0.2887089
200	0xb8c952c4	-9.599843e-05
201	0x3f5a22d3	0.8520939
202	0xbd4d411f	-0.050110932
203	0xb8c948d0	-9.597989e-05
204	0xbdd95565	-0.10611991
205	0xb8c94714	-9.597666e-05
206	0x8203bb92	-9.67819e-38
207	0x3785be57	1.594347e-05
208	0x01303d6e	3.2370168e-38
209	0x820b7216	-1.0244848e-37
210	0x3d0073df	0.031360503
211	0x3c64089e	0.01391807
212	0x376be2bd	1.4059883e-05
213	0xbc99d2d3	-0.018777287
214	0xb8e4e864	-0.00010915173
215	0x3e1d1c51	0.15342833
216	0x376be2bd	1.4059883e-05
217	0x3e5426b8	0.20717895
218	0x3dcd0284	0.100102454
219	0x37b616b8	2.170667e-05
220	0x3db41b78	0.08794302
221	0xb8e4e1b4	-0.00010913928
222	0x3d0f14a6	0.0349318
223	0xbcc72e3b	-0.024314037
224	0xb8e4dea6	-0.00010913359
225	0xbe2ef692	-0.17086247
226	0xb8e4e4ea	-0.00010914526
227	0x0161dddc	4.148515e-38
228	0x39e272cc	0.0004319161
229	0x021db168	1.1585451e-37
230	0x018de9c7	5.2130674e-38
231	0xbdca9439	-0.098915525
232	0xbdcff523	-0.10154178
233	0x3a1bb57f	0.0005939826
234	0xbc70c254	-0.014694769
235	0x36afe6e3	5.242285e-06
236	0x3dc1ab21	0.094564684
237	0x3a1bb57f	0.0005939826
238	0x3d6dad99	0.058026884
239	0x3da88c80	0.08229923
240	0x39f25a67	0.00046225192
241	0x3cb30809	0.021854417
242	0x36afdc69	5.2410655e-06
243	0x3da1af13	0.07894721
244	0xbd66faa9	-0.056391392
245	0x36afceee	5.239496e-06
246	0xbdb2dc4e	-0.08733426
247	0x36afe676	5.2422356e-06
248	0x023d63fd	1.3914222e-37
249	0xb8faa1cf	-0.00011951068
250	0x00d408f4	1.9472337e-38
251	0x806b7ea8	-9.871834e-39
252	0x3db731d0	0.08945048
253	0x3dd200fe	0.102540955
254	0xb7ab2d26	-2.0405812e-05
255	0x3d31c717	0.043402757

model.encoder_module.convs.0.m_net_list.0.bias.weight f4 [8, 21]
0	0xbe054e9f	-0.13018273
1	0x3e085afe	0.13315961
2	0xbd9003cf	-0.070319764
3	0xbd365312	-0.044512816
4	0xbe31af2b	-0.17351978
5	0x3e0e1adb	0.13877432
6	0xbbdeee0c	-0.0068032797
7	0x3e0a2eb0	0.13494372
8	0x3e10bbeb	0.14134185
9	0x3db1be48	0.086788714
10	0xbdad8853	-0.084732674
11	0x3d8c0e3b	0.06838652
12	0x3b389d1b	0.0028169814
13	0xbce918e8	-0.028454259
14	0x3dfd57a9	0.123702355
15	0xbd705035	-0.05867024
16	0x3e380009	0.17968763
17	0xbc4a0c36	-0.012332013
18	0x3db74e3d	0.0895047
19	0xbdda1677	-0.10648816
20	0x3dc367c1	0.09541274
21	0x3d669a84	0.0562997
22	0x3deb98f7	0.11503785
23	0xbd3cfa9b	-0.046137433
24	0xbe030c7f	-0.12797736
25	0xbd99e32c	-0.07514033
26	0x3dbb3690	0.09141266
27	0xbdbcd827	-0.09220915
28	0xbe39c409	-0.18141188
29	0xbe1f4c56	-0.15556464
30	0xbdc41c36	-0.09575693
31	0xbdd9e28f	-0.10638916
32	0xbdcf554a	-0.101236895
33	0xbe8389ce	-0.25691074
34	0xbcb7df0b	-0.022445222
35	0xbda11382	-0.07865049
36	0xbdbef560	-0.09324145
37	0xbde1035b	-0.10986968
38	0xbdfeedcd	-0.12447701
39	0xbd834f7f	-0.06411647
40	0x3daa2a03	0.08308794
41	0xbdb8c4b7	-0.090218954
42	0x3dbdc601	0.09266282
43	0xbd859e3e	-0.06524323
44	0xbd698683	-0.057013046
45	0x3e219642	0.15779975
46	0x3d7a30dd	0.061081756
47	0xbd47a78a	-0.048743762
48	0xbe67552c	-0.22591084
49	0xbd8f2cec	-0.0699099
50	0x3e285118	0.16437185
51	0xba9fb90a	-0.0012185883
52	0xbd5ac6e0	-0.05341232
53	0xbdab5f02	-0.08367731
54	0x3cdd7cd0	0.027037054
55	0xbe2f95bb	-0.17146961
56	0x3d93670d	0.0719739
57	0x3c926e95	0.017874995
58	0x3d9a89de	0.07545827
59	0x3d1c9e4b	0.038236897
60	0xbe095c25	-0.13414057
61	0x3d85bb2a	0.06529839
62	0xbd4ffdee	-0.050779276
63	0xbd6de734	-0.05808182
64	0xbdd49279	-0.103795
65	0xbd530ca1	-0.051525716
66	0xbe1301ed	-0.14356203
67	0xbddb3269	-0.10702974
68	0x3df138db	0.117784224
69	0x3e0c2572	0.13686159
70	0x3e356f6c	0.17718285
71	0xbb80b017	-0.0039272415
72	0x3d25cf16	0.040480696
73	0xbe162cb7	-0.14665495
74	0xbe46235f	-0.1934943
75	0xbdb6ec5c	-0.08931801
76	0x3cfa98f7	0.030590517
77	0x3e5553f9	0.20832814
78	0xbd89f9ce	-0.067370996
79	0xbdb69d20	-0.08916688
80	0x3e2e86dc	0.17043632
81	0xbb52d8b3	-0.003217262
82	0xbe0bbb21	-0.13645603
83	0x3d935743	0.07194378
84	0xbda0ac89	-0.078454085
85	0xbdfd554f	-0.12369787
86	0xbdd476c3	-0.103742145
87	0x3dc13957	0.09434765
88	0x3e270fd8	0.16314638
89	0xbdafafec	-0.08578476
90	0x3d59fb7d	0.053218354
91	0x3d965543	0.07340481
92	0x3dc16be6	0.09444408
93	0x3b82e69b	0.0039947755
94	0xbca5d7a7	-0.020244433
95	0x3d896f43	0.067106746
96	0xbd69247b	-0.056919556
97	0xbd3e6849	-0.046486173
98	0x3e2df823	0.16989188
99	0xbdb90b77	-0.0903539
100	0x3d864600	0.0655632
101	0xbe5e1da2	-0.21690992
102	0xbdf7bae1	-0.12096191
103	0xbe402846	-0.18765363
104	0xbdec6ecc	-0.1154457
105	0xbeca659c	-0.39530647
106	0x3d3cb654	0.04607232
107	0xbd0610db	-0.03273092
108	0x3b6bf3ae	0.0036003399
109	0x3da72b6a	0.081625775
110	0xbfb367b0	-1.4016018
111	0xbd9d9d58	-0.076960266
112	0x3de49c88	0.111626685
113	0x3d32f1cf	0.043687638
114	0x3e1601fd	0.14649196
115	0x3d94c3bb	0.07263895
116	0xbd1738ce	-0.036919408
117	0xbeefdf3d	-0.46850005
118	0x3e0e7cc4	0.13914782
119	0xbe0574a4	-0.13032776
120	0xbc05d0a8	-0.008167423
121	0x3dfdeb28	0.12398368
122	0xbdbd5132	-0.092440024
123	0xbd75aa6f	-0.05997699
124	0xbc8a33cf	-0.016870407
125	0x3c560091	0.0130616585
126	0xbd1f281b	-0.038856607
127	0xbd5a3a3c	-0.053278193
128	0x3ce024c0	0.027361274
129	0xbe1ad1e0	-0.15119123
130	0x3e2e7be3	0.17039447
131	0xbd0b6689	-0.034033332
132	0x3c97b407	0.01851846
133	0xbca4fcb7	-0.020140035
134	0xbdd7feb6	-0.10546629
135	0xbd41c9d1	-0.047311608
136	0x3da5a7c7	0.080886416
137	0x3d4ec2cc	0.05047874
138	0x3de55fbf	0.11199903
139	0x3d820f63	0.06350591
140	0xbe36339e	-0.17793128
141	0xbdbf5429	-0.09342224
142	0xbce8bbb2	-0.028409813
143	0xbde9e671	-0.11420906
144	0x3d66d334	0.056353763
145	0x3e465165	0.19366987
146	0x3da929b5	0.08259908
147	0xbe231027	-0.1592413
148	0x3d2d9da4	0.042386666
149	0xbe1c2f9f	-0.15252541
150	0xbe1d8fee	-0.15386936
151	0x3defcb7d	0.11708734
152	0x3ddd4ee5	0.108060636
153	0xbd48d23b	-0.049028616
154	0x3a951475	0.0011373895
155	0xbe42cad2	-0.19022682
156	0xbfa5883b	-1.2932199
157	0x3dee0e75	0.11623851
158	0xbdbee4f2	-0.093210116
159	0x3d24f9c6	0.040277265
160	0xbe309fc1	-0.17248441
161	0x3e435ffb	0.19079582
162	0x3cc1a6eb	0.023639163
163	0xbe1311a1	-0.14362194
164	0xbdf8e23b	-0.12152525
165	0x3cc3695e	0.023853954
166	0x3da66225	0.08124188
167	0x3e21ef7a	0.1581401

model.decoder_module.convs.0.m_net_list.0.weights.weight f4 [64, 21]
0	0x3da11124	0.078645974
1	0xb9b07842	-0.00033658935
2	0xbd1e3b2a	-0.038630642
3	0xb91f8348	-0.00015212328
4	0x3bcdf34c	0.0062851068
5	0x3da91fde	0.08258031
6	0x3cb91a88	0.022595659
7	0xbe1ca471	-0.15297104
8	0xbd932929	-0.07185585
9	0xbdc99a2d	-0.0984386
10	0x3e1ca460	0.15297079
11	0x3c945815	0.018108407
12	0xbd4f0873	-0.050545167
13	0x3da3447c	0.07972047
14	0xbca8855a	-0.0205714
15	0xbe0d66f2	-0.13808802
16	0x3d96492b	0.073381744
17	0xbb5b781e	-0.0033488343
18	0x3ce150ce	0.027504351
19	0xbb5ba4e9	-0.0033515042
20	0xba181e21	-0.00058028294
21	0xbd6973bf	-0.05699515
22	0xb97481d1	-0.00023318014
23	0xbe3d6026	-0.18493709
24	0xba78b86d	-0.0009487931
25	0x3e78c5f6	0.24294266
26	0x3d5c0cb3	0.05372305
27	0x3e3f04e3	0.18654208
28	0x3cc5d921	0.024151387
29	0xba78b88d	-0.00094879494
30	0xbd0986c4	-0.03357579
31	0x3c9229ba	0.017842162
32	0x3c838f17	0.016059441
33	0xbb6cb9f8	-0.0036121588
34	0xba78b86b	-0.00094879296
35	0xbe007efa	-0.12548438
36	0x3ab60ce4	0.001388934
37	0xbdf95a45	-0.12175421
38	0xbb149856	-0.0022673807
39	0x3e033d79	0.12816419
40	0xbb14985a	-0.0022673816
41	0x3cad4857	0.021152658
42	0x3bb20e37	0.0054338234
43	0x3a7ea9c8	0.00097146304
44	0x3de36ed5	0.11105124
45	0xbcb9e950	-0.02269426
46	0x3b67d364	0.0035373801
47	0x3d114268	0.03546372
48	0xbdde4811	-0.10853589
49	0xbe1f6324	-0.15565163
50	0x3cdca07a	0.02693199
51	0xbe19fbf6	-0.15037522
52	0x3e250e90	0.16118836
53	0xbc7db380	-0.015484691
54	0xbde47fbc	-0.11157176
55	0xbcdc8daa	-0.02692302
56	0x3ba35eae	0.004985652
57	0x3a4bc30d	0.00077729
58	0xba7b1e71	-0.0009579426
59	0xba942618	-0.0011302857
60	0xbbfde864	-0.0077486504
61	0xbaa61d7f	-0.0012673585
62	0xbc9e2ec2	-0.019309405
63	0x0614cf03	2.7987794e-35
64	0x3ca3c588	0.019991651
65	0xbcaad363	-0.02085275
66	0xbdb962cd	-0.09052048
67	0x3b57313e	0.0032835747
68	0x3d97fbcc	0.07421073
69	0x3ca972ac	0.020684563
70	0x3da996e1	0.08280731
71	0x3e46441b	0.19361918
72	0xbc30a2ee	-0.010781033
73	0xbda58bcc	-0.08083305
74	0x3b57310d	0.0032835633
75	0x3dd4e4aa	0.10395177
76	0xbe0b3cb3	-0.13597374
77	0x3b57313b	0.003283574
78	0xba0d87d9	-0.0005398966
79	0x3b573105	0.0032835614
80	0x39be2529	0.0003626731
81	0x3c5c1766	0.013433313
82	0x3ba550c3	0.005045028
83	0x3d0774ec	0.03307049
84	0x3a31f455	0.00067884225
85	0xb9087ed2	-0.00013017215
86	0xbcaf0d0b	-0.021368524
87	0x3cb8b7e0	0.022548616
88	0xb981b076	-0.0002473627
89	0x3d34cf12	0.04414279
90	0x3c9d771f	0.01922184
91	0x3e50682c	0.20352238
92	0x3d72b843	0.059257757
93	0x3d7d100c	0.06178288
94	0xbe4dd2f4	-0.20100003
95	0xb91b73f8	-0.00014825154
96	0x3deb127f	0.11478137
97	0xbd924995	-0.07142941
98	0xb98aadbc	-0.00026450853
99	0x3c21893a	0.0098593775
100	0xb92b31fe	-0.00016326454
101	0xbaf72a19	-0.001885715
102	0xbc3acb79	-0.011401051
103	0xbaf6d3d3	-0.0018831439
104	0x3c8c7cfd	0.017149443
105	0x34ba509f	3.470386e-07
106	0x3c50119a	0.012699509
107	0x3df5786f	0.119858615
108	0xbd622435	-0.05521031
109	0xbc4b0af4	-0.012392748
110	0x3d3ecbf2	0.046581216
111	0xbdf81c76	-0.121148035
112	0xbde99eff	-0.11407279
113	0x3c0f13d8	0.008732758
114	0x3d201ce3	0.03909005
115	0x3de5d154	0.11221567
116	0x3b13fb13	0.0022580072
117	0x3d2035f3	0.03911395
118	0xbbba29b7	-0.0056812423
119	0xbd1e16d5	-0.038595993
120	0x3d1db249	0.038500104
121	0xbc0ea342	-0.008705916
122	0xbb01b125	-0.0019789424
123	0x3b96dfc1	0.0046043103
124	0x3be54cb1	0.0069976677
125	0xbda23cd6	-0.0792176
126	0x3d04ff09	0.032469783
127	0x39ad2d10	0.00033030706
128	0xbdb069ed	-0.08613954
129	0xbaad03df	-0.0013200006
130	0x3ad0611f	0.0015898085
131	0x3dd7a487	0.10529428
132	0x3db1d9e4	0.086841375
133	0xbc193b94	-0.009352583
134	0xbaafea55	-0.0013421277
135	0x3d6f0a0a	0.058359183
136	0x3bdf5d98	0.006816577
137	0x3ad0613b	0.0015898118
138	0xbd6db585	-0.05803444
139	0xbaac004d	-0.0013122648
140	0x3ad06133	0.0015898108
141	0x3c240d24	0.010012899
142	0x3ad0612d	0.0015898101
143	0x3bfb1142	0.0076619694
144	0x3acc0385	0.0015565014
145	0x3bfb1158	0.0076619796
146	0xb9241765	-0.00015648974
147	0xbd00244d	-0.03128462
148	0xba15470c	-0.0005694486
149	0xbde213e5	-0.11038951
150	0xbe760d3d	-0.24028488
151	0x3d748036	0.059692584
152	0xbba673ac	-0.005079707
153	0x3de1d6a9	0.11027271
154	0x3dc93c2a	0.098259285
155	0x3e2d1fef	0.16906713
156	0x3d3eca05	0.04657938
157	0xbdaeeb12	-0.0854093
158	0xbe58c22c	-0.2116782
159	0xbd56bcf8	-0.05242631
160	0x3da2e459	0.0795371
161	0x3da3d9af	0.08000504
162	0x3d357c38	0.044307917
163	0x3cdf8ae8	0.027287915
164	0xbc1d3dc0	-0.009597242
165	0xbe0fc352	-0.14039353
166	0xbc98c7ec	-0.018650018
167	0xbd99f8da	-0.07518168
168	0x3e2d1558	0.16902673
169	0xbe9d7d9d	-0.30759898
170	0xbddda641	-0.10822726
171	0x3db72232	0.08942069
172	0x3e3e9afa	0.18613806
173	0xbf12a3d4	-0.5728123
174	0x3e0b50e5	0.13605078
175	0x3e5bf448	0.21479905
176	0x3dd9b495	0.106301464
177	0xbda4dd98	-0.08050078
178	0x3d9fab07	0.07796293
179	0xbe27a27f	-0.16370581
180	0x3dfab44d	0.12241421
181	0xbe4bfcd2	-0.19920662
182	0xbdf34140	-0.1187768
183	0x3be83820	0.0070867687
184	0x3da8584b	0.082199655
185	0xbad305cd	-0.0016099751
186	0xbd4b9dc7	-0.049711015
187	0xbad3848f	-0.0016137528
188	0xba54fc29	-0.0008124733
189	0x3e78d6eb	0.24300735
190	0xbd7d1952	-0.061791725
191	0xbce741b0	-0.028229564
192	0x3a4c4728	0.00077925855
193	0x3cd98ffb	0.026557913
194	0xbf2de5ff	-0.6792907
195	0x3ce2461a	0.027621318
196	0xbdcbf4c1	-0.099587925
197	0x3a4c4722	0.0007792582
198	0xbe0864e6	-0.1331974
199	0xbdc60a81	-0.09669972
200	0xbc94c40a	-0.018159885
201	0x3e00b6b1	0.12569691
202	0x3a4c471a	0.00077925774
203	0xbdc10b8b	-0.0942603
204	0x38b9bdb2	8.856821e-05
205	0x3dc86a34	0.09785882
206	0x3b6061dc	0.0034238016
207	0xbd69e461	-0.057102565
208	0x3b6061de	0.003423802
209	0xbce80216	-0.028321307
210	0x3a385cf9	0.0007032897
211	0x3e79a5fe	0.24379727
212	0xbd716a47	-0.058939245
213	0x3d11292e	0.035439663
214	0x3b7a9386	0.0038234903
215	0xbd069bf5	-0.032863576
216	0x3d71086a	0.058845915
217	0x3d96ad73	0.073573016
218	0xbd589cc3	-0.052883875
219	0x3d37fec8	0.044920713
220	0xbd88debc	-0.06683108
221	0xbc5426d7	-0.012948713
222	0xbf046da8	-0.5172982
223	0x3b689ba6	0.0035493164
224	0x3c14ed6a	0.009089807
225	0xbc8f1617	-0.017466588
226	0x3b7ed584	0.003888459
227	0x3b39db1a	0.0028359354
228	0xbc0a0037	-0.008422903
229	0x3ab50d1e	0.0013813113
230	0xbb419cc1	-0.0029542895
231	0x891f57a6	-1.9180141e-33
232	0xbea82b06	-0.32845324
233	0xbe3729c4	-0.17887026
234	0x3dfb7f3b	0.12280127
235	0xbb63ba99	-0.0034748672
236	0x3ea98833	0.33111724
237	0x3e36919c	0.17828983
238	0x3e778258	0.24170816
239	0x3db55d5c	0.088556975
240	0x3d61d692	0.05513627
241	0xbd9b2a26	-0.075763986
242	0xbb638df7	-0.0034722069
243	0xbcc021f5	-0.023453692
244	0xbe34be13	-0.17650633
245	0xbb639e65	-0.0034731862
246	0xbc9c2bb7	-0.019063814
247	0xbb63a7e4	-0.0034737522
248	0x39a71176	0.00031865732
249	0x3cce8aca	0.025212664
250	0x39976a97	0.0002888038
251	0xbd83b2b6	-0.06430571
252	0xb8445302	-4.680735e-05
253	0x3e8d6712	0.276177
254	0x3c49cd03	0.012316945
255	0xbdd74969	-0.10512049

model.decoder_module.convs.0.m_net_list.0.bias.weight f4 [8, 21]
0	0xbe343e19	-0.17601813
1	0xbaa91745	-0.0012900612
2	0xbecae2ed	-0.39626256
3	0x3d9cb4e9	0.076516934
4	0x3dda8718	0.10670298
5	0xbd0ce84d	-0.034401227
6	0xbf0e7eb6	-0.55662096
7	0xbdf949b3	-0.1217226
8	0xbe839e64	-0.2570678
9	0x3f2e3e98	0.6806426
10	0x3ce04905	0.027378568
11	0x3d84588f	0.06462204
12	0xbd998f1b	-0.07497998
13	0x3ddd34ff	0.10801124
14	0x3dbce2e7	0.09222966
15	0x3c78a033	0.015174913
16	0xbc617e6c	-0.0137630515
17	0xbb31c842	-0.002712742
18	0x3ed29b95	0.41134325
19	0xbb31c09c	-0.002712286
20	0xbb9abdd1	-0.004722335
21	0x3e174008	0.1477052
22	0x3d3c95d7	0.046041336
23	0x3b82a13d	0.0039865063
24	0xbc6bc9a8	-0.01439134
25	0xbec4b79a	-0.38421327
26	0xbd951d16	-0.07280938
27	0xbd83b3c8	-0.06430775
28	0x3d8b558b	0.068034254
29	0xbc6bc9ad	-0.014391345
30	0x3c60215f	0.013679831
31	0xbdd93060	-0.1060493
32	0xbdf63a37	-0.12022822
33	0xbdc79ad6	-0.097463295
34	0xbc6bc9ad	-0.014391345
35	0xbe7d0e0b	-0.24712388
36	0xbc91f599	-0.017817305
37	0xbe87cee0	-0.2652502
38	0xbb20fe82	-0.002456576
39	0xbdc61488	-0.09671885
40	0xbb20fe41	-0.002456561
41	0xbcfaf8a0	-0.030636132
42	0xbc255dee	-0.010093195
43	0x3d446eed	0.04795735
44	0xbdd018c6	-0.10160975
45	0xbea792e4	-0.32729256
46	0xbd666905	-0.0562525
47	0x3f0943ac	0.53618884
48	0x3e1738f7	0.14767824
49	0x3d3a9f93	0.045562338
50	0xbea06e2d	-0.31334057
51	0x3e26643a	0.16249171
52	0x3bd623a9	0.0065350127
53	0xbd5fbeef	-0.054625448
54	0xbce7c874	-0.028293826
55	0xbe28a486	-0.1646901
56	0xbd40a778	-0.04703471
57	0x3e8642c5	0.26222816
58	0xbd9467d0	-0.07246363
59	0xbbd2af8e	-0.006429619
60	0xbd88a875	-0.06672756
61	0xbbdc84aa	-0.006729682
62	0xbd59c346	-0.053164743
63	0x901eed61	-3.1342876e-29
64	0xbf134c24	-0.57538056
65	0xbc2624fd	-0.010140655
66	0x3e4576e1	0.1928363
67	0xbb5c3d0c	-0.0033605723
68	0xbcb62ed0	-0.022239119
69	0xbce1a683	-0.02754522
70	0xbe65383c	-0.22384733
71	0xbe11c5fc	-0.14235681
72	0x3e8ca108	0.27466607
73	0xbecfd249	-0.40590122
74	0xbb5c8c99	-0.0033653139
75	0xbea4c801	-0.3218384
76	0x3df52572	0.11970033
77	0xbb5d3a18	-0.003375655
78	0xbe0d92d6	-0.13825545
79	0xbb5c9901	-0.0033660533
80	0xb9f78ca8	-0.00047216308
81	0xbe998afa	-0.29988843
82	0xba516d05	-0.00079889625
83	0xbe44cd7c	-0.19219011
84	0xbc78ba46	-0.01518113
85	0xbcddb73e	-0.027064916
86	0xbd0e8161	-0.034791354
87	0xbee4987f	-0.44647595
88	0xbc6617e2	-0.01404378
89	0x3d9725b7	0.073802404
90	0x3d860f7a	0.06545921
91	0x3d8983da	0.06714602
92	0xbf05feaf	-0.5234174
93	0xbd88677e	-0.066603646
94	0x3bfc1872	0.007693344
95	0xbc6cb365	-0.014447068
96	0xbdee13d8	-0.11624879
97	0xbed6473f	-0.4185123
98	0xbc6ba309	-0.014382132
99	0xbf1d9606	-0.6155704
100	0xbc731eee	-0.014838917
101	0xbb63fd4f	-0.0034788435
102	0xbdec599b	-0.115405284
103	0xbb63fddb	-0.003478876
104	0xbdf7c550	-0.12098181
105	0xb7dbd00e	-2.6203717e-05
106	0xbf06a4cf	-0.5259523
107	0xbe4c6234	-0.19959337
108	0x3e5edf45	0.21764858
109	0xbe9b33a4	-0.30312836
110	0x3ed6e002	0.4196778
111	0x3ca11c34	0.019666769
112	0xbe29fdf2	-0.16600779
113	0xbdb4fccd	-0.088372804
114	0xbe2c3ed7	-0.16820846
115	0x3d96fa33	0.073719405
116	0xbea1a8af	-0.31574008
117	0x3e2546a4	0.16140229
118	0x3e77d8a6	0.24203739
119	0xbea79c78	-0.32736564
120	0xbe3cd98c	-0.18442363
121	0xbeaf03cb	-0.3418258
122	0xbd3def05	-0.046370525
123	0x3f3bcd42	0.73360074
124	0xbde8f568	-0.113749325
125	0xbe48804c	-0.19580191
126	0x3e2fc0ed	0.17163439
127	0xbe53d31b	-0.20685999
128	0xbe53135a	-0.20612851
129	0xbb00279e	-0.0019554864
130	0xbc6fe79e	-0.014642624
131	0x3ec24483	0.37942895
132	0xbe53de2a	-0.20690218
133	0x3d41b641	0.04729295
134	0xbb0132b4	-0.001971406
135	0x3e076ac2	0.13224319
136	0x3e8775d9	0.26457098
137	0xbc6fe7a0	-0.014642626
138	0x3eaf5324	0.3424312
139	0xbb0044f0	-0.001957234
140	0xbc6fe7a0	-0.014642626
141	0xbe46c42d	-0.19410773
142	0xbc6fe79e	-0.014642624
143	0xbcd9329b	-0.026513388
144	0xbd5aa400	-0.05337906
145	0xbcd930d6	-0.026512545
146	0xbda30bcd	-0.07961235
147	0xbe13c0d3	-0.14429025
148	0xbe260011	-0.16210963
149	0x3c89a8a8	0.016804054
150	0xbec8a987	-0.3919184
151	0x3e3dfb5a	0.18552914
152	0xbda5604c	-0.08075008
153	0x3c066546	0.008202856
154	0xbeac88e5	-0.33698192
155	0xbe869a94	-0.2628981
156	0x3ccd16d2	0.025035296
157	0xbecbb6ca	-0.39787894
158	0xbe412af2	-0.18864039
159	0xbe66e1ca	-0.22547069
160	0xbda567bd	-0.08076427
161	0xbd98384d	-0.074326135
162	0xbeacd8c9	-0.33759144
163	0x3da26c52	0.07930817
164	0xbe36413a	-0.1779832
165	0x3ea6e358	0.32595325
166	0xbeb5711a	-0.35437852
167	0xbec9af94	-0.39391768

model.decoder_module.convs.1.m_net_list.0.weights.weight f4 [128, 21]
0	0x3f1e000a	0.6171881
1	0x3bd7bd88	0.006583873
2	0xbe5e1920	-0.21689272
3	0xbd784a36	-0.060617648
4	0x3dedff6d	0.11620984
5	0xbeb28a56	-0.34871167
6	0xbe59bc0d	-0.21263142
7	0xbe47e51c	-0.19520992
8	0xbe615374	-0.22004491
9	0x3ebf66cb	0.37383112
10	0x3d7b493e	0.061349146
11	0x3e10e745	0.14150722
12	0xbf07818e	-0.5293206
13	0xbe7897c4	-0.24276644
14	0xb8ca4e35	-9.646678e-05
15	0x3db25f9c	0.08709642
16	0xbe6c82de	-0.23096797
17	0xbb31ec80	-0.0027149022
18	0xbe0188e9	-0.12649883
19	0xbb31ec83	-0.0027149029
20	0xbb07fb7d	-0.0020749264
21	0xbee243fe	-0.441925
22	0xbc501e2a	-0.012702504
23	0x3e36917f	0.1782894
24	0x3e1d0d97	0.15337215
25	0xbdedb529	-0.11606819
26	0x3e42952d	0.19002219
27	0x3e12ce65	0.14336546
28	0xbe48781c	-0.19577068
29	0x3d2f6d12	0.042828627
30	0xbdbe45e5	-0.09290675
31	0xbea2fd11	-0.318337
32	0x3e329076	0.1743792
33	0xbe92fbcf	-0.2870774
34	0xbb785546	-0.0037892624
35	0xbe552dc0	-0.20818233
36	0x3ccd6c22	0.025075976
37	0xbe3495fc	-0.1763534
38	0x3b309255	0.002694269
39	0xbd889297	-0.06668585
40	0x3b309257	0.0026942694
41	0x3b06a8ff	0.0020547507
42	0xbf391bcc	-0.7230804
43	0x3cd504b7	0.026003225
44	0xbd76090d	-0.060067225
45	0xbe2b0134	-0.16699678
46	0x3d2b6916	0.041848265
47	0x3dcc3d11	0.09972585
48	0xbde13dcd	-0.10998116
49	0xbc9fe5c4	-0.01951874
50	0x3e0ab50c	0.13545626
51	0x3e9e6ea6	0.30943793
52	0x3e07d10d	0.1326334
53	0xbcb10b41	-0.021611812
54	0x3ec2141b	0.37905964
55	0xbd7c774d	-0.06163721
56	0xbd6d9888	-0.058006793
57	0xbdc8cad6	-0.09804313
58	0xbe1807d4	-0.14846736
59	0x3b31e8cc	0.0027146814
60	0x3dc0e002	0.09417726
61	0x3b31e8ca	0.002714681
62	0x3b07fe70	0.0020751022
63	0x3ee794f0	0.45230818
64	0x3e1acc2e	0.15116951
65	0xbe36e97a	-0.17862502
66	0x3d434a3e	0.047678225
67	0xbccdd8d9	-0.025127815
68	0xbeb2d450	-0.34927607
69	0xbda69057	-0.081329994
70	0x3e9d2c8b	0.30698046
71	0x3e0acc4a	0.13554493
72	0xbdca0982	-0.09865095
73	0x3e61afa9	0.22039665
74	0x3e02c419	0.12770118
75	0x3f03221e	0.51223934
76	0x3e35b61a	0.17745247
77	0x3e1f5965	0.15561445
78	0x3d67f359	0.05662856
79	0x3e1a7710	0.15084481
80	0x3b31413e	0.0027046944
81	0xbdaa8e4e	-0.08327924
82	0x3b314140	0.0027046949
83	0x3b07490e	0.002064291
84	0x3f243959	0.64150006
85	0xbe32ebd8	-0.1747278
86	0x3e227e1f	0.15868424
87	0xbd9b6e3e	-0.075893864
88	0x3dcc090b	0.09962662
89	0x3e2c84fc	0.16847605
90	0xbc4c84e6	-0.012482857
91	0xbe3cbdb8	-0.18431747
92	0x3d26fc9c	0.04076825
93	0x3d4c0b18	0.049815267
94	0xbdee21ca	-0.116275385
95	0x3dea22b1	0.11432398
96	0xbea4b374	-0.32168162
97	0xbdf8f723	-0.121565126
98	0x3d03bc84	0.032162204
99	0x3c5aa6ba	0.013345415
100	0x3de8f8da	0.1137559
101	0xbb322e58	-0.0027188268
102	0x3e91ca38	0.28474593
103	0xbb322e58	-0.0027188268
104	0xbb083a42	-0.0020786677
105	0xbf146376	-0.57964265
106	0x3e92be13	0.2866064
107	0xbd2834ab	-0.041065853
108	0x3e04a8f5	0.12955077
109	0xbe380a8c	-0.17972773
110	0xbe523ed2	-0.20531777
111	0xbdba9227	-0.091099076
112	0xbd082855	-0.03324159
113	0xbe235189	-0.15949072
114	0xbce51d09	-0.027967947
115	0x3e9629a3	0.2932864
116	0xbe52fd5d	-0.20604463
117	0x3e398980	0.18118858
118	0x3e02f4b4	0.1278866
119	0xbd83d733	-0.0643753
120	0xbe920ddf	-0.28526208
121	0x3db390fb	0.08767887
122	0x3b309423	0.0026943765
123	0x3da11bc6	0.078666255
124	0x3b309423	0.0026943765
125	0x3b06b755	0.0020556052
126	0x3f1e32b0	0.61796093
127	0x3ce21474	0.027597643
128	0x3e6812c2	0.22663406
129	0xbda9a5a5	-0.08283547
130	0x3e8a9c6a	0.2707246
131	0x3cf37b72	0.02972195
132	0x3e291b9b	0.16514437
133	0x3e0cbb94	0.1374343
134	0xbe2d82fe	-0.16944501
135	0xbe27f938	-0.16403663
136	0x3e4fae8c	0.20281428
137	0xbdde840a	-0.10865028
138	0x3f10e1ad	0.56594354
139	0x3dbe77e3	0.0930021
140	0xbd98693c	-0.07441947
141	0xbd652579	-0.05594394
142	0x3e6eba42	0.23313239
143	0x3b2eda96	0.002668058
144	0x3e8c9a54	0.27461493
145	0x3b2eda92	0.002668057
146	0x3b04f901	0.002029002
147	0x3ee61292	0.44936043
148	0x3e8317ac	0.25603998
149	0xbe02e1ec	-0.12781495
150	0x3e423832	0.1896675
151	0x3d40a50a	0.047032394
152	0x3d35786d	0.0443043
153	0x3cff2d80	0.031149626
154	0x3db3aa90	0.087727666
155	0xbe18d838	-0.14926231
156	0xbe9ca4f8	-0.3059461
157	0xbc004bc1	-0.007830561
158	0xbe1c4476	-0.15260491
159	0xbf0ab45b	-0.5418145
160	0x3dd5b986	0.104357764
161	0xbd43f0e5	-0.047837157
162	0x3d30a397	0.04312476
163	0x3e2f35d3	0.17110376
164	0x3b301bc0	0.002687201
165	0x3e200f9b	0.15630953
166	0x3b301bbf	0.0026872007
167	0x3b0636e8	0.0020479504
168	0x3ec6a105	0.38794723
169	0x3e41566b	0.18880622
170	0x3bca877f	0.006180703
171	0xbc2a22e5	-0.010384296
172	0xbe1251b5	-0.14288981
173	0xbe884b15	-0.26619783
174	0xbe7fc2d8	-0.2497667
175	0x3d677419	0.056507204
176	0xbc2a22f8	-0.010384314
177	0x3e206cb8	0.15666473
178	0x3e56b488	0.20967305
179	0x3e316620	0.17324114
180	0x3d3fe270	0.046846807
181	0xbc2a22eb	-0.010384302
182	0x3ddd6cca	0.108117655
183	0xbc363641	-0.011121334
184	0xbe07c96f	-0.13260435
185	0xb9d1aa1b	-0.00039990325
186	0xbe044a2b	-0.12918918
187	0xb9d1aa1b	-0.00039990325
188	0x3a976638	0.0011550849
189	0xbeb40e0a	-0.3516696
190	0xbd9a34bd	-0.0752959
191	0x3e714907	0.23563014
192	0xbd157e46	-0.036497377
193	0x3bd82ec7	0.006597373
194	0x3ca317ca	0.019908804
195	0x3e041ede	0.129024
196	0x3e107666	0.14107665
197	0xbd157e39	-0.03649733
198	0x3da856d0	0.08219683
199	0xbcf65f48	-0.03007473
200	0x3d2c7c4d	0.04211073
201	0x3e3418a1	0.1758752
202	0xbd157e4a	-0.03649739
203	0x3dec5594	0.1153976
204	0xbd154943	-0.03644682
205	0xbe3a135c	-0.18171448
206	0x3a282b50	0.00064151455
207	0xbe382382	-0.17982295
208	0x3a282b50	0.00064151455
209	0xbaae4fa7	-0.0013298885
210	0xbebd3d2f	-0.36960742
211	0x3d14c81e	0.03632366
212	0x3d9bc412	0.07605757
213	0x3d0b7360	0.034045577
214	0xbe374bf1	-0.17900063
215	0x3ea6b5a8	0.32560468
216	0xbc4961a1	-0.012291343
217	0xbe054a22	-0.1301656
218	0x3d0b736a	0.034045614
219	0xbe66b5eb	-0.22530334
220	0xbe7fd0fe	-0.24982068
221	0x3d88e5fa	0.066844895
222	0xbe8ee0ef	-0.27905986
223	0x3d0b736a	0.034045614
224	0x3deb77fb	0.11497494
225	0x3d0bc2c6	0.034121297
226	0xbdd5900c	-0.104278654
227	0x39eb7719	0.00044911428
228	0xbd05fced	-0.032711912
229	0x39eb7719	0.00044911428
230	0xba9bb70c	-0.0011880114
231	0x3f12925a	0.57254565
232	0xbdc42344	-0.09577039
233	0xbceaa376	-0.028642397
234	0x3d0be6f7	0.034155812
235	0xbe261deb	-0.1622235
236	0x3d8ed4a9	0.069741555
237	0xbd2604b0	-0.040531814
238	0xbd7f4682	-0.0623231
239	0x3d0be6f6	0.03415581
240	0xbece30e2	-0.4027167
241	0xbea35883	-0.31903467
242	0xba670d26	-0.000881391
243	0xbbb26169	-0.005443741
244	0x3d0be6f6	0.03415581
245	0x3e1d5880	0.15365791
246	0x3d0c27db	0.034217697
247	0x3d96ed3d	0.07369468
248	0x3a0f520f	0.0005467245
249	0xbe193c86	-0.14964494
250	0x3a0f5210	0.00054672454
251	0xbaa3464d	-0.0012456864
252	0x3f36b7fe	0.713745
253	0xbcd363e2	-0.025804464
254	0x3df200a0	0.118165255
255	0x3d16e42e	0.036838703

model.decoder_module.convs.1.m_net_list.0.bias.weight f4 [8, 21]
0	0x3e3d946d	0.18513651
1	0x3e1ac430	0.15113902
2	0x3dd28f66	0.10281257
3	0x3e878954	0.2647196
4	0xbea964b7	-0.33084652
5	0x3f1df278	0.616981
6	0x3eaf62a3	0.3425494
7	0xbf0e840e	-0.5567025
8	0x3cb51cd4	0.022108473
9	0x3fc6343c	1.5484691
10	0xbedbc503	-0.42923746
11	0xbe80e1a4	-0.2517215
12	0xbe781de8	-0.24230158
13	0x3e8c003f	0.27343938
14	0xbdc58210	-0.09643948
15	0xbbdee04d	-0.006801641
16	0xbeb23122	-0.3480311
17	0x3e6fd9d9	0.23422946
18	0xbea146aa	-0.31499225
19	0x3e6a9ae3	0.22910647
20	0xbc874883	-0.016514068
21	0xbc1c3034	-0.009532977
22	0x3f1c1b24	0.60978913
23	0xbd4de3f5	-0.050266225
24	0xbe1a818f	-0.15088485
25	0xbd989424	-0.074501306
26	0x3fbe8514	1.4884362
27	0xbe169905	-0.1470681
28	0xbefcfa11	-0.49409536
29	0xbe88bef6	-0.26708192
30	0xbfab87ce	-1.3400819
31	0xbef262d4	-0.47341025
32	0xbc6fafbd	-0.014629302
33	0xbec1185e	-0.37713903
34	0x3dc48044	0.09594777
35	0xbdc1a1d7	-0.094546966
36	0x3dded5fe	0.108806595
37	0xbe04ae88	-0.12957203
38	0xbefe464f	-0.49663016
39	0x3e1912f8	0.14948642
40	0xbe62e35c	-0.22157043
41	0xbc11c6f8	-0.0088975355
42	0x3c802611	0.015643151
43	0x3e250070	0.16113448
44	0x3d8a8b06	0.06764798
45	0xbd0c6fc3	-0.03428627
46	0x3e781cca	0.24229732
47	0x3e071213	0.13190489
48	0x3e642601	0.22280122
49	0x3e92ff8f	0.287106
50	0xbe4afd4b	-0.19823186
51	0x3f78d799	0.97203976
52	0x3eb37819	0.35052565
53	0xbde376d5	-0.1110665
54	0x3f162f97	0.58666366
55	0x3dfa41d0	0.12219584
56	0x3e558436	0.20851216
57	0xbc98d610	-0.01865676
58	0x3d890108	0.0668965
59	0xbef0713b	-0.46961388
60	0x3e4e9640	0.20174503
61	0xbe1e889d	-0.15481801
62	0x3c8dfeb6	0.01733337
63	0x3cd45eb5	0.025924066
64	0xbed24d8e	-0.41074795
65	0xbe6f08ce	-0.23343202
66	0xbd14b1e2	-0.036302455
67	0x3f246ee4	0.64231706
68	0xbf7b065f	-0.98056597
69	0xbddc0e69	-0.10744936
70	0x3eebbf01	0.46044162
71	0xbe4dce18	-0.2009815
72	0xbecebb30	-0.40377188
73	0x3ed871b9	0.42274264
74	0x3f6e3b1e	0.93058956
75	0x3f036b1a	0.513353
76	0xbe583e4b	-0.21117513
77	0x3f23008f	0.6367273
78	0xbd991090	-0.07473862
79	0x3f21927a	0.6311413
80	0xbe157ea5	-0.14599092
81	0x3eaf7f97	0.3427703
82	0xbf0654a5	-0.5247291
83	0x3df745c1	0.120738514
84	0x3e6ab87c	0.22921938
85	0xbde8ac88	-0.11361033
86	0x3d2cc603	0.042181026
87	0x3d1d74b4	0.038441375
88	0xbd6c7324	-0.057726994
89	0xbf8076e7	-1.0036286
90	0xbe1fa53f	-0.1559038
91	0xbed0abff	-0.40756223
92	0x3c74d221	0.014942677
93	0x3d37f14b	0.04490785
94	0xbeefe84e	-0.46856922
95	0xbef00a95	-0.46883073
96	0xbef29e7c	-0.4738654
97	0x3e2e739a	0.17036286
98	0xbec30d1e	-0.38095945
99	0x3dfaa716	0.122389
100	0xbebccabf	-0.36873433
101	0x3e44ef48	0.19231904
102	0xbc6f3fdf	-0.01460263
103	0x3e6b487f	0.22976874
104	0xbd2fdad6	-0.042933308
105	0x3dabac0e	0.08382426
106	0x3d64821c	0.055788144
107	0xbdd27af2	-0.10277356
108	0x3edb852c	0.4287504
109	0xbe6e911b	-0.23297541
110	0x3ed3c632	0.4136215
111	0xbe533ee2	-0.20629457
112	0x3f1e9fb5	0.61962444
113	0x3f1f6cc6	0.6227535
114	0xbe931c0b	-0.28732333
115	0x3ef150dd	0.47132006
116	0xbd91b413	-0.071144246
117	0x3edcc8d0	0.43121958
118	0x3f1d9f73	0.61571425
119	0xbdd0e930	-0.10200727
120	0xbe01e4dc	-0.12684959
121	0xbd20ea2c	-0.039285824
122	0xbed2667a	-0.41093808
123	0xbc27e9c2	-0.010248603
124	0xbeabe76c	-0.33574998
125	0xbe10000f	-0.14062522
126	0xbd566c87	-0.052349593
127	0x3db51868	0.08842546
128	0xbe27f9c0	-0.16403866
129	0xbeae1b99	-0.3400543
130	0xbea49ceb	-0.3215097
131	0xbef4a6f9	-0.4778364
132	0xbe2a300a	-0.16619888
133	0x3e5c84b2	0.21534994
134	0xbeb0e2f9	-0.34548166
135	0xbf761daa	-0.96139014
136	0x3eac1f70	0.33617735
137	0xbe94ccfc	-0.2906264
138	0x3e5e6eae	0.21721908
139	0xbef37fea	-0.47558528
140	0xbd28ca8e	-0.041208796
141	0xbd3651c2	-0.044511564
142	0xbe781f59	-0.24230708
143	0xbede180b	-0.43377718
144	0xbe4f9c46	-0.20274457
145	0xbeff2fe0	-0.49841213
146	0x3d0e6880	0.034767628
147	0xbd3dc4ec	-0.046330377
148	0x3de0fabf	0.10985326
149	0xbe289b83	-0.16465573
150	0xbf24f9fd	-0.6444395
151	0xbe2374a3	-0.15962462
152	0xbdcfbfcf	-0.101440065
153	0xbe2a58e7	-0.16635476
154	0xbf1b5bc0	-0.60686874
155	0xbf2fe952	-0.68715394
156	0xbf1eee93	-0.62082785
157	0xbf0c453f	-0.5479316
158	0xbe32a5a1	-0.17445995
159	0xbe4ea477	-0.20179926
160	0xbf0e513e	-0.55592716
161	0xbe965d5a	-0.29368097
162	0xbcebf8e9	-0.028805213
163	0xbd1b5d89	-0.037931
164	0xbecdefc2	-0.40221983
165	0xbe315ba4	-0.17320114
166	0xbef1506b	-0.47131667
167	0x3d239445	0.039936323

model.prob_model_x._decoder_embeddings.0.weight f4 [1, 8]
0	0xbf3f2cbf	-0.7467765
1	0x3f2237f7	0.63366646
2	0x3effb8f1	0.49945787
3	0xbf08a1e5	-0.5337203
4	0xbf53f2d4	-0.827924
5	0x3f31603d	0.6928747
6	0xbee219d8	-0.44160342
7	0xbf24a3e4	-0.6431258

model.prob_model_x._decoder_embeddings.1.weight f4 [2, 8]
0	0x3e10a7eb	0.14126556
1	0xbd19e9ae	-0.03757637
2	0xbe0e86e6	-0.13918647
3	0x3d933825	0.07188443
4	0x3a2ceae9	0.00065962836
5	0x3bd72e5a	0.006566805
6	0xbde39c08	-0.11113745
7	0xbe86db2c	-0.2633909
8	0xbfb23bfe	-1.3924558
9	0xbfdda585	-1.7316138
10	0xbea29c1e	-0.31759733
11	0x3fcd612c	1.604528
12	0x3f7cd1c3	0.9875757
13	0xbf8f68cc	-1.1203856
14	0x3f972116	1.1806972
15	0xbc8c2ffb	-0.017112723

model.prob_model_x._decoder_embeddings.2.weight f4 [2, 8]
0	0x3b221803	0.002473355
1	0xbaaf86c5	-0.0013391605
2	0xbb4a55db	-0.0030873928
3	0xbe629f42	-0.22131065
4	0xbdcb0788	-0.09913546
5	0x3e1de633	0.15419845
6	0x3cefeca9	0.029287653
7	0x3d9f24ff	0.07770728
8	0xbfa286fc	-1.2697444
9	0x3f6ef7eb	0.9334704
10	0xbf73631f	-0.9507312
11	0x3f4f59df	0.8099651
12	0x3e3be6e8	0.18349802
13	0x3f0b6a4e	0.54459083
14	0x3fb50694	1.4142632
15	0x3f722381	0.94585425

model.prob_model_x._decoder_embeddings.3.weight f4 [1, 8]
0	0x3eae57c3	0.34051332
1	0x3f20cd2f	0.62813085
2	0xbf199099	-0.59986264
3	0xbf21c69f	-0.63193697
4	0x3f0429b9	0.51626164
5	0xbf5f50c8	-0.8723264
6	0xbda477fa	-0.08030696
7	0x3ee36d53	0.44419345

model.prob_model_x._decoder_embeddings.4.weight f4 [2, 8]
0	0xbc3378f4	-0.01095413
1	0xbe500ae1	-0.2031665
2	0x3e1ce26d	0.1532075
3	0x3e853a5d	0.2602109
4	0x3de1c8fe	0.11024664
5	0x3bfa25da	0.007633907
6	0xbd49d094	-0.04927118
7	0xbbf1e546	-0.007382068
8	0xbf4cb90d	-0.79969865
9	0x3eb41354	0.35170996
10	0x3f281515	0.6565717
11	0x3f68790c	0.908097
12	0xbe8054d6	-0.25064725
13	0xbf644931	-0.8917418
14	0x3f738cb2	0.9513656
15	0x3f74dff3	0.9565422

model.prob_model_x._decoder_embeddings.5.weight f4 [2, 8]
0	0xbd0b5b8a	-0.034022845
1	0xbda8b978	-0.082385
2	0x3e2930b1	0.1652248
3	0xb98bc3b9	-0.0002665797
4	0x3b6f7da5	0.0036543396
5	0x3e778f1e	0.24175689
6	0x3b138ac2	0.0022513126
7	0x3dbba39c	0.091620654
8	0x3f4db157	0.80348724
9	0x3e899443	0.26870927
10	0xbf20c4f8	-0.6280055
11	0xbf6b9fa3	-0.9204046
12	0x3e9b5782	0.303402
13	0x3f13db71	0.57756716
14	0x3ebea373	0.37234077
15	0x3f5a8983	0.85366076

model.prob_model_x._decoder_embeddings.6.weight f4 [1, 8]
0	0x3ee94f98	0.45568538
1	0xbf3c97b5	-0.73668987
2	0xbf0142bd	-0.5049246
3	0xbf1d34c9	-0.6140867
4	0x3ed0ed0b	0.4080585
5	0xbf48f971	-0.7850562
6	0xbf8d1854	-1.1023049
7	0xbf58c41b	-0.84674233

exp_avg f4 [16, 1]
0	0xb4598920	-2.0259586e-07
1	0xb3b3ec20	-8.378288e-08
2	0x80000519	-1.829e-42
3	0x80000018	-3.4e-44
4	0xb483aa5f	-2.4524613e-07
5	0x00000038	7.8e-44
6	0x321153d9	8.459176e-09
7	0x80000156	-4.79e-43
8	0x80000dd7	-4.965e-42
9	0x00000069	1.47e-43
10	0x80000154	-4.76e-43
11	0x9ab88bb1	-7.63263e-23
12	0x3d7d4a71	0.06183857
13	0x3e43b32a	0.19111314
14	0x3e58c853	0.21170168
15	0x80000085	-1.86e-43

exp_avg_sq f4 [16, 1]
0	0x309502cd	1.0841973e-09
1	0x2d18662f	8.662889e-12
2	0x19f38d95	2.5182796e-23
3	0x0d1cebb8	4.8354948e-31
4	0x30860ef6	9.754035e-10
5	0x0de5d545	1.4164557e-30
6	0x26ddbc9c	1.5386078e-15
7	0x153286c5	3.6053128e-26
8	0x1ccd8547	1.3600213e-21
9	0x0cb67925	2.8114451e-31
10	0x152e0556	3.514323e-26
11	0x220e339f	1.9271917e-18
12	0x3db1278c	0.08650121
13	0x3f2ad480	0.667305
14	0x3fcce02b	1.6005911
15	0x11e67f55	3.6366076e-28

exp_avg f4 [16]
0	0x3e10be3d	0.1413507
1	0xbe494f1d	-0.19659086
2	0x80000812	-2.895e-42
3	0x80001709	-8.263e-42
4	0xbdb317c2	-0.08744766
5	0x800002ea	-1.045e-42
6	0xb2187941	-8.875134e-09
7	0x80000157	-4.8e-43
8	0xb0cceea9	-1.4910785e-09
9	0x80000786	-2.699e-42
10	0x800001da	-6.64e-43
11	0x9b45dff6	-1.6367824e-22
12	0x3d7d49fb	0.06183813
13	0x3e43b2fd	0.19111247
14	0x3e9b12c4	0.30287755
15	0x80000084	-1.85e-43

exp_avg_sq f4 [16]
0	0x400ed02d	2.231456
1	0x405a61af	3.4122121
2	0x1b58db6c	1.7938e-22
3	0x1e2a5eaf	9.019305e-21
4	0x3f08bf0e	0.53416526
5	0x18009ead	1.6623723e-24
6	0x26e5a253	1.5934065e-15
7	0x1532882b	3.605423e-26
8	0x2982b940	5.8052955e-14
9	0x1b1e58f2	1.3098193e-22
10	0x166f3931	1.9324313e-25
11	0x222ab2d7	2.3133973e-18
12	0x3db1278a	0.086501196
13	0x3f2ad47c	0.66730475
14	0x4069a24a	3.6505303
15	0x11e793d1	3.6536473e-28

exp_avg f4 [16, 1]
0	0xbf44e211	-0.7690745
1	0xc02a6564	-2.6624384
2	0xbe75881e	-0.23977706
3	0x3d7b0f6b	0.061294
4	0xbe1812d0	-0.14850926
5	0xc01040fa	-2.2539659
6	0xbf2517c6	-0.644894
7	0xb1fc7344	-7.3472695e-09
8	0xbf06a913	-0.52601737
9	0x3e85dd3f	0.2614536
10	0xbe1b5974	-0.15170842
11	0xbff9d64e	-1.9518526
12	0xb26511f8	-1.333364e-08
13	0x3e854add	0.2603368
14	0xbf8ae0e0	-1.0849876
15	0xbb863058	-0.0040951185

exp_avg_sq f4 [16, 1]
0	0x41871e00	16.889648
1	0x42cc6b7a	102.209915
2	0x40f679cc	7.702368
3	0x3f3932f4	0.72343373
4	0x3fb47d1b	1.4100679
5	0x42eeefef	119.46862
6	0x422600ee	41.500908
7	0x2b4e4f63	7.3296073e-13
8	0x416d74e4	14.841038
9	0x4001fc93	2.031041
10	0x415c8035	13.781301
11	0x431a2e51	154.18092
12	0x2f25502b	1.5035144e-10
13	0x404232e6	3.0343566
14	0x41ecc595	29.596476
15	0x3bd8fe69	0.006622125

exp_avg f4 [16]
0	0xbf23de39	-0.6401096
1	0x4020aff2	2.5107388
2	0xbe466915	-0.19376023
3	0x3d00944f	0.031391438
4	0x3e28ab11	0.16471507
5	0x4053c37d	3.3088067
6	0xbf1254ec	-0.5716083
7	0xb29bc9cb	-1.813614e-08
8	0x3f703106	0.93824804
9	0x3e937f6c	0.28808153
10	0xbf496e90	-0.7868433
11	0xbfc5beeb	-1.5448889
12	0xb309be2e	-3.2070766e-08
13	0x3e62ff02	0.2216759
14	0x3f77dabc	0.9681814
15	0xba8f6fd5	-0.0010943363

exp_avg_sq f4 [16]
0	0x4188f6e3	17.12055
1	0x42b25e69	89.184395
2	0x407f518c	3.9893522
3	0x3e114352	0.14185837
4	0x3fdf556e	1.7447946
5	0x432c3ecf	172.24535
6	0x41ac0acf	21.505278
7	0x2b2e8a1a	6.200887e-13
8	0x41a7b006	20.960949
9	0x400e8500	2.2268677
10	0x4177397a	15.451532
11	0x432196e1	161.58937
12	0x2e94395e	6.740451e-11
13	0x408c77e6	4.389636
14	0x41d854b6	27.041363
15	0x39f83ad6	0.00047346082

exp_avg f4 [16, 1]
0	0x3c96337d	0.018335098
1	0x30e197c9	1.6414045e-09
2	0x3e992819	0.29913405
3	0xbe8782a4	-0.26466858
4	0x3ddf161c	0.10892889
5	0xbc8e9202	-0.017403606
6	0x3e2d2a71	0.16910721
7	0xbdeb3a90	-0.11485779
8	0x3e5a7fbe	0.21337792
9	0x2958cc9e	4.8139112e-14
10	0xa8e21cbe	-2.5103505e-14
11	0x3dd88900	0.10573006
12	0x3dfed175	0.124422945
13	0x3eb40697	0.35161278
14	0xbb5a2f1d	-0.0033292242
15	0xbdb660d4	-0.08905187

exp_avg_sq f4 [16, 1]
0	0x40a03186	5.0060453
1	0x34ebd269	4.3925255e-07
2	0x40d25555	6.5729165
3	0x4134e695	11.306294
4	0x41514669	13.07969
5	0x41862009	16.765642
6	0x400e89ea	2.2271676
7	0x4113c8cd	9.236524
8	0x40da1bfd	6.8159165
9	0x24b2b442	7.750056e-17
10	0x24af924a	7.6141975e-17
11	0x40876ecc	4.232275
12	0x3ebf7509	0.37393978
13	0x41984959	19.035814
14	0x3e8d9a21	0.27656654
15	0x3eebb6c1	0.46037868

exp_avg f4 [16]
0	0xbe59204d	-0.21203728
1	0xb1c9d245	-5.873775e-09
2	0x3e4034a5	0.18770082
3	0x3e8e1276	0.2774846
4	0xbe56f7ad	-0.20992918
5	0xbe1683fc	-0.14698786
6	0xbdceac87	-0.10091501
7	0x3d99d0c2	0.075105205
8	0xbe7e22f7	-0.24818026
9	0xab457cc8	-7.016163e-13
10	0xac17fe6a	-2.1599619e-12
11	0xbdb649cb	-0.08900794
12	0x3d87b154	0.066256195
13	0x3ed2a849	0.41144016
14	0xbba1b8c1	-0.0049353545
15	0x3d1ad40f	0.03779989

exp_avg_sq f4 [16]
0	0x40b7f0d2	5.748147
1	0x343b274c	1.7430028e-07
2	0x40151b66	2.3297973
3	0x40bb1329	5.846089
4	0x4144ae08	12.292488
5	0x418fc7df	17.972593
6	0x402a0d9f	2.6570814
7	0x415414d5	13.255086
8	0x40a88d67	5.267261
9	0x24e9958e	1.01301e-16
10	0x2524d7f5	1.4297902e-16
11	0x409fa902	4.989381
12	0x3e04df26	0.1297575
13	0x41f801dd	31.00091
14	0x3ea772f8	0.32704902
15	0x3ee668e5	0.45001903

exp_avg f4 [16, 1]
0	0x8000081a	-2.906e-42
1	0x3c93007e	0.01794457
2	0x80000482	-1.617e-42
3	0x00000032	7e-44
4	0xb45dd256	-2.0658749e-07
5	0xbba07ce9	-0.004897703
6	0x80000015	-3e-44
7	0x00000e8a	5.216e-42
8	0x80000415	-1.464e-42
9	0xb4464721	-1.8466064e-07
10	0xbc774c09	-0.015093812
11	0x098c5224	3.378102e-33
12	0x00000051	1.14e-43
13	0x00000023	4.9e-44
14	0x8000077f	-2.689e-42
15	0x3c3d7be0	0.011565179

exp_avg_sq f4 [16, 1]
0	0x1b46acde	1.6434033e-22
1	0x3cd51290	0.026009828
2	0x1979e073	1.29183254e-23
3	0x06dddfc8	8.345978e-35
4	0x338598c5	6.221084e-08
5	0x3b8e6164	0.004345106
6	0x0d1c8498	4.8230815e-31
7	0x1cfd3b5b	1.6757479e-21
8	0x191ca059	8.097393e-24
9	0x3733a96a	1.0708676e-05
10	0x3c049e3d	0.008094368
11	0x206bfc81	1.9988821e-19
12	0x0b291375	3.2562854e-32
13	0x0d7bdd17	7.7611474e-31
14	0x1b32b8e3	1.4783555e-22
15	0x3c3b7675	0.011441817

exp_avg f4 [16]
0	0x800007ed	-2.843e-42
1	0x3d83366d	0.06406865
2	0x8000063c	-2.236e-42
3	0x80000337	-1.153e-42
4	0x3c1b681d	0.009485272
5	0xbb6fcc9c	-0.0036590463
6	0x8000070b	-2.527e-42
7	0x80000e99	-5.237e-42
8	0x8000060c	-2.169e-42
9	0x3c3dad4b	0.011576961
10	0xbc775565	-0.015096043
11	0x8ac77ac1	-1.9209178e-32
12	0x800008b0	-3.116e-42
13	0x800000f0	-3.36e-43
14	0x800009be	-3.495e-42
15	0x3d23c014	0.0399781

exp_avg_sq f4 [16]
0	0x1b3839b7	1.5238772e-22
1	0x3d707eaf	0.058714565
2	0x1a97420d	6.255885e-23
3	0x187fcf79	3.3062724e-24
4	0x3aa3dc5f	0.0012501589
5	0x3ba23e7e	0.0049512973
6	0x1af279da	1.00285716e-22
7	0x1cff12d3	1.687935e-21
8	0x1a8b3650	5.75768e-23
9	0x3bacb57e	0.005270659
10	0x3c049e3a	0.008094365
11	0x20864ec2	2.27526e-19
12	0x1ba4d555	2.7269387e-22
13	0x13db6ce0	5.539073e-27
14	0x1bdc2146	3.641745e-22
15	0x3cd71740	0.026256204

exp_avg f4 [16, 1]
0	0xb826800c	-3.9696737e-05
1	0x387b43d3	5.990623e-05
2	0x389c8f1d	7.4653166e-05
3	0x3910b629	0.0001380077
4	0xb5a2931f	-1.2112758e-06
5	0x06d2116d	7.9018825e-35
6	0x371832d4	9.07174e-06
7	0x202b64e7	1.4517649e-19
8	0xa3db2037	-2.3757671e-17
9	0xb6c9bf82	-6.0125612e-06
10	0x37e64803	2.745167e-05
11	0x1798fa2b	9.885921e-25
12	0xafa9cc4f	-3.088609e-10
13	0x38f8ff7d	0.0001187315
14	0x1e3b7b0b	9.925142e-21
15	0x373a9b49	1.1122619e-05

exp_avg_sq f4 [16, 1]
0	0x3240ba31	1.1218206e-08
1	0x345794e7	2.0077606e-07
2	0x341ca208	1.4587579e-07
3	0x34321a0f	1.6587022e-07
4	0x2fb15275	3.2254702e-10
5	0x206a0cad	1.9824765e-19
6	0x30eecf48	1.7375692e-09
7	0x230b9d2a	7.568486e-18
8	0x23b323f4	1.9422446e-17
9	0x32c5794f	2.2988983e-08
10	0x3369500a	5.4322335e-08
11	0x21f5962c	1.6641596e-18
12	0x2bcc3446	1.4509581e-12
13	0x33e88bf1	1.0828797e-07
14	0x22c4e043	5.3363353e-18
15	0x340581c7	1.2433803e-07

exp_avg f4 [16]
0	0xb7db2a66	-2.6126578e-05
1	0x38a844f1	8.0237056e-05
2	0x38b74205	8.738417e-05
3	0x38da3115	0.00010404192
4	0xb599b05e	-1.1450718e-06
5	0x8ae4183c	-2.1964717e-32
6	0x36f19c77	7.2005746e-06
7	0xa17420bf	-8.2713755e-19
8	0xa67d52a5	-8.788901e-16
9	0xb7ce1c35	-2.4570249e-05
10	0x3820fd86	3.8383085e-05
11	0x989d93fc	-4.0732975e-24
12	0xb11a4258	-2.2447662e-09
13	0x383eecec	4.552018e-05
14	0x9fc8d7a8	-8.506007e-20
15	0x389f26cd	7.588938e-05

exp_avg_sq f4 [16]
0	0x325e498a	1.2938822e-08
1	0x346047ed	2.0887792e-07
2	0x344f9a5c	1.9334533e-07
3	0x343f7dad	1.7833982e-07
4	0x2e800453	5.821534e-11
5	0x20a58a04	2.8043418e-19
6	0x30d436d6	1.5440615e-09
7	0x230f8885	7.780955e-18
8	0x23f9ad70	2.7070088e-17
9	0x32b157a5	2.0645368e-08
10	0x33345487	4.1986393e-08
11	0x21f48737	1.6569874e-18
12	0x2b80b287	9.144498e-13
13	0x34039dde	1.2257757e-07
14	0x22d88786	5.869041e-18
15	0x3428194c	1.5655422e-07
