SimLoan/VACA/exper_test_10pct_noise/toy_/vaca/dgnn_elbo_8_8_16_4_normal_0.0_0.2_0.0_0.0_0_True_[BernoulliLikelihood()]_[NormalLikelihood()]_[NormalLikelihood()]_[BernoulliLikelihood()]_[NormalLikelihood()]_[NormalLikelihood()]_[BernoulliLikelihood()]_7_21/adam/0.005_0.9_0.999_1.2e-06_exp_lr_0.99/9/ckpt/checkpoint-epoch=457.ckpt (torch, 164822 bytes, 81 tensors)

model._encoder_embeddings.0.0.weight f4 [16, 1]
000000 42 57 1f b5 99 54 14 be 83 ed 74 b6 8f c1 c9 be
       -5.935909e-07 -0.14485396 -3.6497083e-06 -0.39405486
000010 64 40 ae 81 a8 1f 1b 3f f6 5a 25 bf 53 36 cd 3e
       -6.40099e-38 0.6059518 -0.6459192 0.4008051
000020 ce e1 db 3e a9 f6 5e 02 6a df 45 8a 16 ad d9 be
       0.42945713 1.6380772e-37 -9.5272245e-33 -0.42514867
000030 4c 86 3b b3 1d e9 47 8d 06 2a b7 be e6 02 d0 3e
       -4.3661473e-08 -6.160221e-31 -0.3577425 0.4062721

model._encoder_embeddings.0.0.bias f4 [16]
000000 a4 2a cd b5 ad 64 c8 3c 3b 9c 3b 95 b9 d6 21 3f
       -1.52861e-06 0.024462068 -3.7887593e-26 0.63218266
000010 1f df d4 b3 a1 2a 8b be d3 c9 1f 3f bd 68 20 3e
       -9.912605e-08 -0.2718096 0.62417334 0.15664954
000020 62 ec fd be b3 a1 12 b6 5a e5 8d b6 29 38 4f 3f
       -0.49594408 -2.1849817e-06 -4.2288275e-06 0.8094507
000030 a1 90 1d bd fd 77 80 a8 9c 74 54 3f fa 59 2b 3e
       -0.038468007 -1.4262891e-14 0.8299043 0.16733542

model._encoder_embeddings.1.0.weight f4 [16, 1]
000000 b8 f0 fe be a2 09 d8 3d 38 ae 76 03 87 4f 22 bf
       -0.4979303 0.10548712 7.2492896e-37 -0.634026
000010 2b 48 49 bf d7 10 55 3f 32 09 9d 3d 1c ac 81 bd
       -0.78625745 0.8322882 0.076677695 -0.063316554
000020 a8 3f 37 bd f8 ea 76 3e 12 56 65 3f b8 5e 92 be
       -0.04473844 0.24113071 0.8958446 -0.2858789
000030 39 0b 11 bf e4 3a 55 bf ef 1a 40 3f 35 38 7d 3e
       -0.5665775 -0.83292985 0.750411 0.24728473

model._encoder_embeddings.1.0.bias f4 [16]
000000 69 b1 06 be 57 3d 56 3f ad e7 fa b0 82 9c 60 3f
       -0.13153614 0.8368735 -1.825574e-09 0.8773881
000010 90 0c ba bd 71 25 ad be d3 97 85 3e c2 ba 10 3f
       -0.09084427 -0.33817628 0.26092395 0.5653497
000020 57 41 6c 3d 96 c7 34 3f ef 1b 70 3e c1 3e f0 3e
       0.0576795 0.70617044 0.23448156 0.46922877
000030 98 f4 b5 be 7f 18 37 bf 1f 17 f7 be 33 ff 5b 3f
       -0.35538173 -0.71521753 -0.48259827 0.8593628

model._encoder_embeddings.2.0.weight f4 [16, 1]
000000 06 83 61 be 9a a3 ef be 69 e1 29 3f 6d 6f 1e 3f
       -0.22022638 -0.46804506 0.66359574 0.6188877
000010 21 9f 1b bf fd 36 ef be 36 90 66 3f 57 80 1d bf
       -0.60789686 -0.4672164 0.900638 -0.61523956
000020 e8 99 06 3f 6b 10 d1 3e 0f 84 5b bf f5 d4 ad 3e
       0.5257859 0.40832838 -0.8574838 0.33951536
000030 d2 bc be 3e 0e 0d c9 be e0 01 90 3d 2f b9 9d 3e
       0.37253433 -0.39267772 0.07031608 0.30805346

model._encoder_embeddings.2.0.bias f4 [16]
000000 ce d4 15 bd 98 b6 5b bd aa 7a 44 3e c1 88 20 3e
       -0.0365799 -0.05364093 0.19187418 0.15677167
000010 5d 3c 12 3f 50 8f 30 3f 4f f6 ff 3e ae e0 5c 3f
       0.5712336 0.6896868 0.49992606 0.86280334
000020 db fe 01 bf 36 3f 58 3f 5e 30 c8 be a7 c4 41 3e
       -0.50779504 0.8447145 -0.390994 0.18922673
000030 30 6f e5 3c 58 0b ea 3e d3 69 7a 3e 2f 5c be 3e
       0.02800712 0.4571178 0.24454431 0.37179706

model._encoder_embeddings.3.0.weight f4 [16, 1]
000000 e3 10 9e 03 56 30 1a 3f ed 32 8b 3e c4 76 d0 82
       9.290282e-37 0.60230005 0.2718729 -3.0631021e-37
000010 6d 0e df 87 94 49 84 3e 12 45 cc 82 0b 4b 1f a1
       -3.356179e-34 0.25837386 -3.001475e-37 -5.3970614e-19
000020 3a 7f 1c 3f 1d 7c ce be 6b e1 0c a0 72 08 3d 02
       0.6113163 -0.40329066 -1.1933046e-19 1.3887951e-37
000030 fb 17 93 83 70 9c 5e 3c f0 94 f5 91 c6 df af be
       -8.645389e-37 0.013587102 -3.8745974e-28 -0.34350413

model._encoder_embeddings.3.0.bias f4 [16]
000000 7f d1 e6 bc a4 3f 52 be 3a 13 3f 3f d0 7d 53 b5
       -0.028176067 -0.2053209 0.7463871 -7.8786707e-07
000010 a3 fb 94 b6 85 6f 2d be 5f 5d 67 9e 20 ea 13 9f
       -4.440038e-06 -0.16937073 -1.2248347e-20 -3.1322124e-20
000020 94 d8 17 bf 4d e9 47 3f 11 e7 54 b5 83 92 15 b0
       -0.59314847 0.78090364 -7.93124e-07 -5.441409e-10
000030 f3 6b 8a a9 41 b2 c0 3d 5f 0f 25 b6 75 30 a7 3e
       -6.147157e-14 0.09408999 -2.4595863e-06 0.32654157

model._encoder_embeddings.4.0.weight f4 [16, 1]
000000 12 ad bd 3e c8 37 37 bf e0 67 5b be 7b f9 4b 3f
       0.37046105 -0.7156949 -0.21426344 0.7967755
000010 67 55 21 bf 3b dc 6b 3f 26 ad b7 be e0 2f 28 3f
       -0.6302094 0.9213292 -0.3587429 0.6569805
000020 a6 46 05 04 e9 37 20 3e ee 16 93 3e 52 86 7e bc
       1.5666515e-36 0.15646328 0.2872843 -0.015534954
000030 42 9f 32 bf 5b 8e ca 04 cb 05 0d 83 e7 3a 48 3f
       -0.6977426 4.7620705e-36 -4.1442826e-37 0.7821488

model._encoder_embeddings.4.0.bias f4 [16]
000000 07 69 d7 3e d1 02 21 be 8e 42 1a 3f cc 84 76 bf
       0.42072317 -0.1572373 0.60257804 -0.9629638
000010 3c ac e4 be 82 76 73 bf 1e 51 19 3f 88 56 da bd
       -0.44662654 -0.95102704 0.598894 -0.10661036
000020 53 19 87 ad 31 23 51 3e 5f 0d 4c bd 0e 58 40 3f
       -1.535897e-11 0.2042358 -0.04981744 0.7513436
000030 bc a6 62 3f 7d 66 67 b2 1c 44 fd a4 bf 76 7f 3f
       0.88535666 -1.3469273e-08 -1.0983664e-16 0.9979057

model._encoder_embeddings.5.0.weight f4 [16, 1]
000000 51 e8 fe 3e 7a 72 1c 03 04 52 6a 00 66 66 5d 3f
       0.49786618 4.5975692e-37 9.763984e-39 0.8648437
000010 60 85 11 bf f7 35 70 bf b8 a0 f0 3e 36 cd 3f 3f
       -0.5684414 -0.93832344 0.4699762 0.749225
000020 77 fc 70 3f 71 6b 1e bf 65 ca 46 3e f5 89 ff bd
       0.9413523 -0.6188269 0.19413145 -0.12477485
000030 4b ff 2f bf fe 12 92 3e 26 b9 e3 82 fc ce 36 bf
       -0.6874892 0.28530115 -3.3460922e-37 -0.71409583

model._encoder_embeddings.5.0.bias f4 [16]
000000 9d 31 ab 3e 2a 14 5f b1 2e 17 42 95 d9 e0 b2 be
       0.3343629 -3.2462233e-09 -3.9196274e-26 -0.3493717
000010 03 8e dd bc 04 f1 63 bf 97 d9 0b bf 31 df fa 3e
       -0.027045256 -0.89039636 -0.5462889 0.48998407
000020 01 7b ef be a2 16 6b 3f a5 d0 0b bc 81 8e 7c bd
       -0.46773532 0.9183141 -0.008533631 -0.06165934
000030 9b 58 50 3f 7d 83 cb bd a3 7c 66 b6 ad fc a2 be
       0.813852 -0.09937189 -3.434522e-06 -0.318334

model._encoder_embeddings.6.0.weight f4 [16, 1]
000000 71 db b3 3c 3c 4f 22 b4 40 9d 4f ad 46 a4 0a bf
       0.021955224 -1.5116251e-07 -1.1801504e-11 -0.5415691
000010 b1 32 4d 83 95 e2 19 82 3c f2 f9 bd 93 9a 1e 3f
       -6.0302276e-37 -1.1305691e-37 -0.12204406 0.6195461
000020 1f 62 eb 3e 1e a4 3a b4 bb 32 ff 3d e7 bc 30 3f
       0.45973298 -1.7382305e-07 0.12460848 0.6903824
000030 dc cb 4f bf 6c 35 aa bd 82 36 0d bf 7c 60 b6 3e
       -0.8117044 -0.08310971 -0.551613 0.35620487

model._encoder_embeddings.6.0.bias f4 [16]
000000 79 4c 62 3f 50 66 4b b0 f6 ed de ab be 9c fd 3e
       0.8839794 -7.3996365e-10 -1.5840096e-12 0.49533647
000010 c2 85 13 97 6c 1a 4f b6 df 01 5f 3f c1 62 e4 3e
       -4.766709e-25 -3.0860783e-06 0.8711223 0.44606593
000020 5e a9 01 bf f8 02 88 b2 6e 58 26 bd 22 2c fd be
       -0.5064906 -1.5833834e-08 -0.040611677 -0.49447733
000030 71 dc 63 3f ea f3 0d 3f d7 b5 fd 3e fc 54 93 3e
       0.8900824 0.5545031 0.49552795 0.28775775

model.encoder_module.convs.0.m_net_list.0.weights.weight f4 [256, 21]
000000 16 f8 5d 03 a6 b3 22 3d 84 04 45 3e f8 58 82 3e
       6.523085e-37 0.039722107 0.19240004 0.25458503
000010 2e 42 78 bd b9 72 8a 3e be f8 58 3c ed 7c 3f bc
       -0.06060999 0.2704065 0.0132428985 -0.0116874995
000020 86 10 42 bc 02 22 92 3d b9 6f 11 3d ba ac 53 be
       -0.01184476 0.07135393 0.035506938 -0.20671359
000030 1e 07 32 3e 10 2f d6 bd d2 4f a5 3d da ac 3b be
       0.17385527 -0.10458195 0.08071865 -0.18327656
000040 4d 89 14 bd 31 6f 92 bc 97 c8 50 be 64 3d 02 3e
       -0.036263753 -0.017875286 -0.20389019 0.12718731
000050 9c cd 06 be e6 74 8f 82 83 b8 2f 3e 5d a9 00 be
       -0.13164371 -2.1079058e-37 0.1716023 -0.12564607
000060 90 c2 0b 3e 0f 94 07 be 8f c7 d1 3d b6 c3 a7 3c
       0.13648438 -0.13240074 0.10243141 0.020479064
000070 42 27 e7 3d c2 c9 89 be 45 42 ac bd 0a 11 3c 3e
       0.11286785 -0.26911741 -0.084110774 0.18365875
000080 b6 68 77 3c 95 05 12 bd 4b ff 76 be 25 b3 86 3d
       0.015100649 -0.035649855 -0.24120824 0.06577138
000090 34 92 2c 3e ae f8 df 3d aa 40 bc bd ee 7f 32 bd
       0.16852647 0.10936104 -0.09192021 -0.043579035
0000a0 07 52 26 bd 73 1c f4 bd 30 36 52 01 a6 4d 1c be
       -0.04060557 -0.11919489 3.8609786e-38 -0.15263996
0000b0 ae a1 07 bd 82 b0 58 bd 35 59 b1 3d cf 36 bd 3c
       -0.033113174 -0.052902706 0.08659593 0.023097424
0000c0 f6 12 79 3e 90 0d 67 3d 7a aa 42 3e 5c cc 5c be
       0.2432364 0.05640942 0.19010344 -0.21562332
0000d0 22 f3 ab bd 6a db 93 3c 8b b1 c0 3d 09 54 14 3e
       -0.08395983 0.01804896 0.09408864 0.14485182
0000e0 12 c8 10 be 77 f0 b7 3d 6b ce f4 3d df ab 17 be
       -0.14138821 0.08981412 0.119534336 -0.14811657
0000f0 62 d6 1f be e8 83 f8 3d aa 55 61 3d b0 74 82 80
       -0.15609124 0.12134534 0.055013336 -1.1980474e-38
000100 f8 fe 35 3e 55 40 27 3e 69 f3 38 3d ea 7a e0 bd
       0.17773044 0.16333134 0.04515401 -0.10960944
000110 70 b3 ca 3e f1 62 9f bd bc 6b f8 bd 29 79 40 be
       0.39590025 -0.077825435 -0.12129924 -0.18796219
000120 3a 76 f3 bd 54 63 1d 3d 2c 54 81 3e 50 31 c4 bd
       -0.11887784 0.038424805 0.2525953 -0.09579718
000130 05 36 45 be 13 9c f7 bd a7 d1 48 be 6a 58 19 bd
       -0.19258888 -0.12090316 -0.19611226 -0.037437834
000140 47 af 43 3e 95 9b 10 3e 17 d4 ec 3d de 74 5b 3e
       0.19109832 0.1412185 0.115638904 0.214313
000150 de f0 e2 02 7b 69 04 be 96 b2 ea 3d d4 e4 eb bd
       3.3345966e-37 -0.12930863 0.11459844 -0.11518255
000160 6c 2f 5c 3c fa b8 86 3b 24 5a d7 3d e7 b5 87 bd
       0.013439041 0.0041114064 0.1051524 -0.06626492
000170 dc 02 e0 bd 9d 09 11 be c5 21 d8 3c 85 fc ce bd
       -0.109380454 -0.14163823 0.02638329 -0.10106758
000180 03 9c fc 3c 47 56 15 3e 79 1e af bd de 53 2d be
       0.030836111 0.14583693 -0.08550734 -0.16926524
000190 8e ad 1b be 8f 40 12 be 54 c3 3a 3c cf c7 48 3e
       -0.15202925 -0.1428244 0.011399109 0.19607471
0001a0 10 34 8f 3d 34 ed cd 02 50 cb 13 3f 88 af f8 bc
       0.06992352 3.025819e-37 0.57732105 -0.030357137
0001b0 4f 32 6f 3e 21 12 03 bd 90 c9 bd 3e 03 a6 c6 3c
       0.23359035 -0.03199971 0.37067842 0.024249082
0001c0 c9 29 cd bd c1 6b 7c 3e aa dd 8e be 70 ba 7b bd
       -0.100177355 0.2465048 -0.2790349 -0.061457098
0001d0 dd 3a 07 be 67 4b c1 3d ce ed 2e 3e 69 44 09 be
       -0.13206048 0.0943821 0.17082903 -0.13405003
0001e0 3d 9f 9e be ed 7d d3 bd c3 1d 82 3d 60 7e 1c be
       -0.30980864 -0.10326753 0.06353333 -0.15282583
0001f0 88 a1 2c be 63 f2 1e 3e 27 e2 8a 83 a8 a9 6d be
       -0.16858494 0.1552215 -8.162833e-37 -0.2320925
000200 d5 90 d6 b8 b1 d2 72 3e 04 03 3e 3e 1c c0 4c 3e
       -0.00010231292 0.23713185 0.18555838 0.19995159
000210 60 7e 94 3d bc ab c9 bd 07 37 a1 3d 6c f7 c2 bc
       0.072506666 -0.09847209 0.07871824 -0.02379962
000220 6d e7 80 3c ab b1 4b 3c 74 e3 02 be 31 19 ff bd
       0.015735352 0.012432496 -0.12782079 -0.12455977
000230 c4 07 0f 3e a5 f6 d4 bd 16 a3 2b be ed 8a 3a 3e
       0.13967806 -0.10398606 -0.16761431 0.18217058
000240 97 29 4e be ba 19 80 3c 7e 9f 19 be 4c c1 79 03
       -0.20133053 0.015637267 -0.15002248 7.3396417e-37
000250 46 ea 9e 3d b1 5e c7 3d ec e4 23 3e 41 4d 63 3d
       0.07759528 0.09734858 0.16005296 0.055493597
000260 02 5d a8 3b a0 a9 39 bc 4b 04 03 3b a0 e1 28 bd
       0.0051380405 -0.011331946 0.0019991572 -0.041230798
000270 34 16 81 3c a8 94 fa bd e2 f4 18 3d 28 e0 83 bd
       0.015757658 -0.12235385 0.037342913 -0.06439239
000280 b6 6d bb 3d a0 a2 49 be 49 eb 29 3e 8f 99 03 3d
       0.09151785 -0.19690943 0.1659366 0.032128867
000290 74 4b 29 bd a9 d0 e1 3d 47 6c 70 bd e4 4d 08 3e
       -0.041331723 0.11026127 -0.05869701 0.13310963
0002a0 88 48 26 bd 1a 32 61 bd 30 ef 2e be 56 5f 04 3e
       -0.040596515 -0.05497942 -0.1708343 0.12926993
0002b0 e4 90 0c 82 70 8f 47 be c8 b6 25 be 2c 8c 7f bd
       -1.0327157e-37 -0.19488311 -0.16183007 -0.062389538
0002c0 79 97 3a 3d dd a3 e4 3c 17 02 23 bd aa fe aa 03
       0.04555461 0.027910167 -0.039796915 1.005017e-36
0002d0 39 9f a5 bd 32 01 08 3d e5 48 5a 82 e2 9a 08 3c
       -0.0808701 0.033204265 -1.603703e-37 0.008337708
0002e0 e0 cd 72 03 92 aa 34 03 40 e1 a0 82 cf 93 bd 02
       7.135374e-37 5.309305e-37 -2.3639174e-37 2.7855892e-37
0002f0 68 c0 51 02 5d ca 17 bc 55 31 45 bd 17 75 ad 3d
       1.5410113e-37 -0.009264556 -0.04814275 0.08469599
000300 23 8a c1 bc 6f 0d 9f 03 45 c0 a6 bd b9 6a 3e bd
       -0.023625439 9.348264e-37 -0.08142141 -0.046488497
000310 89 8b a2 3c 97 46 f2 3d 3a 77 84 3d da a4 be 3d
       0.019841926 0.1182987 0.06468053 0.09308787
000320 f0 29 86 03 02 70 21 3e a3 3c 59 3e 9f f1 8b 83
       7.8854405e-37 0.15765384 0.21214537 -8.225159e-37
000330 04 cf 76 be 26 75 1d 03 af 66 09 03 a1 98 84 03
       -0.24102408 4.6272633e-37 4.0378557e-37 7.793305e-37
000340 d6 70 2a 01 d8 19 e7 81 77 d3 78 be ad c5 07 bd
       3.1305025e-38 -8.489308e-38 -0.24299417 -0.033147503
000350 ad ac 3a bd ca cb d5 3d a8 b5 5d 83 fd 5b 6a bd
       -0.045574833 0.1043926 -6.5154594e-37 -0.057216633
000360 84 de ce bd 53 f7 01 3e ce a2 80 be 65 b8 91 3d
       -0.10101035 0.12692003 -0.2512421 0.071152486
000370 e5 3a 7d bd e8 a4 55 83 11 f6 3e be 81 42 27 be
       -0.061823744 -6.2784377e-37 -0.18648554 -0.16333963
000380 70 19 a4 03 a8 8d b0 bd 84 b4 05 01 39 ab 86 03
       9.644894e-37 -0.08620769 2.4557756e-38 7.915123e-37
000390 3c 9b e9 01 d1 ff 97 03 a2 39 02 83 c9 a5 8b bb
       8.5813433e-38 8.933715e-37 -3.8269726e-37 -0.0042617065
0003a0 56 c1 d0 bd 3f 31 01 be 92 77 d4 3d f6 a0 d7 02
       -0.10193126 -0.12616442 0.10374369 3.1683798e-37
0003b0 4b 8d 0c 3c b9 48 28 3e 47 f3 b9 3c 47 5a 27 bd
       0.008578609 0.16433991 0.022699011 -0.04085758
0003c0 50 1b 9b bd d4 eb fe 3c a4 ef 6a 02 9d 70 0a be
       -0.07573569 0.031118311 1.7260378e-37 -0.13519521
0003d0 3c 7e ae 3e a0 99 de 01 25 fe b3 3d 0e 39 73 03
       0.34080684 8.177036e-38 0.087887086 7.1476777e-37
0003e0 42 a2 15 83 8c 5a ae 83 40 d5 1a 83 04 52 22 03
       -4.3973427e-37 -1.0247589e-36 -4.550133e-37 4.770167e-37
0003f0 b1 b3 d4 3d 74 1a cc 3b 7d 7e 34 be 77 89 18 be
       0.10385836 0.0062287394 -0.17626376 -0.14896189

model.encoder_module.convs.0.m_net_list.0.bias.weight f4 [8, 21]
000000 19 75 15 be 17 8d 1f 3e 9c 09 c3 3d 50 8c b9 bd
       -0.1459545 0.15581165 0.09523317 -0.090599656
000010 45 c8 1b 3d 34 54 a2 bd 2b bc cc bd 9f bb a0 3d
       0.03803279 -0.07926217 -0.09996828 0.07848286
000020 fc 94 f8 bd 84 8a 25 bd 5a 8d a1 3c 3e 34 8f 3d
       -0.121377915 -0.040415302 0.019720722 0.06992386
000030 16 ec 1d bd f7 2b f4 3c 24 17 b6 bc 10 f2 43 3e
       -0.038555227 0.02980612 -0.022227831 0.19135308
000040 97 6c 49 be 58 81 02 3d 96 43 ea 3d 0a a7 82 bc
       -0.1967033 0.031861633 0.11438672 -0.015948791
000050 f4 cf d6 3c a3 bc 3d bd 1f 57 c8 bd 44 46 46 3e
       0.026222207 -0.046322476 -0.09782242 0.19362742
000060 1e 56 9f 3d 3d 5b 66 bc 47 17 13 be b1 a8 f3 bc
       0.077800974 -0.014059839 -0.14364348 -0.029743524
000070 3b 66 85 bd 35 5b e1 bc 55 cb af bd ea 76 08 be
       -0.065136395 -0.027509311 -0.085837044 -0.13326612
000080 c8 47 09 be 98 b8 dc 3d 5d fd 01 be 15 a5 89 bd
       -0.13406289 0.10777396 -0.12694307 -0.0672094
000090 b8 1e 24 3e 0e 2d 23 be d5 55 29 3e 1c 61 4f 3e
       0.16027343 -0.15935156 0.16536649 0.20251888
0000a0 f0 6c e1 bc 53 24 ed 3d 23 3d 21 3d cc 09 9f 3c
       -0.027517766 0.11579194 0.039364945 0.019413851
0000b0 e5 24 95 3d 51 ff 2e be 3a 3f ac bc 42 57 06 3d
       0.07282428 -0.17089583 -0.021026243 0.03279806
0000c0 d6 91 60 be ac 43 04 bd f3 d8 c5 3d 1c b7 23 3c
       -0.21930632 -0.0322911 0.096605204 0.009992387
0000d0 8e 84 93 bd 3c 7c 70 3e cd d9 32 be ce 83 3d 3e
       -0.07203017 0.23484892 -0.17465897 0.18507311
0000e0 e1 b4 b7 3d da 54 85 3c 51 66 32 be dd ad 50 bd
       0.08970047 0.016275812 -0.17421843 -0.05094706
0000f0 e9 cb f1 3d 94 58 ab bd bb 86 a3 bd 59 0e 2a 3e
       0.11806471 -0.08366504 -0.07984682 0.16607036
000100 8b 10 0c be c6 26 0f be ec 8b e1 bc 71 e9 55 3e
       -0.13678186 -0.13979635 -0.02753254 0.20889832
000110 b4 92 98 3d 96 9a 28 3c ad 31 d5 bc ce 07 c6 bd
       0.074498564 0.010290762 -0.026024664 -0.096694574
000120 01 1c 39 3e dc 52 f7 bd 4e 89 c0 bd 47 68 0f 3d
       0.18077089 -0.12076351 -0.09401189 0.035011556
000130 5d cb 59 be 3e ed 0e 3e 6d 46 2c 3d c1 a1 11 3e
       -0.21268983 0.13957688 0.04205935 0.1422186
000140 42 b7 e4 bc d4 a8 c5 3d a1 ab eb bd f6 18 0a be
       -0.027919415 0.09651342 -0.11507345 -0.13486084
000150 de 14 db bd 92 4e c6 3d 48 92 ae 3d c9 12 c7 3d
       -0.106973395 0.09682955 0.08523995 0.0972038
000160 4b 95 73 bc b1 c6 4b 3e 6e 26 85 3c 80 a2 b4 bc
       -0.014867137 0.19900014 0.016253676 -0.022050142
000170 a2 1b 9e 3d 3b e9 68 3d b5 7f 52 3b 2f 67 e8 3c
       0.07720114 0.05686305 0.0032119576 0.028369514
000180 ec 2d 23 be 2c 19 4f 3e 88 c0 62 3c e9 fc 99 bd
       -0.15935487 0.20224446 0.013839848 -0.07518942
000190 14 73 07 be 50 58 a7 bc e8 c2 bb 3d 1d eb 6c bd
       -0.13227493 -0.020427853 0.09168035 -0.05784141
0001a0 38 62 ac 3d 34 b0 ca be 84 d7 b7 bd f5 b4 0e 3d
       0.08417171 -0.39587557 -0.08976653 0.034840543
0001b0 23 fc 3c 3e 46 bd 35 bd 61 ed 0e bf 57 1c f1 bd
       0.18455558 -0.04436996 -0.5583096 -0.117729835
0001c0 40 e4 c0 bd c6 c7 7d 3e f8 2c 9c bd 5f a1 39 be
       -0.09418535 0.24783239 -0.076257646 -0.18127964
0001d0 8e f9 4f bd 06 de cc 3d c8 19 96 3d 71 8e 73 3d
       -0.050775103 0.10003285 0.07329136 0.059462015
0001e0 ac fd e0 be 0c dc 6b 3e 87 80 2f 3c 2d 2d be 3d
       -0.43943536 0.2303316 0.010711796 0.0928596
0001f0 81 5c d9 3d 84 97 de bd 8a 3a c3 bd f3 a3 45 3e
       0.10613347 -0.10868743 -0.0953265 0.19300823
000200 79 5f 76 bd a7 9f 43 bd ba 68 07 be 85 a0 f4 3d
       -0.060149644 -0.04775968 -0.13223544 0.11944679
000210 65 14 e8 bc 6b 89 83 3c 77 93 03 3e 4d 4b 4c be
       -0.028330037 0.016056737 0.12849222 -0.199506
000220 68 d0 89 bd 4e ae 07 3d ea 01 f6 bd a0 36 5e 3d
       -0.067292035 0.033125214 -0.12012084 0.054251313
000230 60 61 bf 3d 14 d0 c1 3c a5 d7 12 be 4b 8b 49 3e
       0.09344745 0.02365879 -0.14340074 0.19682042
000240 cd 9d f7 3d 86 eb 21 3e 8e ec f4 3d 34 78 8d bc
       0.12090645 0.15812501 0.11959182 -0.017269231
000250 09 20 42 3c 55 35 a7 3d a3 fa 15 3e a0 d4 76 be
       0.011848458 0.08164469 0.14646392 -0.24104548
000260 1f 58 ba 3d 80 04 15 3e ae f6 2e be a1 5a 2e bb
       0.09098839 0.14552498 -0.17086288 -0.0026604312
000270 0f eb ee bb 61 d6 04 3e 18 f4 4e be cf e4 5c 3c
       -0.0072912048 0.12972404 -0.20210302 0.013482287
000280 2a c5 55 3e 39 1e 3a bd ba 5b f0 3d de e3 e6 3c
       0.20875993 -0.04543898 0.117362455 0.028184827
000290 4c 38 f6 bc 02 f2 1f bd 31 ce 8b bd 70 44 28 3e
       -0.030056141 -0.039049156 -0.06826437 0.16432357

model.decoder_module.convs.0.m_net_list.0.weights.weight f4 [64, 21]
000000 9e 1b fb 3d b5 93 28 ba 40 8e 27 3d f4 3d a4 3b
       0.12261127 -0.00064307015 0.040907145 0.005012268
000010 35 5c 54 3d 5d c9 93 bd 7e cf 03 3d 58 d4 96 bd
       0.051845748 -0.072161414 0.0321803 -0.0736472
000020 62 b8 50 bd e6 49 d6 bd 04 45 f9 3c 9c 0b 57 bd
       -0.05095709 -0.10463314 0.030428417 -0.052501306
000030 2c 3a e9 3d e3 98 a8 3d f8 f9 ed 3d a6 19 c1 bd
       0.113880485 0.08232286 0.116199434 -0.0942872
000040 32 16 5f 3d 18 9c c9 bd 0c fe 7b bd 7a 82 42 bd
       0.054464526 -0.09844226 -0.061521575 -0.047487713
000050 56 a2 05 3c 95 32 23 bd 41 4e 89 3c 67 27 55 3d
       0.00815638 -0.03984316 0.016760947 0.05203953
000060 84 34 e6 bc 89 b8 9c 3c a1 74 53 bd 30 ff 2a be
       -0.028101213 0.019130962 -0.051624898 -0.16698909
000070 f0 fe ca bc 3a cc ed 3c a3 eb 70 bb 05 25 ad bd
       -0.024779767 0.029028047 -0.0036761544 -0.084543265
000080 bf 03 71 bd 00 b5 42 3e 3a 3a c9 3c c8 e0 d8 3c
       -0.058841463 0.19014359 0.024563897 0.026474372
000090 e2 b7 02 bd 60 91 ab 3c 59 83 91 bd 76 b4 7d bd
       -0.031913646 0.020943344 -0.07105131 -0.06193968
0000a0 75 7b 4f 3e 56 be 04 3e 3a be 33 be eb e7 e9 3d
       0.20261939 0.12963232 -0.17553034 0.11421188
0000b0 4b d4 8f bc 31 58 6d 3b 8b 5e 06 3d 45 9d a5 bd
       -0.017557284 0.0036215896 0.032805007 -0.080866374
0000c0 16 23 dc bd ec 6f 6e 3d 62 48 f2 3d fa fd 68 3d
       -0.107488796 0.058212206 0.11830212 0.056882836
0000d0 eb 65 8d 3d 10 b1 44 bd 0b 03 f3 3d b5 f9 e8 bd
       0.06904205 -0.048020422 0.11865815 -0.11375753
0000e0 7b 31 0a bb 99 d1 61 3d ac f9 63 3e b5 05 eb 3d
       -0.0021086622 0.05513153 0.22263211 0.11475698
0000f0 cd e5 24 be 02 66 13 be 7a e6 3b 3e c6 cb 6b 3d
       -0.16103287 -0.14394382 0.18349639 0.05756738
000100 f5 b9 a5 bc cb 70 34 3d a5 d1 6c be 3c 47 b7 3d
       -0.020230273 0.04405288 -0.23126848 0.08949134
000110 5b 19 99 3d 05 28 ba bd 4e 12 94 bb 35 6d 4e 3d
       0.07475539 -0.09089664 -0.0045187837 0.050397117
000120 46 20 b5 bc 07 f4 61 bc e7 be 6f 3b e9 22 b7 bd
       -0.022110116 -0.013791091 0.0036582293 -0.089422055
000130 be 8b c3 3d 0b 89 1d 3e 02 d1 a2 bc aa 13 04 be
       0.09548138 0.15384309 -0.019875053 -0.12898126
000140 cc 63 c5 bc 4e 07 ee bd d8 1d 7e bd 02 08 96 3e
       -0.024095438 -0.11622487 -0.06204018 0.29302984
000150 62 03 c0 bd 94 b5 0e be 6b 8f f8 bd 61 25 5a be
       -0.09375645 -0.13936454 -0.1213673 -0.21303321
000160 06 34 68 bb c6 74 98 3c 39 fb 70 be 62 af a1 3d
       -0.00354314 0.01861037 -0.23533334 0.0789478
000170 5e 1e b2 3d eb 4e 02 3e 9a 2f c6 bc 4e 6d 3a 3d
       0.08697198 0.12725417 -0.02419262 0.045514397
000180 d0 93 50 bd b9 eb 25 bd 1c 83 f1 bd fc 43 fa 3d
       -0.050922215 -0.040508006 -0.11792585 0.12219998
000190 e6 fb e7 3d 3b 1f c7 3c b8 48 57 3d 8c 52 06 3d
       0.11327343 0.024306884 0.052559584 0.032793567
0001a0 02 b5 6f bd d3 72 9a bd 27 ce b0 bc 98 d0 38 3c
       -0.058522232 -0.07541432 -0.021582676 0.011280201
0001b0 44 3b 03 bd c1 01 c8 bd dd 72 c6 3d f7 8d 38 be
       -0.032038942 -0.097659595 0.09689877 -0.18022905
0001c0 81 3e bc 3d 30 cf 09 3e fa 01 00 3e a0 61 ea 3d
       0.09191609 0.13457942 0.12500754 0.11444402
0001d0 19 4f 09 be 2a 0c b1 3d c7 e7 12 bd 19 74 25 3e
       -0.1340908 0.08644898 -0.03586557 0.16157569
0001e0 25 54 c7 bd 28 e1 09 3e f3 b3 09 bc d5 5b b3 bd
       -0.09732846 0.13464797 -0.00840472 -0.0875775
0001f0 e0 9f 08 3e a7 23 32 3d ca 42 79 bd 4d 69 c1 3c
       0.13342237 0.043491032 -0.06085471 0.023609782
000200 e8 a9 1c be 35 a0 aa bd 2c ba 3e be 27 7c 46 3d
       -0.15299189 -0.08331338 -0.18625706 0.048458245
000210 2f 51 a2 3d 69 f0 ae 3d 46 76 07 3e 2d ce ce 3d
       0.07925641 0.08541948 0.13228711 0.10097919
000220 6b 1e 91 bd 8a 59 8c 3d f8 1d d5 3d d3 48 61 bd
       -0.0708588 0.06853016 0.10406107 -0.05500109
000230 79 ff 29 3c 58 fd f8 39 56 55 b2 bd 65 2d f4 bd
       0.010375851 0.00047491002 -0.08707683 -0.11922721
000240 86 24 16 3d 9f 50 88 3e fc 46 2f bc b3 fc de bd
       0.036655925 0.2662401 -0.010698076 -0.10888042
000250 08 33 1a bd 95 9c 24 3e 19 d1 c2 bc fb a7 60 3d
       -0.037646323 0.16075356 -0.023781346 0.0548477
000260 aa 62 9b bc e0 04 54 be d1 75 dc bc e2 15 0d 3e
       -0.018967945 -0.20704985 -0.026911648 0.13777879
000270 b4 a0 27 be 34 5d 89 bd 53 e5 87 3d 11 39 59 bd
       -0.16369897 -0.0670723 0.06635537 -0.05303294
000280 ab 07 22 be 15 93 40 3c e2 2f 69 bb a4 5a 0a bb
       -0.15823238 0.011753817 -0.003558152 -0.0021111155
000290 c9 ae d2 3d e5 74 d8 bd 38 2c 00 be e4 58 a9 3d
       0.10287244 -0.10569171 -0.12516868 0.08268908
0002a0 c9 18 d6 be 78 b0 53 3d 9f 62 1a be ba ed 03 3e
       -0.41815785 0.051681966 -0.15076683 0.12883654
0002b0 c4 44 ef bd 3d 5c e6 3e d6 d0 9b bb 97 74 c6 3d
       -0.11683038 0.44992247 -0.00475512 0.096902065
0002c0 6e 68 a6 3e c1 56 1e 3e 89 ff 31 bd 92 07 d9 3d
       0.3250155 0.15462781 -0.043456588 0.10597147
0002d0 59 bc d4 3d e3 fb 96 3e 25 00 9b bd 94 de 38 be
       0.10387487 0.2948905 -0.07568387 -0.18053657
0002e0 49 ae ee bc b8 75 01 3e fd 5b f8 3d 92 00 43 bd
       -0.02913584 0.12642562 0.1212692 -0.047607966
0002f0 1e 52 74 bd 3a 4e 2c bd 02 25 12 3e 05 d4 6e 3c
       -0.059648626 -0.04206679 0.1427193 0.014576917
000300 19 ee 99 bd 09 50 31 3d ea 8a 14 be 0d 75 57 3d
       -0.07516117 0.043289218 -0.14506117 0.052601863
000310 34 f0 8d 3d 8d 3a 3a be a8 c7 0b be f9 51 bc 3d
       0.06930581 -0.18186398 -0.13650382 0.091953225
000320 24 4b 14 3e 92 f7 c7 bd 78 a7 53 be 6a 11 f1 bd
       0.14481789 -0.09764017 -0.20669353 -0.117708996
000330 72 41 c5 3e 15 89 05 3d a5 4e 9b 3b 93 ca 52 3c
       0.38526493 0.032601435 0.0047396 0.01286568
000340 44 2c ef bd fc 33 b7 bd 09 f9 57 be b5 01 4a be
       -0.11678365 -0.08945462 -0.21091093 -0.19727214
000350 7b 0e b6 3d b9 f1 8b 3d 46 13 0a 3e e5 88 17 3e
       0.08889481 0.06833214 0.13483915 0.14798315
000360 00 60 e3 bd 5f f4 7d 3c 8a 6f 73 be 49 52 ad bd
       -0.11102295 0.015500157 -0.23773018 -0.0846296
000370 86 3a 9f bd e5 e6 5f 3c d2 ca 60 3d 21 39 66 be
       -0.07774834 0.013665889 0.054880925 -0.2248273
000380 a4 37 34 3d f4 bd 76 3e cc 5d d4 bd 85 d6 ea 3d
       0.043998376 0.24095899 -0.10369453 0.114666976
000390 c1 45 1c bd 90 12 0f be 5e 1a 2c be 86 30 85 be
       -0.03815246 -0.13971925 -0.16806933 -0.26013583
0003a0 f1 76 d2 3e dc 73 8a bc 74 54 38 be ea 0b 99 3b
       0.4110637 -0.01690095 -0.18000966 0.0046706097
0003b0 a7 c2 37 3f f6 31 f3 3d 09 06 43 bd b7 65 85 be
       0.7178139 0.11874764 -0.047613177 -0.26054165
0003c0 6c 0e 9a 3d 5e 2f 25 bd da f1 1f bd 6e 04 dd 3c
       0.07522282 -0.040328376 -0.039049007 0.026979651
0003d0 a5 f1 d0 bd 05 3f c3 bd 82 bc ac 3e e3 51 91 3d
       -0.1020234 -0.095335044 0.3373757 0.07095697
0003e0 a8 e2 02 3e 61 df 28 3e e4 6e 14 3c 62 ff 6e be
       0.12781775 0.16491462 0.0090596415 -0.23339608
0003f0 55 96 47 bd dc 0e 48 3d c3 b6 a6 bd bf 76 c3 3d
       -0.048727352 0.048842296 -0.08140328 0.095441334

model.decoder_module.convs.0.m_net_list.0.bias.weight f4 [8, 21]
000000 d8 8f 47 3c 94 1d 06 be 8e 23 4a 3a 9c d8 eb bd
       0.012180291 -0.1309722 0.00077109865 -0.11515924
000010 9a 8f 1b be 87 b9 c2 3e 79 86 77 3d 60 e1 0d 3e
       -0.15191498 0.3803217 0.060430977 0.13855505
000020 54 75 82 bd 36 49 3f 3e c7 8e 87 3e b2 0d 8b be
       -0.06370035 0.18680272 0.26476118 -0.27158886
000030 ef f6 b3 3d 4e 1e 85 3e b7 0f 19 bd 6f 7a a9 3e
       0.08787333 0.25999683 -0.037368502 0.33101222
000040 7e 32 83 be 59 de 82 be 3b 41 63 be 30 ed ef 3d
       -0.2562446 -0.25560263 -0.22192852 0.11715162
000050 fc 43 85 be 99 d5 48 3e 33 0a 01 be 5a 37 93 be
       -0.2602843 0.19612731 -0.12601547 -0.28753167
000060 2c 12 87 be c2 d9 21 be 67 22 a8 3e e2 51 eb 3c
       -0.26381052 -0.15805724 0.32838747 0.028725568
000070 0d 96 44 3e 16 47 7f 3c a2 0c f6 bd 0f de 59 3d
       0.19197865 0.015580913 -0.12014128 0.053190287
000080 0d e2 42 be 7d a9 aa bd a9 ac 89 bc 90 55 a3 be
       -0.19031544 -0.083331086 -0.016805964 -0.31901217
000090 23 35 bb 3e 53 ef 9c 3d 2a 3e 8d be 9d 20 f7 bd
       0.36563978 0.07662835 -0.2758649 -0.12066767
0000a0 e6 62 6b be 3a be 53 be 6b f7 97 3e 91 a6 fc be
       -0.22986946 -0.20678034 0.29680952 -0.4934583
0000b0 fe ec ed 3d 2e 7c 0b 3e a9 c5 a4 be db ad ce 3e
       0.11617468 0.1362159 -0.32182053 0.40367016
0000c0 de 9b 9d 3d 13 39 20 3e 5e 35 50 3d 07 fb e2 bc
       0.07695745 0.15646772 0.050832145 -0.02770759
0000d0 81 fd 70 be 82 9a aa be 1e ae 7e be 90 8f 8b bd
       -0.23534204 -0.33321005 -0.24871108 -0.06814492
0000e0 94 0f 00 3d 22 5e 40 3e 76 f6 59 be 1a eb 06 be
       0.031264856 0.18785909 -0.21285424 -0.13175622
0000f0 74 d4 f4 bc ae fd b1 bc ad 21 31 3e f5 a9 8c be
       -0.029886462 -0.02172741 0.17298003 -0.27473417
000100 5c 19 39 be 6e 80 7c 3e 8b 02 ac be 32 6d 6e be
       -0.1807608 0.24658367 -0.3359569 -0.23283842
000110 98 72 02 bf 1c 74 43 bd 94 02 48 3e a0 44 21 bf
       -0.50956106 -0.047718152 0.19532233 -0.6299534
000120 c3 23 13 3d 8d d7 9b 3e fb 8d 5c 3d 16 02 02 3e
       0.035922777 0.3043789 0.05384634 0.12696108
000130 78 40 1c bf 7d a2 9a be 88 a3 15 3f cd e7 13 be
       -0.6103587 -0.30202094 0.58452654 -0.14443894
000140 71 74 86 bc 23 7e bb be 05 d8 4f bd de b6 2e be
       -0.016412945 -0.36619672 -0.05074312 -0.17061946
000150 4a 60 67 be b6 bf 0b 3e 3e 8e e6 bd d3 9f 01 be
       -0.22595325 0.1364735 -0.11257599 -0.12658624
000160 34 a3 8a 3d 5b 88 aa 3e 2b 1f 3c 3d 5c ec d2 be
       0.0676941 0.33307156 0.04592816 -0.41195953
000170 84 f3 16 be fd 12 08 be 1c 14 00 be 46 73 9a bc
       -0.14741331 -0.13288493 -0.12507671 -0.018853795
000180 00 cb b6 be 34 ad 89 be ae 50 4a 3d eb e6 86 be
       -0.35701752 -0.26889956 0.04939335 -0.2634805
000190 c9 ad 74 3d 6f c0 10 be 26 49 01 bb 89 27 1f be
       0.059736047 -0.14135908 -0.0019727438 -0.15542425
0001a0 18 c8 2f be f4 3f 8a 3e ca d6 85 3e ca 40 6a 3d
       -0.17166173 0.27001917 0.26140434 0.057190694
0001b0 b6 b3 00 be 46 97 5f be 88 5e c4 3e b8 ac 67 3d
       -0.12568554 -0.2183505 0.38353372 0.0565612
0001c0 3e 7c a5 bd 6c 38 5e bd d5 64 a9 be 97 83 20 be
       -0.08080338 -0.054253027 -0.3308474 -0.15675198
0001d0 19 84 8f be b9 71 57 be c7 dd 22 3e a5 06 bb bd
       -0.2803047 -0.21039476 0.15904914 -0.09132127
0001e0 4c 9e 68 be e9 a5 ab be 11 69 b3 be 8d a6 1c 3d
       -0.22716635 -0.33525017 -0.35041097 0.038244773
0001f0 3c f8 89 3d 36 27 5b 3e a8 b7 35 be 0a 85 e3 3d
       0.067368 0.21401677 -0.1774584 0.111093596
000200 cc dd da 3e ae b2 c4 3e 38 55 77 be 96 c6 cc 3e
       0.42747343 0.38417572 -0.24153602 0.3999526
000210 96 73 0c 3f ef 9a a1 3d 51 43 90 3e 37 c8 b7 3e
       0.5486387 0.07890879 0.28176358 0.3589494
000220 df 99 aa 3d 71 40 ea bd ac ed 2f 3e 64 12 99 3e
       0.0833013 -0.114380725 0.17180508 0.29896843
000230 77 24 8b be 90 cf 1d 3e 0c 4f fd bc a6 1a a0 be
       -0.27176258 0.1541121 -0.030921482 -0.3127033
000240 a8 a6 43 be bf 12 49 be d7 05 14 be 7d 5a 92 be
       -0.19106543 -0.19636057 -0.14455353 -0.28584662
000250 06 9a 45 3c 86 50 59 be 5d 48 9a 3d ff 6e 6f be
       0.012060648 -0.21222124 0.075333335 -0.23382185
000260 d8 a9 11 3f fa d2 0e be 67 c6 70 be 26 42 53 3e
       0.56899786 -0.13947669 -0.23513184 0.20630702
000270 80 41 93 bd e8 0d 2e be 64 6e ea bd 8c ea 46 be
       -0.071902275 -0.16997492 -0.114468366 -0.1942541
000280 26 84 56 3e 82 29 63 be 0b e0 29 be 0b 96 5c be
       0.20948848 -0.22183803 -0.16589372 -0.21541612
000290 d7 5f 93 be 10 a8 5e bd 18 95 06 be b3 ba c1 3d
       -0.28784057 -0.054359496 -0.13142812 0.09459438

model.decoder_module.convs.1.m_net_list.0.weights.weight f4 [128, 21]
000000 0b 65 b0 be 56 28 48 bd 3f 70 d7 bc c7 4e 36 3e
       -0.3445209 -0.048866592 -0.02629864 0.17803489
000010 5a e6 96 3d 2d c4 6d be ab 20 f1 bd 07 d7 03 be
       0.07368155 -0.23219366 -0.11773809 -0.12874995
000020 b4 20 af 3d c2 32 74 3e ee d7 1b be f1 cb e7 bd
       0.085511595 0.23847488 -0.1521909 -0.113181956
000030 a1 5c 2f be d3 62 30 bc 0d 48 e4 bd e7 92 8c 3e
       -0.17125179 -0.010765749 -0.11146555 0.27455828
000040 2d 9c 4b bd e4 f7 98 3d 52 ef 59 bd 68 80 1d 3e
       -0.049709488 0.074691564 -0.05320675 0.15381014
000050 39 d6 d9 3d a5 5d 1b 3f 43 29 c2 bd ff 3c 58 3e
       0.10636563 0.60689765 -0.09480526 0.21117018
000060 f1 5a d0 bd e9 76 db bc 91 9a 74 3c c8 2b 8c 3e
       -0.10173596 -0.0267901 0.01492943 0.27377152
000070 90 e3 24 bd 97 d4 ba 3b c6 43 8c 3e 0c a4 fa 3b
       -0.040256083 0.005701612 0.27395457 0.0076489504
000080 10 d1 14 be 10 a1 f6 3d e1 3b 46 be 4b 3e a1 bb
       -0.14532876 0.12042439 -0.1935878 -0.004920756
000090 9d 70 03 3d ac e5 eb 3d d6 9d de bd a9 ae 1c 3e
       0.03208982 0.11518416 -0.108699486 0.15301003
0000a0 a8 18 92 bd 0d 9a 0a 3e c6 54 f2 be f1 64 7e bd
       -0.07133609 0.13535328 -0.47330302 -0.062107984
0000b0 c4 f0 39 3e 2a da c1 bc 48 13 55 be b5 d3 20 ba
       0.18158251 -0.023663599 -0.20808136 -0.00061350624
0000c0 7b dc 72 3d b5 08 8f be a2 37 91 bc 0e 28 2a 3e
       0.059292298 -0.2793633 -0.017726723 0.16616842
0000d0 ca 1f 73 bd 4b 7f 95 bc b5 b1 c1 3d dc 55 c9 3a
       -0.05935649 -0.018249175 0.09457723 0.0015360671
0000e0 ce 21 af bd 75 2b 90 be de cf b5 3d c3 87 d0 bd
       -0.085513696 -0.28158155 0.08877538 -0.101821445
0000f0 e8 a2 5a 3d c0 e2 f7 3d d3 14 1c 3e a5 94 eb 3e
       0.053378016 0.12103796 0.15242319 0.46011844
000100 22 8b 1c be 37 1e 05 bd 7d 5e 07 3e e2 c9 27 bd
       -0.1528745 -0.03249952 0.13219638 -0.040964015
000110 07 d7 23 3d 40 67 7a be f0 d2 8c bd d3 a7 a1 3d
       0.039999988 -0.24453449 -0.06876171 0.07893338
000120 81 45 cb 3c 90 39 67 3d c7 a0 08 bd 55 d7 44 3b
       0.024813415 0.05645138 -0.033356454 0.0030035574
000130 5d a0 9d 3d e7 94 9f bd 61 39 cd 3e ea 21 06 3e
       0.076966025 -0.07792073 0.4008284 0.13098875
000140 64 f2 5e 3e 60 97 f1 bd 13 cc 0d 3e 8c 3f 6a 3d
       0.21772152 -0.117964506 0.1384738 0.05718951
000150 40 0b c8 be 79 51 f2 3d 34 e5 26 bd c0 df 0f be
       -0.39071083 0.11831946 -0.04074593 -0.14050198
000160 54 61 21 be 4e 70 1e 3e 74 ca 1c be 6d f9 89 bd
       -0.15759784 0.15472528 -0.15311605 -0.06737027
000170 b2 fb 22 bc 91 99 54 be db a7 89 be 69 04 09 bd
       -0.009947704 -0.20761706 -0.26885876 -0.03345147
000180 e8 df f0 bd 1d 55 45 3e fa bf 23 3e d0 aa 2f 3e
       -0.11761457 0.1927075 0.15991202 0.17155004
000190 23 cd e6 bb fc f4 cd bd c9 2b 8d bc c1 79 49 3e
       -0.007043497 -0.10056493 -0.017232792 0.19675352
0001a0 41 43 97 3d 4c 10 eb be a5 40 46 be 2d 9d 87 bd
       0.073858745 -0.4591087 -0.19360597 -0.06621776
0001b0 53 b7 32 3e d8 70 47 be 8d ae 4f 3d 2d b6 82 bd
       0.17452745 -0.1947664 0.050703574 -0.063824035
0001c0 bd bd a6 be c0 f4 54 bd 99 8a 09 3e e0 ee 4e be
       -0.32566634 -0.051991224 0.13431777 -0.20208311
0001d0 87 41 61 bd af 8d 1c be c4 70 05 3e d6 b4 6b bd
       -0.054994132 -0.15288423 0.13031298 -0.057545505
0001e0 57 dc aa be ce f6 0d 3e bf 2f b9 bd 2c f3 0d 3c
       -0.3337123 0.1386368 -0.0904231 0.008663934
0001f0 8b 1c 2b 3d 68 4a c3 bd df 8a f6 3e 90 06 e1 3d
       0.041775268 -0.09535676 0.48152825 0.1098758
000200 9a 7f 0d 3d 83 48 21 3e e9 ea c6 3d 99 22 96 be
       0.03454552 0.15750317 0.09712774 -0.2932327
000210 31 fb a8 be 4a 9a 29 be 90 75 32 3e 78 22 58 3d
       -0.33004144 -0.16562763 0.17427659 0.052767247
000220 d6 5a 8b bd 33 6a 4d 3e 7c c7 64 be 6c 3d b7 bc
       -0.06804435 0.20060043 -0.22341722 -0.022368155
000230 8b 0f f2 bd 4d 2d 1b be 9b 81 8a 3d 88 e8 8d bd
       -0.11819371 -0.15154 0.067630015 -0.069291174
000240 42 a8 b2 3d c4 3f ec bd 26 30 24 3d 24 84 3a be
       0.08723499 -0.115356 0.04008498 -0.1821447
000250 e9 e3 54 3e e2 72 cc 3d f8 00 85 3c 23 ed 02 3e
       0.20790066 0.0998285 0.016235813 0.12785773
000260 c2 ff b1 3c 96 83 46 be 44 63 5e be 39 b8 02 3c
       0.0217284 -0.19386134 -0.21717554 0.007978492
000270 51 fd 96 3d 9e 85 81 be 17 22 36 3d 33 23 1b be
       0.07372535 -0.25297254 0.044466104 -0.15150146
000280 00 70 a0 3d 0f e8 6f bc 29 d0 b9 3e ff 9b 1d 3e
       0.07833862 -0.014642729 0.36291626 0.15391539
000290 05 46 5e be 25 a4 96 bd 3f 65 25 3d cb 3b 02 3e
       -0.21706398 -0.07355527 0.04037976 0.12718122
0002a0 d9 5f ae be 0b d0 15 be 20 48 6a bd 79 8e ad be
       -0.340575 -0.14630143 -0.05719769 -0.3389776
0002b0 78 07 e1 3c ed 2f 3e 3e f8 8d a1 bd 8b 4f 84 3e
       0.027469382 0.1857297 -0.078884065 0.25841936
0002c0 4c 6c 34 be de 14 2e be a6 1a 00 3d 0c 2b 2d be
       -0.17619437 -0.17000148 0.031275414 -0.16910952
0002d0 4c 4b 91 3d 2a ef 9e bb 16 76 e2 bd 96 8f 98 3e
       0.0709444 -0.004850288 -0.11057679 0.29797047
0002e0 76 89 52 bd 11 b2 52 be f0 6a cd 3d 3e ae 33 be
       -0.051400624 -0.2057574 0.10030162 -0.17546937
0002f0 3e b0 2e bd 6d f9 e4 3e 93 29 73 3d 33 ea 3e 3b
       -0.042648546 0.44721547 0.05936582 0.0029131293
000300 6a 96 a5 3c 45 b8 93 3b 95 1c f6 3d 00 ab 42 be
       0.020213325 0.0045080506 0.1201717 -0.19010544
000310 b9 c4 88 be 53 6f a0 be b1 84 35 3d cd 72 25 be
       -0.26712587 -0.31334934 0.044315998 -0.16157074
000320 78 36 48 be 42 c3 40 bd 79 ef 46 be 74 db 40 be
       -0.19552028 -0.047061212 -0.19427289 -0.18833715
000330 a1 60 80 bd 95 7a 25 3e fd bc e8 3d 0f 8d 19 3e
       -0.062684305 0.16160043 0.11364172 0.14995216
000340 63 e9 f6 bd 73 b9 82 3d 57 e7 bd bd 8c ae b7 3d
       -0.12056234 0.06383028 -0.0927264 0.08968839
000350 48 06 92 bd 26 19 2e be 6d 21 8e bc 95 e6 3c 3d
       -0.07130104 -0.17001781 -0.017349923 0.046118338
000360 2e a4 d0 3d b8 94 9b 3e c9 ae ab 3d 95 da d7 3c
       0.10187565 0.303869 0.08382947 0.026349345
000370 02 20 0f ba c9 c1 22 3d 37 4a 89 bb 33 04 6c be
       -0.00054597866 0.03973559 -0.0041897553 -0.23048477
000380 57 34 1a be 7d 24 4e 3e 50 4e 8f bc 0a fa 1a be
       -0.15059029 0.20131107 -0.017493397 -0.15134445
000390 21 f5 6d bc e3 48 96 bd 53 2d b7 3d c6 3d bf 3e
       -0.014523775 -0.07338121 0.08944192 0.37351817
0003a0 86 bc b8 3d 2a 4d 81 3d 6b b7 9d be 63 48 3f be
       0.09020333 0.06313546 -0.30804 -0.18679957
0003b0 55 54 e6 3e c7 87 a7 3d 29 fe 39 bb 5a 0a 9a bd
       0.44986215 0.08180194 -0.002838025 -0.07521506
0003c0 27 08 e8 bd 95 2e 27 bc f0 04 23 be 15 2f cc bc
       -0.1132968 -0.010203977 -0.15919852 -0.024924794
0003d0 5d 44 07 be bf a4 cf 3d a2 bc e5 bd 7d b8 ad 3d
       -0.13209672 0.10138845 -0.112176195 0.08482454
0003e0 99 32 ea bc 2c d1 a1 bd c1 58 63 bc df 39 c5 3c
       -0.02858858 -0.079012245 -0.013876141 0.024075447
0003f0 85 29 6e bd db 07 2a be 4e 6c 0b 3e ae c8 03 bd
       -0.058145065 -0.16604559 0.13615534 -0.032173805

model.decoder_module.convs.1.m_net_list.0.bias.weight f4 [8, 21]
000000 be 53 24 3e a4 be f8 bd 43 76 b5 be 77 29 b0 3e
       0.1604757 -0.12145737 -0.3544179 0.34406635
000010 04 58 79 be 6c db 5d 3e 9a cf 4a be f8 a5 08 be
       -0.24349982 0.21665734 -0.19805756 -0.13344562
000020 bc 35 b3 3d 88 cd bb bd d7 61 dc 3d 34 e0 9b 3a
       0.087504834 -0.09170061 0.10760849 0.0011892379
000030 91 2b a2 bd c8 b3 9d 3e 08 db 64 be 0a ee 1d 3e
       -0.07918466 0.30801225 -0.22349179 0.15422836
000040 54 98 cb bd e6 16 80 bd 31 39 35 bd 1f c3 89 3d
       -0.09941164 -0.062543675 -0.044243995 0.067266695
000050 6d 75 1b bd 4f 79 44 3d 8f 9a e3 3d d6 b3 4c 3d
       -0.037953783 0.04796725 0.11113464 0.049976192
000060 44 8a 4e 3e 91 33 d5 3d 0f 7d dd bd 3b 4e b8 3d
       0.20169932 0.10410226 -0.10814869 0.08999296
000070 ae 36 43 be 88 2a 16 3d cf c6 f9 3d 4f dc d8 3b
       -0.19063827 0.036661655 0.12196123 0.0066180597
000080 83 68 21 3e 09 c0 3d 3c 2d c3 4f 3e da 2a 2d 3c
       0.15762524 0.011581429 0.20289297 0.010569299
000090 4e 8f f3 3e ea 63 d4 3e e7 98 a4 3d e2 c2 6c bd
       0.4757027 0.41482478 0.08036976 -0.057803042
0000a0 1c 49 ab bc 27 0f 88 bd 5e f1 c2 3d 18 c9 6a be
       -0.020908885 -0.06643515 0.095186934 -0.22928274
0000b0 32 b7 e1 3b 50 5b 24 3e e2 67 ed 3d 01 e1 b6 bd
       0.0068882937 0.16050458 0.1159208 -0.08929635
0000c0 40 6c 6a be 98 16 0b be ca 81 69 3e 5b cb d4 3d
       -0.22892857 -0.13582838 0.22803417 0.103903495
0000d0 f9 bc 18 be eb 37 a8 3d 18 d5 7e 3e 29 58 c2 3d
       -0.14915837 0.082137905 0.24885976 0.094894715
0000e0 6e b1 90 3e 79 49 cc 3c d3 5c da 3d 35 a2 e0 3d
       0.28260368 0.024937378 0.10662236 0.109684385
0000f0 7a 96 28 bc 44 f5 0a 3e 15 e4 fc 3d 16 30 f2 3d
       -0.010289783 0.13570124 0.12348191 0.11825578
000100 ee ad 8c 3d df 55 c2 bd 52 f6 da 3c c2 f4 46 3d
       0.06869112 -0.09489035 0.026728783 0.048573263
000110 95 94 7d 3f 86 b8 ad bc 9f 9b 11 3d 8d da d3 3c
       0.99054843 -0.021206152 0.035548802 0.02586105
000120 31 75 23 3d b9 d2 fc 3d 63 f5 1f 3e 53 cf 57 bd
       0.039906684 0.1234488 0.15620951 -0.052687954
000130 7c 2d 38 3b 96 7b de 3c 4c 8a a6 3e 23 02 07 3e
       0.0028103283 0.02715854 0.32527387 0.13184409
000140 27 a5 d2 bd b7 eb 1c be 85 2c 77 bc 70 4e 67 3e
       -0.102854066 -0.15324293 -0.015086298 0.22588515
000150 d6 9a 3e 3e 3d be 56 3e 62 af 7e bd ae 75 0a bc
       0.18613753 0.20971008 -0.062178977 -0.008450909
000160 cc 0e 66 be 37 5f 0c 3f e0 df 5f be 10 cd 32 bd
       -0.22466582 0.54832786 -0.21862745 -0.043652594
000170 d7 19 38 be c2 b6 c9 3d 70 8a 11 3d 0a ad b5 bd
       -0.17978607 0.098493114 0.035532415 -0.08870895
000180 29 e5 7a 3d 69 01 8a bd d8 7e 35 be 3e 40 5f bd
       0.0612537 -0.0673855 -0.17724168 -0.054504625
000190 67 b9 b4 3d bd b9 59 bd 72 f4 87 bd 81 57 ef bd
       0.08824425 -0.05315565 -0.06638421 -0.11686612
0001a0 be 90 5c bd f1 b2 80 3e 67 cf 32 3e ed 2f b8 be
       -0.053848974 0.2513652 0.1746193 -0.35974064
0001b0 35 fb d7 3d a7 25 d6 3c 27 08 04 3f e6 d7 93 be
       0.10545961 0.026141 0.5157494 -0.28875655
0001c0 34 2e c4 3a fa a6 d3 bd 4b 1e 71 be 26 78 c4 3d
       0.0014967383 -0.103345826 -0.23546712 0.09593229
0001d0 e0 94 ad 3e 06 16 a5 bd 2c eb 32 be df 04 f5 3d
       0.33902645 -0.08060841 -0.17472523 0.1196382
0001e0 84 ce 04 bf 12 c8 cf 3d f7 1f 85 bd ce 78 16 3e
       -0.5187762 0.10145582 -0.065002374 0.14694521
0001f0 64 12 cd bd c8 da 7f be 25 90 20 be 01 bf 3b be
       -0.10013273 -0.24985802 -0.15679987 -0.18334581
000200 ad 8b b9 3d c8 07 b2 bd 90 8a 61 be a2 53 40 3d
       0.09059844 -0.086928904 -0.22025514 0.04695476
000210 ee 4e a9 ba 0a 01 15 be a3 e8 24 3d e8 13 71 3d
       -0.00129172 -0.14551178 0.040260922 0.058856875
000220 4e 26 33 3e 10 39 5d be c1 02 8c bd d8 c6 a7 bd
       0.17495081 -0.21603799 -0.06836463 -0.08192223
000230 1a 3f 03 3d 60 40 0b bd 94 43 6e 3d 3b 1c 51 3e
       0.0320426 -0.03399694 0.058169916 0.20420925
000240 12 2f 62 be 83 8c dd 3b 60 c2 90 3c 10 a8 81 bb
       -0.22088268 0.006761135 0.01767081 -0.003956802
000250 22 e2 0e 3d 58 a7 f5 3e 57 4e 13 3e dc cb 6a be
       0.034883626 0.47979236 0.14385353 -0.22929329
000260 9a e0 b7 3d 86 5f b0 3e 29 46 da bd af db 1d be
       0.08978386 0.3444788 -0.10657913 -0.15415834
000270 37 80 51 bc 6a 71 3a 3d 68 fa 45 3d 63 c7 b1 3c
       -0.012786916 0.045518316 0.04833451 0.02170152
000280 4b 2e f3 3d 04 58 44 be a3 1b a2 3e 77 69 94 be
       0.11874064 -0.191742 0.3166171 -0.28986713
000290 90 27 25 be 91 07 47 3e 86 e0 a6 3b b9 cf 98 3e
       -0.16128373 0.1943648 0.0050926832 0.2984598

model.prob_model_x._decoder_embeddings.0.weight f4 [1, 8]
000000 ad 72 4a 3f 11 49 df be 3c ee 3d 3f 90 e0 c9 be
       0.7908123 -0.43610433 0.7419164 -0.3942914
000010 d4 93 ba 3e f3 fc 11 3f 24 03 07 bf e2 0f fc 3e
       0.3644091 0.57026595 -0.5273917 0.49230868

model.prob_model_x._decoder_embeddings.1.weight f4 [2, 8]
000000 57 de fa bd dd 31 a6 be 8b ce ad 3e ba 96 68 bd
       -0.12249439 -0.32459918 0.33946642 -0.05678437
000010 6b 4c bf bd 81 27 da 3d b9 6b 64 be 7d 04 62 3e
       -0.093407474 0.10652066 -0.22306718 0.22072025
000020 84 aa 18 be 50 36 82 3d ad 23 81 3e 0f 37 31 bf
       -0.14908797 0.063580155 0.2522253 -0.6922464
000030 f7 ee 0d bf 2f 21 12 bf 60 aa ee 3d a9 2f 8d be
       -0.55442756 -0.57081884 0.1165359 -0.27575424

model.prob_model_x._decoder_embeddings.2.weight f4 [2, 8]
000000 14 21 20 3e 1c 84 33 3f e8 69 d1 3e a7 8a b4 be
       0.15637618 0.7012346 0.40901113 -0.35262033
000010 8b c5 14 be 77 83 cb 3d 1b 18 9b be b9 88 e8 3a
       -0.14528482 0.09937184 -0.3029183 0.0017740942
000020 12 6e a2 3e 51 fa 56 be 61 8f 0d 3e e6 ae 88 3e
       0.31724602 -0.20993926 0.13824226 0.26695937
000030 b5 bb 20 3e 41 74 d1 3e 0d e1 62 3e 72 fb 92 be
       0.15696605 0.40909007 0.22156163 -0.28707463

model.prob_model_x._decoder_embeddings.3.weight f4 [1, 8]
000000 97 eb 0d bf 19 b3 0a 3f 41 78 82 be 5c fa a8 be
       -0.55437607 0.5417953 -0.2548237 -0.3300351
000010 62 9b cc be 21 b7 fa be 76 05 85 be 3b 09 98 be
       -0.39962298 -0.4896784 -0.2598073 -0.29694542

model.prob_model_x._decoder_embeddings.4.weight f4 [2, 8]
000000 ab 42 27 3e 67 24 31 3e 6e eb 06 3f 0e 48 cd bd
       0.16334026 0.17299043 0.5270299 -0.10023509
000010 ac 34 a3 be f9 6f 37 3d 8a 41 bb 3e f6 d4 bf be
       -0.31876123 0.04478452 0.3657344 -0.37467164
000020 fe 20 c7 be bd 18 e3 be 66 1c ce bd 13 c7 a7 be
       -0.3889236 -0.4435481 -0.1006401 -0.3276907
000030 2a e1 0e 3d f8 8f e8 3e f3 6a 46 3e 04 53 e8 be
       0.034882702 0.4542234 0.19376735 -0.45375836

model.prob_model_x._decoder_embeddings.5.weight f4 [2, 8]
000000 7e f8 2e 3e 0a 6b 24 be 2c 1a 1d 3e 4f 26 22 be
       0.1708698 -0.16056457 0.15342015 -0.15834926
000010 45 ed b9 be c7 a9 68 be 62 17 05 be 48 26 f5 bd
       -0.36313835 -0.22721015 -0.12997201 -0.11970192
000020 ce 1f 50 3e 97 39 c1 be d5 d8 e2 be f7 e5 75 bd
       0.20324633 -0.3773925 -0.44306055 -0.060033765
000030 26 a7 cb 3e 1f f8 93 be a1 71 88 3e 60 3d 8b 3e
       0.39775962 -0.2890024 0.26649192 0.27195263

model.prob_model_x._decoder_embeddings.6.weight f4 [1, 8]
000000 da 1a 38 bf b7 fc f0 be 67 4c d1 3e 3e 38 a1 3e
       -0.7191597 -0.47067806 0.40878603 0.31488222
000010 4a 1b 0c bf a1 5e 1e bf a3 1c 36 bf 5f 38 05 3f
       -0.5472914 -0.6186314 -0.71137446 0.5203914

exp_avg f4 [16, 1]
000000 fd 42 4a ab 9a a4 3a b4 6a 4d 9b ac a9 8b 75 b9
       -7.185778e-13 -1.7382482e-07 -4.4139596e-12 -0.00023417048
000010 3b 00 00 80 3d 71 21 bd b1 10 50 b5 bd 2d 9e bc
       -8.3e-44 -0.039414633 -7.751033e-07 -0.01930892
000020 80 56 0a 35 90 00 00 00 1b d1 7f 80 3b 18 8c bb
       5.153488e-07 2.02e-43 -1.1738121e-38 -0.0042753494
000030 29 5a 6e a9 37 f9 80 83 ee 09 17 ba c6 79 63 bc
       -5.2924817e-14 -7.580381e-37 -0.00057616725 -0.0138840135

exp_avg_sq f4 [16, 1]
000000 20 7e 7d 27 bd 0d ca 36 29 18 a5 27 3b f1 79 3b
       3.5179176e-15 6.0216685e-06 4.5822894e-15 0.003813817
000010 c4 47 81 21 d6 5f e0 3c 0a f9 83 37 58 b1 02 3d
       8.760376e-19 0.027389448 1.5732385e-05 0.03190741
000020 41 16 3a 37 67 d7 38 21 96 f5 5a 25 44 bf 0d 3b
       1.1091645e-05 6.262671e-19 1.8991694e-16 0.0021628896
000030 43 ca 36 27 1c e3 7f 25 38 87 2c 3b 52 f8 83 3c
       2.536722e-15 2.2194672e-16 0.0026325714 0.01610962

exp_avg f4 [16]
000000 ae 26 02 ac 7a a4 8d 3b f2 9e 71 8b 75 3f b9 3b
       -1.8495583e-12 0.0043225856 -4.653449e-32 0.0056533166
000010 bb 3a 07 aa 58 72 21 bd ca 6c f8 3c 12 35 83 bd
       -1.2010785e-13 -0.039415687 0.030325312 -0.06406607
000020 3d c1 1f b5 6b 00 3a ac 48 ee b3 ac ed cc 76 3c
       -5.9513314e-07 -2.6432422e-12 -5.1139405e-12 0.015063507
000030 f0 43 46 b3 63 55 a4 9e c7 49 a1 3c 56 62 2f bc
       -4.6162256e-08 -1.739949e-20 0.0196885 -0.010704597

exp_avg_sq f4 [16]
000000 c5 d1 90 27 2e 2e ec 39 ce 18 a3 25 67 dc 40 3c
       4.019546e-15 0.00045047834 2.82928e-16 0.011771298
000010 dd 67 49 27 d2 5f e0 3c 3c c3 2a 3c 3d 91 52 3d
       2.7950658e-15 0.02738944 0.010422524 0.05140804
000020 ea 15 3a 37 0d aa 98 27 7c f1 a8 27 82 f4 ce 3b
       1.1091566e-05 4.2372844e-15 4.6891185e-15 0.0063157687
000030 89 89 f7 30 94 bc 58 26 cb a1 d1 3b b6 ef f9 3c
       1.8010705e-09 7.5195625e-16 0.006397461 0.03050981

exp_avg f4 [16, 1]
000000 0a 39 01 bd e6 dd 1f 3c 71 02 00 00 ba f1 d8 bb
       -0.031548537 0.009757495 8.76e-43 -0.006620613
000010 a9 8e fe 3b 3e 64 a9 3a 57 c3 e7 3b e5 6d 04 3d
       0.0077684713 0.0012923551 0.007072847 0.032331366
000020 94 5e 11 3b cf 36 c0 3c 87 17 04 3d 59 1e 03 bc
       0.0022181617 0.023463635 0.032249 -0.008002841
000030 43 e5 32 3d 52 da 24 3d 01 df f1 3c 51 fe 9a 3c
       0.043675672 0.04024727 0.029525282 0.018920096

exp_avg_sq f4 [16, 1]
000000 26 e6 21 3c 06 c6 6f 3c de d7 87 24 38 49 6d 3c
       0.009881532 0.014634615 5.891261e-17 0.014482789
000010 3a 35 9c 3e 25 71 b1 3b 45 6e 1d 3c 80 d7 0f 3d
       0.3050936 0.005415099 0.00960881 0.035117626
000020 c8 50 a7 3b c0 5d 37 3e 7e 5f 9e 3d de fd 9d 3d
       0.0051060654 0.17906857 0.077330574 0.07714437
000030 7f e3 a0 3e a4 b5 28 3f 0b 01 88 3c 50 bb f1 3b
       0.31423566 0.6590216 0.01660206 0.0073770657

exp_avg f4 [16]
000000 79 dc 72 3d 71 7d 22 bd e0 b2 1f a7 51 d3 11 3a
       0.05929229 -0.03967041 -2.216265e-15 0.00055627996
000010 a2 c7 e2 3c 95 b3 81 3c 9e 2c 1c bd ad db c3 bd
       0.027683083 0.015832702 -0.038128488 -0.09563384
000020 33 bc 37 3c 6c d3 5f bd 62 44 4f bd 00 63 8d 3c
       0.011214304 -0.054644987 -0.050602324 0.017259121
000030 83 cc 68 bd cf 83 42 bd 6e 8a 91 3d d7 42 55 bd
       -0.056835663 -0.047488984 0.071064815 -0.052065697

exp_avg_sq f4 [16]
000000 13 95 63 3c dc 48 94 3c 92 ba 02 27 db e8 8d 3c
       0.0138905225 0.018101148 1.8142264e-15 0.017322948
000010 e4 9f 98 3e d5 c6 b6 3b dc a7 3f 3c 09 5f 26 3d
       0.29809487 0.005577902 0.011697736 0.040617976
000020 6e 7a c7 3b cc 19 5a 3e af ed 0a 3e 41 f1 c3 3d
       0.006087593 0.21298903 0.13567232 0.095675
000030 12 91 59 3e b4 ef c3 3e 93 ca 8a 3c 0c 7e 0e 3c
       0.21246746 0.38268816 0.016942298 0.008697044

exp_avg f4 [16, 1]
000000 72 c5 95 ba 63 e7 34 b9 de e1 ff b9 b7 a0 ac 38
       -0.0011426641 -0.00017252336 -0.00048805674 8.2315346e-05
000010 09 cf a8 b9 21 b9 aa 39 c3 32 32 b9 d9 25 9c ba
       -0.0003219771 0.00032562859 -0.00016994313 -0.0011913135
000020 07 16 d9 38 1d f6 9d b8 a9 37 00 3a 49 76 39 39
       0.00010351469 -7.5321856e-05 0.00048911065 0.0001768704
000030 2d 6d 04 38 b9 7b 2f 3a 7b cd 7b 39 f3 1d 60 3a
       3.157293e-05 0.00066941563 0.00024013773 0.00085493847

exp_avg_sq f4 [16, 1]
000000 82 65 96 37 c4 d6 2c 37 8b 3c 97 39 48 b0 e3 37
       1.7928662e-05 1.0302003e-05 0.00028846072 2.7142596e-05
000010 8f 25 2a 38 2b 4c 47 39 f3 06 ee 38 dd fd ed 37
       4.0566138e-05 0.00019006494 0.00011350019 2.8370816e-05
000020 c0 a8 bb 36 ec 33 69 38 9f b3 43 37 60 38 77 37
       5.5926794e-06 5.5599885e-05 1.1664727e-05 1.4735473e-05
000030 3a 1b 03 39 57 3c b9 37 d1 06 9a 38 50 22 96 38
       0.00012503276 2.2081816e-05 7.344562e-05 7.1589486e-05

exp_avg f4 [16]
000000 81 36 61 3a e0 82 0c b8 b5 31 ad b9 45 68 b3 39
       0.00085911906 -3.3500488e-05 -0.00033034166 0.00034219227
000010 95 59 37 37 ca 3f 10 3a 6b 3f f4 b8 a6 26 92 39
       1.0928507e-05 0.00055026694 -0.00011646639 0.00027876085
000020 73 a5 dd 37 57 49 40 ba c7 e5 d7 b9 de 41 6d 3a
       2.6422296e-05 -0.0007335147 -0.00041179193 0.00090506475
000030 75 6c 8b b9 98 08 d4 ba c2 73 08 b9 ff 10 0d 3a
       -0.00026592953 -0.0016176878 -0.00013013094 0.0005381256

exp_avg_sq f4 [16]
000000 40 f8 b5 37 84 78 1c 37 00 6d 9b 39 26 d0 f7 37
       2.1692482e-05 9.326384e-06 0.00029645115 2.9541621e-05
000010 3a 18 e7 37 1f 7d fa 38 cc c0 fe 38 b7 66 da 38
       2.7548627e-05 0.000119442346 0.00012147575 0.00010414182
000020 8f 52 2d 36 ee 00 2d 39 af c0 23 37 6f e8 9b 37
       2.5827064e-06 0.00016498912 9.76042e-06 1.8585675e-05
000030 ae d2 03 39 b4 ee 87 38 d7 cf 1c 39 e3 19 b8 38
       0.00012571618 6.4817636e-05 0.00014954746 8.7786255e-05

exp_avg f4 [16, 1]
000000 20 03 00 00 e8 30 62 b9 2c 05 af 3a 0a 01 00 80
       1.121e-42 -0.00021571259 0.0013352982 -3.73e-43
000010 32 80 04 80 10 84 a4 b9 05 01 00 80 80 6e 4c 97
       -4.1333e-40 -0.00031378912 -3.66e-43 -6.6055426e-25
000020 29 ba 00 39 cc 8c 73 38 78 e0 34 96 7b 00 00 00
       0.00012276381 5.8066842e-05 -1.4611114e-25 1.72e-43
000030 e8 02 00 80 69 7b 30 3a c8 37 1e 88 1e 4d dd b4
       -1.043e-42 0.0006732257 -4.7611966e-34 -4.1220568e-07

exp_avg_sq f4 [16, 1]
000000 d9 89 97 24 de 5e 64 37 47 9d 48 38 44 d6 c2 23
       6.5719334e-17 1.3611947e-05 4.783019e-05 2.1124267e-17
000010 c9 3a 64 25 54 48 cf 37 a2 74 dd 22 52 f8 03 26
       1.9795765e-16 2.4710003e-05 6.002566e-18 4.578629e-16
000020 b0 4c 80 37 47 97 d9 36 ec ba f8 25 c6 f6 89 23
       1.52945e-05 6.484715e-06 4.3147805e-16 1.4958082e-17
000030 f5 a0 8b 24 67 72 21 38 6b 07 99 25 c1 45 a6 33
       6.055431e-17 3.8491937e-05 2.6546296e-16 7.7426655e-08
