SimLoan/VACA/exper_test_10pct_noise/toy_/vaca/dgnn_elbo_8_8_16_4_normal_0.0_0.2_0.0_0.0_0_True_[BernoulliLikelihood()]_[NormalLikelihood()]_[NormalLikelihood()]_[BernoulliLikelihood()]_[NormalLikelihood()]_[NormalLikelihood()]_[BernoulliLikelihood()]_7_21/adam/0.005_0.9_0.999_1.2e-06_exp_lr_0.99/9/ckpt/last-v1.ckpt (torch, 164822 bytes, 81 tensors)

model._encoder_embeddings.0.0.weight f4 [16, 1]
000000 88 13 ff be 1d d8 d5 be b8 c3 d8 be 6c 17 00 be
       -0.4981959 -0.41766444 -0.42336822 -0.12508935
000010 34 a0 b3 be 3a bf 0e be b9 9e e8 81 10 c7 58 3e
       -0.35083163 -0.13940135 -8.5451096e-38 0.21169686
000020 76 cd 0b bd 3d d2 3a be 13 d3 85 af 50 94 f3 bd
       -0.03413149 -0.18244262 -2.4342536e-10 -0.11893523
000030 af c7 68 3f 71 3a b6 be 81 3a 1b bf 5a e2 3c bd
       0.90929693 -0.35591462 -0.60636145 -0.046114303

model._encoder_embeddings.0.0.bias f4 [16]
000000 99 a7 be 3e 89 7b d4 3e e9 15 cf 3e 48 fb 32 3e
       0.37237242 0.415005 0.40446404 0.17478669
000010 a3 ff 23 3e 90 de 75 3e e6 d3 7b 82 5c 65 7d 3e
       0.16015486 0.24010682 -1.850138e-37 0.24745697
000020 20 4c c7 bc 6e 5a de ba 7a 48 df bc 1e 55 a4 3e
       -0.024328291 -0.0016964206 -0.02725624 0.3209619
000030 89 35 72 bf 92 5c e6 3e 81 5c 2a 3f b4 a7 14 bc
       -0.9461294 0.449925 0.665474 -0.009073187

model._encoder_embeddings.1.0.weight f4 [16, 1]
000000 32 69 ee bc 2f 51 3d bf 54 83 9f 3d a9 c0 7b bf
       -0.029102895 -0.73952 0.07788721 -0.9834085
000010 9d a5 6a bd dc a3 3e bc 1b e6 b4 3c 0f 5a 0b 3e
       -0.057286847 -0.011635747 0.02208238 0.13608573
000020 a9 d3 74 3d 8d 74 15 bf 47 d0 90 3f 8f 9c 80 3f
       0.059772167 -0.5838097 1.1313561 1.0047778
000030 bf 6e b3 bd 85 31 8a 3f a2 83 db 3e c7 ab a1 be
       -0.087613575 1.0796362 0.42873865 -0.31576368

model._encoder_embeddings.1.0.bias f4 [16]
000000 2c eb b9 bd ab 41 30 bf cd fe 11 be 9e 6c 0d bf
       -0.090780586 -0.688502 -0.14257355 -0.5524386
000010 8c c3 00 be 61 42 c9 bc 1d 8f 9e bd 88 2b 1f 3f
       -0.12574595 -0.024567785 -0.077421404 0.621758
000020 83 9e dd 3e 4c 14 ab bd d4 97 1c bf 77 54 a2 3d
       0.43284997 -0.08353481 -0.6116917 0.07926267
000030 01 29 82 3f 7b a5 5c bf 01 ad 5a 3f 71 25 07 3f
       1.0168763 -0.86190003 0.85420233 0.52791506

model._encoder_embeddings.2.0.weight f4 [16, 1]
000000 56 61 a1 3e f4 b1 8c 3c 6c 04 e5 3e 87 59 1b 3e
       0.31519574 0.017174698 0.44729936 0.1517087
000010 4e 1c ba 3e c1 f0 39 bf b7 a4 9d be 92 aa ef 3e
       0.3634972 -0.72632986 -0.3078973 0.46809822
000020 e3 90 10 bf c8 d9 16 3f 86 c2 48 3e a8 73 04 3c
       -0.5647108 0.5892606 0.19605455 0.008084215
000030 3e a9 5c be 7e cf 3d bf 5a 5d c1 bd 8d 5e b3 be
       -0.21548936 -0.7414473 -0.094416335 -0.35033074

model._encoder_embeddings.2.0.bias f4 [16]
000000 31 85 c6 be a2 df 9b bd 97 e5 0e bd 65 2f 93 3e
       -0.38773492 -0.07611014 -0.034886923 0.28747097
000010 44 b2 cc 3e 08 09 4a bf f7 5d 59 3d 86 4d a8 be
       0.39979756 -0.7892003 0.053068127 -0.32871646
000020 4d fc 84 be fa fc aa 3e 97 68 5a 3f 5c bb d9 bc
       -0.2597374 0.3339613 0.8531584 -0.026578598
000030 7a d1 fc 3e af e6 62 3f f8 e7 16 3f 9a 03 25 3f
       0.49378568 0.88633245 0.58947706 0.6445862

model._encoder_embeddings.3.0.weight f4 [16, 1]
000000 5d 3d 93 3d f1 0e 0d 01 eb 48 55 3e 05 ab 00 3f
       0.071894385 2.590833e-38 0.20828597 0.50260955
000010 21 87 4f bc cc 95 6e bc ec c1 33 3f d1 bd 28 3f
       -0.012666495 -0.014562082 0.70217776 0.65914637
000020 84 f7 c5 bd a2 47 cd 3e 5b 87 21 bf 20 76 19 80
       -0.096663505 0.40093714 -0.6309716 -2.338263e-39
000030 df 93 28 3d 18 a2 d8 3e b6 df 8b bd 95 79 32 02
       0.041156646 0.42311168 -0.06829779 1.3112267e-37

model._encoder_embeddings.3.0.bias f4 [16]
000000 20 3b ed 3e 24 84 ab a1 11 df 40 3f f6 48 8b bb
       0.4633417 -1.1622388e-18 0.7534037 -0.004250641
000010 15 8a 4f bc 67 a2 95 bd 4f 98 34 bf ee 2a 1d 3f
       -0.012667199 -0.073063664 -0.70544904 0.6139363
000020 17 0c 13 3e 58 01 d4 be 05 96 00 3f 7d 9a 77 82
       0.1436008 -0.41407275 0.5022891 -1.819103e-37
000030 d6 f6 8f bc 87 d7 83 3e 3b e0 8b bd 4c 0a 7e 82
       -0.017573755 0.25750372 -0.06829878 -1.8663928e-37

model._encoder_embeddings.4.0.weight f4 [16, 1]
000000 05 f9 64 bf db 8a 60 3f 72 c2 c5 be 49 3e 8a 3e
       -0.89442474 0.87711877 -0.38624913 0.27000645
000010 91 10 3e 3c 67 b0 21 be 0c 3e 3d bf 1a 4f 52 3f
       0.011600629 -0.15789948 -0.739228 0.8215195
000020 06 ef 5d 3f c0 3e a7 bd 56 27 97 be 22 cc a2 be
       0.86692846 -0.081662655 -0.29522198 -0.31796366
000030 52 cb aa 3e d9 c9 ac be e2 8a 92 3e 1a 6f 51 be
       0.33358246 -0.33747748 0.28621584 -0.20452538

model._encoder_embeddings.4.0.bias f4 [16]
000000 b1 ec db be d7 7a 4f bf 78 7d 83 be a4 a4 04 3f
       -0.4295402 -0.81046814 -0.25681663 0.5181372
000010 32 2a 21 bd 76 4c a0 3e 77 23 3f bf 08 96 84 be
       -0.03934688 0.31308335 -0.7466349 -0.25895715
000020 a2 96 de be b8 43 39 3f 58 23 00 3f 6d f0 2b 3f
       -0.434743 0.72368956 0.5005393 0.67163736
000030 ee 08 14 bf 19 70 13 3f e9 e2 28 3f 64 eb c5 be
       -0.57826126 0.5759292 0.6597124 -0.3865615

model._encoder_embeddings.5.0.weight f4 [16, 1]
000000 7c cc 9a 81 e4 18 5e 3e 46 c4 29 be 4e 45 01 3f
       -5.6864086e-38 0.21689183 -0.16578779 0.50496376
000010 d2 30 1d 3f 41 17 11 bf 4b c6 e5 3d 63 54 99 3e
       0.6140262 -0.5667611 0.11219462 0.29947194
000020 51 15 9f be ac b4 58 bc 7e 44 ed be f7 b0 e3 3e
       -0.3107095 -0.013226669 -0.46341318 0.4447095
000030 85 4e 39 bf b8 1c 4d 3d 92 2b 95 be bd bb 43 3e
       -0.72385436 0.050076216 -0.29134804 0.19114585

model._encoder_embeddings.5.0.bias f4 [16]
000000 b6 53 8d 82 8b 9c d4 be 6e 64 58 3e 37 2f 01 bf
       -2.0766136e-37 -0.41525683 0.21132061 -0.5046267
000010 c6 93 48 bf 88 d1 12 3f 4e 25 ba 3e 24 21 31 3f
       -0.78350484 0.5735097 0.36356586 0.69191194
000020 09 05 55 bf 25 4d c3 bd d3 a2 17 3f ae 92 e4 be
       -0.8321081 -0.095361985 0.59232825 -0.44643158
000030 42 13 6c 3f 7c 36 d5 bd a3 18 70 bf 6f 1f dd 3e
       0.92216885 -0.10410783 -0.9378759 0.43188044

model._encoder_embeddings.6.0.weight f4 [16, 1]
000000 10 50 54 3f b3 cf 1a b2 e8 a9 ab bd 7a e1 d9 3e
       0.82934666 -9.011205e-09 -0.083820164 0.42554837
000010 e0 44 40 be 20 f6 38 3d fc a2 4c 80 dc 4b 28 3f
       -0.18776274 0.045156598 -7.037965e-39 0.6574075
000020 3c 6e cf 3e a4 d3 d4 01 39 23 a7 81 4d 54 ff be
       0.4051379 7.818019e-38 -6.1396653e-38 -0.49869004
000030 52 73 45 bc 6c 5b 5e bd 2c e4 3a 3e b0 4d 3d be
       -0.01205142 -0.054286405 0.18251103 -0.18486667

model._encoder_embeddings.6.0.bias f4 [16]
000000 aa e9 0a bf f9 36 f0 b7 b1 2c 13 3f be 15 8f be
       -0.54262793 -2.8635828e-05 0.5749007 -0.27946275
000010 0f 43 29 3e 98 5f 5d bd f7 92 4c 80 6f 5f f1 be
       0.16529487 -0.054046243 -7.032219e-39 -0.47143123
000020 2c 7d f7 be 8c 4f f9 bb ce 6a 59 82 52 f2 34 3f
       -0.48337686 -0.0076083597 -1.5973294e-37 0.7068225
000030 8b f8 2f 3f 1e 3b 40 3d 5d c4 49 3f 14 e9 92 3e
       0.6873862 0.04693138 0.7881525 0.2869345

model.encoder_module.convs.0.m_net_list.0.weights.weight f4 [256, 21]
000000 4c 2d 03 be 14 01 a5 bc 0d df 00 bc b5 c9 cc 3c
       -0.12810248 -0.020142116 -0.007865679 0.024998525
000010 de 16 13 81 78 75 8b bc a6 07 09 3e 7b 71 a8 bd
       -2.7016042e-38 -0.017023787 0.13381824 -0.0822477
000020 a8 d2 00 3e 4f 59 52 3d d5 50 1b 3e e6 f5 82 82
       0.12580359 0.051354703 0.15167554 -1.9242922e-37
000030 98 b8 34 3e bd 5c 84 be 27 3e 7a 82 30 cc 4b 3b
       0.17648542 -0.25852004 -1.8384936e-37 0.0031097047
000040 c0 dc 26 01 cc 7c 06 3e aa 1c fe 81 25 d6 de bd
       3.0647765e-38 0.13133544 -9.3345995e-38 -0.108806886
000050 f1 75 c3 3d fd 38 ca bc 4a bc 29 a6 dc 68 24 be
       0.0954398 -0.024685377 -5.8888833e-16 -0.16055626
000060 30 82 f9 bc ea ff df 01 d6 ef 81 96 c9 60 f4 3d
       -0.030457586 8.228448e-38 -2.0992432e-25 0.11932523
000070 c9 28 12 be e5 5c 27 bc c0 db 45 be f8 6e 3c 3d
       -0.14273371 -0.010215019 -0.19322109 0.046004266
000080 78 38 6c 00 25 df ff bc f3 2a 5d 3b c8 64 50 82
       9.938491e-39 -0.031234333 0.0033747524 -1.5310349e-37
000090 57 d4 9d bd e4 ee 87 81 68 40 f3 3d d7 9e 41 82
       -0.07706516 -4.993396e-38 0.11877519 -1.4224985e-37
0000a0 df 76 e4 bd d5 c6 83 3e c3 6d 8a bd d7 7c 01 37
       -0.11155485 0.25737634 -0.06759217 7.718066e-06
0000b0 a3 a4 23 ba f8 3f 38 3c 3e 46 10 81 87 23 4e b8
       -0.00062424893 0.01124572 -2.649902e-38 -4.9147315e-05
0000c0 a4 0c 81 be 97 72 0c 3e 4d 98 1a 3e e9 2b 8d be
       -0.25204957 0.13715588 0.1509716 -0.27572563
0000d0 57 dd a4 bd 56 36 36 82 c3 9c 40 3d f6 e5 fb 3d
       -0.0805003 -1.3386842e-37 0.0470245 0.12299721
0000e0 04 26 5c 01 dd b8 92 3e 5a 70 ec 81 b7 3d 52 3c
       4.0434893e-38 0.28656664 -8.6853925e-38 0.012832097
0000f0 4d 74 c4 01 0b 7b 2b 3e e9 97 7a be 11 27 20 3e
       7.216591e-38 0.16746156 -0.24472012 0.15639903
000100 37 e7 81 38 35 38 5a 3e 49 d8 f3 bc 50 a4 60 00
       6.1942665e-05 0.21310504 -0.029766219 8.875152e-39
000110 7b 91 fc 38 d7 3e e7 3e 7d cf 7b bd 52 34 08 3e
       0.00012043394 0.4516513 -0.061477173 0.13301209
000120 2d 39 97 3b cd ac c0 bd 3b 58 87 82 0f aa 9c bd
       0.00461497 -0.09407959 -1.988711e-37 -0.076496236
000130 f8 aa 22 bd 30 bf 6c 01 44 2d f5 bd 61 63 18 02
       -0.03971383 4.3483524e-38 -0.11971524 1.1195717e-37
000140 f0 2b a0 bd f8 78 47 82 99 74 0d be 33 0a a2 3d
       -0.078208804 -1.4654927e-37 -0.1381401 0.079121016
000150 89 a2 82 3c af 1d 55 ba af a6 6b bc 56 53 a7 3d
       0.015946643 -0.00081297284 -0.014383002 0.08170192
000160 e1 f9 2a 82 3e 67 a5 b8 8b 2c 82 3c cb c0 aa bc
       -1.2561339e-37 -7.8870435e-05 0.01589038 -0.020843884
000170 60 a5 b9 bd 80 90 45 3d fa 3f 64 3e 32 59 07 02
       -0.09064746 0.04823351 0.2229003 9.943831e-38
000180 1b 77 13 3d 1f 95 b8 3d b7 47 8e 82 5d 37 ec bd
       0.03600226 0.090128176 -2.0906187e-37 -0.11533997
000190 60 d5 5c 81 9a c1 0d 3e 20 0e 6e 82 18 46 2f be
       -4.0560707e-38 0.13843384 -1.7489532e-37 -0.17116582
0001a0 a7 91 82 bd 42 28 81 be b1 1f 16 30 e8 8e 59 bd
       -0.06375437 -0.25226027 5.461472e-10 -0.0531148
0001b0 a7 86 e2 3d 94 f6 f1 01 9d eb 4d 33 71 ad b1 bd
       0.11060839 8.888324e-38 4.794457e-08 -0.086756594
0001c0 14 a2 b1 bd 4b b2 98 3d 61 2e 0f bd e4 28 3d be
       -0.08673492 0.07455882 -0.03495634 -0.1847263
0001d0 2c d8 c3 00 0c ce ad bd cd 27 1b be eb 6a 2e 02
       1.798547e-38 -0.08486566 -0.15151902 1.2814185e-37
0001e0 9f 27 b9 bd d8 93 91 00 5c a7 a0 3d a5 68 f1 81
       -0.0904076 1.3369183e-38 0.07844421 -8.8679576e-38
0001f0 ae ae 8b 3e cb ca 57 bd 6b f0 f8 bd 5b c7 b1 b7
       0.27281708 -0.052683633 -0.12155231 -2.1192876e-05
000200 d3 5d 2a 3c b1 bf 58 3f 60 c3 48 02 32 78 7a b7
       0.010398346 0.846675 1.4749749e-37 -1.4929146e-05
000210 b1 20 48 be eb 57 6b be 0d 24 25 3f 76 00 43 bd
       -0.19543721 -0.22982757 0.64508134 -0.04760786
000220 33 e1 4e 3c 10 8d 93 00 ae 7a 14 be 43 57 48 3f
       0.012626934 1.3550422e-38 -0.14499924 0.7825815
000230 a0 b5 1e 01 9d cd 84 3f 14 7e 08 81 be eb cb 3d
       2.9150326e-38 1.0375248 -2.5069712e-38 0.09957074
000240 5e a6 6f 82 a1 70 da bc 83 de 1a be 64 0b 57 3c
       -1.7606692e-37 -0.026665034 -0.15123944 0.013125274
000250 c7 b0 18 ae 54 06 73 3e ac 31 0b 3e 18 a5 3a 02
       -3.471781e-11 0.23732883 0.13593167 1.3712501e-37
000260 2e b5 90 b0 b9 33 91 3e 78 eb 12 be ab ba c4 3c
       -1.0528873e-09 0.28359774 -0.14347637 0.024014791
000270 de b5 8c be f7 0e 15 3d 82 ad 42 02 8c 8a 4f be
       -0.27482504 0.036391225 1.4302663e-37 -0.20267695
000280 c8 19 bc bd ee 9a 96 81 d6 94 36 3e e6 39 b3 81
       -0.09184605 -5.532361e-38 0.17830214 -6.5837295e-38
000290 7b 4e 4c bd 9e f3 03 82 95 07 f9 3d df 0c fc bd
       -0.049879532 -9.694275e-38 0.12159649 -0.123071425
0002a0 9f bd 27 bd 2d 72 f5 be 82 95 9c bb ba d1 a2 bc
       -0.04095232 -0.47938672 -0.004778565 -0.019875396
0002b0 0b 8d 84 bc 8d 00 05 bf 4f 8a 9e bb 8e c4 1c 82
       -0.016180536 -0.51953965 -0.004838265 -1.1517478e-37
0002c0 b9 95 4c bd a9 5c 94 bb 5c 47 67 82 6e 03 98 bc
       -0.049947474 -0.0045276475 -1.6991679e-37 -0.018556323
0002d0 ca 74 69 02 8a 89 99 3d 7e ca 35 39 bf cc d4 3b
       1.7151653e-37 0.074969366 0.0001733694 0.006494134
0002e0 2b 1d 7b bc 3e 74 60 a2 ec 37 d7 39 3f 05 60 a2
       -0.015326778 -3.0419199e-18 0.0004104966 -3.0360438e-18
0002f0 0a a8 8d a5 a7 66 35 3c b5 4d 6e 3d 4b 70 da bb
       -2.457347e-16 0.0110718375 0.058179576 -0.0066662184
000300 39 76 10 3d 51 30 ca 3a ac 4c 9a 3b 83 47 d8 bb
       0.035268996 0.0015425776 0.004708847 -0.0066003217
000310 e0 af 49 81 b0 ac cc 3c ef dd e7 bb 0d 0f 87 01
       -3.7044054e-38 0.024984688 -0.007076017 4.9612765e-38
000320 c5 a5 3f ba 84 1a 95 01 8a c4 c9 bc f9 39 bf 3a
       -0.00073107734 5.4772004e-38 -0.02462985 0.0014589421
000330 09 60 27 3d 64 da a6 3a e2 fc 33 95 af bb d0 3a
       0.04086307 0.001272988 -3.634825e-26 0.0015925075
000340 c2 69 30 95 67 6b 09 87 2f 4c ae bd f8 e7 b1 bb
       -3.5626345e-26 -1.0338297e-34 -0.085106246 -0.005429264
000350 ac 39 c6 bc ca f0 ed 3c b4 3e fe 3a eb b7 55 3d
       -0.024197422 0.029045481 0.0019397349 0.05217735
000360 a8 42 c6 bc 24 c7 39 82 cb e9 b6 bd 5b 7a 4d bd
       -0.024201706 -1.3648804e-37 -0.08931311 -0.050165515
000370 8d f5 27 82 a6 d3 37 b8 ba 54 76 02 3d 90 12 be
       -1.2339692e-37 -4.3827713e-05 1.8097541e-37 -0.14312835
000380 a9 23 36 39 ce 26 37 bf 8d 96 aa 3a 61 3e 1d 2a
       0.00017370157 -0.71543586 0.0013014838 1.3966043e-13
000390 62 e1 cf b9 b3 82 1c 2a 11 f7 f8 2b 64 b6 4e be
       -0.0003965004 1.3900929e-13 1.7690035e-12 -0.20186764
0003a0 5c 51 40 3c b8 f0 08 bd 20 62 0c bd 02 a4 6c bc
       0.011738148 -0.033432692 -0.034273267 -0.014443399
0003b0 37 0a ff 3b 0f e8 08 bd 59 b1 01 02 eb 6c ac bb
       0.0077832 -0.033424433 9.52832e-38 -0.0052620075
0003c0 9b a2 04 bd 7a 9e c2 81 02 e1 69 bc 94 2e 32 02
       -0.032381635 -7.149175e-38 -0.014274837 1.3090742e-37
0003d0 6a 97 7d 3d 76 19 4d 3c 8e 68 49 3d 5c b0 85 3b
       0.061911978 0.012518277 0.049171977 0.0040798616
0003e0 31 c8 6a 0c d9 66 34 bc e0 01 6b 0c 21 b3 66 14
       1.8086947e-31 -0.011010849 1.8104306e-31 1.16473595e-26
0003f0 9e 6e 64 3d cd 6c 25 bf 4d a0 01 3b ae 96 f8 bd
       0.055769555 -0.6461914 0.0019779385 -0.12138115

model.encoder_module.convs.0.m_net_list.0.bias.weight f4 [8, 21]
000000 c2 8d c2 bd 0b 45 54 3e 93 63 3c bd b9 b4 16 be
       -0.094996944 0.20729463 -0.0459934 -0.14717378
000010 87 20 95 3d 06 15 4e 3d 92 00 3f be 43 b5 bd 3c
       0.07281595 0.05031302 -0.18652561 0.023157721
000020 2c f5 00 be 45 61 ca bd 5d f3 66 be cb 51 36 3d
       -0.12593526 -0.09881834 -0.22553773 0.044511598
000030 1a 07 3c 3c b3 dd c8 bd 14 dc a4 3d ed 8e 9d bd
       0.0114763025 -0.09807911 0.08049789 -0.076932766
000040 3f d1 fd bd 2b 8c 89 3d 48 39 a7 bd 47 42 9a 3d
       -0.12393426 0.06716188 -0.081652224 0.07532173
000050 8f d8 13 bd 97 8d d7 bd 8f 63 34 3e 58 44 e9 3c
       -0.0360952 -0.10525053 0.17616104 0.028474972
000060 be c9 f8 bc 1e 3c ea bd 1e 78 e8 bd bb b7 1c be
       -0.030369636 -0.11437248 -0.113510355 -0.15304463
000070 56 24 31 3e 2d 19 1b bd c3 e7 cf 3d 1b 68 f3 bd
       0.17299017 -0.037865806 0.10151627 -0.11885091
000080 ca fe f6 3c c5 0b 2a 3c fc f6 4a be b9 50 ae bc
       0.03015079 0.010378783 -0.1982078 -0.021278726
000090 1d 3d 2c bd b0 54 89 3d c2 ba 2b bd ee 75 1b bd
       -0.04205047 0.06705606 -0.041926153 -0.037954263
0000a0 1a c5 22 bd 14 b7 80 bd 14 95 58 bd 51 c4 95 bd
       -0.039738752 -0.062849194 -0.052876547 -0.07312835
0000b0 8c eb af 3d 3a 7b 35 bd c0 36 c7 3c dd 43 02 3e
       0.08589849 -0.04430697 0.024318099 0.127212
0000c0 45 6b 9d 3d 70 40 49 3d dc b6 16 bd f9 37 c1 bb
       0.07686476 0.049133718 -0.036795482 -0.005896565
0000d0 10 e3 09 3e 69 70 d6 bd 72 ca 18 3e ca f5 9a bc
       0.13465524 -0.10470659 0.14920977 -0.01891603
0000e0 c0 a1 9b bd ae f0 91 bd c2 4f 3a 3e 6c ee 4a be
       -0.07599211 -0.07125984 0.18194488 -0.19817513
0000f0 e3 77 dd bd 49 25 07 3e 95 42 ac bd b7 3c 31 be
       -0.10813882 0.13197817 -0.08411137 -0.17308317
000100 8e 76 48 3e 14 22 23 3e 74 d7 77 bd f4 3a 3e bd
       0.19576475 0.15930969 -0.060508206 -0.04644294
000110 65 8b 4d 3e 3e 43 60 be 87 26 d6 bd ff c5 86 bd
       0.20072706 -0.21900651 -0.10456567 -0.065807335
000120 a3 27 48 bd 2a 4e 2c 3d 87 81 13 3e ba 7d cc bd
       -0.048865926 0.04206673 0.1440488 -0.09984918
000130 25 76 12 3e 9b 8d 6f 3d 8e 83 f0 3d 9b 9b 9f bd
       0.14302881 0.058484655 0.11743842 -0.07793351
000140 b6 21 d5 3d d5 14 62 3c 72 8c 60 bc f6 fd c6 3d
       0.104068205 0.013798912 -0.01370536 0.09716408
000150 16 df 25 be 3c 77 96 bd f4 36 26 3e 70 f0 17 be
       -0.16198382 -0.07346961 0.162319 -0.14837813
000160 f8 92 63 be 1f 60 36 bf fd 44 cc bc ea d0 54 bd
       -0.22224033 -0.7124042 -0.02493524 -0.05195705
000170 96 b9 25 3e fd 89 26 be b3 e9 4d be 0a 51 85 3d
       0.16184077 -0.16263576 -0.2010868 0.065095976
000180 a5 b8 8e bd 7c a5 f0 3c 1a 72 f6 3d 10 a0 06 be
       -0.06968812 0.029375784 0.12033482 -0.13146996
000190 eb 21 43 bd 40 f0 86 3d 2c 10 f1 3d 1b f4 39 bd
       -0.04763977 0.06588793 0.11770663 -0.045398813
0001a0 b5 17 95 bd 15 74 f4 3c 30 ff 5b 3d 25 84 86 3d
       -0.072799124 0.029840508 0.053710163 0.06568173
0001b0 53 f8 39 3b 37 22 3d 3c a4 a6 4a bd f4 08 63 be
       0.0028376773 0.011543802 -0.049475327 -0.22171384
0001c0 c9 55 67 3e 68 4a 90 bd 34 e0 99 bd 0c 26 e5 3d
       0.22591318 -0.07045442 -0.075134665 0.111888975
0001d0 af 0b 09 3e a0 97 e7 3c 43 6d 80 bc aa 2e c8 3b
       0.13383363 0.028270543 -0.0156771 0.0061090784
0001e0 22 8b 4d 3e 8c 9b 3e be 72 ab db bd f5 53 76 bc
       0.20072606 -0.18614024 -0.1072606 -0.015034665
0001f0 98 f3 b4 bc ad ea 0e 3e 33 80 bc bd d2 5f 04 3e
       -0.02208881 0.13956709 -0.092041396 0.12927178
000200 b6 cc 95 bd dd 38 b8 3d f7 b5 68 bc 03 6c 51 3e
       -0.07314436 0.08995221 -0.01420354 0.2045136
000210 b0 5a d6 bd 6e fa ae 3d 2c e6 26 be da 67 b6 3d
       -0.10466516 0.085438594 -0.16298741 0.08906527
000220 2d 81 4d be e2 bb 1b be bd e2 e8 3d 06 28 b9 3d
       -0.20068808 -0.1520839 0.11371372 0.09040837
000230 b4 3b af 3d cf 22 09 bf 38 7a c5 3c 4c cd 05 3e
       0.08556309 -0.5356874 0.02410613 0.13066596
000240 fa 34 5d 3d c6 e9 03 bd 6d 96 70 bd 46 7e a6 3d
       0.0540056 -0.032205366 -0.058737207 0.081295535
000250 3e f4 05 3d 82 f8 21 3e e6 f4 1b bb 86 a5 44 be
       0.03270363 0.15817454 -0.0023797094 -0.19203767
000260 10 62 4a 3c e0 82 21 be 9a e4 64 3e dd 6b e9 3a
       0.0123524815 -0.15772581 0.2235283 0.0017808635
000270 86 6f 37 be 5a 42 94 3b fa 00 8a bb db db 30 be
       -0.17913637 0.0045245113 -0.004211542 -0.17271368
000280 9b 58 0c 3e 36 ac 5b 3e 7d 0a 6c bd bb 47 6f bd
       0.13705675 0.21452412 -0.05762719 -0.058418017
000290 fd c1 b8 3d e7 6f 84 3d 36 98 b0 bd d2 f1 f7 bd
       0.09021375 0.06466656 -0.08622782 -0.121066704

model.decoder_module.convs.0.m_net_list.0.weights.weight f4 [64, 21]
000000 62 07 f0 bd a8 9d c3 3e 62 b9 45 3e bd ee a0 3c
       -0.11720158 0.3820622 0.19308999 0.01964509
000010 4e d2 8a 3a 2c 2b 41 3f fa 41 1d bd ea 32 7f 3d
       0.001059124 0.754565 -0.038393 0.062304415
000020 44 cb 31 3d 74 5e 26 be 3b 7c 5b bd 07 ef c6 3d
       0.04340674 -0.16246969 -0.053585272 0.097135596
000030 00 53 20 be dd 7a 87 bd d7 57 dc 3d a9 ff 03 be
       -0.15656662 -0.06615231 0.107589416 -0.12890495
000040 7d 33 ec bd a3 28 bd bd f0 0d 70 bd b8 50 91 bc
       -0.11533258 -0.092362665 -0.05860704 -0.017738685
000050 bc 53 32 be 6c 25 01 be f3 f6 54 3e b7 4e 96 3c
       -0.17414755 -0.12611932 0.20797329 0.018348081
000060 69 d8 8d 3c 98 9a ac 3d e8 35 42 3b 0c 97 3e bc
       0.017315106 0.08427924 0.0029634181 -0.011632692
000070 68 e5 85 bd 3d 6d 12 bd de 40 08 bd 9e de 89 3c
       -0.065378964 -0.03574871 -0.033264987 0.016829785
000080 92 de 32 3d 4a 35 0c bc 83 28 85 3c 3a b9 ac bd
       0.04366929 -0.008557627 0.016254669 -0.08433767
000090 d9 b8 98 bd 4a 39 27 bd b4 85 94 bd 1b 91 a3 3d
       -0.07457132 -0.04082612 -0.07252064 0.07986661
0000a0 64 ed 82 bd 1d c6 c1 3b 65 06 b6 bd ac 11 72 be
       -0.06392935 0.0059135095 -0.088879384 -0.23639554
0000b0 7e 6f 0f 3d cd fb c4 bd 65 91 7c be 84 2c ca be
       0.035018437 -0.0961834 -0.24664839 -0.39487088
0000c0 b8 a9 08 3d 63 7e 49 bb bf a8 47 3e 1c 54 69 be
       0.03336498 -0.0030745498 0.19497965 -0.22785991
0000d0 e7 4d 8b bd be 96 e7 3d a1 45 48 3c 64 50 cf bd
       -0.06801968 0.11308049 0.012223632 -0.10122755
0000e0 b5 c4 10 3e e1 41 22 3c a3 d3 45 3c 5d 09 9c 3d
       0.14137538 0.009903402 0.012074384 0.076189734
0000f0 06 ba c8 3c af a1 90 bd 44 d5 22 3b 71 e3 24 3e
       0.024502765 -0.07062089 0.0024846354 0.16102387
000100 4d 94 b2 3e 18 02 23 bd 11 07 17 be 27 8d 16 3d
       0.3487877 -0.03979692 -0.1474879 0.036755707
000110 ad f7 33 3f b4 c3 08 3d da cb d1 bd 89 87 8f ba
       0.702998 0.033389762 -0.1024396 -0.0010950427
000120 5b b4 80 bd be c1 50 3e 20 0f 23 3e 7d 2b 7e bd
       -0.062844 0.20386407 0.15923738 -0.062053192
000130 de a9 1b 3e dd c1 0a 3e fa 7b 00 be fb 28 06 3d
       0.15201518 0.13550515 -0.12547293 0.032753926
000140 13 be ff 3d 5c 44 01 be a7 2d 35 be 62 a8 77 3d
       0.12487426 -0.12623733 -0.17693196 0.060463317
000150 30 40 0e be 3e 6c a6 3e d3 e8 08 3e d6 11 c9 3d
       -0.13891673 0.32504457 0.13370065 0.09817855
000160 cb a7 8b bb 12 ea 07 3f 4a d4 20 bd e8 95 a4 be
       -0.004261946 0.5309154 -0.039264955 -0.3214562
000170 e0 0f 36 be 78 3d 32 be a9 80 e9 3c 6e 32 32 3d
       -0.17779493 -0.17406261 0.028503733 0.043505125
000180 ff 26 33 3e 5c 52 ad 3d d5 22 d2 bc c7 ce 0e 3e
       0.17495345 0.084629744 -0.025651375 0.13946067
000190 50 88 56 3d 4d 27 6e bd 5d 9e 1d be e5 73 26 3d
       0.05237609 -0.05814295 -0.15392442 0.04063787
0001a0 d3 82 b0 bb 6b 12 b6 bc ec 51 2c 3e 45 68 08 3d
       -0.005386689 -0.02222558 0.16828126 0.033302564
0001b0 85 22 9d bd e8 8b 20 3c 99 54 cb be da a7 11 bd
       -0.076726 0.009798981 -0.3971298 -0.035560466
0001c0 79 3f 18 be ff 2c e9 bd ac 72 83 bc 2f 90 6e 3e
       -0.14867963 -0.113855354 -0.01604589 0.23297189
0001d0 e6 6a 0d 3e c4 e9 b9 3c a0 ca 29 3e c1 fa 38 be
       0.1381031 0.022694476 0.16581202 -0.18064405
0001e0 fe 65 c4 3d a2 2e 8e bd dc f2 9b bd 3b 10 be 3d
       0.09589766 -0.06942488 -0.07614681 0.092804395
0001f0 f4 33 9d bd 61 4c b0 3d 96 9d f6 3d e6 4d f2 3e
       -0.07675925 0.08608318 0.12041776 0.47325057
000200 17 dc fe bd e9 a8 6c bc 4d 5c 0d be f9 df cc 3e
       -0.124443226 -0.014444568 -0.13804741 0.40014628
000210 54 a0 56 3e e0 c4 f3 3c 1f 63 21 3d 42 8b ef bd
       0.20959598 0.029756963 0.03940117 -0.11696483
000220 49 d4 51 be 01 82 0b 3e 1d a7 c7 3d 44 b5 d9 bc
       -0.20491137 0.13623811 0.09748671 -0.026575692
000230 b8 fc 9f 3d 86 86 a3 3c 2c ed a7 bd 81 45 19 3d
       0.07811874 0.019961607 -0.08199534 0.0374198
000240 e6 68 d4 bd 29 87 90 3d c0 05 b9 3c 64 d2 61 bd
       -0.1037157 0.0705703 0.02258575 -0.055132285
000250 15 37 68 bd 1f 3a 66 be fc 1c 9f bd 99 ea 89 3d
       -0.056693155 -0.22483109 -0.077692 0.06734199
000260 9b 43 ab be c2 a3 ff bd 48 cb 0a 3d 72 ae 87 3d
       -0.33450016 -0.12482406 0.03388527 0.0662507
000270 29 77 bd 3d 59 38 19 bd 08 27 57 be 42 a0 51 3e
       0.092512436 -0.037407253 -0.21010983 0.2047129
000280 5b d2 df bb ec 5d c6 3d 04 2b 93 3d 36 eb 28 be
       -0.0068304962 0.09685883 0.07185939 -0.16495976
000290 d5 61 96 3d ed 82 0c bd fb 6e 8f bc ad 0f d6 3d
       0.07342879 -0.034304548 -0.017508974 0.10452209
0002a0 e6 28 5d bd d1 23 9a 3b ca 98 20 3d 31 f9 d0 3d
       -0.053994082 0.0047039767 0.03920821 0.102037795
0002b0 f0 e8 29 3e bf 81 4c bd 91 dc 8c bc 82 7e 6d 3e
       0.16592765 -0.049928423 -0.017195018 0.2319279
0002c0 21 21 50 bd cb 59 76 bd c1 12 26 be d8 cc 08 3d
       -0.050812844 -0.060144227 -0.16218092 0.03339848
0002d0 a6 31 17 be 75 03 5f bd 2c a3 bd bd ac ee 14 bd
       -0.14765033 -0.054446656 -0.09259638 -0.036360428
0002e0 7a b3 77 be c2 f8 15 bd 82 8f 57 be d0 df 7f 3d
       -0.24189559 -0.036614187 -0.21050838 0.062469304
0002f0 13 e4 86 bc 33 43 26 3d d8 3c 38 3c ce ec 3a 3d
       -0.016466176 0.04059143 0.011244975 0.04563599
000300 ae c9 32 3d fd 44 0b 3e f0 fd 4e bd 23 fb 2a 3d
       0.043649368 0.13600536 -0.050535142 0.04174341
000310 9e da d9 3b cf b8 a1 bc ec 9f a9 bc db fa e5 3d
       0.0066483757 -0.019741444 -0.02070614 0.112294875
000320 08 5f 31 3d d8 66 c5 bd 31 59 a0 bc f4 78 45 be
       0.04330352 -0.096387565 -0.01957378 -0.19284421
000330 76 65 42 3d 2a c7 aa 3d aa 7d a6 bd 50 5a fd bd
       0.047460042 0.08338769 -0.08129437 -0.12370741
000340 54 6b 7e 3b 71 b2 1c bd 9d 0e 06 be 32 28 4a 3b
       0.0038821297 -0.038256112 -0.13091512 0.0030846712
000350 de 3e b7 bd 2d da 6c 3d ce 96 a6 bc 54 a2 2b bd
       -0.08947538 0.057825256 -0.020335581 -0.041902855
000360 58 9e 02 3d 34 de 38 3c be fe 17 be 72 e4 d1 3c
       0.03188929 0.011283446 -0.1484327 0.025621627
000370 4d 8a 3a 3d 13 fe f7 3d 4a 4c a0 3d f1 40 bf 3d
       0.04554205 0.12109008 0.07827051 0.093385585
000380 4f 2f 08 3e 32 cb a4 3c 19 57 16 be 5e aa 2e 3e
       0.13299297 0.020116422 -0.14681663 0.17057177
000390 cf 9b c8 3d 95 2a 27 be b8 4f bd 3d 33 da 25 3c
       0.09795343 -0.16324838 0.09243721 0.0101228235
0003a0 f2 5f 94 bb 2c 81 26 3e 34 e0 42 be a0 22 fe bd
       -0.004528039 0.16260213 -0.19030839 -0.12408948
0003b0 69 41 29 3c 1d a7 17 be 08 30 8c 3d 1d 44 09 3e
       0.010330536 -0.14809842 0.06845099 0.1340489
0003c0 a6 36 ea bc d4 5e 68 bd 3f 65 d8 3d 53 d2 a3 bd
       -0.028590512 -0.05673106 0.10566186 -0.079991005
0003d0 a5 2a 64 3d da fd 72 bc 28 ef 46 be cf 54 05 3d
       0.05570473 -0.014831031 -0.19427168 0.032551583
0003e0 7c 0b bf bd 80 82 b8 bd c7 2d 50 bc 4c 1a 4d bd
       -0.09328362 -0.09009266 -0.012706227 -0.050073907
0003f0 43 b9 5b bd 38 5b 44 3b 9a 24 96 bd ed 7f 29 be
       -0.053643476 0.0029961597 -0.073312 -0.16552706

model.decoder_module.convs.0.m_net_list.0.bias.weight f4 [8, 21]
000000 72 09 a2 be 1c 71 93 bd a4 35 cb be 82 29 1e be
       -0.3164783 -0.07199308 -0.39689362 -0.15445521
000010 59 6a 0f be bb 6a 5c bd 27 df bd be 62 80 b9 be
       -0.14005412 -0.053812724 -0.37084314 -0.3623076
000020 5a bf 14 3c f3 cf 8d be a1 de c7 be ce 6b 9b be
       0.009078825 -0.27697715 -0.3903704 -0.30355686
000030 97 d9 df be b0 a3 8c 3c 79 1b c8 be 0a 1a 02 3e
       -0.43720695 0.017167896 -0.3908346 0.12705246
000040 d5 76 33 be 27 5f e7 be e2 34 cc be da 5d e1 bd
       -0.175258 -0.45189783 -0.39884096 -0.11004229
000050 8f fa 2b be b2 c8 6c bd 70 87 d2 be fa f6 c3 be
       -0.167948 -0.057808585 -0.41118956 -0.38274366
000060 2e 42 e7 bd d6 7c 65 be a4 5e de 3e ff 69 4b be
       -0.1129192 -0.22410902 0.4343158 -0.19864653
000070 d9 b1 47 be 40 88 06 be 52 0c 16 be 0a 6c 1c be
       -0.19501437 -0.13137913 -0.14653137 -0.15275589
000080 49 53 91 be 47 d8 8b be 4f 19 cd bd 1f 0d 83 be
       -0.28383854 -0.27313444 -0.10014593 -0.25595948
000090 d8 93 37 bf 26 7c 8b be eb d5 55 be 1e 3b b6 be
       -0.71709967 -0.27243155 -0.20882384 -0.35591978
0000a0 d5 9e 7b bd f8 ac 25 be 97 cd d3 bd 61 e1 a1 3a
       -0.06143077 -0.16179264 -0.103419475 0.0012350493
0000b0 02 a8 94 bc 37 e0 da be 67 e7 cf be 67 56 f5 3d
       -0.018146519 -0.42749187 -0.40606233 0.119793706
0000c0 1b e4 79 bb 91 c1 f4 bd f3 e5 6b be e9 fd 57 3d
       -0.0038130346 -0.11950982 -0.23036937 0.052732382
0000d0 30 80 e1 be 0f 4a 8b be 46 07 58 be c7 5b 35 be
       -0.44043112 -0.2720494 -0.21096525 -0.17710792
0000e0 fc e5 f0 bd 11 01 fe 3e 44 3c 84 be 48 b3 02 3e
       -0.11762616 0.4961019 -0.2582723 0.12763703
0000f0 73 22 a4 be 47 c2 11 be 92 17 13 bd 70 47 59 3e
       -0.32057533 -0.14234267 -0.03591115 0.21218657
000100 16 23 24 bd 24 b9 a6 be 64 3a 61 be e1 58 ae bd
       -0.040072523 -0.32563126 -0.2199493 -0.08513046
000110 1f 6c f1 be f2 d0 c4 be 3a c2 19 be 9e cc 9a 3d
       -0.47152802 -0.38440663 -0.15015498 0.07558559
000120 90 33 17 be 6f bb 27 3e 8e 71 d9 3c b6 d2 42 3e
       -0.14765763 0.16380094 0.026543405 0.19025692
000130 53 b8 49 3c 0c a4 44 be 94 8c 06 bf cb d6 ae be
       0.012312013 -0.19203204 -0.52558255 -0.3414825
000140 8e 14 81 be 92 89 cf bd d6 4b 76 be c0 73 98 be
       -0.25210994 -0.10133661 -0.24052367 -0.2977581
000150 18 0a ad be 5f bb d0 3d 97 94 17 be 1b 4b c5 3d
       -0.33796763 0.10191988 -0.14802776 0.09633466
000160 c6 bb e8 bd cf d5 16 3f a4 d6 a8 bd a9 f7 7d be
       -0.1136394 0.58919996 -0.082440645 -0.24801506
000170 51 f4 01 3e 5c 94 82 3d 47 83 bb be 32 7b c5 be
       0.12690856 0.063759536 -0.36623594 -0.38570553
000180 32 e7 3e be b2 ab 5b bb 81 ef d6 be da 73 c2 3e
       -0.18642882 -0.0033519086 -0.41979602 0.37979013
000190 04 34 af be 37 80 06 3d a1 16 b2 bd c2 17 6d be
       -0.34219372 0.03283712 -0.08695722 -0.23153594
0001a0 43 7b a4 bd 7d 67 9d be e1 a8 2a be 22 12 25 3e
       -0.08031323 -0.30743018 -0.16665985 0.16120198
0001b0 42 88 28 bf ff 8f 30 be 45 f4 7a 3e ab 4d 02 be
       -0.6583291 -0.1724243 0.24507244 -0.1272494
0001c0 08 02 4a be 67 b4 d8 be d7 98 7b 3d d0 a9 82 be
       -0.19727337 -0.42325136 0.061425056 -0.25520182
0001d0 aa 87 b5 be d2 68 ad be 74 1d b1 be 3c b1 a3 be
       -0.35455066 -0.33869034 -0.34592783 -0.31971157
0001e0 31 8f 14 3f 04 83 02 bf 8a e4 46 be 2a 67 11 bf
       0.5803099 -0.50981164 -0.19423118 -0.5679804
0001f0 99 9a 35 be 6c 16 f2 be fe 77 34 be 0e 39 89 bd
       -0.17734756 -0.47282732 -0.17623898 -0.067003354
000200 a2 59 73 bd a8 fa 3e 3e cd 9c d8 bd 98 79 80 3e
       -0.059411652 0.18650305 -0.105767824 0.2509277
000210 1f e5 97 3c 35 b0 b7 be ac 40 93 3c e3 f8 9b be
       0.01854187 -0.35876623 0.017975174 -0.30463323
000220 bb c1 fe be 47 a1 47 be 42 53 44 be d6 b9 f5 bd
       -0.4975718 -0.19495116 -0.19172385 -0.11998336
000230 5c 2d ac be 05 9f 58 3e e0 3c 58 be bc fe a0 be
       -0.33628356 0.21154411 -0.21116972 -0.31444347
000240 0c b9 55 be 1a 40 2f be e9 33 62 be c7 39 6b be
       -0.20871371 -0.17114297 -0.22090115 -0.22971259
000250 70 37 b1 bd 16 40 f6 bd 00 ff fe bd 70 a2 85 be
       -0.08653152 -0.12023942 -0.12450981 -0.26100492
000260 7e 6a 2e 3e a5 2b 72 bd bf 3e bd be 8c d4 76 3d
       0.17032811 -0.059123654 -0.36961934 0.060261294
000270 33 97 bb be a8 29 97 be 7c ca 73 be af 61 8b be
       -0.36638793 -0.2952397 -0.2380771 -0.27222964
000280 00 57 c2 bc a7 89 21 be 65 2b db bc 1f 19 06 bf
       -0.023723125 -0.15775166 -0.02675409 -0.5238208
000290 80 26 b2 be c8 43 ed be b9 f7 7e be ca 76 18 be
       -0.34794998 -0.46340775 -0.24899186 -0.14889064

model.decoder_module.convs.1.m_net_list.0.weights.weight f4 [128, 21]
000000 96 04 10 3e f4 54 23 3d e1 08 e8 3c bc 6f 83 bc
       0.1406425 0.03987594 0.028324546 -0.01604449
000010 4d bb 90 3b 42 77 9e be e5 98 9d bd 90 5d 11 3e
       0.0044168592 -0.30950361 -0.07695178 0.14195848
000020 2c 10 a0 3e 4e 12 6d bd b1 61 85 3d af ff d0 ba
       0.31262338 -0.057878785 0.06512774 -0.001594534
000030 a1 c4 11 3e 93 88 9a 3e 75 44 5a bd 57 e1 80 3b
       0.14235164 0.30182323 -0.053287942 0.0039331126
000040 44 46 3c bd a7 24 87 3d 7d ac d4 3d 2d 18 02 be
       -0.045965448 0.06598788 0.10384462 -0.12704535
000050 e0 df 6b be 78 7a 10 bc 8b df 43 3e aa 98 0f be
       -0.2303462 -0.008818261 0.19128244 -0.1402308
000060 43 e9 a7 3c 87 e7 6c 3e b8 57 fa bd 05 ca 05 be
       0.02049697 0.23135196 -0.12223762 -0.13065346
000070 d3 82 08 be 5c 61 84 3e 5f cc 4b 3e 54 03 13 3e
       -0.13331155 0.2585553 0.1990218 0.14356738
000080 19 4c 11 be 23 5b a8 3d a7 b7 2e 3e 03 43 39 bd
       -0.14189185 0.08220508 0.17062245 -0.045229923
000090 44 72 3a bd 2c 4b f5 bd bb 43 3f 3e b9 55 19 3e
       -0.04551913 -0.119772285 0.18678181 0.14974107
0000a0 fb 24 64 3d e3 c5 07 3d 49 f8 ec 3c 90 13 4e 3e
       0.05569933 0.033147704 0.028926985 0.2012465
0000b0 bf 00 19 3e ac d5 3c 3e 83 b5 d1 bd 8e 21 97 3e
       0.14941691 0.18440884 -0.10239699 0.29517788
0000c0 9a 29 e3 bd c3 57 f4 bd 23 73 3d 3d 6d 47 85 bd
       -0.11091919 -0.11930802 0.04625238 -0.06507764
0000d0 3d 5c e2 bd 43 b4 29 bd cf 2e 5b bd e0 1c ba 3c
       -0.11052749 -0.041431677 -0.053511437 0.022718847
0000e0 1c 59 c5 3c 81 9c 17 3e c1 38 e6 bc 33 68 bc bd
       0.024090342 0.14805795 -0.028103234 -0.09199562
0000f0 6a 8a 27 3e 52 c2 40 bd 8a 3f 28 be 8c 69 15 bc
       0.16361395 -0.04706032 -0.16430488 -0.009119403
000100 33 46 a9 3c 3a 1d 24 be b7 c3 85 3c ab df 70 3d
       0.020663356 -0.16026774 0.016328676 0.058807056
000110 58 e2 13 3e 3d dc a6 bd 6e fd 32 3e 37 c7 95 3e
       0.14441812 -0.08147476 0.17479488 0.2925355
000120 43 ea ef bd 80 2f e8 3d 5e 92 9c bd d8 2f 94 3d
       -0.11714604 0.11337185 -0.07645105 0.07235688
000130 2e 4a 6b bb 24 a7 af bc ab 63 8b bc 9d 08 01 bd
       -0.003590237 -0.021442004 -0.017015299 -0.031502355
000140 d3 1a 0f bd d9 84 a7 3d 35 bb 2a be ca a4 49 be
       -0.03493769 0.081796356 -0.16672976 -0.19691768
000150 cc b4 27 3d 80 cc d5 3e 03 ed cd 3d 28 c9 e4 3d
       0.040943906 0.41757584 0.10054972 0.1117118
000160 b1 68 0d 3e 95 2f 93 3e ab 9c 0c 3c 00 b3 a4 bc
       0.13809468 0.2874724 0.008582274 -0.020104885
000170 aa 5b 56 3e cb 23 a8 3d 39 ec 24 3e ba 84 41 be
       0.20933405 0.08209952 0.16105737 -0.18898287
000180 66 e0 4b 3e a6 c1 58 3e 89 b5 0d be 32 48 34 3e
       0.1990982 0.21167621 -0.13838781 0.17605665
000190 03 8b 85 bc bb a2 f2 bd 31 ef e5 3d 61 98 7c bd
       -0.016301638 -0.118474446 0.11227263 -0.061668757
0001a0 b2 b6 ef bb b3 62 94 3d 5e a1 13 be 0c d7 8e 3d
       -0.00731548 0.07245388 -0.14417025 0.06974611
0001b0 fb b2 a8 be 97 52 65 3d e6 f7 47 be b9 07 21 be
       -0.3294905 0.055986967 -0.1952816 -0.15725602
0001c0 ca 26 9c 3d 86 f2 58 be a0 e0 ce 3d 79 03 bd bd
       0.07624586 -0.21186265 0.101014376 -0.09229178
0001d0 c4 77 bf 3c 1d 73 69 bd f3 0b 73 be bf 6b 36 bd
       0.023372538 -0.056994546 -0.23735027 -0.04453635
0001e0 92 f9 9a bd e1 5c 19 3e fa 4f 1c bb 1f 27 fa bd
       -0.07567133 0.14976837 -0.002385138 -0.12214493
0001f0 04 1a 35 be e1 a9 01 3d d2 cb 27 bd 65 ba 08 be
       -0.17685705 0.03165615 -0.040965863 -0.13352354
000200 70 cd 5f bd 8f 5f 15 3e a1 a0 f5 3c 34 31 3f 3e
       -0.05463928 0.14587234 0.02998382 0.18671113
000210 d8 c8 6b bc 91 59 89 3d 3c 2a 89 bd d3 2c 43 3e
       -0.014391147 0.067065366 -0.06697509 0.19060068
000220 9c ee e7 bd 4c 98 65 be d3 65 30 3e 1c a8 fb 3d
       -0.11324808 -0.22421378 0.17226343 0.12287924
000230 e2 15 2b 3e 37 4e a1 bd 94 bd 98 3d 2a f2 0d 3d
       0.16707566 -0.078762464 0.07458034 0.034654774
000240 d3 71 18 bd 3c f8 2a be da 82 43 be 0f 8a 27 bc
       -0.037217926 -0.16696256 -0.19092885 -0.010225787
000250 2c f8 f3 bd e3 fe 17 3e 47 3b a7 bd 6e 1f 40 3e
       -0.119125694 0.14843325 -0.08165603 0.1876199
000260 0e 73 89 be 56 25 e4 bd b2 ca 1f 3e e0 cf 39 bd
       -0.26845592 -0.11139934 0.15604666 -0.04536426
000270 84 f9 4e bd b5 77 01 be d1 1c 06 3e 2d b4 13 3d
       -0.050530925 -0.12643321 0.1309693 0.0360605
000280 df e7 e8 be dc 21 44 be 24 59 ea be 78 e2 ca 3c
       -0.45489404 -0.19153541 -0.45771134 0.024766192
000290 00 65 de 3d b4 16 cd bc f8 89 4e bc 2e d6 3b bd
       0.10859108 -0.02503524 -0.0126061365 -0.045858555
0002a0 e2 44 e0 bc 3b b5 7a bd df 07 a2 be c3 e2 02 be
       -0.027376596 -0.06120799 -0.3164663 -0.12781815
0002b0 68 24 b0 bd aa b6 92 3b 7a a6 04 be 71 16 04 be
       -0.08600694 0.0044773417 -0.12954131 -0.12899186
0002c0 36 88 94 be cb 73 e4 bd 89 3b bf bd e2 ad c4 bd
       -0.2901017 -0.11154898 -0.09337527 -0.09603478
0002d0 7f eb 20 3e 45 4c 5a be e1 69 f0 bd a1 31 7b be
       0.15714835 -0.21318157 -0.11738945 -0.2453065
0002e0 15 af f9 3d 91 fc 94 3b a6 7e a3 bd f6 71 25 be
       0.12191597 0.00454671 -0.07983141 -0.16156754
0002f0 b2 6f 07 be 4a 18 85 bd 38 bd cd bd ea 6f f4 3d
       -0.13226202 -0.064987734 -0.10045856 0.119354084
000300 6a 3e 0f bc 5e a9 b9 3d 52 8b 92 bc 66 35 8f 3c
       -0.008742908 0.09065507 -0.017888699 0.017481517
000310 97 0a 33 3e 47 9d 50 3d a1 34 c5 3b 4b 3d 1e be
       0.17484508 0.05093124 0.0060182367 -0.15453069
000320 c5 48 db bd ea dd f9 bd f5 39 7e bd 64 8d 86 bd
       -0.10707239 -0.1220053 -0.06206699 -0.06569937
000330 78 5f f3 be 84 a5 2b 3e f5 67 25 3e 72 3c 1d 3e
       -0.47533774 0.16762358 0.16152938 0.1535509
000340 0f db 01 bc 09 e9 47 bd 14 c2 01 bd b2 d8 d2 bd
       -0.007925763 -0.048806224 -0.031679228 -0.102952376
000350 d2 b2 a1 be f0 61 ef 3c f4 58 04 bd a4 5d 24 3d
       -0.31581742 0.029221505 -0.032311395 0.040128365
000360 ef 88 0d bf 7a b3 bc bc e4 29 bc 3d 0f 98 28 3d
       -0.5528707 -0.0230348 0.091876775 0.04116064
000370 d9 82 1c be 8b c5 a5 bd 4e 4b 0b be d8 5f a4 bc
       -0.1528429 -0.08094319 -0.13602945 -0.020065233
000380 a9 13 1e 3d aa 02 7a be d9 0d 05 be a9 e5 00 3e
       0.038592968 -0.24415079 -0.12993564 0.12587608
000390 46 c7 6a 3e 10 61 72 bd 9a 8c 47 3b f6 da 22 bd
       0.2292758 -0.059174597 0.0030448795 -0.0397596
0003a0 74 80 82 3d 89 3c 44 bd 87 62 15 be 02 1d 93 bd
       0.06372157 -0.047909293 -0.14588366 -0.07183267
0003b0 26 02 5b 3e be 13 e5 3d cf 2e a0 3c 95 66 a1 bd
       0.21387538 0.11185406 0.01955357 -0.07880894
0003c0 4f 30 3d 3e fb 84 1d 3e ea d9 18 3e f0 13 25 be
       0.1847546 0.1538276 0.14926878 -0.16120887
0003d0 ed aa 1a 3e e3 9d c7 3d 3b 25 fa be 26 3a 3f bd
       0.15104266 0.097469114 -0.4885653 -0.046686314
0003e0 bf 36 54 3d 55 83 07 be b9 12 ce bd ad 60 f0 3d
       0.051810022 -0.13233693 -0.10062165 0.117371894
0003f0 66 be fe 3b 9f 3d fa bd cf 6a 88 be b4 9b 90 bc
       0.007774162 -0.122187845 -0.26643988 -0.01765237

model.decoder_module.convs.1.m_net_list.0.bias.weight f4 [8, 21]
000000 55 e4 18 bd 2c 45 eb 3c fc 51 46 3e 62 76 03 3d
       -0.03732713 0.028719507 0.19367212 0.03209532
000010 8e 93 2d 3e 3f c2 25 be 92 18 95 3e 59 d9 8c 3d
       0.16950819 -0.1618738 0.29120308 0.06877393
000020 7f 82 0d be 7a 58 f7 3c 38 c6 43 3d 49 ef 08 be
       -0.13819312 0.030193556 0.047796458 -0.1337253
000030 84 f1 5c 3d 83 84 7c 3d 55 69 0f be d6 99 9d 3c
       0.053941265 0.06164981 -0.14005025 0.019238394
000040 38 ad fd 3d 59 40 a2 be 2e 3c d1 3d 5b f3 8b 3d
       0.123865545 -0.31689718 0.102165565 0.06833526
000050 2e f2 54 be 69 46 4c 3e a4 a7 14 3c 40 59 8a 3e
       -0.20795509 0.19948734 0.009073172 0.27021217
000060 2c a0 98 3e ec ce 36 be 32 ae a9 3c d0 24 80 3e
       0.298097 -0.17852372 0.020712946 0.25028086
000070 81 ea bb bc bb 3a 7b 3e 2e ec 9d 3d e8 3c 47 bd
       -0.022938969 0.24534123 0.07711063 -0.04864207
000080 1f e9 03 bc f6 9e ca bd fd 7d 5d bd a7 1f 04 3d
       -0.008051186 -0.09893601 -0.05407523 0.03225675
000090 ef 1d 85 bb c3 0a 56 bd 7e 26 aa be fd 64 08 3c
       -0.0040624063 -0.052256357 -0.33232492 0.008324859
0000a0 2c 36 60 be 7f 34 30 be 4e 1d 18 bc d2 d6 4f bd
       -0.21895665 -0.17207526 -0.0092843305 -0.050741978
0000b0 79 ea 15 3e 18 53 07 3d 9f 19 8d 3e 2d cd 12 3f
       0.14640225 0.03303823 0.2755861 0.57344323
0000c0 e3 47 b1 3c e6 1a 5f 3e bc a4 db 3d d7 5e 73 3d
       0.021640724 0.21787605 0.1072478 0.05941662
0000d0 47 10 63 bc de af 20 3e d0 04 d6 bd c8 84 14 3e
       -0.013858861 0.15692088 -0.10450137 0.14503777
0000e0 71 0a 5d 3e 02 fc 82 3e 54 83 4f 3e ec 39 12 3e
       0.21586014 0.25582892 0.20264941 0.14279908
0000f0 44 4a e8 bc 2f f4 21 3d db 43 81 3d 3f df 7f 3c
       -0.028355725 0.039539512 0.063117705 0.015617191
000100 0c 80 03 3f ca 91 a0 3d d3 84 15 be d2 bf 1d 3d
       0.5136726 0.07840307 -0.1460145 0.038513012
000110 22 d9 3f 3f 22 52 2e be 76 46 63 3e 4b b3 16 3e
       0.74940693 -0.17023519 0.22194847 0.14716832
000120 28 0c 84 3d 1b 2f 85 3e 7b 85 16 be d7 1c d7 bd
       0.06447631 0.260125 -0.14699356 -0.10503548
000130 7c 2a d4 3c ee 52 54 be 9d 22 2c bc 64 3f be 3d
       0.025899164 -0.2073476 -0.010506299 0.092894346
000140 45 a5 ef 3d c1 bc 97 bd 49 88 88 3e 95 2b b9 bd
       0.117014445 -0.07409049 0.26666477 -0.09041516
000150 94 7d 28 bd 26 f6 9e 3e f9 e0 32 3d 1c 1a 39 3e
       -0.041135386 0.3104717 0.043671582 0.18076366
000160 4b 90 36 be 79 98 3b 3f b9 cb d9 bd 65 9c d1 3d
       -0.17828481 0.7327953 -0.1063456 0.10234908
000170 36 78 29 3e d8 07 1b be 5c 9a 1a ba 63 b4 12 3e
       0.16549763 -0.15139711 -0.0005897635 0.14326625
000180 93 66 d1 bb d6 cd 30 3d df ce 50 ba b6 ce 29 3f
       -0.0063904016 0.04316505 -0.00079653965 0.6633104
000190 34 a5 fd 3d 2a b0 97 be c9 d1 12 be 18 1e f2 bd
       0.123850256 -0.2962659 -0.14337839 -0.11822146
0001a0 cc a7 06 bd 29 df 8e bd dd 8e 89 be a0 69 49 be
       -0.032874867 -0.06976158 -0.2686681 -0.19669199
0001b0 4a 0d 32 3e 13 a3 95 3e 1a f9 55 bf a2 61 b5 be
       0.17387882 0.29225978 -0.83583224 -0.3542605
0001c0 19 bb 23 be 96 27 81 3e f0 84 e1 bc 7b bb ab bc
       -0.15989341 0.25225514 -0.02752921 -0.020963421
0001d0 9c 67 30 3d 7b c7 77 be 2f f4 c8 bd b3 e3 f9 bb
       0.04306756 -0.2419719 -0.09812199 -0.007626021
0001e0 05 4b b1 be 29 d8 94 3e 62 47 b2 be 06 ec d6 3b
       -0.34627548 0.29071167 -0.34820086 0.006558898
0001f0 42 07 e2 bd 7c ee 73 3d b6 ab 2a 3e 87 ac 71 bc
       -0.110365406 0.05955361 0.16667065 -0.014750606
000200 47 11 ac bd 20 fd c8 3d 09 e7 3b 3e 8a 34 90 bd
       -0.08401733 0.09813905 0.18349852 -0.07041271
000210 bc 03 e4 bd ac f6 fd 3b f0 45 e5 3d 59 85 21 3e
       -0.11133525 0.007750353 0.1119498 0.15773524
000220 55 c4 36 3d c1 91 b0 3d e2 e7 a9 3d 67 a4 10 3d
       0.04462083 0.0862155 0.08296181 0.035313036
000230 05 d0 c6 3d 3b 9b 2f 3e 62 8a 2c be 10 ae 9d 3b
       0.09707645 0.1714906 -0.16849664 0.0048120096
000240 c9 af 4a bd dd 0b dd 3b 1f 76 d4 bd 99 d6 f2 bd
       -0.049484048 0.006745799 -0.10374092 -0.118573375
000250 19 c7 57 be eb 06 e0 3c 8c ce b3 3e 28 8f d8 bd
       -0.21072043 0.027347049 0.3511852 -0.1057418
000260 88 6c 0a bf e7 31 46 be 2f ee 28 3d e7 70 b6 3e
       -0.54071856 -0.19354974 0.041242775 0.35633013
000270 fc b8 50 3d f4 ce 16 3e 06 76 77 be f2 99 97 be
       0.050957665 0.14727384 -0.24166116 -0.29609638
000280 50 30 8b 3d a2 50 2f be 09 a3 0f bf e9 08 79 be
       0.06796324 -0.17120603 -0.56108147 -0.24319805
000290 3c 33 25 3e 31 83 07 bd d6 92 3e 3e 33 5b b0 3d
       0.16132826 -0.0330841 0.18610701 0.08611145

model.prob_model_x._decoder_embeddings.0.weight f4 [1, 8]
000000 fd 7d 8e 39 da bb 3d 3e c0 5e 70 36 b4 7b b5 b8
       0.0002717822 0.18528691 3.5817939e-06 -8.653794e-05
000010 32 9b 5b 39 3a 12 36 3a 42 3c 04 3e b4 6d 5f bc
       0.00020943282 0.0006945465 0.12913612 -0.013636995

model.prob_model_x._decoder_embeddings.1.weight f4 [2, 8]
000000 60 d5 94 3e 56 6f 49 be c8 95 0b 3e 9a 2d 4a be
       0.29069042 -0.19671378 0.13631356 -0.19743958
000010 63 c4 66 be 91 97 85 bb 85 6b ab 3e 37 dc 1a 3e
       -0.22535853 -0.004076906 0.33480468 0.15123068
000020 ad 4c c2 3d b2 4f d4 3e 0e 1e 44 bf 73 5d 58 bf
       0.09487281 0.41467053 -0.7660836 -0.8451759
000030 17 3f a7 bf ca 5c 8a 3f c1 68 a6 be eb 96 58 3f
       -1.3066128 1.0809567 -0.32501796 0.8460528

model.prob_model_x._decoder_embeddings.2.weight f4 [2, 8]
000000 e0 62 e3 be 63 b6 bb 3e 23 d0 93 be dd 53 b2 be
       -0.44411373 0.36662588 -0.28869733 -0.34829608
000010 64 da 33 3d 33 78 89 bc d2 e7 be be 7b 58 2a 3d
       0.043909445 -0.016780948 -0.3728624 0.041588288
000020 75 6b eb be f0 df 9a be d0 c3 16 bf 89 f1 6e 3e
       -0.4598042 -0.30248976 -0.58892536 0.23334326
000030 73 b6 d4 be 2b 06 0d 3f 6d 55 8a 3e 57 fd 06 3f
       -0.41545448 0.55087537 0.270183 0.52730316

model.prob_model_x._decoder_embeddings.3.weight f4 [1, 8]
000000 f1 f4 e4 3e c7 48 05 3f be 6a b0 3e 03 96 08 bf
       0.44718125 0.52064174 0.34456438 -0.533539
000010 c2 bb 34 3f 0a 1a b8 be ba 06 4d bf 3e de 4f bf
       0.70598996 -0.35957366 -0.8008839 -0.8119849

model.prob_model_x._decoder_embeddings.4.weight f4 [2, 8]
000000 45 57 83 bc 8b a3 91 be 2b a9 dd bd 59 f8 83 bd
       -0.016032824 -0.28445086 -0.10823282 -0.06443853
000010 09 6f 79 bd 75 88 e4 bd ec 09 48 3e 00 d1 09 bc
       -0.060896907 -0.111588396 0.19535035 -0.008411646
000020 f2 c6 07 bf 74 76 9d be ab 06 26 be f3 28 71 be
       -0.5303794 -0.30754435 -0.16213481 -0.23550777
000030 8e 80 02 bf 51 e6 0f 3f bf 93 0c bf 81 6a 51 3f
       -0.5097741 0.5621081 -0.5491294 0.8180314

model.prob_model_x._decoder_embeddings.5.weight f4 [2, 8]
000000 85 a4 c8 bd cd c2 00 be 45 20 42 be ed 7a f5 be
       -0.097970046 -0.1257431 -0.18957622 -0.47945347
000010 0a 9b cf 3e 72 30 6b bd d3 51 a3 3e f9 ee 80 3d
       0.40547973 -0.057419248 0.31898364 0.062955804
000020 6c af 21 3f d3 dc ae 3e 72 a8 f3 be 47 07 fe 3e
       0.631583 0.3415285 -0.4758945 0.49614927
000030 a3 9c 99 3d 49 32 17 3f a7 4a f1 bd 4a 52 05 3f
       0.07500579 0.59061104 -0.11781817 0.5207869

model.prob_model_x._decoder_embeddings.6.weight f4 [1, 8]
000000 b7 05 ea be 4d fd 47 bf c9 85 31 3f 6e 78 bb 3e
       -0.45707485 -0.7812088 0.69344765 0.36615318
000010 12 bb 45 bf 39 40 2b bf e7 a7 02 bf 67 82 08 3f
       -0.7723857 -0.6689487 -0.5103745 0.5332398

exp_avg f4 [16, 1]
000000 21 7b 20 b5 0a 8a 06 b5 64 60 08 b5 6f ac c3 bb
       -5.978382e-07 -5.0119763e-07 -5.0804215e-07 -0.0059714834
000010 48 12 e2 b4 7f 37 a4 bb 45 00 00 80 31 59 3b 3b
       -4.2109082e-07 -0.0050114985 -9.7e-44 0.0028587098
000020 71 1f 30 b3 6b 1d 6b b4 eb 22 ac a5 e7 e9 08 3c
       -4.100679e-08 -2.1896783e-07 -2.9860905e-16 0.008356548
000030 87 74 92 35 2f 44 cf 3b 69 2e bd 3b 32 cc 6d b3
       1.0911762e-06 0.006325267 0.005773355 -5.5366577e-08

exp_avg_sq f4 [16, 1]
000000 84 99 20 32 c6 04 fd 35 97 0e b2 34 8e 39 3b 3b
       9.348131e-09 1.8851358e-06 3.31657e-07 0.002856824
000010 b1 05 b7 2c 89 2f 15 3b 97 d2 63 1f 3a 28 aa 3a
       5.2018047e-12 0.002276393 4.8243316e-20 0.0012981959
000020 5d fc 3f 2a 09 ca 1e 2d fa 91 58 25 7e 34 e3 3a
       1.7051764e-13 9.026121e-12 1.8784472e-16 0.001733437
000030 50 dd 52 30 11 08 42 3a c7 4c 23 3b 70 28 79 2b
       7.671206e-10 0.00074017147 0.002491759 8.851869e-13

exp_avg f4 [16]
000000 0b a0 f6 39 99 c3 db bc f5 bf 79 3c 19 7b c8 bc
       0.00047040018 -0.026826667 0.01524352 -0.02447276
000010 f6 92 ed 3c 32 2a 83 bc a2 00 00 80 a3 58 88 bb
       0.02900074 -0.016011331 -2.27e-43 -0.004160957
000020 f7 38 fb b2 84 e4 0b b1 2c 97 0c b3 59 13 d4 3c
       -2.924615e-08 -2.0357058e-09 -3.273378e-08 0.025888132
000030 3b 63 98 b5 ee a5 78 3c 44 03 46 3b 6d 0e 3b b2
       -1.1353762e-06 0.0151762795 0.0030214349 -1.0888113e-08

exp_avg_sq f4 [16]
000000 7c ac 60 3a ef 45 71 3c 52 55 12 3b 57 0e d1 3b
       0.0008570624 0.014726146 0.0022328687 0.0063798833
000010 a2 5a 2f 3c b6 b7 a9 3b 1c 3b 45 20 73 3f 3e 3b
       0.010702761 0.0051793708 1.6706107e-19 0.0029029518
000020 b6 41 a8 29 30 ce d9 34 7f ad d7 2a 24 71 7c 3b
       7.472098e-14 4.056942e-07 3.831206e-13 0.0038519586
000030 38 e4 52 30 64 43 da 3a cf 09 b5 3b bd c8 bf 2f
       7.6721873e-10 0.0016652164 0.005524851 3.488533e-10

exp_avg f4 [16, 1]
000000 1e 02 16 b3 be f5 29 3e 2a b7 c8 33 55 a5 ea 3d
       -3.4926522e-08 0.1659765 9.346543e-08 0.11457316
000010 d3 a2 93 b3 78 28 70 b2 02 a6 e3 32 b5 91 70 3c
       -6.8748385e-08 -1.397904e-08 2.650177e-08 0.014683177
000020 d0 d0 d1 3b 6a 6a 20 3d b4 62 c8 bd cb 35 45 bd
       0.006403066 0.039163984 -0.09784451 -0.048147004
000030 70 7b 97 bd 8c be 51 be bf c6 85 bd 01 28 d7 3d
       -0.07396591 -0.20482844 -0.065320484 0.10505677

exp_avg_sq f4 [16, 1]
000000 e6 89 11 2e 4a fe 3f 3f 7d 8d 83 31 9b cd 21 3e
       3.309166e-11 0.7499739 3.828687e-09 0.15801089
000010 8c 4a 97 2e 96 e8 4d 2a 57 ac b8 2d 27 91 da 3c
       6.879927e-11 1.8288352e-13 2.0994912e-11 0.026680542
000020 2a 47 0e 3d 88 e0 36 3d 76 f1 59 3e 71 17 03 3d
       0.034735836 0.044647723 0.21283516 0.032004777
000030 b1 fd 65 3d 26 10 24 3f 22 9b bf 3c f0 97 b3 3e
       0.056150142 0.6408714 0.023389403 0.35076857

exp_avg f4 [16]
000000 4b f5 e9 b3 13 29 b8 bd d5 b4 37 b4 37 03 80 bd
       -1.08945265e-07 -0.08992209 -1.710899e-07 -0.06250613
000010 03 08 22 b4 ad a7 fd b2 af 8c c7 b3 53 83 a6 3c
       -1.509034e-07 -2.9529327e-08 -9.29225e-08 0.020326292
000020 77 6b 83 3d 84 99 1e bc e9 85 51 bd bf ef 86 bd
       0.06416982 -0.009680156 -0.051153097 -0.06588697
000030 f2 05 0a 3e ed 46 39 be 40 e2 0a 3d 22 8f 74 3e
       0.1347883 -0.18093462 0.033907175 0.23882726

exp_avg_sq f4 [16]
000000 2e 8e 34 2e 57 1b fc 3e 5a de 4c 31 fe bf 29 3e
       4.1053543e-11 0.4923961 2.98123e-09 0.16577145
000010 3c c4 b8 2e 1d 40 cc 29 c5 03 08 2d cd 11 09 3d
       8.4022095e-11 9.070542e-14 7.731542e-12 0.03346424
000020 04 51 20 3d c8 dd 88 3d b0 2e 80 3e f1 3e 53 3d
       0.039139763 0.066829264 0.2503562 0.051573697
000030 bc 1f 93 3d 51 10 0c 3f c9 11 00 3d 87 53 19 3f
       0.07183787 0.54712397 0.03126696 0.5989308

exp_avg f4 [16, 1]
000000 8d 15 50 3a 1c 11 b1 32 28 44 06 b9 f5 92 1b bb
       0.00079377816 2.0613292e-08 -0.00012804626 -0.0023738716
000010 2c ba c6 ba 48 38 08 3b f0 3e a7 38 8b be cf 38
       -0.0015161685 0.00207855 7.9749036e-05 9.9060206e-05
000020 67 7c c5 3a f2 89 de 3a bd 1d fd ba 96 aa 26 32
       0.0015066982 0.0016978367 -0.0019311231 9.7012585e-09
000030 a7 f8 5f 3a dc 26 c1 b9 aa 4a 89 ba a3 cb 53 3b
       0.0008543827 -0.0003684078 -0.0010474522 0.0032317422

exp_avg_sq f4 [16, 1]
000000 2d cc 80 37 d2 63 0d 2d b3 80 58 36 81 4e 2d 39
       1.5353866e-05 8.037087e-12 3.226142e-06 0.0001652781
000010 30 66 0c 38 5f b9 bf 3a ad b2 47 37 53 13 c3 34
       3.347377e-05 0.0014627388 1.19029255e-05 3.633564e-07
000020 83 37 e7 3a 07 3c 66 37 2e 3c a5 39 69 1b 28 30
       0.0017640445 1.37230445e-05 0.0003151609 6.1156996e-10
000030 95 69 6e 38 40 fe c1 38 f4 e2 ca 38 b5 70 d5 39
       5.6841953e-05 9.250315e-05 9.674384e-05 0.000407105

exp_avg f4 [16]
000000 87 3c 26 3a 1f 2b c4 b3 b5 22 b5 b9 c6 d7 58 ba
       0.0006341417 -9.134805e-08 -0.0003454887 -0.0008271899
000010 64 7b bd 38 2c e2 f1 ba fe ea a8 39 ae 76 95 38
       9.0352056e-05 -0.0018454245 0.0003221854 7.1269795e-05
000020 b5 15 ac ba a3 d9 80 3a 78 94 45 39 c7 fc 08 b3
       -0.0013129028 0.0009830486 0.00018842693 -3.1894867e-08
000030 f0 34 eb b9 40 88 53 38 ea 28 8f ba 85 97 95 38
       -0.00044862134 5.0433213e-05 -0.0010922228 7.1330964e-05

exp_avg_sq f4 [16]
000000 fa 65 e9 36 8b 0b 13 2d f1 fc 87 36 d7 06 02 39
       6.9558128e-06 8.358546e-12 4.05276e-06 0.00012400314
000010 96 71 59 38 6d 07 13 3a 59 60 fa 36 58 20 84 34
       5.1842617e-05 0.00056087115 7.461797e-06 2.461045e-07
000020 91 17 5b 3a 0c 10 ea 37 bd 9c 27 39 85 63 67 30
       0.00083576987 2.7902446e-05 0.0001598475 8.4178736e-10
000030 f7 5f de 37 6a 98 45 38 3b 34 70 38 a2 49 5c 39
       2.650915e-05 4.7110407e-05 5.7269102e-05 0.00021008265

exp_avg f4 [16, 1]
000000 e7 92 06 3c 12 00 00 00 55 c3 8a 3a 2d d1 08 ba
       0.008213735 2.5e-44 0.0010586778 -0.0005219158
000010 32 fb 82 b2 5d 30 96 b2 0b 30 62 35 4c 22 58 bb
       -1.5248222e-08 -1.7484291e-08 8.426147e-07 -0.0032979427
000020 30 da 4d 3a 78 27 01 35 bb 40 4b b5 02 00 00 00
       0.0007852642 4.811368e-07 -7.571759e-07 3e-45
000030 b6 15 4a bb f5 40 ec 3b c0 14 b0 b3 74 00 00 00
       -0.0030835695 0.007209892 -8.199413e-08 1.63e-43

exp_avg_sq f4 [16, 1]
000000 ea 85 b5 3b 97 2e 83 1e d1 94 73 3a 37 79 d0 38
       0.0055396454 1.3889434e-20 0.000929189 9.940791e-05
000010 e2 34 c9 28 03 c6 5f 2b 38 86 e4 33 9e 68 4f 3b
       2.2338417e-14 7.950031e-13 1.06414916e-07 0.003164805
000020 f9 88 3a 38 75 9f db 2f a0 1c d3 30 d9 ce eb 1a
       4.447342e-05 3.994917e-10 1.5360406e-09 9.75279e-23
000030 f6 b5 7d 39 9e 00 a2 3b 4c 46 af 2b 31 30 3e 1b
       0.00024195746 0.004943921 1.2454009e-12 1.5732003e-22
