SimLoan/VACA/exper_test_10pct_noise/toy_/vaca/dgnn_elbo_8_8_16_4_normal_0.0_0.2_0.0_0.0_0_True_[BernoulliLikelihood()]_[NormalLikelihood()]_[NormalLikelihood()]_[BernoulliLikelihood()]_[NormalLikelihood()]_[NormalLikelihood()]_[BernoulliLikelihood()]_7_21/adam/0.005_0.9_0.999_1.2e-06_exp_lr_0.99/9/ckpt/last-v2.ckpt (torch, 164822 bytes, 81 tensors)

model._encoder_embeddings.0.0.weight f4 [16, 1]
-5.846207e-38 -0.13678475 -0.27141732 7.521911e-38 -0.083613366 0.7952742 0.94941586 -0.21560787
-0.22920461 -4.4891234e-13 0.0060467687 -0.07246623 -0.106534146 0.8634644 0.6500401 -0.07658671
00000000: 1e26 9f81 4d11 0cbe 36f7 8abe 12c4 cc01
00000010: 7c3d abbd 1797 4b3f eb0c 733f 4fc8 5cbe
00000020: 9db4 6abe 16b7 fcaa f923 c63b 2d69 94bd
00000030: 932e dabd 010c 5d3f 0769 263f 7ed9 9cbd

model._encoder_embeddings.0.0.bias f4 [16]
-5.3332725e-38 0.32901397 0.4269032 -5.3064504e-09 -0.0836482 -0.82326514 -0.9612586 0.8446049
0.2953815 -1.7155784e-06 0.06102265 -0.08370233 0.7444119 -0.8729084 0.018803181 0.7184018
00000000: 7c2f 9181 8574 a83e 0e93 da3e 0854 b6b1
00000010: bf4f abbd 81c1 52bf 0b15 76bf 0738 583f
00000020: 3e3c 973e d342 e6b5 e3f2 793d 216c abbd
00000030: c791 3e3f ed76 5fbf 2109 9a3c 2ee9 373f

model._encoder_embeddings.1.0.weight f4 [16, 1]
-0.7755433 -0.30822304 0.18325666 0.0043362197 0.31848115 0.6524633 -0.4330906 -0.6718459
0.024035601 -0.41938996 -0.4492675 0.45086 0.023225771 -0.15229191 0.6501486 -0.18306442
00000000: 018a 46bf 69cf 9dbe a2a7 3b3e d916 8e3b
00000010: f60f a33e d607 273f 0dbe ddbe 18fe 2bbf
00000020: 4fe6 c43c 48ba d6be 6406 e6be 1fd7 e63e
00000030: f943 be3c 69f2 1bbe 2370 263f 3d75 3bbe

model._encoder_embeddings.1.0.bias f4 [16]
-0.21451686 0.49649438 0.59316957 -0.023145864 0.6007034 0.18266137 -1.0946765 -0.19572563
-0.14875053 -0.00071157224 -0.8452137 -0.08674292 -0.20150751 0.47693828 -1.0472584 0.2937586
00000000: 4faa 5bbe 8334 fe3e f6d9 173f 659c bdbc
00000010: b3c7 193f 950b 3b3e 5c1e 8cbf 4d6c 48be
00000020: 0f52 18be ce88 3aba ed5f 58bf 46a6 b1bd
00000030: fc57 4ebe 4131 f43e 900c 86bf 8767 963e

model._encoder_embeddings.2.0.weight f4 [16, 1]
-0.85598433 -0.7325162 0.057383686 0.11718441 0.75554556 -0.59998643 -0.40185526 -0.013908778
0.22201222 0.34456146 0.26160884 -0.2139346 0.16327839 -0.00033107834 0.6580657 -0.027029524
00000000: ca21 5bbf 2f86 3bbf 280b 6b3d 61fe ef3d
00000010: 6f6b 413f b698 19bf f9bf cdbe a5e1 63bc
00000020: 2c57 633e 5c6a b03e 98f1 853e ac11 5bbe
00000030: 7332 273e 9594 adb9 fe76 283f 056d ddbc

model._encoder_embeddings.2.0.bias f4 [16]
-0.27873158 0.7325959 1.1926359 0.38236392 -0.75885516 -0.24394576 -0.4213079 -0.043474454
0.48899043 0.36243534 -0.13755186 0.11267 -0.6829393 -0.016891206 0.2601058 -0.09312418
00000000: e8b5 8ebe 688b 3b3f 4ba8 983f 34c5 c33e
00000010: 5544 42bf ebcc 79be abb5 d7be 4512 32bd
00000020: f45c fa3e 2091 b93e 65da 0cbe 87bf e63d
00000030: 1cd5 2ebf 6d5f 8abc 962c 853e e4b7 bebd

model._encoder_embeddings.3.0.weight f4 [16, 1]
-0.34840137 -0.027582122 -0.65539247 -0.21929932 -0.019367805 5.455429e-39 -0.072266236 -3.867099e-38
-0.015895536 -0.017097991 0.7781803 -1.087204e-37 -0.07684178 9.61419e-38 0.5807414 -0.03705328
00000000: aa61 b2be e7f3 e1bc cdc7 27bf 0090 60be
00000010: 3ba9 9ebc 8467 3b00 5200 94bd 7e8b 5281
00000020: 5b37 82bc 1611 8cbc d336 473f 88fb 1382
00000030: 395f 9dbd 90dc 0202 78ab 143f 2ec5 17bd

model._encoder_embeddings.3.0.bias f4 [16]
0.3766062 -0.033807904 0.61028814 0.34549996 -0.056933437 -0.01811155 -0.00044948093 -0.020018177
0.0107712 -0.03501859 -0.7495669 -7.140418e-26 -0.0045628534 -1.4016147e-37 -0.093022645 0.03648525
00000000: 87d2 c03e 287a 0abd d83b 1c3f 5fe5 b03e
00000010: 0933 69bd ac5e 94bc 4fa8 ebb9 29fd a3bc
00000020: b079 303c a76f 0fbd 9ee3 3fbf c7c9 b095
00000030: fd83 95bb 25c7 3e82 a882 bebd 8f71 153d

model._encoder_embeddings.4.0.weight f4 [16, 1]
0.56446385 -0.38498753 0.008344665 -0.7493667 0.47702843 0.28666928 -0.5081938 0.5012855
-0.045970228 0.028871015 0.14055736 -0.3467155 0.56696844 -0.9516228 -0.66377676 -0.19305791
00000000: b480 103f 161d c5be 10b8 083c 7fd6 3fbf
00000010: 123d f43e 51c6 923e fd18 02bf 3f54 003f
00000020: 474b 3cbd e882 ec3c 45ee 0f3e b284 b1be
00000030: d824 113f 8d9d 73bf 46ed 29bf f9b0 45be

model._encoder_embeddings.4.0.bias f4 [16]
-0.5116565 -0.956519 -0.10500825 -0.06798872 0.0013363672 0.34723964 -0.11050158 -0.454981
0.03868743 -0.093983755 -0.41842386 -0.86372197 -0.008112494 -0.22845013 0.604515 0.17942126
00000000: ecfb 02bf 6ede 74bf 910e d7bd ac3d 8bbd
00000010: 0b29 af3a 65c9 b13e a74e e2bd 45f3 e8be
00000020: b676 1e3d 8e7a c0bd a73b d6be e21c 5dbf
00000030: 44ea 04bc d5ee 69be 7fc1 1a3f 35ba 373e

model._encoder_embeddings.5.0.weight f4 [16, 1]
-0.5937168 0.122613646 -0.014278715 0.19848908 -0.37706295 -0.40657976 0.3695007 0.43779105
0.00030459653 -0.19694114 0.16861552 0.077660196 -0.390322 0.3526825 -0.06084033 -0.051359292
00000000: d3fd 17bf dd1c fb3d 45f1 69bc b940 4b3e
00000010: 650e c1be 392b d0be 322f bd3e 2626 e03e
00000020: 41b2 9f39 f0aa 49be 8ca9 2c3e 4f0c 9f3d
00000030: 49d8 c7be cd92 b43e b633 79bd 1f5e 52bd

model._encoder_embeddings.5.0.bias f4 [16]
-0.40316474 0.6263989 -0.05202674 -0.056409124 -0.25792614 -0.8943632 -0.88300514 -0.101571776
-0.013359582 0.04440944 0.46484208 0.6196321 -0.76342285 -0.07721102 0.14092956 -0.045597102
00000000: 9c6b cebe ae5b 203f fe19 55bd 410d 67bd
00000010: e50e 84be fdf4 64bf a00c 62bf dd04 d0bd
00000020: 26e2 5abc ace6 353d c8ff ed3e 36a0 1e3f
00000030: ae6f 43bf d020 9ebd d74f 103e 07c4 3abd

model._encoder_embeddings.6.0.weight f4 [16, 1]
-8.645695e-09 0.35266447 0.011673448 -0.19806063 -3.14543e-05 0.111910485 4.3878554e-13 -0.09906416
-0.05461476 0.09356273 0.85627836 0.43751645 1.2154824e-37 0.51626194 -0.18236823 0.7079494
00000000: 2b88 14b2 7090 b43e fd41 3f3c 68d0 4abe
00000010: cced 03b8 5331 e53d a903 f72a 26e2 cabd
00000020: bab3 5fbd d19d bf3d 0f35 5b3f 2802 e03e
00000030: 6171 2502 be29 043f bdbe 3abe 2c3c 353f

model._encoder_embeddings.6.0.bias f4 [16]
-1.6365715e-09 0.57323706 -0.021313507 0.66541326 -0.0003474004 0.33975384 -8.8204827e-10 0.09726413
-0.0013389424 0.6004786 -0.112603925 -0.46597755 -0.022507422 0.5285556 0.18278167 0.49707735
00000000: beed e0b0 aabf 123f aa99 aebc 8658 2a3f
00000010: 4b23 b6b9 37f4 ad3e a174 72b0 6b32 c73d
00000020: 747f afba f7b8 193f e39c e6bd 9c94 eebe
00000030: 7c61 b8bc 6b4f 073f 1e2b 3b3e ec80 fe3e

model.encoder_module.convs.0.m_net_list.0.weights.weight f4 [256, 21]
-5.7046995e-38 0.057068374 -0.18582357 0.14105393 0.06627851 -0.1545254 -0.034229804 -0.028040256
0.04221007 0.26922524 -0.09748422 0.0033226286 0.015995622 -0.10447235 0.019721577 0.049649436
-0.1427417 -6.466725e-36 0.04410318 -6.46198e-36 7.4965695e-30 1.2881926e-37 0.0017526121 0.102383785
-0.12823105 0.20763247 -0.13602322 -0.040330462 -0.1534012 0.13986437 0.0017467191 0.16507924
-0.10790645 0.10442003 -0.12058728 0.055621147 0.050458007 -0.10268031 2.2339795e-36 -0.04212305
2.2479676e-36 1.1857258e-35 7.554837e-38 0.09009861 0.08106343 -0.025235761 -0.06035461 -0.12426664
-0.10437907 -0.19737333 -0.045422018 -0.06873436 0.18767427 0.024342129 -0.14332837 0.068013005
0.09184045 0.09836984 -0.19377248 -4.714246e-34 0.1830631 -4.715806e-34 -7.5464593e-31 -1.3497552e-37
-0.030787352 0.100671 0.144972 -0.16227554 0.027978474 0.15210113 -0.09904341 0.044727616
0.005084051 -0.12741208 0.09745718 -0.10676485 -0.12552688 -0.005429238 -0.09307089 0.05285813
-3.329971e-33 0.18166254 -3.3299397e-33 -1.0202438e-33 -1.0752049e-37 0.31737694 0.05120242 0.15339905
0.2146512 -0.08696876 0.006315338 0.22536293 -0.16699381 0.09410156 -0.07274821 -0.107778974
0.101619564 0.16510925 -0.029188188 -0.07894311 -0.029768627 -3.938978e-33 -0.043003663 -3.76996e-33
-2.3241649e-20 -1.7959557e-37 -0.124898076 -0.1556333 -0.106883466 0.035802368 0.22422674 0.0030679486
-0.21806155 0.12975147 0.068446 0.10223272 -0.06457243 0.102306314 -0.025956979 0.061672423
-0.040363885 0.07150897 -4.523282e-33 -0.00855385 -4.5222664e-33 -2.1116432e-29 -4.6603e-38 0.01845176
-0.04047668 -0.049227037 -0.16747157 0.029814228 0.06279779 0.108915314 -0.05835536 -0.20810004
-0.06326228 -0.06934728 0.07882122 0.23628522 0.10956795 0.015704194 0.16544944 1.7505788e-36
0.11333124 1.7774927e-36 8.4536346e-36 -1.1129741e-37 -0.1299535 0.01998898 0.045163084 -0.1391469
0.11347096 -0.1698535 -0.12607616 -0.1415938 0.15274802 0.038375143 -0.12022848 -0.17533869
-0.12380964 0.2110057 0.07306233 0.047944393 2.9411263e-36 -0.07735183 2.923367e-36 4.2541947e-36
0.06760689 -0.0904381 -0.015768431 -0.01869773 0.06435288 -0.12998046 0.12932777 0.0002558383
0.05784898 0.06954113 0.00025666915 0.16485639 0.000111865695 0.027473794 0.06919089 0.030675638
-0.042925805 0.0955744 0.0513183 0.102101885 -0.12822162 0.037215043 -0.023822257 0.0041442984
-0.11867377 0.18221867 0.18742734 0.08780696 0.0006211997 0.002072339 -0.041411005 0.00063174113
0.042710435 0.0012115062 -0.11448256 -0.17418106 0.14807169 0.19576868 -0.101541005 0.025896901
0.08385419 -0.02825298 -0.0709132 -0.19193296 0.07456228 -0.015936334 0.08609753 0.12574932
-0.1457546 1.2993601e-06 -0.06030941 -0.022529189 1.2968261e-06 0.06145966 1.1525917e-05 -0.03488528
-0.16154522 -0.15940274 0.023989612 0.022896087 0.020969944 -0.039010327 0.10274233 0.028771225
0.020072801 -0.012506103 -0.107445784 -0.043288734 -0.022501279 -0.105920136 -0.0008996772 0.047921788
-0.013530766 -0.00090587937 -0.068202145 -0.001000405 -0.091777824 -0.03072332 -0.0136475945 0.16043295
0.119452596 -0.05392414 -0.048041005 -0.14687842 0.15500997 -0.057573356 -0.011749666 0.05665892
00000000: f44b 9b81 87c0 693d 8948 3ebe 7170 103e
00000010: 07bd 873d e83b 1ebe 8d34 0cbd aeb4 e5bc
00000020: 77e4 2c3d e4d7 893e cfa5 c7bd 75c0 593b
00000030: 4009 833c 99f5 d5bd 258f a13c 355d 4b3d
00000040: e12a 12be 3388 0985 89a5 343d 5e6e 0985
00000050: 6a0c 180f f656 2f02 e7b7 e53a 97ae d13d
00000060: 004f 03be 9b9d 543e ac49 0bbe 8e31 25bd
00000070: 3415 1dbe 9b38 0f3e 2bf2 e43a 880a 293e
00000080: 0ffe dcbd 2bda d53d 77f6 f6bd 00d3 633d
00000090: 0ead 4e3d 0e4a d2bd c40b 3e04 3889 2cbd
000000a0: 663c 3f04 0e2d 7c05 88a9 cd01 9f85 b83d
000000b0: 9504 a63d 3abb cebc 6536 77bd 827f febd
000000c0: b2c4 d5bd 3c1c 4abe 700c 3abd 9ac4 8cbd
000000d0: af2d 403e 2569 c73c acc4 12be 674a 8b3d
000000e0: d916 bc3d 2076 c93d 4b6c 46be 5fa8 1c88
000000f0: e574 3b3e a4b5 1c88 88e5 748d 1bb8 3782
00000100: c235 fcbc 992c ce3d 8a73 143e 8f2b 26be
00000110: 1d33 e53c 66c0 1b3e 45d7 cabd 4e34 373d
00000120: 1c98 a63b 5078 02be a197 c73d 88a7 dabd
00000130: 1e8a 00be c0e7 b1bb f39b bebd c481 583d
00000140: 5352 8a89 bf05 3a3e fe51 8a89 5f84 a988
00000150: 6c59 1282 3b7f a23e a1b9 513d a414 1d3e
00000160: 86cd 5b3e ad1c b2bd e5f0 ce3b 8ac5 663e
00000170: 6d00 2bbe 52b8 c03d 03fd 94bd 39bb dcbd
00000180: eb1d d03d 6612 293e 111c efbc edac a1bd
00000190: 56dd f3bc 669e a389 9c24 30bd 1799 9c89
000001a0: dc82 db9e ec73 7482 90ca ffbd 565e 1fbe
000001b0: b8e5 dabd 81a5 123d b29b 653e a30f 493b
000001c0: 874b 5fbe 92dd 043e 6b2d 8c3d 635f d13d
000001d0: 8d3e 84bd f985 d13d bba3 d4bc 399c 7c3d
000001e0: 9a54 25bd 4b73 923d c9e3 bb89 7325 0cbc
000001f0: fcd8 bb89 6425 d68f 1abb 7d81 2528 973c
00000200: e0ca 25bd 4aa2 49bd ab7d 2bbe f83c f43c
00000210: 219c 803d fe0e df3d 0806 6fbd 2d18 55be
00000220: a78f 81bd f205 8ebd 056d a13d c1f4 713e
00000230: 2965 e03d 15a6 803c 946b 293e 3bec 1404
00000240: 361a e83d 5d36 1704 f7c9 3305 7d7d 1782
00000250: 8812 05be eebf a33c edfc 383d 867c 0ebe
00000260: 7663 e83d 13ee 2dbe 1c1a 01be f7fd 10be
00000270: fa69 1c3e 412f 1d3d 593a f6bd fc8b 33be
00000280: e98f fdbd e111 583e b4a1 953d 5761 443d
00000290: 0f34 7a04 a36a 9ebd 4cb1 7804 14f4 b404
000002a0: 7b75 8a3d 9c37 b9bd cc2c 81bc fb2b 99bc
000002b0: 71cb 833d 9919 05be 806e 043e 0922 8639
000002c0: 0df3 6c3d 946b 8e3d 8d91 8639 1dd0 283e
000002d0: 7099 ea38 b910 e13c f4b3 8d3d 7a4b fb3c
000002e0: f8d2 2fbd 83bc c33d 2333 523d cb1a d13d
000002f0: 874c 03be cd6e 183d e526 c3bc e5cc 873b
00000300: 3c0b f3bd 8897 3a3e f4ec 3f3e 23d4 b33d
00000310: 02d8 223a 14d0 073b 969e 29bd 6e9b 253a
00000320: 23f1 2e3d 67cb 9e3a d575 eabd 855c 32be
00000330: 1ba0 173e 9677 483e bbf4 cfbd bd25 d43c
00000340: bfbb ab3d cb72 e7bc f13a 91bd 138a 44be
00000350: 1cb4 983d ea8c 82bc e753 b03d 6ec4 003e
00000360: b240 15be ac65 ae35 0007 77bd 228f b8bc
00000370: 9b0e ae35 20bd 7b3d 705f 4137 dee3 0ebd
00000380: 1c6c 25be 793a 23be dd85 c43c 9390 bb3c
00000390: 29c9 ab3c 4bc9 1fbd 926a d23d a2b1 eb3c
000003a0: b76f a43c 66e6 4cbc 890c dcbd 874f 31bd
000003b0: 9a54 b8bc a8ec d8bd 51d8 6bba a349 443d
000003c0: 25b0 5dbc 8978 6dba 91ad 8bbd 0620 83ba
000003d0: 03f6 bbbd 79af fbbc 299a 5fbc 8948 243e
000003e0: 90a3 f43d 8fdf 5cbd a5c6 44bd 4c67 16be
000003f0: efba 1e3e 0ad2 6bbd ac81 40bc 2f13 683d

model.encoder_module.convs.0.m_net_list.0.bias.weight f4 [8, 21]
-0.122302435 -0.11340493 -0.19467087 0.1198081 0.14731824 -0.038359076 0.1628553 -0.0723272
0.037958384 -0.12205752 0.16282074 0.00090913416 -0.0049767024 -0.07787205 -0.15961711 0.03108213
0.16899252 -0.13065863 -0.13419017 -0.08184588 -0.15656921 0.1740784 0.20195143 -0.22266234
-0.14325489 0.2586385 0.050035033 -0.25369182 0.026602354 -0.085931025 -0.10105998 -0.14844285
0.05773153 -0.03461649 0.1899149 -0.1545841 0.0830888 0.027587619 -0.15213937 -0.091922194
0.029611077 -0.1108156 -0.15472186 -0.1705822 -0.1805957 0.1323212 0.06204066 -0.10024523
0.09505861 0.061439633 0.21249847 -0.21564816 0.081813134 0.03231594 0.07246628 0.008212428
0.056941807 -0.26641896 0.0062290286 0.19855301 -0.12214003 0.21289891 -0.07042071 0.046588723
-0.055375837 0.10470277 0.038000233 0.21657799 -0.028485188 -0.016213382 0.018945958 -0.09173921
-0.04230957 0.07575211 -0.17244647 0.07120993 -0.063479334 -0.14112769 -0.00039666932 0.18735781
-0.18936166 0.1689212 0.09661249 0.06741645 -0.0028036844 -0.07133604 -0.022215795 0.047887046
-0.024955755 -1.4563255 0.1340518 0.04873344 -0.13405931 -1.0809677 -0.089245945 -0.07066126
-0.038071115 0.17898007 -0.051513497 0.010577055 -0.034579054 0.02869714 0.000106925036 0.16484377
-0.16197006 0.013720503 -0.10796766 -0.15469615 -0.056729782 -0.02864123 -0.12284165 -0.009779149
0.1536053 0.01907115 0.1644561 -0.08340098 0.06803417 -0.05096097 0.06297438 0.09954405
0.03670789 -0.102556646 0.06856587 0.058271844 0.07697297 -0.09821803 0.14093478 0.07245971
-0.006634292 -0.13515012 -0.19585218 0.100839995 0.10363752 0.109007426 0.08617033 0.14906566
-0.10186685 0.040718473 -0.009067196 -0.05398612 0.011405947 -0.118711784 0.114902124 -0.121477045
-0.05461994 0.057444137 0.0785104 -0.11883887 -0.10726622 -0.1580728 -0.15145618 0.040214427
-0.112098925 0.12605433 0.11534988 -0.18472308 0.02098973 -0.086413816 0.10487034 0.052643247
0.087625936 0.010125226 0.048100162 0.12695377 -0.13079359 -0.08008455 0.035800043 0.090983376
00000000: b379 fabd d840 e8bd cd57 47be f35d f53d
00000010: 98da 163e 681e 1dbd 8ac3 263e 4820 94bd
00000020: 407a 1b3d 4bf9 f9bd 7bba 263e f652 6e3a
00000030: 9b13 a3bb 627b 9fbd ab72 23be f39f fe3c
00000040: 600c 2d3e 60cb 05be 2669 09be d09e a7bd
00000050: ae53 20be 9c41 323e 5bcc 4e3e 9901 64be
00000060: 69b1 12be 446c 843e 89f1 4c3d e5e3 81be
00000070: 2eed d93c 9bfc afbd 89f8 cebd 6701 18be
00000080: e677 6c3d 05ca 0dbd 0d79 423e 4b4b 1ebe
00000090: 762a aa3d 6eff e13c 6cca 1bbe b441 bcbd
000000a0: ee92 f23c 4af3 e2bd 686f 1ebe 1aad 2ebe
000000b0: 14ee 38be 357f 073e 591e 7e3d 5f4d cdbd
000000c0: 17ae c23d 20a8 7b3d 3399 593e dfd2 5cbe
000000d0: a58d a73d b85d 043d 3369 943d 6b8d 063c
000000e0: d03b 693d 1168 88be e11c cc3b 7b51 4b3e
000000f0: 8d24 fabd 2c02 5a3e bc38 90bd d1d3 3e3d
00000100: c6d1 62bd 686e d63d 22a6 1b3d 9fc6 5d3e
00000110: c559 e9bc edd1 84bc 8e34 9b3c c4e1 bbbd
00000120: cd4c 2dbd ec23 9b3d cf95 30be 83d6 913d
00000130: 7401 82bd c783 10be 0ef8 cfb9 bada 3f3e
00000140: 06e8 41be aef9 2c3e c5dc c53d a311 8a3d
00000150: 05be 37bb a118 92bd e6fd b5bc 3525 443d
00000160: 0370 ccbc e068 babf e044 093e b79c 473d
00000170: d846 09be 265d 8abf 94c6 b6bd dab6 90bd
00000180: 75f0 1bbd 8d46 373e d1ff 52bd 624b 2d3c
00000190: c4a2 0dbd 4416 eb3c f13c e038 cecc 283e
000001a0: 7bdb 25be f6cb 603c 261e ddbd ab68 1ebe
000001b0: 7d5d 68bd 03a1 eabc 6794 fbbd b938 20bc
000001c0: b54a 1d3e 1a3b 9c3c 2e67 283e 22ce aabd
000001d0: 8055 8b3d 73bc 50bd b6f8 803d c0dd cb3d
000001e0: 035b 163d 3809 d2bd 436c 8c3d 75ae 6e3d
000001f0: 01a4 9d3d 8926 c9bd 3551 103e c265 943d
00000200: 7a64 d9bb cb64 0abe 798d 48be 3385 ce3d
00000210: e83f d43d 493f df3d 127a b03d aba4 183e
00000220: 919f d0bd 6ac8 263d 948e 14bc 8d20 5dbd
00000230: 02e0 3a3c 2a1f f3bd ce51 eb3d f5c8 f8bd
00000240: 29b9 5fbd 8b4a 6b3d 10ca a03d cb61 f3bd
00000250: 64ae dbbd d6dd 21be 5417 1bbe e2b7 243d
00000260: 1f94 e5bd 6314 013e 8f3c ec3d 0c28 3dbe
00000270: a7f2 ab3c baf9 b0bd 43c6 d63d 72a0 573d
00000280: 3a75 b33d 47e4 253c ad04 453d 2b00 023e
00000290: c1ee 05be 5e03 a4bd 11a3 123d 7e55 ba3d

model.decoder_module.convs.0.m_net_list.0.weights.weight f4 [64, 21]
-0.037973877 0.4032841 0.39126664 -0.23060115 0.01906628 -0.43992046 0.39045027 0.08777976
0.112041645 -0.24658301 -0.087773256 0.09654952 0.057302885 0.06025879 -0.0053681317 -0.033169318
-0.056122605 0.07025629 0.0747326 -0.023449836 -0.17135751 -0.005654954 0.083459474 0.13496609
-0.040388938 0.02689709 -0.19765882 0.027878573 0.013065966 -0.0040493584 0.7357703 -0.08575873
0.033370618 0.14086302 0.08181152 -0.062855706 -0.20033476 0.08385767 0.13182868 0.00047119142
0.14178717 -0.05030378 0.04122069 -0.0184293 0.28862506 -0.011339431 -0.13594343 0.6309483
0.1079871 -0.009921939 0.094830565 -0.35389182 -0.013983372 0.15348355 -0.11961836 -0.06707366
-0.0095998105 0.04159649 0.21773183 0.119707845 -0.042486835 -0.024867563 0.011072998 0.029670086
0.2607513 -0.07060775 0.015519113 -0.15254179 0.22858723 -0.18040006 0.0807816 0.012305285
-0.8062009 -0.115848854 -0.092495054 0.14967616 -0.13732474 -0.027711863 0.031166611 0.17653409
-0.048568577 0.037749723 0.21422346 0.07113784 -0.09174717 0.014719388 0.19452356 -0.06033548
0.15545149 0.025691692 0.1529751 0.029666074 -0.012542856 0.5215326 -0.039859544 -0.027269958
0.0034071733 0.07818306 0.020646213 0.0365564 -0.045377344 0.12169064 -0.030853994 -0.18549299
0.07625537 0.015680946 -0.25806 -0.005345802 -0.0030842754 -0.11075677 -0.5557292 0.11853878
-0.015139181 0.016743837 -0.7230016 0.0060865944 0.10385941 -0.004771516 0.012278972 -0.030331481
0.05814245 0.2074499 0.10362413 -0.10276652 -0.012470518 -0.14926244 -0.04200992 -0.22632657
-0.11902025 -0.08318966 -0.15947302 -0.5847143 0.26442668 -0.048263445 -0.030320352 -0.11796807
0.0029205964 0.12530248 -0.04264305 0.111967124 0.13774538 0.17085226 0.1366801 0.25886026
-0.17793548 0.029453134 -0.09734677 -0.1049706 0.08044431 -0.044466913 0.16991982 -0.17064
0.59567267 -0.28509632 0.029018281 0.0177777 0.054279674 -0.011701597 0.16362041 0.060756586
-0.18824413 -0.17186646 -0.036484156 0.0062034302 0.07516423 0.059618436 0.045339964 -0.13686326
-0.141453 0.015580126 0.06716843 0.0011779343 0.07830235 -0.009304309 -0.06087586 -0.026637482
-0.052038804 -0.07467816 0.088236734 0.013566061 -0.00985817 -0.01275865 0.056495138 0.19317086
-0.020316139 0.07250812 -0.15699208 -0.08974291 -0.06209415 -0.036676224 -0.019474238 1.6230828e-05
-0.011001033 -0.09850583 -0.05574703 0.04662425 -0.11858814 -0.07831994 -0.044212148 0.088440835
0.039834246 -0.048863906 0.1090885 0.059359327 0.109892555 0.15607509 -0.093972795 0.03741401
0.20574604 -0.11854218 -0.0065605296 0.00864639 -0.13713478 -0.040480353 0.0067039803 -0.1832055
0.1296505 -0.10572953 0.026942968 0.037854545 0.029796405 0.09526618 0.053462382 -0.006723324
-0.18581864 -0.085569344 0.08479822 0.12578514 0.029556895 0.02443356 -0.021047162 -0.042012226
0.058452304 0.00089431787 0.021233292 -0.08779035 -0.05973967 -0.04978007 0.010257156 -0.06640759
-0.12912127 -0.0032557638 -0.16949418 0.0022783903 0.16833052 0.14222641 0.16515091 0.042640045
0.13866924 -0.024516016 -0.035904426 -0.027315121 -0.1580327 -0.0051617026 0.091169454 -0.007933631
00000000: 7f8a 1bbd 417b ce3e 1a54 c83e b522 6cbe
00000010: e330 9c3c 413d e1be 19e9 c73e e0c5 b33d
00000020: 1776 e53d 4280 7cbe 77c2 b3bd c1bb c53d
00000030: 6eb6 6a3d ecd1 763d 27e7 afbb 8ddc 07bd
00000040: d1e0 65bd 88e2 8f3d 680d 993d df19 c0bc
00000050: 5878 2fbe 314d b9bb cdec aa3d 8d34 0a3e
00000060: df6e 25bd 4957 dc3c 1367 4abe 9b61 e43c
00000070: a212 563c 7bb0 84bb 715b 3c3f 46a2 afbd
00000080: a1af 083d 653e 103e cc8c a73d 7eba 80bd
00000090: 8e24 4dbe 92bd ab3d 19fe 063e 3e0a f739
000000a0: a830 113e 560b 4ebd 07d7 283d 0bf9 96bc
000000b0: aac6 933e 05c9 39bc c134 0bbe d485 213f
000000c0: 5728 dd3d a18f 22bc 8736 c23d 4f31 b5be
000000d0: 831a 65bc cb2a 1d3e 79fa f4bd ea5d 89bd
000000e0: 8648 1dbc 1561 2a3d 18f5 5e3e 6329 f53d
000000f0: ad06 2ebd 0fb7 cbbc 856b 353c ae0e f33c
00000100: 3281 853e cc9a 90bd e143 7e3c ea33 1cbe
00000110: c512 6a3e cbba 38be d370 a53d 1b9c 493c
00000120: 2f63 4ebf 2a42 edbd 0c6e bdbd b544 193e
00000130: db9e 0cbe fd03 e3bc 1f51 ff3c 5ac5 343e
00000140: d8ef 46bd 749f 1a3d 655d 5b3e b7b0 913d
00000150: f1e5 bbbd 9729 713c 2f31 473e 5622 77bd
00000160: ad2e 1f3e 6277 d23c 81a5 1c3e 4406 f33c
00000170: 8d80 4dbc 2983 053f c343 23bd 3f65 dfbc
00000180: e24a 5f3b 711e a03d 3f22 a93c 2abc 153d
00000190: 98dd 39bd f138 f93d 84c1 fcbc e0f1 3dbe
000001a0: c72b 9c3d 5475 803c 7120 84be d62b afbb
000001b0: 8e21 4abb 72d4 e2bd 4544 0ebf 76c4 f23d
000001c0: 540a 78bc 5f2a 893c a216 39bf 0e72 c73b
000001d0: 3eb4 d43d 615a 9cbb be2d 493c ba79 f8bc
000001e0: c726 6e3d bf6d 543e e338 d43d 4177 d2bd
000001f0: 2551 4cbc 41d8 18be 9812 2cbd 27c2 67be
00000200: e4c0 f3bd 575f aabd e54c 23be d6af 15bf
00000210: ef62 873e e4af 45bd 6362 f8bc 3e99 f1bd
00000220: 7a67 3f3b 4b4f 003e 7baa 2ebd 054f e53d
00000230: 200d 0d3e e5f3 2e3e def5 0b3e 5589 843e
00000240: b834 36be b347 f13c be5d c7bd d3fa d6bd
00000250: fdbf a43d f022 36bd 76ff 2d3e 41bc 2ebe
00000260: 017e 183f 25f8 91be bfb7 ed3c 8aa2 913c
00000270: 5d54 5e3d 0eb8 3fbc 1c8c 273e e6db 783d
00000280: 12c3 40be c3fd 2fbe 6970 15bd 2546 cb3b
00000290: b4ef 993d 7632 743d 66b6 393d e225 0cbe
000002a0: 0ed9 10be c943 7f3c 9a8f 893d eb64 9a3a
000002b0: fc5c a03d 1a71 18bc f758 79bd d936 dabc
000002c0: a426 55bd ddf0 98bd 76b5 b43d 2f44 5e3c
000002d0: 2984 21bc a809 51bc 7267 673d 95ce 453e
000002e0: 086e a6bc 237f 943d 88c2 20be 21cb b7bd
000002f0: 6f56 7ebd cf39 16bd 7088 9fbc 7027 8837
00000300: ad3d 34bc 6dbd c9bd ff56 64bd 12f9 3e3d
00000310: 57de f2bd 3466 a0bd cc17 35bd 7820 b53d
00000320: 3c29 233d 8525 48bd cb69 df3d c422 733d
00000330: 590f e13d 26d2 1f3e cf74 c0bd 6f3f 193d
00000340: 17af 523e 3ec6 f2bd b6f9 d6bb 97a9 0d3c
00000350: 0f6d 0cbe bace 25bd 10ad db3b 399a 3bbe
00000360: 1ac3 043e b988 d8bd 80b7 dc3c 5e0d 1b3d
00000370: 9717 f43c ea1a c33d 5ffb 5a3d 544f dcbb
00000380: 3e47 3ebe fb3e afbd b0aa ad3d d2cd 003e
00000390: 4d21 f23c e428 c83c 196b acbc 0315 2cbd
000003a0: af6b 6f3d a870 6a3a 71f1 ad3c 6dcb b3bd
000003b0: 96b1 74bd 30e6 4bbd a10d 283c b400 88bd
000003c0: 5e38 04be a75e 55bb e28f 2dbe 0c51 153b
000003d0: d65e 2c3e cda3 113e 521d 293e 54a7 2e3d
000003e0: 4fff 0d3e d0d5 c8bc 8510 13bd f6c3 dfbc
000003f0: 53d3 21be 8023 a9bb 0db7 ba3d 0ffc 01bc

model.decoder_module.convs.0.m_net_list.0.bias.weight f4 [8, 21]
-0.059300564 -0.16637094 -0.20627387 -0.44702 0.1673875 0.14326333 -0.062856495 0.5035532
-0.34800255 -0.035622515 0.43966186 -0.120498456 0.04016285 -0.19719236 0.06350648 -0.4199646
0.18151274 -0.43918696 -0.10067818 -0.15710376 -0.10626721 -0.28030965 -0.8492354 0.14673805
-0.24781394 -0.098501876 0.5916307 -0.0615474 0.5287227 -0.45340198 0.056924626 0.24674506
0.049266905 0.27353448 -0.34592396 -0.15062521 -0.30871436 -0.05885084 -0.33798558 0.00026057014
-0.27044302 -0.15032572 -0.127355 -0.25753707 0.07726075 0.37138668 -0.21556655 -0.03543221
0.019220382 0.109370515 0.033508733 0.3234691 0.085178435 -0.20155661 0.015345129 0.37486544
-0.25613406 0.22540437 -0.46289083 -0.49482435 -0.3291561 -0.20119303 -0.04958883 0.16433601
-0.12448366 -0.1272008 -0.62455577 -0.36114514 0.07308506 0.052045602 0.09667284 -0.5373066
-0.069954224 0.3267488 -0.403632 -0.07381824 -0.6687427 -0.12202376 -0.062314812 -0.13489659
-0.0046569402 -0.43816563 -0.15640329 -0.3675552 -0.0074508837 0.46510687 0.098634124 -0.20098351
-0.06113056 0.48902705 0.0065572876 0.25633302 -0.33813456 -0.17976752 -0.17805567 -0.29381284
0.010708126 -0.17883171 -0.27238446 -0.47879714 -0.41461447 -0.0932858 -0.25349104 -0.2901267
-0.40537646 -0.04380638 0.27691635 -0.084033795 -0.3554298 -0.40494907 0.084097974 -0.07566696
-0.38047376 -0.071225815 0.25403553 -0.23695402 -0.38160318 0.029802537 -0.06627935 -0.2398279
-0.02635153 -0.41320902 -0.47022337 0.3401385 -0.15761083 -0.07812558 -0.046582203 -0.18875611
0.3945921 -0.15591264 -0.3149379 -0.14411847 0.39650562 0.24564695 -0.08770319 0.61598825
0.17853557 -0.38421544 -0.012552749 -0.101114996 -0.11102484 -0.42503965 -0.30542755 -0.30344456
-0.118826665 -0.3411752 -0.011368189 -0.2161348 0.1051463 -0.61925226 0.041693836 -0.41819316
0.19668339 -0.76328695 -0.3199715 0.18963909 0.92672426 -0.0014105539 -0.34767196 0.26161125
-0.0043009045 -0.360177 0.123628035 -0.2264782 -0.23125699 -0.506941 -0.3569941 -0.29280537
00000000: 26e5 72bd 255d 2abe 7539 53be cedf e4be
00000010: a167 2b3e 9fb3 123e e8ba 80bd dde8 003f
00000020: 642d b2be eae8 11bd 5c1b e13e e5c7 f6bd
00000030: cd81 243d cbec 49be af0f 823d 9a05 d7be
00000040: 7ade 393e 1ddd e0be 5d30 cebd cfdf 20be
00000050: 9fa2 d9bd bf84 8fbe 7e67 59bf 8042 163e
00000060: f0c2 7dbe 5abb c9bd 1c75 173f 2019 7cbd
00000070: 5f5a 073f 4e24 e8be cc29 693d bdaa 7c3e
00000080: 18cc 493d b60c 8c3e f21c b1be 7f3d 1abe
00000090: cf0f 9ebe 940d 71bd 720c adbe 229d 8839
000000a0: 8277 8abe fcee 19be 5969 02be e6db 83be
000000b0: e23a 9e3d 6526 be3e 7abd 5cbe 5d21 11bd
000000c0: 1074 9d3c a6fd df3d 7440 093d be9d a53e
000000d0: 0872 ae3d db64 4ebe 236a 7b3c 5dee bf3e
000000e0: 0124 83be 67d0 663e 0700 edbe 9e59 fdbe
000000f0: 2687 a8be 8c05 4ebe a81d 4bbd b347 283e
00000100: 4af1 febd ed40 02be e3e2 1fbf 04e8 b8be
00000110: 9fad 953d c52d 553d 69fc c53d ed8c 09bf
00000120: 2944 8fbd 9e4b a73e daa8 cebe 042e 97bd
00000130: b932 2bbf 98e7 f9bd d13d 7fbd 5522 0abe
00000140: 3f99 98bb 3f57 e0be 2f28 20be 3230 bcbe
00000150: 8b26 f4bb 7d22 ee3e b000 ca3d 9fce 4dbe
00000160: 0a64 7abd c161 fa3e 84de d63b 153e 833e
00000170: f91f adbe fa14 38be 3a54 36be a36e 96be
00000180: 2371 2f3c a91f 37be fa75 8bbe e624 f5be
00000190: 5948 d4be a00c bfbd 94c9 81be 7d8b 94be
000001a0: 818d cfbe 526e 33bd fbc7 8d3e e919 acbd
000001b0: e5fa b5be 7c55 cfbe 8f3b ac3d 47f7 9abd
000001c0: 75cd c2be d7de 91bd f210 823e 13a4 72be
000001d0: 7e61 c3be 7324 f43c 78bd 87bd 7295 75be
000001e0: 2adf d7bc 2290 d3be 1ec1 f0be a226 ae3e
000001f0: bc64 21be 4e00 a0bd fbcc 3ebd 4849 41be
00000200: fa07 ca3e 90a7 1fbe 8a3f a1be cb93 13be
00000210: c902 cb3e e08a 7b3e bb9d b3bd 68b1 1d3f
00000220: 07d2 363e e3b7 c4be 0caa 4dbc 6115 cfbd
00000230: fe60 e3bd cc9e d9be 0061 9cbe 165d 9bbe
00000240: 655b f3bd 84ae aebe a441 3abc 7152 5dbe
00000250: f156 d73d 5187 1ebf 28c7 2a3d 6a1d d6be
00000260: 5f67 493e c666 43bf 4ed3 a3be c030 423e
00000270: cd3d 6d3f 56e2 b8ba 0f02 b2be e9f1 853e
00000280: 9aee 8cbb 1f69 b8be b230 fd3d e7e9 67be
00000290: a2ce 6cbe e3c6 01bf eec7 b6be 96ea 95be

model.decoder_module.convs.1.m_net_list.0.weights.weight f4 [128, 21]
-0.15642084 0.28014666 -0.058752514 -0.13289407 0.1094735 0.058804885 0.031146672 -0.21617286
-0.24500802 -0.18788996 -0.04991396 -0.16220865 -0.10534885 0.07097879 -0.15005875 -0.12014101
0.11052243 0.17614694 0.092752285 0.13607946 -0.20687667 0.08770417 0.053146373 -0.1702417
0.14076349 0.02508977 0.15746793 -0.041776516 -0.007193004 -0.10249894 -0.18930013 -0.1691373
0.0067310724 -0.10864312 -0.13785861 -0.017075486 -0.1859161 -0.04525951 0.13099274 0.08593178
0.03868294 0.15167049 0.0024518303 0.13038474 0.3379494 0.004205462 -0.07501989 0.14176255
0.18124121 -0.15986866 0.06471811 -0.15548275 0.036588557 0.06789392 -0.2120067 -0.18688786
-0.09389802 -0.18238634 -0.11885178 -0.16391751 -0.2232082 0.046330474 -0.15615569 -0.12739615
-0.0219824 -0.022689492 -0.17591865 0.01967444 0.17481807 -0.069444515 0.10046584 -0.095937416
0.04129928 0.28503895 0.16415371 0.0014579389 0.10588723 0.004295171 0.043441948 -0.12047315
0.18745156 -0.17604838 -0.10207409 0.06614532 -0.07735912 0.023471039 0.015639476 -0.04826182
0.24296792 0.17366965 -0.1909298 -0.011884904 0.2671931 0.03875298 0.29361773 -0.1326514
-0.019666638 -0.112153314 -0.10165543 0.006199122 0.14683028 -0.12682422 -0.08466374 -0.06077145
0.018451495 0.14619923 0.21589346 0.077587254 0.21993896 -0.23204277 -0.24781336 -0.06992026
0.077602424 0.19881402 0.102294 0.14710976 0.0736223 0.11200613 0.10064159 -0.19496046
-0.12016542 0.1644324 0.0007565632 -0.059922006 0.043914266 0.10189081 0.14537472 0.03157437
0.16052084 -0.1338186 -0.034162227 -0.105941795 -0.0035962053 0.098949015 0.04550793 0.22478385
0.22944479 0.13069598 -0.009217901 -0.13681413 0.23428452 0.10700395 -0.026811263 -0.06015197
-0.14236756 0.1280421 0.15316379 0.15631007 -0.18180044 0.13685428 -0.25332245 -0.09926853
-0.003989566 -0.08793793 0.07750933 -0.0077769603 0.046984255 -0.015756182 0.13245584 -0.0939124
-0.10441445 -0.1584954 -0.062675446 -0.14574416 0.17473109 0.16023318 -0.13187331 -0.06501001
-0.027519686 -0.11494006 -0.12218498 0.17458504 0.20945956 0.18444534 -0.10309845 1.3912715
0.031018278 0.18147649 1.4695952 0.029875921 0.5596729 0.00046893416 0.12132435 0.11314392
-0.07495225 0.18656467 0.076162994 0.184722 0.075122714 0.063750945 -0.43102074 0.10284811
-0.18326944 -0.02395561 0.7450758 0.08375795 1.7794518 -0.1668439 0.13168152 1.7468219
-0.114308015 0.6112549 -0.22314245 -0.080110505 -0.09323306 0.10231714 0.13850881 0.12991051
-0.12963752 -0.091299355 -0.039937537 0.32657897 0.078057036 0.10770962 0.068161055 -0.46325132
-0.02741447 1.3857379 0.22495295 0.10880195 1.5464281 -0.18013042 0.377615 -0.055291582
-0.008354727 0.295933 0.08858616 -0.10954163 -0.008438197 -0.10945456 0.12398549 -0.12640066
-0.11278355 0.002098664 -0.090941995 -0.19452256 0.50321275 0.044763893 -1.8520814 -0.02657207
0.21846047 -1.7746595 0.060837306 -0.5853845 0.08189118 0.05259169 -0.16617398 -0.004931998
-0.152678 -0.101082034 0.19877212 0.06059519 0.052241754 -0.0108416835 0.0510801 0.0718829
00000000: c92c 20be 626f 8f3e 7aa6 70bd 6215 08be
00000010: a433 e03d 64dd 703d 4e27 ff3c 6b5c 5dbe
00000020: 62e3 7abe 3a66 40be 9572 4cbd 061a 26be
00000030: 23c1 d7bd 545d 913d 00a9 19be 7d0c f6bd
00000040: 9559 e23d dd5f 343e e9f4 bd3d 6a58 0b3e
00000050: 7ad7 53be 3e9e b33d 03b0 593d d753 2ebe
00000060: 4e24 103e 1089 cd3c 463f 213e da1d 2bbd
00000070: 4ab3 ebbb f7ea d1bd e5d7 41be 5432 2dbe
00000080: 5490 dc3b 4980 debd cf2a 0dbe e4e1 8bbc
00000090: ca60 3ebe 0962 39bd f622 063e 00fd af3d
000000a0: 0172 1e3d 824f 1b3e e3ae 203b 9483 053e
000000b0: b407 ad3e f9cd 893b 07a4 99bd 342a 113e
000000c0: 4c97 393e 9cb4 23be ee8a 843d df36 1fbe
000000d0: e2dd 153d f80b 8b3d 4918 59be 885f 3fbe
000000e0: 9b4d c0bd 7cc3 3abe 9068 f3bd fed9 27be
000000f0: b190 64be 06c5 3d3d 47e7 1fbe 2374 02be
00000100: 6f14 b4bc 50df b9bc 0524 34be 4b2c a13c
00000110: 8203 333e ed38 8ebd 09c1 cd3d d67a c4bd
00000120: 6f29 293d a0f0 913e e917 283e 5018 bf3a
00000130: 67db d83d 81be 8c3b 2ff0 313d a0ba f6bd
00000140: 4df3 3f3e 0746 34be 380c d1bd 3377 873d
00000150: 756e 9ebd 5646 c03c 5c1e 803c 30ae 45bd
00000160: 95cc 783e 75d6 313e 1a83 43be e6b8 42bc
00000170: 89cd 883e 72bb 1e3d 1055 963e c5d5 07be
00000180: ee1b a1bc a3b0 e5bd b930 d0bd 0122 cb3b
00000190: ad5a 163e 35de 01be 2f64 adbd 7ceb 78bd
000001a0: 9727 973c 40b5 153e 2d13 5d3e 11e6 9e3d
000001b0: ae37 613e 9f9c 6dbe c9c2 7dbe 5a32 8fbd
000001c0: 05ee 9e3d e795 4b3e 847f d13d f1a3 163e
000001d0: 4ac7 963d 7863 e53d 2e1d ce3d b7a3 47be
000001e0: 4a19 f6bd f860 283e 1954 463a c770 75bd
000001f0: 72df 333d 21ac d03d 1cdd 143e 2054 013d
00000200: 935f 243e be07 09be b1ed 0bbd 03f8 d8bd
00000210: 50ae 6bbb c8a5 ca3d 8666 3a3d bd2d 663e
00000220: 93f3 6a3e 2bd5 053e ae06 17bc 0119 0cbe
00000230: 48e8 6f3e e324 db3d 4ba3 dbbc e961 76bd
00000240: cdc8 11be 781d 033e f8d6 1c3e bf0f 203e
00000250: e529 3abe 8723 0c3e 7bb3 81be 4d4d cbbd
00000260: e8ba 82bb cd18 b4bd 36bd 9e3d dfd5 febb
00000270: 9072 403d 1c13 81bc 81a2 073e 2555 c0bd
00000280: 3ed7 d5bd 9e4c 22be fc5b 80bd f53d 15be
00000290: b5ec 323e 2b14 243e cc09 07be f823 85bd
000002a0: f770 e1bc b265 ebbd 1e3c fabd 6cc6 323e
000002b0: 917c 563e 3ddf 3c3e 4825 d3bd 2f15 b23f
000002c0: 0b1a fe3c f9d4 393e b21b bc3f 59be f43c
000002d0: b946 0f3f 47db f539 e778 f83d 00b8 e73d
000002e0: 9180 99bd cf0a 3f3e 58fb 9b3d c427 3d3e
000002f0: f0d9 993d db8f 823d c0ae dcbe 08a2 d23d
00000300: fcaa 3bbe 8e3e c4bc 4abd 3e3f 4a89 ab3d
00000310: 14c5 e33f 21d9 2abe 85d7 063e dc97 df3f
00000320: 521a eabd 337b 1c3f 747f 64be fa10 a4bd
00000330: f9f0 bebd a68b d13d 41d5 0d3e 4307 053e
00000340: b3bf 04be 28fb babd 8b95 23bd 5c35 a73e
00000350: 5edc 9f3d dc96 dc3d 0698 8b3d 472f edbe
00000360: 5094 e0bc dc5f b13f 115a 663e 8fd3 de3d
00000370: 5bf1 c53f 1c74 38be c156 c13e 6d79 62bd
00000380: 44e2 08bc 8884 973e a96c b53d 5d57 e0bd
00000390: 5d40 0abc b629 e0bd 1bec fd3d 2d6f 01be
000003a0: 10fb e6bd bd89 093b cc3f babd ec30 47be
000003b0: 8dd2 003f 585a 373d 0111 edbf abad d9bc
000003c0: 1ab4 5f3e 0b28 e3bf 8a30 793d c2db 15bf
000003d0: 90b6 a73d 626a 573d 8329 2abe 999c a1bb
000003e0: 9f57 1cbe 1904 cfbd eb8a 4b3e a932 783d
000003f0: 73fb 553d 51a1 31bc 5e39 513d 5837 933d

model.decoder_module.convs.1.m_net_list.0.bias.weight f4 [8, 21]
-0.030876609 0.16731794 -0.07370371 -0.10286061 0.16623563 0.19136783 -0.42666256 0.21396858
-0.22761121 -0.8680299 0.06613136 0.13039877 0.05445014 0.13200676 0.007762737 -0.2318568
0.4165568 -0.3019519 0.17333229 -0.31184545 -0.2115707 0.01258368 0.48666835 0.13116582
0.21587718 0.17690648 1.3879999 0.14393315 0.058436487 0.2525159 0.42147002 0.47934583
0.48676136 -0.0753585 -0.006387281 0.44606602 0.084681764 0.4211942 0.15065718 0.29084972
0.25724858 0.28202716 -0.108545244 -0.19857097 0.07386007 -0.14714743 0.13652027 -0.36813387
-0.07087454 0.03147587 -0.14792992 -0.50321406 -0.017644823 -0.15626226 0.1501002 -0.18496165
0.05041505 0.20179947 -0.10248437 0.34026632 0.12803729 -0.028985972 0.28270257 -0.104151085
0.65262866 0.33304217 -0.029303337 -0.54777926 1.0645907 0.3212204 -0.02348509 0.070950374
0.46097782 -0.41774422 -0.34898478 -0.06302304 0.01752364 -0.36497962 -0.025082972 -0.25526267
0.30151346 -0.12700863 0.12520519 0.24175887 0.13044766 -0.07801859 0.058205873 0.27695024
-0.106755145 -0.04960143 0.12822872 -0.27767783 0.41305107 -0.1558375 -0.14697534 0.19925882
0.049281385 0.3049158 0.15200871 0.21038464 0.063062824 -0.04622474 0.044861536 -0.27847588
-0.3284705 -0.17306858 0.22816932 -0.34876594 -0.1216165 -0.20020624 0.0045357677 -0.37072673
-0.18059157 -0.18248026 -0.7125019 -0.11122416 -0.17147024 -0.18636578 -0.32534504 -0.08841799
0.21133895 0.04463288 -0.2075884 0.12637876 -0.007734741 -0.28964627 0.12829709 0.31200182
0.081694156 -0.30789247 0.3719396 0.43165308 0.3305681 -0.09031255 -0.5209526 0.5929445
-0.10657309 0.5580764 0.088741295 -0.48106423 0.49331576 -0.25402984 0.45027378 -0.08019817
-0.13025515 0.16818543 0.21823393 -0.008624947 0.15712559 -0.18239771 -0.54963696 0.17483743
0.3511044 -0.24674946 -0.39768097 -0.4020549 -0.42343065 -0.23482467 0.19458063 0.11226411
-0.5495633 0.16233824 -0.1511823 0.20470314 -0.010439722 -0.15574226 0.28921023 0.21388188
00000000: f1f0 fcbc 6555 2b3e f9f1 96bd 95a8 d2bd
00000010: ac39 2a3e eef5 433e 8473 dabe 941a 5b3e
00000020: ea12 69be 3537 5ebf e16f 873d 4187 053e
00000030: 1c07 5f3d c82c 073e 8f5e fe3b de6b 6dbe
00000040: ef46 d53e 7099 9abe 057e 313e 35aa 9fbe
00000050: fda5 58be c82b 4e3c 982c f93e 5550 063e
00000060: e80e 5d3e f926 353e fba9 b13f 3663 133e
00000070: 195b 6f3d c449 813e ebca d73e d16c f53e
00000080: c938 f93e 8f55 9abd 664c d1bb c462 e43e
00000090: a26d ad3d c4a6 d73e e045 1a3e 41ea 943e
000000a0: 16b6 833e dd65 903e f84c debd 3056 4bbe
000000b0: f343 973d d1ad 16be f8cb 0b3e 0b7c bcbe
000000c0: ac26 91bd d8ec 003d f17a 17be a3d2 00bf
000000d0: e08b 90bc 3703 20be deb3 193e 9666 3dbe
000000e0: 0380 4e3d 85a4 4e3e 53e3 d1bd 6337 ae3e
000000f0: 351c 033e fd73 edbc 64be 903e 2a4d d5bd
00000100: ac12 273f 8184 aa3e 8d0d f0bc 433b 0cbf
00000110: 8244 883f 0077 a43e ce63 c0bc 6e4e 913d
00000120: 4905 ec3e 92e2 d5be 22ae b2be 3912 81bd
00000130: bd8d 8f3c 9cde babe ce7a cdbc cab1 82be
00000140: f95f 9a3e 8d0e 02be ca35 003e a38f 773e
00000150: 1294 053e 36c8 9fbd 4869 6e3d 6ccc 8d3e
00000160: 71a2 dabd de2a 4bbd 644e 033e ca2b 8ebe
00000170: 6e7b d33e de93 1fbe b480 16be 810a 4c3e
00000180: 47db 493d ec1d 9c3e 2ca8 1b3e 126f 573e
00000190: 1527 813d 2756 3dbd bbc0 373d 6494 8ebe
000001a0: 492d a8be e438 31be 38a5 693e 7391 b2be
000001b0: 1212 f9bd dd02 4dbe c7a0 943b e5cf bdbe
000001c0: ffec 38be 1bdc 3abe 8666 36bf 7ec9 e3bd
000001d0: e595 2fbe acd6 3ebe a093 a6be 7e14 b5bd
000001e0: 3d69 583e f7d0 363d 0e92 54be 6f69 013e
000001f0: b673 fdbb 844c 94be 5060 033e b4be 9f3e
00000200: 444f a73d 15a4 9dbe de6e be3e a201 dd3e
00000210: 3940 a93e c9f5 b8bd 265d 05bf 36cb 173f
00000220: fe42 dabd 18de 0e3f ffbd b53d 0d4e f6be
00000230: e293 fc3e 3310 82be 498a e63e f03e a4bd
00000240: 9b61 05be cd38 2c3e b778 5f3e a64f 0dbc
00000250: 88e5 203e 77c6 3abe 02b5 0cbf 9508 333e
00000260: f5c3 b33e e4ab 7cbe d79c cbbe 24da cdbe
00000270: e7cb d8be e175 70be 2540 473e baea e53d
00000280: 2eb0 0cbf ff3b 263e 88cf 1abe b39d 513e
00000290: 5e0b 2bbc e67a 1fbe 5d13 943e da03 5b3e

model.prob_model_x._decoder_embeddings.0.weight f4 [1, 8]
0.105801806 0.00018075874 -0.10309307 -0.17121921 -0.2038483 -0.10810357 -0.1943602 0.0018275047
00000000: 9eae d83d 0e8a 3d39 7622 d3bd 1754 2fbe
00000010: 9cbd 50be 6865 ddbd 5c06 47be e288 ef3a

model.prob_model_x._decoder_embeddings.1.weight f4 [2, 8]
0.2204217 0.021551693 0.016827619 -0.028827747 -0.27150574 0.19269326 -0.05240906 -0.22204512
-0.7608701 -1.0755 0.87354136 -1.2798401 0.23825529 -0.25176343 -1.1213796 -1.0292464
00000000: 3ab6 613e 2d8d b03c 13da 893c 2b28 ecbc
00000010: cd02 8bbe 6251 453e e2aa 56bd cc5f 63be
00000020: 62c8 42bf fca9 89bf 68a0 5f3f cdd1 a3bf
00000030: 32f9 733e 23e7 80be 5e89 8fbf 59be 83bf

model.prob_model_x._decoder_embeddings.2.weight f4 [2, 8]
-0.012086865 0.0016164983 -0.024577374 -0.15121953 0.29278868 0.034408823 0.06896981 0.031833544
0.709685 -0.2414492 0.7066403 -0.7638282 -0.063070856 0.9372395 -0.80729634 0.6870255
00000000: fc07 46bc afe0 d33a 7d56 c9bc 4bd9 1abe
00000010: 66e8 953e 44f0 0c3d 0b40 8d3d e463 023d
00000020: ebad 353f 763e 77be 61e6 343f 3f8a 43bf
00000030: 4b2b 81bd eeee 6f3f f9aa 4ebf e7e0 2f3f

model.prob_model_x._decoder_embeddings.3.weight f4 [1, 8]
0.68323755 0.5260871 0.55873555 -0.52392125 -0.6123843 -0.36340404 -0.7374637 -0.43014047
00000000: a8e8 2e3f a5ad 063f 4b09 0f3f b41f 06bf
00000010: 38c5 1cbf 1810 babe 6cca 3cbf 5f3b dcbe

model.prob_model_x._decoder_embeddings.4.weight f4 [2, 8]
-0.26468065 -0.083885215 0.15323943 -0.17044194 0.06315361 0.19611235 -0.016225528 -0.003349624
0.29565278 -0.42731768 0.3267271 -0.17796327 -0.6257566 0.57819796 0.6496963 0.5214055
00000000: 3984 87be 03cc abbd ccea 1c3e 5588 2ebe
00000010: ae56 813d add1 483e 66eb 84bc 5e85 5bbb
00000020: cd5f 973e 62c9 dabe c648 a73e 013c 36be
00000030: 9631 20bf c804 143f 7f52 263f d57a 053f

model.prob_model_x._decoder_embeddings.5.weight f4 [2, 8]
-0.050659053 -0.016535906 0.19739006 -0.004659942 -0.004295142 -0.22020161 0.008627348 -0.21382236
-0.5227804 -0.6176936 0.1592559 0.46905982 -0.28734824 0.47966063 -0.6348038 -0.27583602
00000000: de7f 4fbd 4f76 87bc 9f20 4a3e 6db2 98bb
00000010: 43be 8cbb 887c 61be b859 0d3c 40f4 5abe
00000020: f0d4 05bf 2b21 1ebf fb13 233e 9c28 f03e
00000030: 4f1f 93be 1496 f53e 8082 22bf 613a 8dbe

model.prob_model_x._decoder_embeddings.6.weight f4 [1, 8]
-0.7228987 0.5916649 0.8179922 0.5185741 -0.5924026 -0.44271737 0.7378147 0.62851936
00000000: e40f 39bf 5a77 173f f067 513f 46c1 043f
00000010: b2a7 17bf daab e2be 6de1 3c3f a5e6 203f

exp_avg f4 [16, 1]
-6.4e-44 0.07988993 0.046074018 9.5e-44 -1.0035401e-07 9.543529e-07 1.1393065e-06 0.2082344
0.051646486 -5.5503023e-19 0.017123125 -8.697956e-08 -0.2238285 1.0361647e-06 0.0765472 -0.12627895
00000000: 2e00 0080 559d a33d 1cb8 3c3d 4400 0000
00000010: 3382 d7b3 5117 8035 46ea 9835 663b 553e
00000020: 448b 533d e6d0 23a1 cc45 8c3c 85c9 bab3
00000030: 4c33 65be 5912 8b35 c7c4 9c3d 454f 01be

exp_avg_sq f4 [16, 1]
8.991101e-22 0.38839278 0.47787833 2.999626e-20 8.5577465e-12 4.3593062e-10 6.2583876e-09 1.2896215
0.35099587 7.030934e-17 0.04545775 5.1352143e-12 0.9657814 5.9672645e-09 0.43152463 0.33650777
00000000: a3de 871c 6bdb c63e 78ac f43e 41a7 0d1f
00000010: aa8c 162d c8a7 ef2f 5c09 d731 5112 a53f
00000020: bbb5 b33e 4f1f a224 e831 3a3d e6ad b42c
00000030: 733d 773f 9d08 cd31 ccf0 dc3e bf4a ac3e

exp_avg f4 [16]
-7e-44 0.0894986 -0.14321864 -6.507899e-15 -1.00395816e-07 -9.879427e-07 -1.1535177e-06 -0.14760284
-0.11847186 -2.0928973e-12 -0.047286168 -1.0045251e-07 0.046469938 -1.0474974e-06 -0.1242907 -0.040648144
00000000: 3200 0080 0b4b b73d e8a7 12be c678 eaa7
00000010: 2f99 d7b3 7499 84b5 91d2 9ab5 3325 17be
00000020: 60a1 f2bd 4946 13ac 24af 41bd 5ab8 d7b3
00000030: 4357 3e3d bd97 8cb5 1f8c febd ab7e 26bd

exp_avg_sq f4 [16]
4.4120286e-20 0.9343905 1.1947752 2.2276604e-16 8.557751e-12 4.3600937e-10 6.2583756e-09 3.0656679
0.87275773 5.1425027e-16 0.11256119 2.93121e-11 2.2150137 5.967262e-09 1.0620469 0.76878065
00000000: 275a 501f 3734 6f3f 65ee 983f 776a 8025
00000010: af8c 162d ddb2 ef2f 4109 d731 e733 4440
00000020: 0d6d 5f3f f938 1426 7b86 e63d 7eea 002e
00000030: c9c2 0d40 9708 cd31 27f1 873f cfce 443f

exp_avg f4 [16, 1]
-0.6106464 -0.4020485 1.4550114 5.2034856e-09 0.44287837 1.0311581 -5.197107e-07 -0.45949373
2.88433e-08 -0.83521575 -0.034248125 -0.10268396 2.7871256e-08 -0.18151744 0.81625104 0.32068416
00000000: 5353 1cbf 4dd9 cdbe d03d ba3f 58ca b231
00000010: f4c0 e23e fdfc 833f 3f82 0bb5 c342 ebbe
00000020: 16c3 f732 b3d0 55bf c347 0cbd f84b d2bd
00000030: 8a69 ef32 b5df 39be d4f5 503f b730 a43e

exp_avg_sq f4 [16, 1]
6.7783318 35.42313 24.386244 1.8644782e-08 11.765486 59.233753 2.6606529e-08 3.1790104
6.806785e-10 8.872101 0.45606136 5.70219 1.9348994e-09 5.3280916 3.4258084 1.4541035
00000000: 18e8 d840 49b1 0d42 0717 c341 4f28 a032
00000010: 6e3f 3c41 5def 6c42 608c e432 e874 4b40
00000020: 7e1a 3b30 20f4 0d41 e080 e93e 5778 b640
00000030: 1cf7 0431 ba7f aa40 7240 5b40 1020 ba3f

exp_avg f4 [16]
0.28328428 1.6129676 -0.57022244 -2.7775137e-08 -0.56339335 -0.5594258 -1.3136215e-06 0.19945632
-1.7850496e-07 0.3276284 0.010759189 -0.3775622 -2.4181426e-07 0.28155613 0.3990368 0.358549
00000000: a30a 913e b975 ce3f 19fa 11bf 2c96 eeb2
00000010: 8c3a 10bf 8736 0fbf b14f b0b5 473e 4c3e
00000020: 12ab 3fb4 e9be a73e 4f47 303c d54f c1be
00000030: b3d2 81b4 2028 903e 8d4e cc3e bc93 b73e

exp_avg_sq f4 [16]
6.5279474 73.86756 37.433746 2.1153033e-08 17.848476 75.22552 5.059014e-09 3.0252028
4.7854476e-10 12.374064 0.09907158 4.1396556 5.6627003e-10 7.3158455 0.858139 2.7004328
00000000: f2e4 d040 31bc 9342 28bc 1542 03b4 b532
00000010: aec9 8e41 7773 9642 8fd3 ad31 ec9c 4140
00000020: 988a 0330 2bfc 4541 0ae6 ca3d 0f78 8440
00000030: b6a7 1b30 681b ea40 ffae 5b3f e4d3 2c40

exp_avg f4 [16, 1]
0.004817815 0.25481948 -0.008462855 0.04165231 0.39236534 0.11263966 0.05372392 -1.669072e-08
0.10252158 0.13613957 0.23159392 0.18449199 1.9593428e-07 -3.9730025e-10 0.31773677 -3.2435906e-08
00000000: c3de 9d3b b377 823e c9a7 0abc 9d9b 2a3d
00000010: 1ce4 c83e 9faf e63d 9d0d 5c3d 485f 8fb2
00000020: d6f6 d13d 2c68 0b3e f526 6d3e 78eb 3c3e
00000030: 0162 5234 0a6b daaf 65ae a23e a84f 0bb3

exp_avg_sq f4 [16, 1]
0.85599405 4.7773347 0.045192573 0.425577 2.1423218 4.9627037 0.60236543 2.3412767e-09
7.7979064 1.4920458 1.9073882 4.37072 4.5453274e-07 1.1034929e-09 4.372176 1.3244082e-09
00000000: 6d22 5b3f eddf 9840 d91b 393d 3be5 d93e
00000010: cd1b 0940 78ce 9e40 9f34 1a3f 2de4 2031
00000020: 7388 f940 5bfb be3f 4c25 f43f f0dc 8b40
00000030: 8106 f434 b4a9 9730 dee8 8b40 7906 b630

exp_avg f4 [16]
-0.0248315 -0.08006282 -0.019231431 0.089961216 0.31571496 -0.20497632 -0.05426283 -5.2169717e-08
0.39659363 0.15324388 0.16831908 -0.16379397 -8.1953027e-07 -2.0269544e-08 0.24200776 -1.1175041e-07
00000000: 6e6b cbbc faf7 a3bd 3c8b 9dbc 963d b83d
00000010: 64a5 a13e 50e5 51be b442 5ebd 3611 60b3
00000020: 520e cb3e f7eb 1c3e d65b 2c3e 9bb9 27be
00000030: b1fd 5bb5 331d aeb2 e2d0 773e 70fb efb3

exp_avg_sq f4 [16]
0.709833 8.651629 0.056880563 0.51982915 0.86237013 4.059614 0.30105796 5.8255383e-09
11.215943 3.0409145 1.2115648 7.942246 2.6737636e-08 1.1675004e-08 7.8466773 1.7948455e-09
00000000: 9eb7 353f 136d 0a41 98fb 683d 8613 053f
00000010: 4ac4 5c3f 5ce8 8140 4524 9a3e fa29 c831
00000020: 8174 3341 589e 4240 8e14 9b3f e126 fe40
00000030: afac e532 3693 4832 fb17 fb40 83ae f630

exp_avg f4 [16, 1]
-3.5232497e-05 -3.3178686e-08 -7.864879e-07 9.7930926e-05 -2.3256751e-08 1.3e-44 -8.672403e-08 -5.2e-44
-1.9161842e-08 -2.0525256e-08 0.0002768456 -1.36e-43 -9.221834e-08 1.2e-43 0.0001476175 -4.4470315e-08
00000000: 9bc6 13b8 5a80 0eb3 091f 53b5 4460 cd38
00000010: 23c6 c7b2 0900 0000 0a3d bab3 2500 0080
00000020: 5699 a4b2 844f b0b2 9625 9139 6100 0080
00000030: 9209 c6b3 5600 0000 c5c9 1a39 a1ff 3eb3

exp_avg_sq f4 [16, 1]
1.165033e-06 4.329869e-14 6.0090294e-10 4.8864695e-07 6.1593384e-13 2.3512437e-22 1.0001488e-10 1.1335823e-20
1.1236519e-14 1.9516717e-12 1.002416e-06 4.727119e-20 3.4601075e-11 7.769924e-22 6.246536e-07 1.3326584e-11
00000000: 3b5e 9c35 feff 4229 c92c 2530 902b 0335
00000010: b65e 2d2b bc1f 8e1b 5fef db2e ad20 561e
00000020: 4c6b 4a28 3156 092c c08a 8635 5d3b 5f1f
00000030: 592d 182e e0d4 6a1c dead 2735 9971 6a2d

exp_avg f4 [16]
0.00040614593 -4.060071e-08 -0.0005940993 0.00022274764 -6.8359434e-08 -2.1740808e-08 -5.393807e-10 -2.4055176e-08
0.0004691259 -4.203482e-08 0.0002750123 -8.934009e-32 -5.4756084e-09 -1.74e-43 0.00014680896 0.00048172142
00000000: fcef d439 f460 2eb3 54bd 1bba 5d91 6939
00000010: ffcc 92b3 8bc0 bab2 8b43 14b0 e4a1 ceb2
00000020: 03f5 f539 c689 34b3 872f 9039 adf0 e78b
00000030: f623 bcb1 7c00 0080 bbf0 1939 8e8f fc39

exp_avg_sq f4 [16]
2.2964673e-06 4.539718e-13 6.939826e-07 7.927604e-07 8.175749e-13 2.671398e-12 6.988541e-09 1.3643611e-13
1.2975322e-06 3.082838e-12 1.002446e-06 1.1438941e-17 2.3954633e-10 5.3303053e-20 6.2481456e-07 9.851893e-07
00000000: 021d 1a36 3b90 ff2a 1f4a 3a35 14ce 5435
00000010: 7b20 662b a1fb 3b2c db1f f031 089d 192a
00000020: de26 ae35 79ef 582c c88b 8635 df02 5323
00000030: 26b1 832f 70b7 7b1f eeb8 2735 d93a 8435

exp_avg f4 [16, 1]
0.00020734995 -4.6198718e-07 1.0018566e-08 -0.0045929966 0.00043157864 0.009100173 0.00095902034 -0.0008974874
0.0020503602 3.4665405e-08 -0.00027449575 -4.1605932e-07 0.00093708537 -0.00048116423 0.0006792325 0.0010398695
00000000: 146c 5939 0907 f8b4 1f1e 2c32 d980 96bb
00000010: 8145 e239 e418 153c c466 7b3a 5c45 6bba
00000020: 565f 063b 04e3 1433 32ea 8fb9 c25e dfb4
00000030: bca6 753a c544 fcb9 850e 323a 3b4c 883a

exp_avg_sq f4 [16, 1]
4.7227e-06 1.4770052e-08 1.1025818e-12 0.00044867012 4.5903587e-05 0.0034536945 0.0004095247 1.0216619e-05
0.00025045266 7.970625e-13 9.835528e-07 1.2343526e-07 1.195125e-05 0.00039798734 0.00016704803 0.0001355641
00000000: af77 9e36 60bf 7d32 b22c 9b2b 7c3b eb39
00000010: 9a88 4038 6157 623b 7ab5 d639 0b68 2b37
00000020: 304f 8339 685a 602b 9e02 8435 a089 0434
00000030: 3a82 4837 f5a8 d039 9d29 2f39 3626 0e39

exp_avg f4 [16]
0.00018985954 -1.1478347e-06 -1.2606509e-07 0.005619232 0.00063600653 -0.017883852 -0.0014737034 -0.00072949554
-0.004282986 -1.1284446e-07 -9.205539e-05 -1.0364703e-06 0.0008211827 -0.00044027163 0.00058160885 -0.0010765109
00000000: 0815 4739 4d0f 9ab5 825c 07b4 8921 b83b
00000010: adb9 263a 2881 92bc 4829 c1ba 9e3b 3fba
00000020: 4a58 8cbb e654 f2b3 dc0d c1b8 d91c 8bb5
00000030: a344 573a 42d4 e6b9 1c77 183a b619 8dba

exp_avg_sq f4 [16]
1.6322672e-06 2.4180855e-09 1.4180266e-12 0.00046332116 2.5125042e-05 0.0032531675 0.00022517856 4.7421636e-06
0.00025113832 8.4241706e-13 1.08629294e-07 2.0300941e-08 8.965656e-06 0.00024325849 0.000110061716 8.646028e-05
00000000: 4614 db35 692b 2631 cb91 c72b eae9 f239
00000010: 9ec3 d237 1833 553b e91d 6c39 e01e 9f36
00000020: 37ab 8339 8c1e 6d2b 9647 e933 3e62 ae32
00000030: 336b 1637 3413 7f39 efd0 e638 0252 b538

exp_avg f4 [16, 1]
0.00017015338 -6.94622e-05 -1.716107e-08 -0.00022486641 0.00023787792 -4.879194e-07 -1.4356574e-05 0.00017950678
3.655329e-10 -6.360825e-05 -0.00038138963 -0.0013933767 -3.729622e-06 0.00012682588 0.0005713942 -0.0002936224
00000000: 336b 3239 3cac 91b8 9869 93b2 1eca 6bb9
00000010: de6e 7939 91f9 02b5 04dd 70b7 fc39 3c39
00000020: 2ff4 c82f 6b65 85b8 40f5 c7b9 f7a1 b6ba
00000030: 6b4a 7ab6 90fc 0439 9ec9 153a 55f1 99b9

exp_avg_sq f4 [16, 1]
1.003418e-07 1.2246269e-06 1.084662e-13 1.3943114e-07 3.749266e-07 1.1584273e-10 2.4664985e-07 1.8490492e-07
1.2460268e-10 1.4539235e-07 5.081432e-07 2.7451028e-06 9.569133e-09 1.3468286e-07 9.092701e-07 2.957447e-07
00000000: 7d7b d733 dc5d a435 823e f429 8ab6 1534
00000010: 8549 c934 a9bd fe2e 4c6b 8434 478a 4634
00000020: 8900 092f 251d 1c34 5667 0835 8238 3836
00000030: 7e65 2432 589d 1034 9114 7435 d8c6 9e34

exp_avg f4 [16]
-0.00013162076 8.4014486e-05 -6.252637e-08 -8.5003914e-05 -0.00012060047 -1.0733481e-06 -6.7810397e-06 8.5287764e-05
-1.6032129e-08 5.9563972e-05 4.133488e-05 0.00031150645 5.933929e-07 4.8049507e-05 -0.00015126039 0.0001634623
00000000: ae03 0ab9 ef30 b038 3c46 86b3 2144 b2b8
00000010: e2ea fcb8 f60f 90b5 b088 e3b6 85dc b238
00000020: 06b7 89b2 54d4 7938 fd5e 2d38 b051 a339
00000030: a649 1f35 c488 4938 a79b 1eb9 1467 2b39

exp_avg_sq f4 [16]
5.2135707e-08 7.664262e-07 1.1497696e-13 4.0780545e-08 2.0294922e-07 2.5070892e-11 2.7723779e-08 5.3931615e-08
1.7801711e-10 1.6109226e-07 4.8635724e-07 2.017336e-06 2.031974e-09 3.317349e-08 9.118742e-07 1.4531908e-07
00000000: d1eb 5f33 68bc 4d35 da73 012a af26 2f33
00000010: 42ea 5934 a186 dc2d 3c25 ee32 70a2 6733
00000020: 5dbb 432f b4f8 2c34 378e 0235 9261 0736
00000030: dda2 0b31 a37a 0e33 85c7 7435 0109 1c34

exp_avg f4 [16, 1]
-1.061696e-14 2.5050598e-05 1.4025566e-08 1.6076272e-05 -3.816524e-11 -1.571588e-05 5.4058373e-19 -1.18889545e-07
-6.564301e-08 -1.1994318e-05 3.9808416e-05 5.250371e-07 1.4e-43 -1.2025849e-05 2.913062e-05 -1.0276542e-05
00000000: 1642 3fa8 c023 d237 17f5 7032 88db 8637
00000010: 3dda 27ae 98d5 83b7 5a8d 1f21 3850 ffb3
00000020: a0f7 8cb3 343b 49b7 f6f7 2638 46f0 0c35
00000030: 6400 0000 a1c2 49b7 885d f437 6969 2cb7

exp_avg_sq f4 [16, 1]
1.8410519e-16 1.3429967e-08 1.7090229e-13 2.0831244e-08 1.463905e-15 3.044276e-08 1.1577504e-16 2.4605134e-11
1.0121287e-13 3.3305025e-08 5.674275e-08 2.5237273e-10 5.9189882e-21 3.3796333e-08 1.7380928e-07 7.882862e-09
00000000: 4342 5425 9fb9 6632 3b6b 402a 64f0 b232
00000010: 90f8 d226 2bc0 0233 c37a 0525 d66d d82d
00000020: 3fe9 e329 430b 0f33 50b5 7333 4ebe 8a2f
00000030: f19c df1d 7627 1133 55a0 3a34 326d 0732

exp_avg f4 [16]
-2.0110796e-15 2.5904415e-05 -2.560791e-08 2.537565e-05 -4.2062484e-10 -5.8858477e-05 -1.0841402e-15 -3.375578e-05
-1.6069558e-09 -9.0718066e-05 3.864578e-05 -5.5919156e-07 -2.7038572e-08 1.6972243e-05 8.279243e-05 -4.178075e-05
00000000: dfe9 10a7 4f4d d937 64f8 dbb2 cbdd d437
00000010: af3d e7af cfde 76b8 b73d 9ca6 fe94 0db8
00000020: bbdb dcb0 e43f beb8 9717 2238 5a1b 16b5
00000030: 7342 e8b2 9d5f 8e37 d9a0 ad38 bd3d 2fb8

exp_avg_sq f4 [16]
1.6691781e-16 5.3782326e-08 1.7218427e-13 9.170156e-08 2.4550746e-15 6.443146e-08 1.6153959e-16 5.419968e-08
1.4036551e-11 1.0668658e-07 5.674946e-08 2.5239916e-10 2.2032471e-13 1.2984114e-07 4.5955514e-07 2.3785677e-08
00000000: 7171 4025 4bfe 6633 bddc 412a 77ed c433
00000010: 22e8 3027 925d 8a33 123e 3a25 2ec9 6833
00000020: 01ef 762d 911b e533 b1bc 7333 06c2 8a2f
00000030: 4610 782a 766a 0b34 c7b8 f634 4251 cc32
