SimLoan/VACA/exper_test_10pct_noise/toy_/vaca/dgnn_elbo_8_8_16_4_normal_0.0_0.2_0.0_0.0_0_True_[BernoulliLikelihood()]_[NormalLikelihood()]_[NormalLikelihood()]_[BernoulliLikelihood()]_[NormalLikelihood()]_[NormalLikelihood()]_[BernoulliLikelihood()]_7_21/adam/0.005_0.9_0.999_1.2e-06_exp_lr_0.99/9/ckpt/last-v4.ckpt (torch, 164822 bytes, 81 tensors)

model._encoder_embeddings.0.0.weight f4 [16, 1]
0	0xbe2c38dc	-0.16818565
1	0xbd8908ce	-0.066911325
2	0x84014ad2	-1.5198233e-36
3	0x80faa170	-2.3016787e-38
4	0xbe506f63	-0.2035499
5	0x01bfa978	7.0405495e-38
6	0x3a3f8282	0.0007305519
7	0x83066a32	-3.9500967e-37
8	0x84afc541	-4.132345e-36
9	0x022cdb9a	1.2699587e-37
10	0x83059fbc	-3.9268553e-37
11	0x9f194066	-3.245228e-20
12	0x3e9f9fcb	0.311766
13	0x3f015141	0.5051461
14	0xbe887817	-0.2665412
15	0x824d5cd4	-1.5087662e-37

model._encoder_embeddings.0.0.bias f4 [16]
0	0x3e20cc09	0.15702833
1	0x3d659c3f	0.05605721
2	0x844ce094	-2.4083206e-36
3	0x85125a89	-6.881516e-36
4	0x3e49f480	0.19722176
5	0x83937a55	-8.6679695e-37
6	0xba4efcac	-0.00078959274
7	0x83069f49	-3.956191e-37
8	0xba478a3f	-0.0007611848
9	0x843eef48	-2.2444265e-36
10	0x833aed64	-5.4933e-37
11	0x9faf1e4b	-7.41655e-20
12	0xbd293cf3	-0.04131789
13	0xbdcf8de4	-0.10134485
14	0x3f46c7e3	0.7764875
15	0x824af5c0	-1.4911143e-37

model._encoder_embeddings.1.0.weight f4 [16, 1]
0	0x3e6c45e6	0.23073539
1	0xbf4819d8	-0.78164434
2	0x3f08f99a	0.5350586
3	0x3e8ff4d5	0.2811648
4	0x3d9c2779	0.07624716
5	0xbf085ca7	-0.53266376
6	0x3f4b8c00	0.795105
7	0xbbada619	-0.0052993414
8	0xbea2ede3	-0.31822118
9	0xbe429064	-0.19000393
10	0x3e9d98de	0.3078069
11	0x3f2a1bf5	0.6644891
12	0xbc3430a9	-0.01099793
13	0xbe95aec9	-0.29234913
14	0xbf001ddc	-0.5004556
15	0x3e185c6e	0.14879009

model._encoder_embeddings.1.0.bias f4 [16]
0	0x3d00c7a8	0.031440407
1	0xbe221c65	-0.15831144
2	0xbec15ed4	-0.3776766
3	0xbf0589b3	-0.5216324
4	0x3f315a75	0.6927865
5	0x3ebe22eb	0.37136015
6	0xbf0d5221	-0.55203444
7	0xbc53b403	-0.012921336
8	0x3e6359b0	0.22202182
9	0x3f389095	0.72095615
10	0x3f3a6339	0.7280765
11	0x3e08b9c2	0.13352111
12	0xbcd79bd6	-0.026319426
13	0x3f0a9494	0.5413296
14	0xbd6a1751	-0.057151143
15	0xbf07fd31	-0.53120714

model._encoder_embeddings.2.0.weight f4 [16, 1]
0	0x3f2b0747	0.6680798
1	0x3ab34099	0.0013675868
2	0x3f379d95	0.71724826
3	0xbedf2fd6	-0.43591183
4	0x3edcbb81	0.43111804
5	0xbf0387e5	-0.51379234
6	0x3e72a68d	0.23696347
7	0x3f1ab31e	0.6042956
8	0xbf1fb73c	-0.6238897
9	0x2f792a78	2.2661506e-10
10	0xaeff7cd3	-1.1618231e-10
11	0x3e39d489	0.18147482
12	0x3eb90986	0.36140078
13	0xbf196bf6	-0.5993036
14	0xbe20c3b6	-0.15699658
15	0xbd7687c2	-0.060188062

model._encoder_embeddings.2.0.bias f4 [16]
0	0x3e7484b2	0.23878744
1	0xbba058a8	-0.004893381
2	0xbf542024	-0.8286154
3	0xbeb793a8	-0.3585484
4	0xbc4467bb	-0.011987622
5	0x3b921120	0.004457608
6	0x3f3db0b4	0.7409775
7	0x3efeb684	0.49748623
8	0xbe62b862	-0.22140649
9	0xb1936714	-4.2899817e-09
10	0xb2a03b48	-1.865341e-08
11	0x3efff647	0.49992582
12	0xbedc90b3	-0.43079147
13	0x3f3189a7	0.69350666
14	0x3f310eb9	0.6916309
15	0x3e19115f	0.14948033

model._encoder_embeddings.3.0.weight f4 [16, 1]
0	0x844da00d	-2.4171126e-36
1	0xbe9407b3	-0.28912124
2	0x83e4886d	-1.3431957e-36
3	0x0192ff38	5.399815e-38
4	0xbe303319	-0.17206992
5	0x3e196538	0.14980018
6	0x80d3c364	-1.9447383e-38
7	0x04b8ab73	4.3415643e-36
8	0x83ceca1a	-1.2153992e-36
9	0xbe1d93be	-0.1538839
10	0x3f8d0d82	1.1019747
11	0x0d8f4f8b	8.832205e-31
12	0x01f3ed34	8.960447e-38
13	0x01776fda	4.5446985e-38
14	0x843e4528	-2.2366148e-36
15	0xbeafa390	-0.34304476

model._encoder_embeddings.3.0.bias f4 [16]
0	0x8449309b	-2.3649755e-36
1	0x3e961e8a	0.29320174
2	0x841e2a79	-1.8592313e-36
3	0x83a2c4f8	-9.566726e-37
4	0x3e2e3cd0	0.17015386
5	0x3e663202	0.22480014
6	0x8432aa43	-2.100198e-36
7	0x84b96b6c	-4.3591942e-36
8	0x841962d8	-1.803045e-36
9	0x3e1ccf08	0.15313351
10	0xbf416734	-0.755481
11	0x8ecf1d06	-5.105739e-30
12	0x845c91d2	-2.5927833e-36
13	0x82bbd3a9	-2.7598667e-37
14	0x84775090	-2.9071703e-36
15	0x3eb1ab1d	0.34700862

model._encoder_embeddings.4.0.weight f4 [16, 1]
0	0x3c876335	0.016526798
1	0x3c6942ee	0.014237149
2	0x3d25a024	0.040435925
3	0xbda26c8e	-0.079308614
4	0x3e39035b	0.18067686
5	0x0ad65529	2.0639484e-32
6	0x3c594d23	0.01326302
7	0x25022e43	1.1291377e-16
8	0xa9194e2b	-3.4040624e-14
9	0x3ccfee4c	0.025382183
10	0x3d84df79	0.064879365
11	0x1bf23545	4.0069966e-22
12	0xb9736bb6	-0.00023214411
13	0x3d4d68b8	0.050148696
14	0x22eceadd	6.42166e-18
15	0xbb040349	-0.002014356

model._encoder_embeddings.4.0.bias f4 [16]
0	0x39ae3a7d	0.00033231443
1	0x3d76dea3	0.060270917
2	0x3e911cbd	0.28342238
3	0x3e8e0d5b	0.27744564
4	0xbea5a1eb	-0.32350096
5	0x8ef3bcfc	-6.008611e-30
6	0xb9fbd1eb	-0.00048030852
7	0xa63c5417	-6.5339566e-16
8	0xabe4de8a	-1.6262141e-12
9	0xbb424085	-0.0029640507
10	0xbbbf9f2a	-0.0058478313
11	0x9cf926dc	-1.6487483e-21
12	0xbad764a8	-0.0016433196
13	0x3e15c697	0.14626537
14	0xa4852217	-5.7737306e-17
15	0x3e81fbaa	0.25387317

model._encoder_embeddings.5.0.weight f4 [16, 1]
0	0x3dec9a36	0.11552851
1	0xb94137f0	-0.00018426753
2	0x9dcb89b9	-5.3876054e-21
3	0x3d11bfb6	0.03558322
4	0x3d27ee71	0.04099888
5	0xba90b3cc	-0.0011039912
6	0x3723d441	9.764976e-06
7	0x3d2e355c	0.042531356
8	0xbe5d8beb	-0.21635406
9	0x3dec18b3	0.115281485
10	0x3c673106	0.014110809
11	0x3c90d269	0.017678456
12	0x1338a64d	2.3306058e-27
13	0x2f04f283	1.2091488e-10
14	0x3c30e0ca	0.010795781
15	0x3ca98649	0.020693915

model._encoder_embeddings.5.0.bias f4 [16]
0	0xbbe4d396	-0.006983231
1	0xba19e341	-0.000587035
2	0xa3cc917a	-2.2179336e-17
3	0x3c9edd3e	0.019392606
4	0x3ddb9a4c	0.10722789
5	0x3eedb923	0.4643031
6	0xb928fca1	-0.0001611584
7	0xbb95873e	-0.0045632413
8	0xbe335e8f	-0.1751654
9	0xbe18567b	-0.1487674
10	0x3c156f9d	0.009120849
11	0xbb5dd8f1	-0.003385123
12	0x95acb458	-6.975478e-26
13	0xb02fb1be	-6.3917216e-10
14	0xbb8f1edd	-0.004367693
15	0x3eb752ee	0.35805458

model._encoder_embeddings.6.0.weight f4 [16, 1]
0	0x3f18341d	0.5945452
1	0x01598afe	3.9956327e-38
2	0x3f306551	0.68904597
3	0x8204cf81	-9.757379e-38
4	0xbec3b3fc	-0.38223255
5	0x82bf5249	-2.8112157e-37
6	0xbdef698f	-0.116900556
7	0x3d805a5a	0.06267233
8	0x82fc51ba	-3.707498e-37
9	0x3f1d5572	0.61458504
10	0x826eed7b	-1.7553632e-37
11	0x824526ee	-1.4484446e-37
12	0x3f01d68c	0.50718
13	0xbd397e7a	-0.045286633
14	0x3e89e209	0.26930264
15	0x832443d2	-4.8273122e-37

model._encoder_embeddings.6.0.bias f4 [16]
0	0xbe300594	-0.17189628
1	0x82cb1d13	-2.9844857e-37
2	0xbe96116d	-0.2931017
3	0x82161326	-1.1025755e-37
4	0x3f25c2c9	0.64750344
5	0x82e9a92d	-3.4333375e-37
6	0x3defc138	0.117067754
7	0x3eae97cd	0.3410019
8	0x830fc61c	-4.225134e-37
9	0x3f1be763	0.60899943
10	0x82810744	-1.8959017e-37
11	0x822f51ca	-1.2880442e-37
12	0x3efbcde0	0.49180508
13	0x3e9523e1	0.29128936
14	0x3ebfe926	0.37482566
15	0x8347697e	-5.8601943e-37

model.encoder_module.convs.0.m_net_list.0.weights.weight f4 [256, 21]
0	0x3dce8957	0.10084789
1	0x3c93bd40	0.018034577
2	0xbd985709	-0.07438476
3	0xbdd8050c	-0.105478376
4	0xbd2c131e	-0.04201042
5	0x3da5329a	0.08066292
6	0x3d324624	0.043523923
7	0x830e5c1e	-4.1835795e-37
8	0x3ccf2cce	0.02528992
9	0xbd15ad5f	-0.036542293
10	0x83173d93	-4.4445595e-37
11	0x3da4ad0e	0.0804082
12	0x83251ecd	-4.85245e-37
13	0x3c06f0d6	0.008236131
14	0x3d0ddf1c	0.0346366
15	0x3d7ef5b1	0.06224603
16	0xbc23134d	-0.009953332
17	0xbcb4f359	-0.022088693
18	0x3d1391bd	0.03602766
19	0x3e45687c	0.19278139
20	0xbdbe46c0	-0.09290838
21	0x3f19c0cc	0.6005981
22	0x3c675f76	0.014121881
23	0x3e1ccb4a	0.15311924
24	0x3e17ff8e	0.1484358
25	0x3d587458	0.05284533
26	0x3e4556a0	0.19271326
27	0xbdb5a38f	-0.08869087
28	0x83bdb81d	-1.1150692e-36
29	0xbdee6c65	-0.11641768
30	0xbe29cc6d	-0.16581888
31	0x83bcd64a	-1.1098845e-36
32	0x3c3ec784	0.011644248
33	0x83be4dab	-1.1185028e-36
34	0x3a05b3c9	0.00051003374
35	0xbc339125	-0.010959898
36	0xbdcfa8d1	-0.10139621
37	0xbe0e2bee	-0.13883945
38	0x3b6ec79e	0.00364349
39	0x3dd2c097	0.1029064
40	0x3e0b8204	0.13623816
41	0xbd6c57be	-0.057700865
42	0xbe4148c5	-0.18875416
43	0xbe32b4ca	-0.17451778
44	0x3e04244b	0.1290447
45	0xbcd5e84c	-0.026111744
46	0xbc898331	-0.01678619
47	0x3e6c5ee5	0.23083074
48	0xbe274a10	-0.16336846
49	0x8349842c	-5.9220317e-37
50	0x3e1a1598	0.150473
51	0x3e3dbebc	0.1852979
52	0x83497c76	-5.9211465e-37
53	0x3cf8ed7f	0.030386684
54	0x834e552e	-6.063574e-37
55	0x3da55a0e	0.08073817
56	0x3d49b2ee	0.049242906
57	0xbe4e150e	-0.20125219
58	0xbe0a151d	-0.13484617
59	0x3d191563	0.03737391
60	0xbd3d0b5f	-0.046153422
61	0xbd665169	-0.056229983
62	0xbce5ff12	-0.028075729
63	0xbe1da7f1	-0.15396096
64	0xbe598ff3	-0.21246319
65	0xbdb52c9e	-0.08846401
66	0x3da1c0d5	0.07898108
67	0x3ce5af5b	0.028037718
68	0xbe0f3b03	-0.13987355
69	0xbce2b9f3	-0.027676558
70	0x8336a90a	-5.367904e-37
71	0xbe0c7014	-0.1371463
72	0x3e9b2820	0.3030405
73	0x833c3b6a	-5.531644e-37
74	0x3dfb1656	0.122601196
75	0x83334601	-5.2683733e-37
76	0xbdc66a4f	-0.096882455
77	0xbdadeb33	-0.08492126
78	0x3e3b73a9	0.1830584
79	0x3d1fa877	0.03897902
80	0x3d42a71e	0.047522657
81	0xbce60bb6	-0.028081756
82	0x3d86fca0	0.06591153
83	0x3df3fc9a	0.11913414
84	0xbd82205e	-0.0635383
85	0x3c088736	0.008333018
86	0x3e00adae	0.12566254
87	0xbd1d16b0	-0.038351715
88	0x3d38872e	0.045050792
89	0xbd9556c7	-0.07291942
90	0x3d40a4fe	0.04703235
91	0x029802c9	2.2335991e-37
92	0x3d70f3e5	0.058826346
93	0x3d3455e7	0.044027235
94	0x02a4edaa	2.4234047e-37
95	0xbb2b39eb	-0.002612705
96	0x02be672c	2.7977209e-37
97	0xbb7ade01	-0.0038279297
98	0xbad325a4	-0.001610924
99	0x3d256df7	0.040388074
100	0xbd18ad5b	-0.0372747
101	0xbe45fe5c	-0.19335312
102	0xbbe85b3f	-0.0070909555
103	0xbdcf4831	-0.10121191
104	0x3e0c8d2a	0.13725725
105	0xbe2a9cb8	-0.16661346
106	0x3e9f725a	0.3114193
107	0x3de4f086	0.11178689
108	0xbd8881d2	-0.06665386
109	0xbd085079	-0.03327987
110	0xbe1e1d48	-0.15440857
111	0xbd2849a5	-0.041085858
112	0x83971ef8	-8.882092e-37
113	0x3db7f265	0.0898178
114	0xbcd5d82e	-0.02610406
115	0x83971c9f	-8.881553e-37
116	0x3cc674a5	0.024225542
117	0x839f657d	-9.368481e-37
118	0x3c07471f	0.008256703
119	0x3c8f9d24	0.017530985
120	0xbd2984c6	-0.04138639
121	0xbcd47b25	-0.025937626
122	0xbdb759e4	-0.08952692
123	0x3befa246	0.0073130457
124	0xbcf396bb	-0.02973496
125	0x3d231810	0.03981787
126	0x3dcc9701	0.09989739
127	0x3db1b57a	0.08677192
128	0x3d6b8729	0.057501946
129	0xbcd96e91	-0.02654198
130	0xbca1a5c7	-0.01973237
131	0x3e861a6f	0.26192042
132	0x3d988456	0.07447116
133	0x02d7dc65	3.171791e-37
134	0x3d23e6b4	0.040014938
135	0xbe117245	-0.14203747
136	0x02dc89d0	3.2405195e-37
137	0xbd0500f3	-0.03247161
138	0x02bf730a	2.8130957e-37
139	0xbcee6ab7	-0.02910362
140	0xbcb8e12f	-0.022568313
141	0xbd069faf	-0.03286713
142	0x3da4893f	0.0803399
143	0xbd2864ad	-0.041111637
144	0xbb20ce52	-0.002453704
145	0x3c9755d9	0.018473553
146	0xbd53616e	-0.051606588
147	0xbd36ea4c	-0.044657037
148	0xbd98e9f3	-0.07466497
149	0x3d8c7084	0.06857398
150	0xbd874d42	-0.06606533
151	0xbcb69cb1	-0.022291513
152	0xbe143718	-0.14474142
153	0x3dcdb08b	0.100434385
154	0x83042a39	-3.8839783e-37
155	0x3d488391	0.048953597
156	0xbec13d5f	-0.37742135
157	0x8308e059	-4.0224346e-37
158	0x3b65ca79	0.003506331
159	0x8310e76d	-4.258346e-37
160	0xbd8ce91f	-0.06880402
161	0x3d679cfb	0.056546193
162	0x3d01c35d	0.031680454
163	0xbd022851	-0.03177673
164	0xbd9a4178	-0.075320184
165	0xbbc54890	-0.006020613
166	0xbd62ae11	-0.055341784
167	0xbc9ce586	-0.019152414
168	0xbd8b261d	-0.06794379
169	0xbda7905f	-0.081818335
170	0x37375bb4	1.0929001e-05
171	0x3e55882a	0.20852724
172	0x379bea49	1.8586537e-05
173	0xbc4c64f2	-0.012475239
174	0x37375bb4	1.0929001e-05
175	0xbc1ec067	-0.009689427
176	0xbe3d3d5a	-0.18480435
177	0x3790f874	1.7281833e-05
178	0x3db2e36e	0.08734785
179	0x379bea53	1.8586556e-05
180	0xbd93234f	-0.07184469
181	0x3d57c397	0.052676763
182	0x379bea4d	1.8586545e-05
183	0xbd4fff68	-0.050780684
184	0x379bea4b	1.8586541e-05
185	0x0227e78a	1.2335671e-37
186	0x373549d8	1.0805634e-05
187	0x8070ee88	-1.0371144e-38
188	0x81db6653	-8.059472e-38
189	0x3f441f46	0.7661022
190	0xbdf089ae	-0.1174501
191	0x318ef543	4.160627e-09
192	0x3e71801a	0.23584023
193	0xb7ca4a9d	-2.4115021e-05
194	0xbe8bf0ed	-0.2733225
195	0x318ef543	4.160627e-09
196	0x3e60e37c	0.21961778
197	0xbd0d4ba2	-0.034495957
198	0x3435889b	1.6906635e-07
199	0x3e939305	0.28823105
200	0xb7ca5130	-2.4118082e-05
201	0x3f5a1c80	0.8519974
202	0xbd4c3b47	-0.04986122
203	0xb7ca4d40	-2.4116249e-05
204	0xbdda4e13	-0.10659423
205	0xb7ca4c77	-2.4115883e-05
206	0x8203bb92	-9.67819e-38
207	0xb71999c1	-9.155309e-06
208	0x01303d6e	3.2370168e-38
209	0x820b7216	-1.0244848e-37
210	0x3cff5133	0.031166648
211	0x3c616ed5	0.013759335
212	0x34e83b51	4.3256526e-07
213	0xbc9af6af	-0.018916456
214	0xb8604dbe	-5.3478165e-05
215	0x3e1d097f	0.15335654
216	0x34e83b51	4.3256526e-07
217	0x3e534fd8	0.20635927
218	0x3dcc71ae	0.0998262
219	0x3571e4a9	9.011224e-07
220	0x3db28505	0.08716778
221	0xb8604d51	-5.347777e-05
222	0x3d10fac1	0.035395388
223	0xbcc844a1	-0.024446787
224	0xb8604d20	-5.347759e-05
225	0xbe2e7d42	-0.1703997
226	0xb8604d81	-5.3477943e-05
227	0x0161dddc	4.148515e-38
228	0xb7d21c6f	-2.5047191e-05
229	0x021db168	1.1585451e-37
230	0x018de9c7	5.2130674e-38
231	0xbdc7ad3f	-0.09749841
232	0xbdd0b42c	-0.10190615
233	0x3a1b767c	0.00059304363
234	0xbc6d3f9b	-0.014480497
235	0x3826f89c	3.980902e-05
236	0x3dc0ae86	0.09408288
237	0x3a1b767c	0.00059304363
238	0x3d73354a	0.059376992
239	0x3da8b6aa	0.082379654
240	0x39f2086c	0.00046164112
241	0x3cbe32e6	0.02321763
242	0x3826f893	3.9808987e-05
243	0x3da42582	0.080149665
244	0xbd65ddb5	-0.05611964
245	0x3826f887	3.9808943e-05
246	0xbdb3a1e2	-0.08771111
247	0x3826f89b	3.9809016e-05
248	0x023d63fd	1.3914222e-37
249	0x37f78757	2.9507717e-05
250	0x00d408f4	1.9472337e-38
251	0x806b7ea8	-9.871834e-39
252	0x3db80e20	0.08987069
253	0x3dd1af88	0.10238558
254	0xb50e8dbc	-5.3105373e-07
255	0x3d30fb0f	0.043208178

model.encoder_module.convs.0.m_net_list.0.bias.weight f4 [8, 21]
0	0xbe054376	-0.13014016
1	0x3e089115	0.13336594
2	0xbd8fe598	-0.070262134
3	0xbd36810b	-0.04455666
4	0xbe314d8d	-0.1731474
5	0x3e0e2592	0.1388152
6	0xbbdd183e	-0.0067472747
7	0x3e0a4a35	0.1350487
8	0x3e10ac7e	0.141283
9	0x3db1dce2	0.08684708
10	0xbdad499f	-0.08461308
11	0x3d8cc57e	0.06873606
12	0x3b394efc	0.0028275838
13	0xbce977b4	-0.028499462
14	0x3dfe0c4b	0.124046884
15	0xbd7080bc	-0.05871652
16	0x3e3858f7	0.18002687
17	0xbc49e65c	-0.012322988
18	0x3db56545	0.08857206
19	0xbdd9d0ae	-0.106355056
20	0x3dc30a2e	0.09523426
21	0x3d6774a3	0.056507718
22	0x3deb8808	0.11500555
23	0xbd3d3802	-0.04619599
24	0xbe0329c5	-0.12808903
25	0xbd99dc32	-0.07512702
26	0x3dbb445f	0.091439
27	0xbdbcf638	-0.0922665
28	0xbe39a3b6	-0.18128857
29	0xbe1f6907	-0.15567409
30	0xbdc44f7a	-0.095854715
31	0xbdd9a1ff	-0.106266014
32	0xbdcf4c41	-0.10121966
33	0xbe834575	-0.2563893
34	0xbcb8d932	-0.022564504
35	0xbda10c4d	-0.07863674
36	0xbdbeadfe	-0.0931053
37	0xbde0f9ac	-0.10985121
38	0xbdfe692a	-0.12422402
39	0xbd83e22b	-0.064396225
40	0x3da9feff	0.0830059
41	0xbdb837d9	-0.08995027
42	0x3dbdb9a2	0.09263922
43	0xbd85f31c	-0.0654051
44	0xbd69d952	-0.05709202
45	0x3e219898	0.15780866
46	0x3d7ace0a	0.06123165
47	0xbd46ee5b	-0.048567157
48	0xbe6768bf	-0.22598551
49	0xbd8f72d0	-0.070043206
50	0x3e28534f	0.1643803
51	0xbaae6ce9	-0.0013307604
52	0xbd5b541c	-0.05354701
53	0xbdab0739	-0.08350987
54	0x3ce071db	0.02739804
55	0xbe2f8d6b	-0.1714379
56	0x3d93b4fd	0.07212255
57	0x3c937576	0.018000346
58	0x3d9ad795	0.0756065
59	0x3d1c1b73	0.038112115
60	0xbe09a3a8	-0.13441336
61	0x3d856602	0.06513597
62	0xbd4f9126	-0.050675534
63	0xbd6e681c	-0.058204755
64	0xbdd4a5e0	-0.10383201
65	0xbd52ff07	-0.051512744
66	0xbe131c42	-0.14366248
67	0xbddb594a	-0.1071039
68	0x3df111d0	0.117709756
69	0x3e0c28ef	0.1368749
70	0x3e3538a5	0.1769739
71	0xbb845793	-0.00403876
72	0x3d25d44c	0.040485665
73	0xbe165cf0	-0.1468389
74	0xbe46342b	-0.19355838
75	0xbdb69791	-0.08915628
76	0x3cf9a93e	0.030476209
77	0x3e5536c8	0.20821679
78	0xbd8a21d4	-0.067447335
79	0xbdb6c533	-0.089243315
80	0x3e2e4f67	0.17022477
81	0xbb1b233b	-0.0023672122
82	0xbe0ba286	-0.13636217
83	0x3d932207	0.071842246
84	0xbda0dc28	-0.078544915
85	0xbdfcfce0	-0.123529196
86	0xbdd4f032	-0.10397376
87	0x3dc13430	0.09433782
88	0x3e271fb9	0.16320695
89	0xbdafba72	-0.085804835
90	0x3d58fe25	0.052976746
91	0x3d96568d	0.07340727
92	0x3dc166bd	0.09443424
93	0x3b814787	0.0039452943
94	0xbca5ba1f	-0.020230351
95	0x3d8997b0	0.06718385
96	0xbd67ccc0	-0.05659175
97	0xbd3e5b4f	-0.046473797
98	0x3e2e07b1	0.16995122
99	0xbdb904ac	-0.09034094
100	0x3d866e8e	0.065640554
101	0xbe5d7ccd	-0.21629639
102	0xbdf7f3bf	-0.12107038
103	0xbe3f9959	-0.18710841
104	0xbdeb707b	-0.11496063
105	0xbeca6b9b	-0.3953522
106	0x3d2f674f	0.042823132
107	0xbd05cfd4	-0.032668903
108	0x3b6a49a6	0.0035749464
109	0x3da72629	0.08161575
110	0xbfb4174b	-1.4069608
111	0xbd9d7b98	-0.07689589
112	0x3de428eb	0.11140617
113	0x3d32d10f	0.043656405
114	0x3e15dea4	0.14635712
115	0x3d945025	0.07241849
116	0xbd171f33	-0.03689499
117	0xbef038a4	-0.46918213
118	0x3e0e70e0	0.13910246
119	0xbe05671f	-0.13027619
120	0xbc05aa32	-0.0081582535
121	0x3dfddf50	0.12396109
122	0xbdbca9be	-0.09212063
123	0xbd766d5a	-0.06016288
124	0xbc8950d5	-0.016762177
125	0x3c55a46b	0.013039689
126	0xbd1f1de0	-0.03884685
127	0xbd5a2f3e	-0.05326771
128	0x3ce048b4	0.027378418
129	0xbe1ac45d	-0.15113969
130	0x3e2e6ec5	0.17034443
131	0xbd0bb0fa	-0.034104325
132	0x3c97d8fe	0.018536087
133	0xbca4db09	-0.020123975
134	0xbdd7e706	-0.10542111
135	0xbd41e1f5	-0.04733463
136	0x3da5a811	0.08088697
137	0x3d4eaa45	0.05045535
138	0x3de4d810	0.11174023
139	0x3d821aa1	0.06352735
140	0xbe362ca2	-0.17790464
141	0xbdbf3243	-0.093357585
142	0xbce8c87b	-0.028415909
143	0xbde98a4c	-0.11403331
144	0x3d671368	0.05641499
145	0x3e45d1ea	0.19318357
146	0x3da88d57	0.082300834
147	0xbe235b24	-0.15952736
148	0x3d2e4491	0.04254586
149	0xbe1d370d	-0.15353031
150	0xbe1d862c	-0.15383214
151	0x3defc1a8	0.11706859
152	0x3dddbf79	0.10827536
153	0xbd4cf045	-0.050033826
154	0x3aa670c3	0.00126984
155	0xbe42bf65	-0.19018324
156	0xbfa5f2b4	-1.2964692
157	0x3dee4b22	0.11635424
158	0xbdbed9c4	-0.09318879
159	0x3d2449ff	0.04010963
160	0xbe309531	-0.17244412
161	0x3e43575f	0.19076298
162	0x3cc225a1	0.023699583
163	0xbe130993	-0.14359121
164	0xbdf8624b	-0.12128123
165	0x3cc4615e	0.02397221
166	0x3da64985	0.081194915
167	0x3e2192c4	0.15778643

model.decoder_module.convs.0.m_net_list.0.weights.weight f4 [64, 21]
0	0x3da070c1	0.07834006
1	0xb824195e	-3.9124272e-05
2	0xbd1a8a22	-0.03772939
3	0xbad20587	-0.0016023376
4	0x3ba7c103	0.0051194443
5	0x3da97523	0.08274295
6	0x3cb4c8ea	0.02206846
7	0xbe1e2f87	-0.15447818
8	0xbd962172	-0.07330598
9	0xbdc9e9ca	-0.09859045
10	0x3e1b1932	0.1514633
11	0x3c8acb8e	0.016942766
12	0xbd576c0c	-0.052593276
13	0x3da04c1e	0.07827018
14	0xbcb211d6	-0.02173702
15	0xbe0e5153	-0.1389821
16	0x3d93e616	0.0722162
17	0xbaf890e0	-0.0018964075
18	0x3cd7d3d8	0.026346132
19	0xbaf8ea79	-0.0018990777
20	0xb6c775db	-5.9443823e-06
21	0xbd673f29	-0.05645672
22	0x38cea219	9.8530385e-05
23	0xbe3d704e	-0.18499872
24	0xba489c52	-0.0007652688
25	0x3e77c728	0.24197066
26	0x3d5ca380	0.053866863
27	0x3e3ef4bb	0.18648045
28	0x3cd25a9c	0.025677972
29	0xba489c70	-0.00076527055
30	0xbd085a4a	-0.03328923
31	0x3c9eab40	0.019368768
32	0x3c7732e5	0.015087818
33	0xbb21966d	-0.002465631
34	0xba489c4c	-0.00076526846
35	0xbe017d8e	-0.12645552
36	0x3ace725f	0.0015750638
37	0xbdfb5786	-0.12272553
38	0xbb056f8b	-0.0020360674
39	0x3e024cf9	0.12724675
40	0xbb056f8f	-0.0020360684
41	0x3c9ece61	0.019385519
42	0x3bb1e541	0.0054289405
43	0x3a8797aa	0.0010344882
44	0x3de2430a	0.11047943
45	0xbcc2f58e	-0.02379873
46	0x3b4f3fe6	0.003162378
47	0x3d11fb6e	0.035640173
48	0xbddf73d4	-0.10910764
49	0xbe1f40b0	-0.1555202
50	0x3cd38c3a	0.025823701
51	0xbe1b5c79	-0.15171994
52	0x3e2530d5	0.16131909
53	0xbc62d0d9	-0.0138437385
54	0xbde31446	-0.11087851
55	0xbce59969	-0.028027253
56	0x3b920d21	0.0044571315
57	0x3ac7ed74	0.0015253262
58	0xba607f4e	-0.0008563892
59	0xba8d2a5c	-0.001077007
60	0xbbe306f7	-0.0069283205
61	0xba9e48ef	-0.0012076179
62	0xbc96d1ab	-0.018410524
63	0x058aef54	1.3065373e-35
64	0x3ca3b719	0.019984769
65	0xbcabb52e	-0.020960417
66	0xbdb84f91	-0.08999551
67	0x3b3d9f70	0.0028934143
68	0x3d97f7e8	0.07420331
69	0x3ca890dd	0.020576889
70	0x3da772dd	0.08176205
71	0x3e46cdb8	0.19414413
72	0xbc280e0e	-0.010257257
73	0xbda7afb1	-0.08187807
74	0x3b3d9f47	0.0028934048
75	0x3dd2cda9	0.10293133
76	0xbe0ab306	-0.13544855
77	0x3b3d9f6e	0.0028934139
78	0xb51266b8	-5.4538714e-07
79	0x3b3d9f40	0.0028934032
80	0xba0ce9d3	-0.00053754187
81	0x3c50d5ae	0.012746258
82	0x3b7e402f	0.003879558
83	0x3d05738a	0.03258089
84	0x3a30a719	0.00067387667
85	0xb8f517f7	-0.00011686974
86	0xbcb19206	-0.021676075
87	0x3cb92086	0.022598516
88	0xbae4bcd8	-0.0017451299
89	0x3d34a03f	0.044098135
90	0x3c9af223	0.018914288
91	0x3e4f97d1	0.20272757
92	0x3d72e33b	0.059298735
93	0x3d7babbb	0.06144307
94	0xbe4ea33e	-0.2017946
95	0xbad7bf3d	-0.0016460192
96	0x3de971b6	0.11398642
97	0xbd922488	-0.07135874
98	0xbae6fc26	-0.0017622754
99	0x3c2266af	0.009912177
100	0xbad9b6f7	-0.0016610314
101	0x39993245	0.00029219888
102	0xbc529061	-0.012851805
103	0x399a5722	0.00029438088
104	0x3c7b0c01	0.015322686
105	0x3122c7cd	2.3687676e-09
106	0x3c49060b	0.012269507
107	0x3df19b26	0.1179717
108	0xbd616853	-0.055031132
109	0xbc517d92	-0.012786286
110	0x3d3cc4c7	0.0460861
111	0xbdfbf946	-0.123034045
112	0xbde72a2d	-0.11287341
113	0x3c12031b	0.008911873
114	0x3d2058db	0.03914724
115	0x3de8460b	0.11341485
116	0x3adef209	0.0017009388
117	0x3d256f33	0.04038925
118	0xbbb44b15	-0.0055021145
119	0xbd1e8084	-0.03869678
120	0x3d1e71a7	0.038682606
121	0xbc15c22e	-0.009140534
122	0xba908a4f	-0.0011027547
123	0x3b99dcd6	0.004695515
124	0x3c00fabe	0.007872282
125	0xbda044d1	-0.07825626
126	0x3d0c8531	0.03430671
127	0xb972d17e	-0.0002315696
128	0xbdaf9b45	-0.08574537
129	0xba137bc4	-0.00056260475
130	0x3b81eca8	0.003964979
131	0x3dd5f1a0	0.10446477
132	0x3db2a856	0.08723514
133	0xbc22ea22	-0.009943517
134	0xba15f4fe	-0.00057204056
135	0x3d732827	0.059364464
136	0x3bcc006c	0.006225636
137	0x3b81ecaf	0.0039649825
138	0xbd6ac11f	-0.05731308
139	0xba129e53	-0.000559305
140	0x3b81ecad	0.0039649815
141	0x3b8d1c02	0.0043063173
142	0x3b81ecab	0.0039649806
143	0x3bf7ed8d	0.00756616
144	0x3b7ceed2	0.0038594496
145	0x3bf7eda3	0.0075661703
146	0xb8ff5e07	-0.000121768615
147	0xbd019088	-0.031631976
148	0xbabb881d	-0.0014307533
149	0xbde1cc2e	-0.11025272
150	0xbe75ec16	-0.24015841
151	0x3d70a013	0.05874641
152	0xbba90ea3	-0.0051592155
153	0x3de21e60	0.1104095
154	0x3dc932d8	0.09824151
155	0x3e2d40e0	0.16919279
156	0x3d3d4210	0.04620558
157	0xbdaee1cf	-0.08539163
158	0xbe59ba31	-0.21262433
159	0xbd565ce3	-0.052334677
160	0x3da3265c	0.07966301
161	0x3da1e9a5	0.07905892
162	0x3d360048	0.044433862
163	0x3cd7cac9	0.026341813
164	0xbc224ae9	-0.009905555
165	0xbe110487	-0.14161883
166	0xbc9acc71	-0.018896313
167	0xbd99af13	-0.07504096
168	0x3e2d75f5	0.16939528
169	0xbe9d7c5e	-0.30758947
170	0xbddc98ea	-0.107713535
171	0x3db6d284	0.089268714
172	0x3e3ef630	0.186486
173	0xbf12a3df	-0.572813
174	0x3e0aa7c0	0.13540554
175	0x3e5c2fd1	0.21502616
176	0x3dd964e2	0.10614945
177	0xbda616b3	-0.08109798
178	0x3da0221c	0.07819006
179	0xbe274735	-0.16335757
180	0x3dfa582f	0.12223851
181	0xbe4c2495	-0.1993583
182	0xbdf28ab1	-0.118428595
183	0x3be49902	0.0069762478
184	0x3da90ec6	0.08254771
185	0xba8c6bc1	-0.0010713266
186	0xbd4b9b86	-0.049708866
187	0xba8cea83	-0.0010751042
188	0xbaa96997	-0.0012925145
189	0x3e796d04	0.24357992
190	0xbd7ce9e5	-0.061746497
191	0xbce36f85	-0.027763138
192	0x3a4334b7	0.0007446515
193	0x3cd74879	0.026279675
194	0xbf2de5fb	-0.6792905
195	0x3ce61845	0.028087744
196	0xbdca4512	-0.09876455
197	0x3a4334b2	0.0007446512
198	0xbe07d70b	-0.13265626
199	0xbdc45ad2	-0.09587635
200	0xbc970b3f	-0.01843798
201	0x3e01d6ff	0.12679671
202	0x3a4334aa	0.0007446507
203	0xbdc19d43	-0.094538234
204	0x3862eb8e	5.4101976e-05
205	0x3dc7d834	0.09758034
206	0x3b51e2e0	0.0032026097
207	0xbd6b06a5	-0.057379384
208	0x3b51e2e2	0.0032026102
209	0xbcdefc9a	-0.02722006
210	0x3a383172	0.0007026411
211	0x3e79c4d2	0.24391487
212	0xbd703046	-0.058639787
213	0x3d127731	0.0357582
214	0x3b5f9c88	0.00341204
215	0xbd0670ef	-0.032822546
216	0x3d724264	0.059145346
217	0x3d9aaa41	0.075520046
218	0xbd574874	-0.05255933
219	0x3d37a4d0	0.04483491
220	0xbd84e1c5	-0.064883746
221	0xbc3d53e4	-0.011555646
222	0xbf03e7a0	-0.51525307
223	0x3b7da3ef	0.0038702448
224	0x3c04e742	0.008111777
225	0xbc98377b	-0.018581143
226	0x3b63693e	0.003470018
227	0x3b2b4072	0.0026130942
228	0xbbf653e9	-0.007517327
229	0x3aa6d318	0.0012727706
230	0xbb33adba	-0.0027416782
231	0x859c816a	-1.4717709e-35
232	0xbea82410	-0.32840014
233	0xbe36e8cf	-0.17862247
234	0x3df8b50a	0.121439055
235	0xbb53f7e0	-0.003234379
236	0x3ea954f0	0.33072615
237	0x3e36d287	0.17853747
238	0x3e778ae8	0.24174082
239	0x3db2932f	0.08719479
240	0x3d64a484	0.055820957
241	0xbd9b18da	-0.075730994
242	0xbb53ce55	-0.0032319028
243	0xbcc01dd1	-0.023451718
244	0xbe362323	-0.17786841
245	0xbb53dda0	-0.0032328144
246	0xbca6d233	-0.020363903
247	0xbb53e67d	-0.0032333427
248	0xba1757c1	-0.0005773269
249	0x3cc98fd9	0.024604725
250	0xba1f00d6	-0.0006065493
251	0xbd820c3e	-0.06349991
252	0xb8426554	-4.6347574e-05
253	0x3e8d733b	0.27626976
254	0x3c50bbc4	0.012740079
255	0xbdd6d9a5	-0.10490731

model.decoder_module.convs.0.m_net_list.0.bias.weight f4 [8, 21]
0	0xbe32efd5	-0.17474301
1	0xba972170	-0.0011530351
2	0xbec812ab	-0.39076743
3	0x3d9be13a	0.07611318
4	0x3ddb9d55	0.10723368
5	0xbd0d110a	-0.034440078
6	0xbf0c86ed	-0.5489338
7	0xbdf9a8e0	-0.121904135
8	0xbe83d343	-0.25747117
9	0x3f2e54c4	0.6809809
10	0x3cdecbbd	0.02719676
11	0x3d856ece	0.06515275
12	0xbd9b9fad	-0.07598815
13	0x3ddc614e	0.10760747
14	0x3dbdf926	0.09276037
15	0x3c700c67	0.014651394
16	0xbc58ccbe	-0.013232408
17	0xbb7b5e5d	-0.0038355805
18	0x3ed37637	0.41301128
19	0xbb7b56b7	-0.0038351247
20	0xbbc11055	-0.0058918395
21	0x3e16bfe1	0.14721633
22	0x3d3c9ecc	0.046049878
23	0x3b911520	0.004427567
24	0xbc6c2538	-0.0144131705
25	0xbec4a2ff	-0.38405606
26	0xbd954309	-0.072881766
27	0xbd82cc75	-0.06386653
28	0x3d8c87c6	0.06861834
29	0xbc6c253d	-0.014413175
30	0x3c5f5aa1	0.013632447
31	0xbdd7fdf8	-0.105464876
32	0xbdf5e7fb	-0.120071374
33	0xbdc31949	-0.09526307
34	0xbc6c253d	-0.014413175
35	0xbe7ce4d5	-0.24696667
36	0xbc921f17	-0.01783709
37	0xbe87ba51	-0.26509336
38	0xbb0280fb	-0.0019913304
39	0xbdc5cc96	-0.09658162
40	0xbb0280c3	-0.0019913174
41	0xbd02fd1d	-0.03197967
42	0xbc25369e	-0.0100838225
43	0x3d4bab82	0.04972411
44	0xbdd1f4ef	-0.102517955
45	0xbea5c41b	-0.3237618
46	0xbd47cb5d	-0.048777927
47	0x3f096535	0.53670055
48	0x3e164ae0	0.14677
49	0x3d35fead	0.04443233
50	0xbe9e9f7d	-0.30981055
51	0x3e25ad34	0.16179353
52	0x3bb11cd6	0.005405049
53	0xbd4200a1	-0.04736388
54	0xbced2619	-0.02894883
55	0xbe2509e8	-0.1611706
56	0xbd26fe41	-0.04076982
57	0x3e85dd80	0.26145554
58	0xbd80ca3b	-0.062885724
59	0xbbc0f285	-0.0058882856
60	0xbd6d2865	-0.05789985
61	0xbbc9f399	-0.0061630723
62	0xbd480bad	-0.04883926
63	0x8a500b32	-1.0016941e-32
64	0xbf133422	-0.57501423
65	0xbc1e93f1	-0.009678827
66	0x3e44f913	0.1923564
67	0xbb465f55	-0.0030269225
68	0xbcb07c2e	-0.021543588
69	0xbcddde13	-0.027083432
70	0xbe66a5e5	-0.22524221
71	0xbe1243ba	-0.14283648
72	0x3e8c9e66	0.27464598
73	0xbed08908	-0.40729547
74	0xbb46a70d	-0.0030311972
75	0xbea580ea	-0.32324916
76	0x3df429ca	0.11922033
77	0xbb47434c	-0.0030405102
78	0xbe0e1506	-0.13875207
79	0xbb46b225	-0.0030318585
80	0x39e5c6b0	0.00043826317
81	0xbe927da9	-0.28611496
82	0x39065fa2	0.00012814862
83	0xbe407de6	-0.18798026
84	0xbc76cd54	-0.0150636025
85	0xbcdc3db4	-0.026884891
86	0xbd0e25fa	-0.034704186
87	0xbee4a519	-0.4465721
88	0xbc82560e	-0.015910175
89	0x3d9715ef	0.073772304
90	0x3d863d34	0.06554642
91	0x3d8aca0e	0.0677682
92	0xbf060437	-0.5235018
93	0xbd87baf5	-0.06627456
94	0x3c083dae	0.008315487
95	0xbc85a3db	-0.016313484
96	0xbdeccd92	-0.11562647
97	0xbed654ba	-0.41861516
98	0xbc851bb0	-0.016248554
99	0xbf1d99c0	-0.6156273
100	0xbc88d9aa	-0.016705353
101	0xbabaef57	-0.0014262003
102	0xbdf023de	-0.11725591
103	0xbabaf02f	-0.0014262254
104	0xbdc6a706	-0.09699826
105	0xb4a9f1e4	-3.1654702e-07
106	0xbf06eb89	-0.5270315
107	0xbe4c58a2	-0.19955686
108	0x3e5e3f64	0.21703869
109	0xbe976013	-0.29565486
110	0x3ed724a4	0.42020142
111	0x3ca16749	0.01970257
112	0xbe2bbafa	-0.16770545
113	0xbdb63c5a	-0.0889823
114	0xbe2c79dc	-0.1684336
115	0x3d93800c	0.072021574
116	0xbe9db35e	-0.3080091
117	0x3e23ff49	0.16015352
118	0x3e7738c3	0.24142747
119	0xbea388bd	-0.3194026
120	0xbe3d782c	-0.18502873
121	0xbeaaca18	-0.3335731
122	0xbd436085	-0.04769947
123	0x3f3c5659	0.73569256
124	0xbdeba5d9	-0.11506242
125	0xbe4a655e	-0.19765231
126	0x3e2fa722	0.171536
127	0xbe54330e	-0.20722601
128	0xbe50f785	-0.20406921
129	0xbaa9fc37	-0.0012968843
130	0xbc62b2d4	-0.013836581
131	0x3ec1d116	0.37854832
132	0xbe51c255	-0.20484288
133	0x3d3d116f	0.046159204
134	0xbaab5e7e	-0.0013074426
135	0x3e083fed	0.13305636
136	0x3e86e158	0.263438
137	0xbc62b2d6	-0.013836583
138	0x3eaec846	0.34137172
139	0xbaaa2319	-0.0012980431
140	0xbc62b2d6	-0.013836583
141	0xbe1a421f	-0.15064286
142	0xbc62b2d4	-0.013836581
143	0xbcd5cbfd	-0.026098246
144	0xbd577380	-0.052600384
145	0xbcd5ca40	-0.026097417
146	0xbda058b0	-0.07829416
147	0xbe137093	-0.14398412
148	0xbe26b527	-0.16280042
149	0x3c8aad07	0.016928209
150	0xbec91119	-0.39270857
151	0x3e3f74b3	0.18696861
152	0xbda77c8a	-0.08178051
153	0x3c086de3	0.00832698
154	0xbeac781b	-0.33685383
155	0xbe87022d	-0.26368847
156	0x3ccd1e7e	0.025038954
157	0xbecba509	-0.3977435
158	0xbe3fb17a	-0.18720046
159	0xbe650535	-0.22365268
160	0xbda70671	-0.081555255
161	0xbd95456a	-0.0728863
162	0xbead4060	-0.33838177
163	0x3da55f1d	0.08074782
164	0xbe34194c	-0.17587775
165	0x3ea82f3e	0.32848543
166	0xbeb3b0bc	-0.35095775
167	0xbec7c89f	-0.3902025

model.decoder_module.convs.1.m_net_list.0.weights.weight f4 [128, 21]
0	0x3f1d8cda	0.6154305
1	0x3bd8f08c	0.0066204723
2	0xbe2c0fbf	-0.16802882
3	0xbd7bb877	-0.061455216
4	0x3dee9316	0.11649148
5	0xbeb27fdf	-0.34863183
6	0xbe280768	-0.16409075
7	0xbe47ee95	-0.19524606
8	0xbe622ee8	-0.22088206
9	0x3ebfb877	0.37445423
10	0x3d7b1fac	0.0613095
11	0x3e113120	0.14178896
12	0xbf0781cb	-0.52932423
13	0xbe797336	-0.24360356
14	0x39425173	0.00018531624
15	0x3db0bb23	0.086294435
16	0xbe6c38ec	-0.23068589
17	0xbada2eab	-0.0016645988
18	0xbe01380b	-0.12619035
19	0xbada2eb3	-0.0016645998
20	0xbac286e2	-0.0014841224
21	0xbee15eac	-0.4401754
22	0xbc4f05c8	-0.012635656
23	0x3e056048	0.1302501
24	0x3e1cc64b	0.15310018
25	0xbded59e1	-0.11589409
26	0x3e42bc2a	0.19017091
27	0x3dcab759	0.09898252
28	0xbe48823f	-0.19580935
29	0x3d2e4fbb	0.042556506
30	0xbdbf76cc	-0.093488306
31	0xbea30218	-0.31837535
32	0x3e32be20	0.1745534
33	0xbe92fcfc	-0.28708637
34	0xbb85150c	-0.004061347
35	0xbe550007	-0.20800792
36	0x3ccb2f05	0.024802694
37	0xbe346844	-0.17617899
38	0x3ad78200	0.0016441941
39	0xbd8830e6	-0.06649952
40	0x3ad78204	0.0016441946
41	0x3abfed7b	0.0014642918
42	0xbf38a56a	-0.721274
43	0x3cd4e75d	0.025989229
44	0xbd07941e	-0.03310024
45	0xbe2a8ae2	-0.16654542
46	0x3d2aaed8	0.04167065
47	0x3dcc2d64	0.09969595
48	0xbd90942a	-0.0705951
49	0xbc9f91d9	-0.019478725
50	0x3e0b2b4e	0.13590738
51	0x3e9ea788	0.3098719
52	0x3e07db2e	0.13267204
53	0xbcb27f98	-0.021789357
54	0x3ec21531	0.37906793
55	0xbd7a9e59	-0.06118617
56	0xbd6e52ba	-0.058184363
57	0xbdc7e1d4	-0.0975987
58	0xbe183662	-0.14864495
59	0x3ada3c3c	0.0016650031
60	0x3dc07c50	0.09398711
61	0x3ada3c36	0.0016650024
62	0x3ac298a9	0.0014846522
63	0x3ee6ae36	0.45054787
64	0x3e1ac617	0.15114628
65	0xbe314f0d	-0.17315312
66	0x3d450b4c	0.048106477
67	0xbcd00d8a	-0.02539708
68	0xbeb2db3c	-0.34932888
69	0xbda171b5	-0.07883016
70	0x3e9d3167	0.30701753
71	0x3e0b3c94	0.13597327
72	0xbdca7519	-0.09885616
73	0x3e61b989	0.22043432
74	0x3e027d7f	0.12743185
75	0x3f0322a0	0.5122471
76	0x3e362660	0.17788076
77	0x3e1f12c7	0.15534507
78	0x3d69ae5f	0.05705106
79	0x3e1a3074	0.15057546
80	0x3ad8e086	0.0016546405
81	0xbdab2ec1	-0.08358527
82	0x3ad8e089	0.0016546409
83	0x3ac122b6	0.0014735076
84	0x3f23c669	0.63974625
85	0xbe33841a	-0.17530861
86	0x3e17b89f	0.14816521
87	0xbd9ae89e	-0.075638995
88	0x3dcc68eb	0.09980949
89	0x3e2b195f	0.16708897
90	0xbc3ebf7a	-0.011642331
91	0xbe3cc7ce	-0.18435594
92	0x3d2807bd	0.041023005
93	0x3d4b3c93	0.049618315
94	0xbdee3615	-0.11631409
95	0x3dea828e	0.114506826
96	0xbea4b48b	-0.32168993
97	0xbdf8717b	-0.1213102
98	0x3d047c9f	0.03234541
99	0x3c5edb29	0.013602057
100	0x3de958b7	0.11393874
101	0xbadaadc0	-0.0016683862
102	0x3e91e60f	0.28495833
103	0xbadaadc2	-0.0016683864
104	0xbac2ee07	-0.0014871963
105	0xbf13f029	-0.5778833
106	0x3e92e4c0	0.28690147
107	0xbd20c4d4	-0.03925021
108	0x3e040ff2	0.12896708
109	0xbe382b5f	-0.17985295
110	0xbe518f1b	-0.20464747
111	0xbdb25643	-0.08707859
112	0xbd07fe1a	-0.033201315
113	0xbe23ea59	-0.16007365
114	0xbce3b0dd	-0.027794296
115	0x3e962eb3	0.29332504
116	0xbe531e30	-0.20616984
117	0x3e398c23	0.18119864
118	0x3e025bb1	0.1273029
119	0xbd8418db	-0.06450053
120	0xbe9255cf	-0.28581092
121	0x3db34f4d	0.0875536
122	0x3ad79fc5	0.0016450813
123	0x3da0d699	0.07853431
124	0x3ad79fc5	0.0016450813
125	0x3ac01a1a	0.0014656216
126	0x3f1dbc97	0.6161589
127	0x3ce1c2ab	0.027558645
128	0x3e4313ed	0.1905057
129	0xbda957a2	-0.08268668
130	0x3e8ab7de	0.27093405
131	0x3cf2cba5	0.02963812
132	0x3e0b8825	0.13626154
133	0x3e0cc30c	0.1374628
134	0xbe2d5be9	-0.16929592
135	0xbe27fd3e	-0.16405198
136	0x3e4fb501	0.20283891
137	0xbdde156c	-0.1084393
138	0x3f10dff6	0.5659174
139	0x3dbec5c5	0.09315065
140	0xbd97faad	-0.074208595
141	0xbd649cb5	-0.05581351
142	0x3e6ef14a	0.23334232
143	0x3ad4293c	0.0016186605
144	0x3e8cba44	0.2748586
145	0x3ad42934	0.0016186596
146	0x3abc9c39	0.001438982
147	0x3ee52d43	0.44761094
148	0x3e83158a	0.2560237
149	0xbdefa8cd	-0.11702118
150	0x3e42d4e2	0.19026521
151	0x3d4062a6	0.04696908
152	0x3d3550d0	0.044266522
153	0x3ce94950	0.028477341
154	0x3db39594	0.08768764
155	0xbe183b49	-0.14866365
156	0xbe9c9320	-0.30580997
157	0xbc00efdc	-0.007869687
158	0xbe1c54fe	-0.15266797
159	0xbf0ab4b7	-0.54182
160	0x3dd6f300	0.10495567
161	0xbd44333e	-0.04790043
162	0x3d32f321	0.043688897
163	0x3e2f2544	0.1710406
164	0x3ad6a515	0.0016376103
165	0x3e1fff2f	0.15624689
166	0x3ad6a511	0.0016376098
167	0x3abf0e09	0.0014576326
168	0x3ec60ea9	0.3868306
169	0x3e416113	0.18884687
170	0x3be42340	0.00696221
171	0xbc39db1f	-0.011343746
172	0xbe136c29	-0.14396729
173	0xbe884032	-0.26611477
174	0xbe7ef5eb	-0.24898498
175	0x3d667f71	0.05627388
176	0xbc39db32	-0.011343764
177	0x3e21c1b7	0.15796553
178	0x3e5675c2	0.20943359
179	0x3e304b65	0.1721626
180	0x3d3e8f74	0.046523526
181	0xbc39db25	-0.011343752
182	0x3ddb376e	0.10703932
183	0xbc45e814	-0.0120792575
184	0xbe08e3e7	-0.13368188
185	0xb7ca82f0	-2.4141249e-05
186	0xbe05649d	-0.13026662
187	0xb7ca82f0	-2.4141249e-05
188	0x3a8efa18	0.0010908274
189	0xbeb37b95	-0.35055223
190	0xbd9a130b	-0.075231634
191	0x3e707bd1	0.23484732
192	0xbd2c0607	-0.041997936
193	0x3bca75d3	0.0061785965
194	0x3ca45e6d	0.020064557
195	0x3e0351ae	0.12824127
196	0x3e1038da	0.14084187
197	0xbd2c05fa	-0.041997887
198	0x3da5a994	0.08088985
199	0xbcf843c4	-0.03030575
200	0x3d2ac52d	0.041691948
201	0x3e33c32e	0.17554924
202	0xbd2c060b	-0.04199795
203	0x3deb79dd	0.11497853
204	0xbd2bd0fa	-0.041947342
205	0xbe3a80fb	-0.18213265
206	0x38b4fc74	8.630092e-05
207	0xbe38911e	-0.18024108
208	0x38b4fc74	8.630092e-05
209	0xbaa6f6b9	-0.0012738324
210	0xbebcaa3e	-0.36848634
211	0x3d14b561	0.03630579
212	0x3d9cfa84	0.076649696
213	0x3d1ff4e6	0.039051913
214	0xbe36d8e9	-0.17856182
215	0x3ea6b19b	0.32557377
216	0xbc3fad5b	-0.011699046
217	0xbe050cca	-0.1299316
218	0x3d1ff4f0	0.03905195
219	0xbe657ecf	-0.22411655
220	0xbe7f92f6	-0.24958405
221	0x3d89cbfc	0.0672836
222	0xbe8eb5f6	-0.278732
223	0x3d1ff4ef	0.039051946
224	0x3dec5df2	0.11541356
225	0x3d20440d	0.0391274
226	0xbdd4aa00	-0.103839874
227	0x3808f060	3.2648793e-05
228	0xbd0430f5	-0.03227325
229	0x3808f060	3.2648793e-05
230	0xba93908b	-0.0011258287
231	0x3f12487c	0.5714185
232	0xbdc42db0	-0.09579027
233	0xbcec63ad	-0.028856123
234	0x3d20b030	0.039230525
235	0xbe249cd6	-0.16075453
236	0x3d8eb7dc	0.06968662
237	0xbd26e4ca	-0.040745534
238	0xbd7e52a1	-0.06209052
239	0x3d20b02f	0.03923052
240	0xbece3b0d	-0.40279427
241	0xbea3393a	-0.31879598
242	0x3a19da0b	0.0005868978
243	0xbba7d6e1	-0.005122051
244	0x3d20b02f	0.03923052
245	0x3e1ed92e	0.15512535
246	0x3d20f0d5	0.039292175
247	0x3d99eeee	0.07516275
248	0x3867f438	5.530214e-05
249	0xbe17bb8f	-0.14817642
250	0x3867f438	5.530214e-05
251	0xba9b9fc7	-0.0011873179
252	0x3f366e66	0.71262205
253	0xbcd839b2	-0.026394699
254	0x3df19684	0.11796287
255	0x3d2d9c92	0.042385645

model.decoder_module.convs.1.m_net_list.0.bias.weight f4 [8, 21]
0	0x3e3d5865	0.18490751
1	0x3e1ad7a0	0.15121317
2	0x3dd6038a	0.10449894
3	0x3e8778b8	0.2645929
4	0xbea9268a	-0.33037215
5	0x3f1df957	0.6170859
6	0x3eb03f93	0.34423503
7	0xbf0ea296	-0.55716836
8	0x3cb41471	0.021982403
9	0x3fc66ea4	1.5502515
10	0xbedc024b	-0.429705
11	0xbe80a379	-0.2512472
12	0xbe77fdab	-0.2421786
13	0x3e8befa3	0.27331266
14	0xbdc4897a	-0.09596534
15	0xbbeebf80	-0.007286012
16	0xbeb1f2f4	-0.3475567
17	0x3e6f9db9	0.2340001
18	0xbea0fc78	-0.31442618
19	0x3e6a5ec5	0.22887714
20	0xbc844a3c	-0.016148679
21	0xbc1875c3	-0.00930542
22	0x3f1c3c79	0.61029774
23	0xbd54df4b	-0.05197076
24	0xbe1a9e68	-0.1509949
25	0xbd98628f	-0.074406736
26	0x3fbe95dc	1.4889483
27	0xbe1857b8	-0.14877212
28	0xbefd37b4	-0.4945656
29	0xbe88cd5e	-0.26719183
30	0xbfabc242	-1.3418658
31	0xbef2a07b	-0.47388062
32	0xbc6e2305	-0.0145347165
33	0xbec10897	-0.37701866
34	0x3dc44666	0.0958374
35	0xbdc17040	-0.09445238
36	0x3ddea041	0.1087041
37	0xbe0495c1	-0.12947752
38	0xbefe2802	-0.496399
39	0x3e19351b	0.14961664
40	0xbe62a709	-0.22134031
41	0xbc17bee3	-0.0092618195
42	0x3c8202e9	0.015870528
43	0x3e250e97	0.16118847
44	0x3d8ddb9e	0.06926654
45	0xbd0bec1f	-0.03416073
46	0x3e7800ea	0.24219099
47	0x3e071a1a	0.1319355
48	0x3e65ce55	0.2244199
49	0x3e933d4e	0.2875771
50	0xbe4adc61	-0.1981063
51	0x3f7942b6	0.9736742
52	0x3eb3b5cb	0.35099635
53	0xbde3ae71	-0.111172564
54	0x3f162775	0.58653957
55	0x3dfa8393	0.12232127
56	0x3e556858	0.20840585
57	0xbc974137	-0.018463714
58	0x3d88c966	0.06679039
59	0xbef052e3	-0.46938238
60	0x3e4e7089	0.20160116
61	0xbe1e4c5f	-0.15458821
62	0x3c8b032d	0.016969288
63	0x3cd27ffa	0.02569579
64	0xbed27035	-0.41101232
65	0xbe6f09a5	-0.23343523
66	0xbd1430b2	-0.036179252
67	0x3f243ba0	0.6415348
68	0xbf7b16f3	-0.9808189
69	0xbddc0fdf	-0.10745215
70	0x3eebfca6	0.46091193
71	0xbe4dadcc	-0.2008583
72	0xbecec648	-0.40385652
73	0x3ed8af68	0.42321324
74	0x3f6e07d8	0.9298072
75	0x3f036302	0.5132295
76	0xbe581dff	-0.21105193
77	0x3f22cd4b	0.635945
78	0xbd98b1ac	-0.07455763
79	0x3f215f37	0.6303591
80	0xbe154272	-0.14576128
81	0x3eaf0c79	0.34189203
82	0xbf064582	-0.5244981
83	0x3df68677	0.12037366
84	0x3e6a7c69	0.22899021
85	0xbdf03f39	-0.11730809
86	0x3d2cd8c8	0.042198926
87	0x3d1de6e8	0.038550287
88	0xbd6996a5	-0.05702843
89	0xbf80f547	-1.0074853
90	0xbe1fa095	-0.15588601
91	0xbed0e9a3	-0.4080325
92	0x3c769af7	0.015051595
93	0x3d37af17	0.044844713
94	0xbef025e4	-0.46903908
95	0xbeefaee7	-0.46813127
96	0xbef28e99	-0.47374418
97	0x3e2e902f	0.17047189
98	0xbec2b178	-0.38026023
99	0x3dfad885	0.12248329
100	0xbebc6f1a	-0.36803514
101	0x3e44b344	0.1920901
102	0xbc6260bc	-0.013817009
103	0x3e6b0c69	0.22953953
104	0xbd2e5b4c	-0.042567536
105	0x3dac2311	0.08405126
106	0x3d6af6c2	0.057364233
107	0xbdd2a624	-0.10285595
108	0x3edb7f7e	0.42870706
109	0xbe6e887b	-0.2329425
110	0x3ed4a406	0.4153139
111	0xbe535464	-0.20637661
112	0x3f1ebe8d	0.6200951
113	0x3f1f69f0	0.6227102
114	0xbe931c49	-0.28732517
115	0x3ef18ea2	0.47179133
116	0xbd91a2b9	-0.07111115
117	0x3edcb92d	0.43110028
118	0x3f1d9c9f	0.6156711
119	0xbdd0d7d5	-0.10197417
120	0xbe025349	-0.12727083
121	0xbd20c793	-0.03925283
122	0xbed24826	-0.4107067
123	0xbc278e95	-0.010226865
124	0xbeabc921	-0.33551887
125	0xbe105f00	-0.1409874
126	0xbd575b3d	-0.052577246
127	0x3db4ed18	0.088342845
128	0xbe2894e2	-0.16463044
129	0xbeae2333	-0.3401123
130	0xbea43ba0	-0.3207674
131	0xbef4b5d2	-0.47794968
132	0xbe2acb2c	-0.16679066
133	0x3e5cfd44	0.21580988
134	0xbeb0ea93	-0.34553966
135	0xbf763fef	-0.96191305
136	0x3eac5ae4	0.33663094
137	0xbe946bb2	-0.28988415
138	0x3e5e4b9c	0.2170853
139	0xbef38780	-0.47564316
140	0xbd25c0e0	-0.040467143
141	0xbd35bd3c	-0.04436992
142	0xbe775cc7	-0.24156485
143	0xbeddf9cd	-0.43354645
144	0xbe4ec160	-0.20190954
145	0xbeff119e	-0.49818128
146	0x3d0ceb47	0.034404065
147	0xbd3eb323	-0.046557557
148	0x3de10aa9	0.109883614
149	0xbe28cbec	-0.1648404
150	0xbf24f6fd	-0.64439374
151	0xbe2345b4	-0.15944558
152	0xbdcfbcf1	-0.101434596
153	0xbe2a8950	-0.16653943
154	0xbf1b7a68	-0.6073365
155	0xbf2fe652	-0.68710816
156	0xbf1ef595	-0.6209348
157	0xbf0c63f0	-0.5483999
158	0xbe3276b1	-0.1742809
159	0xbe4e84b8	-0.20167816
160	0xbf0e4e41	-0.55588156
161	0xbe9645d5	-0.29350153
162	0xbce87be9	-0.028379397
163	0xbd1aa1d1	-0.037751976
164	0xbecdd16e	-0.40198845
165	0xbe312840	-0.1730051
166	0xbef1320f	-0.47108504
167	0x3d2216d4	0.03957255

model.prob_model_x._decoder_embeddings.0.weight f4 [1, 8]
0	0xbf3ed62e	-0.7454556
1	0x3f21e724	0.6324332
2	0x3eff15c8	0.49821305
3	0xbf084883	-0.53235644
4	0xbf539d9e	-0.8266238
5	0x3f310d1b	0.6916062
6	0xbee16519	-0.44022444
7	0xbf245498	-0.6419158

model.prob_model_x._decoder_embeddings.1.weight f4 [2, 8]
0	0x3e10a846	0.14126691
1	0xbd19dfa3	-0.037566792
2	0xbe0e9050	-0.13922238
3	0x3d933018	0.071869075
4	0x3a346b19	0.0006882414
5	0x3bd58676	0.006516273
6	0xbde3a104	-0.11114696
7	0xbe86d9f9	-0.26338175
8	0xbfb29351	-1.3951207
9	0xbfde2add	-1.7356831
10	0xbea2caac	-0.3179525
11	0x3fcdd382	1.6080172
12	0x3f7de516	0.9917768
13	0xbf8fe798	-1.1242552
14	0x3f9767f1	1.1828595
15	0xbc8db139	-0.01729642

model.prob_model_x._decoder_embeddings.2.weight f4 [2, 8]
0	0x3b25de2f	0.0025309434
1	0xbac3bf2f	-0.0014934296
2	0xbb438f2b	-0.0029839973
3	0xbe62aeb9	-0.22136964
4	0xbdcb2895	-0.0991985
5	0x3e1dfa9c	0.15427631
6	0x3cefd9d0	0.029278666
7	0x3d9f3bd1	0.07775081
8	0xbfa2cd74	-1.2718949
9	0x3f6f85bd	0.93563443
10	0xbf73ea1b	-0.9527909
11	0x3f4fa15e	0.811056
12	0x3e3c1398	0.1836685
13	0x3f0b7c82	0.5448686
14	0x3fb5408e	1.4160326
15	0x3f725e2c	0.94674945

model.prob_model_x._decoder_embeddings.3.weight f4 [1, 8]
0	0x3eae66fb	0.34062943
1	0x3f20ff5c	0.6288965
2	0xbf197ad1	-0.5995303
3	0xbf21eab0	-0.6324873
4	0x3f044141	0.5166207
5	0xbf5f8831	-0.87317187
6	0xbda34da3	-0.079737924
7	0x3ee3891c	0.44440544

model.prob_model_x._decoder_embeddings.4.weight f4 [2, 8]
0	0xbc399909	-0.01132799
1	0xbe500465	-0.20314176
2	0x3e1cc4bb	0.15309422
3	0x3e854906	0.26032275
4	0x3de1749e	0.11008571
5	0x3bffc15f	0.007805034
6	0xbd4992db	-0.049212318
7	0xbbf3bebd	-0.0074385093
8	0xbf4d274d	-0.80138093
9	0x3eb3d45c	0.35122955
10	0x3f28427c	0.6572645
11	0x3f689d37	0.9086489
12	0xbe7fa8c5	-0.24966724
13	0xbf6436c4	-0.89146066
14	0x3f738d50	0.951375
15	0x3f74def8	0.95652723

model.prob_model_x._decoder_embeddings.5.weight f4 [2, 8]
0	0xbd0be734	-0.03415604
1	0xbda8aa68	-0.082356274
2	0x3e293a2b	0.16526096
3	0xb99aa5df	-0.00029496753
4	0x3b894b1b	0.0041898615
5	0x3e77874e	0.24172708
6	0x3b371d67	0.002794111
7	0x3dbb92aa	0.09158833
8	0x3f4d8aea	0.8029009
9	0x3e895cd0	0.26828623
10	0xbf20ade6	-0.6276535
11	0xbf6b7046	-0.9196819
12	0x3e9b39ab	0.30317435
13	0x3f13d342	0.5774423
14	0x3ebe253d	0.37137786
15	0x3f5a7afa	0.853439

model.prob_model_x._decoder_embeddings.6.weight f4 [1, 8]
0	0x3ee990bf	0.45618245
1	0xbf3ccae4	-0.73747087
2	0xbf012b7f	-0.50456995
3	0xbf1d1f9c	-0.6137636
4	0x3ed0c522	0.407754
5	0xbf48bc9d	-0.784128
6	0xbf8d09e7	-1.1018647
7	0xbf58c0b8	-0.84669065

exp_avg f4 [16, 1]
0	0xb458b63f	-2.0182868e-07
1	0xb3ac7c3a	-8.031971e-08
2	0x80000519	-1.829e-42
3	0x80000018	-3.4e-44
4	0xb48323dc	-2.4426743e-07
5	0x00000038	7.8e-44
6	0x3074b732	8.902702e-10
7	0x80000156	-4.79e-43
8	0x80000dd7	-4.965e-42
9	0x00000069	1.47e-43
10	0x80000154	-4.76e-43
11	0x9548ab86	-4.0524986e-26
12	0x3b851f63	0.0040625795
13	0x3b941420	0.0045190006
14	0x3c1f35e2	0.0097174365
15	0x80000085	-1.86e-43

exp_avg_sq f4 [16, 1]
0	0x2f487d5e	1.8234433e-10
1	0x2bcdcc0b	1.4622759e-12
2	0x18a3d19e	4.234617e-24
3	0x0bd31891	8.131121e-32
4	0x2f34645e	1.6406562e-10
5	0x0c9a9723	2.381842e-31
6	0x2599eb71	2.670081e-16
7	0x13f02944	6.062521e-27
8	0x1b8a3cc0	2.2869444e-22
9	0x0b75785f	4.727584e-32
10	0x13ea1995	5.909513e-27
11	0x20bf4ba3	3.240671e-19
12	0x3db027ac	0.08601317
13	0x3f2a083b	0.6641881
14	0x3fcacc46	1.5843589
15	0x109b0994	6.115148e-29

exp_avg f4 [16]
0	0x3e3005a1	0.17189647
1	0xbe6edcaa	-0.23326364
2	0x80000812	-2.895e-42
3	0x80001709	-8.263e-42
4	0x3bf75375	0.0075477907
5	0x800002ea	-1.045e-42
6	0xb08438df	-9.620428e-10
7	0x80000157	-4.8e-43
8	0xb07c003f	-9.1677416e-10
9	0x80000786	-2.699e-42
10	0x800001da	-6.64e-43
11	0x95e540c1	-9.259453e-26
12	0x3b851be2	0.004062162
13	0x3b940ddb	0.0045182533
14	0xbd1172ec	-0.03550999
15	0x80000084	-1.85e-43

exp_avg_sq f4 [16]
0	0x401a3ac7	2.4098375
1	0x40635b71	3.5524561
2	0x1a11dcc5	3.0163633e-23
3	0x1ce5302e	1.5166403e-21
4	0x3f13d373	0.5774452
5	0x16ad064e	2.7953636e-25
6	0x259fce08	2.7721715e-16
7	0x13f02b14	6.0626996e-27
8	0x282fe0ee	9.763225e-15
9	0x19d5040b	2.2025317e-23
10	0x1520e808	3.2494783e-26
11	0x20e5a190	3.8901022e-19
12	0x3db027ab	0.08601316
13	0x3f2a0838	0.6641879
14	0x40715cee	3.771297
15	0x109bc373	6.143786e-29

exp_avg f4 [16, 1]
0	0x3e6d2e83	0.23162274
1	0xbff805cd	-1.937677
2	0x3eda1d6c	0.42600572
3	0xbe043e27	-0.12914334
4	0x3e5cf121	0.21576358
5	0xbfaad3b6	-1.3345859
6	0x3f26001a	0.64843905
7	0xb1dabdbc	-6.3662053e-09
8	0xbf769fac	-0.9633739
9	0xbe9b7a17	-0.30366585
10	0x3f4defa7	0.80443805
11	0x3f3ad4be	0.7298087
12	0xb262bfd7	-1.3198551e-08
13	0xbf0a0425	-0.53912574
14	0xbfd25994	-1.6433587
15	0x3d9a8e98	0.07546729

exp_avg_sq f4 [16, 1]
0	0x418859da	17.043873
1	0x42da910c	109.283295
2	0x40f9f54a	7.8111925
3	0x3f48ed86	0.7848743
4	0x3fc3af03	1.5287784
5	0x430230c6	130.19052
6	0x422965a5	42.349262
7	0x2a0acfec	1.2329e-13
8	0x417bbec8	15.734077
9	0x4008d7f8	2.1381817
10	0x4167495d	14.455411
11	0x431cfefb	156.99602
12	0x2dde62c8	2.5282346e-11
13	0x404d2bbf	3.205795
14	0x41fc8728	31.565994
15	0x3c30161e	0.010747461

exp_avg f4 [16]
0	0xbe1dd72e	-0.15414116
1	0x3feb4334	1.8379884
2	0x3e52cacb	0.20585172
3	0xbd8f21bb	-0.069888555
4	0xbd669c85	-0.056301612
5	0x4045a06b	3.0879161
6	0x3e5b5c7e	0.21422002
7	0xb28559d7	-1.5524092e-08
8	0x3fba932c	1.4576163
9	0x3f159717	0.5843367
10	0xbfc30652	-1.5236304
11	0xbf4d474b	-0.8018691
12	0xb307aa4b	-3.1587017e-08
13	0x3e648551	0.22316481
14	0x3fdc89ca	1.722955
15	0x3ca5b039	0.020225631

exp_avg_sq f4 [16]
0	0x41883086	17.023693
1	0x42bce1da	94.44112
2	0x4080cf1f	4.0252833
3	0x3e19cbed	0.15019198
4	0x3fda452a	1.7052357
5	0x4338726f	184.447
6	0x41aec193	21.844519
7	0x29eb5003	1.0449976e-13
8	0x41b0b40a	22.08791
9	0x400cfe80	2.2030334
10	0x41805eb1	16.046236
11	0x4324fd92	164.99051
12	0x2d476993	1.13352825e-11
13	0x407db68b	3.9642665
14	0x41e7688e	28.926052
15	0x3a4e0d83	0.000786029

exp_avg f4 [16, 1]
0	0xbec60f0d	-0.38683358
1	0x30e18d51	1.6411069e-09
2	0xbe532fca	-0.20623699
3	0x3f4e1478	0.8049998
4	0xbec2839d	-0.37991038
5	0x3f1fdb15	0.6244367
6	0xbe4d687b	-0.20059387
7	0xbe29eeab	-0.16594951
8	0x3e6d226b	0.2315766
9	0x25a19dac	2.803589e-16
10	0xa525ba8f	-1.4374677e-16
11	0xbeb92ae8	-0.36165547
12	0xbc78c305	-0.015183215
13	0x3f5188e9	0.81849533
14	0x3dba6702	0.091016784
15	0xbd4a8c28	-0.04945007

exp_avg_sq f4 [16, 1]
0	0x409eda80	4.9641724
1	0x339e9e6d	7.386266e-08
2	0x40d717c9	6.7216535
3	0x41344e7b	11.26916
4	0x414cffc0	12.812439
5	0x4186cd95	16.850382
6	0x401604d7	2.3440454
7	0x4113ff54	9.249836
8	0x40d39093	6.611398
9	0x23706675	1.3032122e-17
10	0x236c2f9a	1.2803666e-17
11	0x408d24c1	4.4107366
12	0x3ec06e22	0.37584025
13	0x419d02b4	19.62632
14	0x3e8c799d	0.27436534
15	0x3eed5340	0.46352577

exp_avg f4 [16]
0	0xbf1eefef	-0.6208486
1	0xb1c9c343	-5.8720686e-09
2	0xbde6cff5	-0.112701334
3	0xbf221ae6	-0.63322294
4	0xbf87b2c5	-1.0601431
5	0xbf213ec1	-0.6298638
6	0xbd1dfab9	-0.038569186
7	0xbf84bcd4	-1.0370126
8	0x3de92514	0.11384025
9	0xa7befee2	-5.301194e-15
10	0xa8cf49b5	-2.3013582e-14
11	0xbe7019b5	-0.23447306
12	0xb8c035b8	-9.165279e-05
13	0x3f090094	0.5351651
14	0xbd1046d9	-0.035223816
15	0xbe99eb84	-0.30062497

exp_avg_sq f4 [16]
0	0x40ad8a69	5.423146
1	0x32fbc442	2.9309493e-08
2	0x4017d617	2.372442
3	0x40bad4e9	5.83849
4	0x4138ce82	11.550417
5	0x4191d576	18.229229
6	0x4021581c	2.5210028
7	0x414c90e3	12.785373
8	0x40aa4827	5.3213077
9	0x239d1d08	1.703427e-17
10	0x23ddc13a	2.4042703e-17
11	0x40973678	4.725399
12	0x3e05802f	0.1303718
13	0x41ef1599	29.885546
14	0x3e9f7789	0.31145886
15	0x3edbf082	0.4295693

exp_avg f4 [16, 1]
0	0x8000081a	-2.906e-42
1	0x3c46c85a	0.0121327285
2	0x80000482	-1.617e-42
3	0x00000032	7e-44
4	0xb45db614	-2.0648469e-07
5	0xba01d65f	-0.0004952903
6	0x80000015	-3e-44
7	0x00000e8a	5.216e-42
8	0x80000415	-1.464e-42
9	0xb4464721	-1.8466064e-07
10	0xbc3066a4	-0.010766659
11	0x03bbf4a8	1.10470425e-36
12	0x00000051	1.14e-43
13	0x00000023	4.9e-44
14	0x8000077f	-2.689e-42
15	0x3be36da2	0.0069405595

exp_avg_sq f4 [16, 1]
0	0x1a05a218	2.7634694e-23
1	0x3cd70a68	0.02625008
2	0x1828126e	2.1722796e-24
3	0x05953cb7	1.4034196e-35
4	0x3233b83c	1.0461061e-08
5	0x3b91f3ca	0.0044541107
6	0x0bd28df1	8.110263e-32
7	0x1baa542b	2.8178533e-22
8	0x17d2b348	1.3616189e-24
9	0x35f1b005	1.8007128e-06
10	0x3c09a40d	0.008400929
11	0x1f1ebab6	3.3612245e-20
12	0x09e372b3	5.4756125e-33
13	0x0c296897	1.305076e-31
14	0x19f06cb9	2.4859331e-23
15	0x3c6a53ef	0.014302238

exp_avg f4 [16]
0	0x800007ed	-2.843e-42
1	0x3d23dd4e	0.040005974
2	0x8000063c	-2.236e-42
3	0x80000337	-1.153e-42
4	0x3bce7e26	0.006301659
5	0xbb40a99d	-0.0029397972
6	0x8000070b	-2.527e-42
7	0x80000e99	-5.237e-42
8	0x8000060c	-2.169e-42
9	0x3c860067	0.016357614
10	0xbc306ffd	-0.010768888
11	0x8507cf5d	-6.385756e-36
12	0x800008b0	-3.116e-42
13	0x800000f0	-3.36e-43
14	0x800009be	-3.495e-42
15	0x3cf11941	0.029430987

exp_avg_sq f4 [16]
0	0x19f7d3d1	2.5624753e-23
1	0x3d804707	0.062635474
2	0x194b7a63	1.051957e-23
3	0x172c1028	5.559659e-25
4	0x3aa6cb4c	0.0012725382
5	0x3ba1e55f	0.0049406732
6	0x19a3183e	1.6863596e-23
7	0x1bab9159	2.8383506e-22
8	0x193b462d	9.681845e-24
9	0x3bad87cf	0.0052957307
10	0x3c09a407	0.008400924
11	0x1f34ad13	3.8259646e-20
12	0x1a5dbd7f	4.5854803e-23
13	0x129396fa	9.314223e-28
14	0x1a941066	6.123786e-23
15	0x3cfd2769	0.030902581

exp_avg f4 [16, 1]
0	0x373d3e96	1.127985e-05
1	0x38c0c9d3	9.192866e-05
2	0x38ed5dbf	0.00011318502
3	0x3890334b	6.876009e-05
4	0x35c740c7	1.4845508e-06
5	0x010c8d26	2.5815208e-38
6	0x364b9c16	3.0340211e-06
7	0x1b2a197a	1.4070302e-22
8	0x9f47db4f	-4.2321297e-20
9	0x373a63cc	1.11097e-05
10	0x37cd0466	2.4439953e-05
11	0x121e99ec	5.0045733e-28
12	0xaf99448c	-2.7879243e-10
13	0x376057c2	1.3371873e-05
14	0x191ae2ae	8.007391e-24
15	0x3720207b	9.544306e-06

exp_avg_sq f4 [16, 1]
0	0x3221445e	9.386978e-09
1	0x3443a4a3	1.8220685e-07
2	0x33df8ff0	1.0410429e-07
3	0x33e6e104	1.075114e-07
4	0x3028c91d	6.1403843e-10
5	0x1f1d6d30	3.333636e-20
6	0x30860b26	9.752952e-10
7	0x21bbd07e	1.27268e-18
8	0x2270fc8c	3.2659762e-18
9	0x32a3e72c	1.9080822e-08
10	0x32d289b5	2.450984e-08
11	0x20a52fd4	2.7983737e-19
12	0x2a895a19	2.4398607e-13
13	0x3386b0de	6.272033e-08
14	0x21846c33	8.973308e-19
15	0x33a286a6	7.568205e-08

exp_avg f4 [16]
0	0x36826160	3.885638e-06
1	0xb4c0046c	-3.5766004e-07
2	0xb70179eb	-7.717385e-06
3	0x379f494d	1.898841e-05
4	0x343071dd	1.64327e-07
5	0x851fcfa1	-7.5142795e-36
6	0xb55ba814	-8.1828443e-07
7	0x9c76105e	-8.1415726e-22
8	0xa2150877	-2.0197747e-18
9	0x36069a67	2.005743e-06
10	0x37224de3	9.674087e-06
11	0x9323261b	-2.059228e-27
12	0xb107a5c4	-1.9739312e-09
13	0x385abbce	5.2150157e-05
14	0x9aae0ae9	-7.198234e-23
15	0xb7ff2b7b	-3.0418616e-05

exp_avg_sq f4 [16]
0	0x32102070	8.389279e-09
1	0x346b5558	2.1917128e-07
2	0x341d8971	1.4671765e-07
3	0x3414b34a	1.3848799e-07
4	0x2ee00d02	1.0188651e-10
5	0x1f5eb0a5	4.7156446e-20
6	0x30859c13	9.721383e-10
7	0x21c1163f	1.3084077e-18
8	0x22a7f02d	4.5519737e-18
9	0x32a65cb1	1.9367095e-08
10	0x32bca890	2.1962734e-08
11	0x20a47982	2.7863088e-19
12	0x2a2d211b	1.5376972e-13
13	0x3396a908	7.015666e-08
14	0x2191a472	9.86911e-19
15	0x33c97044	9.380213e-08
