SimLoan/VACA/exper_test_10pct_noise/toy_/vaca/dgnn_elbo_8_8_16_4_normal_0.0_0.2_0.0_0.0_0_True_[BernoulliLikelihood()]_[NormalLikelihood()]_[NormalLikelihood()]_[BernoulliLikelihood()]_[NormalLikelihood()]_[NormalLikelihood()]_[BernoulliLikelihood()]_7_21/adam/0.005_0.9_0.999_1.2e-06_exp_lr_0.99/9/ckpt/last-v6.ckpt (torch, 166358 bytes, 81 tensors)

model._encoder_embeddings.0.0.weight f4 [16, 1]
000000 86 0c 2d 80 f6 36 09 be 4a e7 2c 00 aa e0 65 bd
       -4.13709e-39 -0.13399872 4.123733e-39 -0.05612246
000010 6d a3 1c 8d d5 22 85 bc 1b ee 8b be 61 78 1e b5
       -4.826793e-31 -0.01625196 -0.27330098 -5.903476e-07
000020 d6 e3 92 3d 6d c9 f0 3e 38 21 82 be e5 b2 34 b7
       0.071723625 0.47028676 -0.2541597 -1.0770488e-05
000030 89 46 c8 be 96 74 cd 3e b3 42 fc bd cd 4e 2e 3f
       -0.39116314 0.4012801 -0.12317409 0.6808899

model._encoder_embeddings.0.0.bias f4 [16]
000000 64 1f 05 bb 0b fa b3 3e 62 2d 98 82 32 3d a8 bd
       -0.00203129 0.35151705 -2.2360441e-37 -0.08214797
000010 a6 65 1b 8d 4a 70 dc 3d e6 84 06 3f 93 18 b5 ba
       -4.7885417e-31 0.10763605 0.52546537 -0.0013816528
000020 58 ea cc 3e 4a 3a 6f 3e 7c 9e 6d 3e c0 e5 6c b9
       0.4002254 0.2336208 0.23204988 -0.00022592302
000030 70 e9 c4 3e 47 5c e9 3d c9 94 f3 3d 77 3a 3a be
       0.3845935 0.11394554 0.11893613 -0.18186365

model._encoder_embeddings.1.0.weight f4 [16, 1]
000000 5c 3a 1c bf 5c 89 5c 3e 8a 60 20 3b 01 ce 2e bf
       -0.6102655 0.21536773 0.0024471604 -0.68283087
000010 19 ad 0f 3f 09 58 0b 3f 56 0a a5 3e de ca ab be
       0.561235 0.54431206 0.32234448 -0.33553213
000020 03 d0 3f bf e4 50 d2 3e 81 15 63 bf 3c 24 ae b9
       -0.74926776 0.4107734 -0.8870469 -0.00033214863
000030 cf 09 31 3f 94 ff 17 3c eb ac d0 be 66 51 86 bd
       0.6915559 0.009277243 -0.40756926 -0.06558494

model._encoder_embeddings.1.0.bias f4 [16]
000000 37 0f 5c bf 86 0b 14 3d fc 72 b0 bc 10 c0 85 bc
       -0.85960716 0.036143802 -0.021539204 -0.016326934
000010 45 96 ce 3d e7 74 c3 3a bb b1 e7 3e 18 64 2f 3f
       0.100872554 0.0014912159 0.45252785 0.68512106
000020 09 c7 00 be 7f 36 57 bf f3 cf 25 bf c9 56 86 3f
       -0.12575926 -0.8406753 -0.6477043 1.0495235
000030 8a 18 02 3f f6 01 12 bd 4b df 56 3f 00 56 35 be
       0.50818694 -0.0356464 0.8393447 -0.17708588

model._encoder_embeddings.2.0.weight f4 [16, 1]
000000 7b e6 25 3f a9 62 34 bc 33 a8 26 3f cb 20 3c 3f
       0.6480481 -0.011009851 0.651004 0.7348754
000010 4d f7 b7 3e a4 86 8b 3e 9f 62 b4 3a fb 31 1c be
       0.35930863 0.2725116 0.0013762302 -0.15253441
000020 b4 b3 37 bf 77 e8 59 3f 55 e1 3c bf de 97 8a bd
       -0.7175858 0.8512034 -0.7378133 -0.067672476
000030 e9 7f 0e 3d 5f 80 bb be 87 ab ae 3d 70 1a 39 bf
       0.034789953 -0.36621377 0.0852881 -0.72305965

model._encoder_embeddings.2.0.bias f4 [16]
000000 9d bd 73 be 5a 19 e9 3e 05 51 13 3f 4a f1 4c bf
       -0.238028 0.45527154 0.575455 -0.8005568
000010 60 23 84 bf ef 45 26 3f dc 59 11 bd 51 3b dc 3e
       -1.0323296 0.6495046 -0.035486087 0.43014005
000020 ac 8e 23 bf 99 0a 43 3f 66 99 4d 3f 50 cf 2c 3f
       -0.63889575 0.76188046 0.8031219 0.67503834
000030 fe b3 ec bd ef 5a 0a 3e 81 07 7e be 2c 32 0b be
       -0.11557768 0.13511251 -0.2480755 -0.13593358

model._encoder_embeddings.3.0.weight f4 [16, 1]
000000 fd 9d 5a 3e b3 03 ec 9d a9 15 77 3e cc c4 2e 00
       0.2134933 -6.2472505e-21 0.24129356 4.29503e-39
000010 e5 f3 9f be 30 aa 4f b6 45 8e 44 b2 67 d8 2c 80
       -0.31240764 -3.0944466e-06 -1.144105e-08 -4.118392e-39
000020 52 1a 8c 94 e4 25 25 3e 8a c6 e8 3d 38 e9 5a ab
       -1.4146769e-26 0.16127735 0.11365993 -7.7772814e-13
000030 1b 40 2a bf a7 1d 69 3f b1 ea a8 be 38 3b 87 b0
       -0.6650407 0.9106087 -0.32991555 -9.839374e-10

model._encoder_embeddings.3.0.bias f4 [16]
000000 2e 5d 80 3d b3 67 27 bb d3 64 14 3d 09 fc 6e 8e
       0.062677726 -0.0025543987 0.036228966 -2.9457115e-30
000010 d4 49 a1 3e 00 e2 f0 b9 72 d6 64 b4 ca b9 fd ab
       0.3150164 -0.0004594475 -2.131217e-07 -1.8028298e-12
000020 29 a2 58 ac 65 fd 28 be 02 10 f7 bd 18 58 cd af
       -3.0785463e-12 -0.16502912 -0.120636 -3.7351877e-10
000030 a6 27 2a 3f 70 87 0d be 04 9a a8 3e e6 50 aa b4
       0.6646675 -0.13821197 0.32930005 -3.172383e-07

model._encoder_embeddings.4.0.weight f4 [16, 1]
000000 99 29 3e be 34 ab aa 36 ff 23 53 be de 4a ee 3e
       -0.18570556 5.0863255e-06 -0.206192 0.46541494
000010 64 68 82 3e ed 8c 69 be 92 e5 b4 bd 37 82 cf 3d
       0.2547027 -0.22807665 -0.088328496 0.101322584
000020 6f 7d 6a bd be 45 2d 3e 67 17 7d be d7 aa 4a 3e
       -0.05724853 0.16921136 -0.24715959 0.19791733
000030 1c 36 9a 3e c3 2a c6 3e 48 73 8a be 34 f8 8f 3b
       0.30119407 0.387045 -0.27041078 0.004393602

model._encoder_embeddings.4.0.bias f4 [16]
000000 9a a0 43 3d 33 f3 ca b7 67 5e d9 3e 79 a3 74 bf
       0.047760583 -2.4193525e-05 0.42454836 -0.9556194
000010 2e 4d 84 bd f4 d5 72 be ea b2 3a 3e 3d 0d db 3d
       -0.06460033 -0.23714429 0.18232313 0.106958844
000020 ce e1 dc bd a2 24 20 3f c1 c3 0e bf 3e 6e 51 bd
       -0.10785256 0.625559 -0.55767447 -0.051130526
000030 c3 f2 6b bf 4c 1d 4c bf 9e 95 1a bf 22 c4 2c bc
       -0.921673 -0.79732203 -0.6038455 -0.010544809

model._encoder_embeddings.5.0.weight f4 [16, 1]
000000 b1 c2 a5 be 09 53 48 3e b8 a0 88 be 3d 02 b5 3a
       -0.323751 0.19562925 -0.2668512 0.0013809871
000010 40 69 a1 3e c5 ff 22 3f af b2 48 bf 1e b3 53 ba
       0.31525612 0.63671523 -0.7839765 -0.0008075702
000020 5a 17 12 bf b4 77 c2 3e 7a fb 7a bf a9 e4 0e 3e
       -0.5706688 0.3798195 -0.9803997 0.13954414
000030 50 a8 1c 3f 79 76 51 bd 81 b1 f3 3e 03 2a b1 be
       0.61194324 -0.051138375 0.47596362 -0.34602365

model._encoder_embeddings.5.0.bias f4 [16]
000000 24 24 c5 bc 76 ba 73 3e 4d cc 5f 3f 31 90 bb bb
       -0.024065085 0.23801598 0.87421113 -0.005723976
000010 f1 82 35 be 59 03 2f bf 7b 8a 82 be 3e 1b 21 bb
       -0.17725731 -0.68364483 -0.25496277 -0.0024582888
000020 f0 01 ad be ed ee 7d 3f ba 57 0d 3f f0 41 a0 be
       -0.3379054 0.99192697 0.55211985 -0.31300306
000030 5f 59 af be c4 d5 c7 bd 9f 07 85 be 0f f5 ad bc
       -0.34247872 -0.097575694 -0.25982377 -0.021235017

model._encoder_embeddings.6.0.weight f4 [16, 1]
000000 a6 47 2f 3f a1 84 2c 80 5e 88 11 00 73 8e 2c 80
       0.684687 -4.08834e-39 1.610123e-39 -4.091863e-39
000010 9f 5e 3c 3f 98 62 d4 3e 91 5d 33 80 84 4d 36 3e
       0.7358188 0.4148147 -4.717176e-39 0.17803007
000020 6f d2 94 3d 41 bd 50 80 99 17 e3 88 ad 75 2d 80
       0.072666995 -7.414731e-39 -1.3667613e-33 -4.174811e-39
000030 2f d0 2c 80 8b 2c a6 be 1b 41 91 bd 48 f8 61 84
       -4.115444e-39 -0.3245586 -0.07092496 -2.6562628e-36

model._encoder_embeddings.6.0.bias f4 [16]
000000 8c 1a b7 3e 48 e3 1c 80 b0 73 1c 80 e8 85 2c 80
       0.3576244 -2.652927e-39 -2.612895e-39 -4.088798e-39
000010 ac 07 89 be f1 00 51 be 63 17 0a b9 40 60 ce 3e
       -0.26763666 -0.20410515 -0.00013169418 0.40307808
000020 66 b4 27 3e 5a 2e 55 80 64 57 68 90 e9 67 0d b8
       0.1637741 -7.822645e-39 -4.5821256e-29 -3.3713794e-05
000030 15 7b 2d 80 5c 45 fc 3e e8 e7 88 3d 12 97 da 84
       -4.176751e-39 0.49271667 0.066848576 -5.139029e-36

model.encoder_module.convs.0.m_net_list.0.weights.weight f4 [256, 21]
000000 21 65 e7 af fb 6a 15 3e fc 58 4c 3e 0d 16 48 bb
       -4.2090512e-10 0.14591591 0.1995582 -0.0030530721
000010 c6 aa 51 3e 7c c6 2a bd 93 b7 f3 bd 3e a2 a0 bd
       0.20475301 -0.041693196 -0.119002484 -0.07843445
000020 fb 2e 61 be cf 4e 5a 3d 3c 77 63 bd a1 74 ec 3d
       -0.21990578 0.053297814 -0.055533633 0.11545683
000030 b0 fe 0d 3e 08 2e 17 3d 1a eb fc ba 8b 4d 86 3d
       0.13866687 0.036909133 -0.001929614 0.06557759
000040 35 92 36 be 50 5f fe 3c b0 ae 98 bd f4 d9 bc bc
       -0.17829211 0.031051308 -0.07455194 -0.023053147
000050 03 6d 50 3d a2 dd 90 21 13 d5 e1 bd 33 b9 cd bd
       0.05088521 9.816485e-19 -0.11026969 -0.100450896
000060 e2 e4 e8 3d 5f e1 30 bd e7 89 2b 3e ab f2 b4 bd
       0.11371781 -0.04318368 0.16751824 -0.08835348
000070 36 ca 17 bc a0 e6 b4 ba 4e ff 8a 3e 53 b4 fd bd
       -0.009264519 -0.0013801642 0.27147907 -0.1238791
000080 4d 15 f1 bd 09 bc ca bd 24 6f b5 bc 42 69 bf bd
       -0.11771641 -0.09899146 -0.022147723 -0.09346248
000090 9f d6 fd bd bd 46 59 3e 56 7e 56 3d c6 7a 41 3e
       -0.12394451 0.21218391 0.052366577 0.1889449
0000a0 05 4a 4f 3e d6 7d 23 3b 4d c5 b4 14 69 cb 9a 3d
       0.2024308 0.002494683 1.8253177e-26 0.07558329
0000b0 dc c2 37 be 02 15 96 bd 51 9c 87 be c3 7b 42 3e
       -0.17945427 -0.07328226 -0.26486447 0.18992524
0000c0 0c 2a 05 3e 38 6e 3d be 22 d1 b8 3d 25 8d ab 3d
       0.13004321 -0.18499076 0.09024264 0.083765306
0000d0 91 95 f0 3d af 7c 00 3e 53 cb 2e 3b 99 54 40 bd
       0.117472775 0.12547563 0.0026671484 -0.04695568
0000e0 fd 9c f6 bc f2 a9 45 3d be e0 0c bd 6e b1 50 3d
       -0.030104155 0.048257776 -0.03439402 0.05095046
0000f0 e9 bf d8 3b a3 33 71 bd d2 35 3b bd 3a c2 e9 2d
       0.0066146743 -0.058887135 -0.045705624 2.6575287e-11
000100 0f e7 ab 3c 9c 6b cc 3c ba 86 8f 3d bb d3 df bd
       0.0209842 0.024953656 0.07008119 -0.10929056
000110 ac ee 29 3d 47 25 81 3d 66 58 71 be 0b 13 a2 3c
       0.04148738 0.06305938 -0.23568878 0.019784471
000120 73 40 11 bd 17 26 e3 3d 3f 75 d6 bd a5 f8 c6 bc
       -0.035461854 0.110912494 -0.10471582 -0.024288485
000130 6f 91 f1 bd 6f c2 27 3e ec 5e 04 3e 31 a7 cb bd
       -0.117953174 0.16382764 0.12926835 -0.099439986
000140 8f 7c 3f bc f5 1b 7e 3e 7e 0b e7 bd 1b 2a cf bd
       -0.011687412 0.24815352 -0.11281489 -0.10115453
000150 0c 8e a6 26 0a da 28 39 2d 5c bc 3d 88 63 ba bd
       1.1557066e-15 0.00016102954 0.09197269 -0.09101015
000160 e4 76 3a 3e 2b 67 86 3d 7a e3 49 be 3d a3 37 3c
       0.18209416 0.065626465 -0.19715682 0.011208353
000170 bc 5b 8a bd 9d 9e 42 3e 04 c5 fe bc f4 bd 29 be
       -0.06755778 0.19005819 -0.031099804 -0.16576368
000180 89 7c 3b be 48 b3 3b be f6 de 87 bd 6d 2d e7 ba
       -0.18309225 -0.18330109 -0.06634323 -0.0017637439
000190 f2 32 cd 3c 2f ef ac bd 7d fa 12 3e 08 43 27 3e
       0.025048707 -0.08444058 0.14353366 0.16334164
0001a0 d4 cb 3c be b2 22 62 83 be d0 af bc e8 60 54 3d
       -0.1843713 -6.645526e-37 -0.02146184 0.05185023
0001b0 ae c9 30 be 28 a9 2b be 09 4b 95 bd 6b 8a b6 3d
       -0.17264435 -0.16763747 -0.072897024 0.0891312
0001c0 f0 f0 e3 3c 8d 2d 29 bd 4d 69 fa 3e 12 a9 77 bd
       0.027824849 -0.041303206 0.48908463 -0.060463972
0001d0 21 34 f3 3d a8 41 aa be 6e e9 55 3e 65 e1 ba 3c
       0.11875177 -0.33253217 0.20889828 0.022812555
0001e0 71 3f 9f 3d 16 23 64 3d e7 d6 ab 3d a3 5d 22 3d
       0.07775772 0.055697523 0.08390599 0.03964008
0001f0 d6 ce be 3d 09 55 10 be 5a ea 08 97 7d f3 c8 3d
       0.093167946 -0.14094938 -4.4239763e-25 0.09812067
000200 34 94 34 3e e4 6c 1d be 40 78 41 be b5 ff 0c be
       0.1763466 -0.1537357 -0.18893528 -0.1376942
000210 38 90 d4 bd b0 48 bd 3b 9f a0 03 3d 0b d7 ba bd
       -0.1037907 0.0057764873 0.032135602 -0.091230474
000220 22 15 37 3d d5 ce ee 3d 89 44 8c 3e db d9 78 3d
       0.04469789 0.11660544 0.27396038 0.06075464
000230 b9 0a b7 bd b0 7c fc 3d 02 d5 2b be 15 0a 1d be
       -0.08937592 0.1232847 -0.16780475 -0.15335877
000240 31 64 1d 3e f0 fc 6d bd 58 b5 b2 bd b1 07 59 9b
       0.15370251 -0.058102548 -0.08725995 -1.7952305e-22
000250 ce 79 84 3e db 4b f6 3c d8 0e 94 bd 25 92 b1 bc
       0.2587418 0.030065468 -0.07229394 -0.021676132
000260 2e bf 97 3e 4e 7d d8 bc 10 62 4e bd ee 53 ad 3d
       0.29638046 -0.026426937 -0.05038649 0.08463274
000270 61 53 b8 bd 28 1e 60 3e f8 ec 9c bd e4 60 ed 3d
       -0.09000278 0.21886504 -0.07662386 0.11590746
000280 85 c6 48 be 77 e6 10 be c9 3e 4f 3d 76 22 19 bc
       -0.19606979 -0.14150415 0.050596986 -0.009346595
000290 89 f4 ea 3d 2e d8 84 3e 48 5b e1 3d 91 67 06 3d
       0.11472423 0.25946182 0.11003739 0.032813612
0002a0 70 c3 11 be 0b 96 16 bd 96 82 2f 3e 64 4c 81 2e
       -0.1423471 -0.036764186 0.17139658 5.8798105e-11
0002b0 ec 8f 0f 3e a0 29 12 bd 80 26 af bd ee 6b 75 af
       0.14019746 -0.035684228 -0.08552265 -2.2320965e-10
0002c0 64 4c 81 2e 30 83 cd bb c2 42 95 b0 0a c7 c4 bd
       5.8798105e-11 -0.0062717423 -1.0860151e-09 -0.09608276
0002d0 3b 16 67 31 64 4c 81 2e 19 57 56 3e d9 89 b7 2f
       3.362756e-09 5.8798105e-11 0.20931663 3.3385453e-10
0002e0 bf b7 3d bd 17 84 2c 80 99 c4 49 bd de 88 2c 80
       -0.046317812 -4.088147e-39 -0.049259756 -4.08986e-39
0002f0 d1 93 24 80 a5 6f 13 3e ed 1d d2 bd ff de e2 3d
       -3.359104e-39 0.14398058 -0.10259614 0.110776894
000300 fe a6 86 2f 9f b8 1b 3e 2a ef 0d 3d 61 a4 11 be
       2.4493113e-10 0.15207146 0.034651913 -0.14222862
000310 99 cb 14 b2 fe a6 86 2f cc 35 25 3e 03 f2 00 b4
       -8.661027e-09 2.4493113e-10 0.16133803 -1.2008972e-07
000320 c9 9e 00 3e 2a 9e 52 36 fe a6 86 2f b6 b0 c9 3b
       0.12560572 3.1384502e-06 2.4493113e-10 0.006155099
000330 30 e7 7f 2f 57 e6 21 be f9 88 2c 00 09 af 95 3d
       2.3274249e-10 -0.15810524 4.089898e-39 0.07308776
000340 7d 90 2c 00 c0 dc 03 00 86 5f e9 bd 8a d2 55 3d
       4.092594e-39 3.54697e-40 -0.11395173 0.05220274
000350 bd 2e 2f bd 79 3e e9 2f 6c b8 d0 bd 0b 40 10 3b
       -0.042769182 4.2426843e-10 -0.10191426 0.0022010829
000360 6f 5b bc bd 63 02 c6 b1 79 3e e9 2f b8 a3 b8 bd
       -0.09197127 -5.7628298e-09 4.2426843e-10 -0.09015602
000370 2f 13 73 b2 c6 2a af 3d 4b 39 9c 32 79 3e e9 2f
       -1.41488234e-08 0.0855308 1.8186844e-08 4.2426843e-10
000380 ea 42 5d be 90 73 08 30 88 7b 03 3e ee 87 2c 00
       -0.21607557 4.9640736e-10 0.12840092 4.089524e-39
000390 a4 0f 6e 3e 20 82 2c 00 20 90 2c 80 d7 a1 39 3e
       0.23248154 4.087442e-39 -4.092464e-39 0.18128143
0003a0 1e 98 0b be 6d 41 6e be 1b 0f 94 2e f3 56 ff bd
       -0.13632247 -0.23267145 6.732944e-11 -0.12467756
0003b0 08 66 21 be 81 1c b6 3c a4 a3 31 b6 1b 0f 94 2e
       -0.15761578 0.022230389 -2.6470307e-06 6.732944e-11
0003c0 2a 80 37 3e 8d d8 4d b6 c1 d6 c1 3d 1c 08 b7 36
       0.17919984 -3.067343e-06 0.09464789 5.454769e-06
0003d0 1b 0f 94 2e a0 b8 4d 3e 5f 42 9a 2e f2 7a 0f 3d
       6.732944e-11 0.2008996 7.014899e-11 0.03502936
0003e0 fc 88 2c 00 6e c8 0c be c3 8a 2c 00 ee ed 03 80
       4.089903e-39 -0.13748333 4.09054e-39 -3.6086e-40
0003f0 71 d3 eb bd 58 78 8f bd a1 e8 4b be e5 24 7a 2e
       -0.115149386 -0.070053756 -0.1991296 5.6876188e-11

model.encoder_module.convs.0.m_net_list.0.bias.weight f4 [8, 21]
000000 b7 f7 7d 3d 1c 2a 06 3e e6 e3 d9 3c 9d c6 55 bd
       0.062003817 0.13102001 0.026597928 -0.052191366
000010 ce a8 06 bd 38 bb 69 bb 62 1b 54 3e 20 5f c3 3c
       -0.03287583 -0.003566457 0.2071357 0.02384907
000020 1e 09 22 be 7c 5e 01 bd 85 7c 15 be 3b f3 4d be
       -0.1582379 -0.031584248 -0.14598282 -0.20112316
000030 dd d2 ed bc 15 a2 0f be f7 22 77 bc f4 2e e4 bd
       -0.029031212 -0.14026673 -0.01508402 -0.11141768
000040 0e ff 5a be ca 60 1a be 31 20 42 3e 9c 86 41 3e
       -0.21386358 -0.15075985 0.18957593 0.18899006
000050 13 09 b4 3c a5 93 49 be 92 5a 68 be 55 2d c8 3d
       0.021976983 -0.19685228 -0.226908 0.097742714
000060 9d c0 38 bd 9b 53 c8 bd 5e 9b 28 3d 15 4c 30 3d
       -0.045105565 -0.097815715 0.041163795 0.043041307
000070 05 6d 0e be 55 c8 40 bd 25 cd 0e be ad 9f 05 3e
       -0.13908775 -0.04706605 -0.13945444 0.13049193
000080 21 e3 bd bc 28 cd 8d bd a5 ca eb bd 24 98 23 3c
       -0.023179593 -0.06923896 -0.11513261 0.009985004
000090 9c e9 39 be e5 fc c6 bb cf 01 00 be 57 8e 28 3d
       -0.18155521 -0.006072628 -0.1250069 0.04115137
0000a0 d9 36 ee 3d f9 42 4a 3d 7a 62 67 3d 33 79 d2 3d
       0.11631555 0.049380276 0.0564904 0.10277023
0000b0 97 ec 2a 3e 28 48 3f be 26 1b be 3b 40 4b 66 bc
       0.16691814 -0.18679869 0.005801576 -0.014056027
0000c0 21 3b 0b 3e ad 38 60 be 0e 6c ee 3d 61 0d 66 3d
       0.13596775 -0.2189662 0.116417035 0.056165103
0000d0 90 55 ef bd 1d d1 d7 bd bb d7 24 bd 48 c5 06 3d
       -0.116862416 -0.10537932 -0.0402448 0.032902986
0000e0 42 ca 56 bd 9e df 52 bd 4b ed 2c be 86 30 46 be
       -0.05243898 -0.05148279 -0.16887395 -0.19354448
0000f0 37 57 14 3e 1a c5 0b 3e 03 71 16 bd fc 1e 01 be
       0.14486395 0.13649407 -0.03672887 -0.12609476
000100 ee 2b 16 3d a9 67 0f 3e 85 95 cd 3d 44 cc 19 bd
       0.03666299 0.14004387 0.10038284 -0.03754832
000110 d1 c5 99 3d 05 db 13 3d f0 a1 d7 3d 0a 99 35 bd
       0.075084336 0.036097545 0.10528934 -0.044335403
000120 cd fe ef bd f2 6c 0f 3e ec 1c 13 3e 16 b0 98 3d
       -0.11718521 0.14006403 0.14366502 0.07455461
000130 dc 21 33 bd 02 f9 00 be 4e 9e 3f be d7 f9 59 bd
       -0.043733463 -0.12594989 -0.18712732 -0.05321678
000140 cd aa 5e bc f5 9d 70 be fe ef f1 3d dd 87 eb 3d
       -0.013590527 -0.23497756 0.11813353 0.11500523
000150 38 cd e9 3d 26 b4 0f 3e f5 94 22 bb 67 4e 14 be
       0.114160955 0.14033565 -0.0024808024 -0.14483033
000160 9c e8 51 3d bf 55 0e 3e 54 97 05 3e c3 36 1c 3e
       0.051247224 0.13899897 0.13046008 0.15255265
000170 4f 3b ff 3d c3 1c 8d bd e3 b0 13 be da 44 64 bd
       0.12462484 -0.068902515 -0.14422946 -0.055729724
000180 71 15 87 3d 18 91 83 bd f9 58 30 3e 6a b8 d2 bd
       0.065958865 -0.06424159 0.1722144 -0.102890804
000190 e9 ba 57 be 66 52 01 3e 3a 78 03 3e a6 3a 46 bd
       -0.21067394 0.12629089 0.12838832 -0.048395775
0001a0 53 f8 54 3d 0d 01 70 bd f3 46 fe 3b 9c d0 c9 3d
       0.051994633 -0.058594752 0.0077599226 0.09854242
0001b0 e7 4e 07 bd b6 f9 61 3d ca cb 24 3d 6a c4 54 be
       -0.03303423 0.055169784 0.04023341 -0.20778051
0001c0 5f 41 8a bd c3 a2 2f 3d 41 dd 83 bf c3 b9 93 3d
       -0.0675075 0.04287983 -1.0301896 0.072131656
0001d0 fd fb 08 be 8b 36 07 bf 60 a2 23 3e bb 5d 0b 3e
       -0.13377376 -0.528176 0.1597991 0.13609974
0001e0 cc a6 75 bd 2e 47 4a be 79 e2 4d 3e 14 46 bc 3c
       -0.059973523 -0.19753715 0.20105924 0.022982635
0001f0 e7 58 2c be 64 77 f3 3d bc 41 c2 be ce 7a 21 be
       -0.16830789 0.11888006 -0.37940776 -0.15769503
000200 d8 6b d0 bd e1 b2 14 bd e7 08 24 3e 86 49 60 bc
       -0.101768196 -0.036303405 0.16019021 -0.013689404
000210 62 12 84 3d ce 0e 90 3d 54 7e 61 3e 03 ae 08 be
       0.06448819 0.07034074 0.22020847 -0.1334763
000220 8e bd 9a bd f4 68 2e 3e 43 f9 e5 bd f0 4c 14 be
       -0.07555686 0.17032224 -0.112291835 -0.14482474
000230 18 bd 7c bc d8 fd a9 3d 36 cc 2d 3d 72 1f 03 3e
       -0.015425943 0.0830037 0.04243108 0.12804964
000240 42 3a 5e bc 5d 29 e1 ba 30 61 ce 3d 53 71 34 3a
       -0.013563694 -0.0017178465 0.10077131 0.00068833417
000250 e6 32 11 bd d5 5e d9 bd 22 32 61 3d ff 50 bd 3e
       -0.03544893 -0.10613791 0.05497945 0.36975858
000260 85 a7 b2 bf af 54 10 3d a0 7f 9e 3d 37 b8 4c 3e
       -1.3957373 0.03523701 0.07739186 0.19992147
000270 ad 03 fa 3d 8a ef 4e be af 9a d2 3d 4c 15 af bd
       0.12207732 -0.20208564 0.1028341 -0.08548984
000280 2a 20 b9 bd ea be 76 3e 7e 7c 3b bd ac a2 34 3e
       -0.09039338 0.24096265 -0.045773022 0.1764018
000290 6c d1 08 3e d5 7e 93 bf e2 2e 02 bd 92 d3 88 3d
       0.13361138 -1.1523081 -0.031782992 0.06680979

model.decoder_module.convs.0.m_net_list.0.weights.weight f4 [64, 21]
000000 1b a8 92 3c 03 7b 2f bc 41 a5 f2 3c 97 24 b8 bc
       0.017902425 -0.010710481 0.029619815 -0.022478385
000010 1c 4e 2c be e6 91 9a bc 00 b6 f5 bc 85 56 4a be
       -0.16826671 -0.018868398 -0.02999401 -0.19759567
000020 06 f6 06 3d 66 ca e7 3c 4e 83 4c 3e 0f 81 c7 3d
       0.03294947 0.028294753 0.19971964 0.09741413
000030 c3 4d 56 bb f2 30 87 bc b6 1e 84 bc 58 f9 0e 3d
       -0.0032700158 -0.016502831 -0.016127925 0.03490576
000040 c6 30 bf 3d 60 9b d0 bd 01 83 42 bb 6a 0a 59 3d
       0.09335475 -0.101858854 -0.0029680135 0.052988447
000050 01 d0 b9 3d b9 24 f1 bc b2 3f 7c bc f3 48 f3 3b
       0.09072877 -0.029436456 -0.0153960455 0.0074244677
000060 71 d0 3d 39 1f ca bd bd 71 b0 02 3e 78 b8 0a bc
       0.00018102095 -0.09267067 0.1276262 -0.008466832
000070 e2 b4 f1 bb 08 78 29 3d fe 70 94 3c c1 9b 9c 3c
       -0.0073762992 0.041374236 0.018120285 0.019117238
000080 c8 99 46 3e b0 12 b8 3d af f0 3b 3d a8 d5 b1 bd
       0.193946 0.08987939 0.04588383 -0.0868333
000090 2a ae b4 bb 17 77 6f bd 5e a6 d0 3b e1 57 26 be
       -0.005513926 -0.058463182 0.0063674888 -0.1624446
0000a0 65 09 85 3b 7a f3 00 bd b6 6c 46 bd 2b b2 25 bd
       0.004059958 -0.031482197 -0.04844352 -0.040453117
0000b0 e9 5b 73 bd 0b d9 31 bd b0 cd 36 3e 4d 5a c6 3d
       -0.059413824 -0.04341988 0.17851901 0.09685192
0000c0 23 36 ce 3b 1b 51 d3 bd e3 36 64 3c c3 64 c7 3d
       0.0062930747 -0.10318204 0.013929102 0.09736016
0000d0 e3 3c a9 3d 8c 61 21 be 16 2e c0 bd ac 87 4c 3c
       0.08263566 -0.15759867 -0.0938379 0.012483519
0000e0 1c 57 24 3e ca bb c1 bc 08 43 44 be 2a be 08 ba
       0.16048855 -0.023649115 -0.19166195 -0.0005216325
0000f0 f6 56 12 3d 6c f4 dd b9 26 3e 52 bd 47 d2 61 3c
       0.035727464 -0.00042334513 -0.0513288 0.013783044
000100 a8 b3 27 bd 92 c7 0a bd 56 76 8a bd 60 2d da 3d
       -0.040942818 -0.03388173 -0.06760852 0.10653186
000110 4b cf 97 3d af 72 d1 3c 2c 3c 2b bd ee a6 80 3b
       0.07412585 0.02556738 -0.04180543 0.0039261496
000120 08 9c fb 3d 18 bf 17 3e 54 df 32 3d 9e 9b 12 be
       0.1228562 0.1481899 0.043670014 -0.14317176
000130 7f 00 61 3e 46 65 1c be 1e 41 09 be 3e cc b1 3d
       0.21972845 -0.15273008 -0.13403746 0.08681534
000140 02 31 f6 bd 98 72 a9 bd db 74 fe 3c 07 b5 80 bc
       -0.12021066 -0.0827381 0.03106158 -0.01571132
000150 d6 5d 1a 3e fc 02 f8 3c 01 04 aa bc db 1e 77 3d
       0.15074858 0.03027486 -0.020753862 0.06033216
000160 95 e6 73 3d c0 08 76 bd 06 4d c2 3c a6 45 64 bd
       0.059546072 -0.06006694 0.023718368 -0.055730484
000170 54 87 87 3d ba 71 25 be 3a bc 82 3d e1 6a 31 be
       0.06617609 -0.16156664 0.063835576 -0.17325927
000180 67 20 d0 bd 17 3f ff bd dd 7c 47 be b5 08 40 3e
       -0.1016243 -0.12463205 -0.19481225 0.18753321
000190 0a e7 43 3e 97 2d 41 3e e9 d2 2c 3d 6e ab 37 3c
       0.19131103 0.18865047 0.042193327 0.011210306
0001a0 be 3a 33 3d 17 8a cf bd 72 98 23 ba 88 08 14 3d
       0.043757193 -0.101337604 -0.00062406727 0.03614095
0001b0 45 9a a1 bc a7 c6 11 be 62 86 3b be be 5f 0a bd
       -0.019726882 -0.14235936 -0.18312982 -0.033782713
0001c0 ea 92 22 be 95 76 19 bc 11 90 ce bd 40 83 27 3e
       -0.15876356 -0.009366651 -0.10086072 0.16358662
0001d0 b5 9a d8 bd 9b 41 0c 3d 81 93 28 bd 5c 21 8f 3c
       -0.10576383 0.034242254 -0.041156296 0.017471962
0001e0 fe c8 87 bd 10 07 d5 3d c9 1b 69 b9 89 6f 3e 3d
       -0.06630133 0.10401738 -0.00022230962 0.046493087
0001f0 2f 19 85 b9 d4 ce aa 3c db ea e8 3d 58 41 03 3c
       -0.000253865 0.020850576 0.1137292 0.008011185
000200 fd 8c e0 bc 79 1f 69 bc 15 a8 32 3e a1 e4 84 bd
       -0.027410978 -0.014228695 0.1744693 -0.0648892
000210 74 81 01 3d 3e a7 22 be 7f 75 75 3e 75 e4 e8 3c
       0.031617597 -0.1588411 0.23970602 0.02842925
000220 58 0b 00 3e 17 9a 9a 3d ec d8 41 be e3 e7 8f bd
       0.12504327 0.075489216 -0.18930405 -0.07026651
000230 f8 cb 94 bd 9d b8 60 3b e3 b7 26 be 8d 6f 50 3d
       -0.072654665 0.0034289726 -0.16281085 0.050887633
000240 80 a1 05 3e 09 c0 fe bd aa 40 0e 3e 3b b9 5d bc
       0.13049889 -0.124389715 0.13891855 -0.013532932
000250 2a 04 0f 3d 75 7b ae 3d 29 88 89 bd d1 21 9b 3d
       0.03491608 0.08519641 -0.067154236 0.07574809
000260 98 3d 3c be 31 f4 9b bd 3f 4c 14 be 06 62 45 3d
       -0.18382871 -0.07614935 -0.1448221 0.048189186
000270 04 06 05 bd 79 e7 17 3e ce 65 8a 3c e9 c8 66 bd
       -0.03247644 0.14834394 0.016894247 -0.056343947
000280 26 37 42 3d b9 4f a1 bd 3c e1 eb bc a1 48 0a bd
       0.047415875 -0.07876534 -0.028793924 -0.03376067
000290 53 2a 49 3c 38 8c 39 bc e4 27 3a 3b 8f 86 a2 3d
       0.012278157 -0.011324935 0.0028405124 0.07935821
0002a0 4b 21 06 bc 05 ba 9f 3c 88 44 af bd 01 25 37 3c
       -0.008186649 0.01949788 -0.08557993 0.011178256
0002b0 58 5c dd bc 7b 6f fe bd 0a 58 15 be e1 d8 02 3c
       -0.027021572 -0.12423607 -0.14584365 0.007986278
0002c0 a9 5b c0 bc 45 a8 5e 3f e6 75 b7 3e a8 b5 1b 3e
       -0.023481207 0.8697551 0.35832137 0.15206015
0002d0 e6 b2 35 be d7 7f 3e 3c 4f a5 9b bd d7 0b df bd
       -0.17744026 0.011627159 -0.075998895 -0.1089093
0002e0 ed 3b 32 bd ed 66 8f bc 28 a3 b5 ba 5f 76 9c bb
       -0.04351418 -0.017505134 -0.0013857828 -0.004774853
0002f0 7d 82 20 3d 46 83 4e 3d 18 cf a7 3b 70 91 53 3e
       0.039186943 0.05041816 0.005121123 0.20660949
000300 fe dc a2 bd 5e ad af bd b4 53 92 bd 9b 58 49 3e
       -0.07952307 -0.08577989 -0.07144871 0.19662707
000310 53 d1 5a bd dd 7a 3c 3d 92 f3 1c 3f ba 30 be be
       -0.053422283 0.04601561 0.6130916 -0.3714655
000320 62 4d 44 3e 66 1d ad 3e bc 69 0e 3d 4a ea 28 bd
       0.19170144 0.33811492 0.034768805 -0.04123906
000330 3c 88 9a bc 87 f0 e3 bc 74 cf 84 3a a7 8d 50 bc
       -0.01886379 -0.027824653 0.0010132627 -0.012729085
000340 b1 f6 20 3b 10 f6 5b 3d fb c1 b3 3d 07 e8 56 3d
       0.0024561102 0.05370146 0.08777233 0.052467372
000350 b3 07 af 3e 97 b9 a3 bd 5c 5a 2c bc 1b c9 25 bc
       0.34185562 -0.07994383 -0.01051959 -0.010118748
000360 d5 b8 21 3f ef 91 92 3e 97 41 41 3d 41 44 28 bf
       0.63172656 0.28626963 0.047181692 -0.6572915
000370 9d bb 89 3e 7f 50 1a 3e 0a 28 85 be f8 96 87 bd
       0.2690095 0.1506977 -0.2600711 -0.06620592
000380 5b ac 36 be e7 77 8a 3d 55 b6 07 3d cd 8e e9 3b
       -0.17839186 0.06761151 0.03313287 0.007127619
000390 be 56 1d 3e a6 c6 f9 bb 2c d7 c3 bc 9d bf 95 bd
       0.15365121 -0.0076225577 -0.023906313 -0.07311938
0003a0 7a eb 4d 3d 87 84 67 be 7e 0c 23 3e 03 bb 01 be
       0.050273396 -0.22609149 0.15922734 -0.12668996
0003b0 43 3b f7 39 75 a5 e1 3d ba 7b 14 3e f0 be 82 bd
       0.00047155665 0.110178865 0.14500323 -0.06384075
0003c0 5c 68 23 be c5 79 1d 3e 24 8c c8 3d c8 35 86 be
       -0.15957779 0.15378483 0.09792355 -0.26212907
0003d0 64 66 04 be 30 46 50 bd fa 8b 8b 3d 0a 60 f8 3d
       -0.12929684 -0.050848186 0.06813808 0.12127693
0003e0 80 e7 05 3d c3 3f 03 be dd 8c fe bd 0a fe 4c 3e
       0.03269148 -0.12817292 -0.12429211 0.20018783
0003f0 39 ab fc bb 19 65 17 bd 55 c3 c9 bd 91 72 91 3d
       -0.007710841 -0.03696165 -0.0985171 0.0710193

model.decoder_module.convs.0.m_net_list.0.bias.weight f4 [8, 21]
000000 16 7f b3 be dd f6 26 be 75 0c 96 3d 65 3b c9 3d
       -0.35057896 -0.16305108 0.07326595 0.09825782
000010 1d f4 dd bd 0c ee fc 3e 88 fd be bd a2 9d 3e bc
       -0.108375765 0.49400365 -0.09325701 -0.011634262
000020 85 f7 8c bc 25 9c 14 3e 9a 1a a2 3d 9d 86 a0 be
       -0.01720787 0.1451269 0.0791523 -0.31352702
000030 4f d5 55 3e 00 d6 88 3c b7 2b ee be af 9f 61 3e
       0.20882152 0.016703606 -0.46517727 0.2203357
000040 c9 6f 5b be 20 be df be 09 66 de 3c 37 6f 94 be
       -0.21429361 -0.4369974 0.027148264 -0.289911
000050 40 9c e7 be 44 fc 6d 3d 7a 0c bc be 54 24 d8 bd
       -0.45236397 0.058101907 -0.3672827 -0.10553804
000060 00 34 b6 3d 42 ff b6 be d5 3a 48 3e 6a b2 1e 3e
       0.08896637 -0.3574162 0.19553693 0.15497747
000070 38 a4 03 bd c4 ee 79 bd 06 15 b3 3c 28 11 a7 3b
       -0.032139033 -0.06101872 0.02186061 0.0050984807
000080 75 9a 23 bf 1e 0e be bc 4f f4 ab 3d 6e 41 1c bf
       -0.6390756 -0.023200091 0.083962075 -0.6103734
000090 f7 64 25 be e6 98 a3 be cc 5b 58 3b 44 54 ac 3f
       -0.16151796 -0.3195259 0.00330137 1.3463216
0000a0 eb a7 3b 3b a5 d8 a2 be 45 56 b9 3d 63 6a b0 be
       0.0028634022 -0.31805912 0.09049658 -0.34456167
0000b0 43 5e c2 be 9d e7 00 bf 1f 5e 2d 3c 57 67 3d be
       -0.3796254 -0.50353414 0.010581522 -0.18496452
0000c0 5a 59 e2 be 04 a8 92 be 5e 43 6c be ca 8b d4 bd
       -0.44208795 -0.2864381 -0.23072574 -0.10378225
0000d0 13 a6 e4 be 3e 66 45 3c a4 4b da be 82 4e 6b be
       -0.44657955 0.012048302 -0.42635834 -0.22979167
0000e0 ef d0 e8 3d 60 6b 57 be 9a f1 84 3e e1 1b b5 bc
       0.11367976 -0.21037054 0.25965577 -0.02210802
0000f0 b3 94 bf 3e 0f 57 98 bc 7c 49 67 be 2a 8b 35 be
       0.37418136 -0.0185962 -0.22586626 -0.17728868
000100 59 c1 29 bd da a2 ad 3e 6f 06 7b bd 84 56 21 bf
       -0.041444156 0.33913308 -0.061285432 -0.6302264
000110 94 b5 d8 3d a4 d6 c2 3e 44 75 95 be 71 eb 07 be
       0.10581508 0.38054383 -0.2919103 -0.13273408
000120 f7 c6 26 3f 72 6d c0 be d7 fc ca be 64 8a 59 be
       0.65147346 -0.375835 -0.39646026 -0.21244198
000130 b1 82 e1 be 11 bf ff be 19 a5 e2 3c ba 4e c8 be
       -0.44045022 -0.4995046 0.027666615 -0.39122564
000140 24 8f 15 bf aa 4a 21 3f 55 8f 59 be 55 23 8a be
       -0.5842154 0.63004553 -0.21246083 -0.2698008
000150 0f 0c c0 b8 0a 0a 0b 3d 99 e9 d6 be d6 95 ff 3d
       -9.1575195e-05 0.03394512 -0.41975096 0.12479751
000160 31 36 f4 bd 2e 32 f5 bd 70 ab 90 be 07 28 86 bd
       -0.11924399 -0.11972462 -0.28255796 -0.06550603
000170 f1 94 ad 3c 0a 3c 50 3f b2 8f a2 3e 8c 10 31 be
       0.021189185 0.8134161 0.31750256 -0.17291468
000180 01 5e 3b 3e a5 35 93 3c f6 c3 89 be a4 00 bd bd
       0.18297578 0.017969916 -0.2690732 -0.09228638
000190 e2 cf 1c be e6 81 87 be ba 30 41 bc ef dc 68 be
       -0.15313676 -0.26466292 -0.0117914025 -0.2274053
0001a0 ab 19 f9 be a2 b8 0c 3f 5e 84 85 3c cb cd 99 bd
       -0.48652396 0.5496923 0.01629847 -0.07509955
0001b0 44 52 66 be a3 95 96 be 5d 03 ef 3e ab 49 dd bd
       -0.2249232 -0.2941104 0.46682253 -0.10805067
0001c0 98 64 80 bd 0b 1a 45 be 9c 46 54 3d 06 cd 2d 3e
       -0.06269187 -0.19248216 0.05182515 0.16972741
0001d0 8d b9 b4 be c3 0a 60 3e 24 94 da bd c5 d7 04 bf
       -0.35297814 0.21879105 -0.10672787 -0.5189174
0001e0 69 2c 8a be 1a 80 c3 be 2f 69 96 bb 56 6c 00 bf
       -0.26987007 -0.3818367 -0.0045901756 -0.5016531
0001f0 d6 52 aa ba 13 1a a1 be e3 cd 20 bd 05 19 2b bf
       -0.0012994658 -0.31465206 -0.03925885 -0.6683505
000200 25 88 13 bf bc 04 ce bd 16 28 d9 bc bd 67 e8 3e
       -0.57629615 -0.10059497 -0.026508372 0.45391646
000210 83 08 02 bf c0 d6 92 be 91 b6 33 3d 08 4d 62 3f
       -0.5079424 -0.28679466 0.04387528 0.8839879
000220 ed 92 45 3d 5d 66 df be 6a 8f 75 3c 8e 07 82 be
       0.048235822 -0.43632784 0.014987806 -0.2539639
000230 5b 87 86 be fd 28 78 be e2 ba 8b be f3 7f f2 be
       -0.26275143 -0.24234386 -0.27291018 -0.47363243
000240 52 c9 8c be b4 f0 16 be f3 74 ad be 03 b5 61 be
       -0.27497345 -0.14740258 -0.33878288 -0.22041707
000250 be b8 9c 3e 51 15 7b bd d3 5c 8e be f2 8a 22 3d
       0.30609697 -0.061299626 -0.27805194 0.03968329
000260 50 7b 58 3e 4a 71 cb 3d a8 e9 21 be 26 37 40 bd
       0.2114079 0.099337175 -0.15811789 -0.046927594
000270 21 1b af bd b4 b6 59 bd 4e 6d 85 bb 0d f9 43 be
       -0.08550096 -0.053152755 -0.004071868 -0.19137974
000280 f1 76 dd bd 84 0c c4 3d 30 74 52 bb c4 f7 de 3b
       -0.10813702 0.095727 -0.003211271 0.0068044383
000290 f3 c4 8e be 2d 79 a1 3e 14 86 b5 be f2 aa 84 be
       -0.27884635 0.31537762 -0.35453856 -0.2591167

model.decoder_module.convs.1.m_net_list.0.weights.weight f4 [128, 21]
000000 3b 0c 88 bb 48 43 41 be 1a f3 17 3d 36 17 0a 3e
       -0.0041518486 -0.18873322 0.037097074 0.13485417
000010 13 d6 0d be 78 a7 53 3e 60 c7 3d bc 53 50 94 3e
       -0.13851194 0.20669353 -0.011583179 0.28967533
000020 3f 47 c2 3d 60 28 e3 be 04 bd 9a 3e 8e b7 6e 3d
       0.09486245 -0.4436674 0.30222332 0.05828052
000030 af 79 29 be e1 6e 03 bd 63 56 38 be 36 3d c5 bd
       -0.16550325 -0.032088164 -0.18001704 -0.09630816
000040 8f 06 7f bd b5 00 15 bd 3e 65 87 3e e1 5c 1d 3e
       -0.062262114 -0.036377627 0.2644443 0.15367462
000050 a2 d0 8a 3b 0e da 7b 3b dc bb f0 3e c7 3d 7a 3d
       0.0042362968 0.0038429531 0.47018325 0.06109407
000060 3b ee d6 3d cf a1 9e bd 75 3a 51 be 49 58 45 be
       0.104946576 -0.07745706 -0.20432456 -0.1927196
000070 5e 55 89 bb 7c a9 61 bd 47 9f d5 bd 49 8d 87 3e
       -0.0041910848 -0.055093274 -0.1043077 0.2647498
000080 ff a8 97 3c 5a 94 75 be 79 bd ee 3d 4b 80 6f bd
       0.0185132 -0.23982373 0.11657233 -0.05847196
000090 2d 5d 57 be a2 49 8a bd f3 4e f2 3d 9a a4 14 3d
       -0.21031637 -0.067523256 0.118314646 0.03628979
0000a0 1b 8c 02 bd fe 25 fb 3d ab 7e 91 bb 57 70 61 3e
       -0.031871896 0.12263106 -0.004440149 0.2201551
0000b0 de e7 2b be 88 ff 77 3d 02 f6 c6 bc ee 7b c4 be
       -0.16787669 0.060546428 -0.024287228 -0.383758
0000c0 c9 6f 04 bd d5 2d 53 bd 25 a0 de 3d 0a 93 f0 bd
       -0.03233317 -0.05155738 0.10870389 -0.117467955
0000d0 34 a2 74 3e 00 28 de bc 0b 8b c7 be 5b c6 11 be
       0.2389 -0.027118683 -0.3897327 -0.14235823
0000e0 ac f1 0a 3e 28 a4 16 be 4a ae f4 3d d6 fb 8e 3d
       0.13568753 -0.14711058 0.119473055 0.06981628
0000f0 79 54 a2 be 43 e2 d2 3d 02 46 91 bd b9 9f 86 3b
       -0.31705073 0.10297062 -0.07093431 0.004108396
000100 dd 21 38 3e 5b 49 00 bd c5 dd df bd 0d df 19 be
       0.17981668 -0.031319957 -0.10930971 -0.15026493
000110 05 71 9b bd 95 3d a5 bd df 4a 2d 3d 57 6d 40 be
       -0.07589916 -0.080683865 0.04230773 -0.1879171
000120 53 41 dc 3c d3 f5 a1 3e 1b 62 7f bd 33 9b 3b be
       0.026886618 0.31632861 -0.06234942 -0.18320923
000130 4c 82 5f 3d 78 9c ad bc 1e 88 66 3e 24 2f 2d be
       0.05456762 -0.021192774 0.22512862 -0.16912514
000140 25 ac 06 3a e4 f8 15 3e 16 cd 15 be 03 c3 80 bd
       0.0005137346 0.14645725 -0.14629015 -0.062871955
000150 06 e1 89 bb c3 d6 4c be 1f 06 0f 3e e7 63 32 3e
       -0.004207733 -0.200038 0.13967179 0.17420922
000160 8a 06 65 bc 73 a4 a0 bc dd d0 9b bd db 08 b7 3d
       -0.01397861 -0.019609665 -0.07608197 0.08937236
000170 33 36 1d bd 54 50 61 3e 5e 75 3c 3e 33 56 89 ba
       -0.038381767 0.22003299 0.18404147 -0.001047796
000180 2c 37 82 be 3d 9e 68 3e 9b 21 71 3b 5d 9c f5 bd
       -0.25432718 0.22716613 0.0036793712 -0.119927146
000190 24 70 ff 3b 17 fb 2b 3d 9f 36 51 bd ea f8 bd 3d
       0.0077953506 0.041987505 -0.05107748 0.09275992
0001a0 5f 26 e7 3d 65 58 8c bb 3c b0 2b be 0f 41 40 be
       0.112866156 -0.0042829984 -0.16766447 -0.18774818
0001b0 c9 46 39 3e dd 8c 9c bd 8a dc f0 bd b4 4a 79 be
       0.18093409 -0.07644055 -0.117608145 -0.24344903
0001c0 ca d6 1e 3e 07 42 76 3d ba 5d bc 3e 1d ee 5f 3e
       0.15511623 0.060121562 0.36790258 0.21868177
0001d0 e9 2e 49 3e e1 d1 f8 be af 36 4c 3d 8e 83 bc 39
       0.19646801 -0.48597625 0.049856838 0.0003595617
0001e0 ff bd 1e 3e 80 64 33 3e d4 4e 91 bd 61 dd b7 be
       0.15502165 0.17518806 -0.070951134 -0.35911086
0001f0 8e 00 ab 3d bc 4b 20 3e a3 48 90 bb 3b b4 05 be
       0.08349715 0.1565389 -0.00440319 -0.13057034
000200 2c 7b 34 3e d8 56 b5 bc 2f eb 56 3d 08 58 fa 3d
       0.17625111 -0.022136137 0.052470382 0.12223822
000210 b5 2b aa bc fc 15 34 3e 36 6b 4f 3e dd d6 a0 be
       -0.020772794 0.17586511 0.20255741 -0.31413928
000220 cf d4 8b 3e ca 18 82 bc 90 75 ff be 7e 75 40 be
       0.27310798 -0.015880961 -0.4989438 -0.1879482
000230 eb 91 2b 3e e2 80 7f bd d5 28 82 3d 35 4f 65 bd
       0.16754882 -0.06237877 0.06355444 -0.05598374
000240 4e 68 80 be 28 59 1a bd c1 21 e4 3c 72 33 8d bb
       -0.25079578 -0.037682682 0.027848126 -0.0043091113
000250 1c 4e ab 3d b0 d4 4c be 27 f4 93 bd 8d 09 87 bd
       0.083645076 -0.20003009 -0.07224303 -0.065936185
000260 4c ee c3 bd 37 08 4d bd 56 5f b0 bc 35 ef a6 bd
       -0.09566936 -0.050056662 -0.021529835 -0.08151094
000270 1e 90 c0 3c ff 51 95 be 23 c3 53 bd d8 07 46 3e
       0.02350622 -0.2916412 -0.05169977 0.1933893
000280 e3 a0 fa 3c c7 30 93 3c eb 3c 57 bd 63 f3 4e 3d
       0.030594295 0.017967595 -0.05254833 0.05052508
000290 6c 6a 43 3d 54 f2 84 3d 82 28 51 bd 8f f3 64 3d
       0.047708914 0.06491533 -0.051064022 0.055896338
0002a0 b3 6e 99 be e7 9a 90 bd 0c 53 41 3e 9b be a1 bd
       -0.2996727 -0.07060795 0.18879336 -0.07897683
0002b0 99 b0 05 3e 07 2f 34 bd dd c7 97 bd 3a 06 0a be
       0.13055648 -0.04399016 -0.07411168 -0.13478938
0002c0 a7 fb f5 3d 7d 09 a0 be 5b d5 cf be bb 0e b5 bd
       0.120108895 -0.3125724 -0.40592465 -0.088407
0002d0 ba d9 0b 3f ab 7d a0 3d b0 f2 09 3e 7e 4e 5e 3b
       0.546291 0.07836469 0.13471484 0.0033921297
0002e0 d5 94 39 3d 6b 2b d8 b9 9f 19 82 3e 01 12 98 bb
       0.045307953 -0.0004123108 0.25410172 -0.004640818
0002f0 19 30 59 bd e5 e2 ab 3e 65 e4 d6 3e 21 c0 44 3e
       -0.053024385 0.33571544 0.41971126 0.19213916
000300 cf 49 be 3d 00 64 dd bd 9d 62 9e bd 45 65 c1 bd
       0.092914216 -0.10810089 -0.07733653 -0.09443144
000310 1d ad dc bd dc b3 90 bd 9a 1b 30 3e cf 90 34 be
       -0.10775206 -0.070655555 0.17198029 -0.17633365
000320 93 38 13 be 14 66 74 3e fc b8 38 bc 74 5f 4f 3d
       -0.1437705 0.23867065 -0.011274572 0.05062814
000330 5d c8 79 3d ab 8d d3 bd 85 8b a9 3b af f2 ff 3d
       0.060982097 -0.103297554 0.0051741027 0.1249746
000340 dc ab 93 3b 7f 41 94 bb 3d 63 8e bd a2 41 ad 3e
       0.004506571 -0.0045244093 -0.06952522 0.33839136
000350 03 41 47 be 5b 06 ca 3d 8b 8d 75 bc b3 31 d4 bd
       -0.19458394 0.098644935 -0.01498736 -0.10361042
000360 ae 2c bc 3c 1a 11 91 be f3 5a ad bd 24 a6 cd bd
       0.022970524 -0.2833336 -0.08464613 -0.100414544
000370 1f 96 18 be c2 1a bb bb e7 fd ee 3e 46 2a 9a bb
       -0.14901017 -0.005709977 0.46678087 -0.0047047464
000380 29 d2 af bd 4c 7c 85 3e 88 42 6f 3d 1d d5 a8 bb
       -0.08585007 0.26071393 0.05841306 -0.005152358
000390 7c 44 32 3e 55 30 a5 bb 95 92 4b bc 3d a7 4f 3e
       0.17408937 -0.005041162 -0.012425085 0.2027864
0003a0 31 ce be bd 04 a4 b4 3d 20 b8 8b be 2d 41 fb 3d
       -0.09316672 0.08820346 -0.27288914 0.12268291
0003b0 c3 48 17 be 49 ed ee bd e4 f0 8a be d2 3c 0a be
       -0.1477385 -0.11666352 -0.2713691 -0.13499764
0003c0 ab 9f 37 bd 97 7e 4d be 3e 72 7e 3e 47 d1 fb 3e
       -0.044830006 -0.20067821 0.24848267 0.49183103
0003d0 9e 6e 5e be b4 94 4e 3e 8a f5 9e 3d c0 fa f5 3d
       -0.21721885 0.20173913 0.077616766 0.120107174
0003e0 27 72 a1 bb e0 23 29 bf 80 41 90 bb cb a3 db 3b
       -0.004926938 -0.66070366 -0.0044023395 0.0067028753
0003f0 63 42 ad be 04 c7 d5 bd e8 1c 99 bd a8 d4 cd 3d
       -0.33839712 -0.1043835 -0.074762166 0.100503266

model.decoder_module.convs.1.m_net_list.0.bias.weight f4 [8, 21]
000000 6c 7d a7 3c 94 00 0b be c3 6f bc 3d b0 a7 cc 3d
       0.020445548 -0.1357444 0.09201004 0.09992921
000010 bb 62 47 3e fd 17 5c 3d 5d 1f af 3c 0e 58 b4 be
       0.19471256 0.053733815 0.02137726 -0.3522343
000020 e5 72 36 3d d6 3f 8a 3b cb a0 93 be 28 e2 8e 3e
       0.044543166 0.0042190356 -0.28833613 0.2790692
000030 65 4a f7 bc 6a 9d db bc 07 9b c8 3d 7d df eb bd
       -0.030186841 -0.02680846 0.09795194 -0.115172364
000040 a8 0d cb 3e a7 96 61 3d 77 a6 8c 3d 81 80 5a 3e
       0.39658856 0.055075314 0.06867688 0.21338083
000050 95 ce 06 3e 3f 9f 4a 3d 44 27 62 bf 44 b7 1b be
       0.13164742 0.049468275 -0.88341165 -0.15206629
000060 a2 13 d1 3d 28 99 60 bc 9d cf d6 bf 2a cd 17 be
       0.10208823 -0.01370839 -1.6782109 -0.14824358
000070 64 8a c6 be 1e 56 27 3e f5 5f 7b bf 4b a6 1c be
       -0.3877746 0.16341445 -0.98193294 -0.1529781
000080 af c6 23 3d 89 71 c0 3d 6d 55 44 3e 0e 86 f4 bd
       0.0399844 0.09396655 0.19173212 -0.119396314
000090 da 37 64 be 30 f8 10 3d 97 fc bb 3d 4f 4b 15 3c
       -0.2228693 0.03539294 0.09179037 0.009112193
0000a0 cb 7d 30 bc 8b 88 60 be d5 97 59 be b6 51 d1 be
       -0.010772179 -0.21927087 -0.21249326 -0.40882653
0000b0 fd ee 23 3f b7 7c 80 be da 41 9b be dc e0 3c bf
       0.6403654 -0.2509515 -0.30323678 -0.7378061
0000c0 e1 5a 96 3e 1f a3 34 be 4d 2b 18 bf c3 00 cb 3f
       0.2936621 -0.17640351 -0.5944107 1.5859607
0000d0 ab 22 07 be 95 4d 58 bd ed 4f 96 3d 8a 36 1a bf
       -0.13196819 -0.052808363 0.073394634 -0.6023947
0000e0 d7 a8 5a bd 50 e3 a8 be 1f e6 1c 3d d7 f7 76 3e
       -0.053383674 -0.32985926 0.038305398 0.24117981
0000f0 57 67 a3 bc 1c 3d 29 3e 4c de e5 bd 11 46 15 bd
       -0.019946737 0.16527218 -0.112240404 -0.036443774
000100 f7 14 9b 3c dc b9 ef 3e e0 43 4e bf fb 63 ef be
       0.018930895 0.46821487 -0.8057232 -0.46755967
000110 3c 5e 5c 3e ed 87 4a 3e 85 70 e1 bd f0 14 3d bf
       0.21520323 0.19778414 -0.110077895 -0.73860073
000120 07 3a 46 3f e5 8c e2 bd ee ea a2 be 62 8a 49 3e
       0.7743229 -0.1106203 -0.31819862 0.19681695
000130 84 5e 82 bf f9 c7 d6 be b9 51 cc bb 5d 9b 42 be
       -1.0185094 -0.41949442 -0.006235328 -0.19004579
000140 5b 5b 16 3d fd 88 c2 be 70 04 41 3d 66 e2 14 be
       0.036708217 -0.3799514 0.047123373 -0.14539489
000150 d8 e2 bd bd c2 11 b7 3e 4f 0d c3 3e b3 d1 03 bd
       -0.09271783 0.35755736 0.3809609 -0.032182407
000160 17 b0 f7 bc c1 a8 c7 3e 38 b5 b7 3e f8 8a 83 be
       -0.030235333 0.38995937 0.35880446 -0.25691962
000170 05 2c 9a bd 70 6a 6d 3f 91 b6 86 bc 13 4b f2 bd
       -0.07527927 0.92740536 -0.016444476 -0.118307255
000180 ce 40 42 3e d5 70 b5 be f6 68 af bd 42 87 17 3c
       0.18970034 -0.35437647 -0.085649416 0.009248557
000190 9d 64 26 be 0c 7d 64 3e 64 e7 34 be d6 0e a0 bd
       -0.16249318 0.22313327 -0.17666394 -0.0781533
0001a0 1c f7 2b be 99 df 8b be 3a 91 d3 be da de 4b 3b
       -0.16793483 -0.2731903 -0.41321737 0.0031108172
0001b0 84 01 9b 3e 85 81 04 3f 69 25 21 bf e5 d1 d5 bb
       0.30274594 0.5176013 -0.6294771 -0.0065252655
0001c0 1c 8a c9 bd 6f 47 37 3e 3a e6 00 be 5b 72 da be
       -0.098407954 0.17898344 -0.12587824 -0.4266537
0001d0 d2 83 a5 3e 7a b3 99 3e ba 20 76 3d 5c 24 79 3e
       0.32327133 0.30019742 0.060089804 0.24330276
0001e0 2a 14 b3 bd 46 1d a8 3e 23 38 b1 bd 20 48 a1 3e
       -0.0874408 0.32834834 -0.08653285 0.3150034
0001f0 1c 1f 91 bc 8c d9 d9 3c 85 8f a9 bd da 2c 16 3e
       -0.01771503 0.026592992 -0.08279327 0.14665547
000200 33 f4 71 3e af 28 0e 3d 81 fd 82 be 3b dc ad 3e
       0.23628311 0.034706768 -0.25584033 0.33957085
000210 02 54 ee 3d 1f d9 e4 be ee e7 b2 3d 74 03 21 3c
       0.11637117 -0.446969 0.08735643 0.009827483
000220 1c 91 72 be 8c ca c0 3d 89 b7 b6 3d 8a d4 35 bd
       -0.23688167 0.09413633 0.08921725 -0.044392146
000230 19 1e f2 bd 62 5c df 3d 34 3d 69 bd 95 9e 68 3e
       -0.11822147 0.109062925 -0.056943133 0.22716744
000240 fa b4 70 be 88 54 d9 bd cc 6c 2f be 47 ab 17 3d
       -0.23506537 -0.10611826 -0.17131346 0.037028577
000250 64 7a a9 be 10 4b 9a 3d 0b bc 12 bd c9 70 ce 3e
       -0.3310119 0.07533848 -0.035823863 0.40320423
000260 92 35 35 bf 8b e6 cc bd d2 bc e6 3e cd ff 47 3d
       -0.70784867 -0.1000491 0.45065933 0.048827935
000270 db ac 39 bb 13 de 6c 3d 2c 92 a8 3e 01 6d a5 bd
       -0.002833179 0.057828974 0.3292402 -0.080774315
000280 39 ae e4 bb c6 ba db 3e 39 ba 11 be 81 60 be 3e
       -0.006978777 0.42915934 -0.14231195 0.37183002
000290 c0 e2 e1 bc e6 06 56 3d e1 5b b7 3d b9 bc d3 3c
       -0.027573943 0.052252673 0.089530714 0.025846826

model.prob_model_x._decoder_embeddings.0.weight f4 [1, 8]
000000 25 24 1c 3f 9d bd de be 2a 29 6a 3f 44 f2 14 bf
       0.6099265 -0.43504038 0.9146906 -0.5818217
000010 7e 17 26 3f 87 2a 36 3f fc 9e 53 3f 0b 17 3b 3f
       0.64879596 0.7115864 0.82664466 0.73082036

model.prob_model_x._decoder_embeddings.1.weight f4 [2, 8]
000000 59 b2 68 be db 9c 97 ba 18 32 a5 bb 94 1e f3 3d
       -0.22724284 -0.0011567132 -0.005041372 0.11871067
000010 b1 02 3e be 62 e8 bb bd 58 bf dd bd 32 36 80 bd
       -0.18555714 -0.09175183 -0.108275115 -0.06260337
000020 ec 8e 63 be 30 60 a7 3f 3e 77 8a 3f b4 9b e6 be
       -0.22222489 1.3076229 1.081764 -0.45040667
000030 5f 26 91 bf b7 94 93 3f cc f8 6c bf 7a 7c d4 3f
       -1.1339835 1.1529759 -0.92567134 1.6600487

model.prob_model_x._decoder_embeddings.2.weight f4 [2, 8]
000000 c7 0b 1d be d9 63 86 3b 44 06 06 bc 08 b0 88 bb
       -0.15336524 0.0041012582 -0.008180205 -0.004171375
000010 20 a8 23 3d dd 5d bd 3c 55 44 45 be c6 ab 00 b9
       0.03995526 0.023116047 -0.19264348 -0.00012271022
000020 14 05 06 be e0 34 3f 3f 43 0d 91 bf ec 1d 41 bf
       -0.13087875 0.74690056 -1.1332172 -0.7543628
000030 e1 ec a7 bf f4 d8 5b 3e 05 c3 f7 bd 80 e5 4f bd
       -1.3119165 0.2146948 -0.12097744 -0.050755978

model.prob_model_x._decoder_embeddings.3.weight f4 [1, 8]
000000 7a 29 f9 be 88 94 22 bf 84 3c 1a bf 17 e3 f7 be
       -0.48664457 -0.6350789 -0.6024859 -0.48415443
000010 be d5 19 bf b1 f6 13 bf 73 35 22 bf 75 43 34 3f
       -0.6009177 -0.57798296 -0.6336281 0.7041543

model.prob_model_x._decoder_embeddings.4.weight f4 [2, 8]
000000 de ac 40 be 46 5e dd 3d 99 e3 72 3d 19 d1 11 3c
       -0.18815944 0.10808997 0.059299085 0.00889995
000010 07 4f 51 bd 51 fc b3 3d a2 fa 98 3e 01 d2 ed bc
       -0.051100757 0.0878836 0.29878718 -0.029030802
000020 d5 d2 f8 3c c2 d2 76 be 23 cb 48 3f 8c b9 7c 3f
       0.03037397 -0.24103835 0.7843496 0.9872062
000030 e5 d4 01 3f 54 2b 16 bf 65 23 47 be 75 07 a2 be
       0.50715476 -0.58659863 -0.19447096 -0.31646314

model.prob_model_x._decoder_embeddings.5.weight f4 [2, 8]
000000 ee e8 ae 3d fa 8a eb bc eb 66 49 bd 28 43 8e 3d
       0.085405216 -0.028752793 -0.049170416 0.06946403
000010 c9 a3 e0 bc 7c 74 dc bd 4c 4f 8b be cd ac 91 bc
       -0.027421849 -0.10764405 -0.27208936 -0.017782593
000020 7b 6f 44 bf 8c 6e 48 3d 12 a6 95 3e ee c5 4d 3f
       -0.76732606 0.04893355 0.29228264 0.8038014
000030 9c ff f2 3e 3d 68 46 bf c0 bd 1f 3f 85 f2 2e bf
       0.4746064 -0.77502805 0.6239891 -0.68338805

model.prob_model_x._decoder_embeddings.6.weight f4 [1, 8]
000000 bf ef 87 3f 5e 36 4b bf 15 9f 83 3f 52 9e 56 3f
       1.062004 -0.7937983 1.0282923 0.8383533
000010 80 4d 23 3f 3c 52 45 3f 85 4a 0b 3f 0c df 5b 3f
       0.6379013 0.77078605 0.5441058 0.8588722

exp_avg f4 [16, 1]
000000 00 00 00 80 0d 2e 4d 3e 00 00 00 00 29 df 90 b3
       -0.0 0.20037098 0.0 -6.746115e-08
000010 7f f0 1c 83 36 f6 82 bd 20 be ab be 6c e9 4b ab
       -4.6120356e-37 -0.06394617 -0.3354349 -7.2444026e-13
000020 48 f9 1f 3e 37 78 56 3d d8 be a3 b4 f6 b5 67 ad
       0.15622437 0.05236074 -3.0499973e-07 -1.3171233e-11
000030 50 01 fc b4 e1 ef fe 3d e4 b5 1e b4 95 00 a8 be
       -4.6939613e-07 0.12448097 -1.4781068e-07 -0.32812944

exp_avg_sq f4 [16, 1]
000000 e0 26 96 16 51 ad 93 3e 52 da 04 18 42 5b 63 29
       2.425834e-25 0.28843167 1.7170824e-24 5.048328e-14
000010 b6 79 3b 1d f1 ce e2 3d 06 a7 04 3f eb 17 a0 24
       2.4812167e-21 0.11074627 0.5181736 6.942946e-17
000020 fb 42 be 3d 8f 37 c5 3d 92 f2 65 2f 00 88 1a 25
       0.09290119 0.096297376 2.0913607e-10 1.340345e-16
000030 56 1c 8e 35 d8 15 5d 3f f9 1d 8f 30 17 cd 33 3f
       1.0588071e-06 0.86361456 1.0413138e-09 0.7023482

exp_avg f4 [16]
000000 a6 60 28 b1 3b 0e dd 3e c6 00 00 80 98 e2 d3 b3
       -2.4502156e-09 0.4317492 -2.77e-43 -9.86667e-08
000010 bc 51 1b 83 4a 48 11 be 84 76 34 bf 1e 3b e6 b0
       -4.5644233e-37 -0.14187732 -0.7049334 -1.6751505e-09
000020 8c cc a8 3e 34 00 b5 3d 17 af ab 3d 67 23 97 af
       0.32968557 0.08837929 0.08383005 -2.7491895e-10
000030 2b c3 70 be 2d b8 73 3e c7 ad 69 be b8 00 a8 be
       -0.2351195 0.23800726 -0.22820197 -0.32813048

exp_avg_sq f4 [16]
000000 d8 23 a2 27 3d 2c 87 3f fb 14 4a 20 d5 86 4f 2a
       4.5002894e-15 1.0560375 1.7117007e-19 1.8432073e-13
000010 a1 6e b7 1e 49 67 d6 3e 62 f1 01 40 ca e5 73 26
       1.9421634e-20 0.41875675 2.0303578 8.4618983e-16
000020 22 a1 ad 3e 58 d1 a0 3e 89 30 2a 40 72 1e d0 25
       0.33911997 0.31409717 2.6592124 3.610288e-16
000030 c2 af 9f 40 21 ca 4f 40 4a e3 87 3f 15 cd 33 3f
       4.990205 3.246712 1.0616238 0.70234805

exp_avg f4 [16, 1]
000000 e9 aa a0 bd 63 ca 27 40 3c 9e 4a 31 81 c3 1e 3f
       -0.078450985 2.6217277 2.9484815e-09 0.62017065
000010 c5 36 ee 3f ff dc 9a 3f 1d 57 31 3f 7e 0b 90 3e
       1.8610464 1.2098693 0.6927355 0.28133768
000020 b9 1d 30 3f c7 c4 c4 3f 47 9c 37 3e 91 84 23 3f
       0.68795353 1.5372552 0.17930709 0.63874155
000030 8a 0c 59 3f 1d 42 3f 32 6a 3d a2 3d 5f 03 a9 b3
       0.8478476 1.1132696e-08 0.0792187 -7.870289e-08

exp_avg_sq f4 [16, 1]
000000 f9 54 31 3f e6 09 8b 42 be cd 0d 28 7a 82 ce 41
       0.69270283 69.51933 7.8716855e-15 25.81371
000010 1c 37 cc 41 e7 64 5d 41 ab 06 98 41 9c 0c 76 41
       25.526909 13.837134 19.003256 15.378078
000020 15 95 d5 41 45 4a 14 41 ba 12 43 41 c0 e1 92 40
       26.697794 9.268132 12.192072 4.5900574
000030 81 34 8c 41 a0 9f 52 35 2f ed 77 40 c3 54 91 30
       17.525637 7.846338e-07 3.8738515 1.0574229e-09

exp_avg f4 [16]
000000 03 dd 34 3d 37 8d f2 3d 0f 87 de b2 2a 00 81 bf
       0.044156086 0.11843341 -2.5905619e-08 -1.0078175
000010 a9 1c 8d 3e ec 4a 0a be 40 f0 fc 3e 1f 8c 01 bc
       0.27560928 -0.13505143 0.49402046 -0.007906943
000020 cf ed 9c bf a0 8d 19 3f 0b d8 26 be c9 84 10 3f
       -1.2260073 0.5998173 -0.16293351 0.56452614
000030 04 6a 90 bd 75 b8 37 b3 87 6f 13 bf 19 2e 64 b4
       -0.07051471 -4.277577e-08 -0.5759205 -2.1250925e-07

exp_avg_sq f4 [16]
000000 79 82 61 3e 34 99 68 42 5f 75 f7 28 fc 49 09 42
       0.22022428 58.149612 2.747341e-14 34.32225
000010 1d bb ab 41 5c 02 21 41 19 b3 b7 41 e2 a2 b1 41
       21.466364 10.063076 22.96245 22.204533
000020 eb 93 f3 41 f0 06 b4 3f 96 f6 f0 40 52 47 90 40
       30.447226 1.4064617 7.530101 4.508706
000030 94 e0 a5 41 7a c2 6d 33 a5 29 ba 40 12 c2 48 2f
       20.734657 5.5357738e-08 5.8175836 1.8258842e-10

exp_avg f4 [16, 1]
000000 f6 ba d7 3e 75 be d3 3c fb 87 58 3f 44 01 3c 3f
       0.42134827 0.025847653 0.8458249 0.7343943
000010 67 84 8b 3d 47 0d 01 3f d5 7e e3 30 41 ee 1a be
       0.06812363 0.50410885 1.6552472e-09 -0.15129949
000020 04 99 37 3f f2 e5 35 3f c9 2f 4a 3e a8 ee 80 3c
       0.7171786 0.71053994 0.19744791 0.0157388
000030 d6 50 33 33 84 50 be 3e f1 19 d1 3c c2 25 4a 3f
       4.1750205e-08 0.37170804 0.025525065 0.78963864

exp_avg_sq f4 [16, 1]
000000 76 ba 27 40 a8 88 3e 3d 34 61 1d 41 e6 c9 17 41
       2.6207557 0.046517044 9.836231 9.486792
000010 55 8d dd 3d ab a7 73 41 6e 7f f3 28 e1 fb f0 40
       0.108179726 15.228435 2.7033683e-14 7.530747
000020 a1 f8 46 41 8d 30 f3 40 d7 31 91 40 03 21 ed 3c
       12.4357 7.5996766 4.537334 0.028946405
000030 0d 60 6a 2e 7e 62 63 40 f5 e2 78 3c 09 cb 16 41
       5.329075e-11 3.5528865 0.0151908295 9.424569

exp_avg f4 [16]
000000 6c d2 90 3e 80 ef 1a 3d a2 10 cc 3f b0 8a bc 3e
       0.2828554 0.03782606 1.5942576 0.3682456
000010 fc 87 af 3c ba 9f d3 3f 51 11 37 b3 85 3f b3 bf
       0.021427147 1.653312 -4.2623757e-08 -1.400376
000020 b9 4e e3 be b1 a8 cb 3f 80 66 a6 bf d7 2f 89 3d
       -0.44395998 1.5910856 -1.300003 0.06698578
000030 ed ef 14 b4 f4 5a 03 bf 99 da 03 3c 9d 4f 0d bf
       -1.3870859e-07 -0.5131066 0.008047723 -0.55199605

exp_avg_sq f4 [16]
000000 5a 7b 84 3f 72 c8 1b 3d ed 11 1f 41 0c 16 21 40
       1.0350144 0.038032956 9.941876 2.5169706
000010 b9 28 3b 3c 97 69 5d 41 22 96 3b 2a bf 98 03 41
       0.011423283 13.838279 1.6661024e-13 8.224792
000020 9e 69 e4 40 08 07 03 41 18 ae 02 41 12 17 ee 3c
       7.1378927 8.189217 8.167503 0.029063735
000030 41 b1 5f 2d 7a 29 b5 40 fc 31 d1 3a b5 a9 1c 41
       1.2715441e-11 5.661313 0.0015960331 9.791432

exp_avg f4 [16, 1]
000000 f5 1b c7 ba 80 26 1a 94 38 de 41 b8 00 00 00 00
       -0.0015190827 -7.782606e-27 -4.6221743e-05 0.0
000010 ec ab c8 ba 6c 55 85 ac 8a d4 7d a8 00 00 00 80
       -0.0015310026 -3.789571e-12 -1.4090408e-14 -0.0
000020 d2 4d b7 8a fc db 4f 34 5f ab 12 34 85 44 8e a1
       -1.7651532e-32 1.9358407e-07 1.3659654e-07 -9.640431e-19
000030 7c 39 56 b5 ea df c6 3a 7c 8c d4 b4 6c ef ae a6
       -7.9804863e-07 0.0015172933 -3.9590293e-07 -1.2138571e-15

exp_avg_sq f4 [16, 1]
000000 55 42 02 3b 1e eb d6 21 62 36 83 3a 5d 67 ec 17
       0.0019875963 1.4563439e-18 0.0010010714 1.5277235e-24
000010 75 1a 57 3b 3f e2 eb 24 d1 4e 1f 24 8a 08 13 18
       0.0032822166 1.0229828e-16 3.454439e-17 1.9003616e-24
000020 85 19 32 21 91 d4 1b 2c 83 db 92 29 1e 27 14 23
       6.034252e-19 2.2144823e-12 6.521782e-14 8.0313795e-18
000030 96 99 97 36 8d 30 e6 3b 28 20 c1 30 34 a5 e0 23
       4.5180304e-06 0.0070248307 1.4051738e-09 2.4356095e-17

exp_avg f4 [16]
000000 38 bb fc ba 68 21 53 b1 31 d6 36 3c 3e 6d 9c 84
       -0.001928187 -3.072353e-09 0.011159466 -3.6775747e-36
000010 ab df 93 bc e7 95 19 b0 12 6a 93 aa 5f c5 24 a2
       -0.01805099 -5.58741e-10 -2.6186047e-13 -2.2330632e-18
000020 3e 9c 8c a2 d6 b1 54 b4 a1 aa 1b b4 3e f8 04 a6
       -3.8112504e-18 -1.9808735e-07 -1.4497574e-07 -4.613313e-16
000030 b5 2f 9b bc ba b5 c6 3a 9f 35 67 bc 10 53 db aa
       -0.018943647 0.001516036 -0.014111905 -3.895985e-13
