SimLoan/VACA/exper_test/toy_/vaca/dgnn_elbo_8_8_16_4_normal_0.0_0.2_0.0_0.0_0_False_DeltaLikelihood()_7_21/adam/0.005_0.9_0.999_1.2e-06_exp_lr_0.99/9/ckpt/last-v1.ckpt (torch, 123288 bytes, 30 tensors)

model.encoder_module.convs.0.m_net_list.0.weights.weight f4 [32, 21]
000000 1f 93 29 3e 19 84 bc bb 50 7b 53 bd 50 c3 d8 3d
       0.16560028 -0.005753052 -0.05163127 0.10584128
000010 c0 5f 85 3e 2d 76 15 3f 02 ba e6 3c e0 1e be be
       0.26049614 0.58383447 0.028164867 -0.3713293
000020 bf bb d5 bb a1 d0 83 3e 92 f1 e6 37 67 d2 04 bd
       -0.006522625 0.2574511 2.7530627e-05 -0.032427218
000030 a5 af 43 bb 84 0c c7 3e 32 14 bf ba 86 e8 3c 3e
       -0.002985933 0.38876736 -0.0014578162 0.18448076
000040 52 71 0d bd 94 ed 96 3d a9 68 94 3d 78 da 0e be
       -0.0345319 0.07369533 0.07246525 -0.13950527
000050 92 d9 1b 3e c8 72 7d be 69 9c 9a bc c8 76 ec bb
       0.15219715 -0.24750817 -0.01887341 -0.0072163083
000060 1f eb 87 be 02 35 c8 3d 49 6f 66 be 67 bb 89 bd
       -0.2654657 0.097757354 -0.2250339 -0.06725197
000070 a8 56 95 bd fd 5b b1 bc 8e 74 fb bd c7 ce fb 3d
       -0.07291919 -0.021650309 -0.122780904 0.12295299
000080 b6 48 51 bb 85 3e e1 3d f9 04 72 3d 21 ab 5e 38
       -0.0031934208 0.10998253 0.059086774 5.30883e-05
000090 0d eb f1 3c 2c 7e 5e 3d 49 e1 a2 3d a4 f7 b5 bc
       0.029531026 0.054319546 0.07953126 -0.02221281
0000a0 ac 6e b5 3e 18 8e d8 3e e3 5b 9a bd c4 f8 ca 3d
       0.35435998 0.4229591 -0.07537057 0.099107295
0000b0 2a e4 85 bd 48 34 bc 3c 57 58 23 3c 59 3b 85 bb
       -0.065376595 0.022974148 0.009969792 -0.0040659127
0000c0 43 dd ed bc 40 64 fd bd d8 f5 79 bc 79 ef 6f be
       -0.02903617 -0.12372637 -0.015256368 -0.23431195
0000d0 75 f4 ce 3e 76 48 7e bc e7 a2 52 3e f9 ea ef 3d
       0.4042088 -0.015520206 0.20569955 0.11714739
0000e0 37 d0 22 b8 db de 1e be 9b 0b f9 bc 79 42 58 3e
       -3.8817725e-05 -0.155147 -0.030401042 0.21119107
0000f0 4a 68 c1 3e 5a da 9c be 67 b3 4c 3e bd b8 e4 be
       0.3777488 -0.3063534 0.19990312 -0.44672194
000100 30 05 cd bc 8f a3 49 bd a2 6e 51 3c da 29 ad bc
       -0.025026888 -0.049228247 0.012782725 -0.02113812
000110 1f ca 62 bc 42 f4 2a 3c 94 6e 29 ba 07 5c 0f 3d
       -0.013842135 0.010434212 -0.0006463316 0.034999873
000120 2f a8 56 be c7 31 2b 3e 10 f4 03 bc 1c 5c 79 35
       -0.20962594 0.16718207 -0.0080537945 9.2893765e-07
000130 32 b1 97 bc 7b 69 dd 3b 1c 71 40 bc 36 21 82 3e
       -0.01851711 0.006756959 -0.011745717 0.25415963
000140 3b bc bd be 46 2c 49 be 82 2b 19 bc a7 55 b5 3d
       -0.3705767 -0.19645795 -0.009348752 0.088542275
000150 45 83 f2 bc bc 8e 05 3d 59 84 04 bc ee dd 9c 3b
       -0.02960361 0.032606825 -0.008088195 0.0047871983
000160 69 bb 00 bd 04 77 0c bd 93 fd 18 bb 5a 4a 96 bc
       -0.03142873 -0.03429319 -0.0023344501 -0.018346
000170 67 61 96 3e 07 ea d9 be 76 23 46 be 31 91 51 3d
       0.29371187 -0.4256136 -0.19349465 0.051163856
000180 59 4c d2 be db ca 22 3d b4 53 b5 bd 1e 54 4a bc
       -0.41073874 0.03974424 -0.08853856 -0.012349157
000190 53 aa 6d 3c c6 26 91 3e 69 e8 8e be f3 6b 90 3e
       0.0145059405 0.28349894 -0.2791169 0.2820736
0001a0 a9 a1 a0 b9 96 79 67 be d9 01 a0 3b 3f dc 1a bc
       -0.00030638024 -0.22604975 0.0048830328 -0.009451925
0001b0 8c 2d 17 3b e1 f3 b9 bd 47 9b ad bd c5 9d 7c be
       0.002306792 -0.09079719 -0.084768824 -0.2466956
0001c0 fb f1 29 3e 75 73 03 bd c2 3b 15 3e 91 b3 31 be
       0.16596214 -0.03209253 0.14573577 -0.17353655
0001d0 b8 49 12 3d 54 99 8b 3e 2f a8 39 3e 15 06 7b be
       0.035714835 0.27265418 0.18130563 -0.24514039
0001e0 36 a8 4e bd f4 1c 22 bd 5f 36 e1 3d 56 7f 16 be
       -0.050453387 -0.039578393 0.109966986 -0.14697012
0001f0 9f 31 74 3e 57 65 9c b0 c7 cb a5 be b5 c9 e8 3b
       0.23847054 -1.1379296e-09 -0.32382032 0.0071041235
000200 1a a8 cd bc 93 fb 3f bc 68 4c 29 3a af 19 a8 be
       -0.025104571 -0.011717695 0.0006458224 -0.32832095
000210 55 41 22 3d af b6 33 3d 97 5b 21 bd 80 23 30 3e
       0.039613087 0.043875393 -0.039393988 0.17201042
000220 da 50 a0 be 1b de 01 bd 6d fd ce be f8 93 be ba
       -0.31311685 -0.031705957 -0.40427724 -0.0014539948
000230 e7 fb 24 bd c3 13 ce 3d 3d fc 1f bc 05 4c 59 3e
       -0.040279295 0.10062363 -0.009764728 0.21220405
000240 a6 15 67 3e 6d 06 0d bd 8d 79 c5 0b af ef 3d 3c
       0.22566852 -0.034429956 7.606453e-32 0.01159279
000250 e1 5a 5b 3d a2 43 56 bd d9 a9 aa 3a 0c 3f 4d bc
       0.053553466 -0.052310593 0.0013020589 -0.012527239
000260 c4 04 ba 3e 5e 3f af bc 2a de ec be 8b cc 46 3e
       0.3633176 -0.02139252 -0.46263248 0.19413964
000270 5b 94 27 3e b8 1e 8c bc 07 dd 84 bd a9 0f 88 3e
       0.16365187 -0.017104492 -0.0648747 0.26574448
000280 b9 53 1a bd 5d 2f 1b 3d 28 23 12 bd 1c 56 b0 bc
       -0.0376775 0.037886966 -0.03567806 -0.021525435
000290 34 73 2d be 3b a4 62 bd b4 83 39 be 05 91 ba 3c
       -0.16938478 -0.055332404 -0.18116647 0.022774229
0002a0 24 76 a2 3e 65 7b 2b 3b e1 7f 14 bc c1 6c 24 3d
       0.3173076 0.0026166078 -0.009063692 0.04014278
0002b0 5e c4 61 bd 15 d9 4a 3c 14 ca e8 3b 86 95 53 3e
       -0.05511891 0.012380858 0.0071041677 0.20662507
0002c0 8e ef 0c 3c 7c 25 10 3d 67 44 c5 3b 34 87 10 3b
       0.008602036 0.035191998 0.006020117 0.0022053244
0002d0 26 1c 59 be 38 82 7d 3c 85 38 bb 3d 30 23 fb bc
       -0.21202144 0.015472941 0.091416396 -0.030656427
0002e0 8d 0e ef bb 8d a7 3f bd da bd d5 3d 48 af 91 be
       -0.0072954358 -0.04679065 0.10436602 -0.2845404
0002f0 a7 69 57 3e e1 7a ce 3e 6a bd eb 3c b5 ac 0e 3e
       0.21036397 0.40328124 0.028776843 0.1393307
000300 93 d2 2c bc 76 de 56 3c 56 84 9e 3c 9f 7c 22 3d
       -0.010548252 0.013114562 0.019350212 0.03966963
000310 15 c7 48 be b6 a0 4b bd c2 ef de be 07 ed 6c 3e
       -0.19607194 -0.049713813 -0.43542296 0.23137294
000320 1d f4 1e 3e 4c 45 7f 38 77 8a 78 bb f9 79 65 39
       0.1552281 6.0861275e-05 -0.0037924328 0.0002188458
000330 fd 07 05 be 21 63 e5 bc fd 95 fa 3d d9 25 24 be
       -0.12991329 -0.02800137 0.12235639 -0.16030063
000340 87 0c 93 3e 0f ed af be c9 6e cd 3e 66 a1 2a 3c
       0.28720495 -0.3436055 0.40123585 0.010414457
000350 a2 24 06 3c e4 d0 51 bd c3 61 92 3d ba f1 7d be
       0.008187445 -0.051224604 0.07147553 -0.24799243
000360 7d 7e 27 bd 1c 3f 5d bd f7 ad 91 bd d0 cf 32 3d
       -0.040892113 -0.054015264 -0.07113259 0.043655217
000370 bc a4 54 3e 98 40 d3 bb 28 22 64 bd 50 97 c5 3c
       0.20765966 -0.006446909 -0.055696636 0.024120003
000380 70 52 69 3c 3f 04 c7 be c8 34 59 bc c5 43 80 be
       0.014240846 -0.38870427 -0.013257213 -0.25051704
000390 be 5f 69 be cd 2a ab 3d 48 19 04 bb 79 89 d5 28
       -0.22790429 0.08357773 -0.002015667 2.370737e-14
0003a0 ca b3 d8 3a 50 c8 84 bb 42 0e 54 bc a2 3e 1a 3b
       0.0016533074 -0.0040521994 -0.012942852 0.0023535867
0003b0 45 f0 8f bd ce 2a fd bd 03 e8 70 bd ac 58 be bc
       -0.0702825 -0.1236168 -0.058815014 -0.023235641
0003c0 b1 79 d9 be cb a9 92 3e cd 7e 59 3b bb 4f 98 3e
       -0.42475656 0.28645167 0.0033187151 0.2974833
0003d0 09 33 52 bc c4 f4 70 bc 03 7a bf 3e d0 02 24 3c
       -0.012829551 -0.014706794 0.37397775 0.010010436
0003e0 70 62 39 be 09 fe 2e bc ed 64 65 3e 8e 53 c1 be
       -0.18103957 -0.010680684 0.22401781 -0.3775906
0003f0 ac 60 75 bc 1f ce 8d 3a 73 c4 a7 3c a6 f4 cb bc
       -0.014976662 0.0010818875 0.020479416 -0.02489693

model.encoder_module.convs.0.m_net_list.0.bias.weight f4 [16, 21]
000000 76 1d 9e 3d 15 bf 49 bd 96 b1 40 be a4 4e 86 be
       0.07720463 -0.049254496 -0.18817744 -0.26231873
000010 d5 4d 8e 3e 5a cd 19 3e 51 7f 14 be 5f ce b9 bd
       0.27793756 0.15019742 -0.14501692 -0.09072565
000020 db 96 52 bd a5 3c a5 bd 62 95 a5 b9 5f 51 2a be
       -0.0514134 -0.08068208 -0.0003158255 -0.16632603
000030 0e 4c 07 bc 06 cb a2 3d 72 65 1b bc 65 aa ec 3e
       -0.008257879 0.0794888 -0.009484636 0.4622375
000040 97 d0 e7 3d 05 41 21 be f1 e6 2a bc 5c fd 38 be
       0.11319082 -0.15747459 -0.010431037 -0.18065399
000050 73 1a 9d 3e e3 98 6a 3e 98 76 ae bd 9d fa a0 bd
       0.30684242 0.22909884 -0.08518714 -0.07860301
000060 5c 45 b3 bd b2 df 42 be dc 29 03 3f d5 9d 6c be
       -0.087534636 -0.19030645 0.5123575 -0.23107083
000070 3b 61 39 3e ab db 0a be 9c d0 d2 be 78 83 0f 39
       0.18103497 -0.13560359 -0.4117478 0.00013686519
000080 48 ec b0 bd 83 c6 30 3e 83 44 fb 3d 96 53 d6 bb
       -0.08638817 0.17263226 0.12268927 -0.006540726
000090 62 73 90 be f6 8e bc 3c 36 3b a3 3e 04 89 f4 bb
       -0.2821303 0.023017388 0.31881112 -0.0074626226
0000a0 6d 7b f4 3d 82 35 a7 3e c3 f5 7e bc b5 33 30 bd
       0.11937604 0.3265801 -0.015561524 -0.04301806
0000b0 79 b0 53 be 3a 18 29 be 00 ea 90 bd d4 b5 10 bd
       -0.20672788 -0.16513148 -0.07075882 -0.035329655
0000c0 ac 26 11 be cf 76 4d be 2e 59 66 bd 46 4b 81 3f
       -0.14174908 -0.20064853 -0.056237392 1.0101097
0000d0 c2 7e ff bd a1 26 b3 bd 99 44 47 3e 31 f1 95 be
       -0.12475349 -0.08747602 0.19459762 -0.29285577
0000e0 cb e6 03 bd 93 a2 03 3f 24 e2 7e be 2e f5 53 be
       -0.032202523 0.51419944 -0.24890953 -0.20698997
0000f0 7b de f7 3d b5 46 be 3c ed d3 db 3d ae a1 3e 3e
       0.12102982 0.023227075 0.10733781 0.18616363
000100 1e 20 17 be 4b 24 33 be 46 80 70 bd c1 31 cc bd
       -0.14758345 -0.17494313 -0.05871608 -0.09970427
000110 f9 a3 2a 3f 95 e6 14 bd 97 02 ac bd ad 9f 17 be
       0.6665645 -0.036352713 -0.083989315 -0.14807005
000120 14 92 13 be e9 74 71 be 9e 40 ff bc 49 92 97 b7
       -0.14411193 -0.23579754 -0.031158742 -1.8068722e-05
000130 ee 39 a8 bd f0 62 a6 bd 95 5a 16 3f 2e 44 84 3d
       -0.08214174 -0.081243396 0.5873197 0.06458317
000140 ac 1b 0a 3e b8 a4 4c be 6c 44 61 bd 27 66 56 3e
       0.13487118 -0.1998471 -0.054996893 0.20937406
000150 28 1a e9 bd 6a 75 01 be a5 c0 17 bd ab 10 90 bd
       -0.11381942 -0.12642446 -0.037048955 -0.07034429
000160 b1 f9 54 be a4 39 e1 bd fa ed a1 bc 80 67 d2 3d
       -0.20798375 -0.10997322 -0.019766796 0.10273647
000170 a0 49 83 be 3f cb dc 3e be 22 4f 3e fe 44 46 be
       -0.2564211 0.43123814 0.20228097 -0.19362256
000180 83 cf 8e 3e fc c2 d3 bd 36 76 99 be 2c 94 73 3e
       0.27892694 -0.10339925 -0.29973 0.23786992
000190 ff f5 3f bd 45 46 53 bd ab cb e6 be 0f fe 80 be
       -0.04686546 -0.051580686 -0.4507726 -0.2519383
0001a0 42 a5 1b ba 67 5c e4 3d 74 6b 57 bd fb 06 53 bd
       -0.0005937406 0.11150437 -0.05259271 -0.05152033
0001b0 bd 45 81 bc 5e c6 93 be 9b 6e 25 3f 0b 6d 98 be
       -0.015780324 -0.2886228 0.64621896 -0.29770693
0001c0 36 25 8e 3e bf af 14 be 7f 18 45 be e5 91 40 3e
       0.27762765 -0.14520167 -0.19247626 0.18805654
0001d0 47 61 17 be f2 10 b7 3e d2 a1 99 be 18 cd b5 bd
       -0.14783202 0.35755116 -0.30006272 -0.08877009
0001e0 e6 2c b2 3e 3b 13 41 be 94 44 14 be f2 fb e2 bb
       0.3479988 -0.18854992 -0.14479285 -0.006927007
0001f0 bd 01 c5 be 3d 83 07 b1 f3 75 27 3e c6 dd c7 bc
       -0.3847789 -1.9719686e-09 0.16353588 -0.024397742
000200 6d 5b 10 be 20 8f c5 bd 50 4b 82 bd f9 49 12 be
       -0.14097376 -0.096464396 -0.06362021 -0.14286031
000210 32 71 bb bd 23 61 01 be 43 8e 25 be 0e ff bf be
       -0.0915245 -0.12634711 -0.1616755 -0.3749928
000220 84 18 c0 bd 60 8c 64 be 0f 31 99 3e aa 57 d5 bd
       -0.09379676 -0.22319174 0.2992024 -0.10417111
000230 fd c2 3b be d5 1f 21 3f e9 17 2a bd 0e 2f 64 bc
       -0.18336101 0.62939197 -0.04152671 -0.013927234
000240 de cd 89 3e 8b b3 cd bd eb d3 85 92 5e 32 04 bc
       0.26914877 -0.10044011 -8.445722e-28 -0.008068649
000250 4b 2b 37 be c3 79 3c be 29 89 0b be c9 b4 b6 bd
       -0.17887609 -0.18405823 -0.13626541 -0.08921201
000260 ea 3c 5e 3e 23 a1 c3 3b 7a 66 a6 bd 5c 69 2a be
       0.21702924 0.0059701367 -0.081250146 -0.16641754
000270 c9 5c fb 3e 29 c3 80 bd c0 44 cb 3c cc b0 9c 3d
       0.49094227 -0.06287224 0.024813056 0.07650909
000280 96 e1 30 be fd 69 48 3c c8 52 97 be e7 37 c4 bd
       -0.17273554 0.012232301 -0.29555345 -0.09580975
000290 3d 4e 1c 3e e2 af f7 3e 7a 8d e6 bc f5 cd d6 3d
       0.1526422 0.48376375 -0.028143633 0.10488502
0002a0 aa 7b 1d 3e 1b 2d 6c bd 48 7f f5 bc 56 ab 56 3d
       0.15379205 -0.057660203 -0.029967919 0.052409492
0002b0 60 fe 79 be de 68 af bd 5d f1 39 be 93 9b be 3d
       -0.24413443 -0.08564924 -0.18158479 0.09307017
0002c0 e5 fb 0b bd 81 3b d7 bc 8e cf 9d bc 0a 05 61 bc
       -0.034175772 -0.02627349 -0.019264009 -0.013734112
0002d0 9a 4c 8f 3e fe 9f a6 bd bf 5c b0 be 84 5d 47 3e
       0.2798813 -0.08135985 -0.3444576 0.19469267
0002e0 7d b4 c3 3c fb 13 8f bd 6c d4 7c 3b 17 df 76 be
       0.023889774 -0.06986233 0.0038578762 -0.2410854
0002f0 28 cf 81 3e 73 13 de 3e e9 9a 9d bd c0 35 57 be
       0.2535336 0.43374214 -0.076955624 -0.21016598
000300 f7 99 3a bd 92 af 8d bd 1a 35 ef bd c7 10 05 be
       -0.04555699 -0.06918253 -0.1168005 -0.12994681
000310 a6 a4 11 be bf f2 3d be f5 90 09 3e 15 54 af be
       -0.14222965 -0.18549632 0.13434203 -0.34243837
000320 83 b7 45 bd 10 e8 49 ba 4b 2a b8 bc c9 0a ae bc
       -0.048270714 -0.00077021215 -0.022481104 -0.021245377
000330 47 cc 12 3d db f3 f5 bd 85 65 85 bc cc f2 1f 3f
       0.035839345 -0.12009402 -0.01628376 0.62479854
000340 25 5e 09 be 66 04 8f 3e 1c 7c 14 3d e3 06 22 bd
       -0.1341482 0.27933043 0.036251172 -0.03955735
000350 e8 d2 8a bd 36 77 1c be 02 ae 86 be 61 4f 31 bd
       -0.067785084 -0.1527985 -0.26304632 -0.043288592
000360 d4 d2 22 be e2 f7 1c be c8 36 64 be 28 7a 07 be
       -0.15900737 -0.15328935 -0.22286522 -0.13230193
000370 8d 62 8d 3e c6 94 5a bd a7 ca ec 3e 22 af f2 bd
       0.2761425 -0.053364538 0.4624836 -0.1184981
000380 e7 e1 95 bd 55 6c 5a bb 3f a3 ca bc 13 ce 2f bd
       -0.07318478 -0.003332873 -0.024736045 -0.042921137
000390 4f bb 2f 3f 2d 3a f8 3d 23 f7 96 bb d0 cb c4 aa
       0.68645185 0.12120471 -0.0046070977 -3.4958017e-13
0003a0 31 31 32 bd 3b 49 ab bd de bd 2f be 91 6a 07 bd
       -0.043503944 -0.08363577 -0.17162272 -0.033060614
0003b0 56 88 ba bd 7f 1d eb bd ad 0a 63 be 43 fa a2 bd
       -0.09108035 -0.11480235 -0.22172041 -0.0795789
0003c0 24 c0 e4 3d 51 76 da bd 8d 5e b0 bc e8 15 73 3d
       0.111694604 -0.10667098 -0.02152946 0.059347063
0003d0 c4 cf 0f be 5b 96 eb bd 9e 2b e5 bd d1 05 0a bd
       -0.140441 -0.115032874 -0.1118996 -0.033696953
0003e0 0e fb 1a 3e 12 c9 16 bb ba 44 45 3e e0 f7 c0 3e
       0.15134832 -0.002300803 0.19264498 0.37689114
0003f0 ed cd fb bb b6 8b 9e bc 7e 14 26 be 4f cc 0b be
       -0.0076844604 -0.019353729 -0.16218755 -0.13652156

model.encoder_module.convs.0.m_net_list.1.weights.weight f4 [128, 21]
000000 15 2c dc bd 1f fa c7 3c 26 d8 be bb 8d 65 b4 bd
       -0.107505955 0.02441126 -0.0058241067 -0.08808432
000010 05 5e c6 3d 1f 33 0e bf e9 fb 82 be 66 f8 a1 3d
       0.096859016 -0.55546755 -0.25582817 0.07908706
000020 5d 9e 00 ba 4f 0f 34 bd cf 87 f6 35 87 36 1b 3a
       -0.00049064105 -0.043959912 1.8367954e-06 0.0005920906
000030 94 2a ad b6 a1 46 bc bc 7a f1 19 3b d9 f1 0c be
       -5.1607585e-06 -0.022982897 0.0023489879 -0.13764133
000040 e5 f2 ea 3c cf 40 9f bd 78 6a a9 be 2d 8c 0e be
       0.028680274 -0.07776033 -0.33089042 -0.1392066
000050 62 c7 c6 3d 1d 33 2e be a8 97 44 bb d4 a5 19 3e
       0.09705998 -0.17011686 -0.002999762 0.15004665
000060 2e 87 df bd 66 07 c8 bd dc 58 06 3e 34 1d 17 be
       -0.10914455 -0.09767036 0.13119835 -0.14757234
000070 92 b5 82 3e 95 fa c2 b3 6c cc 24 3d 23 ac 7a b8
       0.25529152 -9.0794096e-08 0.040234014 -5.976496e-05
000080 84 b9 4c bd 61 4e 9e 3c b9 d3 dd ba d7 0a fc bd
       -0.04998161 0.019324483 -0.001692406 -0.12306755
000090 c6 96 27 be aa 55 6e be ae c3 10 3d 13 31 17 be
       -0.16366109 -0.23274866 0.035342865 -0.14764814
0000a0 b4 cf 55 be 4a de ec bd 05 6f 99 bd ac a2 23 bc
       -0.20880014 -0.11565836 -0.074918784 -0.0099875145
0000b0 ff 8b 08 be 3a 5a 99 bd 21 c1 a0 3b c6 ca ba bd
       -0.13334654 -0.074879125 0.0049058353 -0.09120707
0000c0 12 23 65 be e8 ff 33 bd 5c 33 1b 39 92 ec a3 bc
       -0.2237666 -0.043945223 0.00014801085 -0.020010266
0000d0 b1 24 75 af de ee 6f 3c 09 0f db 3b 45 2b 80 3d
       -2.2295656e-10 0.014644353 0.006685142 0.06258253
0000e0 7f 44 5d 3e c7 60 05 be c8 ef 2d be fc c0 8c bc
       0.2160816 -0.13025199 -0.16986 -0.017181866
0000f0 6e 5c 34 3e 30 3d 12 3c 75 9d 3d 3d 7d 65 f9 3b
       0.17613384 0.008925721 0.04629274 0.0076109753
000100 a4 02 ce bc 15 99 1e 3c 71 2d d5 bd 91 13 a3 3d
       -0.025147744 0.009680052 -0.10409058 0.07962716
000110 10 51 a0 bd fb f6 a6 bc 84 27 ea 3c 09 4e 28 b5
       -0.078279614 -0.020381441 0.028583296 -6.2698433e-07
000120 b0 f0 e5 be d1 ac 92 32 07 b2 d6 3d 32 43 00 3c
       -0.44910192 1.7075225e-08 0.10483175 0.007828521
000130 7f 36 11 3d 6e cf e5 3d 9c a0 ff bc c6 aa e0 3d
       0.035452362 0.11221205 -0.031204514 0.109700724
000140 04 1a 34 bd 61 43 3c 3e b1 03 22 3d 29 7c 2d be
       -0.043970123 0.18385078 0.0395543 -0.16941895
000150 b9 da 8c 3c 8b 1e 75 38 88 b5 a7 3d 71 71 88 bd
       0.017194139 5.8440997e-05 0.08188921 -0.06662262
000160 03 1b 96 3e 5a 42 6a be 14 dc 88 3c 93 51 ce 3d
       0.29317483 -0.22876874 0.016706504 0.10074153
000170 cd e1 2c 31 79 5a 0f 3e 97 93 29 1a fd f7 e4 3d
       2.5157647e-09 0.13999356 3.5067603e-23 0.111801125
000180 17 83 0b b1 fe c3 f3 bc 86 ee e5 bd ac a3 03 3e
       -2.0301678e-09 -0.029756542 -0.11227135 0.12855405
000190 a9 2c ce 3d d5 1b e5 3c e2 2c 4e 3e 8f 96 d4 bd
       0.10067112 0.027967373 0.20134309 -0.10380279
0001a0 ab f2 41 3e 5a 56 74 3e ac 49 9a b7 f6 9f 0d 3d
       0.18940227 0.23861066 -1.8392537e-05 0.03457638
0001b0 a9 08 8c bb 5a ed 03 bc 86 fa 12 3e 04 f5 ec 3c
       -0.0042734933 -0.0080521945 0.1435338 0.028925426
0001c0 c7 8f c3 be 6c d7 a1 b3 25 8b 95 3c 01 18 04 ae
       -0.3819563 -7.536332e-08 0.018254826 -3.0034645e-11
0001d0 f9 9b c9 bc c9 77 e1 b8 77 52 22 3d 82 a9 85 bd
       -0.024610506 -0.00010751148 0.039629426 -0.06526472
0001e0 1e 04 bb 3d ee 7e d4 bd 99 be d1 bb a0 38 a2 bd
       0.09131645 -0.103757724 -0.006400895 -0.079209566
0001f0 48 15 21 be 79 63 48 3e 2d 65 93 bd 51 93 05 3d
       -0.15730774 0.19569196 -0.07197032 0.032611195
000200 04 9d ce 3d 4f 10 a4 bc 0e 8d ea 3b 0b aa 05 be
       0.10088542 -0.020027308 0.0071579283 -0.13053147
000210 6f 32 03 3d c7 95 b8 3d 1c b1 25 35 37 ee d3 3d
       0.03203052 0.09012943 6.172502e-07 0.1034817
000220 f4 ba 1f 24 7f c1 1c be a4 df 8d 38 12 43 e6 3e
       3.4635985e-17 -0.15308188 6.76506e-05 0.44973046
000230 d2 85 41 3e ef a3 6f bf b5 a6 d3 bc 40 1a 70 be
       0.18898705 -0.9360952 -0.025836328 -0.23447514
000240 a1 68 06 bb 0e a4 83 bd cc 0e bf be c3 d9 bb be
       -0.002050914 -0.06427775 -0.37315977 -0.36689577
000250 a4 45 fa bb bb 37 04 3e be 20 8e 3d cc 25 ac 3c
       -0.0076376963 0.12911884 0.06939839 0.021014117
000260 24 88 17 be 47 2e d8 3d 0e 87 f0 3b 04 cd 89 32
       -0.14798027 0.10555702 0.0073403185 1.604213e-08
000270 20 08 a8 3e 1e b0 1b 2d c0 1b 12 ba d6 a7 a8 33
       0.328187 8.849836e-12 -0.0005573593 7.853639e-08
000280 c9 e0 68 3c 05 8e e5 bd 0b 6a 0d 3e af 0e 60 bd
       0.014213749 -0.11208729 0.13809983 -0.054701503
000290 e0 72 01 bd 27 44 88 ba 11 a7 03 3e 22 04 a1 3d
       -0.031603694 -0.0010396288 0.128567 0.078621164
0002a0 34 6b 83 3d 75 03 30 3b b8 56 e0 bb 47 65 b9 ba
       0.06416932 0.002685753 -0.006846275 -0.0014144563
0002b0 5f b4 08 3d c2 f8 33 3e 1c 07 01 be cc 38 87 bd
       0.03337514 0.17575362 -0.12600368 -0.0660263
0002c0 e4 fe d3 3d 7b ca 64 bd b6 6d af bd e0 f1 04 38
       0.10351351 -0.055857163 -0.085658476 3.1696516e-05
0002d0 98 22 1a 3d 80 eb e7 3c 7a 89 f5 ab 07 1b 09 3c
       0.037630647 0.028310537 -1.7446454e-12 0.00836826
0002e0 dc 55 1a 3c 48 4f d3 3c 4d fb 85 b9 ac f2 a1 bd
       0.0094198845 0.02579464 -0.0002555497 -0.07907614
0002f0 9b 66 fe bd 02 d1 ee bd 82 7b 5c bd 93 5b 2b bd
       -0.12421914 -0.11660959 -0.053828724 -0.04183538
000300 19 d9 0b bc 03 f8 33 bd 41 1e fa 3c 2c 8a 09 bd
       -0.008535647 -0.043937694 0.030532004 -0.033579037
000310 50 7d 23 3f 35 04 66 bd d1 e3 8c 3d 50 c7 f0 3d
       0.63863087 -0.056156356 0.0687939 0.11756766
000320 24 9a 4d b0 63 49 55 be 6e 99 52 3c 8b 57 17 95
       -7.479761e-10 -0.20828776 0.012853963 -3.0563266e-26
000330 56 36 3d bc b5 2d 36 3e c4 e1 b9 bd 5e db 54 3d
       -0.011548599 0.17790873 -0.090762645 0.051967017
000340 d7 07 21 3c f3 ec 32 3e e5 e9 08 bb 1d a7 a1 bc
       0.009828529 0.17473201 -0.0020891365 -0.019733006
000350 56 11 43 be 9d f6 c8 bc a2 b0 46 be 0a 11 ba bd
       -0.19049582 -0.024531657 -0.19403318 -0.09085281
000360 10 6b 2b 3e c9 e5 f7 3c 71 5a 70 3c 62 b4 88 bd
       0.1674006 0.030260937 0.01467 -0.0667503
000370 b0 92 0d 3d 1f 0b 40 33 93 2c 8b bd 21 4e 32 bd
       0.03456372 4.4713598e-08 -0.06795611 -0.04353154
000380 fa 0e 2b 1a 8f a6 47 3d 34 21 a7 bd 0f f2 cc 3e
       3.537407e-23 0.048742827 -0.0816063 0.40028426
000390 df cd 95 bc e2 9f f2 3e 8e aa e4 3e 9b 3c 2d be
       -0.018286644 0.47387606 0.44661373 -0.1691765
0003a0 bf 5e 18 be 72 3d 23 3b 03 6e ab bc d2 01 b9 bd
       -0.14879893 0.002490845 -0.020926481 -0.0903355
0003b0 56 62 15 3e 9d 8c ad bc 86 ff 1f bd c6 ff 82 3c
       0.14588293 -0.021185214 -0.039062046 0.015991103
0003c0 53 f5 32 3e 23 c4 cf bd 32 20 15 b3 9b 64 59 3d
       0.17476396 -0.10144832 -3.4721047e-08 0.05307446
0003d0 45 45 9c bd 1f 51 73 03 87 d9 38 3d 34 d2 c6 bd
       -0.076303996 7.1504404e-37 0.045129325 -0.09708062
0003e0 ce 20 b8 3d 28 a4 fe bd a4 36 86 bc f4 f5 46 bd
       0.08990632 -0.12433654 -0.016383477 -0.048574403
0003f0 c2 41 a3 bd 80 c7 54 be f8 f2 75 bd 57 24 39 bc
       -0.07971527 -0.20779228 -0.060046166 -0.011300168

model.encoder_module.convs.0.m_net_list.1.bias.weight f4 [8, 21]
000000 e9 d5 01 3e e3 b3 d1 3b 89 70 03 be cb 5d f7 3d
       0.12679256 0.006399618 -0.12835898 0.120784365
000010 6e f9 32 3d c6 6b 35 be 59 86 fb 3d 58 77 09 3d
       0.043694906 -0.17716894 0.12281484 0.03356108
000020 56 2d 22 be 22 6e 5a 3d 0c e4 53 bd af a0 e9 bc
       -0.15837607 0.053327687 -0.051731154 -0.028519003
000030 6a 7f 86 3d eb e2 85 3c 01 55 87 3c 61 20 14 3e
       0.06567271 0.016343554 0.016520025 0.14465477
000040 3c ee 62 3c 1e 4b 4b 3d a1 d8 85 3d ad 1f c8 bc
       0.013850745 0.049632184 0.06535459 -0.024429167
000050 f3 c5 e7 3d ac 9f 65 3d 06 c6 fa 39 a1 00 ae bd
       0.11317053 0.056060478 0.00047831255 -0.08496214
000060 17 47 b5 bd 85 9c 20 3c ac 01 cc bd ef fa a5 3d
       -0.0885145 0.009802942 -0.099612564 0.081045024
000070 f9 05 66 be 2c cb d5 bd 72 70 10 be e5 c8 39 3e
       -0.22463216 -0.104391426 -0.14105394 0.18143041
000080 bc 93 e4 3c cb c6 8c 3d 2c d9 4d 3e 72 f2 e9 bb
       0.027902476 0.06873854 0.20102376 -0.0071394974
000090 1e d9 e5 3d 3f e7 8e 3c 85 f0 b7 bd bb 30 df bd
       0.112230524 0.017444251 -0.08981422 -0.108979665
0000a0 13 0d db 3d c0 bf 10 3e 48 1b c9 bd c3 3e bb ba
       0.10695853 0.14135647 -0.098196566 -0.0014285672
0000b0 0a a0 26 bd 26 15 ba 3d 93 16 02 be 9d 84 d4 3a
       -0.04067997 0.09086065 -0.12703924 0.0016213838
0000c0 d3 40 1b 3d 2f 5d 98 3b 77 88 43 3d c2 9e 5f be
       0.037903618 0.00464978 0.047737565 -0.21837905
0000d0 f7 ff 25 bc 3d 33 b0 bc 65 d0 cd 3d e7 52 b0 bd
       -0.010131828 -0.021508807 0.10049514 -0.08609562
0000e0 7a fa 84 3d 48 14 3c bd 39 33 e1 3d 00 54 4b 3c
       0.06493087 -0.04591778 0.10996098 0.012410164
0000f0 a6 88 98 bd 49 f2 b2 3d 57 2c 3f be 2b 35 3d 3d
       -0.074479386 0.087376185 -0.18669258 0.046193283
000100 bf 2a be 3a eb 4d 03 3e c7 42 1b 3e bd c6 16 3d
       0.0014508589 0.12822692 0.15162192 0.036810625
000110 7c 9e 21 be 76 4f 98 bd 0b a2 13 be 04 92 43 3d
       -0.15783113 -0.07437031 -0.14417283 0.047746673
000120 ae 3c 10 bc b3 a5 f2 3d 8a c8 25 bd fd f3 de bd
       -0.00880353 0.11848011 -0.040474452 -0.10886381
000130 be 4c 56 be 41 9a da bd 27 dd 0a be b4 99 bc 3d
       -0.20927712 -0.10673953 -0.13560925 0.09209004
000140 ba 1e aa bc b8 52 26 bd 9b 6f 84 3c 64 38 fa 3d
       -0.020766605 -0.04060623 0.016166499 0.12217787
000150 2b af 05 3c be ec 8d bc 11 7a 99 3b bd 9b 9d bc
       0.008159439 -0.017324802 0.004683741 -0.0192393
000160 4c 78 8b 3d 10 e3 97 bf ae 95 f1 bb 1f e5 fc 3d
       0.06810054 -1.1866169 -0.0073725795 0.12348389
000170 0e 32 8e 3d 6f 37 17 be e7 39 0c be 35 77 43 bd
       0.06943141 -0.1476724 -0.13693963 -0.047721107
000180 90 1a e4 3d 95 16 68 bd d5 f6 ed bd 60 c9 04 be
       0.11137879 -0.05666216 -0.11619345 -0.12967443
000190 33 c7 a2 bd f0 53 c5 bb d0 d7 63 bf b9 91 1e bd
       -0.079481505 -0.006021969 -0.8900118 -0.03871319
0001a0 ee ab c0 bd 05 f6 fb 3c 60 f7 1d 3b 00 7b a5 bc
       -0.09407793 0.03075696 0.0024103746 -0.020200253
0001b0 96 b3 40 3c 79 5f 2a 3e 10 dc 89 bd a4 f1 2f 3c
       0.011761567 0.16637982 -0.06731427 0.010738764
0001c0 dc a2 c1 bd 4c eb 00 bc 26 dd 9d 3c cd eb 32 be
       -0.09454891 -0.007868599 0.01927049 -0.17472763
0001d0 c2 c7 80 3d ae fe 01 bf 65 2e 4f ba 12 20 44 bd
       0.06288101 -0.50779235 -0.00079033367 -0.047882147
0001e0 6e bc 06 be a8 01 2c be 6a 52 60 3d 4e 0f 24 be
       -0.13157818 -0.16797507 0.054766096 -0.16021463
0001f0 de 33 f9 bc 73 95 33 be b6 26 1a bd fa cc 28 bb
       -0.03042024 -0.17537479 -0.037634574 -0.0025756941
000200 03 5f 80 bd d0 a6 bc bd 03 54 9a 3d 1d b1 f6 bc
       -0.06268122 -0.092115045 0.07535555 -0.030113751
000210 0e b8 74 3d af 7e d6 bd d0 50 ba bb 07 0d 80 bc
       0.05974584 -0.10473382 -0.005685903 -0.015631212
000220 df c3 39 3d 24 e2 61 3d e0 10 61 bd 3d 25 0b 3d
       0.045352813 0.055147305 -0.054947734 0.03397106
000230 f8 cd 93 bd a6 4b 2a bf f6 27 67 bd 3c 09 15 3e
       -0.0721702 -0.6652168 -0.056434594 0.14554304
000240 8d 8e 2d 3d 77 d1 1e be b7 b1 3e bf eb 06 2e bf
       0.042372275 -0.15509592 -0.7448992 -0.67979306
000250 d2 db 18 bb 7e 99 46 bc 25 52 1c be 33 23 15 3e
       -0.0023324382 -0.012121556 -0.1526571 0.14564209
000260 b6 31 a8 3d 2b 00 be bb 76 66 22 3e 5b f8 9c 3d
       0.082126066 -0.00579836 0.15859398 0.076645575
000270 8d 39 94 bf cf a2 3b be 3f d3 2a be fc 73 28 bd
       -1.1580063 -0.18323825 -0.16682146 -0.041126236
000280 dd d7 90 3d a7 fe 4a bc b6 39 c7 3d 5a d2 af 3c
       0.07072423 -0.012389815 0.09727804 0.021462608
000290 ad 0d 0b 3e 02 1d ce 3d 71 9a 2f be f9 83 b0 bc
       0.13579436 0.100641266 -0.17148758 -0.021547304

model.decoder_module.convs.0.m_net_list.0.weights.weight f4 [64, 21]
000000 68 fd 26 be 94 d1 1d 3e 3f 2a 05 bd 56 7e dd 3c
       -0.16307604 0.15411979 -0.032510992 0.02703778
000010 24 18 c4 be ce 88 3e 3f 3f 08 5f bd c4 42 ba bc
       -0.38299668 0.744275 -0.054451223 -0.022736914
000020 27 7c 2a 3d 92 75 3e 3d bf 70 c3 3d ea 6e 03 bf
       0.041622307 0.046498843 0.09542989 -0.51341116
000030 a1 e1 4c be 84 f8 70 bc 2a da 8b be cd 23 10 be
       -0.20007946 -0.014707688 -0.27314883 -0.14076157
000040 d4 76 e6 be 08 15 26 3d 8c 41 e5 be 0e 34 e2 3c
       -0.45012534 0.0405474 -0.4477657 0.027612712
000050 82 d8 11 be ea bf 3f 3d 8f 39 1d be e0 43 47 be
       -0.14242747 0.046813883 -0.15353988 -0.19459486
000060 13 98 08 bd c2 68 9a bd 5a 7c a6 be 3c 64 6c 3e
       -0.033348154 -0.07539512 -0.32516748 0.23085111
000070 5d 83 40 bc a5 2e 21 3e fd 57 ff bc 1a 25 d8 3c
       -0.011750069 0.1574045 -0.031169886 0.026384879
000080 d0 34 a9 be dc b7 ed ba 2f 9b 04 be 91 1f 39 be
       -0.33048105 -0.0018136459 -0.12949823 -0.18078448
000090 2f 90 9d bd dd 7f 49 be aa be 14 3d 84 9d 2e bf
       -0.076935165 -0.19677682 0.036314644 -0.682091
0000a0 0e 30 88 3b 6b fa f9 bb ed d5 36 3e a5 44 32 3e
       0.004156119 -0.007628729 0.17855044 0.17408998
0000b0 1c dc b4 bd d6 ec 56 bb 5f d5 b5 3e 7f 48 29 be
       -0.08831045 -0.0032794974 0.35514352 -0.16531561
0000c0 01 bb 7a 3e 80 5b cc bd 26 ff 8b 3d db 13 c4 bd
       0.24485399 -0.0997839 0.06835775 -0.095741
0000d0 2c 4f 27 3e 92 d8 d7 3e b2 16 22 bc f6 d9 3b bc
       0.16338795 0.42157418 -0.009893106 -0.01146554
0000e0 2b 61 c7 3e 40 54 65 bd d1 7b f7 3e 47 08 a3 3d
       0.3894132 -0.05598855 0.48336652 0.07960563
0000f0 b1 54 18 3f d5 3a 91 bd 1e f2 98 3d 5b 00 1d 3c
       0.5950423 -0.070912994 0.07468055 0.009582604
000100 15 ff 8e 3e b1 a7 a3 3b e7 d1 d2 3d 6b 41 27 bd
       0.27928987 0.0049943556 0.10293942 -0.04083387
000110 dd dd e2 bd ed 61 68 bc ab 73 9d 3d 83 23 e0 bd
       -0.11077473 -0.014183504 0.076880775 -0.10944273
000120 36 d1 a4 3d 4d 38 85 bd 03 cd 06 3d 25 8f d1 3c
       0.08047716 -0.06504879 0.03291036 0.025580952
000130 a8 02 f1 3b f3 31 7f bd 8f 6d 64 3d 2c bc dd bd
       0.007355053 -0.062303495 0.055768546 -0.108269066
000140 5f 4c fc bc 8a 6e 70 3e 97 9f 29 3d 89 40 72 3d
       -0.030798135 0.23479667 0.041411962 0.059143577
000150 7d 10 cc 3d 65 f6 91 be 08 ae c0 bd 0e 49 57 bc
       0.099640824 -0.28508297 -0.09408194 -0.013139976
000160 ad 67 12 bc 2a 6d 1c bf 86 08 29 3c cc 2f 64 3d
       -0.008935851 -0.6110407 0.010316974 0.055709645
000170 74 23 7f 3d c3 ae 18 be 39 8f 2e bd af dc a0 3e
       0.06228967 -0.14910416 -0.042617057 0.31418368
000180 e5 d8 b9 3d 78 80 38 3d f9 df bd 3c a2 53 8d 3d
       0.090745725 0.045044392 0.023178088 0.06900717
000190 ca e4 6f bb fa 1f 56 bd 9b ac 6d be 1a df 86 3c
       -0.0036604875 -0.05227659 -0.23210375 0.016463805
0001a0 d9 85 c3 3d 79 24 5d 3d 29 8d 0e 3e 22 c7 00 be
       0.09547014 0.05398986 0.13921036 -0.12575963
0001b0 6d 4c ba bd 65 15 bc 3d 27 28 df bb 61 8a 04 3e
       -0.09096608 0.09183768 -0.0068102065 0.12943412
0001c0 e5 d0 ee 3d 13 2c 15 3d e4 c2 cb bd eb a0 02 be
       0.11660937 0.036418986 -0.09949282 -0.12756698
0001d0 11 98 12 be f9 1a dc 3c 7e 55 04 3d 34 5d 51 3e
       -0.14315821 0.02686833 0.032308094 0.2044571
0001e0 bb c0 35 3d 6d f5 2f be 07 bc 9b bd 14 51 10 be
       0.044373255 -0.17183466 -0.07604223 -0.14093429
0001f0 7a df b9 3c 04 d7 11 3d cf b6 10 be f7 ba ec 3c
       0.02268957 0.035605446 -0.14132236 0.028897746
000200 52 a5 ed bc 29 f2 a8 3d 50 3d 69 be 78 c2 01 3d
       -0.029009495 0.082493134 -0.22777295 0.0316796
000210 4a b2 10 bd 81 7e 0b bd aa 1d 98 3c e5 7f 21 bc
       -0.03532628 -0.03405619 0.018568832 -0.009857153
000220 83 d2 4c bc 20 ed 0e be c2 9d dc 3d a6 61 c8 bd
       -0.012501362 -0.13957644 0.107722774 -0.0978425
000230 79 07 66 be 50 c4 bc 3d 5e 33 ef bd 40 a9 ad 3d
       -0.22463788 0.09217131 -0.116797194 0.084795475
000240 52 42 24 3f fb 02 ac bd db 9a 62 3c c2 e9 94 3b
       0.64163697 -0.08399006 0.013830866 0.0045444677
000250 2d c4 30 3d 75 de 9f bd f4 94 eb 3d 67 96 95 bd
       0.043155838 -0.07806102 0.1150302 -0.073040776
000260 9d e7 57 bd 9f 4d d5 3d 8d c6 39 be 7d ec 57 bd
       -0.052711118 0.10415196 -0.18142147 -0.052715767
000270 ef a3 ff bc f7 d4 02 3e 32 4b 6b 3d 97 3f 09 be
       -0.0312061 0.12776552 0.05744476 -0.13403164
000280 a5 fc fc 3d 7f ef 20 be 1c 19 dd 3d 81 45 2c 3c
       0.123528756 -0.1571636 0.10795805 0.010514618
000290 5e 43 91 3c 50 38 39 3e 8f f9 3b bd 9d a6 07 bd
       0.017732318 0.18087888 -0.045892294 -0.03311788
0002a0 15 19 16 3e 5a 1d af ba 5d 6e 8d 3d 7d d7 ce bd
       0.14658006 -0.0013360188 0.06905816 -0.10099695
0002b0 14 0a ad 3b de 1c bd 3c 0c 5e a1 bd c0 da fd 3d
       0.0052807424 0.023085054 -0.07879266 0.12395239
0002c0 40 16 97 3d 63 33 27 bd cb c8 95 3d 64 47 0f be
       0.07377291 -0.04082049 0.07313689 -0.13992077
0002d0 40 be d3 3d d9 39 72 bd 54 3f 12 be f5 38 93 3d
       0.10339022 -0.0591372 -0.1428197 0.07188598
0002e0 15 d4 5a 3e 56 5c 9d bd ed ed 57 bd d0 4b 33 3e
       0.21369965 -0.07683627 -0.052717138 0.17509389
0002f0 1b 2c 52 3d ae 8a 4e 3b c3 36 d5 bb 62 c4 a5 bc
       0.051311594 0.0031515765 -0.0065067722 -0.020235244
000300 d3 f0 04 3e c9 72 00 bb 2e b8 5e bd 67 d5 32 bb
       0.12982492 -0.0019599667 -0.054374866 -0.0027287842
000310 59 a9 62 bd 26 23 a2 bd 41 10 c4 3d 18 09 24 be
       -0.055337284 -0.0791686 0.09573413 -0.16019094
000320 31 75 26 3d c8 7a 04 3f 98 14 5a bd 22 4a 1b be
       0.040639106 0.5174985 -0.053242296 -0.15164998
000330 45 60 78 3d fb 05 f2 3d d7 b4 c3 3c f4 a5 6d 3d
       0.060638685 0.11817547 0.023889942 0.058019593
000340 57 b6 6a 3b e0 f0 84 3d a2 35 0d bd 84 e3 b4 bd
       0.003581425 0.06491256 -0.034474976 -0.08832458
000350 20 c4 0a be 57 1a 8d 3d 5a c9 bf bd 8a fa fd 3c
       -0.13551378 0.068897896 -0.09364577 0.031003255
000360 3c 24 4c 3e 92 27 c4 bd 75 80 1c be d1 7a 74 bc
       0.19935697 -0.0957786 -0.15283377 -0.01492186
000370 ae b2 fc 3d 6b fb 1c be 92 55 9b 3d ed e1 f9 3d
       0.12338768 -0.15330283 0.075846806 0.12201295
000380 3a 6a b0 3d 55 4b 1b be 4d c2 2a 3e fe dc 28 bd
       0.08614011 -0.15165456 0.16675682 -0.04122638
000390 19 06 ce 3d e8 0a 9e 3c b8 ec 24 3d 21 f5 95 bc
       0.10059757 0.01929231 0.040264815 -0.018305363
0003a0 7c 87 e8 3b e9 3a d4 3d a2 1f 39 bd 98 0f 90 bd
       0.007096229 0.10362799 -0.045196183 -0.07034224
0003b0 68 42 fd bd d4 3f 0b be f3 3d 9a bd 04 f6 73 3d
       -0.123661816 -0.13598567 -0.07531347 0.05956079
0003c0 14 0e d3 3d f7 37 43 be 43 60 a7 3c b8 24 08 3d
       0.103054196 -0.19064318 0.020431643 0.033238143
0003d0 3a d8 e0 3b 7b bc d2 3c b0 84 e8 3d ab 58 5d 3d
       0.0068617137 0.02572464 0.11353433 0.05403964
0003e0 44 7c e7 bc b0 9c 05 bd 94 d6 61 bc 6d 7f c2 3d
       -0.028257497 -0.032620132 -0.01378407 0.09496961
0003f0 fa e4 92 bd 48 cb 9d 3b f3 78 42 3e 8a 2f f1 3d
       -0.0717258 0.004815493 0.18991451 0.117766455

model.decoder_module.convs.0.m_net_list.0.bias.weight f4 [8, 21]
000000 cc 94 a0 ba 19 75 f8 bd e6 10 b2 bd fc 1e 4f bd
       -0.0012251376 -0.121317096 -0.08694629 -0.05056666
000010 2f 1c 02 3d c4 49 23 be df 4e 02 3d 75 ee f9 bd
       0.03176516 -0.15946108 0.0318135 -0.12203685
000020 b6 47 c4 be 39 1a c9 bd 8f 15 4b be 8c 4f aa 3d
       -0.3833596 -0.09819455 -0.19832443 0.083159536
000030 34 b4 02 bf 30 a6 07 be 45 24 fe bd 90 c3 69 3d
       -0.5105622 -0.13246989 -0.124092616 0.05707127
000040 3c 4d 86 3e 22 b3 93 bc b5 4a 8c 3d 39 e5 5e be
       0.262308 -0.018029753 0.06850187 -0.21767129
000050 3c 63 0d bd 2a 8c f7 3c 72 c4 15 bc 2e bb 32 be
       -0.034518465 0.030218203 -0.0091410745 -0.17454216
000060 2b 85 3c 3e 51 a4 fc bd 1d fd 1d be 6c 9b 71 3c
       0.18410175 -0.12336028 -0.15428586 0.014746528
000070 eb 8f 52 be 21 be fd bb 56 cf 49 3c 04 33 db bd
       -0.20562713 -0.0077436124 0.012317499 -0.1070309
000080 cb 1c d5 3c dd cb ad 3e 06 0b 04 be 12 35 d0 bc
       0.026014706 0.33944598 -0.1289483 -0.02541593
000090 5c f0 cf bd 17 c0 a4 3d de 82 7c be 19 02 49 3e
       -0.10153267 0.08044451 -0.24659297 0.19629706
0000a0 dc d8 60 be 40 0a db 3c 72 f0 1f 3e 6b b0 de bd
       -0.21957725 0.026738286 0.15619066 -0.10873493
0000b0 cf c7 80 3d 8b 5b 38 3d b7 c4 bd 3d ee 3d a5 be
       0.062881105 0.045009177 0.09266036 -0.3227381
0000c0 b4 af 22 bd fe 7e a2 be 02 53 f3 bd 47 5f c0 bd
       -0.039718345 -0.31737512 -0.11881067 -0.09393173
0000d0 57 91 1a be 70 e2 99 bd 17 88 c3 3d 60 cc 11 be
       -0.15094505 -0.07513893 0.095474415 -0.14238119
0000e0 63 fd aa bc c1 75 1a 3d 8f 4c 88 be 9c 0e 48 3d
       -0.020872777 0.037709955 -0.2662091 0.048842058
0000f0 0f 70 f7 bd ef 24 13 be f0 0d c0 3d 7d e6 9a be
       -0.1208192 -0.14369558 0.09377658 -0.30253974
000100 9b a3 98 be 82 bc 7b bd b0 e1 32 be 65 a9 e6 bd
       -0.2981232 -0.061459072 -0.17468905 -0.11262778
000110 0e a6 ee be 7b 1b 0d 3e 44 c7 51 be 56 c2 10 be
       -0.46611065 0.13780014 -0.2048617 -0.14136633
000120 5b f0 07 bb 04 dc 9e be 37 70 ac be 6b 19 33 bd
       -0.0020742628 -0.31027234 -0.33679363 -0.043725412
000130 9a 1e 8d be ab f4 1d be 33 0d ef bc f3 75 b9 be
       -0.2756241 -0.15425365 -0.029181099 -0.362228
000140 45 e0 b1 3e 45 9a ab be bb bc 39 3c b1 b3 59 3d
       0.34741417 -0.33516136 0.011336501 0.053149883
000150 16 2b 68 bc 01 80 14 3e c9 5e d1 bd f8 01 cb be
       -0.014170429 0.14501955 -0.10223157 -0.3964994
000160 61 e3 a1 be bf 99 b0 3d 2d 0a cc bd 3e 44 33 be
       -0.3161879 0.08623075 -0.099628784 -0.17506501
000170 4f bd 80 be c0 28 83 be 8b 7f 19 3d 7c ed d9 be
       -0.2514443 -0.25617027 0.03747515 -0.42564
000180 9e 61 17 3e 6d aa 93 be 63 9c a7 be de 46 af 3d
       0.14783332 -0.28840962 -0.327365 0.08558439
000190 0c 47 7b bd 36 68 2a bf f7 b5 dc bd d6 36 14 bf
       -0.061347052 -0.66565263 -0.107768945 -0.57896173
0001a0 63 77 00 3f a2 cb 32 be 2d ed b0 be 65 0e 38 be
       0.5018217 -0.17460492 -0.3455595 -0.17974241
0001b0 39 e8 74 3d e8 ce bb be ef 38 8a be 6b 10 8e be
       0.059791777 -0.36681294 -0.26996562 -0.277469
0001c0 3f a1 de 3c 27 db 3c 3e eb ec 6d be 84 d4 b3 3e
       0.027176498 0.18442975 -0.23234908 0.35123074
0001d0 cf 21 ac be 29 75 34 3e 1e 10 53 be 6f 06 77 be
       -0.33619544 0.17622818 -0.20611617 -0.24123548
0001e0 ed 4a 5e bc 84 e5 c7 bc e6 c2 b8 be 4f ef f8 be
       -0.013567668 -0.024401434 -0.36086196 -0.48620078
0001f0 32 81 98 be db bc f7 bd 0c e7 b2 bd ea 26 2b be
       -0.29786068 -0.12096568 -0.08735475 -0.16714063
000200 e4 03 3d 3e 08 ba 57 be 66 fd 02 be 5a 82 a7 be
       0.18458515 -0.21067059 -0.12791976 -0.32716638
000210 ca b7 2a be ba 75 5f be 85 e5 86 bd cf e7 22 bb
       -0.16671672 -0.21822253 -0.06586746 -0.0024857407
000220 ae 65 12 be d8 78 5d be 1a 2b 6b be a4 73 9f be
       -0.142966 -0.2162813 -0.2296566 -0.31142914
000230 36 7f c6 be 52 24 71 be 80 1d b2 be c5 80 93 be
       -0.3876893 -0.23549011 -0.34788132 -0.2880918
000240 fc a4 61 be 7d 20 09 bf 7b 21 a3 3e 6d b0 87 be
       -0.22035593 -0.535652 0.3186148 -0.2650179
000250 b6 db 89 be 78 c6 a2 bd 41 08 bf be c4 7d 5a be
       -0.2692544 -0.07948011 -0.37310985 -0.21337038
000260 83 d1 97 be 71 c0 11 be bf fc e6 be f9 ab c3 be
       -0.29652032 -0.14233567 -0.45114705 -0.38217142
000270 7e 41 29 3e 5e 02 c6 be 03 af bc be 4c 0e a6 3d
       0.1652889 -0.3867368 -0.36852273 0.08108196
000280 45 4d 79 bd 6d 04 cb be 1f fb ab be 82 8c cc be
       -0.060864706 -0.39651814 -0.33590028 -0.3995095
000290 31 4a 01 be 8c 59 da be b7 b0 5d be 9e cb a9 bc
       -0.12625958 -0.42646444 -0.21649443 -0.020726975

model.decoder_module.convs.1.m_net_list.0.weights.weight f4 [128, 21]
000000 d8 03 1f bf c2 67 12 be 28 52 03 3e da 6d 76 3d
       -0.6211524 -0.14297393 0.12824309 0.060163356
000010 6c c4 92 3d 04 0d 76 3d e0 8c 15 3c 56 c9 9a 3c
       0.07166371 0.060071006 0.0091278255 0.018894833
000020 75 75 a4 bd e0 d1 23 be 41 a7 6f be a5 0e 99 3c
       -0.08030216 -0.1599803 -0.23403646 0.01868374
000030 e2 18 32 3d a9 22 84 3d 89 89 14 be 12 47 26 bd
       0.04348076 0.064519234 -0.1450559 -0.04059512
000040 f9 68 99 bd b7 b1 fb bc 81 b4 56 bd 99 f2 82 be
       -0.07490725 -0.03072439 -0.052418236 -0.25575712
000050 0f 2b 0b be 40 76 bc b6 80 2c a8 3c c8 5c d8 3b
       -0.13590644 -5.6166027e-06 0.020529032 0.0066028573
000060 27 e5 37 3e 81 46 1a be 1b 4d b0 3e 75 05 dc 3d
       0.17958508 -0.15065958 0.34433827 0.10743228
000070 e6 57 33 3c d7 d4 10 3e 8e 51 e6 bc 27 18 f2 bd
       0.01094625 0.14143692 -0.02811506 -0.11821013
000080 c1 71 84 3d 89 e6 17 be db c8 4d bd a6 60 7d 3d
       0.06467009 -0.14834036 -0.05024038 0.06185975
000090 93 bb 9d 3d 1d 9f 87 be e0 b2 c7 bd 49 31 26 be
       0.077017926 -0.2648858 -0.097509146 -0.16229738
0000a0 24 1e 0f be 89 14 6c be df b4 a6 3d ab 73 61 be
       -0.13976341 -0.23054709 0.08139967 -0.2201678
0000b0 ca 8b 5e 3d bc fc 5f be af 93 27 be dc ff 45 bd
       0.054332532 -0.21873754 -0.1636493 -0.04833971
0000c0 3d d6 61 bd c7 9b 9e 3d bd d4 ca bc a9 8b 67 be
       -0.055135954 0.07744556 -0.024759645 -0.2261187
0000d0 9c 89 02 3e 13 2b 94 bd b9 4d 0a 3e 55 f8 f1 bc
       0.12747806 -0.07234778 0.13506211 -0.02953736
0000e0 96 e5 90 bc 98 0d f1 3d ab 40 b5 bc 16 d9 63 be
       -0.0176876 0.11770171 -0.022125563 -0.2225078
0000f0 1e a0 b8 bd c3 48 a0 be 63 59 18 3e 19 0d 41 bf
       -0.09014915 -0.31305513 0.14877848 -0.7541061
000100 45 0f 9d bd 54 66 27 be 53 6e 98 3c 5e 6a 07 be
       -0.07668928 -0.16347629 0.018607294 -0.1322417
000110 16 76 30 be 22 89 51 bd 73 8e ce 3d 44 98 1f be
       -0.17232546 -0.05115617 0.10085764 -0.15585428
000120 84 f7 af 3c 49 fe 2b be fe 59 3f 3d b0 47 f5 3d
       0.02148033 -0.16796221 0.046716683 0.11976564
000130 79 72 09 3e ba c3 d4 3d 3a 81 a2 3d 6c a5 ef bc
       0.13422574 0.103888944 0.07934804 -0.029253684
000140 9c 0d fa bc 33 65 b6 3d 7a d3 c2 b9 91 17 20 bc
       -0.030524068 0.08906021 -0.00037160126 -0.009771244
000150 ae 20 06 bf 39 06 8e 3c fa e2 9b 3b 8c dd fe 3d
       -0.52393615 0.017336952 0.0047572823 0.124446005
000160 51 4b 7c be d0 82 be 3d b5 a7 38 be 37 e9 1c 3e
       -0.24638106 0.09302294 -0.18032725 0.1532334
000170 27 1c 5d 3b c4 90 04 be 0d 56 f4 3d 4a ff 53 be
       0.0033738704 -0.12945849 0.119304754 -0.20702854
000180 14 09 af 3d c4 9c fe 3d f6 17 ef 3d c1 f5 03 3d
       0.085466534 0.124322444 0.11674492 0.03221679
000190 15 6c fc 3d 6b 37 db bd ff 42 a2 3d 5c e7 b4 bd
       0.123253025 -0.107039295 0.07922935 -0.08833191
0001a0 7b 8e c1 3c bf 39 a5 be b0 d7 1e bd 5a f6 41 be
       0.02362751 -0.3227062 -0.038779914 -0.18941632
0001b0 66 98 e9 3d 1f b2 4e bd 13 e6 a2 be 50 b5 79 be
       0.11406021 -0.05046284 -0.31816158 -0.24385571
0001c0 a5 22 49 bc e2 19 47 be 99 26 63 3c 4d ba 38 be
       -0.012276326 -0.19443467 0.013864183 -0.18039818
0001d0 5c 10 43 be 35 56 3a bd 7a 71 ce 3d f9 06 11 be
       -0.1904921 -0.04549237 0.10080238 -0.14162816
0001e0 eb c3 a8 3c 41 f5 af 3d 56 0e 7f be 2d 01 97 3e
       0.020601233 0.085917 -0.24907812 0.29493085
0001f0 7c 9e 02 be 3d 09 3a be fb f6 90 bd 52 42 f7 34
       -0.1275577 -0.18167587 -0.07078358 4.605559e-07
000200 f5 b0 44 bd cd ed 6c bc f0 b7 5d bd 11 0e 8e bb
       -0.048020322 -0.014460993 -0.054130495 -0.004335173
000210 94 fe d1 bd ec a2 cb 3d f9 c7 3c 3d f5 ca 90 be
       -0.10253635 0.09943184 0.046089146 -0.28279844
000220 64 0d 0f be 76 f5 2b 3e 14 75 52 3c 0c 9d b8 3d
       -0.13969952 0.16792855 0.012845296 0.09014329
000230 ee 39 89 3e 73 06 42 3c 36 3d 4b 3d 0a c9 88 be
       0.2680201 0.011842358 0.049618922 -0.2671588
000240 81 a3 66 3e 7f f9 6f be 0a 30 85 be 50 b6 13 be
       0.2252331 -0.23435019 -0.26013213 -0.14425015
000250 d2 ee 6b bc 33 09 a4 be 23 d4 ea bd 90 35 de 3d
       -0.014400201 -0.32038268 -0.11466243 0.1085006
000260 33 22 19 be 61 77 6d bd 72 3f dc bc 88 23 4d 3d
       -0.14954452 -0.057975177 -0.026885722 0.050082713
000270 f6 e3 19 3e b6 2c dc bc f5 db 9d 3d 81 c9 f2 bc
       0.15028366 -0.026876789 0.07707969 -0.0296371
000280 88 cc 17 be f6 6e 75 bd 6b 6a 7a bc 8d 74 33 be
       -0.14824116 -0.059920274 -0.015284161 -0.1752493
000290 a7 2b ed bd f2 6a 36 bc 5b ea 80 bd 75 a1 6b 3c
       -0.11580592 -0.011133896 -0.062947 0.014381756
0002a0 29 c1 d0 be e6 a2 e1 be 50 b6 61 bd d3 c4 03 bd
       -0.4077237 -0.44069594 -0.055105507 -0.032170128
0002b0 ed 4c 81 be ea 9c 0c be 48 ed 77 3d 7a 64 93 bc
       -0.25254002 -0.13731733 0.060529023 -0.017992247
0002c0 17 3d 40 3c b5 7f e5 3c 39 aa 0b be ab da 11 bd
       0.011733315 0.028014997 -0.13639154 -0.03560893
0002d0 12 d4 39 bf a2 06 65 be 6f c6 2b be a2 86 77 be
       -0.7258922 -0.22365811 -0.16774915 -0.24172452
0002e0 dd 02 6f bc e9 22 4c 3e ee 09 e5 bc 7d 9b 4c bd
       -0.014588085 0.19935192 -0.027958836 -0.049952973
0002f0 78 a1 a2 3c d2 3c 12 ae 9f 8e 3d 3e 77 b7 d4 bd
       0.019852385 -3.3250576e-11 0.18511437 -0.10386556
000300 74 3b fa bd 41 f9 07 3d 0d 10 87 bd 1b d1 47 bd
       -0.12218371 0.03319669 -0.06594858 -0.048783403
000310 e4 27 ad bc 84 51 36 3d f2 3f 3a 3c 23 1f a9 b9
       -0.021137185 0.044511333 0.011367785 -0.0003225739
000320 6d 42 51 bd 36 61 51 bf 46 61 c1 bd 2d 89 39 be
       -0.05108874 -0.8178896 -0.094423816 -0.18118735
000330 3a 65 f9 3c 37 4f a2 3d c8 c7 43 3d ae 9a e9 3d
       0.030443776 0.07925265 0.047797948 0.11406456
000340 a3 d8 71 3d a1 48 34 be 9c f9 99 be e1 46 7c bd
       0.05904449 -0.1760583 -0.3007325 -0.061591033
000350 27 60 8c bd ce dd 85 bb 1e 37 0e 3e f1 e0 76 3d
       -0.06854277 -0.004085279 0.13888213 0.060273115
000360 35 b3 58 be dd b4 1a 3e 67 82 2f be 26 3f a5 bc
       -0.21162112 0.15108056 -0.17139588 -0.020171713
000370 eb c4 27 3e 8e d9 8f bd ae ad af be 90 53 2a be
       0.16383712 -0.07023917 -0.34312195 -0.16633439
000380 65 84 ad bd 86 da 30 be c2 09 ad 3c 90 e3 ac 3c
       -0.08472518 -0.1727086 0.021122817 0.021104604
000390 4b e7 1d be 0f 26 d7 bc b2 a2 cb be d2 8c d3 be
       -0.15420263 -0.026263265 -0.39772564 -0.41318375
0003a0 85 3e c8 3d a5 a9 da bc a9 1a f8 bd ad 5b 60 be
       0.0977755 -0.026692221 -0.1211446 -0.21909972
0003b0 0c 36 04 be 65 e6 4e 3d 8b 4b c4 3d 9a b1 4a be
       -0.12911242 0.05051269 0.09584721 -0.19794312
0003c0 00 a0 4f be 20 74 84 3e 80 ca 17 3e a4 88 87 be
       -0.20275879 0.25869846 0.14823341 -0.26471436
0003d0 5f 00 bb be 90 fa 88 bd 93 dc 65 3e f1 80 e6 3d
       -0.3652372 -0.06688416 0.22447424 0.11255062
0003e0 87 2e a3 3d 02 cc 2d bd 58 ae 0a be 4a 98 83 bd
       0.07967859 -0.042430885 -0.1354307 -0.06425531
0003f0 c9 9f 8a be eb e2 2c 3e 76 d5 14 bb c2 4f 5b 3d
       -0.2707503 0.16883437 -0.002271024 0.05354286

model.decoder_module.convs.1.m_net_list.0.bias.weight f4 [8, 21]
000000 a3 db 36 3e 93 4e a9 3d e7 bb 6c bd 4b 10 0d be
       0.17857222 0.0826694 -0.057796385 -0.13775747
000010 e7 b2 54 be cc 83 3f be 68 49 17 be 8a c1 9c be
       -0.20771371 -0.1870262 -0.14774096 -0.3061641
000020 17 7e 4f 3c af d8 8a bd 89 10 a1 bd 7e 1f 23 be
       0.0126643395 -0.0677961 -0.07864482 -0.15929982
000030 9d c2 c1 3e a5 cb 92 bd 94 69 35 be d6 12 4c 3c
       0.3784379 -0.07167748 -0.17716056 0.012455663
000040 dd 0c f7 3d 4a e5 1e 3f 36 dd be bc d9 75 80 3e
       0.12063 0.6206862 -0.023298841 0.2508991
000050 a1 ef 9c 3e d1 38 b1 bb 64 cf 1a bd 42 0a 26 be
       0.30651572 -0.0054083844 -0.03779544 -0.1621485
000060 5c 7d c5 bc 55 47 34 3d ec a5 31 3e d8 d0 31 bd
       -0.024107628 0.04401334 0.1734845 -0.04341206
000070 59 61 d0 3e 31 71 e5 bd 05 cf 74 3d 15 2a 34 3e
       0.4069927 -0.1120323 0.05976774 0.17594178
000080 a5 4b 0f 3e 43 70 2c 3f a9 07 2c bd 0f c5 75 bd
       0.139937 0.673588 -0.041999493 -0.060002383
000090 cd c9 25 be f0 9f 2a 3e 40 05 1c 3f 14 3b d4 bc
       -0.16190262 0.16662574 0.6094551 -0.025907077
0000a0 3c 92 d2 3e 9d a0 4a 3f 2b 3d ba bb a4 fc 65 bd
       0.41127193 0.79151326 -0.0056835613 -0.05614914
0000b0 49 5c 27 3d 5b 5f 1b be f0 62 28 be fd 41 70 3c
       0.040859494 -0.15173094 -0.16443992 0.01466417
0000c0 48 89 fe bd 08 72 80 3e 3c 8a 3a 3c 60 2c 07 be
       -0.12428528 0.25087 0.011385497 -0.13200521
0000d0 b9 69 56 3e 15 bd 3c be 7c 6c 0f 3f c9 c4 81 bd
       0.20938767 -0.18431504 0.5602491 -0.06336362
0000e0 aa 6c a1 3c 0d e5 5b 3e 87 f7 14 3c de 9c 1d 3e
       0.019705135 0.21474095 0.009092218 0.15391871
0000f0 0a 59 f9 bd 76 cb f3 bd 97 bd 67 3f e5 18 98 3e
       -0.12175186 -0.119040415 0.90523666 0.29706493
000100 d1 85 f0 bd 77 2e 4e be a1 ae 81 3d 74 05 83 be
       -0.117442735 -0.20134912 0.06332136 -0.25590098
000110 d7 2f 0f bd 06 7d 19 bd ca 98 87 3d aa 33 8d 3d
       -0.034957733 -0.037472747 0.06620939 0.0689462
000120 81 a2 82 be e5 31 3d 3e 34 f7 af bd 00 eb e3 3e
       -0.25514606 0.18476065 -0.08592072 0.44515228
000130 4b c8 1f 3c 70 56 68 be 4a 34 e0 3c 08 19 42 3d
       0.009752343 -0.22689223 0.027368683 0.047387153
000140 98 e8 c3 3d cb f4 78 be d7 3c 30 be 64 d8 1b be
       0.09565848 -0.24312131 -0.17210709 -0.15219265
000150 42 93 0e 3f dd ce 38 bd b6 eb 1f be 2b 45 fc 3d
       0.5569345 -0.045119155 -0.1561726 0.1231788
000160 bf 2e 17 be 13 44 31 bc be 39 0c be 57 a1 40 be
       -0.14763926 -0.010819453 -0.13693902 -0.18811546
000170 d2 c8 84 3c 62 94 9f be a7 b9 56 be 94 80 8d be
       0.01620904 -0.31167895 -0.20969258 -0.2763716
000180 d8 92 8d 3e 0a e7 3c be 7f 09 b2 3b 7d b1 11 3e
       0.27651095 -0.1844751 0.005433261 0.14227863
000190 05 70 c9 bb 60 a2 7c be a5 ba a6 3c 3d 68 99 3d
       -0.006147387 -0.24671316 0.02035267 0.07490585
0001a0 56 cc c3 bd 66 32 99 3c 69 51 a7 3c 42 29 a6 bd
       -0.09560458 0.01870079 0.020424562 -0.08113338
0001b0 78 c6 46 bd 85 5e 00 3b 2a c1 aa bd c2 ca c7 3d
       -0.04852912 0.0019587588 -0.08337624 0.0975547
0001c0 00 05 11 bd db f2 ce 3a 39 d2 f7 bc 61 cb dd bd
       -0.03540516 0.0015788929 -0.03025161 -0.10829807
0001d0 1e 1a 46 be e1 25 28 bd 03 be ae 3d 98 d0 5a be
       -0.193459 -0.04105175 0.085323356 -0.21368635
0001e0 11 75 a4 bd 91 92 75 be 70 20 10 3e e8 f4 92 3c
       -0.08030141 -0.23981692 0.14074874 0.017939046
0001f0 9a f3 89 3e c9 3a d9 3c 7b 03 28 3f bb 77 4c bd
       0.26943666 0.026517289 0.6563031 -0.04991887
000200 f9 2b ac bd 9a b5 73 be e8 eb 58 3d da a8 9e bd
       -0.084068246 -0.23799744 0.052959353 -0.0774705
000210 f7 c5 fa bd a0 64 3e 3e 82 e9 c1 bd 0f b9 b8 be
       -0.1224479 0.18593073 -0.09468366 -0.36078689
000220 98 04 94 3e ea 3c 4a 3d 49 b5 53 3f 85 76 20 3d
       0.28909755 0.0493745 0.82698494 0.03917553
000230 9c 0b 0d 3e 01 66 45 bd d8 80 18 bd 61 f1 00 be
       0.1377396 -0.04819298 -0.03723225 -0.12592079
000240 97 66 36 3e b1 08 af bc ae bb 29 3f 2b fe 87 3e
       0.17812572 -0.02136645 0.66302 0.26561102
000250 cc 36 8e bd 81 eb 86 3e 5e 94 58 be 75 82 c1 3d
       -0.069440454 0.2635155 -0.21150348 0.09448711
000260 80 50 cd bd 38 6c f1 bd fb 60 6f bc 83 da 7a be
       -0.1002512 -0.11788219 -0.014610524 -0.24497418
000270 11 55 64 3d e3 ef 15 bd b6 43 00 be 97 a3 06 be
       0.05574519 -0.036605727 -0.1252583 -0.13148342
000280 ff fb 72 be 5f 02 0a 3e b4 e3 f2 bc a2 b4 8a bd
       -0.23728941 0.13477467 -0.029649593 -0.06772734
000290 90 94 bf 3e 3a 53 9c bd c4 c2 db 3e 98 83 ae 3e
       0.37418032 -0.07633062 0.42922032 0.34084773
