SimLoan/VACA/exper_test/toy_/vaca/dgnn_elbo_8_8_16_4_normal_0.0_0.2_0.0_0.0_0_False_DeltaLikelihood()_7_21/adam/0.005_0.9_0.999_1.2e-06_exp_lr_0.99/9/ckpt/last-v2.ckpt (torch, 123288 bytes, 30 tensors)

model.encoder_module.convs.0.m_net_list.0.weights.weight f4 [32, 21]
00000000: 5387 383e a2fe fbbb 4762 c4bd bb29 f53d
00000010: a9d7 9d3e b49f 143f c096 113d 9a03 95be
00000020: 5cda d4bc 8421 813e 1fef 573b 3d36 0ebd
00000030: afdd 9ebc 8587 df3e 43b9 c9ba 4af7 413e
00000040: e322 29bd b0ab bc3d 5cf1 803d f1f3 1abe
00000050: 1e7d 133e 7e13 80be 8b41 b0bd 521a 00bc
00000060: 7414 8fbe 1419 863d 9769 6fbe c14b 96bd
00000070: dcb6 a3bd ea0f cdbc 7edf d5bd cec0 e2bc
00000080: ca16 1abc 5196 013e 3ce6 ac3d d5af 8739
00000090: 78ee 2c3d 5bc7 623d 4458 c83d 2c41 bfbc
000000a0: 1c98 9b3e 5110 d93e 8478 fdbd e542 d13d
000000b0: 303f 8abd 94e9 d93c 1fda 263c cc2f eebb
000000c0: 9f8a fcbc eede 0bbe 1a41 8cbc ecad 7bbe
000000d0: 1e99 aa3e 1837 8c3c 0a72 553e de8f 273e
000000e0: 8700 cf3c 6c1c 22be a295 05bd 03ef 823d
000000f0: 37c2 bc3e 36c6 9abe 0820 503e 47f6 e5be
00000100: 123d d6bc 7d70 5abd 9528 893c 5fc7 b8bc
00000110: ce84 453c 277c 2e3c 6db5 32ba 881b fd3c
00000120: 3cbe 5bbe c92c 1d3e dba5 07bc 7e23 c03b
00000130: cdef d4bc 2577 9e3c 0886 7bbc ab7d 653e
00000140: 0c92 a8be 9c27 47be 9110 40bc 4d5c c63d
00000150: 597d 48bd b13c 083d ba41 a5bc 4778 a03b
00000160: fe6b 11bd 6ef5 55bd 36e5 443c a3a8 49bd
00000170: 3b8e 8f3e d026 d8be 25f0 a7bd 5a4d 8a3d
00000180: 385b d1be 8a11 2b3d a33c babd fffb 2ebc
00000190: 47f0 733c ede7 743e 3e79 99be ad9d 363e
000001a0: 7298 a6bc 34cd 68be 7cde ad3b 8e29 c53c
000001b0: 83cd 1d3b bee7 e3bd e52b 94bd f7e3 3fbe
000001c0: f5d3 f43d d49a 81bd f1c9 1b3e d13e 51bd
000001d0: 6258 1a3d d3cf 8b3e ec05 333e 105b 79be
000001e0: 0663 51bd 92a9 56bd 383c 3f3e 84c3 19be
000001f0: 2549 5c3e 1257 3dbb 6a6d a6be 9f90 f33b
00000200: f08c f3bc 4f76 4cbc 61ba 483a 6efc a6be
00000210: 6d29 6c3d 6215 813d f11a 6a3d 8368 253e
00000220: afcc 58be 3cfc 44bd f96a cdbe 8116 c2ba
00000230: 46b3 2fbd f0db d23d 60bd 4bbc 39df 343e
00000240: ebcf 6b3e 9672 70bd d1be 4e39 be87 573c
00000250: faaa 273c 3042 5fbd 0f02 ce3a e5fd 55bc
00000260: 2f0f b83e 2b76 bebc c5b6 adbe 4ea1 0e3e
00000270: f053 2c3e ca56 a1bc 697b eabd 50f1 883e
00000280: 592f 26bd 490f 873d ce0d 19bd fc47 1cbd
00000290: 61e5 b0bd 38b9 3fbd 3f70 10be ad89 2a3d
000002a0: 4479 a43e 9fc8 2e3b 5dc1 19bc 6534 f33c
000002b0: 4d56 69bd 4949 513c 13dc a43c 1f3d ff3c
000002c0: 1cae 873c 5572 b13d 8620 a83c c05f 203b
000002d0: 018e 54be 0dc3 8f3c d030 bc3d 9513 1bbd
000002e0: e7ca 823b e926 59bd c9ce d33d 685d 90be
000002f0: f094 583e 7d63 ce3e 1cfc f63c e11b ad3d
00000300: d9e9 53bc 39fd d23c b106 df3c 337d 2c3d
00000310: 03a1 10be cafd 5fbd 50d7 e3be e072 643e
00000320: 25dd 983d 297e d03b 02b7 96bc 84b6 7e39
00000330: 1997 07be b52c 00bd 9fed 943d 5ea5 23be
00000340: 1313 4b3e b03a bcbe b3f2 cd3e 99ec 363c
00000350: 02cc 0e3c 0431 d2bd 5470 963d 649e 83be
00000360: cf48 2ebd 7309 6abb 957b 98bd 875a 4f3d
00000370: 3aae 3a3e 4496 e9bb 7554 58bd d962 2c3d
00000380: 5ac6 773c 147f c8be ffcd cb3b 3910 82be
00000390: ce71 6abe 97a4 af3d bd48 99bc 19c4 823a
000003a0: 49b5 e13a 3b60 8bbb 1281 91bc 239a 223b
000003b0: bf2a e0bd a38b 05be dd0b 8abd cfce dbbc
000003c0: 2fde dcbe 129f 303e 3fe0 773b d559 9a3e
000003d0: 7618 5abc 0374 82bc d280 bc3e 0d9b 2d3c
000003e0: 247e a3bd ecef 06be 10f5 1abc 6747 cbbe
000003f0: cd19 93bc f124 923a f51a ae3c ee64 d2bc
0.18020372 -0.0076902667 -0.095890574 0.1197085 0.30828598 0.5805619 0.035544157 -0.2910431
-0.025983028 0.25220883 0.0032948924 -0.034719694 -0.019392816 0.4365808 -0.0015390295 0.1894199
-0.041293036 0.09212434 0.06296036 -0.15132119 0.14403197 -0.2501487 -0.08606251 -0.007818775
-0.27945292 0.06547752 -0.23380123 -0.07338668 -0.07993862 -0.025032002 -0.104430184 -0.027679827
-0.009404847 0.12654997 0.08442351 0.00025880212 0.04221961 0.0553659 0.0978246 -0.023346506
0.30389488 0.4239526 -0.12376502 0.10217837 -0.06750333 0.026600637 0.01018384 -0.0072688814
-0.030827818 -0.1365926 -0.017120887 -0.24578065 0.33319944 0.017116114 0.20844284 0.16363475
0.025268806 -0.15831155 -0.032613404 0.06393244 0.36866924 -0.30229348 0.20324719 -0.44914457
-0.026152167 -0.053329933 0.016742984 -0.022556005 0.012055589 0.010649717 -0.00068171957 0.030896917
-0.21459287 0.15349115 -0.008279289 0.005863606 -0.025993252 0.019343922 -0.01535178 0.2241122
-0.32923925 -0.19448704 -0.0117227 0.09685574 -0.048947666 0.033261005 -0.020172942 0.0048971507
-0.03550338 -0.052236013 0.012017539 -0.04923309 0.280382 -0.42217112 -0.08200101 0.06753035
-0.40889907 0.041764773 -0.09093597 -0.010680198 0.01488883 0.23916598 -0.29975313 0.17833586
-0.020336363 -0.22734529 0.005306063 0.024067666 0.0024078793 -0.11128186 -0.07234935 -0.18739305
0.1195449 -0.06328359 0.15213753 -0.051085297 0.037681945 0.27306995 0.17482728 -0.24351144
-0.051119827 -0.05240781 0.18675315 -0.1501599 0.21512277 -0.002889101 -0.3250535 0.0074330117
-0.02973029 -0.012479379 0.0007657167 -0.32614464 0.057656694 0.063029066 0.0571546 0.1615315
-0.2117183 -0.048092112 -0.40120676 -0.0014807732 -0.042895578 0.10295856 -0.012435287 0.17663278
0.23028533 -0.058703028 0.00019716776 0.013154922 0.010233635 -0.05450648 0.0015717166 -0.013061021
0.35949084 -0.023249706 -0.33928505 0.1392872 0.16828895 -0.019694705 -0.1144932 0.26746607
-0.040572498 0.06594712 -0.03736668 -0.038154587 -0.086375006 -0.046807498 -0.14105318 0.041635204
0.32123768 0.0026669872 -0.00938448 0.02968807 -0.05696707 0.01277382 0.02012447 0.031157074
0.016562514 0.08664385 0.02052332 0.0024471134 -0.20757295 0.017549062 0.09188998 -0.03786047
0.003991473 -0.053015623 0.103421755 -0.28196263 0.21150565 0.4031028 0.030149512 0.08452583
-0.012934172 0.025755512 0.02722487 0.042111587 -0.14123921 -0.05468539 -0.44500208 0.22309446
0.07464055 0.0063626957 -0.018397812 0.0002429132 -0.13241233 -0.031292636 0.07271885 -0.15981051
0.19831495 -0.36763525 0.40224227 0.011164808 0.008715631 -0.10263255 0.07345644 -0.2570678
-0.042549904 -0.0035711199 -0.074454464 0.050623443 0.18230525 -0.0071285088 -0.05281492 0.042086456
0.015122974 -0.39159453 0.006219625 -0.25403002 -0.22894976 0.08576315 -0.018711442 0.0009976655
0.0017220165 -0.004253415 -0.01776174 0.002481111 -0.10945653 -0.13041548 -0.06740544 -0.026832012
-0.43138263 0.1724818 0.003782287 0.3014666 -0.013311496 -0.01592446 0.36817032 0.010596049
-0.07983044 -0.1317746 -0.0094578415 -0.39702913 -0.017956639 0.0011149925 0.021253088 -0.025682893

model.encoder_module.convs.0.m_net_list.0.bias.weight f4 [16, 21]
00000000: 9002 bc3d dd13 a2bd bb11 1fbe f24a 9abe
00000010: a6ac 973e e66a 263e 1b83 eabd bb83 f6bd
00000020: 4b1f ccbd 2441 b5bd 100d acbc c98c 3bbe
00000030: b383 78bd e309 bc3d 49af 23bc af33 e93e
00000040: 284b 253e 57f2 2bbe 0485 19bc c5c8 27be
00000050: 552e a43e b14c 6d3e 5d5c 17bd e596 aebd
00000060: 1f31 d0bd ca4e 79be 0bc5 003f 29f3 82be
00000070: 61d7 3d3e e8f5 26be 51d0 c7be 0c0f 4bbe
00000080: 8ee9 5abe cfbc 413e 3533 223e 840e aabd
00000090: a6df 89be 4eac cd3d 0957 913e d7a5 00bc
000000a0: d3e1 a23d 82b7 a73e 0c84 c1bc 858f a93c
000000b0: e87a 5ebe af43 43be 081c 94bd 816a 8bbd
000000c0: 8ad0 1dbe cb03 65be 915e 82bd a89e 803f
000000d0: 7436 acbd a997 c3bd e413 4a3e a92e 61be
000000e0: 4378 ba3b 6e10 033f 0ecb 8abe f4d6 45be
000000f0: 556e 093e 2c6a 7d3d 97ab e23d 4d1a 413e
00000100: 3f70 20be 8d74 4bbe a0ce a2bd 2552 dbbd
00000110: 8eb5 283f 44fb 17bd cdc3 b6bd b213 dfbd
00000120: 0b2b 0cbe 5494 3abe e838 03bd 4093 27bd
00000130: 3da5 f3bd 779b 9abd a8b9 153f f193 503d
00000140: f2d9 043e 4275 3cbe ef3c 91bd f1eb 5e3e
00000150: b5e3 3dbe de0e 04be 8c14 00bd 57a8 92bd
00000160: 0234 73be 0c53 5cbe 87c3 383c 1055 a73d
00000170: 6317 79be a1e6 dd3e 137f 2f3e 0b3c 53be
00000180: 4fdd 8d3e f7fc debd 0d78 a1be 7f46 773e
00000190: 7be7 45bd 2b72 abbd 1639 d5be eca7 9bbe
000001a0: b1c4 e1bc 9c01 e73d d58c 6abd 8d29 f9bd
000001b0: 3f47 86bc c2a8 8ebe f21b 233f 9757 afbe
000001c0: 8867 6e3e 1d6d 65be b35d 4ebe 9f26 043e
000001d0: 8114 25be fa47 b73e 3388 9abe 1acb d5bd
000001e0: 0746 b53e 05a9 41be 6a66 86be 2de1 e7bb
000001f0: 95cf b6be 8a41 0abd 06b8 283e da11 cfbc
00000200: 9293 4dbe 72df d0bd 6e88 9dbd e32c 2bbe
00000210: 2fc1 e6bd d81d 00be 3ffc 02be 5abe c8be
00000220: ecbe e2bd 004c 89be c89d 973e 708c d9bd
00000230: b2bb 4dbe e26d 1f3f 0cc1 56bd 29a3 9e3b
00000240: 0ed6 853e ea92 24be 15df cbba 3166 16bc
00000250: 33d3 15be 18fe 46be 7f68 25be 36f9 bebd
00000260: 6d65 6c3e bcbd 963c bf55 42bd d1dc 51be
00000270: 7f86 fb3e b88b 92bd fbd0 343d 9933 a03d
00000280: 0ac3 47be e980 fa3c d564 a4be b354 12be
00000290: bf59 e93d 0647 f83e be19 c4bb b474 fd3d
000002a0: 4080 213e 111d 70bd 0bf6 fdbc acaf 0a3c
000002b0: 18a2 83be b4e8 b5bd 22a3 54be edc8 ebbd
000002c0: 3d0b fbbc eeef d9bd 1e0c 76bd da41 7cbc
000002d0: b805 8d3e 742e bbbd ed5f b2be 53a6 593e
000002e0: 5d54 b23b 53b3 9fbd f245 7a3c 6c71 5bbe
000002f0: 2965 823e 3bfc dd3e 4092 a2bd 6bb0 91be
00000300: 822d 67bd d512 48be c5c3 44be 9559 0fbe
00000310: 2e9d 08be 46db 5abe 59b8 df3d 5ad8 90be
00000320: 6bd3 a5bd 6dd2 3abd ccb6 01be b756 c6bc
00000330: 4311 e83c 9539 0cbe d880 38bc eeef 1f3f
00000340: 9718 f0bd 7051 9b3e eb8f 183d 713c 29bd
00000350: 5643 94bd b0e0 adbd 9623 8ebe a696 18bd
00000360: 6709 2cbe 9f1d 40be f0c6 77be 946f 2ebe
00000370: 9201 8d3e 7111 72bd 0cb4 dd3e f6f8 06be
00000380: 853d a1bd e625 03bc a916 c9bd 3c4c 663c
00000390: 6fe3 2e3f 3d5a 023e c5f6 61bd a9cf 3cbc
000003a0: d769 38bd e7ec b3bd 364f 2fbe 3cba 0ebd
000003b0: 051a 1cbe 78b6 febd 4829 84be 9d5b c4bd
000003c0: 5980 ca3d 59ba 15be 6a8a d2bc bfac 813d
000003d0: 2b9c 15be 312f fcbd 25dd 01be 7b77 12bd
000003e0: 7979 cc3d 92ff 3abd 9c43 b7bc 8beb ca3e
000003f0: 56e8 17bc 5287 a2bc 77f1 2cbe fcfe 0fbe
0.09180176 -0.07913945 -0.15534107 -0.30135304 0.29623908 0.16251716 -0.11450788 -0.12036844
-0.09966906 -0.08850315 -0.021002322 -0.18315424 -0.060672473 0.09181573 -0.009990522 0.45547244
0.16141951 -0.16791664 -0.009370092 -0.16385181 0.320666 0.23173787 -0.03695332 -0.085248746
-0.10165619 -0.24346462 0.50300664 -0.2557614 0.18539192 -0.16304743 -0.3902612 -0.19829959
-0.21378157 0.18919681 0.15839846 -0.0830355 -0.26928443 0.1004263 0.28386715 -0.007852039
0.07953229 0.32757193 -0.023622535 0.020698318 -0.21726573 -0.19068788 -0.07231909 -0.068074234
-0.15411583 -0.22364728 -0.06365693 1.0048418 -0.084088236 -0.09550411 0.1973415 -0.21990456
0.005690606 0.51196945 -0.27108043 -0.1932028 0.13420995 0.06186883 0.110678844 0.18857689
-0.15667818 -0.1986868 -0.07949567 -0.10709027 0.6590203 -0.03710486 -0.08924065 -0.108924285
-0.13688295 -0.18220645 -0.032036692 -0.040911913 -0.11896751 -0.07549184 0.58486414 0.050922338
0.12973765 -0.18404105 -0.070917 0.21769692 -0.18543895 -0.12896296 -0.031269595 -0.071610145
-0.23750308 -0.21516055 0.011277086 0.08170521 -0.24325328 0.43340018 0.17138319 -0.20628373
0.27707908 -0.10888093 -0.31536904 0.24147986 -0.04831646 -0.08371385 -0.41645116 -0.30401552
-0.02755961 0.11279604 -0.057263214 -0.12166128 -0.016391395 -0.27863127 0.63714516 -0.34246513
0.23281682 -0.22404905 -0.20152931 0.12905358 -0.16121103 0.357971 -0.30182037 -0.10439129
0.3540499 -0.18912132 -0.2625001 -0.0070764036 -0.35705248 -0.03375391 0.1647645 -0.025277067
-0.20075825 -0.10198869 -0.076920375 -0.16716342 -0.112673156 -0.12511384 -0.12791537 -0.39207727
-0.11071572 -0.26815796 0.29612565 -0.106224895 -0.20091131 0.6227704 -0.052430198 0.0048412276
0.26139873 -0.16071668 -0.0015554155 -0.009179638 -0.14631347 -0.19432867 -0.16153143 -0.09324877
0.23085566 0.01840102 -0.047445055 -0.20494391 0.4912605 -0.071555555 0.04414461 0.078223415
-0.19507995 0.030579047 -0.3210818 -0.14290123 0.11394071 0.48491687 -0.005984514 0.12375775
0.1577158 -0.05862147 -0.031001111 0.008464735 -0.25709605 -0.08882275 -0.20765355 -0.11512933
-0.030645007 -0.10641466 -0.06007015 -0.01539656 0.27543426 -0.091397196 -0.3483881 0.21254854
0.005442186 -0.07797875 0.015275465 -0.21429986 0.25467804 0.433565 -0.07938051 -0.2845491
-0.056439884 -0.19538434 -0.19215305 -0.13999017 -0.1334121 -0.21372709 0.109238334 -0.28290063
-0.080969654 -0.045610834 -0.12667388 -0.02421127 0.028328544 -0.13693841 -0.0112611875 0.6247548
-0.1172344 0.3033557 0.037246626 -0.041317407 -0.07239406 -0.08490121 -0.27761525 -0.037253045
-0.16800462 -0.187613 -0.24196982 -0.17034751 0.2754026 -0.059098665 0.43301427 -0.13180909
-0.07873062 -0.008004641 -0.09818775 0.014056262 0.68315786 0.12729736 -0.05516698 -0.011524119
-0.04502281 -0.0878542 -0.1712006 -0.034845576 -0.152443 -0.12437147 -0.25812745 -0.09587786
0.098877616 -0.14621867 -0.025700767 0.06331777 -0.14610355 -0.123136885 -0.12682016 -0.035758477
0.099841066 -0.045653887 -0.022371106 0.3963283 -0.009271702 -0.019839916 -0.16888987 -0.14062113

model.encoder_module.convs.0.m_net_list.1.weights.weight f4 [128, 21]
00000000: a135 0abe fe5e 023e 150f 1e3c 379f eabd
00000010: 7d20 e83d fc5b 0ebf 1c73 95be fb70 583e
00000020: 88d0 4ebd 45f8 9fbd 156d 0a3c 690e 1f3a
00000030: 490c 75bd edd1 b6bc 76bd 1b3b 0c34 08be
00000040: cbb9 733d 97ff cfbd 45f6 aabe 3673 1fbe
00000050: 358e cf3d 063f 49be 9233 5abd 830a 3b3e
00000060: d52d 37be fd04 febd 3f7e 0d3e bfe7 31be
00000070: a842 513e 7ad1 46bb 29d2 b93c 4f13 bcbb
00000080: 0b63 babd 05b2 563d 796e 99bb 1339 21be
00000090: ebf6 28be e4d7 85be 8cd4 553d 09db 17be
000000a0: fd5f 64be 5ff9 ecbd a0cf 74bd 4ef1 d3bd
000000b0: 2b98 15be 89e2 a9bd 6f1f caba 5480 a1bd
000000c0: 0114 8abe 1926 98bc 20f1 ffba d347 d7bc
000000d0: 522e e8bb 7c08 a73c 9d06 113d 1055 993d
000000e0: 2c3b 813e 8d29 0bbe 2b2c 21be 74e3 97bc
000000f0: 919e 343e 218a 13bd 45ee 1c3d 6fd4 183d
00000100: b980 ccbd bd5f 8b3c 3222 1dbe 6eab e03d
00000110: 0885 a1bd aaad cabc 39dd 023e 930e f9bb
00000120: 4999 e6be 8af7 8e3c fbe9 113e 4bf1 b03d
00000130: 778a e23c 1dac 023e 6ed0 1bbd 791f f83d
00000140: cc72 88bd 0039 393e 5df8 e73d 978f 29be
00000150: bcd6 bd3c 6163 c53b 5d60 d13d 3d20 b7bd
00000160: 3c7f b13e ce12 74be a4e8 b33c 2fdc ff3d
00000170: 5afe a43d c3da 243e cbb3 7639 e7ae 133e
00000180: 3360 a3bc 5222 bebc 9ed5 00be 5710 fd3d
00000190: 256b d73d a2c4 913d b031 183e 3054 3dbd
000001a0: e1f3 3f3e 8ff3 6e3e 5c14 1dbc 2c45 663d
000001b0: 4abc 61bc f8a2 b0bc 766b 193e 94bd 0b3d
000001c0: 1a11 8bbe a9aa 9abd d09e 653c 00b9 91bb
000001d0: c9d0 babd 3443 2fbd a517 013d d753 edbd
000001e0: 44b7 bf3d fa3b dabd 9308 d6bc b45f b0bd
000001f0: 28bb afbd d9cd 453e 86f3 9dbd 354e 0a3e
00000200: 2cd7 0d3e d70d 01bd c12a 913c 1e43 12be
00000210: dbd8 633d da60 923d 8919 32bd 2560 003e
00000220: f957 2c3a 56be abbe 6f31 233d fbcc fd3e
00000230: bbdb 7f3e a3e3 6abf 2978 35bc 60a5 9abe
00000240: c485 4abc 8808 95bd 4646 c9be 8c3f c8be
00000250: 2ff1 18be 3b04 173e a991 413e ae00 ea3c
00000260: 35be 19be edb6 0a3e 403f c2bb d23b e3bb
00000270: 46df af3e a596 e33a 5e1a a6ba f4ac b83c
00000280: 6811 523c a7d5 1bbe 5333 103e 2824 51bd
00000290: 08e1 d0bd 7ef0 9abc 7d81 063e e392 a03d
000002a0: 8e8b b43d 97ba 2bbd f7a2 ffbb d417 b53b
000002b0: bdb3 3cbc 7178 393e bd44 11be 58d0 0cbd
000002c0: 02d1 013e 2142 0a3e 33ef 7b3c b6e1 583d
000002d0: 532c 933c e9dd 2cbc 6361 d5bb 7883 c63c
000002e0: 40a4 2e3d 40b9 823c 8a67 89b9 abcf a5bd
000002f0: 05a5 f4bd 245a d5bd 3f99 a9bd 3bfe 59bd
00000300: c959 103c d9fe 913c 8a92 f83c 3a5a 2dbd
00000310: 24be 1b3f f0d0 a8bd a9fd 833d 107a c0bc
00000320: 117a 09bd 7689 6ebe f1bd 8e3d 7141 52b9
00000330: 4b46 febd 5b22 353e 99f0 b9bd 46b5 933d
00000340: 6151 483b 3114 4b3e efec 8cbc 818f f63b
00000350: efc2 7abe d7c4 69bd 9202 65be 72d0 c8bd
00000360: 467d 523e 7601 c73c 6534 843c 1358 eb3d
00000370: 0df8 0c3d 62b5 593c d12e b1bd 6069 9abd
00000380: cbce ee3b 1ef4 003d f442 c5bd 9606 bd3e
00000390: c091 afbc 99e3 e43e 2dfe e73e 45f4 3abe
000003a0: 4184 2cbe c6e8 283b 0ce7 15bd 477e 7fbe
000003b0: d84a 173e e879 bbbc 9a20 d4bc 851b cb3c
000003c0: c558 0d3e b5b4 adbd 97c1 69bd bba0 533d
000003d0: d8b4 d6bd 9620 a638 bd4c e53d b855 afbd
000003e0: b0c3 823d 635c 16be f306 5cbd 188d 68bd
000003f0: 5d6a b7bd af3e 44be 1c22 bfbd a401 35bd
-0.1349702 0.12731549 0.0096471505 -0.11456149 0.11334322 -0.55609107 -0.29189384 0.21136849
-0.05049184 -0.078110255 0.008448859 0.0006067516 -0.05982617 -0.022316897 0.002376405 -0.13301104
0.059503358 -0.10156172 -0.33391014 -0.15571293 0.10134546 -0.19652948 -0.053271838 0.18265729
-0.17888577 -0.12403295 0.1381769 -0.1737356 0.20435584 -0.003033726 0.02268322 -0.0057396065
-0.09100922 0.052415866 -0.004682359 -0.15744428 -0.16500442 -0.26141274 0.052204654 -0.14829649
-0.22302242 -0.11571001 -0.05976832 -0.103487596 -0.14608829 -0.08295161 -0.0015420745 -0.07885805
-0.26968387 -0.018572854 -0.0019526817 -0.026279366 -0.0070856 0.020389788 0.035406698 0.074869275
0.25240457 -0.13590069 -0.15739505 -0.018541075 0.17638613 -0.036020402 0.03831317 0.037311967
-0.099854894 0.017013425 -0.15345076 0.109701976 -0.07886702 -0.024741013 0.12779702 -0.0076006143
-0.45038822 0.01745202 0.14249413 0.08639773 0.027653916 0.12760969 -0.03804057 0.12115378
-0.06662521 0.1808815 0.113266684 -0.16558681 0.023173682 0.00602381 0.10223458 -0.08941696
0.34667385 -0.23835298 0.021961518 0.124931686 0.08056326 0.16099076 0.00023527366 0.14422189
-0.019943332 -0.023209725 -0.12581488 0.12356632 0.10518483 0.07117583 0.14862704 -0.046222866
0.18745376 0.23335098 -0.009587374 0.05621831 -0.013777802 -0.021562085 0.149824 0.034116343
-0.27161485 -0.07552082 0.014014915 -0.0044471025 -0.09121854 -0.0427887 0.03151669 -0.11588257
0.09361127 -0.10655971 -0.026127135 -0.08612004 -0.08580619 0.19316806 -0.07712464 0.13506396
0.13851613 -0.03150734 0.017720582 -0.14283416 0.05562673 0.07147379 -0.043481383 0.12536676
0.0006574388 -0.33543652 0.039842065 0.4957045 0.24986164 -0.91753596 -0.011076012 -0.30204296
-0.012360994 -0.07277018 -0.39311427 -0.39110982 -0.14935754 0.14747708 0.18903221 0.028564777
-0.15013964 0.13546343 -0.00592795 -0.0069346214 0.34350032 0.0017363621 -0.0012672653 0.022543408
0.012821533 -0.1521822 0.14082079 -0.051059872 -0.10199171 -0.018913504 0.13135333 0.078405164
0.088156804 -0.041925993 -0.0078014093 0.005526522 -0.011517462 0.18112351 -0.14186378 -0.03437838
0.12677386 0.13501789 0.015376854 0.05294963 0.017965471 -0.010550954 -0.0065118535 0.024232611
0.04263711 0.015957475 -0.0002620782 -0.0809625 -0.119455375 -0.104175836 -0.082811825 -0.05322097
0.008810469 0.017821716 0.030343313 -0.042322375 0.60837007 -0.08242977 0.06444866 -0.023495704
-0.033563677 -0.23294625 0.06969822 -0.0002005154 -0.12415751 0.17688887 -0.090790935 0.072123095
0.0030566084 0.19831921 -0.017202822 0.007524431 -0.24488424 -0.057072487 -0.22364262 -0.09805383
0.205556 0.024292689 0.016138265 0.11491408 0.034416247 0.013287874 -0.08651508 -0.0753963
0.0072878352 0.03148281 -0.09631911 0.36919087 -0.021431804 0.44704893 0.45311108 -0.18257244
-0.16847326 0.002577351 -0.036597297 -0.24950515 0.14774644 -0.022885278 -0.025894452 0.024793396
0.13803394 -0.08481733 -0.057069387 0.051666956 -0.10483712 7.9215664e-05 0.11196277 -0.085612714
0.06384981 -0.1468368 -0.053717565 -0.056775182 -0.08955834 -0.19164537 -0.09332678 -0.044191018

model.encoder_module.convs.0.m_net_list.1.bias.weight f4 [8, 21]
00000000: bc5b f43d 8c9d 3aba 1efc fdbd 3654 ec3d
00000010: 48ff 0c3d 7aed 39be f87c 023e bbcb 373d
00000020: 51e0 27be f301 6c3d 3ab7 25bd a4cb 1abd
00000030: 38f2 833d 3c66 323c 547e ed3b 38df 1e3e
00000040: 3706 963b da3b 883d cb3c 963d 2948 f8bb
00000050: 39d4 e83d 7e2a 5b3d 8587 9e3b a2ed b8bd
00000060: 93d9 c5bd 2aec df3b af61 c1bd e76a 9b3d
00000070: 6e01 7bbe 5865 e6bd 3e03 15be 7ccf 243e
00000080: 7d69 cc3c a1a8 8b3d 0fd4 453e 48ec 25bc
00000090: c4db d93d 354b 6d3c d3d7 c2bd efbf cbbd
000000a0: 4356 d03d 6939 103e 58c4 cbbd a49d 5ebc
000000b0: 511c 1fbd 3899 ae3d 58cc e7bd d868 9abb
000000c0: 351c 233d f4ca 503c 718f 2c3d e863 60be
000000d0: 52fa 05bb 8e3e f8bb 93d6 c03d 7cd0 bbbd
000000e0: 4da4 a13d 9cd1 2cbd 19ee fd3d a4b9 5b3c
000000f0: 9f3a acbd d3ff b43d 4fb1 4fbe 4335 253d
00000100: f112 683c b52a 113e bb08 353e e846 103d
00000110: e051 26be b42f 79bd a92b 16be 3129 953d
00000120: 21d2 2bbc 6ac8 ed3d d99c 2cbd 2805 ddbd
00000130: ddd2 3cbe 7928 debd 8428 15be d377 b93d
00000140: 84be e2bc 12bc 16bd 84d6 173c f44d 013e
00000150: e87e 0b3c ced8 883c eb52 f53b 5cb0 75bc
00000160: 9bc9 c53d d9f7 93bf 33a3 96bb 03bb 163e
00000170: 121f 973d 0efe 16be d65c e8bd 66d8 9dbc
00000180: bd38 033e 9be7 56bd 78b8 b3bd c6cd 0cbe
00000190: 1d0a 51bd 70f2 9dbc ee11 5cbf db00 55bd
000001a0: 7c3c bcbd 97cd c23c ce51 a0bb d144 88bc
000001b0: 417f 913c 30de 233e 5c7a 94bd 216c 6b3c
000001c0: 56c1 95bd caba f9ba a932 b13c e1fb 1cbe
000001d0: 05a3 663d 3f3a edbe ddee a93b be03 60bd
000001e0: 47ac 05be a43d 33be 7e6d 843d a8d2 24be
000001f0: fdcf a8bc 2001 33be 89cc 04bd 78c5 9abb
00000200: 5879 59bd e5ca b7bd c9aa a73d 31d0 19bd
00000210: 2d90 8e3d 7cad c1bd 302b 58bb 60a0 67bc
00000220: abe9 633d 1f72 7c3d 664e 25bd f0f3 143d
00000230: a5e2 86bd 4801 21bf 573a 4dbd 1494 f73d
00000240: 17a1 023d 2f13 38be a15d 3cbf 203e 27bf
00000250: 767b db3b dff1 94bc 2a57 1dbe 8505 1c3e
00000260: 866e 9d3d 4a45 42bc 1792 2e3e 3ba4 9b3d
00000270: 3d38 90bf 1abd 2fbe 59a0 24be d490 1fbd
00000280: 147f 8f3d 15cd c4bb ea18 c83d 92b6 e43c
00000290: f8fe 133e d072 cb3d ece3 26be d097 84bc
0.119315594 -0.0007118813 -0.12401603 0.115394995 0.034423143 -0.18156996 0.12742984 0.044872027
-0.16394164 0.057619046 -0.04045794 -0.037791863 0.06442684 0.010888632 0.0072477255 0.15514839
0.0045783776 0.06652041 0.07335814 -0.0075769615 0.11368603 0.05350732 0.0048379325 -0.090297
-0.096606396 0.006833573 -0.0944246 0.075887494 -0.24512264 -0.112497985 -0.14552018 0.16094774
0.024952644 0.06819273 0.19319175 -0.010127135 0.1063762 0.014483263 -0.095138215 -0.09948718
0.10172703 0.140844 -0.09949559 -0.013587389 -0.038845364 0.08525318 -0.11318272 -0.0047122054
0.039821822 0.0127437 0.042128984 -0.21913111 -0.0020443392 -0.0075758165 0.09415927 -0.091706246
0.07892666 -0.042192087 0.12398929 0.013410959 -0.084096186 0.08837857 -0.20282482 0.040333997
0.014164672 0.14176448 0.17679112 0.03522387 -0.1624217 -0.06083651 -0.14665093 0.07283247
-0.01048711 0.116104916 -0.04214177 -0.10791999 -0.18439813 -0.10847563 -0.14566237 0.09056058
-0.027678736 -0.03680045 0.009267453 0.12627393 0.0085141435 0.016704943 0.007486691 -0.014995661
0.09657594 -1.1560012 -0.0045970916 0.14719777 0.07378973 -0.14745352 -0.11345832 -0.019268226
0.12814613 -0.05246697 -0.08775419 -0.13750371 -0.051035035 -0.019280642 -0.8596486 -0.05200277
-0.09191224 0.023779674 -0.0048925644 -0.016634377 0.017760875 0.16002727 -0.07249901 0.014369042
-0.073122665 -0.001905286 0.021630602 -0.15330459 0.05630781 -0.463335 0.0051859454 -0.05469107
-0.13054 -0.17503983 0.064661965 -0.16095984 -0.020606989 -0.17480898 -0.032421622 -0.004723247
-0.053094238 -0.08974246 0.081868716 -0.037552062 0.06961093 -0.09456918 -0.0032984726 -0.0141373575
0.055642765 0.06163227 -0.04035797 0.03636545 -0.06586198 -0.6289258 -0.050104465 0.120887905
0.03189191 -0.17976068 -0.73580366 -0.6532917 0.0066980673 -0.01818174 -0.15365282 0.1523648
0.07687096 -0.01185734 0.17047916 0.07599684 -1.1267163 -0.1716198 -0.16076793 -0.03895648
0.0700666 -0.006005893 0.09770377 0.027919088 0.14452732 0.09934008 -0.16297883 -0.016185671

model.decoder_module.convs.0.m_net_list.0.weights.weight f4 [64, 21]
00000000: a188 1ebe a30d 173e 8359 a7bd 21e5 0b3d
00000010: eb91 b8be 96a4 383f 5559 d4bd 9955 e9bc
00000020: e6c1 483d 22ce 5c3d 96d6 b93d 5a59 fbbe
00000030: 7d6b 4bbe de41 09bc 1352 80be 012d 17be
00000040: b7f1 dabe 6375 973d e529 d5be b1ed 793d
00000050: effb 02be ae47 c03c 4c5f 45be d0e3 48be
00000060: d870 c0bc 9482 8fbd 0e42 bbbe a6e7 6a3e
00000070: 9d60 8ebb 7e4b 2b3e 5248 e9bc ae6d 0a3d
00000080: 0b82 a6be a0fb 25bd b30b f5bd fdb1 33be
00000090: 8e19 cdbd 4d13 44be 6ecd 143c 8bb9 27bf
000000a0: c873 bebc bc71 42bc b89b 663e bce1 3e3e
000000b0: 011e 04be bb46 afbc fba1 ad3e 0a72 35be
000000c0: 1a3b 513e 1cc9 02be fbe6 4d3d e26a 00be
000000d0: 0e49 0b3e 1ba6 cf3e 306e b33b fd5c f2bc
000000e0: 472e bf3e 065d a4bd 504a ef3e 3df2 b23d
000000f0: 78c0 113f 7c53 81bd bd6e a73d 5a38 f13c
00000100: 5815 a03e 0cbf d83b e841 d03d 6beb 81bd
00000110: b815 d6bd e5dd 4dbc 3bef 983d 1c28 e9bd
00000120: 60ba 9d3d 7f99 8cbd 5cc1 303c b18b 743c
00000130: 4d83 993b 822d aebd 3d88 0f3d 1077 06be
00000140: 102a 15bd 91bd 243e 46ae 123d 3aaa 5b3d
00000150: 352c e53d 0e65 8abe 714b dcbd 4c8f 8ebd
00000160: 02f8 24bd 2e26 15bf b338 1bbb 8d06 c83c
00000170: e0bc d03b 44b2 86bd 9061 97bd d9d3 943e
00000180: 2819 433d 523b 34bc 10ec f1bb 595c b83d
00000190: 42d6 0ebd eb1c 1bbd 95af 70be 8b23 013d
000001a0: 0df0 a23d a997 a13d fcaf 413e 6a24 08be
000001b0: 44d3 b7bd 8ebd b13d c1f9 b8bc 881e 0c3e
000001c0: fa08 4a3e b130 1a3d 3d20 02be 3908 40bd
000001d0: 164e 1fbe 78ee 7b3d 8e59 093d 4cce 4f3e
000001e0: abed 403d db96 3dbe 965e cfbd cd5b 17be
000001f0: 7312 fdba 2342 993d 1fcb 17be 771f 373d
00000200: e324 2fbd 6688 d43d 336e 65be 7893 bf3c
00000210: 7705 49bd 1b80 8cbc 6e49 1f3d 4529 42bc
00000220: 2958 973b 154a 08be 0183 db3d a85c a2bd
00000230: 501f 62be d20f e03d 3f77 e0bd 27c9 c23d
00000240: 824e 203f 9255 97bd b706 2e3d c567 bd39
00000250: 7a2a e03c 06d8 16bd 2ba9 963d c06d 7abd
00000260: 0b44 bebd 51f7 143e 06c6 80be 8919 c3bd
00000270: bbd3 9ebc 393f 733d 4931 993d 552f 0ebe
00000280: 092e a83d 7959 18be 223b c83d 763f d43c
00000290: e78d b8bc 1322 de3d d074 b0bd 4d8f a5bc
000002a0: a962 293e 2e1b ccbb 86ed 8f3d 2fe7 dfbd
000002b0: 2eaf 9dbb 725b 643c 8850 9fbd 5c95 0e3e
000002c0: 9ba0 8f3d 5a59 1dbd 6c82 b43d e5a2 19be
000002d0: f0fa f53d b9df 87bd f19a 1cbe d8c2 7d3d
000002e0: 8686 503e d8d9 82bd a79e 38bd b597 403e
000002f0: c941 dc3d ac0c 8c3b d1b1 ffbb 87f0 5ebb
00000300: 2d66 033e 41e7 a63c 140d 3dbd 6b2f 673c
00000310: 4bd1 da3c 1b43 a5bd 3a4c 003e e516 a0bd
00000320: 78fd 803d fdd1 053f 9851 60bd e874 04be
00000330: b2f0 823d 64e9 0f3e 0ebd 543d 2ffa 333d
00000340: 0638 013d 0a9c 873d 55a8 723c 5c23 bfbd
00000350: e200 13be e318 a83d 7f9d b9bd 6705 343d
00000360: bd18 443e 36d5 8cbd 3b18 0fbe 929b c33c
00000370: 0396 1a3e c8e7 19be a65a 913d a875 0a3e
00000380: fca2 b63d f757 1bbe d6e1 2d3e bb87 b0bb
00000390: dd0e e73d 8ad3 613d 9a2b 9b3d 89ac 2bbb
000003a0: ba62 f8bc 4fee db3d 12e3 c7bc 8b8f afbd
000003b0: fe1f c5bd f66b 07be 5afe 83bd 244f a83d
000003c0: 2630 e93d 7c16 39be 2a6e c23b 23ed 833d
000003d0: ff00 ea3c afc7 383c 977a a53d 224d 233d
000003e0: 7d89 adbd 9550 92bb 37e3 8fbd b9b3 a73d
000003f0: 0f25 94bd ba84 91bb eccb 543e e59c b73d
-0.15481807 0.14751296 -0.0817137 0.03415406 -0.36048827 0.7212614 -0.10368601 -0.028483199
0.04901304 0.05390752 0.09074132 -0.49091607 -0.19865222 -0.00837752 -0.25062618 -0.14763261
-0.4276254 0.073954366 -0.41633525 0.061017696 -0.12791418 0.02347168 -0.19274634 -0.19618154
-0.023491308 -0.07007328 -0.36573833 0.2293993 -0.0043450133 0.16728017 -0.028476868 0.033796005
-0.3252109 -0.04052317 -0.11965122 -0.17548366 -0.1001464 -0.19147988 0.009082181 -0.6551749
-0.023248568 -0.011867937 0.2252034 0.18640798 -0.1290207 -0.021396032 0.33912644 -0.17719284
0.20432702 -0.1277203 0.05026911 -0.12540773 0.13602087 0.40556416 0.005475782 -0.029585356
0.37339994 -0.08025555 0.46736383 0.087376095 0.5693431 -0.063147515 0.081754185 0.029445816
0.31266284 0.0066145714 0.101688206 -0.063437305 -0.10453361 -0.012565111 0.074675046 -0.113846034
0.07701564 -0.068652146 0.010788288 0.014925883 0.0046848417 -0.08504774 0.035042036 -0.13131356
-0.036417067 0.16087939 0.03581073 0.053629138 0.111900724 -0.27030224 -0.10756577 -0.069609255
-0.04027558 -0.5826138 -0.0023684918 0.024417186 0.006370172 -0.0657697 -0.073916554 0.29067877
0.047631413 -0.011000471 -0.007382877 0.09001989 -0.0348723 -0.037869375 -0.23504479 0.031528037
0.07955942 0.07890255 0.18914789 -0.13295141 -0.089758426 0.08678733 -0.02258003 0.13683522
0.19729987 0.037644092 -0.1270761 -0.04688284 -0.15557131 0.06150672 0.03353267 0.2029354
0.047101658 -0.18514578 -0.10125463 -0.14781113 -0.0019307866 0.07483318 -0.14823578 0.04470774
-0.042759787 0.103775784 -0.22405319 0.023385748 -0.049077477 -0.01715093 0.038888387 -0.01185066
0.004618664 -0.1330951 0.107183464 -0.07927829 -0.22082257 0.109405175 -0.109602444 0.09511023
0.62619793 -0.07389368 0.042486873 0.00036126203 0.027364004 -0.03682711 0.07356485 -0.061139822
-0.09290322 0.14547469 -0.2515108 -0.09526355 -0.01938807 0.059386466 0.074801035 -0.13885243
0.082119055 -0.14877881 0.09776904 0.025909167 -0.022528602 0.10846343 -0.0861603 -0.020209933
0.16541542 -0.006228826 0.07027726 -0.10932767 -0.004812143 0.013937818 -0.07779032 0.13924164
0.07013055 -0.03841529 0.088139385 -0.15003546 0.12010753 -0.066344686 -0.1529348 0.061953396
0.20363817 -0.06389207 -0.045073178 0.18807872 0.10754735 0.0042739715 -0.00780318 -0.0034017877
0.12831946 0.020373942 -0.04615505 0.014110426 0.026711127 -0.0806944 0.12529078 -0.07816867
0.06298345 0.5227354 -0.054765314 -0.12935221 0.06393565 0.14053875 0.05193811 0.043939766
0.03154757 0.06621559 0.014810641 -0.09332916 -0.14355806 0.08207872 -0.09063243 0.043950465
0.19150062 -0.06876604 -0.13974087 0.023877893 0.15096287 -0.15029824 0.07097368 0.13521445
0.089178056 -0.15170275 0.16980681 -0.005387274 0.11282132 0.05513338 0.07576676 -0.0026195368
-0.030320514 0.10738813 -0.024400268 -0.085723005 -0.09625243 -0.13224778 -0.06444998 0.0821822
0.11386137 -0.18074983 0.0059335427 0.064417146 0.028564928 0.011278077 0.08080023 0.03986848
-0.084734894 -0.0044651725 -0.0702576 0.08188576 -0.07233631 -0.004440871 0.20780915 0.08965472

model.decoder_module.convs.0.m_net_list.0.bias.weight f4 [8, 21]
00000000: c7db fa3c c67b 08be 7bcc 84bb 713e d6bc
00000010: dcac ce3c 32c1 14be df44 eb3d b80e c6bd
00000020: 4e8e bbbe ae02 37bd 66d2 31be 14f0 9c3d
00000030: 6509 fabe cb03 e1bd e0c8 05be 4e67 e33d
00000040: 5ff8 823e 6b85 213b 1cb3 853d 90f0 49be
00000050: f0ac ce3c b3fd 853c 0907 34bc 9f89 23be
00000060: f921 4e3e 57f7 01be c4df 15be dbd2 f23c
00000070: e22c 56be a8a6 1a3c ee86 1f3d 5865 e2bd
00000080: 9236 b83c e585 a63e 11eb e4bd 6432 edbc
00000090: 6a52 c1bd de8c 9d3d 6980 2abe 7ed8 613e
000000a0: 6ab8 0ebe 9b7a 88bd 40a8 1e3e 0992 ccbd
000000b0: ac95 703b c262 523d abed bc3d f3b6 94be
000000c0: f7b7 cabd 7757 4ebe ce6e e6bd 49df 0ebe
000000d0: 5d3f 0ebd 10c5 9abd c46a 5b3e 665c 0bbe
000000e0: 4079 aebc 1b9c 163d 6788 88be 35da 593d
000000f0: 81d0 20be 84b3 0ebe 9945 db3d 5ee6 82be
00000100: b750 7bbe 622d 81bd 0d48 17be 7606 97bd
00000110: 1281 dcbe aa78 0b3e 5788 1fbe a336 e9bd
00000120: 94f2 6c3c 375f 86be d094 99be e25e d6bb
00000130: d427 80be 910e edbd 809b 643d 52b9 a6be
00000140: f1b1 c03e 75ef 99be 87a8 243d bec6 9d3d
00000150: 0b7e f8bc ed67 0e3e e088 4bbd 44a8 adbe
00000160: 48f3 99be 41af 893d cfc9 40bd d14a 4dbe
00000170: 949b 45be 7893 59be f4d0 453c f83f d4be
00000180: e935 183e 46c2 6bbe 4ee7 9fbe 1bf3 b83d
00000190: 93a9 11bd 21d7 0ebf 3669 6dbd 38e8 f0be
000001a0: fc64 ed3e 8940 61be b58b a2be 65fb 43be
000001b0: dff5 873d 4cfd b9be 516f 51be b444 97be
000001c0: a013 113d f69f 433e c8c8 4bbe 470e b83e
000001d0: 4a77 a9be 1085 1a3e 1958 4cbe 3c70 6cbe
000001e0: e187 08bd 3b84 19bb 3bcc b4be f6bb efbe
000001f0: 5969 94be 38f5 18be 3476 babd 0dec 1ebe
00000200: 50cd 4b3e 08d0 2dbe 1dba fabd 2b78 9abe
00000210: befa 1bbe deaf 49be dcfc b8bc 277a 983c
00000220: 0d2e f7bd 24a9 5cbe 1f16 2fbe 2e55 8bbe
00000230: 8ec2 cabe f4f6 42be 5b4b b5be cfd1 90be
00000240: 44b2 83be 92df 07bf 5f67 c13e 7130 86be
00000250: 3637 6abe 9baa 64bd f949 b3be a938 3dbe
00000260: 1e66 88be 931e f3bd da89 c5be 5afa b7be
00000270: fb22 523e 8963 a4be 3ac4 b1be 8fdd 2e3e
00000280: 3a9f 0dbd 4ac5 c0be 6c0b 94be dc5f c2be
00000290: fb1f 18be d374 e1be 4989 74be 9e6f 5ebd
0.030622376 -0.13328466 -0.0040526963 -0.026152821 0.02522891 -0.14526823 0.114877455 -0.09670776
-0.36632007 -0.04468029 -0.17365417 0.07662979 -0.48835292 -0.109870516 -0.13064909 0.11103688
0.25580117 0.0024646174 0.06528303 -0.19720674 0.025228947 0.016356325 -0.010988005 -0.15970467
0.20130147 -0.12692009 -0.14636141 0.02964156 -0.20915559 0.009439148 0.03894704 -0.11054486
0.022486959 0.32524028 -0.11177648 -0.028954692 -0.09439547 0.07692884 -0.16650547 0.22055241
-0.13937536 -0.0666401 0.1549387 -0.099887915 0.0036710305 0.051363714 0.09225019 -0.2904583
-0.0989837 -0.20150553 -0.11251603 -0.13952364 -0.034728397 -0.07557118 0.21427447 -0.13609466
-0.02129805 0.036769968 -0.26666567 0.053186614 -0.15704538 -0.13935667 0.10706634 -0.2556638
-0.24542509 -0.06307484 -0.14773579 -0.07374279 -0.43067223 0.13620248 -0.15579353 -0.11387374
0.014462132 -0.26244518 -0.29996347 -0.0065420726 -0.25030386 -0.11575044 0.05581236 -0.32563263
0.3763576 -0.30065504 0.040199783 0.07703923 -0.03033354 0.13906832 -0.04969108 -0.3391744
-0.3006842 0.0672288 -0.04706746 -0.20048071 -0.1929763 -0.21247661 0.012073744 -0.41455054
0.14864315 -0.23023328 -0.3123116 0.09030744 -0.03556211 -0.5579701 -0.057961665 -0.4705217
0.46366107 -0.21997274 -0.31747213 -0.19138868 0.06638693 -0.36326063 -0.2045262 -0.29544604
0.035419106 0.19103989 -0.1990081 0.35948393 -0.33098823 0.15089822 -0.19955482 -0.23089689
-0.03333271 -0.0023424763 -0.35312065 -0.4682309 -0.28986624 -0.14937294 -0.09104577 -0.15519734
0.19902539 -0.16973889 -0.122425295 -0.30169806 -0.1523237 -0.19695994 -0.02258151 0.018612934
-0.1206933 -0.21548897 -0.17098282 -0.27213424 -0.39601558 -0.19039518 -0.35409054 -0.2828507
-0.25721943 -0.53075516 0.37774178 -0.26208833 -0.22872624 -0.055826765 -0.35017374 -0.18478645
-0.2664041 -0.11871066 -0.38581735 -0.3593319 0.20521156 -0.3210719 -0.3472002 0.17076705
-0.03457568 -0.3765052 -0.28914964 -0.3796376 -0.1485595 -0.44034442 -0.23880495 -0.054305665

model.decoder_module.convs.1.m_net_list.0.weights.weight f4 [128, 21]
00000000: 1261 14bf f655 21be 64dd 2e3e 8530 7a3d
00000010: 6f82 673d 6c92 873d 7c25 473c 8b69 a73c
00000020: 08f8 a6bd 590a 5abe c399 81be c67f 5b3b
00000030: 7231 403d e226 863d 88d8 24be 5469 ef3a
00000040: 2782 b9bd f77c 10ba f1f4 49bd 9f4a 67be
00000050: ede8 d7bd 99a3 a9bc a439 0d3d 9497 e2bc
00000060: 5417 423e a167 28be 2ab0 ac3e cf21 963d
00000070: bcc1 07bd b4dc 183e 4837 56bd c2f3 27be
00000080: 104b 543d e829 47be a431 59bd 15bb 483d
00000090: 967a a63d 33f2 8ebe 0357 90bd 0c99 08be
000000a0: 85ec e6bd 9e7d 48be 8d2f b53d 2711 7bbe
000000b0: 1b7b 663d b932 6abe fba2 6dbe f61e 3fbc
000000c0: 7d23 8ebd 8e46 433d ab71 04bd 7bed 87be
000000d0: 5d9d ca3d 5a23 d2bd 5b87 da3d 6841 18bd
000000e0: b080 cdbc eab6 fc3d 5488 00bd 33c0 0ebe
000000f0: 6beb 02be 8112 6cbe 4e9d 1c3e ef34 44bf
00000100: 83f2 cabd 58fe 8fbd c3d4 9f3c 39ba 13be
00000110: fbf6 60be c61a 303d 0c04 9a3d 9557 27be
00000120: 821b ee3d eca5 48be bbbf 503d 074f c13d
00000130: 8c1e 103e df1b e83d b656 673c a5b7 02bd
00000140: 3cba 6abe 7ffa c63d 25f9 37bb ee15 97bd
00000150: c10e 07bf fa59 a63c 56a2 b53b 8ccc 043e
00000160: 7299 a6be b2b5 c53d bb26 57be a4e8 393e
00000170: 4c8a fd3b 1d9f d2bd e8be 103e cf34 91be
00000180: c638 cf3d 0cac 043e 956f 763d 9bc4 233d
00000190: a55e 893d cc40 bbbd c1d7 1d3d 607d 8ebd
000001a0: b1cf 7a3d 14e1 9fbe 58c3 01bd fbe5 5cbe
000001b0: 3e5b f73d 661b 38bd 128e a5be 3953 8fbe
000001c0: 35aa 5cbc d2d4 52be e507 2e3d 00aa 4abe
000001d0: f2de 3ebe bb7f 4cbd ed9a da3d a853 0cbe
000001e0: 25b5 b23c 8a15 be3d b561 74be f8ac 8c3e
000001f0: cae4 e9bd 25b3 2dbe 6015 afbd 1948 623d
00000200: 7046 6bbd 6077 8ebc 8ef5 71bd df5c 4cbe
00000210: faa2 e7bd 7c12 db3d c507 633d 8845 98be
00000220: 8765 0abe 26e8 263e fe20 983c 7f04 de3d
00000230: 92b3 863e 7006 1b3d 1d03 373d 19ca 94be
00000240: ba51 5f3e 5fd6 83be e245 8cbe 889d e9bd
00000250: 7f5d 8ebc b285 9bbe 0601 0cbe a901 e53d
00000260: b9cd 38be 6bf4 28bd af67 6fbd a69b 743d
00000270: 55f4 3d3e 8f53 6fbd 2ab0 a23d a2c3 83bd
00000280: e600 35be aaf0 7cbd 03c1 c33b c7f1 38be
00000290: e253 acbd 5e2d fbbc e4f6 ffbc b5d5 423d
000002a0: 7db2 a3be 1068 cfbe e133 09be 3197 20bd
000002b0: b6de 6abe 6c6c fabd 63b0 163e b668 d0bc
000002c0: ea29 f13b c280 8b3d da76 45be 216a 3ebc
000002d0: a6c4 3abf b81f 78be deb7 13be e6cb 1dbe
000002e0: b747 1b3c 7259 4f3e 9d9d d53c f3f5 42bd
000002f0: 1b69 c63c ed5b 23bc f941 2b3e c6a2 22be
00000300: 9d7c 0fbe 6e7c 5b3d eab1 bebd 970e d2bd
00000310: d6fe d6bd 9516 513d 2d72 b8bc 7149 acbd
00000320: 48d9 febc 2626 43bf 04c6 ddbd 5ab9 25be
00000330: bb01 0f3d ef85 cc3d b410 2f3d 730a 253e
00000340: e430 5d3d fc1d 3fbe 162a abbe b613 e9bc
00000350: 3a8d acbd e4d3 983d a380 293e 6c4a b23d
00000360: adcd 8dbe b0d4 603d 2eb5 c0bd 209f 9cbc
00000370: fca2 8a3d aa73 abbd 07d4 c0be 5b41 b6bd
00000380: c9cf cebd fa5a 14be c53d ce3c 472f b3bc
00000390: 4d33 3cbe b57a 94bd 0d97 d0be 033c cfbe
000003a0: 7a5d fa3d df1b 2fbd 672e dfbd 638e 71be
000003b0: 261e 25be 3687 0e3d 16bc 393d d9b4 3fbe
000003c0: cdde 60be 1c53 553e 6c6d 233e 02ed 92be
000003d0: 911c b7be cc7a 93bd 6b5e 673e 412c f83d
000003e0: c54b ee3d 901e 3bbd 4a80 4abe 3f2c c0bd
000003f0: 3211 77be abbb 353e 11f3 5ebb 0573 6a3d
-0.5796062 -0.15755448 0.17076641 0.061081428 0.056520876 0.06619725 0.012154933 0.020436069
-0.08152777 -0.2129301 -0.25312623 0.0033492907 0.046922155 0.06550385 -0.16098225 0.0018265643
-0.09058028 -0.0005511785 -0.04930586 -0.2258706 -0.10542474 -0.020707892 0.0344788 -0.027660169
0.18954211 -0.16445781 0.33728153 0.07330667 -0.033143744 0.14927942 -0.052298814 -0.1640158
0.051829398 -0.1944958 -0.053025857 0.04900654 0.0812885 -0.27919158 -0.07047846 -0.13339633
-0.11275581 -0.19579169 0.0884696 -0.24518262 0.056269746 -0.22870912 -0.23206703 -0.0116650965
-0.069403626 0.047674708 -0.032334965 -0.2654837 0.09893296 -0.10260649 0.10670348 -0.03717175
-0.025085777 0.123395756 -0.031380013 -0.13940506 -0.12785117 -0.23053934 0.15294382 -0.7664327
-0.09909537 -0.07030934 0.019510632 -0.14426507 -0.21969216 0.042994283 0.07520303 -0.16342004
0.116263404 -0.19594544 0.0509641 0.094389014 0.14074153 0.11333441 0.014119795 -0.03191342
-0.22922605 0.09715747 -0.0028072086 -0.0737723 -0.5275689 0.020306576 0.0055430336 0.12968653
-0.32538944 0.09653796 -0.21010868 0.18155152 0.0077374335 -0.10284255 0.14135325 -0.28360602
0.101182505 0.12956256 0.060165007 0.03998242 0.06707505 -0.091432184 0.038535837 -0.06957507
0.061233226 -0.31226408 -0.031680435 -0.21572106 0.1207795 -0.044948004 -0.32334954 -0.2799318
-0.013468315 -0.20588997 0.042487998 -0.19791412 -0.18639734 -0.0499265 0.10674081 -0.13703787
0.021814892 0.09281452 -0.23865397 0.27475715 -0.11420591 -0.1696287 -0.08548999 0.05524454
-0.05744022 -0.017390907 -0.05907207 -0.19957303 -0.11310382 0.10696885 0.05542733 -0.29740548
-0.13515292 0.16299495 0.01857042 0.10840701 0.26308876 0.037847936 0.044680703 -0.29060438
0.2180852 -0.2574949 -0.27397066 -0.11407 -0.017378567 -0.3037544 -0.13672265 0.11181957
-0.18047227 -0.04124872 -0.05844849 0.05971875 0.18550237 -0.058429297 0.07943757 -0.064337984
-0.17676124 -0.061752953 0.0059739365 -0.1806098 -0.08414437 -0.030661281 -0.031245656 0.04756709
-0.31972113 -0.4050908 -0.13398696 -0.039206687 -0.2293652 -0.12227711 0.14715724 -0.025440555
0.007359733 0.06811668 -0.1928362 -0.011621983 -0.7295631 -0.2423085 -0.14425609 -0.15409812
0.009477547 0.20248964 0.026076132 -0.047597837 0.02422004 -0.009970647 0.16724385 -0.15882406
-0.1401238 0.053585462 -0.09311278 -0.10256689 -0.10497825 0.051046927 -0.02251538 -0.08412445
-0.031109467 -0.76230085 -0.10828784 -0.16183987 0.03491376 0.09986483 0.04274054 0.16117267
0.054001704 -0.18663782 -0.33430547 -0.028451782 -0.08425374 0.0746229 0.16552977 0.08705601
-0.2769598 0.054890335 -0.09409557 -0.019118845 0.06769368 -0.083716705 -0.37661764 -0.08899184
-0.100982256 -0.1448783 0.025175938 -0.02187313 -0.18378945 -0.07249967 -0.40740243 -0.40475473
0.122248605 -0.04275119 -0.108975224 -0.23589472 -0.16124782 0.034796916 0.04534539 -0.18721332
-0.21959992 0.20832485 0.1595971 -0.28696448 -0.35763982 -0.07201156 0.22594611 0.12117816
0.11635546 -0.045683444 -0.19775501 -0.09383439 -0.24127653 0.17747371 -0.003401939 0.057238597

model.decoder_module.convs.1.m_net_list.0.bias.weight f4 [8, 21]
00000000: 7bd8 503e 6665 de3d 09f5 7dbd 968a 0bbe
00000010: 7c5f 31be 5b69 45be 0d4b 22be 9323 a2be
00000020: f386 7c3c 4dc7 94bd 4c98 a6bd 3b75 ffbd
00000030: 721e af3e 149d 8ebd 280b 12be 5346 c33c
00000040: d24f 1f3e 796b 223f d0d0 ba3c bd78 873e
00000050: 0d6d a23e 7bce d7bc 727c 2dbd 7b2b 3fbe
00000060: 3cac d0bc 5673 293b eea2 4c3e 1126 8bbd
00000070: de6c d63e 5b6f f2bd 1317 273d dd39 403e
00000080: 1d35 ca3d 302a 313f 7cc5 35bd ad3a d0bd
00000090: 393d 2fbe 677f 003e 653b 193f 888d 443b
000000a0: dbfc cc3e 6cd3 463f 2781 703c a9f3 6bbd
000000b0: cf8b aa3d d597 12be 4107 3cbe cbc7 6a3d
000000c0: 0cbd aebd 928b 853e d4a5 a33c d05b bfbd
000000d0: 1e9a 603e 2fc1 52be 63e6 0c3f b261 60bd
000000e0: 3341 b43c 6883 603e ee57 263c 8118 543e
000000f0: a537 0bbe 17d6 87bd ff70 6d3f 167d 8c3e
00000100: bcc3 03be 80f9 34be bb04 a63d 6882 8fbe
00000110: 3f9e 1cbd 854c 4ebc 396b 083d 44f3 b13d
00000120: bc1c 6cbe fb82 1b3e f9bc c0bd 4cf5 d23e
00000130: d985 d13c a87b 7ebe 2664 ee3c 7799 543d
00000140: ce98 e13d 78ff 87be b3f1 4abe 2c76 33be
00000150: da8a 0a3f 7736 38bd 471b 41be 1e06 da3d
00000160: 1289 10be fcf0 26bc 3953 29be 09fe 66be
00000170: 3871 08ba 3184 86be 5abe 80be 1c30 8abe
00000180: 67d1 993e 8f0c 4ebe 79b8 433c 9807 043e
00000190: 6b9f be39 d0b1 66be fd14 b63c d96b e03d
000001a0: 142f 8bbd 0dc4 cb3c 4272 f53c c359 bdbd
000001b0: 0e22 4fbd 12d2 ca3b d04d 9bbd 9e98 bd3d
000001c0: 696a 19bd 5ea6 d73a 3f96 bf3b b1a2 eabd
000001d0: 5c68 49be 7e9a 30bd eb16 b63d 5de9 5ebe
000001e0: 665f abbd a7b0 7abe c446 433e 4c14 303d
000001f0: bebb a33e 65df 9b3d ff70 2b3f 7ebc 49be
00000200: a7d3 38bd 0f76 55be 18ac 513d f3ff a4bd
00000210: 9e0c abbd 399f 433e cc17 80bd 84b5 a9be
00000220: c7a3 963e b9fc 423d 083a 523f d605 973d
00000230: c73d 0b3e 05bb 6a3a 6ac9 1fbd 674b 5abe
00000240: 3d5c 493e ad58 debd 0231 213f 035f 903e
00000250: 1c0a 96bd 58f7 773e fd47 6cbe 4754 ca3d
00000260: a6a1 d7bd e59f 0ebe 60c7 b2bc 00d6 88be
00000270: 1419 393d 5cf5 5fbd 7e1c 06be c522 35be
00000280: 3b8b 84be a24c 103e 2533 63bd 0c07 91bd
00000290: 9d76 c23e 7b32 07be a6a7 de3e bca8 b23e
0.20395081 0.10859184 -0.06200126 -0.13627085 -0.1732158 -0.19278471 -0.15848942 -0.31667766
0.015413034 -0.07264576 -0.08134517 -0.12473532 0.34202915 -0.06963554 -0.14262068 0.023837244
0.15557793 0.6344524 0.022804648 0.26459303 0.31723824 -0.026343575 -0.04235501 -0.1866893
-0.025472753 0.00258561 0.19984028 -0.0679437 0.41879934 -0.118376456 0.04079349 0.18772073
0.09873412 0.69205 -0.04437779 -0.101674415 -0.17113198 0.125486 0.59856254 0.0029991586
0.40036663 0.77666354 0.01467923 -0.05760542 0.083274476 -0.14315732 -0.18362142 0.057319444
-0.085321516 0.26083046 0.019976534 -0.09343684 0.21933791 -0.20581506 0.5503904 -0.05478067
0.022003746 0.21925128 0.0101528 0.20712472 -0.13595445 -0.06632631 0.92750543 0.27439183
-0.12867635 -0.17673302 0.08106371 -0.2802918 -0.038236853 -0.012591486 0.03330538 0.08688977
-0.23057836 0.15186684 -0.09411044 0.41202772 0.025576519 -0.24851859 0.029100489 0.051904168
0.11015473 -0.26562095 -0.19818763 -0.17525548 0.5411812 -0.044973817 -0.18858062 0.10645698
-0.14114788 -0.010189291 -0.16535653 -0.22557844 -0.0005204859 -0.2627273 -0.25145227 -0.2698983
0.30042574 -0.20121978 0.011945837 0.12893522 0.000363584 -0.22528768 0.022226805 0.1095807
-0.06796089 0.024873758 0.029961709 -0.09245636 -0.050569586 0.006189593 -0.07583201 0.09257625
-0.037454996 0.001645278 0.005846768 -0.11456812 -0.19668716 -0.043116085 0.0889109 -0.21768709
-0.08367805 -0.2448145 0.19069964 0.042988107 0.31979173 0.076109685 0.66969293 -0.1970081
-0.045123722 -0.20845817 0.051189512 -0.08056631 -0.08352016 0.19103707 -0.06254539 -0.33146298
0.29421827 0.047604296 0.821198 0.0737416 0.13597785 0.00089542597 -0.039010443 -0.21317826
0.19664092 -0.10856757 0.62965405 0.28197488 -0.07326147 0.24215448 -0.23074336 0.09879356
-0.10528879 -0.13928182 -0.021823585 -0.2672577 0.045189932 -0.054677352 -0.13096806 -0.17689045
-0.25887474 0.14091733 -0.055468697 -0.07081422 0.3798112 -0.1320285 0.4348728 0.3489436

model.decoder_module.convs.2.m_net_list.0.weights.weight f4 [16, 21]
00000000: bfbf d1be 2b48 1c3d f38d d839 81b6 183d
00000010: bcb0 d33d a925 893e cc9d aabd 70dc 11be
00000020: d8f2 3cbe fc9f 563d 923a fcbd 6027 743c
00000030: 277b c53e 5381 58bd 830b 04bb e9b5 2c3e
00000040: b525 25be 85b6 5cbe 40f2 1abd c3d1 41be
00000050: d52a b63d 53ff f639 5e21 893d 65bb 9d3a
00000060: d185 f0bc 5a45 3cbd 7d9e bfbe c91a 57bd
00000070: 4430 c6bd 4f20 b3bc bce4 ae3e e8fd 2bbe
00000080: 8a16 43be da08 ea3e 8c0f 043d f50c 353e
00000090: 71bc 3cbe 2d37 e0bd f095 9cbb 2986 5d3e
000000a0: c89e 01be 4560 5dbe a8d2 dbbd 5778 ae3b
000000b0: 9519 013d dfba 963d 4dca 47be a9c3 863e
000000c0: 0bc3 76bd 887c f4bd 462d a73d c375 a9bd
000000d0: 93c3 e8bc 3c51 1f3e cb33 7d3e 48e7 b73c
000000e0: 0259 28bc f899 8b3d d8b0 43be c6aa 84be
000000f0: b71d 4f3e af6c 99be 38d2 c23e 1fb3 00bf
00000100: 8097 86be 74c7 713d af27 ef3d 4873 9cbd
00000110: 4b20 253e 00cf 02be 57dd e13c da83 bdbb
00000120: 1d78 adbc 676b f73d 5e11 263e e82d 913e
00000130: ab93 653e 0d99 32bd 347b 8abd a2b3 e73c
00000140: 7171 153d 7eb0 24be aa32 4ebe 9cb6 973d
00000150: 35b7 10bf e57b f9bc e70e 4d3e 27fe 493c
00000160: 1837 aebd f1ed 9b3d 2fa6 873d f215 01be
00000170: 9304 6cbc c8eb e0bd 0a7d 60bd bb5e f4bd
00000180: ab4f a33e 344c 5c3d 7ddb 1d3e 9037 91be
00000190: e9fa 32be 1c6d 3abd e34b e03b 307b 6c3d
000001a0: 8013 693e 251d 42be 3465 dc3c a093 9d3d
000001b0: 4174 21be 1901 08be 7951 de3d b95e 1dbe
000001c0: 90b6 27be be4f b3bc f7d3 04bd 8c45 c53d
000001d0: 1140 89bd 65df 123e 2d45 f53d 0750 a8be
000001e0: 09f7 453d 8a86 96bd 135c cd3c 31ea 6c3e
000001f0: 354e 07be 9983 a13c c029 273f db42 f9bd
00000200: 87fb 9c3d e3dd 083c 510d 07bd 79ff 67bd
00000210: 2a53 9fbe b051 073d 8818 1abe 7e3d fb3d
00000220: 34ce 2c3e 23e4 07be 9327 8fbe 003c 303a
00000230: db08 0f3e a468 0a3e 4afb 2d3e 1d06 c83e
00000240: d943 1b3d 7431 9f3e 1a48 d3be d12a aabe
00000250: 0e97 0a3d 9de6 5a3e 622c f33d 5508 0c3e
00000260: 1b46 febd 8df9 c7bd e8e7 653d 2686 29be
00000270: 75af 94be 71c1 cebd 33e3 573e 08ec 7b3d
00000280: d4cd 52be 89fd 80bd 67d5 1c3e 285a b83d
00000290: 7f25 423d 8daf d4be ac52 003e 78c1 f03d
000002a0: 1ca0 87be 2a71 90bd 7b6c d1bd 9911 353c
000002b0: 56b8 38bc ebad c93d da18 39bd ab5b dd3c
000002c0: ac34 923c 2036 e7bd 1e9f 6c3d 0fde 01be
000002d0: 8797 c43e dfa8 1abd 1196 413b 2ca6 8d3d
000002e0: e084 efbc 13b7 42bc 3168 283d c9b9 493c
000002f0: 6a0a e0bb 8c75 7c3b a75b 0c3a fa59 0238
00000300: dd2c 24b8 2f1d 813a 05ac c0be 81f0 8fbd
00000310: 7206 a63c 9b01 15bb 4f7b 7c3e 5ac2 9d3d
00000320: 508c 59ba 6a5b b43e e3e1 cc3b 64a8 173c
00000330: 04ab 683e ca0c 083e 7994 6dbd c51d e5bd
00000340: df65 6c3c 4e51 d7be a433 c5bd cceb 08be
00000350: 9332 3ebd 2410 893c f1f7 17be eb3d a83e
00000360: 90af d3bd 9d9a 02be 24a3 9a3c 78f3 0f3e
00000370: 0c4a fcbc a49a 733d 1d46 393e 7659 c53b
00000380: 719d b0ba a971 f93d 57df fabc 4895 86bb
00000390: cf08 783d 7cb0 de3b 2aaa 5d3e 09a2 f3be
000003a0: 84e7 683d abca 83bc c2f5 743d 1b72 343d
000003b0: 3b1f 2ebb 5fb9 543b 894d 303d 8177 04be
000003c0: ef0d 8a3e 1327 113d ad4d 773c 3bc6 813e
000003d0: ab64 1dbc 3525 e73b 9905 98be 6fe1 e9bc
000003e0: 2462 aabc 161d 993d abc4 173d 632a 9a3d
000003f0: 62ef 0ebf 10aa 5cbc d913 72bd f456 59bc
-0.40966603 0.038154762 0.0004130449 0.037283424 0.10336444 0.26786545 -0.083308786 -0.14244246
-0.18452013 0.052398667 -0.12315859 0.014901966 0.3857052 -0.05285771 -0.0020148463 0.16866268
-0.16127665 -0.21554 -0.037828684 -0.18927674 0.08894888 0.00047111008 0.066958174 0.0012033997
-0.029360684 -0.045964576 -0.37425604 -0.05251578 -0.09677175 -0.021865992 0.34158885 -0.16796076
-0.19051567 0.45709878 0.03224139 0.17680724 -0.1843126 -0.10948024 -0.004778616 0.2163321
-0.12658226 -0.21618755 -0.10733539 0.005324404 0.031518538 0.073598616 -0.19510765 0.26321152
-0.0602446 -0.11937815 0.08162932 -0.082744144 -0.02841357 0.15558332 0.24726789 0.02244915
-0.010275127 0.068164766 -0.1911043 -0.2591154 0.20226179 -0.29965732 0.3805101 -0.5027332
-0.2628746 0.059028104 0.11677491 -0.07639176 0.161256 -0.12774277 0.027571363 -0.00578354
-0.021175439 0.12081032 0.16217563 0.28355336 0.22419612 -0.04360299 -0.067617804 0.028283898
0.03648514 -0.16082951 -0.20136514 0.07407877 -0.5652955 -0.030454585 0.20025216 0.012328661
-0.08506602 0.07613743 0.06623494 -0.12606028 -0.014405387 -0.10982472 -0.054806747 -0.11932131
0.3189672 0.05378361 0.1541576 -0.28362703 -0.17478527 -0.04551421 0.006844984 0.05773467
0.22761345 -0.1895643 0.026903726 0.07694173 -0.15767004 -0.13281669 0.108553834 -0.15368165
-0.16378236 -0.02188861 -0.032428708 0.09632406 -0.06701673 0.14343031 0.11976085 -0.32873556
0.048331294 -0.0734988 0.025068318 0.23136212 -0.13213427 0.019716071 0.6529808 -0.12170955
0.076651625 0.008353683 -0.032971684 -0.056640122 -0.31118137 0.033036888 -0.1504842 0.12267588
0.16875535 -0.13270621 -0.2795988 0.0006722808 0.13968222 0.1351648 0.1699039 0.39067164
0.0379065 0.31092417 -0.41265947 -0.3323579 0.033835463 0.21377034 0.118737 0.13675053
-0.12415715 -0.09764395 0.056129366 -0.1655508 -0.29040113 -0.1009549 0.21082763 0.061504394
-0.2058633 -0.06298358 0.15315782 0.09001571 0.04739904 -0.41540185 0.12531537 0.11755651
-0.2648934 -0.07052834 -0.10225769 0.011051559 -0.011274418 0.09847625 -0.045189716 0.02702125
0.017847382 -0.112896204 0.057768933 -0.12682365 0.38396856 -0.037758704 0.002953891 0.069164604
-0.029238164 -0.011884469 0.04111499 0.012312361 -0.006837179 0.0038522212 0.00053542334 3.1078212e-05
-3.914243e-05 0.0009850616 -0.3763124 -0.07028294 0.020266745 -0.0022736553 0.24656413 0.07703085
-0.0008298801 0.35225993 0.0062525137 0.009256456 0.22721487 0.13286129 -0.058002923 -0.11187319
0.014428585 -0.42054218 -0.0962899 -0.133712 -0.04643495 0.01673133 -0.14840676 0.3285974
-0.1033622 -0.12754293 0.01887662 0.1405772 -0.030797027 0.05947365 0.18093152 0.0060226275
-0.0013474656 0.12179882 -0.030624075 -0.004107151 0.060555276 0.006795941 0.21646944 -0.4758456
0.056861416 -0.01608785 0.059804685 0.044054132 -0.0026568908 0.0032459123 0.043042693 -0.12936212
0.26963755 0.035437655 0.015094203 0.2534655 -0.009606521 0.007053996 -0.2969177 -0.028549878
-0.02079875 0.07476251 0.03705279 0.07527616 -0.5583402 -0.01346828 -0.05910096 -0.01326536
