SimLoan/res/taiwan/LSTM_clf_effort_modeltaiwan_budget_20_eps_0_5_b_0_2_lt-w_2_st-w_0_05.pth (torch, 834818 bytes, 17 tensors)

init_interventions f4 [1, 2]
00000000: b912 e53a f4bc eaba
0.0017476893 -0.0017909096

clf.model.0.weight f4 [32, 4]
00000000: dc70 3b3e 89d3 813e c240 bbbe 9b4d cfbd
00000010: 7bb5 20be 4e8e fbbe 104d b8be e197 4bbf
00000020: b31c aabb 9ec1 2ebf 9941 67bf a706 13bf
00000030: fccd 4abe 5285 11be defc f63e 543f f7be
00000040: b840 07bd c5d1 123e 24e6 013f e3f0 db3e
00000050: 7e76 a23d d902 0c3f 549a d1be 86bc e83d
00000060: 85e7 17bc fb93 2bbf a5d7 61bf 1385 12bf
00000070: 3eb3 d5be f524 253f 98d6 4c3e 8db0 ddbe
00000080: 6aaa c13d 78ab 16be 4afe c33e d026 cf3e
00000090: 518a 763b 1afc 54bf 72ed 8dbf b242 37bf
000000a0: 2fa7 6d3c 778c 07bf e3dc 44bf 73f8 0ebf
000000b0: 2fac 01bc a0cc 47bf 2c5f 83bf 105c 2abf
000000c0: 2cb5 603e 5ae2 bdbe a0f7 f1be 0d2a aabe
000000d0: 5610 de3e 9264 f2be 4591 1bbf 2b70 d0be
000000e0: e4a2 11be 2211 c43e 0985 ce3d a50f a33e
000000f0: 23c5 74bd b723 243f efe1 ecbe b9d1 fe3e
00000100: 47c4 373e da4b ce3e 5150 f43d e0ca e03e
00000110: 9aaf 38be 5e2e 67be 6fb2 ae3e 5af8 aabc
00000120: 3500 febb ee82 44bf d5a1 80bf edf5 24bf
00000130: ec00 a2be 5bbe 74bf 7bdc 523e 0350 c13e
00000140: 4647 1dbd b878 37bf 735b 37bf a16e 5d3d
00000150: d6bb bdbb c257 24bf 5ca3 58bf d999 0abf
00000160: ccb6 d2be c253 f93e 1c94 3cbe 39dc e43e
00000170: 88bf 043f 326e 60bf 57aa 783d ef45 953e
00000180: 227c 383e 5216 333e 30a2 0abf 53b1 ee3d
00000190: 70be bbbe 4886 e53e 6de5 da3d f965 203e
000001a0: 40bc 353e 6ce0 323f 84f8 0a3f 8261 b3be
000001b0: 171a 863e 4007 983d 11be 8c3e 4ffc 193e
000001c0: 2cac 903d c908 3f3f 398f a1bc 44f7 93be
000001d0: 64e4 523e 824b 073d d275 4dbf 6229 f2be
000001e0: 2f29 3abc 1e90 f8bd 1b8e cfbd 7df0 c03e
000001f0: 45f6 08bf 633e b53e 6214 d1be 5263 673e
0.18304771 0.253567 -0.36572844 -0.10122224 -0.1569423 -0.49132007 -0.35996294 -0.79528624
-0.0051914095 -0.68264186 -0.9033447 -0.57432026 -0.1980514 -0.14211014 0.48239797 -0.48290503
-0.033020705 0.14337833 0.5074179 0.4295722 0.07932757 0.54691845 -0.40938056 0.11364083
-0.009271507 -0.67022675 -0.8821967 -0.57234305 -0.41738313 0.64509517 0.20003736 -0.4329876
0.09456332 -0.14713848 0.38279945 0.404593 0.0037619064 -0.83197176 -1.1088088 -0.71586144
0.014505192 -0.5294871 -0.76899546 -0.55847853 -0.007914587 -0.7804661 -1.0263419 -0.66546726
0.21944112 -0.37086755 -0.47259235 -0.33235207 0.43371838 -0.47342354 -0.6076854 -0.40710577
-0.14222294 0.3829432 0.10083968 0.31847873 -0.059758317 0.64116997 -0.46266124 0.4976938
0.17945968 0.40292245 0.11929382 0.4390478 -0.18035737 -0.22576281 0.3412051 -0.020870376
-0.0077514895 -0.7676228 -1.0049387 -0.6443775 -0.31641328 -0.9560296 0.20591919 0.37756357
-0.03839805 -0.7166858 -0.71623915 0.054060582 -0.005790214 -0.6419641 -0.84624267 -0.54141
-0.41155088 0.48696715 -0.18415874 0.44699267 0.51854753 -0.87668145 0.060709324 0.29154918
0.18016103 0.17488983 -0.5415373 0.11654916 -0.3666873 0.4482901 0.10688291 0.156639
0.17747593 0.6987369 0.54285455 -0.3503533 0.2619178 0.07423258 0.2748876 0.15037654
0.07064089 0.7462278 -0.019721614 -0.28899586 0.20594937 0.033030994 -0.80257905 -0.47297198
-0.011362358 -0.12136863 -0.10134526 0.37683478 -0.5350078 0.3539916 -0.40835863 0.22596481

clf.model.0.bias f4 [32]
00000000: 3a6f d93e 7065 5c3e 241d 573e 6404 8a3e
00000010: 07cc e8b7 77ef 1dbe 4a40 4a3e 62b4 513e
00000020: f3a9 babb fe7f 833e 75b3 383e 915f 6e3e
00000030: 9482 d7bd ba96 91be 1d57 01bc 313e c6be
00000040: b8da 86be 4384 233e 6be1 6b3e 99fa c63c
00000050: 79af 4a3e 2cce 493e 3b8a bd3e c45a 99be
00000060: 4249 b43e 1218 6f3e d26c 00be acc0 86be
00000070: f0a1 273e 8617 24bd 435f e8be d054 193e
0.42467672 0.2152307 0.2100721 0.26956475 -2.7751563e-05 -0.1542338 0.19751087 0.20478967
-0.005696529 0.25683588 0.18037207 0.23278643 -0.10522953 -0.28435308 -0.007894305 -0.38719323
-0.26338744 0.15968423 0.23035209 0.024289416 0.197935 0.19707555 0.37019524 -0.2995206
0.3521214 0.23349026 -0.12541512 -0.26318872 0.16370368 -0.040061496 -0.4538518 0.1497376

clf.model.3.weight f4 [64, 32]
00000000: ab2a 183d 6810 503e 83f2 633f 5c81 143d
00000010: 6d5c 20be b5c2 a9be 047d b53f dd35 813e
00000020: cc58 58bd a9ad 203f f7bf 2d3f 62dc 903f
00000030: 786e 0c3f bc2a 363f e79b 52be 9086 2abe
00000040: e476 e2be e477 083b e159 603f ce8f d0be
00000050: be90 913e 973d 793f 61e8 bf3c afec 263e
00000060: 6e7c 663d de09 7c3d 8fc3 113d cff1 a3be
00000070: 4b10 6d3d c3ee 3b3e b871 1c3e 9c9a 163e
00000080: 12f0 183e 1e1f 3f3c c144 60bf ff54 4bbd
00000090: 10fe c93c 3b4b bbbe 7a35 afbf 9d88 17be
000000a0: c66b 68be 3664 bcbe c33d 07bf a168 98bf
000000b0: ff47 b1be 3fc8 febe f2d0 073e c69e 1abf
000000c0: 466d 5bbd b25e 46be 6113 62bf 945d 98be
000000d0: 510b 4d3d 7060 40bf 5b70 2a3e 6057 a33a
000000e0: 5b1f 393e 42f4 73bb 21a0 003e 3a6b 723c
000000f0: 1ba8 423d 85cb 0a3d 0c5c 953e 8056 a13d
00000100: 260b 323b 6ae8 a3bd 8e1e e6be 9fe3 b9bd
00000110: c8c2 393d c930 63be d6a5 6fbf 6a2e 983c
00000120: f789 af3d f10a 85be c278 78be 1240 1fbf
00000130: d44b dfbe acc8 e8bd fd6c 083e e757 4d3d
00000140: 27a7 a43d 8a63 793d 8bba 93be a308 92be
00000150: ef46 cd3d 4294 b2be 71de 513d 4916 693e
00000160: fc04 1a3e fcc2 133d 4a04 193d ecd8 993d
00000170: 2e82 783e 3cd6 003d 6701 0d3f d98a 453d
00000180: c281 9e3c 21ab 543d 3595 083f d5f2 fd3c
00000190: 6daa 53bd 913f 2cbe a47d 983f a7cb 303e
000001a0: 728a 08be 06c4 783e 8b17 8f3e 5e5d 3c3f
000001b0: f003 093f f14a 073f 30ed 0b3d 32ca 30be
000001c0: 5926 02be f2ed 70ba 1b5d 183f 78b2 74bd
000001d0: 0baa 5e3e e690 213f 7506 ee3c e2ee 963d
000001e0: 3a34 9138 255a ab3c b8d4 ec3d a72c 00bd
000001f0: 19c9 ea3d bd67 883e 67ef 9c3c 9fdc be3d
00000200: 4aff 103e f2a8 703e 9058 623f eb94 dabd
00000210: 7a61 9bbe 091b b4be 364e af3f c472 3f3d
00000220: c0e0 31be e826 d23e 8d9b 293f 8df0 783f
00000230: 3c31 293f b27e ed3e 1511 95be 15a0 dabd
00000240: c91f ebbe 3b3c 4abe ff43 2d3f f4ac 3fbf
00000250: 67e3 2d3e 6929 673f 4163 01bd a06e 953e
00000260: 4a06 223e 5e42 fdbd 52de 5abd 0107 0bbd
00000270: 7526 ee3c 3a14 363e b1f4 c33d 0c82 933e
00000280: 13a6 133e 234e 1d3d 85b6 15bf dded 153d
00000290: d3dc a4bd 4707 19bd dd12 90bf 2f32 443e
000002a0: d8ab 393e 086f f3be 7fb9 01bf e69a f7be
000002b0: 62fb f4be 3001 adbe af37 c33d 2a2a 53bd
000002c0: aaf4 343d 9ddf 23be 3856 19bf d593 28bd
000002d0: 72c5 bebd 70db 1bbf a6c2 5b3e ca6c bf3d
000002e0: d5c4 c93d 3efe 613d 38af a73d 2674 c6bd
000002f0: a7b1 2b3e cbf4 433d 8d08 b23e 505c ed3d
00000300: 686f 223e 833c 9ebc 6688 10bf 0e5c e9bd
00000310: 32ee a93d bf3e 5cbd a9e5 a2bf 742d da3c
00000320: 0829 ecbc 2022 a7be 723b 17bf dac1 40bf
00000330: a3b2 76be b866 90be 42b6 053e e411 50bd
00000340: 8abf 20bd 6707 2f3d d482 d2be 08af 12bf
00000350: cabd 66be c0db f3be d2f6 cd3a a780 a7be
00000360: 1dfc 363d 9b08 0e3e b889 0dbe bb94 603d
00000370: c4fa 483e 3869 fb3c db24 7a3e 7567 9c3e
00000380: c856 f53d 2731 593e b820 743e a0ed f33d
00000390: 521e 78be 1dc3 f3be 7181 8b3f d030 a53e
000003a0: 1a4f a4be b09e cd3e 500d 353e e457 e83e
000003b0: 8a97 d53e d657 863e 6c14 5abe b75c 85be
000003c0: f47f 99be af0e b8bd 096c 7a3e edeb 8abe
000003d0: 4684 a63e 70d7 dc3e 8957 84bc ac13 7fbd
000003e0: a4c5 793d a1af dc3d 36a9 003e 2db3 cebd
000003f0: a56a 153e 3c9c 1d3e 60a6 623a 7b2a f83d
0.037150066 0.20318758 0.8904192 0.03625618 -0.15660258 -0.33156362 1.4178777 0.25236407
-0.05281906 0.62764984 0.6787104 1.1317255 0.5485606 0.7115896 -0.20567285 -0.16652894
-0.4423133 0.0020823414 0.87637144 -0.40734714 0.28430742 0.97359604 0.023426237 0.16301225
0.05627101 0.061532848 0.03558689 -0.32020423 0.057876866 0.18352799 0.15277755 0.14707416
0.1493533 0.011665134 -0.8760491 -0.049641605 0.02465728 -0.36580834 -1.3688195 -0.14798208
-0.22697362 -0.36795205 -0.52828616 -1.190693 -0.3462524 -0.4976215 0.132633 -0.6039852
-0.05357101 -0.19372061 -0.8831082 -0.29758894 0.05005962 -0.7514715 0.16644423 0.0012461953
0.18078367 -0.0037224446 0.12561084 0.014796073 0.0475236 0.033885498 0.2917179 0.07877827
0.002716729 -0.08003314 -0.44945186 -0.090766184 0.045351774 -0.22186579 -0.9361242 0.01857682
0.085712366 -0.2598491 -0.24264815 -0.6220714 -0.4361254 -0.113664 0.13322826 0.05013266
0.08039694 0.060885943 -0.28853258 -0.28522214 0.10023295 -0.34878737 0.051237527 0.22762407
0.15040964 0.036074623 0.037357606 0.07512078 0.2426841 0.03145431 0.55080265 0.04822812
0.019348983 0.051921014 0.5335267 0.03099958 -0.051676203 -0.16821124 1.1913342 0.17265187
-0.13334063 0.24293527 0.2794765 0.7357997 0.53521633 0.52848727 0.034161747 -0.17264631
-0.12709941 -0.000919073 0.5951707 -0.059740514 0.21744554 0.6311172 0.029055813 0.07369782
6.923867e-05 0.020917008 0.115640104 -0.031292584 0.114641376 0.26641646 0.019157125 0.09319424
0.14159885 0.23501948 0.88416386 -0.10672935 -0.30347806 -0.35176876 1.3695743 0.04674031
-0.17370892 0.41045308 0.66252977 0.9724205 0.6609075 0.46385723 -0.29114595 -0.106750645
-0.45922688 -0.19749539 0.6768188 -0.7487328 0.16981278 0.9029756 -0.031588797 0.29185963
0.15822712 -0.12366174 -0.053434677 -0.033942226 0.029071072 0.17781153 0.095681556 0.28810155
0.14418821 0.038404595 -0.5848163 0.036603797 -0.080499314 -0.037360456 -1.1255757 0.19159769
0.1813196 -0.47545648 -0.5067367 -0.48360366 -0.4784804 -0.33789968 0.09532105 -0.051553883
0.044178642 -0.1600327 -0.59897184 -0.04115661 -0.093150035 -0.6088171 0.21460971 0.09346922
0.09851996 0.055174105 0.08187717 -0.09690122 0.16766988 0.047840875 0.3477215 0.11589873
0.1586281 -0.019315964 -0.5645813 -0.11394511 0.08297385 -0.053770777 -1.2726337 0.026633002
-0.028828159 -0.32643223 -0.5907508 -0.75295794 -0.24091582 -0.28203368 0.13057807 -0.05079831
-0.039245166 0.04273167 -0.4111544 -0.57298326 -0.22533336 -0.47628593 0.0015713817 -0.3271534
0.044674028 0.1387047 -0.13822067 0.05482934 0.1962691 0.03068982 0.24428122 0.3054768
0.11979443 0.21210156 0.23840606 0.11910558 -0.24230316 -0.47609797 1.0898877 0.32263803
-0.320916 0.4016013 0.1768086 0.45379555 0.41717178 0.26238889 -0.21296853 -0.26047298
-0.29980433 -0.08987176 0.24455275 -0.27133122 0.32522792 0.43133116 -0.016155021 -0.06227462
0.0609795 0.10775686 0.12564549 -0.10092769 0.14591463 0.1539163 0.00086460076 0.121174775

clf.model.3.bias f4 [64]
00000000: c8fe 1abe aa97 803e 880f 403e 3b9b ebbd
00000010: d9f4 e93c 51d4 283e 516f 293e c38d 1bbe
00000020: 3b76 01bd 5590 02bd 5503 563c 31c7 3a3e
00000030: 3ea2 c0bd ee02 ae3d 62a5 093e 0b70 3fbe
00000040: 5722 a63e 9290 0d3e 84c7 2cbd 86a1 913e
00000050: 6b80 4c3e 0b29 41be 746d 38be 11f2 8a3c
00000060: bfcf 7a3e cef0 babc 35b1 8f3e 6e06 52bd
00000070: 1304 bd3e 9e58 2c3e 0784 103e c3ed 9abd
00000080: 8620 a6be c0c9 373d 7d00 fe3d a1f8 973e
00000090: 95d5 f2bd 6d8d e53d 2327 7e3e 20e5 643e
000000a0: 6197 893e df3f 593e 44b1 e03c c25b 243e
000000b0: b213 aa3e 1a07 483e 1a89 423b 3b99 18be
000000c0: a32b 9e3e 1034 623e 83e2 ce3d 9f8d 31be
000000d0: fea4 243e aaa5 063e a3d3 bb3e b7a0 e63c
000000e0: 93c0 343e 7715 293e ff5a 42bd 9a9c ac3d
000000f0: c649 0a3e 85bb 563e af9c 5d3e 2b36 3abe
-0.15136254 0.2511571 0.18755925 -0.11504217 0.028559135 0.16487242 0.1654637 -0.15190797
-0.031606894 -0.031875927 0.013062318 0.18240048 -0.09405945 0.084966525 0.13441995 -0.18695085
0.32448074 0.1382468 -0.04218246 0.28443545 0.19970863 -0.18863313 -0.18010503 0.01696113
0.24493311 -0.022819903 0.28064886 -0.051275663 0.3691717 0.1683068 0.14112864 -0.07564881
-0.32446688 0.04487014 0.12402437 0.29681876 -0.11857144 0.112086155 0.24819617 0.22353029
0.26873305 0.21215771 0.027428277 0.16050628 0.3321815 0.19533959 0.002968377 -0.14902203
0.30892667 0.22090173 0.101017974 -0.1733918 0.16078565 0.13149133 0.36684904 0.028152807
0.17651586 0.16512094 -0.047450062 0.08428307 0.13504705 0.2096997 0.21641801 -0.18184726

clf.model.6.weight f4 [1, 64]
00000000: cdbe 4cbf 885e 313e c134 653e c8f4 a4be
00000010: 3848 ecbe 8a53 2c3e 7934 b63e 4465 c5be
00000020: a193 5e3e 2455 0ebf c17d 813e 313a 763e
00000030: 2bb3 16bf 6369 443e 9e37 9d3e 0c7c 7c3c
00000040: 649b 3e3e 9bfe 7d3e 7b24 bebe d578 533e
00000050: 6836 173f 98e3 24bf 2fc9 ebbe 1f77 d63e
00000060: b8c7 1c3f 99c4 26bf 06a0 3a3e 4fd2 48bf
00000070: a88c 8d3e 7625 1e3e 5eb8 ca3e d56e 45bf
00000080: f991 50bf aa3d 7ebe 6f07 6e3e 0c3e 233e
00000090: 1bcd 85be 87d8 5ebe bd7b 7b3e 6159 5f3e
000000a0: 583c 7f3e bd50 2e3f 4d97 debe cae3 b33e
000000b0: 9b39 163e 748a 853e 29ab 4bbd 2656 85bf
000000c0: 67b8 e73e 1f54 9a3e fcdf a73e bf06 75bf
000000d0: 5a67 103e ed6a e13e 764f 993e 3e1f 17bf
000000e0: e0d0 1d3f 8ed2 233e 929d d6be 8123 973e
000000f0: af1b 533f 730d 223e 3a2f 313f 67e7 a9bf
-0.7997864 0.17321217 0.22383405 -0.32218003 -0.4614885 0.16828743 0.35586908 -0.38553822
0.21736003 -0.55598664 0.25291255 0.24045636 -0.5886714 0.19180827 0.30706495 0.015410434
0.18613964 0.24804156 -0.37137207 0.20651563 0.5906739 -0.6440978 -0.46051928 0.41887757
0.61242247 -0.65143734 0.18225107 -0.78445905 0.27646375 0.15443978 0.39593786 -0.7712224
-0.81472737 -0.2482821 0.23245023 0.15941638 -0.26133046 -0.21762286 0.24558921 0.21811439
0.24925363 0.68091947 -0.43474808 0.35134727 0.14670412 0.26082194 -0.049723778 -1.0416915
0.45257875 0.30142304 0.32788074 -0.9571342 0.14101925 0.4402689 0.29943436 -0.59032047
0.6164684 0.15998289 -0.41917092 0.29519275 0.82464117 0.15825443 0.69212687 -1.3273743

lstm.weight_ih_l0 f4 [512, 11]
00000000: 06e0 923d be24 683d 12bb f43c dae8 233d
00000010: 8124 87bd c8bc 16bd 320e c43c e5aa 8bbd
00000020: e3cd 68bd f0ea 853c bae6 003e a028 d63d
00000030: 51b3 783d 1bd7 953b 671d ce3d 888f c23d
00000040: 4d21 7a3d 004f 293d 903b 403e aaee f13d
00000050: b141 ae3d 124a e2bd 1a1b b0bd 70a7 bbbd
00000060: f153 81bb 26c4 4ebc 370c 28bd b5f8 95bd
00000070: b7a0 bb3c 71a3 f83c 07cb 1dbe 3f16 83bd
00000080: 944c c23d 04af 44bc 4930 94bd 33ca 8a3d
00000090: 90c3 1f3d 33d4 e33c 810e a1bd 92fe a93c
000000a0: c404 273d f089 e4bd 7394 343c 69f2 663c
000000b0: bce3 94bc 5eb0 dbbd e274 18bc 2bcf a2bd
000000c0: e06a c9bd 3217 a8bd 5d1c ecbd 838c 31bd
000000d0: ddad bb3c 6e6f c0bd 7970 e7bc 0d4e e4bc
000000e0: d53c 3bbd 296f 3dbd 8830 9c3d 2a44 a2bc
000000f0: 0e2c 9f3d daf5 fd3d a2de 173e bb4e 993d
00000100: 30ce 513c 9ca4 8ebc 2bc4 1ebe 9021 7e3c
00000110: b455 5ebd 50da b73d ec5b 86bc dfd8 b83d
00000120: 7470 a73d 24f3 b83b 7ffe 1b3d d796 40bc
00000130: 18f4 183b f843 363d e010 be3d 4ebd c63d
00000140: 7a95 283e 20b5 ca3c 8bdc 003e 7647 2c3e
00000150: 9793 ff3c 81d1 38bb 1244 3e39 ddac d6bd
00000160: a793 983c a818 a1bd 4156 d9b9 ad4b 523c
00000170: 87ee 09bd 7951 523c bf9f 7e3d 53a3 31b9
00000180: 4f0a c2bd 03e1 233c c5a1 ba3d c0fc edbd
00000190: a2c9 743d 5d56 9dbd 2298 533d 90b2 0ebe
000001a0: 195a 5aba 0b72 06bd 410c 6ebd 894f 873d
000001b0: bdd7 10bd 3930 03bd 7194 d73d 6ff4 37be
000001c0: 0b02 0abe 120f 3cbd 2e1c 0e3d a621 28be
000001d0: 89e3 47bd d549 a7bd d34d f2bd cd0c f0bc
000001e0: c244 913d dddd a23c 1e64 163d 4da0 af3a
000001f0: 3050 c93c b96c ff3c 8342 aa3d 90e7 963d
00000200: c034 31bd b0a3 cabc e606 e2bd f5d4 753d
00000210: c975 e1bd a352 803d 7785 d33d a9f5 103e
00000220: ca44 4abd 2a1a 643d 8305 013d ad4e ad3d
00000230: 989e 553d 97ce 473b f371 103d a9f0 6c3d
00000240: 1518 4abd 6f48 d4bd 3bc7 833d 07dc 92bd
00000250: b433 5c3d 49f5 5cbd 7b57 263d ac6e d7bc
00000260: 06c7 cbbd f25d 543c 93e6 8b3d 5c26 70bc
00000270: 2ee0 853d e47b 573d 1bd8 b03c 3c26 36bc
00000280: 312d a23d a1cf 63bd c066 57bd 70f5 c4bd
00000290: 5c6b 843d 1aea a4bd 3cab adbc fedb 49bd
000002a0: eb4a 463d 38a6 353c 77b4 023c 8a1c fdbb
000002b0: 278b 4fbd e4ad 0bbe f085 15be 7177 e8bc
000002c0: 9d66 72bd 272d 0b3c c424 863d 20cd 503d
000002d0: 59c5 79bd 5440 be3c 19f0 b2bc 4d8e a93d
000002e0: fa61 a7bd 1ad8 ac3c f13d b13d 7203 073e
000002f0: 6e67 b2bd 8f2f b6bb 6f36 b53d bff8 b53d
00000300: 893b 96bb 0357 ac3d 984d 323d 94e1 acbd
00000310: 31ff 9abd 4674 30be b0b1 e3bd ec87 d63c
00000320: 7e17 8bbc 32ac d6bd 52a1 9fbb 6283 863d
00000330: 81a8 b7bd 6f99 9039 a619 0bbd 1706 84bd
00000340: 4108 be3d 4972 02be 9e39 693b 2f86 87bd
00000350: af20 b0bd 6e5c bc3c eff5 25bd 909d afbd
00000360: 97ee a8bd 33bd 4ebd f9f2 debc b151 563d
00000370: 9794 433d ae63 933d 1e62 803d 1920 383c
00000380: f385 243e 9fa2 3bbc 82d0 343d 5c2b 413d
00000390: d062 fe3d 2717 aa3d 78a2 f2bd 85bf 2b3e
000003a0: 4469 053d eb60 0d3d e859 f73d eac2 d93d
000003b0: 12a4 0cbd 4e70 eb3d 7b8a 563c 268f d63d
000003c0: 7cf0 efbc a31b 3bbd 7303 8abd b209 a13c
000003d0: d8b6 b63d 6bb6 e13d 6689 af3d 49eb bbbd
000003e0: 2376 633d d8f1 9ebd 3ba7 76bd bb0d 533d
000003f0: 591e b53c 3ace d6bb a999 d4bd 4661 853b
0.07171635 0.056675665 0.029874358 0.040016986 -0.065987594 -0.03680113 0.02393255 -0.06819705
-0.056836974 0.016347378 0.12588015 0.10456967 0.060717884 0.0045727617 0.10064202 0.09500033
0.061066914 0.041335106 0.18772721 0.118131 0.085086234 -0.11049284 -0.08598919 -0.091627955
-0.003946774 -0.012620008 -0.041027274 -0.07322828 0.022903783 0.030351372 -0.1540948 -0.064007275
0.09487262 -0.012004618 -0.07235772 0.06776848 0.039004862 0.027811145 -0.078640945 0.020751271
0.04077603 -0.11159122 0.011021721 0.014095881 -0.018174998 -0.10726999 -0.009305211 -0.079496704
-0.09834838 -0.08207549 -0.11528847 -0.043346893 0.022910053 -0.093962535 -0.028251873 -0.027869249
-0.04571231 -0.04624859 0.07626444 -0.019807894 0.07772075 0.12400408 0.14831021 0.0748572
0.012805507 -0.017412476 -0.1550452 0.015510932 -0.05428095 0.08977187 -0.016401254 0.0902574
0.081757456 0.005644219 0.038084503 -0.011754713 0.002333885 0.044498414 0.092805624 0.09704076
0.16463271 0.02474457 0.1258413 0.16824135 0.031198306 -0.0028201046 0.0001814517 -0.1048219
0.018625094 -0.07866031 -0.0004145373 0.012835425 -0.033674743 0.012836807 0.062164064 -0.00016940878
-0.094746225 0.010002377 0.09112886 -0.11620474 0.059762605 -0.07682488 0.051658757 -0.13935304
-0.00083294656 -0.032823604 -0.058117155 0.06606967 -0.035361994 -0.03202841 0.1052636 -0.17964338
-0.13477342 -0.04591281 0.034694843 -0.16419086 -0.04880098 -0.08168379 -0.1183125 -0.029302979
0.07093193 0.019881183 0.036716573 0.0013399214 0.02457437 0.031179773 0.08313467 0.07368386
-0.043263197 -0.024736255 -0.11036472 0.060017545 -0.11008794 0.06265762 0.10328191 0.14156212
-0.04938201 0.055689014 0.031499397 0.08462272 0.0521532 0.0030488127 0.03526492 0.0578467
-0.049339373 -0.10365378 0.064344846 -0.07170873 0.053760245 -0.05394486 0.04061077 -0.02629789
-0.0995007 0.012961851 0.06831088 -0.014657583 0.065368995 0.052608386 0.021587422 -0.011117514
0.07918776 -0.055617932 -0.052588224 -0.09617126 0.0646579 -0.08052464 -0.021199815 -0.049282067
0.04841129 0.011086993 0.0079775965 -0.0077243494 -0.050669815 -0.13640553 -0.14601874 -0.028377267
-0.05917989 0.008494652 0.06549981 0.050976872 -0.06097922 0.023224033 -0.021843003 0.08279095
-0.081729844 0.021099139 0.086543925 0.13184908 -0.08711134 -0.0055598686 0.08848273 0.08885335
-0.004584734 0.08415034 0.04353103 -0.08441463 -0.07568205 -0.17231855 -0.111178756 0.02618786
-0.016978975 -0.104820624 -0.004871526 0.06568028 -0.089676864 0.00027580137 -0.033960007 -0.06446474
0.09278918 -0.12738909 0.003558732 -0.0661739 -0.08599984 0.022993293 -0.040517744 -0.085749745
-0.082486324 -0.050473403 -0.027215468 0.052324 0.04774913 0.07196747 0.06268714 0.011238121
0.16066723 -0.011452346 0.04414416 0.04716049 0.12421191 0.08305197 -0.11847395 0.16772278
0.032571092 0.034516256 0.12077695 0.1063288 -0.034336157 0.1149603 0.01309454 0.10476522
-0.029289477 -0.045680653 -0.06738939 0.019657943 0.089215934 0.110211216 0.085711285 -0.091757365
0.055532586 -0.07760972 -0.060218077 0.051526766 0.022109197 -0.006555346 -0.10380871 0.004070434

lstm.weight_hh_l0 f4 [512, 128]
00000000: a606 543d 9847 aa3d 067e cb3c b136 b33c
00000010: 544c c0bd a85a 45bc d718 d7bc 5743 9bbd
00000020: 49aa 71bd 55cf b2bd 5dfe ecbd d68b af3d
00000030: 56be 88bd 527a 7abd c2fa 013d 899a abbc
00000040: 609d 32bc b695 e4bd 0cba a4bd 5732 c4bb
00000050: ccb7 5f3d 74fb 0abd dd6a 09bd ab4a 99bb
00000060: 21f2 82ba 564e 8fbd 9a0e 59bd eb39 0fbd
00000070: 903e 92bc d97e 09be 9ec8 06bd 06d6 76bd
00000080: fbec 8fbd a25e 9abc 31c9 493d dc88 ffbd
00000090: b6c2 e83d 9ad8 cfbc 6957 d9bd daee 6f3b
000000a0: ae29 ddbd bee7 573b cf0f 95bd e987 163d
000000b0: 8631 af3d 1d16 983d c0e2 a13d ae6c e3bd
000000c0: 3c31 1a3d d044 85bd 1396 33bc e38a 4f3b
000000d0: 9f5a b63c a76f 8abc cebb 20bd f83b 1e3d
000000e0: 84b3 30bc 559c 0abd bd4f 8a3d c6b4 993d
000000f0: 8458 92bc 021d f5bc 8d4d ef3d c6c4 c6bb
00000100: 7b4a 963c 5986 ca3d efd6 52bd 5550 97bd
00000110: 43f9 f93c 80da f53c 8607 0dbe a3af 843c
00000120: 49e3 22bd 30b9 1d3d dffb db3d d063 aabd
00000130: a3d2 453d 8286 85bc 30e5 1a3d 68e8 cb3c
00000140: 030d 14bd fc22 f03d da4f a73d e5bb 54bd
00000150: 34e7 04bd be68 b23c 70d1 193d 3f26 333d
00000160: fcbd 0e3d 0304 863d dbc7 a3bc fb33 cbbd
00000170: 736b 0dbd b408 1abd fcb9 f23b e544 bcbc
00000180: d798 ee3d cc69 543d c673 2f3c bc1a 993d
00000190: 502d 91bc a80f 9e3c 37ba 9c3d 0bb8 0abb
000001a0: 716d adbc 469b 023e 1f26 c83c dbe0 f9bd
000001b0: aacb 2e3d a5bd 04bd 2101 923c a382 6cbd
000001c0: 9cd3 f2bc 95a7 7c3c 6c51 6d3d aff6 353d
000001d0: a8cd a23c c2ff 8c3d 5911 b0bc 3b1d 35bd
000001e0: 8779 12bd 9bce 883d d208 b13d fed8 56bd
000001f0: 1905 d53c 8a25 c6bc cced 843d 4cdb a63d
00000200: b17b 83bd 24e7 013e 1b34 febd 9186 45bd
00000210: f6d7 003c bfe0 a1bd cf4f 98bd 6732 3b3d
00000220: c3f3 e2bd aa73 01be dffc 293d ffbe 443e
00000230: 1ecf 123e 59e8 293d 3591 38be dce3 e3bb
00000240: 89da 813c 06db 10bc 9a08 a03d 3f91 203e
00000250: 31a6 e3bc 2c8f 9b3d 7b64 60bd c21d 673b
00000260: dcdc e7bd 1116 003d c090 703d 5336 2d3e
00000270: 2e6c 9f3d a410 25be ed6f 043e 2830 093e
00000280: 5515 893d 195b 2c3d e7b4 9bbc d47a d53d
00000290: 04c5 cebc b846 94bc 28ac c83d b14c afb9
000002a0: 7ee0 edbc a3d1 943d 6997 d63d 0252 d9bc
000002b0: 4786 f6bd b0eb 203d dc58 ae3c efc8 213e
000002c0: 0dbe f83d 2039 eebd 5901 a9bc 34b0 01bd
000002d0: c98d 6b3d d054 9b3d ad0d babd 642b 88bd
000002e0: 4552 50bd 357e e0bc 76e8 193e 9e6a 7fbd
000002f0: bb8a d43d d1e2 823b 8278 59bd 2d19 733c
00000300: 3288 0c3e ef95 3abd 93e8 a63d 0ead 26bc
00000310: 2ca4 233e 4616 2d3d 7c4d 693c 3c3b b8bd
00000320: 7280 313e b37a c23d 75cf 90bd 6ff4 273e
00000330: 3095 183e 6a4f 223d 7390 02bd 33be 0dbe
00000340: 438a 72bd 0abb 07bd ba19 183e 278c e9bd
00000350: ed00 d0bd d415 1fbd b90e e8bb 32ce 2bbd
00000360: 8c08 aa3d 6f26 20bd 45a8 163e 3c68 15bd
00000370: 303c 023d a91b 863d 0783 233c 7ede 763d
00000380: dc72 563d a80f b9bd 8236 9cbb e9ab 61bd
00000390: 61c9 d93d d3ba edbd eabe 28be f830 8cbd
000003a0: 2a69 5bbd 3f0d 5bbd 470b 9a3c 892f 7d3d
000003b0: be54 ee3d 2c2e 223e 2b75 6e3d 4b6a e03d
000003c0: fa27 db3d 44bc e2bc 4c01 f93d a820 123e
000003d0: 2e1b ccbd 6b43 05be 47a1 163e 40b0 c13c
000003e0: 9c87 9f3c db4e 083e 45fb c83c 4f77 9dbd
000003f0: eb50 3cbe f0ba 20bd ad3a 00bd d8b5 eebd
0.051764153 0.08314437 0.024840366 0.021876665 -0.093895584 -0.01204554 -0.026256962 -0.075812034
-0.059000287 -0.08730952 -0.115719534 0.085715935 -0.06676929 -0.06115181 0.031733282 -0.020947712
-0.010901779 -0.111613676 -0.08043298 -0.0059874463 0.05461864 -0.03393121 -0.03354918 -0.0046780906
-0.0009990373 -0.06997363 -0.05299244 -0.034967344 -0.017852098 -0.13427295 -0.032906167 -0.060262702
-0.07027622 -0.018843953 0.049264137 -0.12477276 0.11365263 -0.025371838 -0.10612375 0.0036610872
-0.107989654 0.0032944526 -0.07278406 0.036750708 0.08554368 0.07426093 0.07904577 -0.111047134
0.03764461 -0.065072656 -0.010961073 0.0031668476 0.022260008 -0.016898943 -0.039241605 0.03863141
-0.010784987 -0.033840496 0.0675349 0.07505183 -0.017864473 -0.029921059 0.116847135 -0.0060659377
0.018346062 0.09888906 -0.051474508 -0.07388369 0.030514365 0.030011415 -0.13772401 0.016197031
-0.039767537 0.038506687 0.107414 -0.08319819 0.048296582 -0.01629949 0.037816226 0.024891093
-0.03614522 0.11725423 0.08169527 -0.051937003 -0.032447055 0.02177846 0.03755325 0.043737646
0.034849152 0.06543734 -0.01999276 -0.09922024 -0.0345263 -0.037605956 0.007407425 -0.02298207
0.11650246 0.05185871 0.010708755 0.07475802 -0.017721802 0.019294575 0.07652705 -0.0021166827
-0.02117035 0.12754545 0.02443224 -0.12201091 0.042674698 -0.03240742 0.017822804 -0.057741772
-0.029641919 0.015420814 0.057938978 0.04442471 0.019873455 0.068847194 -0.021492647 -0.04421733
-0.03576043 0.06680032 0.086442605 -0.052453034 0.026003407 -0.024187822 0.06490669 0.08147296
-0.06420077 0.1268583 -0.12412282 -0.048224036 0.007863989 -0.07904195 -0.07437097 0.045702364
-0.1108165 -0.12641779 0.041500922 0.19213484 0.14336821 0.04148135 -0.18024142 -0.006954653
0.015851276 -0.008841282 0.078141406 0.15680407 -0.027789207 0.07595667 -0.054783326 0.003526554
-0.113214225 0.031271044 0.058731794 0.16915254 0.077843055 -0.16119629 0.12933321 0.13397276
0.06693522 0.042079065 -0.01900716 0.10423818 -0.025240429 -0.018100128 0.09798461 -0.0003343574
-0.02903771 0.072665475 0.10478098 -0.026528362 -0.1203733 0.03928727 0.021282606 0.15799306
0.12145624 -0.116319895 -0.020630525 -0.03166218 0.057508264 0.07584536 -0.0908464 -0.06648901
-0.05085971 -0.02740393 0.15030083 -0.062357537 0.10378023 0.003994324 -0.05309344 0.014837545
0.1372383 -0.045553144 0.08149829 -0.010173095 0.15980595 0.04225757 0.014239665 -0.08995673
0.17334154 0.09496059 -0.07070819 0.16401838 0.1490066 0.039626516 -0.03187604 -0.13842086
-0.059213888 -0.03313736 0.14853564 -0.11403685 -0.101564266 -0.038839176 -0.007081833 -0.04194469
0.083024114 -0.039099153 0.14712627 -0.03647636 0.03179568 0.065482445 0.00997997 0.06027078
0.052355632 -0.09036189 -0.00476724 -0.055095587 0.10634113 -0.116078995 -0.16479078 -0.068452775
-0.05356709 -0.05347943 0.018804206 0.06181291 0.11637257 0.15837926 0.05821721 0.10957774
0.10700984 -0.027677663 0.121584505 0.1427027 -0.099661216 -0.13013999 0.1470996 0.023643613
0.019473843 0.13311331 0.024533877 -0.07688772 -0.18390243 -0.039240777 -0.031305958 -0.11655778

lstm.bias_ih_l0 f4 [512]
00000000: fb7e 26bd edd7 863d aadf 11be 5267 bbbc
00000010: 5dc8 a8bc b9de 633d 759d 763d 4fc2 6cbc
00000020: 8d6b d6bd 0a98 9a3d 7108 a7bc 87b3 5ebc
00000030: f7fd eebc 363d aabd b75f cbbd 37dd 15bd
00000040: ca31 0dbd e7b2 eabd 5c73 08be bfb0 9abd
00000050: da64 cb3d 72cc 323c abb3 423d e06b 79bd
00000060: 1f2f d9bd 0b98 36bc aa42 1e3c 2d16 acbd
00000070: 7ccb e3bd be73 033e cfa1 e8bd 6384 b2bd
00000080: 89bc b7bc 7ee5 11be 12e4 35bc efda 7039
00000090: c582 2d3e 254d 14bd f95e cabc 00dd 1e3e
000000a0: 6e08 debc caeb 413d 5fa2 d0bd a18b 37bd
000000b0: 5cfc f0bd 1588 80bd e3ea 123e fabe 21bb
000000c0: b84e e9bc 3268 b3bd 86e9 15be 0542 90bd
000000d0: 51f5 6c3d 65ff 07be 140f 0c3e 340c cabd
000000e0: fb73 56bd b2eb bcbd b7b0 d4bd d20d ca3c
000000f0: 50fa b9bc 694f 413c e979 90bd 34e4 f8bd
00000100: 24d3 62bd 8483 2abd 6427 a7bc 7eec d3bc
00000110: 7cff 3bbe 6464 1dbe d849 a239 be58 49bc
00000120: 29dc b4bd 9bf1 02bc 98d6 1c3d 798d 83bc
00000130: f3ab fabd b490 cbbd a9b4 2ebd f886 203d
00000140: 2fab bc3d 851e 2d3d a44e 4e3c 1236 11bd
00000150: 87d6 9dbd 3076 3bbe 310f 39bd 7a55 5fbd
00000160: a458 da3d e2d4 f5bd d950 aebc dbe8 1e3e
00000170: 1488 7e3d f035 d33d f9de 1fbc e969 75bd
00000180: 0223 15bd 55df eabd b792 8dbd d2bc aebd
00000190: 801a 90bc bb99 b83d 4a02 9bbd b7e7 c4bd
000001a0: b532 b13c 77ed 41bd a1a1 703b b153 a2bc
000001b0: 1b15 393d 0ace 0b3e aeae 0fbe 5a94 92bd
000001c0: 39b6 023e 65b6 8cbd d188 c93d ba42 163e
000001d0: 28ec 14be 07f9 95bc fff4 ccbc f43c 293d
000001e0: de86 e23d f975 a6bd bcea 12bc b804 5fbd
000001f0: ae0b b6bd 3f38 d43d 39c5 f2bd c8e4 7dbd
00000200: f817 46bd 68e0 cc3c 31e2 53bd 0859 ffbd
00000210: f142 f1bd b9a4 41bd 554e 7cbd 7b58 6a3c
00000220: 594f 5f3c 34de c83b e8b2 2eba cada ccbd
00000230: ba53 b23c fe46 7ebc 78a9 f6bd 92b9 ccbd
00000240: 9a7c ddbd 9b94 04be eca0 43bd 87bf cdbc
00000250: c54e d13b 4cd3 45bd 1ee7 e2bc a89e d4bd
00000260: 3692 bebc c56a 2dbc a404 3fbc e4b2 c9bb
00000270: 9787 bcbd 5990 d2bc d4bf 72b9 4144 9eba
00000280: cfd7 cd3d e05e 45bd 8318 f2bd 577c 52bd
00000290: 52cc 693d 9bfb c03d 12c0 c0bd ab5f b93c
000002a0: 12d2 a3bd cfee fc3c a416 72ba 612d a73d
000002b0: c645 04be ce35 f4bc 4eb0 fc3c f8db cabd
000002c0: 6f2e 41bd ca24 a43d ec1a e9bd 875d 0cbc
000002d0: e5f1 763d 4076 f3bc a526 753d 0e36 bbbd
000002e0: 587e 3a3d 9f44 2cbd ef99 d0bd 9e42 083e
000002f0: bc1e a4bd 891c 953d c5d4 fcbb 6f21 96bc
00000300: a75a 743d b037 13bb 786e febd d8d6 0a3e
00000310: 2346 adbd 4567 50bd a1c6 973d 9f91 d43d
00000320: fdd4 b0bd a4bb 58bd 979b 39bc 2c65 c4bd
00000330: fdbb 1d3c da3f b4bd 7a47 df3c 6508 9c3b
00000340: 2e93 b63c 8d04 d33d d494 05be aaa7 3fbe
00000350: 086d b9bd 42b1 1cbe 4c38 aabd 0d01 05bd
00000360: 5642 b33d 1e7e 8bbd e6aa 9a3d fff6 d83d
00000370: 6cca 013d 495b f93d 0ed1 febc 789d 00be
00000380: 0904 15bd 1547 eebd 11c4 893c 1e2b d1bd
00000390: ad44 febd bcff 96bd c943 a2bd c18b bcbd
000003a0: cd5a 183d 9976 babd 4a1c a9bd 9dbf 093c
000003b0: ea6c 4cbd a67f e63a e44d 1dbd a905 cbbd
000003c0: b308 493c 20d9 8abd e2bc 4b3d 6585 dc3c
000003d0: 0132 95bc 7d6d 153d 7f69 97bb ef63 0f3e
000003e0: bec8 0f3d 1a63 e8bd 96bf 5cbc c179 6fbd
000003f0: 000a 1fbd 0983 cf3d 87c2 80bd 220c 253d
-0.04064844 0.06584153 -0.14245477 -0.022876415 -0.020603353 0.055632327 0.060208756 -0.014450624
-0.104697324 0.075485304 -0.020389767 -0.013592607 -0.029173834 -0.08312456 -0.099303655 -0.03658792
-0.03447131 -0.11459904 -0.13325256 -0.07553243 0.09931345 0.010913001 0.047534626 -0.060893893
-0.10604691 -0.011144648 0.009659449 -0.08402667 -0.11122796 0.12837121 -0.113589875 -0.08716657
-0.022428768 -0.142477 -0.0111017395 0.00022969743 0.16944416 -0.036206383 -0.02470349 0.15513992
-0.027103629 0.047344007 -0.1018722 -0.044810895 -0.11766884 -0.062759556 0.14347415 -0.0024680481
-0.028479919 -0.08760108 -0.14639863 -0.07043842 0.05785114 -0.13281019 0.13677627 -0.09865609
-0.0523567 -0.09224643 -0.10385268 0.024664793 -0.022702366 0.011798718 -0.070545025 -0.12152901
-0.05537714 -0.04162933 -0.020404525 -0.025869604 -0.18359178 -0.15370327 0.00030954066 -0.012289224
-0.08831055 -0.007992174 0.03829059 -0.01605867 -0.12239828 -0.09939709 -0.04265276 0.039191216
0.09212338 0.042265434 0.012591992 -0.035451956 -0.077069335 -0.18306804 -0.045180503 -0.054524876
0.10661438 -0.12003495 -0.021278786 0.15518515 0.062141493 0.10313022 -0.009757751 -0.059915457
-0.03641034 -0.114683785 -0.06912749 -0.08532108 -0.017590761 0.09013697 -0.07568796 -0.096145086
0.021630624 -0.047345605 0.0036717432 -0.019815298 0.045186143 0.13652816 -0.14031479 -0.07157202
0.12764825 -0.068707265 0.09840549 0.14673892 -0.14543211 -0.018307222 -0.025019167 0.041317895
0.1106088 -0.0812797 -0.008967098 -0.05444786 -0.088889465 0.103622906 -0.118540235 -0.06198576
-0.048362702 0.025009349 -0.051729385 -0.12468153 -0.11780346 -0.047276232 -0.06159814 0.014303322
0.013629758 0.0061300043 -0.00066642324 -0.10002668 0.02176844 -0.015519856 -0.12044042 -0.09996332
-0.108147815 -0.12947313 -0.04776089 -0.025115741 0.006387564 -0.04829721 -0.027698096 -0.10381824
-0.023263078 -0.010584538 -0.011658821 -0.0061553586 -0.09205549 -0.025703596 -0.0002315038 -0.0012074785
0.10050928 -0.048186183 -0.118210815 -0.05138811 0.05707962 0.0942299 -0.094116345 0.022628626
-0.07999052 0.030875592 -0.0009234941 0.08162952 -0.12917241 -0.029810812 0.030845787 -0.09905237
-0.047163423 0.080148295 -0.11382088 -0.0085672205 0.060289282 -0.029719472 0.059851307 -0.091411695
0.045530647 -0.04205763 -0.101856105 0.13306662 -0.080136746 0.07280833 -0.007715794 -0.01832649
0.059656765 -0.0022463612 -0.12423414 0.13558519 -0.08460643 -0.050879735 0.07410932 0.103793375
-0.08634374 -0.052913323 -0.011328599 -0.095896095 0.009627339 -0.08801241 0.027255762 0.004761743
0.022286978 0.10303602 -0.13045055 -0.18716303 -0.09053999 -0.15301993 -0.08311519 -0.032471705
0.08752887 -0.06811164 0.075521275 0.10593986 0.031687185 0.121756144 -0.031105544 -0.1256007
-0.0363808 -0.116346516 0.016817125 -0.10213302 -0.124154426 -0.07372996 -0.07923085 -0.092063434
0.03719597 -0.09104652 -0.08257349 0.008407501 -0.049908556 0.001758565 -0.03840436 -0.09913189
0.01227014 -0.067796946 0.04974068 0.026919076 -0.01821232 0.03648137 -0.0046207304 0.14002965
0.035103552 -0.11347027 -0.013473412 -0.058465723 -0.038827896 0.10132415 -0.06287103 0.040294774

lstm.bias_hh_l0 f4 [512]
00000000: 8d31 7fbd 6a87 c6bc 7f9e 36be 51e7 88bd
00000010: 9fa4 bcbd 7e1d ba3d 2db5 883d 3c83 8fbd
00000020: 9724 85bd e9f2 79bd 25aa afbd e56e a1bd
00000030: 5951 743d 8a22 24bd b94b 033d ef75 403c
00000040: 565e 80bd 4c11 f3bc cf3c 5ebd cb92 30be
00000050: 7786 b93d c2ca 6ebd 12b6 133d b99a 0fbd
00000060: 4b82 c7bd 8048 cb3d a943 1b3d 1e0f 8cbd
00000070: 7385 b5bd 1d18 17bc 3b41 a2bd d6ee fb3a
00000080: 37df fc3d eadd 02be 1eb6 01be cfe0 143d
00000090: ee79 b83d 2abe 573d 4b96 24be 238f cb3c
000000a0: c223 673b 578b 7dbd 3c0d dcbd 09e4 dabb
000000b0: 12f0 a2bc b017 813d 4078 3b3d 0408 f0bd
000000c0: 2c1f 25bd 48ed 953d e7ae 1bbd 9c00 f6bd
000000d0: af44 ab3d 25f1 b9bd debe de3d c3a7 9ebc
000000e0: 38d8 c8bd e6c5 17bc 1161 813c 8afc 813d
000000f0: 95f0 04bd 5a3a 083e 81b2 d8bd 7c5f fa3b
00000100: 13ba c0bb 1d27 c2bc a09b 3ebd 0aa3 a53b
00000110: 8121 17bd e994 20bd 9fa9 133c 8007 743c
00000120: 7c10 00bd 3821 b8bd c9c8 86bd 422c 8b3b
00000130: 6858 c0bd 7b1d 4dbe 1cf2 ff3d 43a7 7dbd
00000140: 92fe 55bc 33b8 c03d 647e c6bb 80f6 06be
00000150: 1b8d e1bb d305 efbd 3bac 08be a46e 00be
00000160: be65 6c3d e588 eb3c f3c5 c13d f286 783d
00000170: ba36 5cbd d5a1 3f3d bb1a 053c 614f 143d
00000180: 1a13 9a3d 4287 43bc 635c 23bd 29ee b7bd
00000190: 8426 9fbd a0d3 0dbd 70b5 7c3c af60 a0bd
000001a0: dc4f 6ebc c9b3 26bd fffb cdbd 3163 7b3d
000001b0: 26d5 e1bd 7d7c 853c 7708 ffbd ce96 ea3c
000001c0: 9eb8 663d 784d 52bd a3ea e1bc ce1a a3bc
000001d0: 47bd c93a d9c1 a8bd c11f 71bd ff0f bb3d
000001e0: 9768 ce3d 869a c53b 57c6 263c 8e07 063b
000001f0: b7a6 073c eb90 f33d 997c 6abd f42e 9c3d
00000200: a1f7 ecbc 794b b33c 1365 e9bd b16c e9bc
00000210: 1f27 33bd f356 f53c b940 8ebd ac6a 953c
00000220: 1a8e c5bc 20b9 27bd 4c74 04be 82e5 ec3b
00000230: c7fb a53d 7556 55bd becb 9d3c 7f75 afbc
00000240: a6cb 61bb e0b6 cabd 4506 c4ba c58b c1bd
00000250: 2092 963d 44a2 993c 1d9b 713c 2a68 12be
00000260: ad2a 07be e164 0bbd 37ff 523c c68a d5bd
00000270: 5a5c 4dbd c42e e73d 40c2 713c 9190 3dbd
00000280: 9cf6 9d3d 4434 3fbe 3ab5 3ebd 3065 7ebc
00000290: c131 0e3e 9410 0b3d 4f63 e2bb a648 b93d
000002a0: 0a15 25be f126 19bc 0098 d2bc 4f59 ed3d
000002b0: 1638 cdbd 4bd8 efbb 3ef2 52bc 63da ffbd
000002c0: 8ecb e6bd b3af 96bd dd3b 39be 2015 40bd
000002d0: 20c2 55bd 9d8f 8f3c ebc0 f13d 68f4 00be
000002e0: 6f58 823d fe7d 103d 654d d7bd 7cd2 0e3e
000002f0: 15e6 b3bd 9d2e 683d d468 1abe 43d5 f2bc
00000300: 555f b03d cbb2 25bc 684a c8bd a25b e43d
00000310: a35c 24be f2a9 0fbc df9f c03d 4476 a23d
00000320: fb16 67bd 11d9 27be 0285 fdbd 2607 06bd
00000330: 3481 643c 749a 00be d847 f13c 9c2f 0dbc
00000340: fc7b 7d3d 4562 c23d 826a e8bd bb9c eabd
00000350: ff41 1abd e174 f5bd 09b9 0bbe 2b1a 9fbd
00000360: 15dd 84bb e35f d2bd f928 50bd 4127 7e3d
00000370: e553 a4bc f963 f93d 352d c3bb 70f2 d3bc
00000380: b0dd cb3d 8f69 d8bd 4d57 8abd 2dfb 8b3c
00000390: 1de6 c1bd 7ce2 c73c 4eab 173d d968 9ebd
000003a0: 0db7 57bc 4ac1 ef3b 882f e83c fa98 f43c
000003b0: 04b2 1d3d c35a df3d 4dea 8bbd c90e 373a
000003c0: b610 edbb b86c 82bc f2c6 d13d 40e5 afbb
000003d0: d3a9 0cbd fa74 01be aeb6 adbd 0358 3e3c
000003e0: 2287 d3bc 96e5 793b 38f6 e4bd 1360 343d
000003f0: 75c4 203b 677c fc3c de02 d5bd 6926 8fbd
-0.062303115 -0.024234492 -0.17833899 -0.06684745 -0.092110865 0.090876564 0.066751815 -0.07007453
-0.065011196 -0.061022673 -0.08577374 -0.078824796 0.05964789 -0.040072 0.032054637 0.011746868
-0.06267993 -0.029671334 -0.05425721 -0.17243497 0.0905885 -0.058298834 0.036062308 -0.035059664
-0.09741648 0.09925938 0.037906323 -0.06838821 -0.08863344 -0.009222058 -0.07922598 0.0019220959
0.12347262 -0.12779966 -0.12667128 0.036347207 0.09007631 0.05267159 -0.16072957 0.024848526
0.0035269116 -0.061900463 -0.10744712 -0.006680016 -0.019889865 0.06303346 0.045768976 -0.11720279
-0.04031293 0.073206484 -0.038008597 -0.12011835 0.0836271 -0.09079198 0.10876249 -0.019367104
-0.098068655 -0.009263491 0.015793355 0.06346996 -0.032456 0.1330351 -0.10580922 0.007640777
-0.005881557 -0.023700291 -0.046535134 0.005054836 -0.036897186 -0.03920451 0.009012609 0.014894366
-0.03126572 -0.08990711 -0.065812655 0.0042472193 -0.09391862 -0.20030777 0.124973506 -0.06192709
-0.013061183 0.09410133 -0.0060575474 -0.1317997 -0.006883276 -0.11671033 -0.1334695 -0.12542206
0.057714216 0.0287518 0.09461584 0.06067557 -0.05376313 0.046785194 0.008124049 0.036208514
0.075231746 -0.011934103 -0.03988303 -0.08980972 -0.07771018 -0.03462565 0.015424117 -0.07830941
-0.014545407 -0.0406988 -0.1005783 0.061373893 -0.11026983 0.016294712 -0.124527864 0.028636362
0.05632841 -0.05134341 -0.027577704 -0.019910242 0.0015391492 -0.082400985 -0.058868174 0.091339104
0.10078543 0.0060303835 0.010179124 0.002045128 0.008279494 0.11892875 -0.05724773 0.07626143
-0.028926672 0.021886574 -0.113962315 -0.02849421 -0.04373848 0.029948687 -0.069459386 0.018239342
-0.02411561 -0.040948033 -0.12934989 0.007229508 0.08104663 -0.052084405 0.01926219 -0.021418331
-0.003445366 -0.09898162 -0.0014955482 -0.09450487 0.0735209 0.018754132 0.014746455 -0.14297548
-0.13199873 -0.034031752 0.012878231 -0.104268596 -0.0501369 0.11288217 0.014755785 -0.046280447
0.07713053 -0.18672282 -0.04655955 -0.015527055 0.13886167 0.033951357 -0.006908811 0.0904706
-0.16121307 -0.009347663 -0.025707245 0.115893 -0.10020463 -0.0073194853 -0.012875138 -0.12492826
-0.11269294 -0.07357731 -0.18089242 -0.046895146 -0.052187085 0.017524535 0.11804374 -0.12593234
0.063645236 0.035276406 -0.10512809 0.13947481 -0.08784119 0.05668508 -0.15079051 -0.029642707
0.08611933 -0.010113428 -0.09779817 0.1115029 -0.16050963 -0.008768545 0.09405493 0.07932714
-0.0564184 -0.16391398 -0.12378885 -0.03272166 0.01394682 -0.12558919 0.029453203 -0.008617308
0.06188582 0.094914 -0.1134844 -0.11455675 -0.037660595 -0.119851835 -0.13644804 -0.07768663
-0.0040546753 -0.10272195 -0.050820325 0.062049154 -0.020059535 0.121772714 -0.005956317 -0.02587244
0.09954393 -0.10567009 -0.067549326 0.017087543 -0.09467719 0.024399988 0.037028603 -0.07734842
-0.013166201 0.007316743 0.028342977 0.029858101 0.038499847 0.10905983 -0.06831799 0.0006983099
-0.007234658 -0.015920982 0.10243024 -0.005367905 -0.034341644 -0.1264228 -0.08482109 0.011617663
-0.025821272 0.0038131229 -0.11179775 0.044036936 0.002453116 0.030821038 -0.104009375 -0.06989748

lstm.weight_ih_l1 f4 [512, 128]
00000000: 240a c1bd 6144 0e3e d7f9 5bbd bba8 28be
00000010: cb68 383e 1b8c c2bd 0658 053b e2f1 85bd
00000020: dab3 2abe 1f6c 0dbe 5543 9a3d 04fd 943d
00000030: 13ab c4bd 92b1 423e d576 28be cb2a 95bb
00000040: 21e6 723d 49e0 05bc 6767 c13d 9533 003d
00000050: 4918 813b b7a9 a13d 4d04 6bbc 3b99 1d3e
00000060: 9419 30be e5c7 463d a42b 9e3d 56d3 08bc
00000070: b880 ac3d a999 c8bc 2c6a af3d fbc1 8c3d
00000080: c44a 943c 2b62 4f3d 4d93 273b 54ab f53d
00000090: 3f9b 48bd 28f2 943d bf93 e83d 3aa4 453d
000000a0: 93c6 803d 466d cc3c 15e8 b33d 7b13 06bd
000000b0: fe03 e93d 3602 213e dc81 313d 56da 133b
000000c0: 3b4e e33d ad67 fb3c e607 ebbc e18f 2bbe
000000d0: 1351 86bd 3a44 0d3e 80eb 05bd 7a1e 763d
000000e0: ddb5 c8bd 2904 10be eade 113d 368e 10be
000000f0: d228 ff3d 8f3d 3b3c faf5 fdba 3048 79bd
00000100: 432c 0c3e 2d9c 32bd 5a82 5a3d 8a08 8e3d
00000110: 59aa 61bd f35b 67bd f739 c2bb fa3c fbbd
00000120: e4de 143e 9509 473d 3906 eb3b c871 95bd
00000130: 2001 213c f7fe e9bd 1042 babd 63a9 f73d
00000140: 03c5 dabd e682 93bd 679a 663d 0379 d3bd
00000150: fb72 ddba a85c 6cbd a81a 01bd 6faa eabd
00000160: e42e a33c 9627 c5bd 19df c4bc 929c 4d3d
00000170: d74b ed3d 9335 a63d 61f3 3a3d 4428 243c
00000180: 75e0 46bd 0a84 31bc 0493 00bd bca9 22b9
00000190: b201 403e 6708 60bb 1740 8dbd ad9c 84bd
000001a0: b7f6 823b 755f 4dbd b41c 83bd b630 063d
000001b0: 4d99 813c 5d92 713d 80af bcbd d23a 573d
000001c0: cf1c 96bd 8b51 37be 1edd 393d a931 3dbd
000001d0: 1ac8 233d bdf4 25be 8377 03bd 8c7a 443c
000001e0: 946a 023e fe2f f03c ea6e 5f3d 89ec 043c
000001f0: 03b9 e2bd 89b2 c43d fe5f f2bc 3ebf 97bd
00000200: ba47 1abd fff8 8dbd 35c1 33bd 31e1 f83a
00000210: 709e 8f3d a676 7f3d 7b76 293c b399 cc3d
00000220: 117b 54bd d92a a7bd e571 d43d c2b5 7cbc
00000230: f9cd c73d c6cb d53d 5be8 3bbd 9fcd ccbd
00000240: 6dcc d33c c69b 513d 3c15 c43b d3ce b93d
00000250: ba0a 343d 3ad8 02bc 6e42 a6bd f458 be3d
00000260: ee52 a8bd 7a8d 7abd f832 cc3d 3cb3 173e
00000270: ed29 243d 89a3 5cbc e921 20bd 19a1 303d
00000280: 31a2 dbbd aec1 8c3b 6538 73bc e51e 19bd
00000290: 94c0 e93d e80e 123d ae5b d33c d6e3 a43c
000002a0: 1c8d 95bc 7cc0 2a3e 93e6 133c 8fac 873d
000002b0: 4491 d9bd 87fa 8f3d f767 083e ce94 5abd
000002c0: 1f45 88bc b494 e6bc 2412 ac3d dc96 8bbd
000002d0: 3431 5b3d cc84 323d ac9b 08be 782c debc
000002e0: 5796 06be ea6e f8bd d0e0 b63d 86c6 4fbc
000002f0: 0848 583d 0df9 5dbd e380 9e3b a238 3637
00000300: 24a4 39bd 8dfe 90bd c7f4 353c 0710 ca3c
00000310: 90d6 073e 0d53 31bd af57 e5bd 44b5 40bb
00000320: 1f01 853d 1933 e73d 999a 02ba c504 13bc
00000330: b5bc 9d3d cf96 00be 7a78 683d e411 253d
00000340: 034c d43c 5f04 1fbb fd50 423e b57f f2bd
00000350: 669e e0bd a4bd 0fbe a3bd 10bd d670 a4bd
00000360: 431c c23b 5ba2 05bc 1e44 29bd 846d a0bd
00000370: 5f72 d83d 5716 133d 59a9 d53d 904f 8f3d
00000380: ecdf edbc 3e0f 333d 1548 263d c25f 47bd
00000390: db41 0abc 3a6d eaba 02d8 05bd 8eaa f63c
000003a0: cd84 1bbd 821e 42bd 449e fabc 16c8 733d
000003b0: cb7f 2bbd 69ef 26bd 480d 8f3d 1c2a 063e
000003c0: ffcd 2dbb 1a8f c1bd 503b 333d eab9 8fbd
000003d0: e087 5a3d d0b2 2bbd b78d 4ebb a391 71bd
000003e0: e189 553d 26ab 213d ebcb 3abd 27fe 643c
000003f0: ec3e 1abd 0a17 09bd a9d6 91bc 841d 03bd
-0.09425762 0.13893272 -0.053705063 -0.16470616 0.18008725 -0.09499379 0.0020346656 -0.06540276
-0.1667017 -0.13810776 0.07532374 0.072748214 -0.09602942 0.1901305 -0.16451581 -0.0045522205
0.0593015 -0.0081711495 0.094435506 0.031299192 0.0039396626 0.07893699 -0.014344287 0.15390484
-0.17197257 0.048530478 0.077231675 -0.008351168 0.08422989 -0.024487333 0.085651726 0.06872936
0.018102057 0.05063073 0.0025569976 0.11995569 -0.04897618 0.0727275 0.11356305 0.04825232
0.06287875 0.02495445 0.087845005 -0.03273342 0.113777146 0.157235 0.043336734 0.0022560558
0.11098906 0.030689085 -0.02869029 -0.16754104 -0.065584324 0.13795558 -0.032695293 0.06008766
-0.09800313 -0.14064087 0.035612978 -0.14116749 0.12458958 0.011428251 -0.0019375675 -0.06085986
0.1368876 -0.043605972 0.05334697 0.069352224 -0.055094097 -0.056484174 -0.00592732 -0.1226749
0.14538151 0.048593123 0.0071723727 -0.07297093 0.009826928 -0.11425584 -0.09094632 0.12092855
-0.10682108 -0.07202701 0.056299593 -0.103258155 -0.0016895229 -0.05770555 -0.031519562 -0.11458289
0.01991982 -0.09626691 -0.024032163 0.050198145 0.11586731 0.08115687 0.04564226 0.010019366
-0.048553903 -0.010834703 -0.031390205 -0.00015512755 0.18750647 -0.0034184696 -0.0689699 -0.06475196
0.003996696 -0.050139863 -0.06401959 0.032761298 0.01582017 0.058977474 -0.092131615 0.05254633
-0.073297136 -0.179022 0.04537689 -0.046189938 0.039985754 -0.16206641 -0.032096397 0.011992108
0.12735969 0.02931976 0.054549135 0.008113035 -0.110704444 0.096043654 -0.029586788 -0.074095234
-0.03766606 -0.06932258 -0.04388543 0.0018988011 0.070126414 0.06236901 0.010343189 0.09990253
-0.051875178 -0.081624694 0.10373286 -0.015424194 0.09756083 0.10439257 -0.04587589 -0.100001566
0.025854314 0.051173948 0.0059839766 0.09072652 0.043955542 -0.007986123 -0.08118139 0.0929431
-0.082189426 -0.06117008 0.09970659 0.14814466 0.040079046 -0.013466724 -0.03909484 0.043122385
-0.10724295 0.0042955494 -0.0148449885 -0.03738298 0.114136845 0.035658747 0.025800552 0.020128172
-0.018255763 0.1667499 0.009027141 0.0662471 -0.1062341 0.07030206 0.1332091 -0.053364567
-0.016634522 -0.028147079 0.084018975 -0.068158835 0.05351372 0.043583676 -0.13340634 -0.027120814
-0.13143288 -0.1213053 0.08929598 -0.012681609 0.05280307 -0.05419259 0.004837142 1.0861231e-05
-0.045322552 -0.07079802 0.011105723 0.024665846 0.13265443 -0.043292094 -0.11198365 -0.0029404918
0.064943545 0.11289043 -0.00049821433 -0.008973305 0.07702009 -0.12557529 0.05675552 0.040300265
0.025915151 -0.002426408 0.18976207 -0.118407644 -0.10967712 -0.14037186 -0.0353371 -0.08029334
0.005923779 -0.008156384 -0.041324727 -0.078333884 0.105686896 0.035909977 0.10432691 0.06997597
-0.029037438 0.043715708 0.040596087 -0.048675306 -0.008438553 -0.0017885335 -0.032676704 0.030110624
-0.037968446 -0.047392376 -0.030593045 0.05951699 -0.04186992 -0.040755663 0.06984955 0.13102001
-0.0026520488 -0.094511226 0.043757737 -0.07017882 0.053352237 -0.041918576 -0.0031517574 -0.05897678
0.052133445 0.03946986 -0.045604628 0.01397661 -0.037657663 -0.033469237 -0.017802553 -0.03201057
