SimLoan/res/taiwan/LSTM_effort_modeltaiwan_budget_30.pth (torch, 822412 bytes, 12 tensors)

init_interventions f4 [1, 2]
0.014913776 -0.004416883
00000000: e958 743c 80bb 90bb

lstm.weight_ih_l0 f4 [512, 11]
-0.10035123 0.08972096 0.016971141 -0.14685111 0.09738485 0.022710063 0.04969231 -0.06085157
-0.14004327 -0.002142843 -0.014080737 -0.04439285 0.047597315 0.026565304 -0.12376704 -0.023592114
0.12862381 0.012727456 -0.045633055 -0.045635976 0.042644415 0.06531528 -0.029491674 0.10099114
-0.019227961 -0.040800482 0.1449063 0.013770449 -0.096280426 0.029379021 -0.026759528 -0.052299798
0.040116526 -0.07563136 0.07317735 -0.08845169 -0.05433177 0.059970476 0.024345234 -0.059444483
-0.10192996 0.0047737085 0.036602333 -0.09216937 -0.011757574 -0.008492505 0.037605505 -0.051116064
-0.11111851 -0.026489958 -0.023974346 0.002077218 -0.062119227 -0.00858634 0.0013743537 0.02575686
0.019399876 -0.020159805 -0.044512086 0.024438547 -0.038698714 -0.007759351 -0.09433833 -0.09424389
0.035992708 -0.018378917 -0.030779345 0.066615395 0.018924247 0.0377243 0.03431232 -0.047635376
0.076867245 0.084891856 0.04611486 0.039065514 0.0039335135 0.06279284 -0.01837699 -0.025178466
-0.019892782 -0.021107195 0.040379614 0.038590297 0.046605512 0.04469848 0.11662911 -0.050822105
0.03693493 0.06361191 0.024690444 -0.034523845 0.013317794 -0.0050740405 0.08747061 0.07366425
-0.031911775 0.028036544 0.046890724 -0.009578807 -0.07835356 0.01725202 -0.009072227 -0.12710345
-0.061888017 -0.032590605 -0.055436518 -0.039587967 -0.030081687 0.049965706 -0.02104007 0.03551685
-0.055798844 -0.17324305 0.10567676 0.02006048 -0.11625816 -0.04924769 -0.12124291 -0.08233313
-0.015351293 0.06693222 -0.013729989 -0.027229914 -0.06835142 -0.042437963 -0.019330094 -0.14247291
-0.13098133 -0.0822885 -0.0672648 0.1048316 -0.03232017 -0.078622304 -0.15203209 -0.022302568
-0.070118375 -0.0838505 -0.12788427 0.014481576 0.03944638 -0.0074704085 -0.01336978 0.029599672
-0.036367815 -0.027613178 0.010340437 -0.12057351 0.070798 0.033127055 -0.12831812 -0.047142845
-0.117053024 0.03369484 -0.12084283 -0.013163378 -0.00092305883 -0.03908421 0.09083808 0.060809597
0.029865665 0.0029832341 -0.113690086 -0.052115295 -0.03194658 -0.14692265 0.0962016 -0.006752314
-0.065940216 -0.15796234 0.04605258 0.03961323 -0.034011845 -0.00893557 -0.05743014 0.021943573
0.04932412 -0.116251335 -0.033213716 -0.12233706 -0.11465142 -0.045735348 -0.11634227 -0.08356456
0.0001338664 -0.005816278 0.12097252 -0.05104759 0.0340589 0.12354316 0.017001377 -0.07251875
0.053488284 0.09583668 -0.035285935 -0.10412474 -0.031905357 -0.00063994405 -0.02660707 -0.08167592
-0.13897362 0.008670899 -0.009159876 -0.09761304 -0.13044874 -0.045020632 0.09379106 -0.16524206
-0.04442185 -0.05187156 -0.07446272 -0.08961823 -0.07536981 -0.110460535 0.068405904 0.06576137
-0.042173963 -0.017596511 0.013994361 0.11390299 -0.069267854 0.01321795 -0.0033511722 -0.048058055
0.061122585 -0.049569145 -0.13648844 -0.057987124 -0.034494713 0.022619665 0.09009639 0.020509817
-0.03678096 0.055138856 -0.014813729 -0.03685347 0.031712312 0.025720682 -0.10783508 -0.058046408
0.039387267 -0.024990868 -0.09015253 0.1045969 0.047808368 0.044175174 -0.042492293 0.06497154
0.023084853 -0.0075181643 -0.14096293 0.03192678 -0.05330203 -0.027066514 0.041243475 -0.05251306
00000000: f284 cdbd 9fbf b73d 1007 8b3c 2360 16be
00000010: b571 c73d 740a ba3c 2a8a 4b3d 7f3f 79bd
00000020: 8167 0fbe f16e 0cbb e4b2 66bc 47d5 35bd
00000030: 67f5 423d 7b9f d93c 9379 fdbd 4044 c1bc
00000040: f6b5 033e d286 503c bae9 3abd caec 3abd
00000050: e9ab 2e3d 04c4 853d 8698 f1bc 71d4 ce3d
00000060: f583 9dbc 681e 27bd 5162 143e 739d 613c
00000070: ac2e c5bd 46ac f03c cc36 dbbc 5038 56bd
00000080: 3a51 243d 9de4 9abd 02de 953d 2926 b5bd
00000090: fd8a 5ebd 9aa3 753d a86f c73c 0f7c 73bd
000000a0: a8c0 d0bd c56c 9c3b 54ec 153d 4bc3 bcbd
000000b0: d7a2 40bc 2624 0bbc 3b08 1a3d 145f 51bd
000000c0: 1a92 e3bd 7801 d9bc d965 c4bc ef21 083b
000000d0: bb70 7ebd b8ad 0cbc a823 b43a 0d00 d33c
000000e0: 7dec 9e3c 2d26 a5bc 4e52 36bd 5933 c83c
000000f0: 8b82 1ebd 2742 febb 7434 c1bd f102 c1bd
00000100: 176d 133d 628f 96bc f724 fcbc a76d 883d
00000110: 0607 9b3c cc84 1a3d 138b 0c3d 501d 43bd
00000120: 936c 9d3d c8db ad3d efe2 3c3d 2903 203d
00000130: b4e4 803b 8899 803d 578b 96bc 1243 cebc
00000140: 30f6 a2bc ffe8 acbc 1865 253d dc10 1e3d
00000150: 6ce5 3e3d c115 373d 3edb ee3d d72a 50bd
00000160: 1549 173d f646 823d 9d43 ca3c e068 0dbd
00000170: e032 5a3c 2344 a6bb cb23 b33d 48dd 963d
00000180: ecb5 02bd e5ac e53c 7d10 403d 6ef0 1cbc
00000190: d577 a0bd 1c54 8d3c aea3 14bc 6827 02be
000001a0: 4a7e 7dbd ba7d 05bd 6711 63bd fe26 22bd
000001b0: df6d f6bc d7a8 4c3d 3a5c acbc 1e7a 113d
000001c0: 548d 64bd a066 31be 0f6d d83d e055 a43c
000001d0: c218 eebd f2b7 49bd 344e f8bd 469e a8bd
000001e0: fd83 7bbc c213 893d bff3 60bc 4511 dfbc
000001f0: d4fb 8bbd 6ed3 2dbd 255a 9ebc 6be4 11be
00000200: f81f 06be e086 a8bd 21c2 89bd f3b1 d63d
00000210: 2862 04bd bb04 a1bd 4dae 1bbe e0b3 b6bc
00000220: 399a 8fbd d0b9 abbd 18f4 02be 2244 6d3c
00000230: 8792 213d 54ca f4bb ec0c 5bbc 037b f23c
00000240: 6bf6 14bd 0835 e2bc f06a 293c 3fef f6bd
00000250: 8bfe 903d 3cb0 073d d365 03be db18 41bd
00000260: 7fb9 efbd 9a03 0a3d 727c f7bd 36ab 57bc
00000270: 6ef9 71ba c416 20bd 5109 ba3d 7c13 793d
00000280: d7a8 f43c 5d82 433b 59d6 e8bd d976 55bd
00000290: 6bda 02bd e472 16be 5805 c53d 8442 ddbb
000002a0: aa0b 87bd e1c0 21be a1a1 3c3d 7b41 223d
000002b0: 0150 0bbd 7f66 12bc de3b 6bbd 02c3 b33c
000002c0: 1708 4a3d 2e15 eebd 1b0b 08bd da8b fabd
000002d0: 5dce eabd fd54 3bbd db44 eebd e523 abbd
000002e0: 7d5e 0c39 7a96 bebb 71c0 f73d 4717 51bd
000002f0: 5881 0b3d 3204 fd3d 7946 8b3c b684 94bd
00000300: 8816 5b3d 0546 c43d fc87 10bd 5a3f d5bd
00000310: 31af 02bd ebc1 27ba 12f7 d9bc b445 a7bd
00000320: 1a4f 0ebe 6310 0e3c 4e13 16bc 58e9 c7bd
00000330: 5b94 05be 8e67 38bd 8715 c03d 3735 29be
00000340: b0f3 35bd 4677 54bd e97f 98bd c389 b7bd
00000350: 7d5b 9abd 2239 e2bd 6518 8c3d e6ad 863d
00000360: 9bbe 2cbd 8f26 90bc 9b48 653c f945 e93d
00000370: 4edc 8dbd 1a90 583c 579f 5bbb 86d8 44bd
00000380: ad5b 7a3d 0409 4bbd a0c3 0bbe e883 6dbd
00000390: 544a 0dbd e04c b93c 7584 b83d 3404 a83c
000003a0: a2a7 16bd 48d9 613d 48b5 72bc aaf3 16bd
000003b0: c5e4 013d 2eb4 d23c a3d8 dcbd 12c2 6dbd
000003c0: 8b54 213d a6b9 ccbc e4a1 b8bd e636 d63d
000003d0: b5d2 433d 07f1 343d 660c 2ebd cc0f 853d
000003e0: 721c bd3c ef5a f6bb 9658 10be a8c5 023d
000003f0: 3b53 5abd 98ba ddbc ebee 283d ef17 57bd

lstm.weight_hh_l0 f4 [512, 128]
-0.011795661 0.10748179 -0.018424643 -0.06880222 0.0100704385 -0.01933864 0.015626403 -0.06438666
0.05545058 0.09133341 0.03593435 0.057908867 0.14625517 -0.0127238035 -0.09103201 -0.02135235
-0.14144424 0.07526516 -0.038611326 0.08424612 0.03791544 -0.06293428 0.012104195 -0.041632105
-0.06459966 -0.06988875 0.11771462 0.07526441 -0.058805127 0.035110362 0.07527174 0.0074801655
-0.072695 -0.06286822 0.11656756 -0.04799267 0.048959617 -0.021694258 0.020720143 0.08529273
0.016266108 0.03242275 -0.031626448 0.0046605137 -0.11190578 0.06360667 -0.06422292 -0.06492279
0.057025153 -0.05361185 0.15103285 0.011871761 0.017198015 -0.13276647 -0.057555158 -0.067212254
-0.06352169 -0.042596426 0.09459334 0.0037057458 0.028624706 0.08626965 0.03436725 -0.007171322
-0.026152898 -0.06586174 0.06761434 -0.017929802 -0.13848701 -0.087386 -0.1264499 0.056054324
-0.117226064 0.12382835 0.07048855 0.029455703 -0.11403507 -0.096632175 -0.11642275 0.014335553
-0.0063296347 0.050690617 -0.024968239 0.06533953 -0.0017457092 0.030029597 -0.057061464 0.12013974
-0.041950498 0.019880416 -0.12215993 0.06390747 -0.14558029 -0.049394134 -0.09087016 -0.009454307
0.012771265 0.0076043867 0.040792532 0.093751594 0.101070076 0.09341951 0.011804033 0.09015226
-0.052191503 -0.077587076 -0.076144606 0.00020153863 0.020035738 0.08668192 0.017839806 0.010287176
-0.031927142 0.12925799 0.08608649 0.090550214 -0.06354997 0.022836152 0.039105028 -0.018997354
-0.012352699 0.024432134 -0.042962737 0.024813652 0.16118409 -0.10975343 0.02982733 0.043333832
0.037679832 -0.01325882 0.0043089846 -0.04186012 0.03509388 -0.033012282 -0.009683153 -0.035407703
-0.031347033 0.08914019 -0.023236439 0.09544074 0.051203165 -0.0942525 -0.02050867 0.05670973
-0.1313136 -0.10443862 0.08090759 0.1007584 -0.06445725 -0.047417667 0.06277457 0.06488696
-0.011692773 -0.061240047 -0.009654428 -0.01966291 -0.03751028 -0.013745138 0.054281797 0.119565256
-0.044776727 -0.037274297 0.03955966 -0.010087632 0.006302793 -0.039230872 0.052014586 0.0971934
-0.051374566 0.061585307 -0.034492183 -0.02243578 -0.011069563 0.06392632 -0.08835235 0.075302474
0.074330755 -0.08835229 -0.035950467 0.021360314 -0.008826741 -0.04477889 0.06122163 0.02653213
-0.08520234 -0.027885122 0.002643372 0.011686015 0.026967324 0.087263994 -0.045012582 0.08656867
0.10133801 0.109865114 0.050489243 -0.029370898 -0.07195566 -0.09228857 0.0039595407 -0.07309765
-0.06795905 0.05890066 -0.018510766 -0.0016892757 -0.07459876 -0.03716468 -0.004084744 -0.09569474
0.10480555 0.12812515 -0.00016044846 0.07020572 0.017423278 0.0069292504 -0.0802905 0.018759288
-0.08003271 -0.0536082 -0.011316228 0.044076487 0.054464687 0.068216406 -0.062851235 0.030492771
-0.048761155 0.059213202 -0.07797284 0.015229025 -0.024277741 -0.022778919 0.002314644 -0.033946756
-0.10318891 -0.039551843 -0.009764456 0.02055316 -0.09882323 -0.058007646 -0.069099076 -0.009693787
-0.038005054 0.04231736 0.026777975 0.102593035 -0.028341524 -0.10889778 0.011292791 0.026987005
-0.062296838 0.02458667 0.09292203 0.07329607 0.066344224 -0.0003435878 -0.013710129 -0.045711324
00000000: 9742 41bc 6a1f dc3d 47ef 96bc 2ee8 8cbd
00000010: 7bfe 243c 116c 9ebc f102 803c 27dd 83bd
00000020: 2620 633d 030d bb3d e62f 133d d931 6d3d
00000030: eac3 153e 8077 50bc fe6e babd 20eb aebc
00000040: c2d6 10be 9f24 9a3d e926 1ebd 3b89 ac3d
00000050: 384d 1b3d b0e3 80bd ac50 463c 6d86 2abd
00000060: d44c 84bd d521 8fbd 5d14 f13d 3a24 9a3d
00000070: a5dd 70bd e2cf 0f3d 1228 9a3d 2d1c f53b
00000080: 1ee1 94bd 0ec1 80bd f9ba ee3d f693 44bd
00000090: e189 483d 28b8 b1bc 4abd a93c f4ad ae3d
000000a0: 8040 853c b8cd 043d bc8a 01bd 39b7 983b
000000b0: dc2e e5bd 3744 823d 4e87 83bd 3df6 84bd
000000c0: 3593 693d 1998 5bbd 5ba8 1a3e c681 423c
000000d0: dae2 8c3c eff3 07be f5be 6bbd 94a6 89bd
000000e0: a917 82bd 9779 2ebd 27ba c13d 19dc 723b
000000f0: 5c7e ea3c 24ae b03d acc4 0c3d 69fd eabb
00000100: 9a3e d6bc 85e2 86bd 6379 8a3d 85e1 92bc
00000110: 8acf 0dbe 6ef7 b2bd 157c 01be 3899 653d
00000120: 3814 f0bd b899 fd3d 4d5c 903d 164d f13c
00000130: 388b e9bd 17e7 c5bd 0d6f eebd abdf 6a3c
00000140: d368 cfbb f7a0 4f3d 318a ccbc bbd0 853d
00000150: 48d0 e4ba a100 f63c 48b9 69bd d30b f63d
00000160: 49d4 2bbd 41dc a23c fc2e fabd ebe1 823d
00000170: 0013 15be 8151 4abd 221a babd 3de6 1abc
00000180: 913e 513c 382e f93b 1216 273d d600 c03d
00000190: d4fd ce3d ba52 bf3d b465 413c c0a1 b83d
000001a0: c2c6 55bd f9e5 9ebd b4f1 9bbd 1d54 5339
000001b0: fd21 a43c 4a86 b13d c924 923c 8b8b 283c
000001c0: 09c6 02bd 355c 043e 1d4e b03d 6472 b93d
000001d0: 7d26 82bd e212 bb3c 982c 203d 57a0 9bbc
000001e0: fa62 4abc e625 c83c b2f9 2fbd 0046 cb3c
000001f0: 710d 253e 68c6 e0bd 7258 f43c d17e 313d
00000200: 2b56 1a3d 863b 59bc 6232 8d3b 8475 2bbd
00000210: 9abe 0f3d e337 07bd 16a6 1ebc ab07 11bd
00000220: bf65 00bd 228f b63d 585a bebc 6f76 c33d
00000230: 69ba 513d 7407 c1bd cc01 a8bc 7648 683d
00000240: 1377 06be eae3 d5bd e1b2 a53d 6c5a ce3d
00000250: 2a02 84bd 0739 42bd f48f 803d 74e3 843d
00000260: 0b93 3fbc d8d6 7abd 9b2d 1ebc 1c14 a1bc
00000270: 61a4 19bd 4a33 61bc 9756 5e3d a1de f43d
00000280: cd67 37bd efac 18bd 4f09 223d 9846 25bc
00000290: a987 ce3b 8db0 20bd 3f0d 553d 550d c73d
000002a0: 236e 52bd e040 7c3d ad47 0dbd 3ecb b7bc
000002b0: 1d5d 35bc cdeb 823d 14f2 b4bd 2f38 9a3d
000002c0: b93a 983d 0cf2 b4bd cc40 13bd d3fb ae3c
000002d0: 099e 10bc 126a 37bd 88c3 7a3d e959 d93c
000002e0: 907e aebd 576f e4bc 6c3c 2d3b b376 3f3c
000002f0: 94ea dc3c 77b7 b23d 1d5f 38bd ea4a b13d
00000300: 4d8a cf3d f600 e13d cfcd 4e3d 3d9b f0bc
00000310: 7d5d 93bd ca01 bdbd 09bf 813b 39b4 95bd
00000320: 1d2e 8bbd d241 713d e4a3 97bc b06a ddba
00000330: 3cc7 98bd fe39 18bd 51d9 85bb 9bfb c3bd
00000340: 4ba4 d63d 3d33 033e 0e3e 28b9 04c8 8f3d
00000350: 43bb 8e3c c40e e33b 586f a4bd 14ad 993c
00000360: 31e8 a3bd 4694 5bbd b367 39bc 8c89 343d
00000370: 5d16 5f3d 0bb5 8b3d 26b8 80bd facb f93c
00000380: c7b9 47bd 8b89 723d 39b0 9fbd 2983 793c
00000390: 1de2 c6bc db9a babc 48b1 173b c10b 0bbd
000003a0: b554 d3bd 1d01 22bd 19fb 1fbc 1a5f a83c
000003b0: d563 cabd 6d99 6dbd d183 8dbd b1d2 1ebc
000003c0: 30ab 1bbd f854 2d3d 7c5d db3c 4c1c d23d
000003d0: 7c2c e8bc cd05 dfbd 6605 393c da13 dd3c
000003e0: f82a 7fbd fc69 c93c e84d be3d 401c 963d
000003f0: 7bdf 873d 9323 b4b9 73a0 60bc cc3b 3bbd

lstm.bias_ih_l0 f4 [512]
0.012481644 0.006594356 -0.064200796 0.1176401 -0.024965134 -0.040810533 -0.018097483 0.023860432
-0.009314127 -0.0020984933 0.0129461065 -0.087864734 -0.050926257 0.006578615 0.03440487 -0.023909857
-0.046428595 -0.0883284 -0.011386852 -0.13647175 -0.04823517 -0.045047402 0.023381235 -0.040068027
0.07771628 0.0055290954 -0.008821907 -0.046031334 0.004485578 0.07734309 0.077530555 0.04901522
-0.033258393 0.06532818 0.06256521 -0.105367675 -0.020095278 -0.012739586 -0.06003545 -0.068105355
-0.00459973 0.07580928 -0.08169831 -0.03642853 -0.033678677 -0.14484571 0.077572756 -0.05156294
-0.12138651 0.030999055 -0.010672187 -0.027663495 0.039057925 -0.14505704 -0.019647567 0.025387937
-0.01875227 0.06998154 -0.015106935 -0.06418611 0.0029349343 0.028624428 -0.027997877 0.011959217
0.059668493 0.017543497 0.056231163 0.029287392 0.017210416 -0.16799401 -0.095990606 -0.041825067
-0.08689599 0.03755397 0.0013721412 -0.13310155 -0.010906095 -0.16619857 0.018745746 -0.026704976
-0.08691192 -0.051061343 -0.03625021 -0.02563699 -0.06284207 -0.028845511 -0.08710554 -0.058109812
-0.0076451204 0.04093608 -0.07788605 -0.057989746 -0.024670495 -0.042501386 -0.043281112 0.054154836
-0.04049522 -0.017789831 0.024357466 0.034379676 -0.004490716 0.07345043 -0.09057317 -0.0153474985
0.10186976 -0.0407143 -0.10936965 -0.034303434 0.006658854 0.0340234 -0.07855536 -0.13335812
-0.08141655 -0.012576694 -0.010352659 -0.055774894 0.13570659 0.0073341792 -0.12726684 -0.0049420297
-0.04287558 -0.04674588 -0.07350278 0.019124065 -0.037687916 0.060707342 0.11779819 0.049468875
0.13485925 0.061197806 0.029438362 0.13598417 -0.06154477 -0.00573648 0.03139122 -0.06203123
0.10767957 -0.05762527 0.0011124262 -0.03017897 -0.036289718 -0.05258339 -0.06890406 -0.15478066
-0.09751851 0.004261106 -0.098896176 -0.06289912 -0.0061938115 0.030254073 0.029010091 0.032495856
-0.06973638 -0.06924291 -0.040055603 -0.01416564 0.10659388 0.07007431 0.05001391 -0.043814074
0.040116526 -0.08070693 -0.0076908395 -0.06099052 0.026942091 -0.08110564 -0.007770015 -0.013738396
0.043583766 0.0009953928 -0.047600232 -0.11786215 -0.0027558312 -0.13114998 -0.043708175 0.030246012
-0.05880195 0.0073466 -0.018898897 -0.019743813 -0.05270632 0.0109865405 -0.05852397 0.06578828
-0.030487396 0.046628427 -0.14330827 0.11627248 -0.015033756 0.041328818 0.06270313 -0.07518126
-0.072334446 0.09278906 0.024085507 -0.046543986 -0.04329148 -0.021585034 -0.031638976 -0.04478066
-0.044508826 -0.04585415 0.038265806 -0.1493596 -0.07842777 -0.030454593 -0.0722342 0.098263964
-0.07161643 -0.0140464045 -0.06801063 0.03559154 0.010815978 0.022068165 0.011482018 -0.09680027
-0.032631654 -0.069356725 0.00072821806 -0.1356589 -0.01994564 -0.03716298 0.078797236 -0.056267984
-0.08981341 -0.016868241 -0.026578614 -0.039463807 -0.09081053 0.03652818 -0.043581724 0.051403362
0.12310564 0.0036047979 -0.024254268 -0.09236819 0.099997096 -0.041120145 -0.11169247 -0.08022475
-0.082193606 -0.06412963 -0.059647825 0.07161772 -0.0035260553 -0.026260044 -0.13141252 -0.045425247
0.061436884 -0.07206854 0.01941666 0.08203471 0.08871586 -0.008729236 0.0672089 -0.019273467
00000000: cf7f 4c3c 7815 d83b b57b 83bd 4bed f03d
00000010: ae83 ccbc f228 27bd 2c41 94bc f476 c33c
00000020: 489a 18bc e086 09bb e81b 543c 6df2 b3bd
00000030: 0d98 50bd 6c91 d73b 1fec 0c3d 9bde c3bc
00000040: e92b 3ebd 85e5 b4bd eb8f 3abc 40bf 0bbe
00000050: 3e92 45bd a083 38bd 018a bf3c 5f1e 24bd
00000060: b729 9f3d 6a2d b53b c389 10bc 5a8b 3cbd
00000070: c1fb 923b 0e66 9e3d 57c8 9e3d 2fc4 483d
00000080: f439 08bd c8ca 853d 3022 803d 02cb d7bd
00000090: da9e a4bc b2b9 50bc bbe7 75bd d27a 8bbd
000000a0: 55b9 96bb e541 9b3d 7251 a7bd 1536 15bd
000000b0: a7f2 09bd 6f52 14be 77de 9e3d a933 53bd
000000c0: 7e99 f8bd bbf1 fd3c 66da 2ebc 8e9e e2bc
000000d0: 34fb 1f3d d589 14be eff3 a0bc 5dfa cf3c
000000e0: 5c9e 99bc 7b52 8f3d 1483 77bc 0274 83bd
000000f0: 0758 403b c77d ea3c ce5b e5bc 97f0 433c
00000100: f366 743d 61b7 8f3c a652 663d 1dec ef3c
00000110: dcfc 8c3c 9f06 2cbe b996 c4bd c350 2bbd
00000120: 86f6 b1bd 31d2 193d 6bd9 b33a c64b 08be
00000130: 7aaf 32bc f52f 2abe ae90 993c 65c4 dabc
00000140: e0fe b1bd b325 51bd 1a7b 14bd aa04 d2bc
00000150: 58b3 80bd 6c4d ecbc 6464 b2bd 8e04 6ebd
00000160: eb83 fabb 97ac 273d b982 9fbd a886 6dbd
00000170: c719 cabc ef15 2ebd 8947 31bd 76d1 5d3d
00000180: 51de 25bd fbbb 91bc 4f89 c73c b4d1 0c3d
00000190: db26 93bb 2e6d 963d 6d7e b9bd 1374 7bbc
000001a0: 18a1 d03d 0ac4 26bd 32fd dfbd c281 0cbd
000001b0: 8432 da3b 1f5c 0b3d a2e1 a0bd 088f 08be
000001c0: b8bd a6bd 7a0e 4ebc 339e 29bc 3774 64bd
000001d0: abf6 0a3e 8e53 f03b 3d52 02be c0f0 a1bb
000001e0: 4e9e 2fbd 9c78 3fbd a088 96bd 12aa 9c3c
000001f0: a55e 1abd 43a8 783d 2d40 f13d e09f 4a3d
00000200: 8b18 0a3e 8daa 7a3d b828 f13c 6f3f 0b3e
00000210: 5e16 7cbd 15f9 bbbb 1494 003d 7614 7ebd
00000220: 1b87 dc3d 7a08 6cbd d4ce 913a e339 f7bc
00000230: 87a4 14bd ae61 57bd 921d 8dbd d27e 1ebe
00000240: c9b7 c7bd bfa0 8b3b 148a cabd 41d1 80bd
00000250: 75f5 cabb 64d7 f73c 92a6 ed3c 601a 053d
00000260: f2d1 8ebd 3acf 8dbd 5811 24bd 0017 68bc
00000270: e44d da3d 1f83 8f3d 63db 4c3d 6376 33bd
00000280: 3a51 243d ad49 a5bd 7003 fcbb 32d1 79bd
00000290: a9b5 dc3c b71a a6bd 9c9b febb 0217 61bc
000002a0: e484 323d d777 823a 76f8 42bd b661 f1bd
000002b0: 2d9b 34bb 2e4c 06be 5807 33bd 7cc6 f73c
000002c0: 50da 70bd bfbb f03b dcd1 9abc c7bd a1bc
000002d0: 95e2 57bd e400 343c d5b6 6fbd 01bc 863d
000002e0: b4c0 f9bc 73fd 3e3d 67bf 12be 4420 ee3d
000002f0: 2550 76bc 6848 293d 806a 803d a2f8 99bd
00000300: 1524 94bd 3108 be3d f84e c53c e8a4 3ebd
00000310: 6852 31bd 19d3 b0bc df97 01bd ed6b 37bd
00000320: e34e 36bd 90d1 3bbd 9bbc 1c3d b9f1 18be
00000330: bd9e a0bd e97b f9bc 86ef 93bd 9e3e c93d
00000340: a3ab 92bd e422 66bc 2849 8bbd 6fc8 113d
00000350: 8035 313c 4cc8 b43c 131f 3c3c 383f c6bd
00000360: c5a8 05bd e60a 8ebd e3e5 3e3a 2bea 0abe
00000370: 0a65 a3bc 3538 18bd 7260 a13d 4279 66bd
00000380: 18f0 b7bd 442f 8abc 65bb d9bc cda4 21bd
00000390: dffa b9bd 939e 153d c082 32bd 558c 523d
000003a0: cf1e fc3d 793e 6c3b e3b0 c6bc 892b bdbd
000003b0: 47cb cc3d 996d 28bd 06bf e4bd e04c a4bd
000003c0: 1f55 a8bd 6556 83bd 4751 74bd 50ac 923d
000003d0: 6415 67bb 4e1f d7bc 0191 06be d30f 3abd
000003e0: 3ea5 7b3d ac98 93bd b00f 9f3c d001 a83d
000003f0: a9b0 b53d 1205 0fbc d2a4 893d 64e3 9dbc

lstm.bias_hh_l0 f4 [512]
-0.02456841 -0.07931026 0.0034858687 0.100229636 -0.11272011 0.083936274 0.033132184 0.07260548
-0.02037108 -0.050055344 -0.058989123 -0.0104882335 -0.120362 -0.10169938 -0.06288065 -0.027253443
-0.17968413 -0.058169086 -0.10047046 -0.009752733 -0.03340189 0.11036746 0.060101114 -0.038688887
0.034385573 -0.13569377 -0.03526915 -0.024491165 0.06253703 -0.024630342 0.14790459 -0.011681685
0.11588483 0.031600557 0.057628073 -0.13903327 -0.06392351 -0.041036993 -0.063463986 -0.03372722
0.042582374 0.0005197982 0.012538545 0.032022905 -0.042538274 -0.02823153 -0.038036652 0.04719502
-0.07615585 -0.08962346 -0.12496552 0.043977503 0.0017037338 -0.030572243 -0.04538087 -0.030260159
0.002490312 0.03991418 -0.008830479 0.037470248 -0.1257332 0.025227495 0.018209746 -0.051270418
-0.060353436 0.0678292 0.047960903 -0.03278519 0.022991393 -0.05856241 0.036514167 -0.15780938
-0.044400826 -0.07535408 -0.037839632 -0.06166464 -0.040960107 -0.12965304 0.050565187 0.013822892
0.03621735 0.015227823 -0.13163099 -0.082587704 -0.070013076 0.0013478915 -0.07493571 -0.1157135
-0.0275489 0.024732718 -0.094007336 -0.05948305 -0.09404754 -0.13000688 -0.026616195 -0.056462493
-0.076191604 0.08176619 -0.08170436 -0.02662223 -0.048378583 0.04803196 -0.047336202 -0.041396093
0.08476891 0.019538697 -0.15394238 -0.13084869 0.1040671 0.030450804 -0.11598244 0.021858333
-0.09548603 -0.089723 0.06793794 -0.05318361 0.07137289 -0.013996198 0.00023815072 -0.0015456454
0.07212761 -0.03133601 0.027704015 0.06255669 -0.0035137355 -0.11386867 0.053601656 -0.04524076
0.021960612 0.061230656 -0.042895555 0.02914573 -0.05347321 -0.014519438 -0.04555309 0.041644014
0.052743834 0.018413229 0.024446005 -0.049058132 0.010470398 -0.00807027 -0.063860975 -0.15297395
-0.017304443 0.03282025 -0.01946787 -0.109519124 -0.017898237 0.043251615 -0.049815495 -0.08548021
-0.06458053 0.011153032 -0.13298588 -0.06995306 0.04065109 0.06997178 -0.007544118 0.04368426
-0.027811145 0.04821257 0.04440117 0.03420531 0.070142 -0.052020352 -0.035073597 0.05515724
0.04674887 0.02672949 -0.07491501 -0.088350005 -0.06926819 -0.02168241 -0.06892608 0.015335843
-0.09486221 0.06338781 -0.013170451 0.04635649 0.042487696 -0.07399536 -0.035088576 -0.027379556
-0.087084435 -0.020263407 -0.11463461 0.0108137075 -0.057656735 0.042634536 0.019374864 0.035131942
0.011090078 -0.018062333 -0.030610535 -0.08989353 0.024505086 -0.13064127 -0.03144393 -0.17587695
-0.014924785 0.033843208 -0.07990703 -0.054092526 0.002230908 -0.058645755 -0.028860899 0.07864979
-0.01348817 -0.036168184 -0.041775007 -0.012653265 -0.10458062 0.037176557 0.061875224 -0.14747047
0.05917662 0.035979964 -0.07451761 -0.14829473 -0.065496914 -0.010809781 -0.008412128 0.026236271
-0.108894706 0.056799088 -0.03733587 -0.117078885 -0.1049501 -0.04898417 -0.010719907 -0.047429703
0.032613102 0.025705418 -0.026532799 -0.07172429 -0.007546705 0.108440064 -0.095897615 -0.027157512
0.01982023 -0.06687067 -0.079360455 0.083676755 0.083734125 -0.05916055 -0.17695321 0.021374699
0.027194805 -0.027683847 -0.13290459 0.037404966 0.0008182555 -0.06338365 0.14607415 0.007222573
00000000: b143 c9bc 6b6d a2bd 2c73 643b 3245 cd3d
00000010: cdd9 e6bd c8e6 ab3d 9db5 073d 2fb2 943d
00000020: 40e1 a6bc d506 4dbd 949e 71bd d7d6 2bbc
00000030: 5a80 f6bd c447 d0bd 92c7 80bd 9d42 dfbc
00000040: 1eff 37be b542 6ebd 75c3 cdbd edc9 1fbc
00000050: 6cd0 08bd 5608 e23d 962c 763d 3d78 1ebd
00000060: e3d7 0c3d 4ff3 0abe 6276 10bd b2a1 c8bc
00000070: 6a13 803d 92c5 c9bc 4d74 173e 8a64 3fbc
00000080: 0755 ed3d 966f 013d 6a0b 6c3d bd5e 0ebe
00000090: 54ea 82bd 6816 28bd 68f9 81bd 8e25 0abd
000000a0: db6a 2e3d 1143 083a 786e 4d3c 732a 033d
000000b0: 9d3c 2ebd cf45 e7bc 52cc 1bbd 914f 413d
000000c0: 99f7 9bbd 818c b7bd eced ffbd c121 343d
000000d0: d24f df3a a472 fabc 4be1 39bd 27e4 f7bc
000000e0: 8134 233b 0d7d 233d b7ad 10bc 677a 193d
000000f0: 34c0 00be e4a9 ce3c 9b2c 953c ee00 52bd
00000100: 2a35 77bd 09ea 8a3d a772 443d c349 06bd
00000110: 7258 bc3c 23df 6fbd e18f 153d c898 21be
00000120: a4dd 35bd 3d53 9abd bbfd 1abd 1094 7cbd
00000130: c9c5 27bd c4c3 04be 711d 4f3d 6979 623c
00000140: a558 143d 1e7e 793c 46ca 06be be23 a9bd
00000150: 0463 8fbd bcab b03a e577 99bd 33fb ecbd
00000160: 3bae e1bc 459c ca3c eb86 c0bd 80a4 73bd
00000170: ff9b c0bd 8620 05be 350a dabc 3745 67bd
00000180: 580a 9cbd 0875 a73d 9e54 a7bd dd16 dabc
00000190: 9f28 46bd 29bd 443d 9be3 41bd f38e 29bd
000001a0: 539b ad3d 9e0f a03c 12a3 1dbe 33fd 05be
000001b0: 2221 d53d f773 f93c 3488 edbd 3f10 b33c
000001c0: 2e8e c3bd b1c0 b7bd 0c23 8b3d 0fd7 59bd
000001d0: f32b 923d 4f50 65bc 19b8 7939 4197 caba
000001e0: a4b7 933d 305a 00bd 88f3 e23c b91d 803d
000001f0: b346 66bb fa33 e9bd 698d 5b3d 604e 39bd
00000200: bee6 b33c ffcc 7a3d 40b3 2fbd 07c3 ee3c
00000210: ba06 5bbd f0e2 6dbc e095 3abd ea92 2a3d
00000220: eb09 583d 57d7 963c fd42 c83c 2ef1 48bd
00000230: 088c 2b3c 2a39 04bc 8bc9 82bd 34a5 1cbe
00000240: 0cc2 8dbc 876e 063d 157b 9fbc 904b e0bd
00000250: 539f 92bc 9b28 313d 550b 4cbd 4010 afbd
00000260: cc42 84bd 35bb 363c 732d 08be 8d43 8fbd
00000270: c281 263d 5d4d 8f3d a634 f7bb 44ee 323d
00000280: 33d4 e3bc 8b7a 453d 00de 353d de1a 0c3d
00000290: 9ca6 8f3d 4b13 55bd 55a9 0fbd 8fec 613d
000002a0: be7b 3f3d cef7 da3c 0a6d 99bd d9f0 b4bd
000002b0: 7bdc 8dbd 4f9f b1bc 1e29 8dbd 3043 7b3c
000002c0: 1e47 c2bd 78d1 813d e0c8 57bc 4ee0 3d3d
000002d0: 9407 2e3d e18a 97bd 0ab9 0fbd 174b e0bc
000002e0: 5359 b2bd 72ff a5bc 8dc5 eabd fa2b 313c
000002f0: 7829 6cbd 8da1 2e3d 09b8 9e3c 83e6 0f3d
00000300: 29b3 353c 75f7 93bc f2c2 fabc 191a b8bd
00000310: e4be c83c d3c6 05be 5acb 00bd 1619 34be
00000320: 1687 74bc 2d9f 0a3d 4ca6 a3bd 2090 5dbd
00000330: 6d34 123b 8836 70bd b16d ecbc 2413 a13d
00000340: 7cfd 5cbc 1725 14bd 451c 2bbd a44f 4fbc
00000350: 5d2e d6bd 7246 183d e070 7d3d 8002 17be
00000360: 2f63 723d ba5f 133d b09c 98bd 93da 17be
00000370: 3f23 86bd 821b 31bc 06d3 09bc 73ed d63c
00000380: 3004 dfbd 29a6 683d 7fed 18bd 0ec7 efbd
00000390: 14f0 d6bd a0a3 48bd 8ca2 2fbc a645 42bd
000003a0: 5195 053d 2b94 d23c 505b d9bc 2fe4 92bd
000003b0: 5a4a f7bb d315 de3d f865 c4bd 6e79 debc
000003c0: 095e a23c 7df3 88bd bc87 a2bd b85e ab3d
000003d0: cc7c ab3d 5552 72bd 3933 35be fe19 af3c
000003e0: a4c7 de3c 3cc9 e2bc 2418 08be f335 193d
000003f0: 3280 563a 49cf 81bd 7694 153e 55ab ec3b

lstm.weight_ih_l1 f4 [512, 128]
-0.056345377 -0.10794983 0.028879793 -0.041343495 -0.013225869 0.07945037 -0.06688198 -0.04769512
-0.01027682 -0.059706576 -0.10152203 0.059859987 -0.04841733 0.0019530558 0.051959045 -0.030735495
0.11926936 0.061638415 0.06678768 -0.109368905 -0.0258211 0.045193724 0.032833695 -0.06039808
-0.06410041 0.027321791 -0.15398611 0.007090699 -0.015420571 0.025718346 -0.016035778 -0.016662162
0.020268124 -0.028908001 -0.025360202 0.0025244122 0.025985232 0.042894207 -0.107793115 -0.05508195
-0.045286518 0.005234803 -0.07504384 -0.033587925 0.0031924855 -0.1698135 0.14099959 -0.06451744
0.08660719 -0.07978508 -0.1095414 -0.02128289 0.033461522 0.13645096 0.06357862 0.0017645855
-0.08809269 -0.0015764214 -0.03937254 -0.07427537 0.016002351 0.06895092 -0.01769956 0.024081035
-0.042202614 -0.04549757 0.09305497 0.0032424189 0.02570485 0.04333879 -0.02203326 -0.05282684
-0.027128326 -0.07090845 0.03252662 0.05674879 0.11974672 0.063365065 0.03620981 0.04128069
-0.10446388 0.052189782 0.051378578 -0.14910749 0.09552452 -0.12906659 -0.01984122 -0.1223662
0.13651878 -0.05729129 0.057351317 -0.049409613 0.11459293 -0.011885648 0.09981608 0.05719147
0.1522494 -0.023609256 -0.03851576 -0.04948245 -0.050849527 -0.031937942 0.07578344 -0.10431635
0.11471941 -0.061825775 -0.021453455 0.111914024 0.0076481104 -0.048641533 -0.013995117 0.112927854
-0.03587372 -0.008598979 0.012563554 -0.049582932 0.03726577 -0.005319102 -0.092523165 0.08547726
0.08970154 0.040584583 0.13287745 -0.009640014 -0.11354466 -0.03338963 -0.09964717 -0.062549114
0.040452633 0.034960803 -0.05800139 -0.12324599 -0.058407385 0.10968617 -0.12933244 -0.08832016
-0.08344504 -0.0851362 0.08443748 -0.039472084 -0.008459125 0.06456153 0.059662424 -0.0991578
-0.021913668 -0.029466555 0.1025547 -0.111779466 -0.14376172 -0.031431265 0.00886932 -0.016418403
-0.04374732 0.10193249 0.094514765 -0.021121087 -0.04039431 0.022605658 0.06811813 -0.03182005
-0.1473551 0.014504296 0.011849967 0.06470202 0.0038631742 0.010478209 -0.039477177 -0.05383653
0.05805479 -0.10095649 -0.013624999 -0.062069137 0.0029630912 0.006544962 0.11410361 -0.01990708
-0.05764417 -0.0038444365 0.11929406 -0.06830825 -0.00032423544 -0.064949304 0.029360514 -0.019628823
0.0170986 0.05143414 0.10858485 -0.0024614863 -0.011373338 0.041729 0.11097677 -0.08246521
-0.001232596 0.05630854 -0.14353321 -0.015750075 0.032741446 -0.11830339 0.13588712 -0.084005
0.07911479 0.025966104 -0.0590412 0.055808734 0.12848194 -0.044604454 0.07254231 -0.058069393
-0.048489936 -0.032239784 -0.04481786 0.053568035 0.0051668524 -0.007727755 0.007376195 0.020059273
-0.051281907 0.013134432 0.03552892 -0.027869418 0.05888548 -0.096288495 0.036188126 0.09705161
-0.12819025 0.07328595 0.023648016 -0.030297177 -0.048979018 -0.045184627 0.058601193 0.124639675
-0.102594115 0.074509636 -0.12451242 0.15083306 0.016532924 0.05010057 0.05647907 -0.049077462
0.05417101 -0.0639555 0.010346518 0.029275639 0.056271434 -0.13445085 0.01223389 0.010530886
0.03794798 -0.047051262 -0.08432459 0.032774366 -0.12530456 0.028868718 0.03236717 0.043205917
00000000: 69ca 66bd cd14 ddbd 5195 ec3c cc57 29bd
00000010: 51b1 58bc e0b6 a23d 6bf9 88bd f55b 43bd
00000020: 1b60 28bc e28e 74bd c8ea cfbd bf2f 753d
00000030: 4051 46bd aefd ff3a 02d3 543d 01c9 fbbc
00000040: 7f43 f43d 9078 7c3d fbc7 883d cefc dfbd
00000050: c686 d3bc 0e1d 393d a07c 063d fa63 77bd
00000060: 1347 83bd f3d1 df3c 89ae 1dbe 1859 e83b
00000070: 90a6 7cbc 48af d23c 775d 83bc 167f 88bc
00000080: 5609 a63c 79d0 ecbc 33c0 cfbc 9c70 253b
00000090: fbde d43c d6b1 2f3d a3c2 dcbd 9c9d 61bd
000000a0: 5b7e 39bd b688 ab3b 96b0 99bd 7e93 09bd
000000b0: 0539 513b 97e3 2dbe 3262 103e b821 84bd
000000c0: 1c5f b13d 5c66 a3bd 3e57 e0bd 7559 aebc
000000d0: f30e 093d cdb9 0b3e 8235 823d aa49 e73a
000000e0: f169 b4bd ed9f ceba 1a45 21bd af1d 98bd
000000f0: 5d17 833c 2436 8d3d abfe 90bc 9745 c53c
00000100: a6dc 2cbd a95b 3abd 9b93 be3d c37e 543b
00000110: fa92 d23c 0484 313d 187f b4bc f560 58bd
00000120: 393c debc 7338 91bd a23a 053d 6b71 683d
00000130: c53d f53d 8bc5 813d bd50 143d f115 293d
00000140: 29f1 d5bd f4c4 553d 5872 523d a2af 18be
00000150: 5ca2 c33d 082a 04be 0e8a a2bc 219b fabd
00000160: 94cb 0b3e 46aa 6abd 37e9 6a3d bc61 4abd
00000170: b3af ea3d 05bc 42bc 5f6c cc3d 9a41 6a3d
00000180: 44e7 1b3e 3368 c1bc b4c2 1dbd 1cae 4abd
00000190: 9847 50bd 5cd1 02bd 5934 9b3d cfa3 d5bd
000001a0: 03f2 ea3d 063d 7dbd 28bf afbc 2e33 e53d
000001b0: 009d fa3b 583c 47bd c64b 65bc b846 e73d
000001c0: 52f0 12bd bbe2 0cbc 5dd7 4d3c 7917 4bbd
000001d0: fea3 183d dd4b aebb c97c bdbd b40e af3d
000001e0: 71b5 b73d 053c 263d 0711 083e 26f1 1dbc
000001f0: 1a8a e8bd 91c3 08bd d113 ccbd c019 80bd
00000200: a9b1 253d 0f33 0f3d de92 6dbd 6568 fcbd
00000210: 953c 6fbd 25a3 e03d b96f 04be 33e1 b4bd
00000220: 3ce5 aabd e35b aebd 8fed ac3d 7bad 21bd
00000230: 2498 0abc d638 843d 9660 743d 3f13 cbbd
00000240: 4b84 b3bc d863 f1bc 3308 d23d a2ec e4bd
00000250: 4636 13be 12be 00bd a050 113c e37f 86bc
00000260: 6430 33bd fbc1 d03d f590 c13d 2106 adbc
00000270: 8174 25bd 802f b93c 8581 8b3d be55 02bd
00000280: 41e4 16be 6da3 6d3c 5d26 423c 7e82 843d
00000290: 4f2d 7d3b cbac 2b3c d2b2 21bd b183 5cbd
000002a0: dcca 6d3d 47c2 cebd 633b 5fbc 353c 7ebd
000002b0: 6c30 423b 1f77 d63b 27af e93d 2c14 a3bc
000002c0: 4b1c 6cbd f1f2 7bbb 7250 f43d 32e5 8bbd
000002d0: 25fe a9b9 2404 85bd 7685 f03c a0cc a0bc
000002e0: 5d12 8c3c 9bac 523d bc61 de3d e350 21bb
000002f0: 3d57 3abc 07ec 2a3d ca47 e33d 85e3 a8bd
00000300: 0f8f a1ba c9a3 663d 5ffa 12be 4d06 81bc
00000310: e51b 063d 0c49 f2bd fe25 0b3e d00a acbd
00000320: ef06 a23d deb6 d43c 2fd5 71bd b397 643d
00000330: c590 033e 29b3 36bd 1091 943d 2cda 6dbd
00000340: 629d 46bd dd0d 04bd ef92 37bd 286a 5b3d
00000350: b34e a93b 1b39 fdbb 02b4 f13b 5853 a43c
00000360: fa0c 52bd cd31 573c c686 113d 684e e4bc
00000370: e731 713d e732 c5bd 003a 143d ffc2 c63d
00000380: 4e44 03be f216 963d 7cb9 c13c c931 f8bc
00000390: 399e 48bd 8413 39bd ce07 703d 1643 ff3d
000003a0: dd1c d2bd 8298 983d 5e00 ffbd fb73 1a3e
000003b0: 0e70 873c 4136 4d3d 9956 673d 7305 49bd
000003c0: 6ce2 5d3d 1afb 82bd 7184 293c 77d3 ef3c
000003d0: e07c 663d 7cad 09be a770 483c bd89 2c3c
000003e0: 576f 1b3d d3b8 40bd 5fb2 acbd 6a3e 063d
000003f0: d74f 00be 177e ec3c 7093 043d b0f8 303d

lstm.weight_hh_l1 f4 [512, 128]
0.07609808 0.011355184 -0.10048335 0.09164717 0.041419916 -0.024526395 0.014331344 0.04808362
-0.03679063 0.11536086 0.030933887 -0.054312713 -0.11222079 -0.030800896 -0.07887576 -0.09213718
-0.013032825 0.0096941935 0.09237242 0.059258457 0.0032295873 -0.06446563 0.022716189 -0.048160363
-0.10700062 -0.13775198 0.019677851 -0.06664376 -0.14623484 -0.011133137 0.021462334 -0.04365525
0.004459362 0.032042436 -0.031235866 0.05117479 0.016401436 0.12834045 0.052898467 0.021575918
0.041281853 0.03699521 -0.11454532 -0.0028716507 -0.03809165 -0.087122746 -0.062653854 0.05650916
0.06998008 0.055187806 0.10084073 -0.03051158 0.056701098 0.06846258 0.009616677 -0.008350045
0.03610139 -0.03499211 -0.015129465 -0.03759266 0.058688544 -0.074756555 -0.0056574116 0.09952538
0.03915078 0.041546825 -0.011160052 0.015642066 0.007221902 0.03469917 0.011445624 -0.07781653
0.035000388 -0.06888515 0.034409326 -0.03202561 0.08007135 -0.07026912 -0.08382691 -0.08291292
-0.027671251 0.06368399 0.014657921 0.053365037 0.008730541 0.039384976 0.10554633 -0.0420978
0.10296585 -0.03982125 0.027652062 -0.06536286 -0.12669635 0.11772862 0.07113072 -0.06107105
-0.0059635933 -0.08281713 -0.058604978 -0.08165743 0.06509007 0.042084053 0.027161697 -0.034829393
-0.0659108 0.04901398 -0.051494148 -0.031403337 -0.10805971 -0.022510849 0.043546528 -0.03720463
0.06818239 0.052385878 0.044954482 0.03284308 0.02361289 -0.0012136525 0.03638033 -0.08283944
-0.03292491 0.0017361977 0.00015983114 -0.08578328 -0.04953704 0.08080712 -0.030989446 0.027980063
0.0067029363 -0.09611957 -0.045060635 0.036557842 -0.112452276 0.07791877 0.064297 -0.0010377313
0.10795794 -0.0052229236 0.026091801 -0.015816417 -0.09824308 0.024882775 0.024539353 0.012413098
-0.032695774 -0.006879577 -0.03376486 0.074242644 0.011463546 0.020082684 0.09945606 0.033330787
0.0016115486 0.0027044562 -0.11604616 -0.14322807 -0.095008396 0.06058634 0.05594543 0.14933713
-0.047444373 0.020773929 -0.01937685 -0.00665492 0.09690555 0.0646397 0.06792303 0.06699003
-0.13633348 0.037438825 -0.024277672 0.06282881 0.14808455 0.0104508465 0.0012491883 0.06296137
0.1300769 -0.015789105 0.05106579 0.13567403 -0.058275204 0.06433983 -0.10948857 -0.1222436
0.102198 0.006702689 -0.008353582 -0.0997585 -0.07478625 -0.028053917 -0.00016034477 -0.06724179
-0.030399075 0.076043375 -0.04552993 0.07147644 -0.03588395 0.07173096 0.010945743 -0.12042188
-0.08486148 0.10134592 0.00636528 -0.050091915 -0.0075585167 0.06523698 -0.04041034 -0.08837052
-0.11650438 0.002107563 -0.07200206 -0.09399291 -0.12522344 0.10204368 0.06399954 0.07236106
0.011035795 0.048310503 0.06940688 -0.037334286 -0.0203891 0.10526042 0.04766738 0.045884613
0.061857544 -0.13633443 0.018680394 -0.13141382 0.0069694393 0.11030076 -0.09999906 0.06296458
-0.03328476 -0.006379542 0.032280993 -0.032224953 -0.034484472 0.019999333 -0.11793814 0.0513665
0.13171062 -0.16002317 -0.06732671 -0.015548156 -0.08587882 0.119947314 0.08079734 -0.10971941
-0.04642357 -0.0031732612 0.10430443 -0.04449057 -0.0398569 0.043671355 -0.09118794 -0.08760107
00000000: 4fd9 9b3d 180b 3a3c 37ca cdbd 83b1 bb3d
00000010: eea7 293d 94eb c8bc 03ce 6a3c 54f3 443d
00000020: c6b1 16bd 5142 ec3d 1069 fd3c 0277 5ebd
00000030: 03d4 e5bd 2952 fcbc 9d89 a1bd 6bb2 bcbd
00000040: a187 55bc 65d4 1e3c c02d bd3d ffb8 723d
00000050: 7ca7 533b 8e06 84bd 4d17 ba3c cd43 45bd
00000060: 2423 dbbd db0e 0dbe 7233 a13c 867c 88bd
00000070: 96be 15be c367 36bc c7d1 af3c d9cf 32bd
00000080: d71f 923b ee3e 033d 5ce2 ffbc a89c 513d
00000090: 4e5c 863c ae6b 033e 10ac 583d fbbf b03c
000000a0: 2917 293d 4a88 173d bd96 eabd 4e32 3cbb
000000b0: fd05 1cbd 696d b2bd aa50 80bd 2676 673d
000000c0: b751 8f3d 9c0c 623d 9685 ce3d 6cf3 f9bc
000000d0: 693f 683d 1c36 8c3d 448f 1d3c a1ce 08bc
000000e0: 0ddf 133d e353 0fbd 93e1 77bc c3fa 19bd
000000f0: 6663 703d f719 99bd cf61 b9bb f6d3 cb3d
00000100: 915c 203d 012d 2a3d a7d8 36bc ca23 803c
00000110: b4a5 ec3b b820 0e3d 6d86 3b3c 465e 9fbd
00000120: 915c 0f3d a813 8dbd cbf0 0c3d 492d 03bd
00000130: 73fc a33d 42e9 8fbd 71ad abbd 40ce a9bd
00000140: d2ae e2bc c06c 823d c727 703c 4c95 5a3d
00000150: 8b0a 0f3c 2452 213d ad28 d83d be6e 2cbd
00000160: c2df d23d 9b1b 23bd 9486 e23c f7dc 85bd
00000170: b0bc 01be b41b f13d fcac 913d a325 7abd
00000180: 3f6a c3bb 079c a9bd c60b 70bd 033c a7bd
00000190: f14d 853d 5460 2c3d 3582 de3c 44a9 0ebd
000001a0: 3efc 86bd e2c2 483d 87eb 52bd c9a0 00bd
000001b0: 694e ddbd ac68 b8bc d85d 323d e263 18bd
000001c0: 35a3 8b3d 9392 563d 3122 383d 7786 063d
000001d0: d26f c13c 6c13 9fba 8a03 153d b9a7 a9bd
000001e0: 45dc 06bd 2191 e33a 5898 2739 25af afbd
000001f0: 5ae7 4abd 347e a53d 94dd fdbc 7236 e53c
00000200: 4ea4 db3b 56da c4bd 8091 38bd adbd 153d
00000210: 614d e6bd e093 9f3d 25ae 833d 7c04 88ba
00000220: 0d19 dd3d 0f25 abbb 79be d53c 6e91 81bc
00000230: ab33 c9bd f6d6 cb3c c106 c93c 4e60 4b3c
00000240: 01ec 05bd 136e e1bb 064d 0abd 870c 983d
00000250: 99d1 3b3c 7184 a43c 9eaf cb3d dd85 083d
00000260: 993a d33a 3f3d 313b 9ca9 edbd 61aa 12be
00000270: c393 c2bd 6229 783d 0927 653d d5eb 183e
00000280: 0855 42bd 162e aa3c 33bc 9ebc 8411 dabb
00000290: 6b76 c63d d261 843d 3b1b 8b3d 1232 893d
000002a0: 019b 0bbe 7459 193d f8e1 c6bc 64ac 803d
000002b0: 7aa3 173e 073a 2b3c cebb a33a e4f1 803d
000002c0: e132 053e 2758 81bc 5d2a 513d 22ee 0a3e
000002d0: fbb1 6ebd 9ac4 833d 8b3b e0bd da5a fabd
000002e0: 2f4d d13d 3ba2 db3b 76dd 08bc 2f4e ccbd
000002f0: 8929 99bd 54d1 e5bc 3922 28b9 10b6 89bd
00000300: 7b07 f9bc a1bc 9b3d 987d 3abd 3d62 923d
00000310: 0cfb 12bd aee7 923d c655 333c bf9f f6bd
00000320: dbcb adbd 738e cf3d d793 d03b 2e2d 4dbd
00000330: 6fad f7bb f79a 853d 5085 25bd 9afb b4bd
00000340: d999 eebd 0a1f 0a3b d175 93bd 5b7f c0bd
00000350: 933a 00be 47fc d03d 3112 833d 0932 943d
00000360: 7bcf 343c 3ce1 453d 3225 8e3d d6eb 18bd
00000370: 0b07 a7bc c692 d73d df3e 433d 81f1 3b3d
00000380: 565e 7d3d 419b 0bbe a007 993c 5891 06be
00000390: e55f e43b 5de5 e13d 4fcc ccbd 93f3 803d
000003a0: 9a55 08bd 7a0b d1bb 1339 043d 50fe 03bd
000003b0: 973f 0dbd a4d5 a33c 8d89 f1bd ae65 523d
000003c0: 26df 063e 1ddd 23be 96e2 89bd b1bd 7ebc
000003d0: 3ce1 afbd f0a6 f53d 1379 a53d 92b4 e0bd
000003e0: a426 3ebd 7df6 4fbb 909d d53d be3b 36bd
000003f0: fd40 23bd bce0 323d bec0 babd 3168 b3bd

lstm.bias_ih_l1 f4 [512]
-0.10587645 -0.032519694 -0.0798181 -0.041409288 0.043017928 -0.0850946 -0.0023838943 -0.02822491
-0.098030984 -0.006119877 -0.0941309 -0.16649999 0.036222916 0.03188571 -0.023410989 -0.071492776
-0.13642368 0.03944938 -0.15279223 -0.12948331 -0.1173123 -0.09000907 -0.08480209 -0.0049368558
-0.037340384 -0.09221695 0.06295217 0.08322208 -0.05238837 0.028438259 -0.061747927 -0.015518218
-0.02603371 -0.011771322 0.02498239 -0.051984135 -0.021408888 -0.021051189 -0.046876352 -0.07068627
-0.043659743 -0.0770324 -0.012057523 0.03335804 0.11820403 -0.08174706 0.073250346 -0.13943568
0.053328697 -0.049183007 -0.017462844 0.05956158 0.008571859 -0.10685072 0.035815008 0.008189887
0.010995125 0.0065739416 0.017883848 -0.037280325 -0.08404287 -0.09634583 0.04696561 -0.09763632
-0.054852486 -0.0037627134 -0.04587355 -0.047175605 0.051504605 0.038392115 -0.11399976 -0.027993275
-0.07498971 0.01350103 -0.07969708 -0.08470855 -0.0782562 -0.06244802 -0.025983792 -0.009710766
-0.067236334 -0.09570695 -0.07984005 -0.093828455 -0.00794438 -0.050009973 -0.07423847 0.0038718611
-0.03456467 -0.021313008 0.018051084 -0.05494438 0.00047764092 -0.014516135 0.041261155 -0.14729325
-0.06992825 0.025898935 0.05830829 0.014511247 -0.097535305 -0.04526067 0.027647408 0.06573638
-0.0014621073 -0.12962845 0.0038954217 0.027019298 -0.11485674 -0.0757474 -0.07952003 -0.09579528
0.07239991 0.03983742 -0.025292251 0.021637363 0.048793785 -0.05932369 -0.020975335 -0.073241845
0.021855464 0.10925139 -0.019261215 0.06372342 -0.09113018 -0.16360047 -0.13445543 -0.027459832
0.025721198 -0.094390206 0.010725422 -0.081578866 0.04969485 0.053781833 0.01925519 0.028935915
-0.066641055 0.022004541 -0.11565282 -0.14969242 0.093379505 6.4411192e-06 -0.071488306 -0.0033984075
-0.047613073 -0.10767735 -0.13949816 -0.008419203 0.04144857 -0.09296327 0.0803052 -0.096345685
0.00042609606 -0.0993115 -0.00028269537 -0.008396961 -0.012841537 -0.07177389 -0.044371784 0.021333195
0.05455431 -0.07153317 0.09175934 0.020108175 -0.060592905 0.0236487 0.044659745 -0.021665087
-0.11500315 -0.05890322 0.00041438782 0.078436196 -0.018388353 -0.012776298 -0.08190331 -0.1417691
0.08434255 -0.04036106 -0.030479042 0.006833064 -0.15807357 -0.041193005 -0.03249513 0.009471959
-0.07026782 -0.03157762 -0.006916266 0.015354943 -0.07378604 -0.11734738 0.0028932164 -0.029111763
-0.067797534 0.02870358 0.05367753 -0.06511907 -0.025402263 -0.076023616 -0.0041599465 0.055438958
-0.1223973 0.03455156 -0.14316447 -0.098229356 -0.010261377 -0.062129784 0.09131095 0.008156151
0.06375203 0.022589019 -0.056799866 -0.08299091 -0.07623043 0.02744025 -0.031299956 0.04651219
-0.114111185 0.035131164 -0.06078046 -0.009558975 0.024657642 0.01034161 0.042324387 -0.12131876
-0.061118767 0.090736724 -0.01770399 -0.099691175 -0.09030487 0.004387843 -0.08531244 -0.0071077943
0.0647546 -0.02080667 0.060721632 0.031491477 0.037720565 -0.12414254 0.065805264 -0.00636368
0.0036528849 0.05494079 -0.059059285 -0.12188722 -0.02580858 0.010264955 0.018603249 -0.1170188
-0.10911239 0.032708317 -0.036738556 -0.053973503 -0.1382404 -0.02482292 0.0020287754 0.039413825
00000000: c1d5 d8bd 5f33 05bd ac77 a3bd c99c 29bd
00000010: 9133 303d 1446 aebd 1c3b 1cbb ed37 e7bc
00000020: 78c4 c8bd 4089 c8bb b4c7 c0bd f97e 2abe
00000030: 7b5e 143d 979a 023d 67c8 bfbc ce6a 92bd
00000040: a6b2 0bbe ac95 213d 9175 1cbe 4697 04be
00000050: 6e41 f0bd ad56 b8bd b8ac adbd 59c5 a1bb
00000060: 3bf2 18bd 3edc bcbd 11ed 803d 5670 aa3d
00000070: 3095 56bd 5af7 e83c 65eb 7cbd 2040 7ebc
00000080: a644 d5bc 81dc 40bc dfa7 cc3c 51ed 54bd
00000090: b161 afbc 8b73 acbc 6b01 40bd f7c3 90bd
000000a0: 8fd4 32bd 2ac3 9dbd eb8c 45bc 71a2 083d
000000b0: f414 f23d 016b a7bd 4704 963d 3ac8 0ebe
000000c0: 316f 5a3d 1f74 49bd 3d0e 8fbc d8f6 733d
000000d0: fc70 0c3c 8dd4 dabd c2b2 123d e02e 063c
000000e0: e624 343c 386a d73b 2681 923c 41b3 18bd
000000f0: ab1e acbd f650 c5bd 035f 403d 8df5 c7bd
00000100: 00ad 60bd db97 76bb e7e5 3bbd 353b 41bd
00000110: 7ef6 523d 0d41 1d3d b578 e9bd 2752 e5bc
00000120: 3494 99bd 6d33 5d3c 3938 a3bd ad7b adbd
00000130: c944 a0bd 7fc9 7fbd f6db d4bc e819 1fbc
00000140: 34b3 89bd 0102 c4bd 2e83 a3bd 2229 c0bd
00000150: 2529 02bc 42d7 4cbd 570a 98bd 0dbf 7d3b
00000160: af93 0dbd 9e98 aebc dedf 933c 5c0d 61bd
00000170: e16b fa39 15d5 6dbc 7501 293d 0bd4 16be
00000180: 8b36 8fbd 012a d43c acd4 6e3d 95c0 6d3c
00000190: 97c0 c7bd 4163 39bd d17c e23c cca0 863d
000001a0: 2ea4 bfba 52bd 04be 554a 7f3b 9357 dd3c
000001b0: 033a ebbd 7421 9bbd 66db a2bd 5130 c4bd
000001c0: 6746 943d 902c 233d b231 cfbc d740 b13c
000001d0: fedb 473d 66fd 72bd 77d4 abbc d2ff 95bd
000001e0: 3b0a b33c 31bf df3d b2c9 9dbc 6d81 823d
000001f0: 76a2 babd e286 27be afae 09be 71f3 e0bc
00000200: 43b5 d23c a74f c1bd aeb9 2f3c d212 a7bd
00000210: d48c 4b3d 574a 5c3d 0fbd 9d3c 030b ed3c
00000220: 1b7b 88bd de42 b43c 63db ecbd f848 19be
00000230: c13d bf3d cb20 d836 7668 92bd d1b7 5ebb
00000240: ed05 43bd f185 dcbd 9bd8 0ebe b2f0 09bc
00000250: fac5 293d 8763 bebd 0d77 a43d e350 c5bd
00000260: a565 df39 d463 cbbd bb36 94b9 6893 09bc
00000270: 4f65 52bc 30fe 92bd 30bf 35bd f4c2 ae3c
00000280: 5774 5f3d fc7f 92bd 52ec bb3d e6b9 a43c
00000290: 4430 78bd ebba c13c 23ed 363d fb7a b1bc
000002a0: c686 ebbd 8144 71bd 3142 d939 28a3 a03d
000002b0: 2ca3 96bc ae53 51bc ecbc a7bd eb2b 11be
000002c0: c9bb ac3d a451 25bd 2faf f9bc e5e7 df3b
000002d0: 0ade 21be ffb9 28bd 9d19 05bd 4730 1b3c
000002e0: 93e8 8fbd 8957 01bd d8a1 e2bb 4d93 7b3c
000002f0: 231d 97bd d353 f0bd 1e9c 3d3b cb7b eebc
00000300: 6fd9 8abd c523 eb3c f8dc 5b3d 265d 85bd
00000310: 6818 d0bc 45b2 9bbd 2950 88bb f613 633d
00000320: 70ab fabd f085 0d3d b599 12be 792c c9bd
00000330: 561f 28bc cd7b 7ebd 3c01 bb3d 60a1 053c
00000340: 6d90 823d 9b0c b93c faa6 68bd 23f7 a9bd
00000350: b31e 9cbd 60ca e03c 6234 00bd 9183 3e3d
00000360: 20b3 e9bd b2e5 0f3d eef4 78bd 3f9d 1cbc
00000370: d3fe c93c db6f 293c 565c 2d3d f875 f8bd
00000380: ac57 7abd 2dd4 b93d f507 91bc e32a ccbd
00000390: c2f1 b8bd e5c7 8f3b 4ab8 aebd 80e8 e8bb
000003a0: 0f9e 843d c072 aabc 3fb7 783d 35fd 003d
000003b0: e180 1a3d 723e febd e9c4 863d 6b86 d0bb
000003c0: 3d65 6f3b 9809 613d 26e8 71bd 02a0 f9bd
000003d0: 846c d3bc 582e 283c d765 983c 8da7 efbd
000003e0: 5176 dfbd 28f9 053d 2b7b 16bd 5213 5dbd
000003f0: e48e 0dbe 7059 cbbc 34f5 043b 6470 213d
