SimLoan/res/taiwan/LSTM_clf_effort_modeltaiwan_budget_30_eps_0_5_b_0_2_lt-w_5_st-w_0_01.pth (torch, 834818 bytes, 17 tensors)

init_interventions f4 [1, 2]
0.07033032 -0.064744905
00000000: 5809 903d fa98 84bd

clf.model.0.weight f4 [32, 4]
0.18304771 0.253567 -0.36572844 -0.10122224 -0.1569423 -0.49132007 -0.35996294 -0.79528624
-0.0051914095 -0.68264186 -0.9033447 -0.57432026 -0.1980514 -0.14211014 0.48239797 -0.48290503
-0.033020705 0.14337833 0.5074179 0.4295722 0.07932757 0.54691845 -0.40938056 0.11364083
-0.009271507 -0.67022675 -0.8821967 -0.57234305 -0.41738313 0.64509517 0.20003736 -0.4329876
0.09456332 -0.14713848 0.38279945 0.404593 0.0037619064 -0.83197176 -1.1088088 -0.71586144
0.014505192 -0.5294871 -0.76899546 -0.55847853 -0.007914587 -0.7804661 -1.0263419 -0.66546726
0.21944112 -0.37086755 -0.47259235 -0.33235207 0.43371838 -0.47342354 -0.6076854 -0.40710577
-0.14222294 0.3829432 0.10083968 0.31847873 -0.059758317 0.64116997 -0.46266124 0.4976938
0.17945968 0.40292245 0.11929382 0.4390478 -0.18035737 -0.22576281 0.3412051 -0.020870376
-0.0077514895 -0.7676228 -1.0049387 -0.6443775 -0.31641328 -0.9560296 0.20591919 0.37756357
-0.03839805 -0.7166858 -0.71623915 0.054060582 -0.005790214 -0.6419641 -0.84624267 -0.54141
-0.41155088 0.48696715 -0.18415874 0.44699267 0.51854753 -0.87668145 0.060709324 0.29154918
0.18016103 0.17488983 -0.5415373 0.11654916 -0.3666873 0.4482901 0.10688291 0.156639
0.17747593 0.6987369 0.54285455 -0.3503533 0.2619178 0.07423258 0.2748876 0.15037654
0.07064089 0.7462278 -0.019721614 -0.28899586 0.20594937 0.033030994 -0.80257905 -0.47297198
-0.011362358 -0.12136863 -0.10134526 0.37683478 -0.5350078 0.3539916 -0.40835863 0.22596481
00000000: dc70 3b3e 89d3 813e c240 bbbe 9b4d cfbd
00000010: 7bb5 20be 4e8e fbbe 104d b8be e197 4bbf
00000020: b31c aabb 9ec1 2ebf 9941 67bf a706 13bf
00000030: fccd 4abe 5285 11be defc f63e 543f f7be
00000040: b840 07bd c5d1 123e 24e6 013f e3f0 db3e
00000050: 7e76 a23d d902 0c3f 549a d1be 86bc e83d
00000060: 85e7 17bc fb93 2bbf a5d7 61bf 1385 12bf
00000070: 3eb3 d5be f524 253f 98d6 4c3e 8db0 ddbe
00000080: 6aaa c13d 78ab 16be 4afe c33e d026 cf3e
00000090: 518a 763b 1afc 54bf 72ed 8dbf b242 37bf
000000a0: 2fa7 6d3c 778c 07bf e3dc 44bf 73f8 0ebf
000000b0: 2fac 01bc a0cc 47bf 2c5f 83bf 105c 2abf
000000c0: 2cb5 603e 5ae2 bdbe a0f7 f1be 0d2a aabe
000000d0: 5610 de3e 9264 f2be 4591 1bbf 2b70 d0be
000000e0: e4a2 11be 2211 c43e 0985 ce3d a50f a33e
000000f0: 23c5 74bd b723 243f efe1 ecbe b9d1 fe3e
00000100: 47c4 373e da4b ce3e 5150 f43d e0ca e03e
00000110: 9aaf 38be 5e2e 67be 6fb2 ae3e 5af8 aabc
00000120: 3500 febb ee82 44bf d5a1 80bf edf5 24bf
00000130: ec00 a2be 5bbe 74bf 7bdc 523e 0350 c13e
00000140: 4647 1dbd b878 37bf 735b 37bf a16e 5d3d
00000150: d6bb bdbb c257 24bf 5ca3 58bf d999 0abf
00000160: ccb6 d2be c253 f93e 1c94 3cbe 39dc e43e
00000170: 88bf 043f 326e 60bf 57aa 783d ef45 953e
00000180: 227c 383e 5216 333e 30a2 0abf 53b1 ee3d
00000190: 70be bbbe 4886 e53e 6de5 da3d f965 203e
000001a0: 40bc 353e 6ce0 323f 84f8 0a3f 8261 b3be
000001b0: 171a 863e 4007 983d 11be 8c3e 4ffc 193e
000001c0: 2cac 903d c908 3f3f 398f a1bc 44f7 93be
000001d0: 64e4 523e 824b 073d d275 4dbf 6229 f2be
000001e0: 2f29 3abc 1e90 f8bd 1b8e cfbd 7df0 c03e
000001f0: 45f6 08bf 633e b53e 6214 d1be 5263 673e

clf.model.0.bias f4 [32]
0.42467672 0.2152307 0.2100721 0.26956475 -2.7751563e-05 -0.1542338 0.19751087 0.20478967
-0.005696529 0.25683588 0.18037207 0.23278643 -0.10522953 -0.28435308 -0.007894305 -0.38719323
-0.26338744 0.15968423 0.23035209 0.024289416 0.197935 0.19707555 0.37019524 -0.2995206
0.3521214 0.23349026 -0.12541512 -0.26318872 0.16370368 -0.040061496 -0.4538518 0.1497376
00000000: 3a6f d93e 7065 5c3e 241d 573e 6404 8a3e
00000010: 07cc e8b7 77ef 1dbe 4a40 4a3e 62b4 513e
00000020: f3a9 babb fe7f 833e 75b3 383e 915f 6e3e
00000030: 9482 d7bd ba96 91be 1d57 01bc 313e c6be
00000040: b8da 86be 4384 233e 6be1 6b3e 99fa c63c
00000050: 79af 4a3e 2cce 493e 3b8a bd3e c45a 99be
00000060: 4249 b43e 1218 6f3e d26c 00be acc0 86be
00000070: f0a1 273e 8617 24bd 435f e8be d054 193e

clf.model.3.weight f4 [64, 32]
0.037150066 0.20318758 0.8904192 0.03625618 -0.15660258 -0.33156362 1.4178777 0.25236407
-0.05281906 0.62764984 0.6787104 1.1317255 0.5485606 0.7115896 -0.20567285 -0.16652894
-0.4423133 0.0020823414 0.87637144 -0.40734714 0.28430742 0.97359604 0.023426237 0.16301225
0.05627101 0.061532848 0.03558689 -0.32020423 0.057876866 0.18352799 0.15277755 0.14707416
0.1493533 0.011665134 -0.8760491 -0.049641605 0.02465728 -0.36580834 -1.3688195 -0.14798208
-0.22697362 -0.36795205 -0.52828616 -1.190693 -0.3462524 -0.4976215 0.132633 -0.6039852
-0.05357101 -0.19372061 -0.8831082 -0.29758894 0.05005962 -0.7514715 0.16644423 0.0012461953
0.18078367 -0.0037224446 0.12561084 0.014796073 0.0475236 0.033885498 0.2917179 0.07877827
0.002716729 -0.08003314 -0.44945186 -0.090766184 0.045351774 -0.22186579 -0.9361242 0.01857682
0.085712366 -0.2598491 -0.24264815 -0.6220714 -0.4361254 -0.113664 0.13322826 0.05013266
0.08039694 0.060885943 -0.28853258 -0.28522214 0.10023295 -0.34878737 0.051237527 0.22762407
0.15040964 0.036074623 0.037357606 0.07512078 0.2426841 0.03145431 0.55080265 0.04822812
0.019348983 0.051921014 0.5335267 0.03099958 -0.051676203 -0.16821124 1.1913342 0.17265187
-0.13334063 0.24293527 0.2794765 0.7357997 0.53521633 0.52848727 0.034161747 -0.17264631
-0.12709941 -0.000919073 0.5951707 -0.059740514 0.21744554 0.6311172 0.029055813 0.07369782
6.923867e-05 0.020917008 0.115640104 -0.031292584 0.114641376 0.26641646 0.019157125 0.09319424
0.14159885 0.23501948 0.88416386 -0.10672935 -0.30347806 -0.35176876 1.3695743 0.04674031
-0.17370892 0.41045308 0.66252977 0.9724205 0.6609075 0.46385723 -0.29114595 -0.106750645
-0.45922688 -0.19749539 0.6768188 -0.7487328 0.16981278 0.9029756 -0.031588797 0.29185963
0.15822712 -0.12366174 -0.053434677 -0.033942226 0.029071072 0.17781153 0.095681556 0.28810155
0.14418821 0.038404595 -0.5848163 0.036603797 -0.080499314 -0.037360456 -1.1255757 0.19159769
0.1813196 -0.47545648 -0.5067367 -0.48360366 -0.4784804 -0.33789968 0.09532105 -0.051553883
0.044178642 -0.1600327 -0.59897184 -0.04115661 -0.093150035 -0.6088171 0.21460971 0.09346922
0.09851996 0.055174105 0.08187717 -0.09690122 0.16766988 0.047840875 0.3477215 0.11589873
0.1586281 -0.019315964 -0.5645813 -0.11394511 0.08297385 -0.053770777 -1.2726337 0.026633002
-0.028828159 -0.32643223 -0.5907508 -0.75295794 -0.24091582 -0.28203368 0.13057807 -0.05079831
-0.039245166 0.04273167 -0.4111544 -0.57298326 -0.22533336 -0.47628593 0.0015713817 -0.3271534
0.044674028 0.1387047 -0.13822067 0.05482934 0.1962691 0.03068982 0.24428122 0.3054768
0.11979443 0.21210156 0.23840606 0.11910558 -0.24230316 -0.47609797 1.0898877 0.32263803
-0.320916 0.4016013 0.1768086 0.45379555 0.41717178 0.26238889 -0.21296853 -0.26047298
-0.29980433 -0.08987176 0.24455275 -0.27133122 0.32522792 0.43133116 -0.016155021 -0.06227462
0.0609795 0.10775686 0.12564549 -0.10092769 0.14591463 0.1539163 0.00086460076 0.121174775
00000000: ab2a 183d 6810 503e 83f2 633f 5c81 143d
00000010: 6d5c 20be b5c2 a9be 047d b53f dd35 813e
00000020: cc58 58bd a9ad 203f f7bf 2d3f 62dc 903f
00000030: 786e 0c3f bc2a 363f e79b 52be 9086 2abe
00000040: e476 e2be e477 083b e159 603f ce8f d0be
00000050: be90 913e 973d 793f 61e8 bf3c afec 263e
00000060: 6e7c 663d de09 7c3d 8fc3 113d cff1 a3be
00000070: 4b10 6d3d c3ee 3b3e b871 1c3e 9c9a 163e
00000080: 12f0 183e 1e1f 3f3c c144 60bf ff54 4bbd
00000090: 10fe c93c 3b4b bbbe 7a35 afbf 9d88 17be
000000a0: c66b 68be 3664 bcbe c33d 07bf a168 98bf
000000b0: ff47 b1be 3fc8 febe f2d0 073e c69e 1abf
000000c0: 466d 5bbd b25e 46be 6113 62bf 945d 98be
000000d0: 510b 4d3d 7060 40bf 5b70 2a3e 6057 a33a
000000e0: 5b1f 393e 42f4 73bb 21a0 003e 3a6b 723c
000000f0: 1ba8 423d 85cb 0a3d 0c5c 953e 8056 a13d
00000100: 260b 323b 6ae8 a3bd 8e1e e6be 9fe3 b9bd
00000110: c8c2 393d c930 63be d6a5 6fbf 6a2e 983c
00000120: f789 af3d f10a 85be c278 78be 1240 1fbf
00000130: d44b dfbe acc8 e8bd fd6c 083e e757 4d3d
00000140: 27a7 a43d 8a63 793d 8bba 93be a308 92be
00000150: ef46 cd3d 4294 b2be 71de 513d 4916 693e
00000160: fc04 1a3e fcc2 133d 4a04 193d ecd8 993d
00000170: 2e82 783e 3cd6 003d 6701 0d3f d98a 453d
00000180: c281 9e3c 21ab 543d 3595 083f d5f2 fd3c
00000190: 6daa 53bd 913f 2cbe a47d 983f a7cb 303e
000001a0: 728a 08be 06c4 783e 8b17 8f3e 5e5d 3c3f
000001b0: f003 093f f14a 073f 30ed 0b3d 32ca 30be
000001c0: 5926 02be f2ed 70ba 1b5d 183f 78b2 74bd
000001d0: 0baa 5e3e e690 213f 7506 ee3c e2ee 963d
000001e0: 3a34 9138 255a ab3c b8d4 ec3d a72c 00bd
000001f0: 19c9 ea3d bd67 883e 67ef 9c3c 9fdc be3d
00000200: 4aff 103e f2a8 703e 9058 623f eb94 dabd
00000210: 7a61 9bbe 091b b4be 364e af3f c472 3f3d
00000220: c0e0 31be e826 d23e 8d9b 293f 8df0 783f
00000230: 3c31 293f b27e ed3e 1511 95be 15a0 dabd
00000240: c91f ebbe 3b3c 4abe ff43 2d3f f4ac 3fbf
00000250: 67e3 2d3e 6929 673f 4163 01bd a06e 953e
00000260: 4a06 223e 5e42 fdbd 52de 5abd 0107 0bbd
00000270: 7526 ee3c 3a14 363e b1f4 c33d 0c82 933e
00000280: 13a6 133e 234e 1d3d 85b6 15bf dded 153d
00000290: d3dc a4bd 4707 19bd dd12 90bf 2f32 443e
000002a0: d8ab 393e 086f f3be 7fb9 01bf e69a f7be
000002b0: 62fb f4be 3001 adbe af37 c33d 2a2a 53bd
000002c0: aaf4 343d 9ddf 23be 3856 19bf d593 28bd
000002d0: 72c5 bebd 70db 1bbf a6c2 5b3e ca6c bf3d
000002e0: d5c4 c93d 3efe 613d 38af a73d 2674 c6bd
000002f0: a7b1 2b3e cbf4 433d 8d08 b23e 505c ed3d
00000300: 686f 223e 833c 9ebc 6688 10bf 0e5c e9bd
00000310: 32ee a93d bf3e 5cbd a9e5 a2bf 742d da3c
00000320: 0829 ecbc 2022 a7be 723b 17bf dac1 40bf
00000330: a3b2 76be b866 90be 42b6 053e e411 50bd
00000340: 8abf 20bd 6707 2f3d d482 d2be 08af 12bf
00000350: cabd 66be c0db f3be d2f6 cd3a a780 a7be
00000360: 1dfc 363d 9b08 0e3e b889 0dbe bb94 603d
00000370: c4fa 483e 3869 fb3c db24 7a3e 7567 9c3e
00000380: c856 f53d 2731 593e b820 743e a0ed f33d
00000390: 521e 78be 1dc3 f3be 7181 8b3f d030 a53e
000003a0: 1a4f a4be b09e cd3e 500d 353e e457 e83e
000003b0: 8a97 d53e d657 863e 6c14 5abe b75c 85be
000003c0: f47f 99be af0e b8bd 096c 7a3e edeb 8abe
000003d0: 4684 a63e 70d7 dc3e 8957 84bc ac13 7fbd
000003e0: a4c5 793d a1af dc3d 36a9 003e 2db3 cebd
000003f0: a56a 153e 3c9c 1d3e 60a6 623a 7b2a f83d

clf.model.3.bias f4 [64]
-0.15136254 0.2511571 0.18755925 -0.11504217 0.028559135 0.16487242 0.1654637 -0.15190797
-0.031606894 -0.031875927 0.013062318 0.18240048 -0.09405945 0.084966525 0.13441995 -0.18695085
0.32448074 0.1382468 -0.04218246 0.28443545 0.19970863 -0.18863313 -0.18010503 0.01696113
0.24493311 -0.022819903 0.28064886 -0.051275663 0.3691717 0.1683068 0.14112864 -0.07564881
-0.32446688 0.04487014 0.12402437 0.29681876 -0.11857144 0.112086155 0.24819617 0.22353029
0.26873305 0.21215771 0.027428277 0.16050628 0.3321815 0.19533959 0.002968377 -0.14902203
0.30892667 0.22090173 0.101017974 -0.1733918 0.16078565 0.13149133 0.36684904 0.028152807
0.17651586 0.16512094 -0.047450062 0.08428307 0.13504705 0.2096997 0.21641801 -0.18184726
00000000: c8fe 1abe aa97 803e 880f 403e 3b9b ebbd
00000010: d9f4 e93c 51d4 283e 516f 293e c38d 1bbe
00000020: 3b76 01bd 5590 02bd 5503 563c 31c7 3a3e
00000030: 3ea2 c0bd ee02 ae3d 62a5 093e 0b70 3fbe
00000040: 5722 a63e 9290 0d3e 84c7 2cbd 86a1 913e
00000050: 6b80 4c3e 0b29 41be 746d 38be 11f2 8a3c
00000060: bfcf 7a3e cef0 babc 35b1 8f3e 6e06 52bd
00000070: 1304 bd3e 9e58 2c3e 0784 103e c3ed 9abd
00000080: 8620 a6be c0c9 373d 7d00 fe3d a1f8 973e
00000090: 95d5 f2bd 6d8d e53d 2327 7e3e 20e5 643e
000000a0: 6197 893e df3f 593e 44b1 e03c c25b 243e
000000b0: b213 aa3e 1a07 483e 1a89 423b 3b99 18be
000000c0: a32b 9e3e 1034 623e 83e2 ce3d 9f8d 31be
000000d0: fea4 243e aaa5 063e a3d3 bb3e b7a0 e63c
000000e0: 93c0 343e 7715 293e ff5a 42bd 9a9c ac3d
000000f0: c649 0a3e 85bb 563e af9c 5d3e 2b36 3abe

clf.model.6.weight f4 [1, 64]
-0.7997864 0.17321217 0.22383405 -0.32218003 -0.4614885 0.16828743 0.35586908 -0.38553822
0.21736003 -0.55598664 0.25291255 0.24045636 -0.5886714 0.19180827 0.30706495 0.015410434
0.18613964 0.24804156 -0.37137207 0.20651563 0.5906739 -0.6440978 -0.46051928 0.41887757
0.61242247 -0.65143734 0.18225107 -0.78445905 0.27646375 0.15443978 0.39593786 -0.7712224
-0.81472737 -0.2482821 0.23245023 0.15941638 -0.26133046 -0.21762286 0.24558921 0.21811439
0.24925363 0.68091947 -0.43474808 0.35134727 0.14670412 0.26082194 -0.049723778 -1.0416915
0.45257875 0.30142304 0.32788074 -0.9571342 0.14101925 0.4402689 0.29943436 -0.59032047
0.6164684 0.15998289 -0.41917092 0.29519275 0.82464117 0.15825443 0.69212687 -1.3273743
00000000: cdbe 4cbf 885e 313e c134 653e c8f4 a4be
00000010: 3848 ecbe 8a53 2c3e 7934 b63e 4465 c5be
00000020: a193 5e3e 2455 0ebf c17d 813e 313a 763e
00000030: 2bb3 16bf 6369 443e 9e37 9d3e 0c7c 7c3c
00000040: 649b 3e3e 9bfe 7d3e 7b24 bebe d578 533e
00000050: 6836 173f 98e3 24bf 2fc9 ebbe 1f77 d63e
00000060: b8c7 1c3f 99c4 26bf 06a0 3a3e 4fd2 48bf
00000070: a88c 8d3e 7625 1e3e 5eb8 ca3e d56e 45bf
00000080: f991 50bf aa3d 7ebe 6f07 6e3e 0c3e 233e
00000090: 1bcd 85be 87d8 5ebe bd7b 7b3e 6159 5f3e
000000a0: 583c 7f3e bd50 2e3f 4d97 debe cae3 b33e
000000b0: 9b39 163e 748a 853e 29ab 4bbd 2656 85bf
000000c0: 67b8 e73e 1f54 9a3e fcdf a73e bf06 75bf
000000d0: 5a67 103e ed6a e13e 764f 993e 3e1f 17bf
000000e0: e0d0 1d3f 8ed2 233e 929d d6be 8123 973e
000000f0: af1b 533f 730d 223e 3a2f 313f 67e7 a9bf

lstm.weight_ih_l0 f4 [512, 11]
0.025142988 -0.050667945 -0.03651181 -0.06571497 -0.06048389 -0.008372739 0.0027569775 -0.077308714
-0.015326571 -0.036980387 -0.07222925 -0.15092196 -0.121688455 -0.19573383 -0.18110833 -0.05353034
-0.13361026 -0.068094164 -0.13702384 -0.14475769 -0.16269189 -0.055068012 -0.13251935 -0.03193226
-0.1216957 -0.03572359 -0.1586333 -0.03967493 -0.038798206 0.046986148 -0.06651216 0.12534295
0.2595054 0.01356671 0.20843695 0.11218572 0.06382488 -0.01888875 0.18652876 -0.017334817
0.06525131 0.0726622 -0.058155153 -0.089270495 -0.018041354 -0.0660661 -0.020223258 0.063900016
-0.07517207 -0.06977526 -0.026768094 -0.011832249 -0.14098321 0.09146214 0.17597257 -0.030554887
0.04275905 -0.05982294 -0.0857462 -0.07568427 0.015979065 0.061999112 0.0005074014 -0.11582265
0.0048128203 0.13548017 -0.12389551 0.02655148 -0.0011045776 -0.09671532 -0.15136413 0.04933955
-0.014626099 -0.01874143 -0.05764083 0.18044412 0.1410228 -0.112200156 -0.06117167 -0.0876539
-0.060155865 -0.20386896 -0.08937751 -0.1481986 -0.13896295 -0.08826336 0.17686135 0.18704683
-0.1262663 -0.07719726 -0.01433791 -0.10475649 -0.11899427 -0.12444446 0.0024475702 -0.063650124
-0.013569291 0.13584654 0.14051375 0.019142257 0.0068755937 -0.065293476 -0.0014408006 -0.0024612215
0.051785216 -0.08227318 1.3143342e-05 0.14542286 -0.07601241 -0.07948847 -0.18148285 -0.018084897
-0.09959951 -0.028849194 -0.014280743 -0.10031483 -0.060114563 0.0056567886 -0.12311124 0.031947475
0.13876982 -0.19300061 -0.025200346 0.005254475 0.20352925 -0.170092 -0.09631311 -0.09817841
0.08038796 -0.18486091 -0.0641 -0.08784618 0.0342157 0.16610165 0.06641323 0.11450415
-0.048636746 0.07887221 0.014086994 0.076423936 0.11366133 -0.10566289 -0.042855978 0.000797497
-0.17996904 -0.0827406 -0.13337392 -0.10888194 -0.15183055 -0.14380911 -0.091671206 -0.10453754
-0.09500688 -0.022813572 -0.082833506 -0.055268552 0.0055538137 -0.02699371 -0.22066174 -0.024744192
-0.088066034 -0.038464796 -0.041273285 0.07799918 0.11714592 -0.047036327 -0.09282902 0.03341483
-0.010469689 -0.10562452 0.014482416 0.056070056 0.05143209 -0.14591773 0.1963518 0.17968959
0.03766161 -0.09841171 -0.08472592 -0.102750845 -0.08084834 -0.066632435 -0.1476647 -0.16817614
-0.11351513 0.045975 0.1458744 -0.0281679 -0.013130797 -0.08961718 -0.15421018 -0.020330874
-0.058695942 -0.026100969 -0.128668 -0.1916201 0.09427854 -0.030188534 -0.09038938 -0.027748663
-0.104355365 -0.06935526 -0.15529239 -0.09859606 0.027821125 -0.026028842 -0.07144999 0.14141423
0.19556373 -0.14307393 0.015210472 -0.071534105 -0.080367275 0.008744758 -0.05656682 0.050968323
-0.09917842 -0.117879905 0.15409178 0.08140651 -0.19905566 -0.005473255 0.034944654 -0.12266304
-0.1345745 0.0073813633 0.014154586 0.03763439 -0.0017062473 0.081068516 0.20409699 -0.111073166
0.015019365 -0.05486726 -0.05973453 -0.13080417 -0.13394062 -0.06667157 -0.0041177617 -0.11278392
0.1328664 0.17785923 -0.16601028 0.017383272 -0.046850782 -0.045876086 -0.13315164 0.0023085624
-0.008714435 -0.0063004587 -0.03140592 0.037017073 0.059133667 -0.11471314 -0.10627152 -0.14657874
00000000: abf8 cd3c 3189 4fbd 688d 15bd 9295 86bd
00000010: f5bd 77bd d02d 09bc 68ae 343b 0854 9ebd
00000020: 4c1c 7bbc bf78 17bd eeec 93bd 498b 1abe
00000030: cc37 f9bd 736e 48be 7674 39be a142 5bbd
00000040: 21d1 08be f474 8bbd fa4f 0cbe 5c3b 14be
00000050: b498 26be ff8e 61bd 27b3 07be 67cb 02bd
00000060: 983b f9bd e652 12bd c570 22be 2e82 22bd
00000070: deea 1ebd 8c74 403d 8737 88bd e759 003e
00000080: e4dd 843e e846 5e3c 7f70 553e a0c1 e53d
00000090: 9eb6 823d 94bc 9abc 6501 3f3e bf01 8ebc
000000a0: 7ba2 853d ebcf 943d 1934 6ebd 73d3 b6bd
000000b0: 76cb 93bc aa4d 87bd 3fab a5bc 03de 823d
000000c0: d0f3 99bd 55e6 8ebd c348 dbbc 0ddc 41bc
000000d0: e75d 10be 8150 bb3d 2732 343e 3e4e fabc
000000e0: 1d24 2f3d e608 75bd b49b afbd 5b00 9bbd
000000f0: 87e6 823c c8f2 7d3d 2203 053a 6d34 edbd
00000100: ddb4 9d3b 50bb 0a3e eebc fdbd 7d82 d93c
00000110: 79c7 90ba af12 c6bd 33ff 1abe 4518 4a3d
00000120: 4ea2 6fbc a187 99bc ca18 6cbd 58c6 383e
00000130: 4868 103e 32c9 e5bd 258f 7abd e383 b3bd
00000140: ff65 76bd 06c3 50be 8e0b b7bd 60c1 17be
00000150: 4e4c 0ebe 6cc3 b4bd 241b 353e 3489 3f3e
00000160: f44b 01be 9919 9ebd 8ee9 6abc 928a d6bd
00000170: 45b3 f3bd bddc febd 6a67 203b ff5a 82bd
00000180: bb51 5ebc 5b1b 0b3e d6e2 0f3e 39d0 9c3c
00000190: a94c e13b 96b8 85bd 3fd9 bcba 724c 21bb
000001a0: bc1c 543d d77e a8bd 3982 5c37 bbe9 143e
000001b0: 65ac 9bbd daca a2bd a4d6 39be c726 94bc
000001c0: d4fa cbbd 2555 ecbc c7f9 69bc dd71 cdbd
000001d0: b03a 76bd 955c b93b bf21 fcbd 5bdb 023d
000001e0: ad19 0e3e f4a1 45be f570 cebc bb2d ac3b
000001f0: f969 503e 992c 2ebe cf3f c5bd c311 c9bd
00000200: 71a2 a43d 2e4c 3dbe dc46 83bd b3e8 b3bd
00000210: c325 0c3d 8d16 2a3e a903 883d 2781 ea3d
00000220: 5337 47bd c187 a13d 23cd 663c 2784 9c3d
00000230: 45c7 e83d c965 d8bd c089 2fbd 1e0f 513a
00000240: ce49 38be e773 a9bd 2c93 08be 7ffd debd
00000250: 7879 1bbe b242 13be 1dbe bbbd c717 d6bd
00000260: f892 c2bd 87e3 babc 9da4 a9bd 4761 62bd
00000270: c4fc b53b ea21 ddbc 27f5 61be 55b4 cabc
00000280: f75b b4bd 438d 1dbd 2d0e 29bd 09be 9f3d
00000290: 33ea ef3d 2aa9 40bd 241d bebd fddd 083d
000002a0: 0f89 2bbc ab51 d8bd a847 6d3c b7a9 653d
000002b0: 75aa 523d 756b 15be 7210 493e 8c00 383e
000002c0: 0f43 1a3d 148c c9bd c884 adbd 096f d2bd
000002d0: d193 a5bd 9676 88bd 6a35 17be 5e36 2cbe
000002e0: 9f7a e8bd 4850 3c3d 1960 153e 5ec0 e6bc
000002f0: 8e22 57bc 3689 b7bd 46e9 1dbe ef8c a6bc
00000300: 286b 70bd b3d1 d5bc 8bc1 03be 0f38 44be
00000310: 1b15 c13d f24d f7bc 111e b9bd 2a51 e3bc
00000320: 44b8 d5bd 210a 8ebd f804 1fbe bbec c9bd
00000330: 21e9 e33c 703a d5bc 5f54 92bd e4ce 103e
00000340: dc41 483e f981 12be 5835 793c 7980 92bd
00000350: 9997 a4bd 2c46 0f3c 9cb2 67bd 29c4 503d
00000360: 0e1e cbbd 056b f1bd 3cca 1d3e 75b8 a63d
00000370: 3fd5 4bbe fe58 b3bb 2022 0f3d c336 fbbd
00000380: e6cd 09be 5ddf f13b a3e8 673c 8526 1a3d
00000390: 29a4 dfba 4007 a63d cdfe 503e 547a e3bd
000003a0: c813 763c 7ebc 60bd 32ac 74bd 87f1 05be
000003b0: bb27 09be 1b8b 88bd 4aee 86bb 41fb e6bd
000003c0: 210e 083e bb20 363e 99fe 29be 5d67 8e3c
000003d0: 9be6 3fbd 90e8 3bbd e758 08be 404b 173b
000003e0: fdc6 0ebc 1474 cebb 7ea3 00bd 379f 173d
000003f0: 2536 723d b9ee eabd e2a4 d9bd bd18 16be

lstm.weight_hh_l0 f4 [512, 128]
-0.051076293 0.029770682 -0.03436135 -0.042125627 0.055073164 0.044570293 -0.027007626 0.15855603
-0.060111683 -0.010667665 0.018949693 -0.23809533 0.10714987 -0.15183353 -0.29974487 -0.00054748944
0.0856152 -0.039193813 0.04972907 0.05871591 0.049135823 0.22103097 0.02327088 0.13724078
0.012593079 -0.14236236 0.07574139 -0.08391778 -0.15442802 0.026205955 0.018675324 0.006626882
-0.14400999 0.10291708 0.120284624 0.15824212 0.058984492 0.110099286 -0.116759636 -0.16957727
0.0017620756 -0.001834813 -0.04929101 0.09492513 0.09168755 0.230339 0.015066307 -0.086916566
0.1793944 -0.118970454 0.051817376 0.032707375 -0.10955982 0.09965025 0.023896012 0.081507154
-0.15107743 0.0023344115 0.12356606 0.039878402 -0.26804665 -0.013007921 -0.029363286 0.25708482
0.02919145 0.09423727 0.14441729 0.0072406963 -0.06626483 0.055637896 -0.03892822 0.06256269
-0.018504435 0.15376003 -0.21307784 0.25925654 -0.19551699 -0.019787896 -0.046623033 -0.04648591
0.015495088 -0.13589214 0.0006492939 -0.014456054 0.058884975 -0.032721933 -0.03344589 0.07794819
-0.09025284 0.06028597 0.07824784 -0.06279891 0.04845073 -0.04193976 -0.19688633 0.029702377
0.023075677 0.15854207 -0.05700892 0.117489316 0.1970255 -0.06370806 0.18178055 -0.018489266
0.04821561 -0.046357907 0.03579914 -0.18892887 -0.094941534 -0.096402384 -0.24849194 -0.033767473
0.061173953 -0.22744581 -0.04962089 -0.040021244 -0.20002268 0.09223613 0.13414274 0.07752595
0.047213484 0.13437368 0.056156404 0.113189526 0.19563797 0.02597019 0.15855429 0.29227242
0.13410963 -0.0049545486 0.060328133 -0.07418451 -0.036198683 -0.004428782 0.008041328 0.06947603
0.00812478 -0.021899058 -0.028613908 0.023066817 0.065133505 0.005106138 0.014746722 -0.10929396
0.09622361 -0.022014046 -0.08452287 0.033905566 0.12927845 0.12805755 0.04454042 -0.12574993
0.026394092 -0.15816377 0.17162572 -0.106023 0.0017664008 -0.10334518 0.13206893 -0.057825904
0.013894271 0.105770946 -0.15440118 0.1597057 0.03911931 0.09282052 -0.015519492 0.094771944
0.0741043 0.13241659 0.001824977 -0.07932612 0.0035392095 0.15408975 0.016982596 -0.034737904
-0.10406187 -0.019528443 0.0063599343 -0.052762453 -0.08270806 0.020135202 -0.009646467 0.12679341
0.08715192 -0.06380354 0.004529369 -0.068190336 -0.03404408 -0.0044453475 0.018281743 -0.044638548
-0.004853239 -0.020685898 -0.005238785 -0.08489335 -0.04353639 0.0692633 0.12683035 -0.07208933
-0.08179572 -0.077985436 -0.08445934 -0.06959945 0.030774608 0.106556766 -0.011610554 0.047066804
-0.16239847 -0.081674464 -0.036493517 0.0066558337 -0.10275252 0.009155697 0.031273358 -0.0760378
-0.045907583 -0.06050583 0.07739949 0.00032387007 0.10677513 -0.04249726 -0.021546653 0.0035288986
-0.0011150707 -0.013721683 0.06731341 -0.027739272 0.07769799 -0.10740503 -0.0075911023 0.029936925
0.09610517 -0.03539832 0.026186666 0.021854244 0.026006056 -0.064535126 -0.041805014 -0.091242
0.02371247 -0.045753125 -0.039367534 0.0078989705 0.099350095 0.015987199 -0.037819445 -0.027303364
0.016222207 0.115430824 -0.14555171 -0.17100564 -0.113196164 -0.010861681 -0.06539808 -0.006520359
00000000: 6035 51bd a5e1 f33c 7dbe 0cbd ec8b 2cbd
00000010: 6694 613d 578f 363d 193f ddbc 835c 223e
00000020: ab37 76bd 6ec7 2ebc 633c 9b3c 43cf 73be
00000030: 6471 db3d 407a 1bbe 2978 99be 6585 0fba
00000040: 0657 af3d b189 20bd b6b0 4b3d 1880 703d
00000050: a542 493d f155 623e 93a2 be3c d988 0c3e
00000060: 3453 4e3c 70c7 11be 4d1e 9b3d 16dd abbd
00000070: 6122 1ebe dfad d63c fefc 983c 5126 d93b
00000080: 5b77 13be 31c6 d23d c957 f63d 390a 223e
00000090: b999 713d bc7b e13d ad1f efbd aaa5 2dbe
000000a0: 72f5 e63a 1c7e f0ba 5fe5 49bd 1b68 c23d
000000b0: afc6 bb3d fddd 6b3e acd8 763c 5001 b2bd
000000c0: 2ab3 373e c8a6 f3bd 753e 543d 2bf8 053d
000000d0: e660 e0bd 6e15 cc3d 92c1 c33c 39ed a63d
000000e0: 0bb4 1abe edfc 183b 3410 fd3d 8957 233d
000000f0: 693d 89be 2d1f 55bc 468b f0bc 9fa0 833e
00000100: e822 ef3c 78ff c03d 20e2 133e 5d43 ed3b
00000110: dbb5 87bd 90e4 633d 3273 1fbd de20 803d
00000120: 9d96 97bc 4573 1d3e 1431 5abe 46bd 843e
00000130: 9b35 48be 3a1a a2bc cbf7 3ebd 0268 3ebd
00000140: 1cdf 7d3c 4f27 0bbe 6035 2a3a 16d9 6cbc
00000150: 5f31 713d 6f07 06bd 8ffe 08bd 4da3 9f3d
00000160: 7bd6 b8bd 6cee 763d 6740 a03d b79c 80bd
00000170: 4674 463d 07c9 2bbd 929c 49be 6652 f33c
00000180: 3409 bd3c da58 223e 2f82 69bd 3d9e f03d
00000190: 0dc1 493e 5f79 82bd ae24 3a3e cd76 97bc
000001a0: bb7d 453d cae1 3dbd 1ea2 123d 9276 41be
000001b0: b570 c2bd 9d6e c5bd ac74 7ebe c34f 0abd
000001c0: 8a91 7a3d 8ee7 68be 463f 4bbd 51ed 23bd
000001d0: bfd2 4cbe 4ce6 bc3d b75c 093e edc5 9e3d
000001e0: ed62 413d 4199 093e 4204 663d e9cf e73d
000001f0: 5255 483e 70bf d43c 0e5c 223e bba4 953e
00000200: 0954 093e c459 a2bb a21a 773d 0cee 97bd
00000210: 1245 14bd 511f 91bb c6bf 033c 7349 8e3d
00000220: cc1d 053c a765 b3bc b767 eabc 9ff6 bc3c
00000230: b764 853d 6451 a73b 3c9c 713c 83d5 dfbd
00000240: e210 c53d cd56 b4bc 541a adbd 90e0 0a3d
00000250: 9261 043e 8521 033e 0470 363d 97c4 00be
00000260: 6c38 d83c aff5 21be a7be 2f3e 9622 d9bd
00000270: 9386 e73a a3a6 d3bd 143d 073e dbda 6cbd
00000280: cca4 633c 709e d83d 581b 1ebe e489 233e
00000290: 923b 203d af18 be3d 7845 7ebc cb17 c23d
000002a0: ffc3 973d 3798 073e 1134 ef3a bc75 a2bd
000002b0: 15f2 673b b4c9 1d3e 161f 8b3c 5549 0ebd
000002c0: 641e d5bd 1dfa 9fbc ff66 d03b 711d 58bd
000002d0: d862 a9bd 94f2 a43c 370c 1ebc 22d6 013e
000002e0: b57c b23d 6eab 82bd 1a6b 943b 60a7 8bbd
000002f0: ce71 0bbd 47aa 91bb 98c3 953c e9d6 36bd
00000300: eb07 9fbb 7975 a9bc 1daa abbb 91dc adbd
00000310: 3753 32bd ebd9 8d3d d1df 013e 92a3 93bd
00000320: 8484 a7bd d4b6 9fbd 05f9 acbd 288a 8ebd
00000330: 081b fc3c 6f3a da3d 313a 3ebc 1fc9 403d
00000340: c94b 26be f144 a7bd 3a7a 15bd 2e19 da3b
00000350: ea6f d2bd c701 163c 7e18 003d b5b9 9bbd
00000360: 9709 3cbd f6d4 77bd a083 9e3d 1bcd a939
00000370: ebac da3d 9b11 2ebd 9b82 b0bc 1845 673b
00000380: 9027 92ba e9d0 60bc 9ddb 893d 783d e3bc
00000390: 2020 9f3d 2bf7 dbbd c8be f8bb 483e f53c
000003a0: cad2 c43d d4fd 10bd 6b85 d63c ac07 b33c
000003b0: a70a d53c fe2a 84bd bc3b 2bbd 16dd babd
000003c0: a740 c23c a167 3bbd da3f 21bd af6a 013c
000003d0: 1078 cb3d 96f7 823c 90e8 1abd 4eab dfbc
000003e0: 6fe4 843c ff66 ec3d 820b 15be 1a1c 2fbe
000003f0: 64d3 e7bd 31f5 31bc 6eef 85bd bca8 d5bb

lstm.bias_ih_l0 f4 [512]
-0.17704733 -0.077103205 -0.06824805 0.054850657 -0.083697945 -0.0014373268 -0.1187671 -0.038768817
-0.1473772 0.060346253 0.00090045267 -0.09124408 0.04219173 0.0052484744 -0.17942707 -0.15071332
-0.09324683 -0.16346243 -0.16964577 -0.08310372 0.024791237 -0.20204267 -0.14489362 -0.028239325
-0.09404049 -0.035120387 -0.10917557 -0.012473185 -0.072239846 -0.0067311283 -0.046676517 -0.049218528
-0.09086823 0.012767619 -0.09054602 -0.14360012 -0.028898245 -0.25763077 -0.24426125 -0.13753176
0.11246325 -0.01952113 -0.048316605 -0.14033833 -0.17979589 -0.17455423 -0.15100978 0.06255105
-0.1328193 0.12946518 -0.18174283 -0.120380454 -0.0563709 -0.19142509 -0.11663651 -0.03598953
-0.0561832 -0.027303357 -0.1616184 0.059842058 0.03603392 -0.053529993 -0.007886314 -0.03666187
-0.017056733 0.023192981 -0.13518344 -0.006970622 -0.06574768 -0.034550432 -0.10903375 -0.19696675
-0.012086254 -0.057411533 -0.17674784 0.03548179 -0.011667026 -0.03565943 -0.009133488 0.04597261
-0.08091498 -0.169259 -0.10928273 -0.05939313 -0.08921812 -0.047734506 -0.062935345 0.14154427
-0.039194837 -0.02910813 -0.07561089 0.11268049 -0.06989683 -0.14366028 -0.18741287 -0.09117221
-0.024951022 -0.1455928 -0.073310174 -0.12537585 -0.14624 -0.21601775 -0.19292204 -0.15049443
-0.05649229 -0.15385711 -0.09033245 -0.25563172 -0.1186167 0.1144424 -0.19030532 -0.036445826
-0.12915371 0.07063929 -0.09451381 -0.055015095 -0.07701201 -0.12902746 -0.07432344 -0.15366141
-0.14199236 -0.20960781 -0.108897634 -0.12655605 -0.16177087 0.010234295 -0.07126063 -0.16878481
-0.14973377 -0.1443339 -0.16336413 0.092476 0.018158114 -0.09597499 -0.12689158 -0.16120231
-0.017411005 0.10508589 0.0033075311 -0.19162616 -0.0029718673 -0.09321682 -0.0761314 -0.15918851
-0.1407265 -0.11885501 -0.1685212 -0.09222659 -0.03285729 -0.00044961783 0.029160157 -0.15614606
-0.11079248 -0.09379901 -0.19826435 -0.15647449 -0.1400435 0.019147232 -0.1403415 -0.061896354
-0.16831774 -0.018160092 -0.0641026 -0.12529068 -0.08796359 -0.28097063 -0.21036212 -0.20692481
0.122346915 -0.028375315 0.119266964 -0.06281713 -0.038604487 -0.1268502 -0.16136956 0.16122544
-0.17723656 0.07989571 -0.23244601 0.039327633 -0.14929655 -0.103152126 -0.08731107 -0.01855542
-0.07349008 0.031978708 -0.15025216 -0.013221059 -0.045040216 0.031163463 -0.21360135 0.04124037
0.0059665604 -0.023563148 -0.063503906 -0.09487898 -0.047584884 -0.03805782 -0.022952842 -0.30667964
-0.028224101 -0.11305273 -0.18860893 0.008872592 -0.051960424 -0.17738865 -0.0026107312 -0.08764733
-0.13496585 -0.019323494 -0.10711058 0.007151587 -0.16230816 -0.2078369 -0.001994379 0.029502213
-0.046733003 -0.014870292 -0.13752283 0.084688194 0.022924198 -0.08294618 -0.20009273 -0.009967294
-0.07107308 -0.08257573 -0.07346118 -0.13803878 -0.08445292 -0.1525473 -0.151611 -0.09141068
0.0053517283 -0.016205216 -0.06361629 -0.2588635 -0.19712895 0.031326286 -0.043470223 -0.026339637
-0.1385086 0.053305548 -0.12127534 -0.00016937389 -0.09953288 -0.30394572 -0.04506375 -0.06450914
-0.19778644 -0.050588585 -0.13336584 -0.14674574 -0.03593342 0.011306559 -0.03854288 -0.13005844
00000000: e54b 35be 49e8 9dbd a2c5 8bbd 15ab 603d
00000010: d469 abbd af64 bcba 2a3c f3bd 0dcc 1ebd
00000020: 0cea 16be a22d 773d 5b0c 6c3a 2dde babd
00000030: 3cd1 2c3d 65fb ab3b bbbb 37be 9854 1abe
00000040: 32f8 bebd b262 27be 9fb7 2dbe 4832 aabd
00000050: fe16 cb3c 46e4 4ebe fe5e 14be 2856 e7bc
00000060: 4d98 c0bd 65da 0fbd 7197 dfbd 545c 4cbc
00000070: 7cf2 93bd cc90 dcbb e02f 3fbd 5e99 49bd
00000080: 1f19 babd 472f 513c 3170 b9bd e90b 13be
00000090: 03bc ecbc 2ee8 83be 9f1f 7abe 20d5 0cbe
000000a0: 2253 e63d c7ea 9fbc a2e7 45bd dab4 0fbe
000000b0: 6a1c 38be 58be 32be 4fa2 1abe c41a 803d
000000c0: c801 08be 8592 043e cb1a 3abe 078a f6bd
000000d0: 2ce5 66bd f004 44be 1fdf eebd c269 13bd
000000e0: 5b20 66bd 4aab dfbc 4b7f 25be f21c 753d
000000f0: 4e98 133d 4442 5bbd 9935 01bc c22a 16bd
00000100: 90ba 8bbc 35ff bd3c 876d 0abe d169 e4bb
00000110: b8a6 86bd c184 0dbd 164d dfbd a7b1 49be
00000120: 6c05 46bc 5b28 6bbd 63fd 34be 5a55 113d
00000130: 0e27 3fbc 9f0f 12bd a0a4 15bc c74d 3c3d
00000140: c1b6 a5bd 3b52 2dbe a0cf dfbd 3646 73bd
00000150: fdb7 b6bd 4285 43bd 3fe4 80bd fbf0 103e
00000160: c48a 20bd 2c74 eebc e2d9 9abd 07c5 e63d
00000170: 1226 8fbd ae1b 13be 29e9 3fbe 7fb8 babd
00000180: 1666 ccbc 4716 15be a523 96bd 8762 00be
00000190: f0bf 15be c233 5dbe 5b8d 45be 361b 1abe
000001a0: 7664 67bd b88c 1dbe 3800 b9bd 29e2 82be
000001b0: 50ed f2bd c760 ea3d 66df 42be 3848 15bd
000001c0: df40 04be 55ab 903d 7590 c1bd 8257 61bd
000001d0: 79b8 9dbd c61f 04be e336 98bd 6b59 1dbe
000001e0: 7266 11be 6ea3 56be b905 dfbd e997 01be
000001f0: 43a7 25be bfad 273c 18f1 91bd edd5 2cbe
00000200: cf53 19be 44cc 13be ed48 27be 0f64 bd3d
00000210: 53c0 943c 898e c4bd deef 01be 3812 25be
00000220: 86a1 8ebc 4537 d73d 2ac3 583b a639 44be
00000230: a9c3 42bb 76e8 bebd c8ea 9bbd 5002 23be
00000240: 9c1a 10be 416a f3bd d290 2cbe 4be1 bcbd
00000250: 5e95 06bd afba ebb9 48e1 ee3c c1e4 1fbe
00000260: 2be7 e2bd b219 c0bd cf05 4bbe d93a 20be
00000270: 9067 0fbe a8da 9c3c afb5 0fbe 0887 7dbd
00000280: 7c5b 2cbe 79c4 94bc 3948 83bd 334c 00be
00000290: 4126 b4bd 62db 8fbe 2b69 57be 19e4 53be
000002a0: 0591 fa3d 5973 e8bc 3d42 f43d 44a6 80bd
000002b0: bd1f 1ebd 05e5 01be 103e 25be 4818 253e
000002c0: 807d 35be 5da0 a33d 5406 6ebe 0316 213d
000002d0: 32e1 18be 6c41 d3bd 25d0 b2bd 8901 98bc
000002e0: f881 96bd 1bfc 023d b4db 19be 249d 58bc
000002f0: 177c 38bd 854a ff3c 50ba 5abe aaeb 283d
00000300: 2383 c33b 8107 c1bc 560e 82bd e94f c2bd
00000310: 5ee8 42bd 84e2 1bbd 9907 bcbc 1d05 9dbe
00000320: 3b36 e7bc 3188 e7bd b322 41be 595e 113c
00000330: 74d4 54bd 5fa5 35be cd18 2bbb 7180 b3bd
00000340: 7d34 0abe 4e4c 9ebc cb5c dbbd dc57 ea3b
00000350: 1c34 26be 32d3 54be 21b4 02bb a0ae f13c
00000360: 1b6b 3fbd 86a2 73bc c9d2 0cbe 0171 ad3d
00000370: 87cb bb3c b0df a9bd 1ce5 4cbe dc4d 23bc
00000380: c38e 91bd 771d a9bd d172 96bd 0a5a 0dbe
00000390: a7f5 acbd 5c35 1cbe ea3f 1bbe 8635 bbbd
000003a0: 8d5d af3b cdc0 84bc 4249 82bd c289 84be
000003b0: 2cdc 49be fe4f 003d d50d 32bd 39c6 d7bc
000003c0: 33d5 0dbe eb56 5a3d 355f f8bd f599 31b9
000003d0: e5d7 cbbd c69e 9bbe c494 38bd 5e1d 84bd
000003e0: 8788 4abe fa35 4fbd 0e91 08be 8444 16be
000003f0: ec2e 13bd 253f 393c 24df 1dbd 0a2e 05be

lstm.bias_hh_l0 f4 [512]
-0.043048646 -0.073628485 -0.15316816 0.04490087 -0.0934878 -0.016951894 -0.11430772 -0.094142094
-0.06245112 0.08699869 -0.12278706 -0.096216105 0.022487313 -0.06831113 -0.14042532 -0.19838846
-0.15765126 -0.14931843 -0.043670535 -0.13692157 -0.03507434 -0.24044041 -0.088441074 -0.07722056
-0.16409868 0.02240744 -0.15226732 -0.029080676 -0.062064152 -0.03495678 -0.04585166 -0.10732975
-0.16349322 -0.14487956 -0.17802711 -0.26900434 -0.023932999 -0.16552804 -0.082069285 -0.23677525
0.05706466 0.046221662 -0.067109935 -0.11282193 -0.052357584 -0.17874134 -0.19816303 0.008816275
-0.20220631 0.03958952 -0.18494965 0.007728613 -0.20149791 -0.04854497 -0.13058981 -0.14677301
-0.15581705 0.13232483 -0.15831703 0.0026774397 0.0040081525 -0.056032173 -0.035232548 -0.040441237
0.007373019 -0.078935556 -0.17678209 0.0027477061 -0.06331456 -0.02880512 -0.011516023 -0.22834402
0.015628397 -0.12535293 -0.14485294 0.059071556 0.0037928945 -0.17133814 -0.029424062 0.10365629
-0.10519648 -0.081763655 -0.027531952 -0.023491468 -0.074759126 -0.04914113 -0.030842546 0.09224364
-0.14548527 0.13389288 -0.03793815 0.081569664 -0.096556775 -0.016669538 -0.08062023 -0.10040882
-0.004225691 -0.1351067 -0.022284284 -0.20968771 -0.091505475 -0.20378359 -0.063406214 -0.17573592
-0.06726586 -0.026406312 -0.07033488 -0.1398852 -0.25285077 0.07231491 -0.17713118 -0.09132053
-0.11632456 0.0015598489 -0.13266473 -0.09585345 -0.19464624 -0.25783294 0.0644219 -0.047791302
-0.21322356 -0.22546247 -0.17627598 -0.1635886 -0.16656184 -0.04320785 -0.11115675 -0.17100142
-0.15068385 -0.057611722 -0.012829862 0.06390512 -0.07321399 0.012131928 -0.052773762 -0.10200941
-0.025585778 0.095958546 -0.0001932144 -0.2620845 0.087622 -0.038341608 -0.07428143 -0.10373576
-0.13901158 -0.23257509 -0.13104971 -0.14039963 0.026506254 -0.022659343 -0.13078092 -0.054759815
-0.11460654 -0.054519538 -0.17146762 -0.06846526 -0.07352281 -0.04991662 -0.07828911 -0.0043134415
-0.075620264 -0.02992632 -0.05393494 -0.24816135 0.001127533 -0.29700366 -0.15916765 -0.22953871
0.13567895 0.030765101 0.15061383 -0.01601358 -0.16557541 -0.045833886 -0.2576674 0.06360525
-0.21341784 0.15616834 -0.17366296 -0.0065406864 -0.1965637 -0.13325198 -0.10741501 -0.058238678
-0.05016717 0.034115322 -0.15806349 0.059873264 0.027466068 -0.09420875 -0.19284236 -0.004299324
-0.03118382 -0.07219569 -0.19148348 0.006147348 0.091059275 0.09730557 -0.14707352 -0.22037277
-0.06589069 -0.16481957 -0.048312306 0.054484494 0.018413797 -0.08947224 -0.14260572 -0.14147435
-0.17054856 -0.16040024 -0.13121904 0.04392915 -0.12846644 -0.21766433 0.015939515 0.061242644
-0.15181942 -0.00031072358 -0.11275301 -0.012765062 -0.016890692 -0.013884075 -0.20624325 -0.115846686
-0.066383466 -0.09332065 -0.06361075 -0.24314438 -0.0790928 -0.11773582 -0.124411285 -0.057634033
-0.094262764 0.002510145 0.034488194 -0.18135703 -0.15234028 0.09543393 -0.021036975 -0.07418503
-0.014801466 -0.003422831 -0.16820274 0.0053038667 -0.15494551 -0.2297726 -0.03063763 -0.026218146
-0.1708903 -0.07581895 -0.025378237 -0.14364146 -0.11201566 0.045075707 -0.02753436 -0.17293774
00000000: c753 30bd 88ca 96bd 1dd8 1cbe fae9 373d
00000010: 8876 bfbd b3de 8abc 2a1a eabd 92cd c0bd
00000020: bfcc 7fbd 5f2c b23d c877 fbbd f30c c5bd
00000030: 5037 b83c b5e6 8bbd a8cb 0fbe 5826 4bbe
00000040: 556f 21be eee6 18be e0df 32bd 2b35 0cbe
00000050: 1caa 0fbd 0336 76be 9820 b5bd d025 9ebd
00000060: 7c09 28be cf8f b73c f7eb 1bbe 993a eebc
00000070: fb36 7ebd d72e 0fbd f3ce 3bbd b3cf dbbd
00000080: c46a 27be 4f5b 14be bd4c 36be f0ba 89be
00000090: 230f c4bc 2f80 29be f113 a8bd 3675 72be
000000a0: a2bc 693d ed52 3d3d ef70 89bd 2f0f e7bd
000000b0: e874 56bd f807 37be 40eb 4abe 2372 103c
000000c0: 2c0f 4fbe 9f28 223d 7163 3dbe 4e40 fd3b
000000d0: 7855 4ebe 17d7 46bd 56b9 05be aa4b 16be
000000e0: 818e 1fbe 2980 073e dc1d 22be fc77 2f3b
000000f0: d256 833b fe81 65bd 0150 10bd b6a5 25bd
00000100: 5e99 f13b f7a8 a1bd 5d06 35be dc12 343b
00000110: 10ab 81bd b7f8 ebbc b4ad 3cbc 04d3 69be
00000120: 2007 803c 855c 00be 5454 14be 04f5 713d
00000130: 3692 783b 4473 2fbe bb0a f1bc c049 d43d
00000140: 4171 d7bd b473 a7bd b08a e1bc 2e71 c0bc
00000150: 501b 99bd 3648 49bd 82a9 fcbc 3cea bc3d
00000160: 17fa 14be 371b 093e 0965 1bbd ff0d a73d
00000170: 8fbf c5bd 8e8e 88bc 381c a5bd 24a3 cdbd
00000180: aa77 8abb 6959 0abe 888d b6bc 60b8 56be
00000190: 3967 bbbd a5ac 50be 1edb 81bd 1ef4 33be
000001a0: afc2 89bd 0d52 d8bc bc0b 90bd 113e 0fbe
000001b0: a875 81be d719 943d e061 35be 4206 bbbd
000001c0: 923b eebd d873 cc3a 43d9 07be d04e c4bd
000001d0: 5851 47be ae02 84be a1ef 833d d0c0 43bd
000001e0: 4757 5abe a2df 66be b181 34be c583 27be
000001f0: 308f 2abe b7fa 30bd 26a6 e3bd ff1a 2fbe
00000200: de4c 1abe 45fa 6bbd 5734 52bc b0e0 823d
00000210: 37f1 95bd fec4 463c 4d29 58bd 4fea d0bd
00000220: 4499 d1bc ea85 c43d 9899 4ab9 f12f 86be
00000230: 2a73 b33d 170c 1dbd dd20 98bd 6a73 d4bd
00000240: 0d59 0ebe 2a28 6ebe e531 06be ecc4 0fbe
00000250: a523 d93c 16a0 b9bc 6feb 05be d44b 60bd
00000260: d5b6 eabd e14f 5fbd 3595 2fbe 8437 8cbd
00000270: 2193 96bd 5f75 4cbd 0a56 a0bd c557 8dbb
00000280: ccde 9abd 0b28 f5bc e2ea 5cbd 021e 7ebe
00000290: bbc9 933a dd10 98be d8fc 22be 320c 6bbe
000002a0: 6cef 0a3e 1807 fc3c 833a 1a3e e92e 83bc
000002b0: 9a8c 29be 50bc 3bbd fbec 83be 7843 823d
000002c0: 358a 5abe 98ea 1f3e b4d4 31be 4153 d6bb
000002d0: ff47 49be 3573 08be 67fc dbbd ae8b 6ebd
000002e0: 177c 4dbd 82bc 0b3d 65db 21be ab3d 753d
000002f0: 8500 e13c 84f0 c0bd 7878 45be 58e1 8cbb
00000300: 3675 ffbc 55db 93bd 3f14 44be b16f c93b
00000310: 497d ba3d 2548 c73d 719a 16be 66a9 61be
00000320: b3f1 86bd 76c6 28be 20e3 45bd 222b 5f3d
00000330: 88d8 963c 393d b7bd 3c07 12be a7de 10be
00000340: 48a4 2ebe f63f 24be 495e 06be 0def 333d
00000350: b58c 03be 66e3 5ebe 9693 823c 91d9 7a3d
00000360: 8d76 1bbe 9de8 a2b9 0deb e6bd 8d24 51bc
00000370: 595e 8abc 087a 63bc 6e31 53be 0741 edbd
00000380: 0ef4 87bd e61e bfbd 5a46 82bd d7fa 78be
00000390: 68fb a1bd 7a1f f1bd 58cb febd aa11 6cbd
000003a0: d60c c1bd 3f81 243b 7e43 0d3d a8b5 39be
000003b0: 17ff 1bbe dd72 c33d bc55 acbc 52ee 97bd
000003c0: d981 72bc 9351 60bb 573d 2cbe 0fcc ad3b
000003d0: 09aa 1ebe 8249 6bbe c4fb fabc 70c7 d6bc
000003e0: defd 2ebe f746 9bbd 05e6 cfbc bf16 13be
000003f0: 7768 e5bd 4ea1 383d bd8f e1bc 9716 31be

lstm.weight_ih_l1 f4 [512, 128]
-0.03546373 -0.0070221773 0.19750986 0.012452617 -0.09789654 0.055166513 -0.061326113 0.0076458296
-0.1263065 0.05368574 0.15440595 0.014614794 0.0037985684 -0.03637295 -0.07170272 0.22967058
-0.035408225 -0.12735781 0.17716812 -0.107257895 -0.108083054 0.037124384 0.12888248 0.22053528
0.069125846 -0.13281439 -0.0315529 0.17670901 -0.17234565 0.11695365 -0.09596711 0.18616296
-0.18824027 -0.11559875 0.21973887 0.05369509 0.234278 0.053233605 -0.062869444 -0.06979041
0.20525767 -0.21485841 -0.08832132 0.22517337 -0.12695387 0.14910968 -0.050964758 -0.088453434
0.029788157 -0.119746946 -0.009732983 0.22822827 0.079351075 0.10985263 0.030081447 -0.22422148
-0.1761454 0.12516782 0.022478916 0.035479527 -0.20821084 0.27870637 -0.17295918 0.24378775
0.08960957 0.16426603 0.10219576 0.005079758 0.077944115 -0.09043958 -0.13680212 0.0630779
0.046955198 0.09528764 -0.19282402 0.21469721 -0.19048487 -0.13158043 -0.21762192 -0.06273161
0.09468657 0.03925912 -0.03556015 0.021495825 0.18649015 0.0832605 -0.10081932 0.100081176
-0.034735423 0.11099382 -0.03634945 -0.043535188 -0.11050955 0.1051153 -0.05841129 -0.25376996
0.17614362 0.24917606 -0.12518194 0.06431637 0.07093049 0.060469862 0.08716786 -0.06492019
-0.09438833 -0.0058417874 -0.2275088 -0.043221597 -0.13893269 -0.015486319 -0.11761088 0.08775734
-0.24241173 -0.0723259 -0.04127092 0.17756684 -0.13268507 0.13856746 0.27670038 -0.0938576
0.109826244 0.11793468 0.25233936 0.15896267 0.18220916 -0.08862846 0.18163882 -0.015098901
-0.16067481 0.11775762 0.16211788 0.013807019 -0.10315359 0.065536514 -0.12997413 -0.029644424
-0.019560736 0.082024835 0.13428238 0.053691104 0.018743215 -0.14144945 0.07854876 0.16542093
-0.093978256 -0.24687713 0.16587842 -0.195005 -0.08927657 0.06649659 0.14621648 0.02728125
0.15156102 -0.13091798 -0.11650376 0.13721932 -0.064610235 0.16998972 -0.17803137 0.105266914
-0.22249702 -0.14001817 -0.05834829 0.04862117 0.115348995 0.14681098 -0.30702898 -0.056520153
0.12531237 -0.077514976 -0.03670962 -0.011038784 -0.1485355 -0.07161443 -0.22298941 -0.06280889
0.20063038 -0.09488987 0.14462784 0.118865445 0.1276766 0.009278249 -0.14852361 -0.043893587
-0.17506047 0.104219496 0.19746691 -0.15211092 0.03911536 0.07636327 0.21054769 0.12711608
0.09395493 0.11773094 0.1620734 -0.06856044 0.09348157 -0.17836396 -0.03052313 0.16516748
0.069795094 0.05573185 -0.13023306 0.18582395 -0.21934374 0.18324246 -0.02868868 0.17592895
0.009068375 -0.009165785 0.118309334 -0.0026378885 0.1297543 0.07182686 -0.17425522 -0.105922654
0.11212665 0.021540768 0.059002087 0.033274017 -0.022903197 0.10624999 -0.23524588 -0.09346282
-0.030388271 0.19681992 -0.21576197 0.04215252 0.012698141 0.07962482 -0.13072912 0.22187698
-0.03909062 -0.0059319413 -0.10617569 -0.07483107 -0.15662564 -0.17206922 -0.19580397 0.08670813
0.13327256 -0.08731419 -0.13909341 0.15626284 0.1816025 0.101074524 0.059517413 -0.037062608
0.19050421 0.19861491 -0.20406714 -0.030438406 0.040776182 0.16543646 0.23508002 0.02809238
00000000: 6b42 11bd 4b1a e6bb 0640 4a3e 1006 4c3c
00000010: fb7d c8bd 48f6 613d 1731 7bbd de89 fa3b
00000020: 7e56 01be 94e5 5b3d 981c 1e3e e472 6f3c
00000030: 67f1 783b cdfb 14bd e0d8 92bd c42e 6b3e
00000040: 3708 11bd 166a 02be 8f6b 353e 07aa dbbd
00000050: a65a ddbd bd0f 183d c5f9 033e 00d4 613e
00000060: da91 8d3d 7f00 08be 9d3d 01bd 35f3 343e
00000070: 617b 30be 6585 ef3d 678a c4bd 81a1 3e3e
00000080: 0fc2 40be 0abf ecbd 3a03 613e 62ef 5b3d
00000090: 92e6 6f3e 7b0b 5a3d b2c1 80bd 46ee 8ebd
000000a0: 112f 523e d803 5cbe cfe1 b4bd d993 663e
000000b0: 3200 02be 35b0 183e 6cc0 50bd 1327 b5bd
000000c0: 4b06 f43c e33d f5bd 1777 1fbc acb4 693e
000000d0: d182 a23d 6afa e03d 5e6d f63c 519a 65be
000000e0: 765f 34be fe2b 003e b425 b83c fb52 113d
000000f0: 3935 55be 9ab2 8e3e 361c 31be 7fa3 793e
00000100: 3985 b73d 5b35 283e 034c d13d 1974 a63b
00000110: 2aa1 9f3d 6338 b9bd db15 0cbe fc2e 813d
00000120: 1854 403d 2b26 c33d a973 45be 96d9 5b3e
00000130: 770e 43be 05bd 06be 48d8 5ebe 6e79 80bd
00000140: 08eb c13d 2cce 203d 85a7 11bd 0318 b03c
00000150: 46f7 3e3e 7b84 aa3d 5c7a cebd 5cf7 cc3d
00000160: bb46 0ebd ba50 e33d 29e3 14bd f451 32bd
00000170: d552 e2bd b146 d73d ad40 6fbd 23ee 81be
00000180: fe5e 343e 0228 7f3e b22f 00be 4db8 833d
00000190: 0144 913d 3faf 773d 1085 b23d e0f4 84bd
000001a0: ab4e c1bd 776c bfbb 11f8 68be 2109 31bd
000001b0: 5f44 0ebe 54ba 7dbc f9dd f0bd 1fba b33d
000001c0: c83a 78be 9a1f 94bd b20b 29bd 15d4 353e
000001d0: 98de 07be a1e4 0d3e acab 8d3e 6a38 c0bd
000001e0: 95ec e03d bd87 f13d a032 813e 1cc7 223e
000001f0: 0a95 3a3e d782 b5bd 87ff 393e 6261 77bc
00000200: f087 24be e82a f13d 3b02 263e d636 623c
00000210: 3042 d3bd 0238 863d f017 05be ddd8 f2bc
00000220: d63d a0bc a3fc a73d 5281 093e 34eb 5b3d
00000230: 5f8b 993c 20d8 10be 2cde a03d 1b64 293e
00000240: ac77 c0bd 5ccd 7cbe 08dc 293e 64af 47be
00000250: a2d6 b6bd 5d2f 883d c6b9 153e ee7c df3c
00000260: d032 1b3e 5d0f 06be 8699 eebd 3983 0c3e
00000270: 5f52 84bd c911 2e3e db4d 36be 2e96 d73d
00000280: 42d6 63be ec60 0fbe 9efe 6ebd fe26 473d
00000290: 183c ec3d 9e55 163e e732 9dbe ad81 67bd
000002a0: e351 003e 2cc0 9ebd d45c 16bd 04dc 34bc
000002b0: b119 18be 96aa 92bd 5657 64be f3a1 80bd
000002c0: 0d72 4d3e 9f55 c2bd 5219 143e ba6f f33d
000002d0: a8bd 023e cc03 183c 9316 18be c3c9 33bd
000002e0: 0d43 33be 0871 d53d c434 4a3e f7c2 1bbe
000002f0: 6d37 203d 5964 9c3d d099 573e b82a 023e
00000300: 716b c03d eb1c f13d 92f6 253e 6a69 8cbd
00000310: 4473 bf3d 0ba5 36be a50b fabc aa21 293e
00000320: bbf0 8e3d 1547 643d d15b 05be a248 3e3e
00000330: a59b 60be e9a3 3b3e 8604 ebbc b826 343e
00000340: 8693 143c 172c 16bc 2a4c f23d 6de0 2cbb
00000350: 50de 043e f619 933d f66f 32be faed d8bd
00000360: a8a2 e53d 4476 b03c 2cac 713d 564a 083d
00000370: 7c9f bbbc 9899 d93d 4ce4 70be 6f69 bfbd
00000380: d3f0 f8bc 298b 493e b5f0 5cbe 1fa8 2c3d
00000390: dd0b 503c 5612 a33d dbdd 05be b833 633e
000003a0: 7c1d 20bd bb60 c2bb a472 d9bd 0841 99bd
000003b0: 7962 20be ea32 30be d680 48be 0894 b13d
000003c0: 9a78 083e c8d1 b2bd 816e 0ebe 5e03 203e
000003d0: 01f6 393e 2900 cf3d 88c8 733d f6ce 17bd
000003e0: 8913 433e b561 4b3e faf6 50be f759 f9bc
000003f0: ed04 273d 2d68 293e d1b8 703e fe21 e63c
