SimLoan/res/taiwan/LSTM_clf_effort_modeltaiwan_budget_30_eps_0_5_b_0_2_lt-w_1_st-w_0_1.pth (torch, 834738 bytes, 17 tensors)

init_interventions f4 [1, 2]
00000000: 2fa0 ad3d b6e5 983d
0.08477818 0.07465689

clf.model.0.weight f4 [32, 4]
00000000: dc70 3b3e 89d3 813e c240 bbbe 9b4d cfbd
00000010: 7bb5 20be 4e8e fbbe 104d b8be e197 4bbf
00000020: b31c aabb 9ec1 2ebf 9941 67bf a706 13bf
00000030: fccd 4abe 5285 11be defc f63e 543f f7be
00000040: b840 07bd c5d1 123e 24e6 013f e3f0 db3e
00000050: 7e76 a23d d902 0c3f 549a d1be 86bc e83d
00000060: 85e7 17bc fb93 2bbf a5d7 61bf 1385 12bf
00000070: 3eb3 d5be f524 253f 98d6 4c3e 8db0 ddbe
00000080: 6aaa c13d 78ab 16be 4afe c33e d026 cf3e
00000090: 518a 763b 1afc 54bf 72ed 8dbf b242 37bf
000000a0: 2fa7 6d3c 778c 07bf e3dc 44bf 73f8 0ebf
000000b0: 2fac 01bc a0cc 47bf 2c5f 83bf 105c 2abf
000000c0: 2cb5 603e 5ae2 bdbe a0f7 f1be 0d2a aabe
000000d0: 5610 de3e 9264 f2be 4591 1bbf 2b70 d0be
000000e0: e4a2 11be 2211 c43e 0985 ce3d a50f a33e
000000f0: 23c5 74bd b723 243f efe1 ecbe b9d1 fe3e
00000100: 47c4 373e da4b ce3e 5150 f43d e0ca e03e
00000110: 9aaf 38be 5e2e 67be 6fb2 ae3e 5af8 aabc
00000120: 3500 febb ee82 44bf d5a1 80bf edf5 24bf
00000130: ec00 a2be 5bbe 74bf 7bdc 523e 0350 c13e
00000140: 4647 1dbd b878 37bf 735b 37bf a16e 5d3d
00000150: d6bb bdbb c257 24bf 5ca3 58bf d999 0abf
00000160: ccb6 d2be c253 f93e 1c94 3cbe 39dc e43e
00000170: 88bf 043f 326e 60bf 57aa 783d ef45 953e
00000180: 227c 383e 5216 333e 30a2 0abf 53b1 ee3d
00000190: 70be bbbe 4886 e53e 6de5 da3d f965 203e
000001a0: 40bc 353e 6ce0 323f 84f8 0a3f 8261 b3be
000001b0: 171a 863e 4007 983d 11be 8c3e 4ffc 193e
000001c0: 2cac 903d c908 3f3f 398f a1bc 44f7 93be
000001d0: 64e4 523e 824b 073d d275 4dbf 6229 f2be
000001e0: 2f29 3abc 1e90 f8bd 1b8e cfbd 7df0 c03e
000001f0: 45f6 08bf 633e b53e 6214 d1be 5263 673e
0.18304771 0.253567 -0.36572844 -0.10122224 -0.1569423 -0.49132007 -0.35996294 -0.79528624
-0.0051914095 -0.68264186 -0.9033447 -0.57432026 -0.1980514 -0.14211014 0.48239797 -0.48290503
-0.033020705 0.14337833 0.5074179 0.4295722 0.07932757 0.54691845 -0.40938056 0.11364083
-0.009271507 -0.67022675 -0.8821967 -0.57234305 -0.41738313 0.64509517 0.20003736 -0.4329876
0.09456332 -0.14713848 0.38279945 0.404593 0.0037619064 -0.83197176 -1.1088088 -0.71586144
0.014505192 -0.5294871 -0.76899546 -0.55847853 -0.007914587 -0.7804661 -1.0263419 -0.66546726
0.21944112 -0.37086755 -0.47259235 -0.33235207 0.43371838 -0.47342354 -0.6076854 -0.40710577
-0.14222294 0.3829432 0.10083968 0.31847873 -0.059758317 0.64116997 -0.46266124 0.4976938
0.17945968 0.40292245 0.11929382 0.4390478 -0.18035737 -0.22576281 0.3412051 -0.020870376
-0.0077514895 -0.7676228 -1.0049387 -0.6443775 -0.31641328 -0.9560296 0.20591919 0.37756357
-0.03839805 -0.7166858 -0.71623915 0.054060582 -0.005790214 -0.6419641 -0.84624267 -0.54141
-0.41155088 0.48696715 -0.18415874 0.44699267 0.51854753 -0.87668145 0.060709324 0.29154918
0.18016103 0.17488983 -0.5415373 0.11654916 -0.3666873 0.4482901 0.10688291 0.156639
0.17747593 0.6987369 0.54285455 -0.3503533 0.2619178 0.07423258 0.2748876 0.15037654
0.07064089 0.7462278 -0.019721614 -0.28899586 0.20594937 0.033030994 -0.80257905 -0.47297198
-0.011362358 -0.12136863 -0.10134526 0.37683478 -0.5350078 0.3539916 -0.40835863 0.22596481

clf.model.0.bias f4 [32]
00000000: 3a6f d93e 7065 5c3e 241d 573e 6404 8a3e
00000010: 07cc e8b7 77ef 1dbe 4a40 4a3e 62b4 513e
00000020: f3a9 babb fe7f 833e 75b3 383e 915f 6e3e
00000030: 9482 d7bd ba96 91be 1d57 01bc 313e c6be
00000040: b8da 86be 4384 233e 6be1 6b3e 99fa c63c
00000050: 79af 4a3e 2cce 493e 3b8a bd3e c45a 99be
00000060: 4249 b43e 1218 6f3e d26c 00be acc0 86be
00000070: f0a1 273e 8617 24bd 435f e8be d054 193e
0.42467672 0.2152307 0.2100721 0.26956475 -2.7751563e-05 -0.1542338 0.19751087 0.20478967
-0.005696529 0.25683588 0.18037207 0.23278643 -0.10522953 -0.28435308 -0.007894305 -0.38719323
-0.26338744 0.15968423 0.23035209 0.024289416 0.197935 0.19707555 0.37019524 -0.2995206
0.3521214 0.23349026 -0.12541512 -0.26318872 0.16370368 -0.040061496 -0.4538518 0.1497376

clf.model.3.weight f4 [64, 32]
00000000: ab2a 183d 6810 503e 83f2 633f 5c81 143d
00000010: 6d5c 20be b5c2 a9be 047d b53f dd35 813e
00000020: cc58 58bd a9ad 203f f7bf 2d3f 62dc 903f
00000030: 786e 0c3f bc2a 363f e79b 52be 9086 2abe
00000040: e476 e2be e477 083b e159 603f ce8f d0be
00000050: be90 913e 973d 793f 61e8 bf3c afec 263e
00000060: 6e7c 663d de09 7c3d 8fc3 113d cff1 a3be
00000070: 4b10 6d3d c3ee 3b3e b871 1c3e 9c9a 163e
00000080: 12f0 183e 1e1f 3f3c c144 60bf ff54 4bbd
00000090: 10fe c93c 3b4b bbbe 7a35 afbf 9d88 17be
000000a0: c66b 68be 3664 bcbe c33d 07bf a168 98bf
000000b0: ff47 b1be 3fc8 febe f2d0 073e c69e 1abf
000000c0: 466d 5bbd b25e 46be 6113 62bf 945d 98be
000000d0: 510b 4d3d 7060 40bf 5b70 2a3e 6057 a33a
000000e0: 5b1f 393e 42f4 73bb 21a0 003e 3a6b 723c
000000f0: 1ba8 423d 85cb 0a3d 0c5c 953e 8056 a13d
00000100: 260b 323b 6ae8 a3bd 8e1e e6be 9fe3 b9bd
00000110: c8c2 393d c930 63be d6a5 6fbf 6a2e 983c
00000120: f789 af3d f10a 85be c278 78be 1240 1fbf
00000130: d44b dfbe acc8 e8bd fd6c 083e e757 4d3d
00000140: 27a7 a43d 8a63 793d 8bba 93be a308 92be
00000150: ef46 cd3d 4294 b2be 71de 513d 4916 693e
00000160: fc04 1a3e fcc2 133d 4a04 193d ecd8 993d
00000170: 2e82 783e 3cd6 003d 6701 0d3f d98a 453d
00000180: c281 9e3c 21ab 543d 3595 083f d5f2 fd3c
00000190: 6daa 53bd 913f 2cbe a47d 983f a7cb 303e
000001a0: 728a 08be 06c4 783e 8b17 8f3e 5e5d 3c3f
000001b0: f003 093f f14a 073f 30ed 0b3d 32ca 30be
000001c0: 5926 02be f2ed 70ba 1b5d 183f 78b2 74bd
000001d0: 0baa 5e3e e690 213f 7506 ee3c e2ee 963d
000001e0: 3a34 9138 255a ab3c b8d4 ec3d a72c 00bd
000001f0: 19c9 ea3d bd67 883e 67ef 9c3c 9fdc be3d
00000200: 4aff 103e f2a8 703e 9058 623f eb94 dabd
00000210: 7a61 9bbe 091b b4be 364e af3f c472 3f3d
00000220: c0e0 31be e826 d23e 8d9b 293f 8df0 783f
00000230: 3c31 293f b27e ed3e 1511 95be 15a0 dabd
00000240: c91f ebbe 3b3c 4abe ff43 2d3f f4ac 3fbf
00000250: 67e3 2d3e 6929 673f 4163 01bd a06e 953e
00000260: 4a06 223e 5e42 fdbd 52de 5abd 0107 0bbd
00000270: 7526 ee3c 3a14 363e b1f4 c33d 0c82 933e
00000280: 13a6 133e 234e 1d3d 85b6 15bf dded 153d
00000290: d3dc a4bd 4707 19bd dd12 90bf 2f32 443e
000002a0: d8ab 393e 086f f3be 7fb9 01bf e69a f7be
000002b0: 62fb f4be 3001 adbe af37 c33d 2a2a 53bd
000002c0: aaf4 343d 9ddf 23be 3856 19bf d593 28bd
000002d0: 72c5 bebd 70db 1bbf a6c2 5b3e ca6c bf3d
000002e0: d5c4 c93d 3efe 613d 38af a73d 2674 c6bd
000002f0: a7b1 2b3e cbf4 433d 8d08 b23e 505c ed3d
00000300: 686f 223e 833c 9ebc 6688 10bf 0e5c e9bd
00000310: 32ee a93d bf3e 5cbd a9e5 a2bf 742d da3c
00000320: 0829 ecbc 2022 a7be 723b 17bf dac1 40bf
00000330: a3b2 76be b866 90be 42b6 053e e411 50bd
00000340: 8abf 20bd 6707 2f3d d482 d2be 08af 12bf
00000350: cabd 66be c0db f3be d2f6 cd3a a780 a7be
00000360: 1dfc 363d 9b08 0e3e b889 0dbe bb94 603d
00000370: c4fa 483e 3869 fb3c db24 7a3e 7567 9c3e
00000380: c856 f53d 2731 593e b820 743e a0ed f33d
00000390: 521e 78be 1dc3 f3be 7181 8b3f d030 a53e
000003a0: 1a4f a4be b09e cd3e 500d 353e e457 e83e
000003b0: 8a97 d53e d657 863e 6c14 5abe b75c 85be
000003c0: f47f 99be af0e b8bd 096c 7a3e edeb 8abe
000003d0: 4684 a63e 70d7 dc3e 8957 84bc ac13 7fbd
000003e0: a4c5 793d a1af dc3d 36a9 003e 2db3 cebd
000003f0: a56a 153e 3c9c 1d3e 60a6 623a 7b2a f83d
0.037150066 0.20318758 0.8904192 0.03625618 -0.15660258 -0.33156362 1.4178777 0.25236407
-0.05281906 0.62764984 0.6787104 1.1317255 0.5485606 0.7115896 -0.20567285 -0.16652894
-0.4423133 0.0020823414 0.87637144 -0.40734714 0.28430742 0.97359604 0.023426237 0.16301225
0.05627101 0.061532848 0.03558689 -0.32020423 0.057876866 0.18352799 0.15277755 0.14707416
0.1493533 0.011665134 -0.8760491 -0.049641605 0.02465728 -0.36580834 -1.3688195 -0.14798208
-0.22697362 -0.36795205 -0.52828616 -1.190693 -0.3462524 -0.4976215 0.132633 -0.6039852
-0.05357101 -0.19372061 -0.8831082 -0.29758894 0.05005962 -0.7514715 0.16644423 0.0012461953
0.18078367 -0.0037224446 0.12561084 0.014796073 0.0475236 0.033885498 0.2917179 0.07877827
0.002716729 -0.08003314 -0.44945186 -0.090766184 0.045351774 -0.22186579 -0.9361242 0.01857682
0.085712366 -0.2598491 -0.24264815 -0.6220714 -0.4361254 -0.113664 0.13322826 0.05013266
0.08039694 0.060885943 -0.28853258 -0.28522214 0.10023295 -0.34878737 0.051237527 0.22762407
0.15040964 0.036074623 0.037357606 0.07512078 0.2426841 0.03145431 0.55080265 0.04822812
0.019348983 0.051921014 0.5335267 0.03099958 -0.051676203 -0.16821124 1.1913342 0.17265187
-0.13334063 0.24293527 0.2794765 0.7357997 0.53521633 0.52848727 0.034161747 -0.17264631
-0.12709941 -0.000919073 0.5951707 -0.059740514 0.21744554 0.6311172 0.029055813 0.07369782
6.923867e-05 0.020917008 0.115640104 -0.031292584 0.114641376 0.26641646 0.019157125 0.09319424
0.14159885 0.23501948 0.88416386 -0.10672935 -0.30347806 -0.35176876 1.3695743 0.04674031
-0.17370892 0.41045308 0.66252977 0.9724205 0.6609075 0.46385723 -0.29114595 -0.106750645
-0.45922688 -0.19749539 0.6768188 -0.7487328 0.16981278 0.9029756 -0.031588797 0.29185963
0.15822712 -0.12366174 -0.053434677 -0.033942226 0.029071072 0.17781153 0.095681556 0.28810155
0.14418821 0.038404595 -0.5848163 0.036603797 -0.080499314 -0.037360456 -1.1255757 0.19159769
0.1813196 -0.47545648 -0.5067367 -0.48360366 -0.4784804 -0.33789968 0.09532105 -0.051553883
0.044178642 -0.1600327 -0.59897184 -0.04115661 -0.093150035 -0.6088171 0.21460971 0.09346922
0.09851996 0.055174105 0.08187717 -0.09690122 0.16766988 0.047840875 0.3477215 0.11589873
0.1586281 -0.019315964 -0.5645813 -0.11394511 0.08297385 -0.053770777 -1.2726337 0.026633002
-0.028828159 -0.32643223 -0.5907508 -0.75295794 -0.24091582 -0.28203368 0.13057807 -0.05079831
-0.039245166 0.04273167 -0.4111544 -0.57298326 -0.22533336 -0.47628593 0.0015713817 -0.3271534
0.044674028 0.1387047 -0.13822067 0.05482934 0.1962691 0.03068982 0.24428122 0.3054768
0.11979443 0.21210156 0.23840606 0.11910558 -0.24230316 -0.47609797 1.0898877 0.32263803
-0.320916 0.4016013 0.1768086 0.45379555 0.41717178 0.26238889 -0.21296853 -0.26047298
-0.29980433 -0.08987176 0.24455275 -0.27133122 0.32522792 0.43133116 -0.016155021 -0.06227462
0.0609795 0.10775686 0.12564549 -0.10092769 0.14591463 0.1539163 0.00086460076 0.121174775

clf.model.3.bias f4 [64]
00000000: c8fe 1abe aa97 803e 880f 403e 3b9b ebbd
00000010: d9f4 e93c 51d4 283e 516f 293e c38d 1bbe
00000020: 3b76 01bd 5590 02bd 5503 563c 31c7 3a3e
00000030: 3ea2 c0bd ee02 ae3d 62a5 093e 0b70 3fbe
00000040: 5722 a63e 9290 0d3e 84c7 2cbd 86a1 913e
00000050: 6b80 4c3e 0b29 41be 746d 38be 11f2 8a3c
00000060: bfcf 7a3e cef0 babc 35b1 8f3e 6e06 52bd
00000070: 1304 bd3e 9e58 2c3e 0784 103e c3ed 9abd
00000080: 8620 a6be c0c9 373d 7d00 fe3d a1f8 973e
00000090: 95d5 f2bd 6d8d e53d 2327 7e3e 20e5 643e
000000a0: 6197 893e df3f 593e 44b1 e03c c25b 243e
000000b0: b213 aa3e 1a07 483e 1a89 423b 3b99 18be
000000c0: a32b 9e3e 1034 623e 83e2 ce3d 9f8d 31be
000000d0: fea4 243e aaa5 063e a3d3 bb3e b7a0 e63c
000000e0: 93c0 343e 7715 293e ff5a 42bd 9a9c ac3d
000000f0: c649 0a3e 85bb 563e af9c 5d3e 2b36 3abe
-0.15136254 0.2511571 0.18755925 -0.11504217 0.028559135 0.16487242 0.1654637 -0.15190797
-0.031606894 -0.031875927 0.013062318 0.18240048 -0.09405945 0.084966525 0.13441995 -0.18695085
0.32448074 0.1382468 -0.04218246 0.28443545 0.19970863 -0.18863313 -0.18010503 0.01696113
0.24493311 -0.022819903 0.28064886 -0.051275663 0.3691717 0.1683068 0.14112864 -0.07564881
-0.32446688 0.04487014 0.12402437 0.29681876 -0.11857144 0.112086155 0.24819617 0.22353029
0.26873305 0.21215771 0.027428277 0.16050628 0.3321815 0.19533959 0.002968377 -0.14902203
0.30892667 0.22090173 0.101017974 -0.1733918 0.16078565 0.13149133 0.36684904 0.028152807
0.17651586 0.16512094 -0.047450062 0.08428307 0.13504705 0.2096997 0.21641801 -0.18184726

clf.model.6.weight f4 [1, 64]
00000000: cdbe 4cbf 885e 313e c134 653e c8f4 a4be
00000010: 3848 ecbe 8a53 2c3e 7934 b63e 4465 c5be
00000020: a193 5e3e 2455 0ebf c17d 813e 313a 763e
00000030: 2bb3 16bf 6369 443e 9e37 9d3e 0c7c 7c3c
00000040: 649b 3e3e 9bfe 7d3e 7b24 bebe d578 533e
00000050: 6836 173f 98e3 24bf 2fc9 ebbe 1f77 d63e
00000060: b8c7 1c3f 99c4 26bf 06a0 3a3e 4fd2 48bf
00000070: a88c 8d3e 7625 1e3e 5eb8 ca3e d56e 45bf
00000080: f991 50bf aa3d 7ebe 6f07 6e3e 0c3e 233e
00000090: 1bcd 85be 87d8 5ebe bd7b 7b3e 6159 5f3e
000000a0: 583c 7f3e bd50 2e3f 4d97 debe cae3 b33e
000000b0: 9b39 163e 748a 853e 29ab 4bbd 2656 85bf
000000c0: 67b8 e73e 1f54 9a3e fcdf a73e bf06 75bf
000000d0: 5a67 103e ed6a e13e 764f 993e 3e1f 17bf
000000e0: e0d0 1d3f 8ed2 233e 929d d6be 8123 973e
000000f0: af1b 533f 730d 223e 3a2f 313f 67e7 a9bf
-0.7997864 0.17321217 0.22383405 -0.32218003 -0.4614885 0.16828743 0.35586908 -0.38553822
0.21736003 -0.55598664 0.25291255 0.24045636 -0.5886714 0.19180827 0.30706495 0.015410434
0.18613964 0.24804156 -0.37137207 0.20651563 0.5906739 -0.6440978 -0.46051928 0.41887757
0.61242247 -0.65143734 0.18225107 -0.78445905 0.27646375 0.15443978 0.39593786 -0.7712224
-0.81472737 -0.2482821 0.23245023 0.15941638 -0.26133046 -0.21762286 0.24558921 0.21811439
0.24925363 0.68091947 -0.43474808 0.35134727 0.14670412 0.26082194 -0.049723778 -1.0416915
0.45257875 0.30142304 0.32788074 -0.9571342 0.14101925 0.4402689 0.29943436 -0.59032047
0.6164684 0.15998289 -0.41917092 0.29519275 0.82464117 0.15825443 0.69212687 -1.3273743

lstm.weight_ih_l0 f4 [512, 11]
00000000: 5a45 c2bc 9c07 a93d aaea 37bd ac02 273d
00000010: 5568 54be d66d 98bd d9bb 02be 2c79 913d
00000020: 59f3 b6bd 24a2 d23d b35c 593d 3b06 dfbd
00000030: f628 ec3d 76bc 003d 49d9 00bd b97a 25be
00000040: 201e cebd dfd0 e43c b562 713d 2529 4bbb
00000050: 67b8 133e 5dc8 51bc 9df8 73bd 610a 9fbd
00000060: 5dbe ee3c ea7f 5c3d 3321 c4bd 050f d7bd
00000070: 9662 04bd e0a5 19bd 9333 3b3c c1b8 a739
00000080: 4b76 97bd bb8a 3b3d 5ebc 8c3d 7bdb 453c
00000090: 280c 52bd 21d8 d4bd a57d e6bd 8034 16bd
000000a0: fe15 a6bc 1066 0abd aa49 a73c 0589 b2bd
000000b0: 5e3e 09be 5a09 f4bc e01d 4ebc 715a e2bb
000000c0: a6b1 c4bd f001 b2bd db7b ce3d 0f5d 0abd
000000d0: a435 a2bd 9fc1 683d 9d96 6fbd 2763 ddbd
000000e0: 8c2e 1e3d b017 9d3d c110 243d a490 45bd
000000f0: b666 f0bb ddad 52bd fcf7 4c3d 1bac 993c
00000100: 7748 173d 395f 28bd bb25 75bd a8ae b43d
00000110: c9f6 65bb 07e8 163d 9323 6e3c 4e28 a73d
00000120: 3e00 373d 458f 823d 99b3 c93d 5b16 2bbc
00000130: 903f 453d f592 883c c831 f83d 367c 1abd
00000140: c3d1 133d 079e fbbd d38c c0bd 0eaa b33d
00000150: 5a01 8cbd 42bf 993c d996 013e 7c2f 033e
00000160: bf67 c1bd 7106 983d 9b04 c93c e707 1d3d
00000170: 5bb4 843c 2bbf 0a3d 0105 5fbc b4fa 48bc
00000180: bc66 7539 41d0 c8bd d66a 543d c19b 8cbd
00000190: 6654 75bd d0bf 5e3d 6bb6 9c3d 8e66 55bd
000001a0: aa1b 2c3d 05f3 1b3d 011c 623d 7abe 933b
000001b0: 5cc4 1c3d 06c2 463c e485 8ebc 7ad5 85bd
000001c0: 740a e63d dc9e 19bd 8eec ff3b 8d8c 403d
000001d0: 8089 88bd 40b1 89bd 3f55 33be 17a9 9e3d
000001e0: cec6 20bc 020e 8f3d e750 8fbd fb55 c03c
000001f0: 6bbc 23be 24b9 bf3d 8132 3ebd 0c96 0ebd
00000200: ffa4 54bd 920d b2bd 6fd1 be3d 6364 073d
00000210: 2872 a6bd 7fa6 8a3d ffb7 a43d 6f31 423c
00000220: e61f 403d 2762 093e e710 3ebb 5952 92bc
00000230: f3bc a6bd baab 6cbc bba0 ea3d ea0a f83c
00000240: e9c0 e93d 5506 8b3d cdaa 49bd ed37 4cbd
00000250: 21f6 163d e39f b7bd 50bc 8abb fe64 9dbd
00000260: c16d aa3c 24f3 b5bd a1d6 ca3c 3cf1 363d
00000270: dd33 a83d 92dc 52bc 5b82 7bbd cdcf e8bb
00000280: a44c b8b8 be0d 16be 0fc3 1a3d 4121 45bd
00000290: adec 67bd e166 19be b798 013e b8e2 013d
000002a0: bfc3 913c a421 043d 1c75 da3d add0 c63c
000002b0: e33a e73b 7985 e2bd a343 f23a d58a c63c
000002c0: 360d 1bbe 73f4 4b3d 6f7b 4fbb b547 df3c
000002d0: e930 97bc b476 91bc 0363 c0bd 16fa 2d3d
000002e0: e1e8 08be fc11 403c 09c1 81bc 58ad 18be
000002f0: 532a 493d ada3 cb3b a9a2 b3bd 73a3 64bd
00000300: 27af 22bd 039f a5bc cd3a 4fbd 7dbd 08be
00000310: 80d0 8f3d e171 89bc 9eb5 8bbd e1a1 b53d
00000320: f867 953d d2d5 363c 888c c7bd 0568 d0bc
00000330: b6d6 e73d 87d1 5b3d bbab 99bd 0d72 f03d
00000340: a061 903d bfaa 4b3d f30e 8b3d 64a2 d4bd
00000350: 90ac 25bd 61a7 b3bd 2ffc d3bd 508a fc3c
00000360: ae55 e1bd 7e29 353c cfb7 d63d d05e c03d
00000370: d9de 5fbd e6a0 df3d ad40 2c3d 1a2f 5abc
00000380: 9888 c43d 3088 d53d 5374 f6bd 8aad 6cbc
00000390: 5601 10bc 1d4f 04bd 269c 083d 6a9a 16be
000003a0: acb8 8b3c 3d94 1e3e 17dd 5f3e 2404 16bd
000003b0: 5a6d 66bd c5a5 1d3e a017 593e 333b 12be
000003c0: 1af8 a9bc 25f7 293c 4b68 9bbc 5976 413d
000003d0: d295 b5bd 2543 c43c e373 983c 9dab 87bd
000003e0: 57f1 dcbd 78bc 263d c2fe c13c f676 e63d
000003f0: 2287 753c 909f f5bb 5c5d 9cbd 620f 3cbd
-0.02371471 0.082534045 -0.044901527 0.040774032 -0.20742925 -0.074428245 -0.1276697 0.0710319
-0.08933134 0.10284832 0.05306692 -0.1088986 0.1153125 0.03142973 -0.03145722 -0.16160096
-0.1006434 0.027931629 0.058932025 -0.0030999866 0.14425813 -0.012804118 -0.059563268 -0.077656515
0.029143507 0.053832926 -0.09576645 -0.105009116 -0.03232058 -0.037511706 0.0114258705 0.00031990375
-0.073956095 0.0457866 0.06871866 0.012076254 -0.051281124 -0.10392786 -0.112544335 -0.03667116
-0.020274159 -0.03378874 0.020420868 -0.08717541 -0.13402697 -0.029789615 -0.012580365 -0.006907754
-0.09604196 -0.08691776 0.10082217 -0.033780154 -0.079203874 0.056825276 -0.058493245 -0.108099274
0.03861861 0.07670534 0.04005504 -0.048233643 -0.007336463 -0.05143534 0.050041184 0.018758824
0.036934342 -0.041106436 -0.059850436 0.088223755 -0.0035089722 0.036842372 0.014534849 0.081619844
0.044677965 0.06374983 0.09848709 -0.010442342 0.04815632 0.016671637 0.1211887 -0.037716113
0.036088716 -0.12286001 -0.0940186 0.0877267 -0.06836195 0.018767957 0.126552 0.12811083
-0.09443616 0.074231036 0.024538329 0.038337614 0.016199281 0.03387372 -0.013612033 -0.0122668035
0.00023403292 -0.09805346 0.0518597 -0.06865645 -0.05989494 0.054382145 0.07651981 -0.052099757
0.04201857 0.03807356 0.055202488 0.0045087906 0.0382732 0.01213122 -0.017397828 -0.06534858
0.112324625 -0.037505016 0.007810182 0.04700904 -0.06666851 -0.06723261 -0.17512988 0.07747095
-0.009813024 0.06985094 -0.06997853 0.023478499 -0.15989845 0.09361485 -0.046434883 -0.034811065
-0.051915165 -0.086939946 0.0931729 0.03305472 -0.08127242 0.06770038 0.08042907 0.011852606
0.04690542 0.13416348 -0.0029001774 -0.017861532 -0.08141508 -0.01444524 0.11456438 0.030278642
0.11413748 0.06788317 -0.049235154 -0.049858022 0.03685582 -0.08966043 -0.0042338744 -0.07685278
0.020804288 -0.08884266 0.024760546 0.044663653 0.08213017 -0.012869971 -0.061403614 -0.00710485
-8.788079e-05 -0.1465368 0.03778368 -0.048127417 -0.056622196 -0.14980651 0.12655912 0.031710356
0.017793534 0.032258645 0.10666868 0.024269426 0.0070565804 -0.11060614 0.0018483292 0.024236122
-0.15141758 0.04979367 -0.0031659266 0.027255872 -0.01845594 -0.017756797 -0.09393885 0.04247483
-0.13370086 0.011723038 -0.015839117 -0.14909875 0.04911263 0.00621458 -0.08771259 -0.05581994
-0.03971782 -0.020217424 -0.050593186 -0.13353534 0.0702219 -0.016777935 -0.0682175 0.088687666
0.07295221 0.011159377 -0.09743601 -0.025440225 0.1132025 0.053666618 -0.07503458 0.117405035
0.070498705 0.049723383 0.06789961 -0.10382536 -0.04044777 -0.08772159 -0.103508346 0.030827671
-0.1100267 0.011057256 0.104842775 0.09393084 -0.054655883 0.10919361 0.042053867 -0.013316894
0.09596366 0.10426366 -0.12033906 -0.014445672 -0.008789381 -0.03230201 0.03335204 -0.14707342
0.017055832 0.15486236 0.21861683 -0.036625043 -0.05625663 0.15395267 0.21200418 -0.14280395
-0.020748187 0.010373865 -0.01897063 0.047232006 -0.088664666 0.023957798 0.018609947 -0.066245295
-0.107882194 0.04070708 0.023681048 0.11253159 0.014985831 -0.007495828 -0.076349944 -0.045913108

lstm.weight_hh_l0 f4 [512, 128]
00000000: dd70 9b3d 4c71 0b3d 8021 123d 98a4 2e3d
00000010: 5431 a5bd ebbe 993d 1bcb b1bb 80f6 473e
00000020: e2bd b9bd ddc7 b0bd 660a 443d d4b0 253e
00000030: a481 493c 040f e8ba 4cfa fd3d 2305 6a3c
00000040: 8a8a 8a3d a99f 7aba 8df3 0a3d e2bb 453d
00000050: 14cc dcbb 62b6 07bd a6af b93c 052c ec3c
00000060: d25a bcbc 22b5 47bd e1e2 3c3d 99c5 9b3c
00000070: c962 04be 1271 0ebb 0d4c f6bd 9493 6c3d
00000080: 28d5 92bd ee3c e6bd f9e6 3cbd e871 9dbd
00000090: 7b4e 733d c9f2 953d 0640 fc3c 93c0 eabd
000000a0: e880 283d 29e4 0dbe 404d 8dbd 3e5b 9f3d
000000b0: 809c 8a3d 8639 8b3c 1396 df3d 49d0 0cbd
000000c0: c54f 15be a286 753d 924e d53c 95c7 c9bc
000000d0: 2feb f2bd a5a4 97bb 3d77 79bb 9dfb 28bd
000000e0: 64dd 5ebc 6d0a 173c 87bf 153b 7fc6 973d
000000f0: 59c6 a83d 9ee1 d73a 7e4b 11be 9df2 243d
00000100: f7de 96bc 3750 d03d 86fd 7fbc 88a5 0e3d
00000110: 29e7 bebd 7d96 433d 01d0 053d 11fc d93d
00000120: be79 80bd 01a0 b23d 50a6 183d 30eb c1b9
00000130: 9bf8 393d 2530 f2bd 1d55 4c3d 7710 48bd
00000140: 8389 5fbd cd26 8f3c 9f2e 633d c6f2 78bd
00000150: 4ee8 1ebb 5020 97bd 9107 58bd fc7b dfbd
00000160: da9e 273d f705 bd3d 4d19 f23d 4f85 febd
00000170: 5dbd 9a3d 8027 b3bc 5329 77bc 87c9 0b3d
00000180: 00bf 9cbd 1a89 fbbb 9bce acbc 8b73 f03d
00000190: 560a 52bd 4382 c63c 140b 033e 69f8 bb3d
000001a0: 1c83 3b3e bca9 90ba c717 95bd 1be2 413d
000001b0: b175 cdbd 9228 aebc a5e8 acbc 36ae 07bd
000001c0: c08d f43c 8fa1 d1bd 7631 cb3d 478e 343d
000001d0: 309e a73d 346c 2abc 4400 09be dfc6 0cbe
000001e0: 22f6 a53d 8a94 14be 72b1 073e 2566 bb3c
000001f0: 3276 03be 5a14 193d b089 d9bc 0c09 acbc
00000200: 4482 eb3d 653c fa3d 313a adbc c0fc 003e
00000210: aac8 913b 47c1 f13d 8c43 823d f293 8c3d
00000220: 84a2 09be 4a71 d6bd 0bd7 543d 15fc 183e
00000230: 047f 6abc 2b8f f4bc 925c 8b3c 002c d93d
00000240: 3aec b33d d24e 0e3d 5415 f23d a38a 853d
00000250: 764d 053c 7828 02be cf75 bc3a e9c6 8bbd
00000260: 3fef 443d f2fe 413d 97fc 883d c4a0 a7bc
00000270: d234 7dbd dbfa cb3d 7809 11bc 690e 883d
00000280: 8fc4 f2bd 2fc5 4bbd 0c4b c8bd 5c53 5abd
00000290: 6d27 94bd 2215 09bb 196e 183d efc0 8dbc
000002a0: 84a0 033e e1d8 383d ca2a 88bc 9b7e 1cbc
000002b0: 7fc2 89bb 3b2c 03be 56b8 2a3d 7bff 543d
000002c0: 3838 f7bd 8831 973d 8427 0a3e ab5c 51bd
000002d0: e3cc 353d b5d0 cf3d 5931 093e 89f1 c1bd
000002e0: 0a8a ea3c 4fc4 293d e455 ac3c 82b2 793d
000002f0: a12a eabc 9653 a33b ba6a 203c 77b4 25bd
00000300: 14d8 8fbd 2611 093e 9eef c8bd 4285 5abd
00000310: 9e1e 82bc 0ea1 48bc 4a3f c03d af65 0abe
00000320: 9032 f1bd dee4 d23d 43fb 8b3d dad5 11be
00000330: 25e2 8d3d 5dbb a2bd 3071 923c 1dbc b3bc
00000340: 3a3b d5bd 791e e63c 19f2 da3c 9b1e aabd
00000350: efda 8d3d de84 afbd 3f9c c23d 87fb 07be
00000360: 9d1d 493d 80a7 9fbd 0e04 c03d 2c7e ebbd
00000370: bb62 f73d 6649 033e 0f6c 78bd ea5f ccbc
00000380: b730 403d 647a a7bc c59a 4e3d 11a8 483d
00000390: 9db0 08be 52ed 903c 1188 103e 6eaa e53b
000003a0: fb78 613d b204 e93d bfd8 b6bd 7ca7 63bb
000003b0: e2c8 2abd 1da5 adbc b444 91bc db0d 8c3d
000003c0: bed9 3abd 4c4e 47bd a78d 95bc 8430 8fbc
000003d0: f0dd 7b3d fa7c d2bb 79da eebd 56ef 98bd
000003e0: bdbd cb3d 36c4 73bd ddc4 f13d 005f e03d
000003f0: 0f60 28bd 78f8 58bc cd4b 8dbc e7a3 90bd
0.07589886 0.034043595 0.03567648 0.042637438 -0.08066049 0.07507118 -0.0054258234 0.19527626
-0.090694204 -0.08631871 0.04786148 0.16180736 0.012298975 -0.001770467 0.12401256 0.014283451
0.067647055 -0.00095605344 0.033923674 0.048274882 -0.006738195 -0.03313292 0.022666764 0.028829584
-0.022992525 -0.048756726 0.046114806 0.01901512 -0.12928309 -0.0021734876 -0.12026224 0.05775793
-0.071695626 -0.1124209 -0.04611871 -0.076877415 0.059401017 0.07321698 0.030792248 -0.11462512
0.04113856 -0.13856567 -0.068995 0.07781075 0.06768131 0.016995203 0.10917296 -0.034378324
-0.14581211 0.05994285 0.026038442 -0.024631301 -0.11861264 -0.0046277815 -0.0038065456 -0.041255582
-0.013602588 0.009218794 0.0022849755 0.07410907 0.08240957 0.0016470437 -0.14188954 0.040270437
-0.018416865 0.1017155 -0.01562441 0.03482583 -0.09321434 0.04775094 0.03266907 0.10643781
-0.062732205 0.087219246 0.037267983 -0.00036987057 0.045403104 -0.11825589 0.049885858 -0.048843827
-0.0545745 0.017474556 0.055464383 -0.0607784 -0.002424735 -0.0737921 -0.05274159 -0.1091232
0.040922977 0.09229653 0.11821232 -0.1242777 0.075556494 -0.021869421 -0.015085536 0.03412774
-0.07653618 -0.007676256 -0.02109461 0.11740788 -0.05127939 0.024232036 0.12797195 0.0917824
0.18311733 -0.0011036913 -0.07279926 0.04733477 -0.100322135 -0.02125958 -0.021107027 -0.033125125
0.029852748 -0.10235893 0.09921543 0.044081 0.08184469 -0.010401774 -0.13379008 -0.13747738
0.08103587 -0.14509788 0.13251284 0.022875855 -0.12838057 0.037372924 -0.026554912 -0.021000408
0.114994556 0.122185506 -0.021145912 0.12596416 0.00444897 0.11804443 0.0636054 0.06864156
-0.13440901 -0.10470827 0.051962893 0.14939912 -0.014312509 -0.029853424 0.017011914 0.106040955
0.08785291 0.034743138 0.11820474 0.065205835 0.008136144 -0.1271075 0.0014378371 -0.068250485
0.048079725 0.047362275 0.06688803 -0.020462401 -0.06181795 0.09959956 -0.008852355 0.066433735
-0.11853897 -0.049748596 -0.09779939 -0.053302154 -0.07234082 -0.0020917137 0.037214372 -0.017303912
0.128542 0.045128707 -0.016621966 -0.0095516695 -0.004204094 -0.12809841 0.041679703 0.052001458
-0.1207127 0.07382494 0.13491637 -0.051113766 0.04438485 0.101472296 0.13397731 -0.09469897
0.028630275 0.04144698 0.02103705 0.060961254 -0.02858478 0.0049843295 0.009791071 -0.040455308
-0.070236355 0.13385448 -0.09811328 -0.05334974 -0.01588374 -0.01224543 0.093870714 -0.13515352
-0.11777222 0.10297559 0.06835034 -0.14241734 0.06927899 -0.07945893 0.017876238 -0.021940285
-0.10411687 0.028090702 0.02672677 -0.08306619 0.06926524 -0.08570264 0.09502458 -0.13279544
0.049100507 -0.0779562 0.09375773 -0.11498675 0.12079378 0.12820968 -0.060649928 -0.02494808
0.046921458 -0.020444103 0.05044057 0.048988406 -0.13348623 0.017691288 0.14114405 0.007008842
0.055047017 0.11377849 -0.0892806 -0.003473728 -0.041695483 -0.021196896 -0.017732956 0.0683858
-0.04561781 -0.048658654 -0.018256022 -0.017479189 0.061490953 -0.00642359 -0.11662764 -0.07467525
0.09948299 -0.059513293 0.11805127 0.1095562 -0.041107234 -0.013242833 -0.017248059 -0.07062512

lstm.bias_ih_l0 f4 [512]
00000000: 753f 89bc 5d4c aabd e7f6 a8bd 2041 7dbd
00000010: 9885 573c 45f2 bbbd 0d06 76bc d497 3b3d
00000020: d2f2 9e3d febe 1abd 3d6c 32bd aa39 0cbe
00000030: f8c2 d8bd 8f36 88bc 2b85 94bd becb 79bd
00000040: 797f 8ebd b931 87bd 5208 d0bd 35d8 c2bd
00000050: 0d21 87bd 48fe 1ebe b076 ea3c 04ed 0abc
00000060: 2632 b8bd cda4 20bd 702a c6bc e5aa a4bd
00000070: bc30 d6bd cdbe e4bd bb60 39be 3ea1 d3bd
00000080: 6995 3cbe 2ecb d4bc 9b4f 5bbd db35 d1bd
00000090: 3a4d aebd d3a1 20be e404 dfbd 2c93 12bd
000000a0: 3631 15be aec8 40bc f573 af3d 3707 ebbd
000000b0: c48d 153b b6de f1bd c19f ddbd f298 283d
000000c0: 2db7 363d 024f 34bd cffd 31bd a075 0dbd
000000d0: 0db6 a5bd e7ff 103c 5a00 1ebd f30d 23b9
000000e0: 7814 bbbd d083 563c c2ce 2dbd 1a2a c8bd
000000f0: cf27 5e3c 1ee7 fdbd b67e 86ba cbff 083d
00000100: ec7b c0bd 083f 0cbd cf9a 9bbd efb2 16be
00000110: 4444 5c3c 9f1f cfbc 3738 67bd d4ef 11bc
00000120: 1c65 a53b 7ec4 8bbd fc8c 403d 6876 4abe
00000130: badb 1abe 5140 0d3c c83b 0abe 3acb 863d
00000140: 8f20 b9bc 39e0 85bd 605e 5abd 75fa b4bd
00000150: fdcc ccbd ae03 b03b 5b2b b8bc dfd9 c13d
00000160: 1493 d0bd 24a6 023d db0d 92bd e4d5 bebd
00000170: 74ee 45bd c12c d53c b141 9d3d b6cb 3fbd
00000180: 3510 ecbd 2ed6 a9bd cbfc 533a d42b dd3a
00000190: 27eb 42bd 6649 a3bd 0ec4 04bd 9500 cdbd
000001a0: 3d70 53bd c0c3 89bd d9d6 40bd b8c7 0c3c
000001b0: 002f 843c a4dc 32bd 79d2 983d 1017 66bd
000001c0: ef7a f4bd c1fd 08bd 4db8 e3bd 1762 fabd
000001d0: 2e4c c43d 4b60 78bd 6fae aa3d da5a 83bd
000001e0: 3e8b 92bd db32 dfbd 56c7 18bd 262d 05be
000001f0: 979e 75bd 6a62 16bd 77e6 8fbc 2407 ebbd
00000200: 8f82 acbd 5b40 fcbd 31ac de3c 473b 02bd
00000210: 7405 68bd 6a86 19bd 5741 8abd b1a7 cbbd
00000220: aab0 c43d 7567 07be d5c7 fb3b a89b d3bd
00000230: ee06 f2bd 3bd8 a23d dd9f ca3c 456f 1dbe
00000240: 7098 f4bd 2961 81bd 687a 82bc 97ac 07be
00000250: 8a5b 31be fcb7 b7bd 8813 9e3d 0a63 b6bd
00000260: 44b9 163b 3f16 19bd fbbe e13a 51cd 663d
00000270: 9575 023c ddf5 493c 55fc 28be e50e 143d
00000280: 0d56 09be 9930 e93c c712 08be 530e 97bd
00000290: 45bb 793c 2b64 debd ddf1 f23c 9105 cb3c
000002a0: a9ab eabd b01f 0fbe 2343 983d ebd1 36bd
000002b0: 802d adbc 28ad bbbd 8319 23be b8fd 01bd
000002c0: 1639 b23d 8027 35bd 8333 27be d098 c93d
000002d0: c775 afbd c6b9 22bc 1a3d a2bd 068f dd3c
000002e0: d337 04be 52a6 1dbd 3afa 4fbd 78d6 1bbc
000002f0: 2211 f33c d141 0cbc a0e9 c6bd 5376 943b
00000300: c4c9 9bbd 7940 19be e73c 9b3d 1fff 793b
00000310: 8b88 77bd c306 a1bb 5c4c f8bc 8693 7f3d
00000320: 2155 a2bd 6c16 5bbd 6d2a 60bd beef 94bd
00000330: 1121 e1bd 8554 ad3b b2ce ffbd fe36 6dbd
00000340: a9ec 33be a786 c6bd 10ae b3bc f295 9dbd
00000350: 070c 82bc 7e10 d3bc 69e8 f2bd 3814 c03d
00000360: e8e7 a3bc e54f 743c 6f28 1fbe 1993 efbd
00000370: 56aa 13be 3746 07bd ce8f 5c3d 0c5d 0f3d
00000380: 8e8d 573d 645b e93c bb06 92bb f05a e2bd
00000390: a196 abbb 9071 1b3d b546 f13c 4365 263d
000003a0: 24c0 bf3d d782 1cbd 8425 7fbc fe93 ed3c
000003b0: 794e 5dbd 618d ba3d 8ee5 a43d 4430 03be
000003c0: 1084 afbd 3abf abbd b31f 14be c422 02be
000003d0: 53a9 7c3d e3cc 02bd b1a5 243d eadb 2f3d
000003e0: 65c4 9cbc 825e fc3c a58a 40bc 2742 ccbc
000003f0: dfa6 cf3d e432 60bd 72f0 10be 522b dcbd
-0.016753891 -0.083153464 -0.08250218 -0.061829686 0.01315441 -0.091770686 -0.015016091 0.04579909
0.07761158 -0.0377798 -0.043560255 -0.13693872 -0.10584062 -0.016627578 -0.07251962 -0.06098532
-0.06957907 -0.06601281 -0.10157837 -0.095138945 -0.06598101 -0.15526688 0.028621048 -0.0084793605
-0.0899394 -0.039219666 -0.024190158 -0.08040408 -0.10458514 -0.11169205 -0.18103306 -0.10333489
-0.1841637 -0.02597579 -0.053542715 -0.1021535 -0.085108235 -0.15686731 -0.10889605 -0.035784885
-0.14569554 -0.011766596 0.08567039 -0.114759855 0.0022820095 -0.11810057 -0.10821486 0.041161485
0.044608284 -0.04402066 -0.04345494 -0.034536004 -0.08091364 0.008850074 -0.038574554 -0.00015550088
-0.091347635 0.01309295 -0.042433508 -0.09773655 0.013559296 -0.12397598 -0.0010261151 0.03344707
-0.09398636 -0.0342398 -0.07597887 -0.14716695 0.01344401 -0.025283633 -0.056450095 -0.008907277
0.0050474536 -0.06824587 0.047009453 -0.19771731 -0.15122882 0.008621291 -0.13499367 0.06581731
-0.022598533 -0.06536908 -0.05331266 -0.088368334 -0.10000036 0.0053715324 -0.022481611 0.09465384
-0.10184303 0.031896725 -0.07131549 -0.0931814 -0.04832311 0.026022317 0.07678545 -0.046825133
-0.11526529 -0.08292805 0.00080866803 0.0016874024 -0.04758754 -0.07972984 -0.032413535 -0.10009877
-0.05162071 -0.067267895 -0.047079895 0.008592539 0.016135693 -0.04366745 0.074620195 -0.056174338
-0.1193751 -0.033445124 -0.11119137 -0.122257404 0.095848426 -0.060638707 0.08334052 -0.06413813
-0.071554646 -0.10898372 -0.037299477 -0.13005504 -0.059965696 -0.03671495 -0.017565949 -0.11475971
-0.084233396 -0.12316962 0.027181717 -0.031794813 -0.056645826 -0.037481703 -0.06750744 -0.09944094
0.096040085 -0.1322306 0.007683734 -0.103324234 -0.11817728 0.07951399 0.024734432 -0.15374477
-0.11943138 -0.0631736 -0.015927508 -0.13249432 -0.17320076 -0.08970639 0.07718569 -0.08905609
0.002299861 -0.03737473 0.0017223054 0.05634815 0.007962604 0.012326685 -0.16502507 0.036147017
-0.13411732 0.028465556 -0.13288413 -0.07375779 0.015242402 -0.10858949 0.029656345 0.024782928
-0.11458523 -0.13976932 0.0743468 -0.044633787 -0.02113986 -0.09163886 -0.159277 -0.031736106
0.087022945 -0.044227123 -0.16328244 0.098436 -0.08567386 -0.009931987 -0.079218104 0.027045738
-0.1291192 -0.038488694 -0.050775744 -0.009511583 0.029671255 -0.008560614 -0.09712529 0.004530707
-0.07606843 -0.14966 0.075799756 0.0038146449 -0.060432952 -0.004914136 -0.030309848 0.06239655
-0.07926393 -0.05348818 -0.05472796 -0.0727229 -0.10992635 0.0052896165 -0.12490596 -0.057913773
-0.17570747 -0.09693652 -0.021933585 -0.076946154 -0.015874876 -0.0257647 -0.11860735 0.093788564
-0.020008042 0.014911626 -0.15542768 -0.116979785 -0.14420447 -0.033025946 0.05384808 0.035000846
0.05262523 0.028485961 -0.0044563687 -0.11052501 -0.005236462 0.0379501 0.029452661 0.040623914
0.0936282 -0.038210716 -0.015572909 0.029001232 -0.054029915 0.09108997 0.080515966 -0.1281138
-0.08570111 -0.08386083 -0.14465217 -0.12708575 0.061684918 -0.031933676 0.04019708 0.042934336
-0.019136617 0.030806784 -0.011751805 -0.024933888 0.1013925 -0.054736033 -0.14154223 -0.1075045

lstm.bias_hh_l0 f4 [512]
00000000: 7088 46bd f502 c13b 9604 e3bd 4d02 4a3c
00000010: 344a c5bd 768c 01bd 0a53 e83c 8b1a c2bd
00000020: 32dc f7bb 6a41 b1bd 3554 b1bc 0164 3cbd
00000030: 54ea 53bd 36f2 13bd ef84 bc3d 7302 ccbd
00000040: 436c e53a 7902 90bd c03f b9bd 1c9a 0dbd
00000050: 2d3d a8bd dcc7 afbc 9824 de3c ad24 b4bb
00000060: 76c0 f3bd e592 39be 4185 973d fca2 5bbd
00000070: 12c2 cdbc 5def c3bd ca87 3fbe e791 a73c
00000080: 30d1 94bc 08ac 70bd a2e4 09be 6839 af3b
00000090: fd07 033c 6cfd 8bbd ce97 f2bc c32f 21bc
000000a0: 30cd 273c a6e9 0c3d af35 3dbc ca6b 1abc
000000b0: 3a9b e3bd 5194 5cbc 3682 25be 91f4 19bd
000000c0: ad20 c9bc f177 adbd e39b 9fbc d02d 14bb
000000d0: c887 b8bd 7f00 1a3c 8257 a2bc 8bad b9bc
000000e0: e62d 1abd c04a 88bd abf1 12be 4684 8ebd
000000f0: 92ac f5bd 07fe a0bd 4d67 75bd e0a5 02be
00000100: 001d 9f3b b68f e7bd 710e fabc 20f5 943c
00000110: b6ce 7abc a871 95bd b685 f13c a48e 14bd
00000120: b233 0cbc 7e25 3abd 82cd 6fbd e50b eebd
00000130: 7713 91bd 6b0c d43c a19d 85bd ea8a b23b
00000140: de99 5bbd 0c74 95bd 5be1 2e3c 782f 44bc
00000150: 0679 e3bd d3ac e2bd 9d86 dabd 16d1 283d
00000160: 3c13 86ba 8c1d 87bd 70b6 04be 8ac6 0cbe
00000170: 9f74 26be 2130 a33c 1ec1 b3bd e00d e1bc
00000180: 90a8 273d c05f babd 625d ac3d 9ffe 83bd
00000190: defc 91bd 5b85 6bbd 5d25 acbd 0dfd 203d
000001a0: f683 8f3d 2b15 17be 05ff 6ebd 5f8e c5bd
000001b0: 170f c83d 39b9 273d 7b32 19ba 77c2 39bd
000001c0: 7434 edbd 0e72 6a3d 5a36 06be 4156 163d
000001d0: a868 3fbb c5e3 9e3c 8192 003e d203 d9bc
000001e0: f45f 6fbc bc99 08bd aa3f 15be 31af 88bd
000001f0: e4b0 05bb 6cd4 653d 6cce 08be 6e9c 17bd
00000200: 63aa fcbd 6cb4 c2bd 24e4 cebc 4b06 b1bb
00000210: 2a29 c4bd ece2 debd a70b b3bd 3ae4 653d
00000220: 733d 613b 4caa 4a3c 7c4c d7bd c44e 90bb
00000230: 7f0a 05bd 615f 84bd 3804 b2bc 6424 44bd
00000240: c02a 95bd a96f 60bc 2590 49bb 304d de3c
00000250: 438c 03be 10ec d8bd 1610 273d dbac 763c
00000260: 26e4 c8bc 71ee 04be 38e1 c7bc 2262 3fbd
00000270: ca63 b53c e9ca 25bc 15f1 94bd 2706 86bd
00000280: a7f0 3dbc d455 dd3d b40f 08be 68e9 9abc
00000290: 99a9 f1bd ecc6 2abe 6586 cebd 7bdd aabd
000002a0: db1b 81bd f3cb 21bd 7eb2 b03d bf06 a9bd
000002b0: bf43 23bd 6396 83bd 86ad 34be c97e 443c
000002c0: b8a8 b73d 7dea b6bd e6da 86bd 5f6f 233d
000002d0: 611b 92bd 53c1 62bd 35a3 f6bd 167f 33bd
000002e0: b35f acbd 567e b1bc 6866 1abc 3232 78bd
000002f0: 5a14 0a3d d263 4abd ddb5 2abd c809 b6bc
00000300: 5eda d0bc baed 79bd bfbc 493d 8fb6 dabd
00000310: 1cb7 8dbd 95a5 aebd aa28 babc f623 c13c
00000320: 20f8 a63c 44dc 5b3d 95d0 12be 8789 14be
00000330: db8b 1abd 14b0 0cbe caba 1abd 6b21 ba3d
00000340: 8625 16be 6449 743b d0f0 15bd ff9b 90bd
00000350: 306b 6abc d76b 973b 8b3d 17be 2a42 1e3c
00000360: 8646 f4bd 67d6 ff3c c267 9bbd 67db f0bd
00000370: 5709 2abe 8478 c53c 3b74 8ebd 4319 2a3d
00000380: 4563 023d 2a70 573c 480b 2abc b8f7 20be
00000390: f138 b53d 0c45 56bc 099a 803c 30bb 4b3c
000003a0: b8f6 43bc 130e 22be 42eb d7bc 0b50 3d3b
000003b0: d0a0 6a3d a4c7 503d 4592 8d3a 2cc4 ecbd
000003c0: 8f03 7dbd 4345 4abd 4f89 d5bd 4718 04be
000003d0: a4e6 a4bd cd06 a6bc aebc 41bc d10b 943c
000003e0: 9170 c0bd eead 4abd a14f eebd f5b5 343b
000003f0: cc5e 8abd 6514 df3c a6b3 b7bc 7598 51bd
-0.04846996 0.005890245 -0.11084859 0.01232965 -0.09633294 -0.031628095 0.028359909 -0.09477719
-0.007564091 -0.08655055 -0.021646598 -0.04599381 -0.051737145 -0.036119662 0.092050426 -0.09961405
0.0017503578 -0.070317216 -0.090453625 -0.0345708 -0.08214793 -0.021457605 0.027117059 -0.005497536
-0.119019434 -0.18122442 0.07398463 -0.05362223 -0.025116954 -0.09567139 -0.18704143 0.020455314
-0.018166155 -0.05875781 -0.13466123 0.0053474195 0.00799751 -0.06835446 -0.029613402 -0.009838047
0.010241792 0.034402512 -0.011548444 -0.009425113 -0.111135915 -0.013463096 -0.16162953 -0.037586752
-0.024551714 -0.08470143 -0.019483512 -0.0022610314 -0.09010273 0.009399532 -0.019817118 -0.02266576
-0.03764143 -0.066548824 -0.14350002 -0.06958823 -0.11995806 -0.07860952 -0.05991297 -0.12758589
0.004855752 -0.113067076 -0.030524464 0.018183291 -0.015308073 -0.07297069 0.029482704 -0.036268845
-0.008557247 -0.04544591 -0.058545597 -0.116233625 -0.07083791 0.025884828 -0.06524206 0.0054486888
-0.053613536 -0.07297525 0.010673846 -0.011974208 -0.11107068 -0.1106812 -0.10670207 0.041215025
-0.0010229121 -0.065974325 -0.1296022 -0.13747612 -0.16255425 0.01992041 -0.087770686 -0.027472436
0.040932238 -0.09100294 0.08416249 -0.064450495 -0.07128309 -0.057500225 -0.08405564 0.039303828
0.070075914 -0.14754169 -0.058348674 -0.09646296 0.09768503 0.040948126 -0.0005844009 -0.04535147
-0.1158227 0.057237677 -0.13106671 0.036703352 -0.0029206667 0.019395718 0.12555887 -0.02649108
-0.014610279 -0.033349738 -0.14575067 -0.0667404 -0.0020399624 0.056110784 -0.13359994 -0.037014417
-0.12337186 -0.09507069 -0.02525527 -0.0054023615 -0.09578164 -0.10883126 -0.08742457 0.056125857
0.0034368902 0.0123697035 -0.10512635 -0.004403921 -0.032480713 -0.064635046 -0.021730527 -0.047886267
-0.072835445 -0.013698497 -0.0030756083 0.027136415 -0.12846474 -0.105919 0.040786825 0.01505586
-0.024522852 -0.12981583 -0.024399385 -0.046724446 0.02214231 -0.010119178 -0.07272545 -0.06544142
-0.0115930205 0.10807386 -0.1328724 -0.018910125 -0.11799926 -0.16677445 -0.100842275 -0.08343025
-0.06304141 -0.03950114 0.08627795 -0.0825324 -0.03985953 -0.06425168 -0.17644319 0.011993119
0.089677274 -0.08931444 -0.0658472 0.039901134 -0.07134128 -0.05536015 -0.12042848 -0.04382237
-0.08416691 -0.021666687 -0.00942383 -0.060594745 0.033710815 -0.049411602 -0.041677345 -0.022221461
-0.02549475 -0.06101773 0.049252268 -0.106793515 -0.06919691 -0.08527676 -0.022724468 0.023576718
0.020381987 0.05367686 -0.1433738 -0.14505588 -0.037731033 -0.13739043 -0.037775792 0.09088405
-0.14662752 0.003727519 -0.03660661 -0.07061004 -0.014307782 0.00462101 -0.1476957 0.009659329
-0.11927514 0.031230165 -0.075881496 -0.11760598 -0.16605125 0.024105318 -0.06955763 0.041527998
0.031832952 0.013149301 -0.010378666 -0.15719497 0.08848751 -0.0130779855 0.01569845 0.012434766
-0.011960678 -0.15825681 -0.026357297 0.002888682 0.05728227 0.050971642 0.0010801038 -0.11560854
-0.061770972 -0.04938246 -0.1042658 -0.12899886 -0.08051804 -0.020266915 -0.01182477 0.01807204
-0.0939647 -0.04948228 -0.11636282 0.0027574275 -0.06756362 0.027231405 -0.02242453 -0.051170785

lstm.weight_ih_l1 f4 [512, 128]
00000000: 3121 293e 95c9 873b dd58 b6bd 8b1f 8e3c
00000010: ffed 6abd 16b2 ea3d 4126 833c 34ee 693d
00000020: 0438 51be 8496 ffbd d958 883d c2ad 3fbd
00000030: 50f1 87bd 4795 26bd 602d 9e3d ebaf 9f3c
00000040: 412d d93c d5ae 173c 07f6 1b3e 01ac 7e3d
00000050: 9c1d 873d 6243 9dbd d5d8 9f3d 1f06 64bd
00000060: e8fe 8cbd 2727 5d3d eb4e 3bbd ab0d 2d3d
00000070: c1e7 833d 1ed6 2c3d 5534 8d3c eed5 723d
00000080: b722 72bc 97a0 fbbd 2529 09be 49d0 00be
00000090: fbc8 533d b3d5 6e3d d6a6 e8bd 8858 23bd
000000a0: 9492 aabc 9486 14be 4fa9 b03b 6c58 dc3d
000000b0: 9755 7abd fa6b debd be17 9e3c 34c7 57bd
000000c0: fde8 50bd 1ca0 473d 5421 373d b996 70bb
000000d0: c769 3ebd 8cfb 143d 1d33 1a3e 9f25 45bd
000000e0: 9871 a83d 815f 32bd 5fb9 b23d 4252 2e3d
000000f0: 10bb 6b3d 8cbe f4bc c7a9 5c3d 5070 23be
00000100: fe6a febc 4262 ea3d d311 5bbd 469b 30bd
00000110: c440 e3bd d90f 13bc 5489 52bc 41c6 19bd
00000120: ab4d f93c 0009 0d3e 7a12 7d3d 5eb9 d4bd
00000130: 9143 fdbc e550 e7bd d1d9 f3bc 35c2 423d
00000140: b8af 3bbd 675a 193d 43d4 c13d ee25 b3bd
00000150: 0577 e1bb b7ee 93bd 8d7b 183e a9d7 663b
00000160: 2af8 11bd f3f9 aabd ac71 fc3d 79de 4cbd
00000170: d20b 6a3d 23da 31bd 2c82 d1bb f25e abbc
00000180: 6eb5 98bd 59e7 ca3c e9f1 e83c 1796 d73d
00000190: 79ab 81bd f851 f43d 04f4 e93d fabb db3d
000001a0: 37d0 003e 4f6e 0bbc dd36 0ebc a2f7 a8bd
000001b0: a4d0 9fbd faed e53c 8b51 c8bc 9876 403e
000001c0: 99c4 42bd d3e8 13bd fd8e 3ebd 7c52 ac3d
000001d0: 2da1 163d 96f1 ae3d c894 97bd 5735 18bd
000001e0: 1066 1e3c 9918 0a3d d23b a63d 5492 343d
000001f0: 54ff 613d 7238 d6bd 5424 9e3b 69f6 873d
00000200: 3426 8ebb 1e5a 07bd b11d a6bd 470e 95bd
00000210: 2521 7abd af10 4cbd 95fa 13bd e85e 45bd
00000220: b0e2 393d 5b3d 1abd 7a23 383d 9e7e 8f3d
00000230: 58de fabc 2528 fcbc 7326 ab3c de2d e73b
00000240: ef3e e9bc e75a 243d 9ab1 95bc d2f4 793b
00000250: b847 8d3d ed70 5ebc 13f5 5bbc 9111 42be
00000260: 8321 12bd cd1b b5bc a097 603d e890 55bd
00000270: 7950 dfbb fbdb 48bd e95f bfbd 6d24 e93c
00000280: 52ca cfbb dece 823d 88bf 783c 1f8f ab3d
00000290: eb2b 873d ac46 d4bc 5fc5 09bc 74f1 f5bd
000002a0: 46f0 3fbd e4dc cbbd 46f6 8c3d fc99 b5bd
000002b0: 6a55 a3bc 3a34 c0bc ef7f 28bd 45ec c83d
000002c0: d686 403c 7568 f3bc 492f 92bd d5ea 96bd
000002d0: 8c4c 2d3d 3a9b bf3d 39ba bf3d 22aa 123d
000002e0: 7211 a0bd 6fbd fd3c c983 023c 8bed 2fbd
000002f0: be20 cdbb 4992 0dbd 4b38 e0bd 12ed 453d
00000300: 8545 77bd ea2f ed3d 2ea3 d73c 6f78 efbd
00000310: eeb0 963c de88 5c3b e42d 9abd fbd3 463c
00000320: 8bcb e7bc b753 36bd d521 a93d 157d 12bc
00000330: aa6e cd3d f991 643d b515 85bd 4832 8d3c
00000340: 42e0 a5bd 2c42 10bd 3069 21bd 9846 4d3d
00000350: eaea 7c3b faf0 3e3d 6ec3 00bd 4eb8 d5bd
00000360: b8fd d83c d389 46bc b899 8c3b 6d44 c9bd
00000370: 9598 c73d 133e 423d aceb 1fbd 9fce 853c
00000380: 27a3 93bd 16b7 11bb 9f65 25bd 1279 373d
00000390: 7237 503c e06f c5bd 7172 b5bd 97e2 5d3d
000003a0: 58d6 a4bd 23bd 4dbd 90c0 fdbd 7168 a33b
000003b0: 9e18 673b b1e9 143d e89f 8f3c 5f42 4cbc
000003c0: 6672 28bb d47a ce3d 2439 dd3c 6f60 eebc
000003d0: b790 e83d 19fb 253d a15a eebd eb46 83bd
000003e0: 443e 103d e185 e8bd a0d4 833d cb9b d43d
000003f0: ba15 c63d ebc4 e4b9 eecc 3cbd a646 86bd
0.16516568 0.0041439035 -0.08903668 0.017349025 -0.057355877 0.114597484 0.016009452 0.057111934
-0.20431525 -0.124798805 0.06657571 -0.046796568 -0.066378236 -0.040669706 0.07723498 0.019493064
0.026510837 0.009257992 0.1523057 0.062175754 0.065974444 -0.07678868 0.07805029 -0.0556699
-0.06884557 0.053992417 -0.04572956 0.042249363 0.06440688 0.042196386 0.017236868 0.05928605
-0.0147787845 -0.122864895 -0.13394602 -0.12579454 0.05170534 0.05830927 -0.113599464 -0.03987935
-0.020821847 -0.14504462 0.005391277 0.10759053 -0.06111678 -0.10860439 0.01929843 -0.05268021
-0.051003445 0.048736677 0.04470952 -0.0036710931 -0.046487596 0.036372706 0.1505856 -0.04813158
0.08224791 -0.04354811 0.08726763 0.042558916 0.057551444 -0.029876016 0.05387285 -0.15960813
-0.031056877 0.114445224 -0.053483795 -0.04311683 -0.110963374 -0.008975946 -0.012850124 -0.037542585
0.030432543 0.13772964 0.0617852 -0.103869185 -0.030916007 -0.11294726 -0.029766949 0.04754849
-0.045821875 0.03743973 0.09464314 -0.08747469 -0.0068806433 -0.072232656 0.14890881 0.0035223758
-0.03563706 -0.08348455 0.12326369 -0.050016854 0.05714018 -0.043420922 -0.0063936915 -0.020919297
-0.0745648 0.024768518 0.028435664 0.10526674 -0.06331534 0.11929697 0.114234954 0.10729213
0.12579428 -0.008510186 -0.008680073 -0.08250357 -0.07803467 0.028067578 -0.024452945 0.1879524
-0.04755077 -0.03611071 -0.046523083 0.0841417 0.036774803 0.085421726 -0.07401425 -0.037160244
0.009667888 0.033714864 0.081168786 0.044084862 0.05517514 -0.10459985 0.004826108 0.06638796
-0.0043380503 -0.033044927 -0.08111132 -0.07278114 -0.061066765 -0.0498206 -0.036127646 -0.048186213
0.0453822 -0.03765617 0.044955708 0.07006572 -0.0306236 -0.030780861 0.020892357 0.0070550283
-0.028472392 0.040125754 -0.018273164 0.003814031 0.06898445 -0.013576728 -0.0134251295 -0.18952014
-0.03567649 -0.022107983 0.0548321 -0.052140146 -0.006815013 -0.049037915 -0.09344465 0.028459752
-0.006341257 0.06387113 0.015182383 0.083769076 0.066001736 -0.025912605 -0.008408873 -0.12008944
-0.046860002 -0.09954241 0.068829104 -0.08867261 -0.01993819 -0.023462404 -0.041137632 0.0981069
0.011750897 -0.029712895 -0.07137925 -0.073690094 0.04230933 0.09355779 0.09361691 0.035806783
-0.078158274 0.030974118 0.00796599 -0.042951148 -0.0062600067 -0.034563337 -0.10948237 0.04832179
-0.060369033 0.115814045 0.026322927 -0.11692893 0.018394914 0.0033650915 -0.07528284 0.012135501
-0.028295299 -0.04451343 0.08258406 -0.008940955 0.10030873 0.055803273 -0.06498281 0.01723589
-0.080994144 -0.035219356 -0.039406955 0.05011615 0.0038592168 0.046616532 -0.031436376 -0.10435544
0.02648817 -0.012117821 0.0042907856 -0.09827504 0.097458996 0.04742248 -0.039043114 0.016333876
-0.07208853 -0.0022234372 -0.040380117 0.044793196 0.012708532 -0.09640479 -0.088597186 0.05417117
-0.08048695 -0.050229203 -0.12390244 0.0049868156 0.0035262476 0.036355678 0.017532304 -0.012466996
-0.0025702952 0.10082021 0.027004786 -0.029098717 0.11355727 0.04052267 -0.1163838 -0.06410011
0.03521563 -0.113536604 0.064370394 0.10381278 0.09672113 -0.00043634264 -0.046093874 -0.06556444
