SimLoan/res/taiwan/LSTM_effort_modeltaiwan_budget_20_eps_0_5_b_0_2_lt-w_5_0_st-w_0_031111111111111117.pth (torch, 823478 bytes, 12 tensors)

init_interventions f4 [1, 2]
0	0xbb3ba0dc	-0.0028629815
1	0xbda74710	-0.08167851

lstm.weight_ih_l0 f4 [512, 11]
0	0x3c7706c0	0.015077293
1	0xbd51e416	-0.05124291
2	0xbd564760	-0.052314162
3	0x3d8ceedf	0.068814985
4	0x3db90ea6	0.09035997
5	0x3ca51805	0.020153055
6	0xbd744dbd	-0.05964445
7	0x3bc43dd8	0.0059888177
8	0x3dfb2357	0.122626
9	0xbcc5ba8f	-0.02413681
10	0x3c3e360b	0.011609565
11	0x3dd2c0f7	0.102907114
12	0x3dbd4a4f	0.09242689
13	0xbd63229b	-0.055452924
14	0xbc1b2972	-0.009470331
15	0xbd736509	-0.059422527
16	0x3e24a9eb	0.16080444
17	0x3d100bf3	0.035167646
18	0x3bcc3774	0.0062321965
19	0x3d1d69d8	0.03843102
20	0xbd9e9bc3	-0.07744553
21	0xbd3e526b	-0.04646532
22	0xbc7b795f	-0.015348761
23	0xbccc7971	-0.024960252
24	0x3c86ce84	0.016455896
25	0xbbef7c73	-0.0073085367
26	0xbe085568	-0.1331383
27	0x3ca2357b	0.019800892
28	0xbd42166d	-0.04738467
29	0xbb2351ce	-0.0024920586
30	0x3cbac7e9	0.022800403
31	0x3deb7e7c	0.11498734
32	0x3ddb3744	0.107039005
33	0x3db549ac	0.088519424
34	0x3d24b879	0.04021499
35	0xbe1ea858	-0.15493906
36	0xbdd9d1f5	-0.10635749
37	0xbd33801a	-0.04382334
38	0x3c5dfa42	0.013548436
39	0xbdd97d18	-0.10619563
40	0xbdfa1fa2	-0.12213065
41	0xbe17b006	-0.14813241
42	0xbc97d1ad	-0.018532598
43	0x3d350182	0.04419089
44	0xbd460836	-0.048347674
45	0x3cc51958	0.024059936
46	0xbd10e961	-0.035378817
47	0x3dd45ded	0.103694774
48	0x3e1fa9d9	0.15592135
49	0xbd8717b0	-0.06596315
50	0x3d0d19e1	0.03444851
51	0x3d9061d0	0.07049906
52	0x3deea301	0.11652184
53	0xbda94a68	-0.08266145
54	0xbce9e152	-0.028549824
55	0xbc92a597	-0.017901225
56	0x3deeff35	0.11669771
57	0xbd6a9aaa	-0.057276405
58	0xbca83283	-0.020531898
59	0x3d6e8f2e	0.058242016
60	0x3caa3f3d	0.020782107
61	0xbc3db460	-0.011578649
62	0x3da46c70	0.08028495
63	0x3d46404f	0.048401173
64	0xbd652b06	-0.055949233
65	0xbe18a98e	-0.1490843
66	0xbb406777	-0.0029358545
67	0xbe0b94d0	-0.13630986
68	0xbe11aa1f	-0.14225052
69	0xbd8680bf	-0.06567525
70	0xbd40636d	-0.04696982
71	0xbe0a44ec	-0.13502854
72	0xbc74cb06	-0.014940983
73	0xbda0dd7d	-0.078547455
74	0xbe0679a9	-0.13132347
75	0x3daf2dd4	0.08553663
76	0x3e1cd88d	0.15316983
77	0xbd9fc917	-0.07802027
78	0xbd9309a7	-0.071795754
79	0x3aed2e0f	0.0018095392
80	0xbde7e331	-0.1132263
81	0xbd7ffb6a	-0.062495627
82	0xbdd4bf5a	-0.1038806
83	0xbc94a5e2	-0.018145505
84	0xbcfb93a9	-0.030710058
85	0xbd9c3348	-0.076269686
86	0x3b15db69	0.0022866374
87	0x3d1ef0a3	0.038803708
88	0x3d0672f6	0.03282448
89	0xbc8baf88	-0.017051473
90	0x3daa9332	0.083288565
91	0xbd5346dd	-0.051581252
92	0x3dadeadb	0.08492061
93	0xbd0a89cd	-0.033822823
94	0x3b263340	0.0025360137
95	0x3d2987da	0.041389324
96	0xbd072ee1	-0.03300369
97	0x3e762704	0.24038321
98	0x3e59b5d9	0.21260776
99	0xbe0655bc	-0.13118643
100	0x3c32371e	0.010877399
101	0x3d41cd66	0.047315024
102	0x3dcd1ea6	0.10015611
103	0xbb60adac	-0.0034283204
104	0x3caada3e	0.02085602
105	0xbbbeb289	-0.005819623
106	0xbd3cff51	-0.046141926
107	0xbd8963fe	-0.06708525
108	0xbe03b966	-0.12863693
109	0xbde654d2	-0.11246647
110	0x3c9a2454	0.01881615
111	0xbd8b57b0	-0.068038344
112	0x3d16984d	0.03676634
113	0xb93270d8	-0.0001701744
114	0x3db3160d	0.0874444
115	0x3d675dbb	0.056485873
116	0x3d5b37cf	0.05352002
117	0xbd03dc5b	-0.03219257
118	0x3da7c8fd	0.08192632
119	0xbdd50534	-0.10401383
120	0xbe3ff093	-0.18744116
121	0xbcec439c	-0.028840832
122	0x3d3231e6	0.043504618
123	0xbc8d99d3	-0.017285263
124	0x3c9c21a2	0.019059006
125	0xbdc6ed15	-0.097131886
126	0xbd755f42	-0.059905298
127	0xbdea6acf	-0.11446153
128	0xbbe3e72b	-0.0069550476
129	0xbd10608d	-0.035248328
130	0x3db519bc	0.08842799
131	0x3daf19a3	0.08549812
132	0xbd8c9301	-0.06863976
133	0xbdc161f2	-0.0944251
134	0xbde07f5e	-0.10961793
135	0x3c03a9fe	0.008036135
136	0xbd78a43e	-0.06070351
137	0xbdfa695b	-0.12227126
138	0xbd23e8a8	-0.0400168
139	0x39c5caa4	0.00037725747
140	0xbe14569e	-0.14486167
141	0x3dd673e1	0.10471321
142	0x3e32eb6d	0.1747262
143	0xbcd30b7e	-0.025762316
144	0xbd307666	-0.043081664
145	0xbdb7c7cb	-0.08973654
146	0xbd8cb91a	-0.06871243
147	0xbdd42fe2	-0.103606954
148	0xbc031ac6	-0.008001989
149	0x3d394ec5	0.045241136
150	0xbd977586	-0.07395463
151	0xbc98c90d	-0.018650556
152	0xbb8a2158	-0.0042154007
153	0x3d8ea854	0.069657
154	0xbd06ba75	-0.032892663
155	0x3cbc15d6	0.022959631
156	0x39a54c97	0.00031528316
157	0xbc225c5d	-0.009909716
158	0x3dcc3f8c	0.09973058
159	0xbb9a9375	-0.0047172853
160	0x3dcb43b5	0.099250235
161	0x3e01e0a3	0.12683348
162	0x3dd2df12	0.102964535
163	0x3df486f9	0.119398065
164	0x3e54e56f	0.20790647
165	0x3c1cbbdf	0.009566276
166	0x3ddc87c4	0.10768083
167	0x3d82d3e3	0.063880704
168	0xbb7f8868	-0.0038991217
169	0x3add1d73	0.0016869738
170	0x3e015719	0.12630881
171	0x3ca4283a	0.020038713
172	0x3dd69075	0.10476772
173	0xbca22325	-0.019792149
174	0xbda9e6a5	-0.08295945
175	0xbd8147d5	-0.06312529
176	0xbded18a9	-0.11576969
177	0x3d1ef566	0.03880825
178	0xbc602ad8	-0.01368209
179	0x3d7fa213	0.062410425
180	0x3d341a24	0.043970242
181	0x3dba8968	0.091082394
182	0xbd73cd91	-0.059522215
183	0x3d6f4b02	0.058421142
184	0x3d21eed9	0.039534424
185	0xbd95d146	-0.07315306
186	0xbdb08e92	-0.08620943
187	0xbd4c0638	-0.04981062
188	0xbdc68beb	-0.09694656
189	0x3d70d529	0.058797035
190	0xbbb42620	-0.005497709
191	0x3e15163a	0.1455926
192	0x3c81ee04	0.015860565
193	0xbd269257	-0.040666904
194	0x3d328d43	0.04359175
195	0x3d5d8193	0.05407865
196	0x3ccf08b5	0.025272707
197	0xbd474010	-0.04864508
198	0x3db94926	0.09047155
199	0xbca40266	-0.020020675
200	0x3d85a0ec	0.06524834
201	0x3dc68d73	0.09694948
202	0x3e045a36	0.12925038
203	0x3cb6b195	0.022301475
204	0x3c0fd333	0.008778381
205	0x3dcf2c85	0.10115913
206	0x3dc253c4	0.09488633
207	0xbc9f8642	-0.019473199
208	0xbe11d9ea	-0.14243284
209	0xbca01ee3	-0.019545978
210	0xbc629236	-0.013828805
211	0xbdc73c82	-0.09728338
212	0xbc1f40ab	-0.009720008
213	0xbc486f94	-0.012233634
214	0x3c627052	0.013820725
215	0x3a3c0e15	0.0007173729
216	0xbd55e57b	-0.052220803
217	0xbda271e0	-0.07931876
218	0x3e0bed3a	0.13664714
219	0x3e32acac	0.17448682
220	0xbe097987	-0.13425265
221	0xbcfc7b85	-0.030820617
222	0xbcbd42a0	-0.023103058
223	0xbe031757	-0.12801872
224	0x3c306782	0.010766866
225	0xbbeaa3ca	-0.0071606385
226	0xbcf61732	-0.030040357
227	0xbd89d174	-0.06729403
228	0xbe12fb94	-0.14353782
229	0x3c0a4fa8	0.008441843
230	0x3da49206	0.08035664
231	0xbb917a66	-0.00443964
232	0x3def12c0	0.11673498
233	0x3d3f928a	0.04677061
234	0xbc6b4c57	-0.014361463
235	0x3db77d32	0.08959426
236	0x3d3f0092	0.046631403
237	0x3cf5ff62	0.030029003
238	0x3d76abbe	0.06022238
239	0x3dd69bcb	0.10478934
240	0xbdc4b2e4	-0.09604433
241	0xbe460ae6	-0.19340095
242	0x3afa4f5e	0.001909714
243	0xbc9825ad	-0.018572653
244	0xbd903cb4	-0.07042828
245	0x3d7b8696	0.061407648
246	0x3b5e491c	0.0033918088
247	0x3d8bf7a5	0.06834344
248	0x3c9c0f8d	0.019050384
249	0x3db9ca9f	0.0907185
250	0xbd414e76	-0.047193967
251	0xbd2e7fe0	-0.04260242
252	0xbd3fa0d5	-0.04678424
253	0x3dc51ce5	0.09624652
254	0x3d19844e	0.03747969
255	0x3d921b93	0.071341656

lstm.weight_hh_l0 f4 [512, 128]
0	0x3d19f3ec	0.037586138
1	0xbdc6dc7c	-0.09710023
2	0x3cd92e7c	0.026511423
3	0xbd8292b5	-0.063756384
4	0x3d50d3e5	0.05098333
5	0x3dbd2948	0.092363894
6	0xbdf8bd6e	-0.12145506
7	0x3b3c0039	0.0028686656
8	0xbe383858	-0.17990243
9	0x3e3566ee	0.17715046
10	0xbe068ad0	-0.1313889
11	0xbe16d338	-0.14729011
12	0x3e38ff8d	0.18066235
13	0x3c75b5f5	0.014996995
14	0x3e5b524b	0.21418111
15	0xbde37c3e	-0.11107682
16	0xbe534e58	-0.20635355
17	0xbe209ad0	-0.15684056
18	0xbe1ea7c2	-0.15493682
19	0x3e289417	0.16462742
20	0x3d02db95	0.03194769
21	0xbe0eca3c	-0.13944334
22	0xbe6cc33f	-0.23121355
23	0xbe5a2f58	-0.21307123
24	0x3da476e0	0.08030486
25	0x3e0a8af6	0.13529572
26	0x3d020852	0.031746216
27	0xbe16fe05	-0.14745338
28	0xbca88bb8	-0.020574436
29	0xbe084c72	-0.13310412
30	0xbd7bdb4e	-0.061488442
31	0x3d7c2530	0.061558902
32	0xbd2493dc	-0.040180072
33	0xbd7215d7	-0.05910286
34	0x3df78198	0.12085265
35	0xbcdf5d42	-0.027266148
36	0xbde1f5d4	-0.11033216
37	0xbe516176	-0.20447335
38	0x3c83de51	0.01609722
39	0xbc79c454	-0.015244562
40	0xbe125017	-0.14288364
41	0x3ce5d48e	0.028055456
42	0x3e0ecb2e	0.13944694
43	0x3e44ad7d	0.19206806
44	0x3d85c0ea	0.06530936
45	0xbd1f1909	-0.038842235
46	0xbe033511	-0.12813212
47	0x3e0a4f58	0.1350683
48	0xbe3f7319	-0.1869625
49	0x3d7b88f2	0.061409898
50	0x3d05650a	0.03256706
51	0xbe12d55f	-0.14339207
52	0xbd2143be	-0.039371245
53	0x3e119086	0.14215288
54	0xbe1552ec	-0.14582413
55	0xbd16dbf0	-0.036830842
56	0x3df017fb	0.11723324
57	0x3d267fb2	0.040649123
58	0x3e2da15e	0.16956088
59	0x3de6ad54	0.112635285
60	0xbe0a7ef5	-0.13524993
61	0x3daee0df	0.085389845
62	0x3db965ac	0.090525955
63	0x3d19f78d	0.0375896
64	0xbd86d604	-0.06583789
65	0x3df9f19c	0.122042865
66	0xbe4a88e1	-0.19778778
67	0xbe12f680	-0.14351845
68	0xbdb58065	-0.0886238
69	0x3e0d23e5	0.13783224
70	0x3e2ec13e	0.17065904
71	0x3d2cc8e8	0.042183787
72	0xbde40255	-0.11133257
73	0x3e05a6cc	0.13051909
74	0xbe223894	-0.15841895
75	0xbe4b6bb7	-0.19865309
76	0x3dea144b	0.11429652
77	0xbe2150da	-0.15753499
78	0xbe08b461	-0.13350059
79	0x3dd74538	0.10511249
80	0x3de7a930	0.11311567
81	0x3e0971e9	0.1342236
82	0x3d53ff6c	0.05175726
83	0x3e4c0c57	0.19926582
84	0x3e3201a6	0.17383441
85	0xbdde4120	-0.10852265
86	0xbdb0f332	-0.08640136
87	0xbe3c6565	-0.18398054
88	0xbe3cb198	-0.18427122
89	0x3d3d0bb8	0.046153754
90	0x3dc3eaad	0.09566245
91	0x3e067ce5	0.13133581
92	0xbd0569c1	-0.032571558
93	0xbe29e92e	-0.16592857
94	0x3e022172	0.12708071
95	0xbdbcf04d	-0.09225521
96	0xbe2827ce	-0.16421434
97	0xbe3b5b4c	-0.18296546
98	0x3e271ca0	0.16319513
99	0x3d2c1e15	0.042020876
100	0xbca5da1b	-0.020245602
101	0x3e6e55de	0.23274943
102	0x3def708b	0.11691388
103	0x3d97bee9	0.0740946
104	0x3df06756	0.1173846
105	0x3e0c64d3	0.13710336
106	0xbe1e4aa5	-0.15458162
107	0x3d2dec00	0.042461395
108	0xbe13e845	-0.14444073
109	0xbd5dc7aa	-0.054145493
110	0xbd98b391	-0.074561246
111	0xbe13a4ba	-0.14418307
112	0x3df44690	0.11927521
113	0xbe5a9431	-0.21345593
114	0x3d56e283	0.052462112
115	0x3da55ea8	0.08074695
116	0xbdfcd531	-0.123453505
117	0x3da7471f	0.08167862
118	0x3e1f77dd	0.15573068
119	0xbc26bc4d	-0.01017673
120	0x3e57622c	0.21033543
121	0x3e2057e3	0.15658526
122	0xbe5d7f7b	-0.21630661
123	0x3d780ad0	0.060557187
124	0xbddd0ea5	-0.10793809
125	0xbe2b73a2	-0.16743329
126	0x3e13d3b6	0.1443623
127	0xbdd38fe1	-0.10330177
128	0x3e17de32	0.14830855
129	0xbd1fb8fd	-0.038994778
130	0x3e083b5a	0.13303891
131	0xbd4020ed	-0.0469064
132	0x3e1fc08e	0.15600798
133	0x3e06007a	0.1308612
134	0xbce93288	-0.028466478
135	0x3ca1f77a	0.019771326
136	0xbc8908b2	-0.016727779
137	0x3d2dc52b	0.042424362
138	0xbdce9933	-0.10087814
139	0xbd767a5a	-0.060175277
140	0x3dfb8ea0	0.12283063
141	0x3d5bd65f	0.053671237
142	0x3d54c3ac	0.05194442
143	0xbd43bb02	-0.047785766
144	0xbe1252ce	-0.142894
145	0xbe39fa93	-0.18161993
146	0xbe5805c4	-0.2109595
147	0x3e06249b	0.13099901
148	0x3df8e008	0.121521056
149	0xbe00483e	-0.12527558
150	0xbd69a71e	-0.05704414
151	0xbd20d31b	-0.039263826
152	0x3df787db	0.12086459
153	0x3e4bdb49	0.1990787
154	0x3d4ad507	0.049519565
155	0xbdcb4641	-0.09925509
156	0xbd2e99d4	-0.04262717
157	0xbdf41104	-0.11917308
158	0xbb45c5ef	-0.0030177792
159	0x3e45a87e	0.19302556
160	0xbda55e0e	-0.0807458
161	0xbe1dc59f	-0.15407418
162	0x3dab980d	0.08378611
163	0xbcb7b900	-0.022427082
164	0xbe0d0bcc	-0.13774031
165	0xbe2f2682	-0.17104533
166	0xbcdcefe5	-0.02696986
167	0xbd971d57	-0.07378643
168	0xbdc5f821	-0.096664675
169	0x3d2cc382	0.04217864
170	0x3d82dc29	0.063896485
171	0x3d71875c	0.05896698
172	0x3d73c08c	0.0595098
173	0xbd08906b	-0.033340853
174	0xbdcc3705	-0.09971432
175	0x3e17af21	0.148129
176	0xbd8469db	-0.06465503
177	0x3d8e2408	0.06940466
178	0x3cd7d23f	0.02634537
179	0xbe333d5c	-0.17503875
180	0xbd6fd8aa	-0.058556236
181	0x3d5aa6d9	0.053381775
182	0xbde30c64	-0.11086348
183	0xbd967013	-0.07345595
184	0x3cd621c7	0.026139153
185	0x3d3d881c	0.046272382
186	0x3d4da992	0.050210543
187	0x3d2a51ec	0.041582033
188	0xbda5a7c0	-0.080886364
189	0x3db6bb52	0.08922447
190	0x3da9a5e8	0.08283597
191	0x3cb899de	0.022534307
192	0xbe2b34c2	-0.16719344
193	0x3de291d6	0.11062972
194	0xbd3d0f5c	-0.046157226
195	0xbbb23d69	-0.0054394496
196	0xbd86eb89	-0.065878935
197	0x3b6f68d1	0.0036530981
198	0x3da38e93	0.07986178
199	0x3d58f0d9	0.052964065
200	0xbd4dfa76	-0.050287686
201	0x3b76c70e	0.0037655267
202	0xbdf2b3e5	-0.118507184
203	0xbe20adaf	-0.15691255
204	0x3da70b6c	0.081564754
205	0xbb058121	-0.0020371156
206	0xbd78ef64	-0.060775176
207	0x3e266728	0.16250288
208	0x3dce2ef1	0.10067547
209	0x3d80034f	0.06250631
210	0x3d5f5219	0.054521654
211	0x3dceb5a5	0.1009324
212	0x3d4cc1f3	0.049989652
213	0xbdf5875b	-0.11988708
214	0xbe4d8657	-0.20070778
215	0xbda4a287	-0.08038812
216	0xbe0b33dd	-0.13594003
217	0x3db7a198	0.089663684
218	0x3d91b60d	0.071148016
219	0x3e2c8aea	0.16849867
220	0xbe4e210d	-0.20129795
221	0xbcdaf4e1	-0.026728095
222	0x3d46648b	0.04843573
223	0xbe1406aa	-0.14455667
224	0xbdff82ab	-0.12476095
225	0xbd2dbe53	-0.042417835
226	0x3e011738	0.12606514
227	0x3d0495a1	0.03236926
228	0xbe10e87d	-0.14151187
229	0x3d8f188e	0.06987105
230	0x3d43e75c	0.047828063
231	0x3da67659	0.08128042
232	0x3e5995b3	0.21248512
233	0x3d31de40	0.043424845
234	0xbdfc891d	-0.1233084
235	0x3de93a91	0.11388124
236	0xbd67b3af	-0.056567844
237	0xbddfe705	-0.10932735
238	0xbd8e8ef1	-0.06960858
239	0xbde0fb40	-0.10985422
240	0x3d7b680d	0.061378527
241	0xbe1058a7	-0.14096318
242	0x3d730532	0.059331127
243	0x3da16e55	0.07882372
244	0xbd9b89d1	-0.07594646
245	0x3e2cafe6	0.16863975
246	0x3e18371a	0.1486477
247	0xbe077bfb	-0.13230889
248	0x3d5144b4	0.05109091
249	0x3dbd585d	0.092453696
250	0xbcf0bfe0	-0.029388368
251	0x3da70b94	0.08156505
252	0xbdd33b9c	-0.10314104
253	0xbe08fa1e	-0.13376662
254	0x3d7adb94	0.061244562
255	0xbca249bf	-0.019810556

lstm.bias_ih_l0 f4 [512]
0	0x3e02106f	0.12701581
1	0x3cf512cf	0.029916195
2	0x3c630efb	0.013858552
3	0xbda3d2cc	-0.07999191
4	0x3b624066	0.0034523248
5	0x3d79260c	0.0608273
6	0xbe0e14bb	-0.13875096
7	0xbdaf0a94	-0.085469395
8	0xbdc0e34b	-0.09418353
9	0xbc907be1	-0.017637195
10	0xbac777c6	-0.001521819
11	0xbdce6b22	-0.10079028
12	0xbd61b86c	-0.05510752
13	0x3d68467c	0.056707844
14	0x3cdd59ad	0.0270203
15	0x3df6dc3f	0.12053727
16	0xbda31887	-0.079636626
17	0xbbd48ad2	-0.0064862752
18	0xbc4b696c	-0.012415271
19	0xbe2421df	-0.16028546
20	0xbd56772c	-0.052359745
21	0x3ded57e6	0.11589031
22	0xbd9ae5e9	-0.07563383
23	0xbd3da1c4	-0.04629685
24	0x3c56f210	0.013119236
25	0x39e9fbeb	0.00044628917
26	0x3d01aee7	0.03166094
27	0xbc0c5a74	-0.008566488
28	0xbd0079bc	-0.031366095
29	0x3ce9f836	0.028560739
30	0xbe03155b	-0.12801115
31	0x3e139bcb	0.14414899
32	0xbd802df3	-0.06258764
33	0xbe1051ff	-0.14093779
34	0xbe20ad17	-0.15691029
35	0x3cae0b87	0.021245731
36	0xbd138c86	-0.036022685
37	0x3dee7b0e	0.116445646
38	0xbc3d1e98	-0.011542939
39	0x3d400da7	0.04688802
40	0x3c98cf62	0.018653575
41	0x3b346965	0.002752864
42	0xbd1964fc	-0.03744982
43	0xbde833bb	-0.11337992
44	0xbdd6f708	-0.10496336
45	0xbd3a227b	-0.04544304
46	0x3e0d0a61	0.1377349
47	0xbc144851	-0.009050445
48	0xbd63e3c6	-0.055637144
49	0xbd381149	-0.04493836
50	0x3d61ef9c	0.05516015
51	0x3d406f53	0.046981167
52	0x3c7a9a86	0.01529563
53	0xbd762d8a	-0.060102023
54	0x3d0b9a80	0.03408289
55	0xbda37c0b	-0.07982644
56	0xbdb9a644	-0.09064916
57	0xbdb213c8	-0.08695179
58	0xbd346c8e	-0.04404884
59	0xbcca359c	-0.024683766
60	0xbe01cb08	-0.12675107
61	0xbcee998e	-0.029125955
62	0x3e29f0dc	0.16595787
63	0xbd0b4ac6	-0.034006856
64	0x3d8f5b87	0.06999879
65	0xbcd1b4f5	-0.025598982
66	0xbdf9d53d	-0.12198875
67	0xbdb3588c	-0.08757123
68	0x3d920fce	0.07131921
69	0x3ae83c65	0.0017718194
70	0x3c331d2b	0.010932247
71	0xbd9e3b6f	-0.0772618
72	0xbd961eae	-0.073300704
73	0x3c79e80c	0.015253078
74	0xbbc60244	-0.0060427506
75	0xbc23f16c	-0.01000629
76	0xbdc0a6b6	-0.094067976
77	0x3e01fcef	0.12694143
78	0xbd8f6a6d	-0.07002721
79	0xbd8a3717	-0.06748789
80	0xbd80d3c6	-0.062903926
81	0xbd39b143	-0.045335066
82	0x3d0ec165	0.034852404
83	0xbde2266c	-0.11042485
84	0xbd55eba8	-0.052226692
85	0xbc09dd8d	-0.008414638
86	0xbb97ad04	-0.0046287794
87	0x3d429b61	0.047511462
88	0x3d58a9d2	0.05289633
89	0x3df1ffda	0.11816378
90	0xbded20f1	-0.11578549
91	0x3d1a4a0a	0.037668265
92	0xbe15d4f9	-0.14632024
93	0x3d07b01c	0.033126935
94	0x3cac2929	0.02101572
95	0xbd9119dd	-0.07085011
96	0xbd6a7083	-0.057236206
97	0xbdb23c80	-0.08702946
98	0xbc23e2e8	-0.010002829
99	0xbdc59aa2	-0.096486345
100	0x3d4fdea4	0.050749436
101	0x3b4a8fd7	0.003090849
102	0xbd67a93a	-0.05655787
103	0x3cfacb07	0.03061439
104	0xbdcfd3fc	-0.10147855
105	0xbe1fab36	-0.15592656
106	0x3df98d23	0.12185123
107	0x3d9087c1	0.07057143
108	0xbc81c679	-0.01584171
109	0xbe0eb8f0	-0.13937736
110	0xbd4edfef	-0.05050653
111	0xbd84a637	-0.064770155
112	0x3e1553a5	0.14582689
113	0x3dcd66be	0.10029362
114	0x3ca26c80	0.019827127
115	0x3e053578	0.13008678
116	0xbc4c9912	-0.012487667
117	0xbbb451c5	-0.0055029118
118	0xbd6f51d5	-0.05842765
119	0xbdaaaee0	-0.08334136
120	0x3e076a5b	0.13224165
121	0xbcf7ccab	-0.03024896
122	0x3db73df8	0.089473665
123	0x3c415c5d	0.011801806
124	0xbd6d94a1	-0.05800307
125	0xbe23db7f	-0.160017
126	0xbd83707e	-0.064179406
127	0x3d5c4332	0.05377502
128	0x3e2c5772	0.16830233
129	0x3cddc692	0.027072225
130	0xbdd94f9d	-0.10610888
131	0xbd208134	-0.039185718
132	0x3e5a153e	0.21297166
133	0x3cebddf4	0.028792359
134	0xbd860684	-0.065442115
135	0xbe185b28	-0.14878523
136	0xbe12be59	-0.14330424
137	0x3db8be54	0.09020677
138	0x3e20085c	0.15628189
139	0xbc0cf12d	-0.008602423
140	0xbc344b0a	-0.011004219
141	0xbd706a85	-0.058695335
142	0x3ddafa2a	0.10692246
143	0x3dd4c502	0.10389139
144	0x3ddca5fb	0.10773846
145	0x3db6ac6e	0.08919607
146	0x3e15225a	0.14563885
147	0xbe07ffe2	-0.13281205
148	0xbdc635ca	-0.09678228
149	0x3ba0177a	0.004885611
150	0xbb83c683	-0.004021467
151	0x3ceca24d	0.028885985
152	0x3dae3bc9	0.08507497
153	0x3de29276	0.110630915
154	0xbd934f4c	-0.07192859
155	0xbda0b4ee	-0.078470096
156	0x3bcaa3ad	0.0061840625
157	0x3d284807	0.041084316
158	0xbe264363	-0.16236643
159	0x3ded5349	0.11588151
160	0xbb921617	-0.0044581997
161	0xbe1e0c87	-0.15434466
162	0xbd3b3977	-0.0457091
163	0xbe076301	-0.1322136
164	0xbc864115	-0.016388455
165	0x3d61c4d1	0.05511934
166	0xbe19245e	-0.14955279
167	0x3d14e63b	0.036352377
168	0xbd740638	-0.059576243
169	0xbd7cdeee	-0.06173604
170	0xbdb3926b	-0.087681614
171	0xbd2d108d	-0.042252112
172	0xbe0e4f60	-0.13897467
173	0xbd883a64	-0.06651762
174	0x3d97f701	0.07420159
175	0x3dc4ab80	0.096030235
176	0x3e236f95	0.15960534
177	0xbd1302e0	-0.035891414
178	0x3d86049f	0.0654385
179	0x3e182206	0.14856729
180	0xbdda23a3	-0.106513284
181	0xbdd1aea8	-0.10238391
182	0x3dea1265	0.1142929
183	0x3b0c2825	0.0021386233
184	0xbd85bd85	-0.065302886
185	0xbda8ac30	-0.08235967
186	0x3df6b68b	0.12046536
187	0xbc26c69b	-0.010179187
188	0x39ba1c6e	0.00035497866
189	0x3de4b440	0.111671925
190	0x3e4699f9	0.19394673
191	0xbdcf523f	-0.10123109
192	0x3d8e7c53	0.06957307
193	0x3cfa0a0f	0.030522374
194	0xbddd9afe	-0.10820578
195	0xbd6d2011	-0.05789191
196	0x3dec14ad	0.11527381
197	0xbe125980	-0.14291954
198	0x3dc33b22	0.09532763
199	0xbdde7b3e	-0.1086335
200	0xbc96c50c	-0.018404506
201	0x3da9c1f4	0.08288947
202	0xbe1f6c6f	-0.15568708
203	0x3e00a31b	0.1256222
204	0xbd11ac3e	-0.035564654
205	0x398d2d96	0.0002692758
206	0xbe41c74d	-0.18923683
207	0x3cce3371	0.025171014
208	0xbd531160	-0.051530242
209	0xbd50183d	-0.050804365
210	0x3e2aedcf	0.1669228
211	0xbdc38af3	-0.09547987
212	0xbdc9e841	-0.09858752
213	0xbdad97ca	-0.08476217
214	0xbe30e5a3	-0.172751
215	0x3c0d9c3d	0.008643207
216	0x3c59eb80	0.0133007765
217	0x3d9f2a2b	0.07771715
218	0xbdfd7f6a	-0.12377818
219	0x3cac91f8	0.021065697
220	0xbdc9681d	-0.09834311
221	0xbe0f2367	-0.13978349
222	0x3d66ea7b	0.05637596
223	0xbd9df03f	-0.07711839
224	0xbe3035a3	-0.17207961
225	0x3d46b3f3	0.048511457
226	0xbd8833c0	-0.066504955
227	0xbdfa032c	-0.12207636
228	0xbcc322e1	-0.023820342
229	0x3c847908	0.016170993
230	0xbc1aee8d	-0.009456289
231	0xbae8c275	-0.0017758148
232	0xbd8d3065	-0.06893996
233	0xbe1674fc	-0.14693063
234	0x3d992264	0.074772626
235	0xbdaf6e1e	-0.08565925
236	0xbd9ec32f	-0.07752072
237	0xbe050fea	-0.12994352
238	0x38483f79	4.774283e-05
239	0x3e10cc5d	0.14140458
240	0x3dcae12b	0.09906229
241	0x3d6202ab	0.055178326
242	0xbc0cacf9	-0.008586162
243	0x3db088e6	0.08619861
244	0xbdb70ef2	-0.089383975
245	0x3e33199c	0.17490238
246	0x3dbe4d9f	0.09292149
247	0xbe147d97	-0.14501034
248	0x3dba7fac	0.09106383
249	0x3c6c2a67	0.014414406
250	0x3dc6a2c4	0.09699014
251	0x3e3a6535	0.1820267
252	0x3cfd8a9f	0.030949889
253	0xbdbfe3f2	-0.09369649
254	0x3de822bf	0.11334752
255	0x3c9c9ed5	0.019118706

lstm.bias_hh_l0 f4 [512]
0	0x3dbc1b0c	0.09184846
1	0x3da4146e	0.08011709
2	0xbc79b325	-0.015240465
3	0xbc2b99af	-0.010473653
4	0x3d898652	0.06715073
5	0x3d131ca5	0.03591599
6	0xbcd6287a	-0.026142348
7	0xbda90e84	-0.08254722
8	0xbd23ec22	-0.040020116
9	0x3cb161c5	0.021653065
10	0x3d6ed8d5	0.058312256
11	0xbe16f3fd	-0.14741512
12	0xbda46d44	-0.08028653
13	0xbd97fab6	-0.07420866
14	0x3decd72d	0.11564479
15	0x3e05b01f	0.13055466
16	0xbd2089ea	-0.039194025
17	0xbd1fe5b7	-0.039037433
18	0x3d823ea3	0.06359603
19	0xbdfadf1a	-0.122495845
20	0xbd8c1cf9	-0.068414636
21	0x3dc4c6e3	0.09608247
22	0xbd7d5b8c	-0.061854884
23	0x3ce8b40a	0.028406162
24	0xbd3487f1	-0.044074956
25	0xbc32bdca	-0.010909507
26	0x3c45d2be	0.012074171
27	0xbc8da4e6	-0.017290544
28	0xbdb011fe	-0.08597182
29	0xbcffccc5	-0.031225571
30	0xbdb58ca0	-0.08864713
31	0x3da5a48f	0.08088028
32	0xbc205e29	-0.0097880745
33	0xbca5bbbe	-0.020231124
34	0xbcc110fc	-0.02356767
35	0xbe0506d2	-0.12990883
36	0xbdbd398f	-0.09239494
37	0xbd4d252d	-0.05008428
38	0xbd830b88	-0.06398684
39	0x3d532f48	0.051558763
40	0xbda198c3	-0.07890465
41	0xbc15cdb1	-0.009143279
42	0xbe0e0f56	-0.13873038
43	0xbd32ab1a	-0.043620206
44	0xbcbdb781	-0.02315879
45	0xbd03a0b4	-0.03213568
46	0xbd165002	-0.036697395
47	0xbc2d6a97	-0.010584495
48	0x3d025934	0.031823352
49	0xbc0a45b8	-0.008439474
50	0xbc9a9f63	-0.01887483
51	0x3d74e2a4	0.059786454
52	0xbda14c66	-0.078759
53	0x3ce42fac	0.027854763
54	0x3d7d207a	0.06179855
55	0xbd4a0fea	-0.049331583
56	0xbdab7366	-0.0837162
57	0xbdc58fb7	-0.09646552
58	0x3c4952a3	0.012287769
59	0xbbdf9e82	-0.0068243155
60	0xbbbbf41f	-0.0057358886
61	0x3d26d7c6	0.04073312
62	0x3d4b9f13	0.049712252
63	0xbe08227e	-0.13294408
64	0x3db4061f	0.0879023
65	0x3dd04bd2	0.101707116
66	0xbd81ec86	-0.063439414
67	0x3c466304	0.012108568
68	0x3ddd0481	0.10791875
69	0xbc529405	-0.012852673
70	0x3df07ba5	0.11742333
71	0xbe08d06c	-0.13360757
72	0xbe25ded7	-0.16198288
73	0x3d4c2637	0.049841132
74	0xbdad36a6	-0.08457689
75	0x3de3b314	0.11118141
76	0xbe288af5	-0.16459258
77	0x3dcc28f4	0.09968749
78	0xbdee29d6	-0.11629073
79	0xbd972c5f	-0.0738151
80	0xbc828e44	-0.015936978
81	0xbd9c5041	-0.07632495
82	0xbc05b742	-0.008161368
83	0x3c038ce5	0.008029197
84	0xbd6c5af5	-0.05770393
85	0xbd5561f2	-0.05209536
86	0xbd1ef63e	-0.038809054
87	0x3de076a6	0.109601304
88	0x3cf7d9d0	0.030255228
89	0x3e025a7a	0.12729827
90	0xbe173f39	-0.14770211
91	0x3d2cd2b1	0.04219312
92	0xbd8214c4	-0.06351617
93	0xbdaed5f1	-0.085369
94	0x3d94b10d	0.07260332
95	0xbdfbbc11	-0.1229173
96	0xbe021781	-0.12704279
97	0x3d8af100	0.06784248
98	0xbe10c72d	-0.1413848
99	0xbe17b650	-0.1481564
100	0xbd571b15	-0.05251606
101	0x3bb3f8cc	0.0054923054
102	0xbdf5195b	-0.11967727
103	0x3d55d718	0.052207083
104	0xbd80b3f8	-0.06284326
105	0xbba8f253	-0.0051558404
106	0x3d6814a1	0.0566603
107	0x3b79f2ea	0.0038139173
108	0x3b252759	0.0025200455
109	0xbd9c3384	-0.07627013
110	0xbd786727	-0.06064525
111	0xbd25b675	-0.040457208
112	0x3dcb3ffd	0.09924314
113	0x3dbe5b37	0.092947416
114	0xbce4b270	-0.027917117
115	0x3de8c497	0.113656215
116	0xbe27ac48	-0.16374314
117	0x3c152cce	0.009104921
118	0x3da8e4cf	0.08246767
119	0x3b359ec5	0.0027713042
120	0xbc74ed22	-0.014949115
121	0x3de268c4	0.11055139
122	0x3cab679f	0.020923434
123	0x3de8d98f	0.11369621
124	0xbd52240a	-0.0513039
125	0xbe0f9cbc	-0.14024633
126	0xbd93a0c5	-0.07208399
127	0x3d69ba83	0.057062637
128	0x3e344661	0.17604972
129	0x3d241646	0.040060304
130	0xbdd9a749	-0.1062761
131	0xbd1c2586	-0.038121723
132	0x3e28565b	0.16439192
133	0x3d203951	0.03911716
134	0xbe110861	-0.14163353
135	0xbdd2d380	-0.10294247
136	0xbcde963c	-0.027171247
137	0x3d4591ad	0.04823463
138	0x3d62e496	0.055393778
139	0xbdfca962	-0.12336995
140	0xbbc8e39b	-0.0061306483
141	0xbdfc1ee2	-0.12310578
142	0x3d4ef738	0.050528735
143	0x3e17fe44	0.14843088
144	0x3e047ea6	0.12938938
145	0x3e18fc32	0.14939955
146	0x3bebfa5d	0.0072014765
147	0xbdba1de8	-0.090877354
148	0xbccef79a	-0.02526455
149	0x39f41e82	0.00046562037
150	0xbba5c1d5	-0.005058507
151	0x3c012088	0.007881291
152	0x3dc572d8	0.09641045
153	0x3e3b32d5	0.1828111
154	0xbd8e7b2b	-0.06957086
155	0xbd64b744	-0.05583884
156	0x3d126803	0.035743725
157	0x3e0d5b46	0.1380435
158	0xbe074523	-0.13209967
159	0x3e0f5a6e	0.1399934
160	0xbe2aa1b8	-0.16663253
161	0xbde8b211	-0.113620885
162	0xbd947456	-0.07248752
163	0xbc28e079	-0.010307425
164	0xbd8f261e	-0.06989692
165	0x3dd93b1e	0.10606979
166	0xbe0db220	-0.1383748
167	0x3d86eb66	0.065878674
168	0xbdfcfa1a	-0.123523906
169	0x3c65153a	0.013982112
170	0xbdfba6d7	-0.122876815
171	0x3c86caae	0.016454067
172	0xbda98a64	-0.08278349
173	0xbcd95efb	-0.026534548
174	0x3e2543a5	0.16139086
175	0x3c9e251c	0.019304805
176	0x3dd451b1	0.10367144
177	0xbd19d5c6	-0.037557386
178	0x3d67b9a0	0.05657351
179	0x3dc07b8f	0.09398567
180	0xbdb8ed41	-0.090296276
181	0xbca3b263	-0.019982522
182	0x3da0dd0f	0.078546636
183	0xbe0c94ed	-0.13728686
184	0xbe2f9cb1	-0.17149617
185	0xbd339876	-0.04384657
186	0x3ca98553	0.020693457
187	0xbdc74759	-0.09730405
188	0xbdb0b59e	-0.08628391
189	0x3db6788f	0.089097135
190	0x3e51393f	0.20431994
191	0xbc42eebd	-0.01189774
192	0x3e247ed7	0.1606401
193	0x3e26a23e	0.16272828
194	0xbd77dc58	-0.06051287
195	0xbdb71b38	-0.089407384
196	0x3c42e73a	0.011895949
197	0xbccd14c6	-0.02503432
198	0x3c5fa156	0.013649305
199	0xbde5b22e	-0.11215626
200	0xbe07fc11	-0.1327975
201	0x3dfabdae	0.1224321
202	0xbd86fd38	-0.065912664
203	0x3d6d281a	0.057899572
204	0x3cde6a1b	0.027150204
205	0x3d48704d	0.048935223
206	0xbe37d9ed	-0.17954226
207	0x3d1faab0	0.03898114
208	0xbdde1d15	-0.10845391
209	0xbd17535e	-0.03694474
210	0x3cea9333	0.028634643
211	0xbcd655ea	-0.026164014
212	0xbd8637b6	-0.06553595
213	0xbe00f4b9	-0.12593354
214	0xbe037928	-0.12839186
215	0x3e1ed8e6	0.15512428
216	0x3dcd8ea7	0.100369744
217	0x3d5d26ba	0.05399201
218	0xbe3591f6	-0.17731461
219	0x3e1a08ea	0.15042463
220	0xbc815657	-0.01578824
221	0x3ccdfcb3	0.02514491
222	0x3daa4a47	0.083149485
223	0xbd68352e	-0.05669134
224	0xbda35f24	-0.07977131
225	0x3d98403f	0.07434129
226	0xbd2161a8	-0.039399773
227	0xbd4f07c9	-0.050544534
228	0x3dc3b1c8	0.095553935
229	0x3857b55c	5.14289e-05
230	0xbd2736b5	-0.040823657
231	0x3c9eba9f	0.019376097
232	0xbd071cd2	-0.03298647
233	0x3caf79d1	0.021420391
234	0x3dfca718	0.12336558
235	0xbd94d6b7	-0.07267516
236	0x3cdee38b	0.02720811
237	0xbe06fbe1	-0.13182022
238	0x3a43757a	0.0007456165
239	0x3de90d21	0.11379457
240	0x3dbda4ba	0.09259935
241	0x3dd866c7	0.10566478
242	0xbdf96039	-0.12176556
243	0x3dc5d69e	0.096600756
244	0xbe1e2e2a	-0.15447298
245	0x3de1071b	0.109876834
246	0x3dea77db	0.11448642
247	0xbe1dac8c	-0.15397853
248	0x3d61581e	0.055015676
249	0x3e0c7fc9	0.13720621
250	0x3e08a71b	0.13344996
251	0x3d37af4b	0.044844907
252	0x3d69312c	0.05693166
253	0xbd972bbe	-0.0738139
254	0xbb100937	-0.0021978149
255	0xbafb49ab	-0.0019171735

lstm.weight_ih_l1 f4 [512, 128]
0	0xbbeb2243	-0.007175715
1	0x3d8324ad	0.0640348
2	0xbd83534e	-0.064123735
3	0x3c8db14a	0.017296452
4	0xbd9f0c7c	-0.07766053
5	0xbcdbaa41	-0.026814582
6	0x3dac6a0f	0.084186666
7	0xbd8e00ab	-0.06933721
8	0x3db86ea0	0.09005475
9	0xbdf30ab0	-0.11867273
10	0x3e121c59	0.14268626
11	0x3ddf7a91	0.109120496
12	0xbe171b51	-0.14756514
13	0xbdedc2cd	-0.11609421
14	0xbd8169d3	-0.063190125
15	0x3e0085d8	0.12551057
16	0x3d72a5ab	0.059240025
17	0x3df92783	0.121657394
18	0x3e12beae	0.14330551
19	0xbdca2747	-0.09870773
20	0xbdd8072f	-0.10548245
21	0x3e40604e	0.18786737
22	0x3ddc5564	0.107584745
23	0x3c4c167d	0.0124565335
24	0xbe2a15ac	-0.1660983
25	0xbe29b00d	-0.16571064
26	0xbdeb9f06	-0.11504941
27	0x3d61e26c	0.055147573
28	0x3e256316	0.1615108
29	0x3e27946e	0.16365215
30	0xbc4d99c0	-0.012548864
31	0xbe119f81	-0.14221002
32	0x3d90fff4	0.07080069
33	0x3da4c11c	0.08044645
34	0xbdcd1134	-0.10013047
35	0x3cb8c4fe	0.02255487
36	0x3cd19c61	0.025587263
37	0x3de8f609	0.113750525
38	0xbdd15e8f	-0.10223114
39	0x3e6893af	0.22712587
40	0x3e113ffb	0.14184563
41	0x3c838595	0.016054908
42	0x3c9ec808	0.019382492
43	0x3b056f7c	0.002036064
44	0xbd24f5bb	-0.04027341
45	0xbc40c2c1	-0.011765183
46	0x3e32ada0	0.17449045
47	0xbe1e2b85	-0.15446289
48	0x3d9bf53a	0.07615133
49	0xbde738db	-0.11290141
50	0xbcf7c474	-0.030245043
51	0x3dfd0e8a	0.12356289
52	0x3dcbea21	0.09956766
53	0xbd6ae2c7	-0.057345178
54	0x3e4ec1b0	0.20191073
55	0x3d028de2	0.03187359
56	0xbc886fc8	-0.016654864
57	0x3c865776	0.016399126
58	0xbcf8f2e7	-0.030389262
59	0xbcc03dbb	-0.023466935
60	0x3deea637	0.11652797
61	0xbe049262	-0.12946466
62	0xbd161b07	-0.03664687
63	0xbdd34e63	-0.103176855
64	0x3dacae3e	0.084316716
65	0xbe114f08	-0.14190304
66	0x3dc5cc64	0.09658125
67	0x3e02baf1	0.12766625
68	0x3e3900a4	0.1806665
69	0xbd50a84c	-0.05094175
70	0xbdb6420a	-0.08899315
71	0x3c4b6550	0.0124142915
72	0x3dc1ba2e	0.09459339
73	0xbd5bb8e5	-0.053643126
74	0x3d94171d	0.07230971
75	0x3e3f4454	0.18678409
76	0xbd47b0b1	-0.04875249
77	0x3d6e519a	0.05818329
78	0x3dc3e1e4	0.095645696
79	0xbe225995	-0.15854485
80	0xbe02c3cd	-0.12770005
81	0xbd7ea190	-0.062165797
82	0xbd0d3c5b	-0.034481388
83	0xbdd89219	-0.10574741
84	0xbdf0cb5d	-0.117575385
85	0xbbb53fc0	-0.0055312812
86	0x3df6f515	0.120584644
87	0x3e3b9b8a	0.18321052
88	0x3e19e7ba	0.15029803
89	0xbdd142dc	-0.102178305
90	0x3a88eaa6	0.0010445907
91	0xbd694c4a	-0.05695752
92	0x3deed267	0.11661225
93	0x3d4cf3ad	0.050037075
94	0xbd2da067	-0.0423893
95	0x3e102b6a	0.14079061
96	0x3d952bcd	0.07283745
97	0x3e3612e6	0.17780647
98	0x3c4fb97e	0.012678502
99	0xbd716f2e	-0.05894392
100	0x3cc83801	0.024440767
101	0xbe03d232	-0.12873152
102	0xba864f83	-0.0010247085
103	0xbdb5cde8	-0.08877164
104	0xbda31049	-0.079620905
105	0xbe89912c	-0.2686857
106	0x3e3aab52	0.18229416
107	0xbe11ad1f	-0.14226197
108	0x3d3b3f25	0.045714516
109	0x3d010f90	0.031508982
110	0x3e076206	0.13220987
111	0x3d40b433	0.04704685
112	0xbe022da8	-0.12712729
113	0x3e1c5b50	0.15269208
114	0xbd0ed9d4	-0.034875706
115	0xbda30d79	-0.07961554
116	0x3cd05f71	0.025436135
117	0xbe3c3572	-0.18379763
118	0xbde64de7	-0.112453274
119	0x3d5c938c	0.05385165
120	0xbe315557	-0.17317711
121	0xbe3b5a86	-0.1829625
122	0x3d65c969	0.056100283
123	0xbdac7b53	-0.0842196
124	0x3e377b0f	0.17918037
125	0x3e118a13	0.14212827
126	0xbe153010	-0.14569116
127	0x3cfa7b3e	0.030576345
128	0x3d334604	0.043767944
129	0x3d0e30d4	0.034714535
130	0x3de1acd3	0.11019292
131	0xbd54296b	-0.05179731
132	0xbd65baaa	-0.05608622
133	0x3d15b574	0.03655
134	0xbe4556ae	-0.19271347
135	0x3d3e6d6f	0.046491083
136	0xbca06e15	-0.019583741
137	0x3d8ac5b7	0.06775992
138	0xbe4d994a	-0.20078006
139	0xbdd5cd8f	-0.10439598
140	0x3e27b5e8	0.16377985
141	0x3e38a162	0.18030313
142	0x3dd14118	0.10217494
143	0x3cfdeacb	0.030995747
144	0xbde1d17f	-0.11026286
145	0xbcfe291c	-0.031025462
146	0x3cd8cb15	0.026464025
147	0x3da0175a	0.07816954
148	0x3e32ab1d	0.17448087
149	0xbd8631f1	-0.06552494
150	0xbdd761de	-0.105167136
151	0xbdb63779	-0.08897299
152	0x3888fbdc	6.531898e-05
153	0x3dc5cbb5	0.09657995
154	0x3e2f84c2	0.17140487
155	0xbd6fa296	-0.058504663
156	0x3dd64919	0.10463161
157	0xbcc4bb58	-0.024015114
158	0xbd1cc3ca	-0.038272657
159	0xbd57d602	-0.052694328
160	0xbd8567f2	-0.065139666
161	0xbe5660a0	-0.20935297
162	0x3e2772ec	0.16352433
163	0xbe1decf2	-0.15422419
164	0xbe05f89f	-0.13083123
165	0xbdb98c0d	-0.09059916
166	0x3d2f179e	0.042747132
167	0xbd4af868	-0.049553305
168	0xbd34c747	-0.04413536
169	0x3e3a42a0	0.18189478
170	0x3e3ad68f	0.1824591
171	0x3cf031ee	0.029320683
172	0x3e13ad4e	0.14421579
173	0xbdfc74e3	-0.12326982
174	0x3c8cadfb	0.017172804
175	0xbd806a2a	-0.06270249
176	0xbdca6050	-0.098816514
177	0x3caf6ef4	0.021415211
178	0x3dc29396	0.09500806
179	0x3c3ab7b4	0.011396337
180	0xbdfd6b03	-0.123739265
181	0x3da0a4eb	0.078439556
182	0xbd9c6525	-0.07636479
183	0xbdef9a36	-0.11699335
184	0x3d25d726	0.040488385
185	0x3dc09e53	0.09405198
186	0x3d0d7ddf	0.03454387
187	0x3d23bd71	0.039975587
188	0xbd3c5a21	-0.04598439
189	0xbdb58879	-0.08863921
190	0x3ccea76b	0.025226315
191	0x3dc52914	0.09626976
192	0x3db94780	0.09046841
193	0x3dbb2521	0.09137941
194	0xbe278a73	-0.16361408
195	0xbe43208d	-0.19055386
196	0x3d16ed0b	0.036847156
197	0x3d59d404	0.05318071
198	0x3c90fa56	0.017697494
199	0x3d3121a0	0.043244958
200	0xbd21f85e	-0.039543502
201	0x3c2c6ef5	0.010524501
202	0xbcc586b2	-0.02411208
203	0x3d0959ef	0.033533033
204	0x3e2d2fd0	0.1691277
205	0xbd413ccc	-0.04717712
206	0xbe694eb5	-0.2278393
207	0x3d30dc92	0.043179102
208	0x3e1a067f	0.1504154
209	0x3d7f6ff0	0.06236261
210	0x3df69f96	0.12042157
211	0x3e082ece	0.13299105
212	0x3e39231f	0.18079804
213	0xbe05f2d3	-0.13080911
214	0xbe32a39d	-0.17445226
215	0xbb400890	-0.0029301979
216	0xbd2c6b49	-0.042094503
217	0x3d488197	0.04895171
218	0x3df1d05b	0.11807319
219	0x3d173a82	0.03692103
220	0xbdb80e94	-0.089871556
221	0xbdbcbf1d	-0.092161395
222	0x3dc1c41f	0.09461235
223	0xbd21a4e1	-0.03946388
224	0xbdfc58fd	-0.12321661
225	0x3b2c1f8a	0.0026263916
226	0x3e34f569	0.17671742
227	0x3e0b689a	0.13614121
228	0xbc7c33ed	-0.015393239
229	0xbb89bb28	-0.004203219
230	0x3e0aff6e	0.13574001
231	0x3dd8036a	0.10547526
232	0x3dbfc442	0.09363605
233	0xbe0d58ff	-0.1380348
234	0xbd08c23d	-0.033388365
235	0xba5c0bcc	-0.0008394092
236	0xbcea1984	-0.02857662
237	0xbe11502b	-0.14190738
238	0xbe3dad75	-0.185232
239	0xbdaee0ef	-0.085389964
240	0xbd41d0d7	-0.047318306
241	0xbd78cd69	-0.06074277
242	0x3e384bb4	0.17997628
243	0xbd6079b6	-0.054803573
244	0xbe2a2823	-0.16616873
245	0x3d684381	0.056705
246	0x3c86605f	0.016403375
247	0xbd52972e	-0.051413707
248	0x3d9d53dd	0.07682011
249	0xbcba908c	-0.022774003
250	0xbbf3fe34	-0.007446075
251	0x3d6b96c4	0.05751683
252	0xbd7eaec8	-0.062178403
253	0xbe3c4c70	-0.18388534
254	0x3d375314	0.044756964
255	0xbd993847	-0.07481437

lstm.weight_hh_l1 f4 [512, 128]
0	0xbaad56eb	-0.0013224756
1	0x3df577ea	0.119857624
2	0x3d891d2a	0.06695016
3	0x3dee0c99	0.116234966
4	0x3e17db11	0.14829661
5	0xbdcbb5fa	-0.09946819
6	0x3e26e744	0.16299158
7	0xbe005eb2	-0.12536123
8	0x3e268f77	0.16265665
9	0x3d8055ea	0.06266387
10	0x3de91fa3	0.11382987
11	0xbd672376	-0.056430303
12	0x3d844db3	0.064601324
13	0x3dae598d	0.08513174
14	0x3d9bffd2	0.07617153
15	0xbda9116d	-0.08255277
16	0xbd3c451d	-0.04596435
17	0xbe18efa4	-0.14935166
18	0xbe0d6bb5	-0.13810618
19	0x3da1ff98	0.07910079
20	0xbde37a2e	-0.11107288
21	0x3d495f30	0.049163043
22	0x3d3d3e9a	0.04620228
23	0xbcea4631	-0.028597923
24	0xbc9f7271	-0.01946375
25	0xbdcef06e	-0.10104452
26	0x3d04b9a4	0.032403603
27	0x3ded0280	0.115727425
28	0x3dc17900	0.09446907
29	0xbcef6f93	-0.029228007
30	0xbdd5e054	-0.10443178
31	0xbdf7f8e5	-0.1210802
32	0x3d69b969	0.057061587
33	0xbe2dfc56	-0.1699079
34	0x3dec5de8	0.11541349
35	0xbd96ccea	-0.07363303
36	0xbdbc8206	-0.092044875
37	0xbe11558e	-0.14192793
38	0xbdf2846d	-0.118416645
39	0xbd7f852d	-0.062382866
40	0xbdd998cf	-0.10624849
41	0x3df53685	0.119732894
42	0xbd834408	-0.0640946
43	0xbd269357	-0.040667858
44	0x3e3a2860	0.18179464
45	0xbd2a7e84	-0.04162456
46	0x3df6bf5c	0.12048218
47	0x3d055c93	0.03255899
48	0x3c4157e7	0.011800743
49	0x3c03beec	0.008041125
50	0x3df3a33f	0.11896371
51	0x3e02b7bc	0.12765402
52	0xbe1474d1	-0.14497687
53	0xbd170b42	-0.03687597
54	0xbde89cf2	-0.1135806
55	0xbca33c90	-0.01992634
56	0x3da63d75	0.08117191
57	0x3e3e635b	0.18592589
58	0x3c65ce80	0.014026284
59	0x3e12c8d7	0.14334427
60	0xbdb324df	-0.08747267
61	0xbdaf90cd	-0.085725404
62	0x3d640ade	0.055674426
63	0xbe08afda	-0.13348332
64	0x3d0c3c03	0.03423692
65	0xbe00bac7	-0.1257125
66	0xbcaeeca1	-0.021353068
67	0x3d9306d8	0.0717904
68	0xbe18c3cc	-0.1491844
69	0x3e093b12	0.1340144
70	0x3c18ba59	0.0093217725
71	0xbdf33dff	-0.11877059
72	0xbd62b78e	-0.055350833
73	0xbc0fcd9d	-0.008777049
74	0x3e0a6d0a	0.13518158
75	0xbd9068d1	-0.07051242
76	0xbe1b69c3	-0.15177064
77	0xbbaa505a	-0.005197567
78	0x3dab6a4a	0.083698824
79	0x3df599e2	0.119922414
80	0xbb7206f2	-0.003693041
81	0xbdf70b4b	-0.12062701
82	0x3c156df2	0.009120451
83	0x3d9ee0a7	0.07757693
84	0x3c82ee6c	0.015982829
85	0xbd8a4548	-0.067514956
86	0xbe12d928	-0.14340651
87	0xbd171898	-0.03688869
88	0x3ce01278	0.027352557
89	0x3e300b86	0.17191896
90	0xbe18ce0a	-0.14922348
91	0xbda720af	-0.08160531
92	0x3dfdd94d	0.123949625
93	0xbbe37759	-0.0069417176
94	0x3d5f6103	0.054535877
95	0xbc756a5a	-0.0149789695
96	0xbd4d94f4	-0.05019088
97	0x3dbaaaf5	0.09114639
98	0xbddb492e	-0.10707317
99	0xbcf936f2	-0.030421708
100	0x3ce4d919	0.027935551
101	0x3df48094	0.11938587
102	0x3de5a724	0.1121352
103	0x3d24e327	0.04025569
104	0xbc781eb6	-0.015144041
105	0x3d9a1b35	0.075247206
106	0x3c506da8	0.012721457
107	0xbdcbd5ea	-0.0995291
108	0x3e1c484e	0.15261957
109	0x3dcd5bf0	0.10027301
110	0xbdbe32f5	-0.09287063
111	0xbdcb30ad	-0.099213935
112	0xbe082b4f	-0.13297771
113	0x3ccc1f76	0.024917345
114	0xbe06f135	-0.1317795
115	0xbd89c293	-0.06726565
116	0xbe22c27e	-0.15894505
117	0xbdd0b60f	-0.10190975
118	0xbd3881a2	-0.045045502
119	0x3ba86db6	0.0051400317
120	0xbcdc7881	-0.02691293
121	0xbdecdbe3	-0.115653776
122	0xbd9acb5b	-0.07558318
123	0x3ce58f14	0.028022327
124	0xbe79bc74	-0.24388295
125	0xbdc69ad2	-0.096974984
126	0xbba9576b	-0.0051678917
127	0x3e028903	0.12747578
128	0x3d6071a4	0.054795876
129	0xbd61ef68	-0.055159956
130	0xbe26d268	-0.16291201
131	0xbdb0cc4e	-0.08632718
132	0xbd50e63e	-0.051000826
133	0x3d5c0caf	0.053723034
134	0xbe733ca8	-0.23753607
135	0x3e209da5	0.15685137
136	0xbdd1a073	-0.102356814
137	0xbd74b067	-0.059738543
138	0xbdd3e3e7	-0.10346203
139	0x3e18751b	0.14888422
140	0xbe46bd2f	-0.19408105
141	0xbe335070	-0.17511153
142	0xbde29e89	-0.110653944
143	0x3e5df0d2	0.21673897
144	0xbdf98ef2	-0.12185468
145	0x3e03063b	0.12795345
146	0x3dc144db	0.09436961
147	0xbdfa73e7	-0.12229138
148	0x3e0001a5	0.12500627
149	0xbe133856	-0.14376959
150	0xbe121e23	-0.14269309
151	0x3e1fa284	0.15589339
152	0xbe33fc04	-0.17576605
153	0x3d594351	0.053042714
154	0xbe16c639	-0.14724053
155	0xbe0e01af	-0.1386783
156	0xbdc119c2	-0.09428741
157	0x3e1709cc	0.14749831
158	0x3dc8e8d7	0.09810036
159	0x3d9e447d	0.07727907
160	0xbdb48442	-0.08814289
161	0x3e77a4f7	0.24184023
162	0xbd8ca8b3	-0.06868114
163	0x3e41f033	0.18939285
164	0x3e43eb59	0.19132747
165	0x3e0a9f4c	0.1353733
166	0x3e7996b8	0.24373901
167	0x3e7ac5a0	0.2448945
168	0xbe19ec7e	-0.15031621
169	0xbe3dce6e	-0.18535778
170	0x3d02e37d	0.03195523
171	0x3e641e4d	0.22277184
172	0xbe23d46d	-0.15999003
173	0x3e61af1f	0.2203946
174	0xbdc15baf	-0.094413154
175	0xbd981066	-0.07425003
176	0x3d4835eb	0.048879545
177	0x3d930a67	0.071797185
178	0xbe355a86	-0.17710313
179	0xbe1e2913	-0.15445356
180	0x3e04f4a0	0.12983942
181	0x3e3ebd0d	0.18626805
182	0x3dfb43e8	0.122688115
183	0xbe2bbd0a	-0.16771331
184	0xbdcb2307	-0.0991879
185	0xbe170202	-0.1474686
186	0xbe5b3280	-0.21405983
187	0xbd9c34ed	-0.07627282
188	0x3e94e3cd	0.29080048
189	0x3e5848c5	0.2112151
190	0xbdd7b891	-0.1053325
191	0x3de8910a	0.11355789
192	0xbe25896b	-0.16165702
193	0x3de48218	0.11157626
194	0xbe16f186	-0.14740571
195	0xbe36ba55	-0.17844518
196	0x3e3857cb	0.1800224
197	0xbe32da28	-0.17466033
198	0x3dd2f42e	0.1030048
199	0x3e44d390	0.1922133
200	0x3d95fc68	0.07323533
201	0xbd530d65	-0.051526446
202	0xbdce2844	-0.10066274
203	0x3e4d812c	0.20068806
204	0x3e030678	0.12795436
205	0x3e47073b	0.19436352
206	0xbe5bebf3	-0.21476726
207	0xbe04ec40	-0.12980747
208	0xbd8ffb8d	-0.070304014
209	0x3df4dca8	0.11956149
210	0xbe4b0fa3	-0.19830184
211	0xbe369111	-0.17828776
212	0xbdf52dd3	-0.11971631
213	0x3de91ba4	0.11382225
214	0x3e4c4236	0.19947132
215	0x3e028691	0.12746646
216	0xbd3223a6	-0.04349103
217	0xbe2f7ae5	-0.17136724
218	0x3e5aaa42	0.2135401
219	0x3e278a81	0.16361429
220	0xbd8e79ce	-0.06956826
221	0x3e435ab8	0.19077575
222	0x3e16d77b	0.14730637
223	0xbe198294	-0.14991218
224	0x3dfccda1	0.12343908
225	0xbe33ac41	-0.17546178
226	0x3e50abbf	0.20378016
227	0x3d3ad4a4	0.045612946
228	0xbdfcdc7a	-0.1234674
229	0xbe28a640	-0.1646967
230	0xbdc134f7	-0.0943393
231	0xbdf65ff9	-0.12030024
232	0x3e9169b2	0.28400952
233	0xbe3a2883	-0.18179516
234	0x3e188442	0.14894202
235	0x3ddc9342	0.10770275
236	0xbdc92985	-0.09822372
237	0xbdda8d61	-0.10671497
238	0x3d83381c	0.064071864
239	0x3e2d29e4	0.16910511
240	0x3e36fe8c	0.1787054
241	0xbe2a205a	-0.16613904
242	0xbe668416	-0.22511324
243	0x3e0cd645	0.13753612
244	0x3e228911	0.15872599
245	0x3e41612d	0.18884726
246	0x3e125b06	0.14292535
247	0xbd8780db	-0.06616374
248	0x3e0b4f30	0.13604426
249	0x3e12405b	0.14282362
250	0x3e739a15	0.23789246
251	0x3e21d21b	0.15802805
252	0xbe2f0ff4	-0.1709593
253	0x3d4da0a1	0.050202016
254	0x3d6a097f	0.057137962
255	0xbd566278	-0.05234

lstm.bias_ih_l1 f4 [512]
0	0xbdef70e5	-0.11691455
1	0x3cc450a3	0.023964232
2	0xbdc473c0	-0.0959239
3	0x3ce094cb	0.0274147
4	0xbc89df57	-0.01683013
5	0xbd6daeb2	-0.05802793
6	0xbd8d8db0	-0.0691179
7	0xbde3616d	-0.11102567
8	0xbd7df97c	-0.062005505
9	0xbda1195d	-0.07866166
10	0x3bbdc8c0	0.0057917535
11	0xbd09bd05	-0.03362753
12	0x3d5d8b54	0.05408795
13	0xbc433d14	-0.011916418
14	0xbe335c08	-0.17515576
15	0x3d45524f	0.0481742
16	0xbd99b20b	-0.07504662
17	0xbc24b0b6	-0.010051897
18	0xbd1a07b9	-0.03760502
19	0x3d991bdf	0.07476019
20	0xbd0a02d5	-0.033694107
21	0xbe031082	-0.12799266
22	0xbd0c428d	-0.034243155
23	0xbbc94aa1	-0.0061429297
24	0xbe023410	-0.12715173
25	0x3d2e041c	0.042484388
26	0xbd9aa44a	-0.07550867
27	0xbd1f9898	-0.038963884
28	0xbd87cda8	-0.06631023
29	0xbe223913	-0.15842085
30	0xbdc361f6	-0.09540169
31	0xbe56d05e	-0.20977923
32	0x3d9cdc29	0.0765918
33	0xbd1e477f	-0.038642403
34	0xbd97e919	-0.07417507
35	0x3ccd468d	0.025058055
36	0x3d34d866	0.044151686
37	0xbdc4ec14	-0.09615341
38	0xbe352ea9	-0.1769358
39	0xbda6e397	-0.08148878
40	0x3d33ddc8	0.04391268
41	0xbd83bb95	-0.06432263
42	0x3df0bbce	0.11754571
43	0x3c8fd94e	0.017559674
44	0x3de56aba	0.11201997
45	0xbe145eb9	-0.14489259
46	0x3de537b5	0.11192266
47	0xbbd100e5	-0.0063782805
48	0xbe21e04f	-0.15808223
49	0xbdf04da8	-0.11733562
50	0xbe299324	-0.16560036
51	0x3d0f07d8	0.03491959
52	0x3cce55a7	0.025187327
53	0x3d08056f	0.033208307
54	0xbe1699e0	-0.14707136
55	0xbd6caf0d	-0.05778413
56	0xbc11d3cd	-0.008900595
57	0x3d804955	0.06263987
58	0xbddef0bf	-0.108857624
59	0xbdfae0df	-0.12249922
60	0x3e0fbc5b	0.14036696
61	0xbc33df1f	-0.010978489
62	0x3c506f7f	0.012721895
63	0xbb7e78c3	-0.0038829304
64	0x3c896d1e	0.016775664
65	0xbcb9d31e	-0.022683676
66	0xbd0646a0	-0.032782197
67	0xbc71d604	-0.014760498
68	0xbd9b6ee1	-0.07589508
69	0x3a35682c	0.0006920125
70	0xbe15a78a	-0.14614692
71	0xbd8ddb4d	-0.06926594
72	0xbcd208fc	-0.02563905
73	0x3c1aca27	0.009447611
74	0xbde21d9f	-0.11040806
75	0x3cd563b4	0.026048519
76	0x3d9ab843	0.075546764
77	0xbda1fcba	-0.07909532
78	0xbcf1f601	-0.02953625
79	0x3d640bc1	0.055675272
80	0xbda3bde6	-0.07995205
81	0xbd8bc496	-0.06824605
82	0xbd9f35dd	-0.077739455
83	0x3c0b24a1	0.00849262
84	0x3bf4b9ef	0.007468454
85	0xbc6baae3	-0.014384004
86	0xbd4e0ac8	-0.05030325
87	0xbde06258	-0.109562576
88	0x3ca61fd3	0.020278847
89	0x3dbe0361	0.09277988
90	0xbe006a18	-0.12540472
91	0xbd0b7472	-0.034046598
92	0xbdbab2a3	-0.091161035
93	0x3e08f896	0.13376078
94	0xbd8e89a4	-0.069598466
95	0xbdf911c6	-0.12161593
96	0x3d9ed848	0.07756096
97	0xbe2e68bc	-0.1703214
98	0xbd3d0e1a	-0.046156026
99	0xbaf756e6	-0.0018870502
100	0xbd0be410	-0.034153044
101	0xbd71caf9	-0.05903146
102	0x3e0a509c	0.13507313
103	0xbe10c89d	-0.14139028
104	0xbc99d57f	-0.01877856
105	0xbdf6b5aa	-0.120463684
106	0x3ce4fe8a	0.027953405
107	0xbdf2f974	-0.11863986
108	0xbb0e127f	-0.0021678505
109	0x3debe9c0	0.11519194
110	0xbde8824a	-0.11352976
111	0x3dfa5d74	0.12224856
112	0xbdba22b5	-0.09088651
113	0x3d0b9ef6	0.034087144
114	0xbd55d3fc	-0.052204117
115	0xbd4b5ac9	-0.049647126
116	0x3da1fe8c	0.07909879
117	0xbe101380	-0.14069939
118	0xbdb46152	-0.08807625
119	0xbe11ae61	-0.14226677
120	0xbe1da03a	-0.15393153
121	0x3e17c425	0.14820917
122	0x3d514161	0.05108774
123	0xbe42712f	-0.18988489
124	0x3d419374	0.047259763
125	0xbe02a481	-0.12758066
126	0xbdc7f7b6	-0.09764044
127	0xbe3a2031	-0.18176343
128	0xbe0bf7c8	-0.1366874
129	0x3e4b22e3	0.19837527
130	0xbe0ffb51	-0.14060713
131	0xbd9cd605	-0.076580085
132	0x3d0c118e	0.03419643
133	0xbdbad1fc	-0.091220826
134	0xbb96e1be	-0.0046045473
135	0xbe09f5c7	-0.13472663
136	0xbd44fd19	-0.048092935
137	0xbe067879	-0.13131894
138	0x3e1d94c7	0.15388785
139	0x3e06ed9c	0.13176578
140	0x3ced7797	0.028987689
141	0x3e1ecca1	0.15507747
142	0xbd82afc0	-0.06381178
143	0x3d1b4e6f	0.037916597
144	0x3e1fafe9	0.15594448
145	0xbdd388bb	-0.10328814
146	0x3d83b90e	0.06431781
147	0x3e3449b1	0.17606236
148	0xbc994571	-0.01870987
149	0xbda9e241	-0.08295108
150	0xbc274871	-0.0102101425
151	0xbda706b1	-0.08155573
152	0xbd222a2f	-0.03959101
153	0x3d5ba2d0	0.053622067
154	0x3dc1c585	0.09461502
155	0xbd59e2db	-0.05319486
156	0xbe1f31b1	-0.155463
157	0xbdc952e9	-0.09830267
158	0xbda3984e	-0.07988034
159	0xbd9cc50c	-0.07654771
160	0x3d5640e4	0.05230798
161	0x3d65576e	0.055991583
162	0xbe154789	-0.1457807
163	0xbd8ecc73	-0.06972589
164	0x3e2482ae	0.16065475
165	0xbd119922	-0.03554643
166	0xbda9e20f	-0.082950704
167	0xbda6db1a	-0.08147259
168	0xbba65137	-0.0050755995
169	0xbdc6617d	-0.09686563
170	0x3e1f26b2	0.15542105
171	0x3dfcbda6	0.1234086
172	0x3e0ec66d	0.13942881
173	0xbdaa2e26	-0.08309583
174	0x3d8db036	0.06918375
175	0x3d913cdc	0.07091686
176	0xbdb5e0d5	-0.08880774
177	0xbc8adfe7	-0.016952468
178	0xbdc1ca05	-0.0946236
179	0x3c703c37	0.014662794
180	0x3e3b0bfa	0.18266287
181	0x3dbf06e9	0.0932749
182	0xbcce7d25	-0.025206158
183	0xbd0a47b4	-0.033759788
184	0x3dc92116	0.09820764
185	0xbb7d2f2d	-0.0038632855
186	0xbcd40b03	-0.025884157
187	0xbcf2d5d5	-0.029642979
188	0x3e72d350	0.23713422
189	0xbdad7090	-0.08468735
190	0x3e183db4	0.14867288
191	0x3dc9edae	0.09859787
192	0xbe214f9c	-0.15753025
193	0xbd3f9aee	-0.04677861
194	0xbdc865a6	-0.09785013
195	0xbcaedd3e	-0.02134573
196	0x3dcfa2a3	0.10138442
197	0x3d8e0dd9	0.06936235
198	0x3d086d71	0.033307496
199	0xbd4451ff	-0.04792976
200	0xbc953ea1	-0.01821834
201	0xbdf76734	-0.12080231
202	0xbdba13e1	-0.09085823
203	0xbdbf8fbb	-0.09353586
204	0x3e51f644	0.20504099
205	0x3b2f7b65	0.002677643
206	0x3e2ba754	0.1676305
207	0x3df32221	0.11871744
208	0xbd7b1610	-0.061300337
209	0xbe2a6554	-0.16640216
210	0xbe23612c	-0.15955037
211	0x3e42943c	0.1900186
212	0x3d8580be	0.06518696
213	0x3e4f6f9d	0.20257421
214	0xbe0917e1	-0.13388015
215	0xbe02c308	-0.12769711
216	0xbe07c2e5	-0.1325794
217	0x3e2559a5	0.16147478
218	0xbe2fa53a	-0.17152873
219	0xbdfcf229	-0.12350876
220	0xbcede7ca	-0.02904119
221	0xbbfc910b	-0.00770772
222	0x3e1b5237	0.15168081
223	0xbd43c6e8	-0.047797114
224	0x3e1079fd	0.14109035
225	0xbe0b5280	-0.1360569
226	0xbc048a99	-0.008089685
227	0x3e4c3ad4	0.19944316
228	0xbc4049f3	-0.011736381
229	0xbe0ecbac	-0.13944882
230	0x3d9ae2be	0.07562779
231	0xbe1c0af1	-0.15238549
232	0x3c813c83	0.015775925
233	0x3b322d25	0.0027187553
234	0xbbd4f415	-0.0064988234
235	0xbd893fa4	-0.067015916
236	0x3e398cca	0.18120113
237	0x3daab837	0.083359174
238	0xbd1e803b	-0.03869651
239	0x3d83dae5	0.06438235
240	0xbe00d365	-0.1258064
241	0x3db2b661	0.08726192
242	0x3d711e93	0.05886705
243	0xbdc5169c	-0.09623453
244	0x3e07463f	0.1321039
245	0x3d121c17	0.03567132
246	0xbd407f54	-0.04699643
247	0xbe15dbda	-0.14634648
248	0xbd2418a0	-0.040062547
249	0xbc1b03de	-0.009461371
250	0x3e107276	0.14106163
251	0xbcc20a51	-0.02368656
252	0x3e22aa8f	0.15885375
253	0xbcd90715	-0.026492635
254	0x3c9ccf6a	0.019141871
255	0xbdc3943e	-0.09549759
