SimLoan/res/taiwan/LSTM_clf_effort_modeltaiwan_budget_10_eps_0_5_b_0_2_lt-w_1_st-w_0_45555555555555555.pth (torch, 835570 bytes, 17 tensors)

init_interventions f4 [1, 2]
000000 5f ea 7b bc 8a 65 01 3d
       -0.015375703 0.031590976

clf.model.0.weight f4 [32, 4]
000000 dc 70 3b 3e 89 d3 81 3e c2 40 bb be 9b 4d cf bd
       0.18304771 0.253567 -0.36572844 -0.10122224
000010 7b b5 20 be 4e 8e fb be 10 4d b8 be e1 97 4b bf
       -0.1569423 -0.49132007 -0.35996294 -0.79528624
000020 b3 1c aa bb 9e c1 2e bf 99 41 67 bf a7 06 13 bf
       -0.0051914095 -0.68264186 -0.9033447 -0.57432026
000030 fc cd 4a be 52 85 11 be de fc f6 3e 54 3f f7 be
       -0.1980514 -0.14211014 0.48239797 -0.48290503
000040 b8 40 07 bd c5 d1 12 3e 24 e6 01 3f e3 f0 db 3e
       -0.033020705 0.14337833 0.5074179 0.4295722
000050 7e 76 a2 3d d9 02 0c 3f 54 9a d1 be 86 bc e8 3d
       0.07932757 0.54691845 -0.40938056 0.11364083
000060 85 e7 17 bc fb 93 2b bf a5 d7 61 bf 13 85 12 bf
       -0.009271507 -0.67022675 -0.8821967 -0.57234305
000070 3e b3 d5 be f5 24 25 3f 98 d6 4c 3e 8d b0 dd be
       -0.41738313 0.64509517 0.20003736 -0.4329876
000080 6a aa c1 3d 78 ab 16 be 4a fe c3 3e d0 26 cf 3e
       0.09456332 -0.14713848 0.38279945 0.404593
000090 51 8a 76 3b 1a fc 54 bf 72 ed 8d bf b2 42 37 bf
       0.0037619064 -0.83197176 -1.1088088 -0.71586144
0000a0 2f a7 6d 3c 77 8c 07 bf e3 dc 44 bf 73 f8 0e bf
       0.014505192 -0.5294871 -0.76899546 -0.55847853
0000b0 2f ac 01 bc a0 cc 47 bf 2c 5f 83 bf 10 5c 2a bf
       -0.007914587 -0.7804661 -1.0263419 -0.66546726
0000c0 2c b5 60 3e 5a e2 bd be a0 f7 f1 be 0d 2a aa be
       0.21944112 -0.37086755 -0.47259235 -0.33235207
0000d0 56 10 de 3e 92 64 f2 be 45 91 1b bf 2b 70 d0 be
       0.43371838 -0.47342354 -0.6076854 -0.40710577
0000e0 e4 a2 11 be 22 11 c4 3e 09 85 ce 3d a5 0f a3 3e
       -0.14222294 0.3829432 0.10083968 0.31847873
0000f0 23 c5 74 bd b7 23 24 3f ef e1 ec be b9 d1 fe 3e
       -0.059758317 0.64116997 -0.46266124 0.4976938
000100 47 c4 37 3e da 4b ce 3e 51 50 f4 3d e0 ca e0 3e
       0.17945968 0.40292245 0.11929382 0.4390478
000110 9a af 38 be 5e 2e 67 be 6f b2 ae 3e 5a f8 aa bc
       -0.18035737 -0.22576281 0.3412051 -0.020870376
000120 35 00 fe bb ee 82 44 bf d5 a1 80 bf ed f5 24 bf
       -0.0077514895 -0.7676228 -1.0049387 -0.6443775
000130 ec 00 a2 be 5b be 74 bf 7b dc 52 3e 03 50 c1 3e
       -0.31641328 -0.9560296 0.20591919 0.37756357
000140 46 47 1d bd b8 78 37 bf 73 5b 37 bf a1 6e 5d 3d
       -0.03839805 -0.7166858 -0.71623915 0.054060582
000150 d6 bb bd bb c2 57 24 bf 5c a3 58 bf d9 99 0a bf
       -0.005790214 -0.6419641 -0.84624267 -0.54141
000160 cc b6 d2 be c2 53 f9 3e 1c 94 3c be 39 dc e4 3e
       -0.41155088 0.48696715 -0.18415874 0.44699267
000170 88 bf 04 3f 32 6e 60 bf 57 aa 78 3d ef 45 95 3e
       0.51854753 -0.87668145 0.060709324 0.29154918
000180 22 7c 38 3e 52 16 33 3e 30 a2 0a bf 53 b1 ee 3d
       0.18016103 0.17488983 -0.5415373 0.11654916
000190 70 be bb be 48 86 e5 3e 6d e5 da 3d f9 65 20 3e
       -0.3666873 0.4482901 0.10688291 0.156639
0001a0 40 bc 35 3e 6c e0 32 3f 84 f8 0a 3f 82 61 b3 be
       0.17747593 0.6987369 0.54285455 -0.3503533
0001b0 17 1a 86 3e 40 07 98 3d 11 be 8c 3e 4f fc 19 3e
       0.2619178 0.07423258 0.2748876 0.15037654
0001c0 2c ac 90 3d c9 08 3f 3f 39 8f a1 bc 44 f7 93 be
       0.07064089 0.7462278 -0.019721614 -0.28899586
0001d0 64 e4 52 3e 82 4b 07 3d d2 75 4d bf 62 29 f2 be
       0.20594937 0.033030994 -0.80257905 -0.47297198
0001e0 2f 29 3a bc 1e 90 f8 bd 1b 8e cf bd 7d f0 c0 3e
       -0.011362358 -0.12136863 -0.10134526 0.37683478
0001f0 45 f6 08 bf 63 3e b5 3e 62 14 d1 be 52 63 67 3e
       -0.5350078 0.3539916 -0.40835863 0.22596481

clf.model.0.bias f4 [32]
000000 3a 6f d9 3e 70 65 5c 3e 24 1d 57 3e 64 04 8a 3e
       0.42467672 0.2152307 0.2100721 0.26956475
000010 07 cc e8 b7 77 ef 1d be 4a 40 4a 3e 62 b4 51 3e
       -2.7751563e-05 -0.1542338 0.19751087 0.20478967
000020 f3 a9 ba bb fe 7f 83 3e 75 b3 38 3e 91 5f 6e 3e
       -0.005696529 0.25683588 0.18037207 0.23278643
000030 94 82 d7 bd ba 96 91 be 1d 57 01 bc 31 3e c6 be
       -0.10522953 -0.28435308 -0.007894305 -0.38719323
000040 b8 da 86 be 43 84 23 3e 6b e1 6b 3e 99 fa c6 3c
       -0.26338744 0.15968423 0.23035209 0.024289416
000050 79 af 4a 3e 2c ce 49 3e 3b 8a bd 3e c4 5a 99 be
       0.197935 0.19707555 0.37019524 -0.2995206
000060 42 49 b4 3e 12 18 6f 3e d2 6c 00 be ac c0 86 be
       0.3521214 0.23349026 -0.12541512 -0.26318872
000070 f0 a1 27 3e 86 17 24 bd 43 5f e8 be d0 54 19 3e
       0.16370368 -0.040061496 -0.4538518 0.1497376

clf.model.3.weight f4 [64, 32]
000000 ab 2a 18 3d 68 10 50 3e 83 f2 63 3f 5c 81 14 3d
       0.037150066 0.20318758 0.8904192 0.03625618
000010 6d 5c 20 be b5 c2 a9 be 04 7d b5 3f dd 35 81 3e
       -0.15660258 -0.33156362 1.4178777 0.25236407
000020 cc 58 58 bd a9 ad 20 3f f7 bf 2d 3f 62 dc 90 3f
       -0.05281906 0.62764984 0.6787104 1.1317255
000030 78 6e 0c 3f bc 2a 36 3f e7 9b 52 be 90 86 2a be
       0.5485606 0.7115896 -0.20567285 -0.16652894
000040 e4 76 e2 be e4 77 08 3b e1 59 60 3f ce 8f d0 be
       -0.4423133 0.0020823414 0.87637144 -0.40734714
000050 be 90 91 3e 97 3d 79 3f 61 e8 bf 3c af ec 26 3e
       0.28430742 0.97359604 0.023426237 0.16301225
000060 6e 7c 66 3d de 09 7c 3d 8f c3 11 3d cf f1 a3 be
       0.05627101 0.061532848 0.03558689 -0.32020423
000070 4b 10 6d 3d c3 ee 3b 3e b8 71 1c 3e 9c 9a 16 3e
       0.057876866 0.18352799 0.15277755 0.14707416
000080 12 f0 18 3e 1e 1f 3f 3c c1 44 60 bf ff 54 4b bd
       0.1493533 0.011665134 -0.8760491 -0.049641605
000090 10 fe c9 3c 3b 4b bb be 7a 35 af bf 9d 88 17 be
       0.02465728 -0.36580834 -1.3688195 -0.14798208
0000a0 c6 6b 68 be 36 64 bc be c3 3d 07 bf a1 68 98 bf
       -0.22697362 -0.36795205 -0.52828616 -1.190693
0000b0 ff 47 b1 be 3f c8 fe be f2 d0 07 3e c6 9e 1a bf
       -0.3462524 -0.4976215 0.132633 -0.6039852
0000c0 46 6d 5b bd b2 5e 46 be 61 13 62 bf 94 5d 98 be
       -0.05357101 -0.19372061 -0.8831082 -0.29758894
0000d0 51 0b 4d 3d 70 60 40 bf 5b 70 2a 3e 60 57 a3 3a
       0.05005962 -0.7514715 0.16644423 0.0012461953
0000e0 5b 1f 39 3e 42 f4 73 bb 21 a0 00 3e 3a 6b 72 3c
       0.18078367 -0.0037224446 0.12561084 0.014796073
0000f0 1b a8 42 3d 85 cb 0a 3d 0c 5c 95 3e 80 56 a1 3d
       0.0475236 0.033885498 0.2917179 0.07877827
000100 26 0b 32 3b 6a e8 a3 bd 8e 1e e6 be 9f e3 b9 bd
       0.002716729 -0.08003314 -0.44945186 -0.090766184
000110 c8 c2 39 3d c9 30 63 be d6 a5 6f bf 6a 2e 98 3c
       0.045351774 -0.22186579 -0.9361242 0.01857682
000120 f7 89 af 3d f1 0a 85 be c2 78 78 be 12 40 1f bf
       0.085712366 -0.2598491 -0.24264815 -0.6220714
000130 d4 4b df be ac c8 e8 bd fd 6c 08 3e e7 57 4d 3d
       -0.4361254 -0.113664 0.13322826 0.05013266
000140 27 a7 a4 3d 8a 63 79 3d 8b ba 93 be a3 08 92 be
       0.08039694 0.060885943 -0.28853258 -0.28522214
000150 ef 46 cd 3d 42 94 b2 be 71 de 51 3d 49 16 69 3e
       0.10023295 -0.34878737 0.051237527 0.22762407
000160 fc 04 1a 3e fc c2 13 3d 4a 04 19 3d ec d8 99 3d
       0.15040964 0.036074623 0.037357606 0.07512078
000170 2e 82 78 3e 3c d6 00 3d 67 01 0d 3f d9 8a 45 3d
       0.2426841 0.03145431 0.55080265 0.04822812
000180 c2 81 9e 3c 21 ab 54 3d 35 95 08 3f d5 f2 fd 3c
       0.019348983 0.051921014 0.5335267 0.03099958
000190 6d aa 53 bd 91 3f 2c be a4 7d 98 3f a7 cb 30 3e
       -0.051676203 -0.16821124 1.1913342 0.17265187
0001a0 72 8a 08 be 06 c4 78 3e 8b 17 8f 3e 5e 5d 3c 3f
       -0.13334063 0.24293527 0.2794765 0.7357997
0001b0 f0 03 09 3f f1 4a 07 3f 30 ed 0b 3d 32 ca 30 be
       0.53521633 0.52848727 0.034161747 -0.17264631
0001c0 59 26 02 be f2 ed 70 ba 1b 5d 18 3f 78 b2 74 bd
       -0.12709941 -0.000919073 0.5951707 -0.059740514
0001d0 0b aa 5e 3e e6 90 21 3f 75 06 ee 3c e2 ee 96 3d
       0.21744554 0.6311172 0.029055813 0.07369782
0001e0 3a 34 91 38 25 5a ab 3c b8 d4 ec 3d a7 2c 00 bd
       6.923867e-05 0.020917008 0.115640104 -0.031292584
0001f0 19 c9 ea 3d bd 67 88 3e 67 ef 9c 3c 9f dc be 3d
       0.114641376 0.26641646 0.019157125 0.09319424
000200 4a ff 10 3e f2 a8 70 3e 90 58 62 3f eb 94 da bd
       0.14159885 0.23501948 0.88416386 -0.10672935
000210 7a 61 9b be 09 1b b4 be 36 4e af 3f c4 72 3f 3d
       -0.30347806 -0.35176876 1.3695743 0.04674031
000220 c0 e0 31 be e8 26 d2 3e 8d 9b 29 3f 8d f0 78 3f
       -0.17370892 0.41045308 0.66252977 0.9724205
000230 3c 31 29 3f b2 7e ed 3e 15 11 95 be 15 a0 da bd
       0.6609075 0.46385723 -0.29114595 -0.106750645
000240 c9 1f eb be 3b 3c 4a be ff 43 2d 3f f4 ac 3f bf
       -0.45922688 -0.19749539 0.6768188 -0.7487328
000250 67 e3 2d 3e 69 29 67 3f 41 63 01 bd a0 6e 95 3e
       0.16981278 0.9029756 -0.031588797 0.29185963
000260 4a 06 22 3e 5e 42 fd bd 52 de 5a bd 01 07 0b bd
       0.15822712 -0.12366174 -0.053434677 -0.033942226
000270 75 26 ee 3c 3a 14 36 3e b1 f4 c3 3d 0c 82 93 3e
       0.029071072 0.17781153 0.095681556 0.28810155
000280 13 a6 13 3e 23 4e 1d 3d 85 b6 15 bf dd ed 15 3d
       0.14418821 0.038404595 -0.5848163 0.036603797
000290 d3 dc a4 bd 47 07 19 bd dd 12 90 bf 2f 32 44 3e
       -0.080499314 -0.037360456 -1.1255757 0.19159769
0002a0 d8 ab 39 3e 08 6f f3 be 7f b9 01 bf e6 9a f7 be
       0.1813196 -0.47545648 -0.5067367 -0.48360366
0002b0 62 fb f4 be 30 01 ad be af 37 c3 3d 2a 2a 53 bd
       -0.4784804 -0.33789968 0.09532105 -0.051553883
0002c0 aa f4 34 3d 9d df 23 be 38 56 19 bf d5 93 28 bd
       0.044178642 -0.1600327 -0.59897184 -0.04115661
0002d0 72 c5 be bd 70 db 1b bf a6 c2 5b 3e ca 6c bf 3d
       -0.093150035 -0.6088171 0.21460971 0.09346922
0002e0 d5 c4 c9 3d 3e fe 61 3d 38 af a7 3d 26 74 c6 bd
       0.09851996 0.055174105 0.08187717 -0.09690122
0002f0 a7 b1 2b 3e cb f4 43 3d 8d 08 b2 3e 50 5c ed 3d
       0.16766988 0.047840875 0.3477215 0.11589873
000300 68 6f 22 3e 83 3c 9e bc 66 88 10 bf 0e 5c e9 bd
       0.1586281 -0.019315964 -0.5645813 -0.11394511
000310 32 ee a9 3d bf 3e 5c bd a9 e5 a2 bf 74 2d da 3c
       0.08297385 -0.053770777 -1.2726337 0.026633002
000320 08 29 ec bc 20 22 a7 be 72 3b 17 bf da c1 40 bf
       -0.028828159 -0.32643223 -0.5907508 -0.75295794
000330 a3 b2 76 be b8 66 90 be 42 b6 05 3e e4 11 50 bd
       -0.24091582 -0.28203368 0.13057807 -0.05079831
000340 8a bf 20 bd 67 07 2f 3d d4 82 d2 be 08 af 12 bf
       -0.039245166 0.04273167 -0.4111544 -0.57298326
000350 ca bd 66 be c0 db f3 be d2 f6 cd 3a a7 80 a7 be
       -0.22533336 -0.47628593 0.0015713817 -0.3271534
000360 1d fc 36 3d 9b 08 0e 3e b8 89 0d be bb 94 60 3d
       0.044674028 0.1387047 -0.13822067 0.05482934
000370 c4 fa 48 3e 38 69 fb 3c db 24 7a 3e 75 67 9c 3e
       0.1962691 0.03068982 0.24428122 0.3054768
000380 c8 56 f5 3d 27 31 59 3e b8 20 74 3e a0 ed f3 3d
       0.11979443 0.21210156 0.23840606 0.11910558
000390 52 1e 78 be 1d c3 f3 be 71 81 8b 3f d0 30 a5 3e
       -0.24230316 -0.47609797 1.0898877 0.32263803
0003a0 1a 4f a4 be b0 9e cd 3e 50 0d 35 3e e4 57 e8 3e
       -0.320916 0.4016013 0.1768086 0.45379555
0003b0 8a 97 d5 3e d6 57 86 3e 6c 14 5a be b7 5c 85 be
       0.41717178 0.26238889 -0.21296853 -0.26047298
0003c0 f4 7f 99 be af 0e b8 bd 09 6c 7a 3e ed eb 8a be
       -0.29980433 -0.08987176 0.24455275 -0.27133122
0003d0 46 84 a6 3e 70 d7 dc 3e 89 57 84 bc ac 13 7f bd
       0.32522792 0.43133116 -0.016155021 -0.06227462
0003e0 a4 c5 79 3d a1 af dc 3d 36 a9 00 3e 2d b3 ce bd
       0.0609795 0.10775686 0.12564549 -0.10092769
0003f0 a5 6a 15 3e 3c 9c 1d 3e 60 a6 62 3a 7b 2a f8 3d
       0.14591463 0.1539163 0.00086460076 0.121174775

clf.model.3.bias f4 [64]
000000 c8 fe 1a be aa 97 80 3e 88 0f 40 3e 3b 9b eb bd
       -0.15136254 0.2511571 0.18755925 -0.11504217
000010 d9 f4 e9 3c 51 d4 28 3e 51 6f 29 3e c3 8d 1b be
       0.028559135 0.16487242 0.1654637 -0.15190797
000020 3b 76 01 bd 55 90 02 bd 55 03 56 3c 31 c7 3a 3e
       -0.031606894 -0.031875927 0.013062318 0.18240048
000030 3e a2 c0 bd ee 02 ae 3d 62 a5 09 3e 0b 70 3f be
       -0.09405945 0.084966525 0.13441995 -0.18695085
000040 57 22 a6 3e 92 90 0d 3e 84 c7 2c bd 86 a1 91 3e
       0.32448074 0.1382468 -0.04218246 0.28443545
000050 6b 80 4c 3e 0b 29 41 be 74 6d 38 be 11 f2 8a 3c
       0.19970863 -0.18863313 -0.18010503 0.01696113
000060 bf cf 7a 3e ce f0 ba bc 35 b1 8f 3e 6e 06 52 bd
       0.24493311 -0.022819903 0.28064886 -0.051275663
000070 13 04 bd 3e 9e 58 2c 3e 07 84 10 3e c3 ed 9a bd
       0.3691717 0.1683068 0.14112864 -0.07564881
000080 86 20 a6 be c0 c9 37 3d 7d 00 fe 3d a1 f8 97 3e
       -0.32446688 0.04487014 0.12402437 0.29681876
000090 95 d5 f2 bd 6d 8d e5 3d 23 27 7e 3e 20 e5 64 3e
       -0.11857144 0.112086155 0.24819617 0.22353029
0000a0 61 97 89 3e df 3f 59 3e 44 b1 e0 3c c2 5b 24 3e
       0.26873305 0.21215771 0.027428277 0.16050628
0000b0 b2 13 aa 3e 1a 07 48 3e 1a 89 42 3b 3b 99 18 be
       0.3321815 0.19533959 0.002968377 -0.14902203
0000c0 a3 2b 9e 3e 10 34 62 3e 83 e2 ce 3d 9f 8d 31 be
       0.30892667 0.22090173 0.101017974 -0.1733918
0000d0 fe a4 24 3e aa a5 06 3e a3 d3 bb 3e b7 a0 e6 3c
       0.16078565 0.13149133 0.36684904 0.028152807
0000e0 93 c0 34 3e 77 15 29 3e ff 5a 42 bd 9a 9c ac 3d
       0.17651586 0.16512094 -0.047450062 0.08428307
0000f0 c6 49 0a 3e 85 bb 56 3e af 9c 5d 3e 2b 36 3a be
       0.13504705 0.2096997 0.21641801 -0.18184726

clf.model.6.weight f4 [1, 64]
000000 cd be 4c bf 88 5e 31 3e c1 34 65 3e c8 f4 a4 be
       -0.7997864 0.17321217 0.22383405 -0.32218003
000010 38 48 ec be 8a 53 2c 3e 79 34 b6 3e 44 65 c5 be
       -0.4614885 0.16828743 0.35586908 -0.38553822
000020 a1 93 5e 3e 24 55 0e bf c1 7d 81 3e 31 3a 76 3e
       0.21736003 -0.55598664 0.25291255 0.24045636
000030 2b b3 16 bf 63 69 44 3e 9e 37 9d 3e 0c 7c 7c 3c
       -0.5886714 0.19180827 0.30706495 0.015410434
000040 64 9b 3e 3e 9b fe 7d 3e 7b 24 be be d5 78 53 3e
       0.18613964 0.24804156 -0.37137207 0.20651563
000050 68 36 17 3f 98 e3 24 bf 2f c9 eb be 1f 77 d6 3e
       0.5906739 -0.6440978 -0.46051928 0.41887757
000060 b8 c7 1c 3f 99 c4 26 bf 06 a0 3a 3e 4f d2 48 bf
       0.61242247 -0.65143734 0.18225107 -0.78445905
000070 a8 8c 8d 3e 76 25 1e 3e 5e b8 ca 3e d5 6e 45 bf
       0.27646375 0.15443978 0.39593786 -0.7712224
000080 f9 91 50 bf aa 3d 7e be 6f 07 6e 3e 0c 3e 23 3e
       -0.81472737 -0.2482821 0.23245023 0.15941638
000090 1b cd 85 be 87 d8 5e be bd 7b 7b 3e 61 59 5f 3e
       -0.26133046 -0.21762286 0.24558921 0.21811439
0000a0 58 3c 7f 3e bd 50 2e 3f 4d 97 de be ca e3 b3 3e
       0.24925363 0.68091947 -0.43474808 0.35134727
0000b0 9b 39 16 3e 74 8a 85 3e 29 ab 4b bd 26 56 85 bf
       0.14670412 0.26082194 -0.049723778 -1.0416915
0000c0 67 b8 e7 3e 1f 54 9a 3e fc df a7 3e bf 06 75 bf
       0.45257875 0.30142304 0.32788074 -0.9571342
0000d0 5a 67 10 3e ed 6a e1 3e 76 4f 99 3e 3e 1f 17 bf
       0.14101925 0.4402689 0.29943436 -0.59032047
0000e0 e0 d0 1d 3f 8e d2 23 3e 92 9d d6 be 81 23 97 3e
       0.6164684 0.15998289 -0.41917092 0.29519275
0000f0 af 1b 53 3f 73 0d 22 3e 3a 2f 31 3f 67 e7 a9 bf
       0.82464117 0.15825443 0.69212687 -1.3273743

lstm.weight_ih_l0 f4 [512, 11]
000000 14 28 47 bd 24 02 b4 3c db 45 87 bb 5b be f1 bc
       -0.048622206 0.021973677 -0.0041282005 -0.029509714
000010 eb ce 76 3d ce 91 26 3d 6b 15 36 bd b9 6e 24 bd
       0.060255926 0.040666394 -0.04445402 -0.040144656
000020 f5 4a a4 bc 8e d6 1f bd f5 70 07 3d 45 db 3c 3d
       -0.020055274 -0.039022975 0.03306671 0.04610755
000030 7f 46 4b 3d d5 9c 00 3d 46 8a 6b bd e9 f2 35 bd
       0.049627777 0.031399567 -0.057504915 -0.04442111
000040 53 24 81 bc 0d 05 d4 bb 10 81 44 bb 6b d0 ae 3c
       -0.015764391 -0.0064703287 -0.0029984154 0.021339616
000050 d1 5e 25 bd e1 ea 2c bd 10 89 b8 bd 8b e8 7b 3c
       -0.040373627 -0.042216185 -0.090105176 0.015375267
000060 9d f6 3b bc 6c de 9c 3d 2e b5 0c 3d f5 19 96 bd
       -0.011472371 0.07659611 0.034352474 -0.0732917
000070 0b 28 c5 bc ae 38 92 bd aa 6f 9c 3c 0b 55 9c ba
       -0.024066946 -0.07139717 0.019096214 -0.00119272
000080 a4 20 ce bd 75 19 c0 bd 4e 44 94 3c b1 ab c2 3c
       -0.100648195 -0.093798555 0.018098976 0.02376351
000090 4e 43 d8 3c 3f 9c 08 bd 5e 6e 2b bd 5d 17 0f 3b
       0.02639928 -0.033352133 -0.0418533 0.0021833994
0000a0 98 ed 12 bd 77 bc e8 bc 0d bf c0 bc 93 cf 60 3c
       -0.03587112 -0.02841018 -0.0235286 0.013721365
0000b0 6f 26 ca bd 53 31 6e bd ce 5a 78 3d 04 52 d7 bc
       -0.09870612 -0.058152508 0.060633473 -0.026284225
0000c0 73 7e 6f 3d 20 4e d1 bd a6 e7 45 bd 09 8c 7d bb
       0.0584702 -0.10219979 -0.04831662 -0.0038688204
0000d0 ef 7c 7f 3c a5 de 32 3c 1c 49 81 3b 2f b9 f4 3d
       0.015593751 0.01091734 0.003945483 0.119493835
0000e0 2d ec a6 3d 1c f7 a7 3b c6 cd 35 bc 67 61 3b 3d
       0.08150516 0.0051258933 -0.0110964235 0.045747187
0000f0 02 18 91 3c 99 de 26 bc 4b dd 83 bd 24 aa 82 bd
       0.017711643 -0.010184907 -0.06438693 -0.06380108
000100 05 0a 6d bd 6d 73 a4 bb fe d5 a5 bd 08 8d 08 3d
       -0.057870883 -0.0050186426 -0.080974564 0.033337623
000110 9c 55 85 3c f8 92 d5 3c 0a b1 af bc 61 6f 80 3d
       0.016276173 0.026071057 -0.021446723 0.06271244
000120 c3 c9 68 3d e4 0f 05 bd 17 91 a3 bd a3 b0 25 3c
       0.05683304 -0.032485858 -0.07986658 0.010112914
000130 66 c6 6d 3d f2 b8 2f 3b 6b f0 80 bd 74 90 02 bd
       0.058050536 0.0026813117 -0.06295856 -0.031876042
000140 49 10 d5 3d c8 10 38 bd 9d 7d dc 3d fd 97 99 bc
       0.10403497 -0.04493788 0.10766146 -0.018749231
000150 bf f5 d4 3b 03 ca 6b bd 61 25 0f 3d f7 9e 9d bc
       0.006499022 -0.0575657 0.034947757 -0.01924084
000160 bd 83 9c bd ca 4f 48 3b 0f 6e 97 3c 6c 41 8e bd
       -0.076423146 0.0030565136 0.018485097 -0.06946072
000170 ae 5c 55 bd 01 dc 75 bd 2e 8f 88 3c 9f e7 dd 3c
       -0.05209034 -0.060024265 0.016669836 0.027087985
000180 ee 6d b1 3c fe 53 c7 bd 3a 4c c1 bd 01 18 63 bd
       0.021658864 -0.09732817 -0.09438367 -0.055442814
000190 2f 46 1b 3d 0d 7b 9d bd 5d a7 d3 bd 60 28 65 3d
       0.03790873 -0.07689486 -0.103346564 0.055946708
0001a0 8b 46 d0 bd e6 79 8e bd 65 18 1b be 1d a4 94 3c
       -0.10169705 -0.06956844 -0.15146025 0.018144662
0001b0 89 95 e5 bd 83 9f aa bd 49 28 94 3d 6b ab 21 3d
       -0.11210162 -0.08331206 0.07234246 0.039470118
0001c0 f1 c7 67 bd f6 15 aa bd 7f 5d e2 3c a7 9c 05 bd
       -0.056587163 -0.0830497 0.027632473 -0.0326201
0001d0 ce e9 9b bd 06 29 c2 bd 0e 2c 00 3d 73 6a c8 bb
       -0.07612954 -0.09480481 0.031292014 -0.0061162054
0001e0 ef b1 7d bd f6 e8 43 bd 8f 9b 04 3d ed 47 16 3e
       -0.06193727 -0.04782959 0.032374915 0.14675875
0001f0 fd dc 82 3c 79 0a 89 3c b0 01 ca 3d 70 8d 4f bc
       0.015974516 0.016728627 0.09863603 -0.012667999
000200 76 2a ca 3d 8d 64 b4 ba aa c0 b0 3d db 64 d6 3d
       0.0987138 -0.0013762877 0.08630498 0.104684554
000210 50 1e b2 3b af 8d 54 bc 4d bd a8 bd 35 32 8e 3c
       0.0054357424 -0.012973233 -0.08239231 0.017357925
000220 66 37 8a bd ee 76 80 ba 20 c9 9c 3c df 4e f3 3c
       -0.06748848 -0.0009801069 0.019138873 0.029700695
000230 a5 3b 79 3d 5c 8e 9a bd 55 92 fd bc 68 b1 c5 bd
       0.060847897 -0.07546684 -0.030953566 -0.09652978
000240 af 8f 96 3a d7 71 2d 3c 94 9b af bd d9 f3 76 bd
       0.0011486913 0.010586224 -0.08574596 -0.060291145
000250 b5 b5 0f 3d 8a 3d e9 bd 7b 98 89 3c e9 59 59 3d
       0.0350854 -0.11388691 0.016796341 0.05306426
000260 33 ae 43 3a bc c7 85 3d 26 e0 85 3c 31 36 1d bc
       0.00074646174 0.06532237 0.016342234 -0.00959544
000270 28 cb 1f bd 87 33 60 bd 07 d1 a9 bd 76 a3 eb bb
       -0.039012104 -0.05473664 -0.08291822 -0.007191117
000280 44 99 9c bd 7e 5f 9d 3c 62 9f aa bd 29 64 ca bd
       -0.076464206 0.019210573 -0.08331181 -0.09882385
000290 9e 6d 56 bd 53 25 a1 3d 99 7d 70 3d 86 ef 3b 3d
       -0.052350633 0.07868447 0.05871353 0.045882724
0002a0 82 51 8e bd 38 a8 02 3d dc 71 e8 3a f9 2a 80 3d
       -0.0694914 0.031898707 0.0017734128 0.062581964
0002b0 fe b4 6f bb d9 47 3e 3d 1b 2d e8 3c 28 5f 03 3d
       -0.0036576386 0.046455238 0.02834182 0.03207317
0002c0 20 0d 98 bd 8a 7f e6 bb c1 7f 8a bc 01 a0 1e bd
       -0.074243784 -0.007034247 -0.016906621 -0.03872681
0002d0 c0 c9 34 3b a3 2c eb bd 49 61 0e 3d 34 19 2c 3d
       0.0027586073 -0.11483123 0.034760747 0.042016223
0002e0 e2 1d 2b 3c 7a e3 05 be e8 d9 88 bc 02 af 4d bd
       0.010444136 -0.13075057 -0.016705468 -0.05021573
0002f0 10 84 63 3d ab 6b aa bd f2 1c b1 bd c2 07 89 bd
       0.055545866 -0.08321317 -0.08648099 -0.06690933
000300 34 3c 50 bd 85 bb d2 bc f9 be c2 3c 16 8c f5 3b
       -0.050838664 -0.025724182 0.023772703 0.007493506
000310 10 c6 75 3d e9 30 db 3c b6 57 d2 bd 43 57 97 3d
       0.06000334 0.02675672 -0.10270636 0.07389691
000320 fa 5d 5e bd 02 f9 09 3d a8 42 ad 3d c9 84 39 3c
       -0.05428884 0.033684738 0.08459979 0.011323162
000330 44 86 c8 3c e4 86 f3 bd 02 ec de 3c 68 f2 68 bb
       0.024478085 -0.11890963 0.027212147 -0.0035544876
000340 2c 23 6e 3d b4 56 b1 3d 2e 35 b8 3d 8b 58 12 3d
       0.05813901 0.086591154 0.08994518 0.035728972
000350 84 5d b3 3d 24 e1 0b bd c5 65 55 3d e3 3d 8f bc
       0.08758071 -0.034150258 0.052099008 -0.017485565
000360 a1 93 35 bd a7 bd 8e bd 18 1f 7f bd 17 4f 98 bd
       -0.044330243 -0.06969767 -0.062285513 -0.0743696
000370 60 ef 19 bc 8d e8 c4 3d 11 0a 81 3c 44 e3 00 3e
       -0.00939545 0.09614668 0.01575187 0.12586695
000380 4c 4d e7 3c 41 74 5a 3b 1b 66 27 3b 0e f9 29 bd
       0.0282351 0.0033333453 0.0025543037 -0.041497283
000390 b9 a5 80 bc 01 33 15 bb 2d 78 1b 3c f4 09 92 3d
       -0.015704023 -0.0022765996 0.009489101 0.07130805
0003a0 cb 92 c3 3c e4 8d 5a 3d 14 96 79 bc f9 79 a8 3a
       0.023873707 0.053357974 -0.015233535 0.0012853733
0003b0 b2 ce e5 3d ec 92 31 3c dc c9 b5 3d e3 4b 30 3b
       0.112210646 0.010838252 0.08876392 0.00269007
0003c0 0e 06 18 bd f4 f9 a7 3d 22 87 8a 3c c2 82 83 bd
       -0.03711515 0.08201972 0.01691014 -0.064214244
0003d0 cd 48 cf 3d fb 44 a1 bb d5 0d 70 bc 40 15 72 3d
       0.101213075 -0.004921553 -0.014651735 0.059102297
0003e0 fd a0 e1 3b e0 22 eb 3d d3 65 d2 3c bf c4 97 bd
       0.0068856464 0.11481261 0.02568332 -0.07410573
0003f0 52 ef a6 3d 17 0c b7 bd ef 95 5b bd 37 fa 95 3c
       0.081511155 -0.08937853 -0.053609785 0.018307788

lstm.weight_hh_l0 f4 [512, 128]
000000 8a 30 b0 3d 6e 98 5f 3c 6e 44 9a 3c 19 a9 00 bd
       0.08603008 0.013647182 0.018831458 -0.031411264
000010 3c 5f c1 bc f9 86 5a bd 13 b9 f6 3c 95 39 57 bd
       -0.023604982 -0.053351376 0.030117547 -0.05254515
000020 6c 9b f0 3c f4 f5 b1 3d 47 03 8b 3d 35 e8 6a 3c
       0.029370986 0.0868949 0.067877345 0.014337589
000030 4e 71 87 bd 14 26 aa 3d f4 4d 14 3e 4e 1c d7 bd
       -0.06613408 0.08308044 0.14482862 -0.105034456
000040 91 32 1d be 1f 3e 49 bd 31 8c d0 bb 99 4c dd 3b
       -0.15351321 -0.04913151 -0.0063643684 0.006753516
000050 81 b8 5a 3d 9f df 1e bc 51 f0 34 3a 56 9d 47 bb
       0.053398613 -0.00969687 0.0006902265 -0.003045877
000060 e1 43 d9 3b 91 8f 44 bd 3a 83 54 3d 77 9a 04 bc
       0.0066304062 -0.047988478 0.05188296 -0.008093468
000070 cf 77 9a 3d cb 4f 1c 3c 37 29 c2 bd 19 dc c8 3d
       0.07542383 0.0095405085 -0.09480517 0.09807605
000080 04 45 16 3d c5 32 16 3d 96 19 7f 3d 43 05 a8 bc
       0.036686912 0.03666951 0.06228026 -0.020510321
000090 9d 5e 4d bd 41 83 39 bb a0 2b a6 bd 1d a3 a7 3d
       -0.05013906 -0.0028306993 -0.081137896 0.08185408
0000a0 70 6a a6 3b 0c b3 0a 3e ae c2 86 3d fe 43 d8 bd
       0.0050786063 0.13544863 0.06580101 -0.105598435
0000b0 d0 82 4f bc a6 ae 40 3d 7e 37 14 bd 4d 20 2f bc
       -0.0126654655 0.047041558 -0.036185734 -0.010688853
0000c0 a4 fe be bc 7b 28 5f 3d 1f 48 28 be 7b b3 be bc
       -0.023314781 0.054481965 -0.16433762 -0.023278942
0000d0 cc dd cf 3d 8e 6b 15 3d 9d ee 1c bd f9 b3 b9 3d
       0.10149726 0.036479525 -0.038313497 0.0906753
0000e0 f3 06 01 be 50 1c 84 bc db 64 ff bc fd a1 99 bc
       -0.12600307 -0.016126782 -0.031176021 -0.018754
0000f0 07 1a 3e bd d2 c7 13 3c f9 31 0b 3c 80 64 30 bd
       -0.04641154 0.009019809 0.008495801 -0.043064594
000100 5a d9 af bd a4 52 02 3b 73 86 ca bc 09 bb 00 bd
       -0.085863784 0.0019885683 -0.024722314 -0.03142837
000110 b9 de 04 3e 74 c6 fa bd 8a 24 a7 3d de 83 73 bd
       0.12975587 -0.12244883 0.08161266 -0.05945193
000120 18 8a 10 bb f3 aa e0 3c ab 55 13 bd 41 52 ce 3c
       -0.0022054967 0.027425265 -0.03597037 0.025185706
000130 8f 59 4b bd d6 7e 89 bd d2 0e 81 bd 13 a1 5b 3d
       -0.049645957 -0.06713645 -0.06301655 0.05362041
000140 74 d8 9c 3c 0a f9 12 be df 90 9a 3c 75 a9 48 bd
       0.019146182 -0.14352813 0.018867908 -0.04898973
000150 79 b3 48 3d f7 ac 91 bc b5 6c c3 3c 11 60 ff 3d
       0.048999283 -0.017782671 0.023855546 0.12469495
000160 84 ca 3b 3d 9e dc a6 3d fb 3a d5 bc 52 00 0a bd
       0.04584743 0.08147548 -0.0260291 -0.03369171
000170 37 71 ce 3d 75 60 ed 3d b3 0b 1b 3d f0 ec 8c 3d
       0.10080188 0.11590663 0.037852954 0.0688113
000180 62 20 82 bd 3f 02 4f 3d 7c 6c 0a be 81 a3 3a 3b
       -0.06353833 0.05053925 -0.13517946 0.0028478804
000190 29 d7 0b 3e 07 78 8b 3d 3b ae e5 3c f3 b2 14 3e
       0.13656296 0.06810003 0.028037181 0.14521389
0001a0 0b 82 c8 3d 9b 09 a8 bd 33 5a 5a bd 49 04 03 be
       0.09790429 -0.08204957 -0.053308677 -0.12794603
0001b0 13 5f c9 3b 23 cc a6 3b 2d aa 3b 3c 49 71 7a 3d
       0.006145367 0.005090253 0.011454147 0.061143193
0001c0 c5 69 1e bc a8 22 a1 bc ac 30 0f 3d 68 32 b3 bd
       -0.009668772 -0.019669846 0.034958526 -0.087498486
0001d0 ec 52 ea bd 56 0d 74 bc 87 4c 00 3e 6a 88 60 3b
       -0.11441597 -0.014895758 0.12529193 0.0034260997
0001e0 d6 6c dc 3d cb df 03 3c 54 9d 71 bd ba bb e3 3c
       0.10762946 0.008048962 -0.05898793 0.027799476
0001f0 eb 2b 9a bd 6d 44 28 bd cc a9 a9 bd 2b f9 db bc
       -0.07527908 -0.04108088 -0.08284339 -0.026852211
000200 b7 93 7c bc ba 7f 7f 3d 3a e3 9f bb 6d 31 b0 bd
       -0.015416077 0.06237767 -0.0048793824 -0.08603177
000210 05 f1 99 3c d1 80 8b 3c d7 b7 c0 3c 2c f2 1e 3e
       0.018791685 0.017029198 0.023525162 0.15522069
000220 bc 24 00 bd 4a 1c fa 3c 7b 61 5d 3b 98 03 f4 bc
       -0.031285033 0.030531067 0.0033780027 -0.02978687
000230 74 2d 54 bc 48 43 76 bd 14 9b 93 bc 1b 3c 98 bc
       -0.01295029 -0.06012276 -0.018018283 -0.018583348
000240 d0 14 fc bc ae 43 aa 3d 8c a6 11 be a9 be c0 3d
       -0.030771643 0.0831369 -0.14223689 0.094113655
000250 ab 2c 5c bd 5f dd 47 b9 fb bb 45 3c 28 9b 34 3d
       -0.053753536 -0.00019060586 0.012068744 0.04409328
000260 9e 29 c0 3c 43 55 b9 3d c6 e6 72 3d d7 56 a1 bc
       0.023457345 0.090494655 0.059302114 -0.019694729
000270 2d e5 40 bc 4b 44 9f 3d 34 61 76 3d 48 15 68 bb
       -0.01177339 0.07776698 0.060151294 -0.0035413075
000280 b5 7d e0 39 28 22 d6 bd a1 88 03 3d 0a 3d 25 3b
       0.00042818268 -0.104557335 0.03211272 0.0025213384
000290 a7 15 96 bd 19 76 5f bd 82 c7 52 bd eb 30 c8 bd
       -0.073283486 -0.054555986 -0.051459797 -0.09774955
0002a0 92 03 8a bd 95 5b 7c 3d 96 1b 81 bc ab 1b b4 3c
       -0.06738962 0.061610777 -0.015760224 0.02198585
0002b0 85 39 00 3e 17 fa a2 bb de b6 cf bc 3c 58 8f 3d
       0.12521942 -0.0049736607 -0.025355753 0.06999251
0002c0 e5 05 8d bd f4 35 88 3d 65 f6 01 3c 8d aa 09 bd
       -0.0688589 0.06650916 0.00793228 -0.033609916
0002d0 72 b1 01 bd 40 fd 80 bd 46 49 40 3d f9 2c 3f 3c
       -0.031663366 -0.062983036 0.04694488 0.011668437
0002e0 7a 35 78 3d 94 63 c6 bd d7 c1 e8 bd b2 05 7b bd
       0.060597874 -0.09686962 -0.11365097 -0.06128473
0002f0 c4 07 89 3b ee 75 b7 bb 0f 40 d9 bd 4b 0c 5b 3d
       0.004181834 -0.005598775 -0.10607921 0.05347852
000300 1e 13 de 3d 6e 06 d4 bc 3f fb 73 3d 99 b5 f7 ba
       0.1084349 -0.025881972 0.05956578 -0.0018898725
000310 23 c3 47 bc 38 45 f8 3b ac d5 df bc d2 c2 dd bd
       -0.01219252 0.007576611 -0.027323566 -0.10828175
000320 2e f3 ec bc f7 cf 1e 3e 43 4f b9 3c d7 49 b0 3d
       -0.02892455 0.1550902 0.022620803 0.08607834
000330 d2 81 3a 3b 20 aa c1 3d fb f6 93 3d 80 d5 9d bd
       0.0028458727 0.09456277 0.07224842 -0.077067375
000340 42 bb 3c 3d cf ba db bc a5 3d f1 3d 0f d1 b0 3d
       0.04607702 -0.026822476 0.11779336 0.08633625
000350 84 f8 ec bd 15 06 b2 3d 4e 67 1d 3d a0 90 5f bd
       -0.11570838 0.08692566 0.038428597 -0.054581285
000360 fc 5f 0e 3d 3e bc e3 3d 51 3f 98 bc 72 f6 a0 3d
       0.034759507 0.11119889 -0.01858488 0.07859506
000370 09 a5 01 3a 27 e0 a8 bd 69 96 1d 3e 8a 6f d3 3d
       0.00049455516 -0.08245879 0.15389408 0.10324009
000380 6b 05 07 be ae 8f 2c bc 4c 51 19 3d ef 6d 3a 3d
       -0.1318566 -0.010532303 0.037431046 0.045514997
000390 1d e1 c7 bb a2 1d d9 bd 3c 93 17 be 92 05 89 bd
       -0.0060998336 -0.10601355 -0.14802259 -0.066905156
0003a0 30 dd e8 bc 22 c6 2f bd 47 ca 56 3d 95 13 87 bd
       -0.028425783 -0.042913564 0.052439 -0.06595532
0003b0 0d 2d 31 bd b6 61 3e bc bf 20 33 bd f2 3d e3 3d
       -0.043255854 -0.011619976 -0.0437324 0.110957995
0003c0 ce fe 01 3d 9c 04 5d bb 15 9b 2b bd e3 23 9b ba
       0.03173714 -0.0033724671 -0.041895945 -0.0011836257
0003d0 cc b8 b0 3d ef ad 0d 3d b4 29 31 3d 33 87 8f bd
       0.08628997 0.034589704 0.04325266 -0.07008209
0003e0 45 97 32 bb b2 61 da 3c 74 5c b8 bd 76 ad 82 bd
       -0.0027250808 0.026657913 -0.09002009 -0.06380741
0003f0 c4 aa 40 3d 2c 22 d3 3d 0e 27 4e bd ac f2 b9 bc
       0.047037855 0.10309252 -0.050330214 -0.022698723

lstm.bias_ih_l0 f4 [512]
000000 eb 67 24 3d d6 3c 30 3d fc 02 e7 bd 64 ce fc 3c
       0.040138166 0.043026768 -0.11279866 0.030860133
000010 9a 0f a0 3c b4 0d 45 3d bd c0 3a 3d 88 60 88 3d
       0.01953869 0.04810877 0.045593966 0.06659037
000020 46 02 50 bd 46 07 6c 3b c7 2f d3 bc 93 65 ef bc
       -0.050783418 0.0036015077 -0.025779618 -0.029223239
000030 3a 55 73 3c ba ec 6b 3c 88 6c 38 3d bc cf 3b 3c
       0.014851863 0.014399702 0.04502538 0.011463102
000040 0f f7 27 3c 73 8f d1 bd 0f f9 ac 3d 3f 26 17 bc
       0.010251774 -0.10232439 0.08445942 -0.009225427
000050 a8 64 62 bd 39 5e 12 3d 6d 16 3c 3d f0 87 16 3c
       -0.055271775 0.03573439 0.045919824 0.009187683
000060 f9 34 9e bd f7 ed 87 bd 18 91 01 bd 15 2b 51 3d
       -0.077249475 -0.06637185 -0.031632513 0.051066477
000070 6e 02 34 bd 5e 59 fe 3c 5b d3 52 3c 58 01 2b bc
       -0.04394763 0.031048473 0.012867774 -0.010437332
000080 61 a8 5f 3d 24 54 e1 bd 8f 4e 70 3d 62 a3 85 bc
       0.054603938 -0.11002377 0.05866867 -0.016313259
000090 4a 05 6b bd c8 2b 1b bd f6 a3 d2 3b 01 2b 50 bd
       -0.05737809 -0.03788355 0.006428237 -0.05082226
0000a0 9c 44 06 3c 36 6f 2d 3d d0 b8 8b bd ea cb c6 bc
       0.008195069 0.042342387 -0.068223596 -0.024267156
0000b0 b6 57 53 bc eb 7e 37 3c 99 1f 82 3d 90 99 f2 bd
       -0.01289933 0.011199693 0.06353683 -0.11845696
0000c0 e6 5b 58 3d 99 be 92 bd 25 b3 d5 bd 8a 1d 22 bb
       0.052822016 -0.0716526 -0.1043456 -0.0024736845
0000d0 db f6 12 bd 21 44 e3 3c 4a fd 96 bd e8 34 19 bb
       -0.03587995 0.027742447 -0.0737253 -0.0023377482
0000e0 af 2e 6e bd 01 78 21 bd ef 8d 52 3c 45 cd cc 3c
       -0.05814999 -0.039421085 0.012851222 0.025000224
0000f0 42 b3 73 3d 55 26 a3 3c 71 37 21 bc a5 91 60 bd
       0.059497125 0.01991574 -0.009839878 -0.054826397
000100 10 ea 42 bd c0 5a 03 be db eb 61 bb 7c df df 3b
       -0.0475865 -0.12827587 -0.0034472856 0.0068320613
000110 d7 5f 59 bd 1b 32 42 3d 59 6c 54 bd 0a 61 88 bd
       -0.053069916 0.047411066 -0.05186114 -0.06659134
000120 31 92 28 3b aa 2f d8 bc 00 b5 91 bd 70 aa 40 bd
       0.0025721902 -0.026389915 -0.07114601 -0.047037542
000130 f8 7e a1 3d b1 28 9b 3c 5d 2e 09 be c6 55 5d bd
       0.078855455 0.018940302 -0.13396592 -0.054036878
000140 ad d6 d9 bd c8 db 57 bd 9e 35 64 bd 66 12 77 bd
       -0.10636649 -0.052699834 -0.055715196 -0.06032028
000150 c8 03 8a bd c5 4a 59 3c 1e fe 6a bd d4 f0 d8 bd
       -0.067390025 0.013262455 -0.05737125 -0.10592809
000160 1c 9e a1 bd f3 35 f6 bc c3 19 b3 bd 7a 9a c8 3d
       -0.07891485 -0.030055022 -0.08745148 0.09795089
000170 21 67 d3 3d 84 cf 3b 3d c2 a2 97 3c db 4d f1 3b
       0.10322405 0.0458522 0.018510226 0.0073640174
000180 80 26 1d bd f4 c8 0b 3d 05 08 aa bc e1 e2 01 3d
       -0.038366795 0.03412719 -0.020755777 0.03171051
000190 6f 96 11 3c 1b 47 39 bd 5b ad 7e bc 46 ed a3 3c
       0.008885964 -0.045233827 -0.015544261 0.020010602
0001a0 1f 2e a7 bd 66 b0 cd 3c 38 e9 49 3c 37 dd 97 bd
       -0.08163094 0.025108527 0.01232367 -0.0741524
0001b0 52 4d 78 bd 40 00 5e bb 98 a1 3f 3d 36 59 19 bd
       -0.060620613 -0.003387466 0.046784967 -0.037438594
0001c0 db ad 34 3d de be b2 bd 8b 2d a7 bd ff ce 48 bc
       0.044111114 -0.08727811 -0.081629835 -0.012256383
0001d0 32 97 0f 3d 04 ed 9d bd cd 34 43 bd 2a 9f ad bd
       0.0350563 -0.07711223 -0.047657777 -0.08477624
0001e0 69 7d 3f 39 5c 69 a7 3d 1c 3b 5b 3c 0c 8a af 3d
       0.00018261898 0.081743926 0.013380792 0.08571252
0001f0 ea e9 db bd 59 be 9a 3d a3 14 b8 bd 01 87 59 3d
       -0.10737975 0.07555837 -0.08988311 0.053107265
000200 99 8f 68 bc 14 ef 43 bd 62 5d c0 bd b3 ce 08 bc
       -0.014194393 -0.047835425 -0.09392811 -0.008350062
000210 7c bd 5b 3c f7 19 29 bd c8 4c 70 bc 8b 80 3a bc
       0.013411876 -0.041284528 -0.014666744 -0.011383186
000220 3c 7b a9 bc bf 39 85 bc 9f 94 86 bd 3a 57 6a 3c
       -0.020688646 -0.016262887 -0.06571316 0.014303023
000230 de 5a d0 3b 6d 3d de bd b6 28 05 bb 96 7f 4f 3d
       0.0063584885 -0.1085156 -0.0020318455 0.050658785
000240 53 f1 97 bd 33 bd c2 ba 93 a4 2b bd f0 31 88 3d
       -0.07419076 -0.0014857411 -0.041904997 0.0665015
000250 ab 4b 82 3d 4c 13 36 3c cb 8b a4 3d e2 4d d2 bd
       0.06362089 0.011112999 0.08034476 -0.10268761
000260 bc 25 ad bd 36 c0 27 3c cd ff 8c bc a1 d8 ce bd
       -0.08454463 0.010238698 -0.017211819 -0.100999124
000270 c7 6a 81 3c a6 da 37 bd d4 c2 2e bd 15 0a f8 3c
       0.015797986 -0.044886254 -0.04266627 0.030278245
000280 49 aa 4f 3d 28 f6 24 bd cd 9c 7b bc 12 ec 22 ba
       0.050699506 -0.040273815 -0.015357208 -0.0006214987
000290 8f 5d 8c 3d c3 bd 09 3c 2b 80 bd 3d 58 d6 37 3b
       0.068537824 0.008407059 0.09252962 0.0028051343
0002a0 17 00 c6 3c 7b f4 5b bd a4 ef e0 bd fe 85 1f 3d
       0.024169965 -0.05369995 -0.10983208 0.038946144
0002b0 cf ef 17 3d 1f 70 28 bd b1 25 91 bd 30 c9 17 bd
       0.037093934 -0.041122552 -0.07087267 -0.0370571
0002c0 5e 36 86 bc 1e c1 81 bc ba eb bc 3c d2 1f 99 bd
       -0.016383346 -0.015839156 0.023061622 -0.07476772
0002d0 50 18 49 bd 1b 8d 9b bc ef 51 b8 3c 3f af f2 bc
       -0.04909545 -0.018988183 0.022500006 -0.02962458
0002e0 f6 de 85 3c ea b3 dc bb 4f 1c 6d 3c 25 b3 ac bd
       0.016341668 -0.0067353146 0.014472081 -0.084326066
0002f0 5f 1d b9 3c 3c 89 9a bd af e8 b2 bc ee 96 81 bd
       0.022597013 -0.07545707 -0.021839468 -0.06327616
000300 98 2e 8c bd 54 07 65 bd 9e 31 80 bd b5 02 2f 3d
       -0.068448246 -0.05591519 -0.06259464 0.04272719
000310 c3 21 dd bd eb 0a 3b bc e4 5e 12 bd f6 ec 88 bd
       -0.10797455 -0.011416177 -0.035735026 -0.06685822
000320 7b fa ca 3c c2 17 ac 3d e5 38 ee 3c a5 42 5a bd
       0.024777642 0.08402969 0.029079864 -0.053286213
000330 96 f0 9e 3d 6b ad ae 3c 8d 71 9a bd c3 06 0a bd
       0.07760732 0.021322927 -0.07541189 -0.033697855
000340 66 a8 98 bc 1e dc d1 bc 77 47 1e bd fd 03 86 3d
       -0.018634986 -0.025617655 -0.038642373 0.065437295
000350 6a 3d 39 3d f1 49 7b bd d2 32 88 3d 7f 1a e5 bd
       0.045224585 -0.061349813 0.06650318 -0.11186694
000360 fd 74 4e bd 00 36 4f bc 15 12 5a bc af 37 85 bd
       -0.050404537 -0.012647152 -0.013309975 -0.065047614
000370 bd 4c 80 bd 0c 42 28 bd 3f 7e 2f bd a1 76 95 3d
       -0.06264637 -0.041078612 -0.042845007 0.07298017
000380 76 16 eb 3c 13 7d 6b bc 2a cb 8e bd d6 e9 0a 3d
       0.028697234 -0.014373082 -0.06972344 0.03391441
000390 d9 26 d2 3a 98 6e 63 3d b3 c7 92 3c 71 e7 30 3a
       0.0016033306 0.055525392 0.01791749 0.00067483546
0003a0 0a 91 f0 3a 3c 99 75 3d b3 69 88 bd 80 fd 6d 3d
       0.0018353772 0.05996059 -0.066607855 0.058103085
0003b0 b8 69 00 3d d6 e3 06 3b 51 4c 83 bd 12 05 29 3d
       0.03135082 0.0020582578 -0.064110406 0.0412646
0003c0 3a 49 98 bd 25 22 9e 3d 68 3f 14 bc ff 27 62 3d
       -0.07435842 0.07721356 -0.00904832 0.055213924
0003d0 a8 1d f5 3c e0 ee 86 bd 6b bc c3 bd 2a 88 c9 bc
       0.029921368 -0.065885305 -0.09557422 -0.02460106
0003e0 9f cc 89 bd 8e eb f7 bc 0a 60 a5 bd 12 94 86 3d
       -0.067284815 -0.030263688 -0.080749586 0.06571211
0003f0 d6 76 da bd 79 aa 11 bd 15 07 d5 bd 4f e8 b9 3b
       -0.106671974 -0.035562966 -0.104017414 0.0056734453

lstm.bias_hh_l0 f4 [512]
000000 e4 98 a6 bd cb f5 a9 bd 11 a1 42 3c fb d3 13 bd
       -0.0813463 -0.082988344 0.011879222 -0.036090832
000010 ef 34 a2 3d cf 96 c2 3c 73 02 55 3d 8b 62 db 3d
       0.079202525 0.023753552 0.05200429 0.10712155
000020 24 bf 4f bd c6 ec f0 3c 75 a9 9a bc e3 4f ea 3d
       -0.050719395 0.029409777 -0.018879632 0.114410184
000030 c9 5b a7 bd d4 bb 42 3d e9 6c 32 bd be f1 37 bb
       -0.081718035 0.047542408 -0.043560896 -0.0028067674
000040 42 4e 0e 3d ed 5f fd ba ce 65 c8 3c a6 82 ec bc
       0.0347426 -0.0019330956 0.024462607 -0.028870892
000050 81 ff 66 3d 92 86 93 3b e9 2f 6b 3d 18 3b 29 3c
       0.05639601 0.004502126 0.057418738 0.01032903
000060 4f dd c6 bd 53 3b 9d 3d 41 ec 61 3d cf bd 28 3d
       -0.0971018 0.07677331 0.05515695 0.04119664
000070 7c 53 fd 3c 4d f1 21 3d ca fb 70 bc c4 00 9b 3d
       0.030923598 0.039536763 -0.014708469 0.075685054
000080 6c 2e 8c 3d c6 0e fa bd 1f ff 0a 3d 91 45 53 bd
       0.06844792 -0.12209849 0.03393471 -0.051580016
000090 58 f4 61 bc 82 4d a8 bd b5 0d a5 3d 92 72 7e bd
       -0.013791166 -0.082179084 0.08059255 -0.06212098
0000a0 72 89 ef bd fd a5 da 3c 77 b6 54 bd f9 b5 49 bd
       -0.116961375 0.026690478 -0.051931825 -0.04924581
0000b0 ed d2 d9 ba 49 82 f4 bc 33 df 5a 3d 82 21 85 3c
       -0.0016618647 -0.029847281 0.053435516 0.01625133
0000c0 c3 98 84 bc 4c 0d ca 3c 6a 4f 4d 3d ff 7d c0 bc
       -0.016186124 0.024664544 0.050124563 -0.02349758
0000d0 c5 76 53 bd 7d 8b d2 3c e2 f2 80 3d a8 8e 8b bd
       -0.05162694 0.025701279 0.06296326 -0.06814319
0000e0 f7 50 87 3d fc 75 e8 bd 5f 0f 11 bd f3 4e 68 bc
       0.0660724 -0.11350629 -0.03541505 -0.014178979
0000f0 3e 6a 14 bc 50 c6 11 3d 8b 93 16 bd 04 5a 97 3b
       -0.009058533 0.035589516 -0.0367618 0.004618885
000100 d1 8e 07 3c 47 47 f2 bc 5a 60 d4 3c 2e 68 1e bd
       0.008273796 -0.029575003 0.02592485 -0.038673572
000110 dc 03 8c bc 47 d3 62 3d 6f 34 f1 bd ec c7 7a bd
       -0.017091684 0.05537727 -0.11777579 -0.061225817
000120 f9 c0 9c bc e4 4a 90 bd f6 2f 08 bd 08 8b 39 bd
       -0.019134985 -0.07045534 -0.033248864 -0.045298606
000130 82 6b 37 bd 58 cf 81 bd 88 a5 91 3c 69 48 9d bd
       -0.04478026 -0.06338376 0.017779127 -0.07679827
000140 a6 9c 8c 3c f4 a1 a2 bd 4a 52 45 bd 64 2e 99 3d
       0.01716454 -0.07941046 -0.04817418 0.074795514
000150 54 b1 f9 3c 69 0b 08 bd 51 a7 b4 3b e1 b5 6b 3d
       0.030480064 -0.033214007 0.0055131097 0.0575465
000160 bf d7 97 3d 4d de 80 bd b8 2c 0c 3d de 0e 86 bd
       0.07414197 -0.062924005 0.034222335 -0.065458044
000170 6a 41 1f bd 10 51 1e bc 40 b9 21 3c 8b f9 95 bd
       -0.038880743 -0.0096628815 0.009870827 -0.07322987
000180 a9 55 89 3c 30 d8 44 3d 73 9d ca bd 92 f8 08 3c
       0.016764479 0.048057735 -0.09893312 0.008360045
000190 81 23 5a bd 76 43 91 bc a1 c3 cf 3c 39 19 52 3d
       -0.053256515 -0.017732363 0.025361838 0.051293585
0001a0 58 33 3e 3d b0 27 d2 3d 92 9b 89 3c 38 39 cc bd
       0.046435684 0.10261476 0.016797815 -0.09971851
0001b0 8e 74 b3 3d 22 de 3d bd f0 2b f3 bc c3 ce 0b 3d
       0.087624654 -0.04635442 -0.029684037 0.03413273
0001c0 5e 71 d9 bb 1b fd 2c bd 39 45 8b 3d e8 89 6f 3d
       -0.006635829 -0.042233568 0.068003125 0.058481127
0001d0 0e c3 71 3c ee 6a 33 bd 01 0e 08 bd a2 06 14 3d
       0.014755977 -0.043803148 -0.03321648 0.036139138
0001e0 3e 34 8e 3d a1 cf 9c bd 01 2c ac bd d5 bf 87 3d
       0.06943558 -0.076567896 -0.084068306 0.06628386
0001f0 f3 95 be bd 22 23 65 bd 57 ce 96 bd 74 c0 24 bd
       -0.09305944 -0.05594171 -0.07363575 -0.0402226
000200 92 29 2c 3c c6 7b b4 bc a2 65 99 3a c9 17 4a bd
       0.010507958 -0.022031676 0.0011703263 -0.04933909
000210 c0 62 d2 bd 8f 86 8b bc da 87 e4 3c bd dd 49 3d
       -0.10272741 -0.017031936 0.02789681 0.04928373
000220 9f da 0d bc db d8 92 3d 88 af b4 bd c0 79 7c bd
       -0.00865808 0.07170268 -0.088225424 -0.061639547
000230 ba fe 8f bd 73 ae d7 bd dd ba c8 3c af ed 8b bd
       -0.07031007 -0.105313204 0.024503166 -0.06832444
000240 4f c6 93 bd 7f 17 af 3c ba 3c 46 3d 3f cb c1 bc
       -0.07215559 0.021373508 0.048397757 -0.023656486
000250 6b fd a4 bc 3a aa 00 3d aa c1 a7 3c 5b de d3 bd
       -0.02014037 0.03141234 0.020478088 -0.10345145
000260 65 cd 1e 3c c8 3c e2 bd 22 52 91 bd ee 98 d6 bd
       0.009692525 -0.11046749 -0.07095744 -0.10478388
000270 15 00 04 bd a8 6c 92 bd 4f b5 a2 3d 7a a4 99 bd
       -0.03222664 -0.07149631 0.07944738 -0.075020745
000280 25 4b 3b bd a5 49 14 be 47 a5 00 be b9 86 1a 3d
       -0.04572596 -0.14481218 -0.12563048 0.037726138
000290 8f 2c b9 3d 1f 19 2a 3d e3 f7 9c 3c 1d ab 5a 3c
       0.09041702 0.041527864 0.01916117 0.013346461
0002a0 f4 52 01 be cc e1 9f 3c 59 bb 2f 3d f3 e7 a5 bd
       -0.126293 0.019516848 0.042903278 -0.081008814
0002b0 85 10 16 bc 96 2a 49 bd bf ed 0d bd 9d 14 99 bd
       -0.009159212 -0.04911288 -0.03465056 -0.07474635
0002c0 f9 61 0c 3b b9 37 e4 3c 1b e4 62 3d ec 9b 93 3d
       0.00214207 0.027858602 0.05539332 0.07207474
0002d0 89 eb a4 bd 42 08 c3 3c 39 be f8 3c e7 4e bc 3b
       -0.08052737 0.023807649 0.030364143 0.0057467106
0002e0 b5 58 d2 bd 6a ec c7 bd 80 da 84 3d 7c 57 9f bd
       -0.10270826 -0.09761889 0.06486988 -0.07780358
0002f0 c9 7e de 3c 54 c4 9f bd dc 18 7a bd 46 46 7b 3d
       0.027160065 -0.078011185 -0.061058864 0.061346315
000300 74 a7 58 bd 0d 61 41 bc de 6f 9b bd 8a 05 bb bd
       -0.05289407 -0.011802924 -0.07589696 -0.09131916
000310 9a b0 7f bd bf 64 a6 ba 11 48 58 bd 3a 63 2d 3d
       -0.06242428 -0.001269482 -0.052803103 0.042330958
000320 2d c7 35 3d db c4 6c 3c 76 c0 c6 bd 1f c8 d6 bc
       0.044379402 0.014451231 -0.09704678 -0.026218472
000330 36 9c cd 3b c3 f9 ba bc 16 9a a6 3c f7 c7 b2 bb
       0.0062747253 -0.022824174 0.020337146 -0.0054559666
000340 dd 34 10 3d 76 1b c6 3a 23 f3 d6 bc 91 bc f7 3c
       0.035206664 0.0015114385 -0.026238983 0.030241283
000350 42 2d 98 bd aa 91 ac bd d5 52 7a 3d 25 43 9e bd
       -0.07430507 -0.08426221 0.06111415 -0.077276506
000360 ee 10 a5 3c 33 bf 0c bd c9 cc 82 bb 13 60 9e bd
       0.020149674 -0.03436203 -0.0039916974 -0.077331685
000370 c9 e6 54 3d fb 89 ca 3c 7e ed 1c bc f7 62 96 3d
       0.051977906 0.024723997 -0.009578107 0.07343095
000380 d2 c0 b7 3a 5e 39 63 3d 18 b7 c3 bd dc d4 85 bd
       0.0014019257 0.05547463 -0.09556407 -0.0653474
000390 9b fa 12 bc e6 a0 24 3c b6 fa b5 3d 8a 20 8c bd
       -0.008970882 0.010048127 0.0888571 -0.06842144
0003a0 03 e9 f8 3c d7 29 a4 3c 60 62 f0 3c 09 85 bf bd
       0.030384546 0.020039482 0.029343784 -0.09351546
0003b0 66 59 2b 3d 4f 8c ac 3b d1 1a 97 bd 09 df 34 bd
       0.041833304 0.0052657495 -0.07378162 -0.044158015
0003c0 e9 a5 b2 3d 3b cb 03 3d 18 b3 e2 3c b1 42 d8 bc
       0.08723051 0.032176238 0.02767329 -0.026398988
0003d0 61 10 d4 bc be c6 d9 3c 82 4d a9 3c 61 9a 68 3d
       -0.025886716 0.026584025 0.020666841 0.056787852
0003e0 85 8f 81 3d 4c 2d 16 bc 96 d8 00 bd 44 41 6f 3d
       0.06326202 -0.009166073 -0.031456552 0.05841185
0003f0 76 ad cb bd ca 75 53 3d de de 7c 3d b7 4d 67 3c
       -0.099451944 0.051626004 0.06173598 0.01411765
