SimLoan/res/taiwan/LSTM_clf_effort_modeltaiwan_budget_20_eps_0_5_b_0_2_lt-w_1_st-w_0_5.pth (torch, 834738 bytes, 17 tensors)

init_interventions f4 [1, 2]
00000000: d7c1 693d 62dc 1e3d
0.057069626 0.038784392

clf.model.0.weight f4 [32, 4]
00000000: dc70 3b3e 89d3 813e c240 bbbe 9b4d cfbd
00000010: 7bb5 20be 4e8e fbbe 104d b8be e197 4bbf
00000020: b31c aabb 9ec1 2ebf 9941 67bf a706 13bf
00000030: fccd 4abe 5285 11be defc f63e 543f f7be
00000040: b840 07bd c5d1 123e 24e6 013f e3f0 db3e
00000050: 7e76 a23d d902 0c3f 549a d1be 86bc e83d
00000060: 85e7 17bc fb93 2bbf a5d7 61bf 1385 12bf
00000070: 3eb3 d5be f524 253f 98d6 4c3e 8db0 ddbe
00000080: 6aaa c13d 78ab 16be 4afe c33e d026 cf3e
00000090: 518a 763b 1afc 54bf 72ed 8dbf b242 37bf
000000a0: 2fa7 6d3c 778c 07bf e3dc 44bf 73f8 0ebf
000000b0: 2fac 01bc a0cc 47bf 2c5f 83bf 105c 2abf
000000c0: 2cb5 603e 5ae2 bdbe a0f7 f1be 0d2a aabe
000000d0: 5610 de3e 9264 f2be 4591 1bbf 2b70 d0be
000000e0: e4a2 11be 2211 c43e 0985 ce3d a50f a33e
000000f0: 23c5 74bd b723 243f efe1 ecbe b9d1 fe3e
00000100: 47c4 373e da4b ce3e 5150 f43d e0ca e03e
00000110: 9aaf 38be 5e2e 67be 6fb2 ae3e 5af8 aabc
00000120: 3500 febb ee82 44bf d5a1 80bf edf5 24bf
00000130: ec00 a2be 5bbe 74bf 7bdc 523e 0350 c13e
00000140: 4647 1dbd b878 37bf 735b 37bf a16e 5d3d
00000150: d6bb bdbb c257 24bf 5ca3 58bf d999 0abf
00000160: ccb6 d2be c253 f93e 1c94 3cbe 39dc e43e
00000170: 88bf 043f 326e 60bf 57aa 783d ef45 953e
00000180: 227c 383e 5216 333e 30a2 0abf 53b1 ee3d
00000190: 70be bbbe 4886 e53e 6de5 da3d f965 203e
000001a0: 40bc 353e 6ce0 323f 84f8 0a3f 8261 b3be
000001b0: 171a 863e 4007 983d 11be 8c3e 4ffc 193e
000001c0: 2cac 903d c908 3f3f 398f a1bc 44f7 93be
000001d0: 64e4 523e 824b 073d d275 4dbf 6229 f2be
000001e0: 2f29 3abc 1e90 f8bd 1b8e cfbd 7df0 c03e
000001f0: 45f6 08bf 633e b53e 6214 d1be 5263 673e
0.18304771 0.253567 -0.36572844 -0.10122224 -0.1569423 -0.49132007 -0.35996294 -0.79528624
-0.0051914095 -0.68264186 -0.9033447 -0.57432026 -0.1980514 -0.14211014 0.48239797 -0.48290503
-0.033020705 0.14337833 0.5074179 0.4295722 0.07932757 0.54691845 -0.40938056 0.11364083
-0.009271507 -0.67022675 -0.8821967 -0.57234305 -0.41738313 0.64509517 0.20003736 -0.4329876
0.09456332 -0.14713848 0.38279945 0.404593 0.0037619064 -0.83197176 -1.1088088 -0.71586144
0.014505192 -0.5294871 -0.76899546 -0.55847853 -0.007914587 -0.7804661 -1.0263419 -0.66546726
0.21944112 -0.37086755 -0.47259235 -0.33235207 0.43371838 -0.47342354 -0.6076854 -0.40710577
-0.14222294 0.3829432 0.10083968 0.31847873 -0.059758317 0.64116997 -0.46266124 0.4976938
0.17945968 0.40292245 0.11929382 0.4390478 -0.18035737 -0.22576281 0.3412051 -0.020870376
-0.0077514895 -0.7676228 -1.0049387 -0.6443775 -0.31641328 -0.9560296 0.20591919 0.37756357
-0.03839805 -0.7166858 -0.71623915 0.054060582 -0.005790214 -0.6419641 -0.84624267 -0.54141
-0.41155088 0.48696715 -0.18415874 0.44699267 0.51854753 -0.87668145 0.060709324 0.29154918
0.18016103 0.17488983 -0.5415373 0.11654916 -0.3666873 0.4482901 0.10688291 0.156639
0.17747593 0.6987369 0.54285455 -0.3503533 0.2619178 0.07423258 0.2748876 0.15037654
0.07064089 0.7462278 -0.019721614 -0.28899586 0.20594937 0.033030994 -0.80257905 -0.47297198
-0.011362358 -0.12136863 -0.10134526 0.37683478 -0.5350078 0.3539916 -0.40835863 0.22596481

clf.model.0.bias f4 [32]
00000000: 3a6f d93e 7065 5c3e 241d 573e 6404 8a3e
00000010: 07cc e8b7 77ef 1dbe 4a40 4a3e 62b4 513e
00000020: f3a9 babb fe7f 833e 75b3 383e 915f 6e3e
00000030: 9482 d7bd ba96 91be 1d57 01bc 313e c6be
00000040: b8da 86be 4384 233e 6be1 6b3e 99fa c63c
00000050: 79af 4a3e 2cce 493e 3b8a bd3e c45a 99be
00000060: 4249 b43e 1218 6f3e d26c 00be acc0 86be
00000070: f0a1 273e 8617 24bd 435f e8be d054 193e
0.42467672 0.2152307 0.2100721 0.26956475 -2.7751563e-05 -0.1542338 0.19751087 0.20478967
-0.005696529 0.25683588 0.18037207 0.23278643 -0.10522953 -0.28435308 -0.007894305 -0.38719323
-0.26338744 0.15968423 0.23035209 0.024289416 0.197935 0.19707555 0.37019524 -0.2995206
0.3521214 0.23349026 -0.12541512 -0.26318872 0.16370368 -0.040061496 -0.4538518 0.1497376

clf.model.3.weight f4 [64, 32]
00000000: ab2a 183d 6810 503e 83f2 633f 5c81 143d
00000010: 6d5c 20be b5c2 a9be 047d b53f dd35 813e
00000020: cc58 58bd a9ad 203f f7bf 2d3f 62dc 903f
00000030: 786e 0c3f bc2a 363f e79b 52be 9086 2abe
00000040: e476 e2be e477 083b e159 603f ce8f d0be
00000050: be90 913e 973d 793f 61e8 bf3c afec 263e
00000060: 6e7c 663d de09 7c3d 8fc3 113d cff1 a3be
00000070: 4b10 6d3d c3ee 3b3e b871 1c3e 9c9a 163e
00000080: 12f0 183e 1e1f 3f3c c144 60bf ff54 4bbd
00000090: 10fe c93c 3b4b bbbe 7a35 afbf 9d88 17be
000000a0: c66b 68be 3664 bcbe c33d 07bf a168 98bf
000000b0: ff47 b1be 3fc8 febe f2d0 073e c69e 1abf
000000c0: 466d 5bbd b25e 46be 6113 62bf 945d 98be
000000d0: 510b 4d3d 7060 40bf 5b70 2a3e 6057 a33a
000000e0: 5b1f 393e 42f4 73bb 21a0 003e 3a6b 723c
000000f0: 1ba8 423d 85cb 0a3d 0c5c 953e 8056 a13d
00000100: 260b 323b 6ae8 a3bd 8e1e e6be 9fe3 b9bd
00000110: c8c2 393d c930 63be d6a5 6fbf 6a2e 983c
00000120: f789 af3d f10a 85be c278 78be 1240 1fbf
00000130: d44b dfbe acc8 e8bd fd6c 083e e757 4d3d
00000140: 27a7 a43d 8a63 793d 8bba 93be a308 92be
00000150: ef46 cd3d 4294 b2be 71de 513d 4916 693e
00000160: fc04 1a3e fcc2 133d 4a04 193d ecd8 993d
00000170: 2e82 783e 3cd6 003d 6701 0d3f d98a 453d
00000180: c281 9e3c 21ab 543d 3595 083f d5f2 fd3c
00000190: 6daa 53bd 913f 2cbe a47d 983f a7cb 303e
000001a0: 728a 08be 06c4 783e 8b17 8f3e 5e5d 3c3f
000001b0: f003 093f f14a 073f 30ed 0b3d 32ca 30be
000001c0: 5926 02be f2ed 70ba 1b5d 183f 78b2 74bd
000001d0: 0baa 5e3e e690 213f 7506 ee3c e2ee 963d
000001e0: 3a34 9138 255a ab3c b8d4 ec3d a72c 00bd
000001f0: 19c9 ea3d bd67 883e 67ef 9c3c 9fdc be3d
00000200: 4aff 103e f2a8 703e 9058 623f eb94 dabd
00000210: 7a61 9bbe 091b b4be 364e af3f c472 3f3d
00000220: c0e0 31be e826 d23e 8d9b 293f 8df0 783f
00000230: 3c31 293f b27e ed3e 1511 95be 15a0 dabd
00000240: c91f ebbe 3b3c 4abe ff43 2d3f f4ac 3fbf
00000250: 67e3 2d3e 6929 673f 4163 01bd a06e 953e
00000260: 4a06 223e 5e42 fdbd 52de 5abd 0107 0bbd
00000270: 7526 ee3c 3a14 363e b1f4 c33d 0c82 933e
00000280: 13a6 133e 234e 1d3d 85b6 15bf dded 153d
00000290: d3dc a4bd 4707 19bd dd12 90bf 2f32 443e
000002a0: d8ab 393e 086f f3be 7fb9 01bf e69a f7be
000002b0: 62fb f4be 3001 adbe af37 c33d 2a2a 53bd
000002c0: aaf4 343d 9ddf 23be 3856 19bf d593 28bd
000002d0: 72c5 bebd 70db 1bbf a6c2 5b3e ca6c bf3d
000002e0: d5c4 c93d 3efe 613d 38af a73d 2674 c6bd
000002f0: a7b1 2b3e cbf4 433d 8d08 b23e 505c ed3d
00000300: 686f 223e 833c 9ebc 6688 10bf 0e5c e9bd
00000310: 32ee a93d bf3e 5cbd a9e5 a2bf 742d da3c
00000320: 0829 ecbc 2022 a7be 723b 17bf dac1 40bf
00000330: a3b2 76be b866 90be 42b6 053e e411 50bd
00000340: 8abf 20bd 6707 2f3d d482 d2be 08af 12bf
00000350: cabd 66be c0db f3be d2f6 cd3a a780 a7be
00000360: 1dfc 363d 9b08 0e3e b889 0dbe bb94 603d
00000370: c4fa 483e 3869 fb3c db24 7a3e 7567 9c3e
00000380: c856 f53d 2731 593e b820 743e a0ed f33d
00000390: 521e 78be 1dc3 f3be 7181 8b3f d030 a53e
000003a0: 1a4f a4be b09e cd3e 500d 353e e457 e83e
000003b0: 8a97 d53e d657 863e 6c14 5abe b75c 85be
000003c0: f47f 99be af0e b8bd 096c 7a3e edeb 8abe
000003d0: 4684 a63e 70d7 dc3e 8957 84bc ac13 7fbd
000003e0: a4c5 793d a1af dc3d 36a9 003e 2db3 cebd
000003f0: a56a 153e 3c9c 1d3e 60a6 623a 7b2a f83d
0.037150066 0.20318758 0.8904192 0.03625618 -0.15660258 -0.33156362 1.4178777 0.25236407
-0.05281906 0.62764984 0.6787104 1.1317255 0.5485606 0.7115896 -0.20567285 -0.16652894
-0.4423133 0.0020823414 0.87637144 -0.40734714 0.28430742 0.97359604 0.023426237 0.16301225
0.05627101 0.061532848 0.03558689 -0.32020423 0.057876866 0.18352799 0.15277755 0.14707416
0.1493533 0.011665134 -0.8760491 -0.049641605 0.02465728 -0.36580834 -1.3688195 -0.14798208
-0.22697362 -0.36795205 -0.52828616 -1.190693 -0.3462524 -0.4976215 0.132633 -0.6039852
-0.05357101 -0.19372061 -0.8831082 -0.29758894 0.05005962 -0.7514715 0.16644423 0.0012461953
0.18078367 -0.0037224446 0.12561084 0.014796073 0.0475236 0.033885498 0.2917179 0.07877827
0.002716729 -0.08003314 -0.44945186 -0.090766184 0.045351774 -0.22186579 -0.9361242 0.01857682
0.085712366 -0.2598491 -0.24264815 -0.6220714 -0.4361254 -0.113664 0.13322826 0.05013266
0.08039694 0.060885943 -0.28853258 -0.28522214 0.10023295 -0.34878737 0.051237527 0.22762407
0.15040964 0.036074623 0.037357606 0.07512078 0.2426841 0.03145431 0.55080265 0.04822812
0.019348983 0.051921014 0.5335267 0.03099958 -0.051676203 -0.16821124 1.1913342 0.17265187
-0.13334063 0.24293527 0.2794765 0.7357997 0.53521633 0.52848727 0.034161747 -0.17264631
-0.12709941 -0.000919073 0.5951707 -0.059740514 0.21744554 0.6311172 0.029055813 0.07369782
6.923867e-05 0.020917008 0.115640104 -0.031292584 0.114641376 0.26641646 0.019157125 0.09319424
0.14159885 0.23501948 0.88416386 -0.10672935 -0.30347806 -0.35176876 1.3695743 0.04674031
-0.17370892 0.41045308 0.66252977 0.9724205 0.6609075 0.46385723 -0.29114595 -0.106750645
-0.45922688 -0.19749539 0.6768188 -0.7487328 0.16981278 0.9029756 -0.031588797 0.29185963
0.15822712 -0.12366174 -0.053434677 -0.033942226 0.029071072 0.17781153 0.095681556 0.28810155
0.14418821 0.038404595 -0.5848163 0.036603797 -0.080499314 -0.037360456 -1.1255757 0.19159769
0.1813196 -0.47545648 -0.5067367 -0.48360366 -0.4784804 -0.33789968 0.09532105 -0.051553883
0.044178642 -0.1600327 -0.59897184 -0.04115661 -0.093150035 -0.6088171 0.21460971 0.09346922
0.09851996 0.055174105 0.08187717 -0.09690122 0.16766988 0.047840875 0.3477215 0.11589873
0.1586281 -0.019315964 -0.5645813 -0.11394511 0.08297385 -0.053770777 -1.2726337 0.026633002
-0.028828159 -0.32643223 -0.5907508 -0.75295794 -0.24091582 -0.28203368 0.13057807 -0.05079831
-0.039245166 0.04273167 -0.4111544 -0.57298326 -0.22533336 -0.47628593 0.0015713817 -0.3271534
0.044674028 0.1387047 -0.13822067 0.05482934 0.1962691 0.03068982 0.24428122 0.3054768
0.11979443 0.21210156 0.23840606 0.11910558 -0.24230316 -0.47609797 1.0898877 0.32263803
-0.320916 0.4016013 0.1768086 0.45379555 0.41717178 0.26238889 -0.21296853 -0.26047298
-0.29980433 -0.08987176 0.24455275 -0.27133122 0.32522792 0.43133116 -0.016155021 -0.06227462
0.0609795 0.10775686 0.12564549 -0.10092769 0.14591463 0.1539163 0.00086460076 0.121174775

clf.model.3.bias f4 [64]
00000000: c8fe 1abe aa97 803e 880f 403e 3b9b ebbd
00000010: d9f4 e93c 51d4 283e 516f 293e c38d 1bbe
00000020: 3b76 01bd 5590 02bd 5503 563c 31c7 3a3e
00000030: 3ea2 c0bd ee02 ae3d 62a5 093e 0b70 3fbe
00000040: 5722 a63e 9290 0d3e 84c7 2cbd 86a1 913e
00000050: 6b80 4c3e 0b29 41be 746d 38be 11f2 8a3c
00000060: bfcf 7a3e cef0 babc 35b1 8f3e 6e06 52bd
00000070: 1304 bd3e 9e58 2c3e 0784 103e c3ed 9abd
00000080: 8620 a6be c0c9 373d 7d00 fe3d a1f8 973e
00000090: 95d5 f2bd 6d8d e53d 2327 7e3e 20e5 643e
000000a0: 6197 893e df3f 593e 44b1 e03c c25b 243e
000000b0: b213 aa3e 1a07 483e 1a89 423b 3b99 18be
000000c0: a32b 9e3e 1034 623e 83e2 ce3d 9f8d 31be
000000d0: fea4 243e aaa5 063e a3d3 bb3e b7a0 e63c
000000e0: 93c0 343e 7715 293e ff5a 42bd 9a9c ac3d
000000f0: c649 0a3e 85bb 563e af9c 5d3e 2b36 3abe
-0.15136254 0.2511571 0.18755925 -0.11504217 0.028559135 0.16487242 0.1654637 -0.15190797
-0.031606894 -0.031875927 0.013062318 0.18240048 -0.09405945 0.084966525 0.13441995 -0.18695085
0.32448074 0.1382468 -0.04218246 0.28443545 0.19970863 -0.18863313 -0.18010503 0.01696113
0.24493311 -0.022819903 0.28064886 -0.051275663 0.3691717 0.1683068 0.14112864 -0.07564881
-0.32446688 0.04487014 0.12402437 0.29681876 -0.11857144 0.112086155 0.24819617 0.22353029
0.26873305 0.21215771 0.027428277 0.16050628 0.3321815 0.19533959 0.002968377 -0.14902203
0.30892667 0.22090173 0.101017974 -0.1733918 0.16078565 0.13149133 0.36684904 0.028152807
0.17651586 0.16512094 -0.047450062 0.08428307 0.13504705 0.2096997 0.21641801 -0.18184726

clf.model.6.weight f4 [1, 64]
00000000: cdbe 4cbf 885e 313e c134 653e c8f4 a4be
00000010: 3848 ecbe 8a53 2c3e 7934 b63e 4465 c5be
00000020: a193 5e3e 2455 0ebf c17d 813e 313a 763e
00000030: 2bb3 16bf 6369 443e 9e37 9d3e 0c7c 7c3c
00000040: 649b 3e3e 9bfe 7d3e 7b24 bebe d578 533e
00000050: 6836 173f 98e3 24bf 2fc9 ebbe 1f77 d63e
00000060: b8c7 1c3f 99c4 26bf 06a0 3a3e 4fd2 48bf
00000070: a88c 8d3e 7625 1e3e 5eb8 ca3e d56e 45bf
00000080: f991 50bf aa3d 7ebe 6f07 6e3e 0c3e 233e
00000090: 1bcd 85be 87d8 5ebe bd7b 7b3e 6159 5f3e
000000a0: 583c 7f3e bd50 2e3f 4d97 debe cae3 b33e
000000b0: 9b39 163e 748a 853e 29ab 4bbd 2656 85bf
000000c0: 67b8 e73e 1f54 9a3e fcdf a73e bf06 75bf
000000d0: 5a67 103e ed6a e13e 764f 993e 3e1f 17bf
000000e0: e0d0 1d3f 8ed2 233e 929d d6be 8123 973e
000000f0: af1b 533f 730d 223e 3a2f 313f 67e7 a9bf
-0.7997864 0.17321217 0.22383405 -0.32218003 -0.4614885 0.16828743 0.35586908 -0.38553822
0.21736003 -0.55598664 0.25291255 0.24045636 -0.5886714 0.19180827 0.30706495 0.015410434
0.18613964 0.24804156 -0.37137207 0.20651563 0.5906739 -0.6440978 -0.46051928 0.41887757
0.61242247 -0.65143734 0.18225107 -0.78445905 0.27646375 0.15443978 0.39593786 -0.7712224
-0.81472737 -0.2482821 0.23245023 0.15941638 -0.26133046 -0.21762286 0.24558921 0.21811439
0.24925363 0.68091947 -0.43474808 0.35134727 0.14670412 0.26082194 -0.049723778 -1.0416915
0.45257875 0.30142304 0.32788074 -0.9571342 0.14101925 0.4402689 0.29943436 -0.59032047
0.6164684 0.15998289 -0.41917092 0.29519275 0.82464117 0.15825443 0.69212687 -1.3273743

lstm.weight_ih_l0 f4 [512, 11]
00000000: 61fb e83c ad26 8fbd 1c91 65bd 3bb5 a6bd
00000010: e927 eebc 7ea6 88bc b0fd 4a3b eee3 403c
00000020: f4a1 d1bd c2f1 9ebd 6632 4a3c 9d10 c0bd
00000030: b650 ddbd b047 c1bb 310b cb3d 99e0 c8bd
00000040: 6607 5dbd 0506 a4bd 6970 e2ba adc5 16be
00000050: 808a 90bd f7f4 ccbc 93e8 76bd 125a 503a
00000060: 62b6 8b3d b0d7 70bd 075e 083e c397 24bd
00000070: f78a 0cbc 821a b5bd d5e0 40bc 2158 ccbd
00000080: 3608 383d e214 913d 5579 623d e70a 6fbd
00000090: 9bfa 28be 33f0 f03c 288d 013e fee3 ba3c
000000a0: 7c35 cbbc 567b 863d c2e9 a5bd 8c5b 65bd
000000b0: 6cbc febc ed29 04bc f22e 39be eae0 8cbd
000000c0: e8f8 9cbc c8e8 bdbd ca11 9dbd ab64 13be
000000d0: 4fa7 203e 53fb 7e3d d992 543d d8eb bc3c
000000e0: 530b c23d 4fc0 d33d 5132 833d da16 413d
000000f0: 479d 0fbd a121 953d 1083 093e b174 02be
00000100: f2f8 73bc 4bba 0a3c fd09 06be 9fe7 053e
00000110: 4c7b 1f3d 663e 803d ec3b 1abc ac77 2ebe
00000120: 16a8 7dbd f32b 8b3d d192 e6bd 9d5b 20bd
00000130: 46e7 95bd 5584 4f3d c0dc 773d c23f 123d
00000140: 69b5 3abc 0f2f 0b3e c715 2b3e c560 603d
00000150: 25cd e0bc 071d 2b3e a831 df3d ce0a 1fbd
00000160: d875 a23b e7cf c63d 6e6b 51bd 415f 22bd
00000170: d747 cfbc 8a8e f23d fe41 323c 50b0 70bd
00000180: b24f 0e3c 7653 51bd 40c7 d23c 5453 de3d
00000190: 7443 0d3e e9f3 8b3d 22e6 df3d 5fac 12be
000001a0: 800c f13d 70cb 7d3d 6043 033e c853 7a3b
000001b0: 9631 24bd cc09 7fbc dadf 0fbd 3cc2 78bd
000001c0: 4b7e 9fbd 5721 4e3d c4d5 ee3c 585d c9bd
000001d0: ef29 9dbd d353 9fbd 5db3 00be ba6e 8c3d
000001e0: 1c11 163c b1b3 9ebd 4c57 30be eb01 273b
000001f0: 8d9d a2bb a107 bfbc b91c b7bd 9617 923c
00000200: 4af8 813d 3e83 e5bd 11c1 0a3d 00e6 f6bb
00000210: f2da 1bbc 5d77 88bd 3d10 f3bc b8f3 bc3c
00000220: 4a59 69bd 79ef d6bd 28e6 d3bd 6267 eabc
00000230: f06c 8cbd 613e b8bd f452 87bd 0a8a 923d
00000240: cb41 24be f419 d7bd e84a d8bd 8168 99bd
00000250: 5e1d 5abd 2fe4 81bd 253b 40bd a32b acbd
00000260: 5cb6 72bd a909 f23d a8dc 1e3e ca1a e73d
00000270: 96df 333d c080 d3bc 9b5d 4b3c 64a9 f03d
00000280: 650d 763d 665d 0a3d 66fc c93d 9c88 85bc
00000290: 267b c53d 1094 26bd cf41 16be a95e 85bd
000002a0: de66 17bd f72a 22bd 806e 8abd ac40 213d
000002b0: 7110 723d e707 10b8 7d5d dabd 7481 553d
000002c0: 6504 0f3d a8c2 a13d 134d 053e 7548 f03d
000002d0: c68f ef3d 1e39 9b3d 1a1e 10bd 973c ca3b
000002e0: 12fb 6e3d 1bf6 2fbd 51ad cd3c 5364 9c3c
000002f0: 4b81 443d 8137 f8bb 7246 00be 0980 a53d
00000300: 7762 ebbc 4dd6 04bd 36e7 2dbd c3a9 8fbd
00000310: 6287 213d b581 82bc a74e 9a3d f6a6 14bd
00000320: e5f9 79bd 09c2 83bb b11b d7bd 40d6 50bc
00000330: 9093 91bd fec2 2b3d 01ae 443d aa27 c43d
00000340: d442 a03d 6ebf 23be 3072 553d 6a76 0f3c
00000350: 2eb9 4c3d 60df f5bd 212e a3bd fa02 c13d
00000360: bf64 c03d 2246 ddbd 71db 35bd 0105 12be
00000370: c96a a43d c90e 023b 0e47 d53c 80fd b73d
00000380: 16f5 543d 6270 80bb 145f 44bd cb3e 823d
00000390: a443 433c 8ec1 0d3d 6c3f 1c3d fc86 9f3c
000003a0: 566d 8a3d 9f47 983d 6bca f13d e1ce 443e
000003b0: 0c71 c03d e292 0dbc 4bd0 2d3d 0f0e ea3d
000003c0: daaa a93d 55a6 313d 0647 43bb 16d7 57bd
000003d0: 944b 7c3c 59c5 193b cb38 dbba fb6b b4bd
000003e0: cf91 ddbd 4ad9 ebbd a2de 2abd b9e5 8b3d
000003f0: 73a0 eabd fa3b 95bb dff6 8ebd cf68 a23d
0.02844018 -0.06989799 -0.05604659 -0.08140036 -0.029071765 -0.016680952 0.0030973963 0.011773093
-0.10235968 -0.077609554 0.0123411175 -0.09378169 -0.1080641 -0.0058984384 0.09914244 -0.098084636
-0.053962134 -0.08008961 -0.0017275932 -0.14723845 -0.07057667 -0.025019152 -0.060280394 0.0007947992
0.06821896 -0.058799446 0.13317119 -0.040183794 -0.008578054 -0.088429466 -0.011772354 -0.09977747
0.044929706 0.07084061 0.055291492 -0.058360007 -0.16501848 0.02941141 0.12651503 0.022813793
-0.024805777 0.06566493 -0.081012264 -0.05599551 -0.031095706 -0.0080666365 -0.18084314 -0.068788365
-0.019161656 -0.09272915 -0.076694086 -0.1439387 0.15688823 0.0622514 0.051897857 0.023061678
0.09474816 0.10339414 0.064060815 0.047140934 -0.0350621 0.07281805 0.13428903 -0.12739827
-0.014890896 0.008467267 -0.13089748 0.13076638 0.038935944 0.062619016 -0.009413701 -0.17037839
-0.061927877 0.06795492 -0.11258472 -0.03914987 -0.073195025 0.05066331 0.060513258 0.035705335
-0.011395791 0.1359217 0.16707526 0.054779787 -0.02744157 0.16710292 0.10898143 -0.038828664
0.0049578957 0.09707623 -0.051127844 -0.039641622 -0.02530281 0.118435934 0.010879992 -0.058761895
0.008685993 -0.051104985 0.025729775 0.10855737 0.13795263 0.068336315 0.10932566 -0.14323567
0.11769962 0.06196159 0.1281867 0.003819691 -0.04008635 -0.015566301 -0.03512559 -0.06073211
-0.0778776 0.050324764 0.029154666 -0.09832257 -0.07674014 -0.0777966 -0.12568422 0.06857057
0.009159353 -0.07749117 -0.17220801 0.002548332 -0.004962629 -0.023319067 -0.08941025 0.017833512
0.063461855 -0.11206673 0.03387553 -0.0075347424 -0.00951265 -0.06663392 -0.029670829 0.023065433
-0.05696992 -0.104948945 -0.10346633 -0.02861375 -0.06856716 -0.08996273 -0.06607619 0.07155235
-0.16040723 -0.10502997 -0.10561162 -0.07490636 -0.053250663 -0.06342351 -0.046931405 -0.084067605
-0.059255943 0.11818249 0.15513861 0.112844065 0.0439144 -0.025818229 0.012412454 0.11751059
0.060071368 0.033780478 0.09862594 -0.016300492 0.09642629 -0.040668547 -0.14673541 -0.065121956
-0.036963336 -0.039591756 -0.067593575 0.039368317 0.05909771 -3.4339635e-05 -0.10662363 0.05212541
0.0349163 0.07898456 0.13017683 0.1173257 0.116973445 0.075792536 -0.035184957 0.0061717737
0.058344908 -0.042959314 0.025107058 0.019090807 0.047974866 -0.007574976 -0.12526873 0.080810614
-0.028733475 -0.032430936 -0.042456828 -0.07014801 0.03943575 -0.01593099 0.07534533 -0.03629204
-0.061029334 -0.0040209335 -0.105033286 -0.012746394 -0.071082234 0.041934006 0.048017506 0.09577878
0.078252465 -0.15990993 0.05211085 0.008756259 0.04998129 -0.12005496 -0.07967783 0.09424396
0.09394216 -0.108043924 -0.04439873 -0.14259721 0.0802818 0.0019845238 0.026034858 0.08983898
0.051991545 -0.003919647 -0.047942236 0.06359633 0.011917982 0.034608416 0.03814642 0.019473545
0.067591354 0.07435536 0.11806186 0.19219543 0.09396562 -0.008640977 0.04243497 0.11428463
0.082845405 0.043371517 -0.0029796972 -0.052695356 0.015398879 0.0023463576 -0.00167253 -0.08809658
-0.108188264 -0.11516054 -0.041716225 0.068309255 -0.114563845 -0.004554269 -0.06980681 0.07930147

lstm.weight_hh_l0 f4 [512, 128]
00000000: 3e42 8cbd c431 13bd 0d9a 2f3d 4da6 483c
00000010: 2cfe bcbc d7ad bebb 70b9 53bc c933 f53d
00000020: 4df9 c53d 934b a8bd 5b45 c6bd 3d77 b53d
00000030: e73b 163e 6bfe ca3c 86a1 f03d 8765 123d
00000040: 6f82 403b 6a8f 98bd e5e6 d83d bef8 04bd
00000050: 07d8 d0bd 9fc1 99bd 853a 2a3d 78f2 383d
00000060: c4c3 853d 6227 c73d e884 edbd f282 a03d
00000070: ad71 83bd 06e1 113d 8503 2fbe 8519 f33b
00000080: b90c 133d b85e f4bd 544f 7bbd 042b 88bd
00000090: c93a bbbc cff9 2f3d 9099 8e3d 66eb a0bd
000000a0: 67ea 113c c95a 14be 1c47 b83c 8f28 62bd
000000b0: 8fce abbd 892e 70bd cd90 7cbd 23b0 9bbd
000000c0: 6653 293c ea65 d93c 45dd 8ebd bf6e 923b
000000d0: 1978 2c3e b288 2ebd 8717 d73d a58c b8bd
000000e0: 4d95 f8bd 1aad 1ebd e38a 97bd 9690 fdbd
000000f0: c84b 673c 1596 173e eb53 17be 68a3 e5bc
00000100: c115 143e 82c6 ae3d 4660 083e a75e 11bd
00000110: e87f 483c 1a99 c13c 71fc 81bd e26c 6e3d
00000120: bed1 643b d780 0c3d 86ed 2ebe 6594 1cbd
00000130: 9851 18bd c009 323c eeaf edbd 9931 ac3d
00000140: 70ef f53d 0d47 73bd 1b51 ffbd b8c9 16bd
00000150: 18f4 1f3e 2df7 1dbe 2430 db3c 6862 f9bd
00000160: c17c 46bd 42e7 cf3c 8d1f ae3c 1aea ba3c
00000170: 1194 843d 6abe 1d3d 565a f0bc f367 3fbd
00000180: aa57 fc3d f24c f13b 03e8 8bbc 9e5d 30be
00000190: 25f1 693c b83f ec3b f48a 77bd 66c2 cc3d
000001a0: ec71 0dbc 352a adbc d84a 21be 5e17 0e3e
000001b0: ce84 d7bd 4fb5 4f3d cabe 103c 4c08 cd3d
000001c0: 0d38 e7bd ef03 8e3d ce8f 1f3e 3bff 6d3d
000001d0: c47c e53c 6fec e63c d4f9 56bd e06d efbd
000001e0: 9c17 e03d 6c67 063e f07c b1bd a380 e43d
000001f0: fdd6 fdbc 0d27 75bb 02d2 1abe d1ed 90bd
00000200: bc8f 2dbd 8eea 00bc 671e 103e 00b2 e1bd
00000210: add0 8dbd c0eb 0a3e eaf6 8a3c b321 aebd
00000220: 45e5 55bd dd52 ad3d 713f 483d 84c5 e5bd
00000230: 7eab e13c 9f02 663c 42ac 5dbc 6940 a9bd
00000240: 06a1 1abd 7832 f6bc 3e8f 293c f75b 0abe
00000250: e8c7 6abc b3a4 b53d ad96 57bc 40bb 17bd
00000260: c7ad b5bc 2802 793d 4a4d b1bd 6668 763c
00000270: 7f46 05be 08e3 e5bc 599e 243c d37d c8bd
00000280: 4f5a a1bd ee74 e13d 31e9 83bd 3380 2dbe
00000290: c06c 413d 770b 23be 2224 ac3c 4edb 05be
000002a0: 4882 29bd 3774 e4bd bbae 85bb b517 12bd
000002b0: 6268 a4bd e108 8fbd d46e 5cbd d4f5 59bd
000002c0: 7344 243e beb6 913a 06cb fe3d cbf1 b0bc
000002d0: e93d cfbd 2647 93bc 14ff 5b3d bd56 483d
000002e0: e898 b43d 4180 40bd e801 99bd 2905 7fbc
000002f0: 7f3f 553c 3cf6 fcbd 53e6 b43d 746d 93bd
00000300: b146 08bd f43e f33c 054b b1bd f820 533c
00000310: 97c2 fbbd 488a 17be 71c2 053b 86d2 1f3e
00000320: d7b2 ca3d 2565 da3c cf32 dd3c a085 dc3d
00000330: 1de8 0cbd d76b 8b3b 5a62 653d 6a59 c8bd
00000340: a889 863d bf28 99bd 4ec9 6c3d 8b6f fc3d
00000350: b86c 89bc e46b debb 1bea 953d 84a7 5e3d
00000360: ef3b b3bc e90b c3bb 73f7 df3d 0e0c 8fbd
00000370: 2db0 9a3d 05f2 0c3d 9aa8 93bd b9eb 733b
00000380: 5dd1 8c3d 5fb1 033e 6c84 f63d 4c11 333d
00000390: 5592 c1bd 8b2f d9bd 39aa fe3d 5184 d6bd
000003a0: 2389 b3bd d40e e33c de1b a1bd 1659 cabd
000003b0: c02e 71bd 4cb5 03be 2eed 2c3c 6ecc d23a
000003c0: c324 13be 4612 ef3d f4d5 fd3c 13ec b33c
000003d0: 2c84 1b3d d418 1c3e 2479 903d 068c 883c
000003e0: 268d 473d 53fc f6bd e43d ef3b 27ff 9f3c
000003f0: 66c5 5d3d fd23 90bd 9c7a fd3d 6031 51bc
-0.06848572 -0.035936132 0.042871524 0.01224668 -0.023070417 -0.005819063 -0.01292263 0.11972768
0.09666691 -0.0821754 -0.09681197 0.088606335 0.14671288 0.024779519 0.11749558 0.035741355
0.002937462 -0.07449229 0.10590915 -0.03246378 -0.10197454 -0.075076334 0.041559715 0.04515311
0.0653148 0.097243086 -0.115976155 0.07837476 -0.06418166 0.03561499 -0.17091186 0.0074188136
0.035900805 -0.11932129 -0.06135495 -0.066488296 -0.02285518 0.042962845 0.069628835 -0.07857399
0.0089059835 -0.14487757 0.022494845 -0.05521446 -0.08389007 -0.05863813 -0.06166153 -0.07601955
0.010334825 0.026537854 -0.069757976 0.0044687684 0.16842689 -0.04261083 0.10502534 -0.09011201
-0.12137852 -0.0387393 -0.073995374 -0.12381093 0.014117189 0.14803346 -0.14778106 -0.02803202
0.14461423 0.08533956 0.13317975 -0.035490658 0.0122375265 0.023632575 -0.063469775 0.058209307
0.0034915055 0.03430256 -0.17082796 -0.038227458 -0.03718719 0.010866582 -0.116058215 0.084078975
0.1200856 -0.05939393 -0.124666415 -0.036813468 0.15620458 -0.15426321 0.026756354 -0.12176973
-0.04845882 0.025378827 0.021255279 0.022816706 0.06473554 0.03851167 -0.02933995 -0.046729993
0.12321408 0.007363909 -0.017078405 -0.17223212 0.014278685 0.0072097443 -0.06043525 0.09998016
-0.008633118 -0.02113829 -0.15751207 0.13876101 -0.10523377 0.05071002 0.00883455 0.10011348
-0.11289988 0.06934344 0.15582201 0.058104735 0.028013594 0.028188912 -0.05248435 -0.11690879
0.10942003 0.1312539 -0.08666408 0.11157348 -0.030986303 -0.003740731 -0.15119174 -0.0707661
-0.042373404 -0.007868422 0.14074098 -0.11020279 -0.06924567 0.13566494 0.01696344 -0.08502521
-0.0522206 0.084630705 0.048888627 -0.11219314 0.027547594 0.014038711 -0.013529839 -0.082642384
-0.03775122 -0.030053362 0.010349093 -0.13511644 -0.014329888 0.088693045 -0.0131584825 -0.03704381
-0.02217759 0.060793072 -0.0865732 0.015039539 -0.13015173 -0.028062358 0.010047519 -0.09789624
-0.07878553 0.11008631 -0.06440962 -0.16943435 0.047222853 -0.15922342 0.021013323 -0.1307194
-0.04138401 -0.11154979 -0.0040796674 -0.03566714 -0.08027722 -0.069841154 -0.05381663 -0.053212956
0.16041736 0.0011117083 0.124410674 -0.02159967 -0.1011923 -0.017978262 0.05371006 0.048910845
0.08818227 -0.046997312 -0.07471067 -0.015565195 0.013015627 -0.12351653 0.08832993 -0.07198611
-0.03327054 0.029693104 -0.08656887 0.012886278 -0.122929744 -0.14798844 0.0020410086 0.15607652
0.09897392 0.026659558 0.027001766 0.107676744 -0.034401048 0.004254799 0.056002 -0.097826794
0.065692246 -0.07478475 0.057809167 0.12325963 -0.016775474 -0.006787764 0.07320043 0.054358974
-0.021879165 -0.0059523475 0.10935869 -0.06984721 0.07553134 0.034410495 -0.072098926 0.003721936
0.068758704 0.1286063 0.12036976 0.043717667 -0.09451739 -0.10604771 0.12434811 -0.10474456
-0.08766391 0.027717032 -0.07866643 -0.09880273 -0.058882475 -0.12862128 0.010554595 0.0016082653
-0.14369492 0.11673407 0.03098581 0.021963155 0.037967846 0.15243846 0.07054356 0.01666833
0.048718594 -0.12059846 0.007301079 0.019530846 0.054143332 -0.07038114 0.123769015 -0.01276812

lstm.bias_ih_l0 f4 [512]
00000000: 6ff6 14bd fad5 b2bd a8f0 1ebc 0e4f 8d3c
00000010: 53f4 0e3e 317d ffbd 714b 13be 7675 653d
00000020: c021 643d 26b6 20bd 89d0 6ebd 8aee 00be
00000030: bd57 3bbe 36e0 4cbd e051 ea3d 8d50 32bc
00000040: 36df bbbd 6c39 c5bb e9bd eabb 69f9 a8bd
00000050: f870 9d3c 9365 063d f515 2bbe 79f5 21bd
00000060: 338e 00bb e9d3 d73c 2cd3 a9bc 32b5 46bd
00000070: 5b93 b23d 8979 02be f230 07bd 3f30 393a
00000080: fe6d 18bd d143 93bc e558 2a3d 1e42 48bc
00000090: 2478 3e3c b795 4f3c 4c04 c8bd 4f33 abbd
000000a0: f292 2e3e 3539 30be 8bc9 183d 0e47 29bd
000000b0: a572 3dbc b6ce a2bc 1d76 88bd a637 cbbc
000000c0: c913 c4bd 301d 033d ac94 2d3d e8e2 21be
000000d0: cae2 76bd 8121 3abe 44e4 5a3c 39ad ccbd
000000e0: aff5 c73b 1c96 03be 1223 52bd 4792 44bd
000000f0: a41a 193e 5eb8 14bd 1d41 f33c 6738 b9bd
00000100: 0544 9abd e367 ba3c db36 613c ccd4 713c
00000110: a536 c03d a949 ef3c 44eb f6bd f87b ba3d
00000120: 5ab2 38be d63e 94bd f0cb 0e3b 17ad 87bc
00000130: ba47 8c3b 77bf e2bd dcd8 aebc 96f7 18be
00000140: f504 dd3d 10e2 5e3c 15e9 08bd 3b6d 67bd
00000150: d5cb 4c3d 7bef b9bd 27ce 15bd 2414 b8bd
00000160: 3ae3 aeba eaa7 9cbd 23f5 a4bd 9b29 073e
00000170: 9d34 303e 30b7 223d a762 143b 2f58 90bd
00000180: 6ace 4bbc 280b 11bd a952 0cbd 6d47 603d
00000190: 51a5 b0bd a8e6 213d 201f df3c 5891 efbd
000001a0: ca7f f0bd 366a aa3c 2100 a1bc 3e04 20be
000001b0: 40dc 153d 83d1 bcbd a395 1dbc 0b9d bebd
000001c0: 94d1 68bd 8636 103d a509 9fbd ce04 4ebd
000001d0: bac3 2a3c c92c 8abd 5244 b5bb 5c12 ef3c
000001e0: 1c41 d0bc fcd2 99bc bedf 93bc 7d37 99bd
000001f0: 7651 c73c 7e2b 1ebc 70bc 87bd a038 f43d
00000200: 6cd7 a0bd c4fe 18be 7530 1cbd a9ae 393d
00000210: f5d6 353d d385 9abd 4299 04bd 9362 0e3d
00000220: 52a7 ce3b 5761 debc 5cdc 9d3c 4e4c e7bd
00000230: 42b5 01be b03b a0bd c8cf ba3c d4fe 0fbe
00000240: 522e 903d 6c46 09be 54b7 8fbb e6c5 cfbc
00000250: c184 90bc c481 503d 3c0b 07be 89bd 52bd
00000260: 77b5 d9bc cb85 113e 65c2 15bd 4e69 c23b
00000270: 75da bb3c 83e2 46bd ac2a d6bc 8caf 103d
00000280: 99f7 1ebd 2760 aabc 22d3 86bd e447 4ebd
00000290: 10b4 b53d a043 893d 4e0c 5bbd 8665 14be
000002a0: b2ac 633d 698f cdbd fb2d 783d 54d2 28bd
000002b0: 276c d1bd 3415 903c f77c 6639 939c 493d
000002c0: 0ff5 57bd 9ee5 d13d 1932 40bd 2342 99bd
000002d0: 5ac9 26bd c941 19bd 8880 ea3c 65a6 eabd
000002e0: 2ca6 90bd f604 c1bc 647e 623d 49e6 8abd
000002f0: dd6c 083e ab9f 703d c328 403d 1827 e8bd
00000300: 1ff0 debd 9feb 0bbd 3a1e 8d3d 757c 3f3d
00000310: d7f4 8e3d 2a9b 0bbe d6a0 7ebd fbcd ab3d
00000320: 36df 07be 86e7 8d3c 15a8 b9bd 85c9 a7bc
00000330: 3cba 29bd ef8c 9c3c 1b7c efbd 1c27 d3bd
00000340: a8ce aa3d 0425 6e3d a442 0bbd aaa6 d9bd
00000350: 48c2 a1bd e5ed d8bc 928f 4d3b 2dbd 6cbd
00000360: 511f 94bd 1e13 cebd 2153 9c3b 7341 d83b
00000370: 5498 663c 9a4c a5bc 241b a93c 1f60 4d3d
00000380: 3baa 97bd 4e06 95bd 633c 353d 5b56 e03c
00000390: 671b acbb d8df c63d a922 ec3d 8b83 b7bd
000003a0: 9ce3 29be a19e bd3d 74b3 34be 2171 febd
000003b0: e1af 063c cc30 0cbd 9a63 99bd 9661 04be
000003c0: 0172 88bd b818 08be 0299 d63b f1a0 9ebc
000003d0: 373c 9cbd 0dfd 7abc 136d 253c f2aa 0cbe
000003e0: fdca 913d 2b41 8ebc 34c0 80bc 341d dfbc
000003f0: 20b4 d7bb 2572 f2bd 02dd ccbd 29f3 c43d
-0.03636783 -0.08732219 -0.009700932 0.01724961 0.1396039 -0.1247505 -0.14384247 0.056020223
0.05569625 -0.03923621 -0.058304343 -0.12590995 -0.18295188 -0.05001851 0.11441398 -0.010883463
-0.091734335 -0.006018808 -0.0071637523 -0.08250696 0.019218907 0.032811712 -0.16707595 -0.03954074
-0.0019616007 0.026346164 -0.020730577 -0.048512645 0.08719512 -0.12741674 -0.033005662 0.0007064379
-0.03721427 -0.017976673 0.041588683 -0.012222795 0.011625323 0.012669972 -0.097664446 -0.08359396
0.17048243 -0.17209323 0.03730158 -0.04132753 -0.011562978 -0.019873958 -0.06663153 -0.024806809
-0.09574086 0.032010257 0.042378113 -0.15809214 -0.060274877 -0.18176843 0.013360087 -0.09993977
0.006102286 -0.12850231 -0.051302977 -0.047991063 0.14951569 -0.03630864 0.029694134 -0.09043961
-0.07532505 0.022754615 0.013745989 0.014760207 0.093854226 0.029209929 -0.12056592 0.091056764
-0.18036786 -0.072385475 0.0021789037 -0.016562028 0.0042810114 -0.11071675 -0.021343641 -0.14938197
0.10791961 0.013603702 -0.03342541 -0.056500655 0.049999077 -0.090788804 -0.036573555 -0.089882165
-0.0013342865 -0.076492146 -0.080545686 0.13199465 0.1720757 0.039725482 0.002264181 -0.0704807
-0.01243935 -0.03541103 -0.03425852 0.054755617 -0.086252816 0.03952661 0.027236521 -0.11697644
-0.11743124 0.020802598 -0.019653382 -0.15626618 0.036587 -0.09219649 -0.009618196 -0.09307297
-0.056840494 0.035208248 -0.077655114 -0.05029755 0.010422641 -0.06746823 -0.005531826 0.02918356
-0.025421672 -0.018777363 -0.018051025 -0.07481287 0.024330836 -0.009653924 -0.066277385 0.11924863
-0.078535885 -0.14940935 -0.03813215 0.045332585 0.044394452 -0.07545056 -0.03237272 0.034761976
0.006306567 -0.027146025 0.019270115 -0.11293851 -0.126668 -0.078238845 0.022804156 -0.14062053
0.07040085 -0.1340577 -0.004385868 -0.02536292 -0.017641427 0.050905004 -0.1318788 -0.051450286
-0.026575787 0.14211194 -0.036562342 0.0059329635 0.022931317 -0.048555862 -0.026143394 0.035323665
-0.038810346 -0.020797802 -0.06583239 -0.05036153 0.08872235 0.067023516 -0.05347853 -0.14491853
0.055584617 -0.10037119 0.060590725 -0.04121621 -0.102257065 0.017588235 0.00021981062 0.049221586
-0.05272394 0.10248874 -0.046922777 -0.07483318 -0.040719368 -0.037416253 0.028625742 -0.114575185
-0.07062945 -0.023561936 0.055296317 -0.06782205 0.13322778 0.05874602 0.046913873 -0.113355815
-0.10885643 -0.034160253 0.06890531 0.04674955 0.06980293 -0.13633409 -0.062165104 0.08388897
-0.13268742 0.017322313 -0.09065262 -0.020481834 -0.041437373 0.019110171 -0.11693593 -0.10310194
0.08340198 0.05814077 -0.0339991 -0.10627492 -0.07898384 -0.026480624 0.0031366092 -0.0577976
-0.07232536 -0.1006224 0.004770652 0.006599599 0.014074404 -0.020178128 0.020642824 0.050140496
-0.07405516 -0.07276593 0.044247042 0.027384927 -0.00525229 0.097106636 0.115300484 -0.08960637
-0.16590732 0.09258772 -0.17646581 -0.124239214 0.008220644 -0.034226224 -0.074897006 -0.12927851
-0.066623695 -0.1329068 0.0065490017 -0.019363852 -0.076286726 -0.015319121 0.010096806 -0.13737085
0.07118795 -0.017365059 -0.01571665 -0.027235605 -0.006582752 -0.118381776 -0.100030914 0.096166916

lstm.bias_hh_l0 f4 [512]
00000000: 8446 cbbd 6e07 09be f0e1 56bd b7c1 6d3d
00000010: 1f21 913c e1ee 5abd f273 4dbe 4a45 e53d
00000020: 81c3 4c3c c28b 8ebb 55ee afbd ce34 09be
00000030: 4f11 40bd 0945 f83c 6353 1cbc 3e91 803d
00000040: c29e c53c bcb9 0ebe 3ca7 313d 2bc4 34be
00000050: 27a1 3bbd 2bae 93bd 454e 81bd f241 f33b
00000060: 8fac 883d 05d7 9f3d 3f51 21be f1bc 90bd
00000070: 5bea fe3d 7f1a 1cbd 0376 77bd b89a b2bd
00000080: 95c8 3a3c 07e9 23be e61d 1a3d 7f70 3bbd
00000090: b695 63bd 324b debc 10fc 09bd fe33 14be
000000a0: 5284 233e bb6a 22be 8a09 82bd 6e4d 76bc
000000b0: 8c29 b6bc 5591 80bd cf53 b83d ea07 b3bc
000000c0: b983 573d 2d46 b23d cc24 f5bc 0b54 c3bd
000000d0: 8c86 b9bd ad08 94bd a90d 99bd ed47 5dbc
000000e0: 0649 edbd 7078 7ebd 6d0c a03d b127 063d
000000f0: 1424 3e3d 2649 893d 017a ab3c 80b0 dabd
00000100: be11 78bd 1353 7bbd c8a0 963d 76d4 acbd
00000110: 1ccc 333d cc18 24bd 9801 6abd d75b 283c
00000120: ff17 81bd cafe 9ebd 1dfc bfbc f195 a7bd
00000130: 6b8b a33d 16a3 bebd ffe9 a2bd 7f86 d5bd
00000140: 7ed4 e53b 8eb2 d03d 87a0 9c3b 53af 8fbd
00000150: 0e1d f9bd 6468 9dbd 2cc0 82bc d6df 5bbd
00000160: d96d cfbd 75f6 f3bc ecea d8bc 8a09 7a3d
00000170: 88cd 333e 448d e5bc c49b f4bc f173 f2bb
00000180: f0d9 b8bd 7134 eabc ea1b b7bc abef e3bd
00000190: 3f15 b53c cd6f 0f3c 188d 30bd cdd8 9fbd
000001a0: b61f dfbd 3258 4fbd ad90 bebd 1ff7 30bd
000001b0: efc1 533d f1e0 64bd c0c6 b8bc 5a6e bcbd
000001c0: f393 04be c4ec f5bd a5bb 23bc 3df0 e0bd
000001d0: 2ebe 613d 4928 d6bb 0e7a acbd 38ee 06bd
000001e0: b916 553d b456 cabd c849 ebbd 2381 633d
000001f0: ce7b b23d 21dc 13be 7dc5 ccbd 111f a93d
00000200: 74fe 1c3d 1583 d6bd 0d04 d53c 8c69 b6bc
00000210: d156 2a3d aa52 08bd b32d 89bc 7003 123e
00000220: 2e43 24bd 448b 6cbd cb92 2ebd 8c2d efbd
00000230: 69d1 cbbc 4359 b53c 4c77 1fbb 6f08 12bd
00000240: 71f5 8dbd 97a2 29bd adf3 8b3d a0f5 13be
00000250: bc86 833d 2112 d43d 7b55 fbbc 2f9e 863d
00000260: 66c7 ba3c af3d 093e 405c 1abe fe1a 373c
00000270: 2ec6 4a3d 96ef fdbd 1eee f2bd accf b7bd
00000280: fee8 a4bc 2f02 2bbe f337 97bc d271 10be
00000290: 9654 cf3d 4a24 383d 1a7f 8c3d 3aea 23be
000002a0: dbb0 0f3e 58fe 8abc 2f44 b939 0ccc 463d
000002b0: 2fa3 0bbe e844 3abd 40d6 963d 043f 963c
000002c0: 045b c2bb dd80 29bc fac4 883c c863 edbc
000002d0: 5cad a2bd 4ee1 87bd 799b 9fbd 03fa e3bd
000002e0: 761f 85bd 57d7 f63c 8db0 d13d b303 28bd
000002f0: 7600 113e 47ff 203d 6dd2 84bd 1d76 b2bd
00000300: 06b9 87bc db3a 8bbd 4b65 9c3c c989 cabd
00000310: 28ef 933d 5080 1f3c 27b3 dcbd 8fd4 273d
00000320: 9b39 8cbd a4a5 88bc 6448 223d 31d8 5fbd
00000330: 2c04 c93c 796e 9bbc 6134 dfbd 1d83 4bbd
00000340: ba0d f63d a75f 213e ff45 dbbd b63c 00be
00000350: 4c00 ca3c d0e6 aabd b9d4 483d 5c1d 06be
00000360: 8029 c13c 09c2 ebbd 1bf1 763c 1057 163e
00000370: bef8 0a3e c203 6ebd 7dd2 33bb cd75 b93d
00000380: 1657 213c 0f76 9bbd 17c6 103e ea33 e4bd
00000390: 86e6 7a3d 1b93 233d b62f 80bc 26f3 b2bc
000003a0: b9d7 bfbd b0bd df3d dd6b 29be 9d68 82bd
000003b0: d211 aebc cbd0 dcb9 2623 803d a15f c5bd
000003c0: 97f7 fbbc 1726 00bd c52e 283c 5121 9dbb
000003d0: 4da6 bdbd e8f5 e43c 7310 09bd 158e bfbd
000003e0: ce5b 99bc fd31 d9bd b2ee 11bd 3b19 4f3d
000003f0: e9b3 173e 5073 fabd 1638 c6bd 96d7 663d
-0.09925559 -0.1338174 -0.052461565 0.05804607 0.017715989 -0.05345047 -0.20063761 0.111948565
0.012497784 -0.0043501565 -0.0859038 -0.1339905 -0.046891507 0.030306356 -0.009541365 0.06277703
0.024123553 -0.1393804 0.043372378 -0.17652957 -0.045807984 -0.07210954 -0.06313757 0.007423633
0.06673538 0.078046836 -0.15753649 -0.07067288 0.124470435 -0.038111206 -0.06041528 -0.087209165
0.011400362 -0.16006862 0.03762617 -0.04576158 -0.055562697 -0.027135465 -0.03368765 -0.14472958
0.15968445 -0.15861027 -0.06349476 -0.015033109 -0.022236608 -0.0627772 0.0900036 -0.02185436
0.052615855 0.08704791 -0.029924773 -0.09537514 -0.09058866 -0.07228217 -0.074733086 -0.013505918
-0.11586194 -0.062126577 0.0781487 0.032752696 0.046421126 0.06703405 0.0209322 -0.10678196
-0.060563795 -0.061358523 0.07354885 -0.08438961 0.043895826 -0.04006271 -0.057130426 0.010275803
-0.06303405 -0.07763441 -0.023435647 -0.08182896 0.07985576 -0.0930845 -0.079547875 -0.10426044
0.0070138564 0.101903066 0.0047798785 -0.07015862 -0.12163745 -0.076859266 -0.015960775 -0.053680263
-0.10128374 -0.029780606 -0.026479207 0.061044253 0.17558873 -0.028021462 -0.029859431 -0.007399075
-0.09025943 -0.02858946 -0.022352178 -0.111296974 0.022104857 0.008754683 -0.043103307 -0.07805023
-0.1089472 -0.05062122 -0.093049385 -0.043204423 0.05169862 -0.055878583 -0.022555709 -0.092007354
-0.12947063 -0.1200805 -0.009993468 -0.10983322 0.05511301 -0.006535564 -0.084217176 -0.032942027
0.052023623 -0.098798186 -0.11488682 0.055543076 0.0871502 -0.14439441 -0.099986054 0.082578786
0.038328603 -0.10474221 0.026002908 -0.022267126 0.0415867 -0.03328196 -0.016745424 0.14259124
-0.04010313 -0.05775 -0.04262046 -0.11678609 -0.024880128 0.02213729 -0.002433258 -0.035652574
-0.0693158 -0.041414823 0.06833587 -0.14449167 0.06422183 0.1035502 -0.030680409 0.0657314
0.022800159 0.13402437 -0.15074253 0.011175869 0.049505405 -0.12399213 -0.118618235 -0.08975157
-0.02013063 -0.16700052 -0.018459296 -0.14105919 0.10123555 0.044956483 0.0686018 -0.16007319
0.14032309 -0.016966984 0.0003533675 0.048534438 -0.13636468 -0.04547587 0.07365084 0.018340595
-0.00593126 -0.010345665 0.016695488 -0.028978243 -0.07943222 -0.0663477 -0.07793326 -0.1113167
-0.06500141 0.030131979 0.102387525 -0.041019153 0.14160332 0.03930595 -0.06485448 -0.087139346
-0.016567718 -0.06798335 0.019091269 -0.09889562 0.0722335 0.009735182 -0.10776358 0.040974196
-0.06846925 -0.016680546 0.03961982 -0.054649536 0.024538122 -0.018973576 -0.10898662 -0.049685586
0.12014337 0.15759145 -0.1070671 -0.1252316 0.024658345 -0.08344805 0.049030993 -0.13097137
0.023579359 -0.11511619 0.015072132 0.14681649 0.1357145 -0.058109052 -0.0027438693 0.09055672
0.009847423 -0.07590877 0.14138065 -0.11142714 0.061255 0.039935213 -0.01564775 -0.021844458
-0.09367318 0.10924852 -0.16545053 -0.0636761 -0.021248732 -0.00042117233 0.06256704 -0.096373804
-0.030757708 -0.031286325 0.010265057 -0.0047952314 -0.09260235 0.027949288 -0.033462953 -0.09353272
-0.018720534 -0.10605238 -0.03562803 0.05056117 0.14814724 -0.12229025 -0.09678666 0.056357943

lstm.weight_ih_l1 f4 [512, 128]
00000000: daec f0bd c770 e2bc 3f30 01be b4d4 c6bc
00000010: c831 4a3d 0cbc 82bd 64d4 81bd be94 d03d
00000020: 9ea3 883d cd43 823d db14 1bbd 6c6f 023d
00000030: 9cd5 e83d b869 24bd dd7e 483d 8a71 ca3d
00000040: ebf0 32be c8b6 69bd 769b 6a3b 53f6 27bd
00000050: d8d2 46bc 0c07 81bd d0a7 013e a04d d93c
00000060: 774b 633d 97ab 4f3b 0ba3 10bd 0c3f cd3d
00000070: cc8f 893b 45d3 883d 7b56 6abd 2cc8 e93d
00000080: ec3a ae3b b08c 11be 1222 a93d 43a9 d6bc
00000090: 1c3a a7bc 96a0 b73c 31b5 dabd 66b4 59bd
000000a0: 8fef e1bd 592a 95bb 8d39 643d 88fa febd
000000b0: 7ed3 fd3c 4736 80bd 4131 4dbd 9fe1 43bb
000000c0: e58e 98bc 182f ac3d 4b47 6abd ac78 f83b
000000d0: c08d d13d c3d7 00bd 0ba9 f6bb 4cda 8cbd
000000e0: 937f bebc a6fe 1d3e 691d 873d 7f8f b7bd
000000f0: 057e 11be 526f 423d 3671 f8bc d3b9 4d3d
00000100: bd4d 243e 62e3 0c3c 0994 343e 54d7 033e
00000110: 76c9 2b3d a7d0 4bbd 8c11 d4bc 0602 f13d
00000120: 65c6 bf3c 2c27 113e 5709 afbd 5643 c8bd
00000130: 42b7 b4bc 9180 babd 606c 63bd 37a2 243e
00000140: fa51 02bd 4af3 023d cb23 08be b5a5 5dbd
00000150: 212d fb3d e9a9 4bbd 2471 5bbd 60a5 10be
00000160: 337e ebbd c5cb febc a7e5 983c b226 0a3d
00000170: a2a2 7f3d a217 c3bc 1c42 fabc a850 6e3d
00000180: 32bd 17be cbe5 30be 8294 8e3d 33db 18bd
00000190: 81cd af3d bf41 ff3c ad01 1dbe 6e60 af3c
000001a0: cb8a d0bd ed5f 9dbd caa0 e5bd 22a7 093e
000001b0: 032b 17bd 9fb1 33bd 25bd cebd 9adc d53d
000001c0: 5050 d1bc 6892 28be 69b1 2c3e 3f3d ad3c
000001d0: 719f 22bd b8e9 b4bc 6e75 0dbe aeb2 f8bd
000001e0: 35dc 45bd 0884 453d 27bb 2a3d b636 9a3d
000001f0: 1b14 a53d f116 91bb 9c4c f8bd 4106 88bd
00000200: 8867 d7bc ce22 09be 7132 d53b bc37 903c
00000210: 44c9 c83c 801c 6fbd ac82 bfba 4978 353d
00000220: cf64 a43d 7b4a b1bc bca7 0d3c 7225 2d3e
00000230: 371a ea39 37a2 6abc bab6 093d fac1 333c
00000240: b8f7 f4bd 924a eebd 5831 163d d12d 8a3c
00000250: 01d0 423c 2668 d7bd 02ba 173d 5dcf 0abb
00000260: b96e 7bbd a1cb 0f3e 8d0d afbd 98b5 0d3e
00000270: a10e 0cbe 5f1c e63d 064d 98bd dba6 e63c
00000280: 6331 febd db9e e4bd 1008 cbbd a883 8d3c
00000290: 510e 913d 0f13 60bd 1a7e 873c 2e30 96bd
000002a0: ca87 b2bd 28eb adbd ba59 b03d 8ad8 b83c
000002b0: 2be4 303c 0c6e 58bd d592 dbbd 1c28 55bd
000002c0: 90a1 4abc e481 db3c 6a0f 8e3d 6445 d4bd
000002d0: f00a a93b 9ede 0dbe a87c 083e aa97 a4bd
000002e0: 73c5 afbd ffb1 3a3d dd40 fb3c 5318 ebbb
000002f0: ac9b 82bd 9918 96ba 2eb8 fbbd 7000 993a
00000300: c64b 293e f166 0d3d 8b30 083e cfa0 623b
00000310: 658f 013d 87f0 03bd e72a 253c bbca 183e
00000320: 717d 02bc 97bc e73d bf36 80bc ddc1 60bd
00000330: 27c8 00be a7bd de3c 5d78 a7bd 6d70 a53c
00000340: bf37 013d 5c6f d8bc 4ff5 04bd 4ea9 d7bd
00000350: 30ab 5a3d c597 0fbe fe32 86bd 1f99 02be
00000360: 0fc8 953d 0986 233d 1657 9f3d c14e 0dbd
00000370: f936 0b3e 1568 f4bd e242 023e 1d52 cd3d
00000380: bac6 8a3c 2434 e8bd 9ca8 733d a3bc 43bd
00000390: 0f05 2f3d 4fe5 3bbc 3fe2 c6bd 5c1c 093e
000003a0: 2344 a2bd 1588 85bb 0e0f 493c 9ef9 f33c
000003b0: 7f86 4f3c 622b 6cbd 3069 11bd 197d e33d
000003c0: 41e3 9ebd a98b 0f3d 47ee dfba 271b a43d
000003d0: 6d3d d03c c174 843d 07e4 f8bc 9b62 c1bd
000003e0: d58e 9f3d 0043 2d3d e011 bebd 49d3 223e
000003f0: 610a ab3d 4ba1 ccbd 05d5 48bc 6aa4 c3bd
-0.11763926 -0.027641667 -0.1261606 -0.024271347 0.04936388 -0.06383523 -0.063393384 0.1018462
0.066718325 0.06360588 -0.037861686 0.03184454 0.11368868 -0.040139884 0.04894911 0.09884937
-0.17474715 -0.05705908 0.0035798228 -0.041006397 -0.01213523 -0.06300172 0.12661672 0.026526272
0.05549189 0.003168797 -0.03531174 0.10021791 0.00419805 0.066809215 -0.05721138 0.11415133
0.0053170826 -0.14213824 0.082584515 -0.026203757 -0.02041345 0.02241544 -0.10679091 -0.053150557
-0.1103202 -0.0045521674 0.055718947 -0.12450129 0.030984636 -0.062603526 -0.0500958 -0.002988912
-0.018622825 0.0840742 -0.057196897 0.0075827446 0.10232115 -0.031455766 -0.0075274757 -0.06877574
-0.023254192 0.15429172 0.065974064 -0.089629166 -0.14208229 0.047469445 -0.03032742 0.050226044
0.1604528 0.008599134 0.17634596 0.1287511 0.041940175 -0.049759533 -0.025887273 0.11767964
0.023410032 0.14175099 -0.08546703 -0.09778468 -0.02206004 -0.09106553 -0.055523276 0.16077505
-0.03181646 0.0319703 -0.13294904 -0.05411311 0.12264467 -0.049722586 -0.053574696 -0.14125586
-0.1149868 -0.031103024 0.018664194 0.03372831 0.062410958 -0.02381498 -0.030549102 0.05818239
-0.14818266 -0.17275159 0.06961919 -0.03731842 0.08584119 0.03115928 -0.1533267 0.021408286
-0.10182723 -0.07684312 -0.11212309 0.13442662 -0.036906254 -0.043870565 -0.1009467 0.10442467
-0.025550991 -0.164621 0.16864552 0.021147368 -0.039702836 -0.022084102 -0.13814327 -0.121434554
-0.04830571 0.048221618 0.04168239 0.075299665 0.080604754 -0.0044277837 -0.12123987 -0.06641818
-0.026294485 -0.13392183 0.006506257 0.017604701 0.024510033 -0.05837679 -0.0014611087 0.044304166
0.0802704 -0.02164196 0.008645948 0.16908816 0.0004465149 -0.014320902 0.033621527 0.010971541
-0.11961311 -0.11635317 0.03666815 0.01686755 0.011890412 -0.105179116 0.037042625 -0.0021180727
-0.06138489 0.14042522 -0.085475065 0.13838804 -0.13677455 0.1123588 -0.07436566 0.028155735
-0.124117635 -0.11163112 -0.09913647 0.017274693 0.07082809 -0.054705676 0.016539622 -0.07333408
-0.08717306 -0.08492118 0.08610864 0.022564191 0.010796587 -0.052839324 -0.10721365 -0.052040204
-0.012367621 0.026795335 0.06936534 -0.10364798 0.0051587746 -0.13854453 0.13328803 -0.0803674
-0.08582582 0.045579907 0.030670578 -0.0071745305 -0.06377348 -0.0011451422 -0.12290989 0.0011673104
0.16532812 0.034522 0.13299768 0.0034580713 0.031630892 -0.032211807 0.0100810295 0.14921086
-0.007964478 0.113152675 -0.015651105 -0.054872382 -0.12576352 0.027190043 -0.08177254 0.02019521
0.031547304 -0.026420288 -0.032460507 -0.10530339 0.053385913 -0.14022739 -0.06552695 -0.12753724
0.07313549 0.039922748 0.07780282 -0.034498934 0.13595189 -0.119339146 0.12720826 0.100254275
0.016940463 -0.1133807 0.05948697 -0.04778732 0.042729434 -0.011468246 -0.09711122 0.13389724
-0.07923152 -0.00407506 0.012271656 0.029782113 0.012666344 -0.05765856 -0.035500705 0.11107845
-0.07758189 0.0350453 -0.0017084562 0.080129914 0.025419915 0.064675815 -0.03038217 -0.094426356
0.07790915 0.042300224 -0.09280753 0.15900911 0.08351589 -0.09991702 -0.012257819 -0.09552844
