SimLoan/res/taiwan/LSTM_effort_modeltaiwan_budget_30_eps_0_5_b_0_2_lt-w_1_5_st-w_0_1788888888888889.pth (torch, 823394 bytes, 12 tensors)

init_interventions f4 [1, 2]
000000 35 b6 72 3d 59 aa 2d 3d
       0.059255797 0.042398784

lstm.weight_ih_l0 f4 [512, 11]
000000 fd bf 7b 3d 5b 3c 6f 3d 57 bf be bb 9b eb c3 bd
       0.06146239 0.05840717 -0.0058211493 -0.095664226
000010 b4 da 93 bd 56 fe 4d 3d 1f 6c 78 3d 4e 04 c4 bd
       -0.07219449 0.05029138 0.060649987 -0.095711336
000020 bd f3 df 3c df ae 01 be 5c dd 19 bc d0 8c 3a 3e
       0.027337903 -0.12664364 -0.009391155 0.18217778
000030 aa c3 bf bd fe ab 09 3e 47 4c e7 3c 02 27 eb 3d
       -0.09363492 0.13444516 0.028234614 0.114820495
000040 ec da 19 bc 5f 15 0a 3e f4 a2 d6 3d 80 1a dd bd
       -0.009390574 0.13484715 0.104802996 -0.1079607
000050 cf fc 2a bd 3f 38 af bd 7f e1 ff bd 5b 9a c2 3d
       -0.041745003 -0.0855565 -0.12494182 0.09502097
000060 27 40 12 bc ab c4 0c be e6 75 34 3d 83 42 26 3d
       -0.008926428 -0.13746898 0.04405775 0.040590774
000070 39 d5 d8 bd 08 97 2b bd 6e 4f e2 bc a3 a9 56 bd
       -0.10587544 -0.04189208 -0.027625766 -0.052407872
000080 8f 92 de 3b 1b 24 68 bc 2a 8b 0a 3e bf 26 53 3d
       0.0067923735 -0.014168764 0.1352965 0.051550623
000090 1f 9f cf 3d 55 81 da 3d c8 72 c1 3d eb 49 b8 3c
       0.10137772 0.106691994 0.09445721 0.022496184
0000a0 44 ed 6f bc 7f 96 4c 3d 5b 7e d3 3d 2e fd 85 3d
       -0.014643971 0.04994821 0.10326835 0.06542431
0000b0 0b cd 10 3d c8 ce a7 3b a2 dd 47 3b c4 84 da bc
       0.035351794 0.005121086 0.0030497094 -0.026674636
0000c0 41 dd 2e bd 0d 3e 6b 3d 0d 69 df bd 81 4c 5d bd
       -0.042691473 0.057432223 -0.10908709 -0.054028038
0000d0 42 54 a0 bd 8b cb a9 bd 71 9d 73 bc d1 6f ea 3d
       -0.07828571 -0.08290776 -0.01486908 0.114471085
0000e0 37 58 60 3d 91 00 36 3d f0 c8 93 3d e3 9b 10 3d
       0.05477163 0.044434134 0.0721606 0.035304915
0000f0 78 01 85 bd d8 2c b0 3b 58 df d2 3d 21 15 96 bc
       -0.06494421 0.0053764395 0.10296506 -0.018320622
000100 5e 10 1b be 92 9b ac bd fb dd 41 bd 19 e4 ff bd
       -0.15142962 -0.0842811 -0.047330838 -0.12494678
000110 86 ea 28 bd 8a ef 0b be dc 4d 2b bd 5f aa 20 be
       -0.041239284 -0.13665596 -0.0418223 -0.15689991
000120 d6 ad 96 bd 3c f3 6d bd 22 40 57 bd 87 88 4a bd
       -0.07357375 -0.058093295 -0.052551396 -0.04944661
000130 c6 9d 07 3e ac 69 a8 bd f9 a5 31 3c 54 bf 46 bd
       0.1324378 -0.0822328 0.010842794 -0.04852231
000140 60 20 50 bd 87 64 a6 bd 70 ca d2 bc cb 0f 05 3c
       -0.050812125 -0.08124643 -0.025731295 0.008121441
000150 83 d3 af bd 21 93 65 bc 5f 8e e5 bc f2 a9 f4 3d
       -0.085852645 -0.014012129 -0.02802199 0.11946477
000160 cc cb 2c bd be 9a f2 3d 47 96 1d bc d9 48 23 be
       -0.042186543 0.11845921 -0.009618348 -0.15945758
000170 62 32 bf bd ea 1a d2 3d 74 a6 b0 3b 47 f1 d4 bd
       -0.09335782 0.1025904 0.0053909365 -0.103975825
000180 14 0e 30 3c 62 df 90 bd 3c a1 e1 3d a9 5e e3 bd
       0.010745544 -0.07073857 0.11017081 -0.11102039
000190 c1 d5 19 3e b5 37 a2 bc 2c 1c 04 bd 9d 3f 1a bd
       0.15022947 -0.019801954 -0.03225343 -0.037658323
0001a0 f7 4b 44 3d d8 e4 b1 bc de a3 e1 bb 0d db 75 bd
       0.04792401 -0.021715567 -0.0068859896 -0.060023356
0001b0 d8 a6 25 bd d3 71 df 3d 61 70 a7 bc 7c 82 81 bd
       -0.040442318 0.10910382 -0.020439329 -0.06323716
0001c0 3b 2c 9f bd 6e 7b ea bd d4 ca 40 be 44 77 b4 bd
       -0.07772108 -0.114493236 -0.18827373 -0.088118106
0001d0 37 54 1d be 70 0a 13 bd fc bb c6 3d 25 1e 8c bc
       -0.15364157 -0.035898626 0.09703824 -0.017104218
0001e0 13 63 8f 3c 66 0b 68 bc 08 94 e3 3d 9d 79 07 bc
       0.017503297 -0.014162874 0.11112219 -0.008268741
0001f0 66 0f e3 bd 7c 0a a7 bd 86 83 a2 3d 3f 34 d3 bd
       -0.110869214 -0.081562966 0.07935242 -0.103126995
000200 5b 65 f4 bd fc 44 a9 bc 7b 78 9f 3c 17 33 b7 bb
       -0.119333945 -0.020662777 0.01946663 -0.005590807
000210 02 e1 c1 3c 0c 66 bb 3b ed 1b be 3c 5a 0f 18 bd
       0.023666862 0.005718952 0.023206675 -0.037124015
000220 b3 0e f0 bd 59 01 2f 39 9c ee bb bd 59 e7 b3 bd
       -0.11721554 0.00016689803 -0.091763705 -0.087843604
000230 23 f9 ac bd c3 77 91 bd 9f 61 50 3d d3 21 72 3b
       -0.084459566 -0.07102921 0.05087435 0.003694643
000240 fb 64 96 3d 06 4c 3a bc dc 74 67 bd c7 10 07 bd
       0.07343479 -0.011370664 -0.05650793 -0.032974984
000250 58 e1 f4 3c 85 93 d6 bd 4a 17 44 bc 1d f9 9d 3d
       0.029892609 -0.10477356 -0.011968443 0.0771353
000260 61 22 02 be 0d 68 b3 3d 1a 79 eb bd 44 82 2c 3c
       -0.12708427 0.087600805 -0.11497708 0.010529105
000270 87 ca f0 3c 3d 7a c1 3d 6c d1 08 bd 9a 5d 89 bd
       0.029393448 0.09447143 -0.033402845 -0.06707306
000280 7f 02 8d bd c4 1c 12 bd 88 4d 11 bb 92 1b 39 3d
       -0.06885242 -0.035671964 -0.0022171456 0.04519231
000290 25 b6 09 3e 8c 28 5f bb 96 2f e5 3d 44 b4 b3 bd
       0.13448389 -0.0034051267 0.11190717 -0.08774617
0002a0 29 b1 6c bd 1e 0e 21 bd 83 9b b3 bd 10 b3 f7 bd
       -0.05778614 -0.039320104 -0.08769896 -0.120947
0002b0 db 6c d6 3c ed 1f 85 bd 63 b7 e5 bd 86 35 05 3d
       0.026174953 -0.0650023 -0.11216619 0.032521747
0002c0 3a 88 ae bd 02 c2 7a bd 78 de 22 3d ec b8 0f 3b
       -0.08522077 -0.061220177 0.039762944 0.002193029
0002d0 82 c7 dd 3c 7c 6d d2 bc 42 ae 71 bd 36 46 99 bc
       0.027072672 -0.025686972 -0.059004076 -0.018710237
0002e0 e7 f2 7a bd a1 26 86 bc 0c 87 1c bc a5 ef 03 3c
       -0.061266806 -0.016375842 -0.009553682 0.008052741
0002f0 e5 b4 1d bd bd 9c 84 3d 4f d1 8a 3d 99 9a 50 3d
       -0.038502593 0.06475208 0.06778204 0.050928686
000300 47 02 12 3d 63 99 af bd 85 88 c8 bd a2 71 c6 bd
       0.035646703 -0.08574178 -0.09791664 -0.096896425
000310 55 9b b7 bd 14 eb 58 3a 6d e5 81 3c 3e 02 9e 3d
       -0.08965174 0.00082747755 0.015856469 0.077152714
000320 37 fe bb bd 11 65 7d bd 98 48 b8 bd 42 e2 b5 3c
       -0.09179347 -0.061863963 -0.08998221 0.022202615
000330 b4 81 95 bd 18 44 81 bd a4 8e e3 bc ef 28 23 be
       -0.073001295 -0.06311816 -0.027777977 -0.15933584
000340 81 16 cf 3c 4a c3 ca bc 32 34 e2 3d b1 d9 07 be
       0.025279285 -0.024751324 0.11045112 -0.13266636
000350 c2 dc 81 bd 23 35 96 bd a3 e5 6d bd 3c 08 fb 3b
       -0.06340934 -0.07334354 -0.058080327 0.0076608937
000360 68 06 ee bd 68 ec 8d 3d 68 e6 0b be 80 77 28 3d
       -0.11622316 0.069298565 -0.13662112 0.04112959
000370 9d 9d bc 3b af f2 66 bd 54 5c a6 bd 7d a5 ef bc
       0.0057560937 -0.056383785 -0.08123079 -0.029253716
000380 7b 8d 56 bd 40 6c 99 bd 1f 75 af bd 9e 5d ea bc
       -0.05238102 -0.0749135 -0.08567261 -0.028609093
000390 3f d4 79 bd cd 51 77 bd e3 80 0f 3e 81 2d 89 bb
       -0.06099343 -0.060380746 0.1401401 -0.0041863327
0003a0 fb 04 8c 3d a1 16 94 bd 49 1d 60 bd f2 fd 0c b9
       0.068368874 -0.072308786 -0.05471543 -0.00013446042
0003b0 2e 4f d1 bc 68 0a f6 3c 57 20 0a bd 13 58 1f be
       -0.025550451 0.030034259 -0.033722248 -0.15560941
0003c0 f1 6a 90 bc ff 25 4e 3d a5 0d fc bc 8e 61 34 3e
       -0.017629119 0.050329205 -0.030768225 0.17615339
0003d0 8c c7 ac 3a b2 43 c0 bd a1 0a 0a be e1 c9 64 bb
       0.0013182028 -0.09387912 -0.13480617 -0.0034910368
0003e0 3e 8f c1 bd dd 0e cd bd f5 de fc bc 68 57 0c be
       -0.094511494 -0.100126006 -0.030868033 -0.13705218
0003f0 62 ec 6f 3d 96 9a c8 bd 86 72 76 3d 2a f6 d2 3d
       0.05857504 -0.0979511 0.06016781 0.10300858

lstm.weight_hh_l0 f4 [512, 128]
000000 71 f7 b5 3d 98 4b 0f 3e 43 2b d9 bb e9 fd 79 bd
       0.08885086 0.1399368 -0.0066274717 -0.061033163
000010 7f 08 bc 3d 43 93 45 bd 02 90 20 bd a8 a3 24 3d
       0.09181308 -0.048236143 -0.039199837 0.040195137
000020 d3 62 b7 3c db 03 01 3e 9b 3c 84 3d 6a 24 dc bd
       0.02238599 0.12599127 0.06456872 -0.10749133
000030 ed 20 b7 bc 50 18 e1 bc 20 0d c7 bc 21 93 66 3d
       -0.022354567 -0.027477413 -0.02429825 0.056292657
000040 0c bb 03 bd 1c 75 0f 3d 1b a3 99 bc 6a 41 c5 3d
       -0.032160804 0.035023794 -0.018754533 0.09631617
000050 7b 45 3d 3c 1a 0e 05 bd a6 05 53 3d c8 fe df 3d
       0.01155221 -0.03248415 0.05151906 0.109372675
000060 19 6f c3 bd 1a 52 eb 3c 65 69 03 bd a2 65 8e bd
       -0.095426746 0.028725673 -0.032082934 -0.06952979
000070 ff 7f 2e 3e d6 0f 8c bd 85 07 b5 bc e6 ea 26 bd
       0.17041014 -0.06838958 -0.022098312 -0.04075136
000080 61 ed 97 bc 83 f5 c1 3d 0f 24 80 3d b1 b9 2b 3d
       -0.018545808 0.09470656 0.06256878 0.041925136
000090 b4 97 63 bd ef 60 6b bc b2 5a 55 3c ea 70 53 3d
       -0.055564597 -0.0143663725 0.013022112 0.051621355
0000a0 91 77 f1 3c 13 0d 87 bc c3 0b b2 bd 38 7e 88 bd
       0.029475959 -0.016485726 -0.086936496 -0.06664699
0000b0 08 e7 9f 3d ac 33 04 be f5 ec e8 3c 1a b0 5f bc
       0.078077376 -0.12910336 0.028433302 -0.013652826
0000c0 cc c0 b4 3d 32 fe 0f 3a 40 25 b1 bd ff 7e a2 3c
       0.088258356 0.0005492895 -0.08649683 0.019835947
0000d0 87 04 02 3c fd 73 bf bd f9 79 23 3d 80 36 08 bc
       0.00793565 -0.09348295 0.039911244 -0.008313775
0000e0 b8 86 6a 3d f2 3b 1e 3d 7b 3e 0c 3e 73 e3 64 bd
       0.057257384 0.038631387 0.1369571 -0.055880975
0000f0 4f eb fc bd 6c 81 fd 3c 1d f3 2c 3c 08 1b 31 be
       -0.12349569 0.030945502 0.01055601 -0.17295468
000100 00 65 3e 3c eb b5 b7 3d aa fe 60 3d c6 eb 78 3b
       0.01162076 0.08970245 0.054930367 0.0037982329
000110 68 0a 94 bd 5e cb a3 bd d5 4c a4 3d 43 9a 84 3d
       -0.07228547 -0.079977736 0.08022467 0.064747356
000120 00 09 af bc de 01 12 bd 31 6a 64 bd 75 43 23 bd
       -0.021366596 -0.035646312 -0.055765335 -0.039859254
000130 3f 8b 21 bc 57 09 da bd dc 12 5e bd 06 1b 43 3d
       -0.009859859 -0.10646313 -0.054217204 0.047633193
000140 a5 e6 d6 3c 13 6f 3c 3c 6a de 83 3c 9b c2 d3 bd
       0.026233027 0.0115010915 0.016097266 -0.103398524
000150 7b f8 a4 bd 46 a3 4f bd 72 f4 ef bc 50 ce dc 3c
       -0.080552064 -0.05069282 -0.029291365 0.026953846
000160 66 71 32 3d 7b 7c 38 bd 30 99 c7 bc f6 68 87 bd
       0.043565176 -0.04504059 -0.024365038 -0.066118166
000170 af d6 cf bc f7 fa 16 3e 13 21 ba 3d dc 3f 13 3d
       -0.025370924 0.14744173 0.0908834 0.035949573
000180 20 68 8a bd bf ff 05 bb 8d b4 ce bd 24 61 32 bd
       -0.067581415 -0.0020446626 -0.10093031 -0.04354967
000190 c5 44 ba 3d 73 98 bb 3b eb 95 1c bd 0e 98 02 be
       0.09095148 0.0057249605 -0.03822891 -0.12753317
0001a0 ea eb dd bd a2 53 1c bd c7 32 28 bd ce e6 f8 ba
       -0.10836013 -0.038165696 -0.04106405 -0.0018989684
0001b0 ec 54 f5 bc 5f db 7c 3c 6c 33 fb bb 99 2f 16 be
       -0.02994772 0.0154331615 -0.007666042 -0.14666595
0001c0 b4 c0 11 3e 62 1a e3 3d ee 38 a9 bd 01 a7 bd 3c
       0.14233667 0.110890165 -0.082628116 0.023150923
0001d0 33 1f e7 3d 57 f1 22 3e 77 b8 9b bd 6b ba a3 bd
       0.11285248 0.15912376 -0.07603543 -0.07994541
0001e0 56 b6 0a 3e 37 b4 b3 bc 57 33 a8 bd ef 6a 61 bc
       0.13546118 -0.02193652 -0.08212917 -0.013758405
0001f0 2d b0 2c 38 eb d7 fe bd f8 45 9b bd 5c b2 78 ba
       4.1172072e-05 -0.12443527 -0.07581705 -0.0009487027
000200 9a 08 b8 3c aa 27 2b 3d 02 1e 6c bc f3 fa 12 be
       0.022465039 0.041785873 -0.014411451 -0.14353542
000210 a7 18 65 3d ea 64 7f 3d e3 69 90 3d 6d 0b 0b 3d
       0.055931713 0.0623521 0.07051446 0.033946443
000220 97 c3 8d bd 0a d3 66 3d 0f bd 18 be fe b9 ff 3c
       -0.069220714 0.056353606 -0.1491587 0.031216618
000230 62 3c 16 3e f5 a9 0e bc eb 3f 79 bd 5f ac 2a 3e
       0.14671472 -0.008707513 -0.060851973 0.16667317
000240 49 3e 1d 3e b0 22 9f bc 81 17 76 bd 95 4b 0d be
       0.15355791 -0.01942572 -0.06008101 -0.13798364
000250 b5 a5 83 bb 19 d1 af 3c 8d 91 6f bd 07 db 2b 3d
       -0.0040175566 0.02146201 -0.058488417 0.041956928
000260 d9 33 a6 3d aa b2 cd 3d 24 df 1f 3d 4e e9 fb 3c
       0.08115358 0.10043843 0.039031163 0.030750897
000270 62 23 8e 3d 06 b3 d2 bd fb 9b cb 3c 5c e1 d2 bc
       0.069403425 -0.10288052 0.02485465 -0.025742225
000280 d8 0e 94 bc 7a ec f1 bd 4c c5 8f 3d a0 8f da 3d
       -0.018073484 -0.118126824 0.07020053 0.106719255
000290 c6 2a 38 be 86 22 63 3d cf 77 ff 3b 8a a4 0e 3e
       -0.17985067 0.055452846 0.0077962647 0.13929954
0002a0 80 87 9e bd 41 da cb 3d e5 7f 7f bd 3e 76 45 bd
       -0.07740688 0.09953738 -0.06237783 -0.048208468
0002b0 96 ec 23 3e 4d cd 9b bd 47 98 fe 3d f8 2a 4a be
       0.16008219 -0.076075174 0.12431388 -0.19742954
0002c0 48 98 cf 3d a2 b7 2f be 2e 01 5c bc fb 7b fd 3d
       0.10136467 -0.17159894 -0.013428016 0.12377163
0002d0 75 b2 e5 3c b5 bd 23 3e e3 3f 0d 3e b0 1d 8b 3c
       0.028039197 0.15990336 0.13793902 0.01698193
0002e0 92 46 67 bd c5 ea f8 bd c7 06 fd bd f9 a1 67 bd
       -0.056463785 -0.12154154 -0.12354808 -0.056550954
0002f0 43 75 d1 3c d3 00 f0 bd 3a 57 84 bd f8 eb 69 bd
       0.02556861 -0.11718907 -0.0646195 -0.057109803
000300 7b 9b c2 3d db 96 f6 3d 90 1e af bc b7 7f f7 bd
       0.09502312 0.12040492 -0.021376878 -0.120849065
000310 ba 7b bd 3d 3d dc bf bd 32 72 7f bd 66 3b 98 bd
       0.092521146 -0.09368179 -0.062364765 -0.07433204
000320 bf ab bb bd 0a 73 6a bc b9 6a 97 bd 03 76 d0 3d
       -0.09163617 -0.014309654 -0.073934026 0.10178759
000330 c7 9f c5 3c 53 8a a4 3d 90 33 72 bd a9 84 2d 3d
       0.02412404 0.08034196 -0.059131205 0.042362843
000340 45 ec 3c 3d f6 38 bf 3d eb 8c 1f 3c f8 6a 00 3d
       0.04612376 0.09337036 0.009738187 0.031352013
000350 92 f8 f4 bc 57 04 e3 3c 9f 5b fa 3b 8f 55 53 bd
       -0.029903684 0.02771203 0.0076403166 -0.051595267
000360 9c d9 f6 3d f5 76 83 3c c1 ff f7 3d ef 92 2d 3e
       0.120532244 0.016047934 0.12109328 0.16950582
000370 da a0 57 bb a9 bf de 3c 3f 4c d8 bc 89 08 7f bc
       -0.0032902271 0.027191 -0.026403544 -0.015566
000380 a9 07 4f bc 60 b1 17 3e 47 fe de bd 2e 36 c4 3d
       -0.012636104 0.14813757 -0.10888343 0.095806465
000390 da d4 66 bd a3 8e ce 3d 58 e5 41 3d 4e d9 fd 3d
       -0.056355335 0.100857995 0.04733786 0.12394963
0003a0 d4 9a 19 be d8 9f 37 bd 0d c6 19 3e ea 3a 3c bd
       -0.15000468 -0.044830173 0.15016957 -0.045954622
0003b0 8d 53 84 bd f0 0b e4 bd c7 db 04 3e b2 e6 6f 3c
       -0.064612485 -0.111350894 0.12974463 0.014642404
0003c0 40 61 12 be 26 91 11 3b b5 ae c1 bc dc 77 47 3b
       -0.1429491 0.002221176 -0.023642877 0.0030436432
0003d0 81 c8 8d 3d 97 79 43 3e 9e f9 b1 bd 84 81 53 bd
       0.06923009 0.19089352 -0.08690189 -0.051637188
0003e0 2c 89 02 be 17 cd 9f bd 10 5b 2d be 3c 54 27 bd
       -0.1274764 -0.0780279 -0.16929269 -0.040851817
0003f0 9b 9e ae 3d e9 f5 ad 3d c5 d5 3e bd fb 12 53 3d
       0.08526345 0.08494169 -0.046590585 0.051531773

lstm.bias_ih_l0 f4 [512]
000000 e9 63 0f 3c ae 0b d1 3b b8 f0 08 be 73 b0 ca 3b
       0.008751848 0.006379566 -0.13373077 0.006185585
000010 07 5b f1 bd 9e 58 5e bd ed 2b f4 bd 3b fe af bd
       -0.1178494 -0.05428373 -0.11922441 -0.085934125
000020 c0 4f ae bc 12 9d 81 3c 4d 3a 49 3b e4 34 60 3c
       -0.021278262 0.015821967 0.0030704916 0.013684485
000030 bf 69 c5 bd 76 1b b8 3b f3 45 57 bd 42 5d bc bd
       -0.0963931 0.005618508 -0.052556943 -0.09197475
000040 81 1c 99 3c a3 b4 cb 3c 33 5d 28 be ec 7f 18 3c
       0.01869035 0.024866408 -0.16441803 0.009307843
000050 f4 3f 1a bd 20 8c 29 3d 21 ee ea bb f7 b8 b0 3d
       -0.037658647 0.0413934 -0.0071695005 0.08629029
000060 42 f4 32 be 6c ba d1 3c d2 8c 00 be 8d f7 3c bd
       -0.1747599 0.025601588 -0.12553719 -0.04613452
000070 3e 3a 0c 3d 8a ab 27 3d 72 a0 2b bb 04 ae 9e bc
       0.03423523 0.040935077 -0.0026188162 -0.019370086
000080 11 0c ad bc bd 83 e2 bd 56 10 ec 3d 56 7f c2 bd
       -0.021123918 -0.11060283 0.11526553 -0.09496944
000090 f5 8d 35 bd 7e 9d 08 3d 03 7a 5c bd 01 7b cb bd
       -0.044324834 0.03335332 -0.053827297 -0.099355705
0000a0 12 fc 2c bd da 5d 4d 3c 50 9d fe bd 3e fb 0c be
       -0.04223258 0.012534583 -0.12432349 -0.13767716
0000b0 c6 2d da 3c 98 bb 0f be 35 09 04 be 80 ed 92 bd
       0.026633155 -0.14036405 -0.12894137 -0.07174206
0000c0 43 a9 bf 3c 9f ff 9c bd 86 e7 0b be 3d 10 34 3c
       0.02339614 -0.07665943 -0.13662538 0.0109902
0000d0 ec fd df 3c 0b 8f ef 3b 53 b1 b6 3c 9d 74 d1 bd
       0.02734276 0.007310753 0.022301352 -0.1022732
0000e0 e4 e8 20 3c 77 21 17 bd 7c ae 70 bd 02 9a 65 bc
       0.00982115 -0.03689715 -0.05876015 -0.014013769
0000f0 cf 6d 19 be d4 4a d9 bd b5 e4 3e bd dd c3 51 bd
       -0.14983295 -0.106099755 -0.04660483 -0.05121218
000100 2d 96 a6 3d c9 b7 01 be 03 1b ad 3d 31 e5 9e bd
       0.081341125 -0.12667765 0.08452418 -0.077585585
000110 a9 34 00 3d 0a 0e c1 bd bd 83 5e bc 96 d6 ab bd
       0.03130022 -0.09426506 -0.013581214 -0.083905384
000120 b9 53 05 bd 75 ab 23 3c aa a8 42 bc a4 52 a6 3c
       -0.032550547 0.009989609 -0.011881033 0.020303078
000130 7b 23 75 bd 6d e9 88 bd 54 d4 2f bd 76 0d 0b bc
       -0.05984829 -0.066851474 -0.0429271 -0.008487096
000140 4b 64 8a 3d 1a 77 23 bd fd 31 78 bc c3 d3 52 3c
       0.067574106 -0.039908506 -0.015148637 0.012867871
000150 67 05 8a bd 21 14 b4 bd 7c e4 f8 3c a8 01 ca 3c
       -0.06739312 -0.08792902 0.030382387 0.024658993
000160 e5 f0 0f bd 71 97 43 bd ba 3b 36 3c fb 26 aa bd
       -0.035141844 -0.047751848 0.011122638 -0.08308216
000170 a6 00 f5 3b 27 bf f3 ba 8b 61 07 be 35 4b d4 bd
       0.007476884 -0.0018596397 -0.13220803 -0.10365907
000180 76 41 29 bd 5f 77 28 3d 1e fa 95 bd fb dc e4 bd
       -0.041322194 0.041129466 -0.07323097 -0.11174961
000190 56 12 3c be d9 ef 56 bd 5d 7a d6 bd e2 cf 3a 3d
       -0.1836637 -0.05247483 -0.10472558 0.04560841
0001a0 3b a6 95 bb 4c 22 18 3d ae 2f f6 bc 38 0c 94 bd
       -0.0045669354 0.037142083 -0.030052032 -0.07228893
0001b0 ff 4f a2 bc 48 d3 02 be 99 ca 34 bd ac 01 97 bd
       -0.019813536 -0.1277591 -0.044138525 -0.07373366
0001c0 53 fd 16 bd 76 55 19 bd 13 66 5b bd 73 04 ab bd
       -0.036862683 -0.037435018 -0.053564142 -0.08350458
0001d0 ba 9c 63 bc 80 10 32 bd 4d 42 91 bd 7a 4f 37 bd
       -0.013892347 -0.043472767 -0.07092724 -0.04475353
0001e0 db 76 79 3b 3e 3f 90 bd 9e 04 83 3d 76 c9 af 3d
       0.0038065228 -0.070433125 0.06397365 0.085833475
0001f0 0b cd ee bd db e6 82 bd d1 69 1f bd 55 e7 f1 bd
       -0.116602026 -0.063916884 -0.038919274 -0.11811701
000200 60 93 c6 bd d5 bc 62 bd 06 76 eb bc fb fc 82 3d
       -0.09696078 -0.055355866 -0.028742801 0.063959084
000210 ae 5c ad bc 24 87 85 ba 3b d5 78 3c d0 8f 8c 3c
       -0.021162357 -0.001018737 0.015187557 0.017158419
000220 71 1d 01 be 8c 18 22 bd a1 cd c0 bd 12 a8 c8 3b
       -0.12608887 -0.03957419 -0.094142206 0.006123551
000230 df 82 0c be 38 c7 c7 bd 26 60 aa bd d8 3c f4 bd
       -0.13721798 -0.09754795 -0.0831912 -0.119256675
000240 c2 be 1b bc 0d 1b 8f bd ed 08 c0 bd d8 06 ed bd
       -0.009505929 -0.069875814 -0.093767025 -0.11573571
000250 e6 b3 14 bd 51 87 bd 3c ef 96 2b be e1 ab dd bc
       -0.036304377 0.023135813 -0.16756795 -0.027059497
000260 6e 42 27 be 52 a3 f1 3c 01 7f 03 be 6f 21 01 bd
       -0.16333935 0.029496823 -0.12841417 -0.031526025
000270 05 b7 60 bc 55 60 82 bc ff 5f 57 bc 2f 8b 88 bc
       -0.01371551 -0.015915075 -0.013145446 -0.01666793
000280 8e 0f c6 bd 26 71 13 be 49 84 8f 3d 87 93 ce bd
       -0.096709356 -0.14398631 0.07007653 -0.10086732
000290 33 99 40 3d 07 b5 b0 bc 0a d3 23 3c 2c a5 5b 3c
       0.047021102 -0.021570696 0.009999046 0.013406079
0002a0 4b 79 1f bd b4 96 01 bd 7a 43 02 3c 7c d5 24 bd
       -0.038934033 -0.031637862 0.007950658 -0.040242657
0002b0 cc 52 b4 bd 3a fb ba bd b0 72 25 3d a7 2a bb 3c
       -0.08804855 -0.09129949 0.040392578 0.022847487
0002c0 2c 97 8f bd 26 05 ce 3c 2f 80 4b 3c 50 ee 92 3d
       -0.070112556 0.02514894 0.012420698 0.07174361
0002d0 99 da e0 3c d8 5c bd 3c 6e c6 0e 3d 92 96 8d bd
       0.027447985 0.02311556 0.034857206 -0.06913485
0002e0 95 ba 63 3d 06 94 c9 3b 98 f3 f4 bd 80 6b f1 bd
       0.05559786 0.006151679 -0.11960524 -0.11788082
0002f0 e6 4b d7 bc c3 e9 f4 bd a8 4b 09 be 6d 89 a9 bd
       -0.026281308 -0.11958649 -0.13407767 -0.08278165
000300 77 18 62 3d 1b ae 94 bd 99 88 8b bc ff 8d 6b bd
       0.055199113 -0.072597705 -0.017032908 -0.057508465
000310 99 49 5a bd a7 a0 25 bd ea f7 f4 bd 53 d3 18 3d
       -0.053292844 -0.040436413 -0.11961348 0.03731091
000320 1d 70 f6 3d 74 ac 83 bd d7 17 61 bc 73 dd d5 bd
       0.12033103 -0.06429377 -0.013738594 -0.10442629
000330 e5 88 af bd 7a f3 e1 bb 87 a6 16 be 8c 8f c1 bd
       -0.085710324 -0.0068954797 -0.14711963 -0.094512075
000340 bc 4b 41 3c 76 c7 78 bc d6 3d 6e bd 8b b9 c7 bd
       0.011797842 -0.015184274 -0.05816444 -0.097521864
000350 a3 54 77 bd 01 fb e0 bc 8a 1a 4f 3c e6 11 37 bd
       -0.06038345 -0.027463438 0.012640605 -0.044694804
000360 f3 18 24 3d f2 be 13 bd 2f c0 3a bd 03 ea 86 bd
       0.040062856 -0.03607077 -0.045593437 -0.06587603
000370 d0 69 b7 bc 0d 93 5d 3c ca 4f 12 bb 0d a2 44 bd
       -0.022389323 0.013523829 -0.002232539 -0.048006106
000380 e9 86 46 bc e3 43 fe 3c a3 69 9a bd 9e 80 0d bd
       -0.012117126 0.03103823 -0.0753968 -0.034546487
000390 40 8e 56 be d6 40 2b 3c b3 13 c9 bd e0 86 53 bd
       -0.20952702 0.01045247 -0.098182105 -0.0516423
0003a0 f5 67 69 3c ab 5f bc 3c db 27 91 bd 58 dc a4 bd
       0.014245977 0.022994837 -0.0708768 -0.0804984
0003b0 78 b8 fb bc e1 a0 cf bd 54 ae f6 bb e6 34 ec bd
       -0.03072761 -0.10138107 -0.0075281058 -0.11533527
0003c0 43 6a be bc b9 20 fc bc 18 42 57 bd f7 23 ce bd
       -0.023244029 -0.030777322 -0.052553266 -0.100654535
0003d0 7a 8e e3 bd f0 7e b7 bd 3b 77 81 bd 66 05 48 bd
       -0.111111596 -0.08959758 -0.063215695 -0.048833273
0003e0 c3 55 e4 bc b1 0b 51 3d 1a 40 fa 3c a3 9e 5e bd
       -0.027872926 0.05103654 0.030548144 -0.054350507
0003f0 5d 26 0d be ec 97 05 3c 38 be f5 3c 1b 7e e7 bd
       -0.13784166 0.008153897 0.02999793 -0.113033496

lstm.bias_hh_l0 f4 [512]
000000 7d 8e fb ba 22 b9 65 bd 10 24 62 bd 11 e8 29 3d
       -0.0019192245 -0.05608476 -0.055210173 0.04148108
000010 ea c8 bb bd b4 e0 dd bd de b3 3b bd 01 96 02 bd
       -0.09169181 -0.10833874 -0.04582583 -0.031881336
000020 92 77 14 be e0 da c7 bd 2d 8f e7 bd 27 54 ca 3c
       -0.14498737 -0.09758544 -0.113066055 0.02469833
000030 cd c8 02 be 0d a6 04 be 9c 27 ff bd 4d 40 38 bc
       -0.12771912 -0.12953968 -0.12458727 -0.011245799
000040 4a f7 14 3d db a7 0d bd 44 12 18 be eb 37 2e bd
       0.036368646 -0.034583908 -0.14850718 -0.042533796
000050 84 dd 9f bd 57 81 27 bb b0 0e 6f bd 6f 42 84 3c
       -0.078059226 -0.002555927 -0.058363616 0.01614496
000060 10 0a df bd c6 02 9d 3c ee 30 80 bd a8 0f 3b bd
       -0.10890591 0.019166362 -0.062593326 -0.045669228
000070 82 2d 55 bd 58 c6 8e 3c cc 42 e2 3c 26 e1 56 3d
       -0.052045353 0.017428562 0.027619742 0.052460812
000080 e4 d9 00 be 53 62 a1 bd ff aa 0f 3e aa 04 fc bd
       -0.12583119 -0.07880082 0.14030074 -0.12305577
000090 b9 28 89 3d ac b7 3b bd bf df 8e 3d 82 9f 07 bd
       0.0669722 -0.04582946 0.0697627 -0.033111103
0000a0 d3 6f 8b bd 82 6f 2a bd 60 05 d9 bd 83 7a db bd
       -0.06808438 -0.04161025 -0.10596728 -0.10716727
0000b0 93 a8 26 bc 12 a4 35 be 40 32 c4 bd fa 05 3a bd
       -0.010172027 -0.17738369 -0.09579897 -0.045415856
0000c0 93 39 e8 bd fe 01 02 3d 6f ca 73 bd fb e4 30 3d
       -0.113391064 0.03174018 -0.059519228 0.043187123
0000d0 3a bc 13 3c dd b1 37 3c e6 cb 95 bc 0c a3 df bd
       0.009017045 0.0112118395 -0.018285703 -0.109197706
0000e0 32 e0 94 3d f1 18 9f bd ea 1d 82 bd 0c 81 2c bd
       0.07269324 -0.07768429 -0.06353362 -0.042115256
0000f0 62 43 0c be 10 77 27 3c 40 0a ae bd 59 af 00 3d
       -0.1369758 0.010221258 -0.08498049 0.031417225
000100 4c 0b 97 bd e7 f0 ac bd de 24 d2 3d 37 27 0c be
       -0.073752016 -0.08444386 0.10260938 -0.13686834
000110 57 9f 77 bd 13 cc ea bd 33 db 0d bd b9 86 b4 bc
       -0.060454693 -0.11464705 -0.034632873 -0.022036897
000120 be 98 8f 3d ef a9 ed bd ec e0 af bd 81 63 96 bd
       0.07011555 -0.11604678 -0.08587822 -0.073431976
000130 4f 9f b9 3c 9b 53 a7 bb f9 8f 7a bd 9d 94 16 bd
       0.022658972 -0.005106402 -0.06117246 -0.036762822
000140 eb b9 65 bd a8 ee 55 3d 8d a7 54 bc 74 5a cb bc
       -0.05608551 0.052229553 -0.0129794 -0.024823405
000150 c0 46 25 3d 4e e5 7a 3d 79 f9 da bd 67 d0 34 3d
       0.040350676 0.06125384 -0.106921144 0.04414406
000160 6a 36 d1 bd 60 94 ef bb 2c ab 29 3d 64 62 4f bd
       -0.10215457 -0.007311389 0.041423008 -0.050630942
000170 fa 29 28 bd 7f 78 59 bb 64 a4 e3 bd e7 c4 1a bd
       -0.041055657 -0.0033183394 -0.111153394 -0.037785437
000180 45 82 01 be b1 a9 35 bd f2 9a e8 bc 6a b0 fe bc
       -0.1264735 -0.044351283 -0.028394196 -0.03108998
000190 9f 47 4b be 74 48 20 bc 5b 82 e3 3c ec e5 01 bd
       -0.1985154 -0.009782899 0.02777212 -0.03171341
0001a0 71 d2 19 bd 82 ff bd bd c6 52 fc bd c5 b9 bb bd
       -0.03755421 -0.0927725 -0.12320475 -0.09166292
0001b0 7f 38 9f bc fb ad 89 bd 5e b8 a3 bd aa 55 ce bb
       -0.01943612 -0.06722637 -0.079941496 -0.006296833
0001c0 3f 25 bc bd 24 8d ce bd a0 20 90 bd 59 6d 03 be
       -0.09186792 -0.10085514 -0.07037473 -0.12834682
0001d0 ac 40 a4 3b 06 4d ed bd fb de a6 bd 63 64 2c bd
       0.0050125923 -0.11586957 -0.08147999 -0.042087924
0001e0 c3 63 9c 3d 24 fb 92 3d 96 ed 65 3d 2e fb c9 bc
       0.076362155 0.071768075 0.056134783 -0.024655905
0001f0 34 06 c5 3c 21 b5 5e bc 2a 0e 11 3d 53 51 91 bd
       0.02405081 -0.013592989 0.0354139 -0.070955895
000200 74 6f 4c bb 18 12 85 3d f7 d7 86 bd a3 ca d0 3d
       -0.003119436 0.06497592 -0.06584161 0.101949
000210 89 42 0a 3d 47 f4 87 bc d9 a4 fa bd f1 a9 c0 bd
       0.03375486 -0.016595973 -0.122384734 -0.09407414
000220 a2 13 99 3c 62 17 89 bc df 9d 92 bd a1 76 e2 bd
       0.01868612 -0.016734783 -0.07159018 -0.11057783
000230 95 47 e3 bd d1 b4 17 be dc 17 5d bd 2b 72 3d 3c
       -0.110976376 -0.1481507 -0.053977832 0.011562864
000240 0e 15 d0 bc d3 a4 af 3c 33 48 b4 bd 22 f3 2b bd
       -0.025400665 0.021440899 -0.088028334 -0.041979916
000250 93 58 e6 bc 3f 47 76 3c 6f 28 c9 bc eb b5 96 b7
       -0.028118407 0.015031635 -0.024555413 -1.7966106e-05
000260 50 1d 8b bc 97 52 cc 3b e3 a0 1f bd a7 14 99 bd
       -0.01698175 0.0062354314 -0.038971793 -0.07474642
000270 b8 51 97 bd f3 e9 d4 3c 1f f0 b0 bd d2 c2 17 3d
       -0.073886335 0.025990462 -0.086395495 0.03705103
000280 53 1d 57 bd 46 f0 e1 bd b9 fd d0 3d b1 5a e7 bd
       -0.0525182 -0.11032157 0.10204644 -0.11296595
000290 9d ab 83 3c 77 26 06 3a 73 d0 54 3d f8 9c 02 3d
       0.016073043 0.0005117426 0.051956605 0.03188798
0002a0 cd 54 4e bd a8 2a 50 bd 2c f8 82 bd fd 59 9f bd
       -0.05037384 -0.05082193 -0.06394991 -0.07780836
0002b0 b8 97 b4 bd f7 67 d4 bd 44 47 f8 bd 6d 8b 11 bc
       -0.088180006 -0.10371392 -0.12122968 -0.008883339
0002c0 d4 a9 99 bd 5f 57 1d 3d a2 00 09 be 7f a4 43 bd
       -0.07503095 0.0384134 -0.13379148 -0.047764298
0002d0 ec 62 e1 3b ff b0 e3 bc bd 93 a4 bd ff 19 50 bd
       0.0068782475 -0.02779436 -0.08035991 -0.05080604
0002e0 9c da 33 bd 21 26 a4 bc b8 12 5b bd 32 01 fc bd
       -0.043909654 -0.020037713 -0.05348465 -0.123049155
0002f0 f0 d5 37 bd f4 e9 77 bd 5c aa dc bc c1 6e 40 3d
       -0.04488176 -0.06052585 -0.026936702 0.046980623
000300 3d a9 5b 3d 88 ef fa bd fd b8 07 3d b4 49 88 bc
       0.053628195 -0.12252718 0.033135403 -0.016636707
000310 6e e0 8e bd 53 d8 84 bd cd eb 65 bd 62 17 90 3c
       -0.069764 -0.06486573 -0.05613308 0.017589275
000320 b4 44 76 3d d8 6a b6 bd be 22 37 3d bf 14 ac bc
       0.060124114 -0.089070976 0.044710867 -0.021005986
000330 7d af 20 3d c7 5d a8 3c 0d 22 1e be b2 1b 1a bd
       0.03922986 0.020552529 -0.15442677 -0.03762407
000340 47 f6 6a 3b f1 12 8b bd f6 9d ea bd 6e 91 d4 3c
       0.003585236 -0.06790722 -0.1145591 0.025948253
000350 40 b6 9c bc 54 e5 9f 3d 41 68 cb bd df a1 04 3d
       -0.019129872 0.07807413 -0.09931994 0.032380935
000360 0c ba f3 3c 88 65 92 bc c1 43 c9 bd 87 f1 af bc
       0.0297518 -0.01787068 -0.09827376 -0.021477474
000370 08 b6 a5 bd 6a d0 d2 bc 4c 53 98 bd f7 af 60 3d
       -0.0809136 -0.025734145 -0.074377626 0.054855313
000380 9e f4 f1 bd ab ee 38 3d 3f e5 12 be 5f f1 52 bd
       -0.11814235 0.045149487 -0.14345263 -0.05149972
000390 b3 fd 43 be 8c 1f 96 bd 28 41 ee bd 27 bd 77 3b
       -0.19139747 -0.07330236 -0.11633521 0.0037801953
0003a0 ec 48 af bd 6e 02 f4 bd 5d 14 67 bd 2d a3 1d bd
       -0.085588306 -0.11914526 -0.056415904 -0.038485695
0003b0 5a 4c c8 bc 7f 37 93 bd 21 a6 0f be 45 31 8b bd
       -0.02445047 -0.071883194 -0.14028217 -0.06796507
0003c0 ca 3f df bd 05 9d e0 bd 22 49 a0 bc 66 e4 36 be
       -0.10900839 -0.10967449 -0.019566122 -0.17860565
0003d0 e2 5a 57 bc 4e d1 e1 bd f5 67 98 3c 75 06 1e bc
       -0.013144227 -0.1102625 0.018604258 -0.009645094
0003e0 c7 02 f0 bc 66 43 bf 3c a2 7d 4b bd 1b c6 a7 3d
       -0.0292982 0.023347568 -0.04968036 0.081920825
0003f0 c5 1e 40 bd 66 0e ef bd 69 7c df bd 6c 81 f8 bd
       -0.046904344 -0.11672668 -0.10912401 -0.1213406

lstm.weight_ih_l1 f4 [512, 128]
000000 4f aa e2 3d 77 b8 ca 3d 27 e6 3f 3c c0 d6 01 be
       0.1106764 0.09898465 0.011712587 -0.12679577
000010 75 69 cd 3d 16 f3 35 bd f7 92 b9 bd 52 5a be bd
       0.1002988 -0.044421278 -0.090612344 -0.09294571
000020 de 15 22 bd d3 28 db bb e6 7f f0 bd 70 42 03 3d
       -0.039571635 -0.0066882162 -0.11743145 0.03204578
000030 79 92 3f 3d 2c 68 24 bd 20 18 e2 bb d7 22 c6 3d
       0.046770547 -0.04013841 -0.0068998486 0.09674614
000040 87 c4 85 bc 19 f2 7d 3c 10 ef b9 3d a3 86 8d bd
       -0.016329063 0.015499615 0.09078801 -0.069104455
000050 30 3f 8d bd 34 90 21 3d 20 ba 61 bd 86 51 b2 bc
       -0.06896818 0.039444163 -0.055109143 -0.021767389
000060 8f 4f 6b bd 89 05 1a 3e f5 4d 9a 3d f4 da e2 3d
       -0.05744892 0.15041174 0.075344004 0.11076918
000070 b5 43 df 3d da da d6 bd b8 b1 96 bc 22 2a dc bd
       0.10901586 -0.104909614 -0.01839529 -0.10750224
000080 bd 7b 92 3c 5e 78 d4 bd 6c 4b fb bb a6 57 9e 3d
       0.017881269 -0.10374521 -0.007668903 0.07731561
000090 8a 8c f9 bb 89 b4 b5 bd 70 6f ca 3d 07 c9 68 bd
       -0.0076156305 -0.08872325 0.09884536 -0.05683234
0000a0 a3 5b 85 bd d7 09 c8 3d 70 30 c4 bd 9a 47 c0 bc
       -0.06511619 0.09767502 -0.09579551 -0.023471642
0000b0 a2 01 d6 3d 19 a0 4d bd cf a5 da 3d 81 88 84 bd
       0.1044953 -0.05020151 0.10676157 -0.064713486
0000c0 0d 9b 90 3c 4d a7 b6 bd fd ee 10 be 5f 86 f4 3d
       0.017652059 -0.08918629 -0.14153667 0.11939692
0000d0 b2 46 8e 3d ce d8 ec 3d 0f b7 c1 3c d6 34 a7 bd
       0.06947078 0.1156479 0.02364686 -0.081643745
0000e0 84 55 d0 bd 17 e9 c0 bc b3 57 76 3d fd 8a 82 3d
       -0.10172561 -0.023548646 0.06014223 0.06374166
0000f0 7e b4 fd 3d 4d 52 64 3c 1d bc ac 3c 6c ec 8d bd
       0.12387942 0.013935638 0.021085793 -0.069298595
000100 5f 80 ad bc 4f 81 a7 3d 56 b0 32 bd f3 f6 e6 bd
       -0.021179376 0.081789605 -0.0436252 -0.112775706
000110 1e ec a1 3c fc d1 cc bd a8 36 a6 bd 40 e4 14 bd
       0.01976591 -0.10000989 -0.081158936 -0.03635049
000120 2e c3 bc bd ff 8b 96 3d e1 cb 43 bc cc ad fa bc
       -0.09216915 0.07350921 -0.011950464 -0.030600451
000130 59 94 f8 3b c4 2d b4 3c e5 a4 d3 bd e2 2c 02 3e
       0.007586044 0.021994479 -0.103341855 0.12712434
000140 1c 49 1b 3e a4 9b b1 3d 11 92 38 bd a4 aa ad 3c
       0.15164608 0.08672264 -0.045061175 0.021199532
000150 10 fd 41 3c 4e eb 81 bc c1 89 09 bc 28 e0 2c 3c
       0.01184012 -0.015859272 -0.0083946595 0.01055149
000160 a8 1a 91 3d 3e 13 81 3d 56 37 50 3d ad 36 f2 3d
       0.070851624 0.06302498 0.050834022 0.11826835
000170 8f 1f 4e 3d ce bc a4 3d 3e 59 81 3d 5f ce e6 3c
       0.050323065 0.08043824 0.0631585 0.028174577
000180 dd c4 b4 bd 7c ec 0a 3e 8b 45 1c be 43 ce 87 3b
       -0.08826611 0.13566774 -0.15260904 0.0041444614
000190 30 2c 64 bd 15 12 2c 3e 3a 47 ab bc fd af 94 3d
       -0.055706203 0.16803773 -0.020907987 0.072601296
0001a0 63 93 8f bd 20 b4 d9 bd cf d0 b4 3d 9e 19 93 ba
       -0.07010534 -0.10630059 0.088288896 -0.0011222844
0001b0 66 95 5f 3d 09 74 12 3d bf 01 56 3d f0 11 16 bc
       0.054585837 0.03575519 0.05224776 -0.00915955
0001c0 a2 ae 02 3c 1e 24 8d 3d 3b 0b 01 be c2 04 ef bc
       0.007976206 0.068916544 -0.1260194 -0.029177073
0001d0 66 6b 87 3d d9 60 30 3e 94 02 21 bb ce 0f 0e bd
       0.066122815 0.17224444 -0.0024568187 -0.03468304
0001e0 7c b1 ae bd 08 4d 0c bd 3c b8 05 be 84 af c0 bc
       -0.08529946 -0.03425315 -0.13058561 -0.023521192
0001f0 b8 22 7e bc e6 a5 07 be d9 92 d1 bd 91 88 61 bd
       -0.015511207 -0.13246879 -0.10233087 -0.05506188
000200 fd db 42 3b 77 f2 d2 3c 7a 7c 66 bd bc e9 4e bc
       0.0029733174 0.025750382 -0.056271054 -0.012628969
000210 4a 21 08 3c eb b1 d1 bc 22 64 be bd f9 9b 09 3d
       0.008308718 -0.025597533 -0.092964426 0.033596013
000220 b6 eb a9 bc 85 bc d5 3c 13 44 bd bd cb d8 ac bc
       -0.020742279 0.02609087 -0.092415 -0.021099469
000230 d2 2c b5 bd 2e a8 7f bd 80 e4 89 bd e7 ae ed bc
       -0.088464394 -0.062416248 -0.06733036 -0.029014064
000240 cb d1 9f bd 79 e2 9d 3d c4 06 64 3c eb 45 84 bd
       -0.07803687 0.07709212 0.013917629 -0.06458648
000250 6e d8 17 3b 88 6f 18 3d 57 74 97 3c 00 54 38 be
       0.0023169774 0.03721574 0.018488092 -0.18000793
000260 98 c0 cc bd bd c1 30 bd 3d 02 20 bd 37 11 a0 3d
       -0.09997672 -0.043153513 -0.039064635 0.078157835
000270 0f a3 0d 3d dd 1d e6 3d c9 60 7a bd b6 a4 4d 3d
       0.034579333 0.11236165 -0.061127458 0.05020591
000280 3e cb 8b 3d eb e1 38 3d e3 c7 4a 3c ea d8 7e 3d
       0.06825875 0.045137327 0.012376758 0.062218584
000290 fd c0 16 3e 1d 30 79 3d b1 f2 cf bd f4 ca 62 bd
       0.14722057 0.0608369 -0.101537116 -0.055369332
0002a0 4a 45 79 3d e2 55 7f bc 1a a9 e6 3c 4d 0c 17 bd
       0.060857095 -0.015584441 0.028156806 -0.036876965
0002b0 d5 54 8c 3d ed 29 c5 bd 5b 48 ed ba 53 95 df 3b
       0.06852118 -0.09627137 -0.0018103229 0.0068232208
0002c0 be 2e 06 3d e4 11 ca 3d c5 47 69 bd e8 57 a2 bc
       0.03275942 0.098666936 -0.05695321 -0.019817308
0002d0 ae 49 13 be 06 80 9a bd 9b 0d 16 bc 03 aa ea bd
       -0.14383575 -0.0754395 -0.009158517 -0.114582084
0002e0 47 25 fb bc e2 69 00 bd b6 14 89 bd 6f 7e 00 3d
       -0.030657424 -0.031350978 -0.066934034 0.031370576
0002f0 3b 99 bf 3c 2e cb 40 3c 8e 9e 1d 3e b8 20 b9 bb
       0.023388496 0.011767192 0.15392515 -0.0056496523
000300 e5 b7 ac bd 08 96 90 3b 8e d8 31 bd 87 2c 0b 3d
       -0.084335126 0.0044124164 -0.043419413 0.03397801
000310 48 4c a5 3d e1 51 d5 bc ec b7 90 bd fc 1b d1 3d
       0.0807119 -0.02604002 -0.0706633 0.10210416
000320 f6 81 b1 3d 32 f9 08 bd a3 b9 9c 3d 3a ff 98 bd
       0.08667366 -0.033440776 0.07652595 -0.074705556
000330 ec 2a 54 bd 05 3e bb 3c 08 f7 6d 3d b7 ff 01 3d
       -0.051798746 0.022856722 0.058096915 0.03173801
000340 1e 93 e8 bc 1d d0 01 be 9e 3d 12 be ea 7f bc 3c
       -0.028390463 -0.12677045 -0.14281318 0.023010213
000350 b6 ed 4b bd 0a 40 c1 3d d5 07 34 3d d8 e4 7b bb
       -0.049787246 0.094360426 0.04395278 -0.0038435962
000360 50 47 94 bd 61 01 d1 bd 0d 0b 89 3c eb 66 1a bd
       -0.07240164 -0.10205341 0.016728902 -0.037695806
000370 42 ad 49 bc 58 a3 63 3a 4c 5c 78 bd 23 0f 95 bd
       -0.012309374 0.0008683703 -0.060634896 -0.07278278
000380 8c 2d 10 be 99 94 e4 bd 59 67 b7 bc 34 34 45 3b
       -0.14079875 -0.11161155 -0.022388147 0.003009093
000390 de dc 11 3e 52 6c 08 3d 21 2d 59 3d f4 d4 f9 bd
       0.1424441 0.033306427 0.053021554 -0.12198821
0003a0 7d 1b 95 3d 40 eb ae bd 24 32 06 be 36 03 86 bc
       0.072806336 -0.08540964 -0.13105065 -0.016358953
0003b0 a3 19 0a 3d 2e c0 55 3d d2 6f aa 3b c7 22 fe bd
       0.033715855 0.05218523 0.0052013183 -0.12408977
0003c0 0a be 4b bd 3d 55 6a bd 22 a1 e9 3d ef b0 cf 3d
       -0.049741782 -0.057210196 0.11407687 0.10141169
0003d0 bb 96 08 be a6 02 81 bc 84 21 9c 3c 65 9e b8 bc
       -0.13338749 -0.015748333 0.01905895 -0.022536466
0003e0 07 da 90 3d 4d 46 f4 bc 57 21 25 3d a9 4f 39 3d
       0.070728354 -0.029818678 0.040315 0.045241985
0003f0 1d 43 20 bd c6 47 43 be b4 c1 cf bd 51 01 fe b9
       -0.039126504 -0.19070348 -0.10144368 -0.00048447636

lstm.weight_hh_l1 f4 [512, 128]
000000 b6 fe b8 3d 8f bd bc 3d 02 cd 74 bc 64 0b 8e ba
       0.09032957 0.09215843 -0.014941456 -0.0010837135
000010 e2 da 0b bd c5 73 04 bd 73 e1 b3 bb bd 4d a8 3d
       -0.03414429 -0.03233697 -0.005489522 0.082179524
000020 0e b0 d9 bc f2 11 d7 bd 64 b9 ea bb 64 0d 1d be
       -0.026573207 -0.1050147 -0.0071632136 -0.1533714
000030 7b 71 0e 3e 13 6b 02 bd c5 c1 93 3d d3 95 35 bc
       0.13910477 -0.031840395 0.07214693 -0.011083084
000040 f4 57 b9 3c ee 99 db 3c c4 b1 a9 3c 2f e7 ea bc
       0.022624947 0.026806798 0.020714648 -0.02867469
000050 bd 02 10 be 48 c4 45 3e 94 a4 1d be 8a 67 f0 3d
       -0.14063545 0.19313157 -0.15394813 0.117384985
000060 54 d0 b6 3c 2d c2 1c 3e 13 c9 c5 3d 40 9a 16 3e
       0.022316135 0.15308447 0.096574925 0.14707279
000070 1f de 9b bc 39 ff fc bd 86 5e 81 3d 63 3b d8 3b
       -0.019026814 -0.12353367 0.06316857 0.0065988763
000080 2f 86 c0 bd 7b 0a 01 3e ed e7 40 3d 4b 73 1b bd
       -0.094005935 0.12601654 0.04709618 -0.03795175
000090 3c 1a 86 bc 3f 30 e9 3d 1e c9 02 be 02 b1 89 3c
       -0.016369931 0.11386155 -0.12772033 0.016808037
0000a0 eb 5d ea bd b4 3f e3 bd 5a f6 09 3e 93 46 a7 bd
       -0.11443695 -0.11096135 0.13472882 -0.08167758
0000b0 d3 fb 14 3d b5 d1 31 3e f5 bb 31 3e 4f 81 9c bd
       0.03637297 0.17365153 0.17356856 -0.07641851
0000c0 33 2b a4 bd f4 47 f2 3d 0f 5d 19 bd ca ca b6 3d
       -0.08016052 0.1183013 -0.037442263 0.08925398
0000d0 ba 0c 0a be bc de f5 3d 11 22 71 bd 3d 94 84 ba
       -0.13481417 0.12005374 -0.05887038 -0.0010114979
0000e0 5f ac ec ba 34 3f 75 bd 36 7c 09 bc 6d fc b0 3d
       -0.0018056742 -0.05987473 -0.008391431 0.086418964
0000f0 37 bd ce bc f6 f4 23 bd 99 7b cf bd 8e 2e b7 bd
       -0.025236709 -0.040028535 -0.10130996 -0.089444265
000100 eb af 02 be 1f 10 2f be dd 23 b2 bc 82 c9 5c 3e
       -0.1276242 -0.17095993 -0.021745617 0.21561244
000110 02 76 4e bc 81 86 92 3c cd cd 2a 3e 1b ca d9 3c
       -0.012601377 0.017886402 0.1668007 0.02658563
000120 d0 df 28 3d b1 c1 28 bd de 65 44 3c 7d d7 6e bd
       0.04122907 -0.041200344 0.011987178 -0.058310974
000130 b3 5d 62 bd 56 d6 c8 3b 6f 28 d2 3c 70 2b 92 3d
       -0.05526514 0.0061290665 0.025654046 0.07137191
000140 de f1 1a 3e d3 62 2a bd 7f ed 66 3d c0 b3 9b bd
       0.15131328 -0.041598152 0.056378838 -0.07602644
000150 09 9e 91 bd b8 06 0a be ac 53 8f bd a7 31 4c bc
       -0.07110221 -0.13479125 -0.06998381 -0.01246301
000160 0e 2e 3d be 1a 5a da 3c 4e 6e 42 bc a8 95 24 be
       -0.184746 0.026654292 -0.011867119 -0.16072714
000170 8c 69 3f 3d e5 61 95 3d 3f 94 ac 3b e6 40 95 3c
       0.046731517 0.072940625 0.0052666957 0.018219423
000180 16 fa 09 bd df f4 ae bd 67 42 08 3c a0 b0 4a bb
       -0.033685766 -0.08542799 0.008316613 -0.003092803
000190 f2 2d 36 3d b9 13 0c be b1 16 c4 3d 9b 34 65 bd
       0.04447741 -0.13679399 0.095746405 -0.05595837
0001a0 0e 2e a7 3d 7b 32 77 3d 97 d3 c7 3d 1b 63 f6 bc
       0.08163081 0.060350876 0.097571544 -0.030076554
0001b0 1b 4d df bd 53 5b 20 3e 14 0b 89 3c e4 40 d3 bd
       -0.109033786 0.15659837 0.016728915 -0.10315111
0001c0 5b 34 7e bd a8 76 3e be c7 62 e1 3b 78 ae 9e bc
       -0.06206165 -0.18599951 0.0068782303 -0.019370303
0001d0 7c dc 44 3d 46 61 c7 bd b5 52 49 bd 16 29 08 3e
       0.048061833 -0.0973535 -0.04915114 0.13296923
0001e0 66 cb ae bd 6e 18 61 bc b2 a4 e8 3d e8 93 be bd
       -0.08534889 -0.013738735 0.11359538 -0.09305555
0001f0 d3 07 a9 3d da c6 49 bd ae e0 ad bd d8 7d 1f 3e
       0.082534455 -0.049261905 -0.0849012 0.1557535
000200 ab 4b d4 3c 76 a9 8a 3d 49 bc ba 3d 24 d8 85 3d
       0.025914988 0.06770603 0.09117944 0.06535366
000210 2b b8 cd 3d f9 a6 6b bd b6 61 98 bd 1d bb 95 3c
       0.10044893 -0.057532284 -0.07440512 0.0182777
000220 3c 63 bb 3d 55 0b 38 3e 9a 32 c2 bd b8 14 b5 ba
       0.09149787 0.17973073 -0.09482308 -0.0013815379
000230 e5 ef 2b be ef f6 ed 3c b4 b1 26 3c 26 2b 8f bd
       -0.16790731 0.029048411 0.010174204 -0.06990652
000240 c8 fc 1e bd 94 97 a2 bb 41 3d 4e be 37 f5 a9 bb
       -0.03881529 -0.004961917 -0.20140554 -0.0051867026
000250 2f 33 97 bc 0e 24 ba b6 9a 24 f4 bc 0f 4e 81 bd
       -0.018457023 -5.5474293e-06 -0.02980261 -0.063137166
000260 40 8b 03 be 95 c6 aa 3c 9a e2 a2 3d 90 75 0d 3b
       -0.12846088 0.020846644 0.07953377 0.0021584965
000270 b7 f6 3b 3d 60 1f 03 bc 4b 20 3c bd 34 4c 81 3c
       0.045889582 -0.008003086 -0.045929234 0.015783407
000280 7e 6b ba 3d 63 91 3f 3c 56 60 98 bd 3f 58 cf bd
       0.09102534 0.011692378 -0.074402496 -0.101242535
000290 f4 fd 2a 3d 94 80 2b bd fc f6 ef bc 9e c6 b1 bd
       0.041746095 -0.04187067 -0.029292576 -0.08680461
0002a0 6a c1 e7 3d c0 58 59 bd d0 9d f8 bd 7d 42 a7 bc
       0.11316188 -0.053063154 -0.12139475 -0.020417446
0002b0 3c ed 0f be a7 dc 43 3d 00 4c 83 3d 17 e1 bb bd
       -0.14055341 0.047817852 0.0641098 -0.09173792
0002c0 94 9d 14 bc 75 36 ea bd b8 a8 73 bd 52 c5 1d 3c
       -0.009070773 -0.11436168 -0.059487075 0.009629564
0002d0 ff 89 45 bc 23 70 f1 bc 6b 8b 30 3e 66 a1 31 3e
       -0.012056827 -0.029472416 0.17240684 0.17346725
0002e0 0b cd 7e 3d 8a 30 59 bd 32 e0 dc bc d7 6d 9d bd
       0.062207263 -0.053024806 -0.026962373 -0.07686966
0002f0 70 e3 d4 3d a3 aa 9c 3b ac 6d 98 3d 9e f6 fc 3c
       0.10394943 0.0047810837 0.07442793 0.030879315
000300 66 7e e5 3a d8 dc 59 3d b3 4c ec 3d fe 87 fe bd
       0.0017508983 0.05318913 0.11538067 -0.12428282
000310 7c 39 83 3c 12 85 8d bd b4 99 8a bd 04 0a 0d be
       0.016018622 -0.06910147 -0.06767598 -0.13773352
000320 08 db 8f bd f1 7f 51 bd 4a 32 89 bc ff 91 7b bd
       -0.07024199 -0.051147405 -0.016747613 -0.06141853
000330 61 ca 53 bd fe 73 c9 3d c4 71 9d 3d 7d d6 a5 3d
       -0.051706675 0.09836577 0.07687715 0.08097551
000340 88 05 f6 bd 81 7c a2 bd 6e da b8 bd 07 73 29 3d
       -0.12012774 -0.079339035 -0.09026037 0.041369464
000350 2f d3 cd 3d cc 33 97 bc af b6 86 3c 5f e9 b7 3d
       0.10050046 -0.018457316 0.016444532 0.08980059
000360 f5 34 58 3d 78 f5 5d bd 7c 46 df 3c 68 2e d2 3c
       0.05278488 -0.054189175 0.02725529 0.025656894
000370 2b 7e d7 bd 5a 93 3e 3e f1 5e fe 3c 04 a4 92 3c
       -0.105221115 0.18610898 0.031051131 0.017900474
000380 70 d2 a7 3a 62 2d d8 3d 02 08 0a 3d 5f 0e 35 3d
       0.0012803804 0.10555531 0.033699043 0.04420316
000390 6e ae 66 ba 53 bc 8b 3c 5a 1f ec 3d b3 b8 80 3d
       -0.0008799796 0.017057573 0.11529417 0.062852286
0003a0 21 75 4b 3b 3c 6f 0c 3e d9 49 e0 3c b3 31 88 bd
       0.0031045156 0.13714308 0.027378963 -0.066501044
0003b0 8f 41 72 3d e3 f1 3d 3d d2 4e c8 bd 01 a4 66 bd
       0.059144553 0.04637326 -0.09780659 -0.05630875
0003c0 c4 4d 6c 3c 61 0b 33 3d 66 4d c8 3a 08 70 e0 bd
       0.014422838 0.043712024 0.0015281856 -0.10958868
0003d0 6d 11 52 bd ab 1e f9 bd a5 63 ad 3d 22 47 a2 3a
       -0.05128615 -0.121640526 0.08466271 0.0012380818
0003e0 fc 26 f1 3c 52 a1 11 3e 08 4a f3 bd 4c b0 0e 3e
       0.029437535 0.14221695 -0.11879355 0.1393444
0003f0 06 3f 2d bc 6f a0 72 bd 0b f1 ba bb d0 1a e9 3c
       -0.010574108 -0.059235033 -0.005705004 0.028455168

lstm.bias_ih_l1 f4 [512]
000000 9e 9a 7b bd 01 84 a6 bd 6f bc 27 3d aa ff 30 be
       -0.06142675 -0.081306465 0.04095119 -0.17285028
000010 39 fb 08 3d a2 9f d9 bd ad ef bf bc 7e 72 3f be
       0.03344271 -0.10626151 -0.023429716 -0.18696019
000020 3b 19 f6 bc fd 00 0e be 12 77 c6 3c 7f 07 ce 3c
       -0.030041328 -0.13867564 0.024226699 0.025150059
000030 af 65 e8 bd e3 b6 2b 3b c8 00 06 be a0 8f 38 be
       -0.113475196 0.0026201538 -0.13086236 -0.18023539
000040 1d 67 98 bd 6d 8d 35 bc c5 4d 83 3c cb 6d 03 3d
       -0.07441542 -0.011081082 0.016028294 0.03208713
000050 cd be de 3d c3 15 56 bd 60 d3 2a 3e 26 26 05 bd
       0.10876236 -0.052266847 0.16682196 -0.032507084
000060 b6 c4 4b bd b6 f1 b4 3d eb 78 1c bd 80 0c 2e bd
       -0.049748145 0.08835165 -0.038201254 -0.04249239
000070 f5 db ce bd 45 27 06 bd e4 dd 8b 3d 00 03 e1 bd
       -0.10100547 -0.032752294 0.06829432 -0.109869
000080 e0 fa 3b bd 19 68 15 be 3a 5d cc bd 9d d6 69 bd
       -0.04589355 -0.14590491 -0.09978719 -0.057089437
000090 67 98 79 bd f8 41 eb 3c 8b 0d c6 bd 4f 5c 74 3b
       -0.060936358 0.02871798 -0.09670552 0.0037286466
0000a0 de fe 8b 3d ad 26 f2 3c ab 1c d3 bd 61 3c 6a bd
       0.068357214 0.029559458 -0.10308202 -0.057186488
0000b0 92 33 f4 bd 2b 13 01 bd 6c 45 97 bd 34 16 0f bb
       -0.11923899 -0.03151242 -0.07386288 -0.0021833302
0000c0 61 1f 14 3d 30 49 ee bd c5 69 18 be 79 c1 c6 bc
       0.036162738 -0.11635053 -0.14884098 -0.024262177
0000d0 7c dc bb bc 13 2c b2 bc 0a 73 f2 bd 78 64 06 bd
       -0.022932284 -0.021749532 -0.11838348 -0.03281066
0000e0 3b 40 2c 3d 0c e9 8b 3d 64 0e 21 bc 30 a4 5e 3d
       0.042053442 0.068315595 -0.009830091 0.0543558
0000f0 41 1d fd 3d db 89 90 bd 51 3d eb 3c 98 62 90 3c
       0.12359095 -0.07057544 0.028715761 0.017625138
000100 78 c8 16 3d 49 23 13 bb 92 bb 64 3d 73 2c f3 bc
       0.036812276 -0.0022451452 0.055842943 -0.029684281
000110 2d 00 b7 3d 2c cf 75 bd 0f 20 4d bd 60 01 a5 bd
       0.089355804 -0.060012028 -0.0500794 -0.08056903
000120 a4 0d e6 39 ae 20 e4 3c 4a 76 19 3e 62 0b e8 bd
       0.00043879182 0.027847614 0.1498653 -0.11330296
000130 91 83 85 3c e4 9b a2 3c 29 a5 8c bc f7 ca 82 bd
       0.016298087 0.019849725 -0.017168598 -0.06386369
000140 d7 67 f3 bc 99 84 fe bc 1a 68 32 be 73 92 26 bd
       -0.0297126 -0.031069087 -0.17422524 -0.04066701
000150 f6 06 a4 bd 07 f5 34 bd 47 f2 cf bd 5c 42 f6 bd
       -0.0800914 -0.04417899 -0.101536326 -0.12024376
000160 a3 02 8d bd 8f e3 d8 3d 66 84 f0 bd af e6 29 3e
       -0.068852685 0.10590278 -0.11744003 0.16591905
000170 1e ad da bd ce 59 3c bc 80 e9 dd bc 93 09 f7 bc
       -0.10677551 -0.0114960205 -0.02708888 -0.030155933
000180 06 dc 34 bd 12 a5 8e bd c3 6a cd bd c9 96 a4 bc
       -0.044155143 -0.069650784 -0.10030129 -0.020091431
000190 c2 88 92 3c 5d 97 ca bd 15 ad c6 bc d4 83 52 bd
       0.017887477 -0.098921515 -0.024252454 -0.051395252
0001a0 4a 84 21 3d 5f 50 ae 3d a1 13 3e bd 24 6a 4c bd
       0.0394328 0.08511423 -0.04640544 -0.04990591
0001b0 e0 c4 da bc 39 31 4f bd 49 61 62 3d 64 6b 05 bd
       -0.026705205 -0.05058405 0.05526856 -0.03257312
0001c0 51 94 9c bc ce 48 a8 bd 9e 08 53 3c f6 db 1a 3c
       -0.019113692 -0.082170114 0.0128804725 0.009451857
0001d0 24 b1 2e be 57 08 90 bd ee e7 12 be c6 c0 b8 bc
       -0.17059761 -0.07032841 -0.14346287 -0.022552859
0001e0 57 5e a1 bc 34 c3 a8 bd 6f 5b 51 bd 3e 2a f3 bd
       -0.019698305 -0.08240357 -0.05111259 -0.118732914
0001f0 28 db 96 3c 8c 67 a9 3d 79 9c a3 3d a4 48 fe 3d
       0.018415049 0.08271703 0.07988829 0.12416199
000200 f4 fa 61 bc cc 19 a7 bd 5f 71 3f bd 9d bd 80 bd
       -0.013792742 -0.08159217 -0.04673898 -0.06286166
000210 1a 0d a5 bd 5d a6 6c bd a7 24 b5 bd ca 1c e8 bc
       -0.080591395 -0.057775844 -0.088448815 -0.02833404
000220 47 db c7 bc ec 6c 02 bd 95 f2 22 3c 4b 4b bd 3d
       -0.024396552 -0.031842157 0.009945531 0.092428766
000230 ac 41 98 3c 8a 36 c3 3c c0 13 17 3d 49 08 60 bd
       0.018586002 0.023829717 0.03688407 -0.0546954
000240 f5 b4 af bd fd c3 f1 3c 08 df 94 bd 85 41 e6 3c
       -0.08579437 0.0295124 -0.07269102 0.028107414
000250 e7 0c 0f 3e 56 05 a4 ba 4e 21 e0 3d 2d 59 0b be
       0.13969766 -0.0012513797 0.10943852 -0.13608237
000260 a5 37 9b bd d3 e4 1f bd 63 fe 98 3d b8 09 1e 3d
       -0.07578973 -0.039036583 0.074703954 0.038583487
000270 17 2c 2c be 23 d0 00 3d 8b f2 08 3c b7 2d a3 bb
       -0.16813694 0.031448495 0.008358608 -0.004979815
000280 ae 48 d1 bd 59 ba 58 bc df 26 a8 bd d6 da a4 bd
       -0.10218941 -0.0132280225 -0.08210539 -0.08049552
000290 31 d9 09 be 6a 73 49 3d 9e 72 2d bc 14 ef 5a bd
       -0.13461758 0.049182333 -0.010586409 -0.05345066
0002a0 e6 ea 0e bd 01 64 03 3c 13 4e 93 3b 86 8d e0 bd
       -0.034891985 0.008019448 0.004495391 -0.109644935
0002b0 bb 24 15 be 8e f5 0b bd 58 4a ab bd 80 6d e0 bd
       -0.14564793 -0.034169726 -0.08363789 -0.109583855
0002c0 7e fa 9f 3c 16 03 ab bd 8a 0a cd bd b6 cc 65 bd
       0.019528624 -0.08350198 -0.10011776 -0.05610343
0002d0 2e 1f e7 3c 10 a8 1d be ad 2f 9e bd 05 30 20 bd
       0.02821311 -0.15396142 -0.07723937 -0.039108295
0002e0 01 24 86 bd 2d ed 98 bd e9 e9 41 bd 05 e9 82 b9
       -0.06549836 -0.07467113 -0.047342215 -0.00024969145
0002f0 73 01 97 3d 69 ae 56 bd 27 c1 e6 3b f8 39 1a 3c
       0.07373323 -0.052412424 0.0070420685 0.009413235
000300 fa 50 0a 3e c3 fe 3d 3c 2b a1 1a 3e 23 f3 6a bc
       0.13507453 0.011596384 0.15100543 -0.014340195
000310 61 6c b6 3b 1c 38 e7 bd 10 7e 02 3d 85 11 c9 bd
       0.005567119 -0.11289999 0.031858504 -0.09817795
000320 39 86 9f 3d 86 78 79 bc e0 f4 a6 3d 4e 07 44 bd
       0.07789273 -0.015226489 0.08152175 -0.04785853
000330 80 81 c3 bc 23 59 60 3c 3a ab f4 bc 63 9f 28 3d
       -0.023865461 0.013693127 -0.029866803 0.041167628
000340 de 0f 9b bd 40 17 07 3d 7e d4 cc bd 60 d4 fd bd
       -0.07571386 0.032981157 -0.10001467 -0.12394023
000350 9a e9 73 3d e1 be cd bd 68 a2 82 3c 91 22 f7 3b
       0.05954895 -0.10046173 0.015946582 0.0075419624
000360 90 2a cb bb 1c 35 8e 3d 49 e1 23 3c e8 ce 16 3e
       -0.006200142 0.069437236 0.010002443 0.14727366
000370 4a d2 13 be 16 81 33 be 39 79 12 bd f3 a0 a7 bd
       -0.14435688 -0.17529711 -0.03576014 -0.081849955
000380 ba 61 04 3d cc 4c 94 3b e0 52 46 bd 39 0a b5 bd
       0.03231976 0.0045257565 -0.04841888 -0.088398404
000390 ed d6 37 bd 54 ae d8 bc f2 f1 8f 3c 94 ed 0e be
       -0.044882704 -0.026450314 0.017571423 -0.13957816
0003a0 2d 37 20 bd e5 9d 45 3d f6 f4 56 bb 8e 40 94 bd
       -0.03911512 0.048246283 -0.0032799817 -0.07238875
0003b0 3e 01 bc 3c 8f 62 7f bd 90 57 99 3d 6c 2b ce bd
       0.022949811 -0.062349852 0.07487404 -0.10066876
0003c0 1a 76 19 3d df f5 32 bd c1 c9 25 bc 1f 63 97 3b
       0.037466146 -0.043691512 -0.010118903 0.0046199705
0003d0 94 88 e8 bc 71 b2 02 be eb f2 2e bd 5d f9 b4 3c
       -0.028385438 -0.12763382 -0.042712133 0.022091562
0003e0 cd 44 66 bb 10 ef 2f be b2 86 8d 3d 32 ba 0f 3d
       -0.0035136223 -0.17181039 0.06910457 0.03508968
0003f0 94 7a fa 3c b4 0a 47 bd 53 c8 8d bc d4 89 df 3c
       0.030576028 -0.04859419 -0.017307436 0.027287401
