SimLoan/res/taiwan/LSTM_clf_effort_modeltaiwan_budget_10_eps_0_5_b_0_2_lt-w_1_st-w_0_1.pth (torch, 834738 bytes, 17 tensors)

init_interventions f4 [1, 2]
0	0xbcb7f070	-0.022453517
1	0x3c622459	0.013802611

clf.model.0.weight f4 [32, 4]
0	0x3e3b70dc	0.18304771
1	0x3e81d389	0.253567
2	0xbebb40c2	-0.36572844
3	0xbdcf4d9b	-0.10122224
4	0xbe20b57b	-0.1569423
5	0xbefb8e4e	-0.49132007
6	0xbeb84d10	-0.35996294
7	0xbf4b97e1	-0.79528624
8	0xbbaa1cb3	-0.0051914095
9	0xbf2ec19e	-0.68264186
10	0xbf674199	-0.9033447
11	0xbf1306a7	-0.57432026
12	0xbe4acdfc	-0.1980514
13	0xbe118552	-0.14211014
14	0x3ef6fcde	0.48239797
15	0xbef73f54	-0.48290503
16	0xbd0740b8	-0.033020705
17	0x3e12d1c5	0.14337833
18	0x3f01e624	0.5074179
19	0x3edbf0e3	0.4295722
20	0x3da2767e	0.07932757
21	0x3f0c02d9	0.54691845
22	0xbed19a54	-0.40938056
23	0x3de8bc86	0.11364083
24	0xbc17e785	-0.009271507
25	0xbf2b93fb	-0.67022675
26	0xbf61d7a5	-0.8821967
27	0xbf128513	-0.57234305
28	0xbed5b33e	-0.41738313
29	0x3f2524f5	0.64509517
30	0x3e4cd698	0.20003736
31	0xbeddb08d	-0.4329876
32	0x3dc1aa6a	0.09456332
33	0xbe16ab78	-0.14713848
34	0x3ec3fe4a	0.38279945
35	0x3ecf26d0	0.404593
36	0x3b768a51	0.0037619064
37	0xbf54fc1a	-0.83197176
38	0xbf8ded72	-1.1088088
39	0xbf3742b2	-0.71586144
40	0x3c6da72f	0.014505192
41	0xbf078c77	-0.5294871
42	0xbf44dce3	-0.76899546
43	0xbf0ef873	-0.55847853
44	0xbc01ac2f	-0.007914587
45	0xbf47cca0	-0.7804661
46	0xbf835f2c	-1.0263419
47	0xbf2a5c10	-0.66546726
48	0x3e60b52c	0.21944112
49	0xbebde25a	-0.37086755
50	0xbef1f7a0	-0.47259235
51	0xbeaa2a0d	-0.33235207
52	0x3ede1056	0.43371838
53	0xbef26492	-0.47342354
54	0xbf1b9145	-0.6076854
55	0xbed0702b	-0.40710577
56	0xbe11a2e4	-0.14222294
57	0x3ec41122	0.3829432
58	0x3dce8509	0.10083968
59	0x3ea30fa5	0.31847873
60	0xbd74c523	-0.059758317
61	0x3f2423b7	0.64116997
62	0xbeece1ef	-0.46266124
63	0x3efed1b9	0.4976938
64	0x3e37c447	0.17945968
65	0x3ece4bda	0.40292245
66	0x3df45051	0.11929382
67	0x3ee0cae0	0.4390478
68	0xbe38af9a	-0.18035737
69	0xbe672e5e	-0.22576281
70	0x3eaeb26f	0.3412051
71	0xbcaaf85a	-0.020870376
72	0xbbfe0035	-0.0077514895
73	0xbf4482ee	-0.7676228
74	0xbf80a1d5	-1.0049387
75	0xbf24f5ed	-0.6443775
76	0xbea200ec	-0.31641328
77	0xbf74be5b	-0.9560296
78	0x3e52dc7b	0.20591919
79	0x3ec15003	0.37756357
80	0xbd1d4746	-0.03839805
81	0xbf3778b8	-0.7166858
82	0xbf375b73	-0.71623915
83	0x3d5d6ea1	0.054060582
84	0xbbbdbbd6	-0.005790214
85	0xbf2457c2	-0.6419641
86	0xbf58a35c	-0.84624267
87	0xbf0a99d9	-0.54141
88	0xbed2b6cc	-0.41155088
89	0x3ef953c2	0.48696715
90	0xbe3c941c	-0.18415874
91	0x3ee4dc39	0.44699267
92	0x3f04bf88	0.51854753
93	0xbf606e32	-0.87668145
94	0x3d78aa57	0.060709324
95	0x3e9545ef	0.29154918
96	0x3e387c22	0.18016103
97	0x3e331652	0.17488983
98	0xbf0aa230	-0.5415373
99	0x3deeb153	0.11654916
100	0xbebbbe70	-0.3666873
101	0x3ee58648	0.4482901
102	0x3ddae56d	0.10688291
103	0x3e2065f9	0.156639
104	0x3e35bc40	0.17747593
105	0x3f32e06c	0.6987369
106	0x3f0af884	0.54285455
107	0xbeb36182	-0.3503533
108	0x3e861a17	0.2619178
109	0x3d980740	0.07423258
110	0x3e8cbe11	0.2748876
111	0x3e19fc4f	0.15037654
112	0x3d90ac2c	0.07064089
113	0x3f3f08c9	0.7462278
114	0xbca18f39	-0.019721614
115	0xbe93f744	-0.28899586
116	0x3e52e464	0.20594937
117	0x3d074b82	0.033030994
118	0xbf4d75d2	-0.80257905
119	0xbef22962	-0.47297198
120	0xbc3a292f	-0.011362358
121	0xbdf8901e	-0.12136863
122	0xbdcf8e1b	-0.10134526
123	0x3ec0f07d	0.37683478
124	0xbf08f645	-0.5350078
125	0x3eb53e63	0.3539916
126	0xbed11462	-0.40835863
127	0x3e676352	0.22596481

clf.model.0.bias f4 [32]
0	0x3ed96f3a	0.42467672
1	0x3e5c6570	0.2152307
2	0x3e571d24	0.2100721
3	0x3e8a0464	0.26956475
4	0xb7e8cc07	-2.7751563e-05
5	0xbe1def77	-0.1542338
6	0x3e4a404a	0.19751087
7	0x3e51b462	0.20478967
8	0xbbbaa9f3	-0.005696529
9	0x3e837ffe	0.25683588
10	0x3e38b375	0.18037207
11	0x3e6e5f91	0.23278643
12	0xbdd78294	-0.10522953
13	0xbe9196ba	-0.28435308
14	0xbc01571d	-0.007894305
15	0xbec63e31	-0.38719323
16	0xbe86dab8	-0.26338744
17	0x3e238443	0.15968423
18	0x3e6be16b	0.23035209
19	0x3cc6fa99	0.024289416
20	0x3e4aaf79	0.197935
21	0x3e49ce2c	0.19707555
22	0x3ebd8a3b	0.37019524
23	0xbe995ac4	-0.2995206
24	0x3eb44942	0.3521214
25	0x3e6f1812	0.23349026
26	0xbe006cd2	-0.12541512
27	0xbe86c0ac	-0.26318872
28	0x3e27a1f0	0.16370368
29	0xbd241786	-0.040061496
30	0xbee85f43	-0.4538518
31	0x3e1954d0	0.1497376

clf.model.3.weight f4 [64, 32]
0	0x3d182aab	0.037150066
1	0x3e501068	0.20318758
2	0x3f63f283	0.8904192
3	0x3d14815c	0.03625618
4	0xbe205c6d	-0.15660258
5	0xbea9c2b5	-0.33156362
6	0x3fb57d04	1.4178777
7	0x3e8135dd	0.25236407
8	0xbd5858cc	-0.05281906
9	0x3f20ada9	0.62764984
10	0x3f2dbff7	0.6787104
11	0x3f90dc62	1.1317255
12	0x3f0c6e78	0.5485606
13	0x3f362abc	0.7115896
14	0xbe529be7	-0.20567285
15	0xbe2a8690	-0.16652894
16	0xbee276e4	-0.4423133
17	0x3b0877e4	0.0020823414
18	0x3f6059e1	0.87637144
19	0xbed08fce	-0.40734714
20	0x3e9190be	0.28430742
21	0x3f793d97	0.97359604
22	0x3cbfe861	0.023426237
23	0x3e26ecaf	0.16301225
24	0x3d667c6e	0.05627101
25	0x3d7c09de	0.061532848
26	0x3d11c38f	0.03558689
27	0xbea3f1cf	-0.32020423
28	0x3d6d104b	0.057876866
29	0x3e3beec3	0.18352799
30	0x3e1c71b8	0.15277755
31	0x3e169a9c	0.14707416
32	0x3e18f012	0.1493533
33	0x3c3f1f1e	0.011665134
34	0xbf6044c1	-0.8760491
35	0xbd4b54ff	-0.049641605
36	0x3cc9fe10	0.02465728
37	0xbebb4b3b	-0.36580834
38	0xbfaf357a	-1.3688195
39	0xbe17889d	-0.14798208
40	0xbe686bc6	-0.22697362
41	0xbebc6436	-0.36795205
42	0xbf073dc3	-0.52828616
43	0xbf9868a1	-1.190693
44	0xbeb147ff	-0.3462524
45	0xbefec83f	-0.4976215
46	0x3e07d0f2	0.132633
47	0xbf1a9ec6	-0.6039852
48	0xbd5b6d46	-0.05357101
49	0xbe465eb2	-0.19372061
50	0xbf621361	-0.8831082
51	0xbe985d94	-0.29758894
52	0x3d4d0b51	0.05005962
53	0xbf406070	-0.7514715
54	0x3e2a705b	0.16644423
55	0x3aa35760	0.0012461953
56	0x3e391f5b	0.18078367
57	0xbb73f442	-0.0037224446
58	0x3e00a021	0.12561084
59	0x3c726b3a	0.014796073
60	0x3d42a81b	0.0475236
61	0x3d0acb85	0.033885498
62	0x3e955c0c	0.2917179
63	0x3da15680	0.07877827
64	0x3b320b26	0.002716729
65	0xbda3e86a	-0.08003314
66	0xbee61e8e	-0.44945186
67	0xbdb9e39f	-0.090766184
68	0x3d39c2c8	0.045351774
69	0xbe6330c9	-0.22186579
70	0xbf6fa5d6	-0.9361242
71	0x3c982e6a	0.01857682
72	0x3daf89f7	0.085712366
73	0xbe850af1	-0.2598491
74	0xbe7878c2	-0.24264815
75	0xbf1f4012	-0.6220714
76	0xbedf4bd4	-0.4361254
77	0xbde8c8ac	-0.113664
78	0x3e086cfd	0.13322826
79	0x3d4d57e7	0.05013266
80	0x3da4a727	0.08039694
81	0x3d79638a	0.060885943
82	0xbe93ba8b	-0.28853258
83	0xbe9208a3	-0.28522214
84	0x3dcd46ef	0.10023295
85	0xbeb29442	-0.34878737
86	0x3d51de71	0.051237527
87	0x3e691649	0.22762407
88	0x3e1a04fc	0.15040964
89	0x3d13c2fc	0.036074623
90	0x3d19044a	0.037357606
91	0x3d99d8ec	0.07512078
92	0x3e78822e	0.2426841
93	0x3d00d63c	0.03145431
94	0x3f0d0167	0.55080265
95	0x3d458ad9	0.04822812
96	0x3c9e81c2	0.019348983
97	0x3d54ab21	0.051921014
98	0x3f089535	0.5335267
99	0x3cfdf2d5	0.03099958
100	0xbd53aa6d	-0.051676203
101	0xbe2c3f91	-0.16821124
102	0x3f987da4	1.1913342
103	0x3e30cba7	0.17265187
104	0xbe088a72	-0.13334063
105	0x3e78c406	0.24293527
106	0x3e8f178b	0.2794765
107	0x3f3c5d5e	0.7357997
108	0x3f0903f0	0.53521633
109	0x3f074af1	0.52848727
110	0x3d0bed30	0.034161747
111	0xbe30ca32	-0.17264631
112	0xbe022659	-0.12709941
113	0xba70edf2	-0.000919073
114	0x3f185d1b	0.5951707
115	0xbd74b278	-0.059740514
116	0x3e5eaa0b	0.21744554
117	0x3f2190e6	0.6311172
118	0x3cee0675	0.029055813
119	0x3d96eee2	0.07369782
120	0x3891343a	6.923867e-05
121	0x3cab5a25	0.020917008
122	0x3decd4b8	0.115640104
123	0xbd002ca7	-0.031292584
124	0x3deac919	0.114641376
125	0x3e8867bd	0.26641646
126	0x3c9cef67	0.019157125
127	0x3dbedc9f	0.09319424
128	0x3e10ff4a	0.14159885
129	0x3e70a8f2	0.23501948
130	0x3f625890	0.88416386
131	0xbdda94eb	-0.10672935
132	0xbe9b617a	-0.30347806
133	0xbeb41b09	-0.35176876
134	0x3faf4e36	1.3695743
135	0x3d3f72c4	0.04674031
136	0xbe31e0c0	-0.17370892
137	0x3ed226e8	0.41045308
138	0x3f299b8d	0.66252977
139	0x3f78f08d	0.9724205
140	0x3f29313c	0.6609075
141	0x3eed7eb2	0.46385723
142	0xbe951115	-0.29114595
143	0xbddaa015	-0.106750645
144	0xbeeb1fc9	-0.45922688
145	0xbe4a3c3b	-0.19749539
146	0x3f2d43ff	0.6768188
147	0xbf3facf4	-0.7487328
148	0x3e2de367	0.16981278
149	0x3f672969	0.9029756
150	0xbd016341	-0.031588797
151	0x3e956ea0	0.29185963
152	0x3e22064a	0.15822712
153	0xbdfd425e	-0.12366174
154	0xbd5ade52	-0.053434677
155	0xbd0b0701	-0.033942226
156	0x3cee2675	0.029071072
157	0x3e36143a	0.17781153
158	0x3dc3f4b1	0.095681556
159	0x3e93820c	0.28810155
160	0x3e13a613	0.14418821
161	0x3d1d4e23	0.038404595
162	0xbf15b685	-0.5848163
163	0x3d15eddd	0.036603797
164	0xbda4dcd3	-0.080499314
165	0xbd190747	-0.037360456
166	0xbf9012dd	-1.1255757
167	0x3e44322f	0.19159769
168	0x3e39abd8	0.1813196
169	0xbef36f08	-0.47545648
170	0xbf01b97f	-0.5067367
171	0xbef79ae6	-0.48360366
172	0xbef4fb62	-0.4784804
173	0xbead0130	-0.33789968
174	0x3dc337af	0.09532105
175	0xbd532a2a	-0.051553883
176	0x3d34f4aa	0.044178642
177	0xbe23df9d	-0.1600327
178	0xbf195638	-0.59897184
179	0xbd2893d5	-0.04115661
180	0xbdbec572	-0.093150035
181	0xbf1bdb70	-0.6088171
182	0x3e5bc2a6	0.21460971
183	0x3dbf6cca	0.09346922
184	0x3dc9c4d5	0.09851996
185	0x3d61fe3e	0.055174105
186	0x3da7af38	0.08187717
187	0xbdc67426	-0.09690122
188	0x3e2bb1a7	0.16766988
189	0x3d43f4cb	0.047840875
190	0x3eb2088d	0.3477215
191	0x3ded5c50	0.11589873
192	0x3e226f68	0.1586281
193	0xbc9e3c83	-0.019315964
194	0xbf108866	-0.5645813
195	0xbde95c0e	-0.11394511
196	0x3da9ee32	0.08297385
197	0xbd5c3ebf	-0.053770777
198	0xbfa2e5a9	-1.2726337
199	0x3cda2d74	0.026633002
200	0xbcec2908	-0.028828159
201	0xbea72220	-0.32643223
202	0xbf173b72	-0.5907508
203	0xbf40c1da	-0.75295794
204	0xbe76b2a3	-0.24091582
205	0xbe9066b8	-0.28203368
206	0x3e05b642	0.13057807
207	0xbd5011e4	-0.05079831
208	0xbd20bf8a	-0.039245166
209	0x3d2f0767	0.04273167
210	0xbed282d4	-0.4111544
211	0xbf12af08	-0.57298326
212	0xbe66bdca	-0.22533336
213	0xbef3dbc0	-0.47628593
214	0x3acdf6d2	0.0015713817
215	0xbea780a7	-0.3271534
216	0x3d36fc1d	0.044674028
217	0x3e0e089b	0.1387047
218	0xbe0d89b8	-0.13822067
219	0x3d6094bb	0.05482934
220	0x3e48fac4	0.1962691
221	0x3cfb6938	0.03068982
222	0x3e7a24db	0.24428122
223	0x3e9c6775	0.3054768
224	0x3df556c8	0.11979443
225	0x3e593127	0.21210156
226	0x3e7420b8	0.23840606
227	0x3df3eda0	0.11910558
228	0xbe781e52	-0.24230316
229	0xbef3c31d	-0.47609797
230	0x3f8b8171	1.0898877
231	0x3ea530d0	0.32263803
232	0xbea44f1a	-0.320916
233	0x3ecd9eb0	0.4016013
234	0x3e350d50	0.1768086
235	0x3ee857e4	0.45379555
236	0x3ed5978a	0.41717178
237	0x3e8657d6	0.26238889
238	0xbe5a146c	-0.21296853
239	0xbe855cb7	-0.26047298
240	0xbe997ff4	-0.29980433
241	0xbdb80eaf	-0.08987176
242	0x3e7a6c09	0.24455275
243	0xbe8aebed	-0.27133122
244	0x3ea68446	0.32522792
245	0x3edcd770	0.43133116
246	0xbc845789	-0.016155021
247	0xbd7f13ac	-0.06227462
248	0x3d79c5a4	0.0609795
249	0x3ddcafa1	0.10775686
250	0x3e00a936	0.12564549
251	0xbdceb32d	-0.10092769
252	0x3e156aa5	0.14591463
253	0x3e1d9c3c	0.1539163
254	0x3a62a660	0.00086460076
255	0x3df82a7b	0.121174775

clf.model.3.bias f4 [64]
0	0xbe1afec8	-0.15136254
1	0x3e8097aa	0.2511571
2	0x3e400f88	0.18755925
3	0xbdeb9b3b	-0.11504217
4	0x3ce9f4d9	0.028559135
5	0x3e28d451	0.16487242
6	0x3e296f51	0.1654637
7	0xbe1b8dc3	-0.15190797
8	0xbd01763b	-0.031606894
9	0xbd029055	-0.031875927
10	0x3c560355	0.013062318
11	0x3e3ac731	0.18240048
12	0xbdc0a23e	-0.09405945
13	0x3dae02ee	0.084966525
14	0x3e09a562	0.13441995
15	0xbe3f700b	-0.18695085
16	0x3ea62257	0.32448074
17	0x3e0d9092	0.1382468
18	0xbd2cc784	-0.04218246
19	0x3e91a186	0.28443545
20	0x3e4c806b	0.19970863
21	0xbe41290b	-0.18863313
22	0xbe386d74	-0.18010503
23	0x3c8af211	0.01696113
24	0x3e7acfbf	0.24493311
25	0xbcbaf0ce	-0.022819903
26	0x3e8fb135	0.28064886
27	0xbd52066e	-0.051275663
28	0x3ebd0413	0.3691717
29	0x3e2c589e	0.1683068
30	0x3e108407	0.14112864
31	0xbd9aedc3	-0.07564881
32	0xbea62086	-0.32446688
33	0x3d37c9c0	0.04487014
34	0x3dfe007d	0.12402437
35	0x3e97f8a1	0.29681876
36	0xbdf2d595	-0.11857144
37	0x3de58d6d	0.112086155
38	0x3e7e2723	0.24819617
39	0x3e64e520	0.22353029
40	0x3e899761	0.26873305
41	0x3e593fdf	0.21215771
42	0x3ce0b144	0.027428277
43	0x3e245bc2	0.16050628
44	0x3eaa13b2	0.3321815
45	0x3e48071a	0.19533959
46	0x3b42891a	0.002968377
47	0xbe18993b	-0.14902203
48	0x3e9e2ba3	0.30892667
49	0x3e623410	0.22090173
50	0x3dcee283	0.101017974
51	0xbe318d9f	-0.1733918
52	0x3e24a4fe	0.16078565
53	0x3e06a5aa	0.13149133
54	0x3ebbd3a3	0.36684904
55	0x3ce6a0b7	0.028152807
56	0x3e34c093	0.17651586
57	0x3e291577	0.16512094
58	0xbd425aff	-0.047450062
59	0x3dac9c9a	0.08428307
60	0x3e0a49c6	0.13504705
61	0x3e56bb85	0.2096997
62	0x3e5d9caf	0.21641801
63	0xbe3a362b	-0.18184726

clf.model.6.weight f4 [1, 64]
0	0xbf4cbecd	-0.7997864
1	0x3e315e88	0.17321217
2	0x3e6534c1	0.22383405
3	0xbea4f4c8	-0.32218003
4	0xbeec4838	-0.4614885
5	0x3e2c538a	0.16828743
6	0x3eb63479	0.35586908
7	0xbec56544	-0.38553822
8	0x3e5e93a1	0.21736003
9	0xbf0e5524	-0.55598664
10	0x3e817dc1	0.25291255
11	0x3e763a31	0.24045636
12	0xbf16b32b	-0.5886714
13	0x3e446963	0.19180827
14	0x3e9d379e	0.30706495
15	0x3c7c7c0c	0.015410434
16	0x3e3e9b64	0.18613964
17	0x3e7dfe9b	0.24804156
18	0xbebe247b	-0.37137207
19	0x3e5378d5	0.20651563
20	0x3f173668	0.5906739
21	0xbf24e398	-0.6440978
22	0xbeebc92f	-0.46051928
23	0x3ed6771f	0.41887757
24	0x3f1cc7b8	0.61242247
25	0xbf26c499	-0.65143734
26	0x3e3aa006	0.18225107
27	0xbf48d24f	-0.78445905
28	0x3e8d8ca8	0.27646375
29	0x3e1e2576	0.15443978
30	0x3ecab85e	0.39593786
31	0xbf456ed5	-0.7712224
32	0xbf5091f9	-0.81472737
33	0xbe7e3daa	-0.2482821
34	0x3e6e076f	0.23245023
35	0x3e233e0c	0.15941638
36	0xbe85cd1b	-0.26133046
37	0xbe5ed887	-0.21762286
38	0x3e7b7bbd	0.24558921
39	0x3e5f5961	0.21811439
40	0x3e7f3c58	0.24925363
41	0x3f2e50bd	0.68091947
42	0xbede974d	-0.43474808
43	0x3eb3e3ca	0.35134727
44	0x3e16399b	0.14670412
45	0x3e858a74	0.26082194
46	0xbd4bab29	-0.049723778
47	0xbf855626	-1.0416915
48	0x3ee7b867	0.45257875
49	0x3e9a541f	0.30142304
50	0x3ea7dffc	0.32788074
51	0xbf7506bf	-0.9571342
52	0x3e10675a	0.14101925
53	0x3ee16aed	0.4402689
54	0x3e994f76	0.29943436
55	0xbf171f3e	-0.59032047
56	0x3f1dd0e0	0.6164684
57	0x3e23d28e	0.15998289
58	0xbed69d92	-0.41917092
59	0x3e972381	0.29519275
60	0x3f531baf	0.82464117
61	0x3e220d73	0.15825443
62	0x3f312f3a	0.69212687
63	0xbfa9e767	-1.3273743

lstm.weight_ih_l0 f4 [512, 11]
0	0xbdaa1317	-0.08304422
1	0x3bfdd6e8	0.007746566
2	0x3d239c20	0.039943814
3	0xbdd358a1	-0.10319639
4	0x3dedd27c	0.11612412
5	0xbd9bfd9f	-0.07616734
6	0x3b223c16	0.0024755052
7	0x3cc72874	0.024311282
8	0x3bc8b753	0.0061253696
9	0xbc9d32c5	-0.019189248
10	0x3dac5fd2	0.08416714
11	0xbc4de491	-0.0125667015
12	0x39513663	0.00019952054
13	0xbd8dc663	-0.06922605
14	0xbd3939a1	-0.045220975
15	0x3d858004	0.06518558
16	0xbd58ff38	-0.05297777
17	0xbdf3e855	-0.11909548
18	0xbe38704e	-0.18011591
19	0x3c30f324	0.010800157
20	0x3dad6048	0.0846563
21	0x3ce33975	0.027737359
22	0xbd76ee42	-0.060285814
23	0xbc8048ff	-0.015659807
24	0x3df00780	0.117201805
25	0x3de6cf69	0.11270029
26	0xbd6ddc3b	-0.058071356
27	0x3e0a7100	0.13519669
28	0x3dbcbb50	0.092154145
29	0xbb99d47f	-0.004694521
30	0xbc7d5f62	-0.015464636
31	0xbde48ff4	-0.111602694
32	0xbd90357d	-0.07041452
33	0xbd9ff0c0	-0.07809591
34	0x3cd71bab	0.02625831
35	0x3b4bd07a	0.0031099604
36	0x3e1a6a63	0.15079646
37	0x3e43810f	0.190922
38	0xbde5afd6	-0.11215179
39	0xbd7d1894	-0.061791018
40	0xbb90c2a6	-0.004417735
41	0xbdd8f481	-0.105935104
42	0x3d8e5ecd	0.069516756
43	0x3ddb3931	0.10704268
44	0xbe0b569a	-0.13607255
45	0x3e1e65f6	0.15468583
46	0x3d13b121	0.036057595
47	0x3d4a866c	0.0494446
48	0xbd958352	-0.07300438
49	0x3d83291e	0.06404327
50	0x3e16bb1a	0.14719811
51	0x3d293307	0.04130843
52	0xbd29c9f7	-0.041452374
53	0xbdd35c3e	-0.10320328
54	0xbceaf519	-0.028681325
55	0x3d7dfd76	0.062009297
56	0x3dcc1709	0.09965331
57	0x3dbc6bce	0.092002496
58	0x3d458ca4	0.04822983
59	0xbd93ea3c	-0.07222411
60	0x3e0882a2	0.13331082
61	0x3da435e4	0.08018091
62	0x3d4311b9	0.047624324
63	0xbe399c20	-0.18125963
64	0xbd9549a7	-0.07289439
65	0xbe24c6f6	-0.16091523
66	0x3cf7a757	0.030231161
67	0xbdbd13c7	-0.09232288
68	0xbda15b13	-0.07878699
69	0xbdfd48c9	-0.12367398
70	0x3e1e210f	0.15442298
71	0xbd029e35	-0.03188916
72	0xbcf90953	-0.030399954
73	0xbdcb9ab1	-0.099416144
74	0xbbb4554a	-0.0055033313
75	0x3dbfef36	0.09371798
76	0xbda33e49	-0.07970864
77	0x3e4cb2b2	0.19990042
78	0x3e034ea6	0.12822971
79	0x3d53b6cd	0.051688004
80	0x3d842c31	0.06453741
81	0xbd728f0d	-0.059218455
82	0x3dbcaa8b	0.09212216
83	0xbd940a9e	-0.072285876
84	0xbd456e0a	-0.048200645
85	0xbddff25a	-0.10934897
86	0xbdb10ac7	-0.08644634
87	0x3b0619b2	0.0020462093
88	0xbd94b53a	-0.07261129
89	0xbc84dd89	-0.016218917
90	0xbd4ccd1b	-0.05000029
91	0xbd988d21	-0.07448793
92	0x3dd28394	0.10279003
93	0xbd54fb2f	-0.05199736
94	0xbe099169	-0.13434376
95	0x3e030c29	0.12797607
96	0x3e1b3611	0.15157343
97	0x3dd0554d	0.1017252
98	0x3d174f19	0.036940668
99	0xbe1af435	-0.1513222
100	0x3e18e025	0.14929254
101	0x3dfa530f	0.122228734
102	0x3dbe8c70	0.0930413
103	0xbd07413e	-0.033021204
104	0x3a668a20	0.0008794386
105	0x3d16e916	0.03684338
106	0x3d288a9c	0.041147813
107	0xbcf05a1f	-0.029339848
108	0xbdca817f	-0.09887981
109	0xbd286d9e	-0.041120164
110	0xbe731986	-0.23740205
111	0x3d66fcc4	0.0563934
112	0xbc698394	-0.014252562
113	0xbd9f79cc	-0.07786903
114	0xbc518926	-0.012789046
115	0xbbfa86b8	-0.0076454543
116	0x3ce0a4e8	0.027422383
117	0xbe354304	-0.17701346
118	0xbe1f172a	-0.1553618
119	0x3d13fc13	0.03612907
120	0x3a2bb45c	0.0006550008
121	0xbcda3554	-0.026636757
122	0x3ca00955	0.0195357
123	0x3dd414e8	0.1035555
124	0xb697df43	-4.5261418e-06
125	0xbd31665c	-0.043310508
126	0x3c9bafae	0.019004669
127	0x3e383679	0.1798953
128	0x3d82fb78	0.0639562
129	0xbe001d46	-0.12511167
130	0xbe20009c	-0.15625232
131	0xbcdb01dd	-0.026734287
132	0xba9dfa1a	-0.0012052685
133	0x3d823b44	0.0635896
134	0x3e07b7e3	0.13253741
135	0x3dfdb5b7	0.12388175
136	0xbe13f97d	-0.14450641
137	0x3e18121b	0.14850657
138	0x3d5a9962	0.053368933
139	0x3e0c393a	0.13693705
140	0xbd997385	-0.07492737
141	0xbe04cd57	-0.12968956
142	0xbd8b62a9	-0.06805927
143	0x3d536b0c	0.05161576
144	0x3d7d3eb3	0.061827373
145	0x3d912076	0.070862696
146	0x3dc6e9ce	0.097125635
147	0xbe4efb58	-0.20213068
148	0xbd0b79fa	-0.034051873
149	0xbaf4d169	-0.0018678132
150	0x3c5859fe	0.01320505
151	0xbd77f400	-0.06053543
152	0xbe340f92	-0.17584065
153	0xbcba80e0	-0.02276653
154	0xbc89aa76	-0.016804915
155	0x3ddea8bd	0.10872028
156	0x3d5dd117	0.05415448
157	0xbc3f491f	-0.011675148
158	0xbc8a5049	-0.016883986
159	0x3e131d8e	0.14366743
160	0x3e335a3f	0.17514895
161	0x3daa4654	0.08314195
162	0xbe584bbb	-0.21122639
163	0xbd4d86cd	-0.050177384
164	0xbe464338	-0.1936158
165	0xbe1bb1e1	-0.15204574
166	0x3de18969	0.11012537
167	0x3daeb402	0.085304275
168	0x3df93d88	0.12169939
169	0xbd8eba4e	-0.069691285
170	0x3d3e7754	0.04650052
171	0xbc2869d0	-0.010279134
172	0x3e0aa541	0.13539602
173	0xbe303c03	-0.17210393
174	0xbde58413	-0.11206832
175	0x3d05a5b6	0.032628737
176	0x3e158058	0.1459974
177	0x3e4af471	0.1981981
178	0x3d364f9a	0.044509508
179	0x3dca36c8	0.0987373
180	0xbdeb8d3a	-0.11501546
181	0x3d00e3c0	0.0314672
182	0x3de60b30	0.112326026
183	0x3e0bec87	0.13664447
184	0xbdf64337	-0.12024539
185	0xbe0e59af	-0.13901399
186	0xbd9e8531	-0.07740248
187	0xbe23d0e1	-0.1599765
188	0x3e256823	0.16153006
189	0x3e691b7e	0.22764394
190	0x3d4acc86	0.049511455
191	0xbe324ec7	-0.17412864
192	0x3cf7575c	0.030193023
193	0x3d7b22c4	0.061312452
194	0x3c6eb38b	0.014569174
195	0xbd654d28	-0.055981785
196	0xbe439c03	-0.19102482
197	0xbe146b43	-0.14494042
198	0xbe068d38	-0.13139808
199	0x3d648664	0.055792227
200	0x3dc26c8e	0.094933614
201	0x3d99c6f8	0.075086534
202	0xbddc1c47	-0.10747581
203	0x3d5c169a	0.053732492
204	0x3dca3e65	0.09875182
205	0x3db96862	0.090531126
206	0xbd2ee7ea	-0.04270164
207	0xbd19ae4c	-0.037519738
208	0xbdba8768	-0.09107858
209	0x3dc80b39	0.097677656
210	0xbc9488a7	-0.018131567
211	0x3d4c181b	0.049827676
212	0xbe12a774	-0.14321691
213	0xbddbe6f0	-0.10737407
214	0x3e394aee	0.1809499
215	0x3c03fd13	0.008055943
216	0xbe3e9eee	-0.18615314
217	0xbe2adf3f	-0.16686724
218	0xbddbab96	-0.10726087
219	0xbe29fc59	-0.16600169
220	0x3e19cd5c	0.15019745
221	0xbcf7f4dc	-0.030268125
222	0xbd40d564	-0.047078505
223	0xbd538f34	-0.05165024
224	0xbe24fb5d	-0.16111512
225	0xbd70a43b	-0.058750372
226	0xbd1d4294	-0.038393572
227	0xbe31cb77	-0.17362772
228	0x3d936f17	0.07198923
229	0xbda753e6	-0.08170299
230	0xbd67950a	-0.05653862
231	0x3e057106	0.13031396
232	0xbe2e2f2d	-0.17010184
233	0xbe420af3	-0.1894949
234	0xbd8b8839	-0.06813092
235	0xbdebac96	-0.115075275
236	0x3d35bcc2	0.044369467
237	0xbda6e063	-0.08148267
238	0xbe00a860	-0.1256423
239	0xbd393759	-0.0452188
240	0xbd9dcaf6	-0.07704727
241	0xbde631ef	-0.11239993
242	0xbe3ca5e1	-0.18422653
243	0x3e0bc4ff	0.13649367
244	0x3dc00e81	0.093777664
245	0x3e07cc69	0.1326157
246	0xbd6aa9ce	-0.057290845
247	0x3e16e99d	0.14737554
248	0x3e30a589	0.17250647
249	0x3dcd5de7	0.10027676
250	0xbdfa0114	-0.12207237
251	0xbd91ef1c	-0.071256846
252	0xbc991c5f	-0.018690286
253	0xbe4cb000	-0.19989014
254	0x3dbb2d8d	0.091395475
255	0x3c636ce0	0.013880938

lstm.weight_hh_l0 f4 [512, 128]
0	0x3d498525	0.049199242
1	0x3e33c659	0.17556132
2	0x3ad43adb	0.0016191857
3	0xbd2e8dca	-0.04261569
4	0xbb7ebd32	-0.0038870093
5	0xbe12568a	-0.14290825
6	0x3d3f6ea9	0.046736393
7	0xbe4ae546	-0.19814023
8	0xbd117148	-0.035508424
9	0xbe184702	-0.14870837
10	0x3dafa28b	0.085759245
11	0xbda8b8cd	-0.08238373
12	0xbe14c248	-0.14527237
13	0x3d29ced7	0.041457023
14	0x3daefd88	0.08544451
15	0x3a1ed4af	0.0006058914
16	0x3cec9756	0.028880756
17	0xbdaf9841	-0.08573962
18	0x3e166843	0.1468821
19	0x3e1bf1fc	0.15229028
20	0xbdec6568	-0.11542779
21	0xbc5f1b48	-0.013617344
22	0x3d627c05	0.055294055
23	0xbd912110	-0.07086384
24	0xbe132cd7	-0.14372574
25	0xbcd9d74c	-0.02659192
26	0x3e368f95	0.1782821
27	0x3d2513de	0.04030215
28	0xbda0798a	-0.07835682
29	0x3ca2e8e1	0.019886436
30	0xbe4e69c0	-0.20157528
31	0xbd852ce4	-0.06502703
32	0xbe5a52bb	-0.21320622
33	0x3e222efe	0.15838239
34	0x3d6e0089	0.05810598
35	0xbd8d7572	-0.069071665
36	0x3daef5a1	0.08542944
37	0xbdf21823	-0.1182101
38	0xbe8149db	-0.2525166
39	0x3d80583a	0.06266828
40	0x3c705d93	0.014670747
41	0x3e18f8af	0.14938615
42	0x3d42e910	0.047585547
43	0x3dbbe6fa	0.09174915
44	0xbb7a6e43	-0.0038212694
45	0x3dbcb0b0	0.09213388
46	0x3c4d7efc	0.012542482
47	0x3ceea241	0.029130103
48	0xbdbdd60d	-0.092693426
49	0xbdc4165c	-0.09574577
50	0xbd514100	-0.05108738
51	0x3d22c044	0.03973414
52	0xbdc5946d	-0.096474506
53	0x3d1adca3	0.03780807
54	0xbd386342	-0.045016535
55	0x3dabf558	0.08396405
56	0xbd8121be	-0.06305264
57	0xbe0cc71c	-0.13747829
58	0xbd980066	-0.07421951
59	0x3a347411	0.00068837503
60	0x3d89d1f2	0.06729497
61	0xbd9ce146	-0.07660155
62	0x3dbd593b	0.09245535
63	0x3c009249	0.007847377
64	0xbe1dd36f	-0.15412687
65	0x3dd1837c	0.10230157
66	0xbe10ae0f	-0.14128898
67	0x3b867443	0.004103215
68	0xbd8c068a	-0.06837185
69	0x3e09cf4b	0.13457982
70	0xbe426668	-0.18984377
71	0x3bcd8d3c	0.00627294
72	0x3d4a4497	0.04938182
73	0xbe2d231e	-0.16907927
74	0xbdb42374	-0.08795825
75	0xbd6134f8	-0.054982156
76	0x3e3cfeeb	0.18456618
77	0x3c315220	0.010822803
78	0x3df3dee0	0.119077444
79	0x3e86b13f	0.26307103
80	0x3d001b7c	0.03127621
81	0x3e01ff99	0.12695159
82	0x3db1cfdd	0.08682225
83	0x3db4f2e0	0.08835387
84	0x3d93cd5c	0.072169036
85	0xba6d2b95	-0.0009047327
86	0x3e397614	0.1811145
87	0xbe29b079	-0.16571225
88	0x3dd32f2a	0.1031173
89	0x3ba2cc07	0.0049681696
90	0x3dff0224	0.1245158
91	0x3df6fd5c	0.12060043
92	0xbdfc6b79	-0.12325186
93	0x3dc5cf09	0.096586294
94	0xbdc69d0a	-0.096979216
95	0x3d98f82c	0.0746921
96	0xbc3decf6	-0.01159214
97	0xbcf70472	-0.030153487
98	0x3e192153	0.14954118
99	0x3dc70b1d	0.097189166
100	0xbd710c7b	-0.058849793
101	0xbd3754c9	-0.04475859
102	0xbd1f2807	-0.038856532
103	0x3d33b24d	0.043871213
104	0x3e31c304	0.17359549
105	0xbdaecb34	-0.08534852
106	0xbc0ee15c	-0.008720722
107	0xbe45a0ef	-0.19299673
108	0xbd42f122	-0.047593243
109	0x3dbab146	0.091158435
110	0xbcc76d04	-0.024343975
111	0x3e27a32f	0.16370843
112	0x3d196973	0.03745408
113	0x3e0b4fab	0.1360461
114	0x3ddda965	0.10823325
115	0xbd617ab7	-0.05504867
116	0x3d89a365	0.06720618
117	0xbde8bfec	-0.11364731
118	0xbd71527a	-0.058916546
119	0x3d34a7f8	0.0441055
120	0x3df10250	0.11768019
121	0xbe090a86	-0.1338292
122	0x3dc6dbb7	0.09709876
123	0xbd6cfa96	-0.057856165
124	0x3c5c7fc6	0.013458198
125	0xbe5966f3	-0.21230678
126	0xbdd1b17e	-0.10238932
127	0xbca382a5	-0.019959757
128	0xbd14934d	-0.03627329
129	0xbd271ffa	-0.04080198
130	0x3ba8a2e8	0.005146373
131	0x3d0efa98	0.034906954
132	0x3e5ed645	0.21761425
133	0xbd626b05	-0.055277843
134	0x3d99d9fa	0.07512279
135	0x3cee133c	0.029061906
136	0x3cf79de9	0.030226665
137	0xbda7c77f	-0.08192348
138	0xbcae9174	-0.021309592
139	0xbdf13973	-0.11778536
140	0x3caa9055	0.020820776
141	0x3dae31b2	0.085055724
142	0x3dc973e3	0.09836557
143	0x3ad0cdd2	0.001593048
144	0x3dd7ecca	0.10543211
145	0xbdb1d361	-0.086828955
146	0x3e6bba07	0.23020183
147	0x3e0793e0	0.13240004
148	0xbda149a2	-0.078753725
149	0xbba16d2b	-0.004926344
150	0x3e47bba5	0.19505174
151	0x3dbbeeaf	0.09176385
152	0xbe0f6b6b	-0.1400582
153	0xbcf504bb	-0.029909482
154	0x3dbde77b	0.09272667
155	0xbbe99604	-0.007128479
156	0x3d21b899	0.039482687
157	0x3cd247f6	0.02566908
158	0x3c991be7	0.018690063
159	0xbd26c423	-0.040714394
160	0xbc62a01e	-0.01383212
161	0x3da8598d	0.082202055
162	0xbd112d5f	-0.03544366
163	0x3d4b125b	0.049578052
164	0xbccea9a9	-0.025227385
165	0xbd0b2544	-0.033971086
166	0xbe055d0e	-0.13023779
167	0xbd7d6317	-0.061862078
168	0xbe5cfda1	-0.21581127
169	0x3dfe6a1f	0.12422585
170	0x3bdf4cfa	0.0068145962
171	0xbc084a44	-0.008318488
172	0xbdb27889	-0.087143965
173	0xbd50609a	-0.050873376
174	0xbd6f3a92	-0.058405466
175	0xbd47b87c	-0.048759922
176	0xbd05a3d8	-0.032626957
177	0xbe1e5b9d	-0.15464635
178	0xbe057da5	-0.13036211
179	0xbd5c728b	-0.053820174
180	0xbdd0a14c	-0.10187015
181	0xbc9d0f78	-0.019172415
182	0x3e327cbd	0.17430396
183	0x3d09655c	0.03354393
184	0xbe1bc1ee	-0.15210697
185	0xbe02bd6d	-0.12767573
186	0xbc80c4a0	-0.015718758
187	0xbd54a4f4	-0.051915124
188	0x3e269810	0.16268945
189	0xbcde97ca	-0.027171988
190	0x3db97bbd	0.09056804
191	0xbda6348a	-0.0811549
192	0xbd68f207	-0.05687144
193	0x3dc60bbe	0.096702084
194	0x3d17e60d	0.037084628
195	0xbbf968d7	-0.007611375
196	0x3d460585	0.048345108
197	0xbe02fb93	-0.1279128
198	0xbe0958ca	-0.13412777
199	0xbc6938b8	-0.014234714
200	0x3c98851b	0.018618157
201	0xbe63a69a	-0.22231522
202	0xbe0e8ec7	-0.13921653
203	0xbcc32bfc	-0.023824684
204	0x3c5c521c	0.013447311
205	0xbe33df66	-0.17565688
206	0x3bb2cc89	0.0054565114
207	0x3db7d589	0.089762755
208	0xbd200a32	-0.039072223
209	0x3c6b41ba	0.014358932
210	0x3c635c81	0.013877035
211	0x3d1aed5d	0.037824024
212	0x3e0fea1a	0.14054146
213	0xbcbd2fb0	-0.023094028
214	0xbb92720d	-0.0044691623
215	0xbcee3723	-0.029079026
216	0x3c00fdef	0.0078730425
217	0x3c8fda82	0.017560247
218	0x3e364c28	0.17802489
219	0x3e18e006	0.14929208
220	0xbd885da3	-0.06658485
221	0x3e03b44a	0.12861744
222	0xbd8de382	-0.06928159
223	0x3e1b1271	0.15143754
224	0x3e3e7e09	0.18602766
225	0xbd76b993	-0.06023557
226	0xbdaf004b	-0.08544978
227	0x3e43da34	0.19126207
228	0xbd9e894a	-0.077410296
229	0x3c8a7d27	0.01690538
230	0x3867928d	5.5211178e-05
231	0x3dea5eb4	0.114438444
232	0x3d8619a3	0.065478586
233	0xbdc0829a	-0.0939991
234	0xbdd1d9cd	-0.1024662
235	0xbca2576a	-0.019817073
236	0xbdae359a	-0.085063174
237	0x3dffe987	0.12495714
238	0xbe288583	-0.1645718
239	0x3e1f15e1	0.1553569
240	0xbc5e685f	-0.013574689
241	0xbd16a0b3	-0.03677435
242	0x3d1c0e8b	0.038099807
243	0xbb5f61c4	-0.0034085372
244	0xbd7d3fef	-0.06182855
245	0xbd30a14d	-0.04312258
246	0x3e1a16a3	0.15047698
247	0xbcf7628b	-0.030198356
248	0x3c1c0b3d	0.009524164
249	0x3cf028fd	0.02931642
250	0x3d6d8620	0.05798924
251	0x3c559dd5	0.013038118
252	0x3c200faa	0.00976936
253	0xbd32f715	-0.043692667
254	0xbe0814c7	-0.13289176
255	0xbdd50424	-0.104011804

lstm.bias_ih_l0 f4 [512]
0	0x3dda98d0	0.10673678
1	0x3cac3e6d	0.02102586
2	0xbd45d0c3	-0.048294794
3	0xbe39abe7	-0.18131982
4	0xbdbc47ae	-0.09193359
5	0xbe5578a5	-0.20846803
6	0x3d7a62e5	0.06112947
7	0xbdf8f2f4	-0.12155715
8	0x3e17cc09	0.14823927
9	0xbcf9030e	-0.030396964
10	0xbdac7531	-0.0842079
11	0xbe1d1ccb	-0.15343015
12	0xbb8fe147	-0.004390869
13	0xbe6768ba	-0.22598544
14	0xbe0402a8	-0.12891638
15	0xbe1d50cf	-0.15362857
16	0xbe1703cb	-0.1474754
17	0xbe22c855	-0.15896733
18	0xbe159691	-0.14608218
19	0xbe610b9d	-0.21977086
20	0x3db080ab	0.086182915
21	0xbdb95c31	-0.09050787
22	0xbe1c5676	-0.15267357
23	0xbe234114	-0.15942794
24	0xbd6e398c	-0.05816035
25	0xbe0f4d10	-0.13994241
26	0xbcde15d5	-0.02711002
27	0x3cb32954	0.021870293
28	0x3e17ff46	0.14843473
29	0xbcebd0dd	-0.028786117
30	0xbe241d23	-0.1602674
31	0xbe1326dc	-0.14370292
32	0xbdf3f81b	-0.11912557
33	0xbdbbc6a2	-0.091687456
34	0xbdd5b172	-0.10434236
35	0xbe194fbd	-0.14971824
36	0xbe3ef980	-0.18649864
37	0xbd9e20ab	-0.07721075
38	0xbe2a9c7b	-0.16661255
39	0xbdc1cab5	-0.094624914
40	0xbcebbce9	-0.028776603
41	0xbda14126	-0.07873754
42	0x3d68af3f	0.056807753
43	0xbcfd37b4	-0.03091035
44	0x3cb26108	0.021774784
45	0xbcf8134e	-0.030282643
46	0x3d683b7f	0.056697365
47	0xbdae18b9	-0.08500809
48	0xbe46dcd5	-0.19420178
49	0xbe1cc650	-0.15310025
50	0xbdd0443e	-0.10169266
51	0xbdd19ca5	-0.10234956
52	0xbd969fa9	-0.073546715
53	0xbcc9ea38	-0.024647817
54	0xbdea1d73	-0.11431398
55	0xbe33bf64	-0.17553478
56	0xbd3732d1	-0.044726197
57	0xbe091024	-0.13385063
58	0xbd15e7e6	-0.03659811
59	0x3b5052fc	0.0031787744
60	0xbdb94abb	-0.09047457
61	0xbdaec865	-0.08534316
62	0xbd9b0678	-0.07569593
63	0xbd9eaa1a	-0.07747288
64	0xbda4c14e	-0.080446824
65	0xbe1bc2be	-0.15211007
66	0xbe1664dd	-0.14686914
67	0xbe240bd8	-0.16020143
68	0xbdeb5577	-0.114909105
69	0x3c9ac5cd	0.018893147
70	0xbe1c99bd	-0.15293022
71	0x3d91105f	0.07083201
72	0xbd3a4dcf	-0.04548436
73	0xbc860f03	-0.01636458
74	0xbd7e14fc	-0.06203173
75	0xbdf41b72	-0.11919297
76	0xbe1b7e5c	-0.15184921
77	0xbdd526ed	-0.10407815
78	0xbd4b451f	-0.049626466
79	0xbdd8c66d	-0.10584722
80	0x3c3a1dc5	0.011359637
81	0xbe1f7aea	-0.15574232
82	0xbdb04fd2	-0.086089745
83	0xbd827b90	-0.06371224
84	0x3c6e6b9c	0.014552023
85	0xbc98e3a5	-0.018663237
86	0x3d43cc59	0.047802303
87	0xbdb2918b	-0.08719166
88	0xbd39e079	-0.04538009
89	0x3c83097f	0.015995739
90	0xbdefede2	-0.117152944
91	0xbd92bfc7	-0.07165485
92	0xbdf4d6a1	-0.11955
93	0xbba0b43b	-0.0049042976
94	0xbe38b911	-0.18039347
95	0xba2a2c87	-0.00064916204
96	0xbca87396	-0.020562928
97	0x3de5a33c	0.11212775
98	0xbd29476e	-0.041327886
99	0xbc74bd50	-0.014937714
100	0xbdef8c4b	-0.11696681
101	0xbe6b9443	-0.23005776
102	0xbdf05b48	-0.117361605
103	0xbe32612e	-0.17419884
104	0xbd13f13c	-0.03611873
105	0xbc113729	-0.008863249
106	0xbda6a727	-0.081373505
107	0xbd93f708	-0.07224852
108	0x3db9ca63	0.09071805
109	0xbd503f7c	-0.050841793
110	0xbc3eb015	-0.011638661
111	0xbd5438ba	-0.05181191
112	0xbd77438e	-0.06036716
113	0xbd00938a	-0.031390704
114	0xbe1caf8d	-0.15301342
115	0x3e120b8c	0.14262217
116	0xbdc66bfb	-0.096885644
117	0x3d8b07d1	0.067886
118	0x3debc180	0.115115166
119	0xbe3638bc	-0.1779508
120	0xbe0c2d6d	-0.13689204
121	0xbd8cd2a5	-0.06876115
122	0xbe271f60	-0.16320562
123	0xbd487b45	-0.048945684
124	0xbd5fb614	-0.054617003
125	0xbdf3c29c	-0.11902353
126	0xbd88e640	-0.06684542
127	0xbc0ab4bd	-0.008465943
128	0x3ddaaa5c	0.10677025
129	0x3d7eb1d0	0.062181294
130	0xbe18d79a	-0.14925995
131	0xbdd28071	-0.102784045
132	0xbd1b1e8e	-0.037870936
133	0xbda5bb4d	-0.080923654
134	0x3c9bae6c	0.01900407
135	0xbd8593f7	-0.06522363
136	0x3c6b7a8b	0.014372478
137	0xbdd2ef73	-0.102995776
138	0xbe22affb	-0.15887444
139	0xbe0d1a24	-0.13779503
140	0xbe095707	-0.13412105
141	0xbe473998	-0.19455564
142	0xbe172d38	-0.14763343
143	0xbd20cf50	-0.03926021
144	0xbc4790ec	-0.012180548
145	0xbe52162c	-0.2051627
146	0xbde68b8b	-0.112570845
147	0xbdade87c	-0.084916085
148	0x3dea22b5	0.11432401
149	0xbd967617	-0.073467426
150	0xbc5906bc	-0.0132462345
151	0xbd173409	-0.03691486
152	0x3bd2f396	0.006437729
153	0xbe36f861	-0.17868187
154	0xbbe4d207	-0.006983045
155	0x3d0f2593	0.034947943
156	0x3de351e2	0.11099602
157	0xbce468ac	-0.027881943
158	0xbcd45454	-0.025919117
159	0xbd6f338c	-0.05839877
160	0xbdd5ccfe	-0.1043949
161	0xbd3d94cc	-0.046284482
162	0xbe1cfa25	-0.15329798
163	0xbdf9a8cf	-0.12190401
164	0xbd639b48	-0.05556801
165	0xbe0d0df2	-0.13774851
166	0xbdf77545	-0.12082914
167	0xbdeb270e	-0.114820585
168	0xbe2f0f1f	-0.17095612
169	0xbdab994e	-0.0837885
170	0xbd9f8daa	-0.07790692
171	0xbe20e3ad	-0.15711851
172	0x3c9a8058	0.018860027
173	0xbbcbefb0	-0.0062236413
174	0xbdd650bb	-0.10464617
175	0xbd7ca2d2	-0.061678715
176	0xbd96d7d9	-0.073653884
177	0xbcfaefc2	-0.030631904
178	0x3caf01d4	0.021363176
179	0xbdb31249	-0.08743722
180	0xbd9f10ee	-0.07766901
181	0x3bbd8363	0.005783485
182	0xbddf1317	-0.10892313
183	0xbd1500dc	-0.036377773
184	0xbdac45d1	-0.08411754
185	0xbe28cf46	-0.16485319
186	0xbd643c94	-0.055721834
187	0xbd7b903f	-0.06141686
188	0xbc886a28	-0.016652182
189	0xbd3f634f	-0.046725567
190	0xbdda8958	-0.106707275
191	0xbd86614a	-0.06561525
192	0xbd8e55cf	-0.069499604
193	0xbe341e84	-0.17589766
194	0xbdfa7e8f	-0.122311704
195	0xbdbb3364	-0.09140661
196	0xbe0b9a17	-0.13633
197	0x3b2644cf	0.0025370603
198	0xbdcb65aa	-0.099315
199	0x3c40279b	0.011728193
200	0x3b0e0849	0.0021672419
201	0xbdd8b811	-0.10581983
202	0xbbbf62c6	-0.005840632
203	0xbb84d266	-0.0040534018
204	0xbe29d931	-0.16586758
205	0xbce2832d	-0.02765044
206	0x3b59121c	0.0033122366
207	0xbd97fcfe	-0.07421301
208	0x3c81e953	0.015858328
209	0xbe29a4ea	-0.16566816
210	0x3bbc2266	0.0057414053
211	0xbe47b8cc	-0.19504088
212	0xbd8e593a	-0.06950612
213	0xbc66fe52	-0.014098721
214	0xbdbd2635	-0.09235803
215	0xbbf8b71a	-0.007590187
216	0xbd67045d	-0.056400646
217	0x3dbd461f	0.0924189
218	0xbc50d4d7	-0.0127460575
219	0xbcd40f11	-0.02588609
220	0xbc89046b	-0.01672574
221	0xbb0672ee	-0.002051528
222	0xbe0e4034	-0.13891679
223	0xbdb91511	-0.09037221
224	0xbb3db6e1	-0.0028948116
225	0x3d9df913	0.07713523
226	0xbdeedf77	-0.11663716
227	0xbe032a53	-0.12809114
228	0xbd22c394	-0.0397373
229	0xbe0d07cd	-0.13772507
230	0xbe5760e7	-0.21033059
231	0xbdc3be1c	-0.09557745
232	0xbcd48661	-0.025942983
233	0xbe28258d	-0.16420574
234	0xbdcc4b34	-0.09975281
235	0xbd57d323	-0.05269159
236	0x3d83411c	0.06408903
237	0xbdbd62bf	-0.0924735
238	0xbe0550f0	-0.13019156
239	0xbdf17ca0	-0.117913485
240	0xbe0db1de	-0.13837382
241	0xbd95e42e	-0.073189124
242	0xbd988417	-0.07447069
243	0x3de7c675	0.113171495
244	0xbe0e0b8c	-0.13871592
245	0x3de6de92	0.11272921
246	0x3d8b6296	0.06805913
247	0xbd360c96	-0.044445597
248	0xbe591229	-0.21198334
249	0xbdb8d928	-0.09025794
250	0xbe4f9414	-0.20271331
251	0xbe29bbf9	-0.16575612
252	0xbccf5555	-0.025309244
253	0x3c3ee3f3	0.011651027
254	0xbd5a2af3	-0.053263616
255	0x3d3bcd2b	0.04584996

lstm.bias_hh_l0 f4 [512]
0	0x3dd626c1	0.104566105
1	0x3cf7f12c	0.030266367
2	0xbdfb7c95	-0.122796215
3	0xbe029242	-0.12751105
4	0xbdbc4334	-0.091925055
5	0xbe01f740	-0.12691975
6	0x3d5ab2ee	0.053393297
7	0xbe418c6c	-0.18901223
8	0x3e0bbb64	0.13645703
9	0xbd813261	-0.06308437
10	0xbe0dd789	-0.13851751
11	0xbdc25e71	-0.094906695
12	0xbd03e6c9	-0.032202516
13	0xbdf230d9	-0.11825723
14	0xbdf1ee58	-0.118130386
15	0xbd214531	-0.039372627
16	0xbcb006f8	-0.021487698
17	0xbdba988f	-0.091111295
18	0xbe077bc0	-0.132308
19	0xbe4dcadd	-0.20096917
20	0xbcb50d2b	-0.022101006
21	0xbda4532c	-0.08023676
22	0xbd0798c3	-0.03310467
23	0xbe3b3872	-0.18283251
24	0xbde0b166	-0.10971336
25	0xbe003014	-0.1251834
26	0xbd3bfa71	-0.045893136
27	0x3cea95fa	0.028635968
28	0x3e0b0cd3	0.13579111
29	0xbd992e4a	-0.07479532
30	0xbdbc7ba8	-0.09203273
31	0xbce1f971	-0.027584763
32	0xbc6fa944	-0.014627758
33	0xbd86cebb	-0.065823995
34	0xbdbddd10	-0.0927068
35	0xbe0e6a54	-0.13907748
36	0xbe387b12	-0.18015698
37	0xbd02b74e	-0.031913094
38	0xbe14a193	-0.1451476
39	0xbdef2de7	-0.11678677
40	0xbcbac09d	-0.022796923
41	0xbdee58e2	-0.11638047
42	0x3d4efc54	0.050533608
43	0xbcc6f5b3	-0.02428708
44	0x3d76ca3c	0.06025146
45	0xbd3fc663	-0.046820056
46	0xbd38bcb6	-0.045101844
47	0xbdd35adb	-0.10320064
48	0xbd8f13d5	-0.069862045
49	0xbdbd9b00	-0.092580795
50	0xbcf475e4	-0.02984137
51	0xbdcdcb82	-0.10048582
52	0xbd842a47	-0.06453376
53	0x3c3ebfd3	0.011642414
54	0xbcb72687	-0.022357238
55	0xbdf9cd2d	-0.12197337
56	0xbdc7fa3e	-0.09764527
57	0x3b070b79	0.0020606203
58	0x3da1bc1d	0.07897208
59	0xbd88bf08	-0.06677061
60	0xbe15ce60	-0.14629507
61	0xbde4a919	-0.11165065
62	0xbe34aafd	-0.17643352
63	0xbdaceec9	-0.08443982
64	0xbe1d4fdc	-0.15362495
65	0xbe282d76	-0.16423592
66	0xbe02382a	-0.12716737
67	0xbd969709	-0.073530264
68	0xbe042bc4	-0.1290732
69	0x3dbe1175	0.092806734
70	0xbd1d3a4d	-0.038385678
71	0xbc66d910	-0.014089838
72	0x3d8c1969	0.06840784
73	0xbd657d5a	-0.056027748
74	0xbe00ee8d	-0.12591
75	0x3d255ba8	0.040370613
76	0xbd454dcc	-0.048169896
77	0xbe2a81be	-0.16651055
78	0xbde64a4b	-0.11244639
79	0xbdf7e057	-0.12103336
80	0xbd653cfa	-0.055966355
81	0xbe387c8e	-0.18016264
82	0xbe14bab5	-0.14524348
83	0xbd47cd4c	-0.04877977
84	0xbd5de284	-0.0541711
85	0xbdb2320a	-0.087009504
86	0x3c4c5d58	0.012473427
87	0xbdea75f6	-0.114482805
88	0x3d8444e1	0.0645845
89	0x3d91e69b	0.07124063
90	0xbe0792c3	-0.13239579
91	0xbdb14286	-0.086552665
92	0xbd713bbf	-0.05889487
93	0xbd241b35	-0.04006501
94	0xbe37f824	-0.17965752
95	0xbd2fa7c1	-0.042884592
96	0xbcf5d65c	-0.030009441
97	0x3ceb2654	0.0287048
98	0xbdc14db2	-0.09438647
99	0xbe05cd71	-0.13066651
100	0xbc171f86	-0.009223824
101	0xbda04525	-0.07825688
102	0xbe47ac46	-0.19499311
103	0xbe1a24cd	-0.15053101
104	0xbd9fbaaf	-0.07799279
105	0xbdb55217	-0.08853548
106	0xbda3a10f	-0.07989704
107	0xbe164ba6	-0.14677295
108	0x3c739982	0.014868142
109	0xbe203ea0	-0.1564889
110	0xbb835272	-0.004007631
111	0xbdc288bf	-0.094987385
112	0xbc8e98bc	-0.017406814
113	0xbd3018d8	-0.042992443
114	0xbe09be82	-0.13451579
115	0x3d8c7759	0.06858701
116	0xbdf8ac47	-0.12142234
117	0x3df31ed8	0.11871117
118	0x3d0f6899	0.03501186
119	0xbe14816d	-0.14502497
120	0xbd86a3b6	-0.06574194
121	0xbd8224f6	-0.06354706
122	0xbddf7439	-0.109108396
123	0xbe1d549b	-0.15364306
124	0xbdb4fb9b	-0.088370524
125	0xbe0d2678	-0.13784206
126	0xbe1a8c83	-0.15092663
127	0x3d8b22e6	0.06793766
128	0x3c8acbf9	0.016942965
129	0x3cef8cc1	0.029241921
130	0xbe15f700	-0.14645004
131	0xbe32f9f9	-0.1747817
132	0xbc0bc228	-0.008530177
133	0xbe45e958	-0.19327295
134	0x3d083ee5	0.033263106
135	0xbc28f19f	-0.010311513
136	0x3ddbb0ba	0.10727067
137	0xbe2d35b2	-0.16915014
138	0xbcfac192	-0.03060988
139	0xbdea8a84	-0.11452201
140	0xbcc436fb	-0.023951998
141	0xbe180b2d	-0.14848013
142	0xbd63510a	-0.055497207
143	0xbde0d31b	-0.10977765
144	0xbe05e5c6	-0.13075933
145	0xbe16001a	-0.14648476
146	0xbdbed5c9	-0.0931812
147	0xbe08503e	-0.1331186
148	0x3d67ecdd	0.056622375
149	0xbd488865	-0.0489582
150	0xbd391351	-0.045184437
151	0xbdacdd8a	-0.08440693
152	0xbe087985	-0.13327606
153	0xbdf59f29	-0.11993248
154	0xbe1403c3	-0.1445456
155	0x3da76513	0.08173575
156	0x3d54f5ed	0.051992346
157	0xbd8f5109	-0.06997878
158	0xbcd0458c	-0.025423788
159	0xba26aafe	-0.0006357877
160	0xbd4b6b4b	-0.04966287
161	0xbc0a588a	-0.008443961
162	0xbda7ef16	-0.08199899
163	0xbb9cc0f5	-0.0047837445
164	0xbe181f0b	-0.14855592
165	0xbd86564c	-0.065594286
166	0xbcd99188	-0.026558653
167	0xbc68fea8	-0.014220871
168	0xbdc62d39	-0.09676594
169	0xbe218870	-0.15774703
170	0xbd83deda	-0.0643899
171	0xbd4a8a47	-0.049448278
172	0x3dcaa811	0.098953374
173	0x3ccf6d10	0.02532056
174	0x3d110ace	0.035410695
175	0xbdb1cfda	-0.08682223
176	0xbe020915	-0.12698777
177	0xbc634127	-0.013870514
178	0xbcace491	-0.021105083
179	0xbd8db901	-0.06920052
180	0xbe0c7ec5	-0.13720234
181	0x3d2629ba	0.040567137
182	0xbdb3f5de	-0.0878713
183	0xbc143f97	-0.009048364
184	0xbd965a3e	-0.07341431
185	0xbb7194b7	-0.0036862323
186	0xbc886fd3	-0.016654884
187	0xbe0ae0b8	-0.13562286
188	0x3be36ec5	0.006940695
189	0xbdae7f34	-0.08520356
190	0xbe1d0bfd	-0.15336604
191	0x3d1ca9b1	0.038247768
192	0x3adaceb4	0.0016693682
193	0xbe296ed8	-0.1654619
194	0xbd99bc8b	-0.07506665
195	0xbe210b77	-0.1572703
196	0xbda95c9a	-0.082696155
197	0x3d5ba065	0.05361976
198	0xbdb679db	-0.08909961
199	0x3d86a313	0.06574073
200	0xbd9d2270	-0.07672584
201	0xbe280215	-0.16407044
202	0xbdf1911c	-0.117952555
203	0xbdcbc342	-0.09949352
204	0xbdacaf21	-0.08431841
205	0xbdb1890d	-0.086687185
206	0xbd320711	-0.04346377
207	0xbcc59b30	-0.02412185
208	0x3d12859d	0.035771955
209	0xbe222863	-0.15835719
210	0xbd61f255	-0.055162746
211	0xbdbf41e4	-0.093387395
212	0xbe17cc73	-0.14824085
213	0xbaf849cf	-0.0018942895
214	0x3c00f690	0.007871285
215	0xbdb3e1a0	-0.08783269
216	0x3c6b4bcd	0.014361334
217	0x3d861e60	0.06548762
218	0xbe021aac	-0.12705487
219	0x3c7f3e78	0.015578859
220	0xbe16d9d3	-0.14731531
221	0xbc93d6d9	-0.018046783
222	0xbdab9701	-0.08378411
223	0xbd9d939a	-0.076941684
224	0xbe0e9792	-0.13925007
225	0xbd87df81	-0.06634427
226	0xbd48fda6	-0.049070023
227	0xbd7829cf	-0.060586747
228	0xbe038d87	-0.12846957
229	0xbc6b7e72	-0.014373409
230	0xbe46d949	-0.19418825
231	0xbdd63eca	-0.10461195
232	0xbe250364	-0.16114575
233	0xbda5d6e6	-0.08097629
234	0xbd72b66e	-0.05925601
235	0xbcb03ed4	-0.021514334
236	0x3d85f008	0.06539923
237	0xbe447a7e	-0.19187352
238	0x3c2467a3	0.010034475
239	0xbe1aeec7	-0.15130149
240	0xbdf7dfc5	-0.121032275
241	0xbe25031e	-0.1611447
242	0xbde604a5	-0.112313546
243	0x3d12ae77	0.035810914
244	0xbdc5f801	-0.096664436
245	0x3dbe3b9f	0.092887156
246	0x3d12603e	0.035736315
247	0xbd31ef28	-0.043440968
248	0xbd8b2777	-0.06794637
249	0xbdaed253	-0.0853621
250	0xbe10d3ac	-0.14143246
251	0xbddcae3e	-0.107754216
252	0xbdbc8f00	-0.092069626
253	0xbe0cd596	-0.13753352
254	0xbd0af31e	-0.03392326
255	0xbda451ca	-0.080234125

lstm.weight_ih_l1 f4 [512, 128]
0	0x3d39438a	0.045230426
1	0x3d929a87	0.0715838
2	0x3d078792	0.033088274
3	0x3e14f374	0.14545995
4	0xbc99580a	-0.018718738
5	0x3dce80b5	0.10083143
6	0x3c195044	0.009357516
7	0x3d808c72	0.06276788
8	0xbddd0c59	-0.10793371
9	0x3d23303d	0.039840925
10	0x3d4a443b	0.049381476
11	0x3d4d9d9a	0.05019913
12	0x3de365c6	0.11103396
13	0xbe26169a	-0.1621956
14	0xbdff7eb8	-0.124753416
15	0xbdcccc6d	-0.099999286
16	0xbc34dec9	-0.011039444
17	0xbca6ac84	-0.020345934
18	0xbe1a0f93	-0.15045004
19	0xbe20a469	-0.15687717
20	0x3df95ea5	0.12176255
21	0x3d819556	0.06327312
22	0xbdc512ab	-0.09622701
23	0xbd6bf3fa	-0.05760572
24	0x3dd2cd2e	0.10293041
25	0xbc6d63df	-0.014489143
26	0xbd381c46	-0.04494884
27	0x3dd24ba7	0.10268336
28	0xbd22ef32	-0.039778896
29	0xbe175554	-0.14778644
30	0x3d51865d	0.05115353
31	0x3e0994b2	0.13435629
32	0x3d800bfa	0.06252284
33	0xbda4a3c6	-0.0803905
34	0x3ba71048	0.0050983764
35	0xbe02790b	-0.12741487
36	0xbe14722a	-0.14496675
37	0x3e313199	0.17304076
38	0x3d75130c	0.059832618
39	0xbd0d0176	-0.03442522
40	0x3e035bd4	0.12827998
41	0xbe105e28	-0.14098418
42	0xbd5992e1	-0.05311859
43	0xbd2dfd4b	-0.042477887
44	0x3e1e1160	0.15436316
45	0x3cc0028d	0.023438716
46	0x3da998cb	0.08281096
47	0x3d19c175	0.03753801
48	0x3c63edbb	0.01391166
49	0x3e03a3a9	0.128554
50	0xbd528f83	-0.051406395
51	0x3e1e07cf	0.15432666
52	0x3d37b0fc	0.04484652
53	0xbd0c3457	-0.034229603
54	0x3e0bc4fa	0.1364936
55	0xbe2666bd	-0.16250129
56	0x3e18296a	0.14859548
57	0x3d059b19	0.032618616
58	0x3a8e3092	0.0010848215
59	0x3dc04650	0.09388411
60	0xbd998824	-0.0749667
61	0x3dac4a58	0.084126174
62	0xbd8d4999	-0.06898803
63	0x3e224de3	0.15850024
64	0x3de407a7	0.11134272
65	0x3af8c45b	0.0018979417
66	0x3c8e793f	0.017391799
67	0xbd538583	-0.051641
68	0x3c92f746	0.017940175
69	0x3d9774ec	0.07395348
70	0x3d0792cb	0.033098977
71	0xbd92994b	-0.071581446
72	0x3d528672	0.05139775
73	0x3dec2515	0.1153051
74	0x3da54c61	0.08071209
75	0x3d4fcbba	0.0507314
76	0xbd480508	-0.048832923
77	0x3e2ae062	0.16687158
78	0xbe0920bf	-0.13391398
79	0xbdbdd3e3	-0.0926893
80	0xbd90692d	-0.07051311
81	0xbcaac37c	-0.020845167
82	0x3d102207	0.0351887
83	0xbd59aecd	-0.05314522
84	0xbce80ca4	-0.02832634
85	0xbe08ae13	-0.13347654
86	0x3dceeb83	0.10103514
87	0x3e32e64f	0.17470668
88	0x3dddfdd3	0.10839429
89	0x3e1670ca	0.14691463
90	0xbd3fa2ad	-0.046786
91	0xbdce09ec	-0.10060486
92	0x3cbf56b9	0.023356782
93	0xbdbdcda7	-0.09267741
94	0x3cdb71da	0.026787687
95	0xbd8d84ec	-0.069101185
96	0xbd1879b9	-0.03722546
97	0xbcd83d82	-0.026396517
98	0x3e034aa0	0.12821436
99	0xbdbb1a60	-0.0913589
100	0x3dc0b4c1	0.09409476
101	0xbd61939e	-0.05507242
102	0x3d81ed8f	0.06344139
103	0xbe290a5d	-0.1650786
104	0xbd1aea53	-0.037821125
105	0x3d3c821c	0.04602252
106	0x3c002e2a	0.007823506
107	0x3dbf4c99	0.09340782
108	0x3e20201c	0.15637249
109	0xbe1f0881	-0.15530588
110	0x3cfa05f8	0.030520424
111	0xbdd4f01a	-0.10397358
112	0xbdbecb46	-0.09316115
113	0xbb80033c	-0.0039066356
114	0x3e1b81b8	0.15186203
115	0xbe2f2c47	-0.17106734
116	0xbe1a5eaf	-0.15075181
117	0x3c428119	0.0118716
118	0xbe258d31	-0.16167141
119	0x3c1ce6ad	0.009576482
120	0x3d133ae6	0.03594484
121	0x3e44b960	0.1921134
122	0xbddfcdc8	-0.109279215
123	0xbe0aa791	-0.13540484
124	0xb9b7844f	-0.00035003058
125	0x3d84ad11	0.06478322
126	0x3e1aefaa	0.15130487
127	0x3e341d28	0.17589247
128	0xbe7f326a	-0.24921575
129	0xbd24761d	-0.040151704
130	0xbc422da6	-0.011851704
131	0xbe0abcca	-0.1354858
132	0xbd9466d0	-0.072461724
133	0xbc31a229	-0.010841885
134	0xbd64bb90	-0.055842936
135	0x3e1ef08b	0.15521447
136	0x3d21acc2	0.039471395
137	0xbc502396	-0.012703797
138	0xbe56b38d	-0.2096693
139	0x3ba82e57	0.0051324773
140	0x3d973062	0.07382275
141	0xbe09e146	-0.13464841
142	0x3e27079e	0.163115
143	0x3d41a0c4	0.04727246
144	0xbc4a3d8c	-0.0123437755
145	0x3d9359d9	0.071948715
146	0xbd6f4ea1	-0.058424596
147	0xbcd56342	-0.026048306
148	0xbd1a3ed5	-0.037657578
149	0xbcb63e11	-0.022246392
150	0xbce48af7	-0.027898295
151	0x3da4ed22	0.08053042
152	0x3dc61ebb	0.0967383
153	0xbdc8af9d	-0.097991206
154	0x3dfd1343	0.123571895
155	0x3d834f6b	0.06411632
156	0x3e54c4b7	0.20778166
157	0x3deeea6b	0.116658054
158	0x3d20c885	0.03925373
159	0x3c77746c	0.015103441
160	0x3d747e52	0.05969078
161	0x3d32f23a	0.043688037
162	0xbc63340e	-0.013867391
163	0x3e17d058	0.1482557
164	0xbdc4b862	-0.09605481
165	0xbbf721a1	-0.0075418507
166	0xbdee9767	-0.116499715
167	0xbe0fe226	-0.14051113
168	0x3d2d17f6	0.04225918
169	0xbde1d7b5	-0.11027471
170	0xbd77aafc	-0.060465798
171	0x3d699dd1	0.05703527
172	0xbd52224f	-0.05130225
173	0xbe32e2e3	-0.17469363
174	0xbe24bfa6	-0.16088733
175	0x3dad5595	0.08463589
176	0xbd1b97f6	-0.037986718
177	0xbcc8c632	-0.02450857
178	0x3d114dc7	0.035474565
179	0xbe1ceeb2	-0.1532543
180	0xbdbfe023	-0.093689226
181	0xbd252e34	-0.040327266
182	0x3ce2b920	0.027676165
183	0x3df9b0d9	0.12191934
184	0xbdedfa06	-0.11619954
185	0x3d48cb03	0.049021732
186	0x3e268f1f	0.16265534
187	0x3d743b33	0.05962677
188	0xbe07cd2d	-0.13261862
189	0xbdf26f9e	-0.118376955
190	0x3d8435e9	0.06455595
191	0xbd85bb06	-0.065298125
192	0xbba9e373	-0.0051845848
193	0x3da15c0a	0.07878883
194	0x3dce6651	0.10078109
195	0x3d451315	0.0481139
196	0xb8ba336a	-8.878748e-05
197	0xbdd192db	-0.102330886
198	0xbd32f7a9	-0.04369322
199	0x3d8e7cce	0.06957398
200	0xbda6fb50	-0.08153403
201	0x3c1b04ce	0.009461595
202	0x3d9ad780	0.075606346
203	0x3c5c260d	0.013436806
204	0x3dda5485	0.10660652
205	0x3c91ec59	0.017812895
206	0xbdd39f54	-0.10333124
207	0x3d50915e	0.050919883
208	0x3c0d940e	0.008641256
209	0x3cd69227	0.026192738
210	0xbd032ed8	-0.032027096
211	0xbc73fa68	-0.0148912445
212	0x3e091eec	0.13390702
213	0x3e54d7fc	0.20785517
214	0xbd741707	-0.059592273
215	0x3d94bd41	0.0726266
216	0xbe3bc5f8	-0.18337238
217	0xbe56a1d7	-0.20960175
218	0x3ba57262	0.005049036
219	0x3c9a4887	0.018833412
220	0x3db28e93	0.087186
221	0x3b29d4a2	0.0025914093
222	0xbe3aedca	-0.18254772
223	0x3d56c978	0.05243823
224	0x3d88ea9c	0.06685373
225	0x3d5ea732	0.05435867
226	0xbce399b7	-0.027783258
227	0x3d807ccb	0.06273802
228	0x3e27b00a	0.16375747
229	0x3dc00038	0.09375042
230	0xbb958504	-0.004562976
231	0xbc816711	-0.015796216
232	0xbd147b7b	-0.036250573
233	0x3d0a5075	0.033768136
234	0x3d19b136	0.037522517
235	0x3c7f4874	0.015581239
236	0xbd12eb5d	-0.03586899
237	0xbcb9541c	-0.022623114
238	0x3d1a9ca3	0.037747037
239	0x3d7fb7ee	0.06243127
240	0xbe5f49ff	-0.21805571
241	0xbc88b18f	-0.016686229
242	0xbdaaf801	-0.08348084
243	0x3d250bde	0.04029452
244	0xbd0a2d29	-0.033734474
245	0x3e3ea6b4	0.1861828
246	0x3d5de882	0.054176815
247	0x3c63af66	0.013896799
248	0xbddb7c2d	-0.10717044
249	0x3dba27b1	0.09089602
250	0x3e08aba0	0.1334672
251	0x3e1b290f	0.15152381
252	0x3dd20cde	0.102563605
253	0xbe04b59f	-0.12959908
254	0xbc1c35e1	-0.00953433
255	0x3c7611d0	0.015018895
