SimLoan/res/taiwan/LSTM_effort_modeltaiwan_budget_30_eps_0_5_b_0_2_lt-w_1_st-w_0_4111111111111111.pth (torch, 823374 bytes, 12 tensors)

init_interventions f4 [1, 2]
0	0x3d580eb4	0.052748397
1	0x3caba502	0.020952705

lstm.weight_ih_l0 f4 [512, 11]
0	0xbdc1c16e	-0.09460722
1	0x3c67da19	0.01415112
2	0xbc91440c	-0.017732643
3	0x3d0d17e5	0.034446616
4	0x3bc93a13	0.006140956
5	0x3d83b3ab	0.06430753
6	0xbdcd7409	-0.100318976
7	0x3d8feafa	0.0702724
8	0xbe051e4c	-0.12999839
9	0x3cc06f24	0.023490496
10	0xbe1a0030	-0.15039134
11	0xbcdf7417	-0.027277036
12	0xbb8dbf8a	-0.0043258118
13	0x3cba344c	0.022730015
14	0x3a9ecdaa	0.0012115736
15	0xbe0c599f	-0.13706063
16	0xbbb254e9	-0.005442251
17	0xbd7e7023	-0.06211866
18	0x3d4b083d	0.049568404
19	0xbdf94680	-0.1217165
20	0x3e3bc744	0.18337733
21	0xbd74fd98	-0.05981216
22	0xbd6510da	-0.055924274
23	0xbd2b489a	-0.041817285
24	0xbd5b8f45	-0.05360343
25	0xbe09f3a8	-0.13471854
26	0xbe56481b	-0.20925944
27	0xbc4b865b	-0.01242217
28	0xbde8a532	-0.113596335
29	0xbc3ba6f1	-0.011453376
30	0xbe01296a	-0.12613454
31	0x3d2faedc	0.04289137
32	0xbdb110da	-0.08645792
33	0x3a30af94	0.00067400304
34	0xbd986995	-0.07442013
35	0xbd3bfc27	-0.045894768
36	0x3d70ec68	0.058819205
37	0xbd76763b	-0.060171347
38	0xbd0521fb	-0.03250311
39	0xbd80bfab	-0.06286558
40	0xb9c8ffe2	-0.0003833762
41	0xbdbe6eab	-0.09298452
42	0x3de33c15	0.11095444
43	0xbe1c54c0	-0.15266705
44	0xbe8afe9d	-0.2714738
45	0x3c2be05d	0.010490504
46	0x3d86493c	0.06556937
47	0x3e367186	0.17816743
48	0xbd9815f8	-0.07426065
49	0xbdd387f3	-0.10328665
50	0xbe4825f5	-0.1954573
51	0xbd2cea81	-0.042215828
52	0xbd1ea0a8	-0.038727432
53	0xbd0c17fa	-0.034202553
54	0xbe09e431	-0.13465954
55	0xbdef9e6c	-0.117001384
56	0xbe19b19f	-0.15009163
57	0xbdbd3c80	-0.09240055
58	0xbe250dd1	-0.16118552
59	0xbd3a1647	-0.0454314
60	0xbde9845c	-0.11402199
61	0xbdaf601b	-0.085632525
62	0xbe3f6367	-0.18690263
63	0xbdc7e36f	-0.097601764
64	0x3befe3a2	0.007320837
65	0xbdc71a73	-0.09721842
66	0xbe3791cc	-0.17926711
67	0x3bd8444e	0.0065999394
68	0xbc9c9bc6	-0.019117247
69	0xbdbaa4cf	-0.09113466
70	0xbe3dbf66	-0.18530044
71	0xbd9e6d03	-0.07735636
72	0xbe00bb06	-0.12571344
73	0xbd2cf455	-0.0422252
74	0xbcc9c0f1	-0.024628134
75	0xbe0322af	-0.128062
76	0xbda89e6a	-0.0823334
77	0x3e0eff2d	0.1396453
78	0xbd03e794	-0.032203272
79	0x3c6d0cf4	0.01446842
80	0xbdee8ea4	-0.116483
81	0x3c508b5e	0.01272854
82	0x3de5c360	0.112189054
83	0x3d9c0776	0.076186106
84	0xbd5b31ed	-0.05351441
85	0x3e3ee366	0.18641433
86	0x3d16b29b	0.036791425
87	0x3c1fbba9	0.0097493315
88	0xbb02feb4	-0.001998824
89	0xbd3f7d2a	-0.046750225
90	0xbd9af737	-0.07566684
91	0x3bfaece9	0.0076576364
92	0xbdfac81a	-0.122451976
93	0xbd6ba5ca	-0.057531156
94	0xb9eabba7	-0.0004477177
95	0x3d09e5a8	0.033666283
96	0xbd9cdd75	-0.07659427
97	0x3cf1a369	0.029496865
98	0xbd864b48	-0.065573275
99	0xbdc593f6	-0.09647362
100	0xba5a0ec1	-0.00083182385
101	0x3c4eea63	0.012629124
102	0x3cced21d	0.025246674
103	0x3d639b74	0.055568174
104	0xba757610	-0.0009363601
105	0xbd79f463	-0.06102408
106	0xbd8ae046	-0.06781058
107	0xbdc3e1cd	-0.095645525
108	0x3ddba2e8	0.10724431
109	0xbde0ae68	-0.10970765
110	0xbd47ae24	-0.048750058
111	0xbdfef682	-0.124493614
112	0xbcf982f2	-0.030457947
113	0xbde9900a	-0.114044264
114	0xbdae208e	-0.08502303
115	0xbcd7bc30	-0.026334852
116	0xbda5d485	-0.080971755
117	0xbd81bea8	-0.06335193
118	0xbd4150f9	-0.047196362
119	0x3d31c6d9	0.043402527
120	0xbd6474e0	-0.055775523
121	0x3c077ec3	0.008269968
122	0xbe28c237	-0.16480337
123	0xbdaef5fd	-0.08543012
124	0xbdf193b7	-0.117957525
125	0xbdc545cf	-0.096324556
126	0xbe252365	-0.16126783
127	0xbc6d9b2b	-0.014502327
128	0xbd3a9689	-0.045553718
129	0xbe1b8512	-0.15187481
130	0xbd31a16f	-0.043366846
131	0x3d1eaac7	0.038737085
132	0xbd017960	-0.031609893
133	0x3c5a4b9d	0.013323692
134	0xbc82b879	-0.015957104
135	0xbd00d189	-0.03144983
136	0xbd093d06	-0.033505462
137	0x3c90d449	0.01767935
138	0xbdbb8acb	-0.09157332
139	0x3c98ebda	0.01866715
140	0xbcf78638	-0.030215368
141	0xbd143203	-0.036180507
142	0xbdff1107	-0.124544196
143	0xbe1dd7ae	-0.15414307
144	0xbe4a9fa5	-0.19787462
145	0xbe003d1e	-0.12523314
146	0xbd43a1b3	-0.04776163
147	0xbd5aca2b	-0.05341546
148	0xbe3ac3d5	-0.18238766
149	0xbdc5fabe	-0.09666966
150	0x3c1a202e	0.009407086
151	0xbdc749f5	-0.09730903
152	0xbcc07213	-0.023491895
153	0xbc034389	-0.008011707
154	0xbc92fa50	-0.017941624
155	0xbdd7c949	-0.10536439
156	0xbe476a85	-0.19474228
157	0xbe5c23ae	-0.21497986
158	0xbe20c511	-0.15700175
159	0xbe24e832	-0.161042
160	0xbe15c9f4	-0.1462782
161	0xbdddc364	-0.108282834
162	0xbd902170	-0.07037628
163	0xbdebed9b	-0.11519929
164	0xbd0b68d8	-0.034035534
165	0xbdcedca9	-0.10100681
166	0xbe27a0af	-0.1636989
167	0xbe1534bc	-0.14570898
168	0xbe3d9ec2	-0.18517593
169	0xbe41f2d6	-0.18940291
170	0xbe610bed	-0.21977206
171	0xbd873205	-0.06601337
172	0xbd7a8c44	-0.061168924
173	0xbda670eb	-0.08127006
174	0xbd0d627c	-0.03451775
175	0xbca0af53	-0.019614851
176	0x3df95eb4	0.12176266
177	0x3cb88e6c	0.02252885
178	0xbdcef7f0	-0.10105884
179	0xbe2c5345	-0.1682864
180	0xbab75aef	-0.0013988892
181	0xbd6e4bce	-0.05817776
182	0xbe134a66	-0.1438385
183	0xbe16d438	-0.14729393
184	0xbdf9a92c	-0.1219047
185	0x3df7c6b6	0.12098448
186	0xbccd6f39	-0.02507745
187	0xbd89e042	-0.06732227
188	0xbdbeee03	-0.09322741
189	0xbd8b5932	-0.06804122
190	0xbd367d83	-0.04455329
191	0xbe2c9241	-0.16852666
192	0x3c1f009c	0.009704735
193	0xbdb33fc4	-0.08752397
194	0xbddc3026	-0.10751371
195	0xbe41fd04	-0.18944174
196	0xbc01cb4d	-0.007922006
197	0xbdcde20f	-0.10052883
198	0x3db207da	0.08692904
199	0x3ae75d98	0.0017651794
200	0xbdc756f3	-0.09733381
201	0xbda90252	-0.08252396
202	0x3d1adebf	0.037810083
203	0x3c9ec1fa	0.019379605
204	0xbd8352d5	-0.06412283
205	0xbd7bd3c0	-0.061481237
206	0xbdf7589d	-0.120774485
207	0x3e400692	0.18752506
208	0x3d601aa6	0.054712914
209	0x3d8313f7	0.06400292
210	0xbe2d10a9	-0.16900887
211	0xbde4a66d	-0.11164556
212	0xbdd2812a	-0.10278542
213	0xbd91d51e	-0.07120727
214	0xbe6eba4c	-0.23313254
215	0xbd533145	-0.05156066
216	0xbe04958f	-0.12947677
217	0xbe097310	-0.13422799
218	0x3d4483ed	0.047977377
219	0xbd843312	-0.064550534
220	0xbe0c0846	-0.13675031
221	0x3d9ad8b2	0.075608626
222	0xbdc0aafa	-0.09407611
223	0xbd3436c4	-0.04399754
224	0xbd583ae2	-0.05279053
225	0xbe1403cd	-0.14454575
226	0xbe1109dc	-0.14163917
227	0xbd449813	-0.04799659
228	0xbd9d7847	-0.07688957
229	0xbbb84674	-0.005623633
230	0xbc74ec27	-0.014948881
231	0x3d9ec6a8	0.077527344
232	0xbe04ac55	-0.12956364
233	0xbe2f7bfc	-0.1713714
234	0xbe27fbdf	-0.16404675
235	0xbe200da2	-0.156302
236	0xbe195e5e	-0.14977404
237	0xbdad3218	-0.0845682
238	0xbd723a1c	-0.05913745
239	0xbdac5519	-0.084146686
240	0xbdda9ab2	-0.10674037
241	0xbdd0ee7f	-0.102017395
242	0xbd7b76b6	-0.06139251
243	0xbd9c25ee	-0.07624422
244	0xbd5dd484	-0.05415775
245	0xbd6571a5	-0.056016583
246	0xbd996ad3	-0.07491078
247	0x3c6c7220	0.014431506
248	0x3d5a71b4	0.053331092
249	0x3d1ae391	0.03781468
250	0xbd99bdc3	-0.07506897
251	0xbd39f7d0	-0.045402348
252	0xbb98f236	-0.0046675457
253	0xbd903baf	-0.07042634
254	0xbd97834f	-0.07398092
255	0xbdfd09d2	-0.12355389

lstm.weight_hh_l0 f4 [512, 128]
0	0xbbff6cd8	-0.0077949576
1	0xbd543544	-0.05180861
2	0xbd9b7197	-0.07590025
3	0xbd9be25b	-0.07611533
4	0xbde98374	-0.11402026
5	0x3d8caf05	0.0686932
6	0xbccac95c	-0.024754219
7	0x3e3ba496	0.18324503
8	0x3ddca3e3	0.107734464
9	0x3c804686	0.015658628
10	0x3d92b515	0.07163445
11	0x3d044aa9	0.032297764
12	0xbbddc5c4	-0.0067679603
13	0xbc6b6945	-0.01436836
14	0xbc6b5594	-0.014363665
15	0xbccc53b4	-0.024942257
16	0x3e27d76e	0.16390774
17	0xbde71156	-0.112826034
18	0xbc16fd56	-0.009215673
19	0xbc55c270	-0.013046846
20	0xbd260a5c	-0.040537223
21	0x3d11d10b	0.03559975
22	0x3e0ed0ee	0.13946888
23	0xbd60f907	-0.05492499
24	0x3cf9f59f	0.03051263
25	0xbe0f0afc	-0.13969034
26	0xbc474780	-0.012163043
27	0xbcc70577	-0.024294598
28	0x3cc34182	0.023834947
29	0x3d1df824	0.038566723
30	0xbc43934e	-0.011936976
31	0x3d55f699	0.052237127
32	0x3d6cc22e	0.05780237
33	0xbd1156da	-0.03548322
34	0xbd32fc64	-0.04369773
35	0x3e26a4fa	0.16273871
36	0xbce711b5	-0.028206686
37	0xbd5d547b	-0.054035645
38	0x3c4c054b	0.012452434
39	0x3bc2415d	0.005928202
40	0xbe0ad08b	-0.13556115
41	0xbdb41b9e	-0.0879433
42	0xbdaa7904	-0.08323863
43	0xbcc41323	-0.023934906
44	0xbd87fcb3	-0.066399954
45	0xbdca997a	-0.098925546
46	0x3dffe796	0.124953434
47	0xbd3d9d7d	-0.04629277
48	0x3d02aaef	0.031901296
49	0xbd29160b	-0.041280787
50	0x3cba48ab	0.022739729
51	0xbd9ef369	-0.077612706
52	0x3da7de0d	0.0819665
53	0xbd4bf80d	-0.049797107
54	0xbc378ca8	-0.011202969
55	0x3d65b9c8	0.056085378
56	0x3daf9e6c	0.085751384
57	0xbd580742	-0.052741297
58	0xbd6e3f65	-0.058165926
59	0x3d90a581	0.07062817
60	0xbc858379	-0.016298043
61	0x3d4133b6	0.047168456
62	0xbdaf4ceb	-0.08559593
63	0x3d5bcf4a	0.053664483
64	0xbd3a400f	-0.045471247
65	0xbdbcf114	-0.092256695
66	0xbda84eb0	-0.082181334
67	0x3c1866e7	0.009301878
68	0xbc4c7e7b	-0.012481327
69	0x3e065b18	0.13120687
70	0xbe1dc789	-0.15408148
71	0x3d508d41	0.05091596
72	0xbce6ba71	-0.028165074
73	0x3e08bbc0	0.13352871
74	0x3d8b37b8	0.06797737
75	0xbde2c66b	-0.110730015
76	0xbd085acd	-0.03328972
77	0x3d241479	0.040058587
78	0xbe5306bd	-0.20608039
79	0x3df6fa7b	0.12059494
80	0xbc90c432	-0.017671678
81	0x3c394de6	0.011310076
82	0x3d7c1932	0.061547466
83	0xbd08f46c	-0.033436224
84	0xbca7fa74	-0.020505168
85	0x3c247efe	0.010040043
86	0x3d97378f	0.07383644
87	0xbd12c234	-0.035829738
88	0x3e2d7378	0.16938579
89	0x3d57a59a	0.052648164
90	0x3d0184b5	0.0316207
91	0x3cb05330	0.021524042
92	0x3d30bdac	0.043149635
93	0x3d133736	0.035941325
94	0xbe1ca0c3	-0.152957
95	0x3a1481dc	0.00056651025
96	0xbd41b0b4	-0.047287658
97	0x3d1fd99e	0.039025895
98	0x3cefbde6	0.029265355
99	0x3d20e1c2	0.0392778
100	0x3be59a24	0.0070069004
101	0x3db14080	0.086548805
102	0x3c842c66	0.016134452
103	0x3cc9fdac	0.024657093
104	0x3ccc5d2b	0.02494677
105	0xbdafd7b3	-0.08586063
106	0xbd890eb3	-0.06692257
107	0xbdab3092	-0.083588734
108	0x3da18e51	0.07888473
109	0xbc9a20aa	-0.018814404
110	0x3d979a14	0.07402435
111	0x3e325b40	0.17417622
112	0xbca4b1df	-0.020104347
113	0x3b9934d2	0.004675486
114	0xbcaa3adb	-0.020780018
115	0x3bdb1ca3	0.0066867634
116	0x3e1a99b2	0.15097693
117	0xbdc22d6c	-0.0948132
118	0xbe6e2cac	-0.23259228
119	0x3a5d8f28	0.0008451813
120	0x3c163f50	0.009170368
121	0xbe3b129c	-0.18268818
122	0x3e025d28	0.12730849
123	0xbd3bd087	-0.045853164
124	0xbdeddce6	-0.11614399
125	0x3cc55aac	0.024091087
126	0xbd6695fc	-0.05629538
127	0x3dcac7d9	0.09901399
128	0xbb4db567	-0.0031388642
129	0x3e0340bf	0.12817667
130	0xbd85825c	-0.06519005
131	0x3ce261c8	0.027634516
132	0xbdd29990	-0.10283196
133	0xbbbaa8d8	-0.0056963973
134	0xbce26425	-0.027635643
135	0x3c9415c6	0.018076789
136	0xbd2b6a42	-0.041849382
137	0xbd08f823	-0.033439767
138	0x3dbd9300	0.09256554
139	0x3e0dc04d	0.13842888
140	0xbda5ab8e	-0.08089362
141	0xbab1174d	-0.0013510972
142	0xbd9ae731	-0.075636275
143	0xbd5533c1	-0.05205131
144	0x3d3aee41	0.045637373
145	0xbbdb1831	-0.0066862334
146	0xbce99159	-0.02851169
147	0x3d0f44d3	0.034977745
148	0x3d50cb9a	0.05097542
149	0x3c203e17	0.009780428
150	0xbd02268e	-0.03177505
151	0x3dbcc5e6	0.09217434
152	0x3d54b382	0.051929004
153	0x3d68e32f	0.056857284
154	0x3d17b624	0.037038937
155	0x3d65705c	0.056015357
156	0x3d121d85	0.035672683
157	0xbd1260c0	-0.0357368
158	0x3d721301	0.059100155
159	0xbd095dc8	-0.033536702
160	0x3d9c179f	0.07621693
161	0x3e0c5d03	0.13707356
162	0x3b161583	0.0022901006
163	0x3d8a1570	0.0674237
164	0x3ae38cc3	0.0017360676
165	0xbcf40850	-0.02978912
166	0x3d32dad9	0.04366574
167	0x3c3e4754	0.011613686
168	0xbc093dd9	-0.008376562
169	0xbd5f781e	-0.054557912
170	0x3c7a4d3b	0.015277202
171	0x3ce1998c	0.027539037
172	0xbb26505d	-0.002537749
173	0xbe37d500	-0.17952347
174	0x3d95433b	0.07288214
175	0x3abd5ac2	0.0014446604
176	0x3deeb31a	0.11655255
177	0xbc84be50	-0.01620403
178	0x3e110231	0.14160992
179	0x3db5622f	0.08856618
180	0xbe0b6dcf	-0.13616107
181	0xbc5ac443	-0.0133524565
182	0xbda6e53d	-0.081491925
183	0x3d03243e	0.032016985
184	0x3df9f991	0.12205804
185	0x3deacd90	0.11464989
186	0xbda03522	-0.07822634
187	0xbd654973	-0.05597825
188	0xbd351888	-0.044212848
189	0x3d9c9651	0.07645858
190	0xbdf5b084	-0.11996558
191	0x3d5cc036	0.053894244
192	0x3d5a65f3	0.053319883
193	0xbdf886da	-0.12135096
194	0xbe090217	-0.13379703
195	0x3d9b8043	0.07592823
196	0x3d99fbd4	0.075187355
197	0x3d8e3305	0.06943325
198	0xbe1bb0e9	-0.15204205
199	0xbcd084f9	-0.025454031
200	0x3ca3ac9f	0.019979773
201	0x3d55ec45	0.052227277
202	0xbe365c99	-0.1780876
203	0xbd7ad03c	-0.061233744
204	0x3d8f0f0a	0.0698529
205	0x3de47870	0.11155784
206	0xbca71ce3	-0.020399516
207	0x3c984b32	0.018590543
208	0x3d8e8138	0.0695824
209	0xbdf5d130	-0.1200279
210	0x3dabf462	0.08396222
211	0x3dd3edc0	0.103480816
212	0xbdf8a70e	-0.12141238
213	0xbc75befb	-0.014999147
214	0x3d2a0926	0.04151263
215	0xbcfbda2e	-0.030743685
216	0x3cdbec94	0.026846208
217	0xbd708d40	-0.058728456
218	0xbdba1c4a	-0.09087427
219	0x3c4cf486	0.012509471
220	0xbdd49ebc	-0.10381839
221	0x3bf10de0	0.0073563904
222	0xbe0812b5	-0.13288386
223	0xbde5aad9	-0.11214227
224	0xbdb1e0a4	-0.08685425
225	0x3c86b63e	0.016444322
226	0x3d75d52c	0.06001775
227	0xbc922859	-0.017841505
228	0xbcbfee6b	-0.023429116
229	0x3e0efd84	0.13963896
230	0x3c629092	0.013828414
231	0x3ba766f7	0.00510871
232	0x3db84a6e	0.08998571
233	0xbc095bc9	-0.0083837
234	0xbd4ebf67	-0.050475504
235	0xbcfb9a43	-0.030713206
236	0x3d9e945e	0.077431425
237	0x3c6ec49d	0.014573243
238	0x3cc2335f	0.023706136
239	0x3d0ab512	0.03386409
240	0x3d24585d	0.040123332
241	0x3d6bb56f	0.057546075
242	0x3c312820	0.010812789
243	0xbbf7a1c0	-0.007557124
244	0x3d1fd201	0.039018635
245	0xbcb16782	-0.021655802
246	0xbcf28268	-0.029603198
247	0xbde1a73f	-0.11018228
248	0xbd1d8554	-0.03845723
249	0xbd920b37	-0.07131045
250	0x392c42fb	0.0001642815
251	0x3dce8ed1	0.10085834
252	0xbdd02f2d	-0.10165248
253	0xbd3bdf74	-0.0458674
254	0x3d1b3f8b	0.037902396
255	0x3c2d64b8	0.010583095

lstm.bias_ih_l0 f4 [512]
0	0xbc9152ae	-0.01773962
1	0xbbe775ca	-0.007063602
2	0xbe4f55ca	-0.2024757
3	0xbb497725	-0.0030741182
4	0xbdec8258	-0.115482986
5	0xbddb9609	-0.10721976
6	0xbe6a4b87	-0.22880374
7	0x3e2569b4	0.16153604
8	0xbd6ee66e	-0.058325224
9	0xbd163179	-0.036668275
10	0x3cf05553	0.02933756
11	0xbdbcf147	-0.092257075
12	0xbd018b8f	-0.031627234
13	0xbd6a28fe	-0.057168
14	0xbd933c16	-0.07189195
15	0xbe4dbb98	-0.20091093
16	0x3d81ee88	0.06344324
17	0xbd341726	-0.04396739
18	0x3ccd4dc1	0.02506149
19	0xbe63b199	-0.22235717
20	0xbe1acba2	-0.15116742
21	0xbe2dc2e5	-0.16968878
22	0xbddfcb0f	-0.10927402
23	0xbd9bb9f2	-0.07603826
24	0xbc19ab05	-0.009379153
25	0x3cbd036f	0.023072926
26	0x3cd10428	0.025514677
27	0xbdbe2fd9	-0.0928647
28	0xbe3ca152	-0.18420914
29	0xbb16aaf9	-0.0022990091
30	0xbd9a57ce	-0.07536279
31	0xbe05df2b	-0.13073413
32	0xbd0c9373	-0.034320306
33	0xbd86b257	-0.065769844
34	0xbdb6acd6	-0.089196846
35	0xbcdb9459	-0.026804136
36	0xbe2daee5	-0.16961248
37	0xbe1be4b4	-0.15223962
38	0x3d8545a1	0.06507421
39	0xbdfd9f70	-0.12383926
40	0xbe1c00a0	-0.15234613
41	0xbe0096bc	-0.125575
42	0xbcb2a61d	-0.021807725
43	0xbbdbd723	-0.006708996
44	0x3c8f8432	0.01751909
45	0xbdf9fcd7	-0.122064285
46	0xbdfc0a40	-0.123066425
47	0xbd5fc3d1	-0.054630104
48	0x3e00c4c5	0.12575062
49	0xbd21cf57	-0.039504375
50	0xbe367ec4	-0.17821795
51	0xbe001546	-0.12508115
52	0xbd7731cb	-0.06035022
53	0xbdca71e5	-0.09885005
54	0xbdbc786d	-0.09202657
55	0xbd3d67c8	-0.04624155
56	0xbc9d6074	-0.019211031
57	0xbdcca75e	-0.0999286
58	0xbe6acee4	-0.22930485
59	0xbe2ec610	-0.17067742
60	0xbc13f4ec	-0.009030562
61	0x3cd80c52	0.026373062
62	0xbdae654c	-0.085154146
63	0x3b744170	0.003727045
64	0xbd5c5b01	-0.053797726
65	0xbb8801f0	-0.0041506216
66	0xbae83e81	-0.0017718823
67	0x3aca0e8d	0.0015415713
68	0xbe68f291	-0.22748782
69	0xbd7b97a2	-0.061423905
70	0x3d5808cd	0.052742768
71	0x3d983bea	0.07433303
72	0xbd76ef32	-0.06028671
73	0x3ddd2e93	0.10799899
74	0xbd435a03	-0.047693264
75	0x3e0194a3	0.12654357
76	0x3d01dae6	0.0317029
77	0xbe1469dd	-0.14493509
78	0x3bbd6a51	0.005780496
79	0x3d55139a	0.052020647
80	0xbe4dbfe7	-0.20092736
81	0xbd0f99cc	-0.03505878
82	0xbe271bbc	-0.16319174
83	0x3e1db54e	0.15401193
84	0xbc617389	-0.013760456
85	0xbd9ddd74	-0.077082545
86	0xbdb4bb87	-0.088248305
87	0xbcdd3429	-0.027002411
88	0x3c36987f	0.011144756
89	0xbd18f34c	-0.0373414
90	0xbce22024	-0.027603216
91	0x3b48f896	0.0030665747
92	0x3d6eca49	0.058298383
93	0x3dfb5263	0.122715734
94	0xbd129eb8	-0.035795897
95	0x3dd6350b	0.10459336
96	0xbdc7a51f	-0.09748291
97	0xbdaa3fe8	-0.083129704
98	0xbdb94469	-0.09046251
99	0x3c6b640f	0.014367118
100	0xbe191cec	-0.14952439
101	0x3cfe1fc2	0.031021003
102	0xbd8772a3	-0.06613662
103	0x3d0cc42a	0.034366764
104	0xbd169839	-0.036766265
105	0xbda9940e	-0.08280192
106	0xbd1bf9e9	-0.03808013
107	0xbdba300a	-0.09091194
108	0x3d68eaad	0.05686443
109	0xbe136204	-0.14392859
110	0xbde5f9da	-0.11229296
111	0x3dac8ed1	0.084256776
112	0x3d989b8d	0.07451544
113	0xbdacab4f	-0.08431112
114	0x3c0617ab	0.008184354
115	0xbd4ef3bf	-0.050525423
116	0x3c3a476f	0.01136957
117	0xbd033864	-0.0320362
118	0x3e3a5241	0.1819544
119	0xbe452305	-0.1925164
120	0xbe2ec7ac	-0.17068356
121	0x3e0614da	0.13093892
122	0xbe0379e9	-0.12839474
123	0xbe3c9b38	-0.18418586
124	0xbdc355b8	-0.09537834
125	0xbd3f13f4	-0.04664989
126	0xbdb5312d	-0.0884727
127	0xbe49a4b4	-0.19691736
128	0xbd3c1e0b	-0.04592709
129	0xbd8f7b70	-0.07005966
130	0xbdcc4c0f	-0.099754445
131	0xbdc4cd47	-0.09609466
132	0xbdf3a71a	-0.118971065
133	0xbe4b91cb	-0.19879834
134	0xbe6d36b8	-0.23165405
135	0x3db239f0	0.08702457
136	0xbe0e7722	-0.13912633
137	0x3d96753c	0.073465794
138	0xbaacf883	-0.0013196621
139	0xbe198d3f	-0.14995287
140	0xbddd5abe	-0.10808323
141	0x3d327394	0.043567255
142	0xbe00b517	-0.1256908
143	0xbe105cc7	-0.14097892
144	0x3c27caf8	0.010241263
145	0xbd03110b	-0.031998675
146	0x3dff30ba	0.12460466
147	0xbe17eaec	-0.1483571
148	0xbe075e4e	-0.13219568
149	0xbe08e421	-0.13368274
150	0xbd6462fb	-0.055758458
151	0xbda826b4	-0.08210507
152	0x3d93b8bf	0.07212972
153	0x3b98efd5	0.004667262
154	0xbcd49940	-0.025951982
155	0xbd14e8be	-0.036354773
156	0xbe2e6d7d	-0.17033954
157	0x3d3fa722	0.04679025
158	0xbd90ebb7	-0.07076209
159	0xbe034e42	-0.12822822
160	0x3d6c5839	0.057701323
161	0x3d82af4e	0.06381093
162	0xbc10f97c	-0.008848544
163	0xbe0d2631	-0.137841
164	0xbe3b3d4e	-0.18285105
165	0xbcfc1ca8	-0.030775383
166	0xbc9d0b4f	-0.019170431
167	0xbd0091b6	-0.03138896
168	0xbe90261b	-0.28154072
169	0xbc423019	-0.011852288
170	0xbdcd9db0	-0.10039842
171	0xbd6fa70f	-0.05850893
172	0x3c2408b4	0.010011841
173	0xbe48f8fc	-0.1962623
174	0xbc9bf7c8	-0.01903905
175	0xbdbbb463	-0.091652654
176	0x3e24fe0a	0.16112533
177	0x3d8e5300	0.06949425
178	0xbe2a1329	-0.16608872
179	0xbd9b59b1	-0.07585467
180	0x3cec8830	0.028873533
181	0xbd1d7533	-0.038441848
182	0xbdd0dc51	-0.10198272
183	0xbac305c2	-0.0014879035
184	0xbcc53fc7	-0.024078263
185	0xbe057d21	-0.13036014
186	0xbe81c36b	-0.25344405
187	0xbddfce1e	-0.109279856
188	0xbc58951b	-0.013219143
189	0xbd8710c0	-0.06594992
190	0xbe589fa8	-0.21154654
191	0xbd0ef857	-0.034904804
192	0xbd8722c4	-0.06598428
193	0x3c2f0448	0.010682173
194	0x3d36a3c2	0.044589765
195	0x3cbe016c	0.023194037
196	0xbda6e089	-0.081482954
197	0xbd6c8d9a	-0.05775223
198	0x3d53b660	0.0516876
199	0x3de0a4aa	0.10968907
200	0xbdc4025e	-0.09570764
201	0x3e1de6a7	0.15420018
202	0xbc595f48	-0.013267346
203	0xbda10c5b	-0.07863685
204	0x3d147346	0.036242746
205	0xbdbe14c7	-0.09281307
206	0xbd991b52	-0.07475914
207	0x3d8fc899	0.07020683
208	0xbe072243	-0.13196664
209	0x3c03dbd7	0.008048019
210	0xbe21c848	-0.15799057
211	0xbd391d67	-0.045194056
212	0xbd4a08d3	-0.04932482
213	0xbdc817ce	-0.097701654
214	0xbd80099b	-0.06251832
215	0xbe07f175	-0.13275702
216	0x3ddff3e1	0.10935188
217	0xbd483554	-0.048878983
218	0xbde7d63c	-0.11320159
219	0x3c9dbe84	0.019255884
220	0xbb977d5f	-0.0046230997
221	0x3de75235	0.112949766
222	0xbdba519a	-0.090975955
223	0x3e04c84a	0.12967029
224	0xbd5ac5b6	-0.053411208
225	0xbd7f5082	-0.062332638
226	0xbe49737a	-0.19672957
227	0xbd9c2aab	-0.07625326
228	0xbe2770ed	-0.16351672
229	0x3da59e90	0.08086884
230	0xbd053025	-0.032516617
231	0x3d813342	0.06308605
232	0xbe00b7a2	-0.1257005
233	0xbc670b41	-0.014101804
234	0xbd44cfdc	-0.048049793
235	0xbe580098	-0.21093976
236	0x3e04a3bd	0.12953086
237	0xbb04a130	-0.0020237677
238	0xbe275ea1	-0.16344692
239	0x3dec58c3	0.115403675
240	0x3d3c7aa4	0.046015397
241	0xbe33f51d	-0.17573972
242	0xbda48dc6	-0.08034854
243	0xbcb023d8	-0.021501467
244	0xbded793b	-0.115953885
245	0xbdbff97a	-0.09373756
246	0x3d13a4ae	0.036045723
247	0xbdb2c398	-0.08728713
248	0xbe267c10	-0.16258264
249	0x3ce6a3ce	0.02815428
250	0xbdc76308	-0.097356856
251	0xbd23a53c	-0.0399525
252	0xbd8e785a	-0.06956549
253	0xbe0f7c96	-0.1401237
254	0x3c1c6073	0.00954448
255	0xbe4646e3	-0.19362979

lstm.bias_hh_l0 f4 [512]
0	0x3c7d417c	0.015457507
1	0xbdfed204	-0.12442401
2	0xbdf37c26	-0.11888914
3	0x393ec7bf	0.00018194223
4	0xbe113186	-0.14179048
5	0xbe0e1723	-0.13876013
6	0xbdb1301a	-0.08651753
7	0x3d6aaa29	0.057291184
8	0xbdb8f462	-0.09030987
9	0xbd6c96d4	-0.05776103
10	0x3c931ad5	0.01795713
11	0xbdedab54	-0.11604944
12	0xbdda358c	-0.106547445
13	0xbc511490	-0.01276125
14	0xbe06b6f3	-0.13155727
15	0xbe1c2427	-0.15248166
16	0x3c72a958	0.0148108825
17	0xbd04900f	-0.032363947
18	0x3d976157	0.07391613
19	0xbe57cb60	-0.21073675
20	0xbdb4bead	-0.08825431
21	0xbe0cb8e5	-0.13742407
22	0xbdfa2d61	-0.122156866
23	0xbde0e167	-0.10980492
24	0xbdab8f41	-0.08376933
25	0x3bda8ba1	0.006669477
26	0xbd8589bc	-0.06520411
27	0xbe26a82f	-0.16275094
28	0xbe1e2085	-0.15442093
29	0xbd7cee52	-0.061750717
30	0x3c071cac	0.008246582
31	0xbce4e955	-0.027943293
32	0xbd8105a1	-0.06299902
33	0xbd63755d	-0.05553185
34	0x3c009f1e	0.0078504365
35	0x3da2ea2f	0.07954823
36	0xbe058a36	-0.13041005
37	0xbcab77fc	-0.020931236
38	0xbc8b7df0	-0.017027825
39	0x3bda1ca8	0.006656248
40	0xbe367003	-0.17816167
41	0xbc8113bc	-0.01575648
42	0xbcd70bd7	-0.026250763
43	0x3ca3a849	0.019977706
44	0xbd11f2d3	-0.035631966
45	0xbe450c06	-0.19242868
46	0xbdcd89e9	-0.1003607
47	0xbd005677	-0.03133246
48	0x3df0ed9f	0.117640726
49	0x3c2a6b76	0.010401597
50	0xbe2fbc17	-0.17161594
51	0xbdabcd8b	-0.083888136
52	0xbe123771	-0.14278962
53	0xbceb6bce	-0.028737929
54	0xbd240a8b	-0.040049117
55	0xbd19dccc	-0.037564084
56	0xbd14f07f	-0.036362167
57	0xbd9ac4c7	-0.075570635
58	0xbe34ed04	-0.1766854
59	0xbcbcc073	-0.023040986
60	0xbc8c78e8	-0.017147496
61	0x3c823806	0.015895855
62	0xbd817ff2	-0.06323232
63	0xbde5ca7d	-0.11220262
64	0xbb16d5c3	-0.0023015596
65	0xbd0d38bd	-0.034477938
66	0x3db6f753	0.08933892
67	0x3e068269	0.13135685
68	0xbe2e7df6	-0.17040238
69	0xbd57e57e	-0.052709095
70	0x3e3eaec6	0.18621358
71	0x3d142393	0.03616674
72	0xbdaeab3a	-0.085287526
73	0x3dd61126	0.104524896
74	0xbd594fbb	-0.053054553
75	0x3e36ca61	0.17850639
76	0xbde1c035	-0.11022989
77	0xbd206ed9	-0.039168213
78	0xbd03d2b3	-0.03218336
79	0x3d650390	0.0559116
80	0xbdb57992	-0.08861078
81	0xbbd259cd	-0.0064193965
82	0xbdd9821a	-0.10620518
83	0x3d4f3c59	0.05059466
84	0xbcd6ece3	-0.026236003
85	0xbd99d461	-0.07511211
86	0xbc91cc78	-0.017797694
87	0xbdc8d0c3	-0.09805443
88	0xbcc42019	-0.023941087
89	0xbbdb6b12	-0.0066961134
90	0xbdc0bcfb	-0.09411045
91	0xbd3799cf	-0.044824418
92	0xbcc21bcd	-0.023694897
93	0xbc809e24	-0.015700407
94	0xbe2f1bce	-0.1710045
95	0x3dd0f444	0.1020284
96	0xbced5818	-0.02897267
97	0x3bfce6f2	0.0077179605
98	0xbe0d95b0	-0.13826632
99	0xbdabe004	-0.08392337
100	0xbe14dc5f	-0.1453719
101	0x3debd521	0.115152605
102	0x3bd1028d	0.006378478
103	0xbccbc6a6	-0.024874996
104	0xbde6fb6e	-0.11278425
105	0x3c89e472	0.016832564
106	0xbcb31a3a	-0.021863092
107	0xbd8e469f	-0.06947064
108	0x3dff032f	0.12451779
109	0x3bdb8e75	0.006700332
110	0xbdb2114f	-0.086947076
111	0x3de38f5a	0.111113265
112	0x3d6916d8	0.05690655
113	0xbdffdb02	-0.12492944
114	0x3cd6e1b7	0.026230676
115	0x3cb7d6e9	0.022441344
116	0xbd13f7a4	-0.03612484
117	0xbdef9633	-0.1169857
118	0x3dbc72f5	0.09201614
119	0xbddce7a2	-0.10786368
120	0xbe07026e	-0.1318452
121	0x3dd02ca4	0.101647645
122	0xbd21a7c4	-0.039466634
123	0xbe023cb3	-0.12718467
124	0xbd4b18ce	-0.049584202
125	0xbddfad24	-0.10921696
126	0x3ab0111b	0.0013432832
127	0xbde8f9a3	-0.113757394
128	0x3ce231dd	0.027611667
129	0xbd44e867	-0.0480732
130	0xbe4fddfa	-0.20299521
131	0xbd90d7c9	-0.07072408
132	0xbdf89a6e	-0.1213883
133	0xbe1b8dca	-0.15190807
134	0xbe4a9aa9	-0.1978556
135	0x3d272eb4	0.040816024
136	0xbdb7461b	-0.089489184
137	0x3ce442e2	0.027863923
138	0x3d3f9ad1	0.046778504
139	0xbd2e2976	-0.04252001
140	0xbda9e0eb	-0.08294853
141	0xbd87aae2	-0.0662439
142	0xbcd5bc73	-0.026090836
143	0xbde32792	-0.11091532
144	0xbbdbf113	-0.006712088
145	0xbe2ce8b5	-0.16885646
146	0x3d5022b7	0.050814357
147	0xbe274ef1	-0.16338708
148	0xbd584c0f	-0.05280691
149	0xbe0bd8b8	-0.1365689
150	0xbdaee8e1	-0.08540512
151	0xbe407850	-0.18795896
152	0xbc1baaf2	-0.009501206
153	0x3cea3084	0.028587587
154	0xbdb32527	-0.087473206
155	0xbd72b6af	-0.059256252
156	0xbdb55ed4	-0.08855978
157	0xbc87018d	-0.016480232
158	0x3d94afb7	0.072600774
159	0xbbfbe559	-0.0076872525
160	0x3d4202a2	0.047365792
161	0xbd8f5a6b	-0.06999668
162	0x3c4ac8a9	0.012376943
163	0xb9eb2219	-0.00044848098
164	0xbdf23178	-0.11825842
165	0xbe11a639	-0.14223565
166	0x3ce49020	0.027900755
167	0xbcec6c8d	-0.028860355
168	0xbe0da8c5	-0.13833912
169	0xbdc87e90	-0.09789765
170	0xbdb641d9	-0.08899278
171	0xbddb822f	-0.1071819
172	0xbe14d100	-0.14532852
173	0xbdc40835	-0.09571878
174	0xbd9d0f91	-0.07668985
175	0xbd9bee6c	-0.07613835
176	0x3d42863d	0.0474913
177	0x3d9358df	0.07194685
178	0xbe5cebd0	-0.2157433
179	0xbc726588	-0.014794715
180	0xbdd1e4b1	-0.102486975
181	0x3cd7fdd7	0.026366157
182	0xbdc08454	-0.094002396
183	0xbd773694	-0.060354784
184	0xbda1221d	-0.07867835
185	0xbdac6e5c	-0.08419487
186	0xbdc522f1	-0.09625805
187	0x3cfb87e1	0.03070444
188	0x3d3209a8	0.04346624
189	0xbe2bf707	-0.16793452
190	0xbe451a6c	-0.1924836
191	0xbdbcbfbf	-0.0921626
192	0xbd949a2a	-0.07255967
193	0x3c889119	0.01667075
194	0x3d016383	0.031589042
195	0x3d1ea7bc	0.038734183
196	0xbe6c9857	-0.23104988
197	0x3c96c9e8	0.018406823
198	0x3d8514ce	0.06498109
199	0x3db51d01	0.08843423
200	0xbdd2b31a	-0.10288067
201	0x3d6b8737	0.057501998
202	0xbda1cd87	-0.07900529
203	0xbd44bc1a	-0.04803095
204	0x3c0cf9d1	0.008604483
205	0xbdf7ad31	-0.120935805
206	0xbe25e4d6	-0.16200575
207	0x3d1791cc	0.037004277
208	0xbe49ac02	-0.19694522
209	0xbdd04ed0	-0.10171282
210	0xbe49501a	-0.19659463
211	0x3d72e627	0.05930152
212	0x3c23a055	0.009986957
213	0xbd1e9cae	-0.03872364
214	0x3c2358b8	0.009969883
215	0xbae1bc0b	-0.0017222179
216	0x3de1aea9	0.11019642
217	0xbd68c23d	-0.056825865
218	0xbe04dfdb	-0.12976019
219	0xbd9236b4	-0.0713934
220	0xbe0862d3	-0.13318948
221	0x3d06f637	0.032949653
222	0xbe3a262a	-0.18178621
223	0x3e01d9f8	0.12680805
224	0x3d4358b1	0.047692005
225	0x3db276bd	0.08714054
226	0xbdb1e295	-0.08685795
227	0xbd8f1b75	-0.06987659
228	0xbd5a783c	-0.05333732
229	0x3da0e981	0.07857037
230	0x3d3620d0	0.044464886
231	0x3b667da4	0.0035170102
232	0xbd6175b9	-0.05504391
233	0x3c84ad78	0.016195998
234	0x3b365b8a	0.0027825558
235	0xbd8e76e2	-0.06956269
236	0x3cf3a606	0.029742252
237	0xbd9f28dd	-0.07771466
238	0xbd838800	-0.06422424
239	0x3e20c1f5	0.15698989
240	0x3dd42ae8	0.10359746
241	0xbd8f02ba	-0.06982942
242	0x3cb88cc8	0.022528067
243	0xbd20a143	-0.03921629
244	0x3b604564	0.0034221048
245	0xbcc750e1	-0.024330558
246	0x3d8778a2	0.06614806
247	0xbd64c368	-0.055850416
248	0xbe07b0b7	-0.13251005
249	0x3db2519f	0.08706974
250	0xbe265771	-0.16244294
251	0xbd68331d	-0.05668937
252	0xbe2846a2	-0.16433194
253	0xbd868121	-0.06567598
254	0xbc437a6f	-0.011931046
255	0xbe0fec68	-0.14055026

lstm.weight_ih_l1 f4 [512, 128]
0	0x3c95dd67	0.01829405
1	0xbcf3f2d5	-0.029778877
2	0xbdaf3ddc	-0.085567206
3	0x3ba12841	0.0049181287
4	0xbb77901e	-0.003777511
5	0x3d214f3e	0.039382212
6	0xbc00490c	-0.007829916
7	0xbca3531e	-0.019937094
8	0xbc5f4e30	-0.013629481
9	0xbc931bf4	-0.017957665
10	0xbdf2dc9b	-0.118584834
11	0xbc342961	-0.010996194
12	0x3dcb298b	0.09920033
13	0x3e0334ee	0.1281316
14	0x3e68fa52	0.2275174
15	0xbda5c369	-0.08093912
16	0xbdaa9380	-0.08328915
17	0xbcf4eb0d	-0.029897237
18	0x3dc3a2f3	0.095525645
19	0xbdfd8ec5	-0.12380747
20	0x3c2c3642	0.010510983
21	0x3da15600	0.07877731
22	0xbc4dc9ef	-0.012560352
23	0xbe263e7d	-0.16234775
24	0x3d244d5e	0.040112846
25	0xbd9ccd93	-0.07656398
26	0x3d90d05d	0.07070992
27	0xbde54abd	-0.11195896
28	0xbda902c0	-0.08252478
29	0xbd218446	-0.039432786
30	0xbe357d92	-0.17723683
31	0xbd2af0ee	-0.041733675
32	0xbdf5e113	-0.1200582
33	0xbe18b902	-0.14914325
34	0xbb3233a8	-0.0027191434
35	0x3c68a8a4	0.014200363
36	0x3d0a1b95	0.03371771
37	0xbe19ea53	-0.15030794
38	0xbd2516c1	-0.040304903
39	0xbd6c69a4	-0.057717934
40	0x3e151e23	0.14562277
41	0x3e519226	0.20465907
42	0xbbde244b	-0.006779229
43	0xbdf493b1	-0.119422324
44	0xbcd0ed71	-0.025503846
45	0x3d933c94	0.07189289
46	0x3b90d660	0.0044200867
47	0x3b26ab6b	0.0025431763
48	0x3d439a34	0.04775448
49	0xbe26401b	-0.16235392
50	0xbe2388ca	-0.1597015
51	0xbe15d144	-0.1463061
52	0x3e30fb81	0.17283441
53	0x3de3b043	0.11117604
54	0x3e12a15a	0.14319363
55	0xbc1d544e	-0.009602619
56	0x3d49ecc7	0.049298074
57	0xbd63cbc0	-0.055614233
58	0xbdc23cc0	-0.094842434
59	0x3cd74e44	0.026282437
60	0xbcb00371	-0.021486016
61	0x3e0ade79	0.13561429
62	0x3e13ccaa	0.14433542
63	0x3c85f585	0.016352424
64	0xbd06c4a8	-0.03290239
65	0x3df6c97f	0.12050151
66	0x3dff0462	0.12452008
67	0xbdbb3c42	-0.09142353
68	0xbc543860	-0.012952894
69	0xbdf5318e	-0.119723424
70	0xbd8dfe7c	-0.06933305
71	0x3b95c2c2	0.004570336
72	0x3d1bf1ca	0.038072385
73	0x3d7cb828	0.061699063
74	0x3dd5e13c	0.10443351
75	0x3d253f70	0.0403437
76	0xbe04c414	-0.12965423
77	0xbdc0cc73	-0.094139956
78	0x3e1a2677	0.15053736
79	0xbe16b356	-0.14716849
80	0x3d49533a	0.049151637
81	0xbc003574	-0.007825244
82	0xbdfaa8b7	-0.12239211
83	0xbd24e509	-0.040257487
84	0x3e116af6	0.14200959
85	0x3de0d97d	0.109789826
86	0xba9ace23	-0.0011810701
87	0xbd9589d6	-0.07301681
88	0x3dc94740	0.09828043
89	0xbd20d637	-0.03926679
90	0x3cb2a408	0.021806732
91	0x3e052706	0.13003168
92	0x3bc0be6b	0.0058820746
93	0x3d290570	0.04126495
94	0x3c84d0b6	0.016212802
95	0x3cd71bca	0.026258368
96	0x3d47fbab	0.048823994
97	0x3ced64a6	0.028978657
98	0xbe4859c9	-0.195655
99	0xbbc46bee	-0.0059943115
100	0xbb568b8c	-0.0032736985
101	0xbe01d030	-0.12677073
102	0x3e072414	0.13197356
103	0xbd1e6506	-0.038670562
104	0xbdb8633e	-0.09003304
105	0x3c91966c	0.017771922
106	0x3d31246f	0.043247636
107	0xbda38716	-0.0798475
108	0xbd1670aa	-0.03672854
109	0xbd420be9	-0.04737464
110	0xbd29279b	-0.041297536
111	0x3d777780	0.0604167
112	0xbd67971f	-0.056540605
113	0xbdff412e	-0.12463604
114	0xbc309e30	-0.010779902
115	0x3d8c50f3	0.06851377
116	0xbddae89f	-0.106889
117	0x3d3060ef	0.043061193
118	0xbdd34ab7	-0.10316985
119	0x3c431f59	0.011909329
120	0xbc9c397d	-0.019070381
121	0xbba68854	-0.0050821695
122	0xbde4671a	-0.111524776
123	0xbd2d878f	-0.042365607
124	0x3dda81b1	0.10669268
125	0x3d0a879e	0.03382074
126	0x3d5d86ab	0.054083508
127	0xbdacdfbd	-0.08441112
128	0x3bd9a50d	0.00664199
129	0xbd869a33	-0.0657238
130	0xbbc2d8c8	-0.0059462525
131	0x3d089140	0.033341646
132	0xbe010292	-0.12598637
133	0x3ce7172e	0.028209295
134	0xbdeb4189	-0.11487109
135	0x3ddd93af	0.10819184
136	0x3bac4b88	0.0052580275
137	0xbc0fd50b	-0.008778821
138	0xbd084b92	-0.033275194
139	0x3dba45b6	0.090953276
140	0x3d58ee68	0.052961737
141	0xbd8b63b8	-0.06806129
142	0xbd794b10	-0.0608626
143	0xbd43faf3	-0.047846746
144	0x3e08c209	0.13355269
145	0xbc783849	-0.015150138
146	0xbd9c4633	-0.07630577
147	0x3d45d330	0.048297107
148	0x3de70c3d	0.11281631
149	0x3de6ba4f	0.11266004
150	0x3d791f2a	0.060820736
151	0x3cc2c423	0.023775166
152	0x3d3cabeb	0.04606239
153	0xbddc9657	-0.107708625
154	0x3c16975e	0.009191362
155	0xbd8775da	-0.06614275
156	0xbd874bdf	-0.06606268
157	0xbd394d85	-0.045239944
158	0xbcd5c4ec	-0.026094876
159	0xbd1b29c1	-0.037881617
160	0xbd3305b7	-0.043706622
161	0xbc7efa2e	-0.015562577
162	0x3d59dc34	0.053188518
163	0xbd8abaf4	-0.0677394
164	0xbc9417b3	-0.018077707
165	0xbbc7683c	-0.0060854238
166	0x3d523c84	0.051327243
167	0xbd2c2c2b	-0.04203431
168	0xbc577a0b	-0.013151656
169	0x3d653a60	0.055963874
170	0x3d5eca25	0.054392
171	0x3dcb1425	0.09915952
172	0xbdd2e54f	-0.102976434
173	0xbc3662c2	-0.011131944
174	0x3d1d8fcd	0.038467217
175	0xbdeab0f6	-0.11459534
176	0x3c9d9c3a	0.019239534
177	0x3d7b4ee6	0.06135454
178	0x3cf36663	0.029711908
179	0xbda071ca	-0.078342035
180	0xbdb380dd	-0.08764813
181	0xbd853d2f	-0.065058105
182	0x3d62a89c	0.05533658
183	0x3d49e7b1	0.049293224
184	0x3c52ece6	0.012873864
185	0xbd07a55f	-0.033116695
186	0xbdc1f23b	-0.0947003
187	0x3c525915	0.012838622
188	0xbc3fbe01	-0.011703015
189	0xbc57361e	-0.013135461
190	0xbd583d3d	-0.052792776
191	0x3c544145	0.012955015
192	0xbdaa74e1	-0.08323074
193	0x3c2d6983	0.010584238
194	0x3cbd75dc	0.023127489
195	0x3c75939c	0.014988806
196	0x3d9da484	0.076973945
197	0xbc4bd95e	-0.012441961
198	0xbd72b4a5	-0.059254307
199	0xbd19c230	-0.037538707
200	0x3cd20b87	0.025640262
201	0x3cc0aef7	0.02352093
202	0xbd25b279	-0.040453408
203	0xbddfc4be	-0.109261975
204	0x3d14cb2c	0.036326572
205	0x3d385174	0.044999555
206	0x3c8a3f18	0.016875789
207	0xbc359dae	-0.011084957
208	0xbc0f80d9	-0.008758747
209	0x3c90a556	0.017656963
210	0xbcae8cbd	-0.021307344
211	0xbce7af3c	-0.0282818
212	0x3bd5854d	0.006516135
213	0xbce6dd86	-0.028181802
214	0xbc4f5e43	-0.012656751
215	0x3d38ea66	0.045145415
216	0x3ba037cb	0.0048894635
217	0x3c8dfeb3	0.017333364
218	0x3d3aa77b	0.045569878
219	0xbe0eb353	-0.13935594
220	0xbc5acca7	-0.013354457
221	0x3dccc0dd	0.09997723
222	0xbdca7ec4	-0.0988746
223	0x3b28b1ca	0.0025740736
224	0xbd5fdf85	-0.054656524
225	0x3cfe0b60	0.031011283
226	0x3d1ecc42	0.038769014
227	0xbd8100f7	-0.06299012
228	0x3c67a02b	0.014137308
229	0xbb9d96fb	-0.004809258
230	0xbcf0ef23	-0.029410904
231	0xbd8b61ca	-0.06805761
232	0xbafe8f51	-0.0019421374
233	0xbdc7aaac	-0.0974935
234	0xbd05b326	-0.032641552
235	0xbcc07f62	-0.02349824
236	0xbc25f5cc	-0.010129403
237	0x3c8cb0b9	0.017174112
238	0xbce32c5e	-0.027731117
239	0x3d9864cf	0.07441103
240	0x3dd7e2de	0.10541318
241	0x3dc93b1f	0.098257296
242	0x3d8f9b56	0.0701205
243	0xbd7b13ee	-0.061298303
244	0x3ce121e9	0.02748199
245	0xbd594169	-0.053040896
246	0xbdba9e28	-0.09112197
247	0x3d21e458	0.039524406
248	0x3ae514d2	0.0017477518
249	0xbce3b4eb	-0.02779623
250	0xbd7f4d80	-0.06232977
251	0x3e11a6c5	0.14223774
252	0x3c6738fa	0.014112705
253	0xbdd538bb	-0.10411211
254	0xbd1a4ced	-0.03767102
255	0xbca113a1	-0.01966268

lstm.weight_hh_l1 f4 [512, 128]
0	0xbdf61af9	-0.120168634
1	0xbcd185a8	-0.025576428
2	0xbc1e9275	-0.009678473
3	0x3d87e3b8	0.06635231
4	0x3d8c689b	0.068558894
5	0xbe1b86b9	-0.15188111
6	0x3dc795d9	0.09745378
7	0xbba516fd	-0.005038141
8	0xbdaf5740	-0.085615635
9	0xbbbf8faa	-0.0058459835
10	0xbd9f3c9b	-0.077752315
11	0xbc17bb81	-0.009261013
12	0xbdb1cf6c	-0.08682141
13	0x3df56eb2	0.11984004
14	0x3d2defa2	0.04246486
15	0x3e1ce7cf	0.15322803
16	0xbd7ccb36	-0.061717235
17	0xbdf637ba	-0.12022348
18	0xbce1f6a5	-0.02758343
19	0x3b520edb	0.0032052312
20	0x3dc6071b	0.09669324
21	0xbdfb69ed	-0.12276063
22	0xbc039e0c	-0.008033287
23	0xbc37cfc8	-0.0112189725
24	0xbd22b7f3	-0.03972621
25	0x3d4303ca	0.047611035
26	0xbd3344d6	-0.04376682
27	0x3deb5e26	0.11492567
28	0xbc7c404a	-0.015396187
29	0x3dd83775	0.105574526
30	0x3cb79ff2	0.022415135
31	0x3e092041	0.1339121
32	0x3e4f82c4	0.20264727
33	0x3d5ced5e	0.05393731
34	0x3d4d7da4	0.05016865
35	0x3ca1956a	0.019724566
36	0xbcd8d3ee	-0.026468243
37	0xbc323933	-0.010877895
38	0xba91886f	-0.0011103282
39	0x3d318e7c	0.043348774
40	0x3d93997d	0.0720701
41	0x3df644cc	0.12024841
42	0xbd0725c4	-0.032995
43	0x3db4c9cb	0.088275515
44	0x3d8a4372	0.067511454
45	0x3e118e01	0.14214326
46	0xbdd55e0e	-0.1041833
47	0xbda1010d	-0.078615285
48	0x3d7105f6	0.058843575
49	0xbd2134c8	-0.039356977
50	0x3db3b85f	0.087754
51	0xbd0a469c	-0.033758745
52	0xbd249414	-0.04018028
53	0x3a8eb344	0.0010887166
54	0xbcaf1295	-0.021371165
55	0xbd45868c	-0.048224017
56	0x3db2e3c9	0.08734853
57	0xbdd99c3f	-0.10625505
58	0xbdae04a9	-0.084969826
59	0x3d9401ab	0.07226881
60	0x3cda1515	0.02662138
61	0xbd2897c2	-0.041160353
62	0x3da4daca	0.08049543
63	0x3e02efc2	0.12786773
64	0xbcca1359	-0.024667429
65	0xbd60c6e7	-0.054877188
66	0x3cb21665	0.021739194
67	0x3d561c26	0.05227294
68	0xbcdb9636	-0.026805025
69	0xbddb5d6f	-0.107111804
70	0x3da23d26	0.079218194
71	0xbdeac961	-0.11464191
72	0xbd6c0da1	-0.057630185
73	0xbe02be7b	-0.12767975
74	0x3d623465	0.05522575
75	0x3d77ffca	0.060546674
76	0x3d06b6a5	0.032889027
77	0xbcd1e33a	-0.025621045
78	0x3d3175dd	0.043325294
79	0x3c3c8283	0.011505726
80	0x3d861b5c	0.06548187
81	0xbd3a6013	-0.04550178
82	0xbc1dfbed	-0.009642583
83	0x3df62177	0.12018102
84	0x3c8b0c01	0.016973497
85	0x3d2d0616	0.042242132
86	0x3cf24331	0.029573055
87	0xbbec2199	-0.0072061536
88	0x3e11cd33	0.14238434
89	0x3d18aa36	0.0372717
90	0xbd7adb26	-0.061244152
91	0x3d0030f9	0.031296704
92	0x3c618c05	0.013766293
93	0xbd323ad0	-0.04351312
94	0x3c2bcf28	0.010486402
95	0x3dad9c72	0.08477105
96	0x3c17db53	0.0092686
97	0xbc8edf11	-0.01744035
98	0xbe011dcd	-0.12609024
99	0xbe290968	-0.16507494
100	0xbd5999da	-0.05312524
101	0x3ca65072	0.020302031
102	0x3d17733e	0.036975138
103	0x3dc9665e	0.09833978
104	0x3c0b1242	0.00848824
105	0x3d8f72e1	0.07004333
106	0xbe18bc84	-0.14915663
107	0xbe004da3	-0.12529616
108	0xbdbf5a8d	-0.09343443
109	0xbd25600c	-0.0403748
110	0xb979d5c2	-0.00023826121
111	0xbd325293	-0.04353578
112	0x3dfb0bb3	0.12258091
113	0x3d87c60d	0.06629572
114	0xbd4ba9e9	-0.049722586
115	0x3e080de5	0.1328655
116	0x3d5fc94b	0.054635327
117	0x3dafab69	0.08577616
118	0xbd6f632f	-0.0584442
119	0x3da76f3a	0.08175512
120	0xbdcccf9c	-0.10000536
121	0x3c81a130	0.01582393
122	0x3c813d0a	0.015776176
123	0x3ddacb84	0.10683349
124	0xbd2e6692	-0.042578287
125	0x3d8cebde	0.068809256
126	0xbc9559ac	-0.018231235
127	0x3e25a7ff	0.16177367
128	0xbdd9e042	-0.10638477
129	0x3cc75d8b	0.024336597
130	0xbd133dab	-0.035947483
131	0xbb7864a7	-0.003790179
132	0x3d7c9da8	0.06167379
133	0x3bd96172	0.006633931
134	0x3da73b16	0.081655666
135	0x3d9c2c28	0.0762561
136	0xbd924d12	-0.07143606
137	0xbad26b5f	-0.0016053728
138	0xbdd68ed1	-0.10476459
139	0xbd071a88	-0.032984287
140	0x3db0f604	0.08640674
141	0x3cdae12d	0.0267187
142	0xbcb8685e	-0.022510704
143	0x3df54f6f	0.119780414
144	0xbd13c5c5	-0.03607728
145	0xbd07eaa0	-0.03318274
146	0x3dbc9be5	0.09209422
147	0xbcacbee4	-0.021087117
148	0xbdc08c1d	-0.094017245
149	0xbd01a66f	-0.031652864
150	0xbd2440ec	-0.040100977
151	0x3d9288cf	0.071550004
152	0x3cd06ae7	0.0254416
153	0xbd2a433d	-0.04156803
154	0xbd6a4d88	-0.057202846
155	0xbe157ee6	-0.14599189
156	0x3d7bb2c9	0.0614498
157	0x3d80bcbd	0.06285999
158	0x3db69720	0.089155436
159	0xbe1e4fff	-0.15460204
160	0xbdc7b6e4	-0.097516805
161	0xb93c5fef	-0.00017964815
162	0x3c9fe8c0	0.019520164
163	0xbdd62714	-0.10456672
164	0xbdd3893b	-0.10328909
165	0x3aed40dc	0.0018100995
166	0x3c93e515	0.01805357
167	0xbd8379a1	-0.06419683
168	0x3d0b7b62	0.034053214
169	0x3d29addd	0.041425575
170	0xbc183bb4	-0.009291578
171	0xbd85e06f	-0.06536948
172	0x3ccaef8c	0.024772428
173	0xbdb051ca	-0.0860935
174	0xbd75ec6d	-0.060039926
175	0xbe46b523	-0.19405036
176	0xbc4250d8	-0.011860095
177	0xbd0dbcdd	-0.034603942
178	0xbd47b372	-0.048755117
179	0xbb5dd54c	-0.0033849059
180	0x3d8f3e6d	0.06994329
181	0xbe1f4126	-0.15552196
182	0x3dcf5a78	0.101246774
183	0xbd4d3c1a	-0.050106145
184	0xbdbe376c	-0.09287915
185	0xbdd5f11d	-0.10446379
186	0xbd80a0b1	-0.062806495
187	0xbcf044de	-0.029329713
188	0xbdb75a2d	-0.089527465
189	0x3dd8ec40	0.10591936
190	0xbd2ffae1	-0.042963866
191	0xbac6a30a	-0.0015154791
192	0x3da9bb58	0.08287686
193	0xbd2922ed	-0.041293073
194	0xbe0a85c0	-0.13527584
195	0xbd8ac6b2	-0.067761794
196	0x3a10eb85	0.0005528259
197	0xbe0aca09	-0.13553633
198	0xbdcbd1af	-0.09952103
199	0x3df08317	0.117437534
200	0xbcc5b6b1	-0.024134966
201	0xbda9dbed	-0.08293901
202	0x3de601a3	0.11230781
203	0xbd882faa	-0.06649716
204	0xbdce0fdf	-0.10061621
205	0x3baa372b	0.005194565
206	0xbe285ed5	-0.16442426
207	0x3d04ab79	0.03239009
208	0x3d78d03f	0.060745474
209	0x3ded09fd	0.11574171
210	0x3dbb7251	0.091526635
211	0xbcc6bda2	-0.024260346
212	0x3a22b06b	0.0006206098
213	0x3d8a4490	0.067513585
214	0x3cec960d	0.028880144
215	0xbe1e67e7	-0.15469323
216	0x3bc8772f	0.0061177234
217	0x3c0151b2	0.007893013
218	0xbb8145a3	-0.003945069
219	0x3da70e5c	0.08157036
220	0xb877118d	-5.8905734e-05
221	0x3d94062b	0.07227739
222	0x3d25ade7	0.04044905
223	0x3c8264ae	0.015917148
224	0x3cda848c	0.026674531
225	0x3ccf2aa6	0.025288891
226	0xbcd672c8	-0.026177779
227	0x3d91c9fc	0.071186036
228	0xbe325d1c	-0.17418331
229	0x3d989b72	0.07451524
230	0x3dda936b	0.10672649
231	0x3d2e9334	0.042620853
232	0x3d3652a0	0.04451239
233	0xbc5067eb	-0.0127200885
234	0xbbbb3f26	-0.005714315
235	0xbc948f04	-0.018134601
236	0x3a74e7c5	0.00093423977
237	0x3de08d2e	0.10964428
238	0x3cb0e2b8	0.021592483
239	0x3c1458de	0.009054391
240	0xbd95613f	-0.07293939
241	0x3d02f54c	0.031972215
242	0x3d4f6226	0.05063071
243	0xbd7ed29c	-0.06221257
244	0xbc9f7fee	-0.019470181
245	0xbd5e2ec7	-0.05424383
246	0xbc23513e	-0.0099681
247	0xbe018634	-0.1264885
248	0xbd05cb1f	-0.032664414
249	0x3bcc38fd	0.0062323795
250	0x3cab6189	0.020920532
251	0xbd9eb4cb	-0.07749327
252	0xbcf554f0	-0.029947728
253	0xbdfb4125	-0.12268285
254	0xbd1b36e1	-0.037894133
255	0xbd399086	-0.045303844

lstm.bias_ih_l1 f4 [512]
0	0x3d7a906a	0.06117288
1	0xbc021c9e	-0.007941393
2	0xbda6d747	-0.0814653
3	0xba42617c	-0.0007415039
4	0xbdb71e57	-0.08941334
5	0x3d2c2405	0.04202654
6	0xbe2968e7	-0.16543923
7	0xbcefab6b	-0.029256543
8	0xbd58463f	-0.052801367
9	0x3ca25f78	0.019820914
10	0xbd92203e	-0.07135056
11	0xbdf37a75	-0.11888591
12	0xbdfb8627	-0.12281447
13	0xbd8ff893	-0.07029834
14	0xbe0c8ea1	-0.13726284
15	0xbdd46610	-0.103710294
16	0x3d03fb98	0.03222236
17	0xbd730621	-0.059332017
18	0xbd56de0e	-0.05245786
19	0x3b131f0a	0.002244892
20	0xbddb07fe	-0.10694884
21	0xbd879015	-0.06619278
22	0xbcbb53ce	-0.02286711
23	0xbd09345c	-0.0334972
24	0x3d8a9ef2	0.06768598
25	0xbc1c18c3	-0.009527388
26	0xbe18b350	-0.14912152
27	0xbc89d6fa	-0.016826142
28	0xbda0cb8e	-0.07851325
29	0xbe011a47	-0.1260768
30	0xbdc25a75	-0.094899096
31	0xbd232289	-0.039827857
32	0x3b6a6729	0.0035767055
33	0xbd05a026	-0.032623433
34	0xbe10bccb	-0.14134519
35	0xbd1df90f	-0.0385676
36	0xbdc36188	-0.09540087
37	0xbbdc9e01	-0.0067327027
38	0xbe29ad23	-0.16569953
39	0xbd40b421	-0.047046784
40	0xbd9870c0	-0.0744338
41	0xbd96e65b	-0.073681556
42	0xbe0b752b	-0.13618915
43	0xbd17645a	-0.036960937
44	0xbddc1da1	-0.10747839
45	0x3d8158ef	0.06315791
46	0xbd942b98	-0.07234877
47	0xbe3486d6	-0.17629561
48	0xbdb15765	-0.08659247
49	0x3b76a660	0.0037635788
50	0xbe3d2130	-0.18469691
51	0xbda629c2	-0.081134334
52	0xbd1cd99e	-0.038293473
53	0x3bd3742b	0.0064530573
54	0xbda2176d	-0.07914624
55	0xbd19ee47	-0.037580755
56	0xbda7811c	-0.081789225
57	0xbe4692a8	-0.19391882
58	0xbd4e0698	-0.050299257
59	0xbd8eee46	-0.06979041
60	0xbe4a46ac	-0.19753522
61	0xbcb68644	-0.02228082
62	0xbe02ec48	-0.12785447
63	0xbd2a5941	-0.041589025
64	0xbe119ed6	-0.14220747
65	0x3d1ab76d	0.037772585
66	0xbdb8463f	-0.089977734
67	0xbd1de074	-0.038544133
68	0x3c0c3618	0.008557819
69	0xbcf35a34	-0.029706098
70	0x3c86e2e3	0.01646561
71	0xbd8260fd	-0.06366155
72	0xbe19c097	-0.15014873
73	0x3d85c225	0.06531171
74	0xbe08770c	-0.13326663
75	0xbe0d47b2	-0.13796881
76	0xbcfe36e6	-0.031032037
77	0xbe10ca61	-0.14139701
78	0x3ce7b605	0.028285036
79	0xbd95860a	-0.073009565
80	0x3cc43851	0.023952635
81	0x3d61df41	0.055144552
82	0xbe287600	-0.16451263
83	0x3b1f0b2f	0.002426814
84	0xbddaaaa1	-0.10677076
85	0xbe3a903d	-0.18219085
86	0xbddc2a32	-0.107502356
87	0xbc703996	-0.014662167
88	0x3d56d482	0.052448757
89	0xbdb17246	-0.08664374
90	0xbd5a9464	-0.053364173
91	0x3d242395	0.040072996
92	0x3d0c6ca4	0.034283295
93	0xbe4c8c6c	-0.19975442
94	0xbddc1814	-0.1074678
95	0xbdf02c71	-0.117272265
96	0xbdbda3cd	-0.09259758
97	0xbe0e12b0	-0.13874316
98	0xbe3631a9	-0.17792381
99	0xbdc98cef	-0.09841334
100	0x3b3d1245	0.002885
101	0xbbb55f5c	-0.0055350494
102	0xbb8bbf57	-0.004264753
103	0xbd249602	-0.04018212
104	0xbcebe76b	-0.028796872
105	0xbd8c210e	-0.06842242
106	0xbe27a270	-0.16370559
107	0xbd7017bf	-0.058616396
108	0xbd10a084	-0.03530933
109	0x3cf5e477	0.030016167
110	0xbc7313af	-0.014836236
111	0xbd2170c6	-0.03941419
112	0xbe19fc78	-0.15037715
113	0xbd903d01	-0.070428856
114	0xbdfb3700	-0.1226635
115	0xbd5dd329	-0.054156456
116	0xbdd58b29	-0.10426933
117	0xbdae3b8b	-0.08507451
118	0xbe2cad66	-0.16863021
119	0xbdabf651	-0.083965905
120	0xbdc79b73	-0.097464465
121	0xbdd3ed02	-0.1034794
122	0x3ca9d90b	0.020733377
123	0xbd92f1ec	-0.07175049
124	0xbe51ec55	-0.2050031
125	0xbd226f03	-0.03965665
126	0xbc63c648	-0.013902254
127	0x3dd10444	0.10205892
128	0x3cb3d0b5	0.021950105
129	0xbdf8aeff	-0.12142753
130	0xbdb47fce	-0.08813439
131	0x3cc9b440	0.024622083
132	0x3b74cdb2	0.003735405
133	0xbd908cca	-0.070581034
134	0xbd93ad78	-0.07210821
135	0xbdbc5d54	-0.091974884
136	0xbd7c6412	-0.061618872
137	0xbd973b29	-0.07384331
138	0xbe0cc60a	-0.13747421
139	0xbde71e40	-0.112850666
140	0xbd9df2eb	-0.077123486
141	0xbc2ad6cd	-0.010427189
142	0xbe293245	-0.16523083
143	0xbd6eaa09	-0.058267627
144	0xbd5d6417	-0.05405053
145	0xbe50b95a	-0.20383206
146	0xbdd670b1	-0.10470713
147	0x3c3b420a	0.011429319
148	0xbddece58	-0.10879201
149	0xbdbf0307	-0.09326749
150	0x3c1ed861	0.009695143
151	0xbe40e832	-0.18838575
152	0x3dd3e42b	0.10346254
153	0xbb13cbfc	-0.0022552004
154	0xbd034178	-0.032044858
155	0xbdb37659	-0.087628074
156	0xbd088855	-0.03333314
157	0xbd95455f	-0.07288622
158	0xbdeac9b8	-0.11464256
159	0xbe396fc4	-0.18109041
160	0xbd2e86b4	-0.04260893
161	0x3caaaf7c	0.02083563
162	0xbdd5e8f6	-0.104448244
163	0xbaec8ca0	-0.0018047281
164	0x3bee7190	0.0072767213
165	0xbce72c64	-0.02821941
166	0xbe090173	-0.13379459
167	0xbd92b021	-0.071625
168	0xbd281f96	-0.041045748
169	0xbe095d55	-0.1341451
170	0xbe1987e5	-0.14993246
171	0xbdcb4fbd	-0.09927318
172	0xbe104db8	-0.14092147
173	0xbbe84504	-0.0070883054
174	0xbdce287d	-0.10066316
175	0xbc2b5053	-0.0104561625
176	0x3bb00a10	0.0053722933
177	0xbd07b371	-0.033130113
178	0xbd766cac	-0.06016223
179	0xbc9385c4	-0.01800812
180	0xbdd6c085	-0.10485939
181	0x3e1429a6	0.14469013
182	0xbe337e96	-0.17528757
183	0xbbadbf16	-0.0053023202
184	0x3d15aced	0.036541868
185	0xbe45dde6	-0.19322929
186	0x3d9f81ae	0.07788406
187	0x3d7c3ea9	0.061583195
188	0xbca00c2c	-0.019537054
189	0xbd8cefd5	-0.06881682
190	0x3daf1ab8	0.08550018
191	0x3d3961c9	0.04525927
192	0xbe2285d7	-0.15871368
193	0x3d4b8aaf	0.049692806
194	0xbd96f409	-0.07370765
195	0xbe2f35ec	-0.17110413
196	0x3d8162cc	0.06317672
197	0xbe09651d	-0.13417478
198	0xbdb4bbbc	-0.0882487
199	0xbd3bcfe4	-0.045852557
200	0xbe07800d	-0.13232441
201	0xbc4023f4	-0.011727322
202	0xbc4a23a6	-0.012337601
203	0xbe07f962	-0.13278726
204	0xbc431675	-0.01190721
205	0xbdebf107	-0.11520582
206	0xbdf00c44	-0.117210895
207	0x3cbcfa46	0.023068558
208	0x3d3eebea	0.046611704
209	0xbca9e23b	-0.020737758
210	0xbcd174b1	-0.025568338
211	0xbd8218c3	-0.06352379
212	0xbd29aefe	-0.04142665
213	0xbdba4f72	-0.09097184
214	0xbd98231d	-0.07428572
215	0xbd066fa0	-0.032821298
216	0xbcb0410e	-0.021515395
217	0xbd89ed2a	-0.067346886
218	0xbd04b991	-0.032403532
219	0xbd308234	-0.04309292
220	0xbd61a5bc	-0.055089697
221	0xbe0a998f	-0.1353514
222	0xbd4ea630	-0.050451458
223	0xbd6d8ef8	-0.057997674
224	0xbe0ab120	-0.1354413
225	0xbdda5626	-0.10660963
226	0xbce66898	-0.028126046
227	0x3c856362	0.016282741
228	0xbd218ee8	-0.039442927
229	0xbd847acc	-0.06468734
230	0xbdebe7a9	-0.11518795
231	0xbe219d97	-0.15782772
232	0xbd87b545	-0.06626371
233	0xbd22101d	-0.039566148
234	0xbe391404	-0.18074042
235	0xbdaf2caf	-0.085534446
236	0x3c3d45d7	0.011552296
237	0xbe46abd9	-0.19401492
238	0x3db9bde6	0.090694234
239	0xbd145842	-0.03621698
240	0xbd9c08c9	-0.07618863
241	0xbce7824a	-0.028260369
242	0xbe075bce	-0.13218614
243	0xbdb313e2	-0.08744027
244	0xbc108093	-0.008819717
245	0xbdf78baa	-0.12087186
246	0xbca14698	-0.019686982
247	0xbe211b31	-0.15733029
248	0xbc624ed3	-0.0138127385
249	0xbe2340a0	-0.15942621
250	0xbd16a61a	-0.0367795
251	0xbd7a08bc	-0.061043486
252	0xbd9fdeee	-0.07806192
253	0xbe239544	-0.15974909
254	0xbd7e02d5	-0.06201442
255	0x3e2d75ab	0.16939418
