SimLoan/VACA/exper_test_10pct_noise_l/toy_/vaca/dgnn_elbo_8_8_16_4_normal_0.0_0.2_0.0_0.0_0_True_[BernoulliLikelihood()]_[NormalLikelihood()]_[NormalLikelihood()]_[BernoulliLikelihood()]_[NormalLikelihood()]_[NormalLikelihood()]_[BernoulliLikelihood()]_7_21/adam/0.005_0.9_0.999_1.2e-06_exp_lr_0.99/9/ckpt/last.ckpt (torch, 166358 bytes, 81 tensors)

model._encoder_embeddings.0.0.weight f4 [16, 1]
0	0x802d0c86	-4.13709e-39
1	0xbdb5f46f	-0.08884513
2	0x81387b15	-3.388377e-38
3	0xb71eb4dd	-9.459644e-06
4	0xbb1f1ce6	-0.00242787
5	0xbcaa97d5	-0.020824352
6	0xbe6b4cc8	-0.22978508
7	0xbac2cbb4	-0.0014861734
8	0x3e5b69de	0.21427104
9	0x3f108c14	0.5646374
10	0xbe7bea9c	-0.24601215
11	0xb882972b	-6.22704e-05
12	0xbecd1959	-0.400584
13	0x3eed1686	0.46306247
14	0xbdfe9108	-0.12430006
15	0x3f4274a7	0.7595925

model._encoder_embeddings.0.0.bias f4 [16]
0	0xbb0c97c9	-0.0021452776
1	0x3ecde435	0.4021317
2	0x81e125cb	-8.2706177e-38
3	0xba492b5c	-0.00076740026
4	0xbc4bfde3	-0.012450668
5	0x3dd8a780	0.10578823
6	0x3f1afd47	0.6054272
7	0xbb8c2be3	-0.0042776926
8	0x3f11778e	0.5682305
9	0x3eb771ef	0.35829112
10	0x3e674b13	0.22587232
11	0xbc7b7668	-0.0153480545
12	0x3ec8be0b	0.3920749
13	0x3e264e9f	0.16240929
14	0x3dddc7fa	0.10829158
15	0xbe09beab	-0.1345164

model._encoder_embeddings.1.0.weight f4 [16, 1]
0	0xbec8123d	-0.39076415
1	0x3e4a8b97	0.19779812
2	0xb88bf4df	-6.673647e-05
3	0xbf2f4d20	-0.6847706
4	0x3f0ca45e	0.54938304
5	0x3f0ecea3	0.5578405
6	0x3ef0c690	0.4702649
7	0xbe8ad897	-0.2711837
8	0xbf458633	-0.77157897
9	0x3eb72a30	0.35774374
10	0xbf609854	-0.87732434
11	0xbd07a311	-0.033114497
12	0x3f2e076e	0.67980087
13	0x3c67e5d1	0.014153914
14	0xbeb0ad1d	-0.34507075
15	0xbce96c12	-0.028493915

model._encoder_embeddings.1.0.bias f4 [16]
0	0xbf8c4b14	-1.0960412
1	0x3bad05b0	0.005280219
2	0xbbe7f167	-0.007078338
3	0xbc1f2e25	-0.009715592
4	0x3dec274e	0.11530934
5	0x3c1081f9	0.00882005
6	0x3eab16f3	0.33415946
7	0x3f2e4fbf	0.6809043
8	0xbe29f0e6	-0.16595802
9	0xbf66495e	-0.899557
10	0xbf1e2ddf	-0.61788744
11	0x3f803ce8	1.0018587
12	0x3ef3aa80	0.4759102
13	0xbd990a3e	-0.07472657
14	0x3f5e5c3b	0.8685948
15	0xbde91cc7	-0.11382442

model._encoder_embeddings.2.0.weight f4 [16, 1]
0	0x3ea6ddef	0.32591197
1	0x3dfcab46	0.12337355
2	0x3f389bb6	0.72112596
3	0x3f541bb6	0.82854784
4	0x3e97e2f0	0.29665327
5	0x3e5ba358	0.2144903
6	0x3cbd1f03	0.023086077
7	0x3dcf93ca	0.101356104
8	0xbf34c260	-0.7060909
9	0x3e820b52	0.25399262
10	0xbf5c2bdc	-0.86004424
11	0xbbf820a8	-0.0075722523
12	0x3e67e464	0.22645718
13	0xbe67ca11	-0.22635676
14	0x3e0cd521	0.13753177
15	0xbf381c52	-0.71918213

model._encoder_embeddings.2.0.bias f4 [16]
0	0xbea115ea	-0.31462032
1	0x3f15252b	0.5825984
2	0x3f007121	0.5017262
3	0xbf45c9f4	-0.7726128
4	0xbf7bd971	-0.98378664
5	0x3f2f7396	0.68535745
6	0xbda7c4ed	-0.081918575
7	0x3edc5842	0.43036085
8	0xbefbbe6d	-0.4916872
9	0x3e318b21	0.1733823
10	0x3f4d2e4a	0.80148757
11	0x3f545097	0.8293547
12	0x3cf28d95	0.029608527
13	0x3e588e11	0.21147944
14	0xbdf0ad5d	-0.117518164
15	0xbdc2fabf	-0.09520482

model._encoder_embeddings.3.0.weight f4 [16, 1]
0	0x3e5a6017	0.21325718
1	0xaa4eb43a	-1.8359004e-13
2	0x3e4d37c0	0.20040798
3	0x002c92db	4.093444e-39
4	0xbeab2288	-0.33424783
5	0xb68ce914	-4.199459e-06
6	0xa48db344	-6.145269e-17
7	0x802cd867	-4.118392e-39
8	0x945f6df0	-1.1280304e-26
9	0x3e26fb75	0.1630686
10	0x3dec833c	0.115484685
11	0xb0bc4cca	-1.3700625e-09
12	0xbf31bfb3	-0.69433135
13	0x3f6cb599	0.92464596
14	0xbe96483c	-0.29351985
15	0xa493ced2	-6.4101455e-17

model._encoder_embeddings.3.0.bias f4 [16]
0	0x3d01c8c3	0.031685602
1	0xbb0a60f0	-0.0021114908
2	0x3d004496	0.03131541
3	0xb9abc830	-0.00032764813
4	0x3eaa886b	0.33307204
5	0xb8c6d385	-9.480774e-05
6	0xa663aa77	-7.898747e-16
7	0xa06af5ba	-1.9901875e-19
8	0xad288563	-9.579312e-12
9	0xbe289eaa	-0.16466776
10	0xbdf416b4	-0.11918393
11	0xb2c8fe4d	-2.3398707e-08
12	0x3f32199c	0.69570327
13	0xbdfdaa93	-0.1238605
14	0x3e984945	0.297434
15	0xae5e9e18	-5.061737e-11

model._encoder_embeddings.4.0.weight f4 [16, 1]
0	0xbe4c1bff	-0.19932555
1	0x9e3c90ac	-9.9825546e-21
2	0xbe674844	-0.22586161
3	0x3f00b3bd	0.5027426
4	0x3e8d8942	0.27643782
5	0xbe656955	-0.22403462
6	0xbdd9b23f	-0.10629701
7	0x3dfc4019	0.12316913
8	0xbd8ed59f	-0.06974339
9	0x3e35410e	0.17700598
10	0xbe845004	-0.25842297
11	0x3e62624f	0.22107814
12	0x3ea331ee	0.3187403
13	0x3ecff431	0.4061599
14	0xbeab960e	-0.3351292
15	0x3c8fe125	0.017563412

model._encoder_embeddings.4.0.bias f4 [16]
0	0x3d732a24	0.05936636
1	0xa5ce87d7	-3.5827352e-16
2	0x3ed5501a	0.41662675
3	0xbf6c3db5	-0.9228166
4	0xbda82998	-0.082110584
5	0xbe2b1b5d	-0.16709657
6	0x3e491797	0.19637905
7	0x3db582b9	0.08862824
8	0xbdc42fbe	-0.095794186
9	0x3f250594	0.64461637
10	0xbf0b9c1e	-0.5453509
11	0xbd88cc0e	-0.06679545
12	0xbf665ba2	-0.8998357
13	0xbf3f3ec1	-0.7470513
14	0xbf119c82	-0.56879437
15	0xbd705c61	-0.05868185

model._encoder_embeddings.5.0.weight f4 [16, 1]
0	0xbe42976c	-0.19003075
1	0x3a81ab0f	0.0009892898
2	0xbe946114	-0.28980315
3	0x3a7ff0fa	0.00097633863
4	0x3ea4d06b	0.3219026
5	0x3ef2f341	0.47451213
6	0xbf34fafc	-0.7069547
7	0x32990b1d	1.7816598e-08
8	0xbef5fc5f	-0.48044106
9	0x3ed2ca1f	0.4116983
10	0xbf839f90	-1.028307
11	0x3e18b98a	0.14914528
12	0x3f1d6aac	0.61490893
13	0xbcf7a202	-0.030228619
14	0x3ef11e37	0.47093365
15	0xbe9f128c	-0.31068838

model._encoder_embeddings.5.0.bias f4 [16]
0	0xb9bd41a5	-0.00036097798
1	0xbbb95a03	-0.005656482
2	0x3f6183d2	0.88091767
3	0xbbc3e9be	-0.005978792
4	0xbe298355	-0.16554005
5	0xbf91e5d1	-1.1398259
6	0xbe7243ec	-0.23658723
7	0xb37c15cf	-5.8693157e-08
8	0xbea1cd0c	-0.3160175
9	0x3f7e398f	0.9930658
10	0x3f012dc2	0.50460446
11	0xbef76459	-0.48318747
12	0xbea42a23	-0.32063398
13	0xbd9ab735	-0.07554475
14	0xbe75d2d4	-0.24006206
15	0xbd4d6fee	-0.050155573

model._encoder_embeddings.6.0.weight f4 [16, 1]
0	0x3f28a77c	0.6588056
1	0x802c9232	-4.093207e-39
2	0x002c8d35	4.091417e-39
3	0x802c969c	-4.09479e-39
4	0x3f32019e	0.6953372
5	0x3ecc2a3a	0.39875966
6	0x937c0d18	-3.1813327e-27
7	0x3e3137be	0.1730642
8	0x3d8f33a0	0.069922686
9	0x002c88cf	4.08984e-39
10	0x802cb9a3	-4.107356e-39
11	0x802d75ad	-4.174811e-39
12	0x802d6b1c	-4.171021e-39
13	0xbea04b0e	-0.31307262
14	0xbd89d441	-0.06729937
15	0x002c9566	4.094356e-39

model._encoder_embeddings.6.0.bias f4 [16]
0	0x3eadc022	0.33935648
1	0x802c8611	-4.088856e-39
2	0x9b99a418	-2.541777e-22
3	0x812350e7	-2.9996416e-38
4	0xbe86b37c	-0.2630881
5	0xbe503675	-0.20333274
6	0xb7ae3700	-2.0768028e-05
7	0x3ecca1d9	0.3996723
8	0x3e224415	0.15846284
9	0x8203fde2	-9.697221e-38
10	0x802cad71	-4.102981e-39
11	0xb7a77814	-1.9963867e-05
12	0x8034013f	-4.775893e-39
13	0x3ef5f10a	0.4803546
14	0x3d880419	0.066414066
15	0x8696b1fa	-5.668524e-35

model.encoder_module.convs.0.m_net_list.0.weights.weight f4 [256, 21]
0	0xafa58ac0	-3.0111913e-10
1	0x39009369	0.00012261946
2	0x3e4d23a3	0.20033126
3	0xbb7a44a6	-0.003818789
4	0x3e3b497a	0.18289748
5	0xba27503c	-0.00063825
6	0xbdef33aa	-0.11679776
7	0xbd8d35a1	-0.068949945
8	0xbe61ec5c	-0.2206282
9	0x3c97c25b	0.018525293
10	0xbd3cebdf	-0.04612338
11	0x3dc1b17d	0.09457681
12	0x3e0cb237	0.13739859
13	0x3d140288	0.036135226
14	0xbcb059f8	-0.021527275
15	0x3d5a797a	0.053338505
16	0xbe48ab20	-0.19596529
17	0x3d047dae	0.03234642
18	0xbdd7dabd	-0.10539768
19	0xbcb33e3c	-0.021880262
20	0x3d545d73	0.051846933
21	0x21905495	9.780208e-19
22	0xba1e2cb5	-0.00060338835
23	0xbcb72796	-0.022357743
24	0x3df78a35	0.12086908
25	0xbd82f257	-0.06393879
26	0x3ab71a0a	0.0013969552
27	0xbc2975f6	-0.0103430655
28	0x3e67b4a6	0.22627506
29	0x3bbee452	0.0058255577
30	0x3df4c09b	0.11950799
31	0x3de658ea	0.11247428
32	0xbe0d1a45	-0.13779552
33	0xbda00919	-0.07814235
34	0xbc74a6c9	-0.014932343
35	0xbde8fbe1	-0.11376167
36	0xbe0767fc	-0.1322326
37	0x3e41a81e	0.18911788
38	0x3d441eb0	0.04788083
39	0x3e44597e	0.19174764
40	0x3e4971d8	0.19672334
41	0x3c2e22df	0.010628431
42	0x13252526	2.0844243e-27
43	0x3b1e1938	0.0024123918
44	0xbe1302cf	-0.1435654
45	0xbd940376	-0.072272226
46	0xbe6f6b10	-0.23380685
47	0x3b886076	0.0041618897
48	0x3e287f51	0.16454817
49	0xbe3a55ac	-0.18196744
50	0x3dbb0a9e	0.091328844
51	0x3db0a6de	0.086255774
52	0x3df4c076	0.119507715
53	0x3e1c5547	0.15266906
54	0x3bcd6dda	0.006269199
55	0xbd3c2434	-0.045932963
56	0xbab3a4a1	-0.001370568
57	0x3cc5fe82	0.02416921
58	0xbbb817a4	-0.0056180526
59	0x3d47f7e5	0.048820395
60	0x3c53c518	0.012925409
61	0xbd746e5f	-0.05967557
62	0xbd36b564	-0.04460658
63	0x2da772ae	1.903663e-11
64	0xbdbf93af	-0.0935434
65	0x3d349b92	0.044093676
66	0x3d51b347	0.051196363
67	0xbdb95497	-0.09049337
68	0xbb7e8965	-0.0038839218
69	0x3da88cb2	0.082299605
70	0xbe74f91c	-0.23923153
71	0x3a715ffc	0.0009207723
72	0xbdec0c90	-0.115258336
73	0x3dd9fc19	0.10643787
74	0xbdb00cc9	-0.085961886
75	0xbc773f5e	-0.0150907915
76	0xbe0c0ae0	-0.13676023
77	0x3e3862f6	0.180065
78	0x3e060520	0.13087893
79	0xbda55870	-0.08073509
80	0xbc41eb74	-0.011835922
81	0x3dffddd2	0.12493481
82	0xbde587ab	-0.11207517
83	0xbdcb7c3b	-0.099358045
84	0x2667c5b6	8.0412173e-16
85	0xb5a088ff	-1.19608e-06
86	0x3dbbfb86	0.09178834
87	0xbdb94e8e	-0.09048186
88	0x3e1fd41c	0.15608257
89	0x374837c2	1.1933911e-05
90	0xbe46b635	-0.19405444
91	0x3b81e856	0.003964464
92	0xbd894b4c	-0.06703815
93	0x3e3388f6	0.17532715
94	0xbd1bc6ce	-0.03803139
95	0xbe3aceb8	-0.1824292
96	0xbe363a4f	-0.1779568
97	0xbe3b1ff7	-0.18273912
98	0xbdaf797f	-0.085680954
99	0xbbf37cf9	-0.0074306694
100	0x3b555fd4	0.0032558339
101	0xbdad3e77	-0.0845918
102	0x3e07820c	0.13233203
103	0x3e279818	0.16366613
104	0xbe3dd15b	-0.18536894
105	0x83531d48	-6.204094e-37
106	0x3a11506b	0.0005543294
107	0xbc4cf3a4	-0.01250926
108	0xbe30daf1	-0.1727102
109	0xbe0fb279	-0.14032926
110	0xba52901f	-0.000803234
111	0x3cc59387	0.024118198
112	0x38f4c624	0.00011671733
113	0xbd2a5ca2	-0.041592248
114	0xbb8ee9bb	-0.004361359
115	0xbdb19fcd	-0.08673058
116	0x3e107e03	0.1411057
117	0xbe8a96c8	-0.27068162
118	0x3e552ec5	0.20818622
119	0x3d3fcdd5	0.046827156
120	0x3d9c10aa	0.07620366
121	0x3da215e2	0.0791433
122	0x3dacf9af	0.08446061
123	0x3d275ce3	0.040860068
124	0x3dbfa034	0.09356728
125	0xbe1063e4	-0.14100605
126	0x96ba663d	-3.0114442e-25
127	0x36b83339	5.4895904e-06
128	0x3e3e428c	0.18580073
129	0xbe1e1f21	-0.15441562
130	0xbe4c5e68	-0.19957888
131	0xb84a3009	-4.820529e-05
132	0xbdbac375	-0.09119312
133	0x3baec79f	0.0053338553
134	0x3d016518	0.03159055
135	0xbd96881f	-0.07350182
136	0x3d33fa38	0.0439398
137	0x3dcae391	0.09906686
138	0x3e8eba08	0.27876306
139	0x3d76b404	0.06023027
140	0xbdd16fe6	-0.10226421
141	0x3de7bb8f	0.11315071
142	0xbe37379c	-0.17892307
143	0xbe187651	-0.14888884
144	0x3e28d055	0.16485722
145	0xbd613cb6	-0.05498954
146	0xbdb3ac43	-0.08773091
147	0x9a723371	-5.008598e-23
148	0xba1abd65	-0.0005902856
149	0x3c6d8e47	0.014499254
150	0xbd9424c2	-0.072335735
151	0x3d443451	0.047901455
152	0x3ae2dbdd	0.0017307956
153	0xbd2d3f01	-0.042296413
154	0xbd53b455	-0.05168565
155	0x3dad4646	0.08460669
156	0x3f1ff0d8	0.62476873
157	0x3e5d2757	0.21597038
158	0xbbc4060f	-0.0059821676
159	0x3df27ef5	0.118406214
160	0xbe48d46e	-0.19612285
161	0xbd8e8ed7	-0.06960838
162	0x3d37433f	0.044741865
163	0x3d75bb9a	0.059993364
164	0x3ddd9331	0.1081909
165	0x3e0e81b5	0.13916667
166	0x3dd43bf4	0.10362998
167	0x3d038c20	0.032116055
168	0xbe149eea	-0.14513746
169	0x3d3751e3	0.044755828
170	0x3e193bf6	0.1496428
171	0x002c91a6	4.09301e-39
172	0x3ca4b264	0.020104595
173	0x3cd262f0	0.025681943
174	0xbddbefdc	-0.10739109
175	0xb19c0e1e	-4.5418025e-09
176	0x002c890b	4.089924e-39
177	0xbc0ef40e	-0.008725179
178	0xb2e9f9ab	-2.7238306e-08
179	0xbc5d6c45	-0.013514583
180	0x33905ecb	6.722765e-08
181	0x002c91a6	4.09301e-39
182	0x3d0c9bbc	0.034328207
183	0x002ca634	4.100384e-39
184	0xbbcfaaa3	-0.00633748
185	0x002c851d	4.088514e-39
186	0xbc3f6580	-0.011681914
187	0x002c9555	4.094332e-39
188	0x802c8c93	-4.09119e-39
189	0x3e0e022f	0.1386802
190	0xbd4fb691	-0.05071122
191	0x3dedff4c	0.1162096
192	0x002c8e75	4.091866e-39
193	0x3ce6ddf0	0.028182
194	0x3dc75811	0.09733594
195	0xbe0bb514	-0.13643295
196	0xb437e8a1	-1.7127833e-07
197	0x002c99ea	4.095976e-39
198	0x3deaf49d	0.114724375
199	0xb5d19e5d	-1.5617803e-06
200	0x3cb6c442	0.02231038
201	0x39831fa2	0.00025009835
202	0x002c9b08	4.096377e-39
203	0x39fc12ab	0.00048079094
204	0x002c930d	4.093514e-39
205	0xbcff3266	-0.031151962
206	0x002c85e1	4.088789e-39
207	0x3c3e16d7	0.011602125
208	0x002c8442	4.088207e-39
209	0x002c9075	4.092583e-39
210	0xbdee5f3c	-0.11639258
211	0x3db5a2a6	0.08868913
212	0xbd55f6ed	-0.05223744
213	0x802c9552	-4.094328e-39
214	0xbc9897d5	-0.018627087
215	0x3ce7946a	0.028269012
216	0xbdcfca36	-0.101459906
217	0xb3846556	-6.165162e-08
218	0x802c949e	-4.094076e-39
219	0xbdd12b4e	-0.10213338
220	0xb40d5b0b	-1.316477e-07
221	0x3c1f18d5	0.00971051
222	0x33d463ee	9.8901964e-08
223	0x802c9552	-4.094328e-39
224	0xbd359990	-0.0443359
225	0x802c99d5	-4.095946e-39
226	0x3c89386e	0.01675054
227	0x002c8e5c	4.091831e-39
228	0x3d40391a	0.046929456
229	0x002c97b3	4.095181e-39
230	0x002c82bb	4.087659e-39
231	0x3e344f4b	0.17608373
232	0xbe065a99	-0.13120498
233	0xbe63b67f	-0.22237585
234	0x88d2cbd7	-1.2686838e-33
235	0xbcf93724	-0.0304218
236	0xbe17ecee	-0.14836475
237	0x3d07290e	0.032998137
238	0xb6d998bf	-6.484886e-06
239	0x88d2cc41	-1.2686935e-33
240	0x3e107308	0.14106381
241	0xb6fd2e44	-7.5453736e-06
242	0x3cad37f4	0.021144845
243	0x374d9b87	1.2255164e-05
244	0x88d2cbd7	-1.2686838e-33
245	0x3d53193c	0.051537737
246	0x8a9a1722	-1.4838362e-32
247	0x3bea1396	0.007143448
248	0x002c8360	4.08789e-39
249	0xbdc65ce5	-0.09685687
250	0x002c91bf	4.093046e-39
251	0x802c8cf5	-4.091328e-39
252	0xbde8161b	-0.11332341
253	0xbcfb023d	-0.030640716
254	0xbe4a1c29	-0.19737305
255	0x002c9ccf	4.097014e-39

model.encoder_module.convs.0.m_net_list.0.bias.weight f4 [8, 21]
0	0x3d7797fe	0.060447685
1	0x3e03494a	0.12820926
2	0x3c9774c0	0.018488288
3	0xbd5d52d4	-0.05403407
4	0xbd0af643	-0.03392626
5	0xbb83e494	-0.0040250514
6	0x3e4bcf27	0.19903241
7	0x3cf82cf5	0.030294875
8	0xbe23eb34	-0.16007692
9	0xbd093fdc	-0.033508167
10	0xbe0ecbe8	-0.13944972
11	0xbe4f03fe	-0.20216367
12	0xbcd9a9f1	-0.026570292
13	0xbe118473	-0.14210682
14	0xbc842df1	-0.016135188
15	0xbdd93070	-0.10604942
16	0xbe5c0f96	-0.2149032
17	0xbe17a42b	-0.14808719
18	0x3e3d4b16	0.18485674
19	0x3e453977	0.19260202
20	0x3ca1a388	0.019731298
21	0xbe52c95e	-0.20584628
22	0xbe6173a2	-0.22016767
23	0x3ddbdde7	0.10735684
24	0xbd3629e8	-0.04447356
25	0xbdca3f4e	-0.09875356
26	0x3cf7ebbd	0.030263776
27	0x3d57de15	0.05270203
28	0xbe1217a3	-0.14266829
29	0xbd3e312a	-0.046433605
30	0xbe0b9421	-0.13630725
31	0x3e01965e	0.12655017
32	0xbcc58579	-0.024111496
33	0xbd6fa158	-0.05850348
34	0xbdea797a	-0.11448951
35	0x3c145c6a	0.009055236
36	0xbe37f4b4	-0.1796444
37	0xbbe57e61	-0.007003591
38	0xbdfabc31	-0.12242926
39	0x3d15c0ac	0.0365607
40	0x3df0b400	0.11753082
41	0x3d33da79	0.043909524
42	0x3cd87157	0.026421232
43	0x3de11041	0.10989428
44	0x3e25f871	0.16208054
45	0xbe43a109	-0.19104399
46	0x3b8edac4	0.004359575
47	0xbcb4226c	-0.02198907
48	0x3e0646d3	0.13112955
49	0xbe62f5dc	-0.221641
50	0x3de5ba8c	0.112172216
51	0x3d2f7f79	0.042846177
52	0xbdf4e9a7	-0.11958628
53	0xbddac4e3	-0.106820844
54	0xbcf992c3	-0.03046549
55	0x3ceac542	0.028658513
56	0xbd5cb25e	-0.05388104
57	0xbd427b3c	-0.047480807
58	0xbe2e6758	-0.1703161
59	0xbe401469	-0.18757786
60	0x3e1ecfc0	0.15508938
61	0x3e0f3a36	0.1398705
62	0xbd100dc4	-0.035169378
63	0xbe081638	-0.13289726
64	0x3d179bfc	0.037013993
65	0x3e0b5011	0.13604762
66	0x3dca36dc	0.09873745
67	0xbd2c34eb	-0.042042654
68	0x3d96a641	0.07355929
69	0x3d031cb8	0.03200981
70	0x3dcebff4	0.10095206
71	0xbd3c41ed	-0.04596131
72	0xbdf04c10	-0.11733258
73	0x3e0af873	0.13571338
74	0x3e0e8394	0.1391738
75	0x3d9a924a	0.07547434
76	0xbd39caeb	-0.045359533
77	0xbe05939e	-0.13044593
78	0xbe43ac1c	-0.19108623
79	0xbd6c6308	-0.05771163
80	0xbc750300	-0.014954329
81	0xbe6b9985	-0.23007782
82	0x3ded4fed	0.1158751
83	0x3dea8a83	0.114522
84	0x3df4dbc9	0.11955983
85	0x3e153c2f	0.1457374
86	0xbaaa2bee	-0.0012983063
87	0xbe105343	-0.14094262
88	0x3d277e8a	0.04089216
89	0x3e14e73e	0.14541337
90	0x3e06ccac	0.13164014
91	0x3e14d391	0.14533831
92	0x3e039db1	0.12853123
93	0xbd871865	-0.0659645
94	0xbe1aa8e4	-0.15103489
95	0xbd875068	-0.06607133
96	0x3d8b64c7	0.06806331
97	0xbd772f1e	-0.06034767
98	0x3e25ba73	0.16184406
99	0xbdd72b9f	-0.10506367
100	0xbe624d64	-0.22099835
101	0x3e0058f4	0.12533933
102	0x3dfae2c1	0.12250281
103	0xbd4d126d	-0.0500664
104	0x3d4cdfae	0.050018005
105	0xbd7308ad	-0.059334446
106	0x3c43dd27	0.011954582
107	0x3def8a22	0.116962686
108	0xbd17c1c7	-0.037050035
109	0x3d60dc58	0.054897636
110	0x3d2247a7	0.039619114
111	0xbe413c98	-0.18870771
112	0xbd513ebd	-0.051085223
113	0x3d1f0d10	0.038830817
114	0x3e01d6fd	0.12679668
115	0x3db47cd5	0.08812872
116	0xbe094baf	-0.13407777
117	0xbedca000	-0.4309082
118	0x3e1f6f5e	0.15569827
119	0x3e0b1a28	0.13584197
120	0xbd824621	-0.06361032
121	0xbe4a9a50	-0.19785428
122	0x3e4cb23e	0.19989869
123	0x3cae4352	0.021272335
124	0xbe2931e6	-0.16522941
125	0x3df008a4	0.11720398
126	0xbea83cee	-0.32858986
127	0xbe2608ab	-0.16214244
128	0xbddbcd34	-0.10732499
129	0xbd217ac0	-0.039423704
130	0x3e23078d	0.15920849
131	0xbc06cc4f	-0.008227422
132	0x3d716139	0.05893061
133	0x3d8d995b	0.06914016
134	0x3e5e48b9	0.21707429
135	0xbdf622f9	-0.12018389
136	0xbd9cc917	-0.07655542
137	0x3e2d66a1	0.16933681
138	0xbdd9d5b3	-0.10636463
139	0xbe177d08	-0.1479379
140	0xbc865dd5	-0.016402164
141	0x3daf2931	0.085527785
142	0x3d29ca7f	0.04145288
143	0x3e01f613	0.12691526
144	0xbc4bd1bf	-0.012440144
145	0xbac5e88b	-0.001509921
146	0x3dcb512f	0.09927594
147	0x3c02dda8	0.007987417
148	0xbd3963e6	-0.045261286
149	0xbdf52ecb	-0.11971816
150	0x3d61d52d	0.05513494
151	0x3ebc7806	0.3681032
152	0xbfbac335	-1.4590822
153	0x3cb3cd6a	0.021948535
154	0x3da0f4f6	0.078592226
155	0x3e4cdfd8	0.20007265
156	0xbf837c86	-1.0272377
157	0xbe4d7083	-0.20062451
158	0x3dcf2aa6	0.101155564
159	0xbda89c02	-0.08232881
160	0xbdb8cbdd	-0.09023259
161	0x3e750ab6	0.23929867
162	0xbd3fe521	-0.046849374
163	0x3e32ec11	0.17472865
164	0x3e05cdc3	0.13066773
165	0xbf98f6d3	-1.1950325
166	0xbd011e72	-0.031523176
167	0x3d8500d3	0.06494298

model.decoder_module.convs.0.m_net_list.0.weights.weight f4 [64, 21]
0	0xba82576d	-0.0009944268
1	0x3d6b0bf6	0.057384454
2	0x3d9e5bf9	0.07732386
3	0xbcb136ea	-0.02163263
4	0xbe28cbd0	-0.16483998
5	0xbcfc25e3	-0.030779785
6	0x3c911582	0.017710451
7	0xbe4a03c4	-0.19727999
8	0x3d0a6c85	0.0337949
9	0xbc95e176	-0.018295985
10	0x3e4cce51	0.20000578
11	0x3df1bcfd	0.11803625
12	0xbad51061	-0.0016255492
13	0xbc80440b	-0.015657445
14	0xbb3c1b1f	-0.002870269
15	0x3d08b930	0.033379734
16	0x3de8e24b	0.11371287
17	0xbd48b7ec	-0.049003527
18	0xb928b272	-0.00016088205
19	0x3de9d9c6	0.1141849
20	0x3d4fcadb	0.050730567
21	0xbcd99bf5	-0.026563624
22	0xbcccc699	-0.024997042
23	0xbbaba0b3	-0.0052376627
24	0x3c3f33cb	0.011670063
25	0xbdb1faef	-0.0869044
26	0x3e0aa8b5	0.13540919
27	0xbcad174f	-0.021129278
28	0xbc887e3e	-0.01666176
29	0x3d588623	0.052862298
30	0x3cf58995	0.02997283
31	0x3c210dad	0.009829921
32	0x3e6eb6ef	0.23311971
33	0x3dc17818	0.09446734
34	0x3d6afe83	0.057371628
35	0xbda4a1b8	-0.08038658
36	0xbcb5f182	-0.022209886
37	0xbd478355	-0.048709232
38	0x3b6a880e	0.0035786661
39	0xbe278e6c	-0.16362923
40	0x3b0b2ff0	0.002123829
41	0xbc16145a	-0.009160126
42	0xbd47bf3e	-0.048766367
43	0xbd0737a6	-0.033012055
44	0xbd5d57ee	-0.054038934
45	0xbcef4cce	-0.029211428
46	0x3e2c372a	0.16817918
47	0x3dc1ef37	0.09469455
48	0x3c9aa69e	0.018878277
49	0xbd65bb13	-0.05608661
50	0x3c6dcbae	0.014513893
51	0x3e02c2a5	0.12769563
52	0x3dc55c3f	0.09636735
53	0xbe2bffea	-0.16796842
54	0xbdce9568	-0.10087091
55	0x3c5bbbd6	0.013411483
56	0x3e19bffe	0.15014645
57	0xbc574de0	-0.013141125
58	0xbe4ee257	-0.2020353
59	0xbc1b14f1	-0.009465442
60	0x3d6d8795	0.05799063
61	0xbc0132d9	-0.007885658
62	0xbd3d73e8	-0.046253115
63	0x3c3e7f4f	0.011627032
64	0xbd1a8aee	-0.03773015
65	0xbcf9a19b	-0.030472567
66	0xbd64c964	-0.055856124
67	0x3dbd323c	0.09238097
68	0x3d985ab2	0.07439174
69	0x3ced563c	0.028971784
70	0xbd8782ce	-0.06616746
71	0x3c18ed84	0.009333972
72	0x3df9f410	0.12204754
73	0x3d72ed81	0.059308533
74	0x3cd60b81	0.026128532
75	0xbe074422	-0.13209584
76	0x3e530e3d	0.206109
77	0xbe39331d	-0.18085904
78	0xbe1925a4	-0.14955765
79	0x3d92a333	0.07160034
80	0xbb07e9d9	-0.002073875
81	0xbdb5dc75	-0.088799395
82	0xb8e52c0a	-0.00010927774
83	0x3b402f57	0.0029325092
84	0x3e1a2877	0.15054499
85	0x3d2ace61	0.041700725
86	0xbd8eee49	-0.06979043
87	0x3d620acb	0.055186074
88	0x3d926c34	0.07149544
89	0xbd89c96f	-0.067278735
90	0xbccf5aad	-0.025311792
91	0xbd798303	-0.060915958
92	0x3d79fb08	0.061030418
93	0xbde65f3e	-0.11248635
94	0x3d7037bb	0.0586469
95	0xbe254b92	-0.16142109
96	0xbdcb2702	-0.099195495
97	0xbe04e5e3	-0.1297832
98	0xbe3b5ff1	-0.18298317
99	0x3e4a0c81	0.19731332
100	0x3e503309	0.20331968
101	0x3e80c902	0.25153357
102	0x3c943e3b	0.01809608
103	0x3d85fcf0	0.065423846
104	0x3c8c899e	0.017155465
105	0xbdcf4a9f	-0.10121655
106	0x3a386df7	0.0007035429
107	0x3d9bf3cb	0.07614859
108	0x38d4fede	0.000101564205
109	0xbe0c1f5f	-0.13683842
110	0xbe3be26a	-0.18348089
111	0x3bcbf9d8	0.006224852
112	0xbe24af0c	-0.160824
113	0x3a6a0431	0.0008927016
114	0xbe11454f	-0.14186595
115	0x3e254bc9	0.16142191
116	0xbdc6dd41	-0.097101696
117	0x3cf248c7	0.029575719
118	0xbac8e8e6	-0.0015328198
119	0x3d15fe77	0.03661963
120	0xbd8ecb73	-0.069723986
121	0x3e05b3d3	0.13056879
122	0xbc3ce81e	-0.01152995
123	0x3d3b8ef7	0.04579064
124	0xbc974997	-0.018467708
125	0x3dbaa910	0.09114277
126	0x3de3d993	0.11125483
127	0xbb04fd94	-0.0020292746
128	0xbc29428d	-0.010330808
129	0xbc919fb8	-0.017776355
130	0x3e32b7c7	0.17452918
131	0xbd802a08	-0.06258017
132	0x3d34db2b	0.044154327
133	0xbe0e1cdd	-0.13878198
134	0x3e71d359	0.23615779
135	0x3ce70dba	0.028204788
136	0x3e14dd87	0.14537631
137	0x3d9acb08	0.075582564
138	0xbe4b1d3f	-0.19835375
139	0xbd972c69	-0.073815174
140	0xbd948170	-0.07251251
141	0x3c531874	0.012884248
142	0xbe268a83	-0.16263776
143	0x3c7ca06e	0.015419109
144	0x3e03e64a	0.12880817
145	0xbe17f6f3	-0.14840297
146	0x3d9c7f4c	0.076414675
147	0xbc51f529	-0.012814798
148	0x3d17c730	0.037055194
149	0x3dc5a7bf	0.09651136
150	0xbce45e52	-0.027877007
151	0x3da490ca	0.08035429
152	0xbe3e5299	-0.18586196
153	0xbd84c9ca	-0.06483801
154	0xbd9e5db9	-0.0773272
155	0x3db2ac07	0.08724218
156	0xbd320516	-0.04346188
157	0x3dbd5d95	0.09246365
158	0x3cb033e4	0.021509118
159	0xbd66ab3b	-0.05631564
160	0x3db11733	0.08647003
161	0xbd97d47c	-0.07413575
162	0xbd0c8703	-0.034308445
163	0xbceeb292	-0.029137883
164	0xb94e83b6	-0.00019694757
165	0xbca61f02	-0.020278458
166	0xb98967b2	-0.00026207935
167	0x3d191756	0.03737577
168	0xba6c9b8a	-0.00090258627
169	0xbd60a9af	-0.054849323
170	0xbcb8d1c9	-0.02256097
171	0x3c482859	0.012216651
172	0xbcdc7e17	-0.026915593
173	0xbddb11aa	-0.106967285
174	0xbda99e3d	-0.08282135
175	0x3d092f49	0.03349236
176	0xbcb7d950	-0.02244249
177	0x3dca69a4	0.098834306
178	0x3ec48156	0.38379925
179	0x3e3fa301	0.18714525
180	0xbde19529	-0.11014778
181	0x3c4f832d	0.012665552
182	0xbdaf3435	-0.085548796
183	0xbdddf652	-0.108379975
184	0xbd3f2be8	-0.04667273
185	0xbd5e21ad	-0.054231334
186	0xbb020b57	-0.0019843185
187	0xbd27dd50	-0.040982544
188	0x3dd1e5ba	0.10248895
189	0x3d5733da	0.052539684
190	0x3cf06292	0.029343877
191	0x3c9ab74b	0.018886229
192	0xbda56a23	-0.080768846
193	0xbdd02815	-0.10163895
194	0xbdab50fd	-0.08365057
195	0x3c11e2ae	0.008904142
196	0xbe00d715	-0.12582047
197	0x3d375a85	0.04476406
198	0xbe49c0af	-0.19702409
199	0xbee33eb4	-0.44383776
200	0x3e4d8cb7	0.2007321
201	0x3ebf29f0	0.37336683
202	0x3d0949ce	0.03351765
203	0xbd5980b7	-0.053101268
204	0xbc8f4f9f	-0.017494021
205	0xbd1da1e3	-0.038484465
206	0x3b2e60ff	0.0026608107
207	0xbc785ff9	-0.0151596
208	0x3b629611	0.003457431
209	0x3d089627	0.03334632
210	0x3db49750	0.08817923
211	0x3d2cb40a	0.042163886
212	0xbdde9eda	-0.10870142
213	0xbc8a94a5	-0.016916582
214	0xbcac7d4d	-0.021055842
215	0xbbcd263d	-0.006260662
216	0x3e4af37a	0.19819441
217	0x3e30691c	0.17227596
218	0x3d9cc964	0.076556
219	0xbd9c554d	-0.07633457
220	0x3e212845	0.15738018
221	0x3e0f8a6d	0.14017649
222	0xbe1e774f	-0.154752
223	0xbbdf70ef	-0.0068188827
224	0xbe417a51	-0.18894316
225	0x3d577bf6	0.052608453
226	0x3cb92578	0.022600874
227	0x3cda721d	0.026665742
228	0x3e35f7aa	0.17770258
229	0xbd77c8f5	-0.060494382
230	0xbcf44100	-0.02981615
231	0xbda0c699	-0.078503795
232	0x3d40bbdf	0.047054168
233	0xbe27f398	-0.16401517
234	0x3e106848	0.1410228
235	0xbe23b275	-0.15986045
236	0xb955388f	-0.00020334333
237	0x3e305aae	0.17222092
238	0x3dfe6d2c	0.12423167
239	0xbd46c5d2	-0.0485285
240	0x3dab2807	0.08357244
241	0x3e057614	0.13033324
242	0x3d92b1b7	0.07162803
243	0xbe4888a9	-0.19583382
244	0xbdd5523f	-0.10416078
245	0xbda7510f	-0.081697576
246	0x3d7f1968	0.06228009
247	0x3dc3fcd9	0.09569711
248	0x3ba11599	0.0049159047
249	0xbe047fc6	-0.12939367
250	0xbb2d2880	-0.0026421845
251	0x3d9bf57d	0.076151825
252	0xbbbdcbd4	-0.0057921205
253	0xbd58bd26	-0.05291476
254	0xbd843456	-0.06455295
255	0x3d8fe991	0.07026971

model.decoder_module.convs.0.m_net_list.0.bias.weight f4 [8, 21]
0	0xbcc1250d	-0.023577238
1	0xbf1617bf	-0.58629984
2	0x3e044dfa	0.1292037
3	0x3ddd50de	0.1080644
4	0xbe4d1c9f	-0.2003045
5	0x3ccc524e	0.02494159
6	0xbd18d9ca	-0.037317075
7	0xbd46b760	-0.048514724
8	0xbbf280c9	-0.0074006063
9	0xbe20206e	-0.15637371
10	0x3d2d1f8d	0.042266417
11	0xbed64d98	-0.41856074
12	0x3e7bd51d	0.24593015
13	0x3cd92cff	0.026510714
14	0xbf145333	-0.5793945
15	0x3e033260	0.12812185
16	0xbea04d94	-0.31309187
17	0xbedbae49	-0.42906407
18	0x3f4517d6	0.76989496
19	0xbe8cc683	-0.27495202
20	0xbed8f374	-0.4237324
21	0x3ea5f44e	0.32412952
22	0xbea93e15	-0.33055177
23	0xbdbe5749	-0.09293992
24	0x3d1f935a	0.038958885
25	0xbee5db5a	-0.44893914
26	0x3cc67492	0.024225507
27	0x3e2b99f7	0.16757952
28	0x3d167e9d	0.03674184
29	0xbde35f56	-0.11102168
30	0x3d32cdff	0.043653484
31	0x3d97804f	0.0739752
32	0xbf471d44	-0.7777903
33	0x3e9de556	0.30839032
34	0x3d0b13e3	0.033954512
35	0xbf3e8d7a	-0.74434626
36	0xbe43fc61	-0.19139244
37	0xbecf27d9	-0.4046009
38	0x3ac10d82	0.0014728757
39	0x3f9b3f00	1.2128601
40	0x3a9f0a8a	0.0012133878
41	0xbde51fdf	-0.111877196
42	0x3da542d5	0.08069388
43	0xbe863dd5	-0.2621905
44	0xbef726e6	-0.48271865
45	0xbec413a1	-0.38296226
46	0x3c32a0c0	0.010902584
47	0xbe00c3d0	-0.12574697
48	0xbf0e6eb9	-0.556377
49	0xbe14ee8f	-0.14544128
50	0xbe2955db	-0.16536658
51	0xbe43abdf	-0.19108532
52	0xbe8dec60	-0.27719402
53	0x3c4aa9c5	0.012369578
54	0xbed7fd32	-0.4218536
55	0xbe2892e1	-0.1646228
56	0x3de97e10	0.11400998
57	0xbe0ec9cb	-0.13944165
58	0x3e851f08	0.26000237
59	0xbdb6044d	-0.08887539
60	0x3eacebb9	0.33773592
61	0xbda49397	-0.08035963
62	0xbdfd97b2	-0.12382449
63	0xbd2fed2a	-0.042950787
64	0x3dd4c105	0.10388378
65	0x3e4b8e85	0.19878586
66	0xbe01ef16	-0.1268886
67	0xbeeb4cb2	-0.4595695
68	0x3e147b3e	0.14500138
69	0x3e75f5ae	0.240195
70	0xbe7e1a64	-0.24814755
71	0xbe41d7f2	-0.18930033
72	0x3f028d9c	0.5099733
73	0xbe9d5e91	-0.3073621
74	0xbe5952a3	-0.2122293
75	0x3b9b2aa3	0.0047353073
76	0xbeebd4ee	-0.4606089
77	0xbea47c21	-0.32125953
78	0x3d8b1337	0.06790774
79	0xbe53a66c	-0.20668954
80	0xbd2282b4	-0.03967543
81	0xbe4cadcf	-0.19988178
82	0xbb1028a0	-0.002199687
83	0xbe7a52a1	-0.24445583
84	0x3d3d8688	0.046270877
85	0xbb7d7e5c	-0.0038680052
86	0xbe3df64d	-0.18550988
87	0x3ddb296b	0.10701259
88	0x3e0d53b7	0.13801466
89	0xbe0185ef	-0.12648748
90	0xbd45d58b	-0.048299354
91	0xbe182341	-0.14857198
92	0x3b5edfee	0.0034007984
93	0x3e274fe6	0.16339073
94	0x3e700912	0.2344096
95	0x3dacb42e	0.08432804
96	0x3e8427fd	0.2581176
97	0x393ea12d	0.00018179855
98	0xbc424576	-0.011857381
99	0xbe08814f	-0.13330577
100	0x3dd5386e	0.10411154
101	0xbea65d09	-0.32492855
102	0x3e80659e	0.25077528
103	0xbe920174	-0.28516734
104	0xbef31d97	-0.47483513
105	0x3f1914ce	0.5979737
106	0xbcf6aeee	-0.03011271
107	0xbd6d0376	-0.05786463
108	0xbcadf446	-0.021234643
109	0xbe75c3ab	-0.24000423
110	0x3e079177	0.13239084
111	0xbdb9fda8	-0.09081584
112	0xbe090bf2	-0.13383463
113	0xbc6d9b84	-0.01450241
114	0x3e7168f3	0.23575191
115	0x3dc9d00f	0.09854137
116	0xbe990d2b	-0.2989286
117	0xbcdc47f2	-0.026889775
118	0xbb584e17	-0.003300553
119	0xbef02d85	-0.4690973
120	0xbe6a2d5d	-0.22868867
121	0xbea7fd21	-0.3281031
122	0xbed8db56	-0.4235484
123	0xbef5d8a9	-0.4801686
124	0xbe9aa1e4	-0.30201638
125	0xbeadf757	-0.33977768
126	0xbd68b3c1	-0.05681205
127	0xbf88650d	-1.0655838
128	0xbf32d4af	-0.6985578
129	0xbda6468f	-0.08118927
130	0xbd9853ef	-0.07437884
131	0x3f19173f	0.59801096
132	0xbf222f79	-0.6335369
133	0xbe929541	-0.28629497
134	0x3d819779	0.06327719
135	0x3f88b90c	1.0681472
136	0x3d48f0a1	0.049057607
137	0xbef7de32	-0.4841171
138	0xbda05481	-0.07828618
139	0xbe702efa	-0.2345542
140	0xbe9f034a	-0.31057197
141	0xbe71c66e	-0.23610851
142	0xbea436aa	-0.32072955
143	0xbed39ab9	-0.41328982
144	0xbec309fe	-0.3809356
145	0xbe1036d9	-0.14083423
146	0xbee74745	-0.45171562
147	0x3d0bae96	0.034102045
148	0x3e52991b	0.20566218
149	0xbdcc4db0	-0.09975755
150	0xbef7d9ef	-0.48408458
151	0xbdbecc40	-0.09316301
152	0x3e0195b7	0.12654768
153	0x3d795ec5	0.060881395
154	0xbe80c4cb	-0.2515014
155	0xbe81ca43	-0.25349626
156	0xbd524d39	-0.051343177
157	0xbe3bd2dd	-0.18342157
158	0xbe0c33af	-0.1369159
159	0xbe92c9fa	-0.2866972
160	0xbea10eaf	-0.31456515
161	0xbd180dc7	-0.037122514
162	0xbdd3a3ce	-0.10333978
163	0xbe01108c	-0.12603968
164	0xbac354fe	-0.0014902649
165	0x3e62ffea	0.22167936
166	0xbb618e3e	-0.0034417058
167	0xbda0bc35	-0.07848398

model.decoder_module.convs.1.m_net_list.0.weights.weight f4 [128, 21]
0	0x070a9fcc	1.0428926e-34
1	0xbd34ae08	-0.04411128
2	0x3d51d042	0.051224
3	0x3e06158e	0.1309416
4	0xbe80fcb1	-0.25192788
5	0x3dd2113a	0.10257192
6	0x3b26bec7	0.0025443302
7	0x3eb84970	0.35993528
8	0x3dba44b0	0.09095132
9	0xbeb80982	-0.35944754
10	0x3ebebc5e	0.37253088
11	0x3d275ba5	0.040858883
12	0xbe5726c7	-0.21010886
13	0xbd1373c9	-0.035999093
14	0xbe9ee858	-0.3103664
15	0xbdb53b4d	-0.08849201
16	0xbe0ffd5e	-0.14061496
17	0xbcf880ba	-0.03033482
18	0x3ecd3831	0.40081933
19	0x3e1909be	0.14945123
20	0x3c13fbf3	0.009032237
21	0x8d2180eb	-4.9767135e-31
22	0x3ed6dc80	0.41965103
23	0xbc43e7f1	-0.011957155
24	0x3ddfbd14	0.10924736
25	0xbd48691b	-0.04892836
26	0x3e3d77b0	0.18502688
27	0xbe8818d3	-0.2658144
28	0x3d56b208	0.052415878
29	0xbd500eba	-0.050795294
30	0xbd135b39	-0.03597567
31	0x3ea4b27a	0.32167417
32	0x3ddb4997	0.107073955
33	0xbe8ce429	-0.27517822
34	0x3df78c7e	0.12087344
35	0xbc993c20	-0.018705428
36	0xbe666763	-0.22500376
37	0xbd07e18b	-0.03317408
38	0x3ddab2ef	0.1067866
39	0xbddc84f8	-0.10767549
40	0xbd020bb8	-0.031749457
41	0x3e0c16e4	0.13680607
42	0x2a252023	1.4666094e-13
43	0x3e868bd4	0.26278555
44	0xbdda49ef	-0.10658633
45	0x3cbdfa2d	0.023190582
46	0x3cdb021a	0.0267344
47	0xbe1d6e03	-0.15373997
48	0x3ced4086	0.028961431
49	0x3c330b2a	0.010927955
50	0x3d921e99	0.07134742
51	0xbe5f8c54	-0.21830875
52	0x3e9a77ae	0.30169433
53	0x3cb5efe7	0.02220912
54	0xbed89b2a	-0.4230588
55	0xbe380746	-0.17971525
56	0x3e8d19d7	0.27558777
57	0xbe38d1a3	-0.1804872
58	0x3e80ea8a	0.2517894
59	0x3d8369b0	0.06416643
60	0xbec333a8	-0.38125348
61	0x3dc3f0ad	0.0956739
62	0xbd9ebc8c	-0.07750806
63	0x0e44b96f	2.4248148e-30
64	0x3cd4174e	0.025890019
65	0x3c577bee	0.013152106
66	0xbe219259	-0.15778483
67	0xbe99bded	-0.30027714
68	0xbcb66c6c	-0.022268496
69	0xbd145a92	-0.036219187
70	0x3da56ac8	0.080770075
71	0xbe721265	-0.2363983
72	0xbd29d7c6	-0.041465543
73	0x3eb584bc	0.3545283
74	0xbe2b512b	-0.16730182
75	0xbe5999ab	-0.21250026
76	0x3bc82441	0.0061078374
77	0xbdd0b3fc	-0.10190579
78	0x3e4b32cd	0.19843598
79	0xbea7ad24	-0.32749283
80	0x3aad2f71	0.0013212991
81	0x3e4231e5	0.18964346
82	0xbe09e0e7	-0.134647
83	0xbd7e9795	-0.06215628
84	0x142d027b	8.734757e-27
85	0xbdad89b4	-0.084735304
86	0x3e3281a9	0.17432274
87	0x3e21b880	0.15793037
88	0xbe018402	-0.12648013
89	0xbe192aac	-0.14957684
90	0xbd29b976	-0.041436635
91	0x3e2ac468	0.16676486
92	0xbd5feaff	-0.05466747
93	0x3e01c7c3	0.1267386
94	0x3e85e91c	0.2615441
95	0xbd0140ac	-0.031555817
96	0xbe92b61a	-0.28654557
97	0x3e57f344	0.21088892
98	0x3c3f60ad	0.011680764
99	0xbdf968de	-0.12178205
100	0x3d35a7c6	0.044349454
101	0x3d27dc24	0.040981427
102	0xbcbef67d	-0.023310894
103	0x3db592d9	0.088658996
104	0x3e096ff1	0.13421609
105	0x2467c0fa	5.0253598e-17
106	0x3be08392	0.006851622
107	0xbe52fd87	-0.20604526
108	0x3e48c8d9	0.19607867
109	0xbd4020a1	-0.046906117
110	0xbdeccfa8	-0.11563045
111	0xbe860345	-0.2617437
112	0x3e473722	0.19454625
113	0x3d9a2469	0.07526476
114	0x3e9f8cbc	0.3116206
115	0x3e843574	0.25822031
116	0x3eb52834	0.35382235
117	0xbf055e73	-0.52097243
118	0x3d851eb3	0.06499996
119	0x3d8c4cb4	0.068505675
120	0x3e207abf	0.15671824
121	0x3ea622d3	0.32448444
122	0xbd927993	-0.07152095
123	0xbed3f8d0	-0.41400766
124	0x3d9b3c0b	0.07579812
125	0x3e3274a1	0.17427303
126	0x26dbebd6	1.5260101e-15
127	0xbc92720a	-0.017876644
128	0x3e39f0f9	0.1815833
129	0xbc97b989	-0.018521087
130	0x3e01cace	0.1267502
131	0x3a6babda	0.00089901465
132	0xbc7cf87b	-0.015440102
133	0x3e4aac60	0.19792318
134	0x3e531ef5	0.20617278
135	0xbe7ff265	-0.2499481
136	0x3e96f355	0.29482523
137	0x3d3ac6f3	0.04559989
138	0xbefef969	-0.4979966
139	0xbe3cc236	-0.1843346
140	0x3e86a465	0.26297298
141	0xbd9530ba	-0.072846845
142	0x3e0f4199	0.13989867
143	0xbd5a9f0f	-0.053374346
144	0xbec3a8ff	-0.3821487
145	0xbd182c31	-0.03715152
146	0x3d1ef017	0.038803186
147	0x9b8d9ebe	-2.3429078e-22
148	0x3e905930	0.28193045
149	0xbe8b5672	-0.2721439
150	0xbd533cf6	-0.05157181
151	0xbdf63987	-0.12022691
152	0xbd5bc392	-0.053653307
153	0xbdfa2b43	-0.12215283
154	0xbdafceb9	-0.08584351
155	0xbd793316	-0.060839735
156	0x3d78a431	0.06070346
157	0xbeb68713	-0.35649928
158	0xbdb9bdb7	-0.09069388
159	0x3e70288b	0.23452966
160	0x3d51fcb1	0.051266376
161	0x3da63c95	0.08117024
162	0xbcc06f53	-0.023490584
163	0x3e215d6c	0.15758294
164	0x3d2c1850	0.042015374
165	0x3da189d5	0.078876175
166	0xbd532d4f	-0.05155688
167	0x3d77bc4a	0.0604823
168	0xbeeec3a8	-0.4663365
169	0xbe5ca6c2	-0.21547988
170	0x3e3fd18e	0.18732283
171	0xbd94583f	-0.07243394
172	0x3e01260d	0.12612171
173	0x3d06a4fc	0.032872185
174	0xbd9acc64	-0.07558516
175	0xbe1815fd	-0.14852138
176	0x3e01af32	0.12664488
177	0xbe9c7a2c	-0.3056196
178	0xbed855ff	-0.4225311
179	0xbe05fe55	-0.13085301
180	0x3f104a1f	0.563631
181	0x3dade15d	0.0849025
182	0x3e062548	0.13100159
183	0x3bbec142	0.005821378
184	0x3cd5a814	0.026081122
185	0x36a722ce	4.9810396e-06
186	0x3e548678	0.20754421
187	0xba294b78	-0.0006458084
188	0xbd4fa09f	-0.05069029
189	0x3ef10625	0.47075
190	0xbec0adcd	-0.376326
191	0x3e1a6320	0.15076876
192	0x3de11df9	0.10992045
193	0xbdfdb1dc	-0.123874396
194	0x3ecdb28f	0.40175292
195	0xbe0b1d41	-0.13585378
196	0xbe000c42	-0.12504676
197	0xbd5bb8df	-0.053643104
198	0x3e795a14	0.24350768
199	0xbe46be2a	-0.1940848
200	0xbe30b427	-0.17256223
201	0x3e78ff31	0.24316098
202	0x3bbbf023	0.0057354136
203	0x3dbf62db	0.09345027
204	0x3da52301	0.08063317
205	0xbdf0402f	-0.11730992
206	0x3a1c9fb8	0.00059747277
207	0x3da6ebdb	0.081504546
208	0x3a0720d8	0.00051547354
209	0xbba3c729	-0.004998107
210	0xbe5c90e9	-0.21539654
211	0xbe341b81	-0.17588617
212	0xbe2b15ee	-0.16707584
213	0x3d7f5f57	0.062346783
214	0xbb51e652	-0.003202815
215	0x3cb1fd8e	0.02172735
216	0x3d4ed827	0.050499108
217	0xbe9fd5c5	-0.3121778
218	0xbdf7aac1	-0.120931156
219	0xbe273cd0	-0.16331792
220	0xbe352c11	-0.17692591
221	0x3bfa490b	0.007638102
222	0x3eefafde	0.46813864
223	0xbd27eb09	-0.04099563
224	0xbdb01dba	-0.0859942
225	0x3e64856e	0.22316524
226	0x3da91912	0.08256735
227	0xba3103c3	-0.00067525747
228	0x3e0d2189	0.13782324
229	0xba2b2cbb	-0.00065297977
230	0xbc2f8223	-0.010712179
231	0x3ebfc3ae	0.3745398
232	0x3dc035b5	0.09385244
233	0x3dbb59b8	0.09147972
234	0xbec11a57	-0.37715408
235	0x3e1e251d	0.15443845
236	0xbe7b3519	-0.24531974
237	0xbde849ae	-0.11342178
238	0xbe9ddec0	-0.30834007
239	0xbe75036f	-0.23927091
240	0xbdfc6235	-0.12323419
241	0xbe72c835	-0.23709185
242	0x3e9b471d	0.30327693
243	0x3ef11b42	0.4709111
244	0xbea499b7	-0.32148525
245	0x3e7df2ae	0.24799606
246	0xbd2fad63	-0.042889964
247	0x3e1b0582	0.1513882
248	0xba185d77	-0.0005812267
249	0xbf2a3bff	-0.66497797
250	0xba0196f4	-0.0004943453
251	0x3c0256b0	0.007955238
252	0xbf00e703	-0.50352496
253	0xbe56c903	-0.20975117
254	0xbd19c157	-0.0375379
255	0x3d97e909	0.07417495

model.decoder_module.convs.1.m_net_list.0.bias.weight f4 [8, 21]
0	0xbc9c891a	-0.019108344
1	0xbe22c0c6	-0.1589385
2	0x3daccc49	0.08437402
3	0x3dab2597	0.08356779
4	0x3e363cfb	0.177967
5	0x3d601529	0.05470768
6	0x3c611d66	0.013739919
7	0xbead1612	-0.338059
8	0x3ce6ddd1	0.028181942
9	0xbcd5b51d	-0.026087338
10	0xbe8c58f9	-0.2741163
11	0x3e864f67	0.26232454
12	0xbd8f60fd	-0.07000921
13	0xbd30d209	-0.043169055
14	0x3da64dad	0.08120284
15	0xbe0d90bf	-0.13824748
16	0x3ec27afe	0.3798446
17	0x3c834b90	0.016027242
18	0x3d72f31b	0.059313875
19	0x3e3283bd	0.17433067
20	0x3e0ba99b	0.13638918
21	0x3d6c2431	0.057651702
22	0xbf575cba	-0.84125865
23	0xbe4b0102	-0.19824603
24	0x3dfcbd7a	0.12340827
25	0xbd6216a8	-0.055197388
26	0xbff6cf82	-1.9282076
27	0xbe47169d	-0.1944222
28	0xbebf1ba0	-0.37325764
29	0x3e3d2a9f	0.1847329
30	0xbf304f84	-0.6887133
31	0xbe0db71e	-0.13839385
32	0xbac47b8c	-0.0014990433
33	0x3d841b4b	0.06450518
34	0x3e5a29f3	0.21305065
35	0xbe24c287	-0.16089831
36	0xbe5c4b1b	-0.21513025
37	0xbbc798e6	-0.006091225
38	0x3e00a962	0.12564614
39	0xbcff08dd	-0.031132156
40	0x3cbd2066	0.023086738
41	0xbe6ab9cb	-0.22922437
42	0xbe68b856	-0.22726569
43	0xbe8a660b	-0.27030978
44	0x3f370933	0.7149841
45	0xbe920864	-0.28522027
46	0xbe9bf4b0	-0.3046012
47	0xbf0d9d57	-0.55318207
48	0x3ebc893e	0.36823457
49	0xbe22d144	-0.15900141
50	0xbf20f124	-0.6286795
51	0x3faa1dea	1.3290379
52	0xbdea9cca	-0.114556864
53	0xbd5ded2a	-0.054181255
54	0x3d4b5c3b	0.049648505
55	0xbf22fc59	-0.636663
56	0xbd60483b	-0.054756384
57	0xbea3017e	-0.31837076
58	0x3d1743d4	0.03692992
59	0x3e4dea5d	0.20108934
60	0xbcd916af	-0.026500074
61	0x3e002f08	0.12517941
62	0xbdd7a2a2	-0.105290666
63	0xbc6a21a5	-0.014290248
64	0x3d46faec	0.04857914
65	0x3f0a110f	0.5393228
66	0xbf5a4718	-0.8526473
67	0xbed5b0ed	-0.41736546
68	0x3e6e18e0	0.23251677
69	0x3e89a3b4	0.26882708
70	0xbdc97697	-0.09837072
71	0xbf4917ea	-0.78552115
72	0x3f14fc4e	0.58197486
73	0xbdca92ce	-0.09891282
74	0xbe893754	-0.26800025
75	0x3e232f1a	0.15935937
76	0xbf885ffe	-1.0654294
77	0xbebd14d6	-0.3692996
78	0x3c43e0a0	0.01195541
79	0xbe0f33df	-0.13984631
80	0x3b598405	0.0033190262
81	0xbeb594b2	-0.35465008
82	0x3c610653	0.013734418
83	0xbe0a0f72	-0.13482454
84	0xbdfc7af1	-0.12328137
85	0x3eb2555c	0.3483075
86	0x3ebcfb0f	0.36910293
87	0xbd2cb255	-0.04216226
88	0xbd9674bc	-0.07346484
89	0x3edf8725	0.43657795
90	0x3eb1a2e4	0.34694588
91	0xbe6a9209	-0.2290727
92	0xbdae9cb3	-0.08525982
93	0x3f40eceb	0.7536151
94	0x3c3bc292	0.011459963
95	0xbe256857	-0.16153084
96	0x3e2cbf8a	0.16869941
97	0xbeba8d30	-0.36435843
98	0xbe03f783	-0.12887387
99	0x3ad20cc6	0.0016025535
100	0xbe52a65d	-0.20571275
101	0x3e36c077	0.17846857
102	0xbe86a395	-0.26296678
103	0xbdfb9e28	-0.12286025
104	0xbe268288	-0.16260731
105	0xbe92770d	-0.28606454
106	0xbedffc19	-0.43747023
107	0x3c2d7213	0.010586279
108	0x3ea74932	0.3267303
109	0x3ef2e0dc	0.4743718
110	0xbf250616	-0.6446241
111	0x3a790eeb	0.0009500819
112	0xbdab3e94	-0.08361545
113	0x3e4fd4a1	0.20295955
114	0xbd9a2939	-0.07527394
115	0xbed2f00d	-0.4119877
116	0x3e8f61ae	0.2800421
117	0x3e89bdd9	0.26902655
118	0x3dac2bc3	0.084067844
119	0x3e4cdfd5	0.2000726
120	0xbd963439	-0.073341794
121	0x3e91fb29	0.28511932
122	0xbe03b8c1	-0.12863447
123	0x3e99d318	0.30043864
124	0xbd7500f5	-0.059815366
125	0x3cebac6c	0.02876874
126	0xbdc80c18	-0.09767932
127	0x3e0a4fb9	0.13506974
128	0x3e6fb327	0.23408185
129	0x3d7c78c1	0.061638597
130	0xbe82e0a5	-0.25562015
131	0x3ec834ad	0.39102688
132	0x3de9d02e	0.1141666
133	0xbed6c4ee	-0.4194712
134	0x3dea0f5f	0.11428713
135	0x3b334189	0.0027352294
136	0xbe5698b6	-0.20956692
137	0x3dc14120	0.0943625
138	0x3d7441c5	0.059633035
139	0xbc8f092f	-0.017460434
140	0xbdf1a88a	-0.117997244
141	0x3e03c79a	0.1286911
142	0xbd68513d	-0.0567181
143	0x3e42427d	0.18970676
144	0xbe6a3aea	-0.22874036
145	0xbe12fc88	-0.14354146
146	0xbe20ad36	-0.15691075
147	0x3c82549d	0.015909487
148	0xbeb82463	-0.3596526
149	0x3d4dcb5e	0.050242774
150	0xbd5b03d5	-0.05347045
151	0x3ec61829	0.38690308
152	0xbf483409	-0.782044
153	0xbe002f89	-0.12518133
154	0x3ee06031	0.43823388
155	0x3cff6f3f	0.031180976
156	0x3d4192ff	0.047259327
157	0x3d3937d2	0.04521925
158	0x3ea03aaf	0.31294772
159	0xbd4cabbc	-0.049968466
160	0xbcc9bb5e	-0.024625476
161	0x3ed3619d	0.4128541
162	0xbe268a87	-0.16263781
163	0x3eb60858	0.3555324
164	0xbd8b6cce	-0.06807862
165	0x3e02a33e	0.12757584
166	0x3d48da18	0.049036115
167	0x3d0fa748	0.03507164

model.prob_model_x._decoder_embeddings.0.weight f4 [1, 8]
0	0x3f39ab1e	0.7252673
1	0xbed181f8	-0.4091947
2	0x3f80b59a	1.005542
3	0xbf37deb7	-0.7182421
4	0x3f4303ca	0.76177657
5	0x3f324565	0.6963714
6	0x3f5f3b9e	0.87200344
7	0x3f42f5b0	0.7615614

model.prob_model_x._decoder_embeddings.1.weight f4 [2, 8]
0	0xbe6c0697	-0.23049389
1	0x3a3b85bb	0.0007153411
2	0xbb3e29fc	-0.0029016724
3	0x3e137ef1	0.14403893
4	0xbe4154dd	-0.18880029
5	0xbdb73dba	-0.0894732
6	0xbdb85942	-0.090013996
7	0xbda21f9e	-0.07916187
8	0xbe3a8856	-0.1821607
9	0x3fbf2292	1.4932425
10	0x3f60c4dd	0.8780039
11	0xbef90fad	-0.48644772
12	0xbf909a12	-1.1297019
13	0x3f8f6b55	1.120463
14	0xbf7baade	-0.983076
15	0x3fe75bc8	1.8074884

model.prob_model_x._decoder_embeddings.2.weight f4 [2, 8]
0	0xbdfe1acd	-0.124074556
1	0x3cf67530	0.030085176
2	0xbc932073	-0.017959809
3	0xbd1ba379	-0.037997697
4	0x3d92735f	0.071509115
5	0x3cb6f8a5	0.02233536
6	0xbe5cf824	-0.21579033
7	0xb8c615e9	-9.445457e-05
8	0xbd584099	-0.05279598
9	0x3f5f65a0	0.8726444
10	0xbf9b2baf	-1.2122706
11	0xbf68ec3f	-0.9098548
12	0xbfb90fd5	-1.4457957
13	0x3e336ff8	0.17523181
14	0xbdb8ee6b	-0.090298496
15	0x3ba61eef	0.0050696055

model.prob_model_x._decoder_embeddings.3.weight f4 [1, 8]
0	0xbef6dc37	-0.48214886
1	0xbf0bef03	-0.5466158
2	0xbef77f36	-0.48339242
3	0xbeb0532a	-0.3443845
4	0xbf082d95	-0.5319455
5	0xbefef4df	-0.49796197
6	0xbed6b4e5	-0.41934887
7	0x3f280acf	0.6564149

model.prob_model_x._decoder_embeddings.4.weight f4 [2, 8]
0	0xbe2a4447	-0.16627608
1	0x3e0523cb	0.13001935
2	0x3d777bec	0.060420915
3	0x3c76a74f	0.015054538
4	0xbd59f21e	-0.053209417
5	0x3dc06c5f	0.0939567
6	0x3e939a6e	0.28828758
7	0xbd0f6dd1	-0.03501684
8	0xbd4cc3b9	-0.049991343
9	0xbea72fc9	-0.32653645
10	0x3f4b9eba	0.7953907
11	0x3f843c3e	1.0330884
12	0x3ed32623	0.41240034
13	0xbf133a20	-0.57510567
14	0xbe47d4f6	-0.19514832
15	0xbe0063b6	-0.12538037

model.prob_model_x._decoder_embeddings.5.weight f4 [2, 8]
0	0x3dbd5c5f	0.09246134
1	0xbd89719e	-0.06711124
2	0xbcb9ef05	-0.022696981
3	0x3d8a02ca	0.06738813
4	0xbc11f280	-0.008907914
5	0xbdd619d9	-0.10454149
6	0xbe8d8a44	-0.2764455
7	0xbc2563b9	-0.0100945765
8	0xbf4cfb63	-0.80071086
9	0x3e10a26a	0.14124456
10	0x3e8699b2	0.26289135
11	0x3f51fb83	0.820244
12	0x3f10d742	0.5657846
13	0xbf483933	-0.7821228
14	0x3f113f80	0.5673752
15	0xbf3ec965	-0.74526054

model.prob_model_x._decoder_embeddings.6.weight f4 [1, 8]
0	0x3f86dad7	1.0535535
1	0xbf435333	-0.76298827
2	0x3f8573c6	1.0425956
3	0x3f4dbce9	0.8036638
4	0x3f33d402	0.70245373
5	0x3f66d85d	0.90173894
6	0x3f033a5c	0.51260924
7	0x3f684f3e	0.90745914

exp_avg f4 [16, 1]
0	0x80000000	-0.0
1	0x3e432234	0.19056016
2	0x80000021	-4.6e-44
3	0xad4b834c	-1.1568368e-11
4	0xb149a843	-2.9344995e-09
5	0x3c1e0184	0.009643916
6	0x3e94d027	0.29065058
7	0xb0f7a163	-1.8017484e-09
8	0xbe2a6c26	-0.16642818
9	0xbd9197d1	-0.07109035
10	0xb49e883d	-2.952892e-07
11	0xaea6ff8f	-7.5942024e-11
12	0xb5010a27	-4.807102e-07
13	0x3e9e19e1	0.3087912
14	0xb4202956	-1.4916199e-07
15	0x3e91cfe6	0.28478926

exp_avg_sq f4 [16, 1]
0	0x169626e0	2.425834e-25
1	0x3f07b7a1	0.5301457
2	0x1804da52	1.7170824e-24
3	0x251a1c14	1.3366884e-16
4	0x2716301c	2.0842762e-15
5	0x3e04aaf6	0.12955841
6	0x3f9f6fa7	1.2455949
7	0x26784975	8.6141837e-16
8	0x3edd514f	0.43226096
9	0x3e88fc6c	0.26755083
10	0x2c2b1f63	2.4317985e-12
11	0x25840457	2.290129e-16
12	0x2fe799b0	4.2127857e-10
13	0x3fd415b7	1.6569127
14	0x30823294	9.47312e-10
15	0x3fa2b8e2	1.2712672

exp_avg f4 [16]
0	0xb131db4f	-2.5881552e-09
1	0x3eab3849	0.3344138
2	0x8000004b	-1.05e-43
3	0xb080098f	-9.315942e-10
4	0xb280bddd	-1.4987501e-08
5	0x3bc45816	0.005991946
6	0x3f04d7f2	0.51892006
7	0xb1b17194	-5.1642903e-09
8	0xbe984119	-0.29737166
9	0xbe01fd88	-0.12694371
10	0xbd5eb306	-0.05436995
11	0xb29ef9b3	-1.8507171e-08
12	0x3e80ce27	0.25157282
13	0x3f10329f	0.5632724
14	0xbe0416ec	-0.12899369
15	0x3e91cfc1	0.28478816

exp_avg_sq f4 [16]
0	0x279682cd	4.177518e-15
1	0x40078b30	2.1178703
2	0x1de724f3	6.1183395e-21
3	0x263259e6	6.187799e-16
4	0x28795259	1.3840133e-14
5	0x3f019836	0.5062288
6	0x409ee8c9	4.965916
7	0x27649401	3.172159e-15
8	0x3fd7a9a5	1.6848646
9	0x3f7dd71e	0.9915637
10	0x401154f1	2.2708094
11	0x27bcd569	5.241186e-15
12	0x40c86b08	6.2630653
13	0x40d077ab	6.514608
14	0x3f7a725e	0.9783076
15	0x3fa2b8e1	1.271267

exp_avg f4 [16, 1]
0	0xb4fbbffd	-4.6892083e-07
1	0x401173fd	2.2727044
2	0xaeb01b9a	-8.0084564e-11
3	0x3f0d3f68	0.55174875
4	0x3f9556dc	1.1667132
5	0x3f26b8e2	0.6512586
6	0x3f7be70e	0.98399436
7	0xbf2a1013	-0.6643078
8	0x3ecc6034	0.39917147
9	0x3f38a760	0.72130394
10	0x3d2ef967	0.042718317
11	0x3f8fc312	1.1231406
12	0x3f88de1a	1.069278
13	0x3291e5cd	1.6984723e-08
14	0xbea5e00b	-0.32397494
15	0xb312e83c	-3.420449e-08

exp_avg_sq f4 [16, 1]
0	0x310e00c6	2.066416e-09
1	0x425655f5	53.583942
2	0x30d061bb	1.5161769e-09
3	0x41d70494	26.877235
4	0x419fed44	19.990852
5	0x412e3b5c	10.889492
6	0x4183c39f	16.470518
7	0x4186e51f	16.861876
8	0x41d50d04	26.631355
9	0x405270cb	3.2881343
10	0x414bbe7d	12.734006
11	0x41221265	10.129491
12	0x416360a7	14.211097
13	0x332b2bc6	3.985385e-08
14	0x4068d3fa	3.637938
15	0x2bb6eeac	1.2998123e-12

exp_avg f4 [16]
0	0xb5b088b4	-1.3152808e-06
1	0x3e254535	0.16139682
2	0xb211ee12	-8.494242e-09
3	0xbf273bad	-0.65325433
4	0x3d820685	0.063489
5	0xbe707ff2	-0.23486307
6	0x3ed6582f	0.41864154
7	0xbf0dc4eb	-0.553786
8	0xbe77481f	-0.24148606
9	0x3e87377d	0.26409522
10	0xbd341319	-0.043963525
11	0x3f3944e7	0.7237076
12	0x3f538a57	0.82632965
13	0xb3c091ee	-8.967241e-08
14	0xbee5154c	-0.4474281
15	0xb412b871	-1.3664409e-07

exp_avg_sq f4 [16]
0	0x2f95df47	2.726159e-10
1	0x423023a3	44.0348
2	0x2f5a8e69	1.9877579e-10
3	0x420ca5df	35.161983
4	0x41980aaf	19.005217
5	0x410c3eec	8.765362
6	0x41a79795	20.949015
7	0x41b2729d	22.305964
8	0x41e24f75	28.288797
9	0x3ecd794e	0.4013161
10	0x4106cdc3	8.425235
11	0x4151d11c	13.113552
12	0x4191e4d0	18.236725
13	0x31928759	4.2645465e-09
14	0x40ac1e86	5.378726
15	0x2b86f5e4	9.589521e-13

exp_avg f4 [16, 1]
0	0xbd27a0d2	-0.040924855
1	0xbe1ccb50	-0.15311933
2	0xbd5ce8ce	-0.053932957
3	0x3df699bc	0.12041041
4	0x34bf1f5e	3.5599345e-07
5	0xbee7fe61	-0.45311263
6	0x32edf83e	2.7703319e-08
7	0xbea30d75	-0.31846204
8	0x3f3dc91e	0.74135005
9	0xbd1f2c52	-0.038860627
10	0x3fb2e847	1.3977135
11	0x3d42f363	0.047595393
12	0x3ceddc44	0.029035695
13	0x3f576060	0.8413143
14	0x3cafffaa	0.021484215
15	0x3fae7368	1.3628969

exp_avg_sq f4 [16, 1]
0	0x3e5af5e4	0.21382862
1	0x40279f68	2.6191044
2	0x40bfd772	5.9950495
3	0x41f4d2a6	30.602856
4	0x2f68637b	2.113562e-10
5	0x404f9a0e	3.2437778
6	0x34319b4e	1.6540909e-07
7	0x400707f7	2.1098611
8	0x4048231b	3.1271427
9	0x3d768ca2	0.06019271
10	0x41916380	18.173584
11	0x3f848b23	1.0354961
12	0x41e8e1f8	29.110336
13	0x4092e465	4.59038
14	0x3d931b37	0.07182925
15	0x4154aa26	13.29154

exp_avg f4 [16]
0	0xbd3e2044	-0.04641749
1	0x3ec74e95	0.3892714
2	0xbd749130	-0.059708774
3	0x3cf07d7f	0.029356716
4	0xb59e769d	-1.1806438e-06
5	0x3e91c1f9	0.28468302
6	0xb3d31a6f	-9.8302614e-08
7	0x3e970f04	0.29503644
8	0xbf262536	-0.6490053
9	0xbbb1d617	-0.005427133
10	0xbfc52a69	-1.5403568
11	0x3e51301c	0.20428509
12	0x3e99356a	0.29923564
13	0xbf3ec30a	-0.74516356
14	0x3d086fb7	0.033309665
15	0xbf984e7d	-1.1898953

exp_avg_sq f4 [16]
0	0x3d867580	0.0656538
1	0x403fcc5c	2.996848
2	0x40ce5307	6.447635
3	0x41314a1a	11.080591
4	0x2dbf3701	2.1738613e-11
5	0x4045cc66	3.0906005
6	0x3282e400	1.5237674e-08
7	0x400bfa04	2.1871347
8	0x400511cc	2.0792112
9	0x3d6fdef3	0.05856223
10	0x4210d746	36.210228
11	0x3f907dcb	1.1288389
12	0x41d43ce3	26.52973
13	0x4109290a	8.572519
14	0x3cc77b97	0.024350924
15	0x415d6d30	13.839157

exp_avg f4 [16, 1]
0	0x3ac40384	0.0014954661
1	0xa086679b	-2.2769043e-19
2	0x3ab2e610	0.0013648886
3	0x00000000	0.0
4	0xb4d757a3	-4.0110635e-07
5	0xacb4cbc1	-5.138529e-12
6	0x9ab8c06f	-7.641151e-23
7	0x80000000	-0.0
8	0x8a9224b6	-1.4073098e-32
9	0x34522a3a	1.9573136e-07
10	0x341505c0	1.3878798e-07
11	0xa6f3bb7f	-1.6912333e-15
12	0xbb861852	-0.0040922547
13	0x3bb18bc9	0.005418275
14	0xba5dfad4	-0.0008467857
15	0x9ac09ea2	-7.9665624e-23

exp_avg_sq f4 [16, 1]
0	0x39ccacd2	0.00039038673
1	0x23009b8b	6.971831e-18
2	0x3923c5a8	0.00015618524
3	0x1f906f62	6.117064e-20
4	0x2fad1c48	3.1488612e-10
5	0x250a2c30	1.1984563e-16
6	0x226677c8	3.1234224e-18
7	0x1813088a	1.9003616e-24
8	0x2141ee63	6.5706446e-19
9	0x2c2df096	2.471833e-12
10	0x299524aa	6.6232894e-14
11	0x23c59bef	2.1424823e-17
12	0x39b5ecb5	0.0003469937
13	0x3af1f546	0.0018459938
14	0x371abf9d	9.223729e-06
15	0x2288a2a4	3.7035076e-18

exp_avg f4 [16]
0	0x3a841474	0.0010076896
1	0xb12e5c15	-2.5372675e-09
2	0x3a3f68da	0.0007301696
3	0xafd9881f	-3.956879e-10
4	0x3b8e3f4f	0.004341043
5	0xaefde033	-1.1544934e-10
6	0x9c9453fb	-9.815527e-22
7	0x96995569	-2.4772385e-25
8	0xa35a9c2b	-1.18508735e-17
9	0xb45439da	-1.9765085e-07
10	0xb419cb1d	-1.4323128e-07
11	0xa901b4ed	-2.8800682e-14
12	0x3a11332d	0.0005538937
13	0x3bb1813d	0.0054170177
14	0x3a051494	0.0005076614
15	0xa4905980	-6.2601664e-17

exp_avg_sq f4 [16]
0	0x39e21630	0.0004312261
1	0x29affa5d	7.814992e-14
2	0x393466db	0.00017204454
3	0x27499b3d	2.7978508e-15
4	0x3ac2ffa4	0.0014877212
5	0x25b389d5	3.114495e-16
6	0x228db7d4	3.8412762e-18
7	0x221aadcf	2.0962905e-18
8	0x2371c966	1.3107284e-17
9	0x2c2dfc93	2.4724986e-12
10	0x2998b745	6.781948e-14
11	0x243257f6	3.8672103e-17
12	0x3b1c3bb6	0.0023839301
13	0x3af1f56b	0.0018459981
14	0x39635c1c	0.0002168272
15	0x2381a21b	1.4054862e-17

exp_avg f4 [16, 1]
0	0xb80385b3	-3.135735e-05
1	0x9476310e	-1.24295004e-26
2	0xb8836855	-6.266e-05
3	0x37a8cd76	2.0122836e-05
4	0x389f587c	7.598192e-05
5	0xb9b8c814	-0.00035244285
6	0x393a93a2	0.0001779334
7	0xb82ad987	-4.0733747e-05
8	0xb7e9acad	-2.7856173e-05
9	0x3603d9a2	1.96472e-06
10	0x36ed84d9	7.078616e-06
11	0xb6d1be36	-6.250829e-06
12	0xb9078018	-0.00012922322
13	0x375a3631	1.300643e-05
14	0xb7d98f9b	-2.5935287e-05
15	0xb7915b28	-1.7327795e-05

exp_avg_sq f4 [16, 1]
0	0x331c493c	3.6388187e-08
1	0x22076542	1.8349517e-18
2	0x34bff831	3.5757105e-07
3	0x35177563	5.6422704e-07
4	0x353a12cb	6.9317747e-07
5	0x35851282	9.914659e-07
6	0x35b874c1	1.3743048e-06
7	0x34af9be9	3.270973e-07
8	0x3211a72a	8.4781195e-09
9	0x3576a9ea	9.18894e-07
10	0x3246770a	1.1552183e-08
11	0x3598adaf	1.1375431e-06
12	0x340b2840	1.2960027e-07
13	0x35a007d6	1.192321e-06
14	0x33453dca	4.5923834e-08
15	0x31a991b1	4.9351105e-09

exp_avg f4 [16]
0	0x37bb0acb	2.2297163e-05
1	0x9c068fc0	-4.4522673e-22
2	0x38d4a0aa	0.00010138874
3	0x36b7fbbf	5.483132e-06
4	0x387c0400	6.0085207e-05
5	0x398b49ca	0.00026567123
6	0xb90d2cff	-0.0001346357
7	0xb820a52d	-3.8300805e-05
8	0x379255dd	1.744454e-05
9	0x3896b96b	7.187094e-05
10	0xb6636adb	-3.3887834e-06
11	0xb8688def	-5.5445296e-05
12	0xb831e7dc	-4.2416024e-05
13	0xb78941ab	-1.6362252e-05
14	0x37887d3b	1.6270778e-05
15	0xb6adbc3e	-5.177716e-06

exp_avg_sq f4 [16]
0	0x33847db1	6.169592e-08
1	0x228c8511	3.8087966e-18
2	0x34f0706c	4.478528e-07
3	0x33b2ed1f	8.331903e-08
4	0x34585e41	2.0150857e-07
5	0x34ea5259	4.3645812e-07
6	0x35af3e33	1.3056618e-06
7	0x342f678c	1.6335815e-07
8	0x313a6d9c	2.7128868e-09
9	0x34d1384f	3.8970254e-07
10	0x3109712a	2.000045e-09
11	0x348b1b46	2.5910612e-07
12	0x325da5d7	1.2901601e-08
13	0x343bec95	1.75018e-07
14	0x32314a6f	1.031968e-08
15	0x2fdfe68b	4.0727274e-10
