SimLoan/res/experiments_adj_generation_unfair_decisions_10_steps_2_interventions/gan_model_toy_500_64_eps_0_2_b_0_5.pth (torch, 158975 bytes, 12 tensors)

h0_linear.weight f4 [64, 2]
000000 71 f8 49 3e 27 d7 15 bf 1d bc ae be bb 69 1b 3d
       0.19723679 -0.5853142 -0.34127894 0.03794263
000010 c1 95 97 3e 27 7b b8 be ed af e4 be 1b 07 21 3f
       0.2960644 -0.36031458 -0.4466547 0.6290147
000020 db 3a 58 bd 83 85 91 3e fa 9c 57 3e 38 ec ac 3e
       -0.052790504 0.28422174 0.21055976 0.3377397
000030 72 45 24 3f 8e bd 3a 3f 0d 9d 0d 3f 47 e6 af bd
       0.64168465 0.7294549 0.55317765 -0.08588844
000040 ac 48 b0 be bc eb 43 3f 9d 7c 0d bf e2 e5 90 be
       -0.34430444 0.7653158 -0.5526827 -0.28300387
000050 04 f3 30 bd 62 7e c2 be 2e 32 db 3e e6 f0 2e 3f
       -0.043200508 -0.37987047 0.42811722 0.6833633
000060 12 37 05 bf 32 51 33 3f d4 4c 90 3d e2 b3 3a 3f
       -0.52037156 0.7004577 0.07045904 0.7293073
000070 95 98 d4 3e 27 fa c2 3e 69 2d a1 be 1f 0f 15 bf
       0.4152266 0.38081476 -0.31479958 -0.582262
000080 dd d0 26 3f 71 25 df be 23 e4 37 bf 7d 01 dd be
       0.6516245 -0.43583253 -0.71832484 -0.43165198
000090 84 00 01 bf 59 64 f7 bd da 95 e6 3e 61 8e a9 be
       -0.5039141 -0.12079687 0.45036203 -0.3311644
0000a0 55 21 26 3f c9 8e 3d bf ca 85 93 3e e8 95 77 3e
       0.6489461 -0.74046 0.2881301 0.24178278
0000b0 53 c4 99 3e bf 19 8a be 4e 7a 17 3c dc 1a 18 be
       0.30032596 -0.26972768 0.009245468 -0.14853996
0000c0 7e 73 3b bc 91 b5 30 3e 31 10 cb 3e 17 9e bb bd
       -0.01144111 0.17256762 0.3966079 -0.091610126
0000d0 3b 0f 4b 3e 0c 30 3b bc 6a 9e 6c be 95 f8 05 3f
       0.19830029 -0.0114250295 -0.23107305 0.5233243
0000e0 fa 52 ea 3c 9f 2c c9 bd 57 af 4e bf 10 59 bb be
       0.02860402 -0.09822964 -0.807363 -0.36591387
0000f0 45 f3 f8 3e 91 03 b4 be 3f ad 0e 3f a3 86 ee 3e
       0.486231 -0.3515897 0.557331 0.46587095
000100 8d fc e9 3e 1a 85 20 bf 1d 32 e7 bd b4 06 2f bf
       0.45700493 -0.62703097 -0.11288855 -0.68369603
000110 94 2e 1f bf 6b 7d 44 bd 15 0d 1d be c5 79 38 3e
       -0.6218045 -0.04797117 -0.15337022 0.18015201
000120 17 d0 e2 3e 5e 09 f3 3e a7 01 34 be 78 39 dc 3e
       0.44299385 0.47468084 -0.17578755 0.43012595
000130 ff 64 1d bf ac cc 6b 3e c5 c2 1a bf 9a f0 1e bf
       -0.6148223 0.23027295 -0.60453445 -0.6208588
000140 e4 17 6e 3e 58 54 df be 6b 98 44 bf 20 19 45 3f
       0.23251301 -0.43619037 -0.7679507 0.7699146
000150 a7 84 85 be cd b1 05 3f 34 27 9d be 8f 26 df bd
       -0.26077768 0.5222443 -0.30693972 -0.10896026
000160 d6 f5 5c 3d a0 bf 77 3e c0 3e 0f 3f c2 73 59 be
       0.053945385 0.24194193 0.55955124 -0.21235564
000170 03 21 d4 bd f6 ab 02 3f bd 0c 2a bf bd c5 20 be
       -0.10357859 0.5104364 -0.6642569 -0.15700431
000180 70 e2 6d 3e 3e 43 d0 bb 8c 3d 2d 3d be 55 9c 3e
       0.2323091 -0.006355672 0.042295024 0.30534166
000190 55 c4 92 3e 37 aa 52 be 06 39 52 bd 13 c3 d5 3c
       0.28665414 -0.20572744 -0.051323913 0.026093995
0001a0 67 50 39 3e 11 43 34 be a9 f4 0d bf 02 32 18 bf
       0.18097077 -0.17603709 -0.55451447 -0.59451306
0001b0 4f a1 43 bd 6f 63 46 3f e8 84 c1 bd 34 74 07 3e
       -0.047761258 0.77495474 -0.09449178 0.13227922
0001c0 e2 e2 1c bf 56 1b 9c 3e 0a 5e e0 be e0 e6 14 bf
       -0.61283696 0.30489606 -0.43821746 -0.5816479
0001d0 ee ca c0 bc bc fe 49 bf a9 e3 ef 3e 1d d0 17 3f
       -0.023534264 -0.7890432 0.46853378 0.5930193
0001e0 47 20 20 3f f9 2e fb be 66 b2 d6 be da 68 2a bf
       0.6254925 -0.49059275 -0.41932982 -0.6656624
0001f0 4c 93 9b 3e ae 12 b9 3e c0 d9 c4 be a7 bc ac 3d
       0.30385816 0.36147064 -0.3844738 0.0843442

h0_linear.bias f4 [64]
000000 84 02 62 be ad 87 21 bf 39 00 56 be f6 4e 14 bf
       -0.22071272 -0.6309765 -0.20898522 -0.57932985
000010 92 18 12 3f 3a 52 56 3d 6f c2 e0 3e 08 a0 23 be
       0.5706874 0.05232451 0.4389834 -0.15979016
000020 0b fe 08 3f fd 8d 8a 3e da 81 ea be cb da e7 3e
       0.5351264 0.27061453 -0.45802194 0.45284113
000030 33 27 e3 bb 87 78 c3 bd 7a 3f 1b bc 34 5b 41 be
       -0.006932163 -0.09544473 -0.009475583 -0.18882447
000040 3a d2 25 bf 9a a9 b9 be 2b 72 86 3d ef 9d 3c 3f
       -0.64773905 -0.36262208 0.065647446 0.7367849
000050 10 81 c0 3e 13 6f 29 be ff 2f 87 3e 42 a3 05 bd
       0.37598467 -0.16546278 0.26403806 -0.032626398
000060 8b 71 0d bf bf 18 11 3f 47 d4 53 3f 3f 07 e6 3e
       -0.5525138 0.56678385 0.82745785 0.44927403
000070 3d 75 07 bf 55 9e 81 be a1 1f 2e bf ec 5e e6 3e
       -0.52913266 -0.2531611 -0.6801701 0.44994295
000080 6a 64 6f 3e e7 89 8e 3e 3c 9e c2 bd 2c fb aa 3e
       0.23378149 0.27839586 -0.09502837 0.33394754
000090 c7 ae 8b bd 5a c1 1c bf a7 f1 b4 3e 33 71 24 3f
       -0.068204455 -0.6123253 0.35340616 0.6423523
0000a0 8f ab 1a bf de 8b 3d 3e 93 f6 10 bf 41 0f 1d 3f
       -0.6041803 0.18510386 -0.5662624 0.613514
0000b0 05 05 06 bf b0 df 0e 3f d8 62 1d bf c6 d6 f7 bd
       -0.5235141 0.5581007 -0.6147895 -0.12101512
0000c0 0b 12 02 bf e5 89 04 be b1 a6 1b bf 63 a6 0d be
       -0.5080878 -0.12943228 -0.60801226 -0.13833003
0000d0 01 52 23 bf 78 75 f9 3d d6 15 03 3e 11 45 99 bd
       -0.63797003 0.121806085 0.12801298 -0.074838765
0000e0 19 13 00 bf d4 0b b4 bd 47 fb 8a 3e e2 b5 4d 3e
       -0.5002914 -0.087913185 0.27144834 0.20088914
0000f0 9a 38 a6 be c5 a5 e7 be d2 70 37 bf c7 9f 55 3e
       -0.3246506 -0.4524366 -0.71656525 0.20861731

rnn.weight_ih_l0 f4 [192, 5]
000000 f4 33 02 3e b4 e9 15 bd 8c 30 46 3d 80 96 15 3e
       0.12715131 -0.03659983 0.04838614 0.14608192
000010 4b ca 9c 3d 59 15 95 be fa 42 56 3e 79 09 d2 bd
       0.07655772 -0.2911785 0.20923987 -0.10255713
000020 ab a9 0d be ea 72 c4 bd 20 68 a1 3e cc b1 99 be
       -0.13834254 -0.095922306 0.31524754 -0.3001846
000030 99 d9 c6 3d a1 2f 26 3e 6b 5c 42 3d f7 e4 0c 3d
       0.09709472 0.16229106 0.047451418 0.034398045
000040 8b ae 03 3c b6 d4 9f 3d 78 eb 85 3d de bd 90 3c
       0.00803722 0.07804243 0.06539053 0.01766866
000050 61 c5 08 3e e0 89 c9 3d cb aa 6d 3d 39 9e aa 3e
       0.13356544 0.09840751 0.05802421 0.3332384
000060 84 d0 02 3e f0 13 31 3c b0 c4 19 be 8a e5 05 3d
       0.12774855 0.010807976 -0.15016437 0.03268961
000070 bf 99 84 bd dd 3f cb 3b 1c bc 1a be 8e 9a ab 3e
       -0.06474637 0.0062026815 -0.1511082 0.33516353
000080 bc db ab bd 31 8f 44 3b 8a e4 17 bd aa e3 c3 3d
       -0.083915204 0.0029992575 -0.037083186 0.09564908
000090 f8 10 35 bc c0 1e 51 3e 2d af d4 bd b8 9f b3 bc
       -0.011051409 0.20421886 -0.10384975 -0.021926746
0000a0 3f 32 83 be 19 21 1f 3e dd f6 a7 3d ad 1e 3d bd
       -0.25624272 0.1553997 0.08201382 -0.046171833
0000b0 63 7b 08 3e ad 61 ab bc ef cb 24 3e 68 7b 89 bd
       0.13328318 -0.020920599 0.1609342 -0.06712991
0000c0 43 36 f5 bd 50 ff 0a bc 3a a5 0c 3e 42 08 0a be
       -0.1197324 -0.008483723 0.13734904 -0.13479713
0000d0 5e 21 e2 3d 4e 15 be 3d 34 98 b0 bd 80 02 0c bf
       0.110415205 0.09281407 -0.086227804 -0.54691315
0000e0 bb 69 c0 3e f0 76 99 bc 39 16 98 be b5 cc af be
       0.37580666 -0.018733472 -0.29704455 -0.34335867
0000f0 b8 c6 0f 3d be ae 83 bc 5e 6d b3 bd 30 53 db bd
       0.035101622 -0.016074535 -0.087610945 -0.10709226
000100 f9 15 ef bd c7 7f 8c 3e 09 97 3a be 7b cc a3 3d
       -0.11674113 0.27441236 -0.18221678 0.07997986
000110 0a 7b e3 bd dc c1 06 3e 01 d5 ce bc 95 60 31 bd
       -0.11107452 0.13159889 -0.025248053 -0.043305
000120 4a d5 39 3e f8 13 bf 3c d6 0b 1f be 81 71 60 3c
       0.1814777 0.023324952 -0.15531859 0.013698936
000130 b4 37 7a be a3 ea ef 3d ad 7f a9 bd 39 ab 32 be
       -0.24435312 0.11714675 -0.08276305 -0.17448129
000140 3a 84 80 be b9 01 35 bd 4f 82 17 be 5a 3d 25 be
       -0.2510088 -0.044191096 -0.14795803 -0.16136685
000150 7b a8 e4 bd ae f0 9f 3b 26 6c 84 be e0 e3 cf 3d
       -0.111649476 0.004880986 -0.2586376 0.101508856
000160 d0 29 5b be 0a a1 da bd d6 bf ef be db 63 f6 3d
       -0.21402669 -0.10675247 -0.46826047 0.12030765
000170 e9 8d b6 bd 6c 58 15 be de f0 f7 3b 6f 3c 56 3e
       -0.08913786 -0.14584512 0.0075665554 0.20921491
000180 e2 25 60 be db ee c1 bd a1 94 5d bd f8 a7 13 bd
       -0.21889451 -0.09469386 -0.05409682 -0.03604886
000190 bf 88 7d 3e 72 08 e0 bd 37 05 d3 3d 82 61 19 3e
       0.24759196 -0.10939111 0.10303729 0.14978603
0001a0 09 b8 cd 3d 50 49 bf 3e 5f 65 0c be f3 02 0a bd
       0.100448675 0.3736062 -0.13710545 -0.03369422
0001b0 7a b4 72 bc f1 12 f2 3d 0b 7b 0b bf 12 93 78 3e
       -0.014813537 0.11820019 -0.54484624 0.24274853
0001c0 cd e5 25 bd ac 4c f5 bd 5a 98 f7 bd 98 cc a9 3e
       -0.04050236 -0.119775146 -0.12089606 0.33163905
0001d0 4c dc dd be 92 3c 72 bb 7f 0a 17 be 4e 71 1c bc
       -0.43332136 -0.0036962372 -0.14750098 -0.009548498
0001e0 49 6f 77 bb 49 8a 9c 3e 89 f1 88 3e df 99 cf 3d
       -0.003775554 0.30574253 0.26746777 0.101367705
0001f0 df ef bf bd b0 12 9e bd ae 1c 61 3e 0b f3 0b 3d
       -0.09371924 -0.07718408 0.21983597 0.03416733
000200 fd 3c 58 bd 3c 39 bc bc 2b f0 80 be 31 a6 97 3e
       -0.052792538 -0.02297651 -0.25183234 0.2961898
000210 a8 66 30 be 68 06 3d 3c 01 b0 5c be 27 0b 2c bc
       -0.1722666 0.011537172 -0.21551515 -0.010500706
000220 8e 6b 8c 3d f6 13 16 3e a0 7a a1 3d 08 b2 4a 3e
       0.06856452 0.14656052 0.07884717 0.19794476
000230 36 06 c3 3d c0 8a a3 bd 23 33 2b 3d 36 2c 42 3e
       0.09522669 -0.07985449 0.041796815 0.18962178
000240 5f 14 62 3e 1f 61 05 bb a8 10 c6 3d ca e7 a4 bd
       0.22078083 -0.0020352078 0.09671146 -0.08052023
000250 35 75 82 bc ce d6 f3 3c ce 60 97 bd 70 65 1a 3e
       -0.01592503 0.029765513 -0.07391511 0.15077758
000260 ff 03 de 3d b2 5c ca 3d 30 bb b3 ba 3e 99 4d be
       0.10840606 0.098809615 -0.0013712402 -0.20077989
000270 b3 42 ed 3d 16 8a 21 3d 07 64 c8 bd af fe 26 bd
       0.115849875 0.03943833 -0.09784704 -0.04077023
000280 c2 b0 89 be 78 96 b9 3e 21 09 db 3d e5 0d 2a 3e
       -0.26892668 0.3624761 0.106951006 0.16606863
000290 01 6b 74 3d 45 b4 20 be 49 7b 19 be 00 68 29 be
       0.05967236 -0.15693767 -0.14988436 -0.16543579
0002a0 97 87 28 be a6 60 41 be 6d 10 a8 be 51 6a af 3d
       -0.16457973 -0.18884525 -0.32825032 0.085652
0002b0 e7 c6 44 be 00 dd 33 be 5a 8b 85 be 83 b7 0a 3e
       -0.192165 -0.17564774 -0.2608288 0.13546567
0002c0 6c 06 01 be 3b 91 35 be d3 88 de bd bd 05 bb bd
       -0.12600106 -0.17731182 -0.10865941 -0.09131954
0002d0 de 48 4a 3e fd 56 5e be 9a 8a 40 3d ae 20 b0 bd
       0.19754359 -0.21712871 0.04700718 -0.08599983
0002e0 d0 38 bb 3d a8 14 81 3d 1e fe 98 bd 95 22 55 3d
       0.091416955 0.06302768 -0.07470344 0.052034933
0002f0 54 1d b3 3d 29 cb 0a bc cd 9e 3a be 80 d1 67 3e
       0.08745828 -0.008471289 -0.1822464 0.22638512
000300 fc 07 9d bd 0d b1 7a 3d d1 75 f5 3d b2 6a 05 be
       -0.076675385 0.061204005 0.11985362 -0.13028982
000310 fa 38 15 3d 05 80 e6 bc 40 72 40 bd 45 39 b0 bd
       0.03643129 -0.028137216 -0.046983957 -0.08604673
000320 00 27 b2 bd 68 8b 7b 3e c3 ca bb bd 34 08 b4 3d
       -0.08698845 0.24564898 -0.09169533 0.08790627
000330 dc d7 1c 3d 3a 64 ae bd 75 19 66 3e b3 c5 87 3e
       0.038291797 -0.085152104 0.22470649 0.2651802
000340 50 c8 5c 3e fe 5f 25 3e 4d 40 9a 3d d5 00 c4 be
       0.21560788 0.161499 0.07531796 -0.38281885
000350 6d 69 d3 3a 93 9d 42 be 9f dd 43 be 57 b4 18 3e
       0.0016129442 -0.19005422 -0.1912751 0.14912544
000360 0f 31 d1 3d 28 48 66 bc 15 1f e4 3d 6e d7 0c 3e
       0.10214435 -0.014055289 0.11138741 0.13754055
000370 9e 9b f4 be 5c 04 92 bb d0 b4 a8 bd ac 13 3f be
       -0.47774976 -0.004456086 -0.08237612 -0.18659848
000380 e3 a4 60 be af 19 a8 3e 42 35 53 be 38 bd ca 3d
       -0.219379 0.32832095 -0.20625785 0.09899372
000390 72 ce cd bd 85 db 0b 3e 92 c6 a7 3d 80 ae 72 3e
       -0.10049142 0.13657959 0.08192171 0.23699379
0003a0 5b 5a 02 3d 86 64 3c bb 65 56 29 3e 9c a5 54 be
       0.03182445 -0.002874644 0.16536863 -0.207663
0003b0 2e 58 53 3d 56 02 2b bd 9c 1c d1 3c 72 3c 6f bc
       0.051597767 -0.041750275 0.025526337 -0.014601814
0003c0 31 b7 e1 bd 16 91 f9 bd f1 78 7e be ce 51 9d be
       -0.11021269 -0.12185876 -0.24850823 -0.30726475
0003d0 93 ca 4f be 51 23 bc be 19 7e 85 3e e1 5d 26 be
       -0.2029212 -0.36745694 0.26072767 -0.1624675
0003e0 2a ee 83 bd 78 5c ca bc 66 0c 7d 3d 7e 8a 19 be
       -0.064419106 -0.024702296 0.061779402 -0.14994237
0003f0 ca c7 10 3e b7 aa b3 bd b9 56 a7 3d 2f 00 7c 3e
       0.14138713 -0.08772796 0.08170838 0.24609445

rnn.weight_hh_l0 f4 [192, 64]
000000 1f 8f b4 bd ca fb 8d bd 9a 5b 2c 3e 77 5f d3 bd
       -0.08816361 -0.069327906 0.16831818 -0.10320943
000010 38 34 ac 3d f1 0b 2e bd d0 4d d7 3c d1 00 fb bd
       0.084083974 -0.042491857 0.026282221 -0.12256015
000020 5c b8 36 3d f1 6d 02 be 6a f2 81 3d c0 88 1b 3e
       0.044609413 -0.12737252 0.06345065 0.15188885
000030 3f 29 36 bc d0 08 30 3e 08 bd c8 3d 4c fb 3b be
       -0.011118232 0.17190862 0.0980168 -0.18357581
000040 c1 5e 6b be 1e c7 f2 bd 7e dd 46 bd 48 f3 82 bd
       -0.22985364 -0.11854385 -0.048551075 -0.063940585
000050 27 58 fd bd 77 7f 68 bd 08 bc c5 3d 1e 1c 47 bd
       -0.12370329 -0.056762185 0.09655005 -0.0486108
000060 69 eb af 3d e7 d5 fe 3d 84 35 ee 3c ef 49 6f 3e
       0.08589823 0.124431424 0.029078253 0.23368047
000070 9d 73 29 bd 84 e9 66 3c 2f 3a 58 3d 3b df 84 bd
       -0.041370023 0.01409376 0.052789863 -0.0648789
000080 69 b4 68 bd e8 5d ee bd 0f 42 54 bd 20 4e de 3d
       -0.056812678 -0.11639005 -0.05182081 0.10854745
000090 45 c7 04 3e 13 6f d1 bc de c7 a2 3c 62 83 68 be
       0.1296664 -0.02556566 0.019870695 -0.22706369
0000a0 c1 da 2d bd 01 1d 33 3e b9 26 1f bd 1d 33 3b 3e
       -0.042444948 0.17491533 -0.03885529 0.18281217
0000b0 56 19 5c 3d 24 05 43 bd b3 df c7 3c c3 ae fc 3c
       0.0537351 -0.047612324 0.02439866 0.030845052
0000c0 02 c3 18 be aa 6d bc bd 4d 8a 18 be bc bd 8e 3c
       -0.1491814 -0.09200604 -0.14896508 0.017424457
0000d0 53 a2 0b bd 3e 7c 66 bd 50 53 67 3e 3b af 9c bd
       -0.03409035 -0.05627083 0.22590375 -0.0765061
0000e0 9f dc 36 3d 67 6a 25 bd a4 80 bb bd 80 bd 0f bc
       0.044643994 -0.040384676 -0.091553956 -0.008773208
0000f0 6b 80 18 be 0c ee 5f bd 3b b6 c5 bd 5d 25 b2 bd
       -0.14892738 -0.05467038 -0.09653898 -0.08698533
000100 39 f8 8a 3e 04 c3 4c 3e ea f2 6c bd cb f6 e7 bd
       0.27142504 0.19996268 -0.05784885 -0.11326369
000110 94 e6 df bd e0 c8 54 bd 04 66 30 bd cd fe 0a be
       -0.10932651 -0.05194938 -0.04306604 -0.13573761
000120 57 d9 3e bd c5 36 87 3d 6a 5b 7b 3e 95 53 34 be
       -0.04659399 0.06602243 0.2454659 -0.17610009
000130 b7 0b f2 bc 5f b0 82 be c0 79 17 be af eb 63 3e
       -0.029546602 -0.25525185 -0.14792538 0.22257875
000140 26 3b 63 bd dc e8 31 3e e9 49 1d 3d 57 52 c2 3a
       -0.05547633 0.17373985 0.038400564 0.0014825565
000150 fe 03 21 3e 5a e1 11 be bf d9 a8 3c 09 b2 77 3b
       0.15724179 -0.14246121 0.020611642 0.0037795326
000160 4c 51 75 3e 79 73 f5 3c 01 9f 2b be 00 a0 3c 3e
       0.23956794 0.029962288 -0.16759874 0.1842041
000170 85 9b cb 3d cc 11 48 3b 9f a1 13 3e 49 e7 f9 bc
       0.09941772 0.0030528186 0.14417122 -0.030505793
000180 a6 ab e8 bd d7 26 21 3e 74 dd 56 3e 5d a4 da bd
       -0.11360864 0.15737472 0.20982915 -0.10675881
000190 c9 c9 c5 bd 55 8d 9d be 03 c2 93 bd 5a 48 c2 3e
       -0.09657628 -0.3077189 -0.07214739 0.37945825
0001a0 a1 e7 07 3e 31 41 48 3c 1a 7f 31 bc b2 bf a7 bd
       0.13271953 0.012222574 -0.010833526 -0.0819086
0001b0 f3 0a fd 3d c6 4f 12 3e 64 7c 98 3d ea 15 78 3e
       0.12355604 0.14288244 0.07445601 0.2422711
0001c0 04 bf 5c bd ce 6a 20 3d f6 1a ea 3d d7 1d 0a 3d
       -0.053893104 0.039164357 0.11430924 0.033719864
0001d0 da 48 0a bd ee cf 71 3e d4 95 f2 bc fe f8 63 3d
       -0.033760883 0.23614475 -0.02961246 0.05565738
0001e0 0a 6b 38 bd 4e 98 13 3e c7 7e 24 3e a2 ed 07 be
       -0.045023955 0.14413568 0.16063987 -0.13274243
0001f0 fb 04 5a 3e e1 6f 78 3d ca ac db bd d6 a0 27 3e
       0.21290962 0.06065357 -0.10726316 0.16369948
000200 15 e8 e6 3d 2c 8c a3 bd 27 c9 d1 bc c2 92 9e 3a
       0.11274735 -0.0798572 -0.025608612 0.0012098181
000210 29 c4 03 3e bf 07 3b be 02 8b 59 bd b2 b0 0b be
       0.12867798 -0.18264674 -0.053111084 -0.13641623
000220 62 e9 d1 bc d8 9a 3d 3d 89 a5 8a 3c b5 02 a9 bd
       -0.02562398 0.04629025 0.016924636 -0.082524695
000230 50 c4 ca bd 59 4b 0c be 2e e0 6b be fe 36 c9 3d
       -0.09900725 -0.13700618 -0.23034737 0.09824942
000240 6b de 94 bd d4 6e 99 3c d3 6c a7 bc 93 e3 1e 3e
       -0.07268985 0.018729605 -0.020437634 0.155165
000250 05 d4 f8 3c 71 dc cf bc 75 6f 88 bd e5 f5 69 3e
       0.030374536 -0.02537367 -0.06661884 0.22847708
000260 00 1c 2b be b7 ea 62 3d 16 c3 1d 3d 9b 3a fa 3d
       -0.167099 0.055399623 0.038516127 0.12218209
000270 a1 27 dc bc 1b 5a 86 3e f5 70 00 be 26 8c 53 be
       -0.026874365 0.2624062 -0.1254309 -0.20658931
000280 98 46 8e bd 69 8d 35 3b 12 a2 3c 3d 73 05 b2 3e
       -0.069470584 0.0027702695 0.046053 0.34769782
000290 c8 7a 8f be a7 cd 1f be 38 a7 35 3e 73 74 29 3e
       -0.28023362 -0.15605794 0.1773957 0.16548328
0002a0 0a 70 1f bd cc ba e1 bd fa 87 1d be 4e bd 79 3d
       -0.03892521 -0.11021957 -0.15383902 0.06097155
0002b0 60 89 9e bd b8 8c ce be fd e0 32 be 5b f5 87 3d
       -0.07741046 -0.40341735 -0.17468639 0.06638595
0002c0 8a 8f 39 be 97 64 67 be 97 18 0f 3e b4 9b 2b be
       -0.18121162 -0.22596966 0.13974224 -0.16758615
0002d0 79 0c d2 3d c4 bf a4 3d 8f 8b 3c be 8c df 68 be
       0.10256285 0.08044389 -0.18412612 -0.22741526
0002e0 59 cb 12 be b5 71 1e 3d 92 0b 91 bd b7 f4 55 bd
       -0.14335383 0.03868266 -0.07082285 -0.05223533
0002f0 5a ee 68 bd 5e 96 1b 3e a2 83 7c be df 89 e5 bd
       -0.056867935 0.1519408 -0.24659589 -0.112079374
000300 83 b9 86 3d a3 84 e6 3d 6e 8c 1d be 32 de 7a bd
       0.06578352 0.11255767 -0.15385601 -0.06124706
000310 cf da 82 bd ed a9 e3 bd f8 e2 71 3d c7 c8 22 3e
       -0.06389391 -0.11116395 0.059054345 0.15896903
000320 bf ad f0 3d dc a7 d1 3c 93 32 f8 bd 03 b8 0a be
       0.117518894 0.025592737 -0.12119021 -0.13546757
000330 8e 8a b2 bb a8 cd 6b be 30 f6 08 be cb 13 5a 3e
       -0.005448646 -0.2302767 -0.13375163 0.21296613
000340 01 55 e8 bd 4c fa 85 3d 09 69 5e 3d 7d a6 da bc
       -0.11344338 0.06541881 0.054299388 -0.026690716
000350 f1 21 ab 3d 7a cf 47 be bb 3c 58 be 7a 36 19 3e
       0.08356083 -0.1951274 -0.21116917 0.14962187
000360 6d c2 54 3c 6c d0 57 3c 9e 25 61 bd f9 ec b0 3c
       0.012985808 0.01317225 -0.054967515 0.021597372
000370 da 12 27 be 82 02 6f 3a 03 e7 5a bd 79 72 f3 bd
       -0.16315785 0.00091175 -0.053442966 -0.11887068
000380 6b 42 0f be ae 43 59 3e 04 be 12 3d 95 93 b1 3d
       -0.1399018 0.21217224 0.035825744 0.08670727
000390 69 a7 be bc 3e 62 14 be e7 bc 59 3e 2f 65 83 3c
       -0.023273187 -0.14490601 0.21263467 0.016039459
0003a0 68 41 ba 3d 09 cb b9 3d a8 81 64 bd 86 8e f2 3b
       0.090945065 0.09071929 -0.055787712 0.007402244
0003b0 3e 08 b4 3c eb cc b1 be 39 d1 fc 3d b1 28 7d 3e
       0.021976586 -0.34726653 0.123445936 0.24722554
0003c0 9a cf cb bd d0 b1 4c bd 2f 43 46 3e 52 22 1e bd
       -0.09951706 -0.049974263 0.19361566 -0.03860695
0003d0 60 64 02 3e eb 3d 43 bc 13 21 c7 bd 0d 26 c0 bb
       0.12733603 -0.011916618 -0.09723105 -0.005863911
0003e0 ec 0a 1c 3d a8 cb e1 3d e0 1d fc 3d 4e 2b 44 be
       0.038096353 0.110251725 0.12310386 -0.19157144
0003f0 35 5f 1f be 79 d5 06 3e 55 31 ae 3d a3 35 87 3e
       -0.15563662 0.13167371 0.08505503 0.2640811

rnn.bias_ih_l0 f4 [192]
000000 07 c3 77 3d 0c 8d 23 3d c4 49 6f 3e 97 3d 0d 3d
       0.060488727 0.039929435 0.23367983 0.034482565
000010 2b 02 a5 3e 6d 92 f1 bd 47 9d 76 3d b3 0f 78 bd
       0.32228217 -0.117955066 0.060208585 -0.060561847
000020 d8 8d c9 3d 19 de 39 bd 9c da 4c bd 74 5e 9e be
       0.09841508 -0.045377824 -0.05001317 -0.30931437
000030 e6 59 78 bd 61 ca bf bd f5 5a 67 bd d2 e2 70 3d
       -0.06063261 -0.093647726 -0.056483228 0.058810063
000040 8a ab 07 be 70 10 72 be ce b5 ca bd 10 88 ad 3d
       -0.1324903 -0.23639083 -0.09897958 0.084732175
000050 b9 2c 3b 3e f9 f4 c9 3d 14 c5 00 be 30 90 ad bd
       0.18278779 0.09861178 -0.1257518 -0.08474767
000060 3f 47 48 bd b8 57 78 bd 8b 9f 2a bc ea 7c c5 3d
       -0.04889607 -0.06063053 -0.010414015 0.09642966
000070 60 78 eb 3d 19 aa 29 bd d3 81 26 3d 07 cf 05 be
       0.11497569 -0.041421983 0.040651154 -0.13067256
000080 cb b6 43 bd 12 78 a7 bc fd 76 58 be 36 73 d4 3d
       -0.047781747 -0.020442996 -0.2113914 0.10373537
000090 59 af d3 3d 91 60 df bc a0 e8 ac ba 61 ca c9 bd
       0.10336179 -0.027267726 -0.0013191886 -0.09853054
0000a0 27 25 ea bc a7 c5 9f 3c 14 4b 68 be 2d bf e5 3d
       -0.028582169 0.019503428 -0.2268489 0.112181045
0000b0 7a ce 74 be f3 1f aa bd 35 13 8e 3b ed e4 b8 3c
       -0.2390689 -0.08306875 0.0043357858 0.022570098
0000c0 0c 70 ad be 32 25 55 be 2d 79 ac bc 80 40 da 3d
       -0.33874547 -0.2081497 -0.021053875 0.10656834
0000d0 dc e6 5d 3e 4d 0b 5a bc 2d 70 28 be de ee 5d 3e
       0.21670097 -0.013308358 -0.16449042 0.21673152
0000e0 10 c6 8b bd 51 5f 8d bd db 2c 11 3e 03 44 1f 3e
       -0.06824887 -0.06902946 0.14177267 0.15553288
0000f0 8c 35 6d be 9b e9 56 bd a1 f7 3c 3d 43 14 d8 bc
       -0.23164958 -0.052468877 0.046134595 -0.026376849
000100 14 69 7c 3e 5a cd dd 3d 71 fe 0c be bf 57 25 3e
       0.24649459 0.10830183 -0.13768937 0.16146754
000110 8a 64 be bb 99 ab da 3d 08 51 58 bd d4 7c ec bb
       -0.005810325 0.10677261 -0.052811652 -0.007217029
000120 48 92 c3 bc b9 59 3e 3d 4c 6b 67 3d 7f 37 d2 3d
       -0.023873463 0.046472285 0.05649881 0.10264491
000130 13 9c 9e 3d c3 2c 98 3d bb 0d 04 bd a6 04 51 be
       0.077446125 0.074304126 -0.032239657 -0.2041193
000140 2e 9f d6 bc 46 36 b0 bd ae ae 24 3d 46 2e cb 3d
       -0.02619895 -0.08604102 0.04020565 0.09920935
000150 cb c8 35 3e d6 e7 91 3d 6e ca 05 bd 83 fc e6 3d
       0.17752378 0.07124297 -0.032663755 0.112786315
000160 2a e3 7a bc 75 8e 08 bc 89 14 74 bc 4d 41 2e bd
       -0.015312949 -0.008334746 -0.014897474 -0.042542744
000170 8d b5 46 3e 4d c7 a7 3d d0 a0 0b 3d 80 9d 04 bc
       0.19405194 0.081923105 0.03408891 -0.008094192
000180 63 05 57 bd b2 25 a1 3d 9b 98 93 bc ba db 03 bd
       -0.05249537 0.07868518 -0.018017104 -0.03219197
000190 8f 25 0c 3e 54 b5 c4 3c 87 67 c8 3d bc c8 25 be
       0.13686202 0.024012245 0.09785371 -0.16189855
0001a0 56 8e 9b 3d 0b 62 c9 bd 22 81 9d bc ba ce d1 3c
       0.07595508 -0.09833153 -0.019226614 0.02561127
0001b0 35 10 04 3e 04 13 48 3e 46 49 d1 3d a5 7b 69 bd
       0.12896807 0.19538504 0.10219054 -0.057002682
0001c0 38 bd 2d bd 24 9b 28 3d f8 f3 1d 3e 88 a7 ed 3d
       -0.04241678 0.04116358 0.15425098 0.1160422
0001d0 73 6e 03 3e e0 88 14 3d 8f 74 d9 bc 74 c9 bf bc
       0.12835102 0.036263347 -0.026544837 -0.02341149
0001e0 3b 58 65 bd e1 30 12 be 5f e5 08 3e 62 69 cb 3d
       -0.055992346 -0.14276458 0.13368748 0.099322096
0001f0 35 07 68 bd 6f b1 12 3e 75 56 52 3e 67 98 f3 3d
       -0.0566475 0.14325498 0.20540793 0.11894303
000200 15 f5 38 3d fa 83 88 3d 9c 96 a3 3d a1 8f 1e bd
       0.045155603 0.066657975 0.07987711 -0.038711194
000210 ee ca 06 3e 3b 6a cb bd 53 d0 85 3d 04 69 b9 bb
       0.13163349 -0.09932371 0.06533875 -0.005658271
000220 a7 3c af 3c 22 19 34 bd cf 93 1f bd 84 82 90 3d
       0.021391226 -0.04396928 -0.03895932 0.07056144
000230 de 10 1a bd d5 6a 1d bd 5b 0e f9 bd fb 0b 1c be
       -0.037613742 -0.03843196 -0.12160941 -0.15238945
000240 3a 68 9f bd 73 25 e0 bd 3f fb 20 be 5d a3 a6 bd
       -0.077835515 -0.10944643 -0.15720843 -0.08136628
000250 40 a1 e1 bd 98 3d 73 bd 64 c4 d6 bd 7f 02 f9 3c
       -0.11017084 -0.059384912 -0.10486677 0.030396698
000260 7f ff a6 3d 4b c9 89 bc 3e 92 6b 3d 92 c2 e9 3d
       0.08154201 -0.016819617 0.057512514 0.114140645
000270 44 b3 d9 3c 83 d5 f7 3c 61 55 96 3d d1 6e 67 bc
       0.026574738 0.030253178 0.073405035 -0.014125542
000280 8d 26 04 bd d2 95 b2 bd b1 3a bb bd 9e a1 78 3d
       -0.032263327 -0.08719982 -0.09142054 0.060701005
000290 17 0d b4 3c d2 ec 18 bd 4d 70 fc bd 27 bf 05 3d
       0.021978898 -0.037335224 -0.12326107 0.032653
0002a0 00 0a 21 3d fc 18 88 3d d2 29 f1 3d 32 78 be bd
       0.039316177 0.066453904 0.11775555 -0.09300269
0002b0 4c 5e 8a bc df c9 9c bd 5a 52 10 3e d2 7e ca bd
       -0.016890667 -0.07655691 0.14093915 -0.0988747
0002c0 da a8 00 bd 32 b2 12 be ee 60 02 3e 2c fb 86 bb
       -0.03141103 -0.14325789 0.12732288 -0.0041192975
0002d0 09 65 3f 3d c2 1e 91 3d cd b8 ef bd fe 64 c8 bd
       0.046727214 0.07085945 -0.1170517 -0.09784888
0002e0 c2 5c b4 3d ac cc 90 3c c9 2d 40 bd 5d 00 f0 bc
       0.08806755 0.01767572 -0.046918664 -0.029297048
0002f0 b0 e1 27 3d 0d e9 57 bd 48 50 ea 3d a2 b1 05 be
       0.040986717 -0.05271249 0.11441094 -0.13056043

rnn.bias_hh_l0 f4 [192]
000000 90 84 45 3d 9b d6 20 3d cf ea c3 3d 37 89 33 3e
       0.048222125 0.039267164 0.095662706 0.17532812
000010 0d 01 2d 3e 48 12 5f be 35 9b 6c bd b5 49 8a 3c
       0.16894932 -0.21784317 -0.057765204 0.01688085
000020 dc 03 b3 bd a5 91 30 bd fc 4b e4 3d b7 29 97 be
       -0.087409705 -0.043107647 0.11147305 -0.29524013
000030 04 fe 13 be a2 9f e1 3d a6 11 3a be 95 c7 37 be
       -0.14452368 0.11016776 -0.18170795 -0.17947228
000040 83 72 1b be af ec 30 be 1d 53 32 3d 1c 9c c2 3c
       -0.15180402 -0.17277788 0.043536294 0.02375608
000050 6b 61 2f bd 23 d1 84 3d 51 20 32 bd 93 e3 2a be
       -0.042817514 0.06485202 -0.04348785 -0.16688375
000060 15 3a d7 3c f8 1b 19 3e 8f 5b eb bc fc ca 5e 3d
       0.026272813 0.14952075 -0.028730182 0.0543928
000070 fd 1d 85 bc c3 d2 1f be 1b fd 16 3e 88 1e f6 bd
       -0.016249651 -0.15607743 0.1474499 -0.12017542
000080 97 09 1a 3e 86 28 57 bc 2f cf 0f be 9f 30 66 3c
       0.1504272 -0.01313222 -0.14043878 0.014049678
000090 fc af 03 3e 6b f7 a3 bd fc d9 ac 3c 96 7e 0f bd
       0.12860101 -0.080061756 0.021100037 -0.03503283
0000a0 33 39 fe 3d 12 6b f2 3c 4c f3 01 be 4f 71 88 3d
       0.12413254 0.02959207 -0.12690467 0.06662237
0000b0 37 c6 83 be 23 4b cb bb f2 fb 53 3e 02 e1 6f bd
       -0.25737163 -0.0062040254 0.20701578 -0.058564194
0000c0 7e 73 74 be 86 56 f5 bd 4c ab b9 bb 38 06 93 3b
       -0.23872182 -0.11979394 -0.005666172 0.0044868253
0000d0 f6 c7 5d 3e 93 36 a5 bd cf ec 22 be d8 7f 79 3d
       0.2165831 -0.0806705 -0.15910648 0.060912937
0000e0 93 68 cc 3d 8d 14 11 be ba 34 17 3e a2 29 52 3d
       0.099808834 -0.14167996 0.14766207 0.051309235
0000f0 e1 9e 01 be 4c bf b7 bc bd bb 5d 3e ad b8 0a 3d
       -0.12658264 -0.022430085 0.21653648 0.033867527
000100 a0 f6 0a 3e c5 83 bd 3d 3e 40 77 3d 02 ed af 3e
       0.13570642 0.09253649 0.060364 0.3436051
000110 80 0c cd 3d cf 64 2b bd b8 3c c6 3d e9 db 1c 3d
       0.1001215 -0.041844185 0.0967955 0.03829566
000120 67 a9 2c 3e 28 f4 df bd a4 2e 6e bb 05 a9 61 3d
       0.16861497 -0.10935241 -0.0036343718 0.05509283
000130 bb 4b 7c 3d d8 33 7a 3c bb bf 81 3d cb 6f 37 be
       0.06159566 0.01527115 0.06335398 -0.1791374
000140 6f 39 e1 3b 6b ab 0e be 12 ef 04 3e c6 7f 56 3e
       0.0068733017 -0.13932578 0.12981823 0.20947179
000150 8f 5d a2 bc 89 c4 89 3d 5d 2e f0 3d 17 3b 7b 3d
       -0.019820003 0.06726939 0.11727593 0.06133565
000160 2b 8a c0 3d 30 83 9a 3c c8 1e 95 bd 2d 19 33 bd
       0.094013534 0.018861383 -0.07281262 -0.04372518
000170 6c 72 be 3b 08 d8 c9 3c d5 c0 3e bd ad 8c f7 3d
       0.00581198 0.024639145 -0.046570618 0.12087379
000180 96 1d fa 3d 70 0c 1e 3d e6 e9 2d be 90 97 1d bd
       0.12212674 0.03858608 -0.16983756 -0.03847462
000190 1b 62 2c 3e f0 2d 08 3d 9f 8b 3c bb cc 1a 32 be
       0.168343 0.033246934 -0.0028769744 -0.17393035
0001a0 91 39 08 3e b8 c4 9a bb 87 1d 52 3d 15 93 d1 3d
       0.1330321 -0.0047231577 0.05129769 0.10233132
0001b0 bf 2b da 3d 50 ab 3e 3e 03 f0 0b 3e 0a 9e d8 3d
       0.10652875 0.18620038 0.13665776 0.105770186
0001c0 9d 61 cc 3c f7 07 16 3e e8 dc af 3d 29 56 4b 3e
       0.02494889 0.14651476 0.085870564 0.19857086
0001d0 ed 2f 74 bd 2d 10 8a 3d 51 d9 17 3e da 2f 9d 3d
       -0.059616018 0.067413665 0.14828993 0.076751426
0001e0 db 36 21 bd 69 96 45 3a 12 7c c4 bc 1d 12 0b 3d
       -0.039358955 0.00075373665 -0.023984943 0.03395282
0001f0 ff b0 06 3e 9c 0d 8c bd a4 55 cf 3d 0d bf 9c bb
       0.13153456 -0.06838533 0.101237565 -0.004783517
000200 3a 79 dc bd 60 dc 8b bc 3c c9 76 3d 24 bd a7 3c
       -0.1076531 -0.017072856 0.060250506 0.020475931
000210 50 26 1a 3e 5a 3a be bd 95 6f 31 3e ed 15 e1 3d
       0.15053678 -0.092884734 0.17327721 0.1099051
000220 f6 4c bf 3d cd 9e 02 be 86 39 0a 3e 8a f6 a6 3d
       0.09340851 -0.1275589 0.13498506 0.08152492
000230 ce 0c 8a bd 3e 5e 8f bd 7d 14 5a bd c2 8b 1d 3d
       -0.067407236 -0.07000397 -0.053242195 0.03846336
000240 3d 98 1c be 0c c4 06 be 1a 28 02 3d 30 88 e7 bd
       -0.1529245 -0.13160723 0.031776525 -0.113052726
000250 70 42 d0 bd 99 65 b8 bd 1c 34 d8 bc d5 8f 58 3d
       -0.10168922 -0.09003753 -0.026392035 0.052871544
000260 52 31 b0 bd b3 24 a0 3c 12 e6 08 be d2 d8 25 3d
       -0.08603157 0.01954875 -0.13369015 0.04048998
000270 4e 5d 93 3c 7e 25 86 3d 73 06 e7 3d a0 d3 b4 bb
       0.017988827 0.0655012 0.11280527 -0.0055183917
000280 12 86 a5 bd 09 de 18 3c 28 29 96 bd 05 74 02 3d
       -0.080822125 0.009330281 -0.07332069 0.031848926
000290 a9 c5 99 bd 3e 1a 8b bc 39 6d ad bc 3f 63 ee 3c
       -0.07508404 -0.016980287 -0.021170245 0.029100059
0002a0 35 c3 0e be 21 61 44 3e 24 a6 81 3d 6e 66 fe bd
       -0.13941653 0.19177677 0.06330517 -0.12421881
0002b0 bf 3d 9f bd 2b 03 30 be 0f 8b 4c bd ab be 07 bc
       -0.07775449 -0.17188708 -0.049937304 -0.008285205
0002c0 50 0f 74 bd ca 9f 8d bd 70 60 ca 3d 33 0c 0b bd
       -0.059584916 -0.06915243 0.09881675 -0.03394718
0002d0 ba 52 47 3d 76 52 5e bd 9d 68 b3 bc e5 3a e6 3d
       0.04866288 -0.05427786 -0.02190047 0.11241702
0002e0 ac fb b5 3d ca c8 03 3d 40 e9 94 3b a9 90 1d 3d
       0.08885893 0.03217391 0.004544407 0.038468037
0002f0 32 9f 03 3e e1 6b 14 bc ea d8 1b 3e a7 1d f9 bd
       0.12853697 -0.009058923 0.15219465 -0.12163859

rnn.weight_ih_l1 f4 [192, 64]
000000 2e 5b 3f bb 0b 3e 9c 3e d4 5a 2b be 36 6a 06 be
       -0.0029198634 0.30516085 -0.16733867 -0.13126454
000010 24 64 1a be 71 89 11 bd b5 c3 41 be bc 1e fb 3c
       -0.15077263 -0.035531465 -0.18922313 0.030654304
000020 78 23 90 bb c7 78 02 3d 27 82 90 3d 3c 10 02 3c
       -0.0043987595 0.031853464 0.070560746 0.007938441
000030 fe fb 8d 3e 7c d0 2f 3d 35 54 14 3e 11 c4 08 bd
       0.27731317 0.042923436 0.14485247 -0.03339011
000040 4f a6 9d 3d f0 6e 6c 3e 48 a6 86 bb cb 9f a2 be
       0.076977365 0.23089194 -0.0041091777 -0.31762537
000050 95 23 09 3d e6 5e 40 bd 93 0f 53 3d f5 84 70 be
       0.0334812 -0.046965502 0.051528525 -0.23488219
000060 56 b1 d4 3e 47 fb 8c 3c 05 57 bf bd 51 b1 ca bd
       0.41541547 0.017209662 -0.093427695 -0.09897102
000070 c6 dd 9f 3d 66 4d 15 be 55 f5 4a 3e cd b6 a3 bc
       0.07805972 -0.14580306 0.19820149 -0.019984627
000080 3d 68 3b be e7 d0 93 bd 0a 38 19 3e 55 87 95 be
       -0.18301482 -0.07217579 0.14962783 -0.29204813
000090 d0 0e e5 3d 07 28 ec 3b 30 8e 22 3d e9 ad bc bb
       0.11184466 0.00720692 0.03968638 -0.0057580364
0000a0 ee c4 33 3e 2b 0e 45 3d 2d 44 96 3e 4a c1 8f 3c
       0.17555591 0.048109215 0.2934889 0.017548222
0000b0 16 9c cc bd 46 25 53 3e 9b 0a 1b 3e e4 8e d4 3d
       -0.099907085 0.20619687 0.15140764 0.10378817
0000c0 82 15 36 bd 4b 11 ee 3b 89 aa ae bd 2b ef 1b 3b
       -0.044454105 0.007265245 -0.08528621 0.0023793678
0000d0 b8 64 81 bd 34 f6 8f 3e 76 e4 8a bc c2 96 68 3e
       -0.06318039 0.28117526 -0.016954642 0.2271376
0000e0 ff b1 e1 3e 08 4a a7 bd cd c8 7c bd 8d 35 ce bd
       0.44081113 -0.08168417 -0.061714936 -0.10068808
0000f0 57 10 2a 3d 8d 19 09 3b 08 80 9c 3d 54 1b b2 bd
       0.04151949 0.002091977 0.076416075 -0.08696619
000100 11 40 36 3e 6e 2b de bc 15 dc 5e be 0e 2b 72 be
       0.17797877 -0.027120318 -0.21763642 -0.23649237
000110 9c 04 86 be ab 55 f6 bd 0c 4c 09 bf 9f e3 d0 3d
       -0.26175392 -0.120280586 -0.53631663 0.10199665
000120 f5 fa 66 be 6d 9c 68 3e 62 53 f9 bd db 28 76 be
       -0.2255667 0.22715922 -0.12174107 -0.24039023
000130 61 fd b4 bd b3 57 29 be 90 2d 14 be 9a df 25 3e
       -0.08837391 -0.16537361 -0.14470506 0.16198578
000140 c5 69 5c 3e 53 cc 92 3e ee ce 0c 3d 42 3b 96 3e
       0.21524723 0.28671512 0.03437703 0.29342085
000150 89 f8 b7 3e e0 6a a7 bc a2 ab 2d 3e 5e 35 44 3e
       0.35931805 -0.020436704 0.16960004 0.19160983
000160 09 02 ba ba 19 8a 84 3e d3 e6 44 3e db 53 a1 3d
       -0.001419128 0.2588661 0.19228677 0.07877322
000170 d9 b2 21 3c 22 80 af 3d 81 7a 6c 3e ab 78 1d be
       0.009869301 0.08569361 0.23093607 -0.15378062
000180 cc 2e 48 3e 56 e5 4a 3e c2 fd 94 3e a9 07 a9 bd
       0.19549102 0.19814047 0.29099852 -0.08253414
000190 9c b4 36 bd e1 30 fc bd 50 cf ae 3a 1a 73 50 3e
       -0.044605836 -0.123140104 0.001333693 0.20356408
0001a0 c3 68 96 bc 01 64 c6 3d 6d 70 18 be aa 50 ab bd
       -0.018360501 0.09687043 -0.14886637 -0.08364995
0001b0 07 03 34 3d fd f9 0c 3e e4 f1 53 bb 84 e3 0d 3e
       0.0439482 0.13767238 -0.0032340223 0.13856322
0001c0 eb 47 36 3d df 21 f3 bd 5a 2b 07 3e 87 30 88 3d
       0.04450218 -0.11871695 0.13200131 0.06649881
0001d0 f4 83 60 3e 51 b0 47 3e 9f 0b 0a be 4b 16 68 3d
       0.21925336 0.19500853 -0.13480996 0.056661885
0001e0 b5 3d 77 bd d7 d2 a3 3d a9 6b ff 3d a6 32 92 bd
       -0.060361583 0.07999199 0.124717064 -0.07138567
0001f0 95 0d 89 3d fa a3 89 3d de d4 36 be 7c ec 0e bc
       0.06692044 0.06720729 -0.1785464 -0.008723374
000200 9d c1 94 3e 36 59 d2 bc c3 d0 95 bd 4a 23 af bd
       0.29053965 -0.025677305 -0.07315209 -0.08551653
000210 9c c4 b8 3c e1 96 bd be 0b c8 13 be 39 c1 b2 3e
       0.022554688 -0.37029174 -0.14431779 0.34913042
000220 78 81 37 be 03 b5 9e bb d4 f8 9d bd e9 9d c3 bd
       -0.17920482 -0.0048433556 -0.07713476 -0.09551603
000230 68 80 a8 be e2 dd 69 be a7 e4 29 be 85 59 ca 3d
       -0.32910466 -0.22838548 -0.1659113 0.09880356
000240 c3 be b7 3d 43 dc a2 bd b8 ad e3 3d 17 b7 af 3c
       0.08971932 -0.07952168 0.111171186 0.021449609
000250 11 e1 69 3e ea 79 86 be 53 f5 f8 bc c7 df 1e 3e
       0.22839762 -0.26264888 -0.030390417 0.15515052
000260 bd e5 28 3e e5 07 57 3e 22 95 97 3d d8 ef 68 3d
       0.16493888 0.20999105 0.07401492 0.056869358
000270 89 6a 46 be 40 55 c2 3d 5c 91 94 3e 8c 48 a6 be
       -0.19376577 0.094889164 0.2901715 -0.32477224
000280 4f 32 76 be 10 3a 8d 3e c1 da 1d 3c 60 09 59 3d
       -0.24042629 0.2758336 0.0096346745 0.052987456
000290 32 0b be bb 7b 65 29 be 15 fe fc 3d ca c8 9d 3e
       -0.0057996744 -0.16542618 0.1235315 0.30817252
0002a0 de 35 ef 3d b0 60 ab 3e b7 d3 62 bd 5d a6 65 be
       0.11680196 0.33472204 -0.05537769 -0.22426744
0002b0 ca 90 ee 3d bd fd 5c be 8d 9a 10 3e b2 72 89 3e
       0.1164871 -0.21581168 0.14121456 0.26845318
0002c0 a7 b2 27 be 7e ce a6 3b 82 f2 73 3e 58 61 14 bd
       -0.16376744 0.0050905338 0.23822978 -0.036225647
0002d0 33 6c 8a 3e 6a e4 d8 bd 8f 96 b5 be 52 99 79 3c
       0.27035674 -0.105904415 -0.3546643 0.015234308
0002e0 f2 b6 e9 bd 2d b0 97 3e 8e 63 9f 3e b5 02 70 be
       -0.11411847 0.296266 0.31130642 -0.23438533
0002f0 46 cd bb 3d 81 5a 93 3e df df 0a 3d b2 16 2a 3e
       0.09170012 0.28779987 0.033904906 0.1661022
000300 14 c0 fb bb b2 96 19 3d 9e d3 d8 bc 4e 5a c7 3d
       -0.0076828096 0.03749723 -0.026468094 0.09734021
000310 c0 54 40 3e 69 67 89 bd 62 00 3d 3d a5 38 84 bd
       0.1878233 -0.06709177 0.046142943 -0.064561166
000320 24 4d 47 3d 7d 7f b8 3e da c1 91 3d 04 d6 05 3e
       0.04865755 0.36034766 0.071170524 0.13069922
000330 97 10 27 bd ac 33 22 3e 3e f7 3b bd 42 23 00 3d
       -0.040787306 0.15840024 -0.045890085 0.031283624
000340 f0 79 2b 3c 30 79 62 3e f2 49 09 3d 41 e7 0f 3d
       0.010466084 0.22116542 0.033517785 0.03513265
000350 14 d5 28 3b fd 2e 96 3d 3f 46 51 be 64 63 3d be
       0.002576177 0.07333181 -0.20436953 -0.18494946
000360 52 34 3a bc 55 d8 d9 bd 17 fd 1b 3e b7 6c 08 3e
       -0.011365013 -0.10636965 0.15233265 0.13322721
000370 12 ab 5a 3e ca f4 87 3d 45 9f 42 be d5 04 82 3d
       0.2135432 0.06638487 -0.19006069 0.06348578
000380 28 41 a4 bc 0a bb 17 bc 0f 40 2b 3e b6 c6 3d 3a
       -0.0200506 -0.009260902 0.16723655 0.0007239388
000390 32 47 01 be dd a4 64 3e 14 d2 11 3e d7 ca 0e bd
       -0.12624815 0.22328515 0.14240295 -0.034861412
0003a0 fd 61 8b bd 02 a8 07 be 8e 23 08 3e 84 2d 96 3c
       -0.06805799 -0.13247684 0.13294813 0.01833225
0003b0 1c d4 d9 3d 5b dc 5e be 82 87 56 bc cd 5a 10 3e
       0.1063616 -0.21763746 -0.013093831 0.14097138
0003c0 85 35 32 be 06 a9 19 ba bb fc 0a 3d 1f 1e f9 3d
       -0.17403229 -0.0005861673 0.03393243 0.12163948
0003d0 46 99 cf bc 7e b8 f0 bb 3c b1 46 3e 6b e4 e3 bc
       -0.025341641 -0.007346212 0.19403547 -0.02781888
0003e0 34 f0 51 3e 2b 4a 55 3d 56 b5 5f bd 0e 35 7e bd
       0.20501786 0.052072685 -0.054616295 -0.062062316
0003f0 4c 32 23 bd 9b 9c 93 bd 8a c2 07 be 03 86 5a bd
       -0.03984289 -0.072076045 -0.13257805 -0.05335046

rnn.weight_hh_l1 f4 [192, 64]
000000 f5 1c 3a be 86 17 bb 3d bb 98 f3 bc 92 95 63 3e
       -0.18175109 0.09135346 -0.029735914 0.22225025
000010 a7 61 aa bd 92 6a 86 3d ae 57 18 bd e0 c0 a7 3c
       -0.08319407 0.065632954 -0.037192993 0.020477712
000020 1f 8a 4d 3d 00 1d c6 3d 87 4d 0e 3e af 49 00 be
       0.05018055 0.096735 0.13896762 -0.12528108
000030 94 de 72 3e 40 de 37 3e 84 52 3e be 9f 36 67 bd
       0.2371772 0.17955875 -0.18586165 -0.056448575
000040 fe 0e fd 3d 62 d0 4f 3d df 8a 82 3e 03 e5 d0 bd
       0.12356375 0.05073584 0.25496575 -0.101999305
000050 6e bc 0d bd 1f 60 7d 3c d8 ff 5c 3e 3f 5c d0 3d
       -0.03460353 0.015464812 0.21581972 0.101738445
000060 8c 00 8b 3e c7 30 3e bd 92 6e d7 bd 59 75 c8 3d
       0.27148855 -0.046433236 -0.105191365 0.09788007
000070 18 78 37 3d a9 f8 a1 bd b4 9b 8e 3d 83 28 00 bd
       0.044792265 -0.07908756 0.06963292 -0.031288635
000080 70 fb 9f bd 47 53 30 be f6 79 bf 3d 83 61 0f be
       -0.0781163 -0.17219268 0.09349434 -0.14002042
000090 f0 6d 8e 3d f0 16 ca 3c d8 ff d2 bb 29 b0 55 bc
       0.06954563 0.02466914 -0.0064391904 -0.013042488
0000a0 f9 4f 03 3e 32 46 ab be a5 fa a9 3e 59 03 a3 3a
       0.12823476 -0.33451992 0.3319904 0.0012436911
0000b0 ec 91 b7 bd 7b a6 1b be 3e 4e 65 be ac 4f 00 bd
       -0.08963379 -0.15200226 -0.22393128 -0.03132598
0000c0 af 76 d9 bc 57 08 26 bd 9b 82 89 3e 89 26 cf bd
       -0.02654585 -0.040535297 0.26857457 -0.10114772
0000d0 21 42 7b 3e ef 3e c4 3d c8 e6 02 3e bd 1f ca 3d
       0.24536945 0.09582316 0.12783349 0.09869335
0000e0 ab 6c 37 3e de e4 40 bd 75 08 a4 bc 30 97 1c 3d
       0.17912547 -0.047093265 -0.020023564 0.03823012
0000f0 aa 36 98 3d f5 13 d8 3c 36 0d 5a 3e 26 e8 33 3e
       0.07432301 0.026376704 0.21294102 0.17569026
000100 7f aa 7c 3e c7 17 81 3d 4b 8e 62 bd b5 ab 15 be
       0.24674414 0.06303363 -0.055311482 -0.14616282
000110 2e 5a 27 be 99 3e 7a be 4f 1b 63 bd b9 44 0e 3e
       -0.16342995 -0.24437942 -0.055445965 0.13893403
000120 74 38 15 bd 83 ce 4a 3e 50 e2 57 3e 00 7c 8a be
       -0.03643079 0.1980534 0.21082425 -0.2704773
000130 5e 2e 5a be a1 60 bf 3d 66 17 9f bd 5b 72 c9 3d
       -0.2130675 0.093446024 -0.07768135 0.09836265
000140 8b 55 8e 3d ee 27 ee bd 4b d5 04 3e 42 8d b7 3e
       0.0694991 -0.1162871 0.1297199 0.3584996
000150 8c 8c 86 3e cb a8 6e 3e 05 27 12 3d b9 d6 4f bd
       0.26279104 0.23306577 0.035681743 -0.050741885
000160 b1 33 2e bd a7 37 cd bd 21 59 4c 3d c9 0b 07 be
       -0.042529766 -0.100203805 0.049889687 -0.1318809
000170 1e 9a 1e bd 21 c8 24 be 8a 86 20 3d 5f 55 c8 bd
       -0.038721196 -0.16091968 0.039190806 -0.09781908
000180 65 a9 02 3d e8 7a 3f 3e 2f 84 88 bd ee aa cb bd
       0.03189983 0.18699229 -0.06665837 -0.099447116
000190 5b 7e 96 bd 33 b1 1d bd 49 52 9f be b7 fe d3 3d
       -0.07348319 -0.03849907 -0.31117466 0.103513174
0001a0 da d0 71 3e ce a5 2c be b8 73 c9 be 4a dc 25 be
       0.23614827 -0.16860124 -0.393461 -0.16197315
0001b0 49 f5 ad bd d2 3b 25 ba c4 1e 8e be 3c f8 82 be
       -0.0849405 -0.00063031644 -0.27757847 -0.25580013
0001c0 49 8a 8f 3d 6c 8b 04 be 80 b7 9a 3d 35 6c c9 be
       0.07008798 -0.1294381 0.07554531 -0.39340368
0001d0 9f 38 eb 3d 51 84 09 3e 64 52 68 bd 24 06 ed 3c
       0.11485409 0.13429381 -0.0567192 0.028933592
0001e0 c1 10 a8 ba f7 93 b6 bc 47 ed 12 3e 39 a4 c9 bc
       -0.0012822376 -0.022287352 0.14348327 -0.02461444
0001f0 97 4c 73 3e 84 a9 f3 bc 9b 3f a4 3d b0 d5 81 3b
       0.23759685 -0.029743917 0.08019944 0.003962241
000200 39 46 3f 3e 3a 93 b7 bd 19 8b 54 bd 6f 5b 2a be
       0.18679132 -0.08963628 -0.051890466 -0.16636442
000210 e7 35 ab bd 5b 55 bc 3c c3 0a ba bd 9a da 14 be
       -0.083598904 0.02298992 -0.09084084 -0.14536515
000220 93 2d 8d 3d 3b db 57 3e 82 1e bc 3d b1 3c 89 bd
       0.06893458 0.21079724 0.091855064 -0.06701029
000230 04 a0 fd bd 66 9e 3e bd 9c 50 7f be a5 62 81 bd
       -0.12384036 -0.04653778 -0.24933094 -0.06317643
000240 83 80 af 3d 6e 95 81 3e a8 28 a1 3e 14 be 37 3e
       0.085694335 0.25309318 0.3147633 0.17943603
000250 00 fa 27 3e 69 a7 da bd e9 ff 92 bd 0c 24 1e 3e
       0.16403961 -0.10676462 -0.07177717 0.15443438
000260 c4 cb 2a bd 17 87 61 3d 72 cd d5 3c 40 7a 52 be
       -0.041698232 0.055060472 0.02609894 -0.20554447
000270 12 05 6c 3c 4a ab 50 3d b2 a3 4d 3d 9e 9e 55 be
       0.014405506 0.050944604 0.05020494 -0.20861289
000280 03 ca 2a 3e 05 0d 08 bd c3 1c a2 3d eb cc 44 be
       0.16678624 -0.03321554 0.07915642 -0.19218795
000290 76 36 09 be c9 6f 98 3d ac ee 50 bd 41 25 1a bd
       -0.13399681 0.07443196 -0.051008865 -0.037633184
0002a0 36 c8 4c 3e 78 a3 6e be 2d e5 02 bd 66 18 16 be
       0.1999825 -0.23304546 -0.03195684 -0.14657745
0002b0 03 fb 69 be 55 a0 55 3d 5c 61 5d be 3f 7f ba bd
       -0.2284966 0.052154858 -0.21619171 -0.091063015
0002c0 24 da c7 bd ff 6d 87 bd 3b 8d 68 bd f6 8c 29 be
       -0.09758404 -0.06612777 -0.056775313 -0.16557679
0002d0 05 76 23 3e 4c f3 2d 3e 22 42 81 bd c1 e2 9c 3d
       0.1596299 0.16987342 -0.06311442 0.076604374
0002e0 8c 92 0a be 59 20 1d 3d 45 64 86 3d 38 5c 4e bc
       -0.13532466 0.038360927 0.06562094 -0.012595229
0002f0 91 79 e5 3d 9d 18 b4 bc bc 09 6f bd a1 9e f7 bc
       0.112048276 -0.021984393 -0.058358893 -0.030227007
000300 0b 12 1b bd 92 ea b2 bd 34 48 12 be 6c 3b 02 be
       -0.037859004 -0.08736147 -0.14285356 -0.1271798
000310 6c 71 14 3e ee 86 8c 3b 0e 6e b7 3d f3 41 e1 bd
       0.14496392 0.004288546 0.08956538 -0.10998907
000320 8a 36 bf 3d d7 5a dd 3d cf 80 61 bd 9d ec 57 3a
       0.093365744 0.10808342 -0.055054482 0.0008236857
000330 6f c0 0d 3e 3a 50 79 3e e5 65 7a bd 1d 55 9e 3d
       0.13842939 0.2434701 -0.06113233 0.07731078
000340 dc a4 51 be 9c 58 56 bc af 66 55 bd bb 70 23 be
       -0.20473045 -0.01308265 -0.05209988 -0.15960972
000350 41 bf 64 be 85 ec 02 3e 68 a7 9d be 9f f4 26 be
       -0.22338583 0.12785538 -0.30791783 -0.16304253
000360 39 e2 7c bd 04 91 01 be 5f d1 52 3e 23 d8 8b bc
       -0.06173918 -0.12652975 0.20587681 -0.017070835
000370 65 b2 3f be a0 39 b4 3d 43 90 dd bd 04 5b 94 3c
       -0.18720396 0.088000536 -0.10818531 0.018109806
000380 9d 75 8f bd f4 f6 6d be 7d 12 46 3d c9 0e d4 3d
       -0.07004855 -0.23238736 0.048357476 0.103543825
000390 dc 41 8c 3b 11 76 43 3e 9c 13 2f 3e f0 73 23 be
       0.004280312 0.19088008 0.17097324 -0.15962195
0003a0 78 ee 1b bd 23 48 7a 3e 9d d3 92 3c 83 66 9d bc
       -0.03806922 0.2444158 0.01792317 -0.01921392
0003b0 29 d1 ba 3c de 7e 8d bd bc ec d7 3d 33 20 27 3e
       0.022804813 -0.069089636 0.105432004 0.16320877
0003c0 56 bb 26 bd 7e 1c 4e bc 6d 97 fa bd f2 5f d5 bc
       -0.040706 -0.012580035 -0.122359134 -0.026046727
0003d0 b5 90 bb bd 48 34 80 bd a4 06 c7 3d 1e 5f dd bd
       -0.0915846 -0.06259972 0.097180635 -0.10809158
0003e0 d9 44 80 3d 57 19 8d 3d ac 6e 14 be 7a 8e 1d be
       0.06263132 0.06889599 -0.14495343 -0.15386382
0003f0 9c 71 f5 bd 50 b2 b4 3d e4 67 09 be 55 90 6d 3d
       -0.1198456 0.08823073 -0.13418537 0.057998974

rnn.bias_ih_l1 f4 [192]
000000 2c 1c 34 be 7f 75 83 bd bf 40 95 bd 18 3d 6a 3d
       -0.17588872 -0.06418895 -0.0728774 0.05718717
000010 4b b9 56 bd a8 e6 ed bc 73 e5 49 3c 72 ad b8 bc
       -0.052422803 -0.02904065 0.012322771 -0.022543643
000020 5b 7f 8c bd 9a a0 5f bb 00 4b 24 3e 1c 58 43 3e
       -0.06860229 -0.0034122826 0.16044235 0.1907658
000030 57 29 39 3d 96 22 4e 3c 0f 34 a4 bd 62 39 a5 bc
       0.04520544 0.012581488 -0.08017742 -0.020168964
000040 47 3a b8 3d 27 07 53 3e 92 7e dd bd f4 3f ed bd
       0.089954905 0.20608197 -0.10815157 -0.11584464
000050 dd 7e 89 3d 11 dc d5 3d ef 7e 20 bd d4 1f 29 bd
       0.067136504 0.10442365 -0.039183553 -0.04129012
000060 dd 95 02 3e a2 67 2d bd 6a 7b 5d bc 41 c2 0f 3d
       0.12752481 -0.04233516 -0.013518194 0.035097364
000070 ee 92 48 bd ab b1 2e 3d ca e0 9b 3b 9b d5 84 3d
       -0.048968248 0.042649906 0.0047570216 0.064860545
000080 60 c6 21 bd d9 07 9e bd 13 e1 d7 bd 32 77 8d be
       -0.039495826 -0.077163406 -0.105409764 -0.2763
000090 3e 35 fa 3d eb 35 74 3d 38 26 88 3d 67 d2 72 bc
       0.122171864 0.059621733 0.06647915 -0.014820672
0000a0 ca 30 e9 3d 22 54 da 3d ba a2 d8 3c 9a be 48 3d
       0.11386259 0.10660578 0.026444782 0.049009897
0000b0 f0 58 ad bd de 0e ab 3d 02 82 eb bd 92 ff 3a 3e
       -0.08464229 0.08352445 -0.114994064 0.18261555
0000c0 08 7a b5 3d 93 dd 00 be 4e f4 1f 3c 60 08 a6 3d
       0.08861166 -0.12584524 0.009762837 0.08107066
0000d0 0e f4 54 3d 00 a5 d3 bd 24 a9 91 3d e3 7c 99 3c
       0.05199056 -0.103342056 0.07112339 0.018736308
0000e0 ef c8 05 3e 8f 6e 05 3c 16 e3 c5 3c 88 73 67 3d
       0.13064931 0.008144035 0.024156135 0.056506664
0000f0 77 b8 11 bc c2 4f 0e 3d 57 9d ba 3d cd 1c 8f bc
       -0.0088940775 0.03474403 0.091120414 -0.017469788
000100 b0 a8 86 3e e3 f6 7d bc 8a 2d c6 3d 48 79 45 3e
       0.26300573 -0.015500757 0.09676655 0.19284546
000110 d7 33 4c bd 18 5f 72 3e b3 4b bc 3d d1 bb 0c 3e
       -0.049854126 0.23669088 0.09194126 0.13743521
000120 a4 82 00 3e 32 a5 e0 bd e0 45 cc 3d 8d c5 95 3d
       0.12549835 -0.109690085 0.09974265 0.073130704
000130 b7 61 10 3e 4b d8 dc 3d cc ef 70 bd b9 8a af bb
       0.14099775 0.10783442 -0.058822438 -0.005357113
000140 b7 67 61 3e b2 7e 1e 3e 3e 97 84 bd 76 06 7b 3e
       0.2201222 0.15478018 -0.0647416 0.24514183
000150 3d 4b 95 3e 2c 71 0d 3e 04 75 a1 3d c8 49 e4 3d
       0.29158965 0.13812703 0.07883647 0.11146885
000160 b4 14 40 3d f0 31 a6 bd 31 bd 93 3e bd 13 ca 3d
       0.046894744 -0.081149936 0.2885528 0.09867046
000170 d9 ba 46 bb 1d d5 55 3e c1 98 37 3d 7f a0 51 3e
       -0.0030323772 0.20882078 0.04482341 0.2047138
000180 65 1c 0f 3c 91 53 ea 3d 45 77 24 3d 21 f2 91 3d
       0.008734797 0.1144172 0.040152807 0.071262605
000190 45 bc 21 3e 19 de 8b bc ae ab e4 bc 63 4f 0d 3d
       0.15794475 -0.017073678 -0.027913895 0.034499537
0001a0 dc f5 01 3e b3 5e cc bd 84 b2 91 bd dd cf 18 3e
       0.12691444 -0.09979 -0.07114127 0.14923044
0001b0 46 ec c7 3d da 4a 83 bc fb 99 02 3d de f1 13 ba
       0.097618625 -0.016026903 0.03188513 -0.0005643646
0001c0 9b 4c a5 3c 93 fc ba 3d 32 51 83 3e 95 0d 92 bd
       0.02017813 0.09130206 0.25647885 -0.07131497
0001d0 ce 2f 46 3d e2 9c 1b 3c 11 dc 85 3d 29 5c a7 3d
       0.048385434 0.009497853 0.06536115 0.08171875
0001e0 1c e6 b1 3d 7e 38 38 3e d8 6f 0b 3d 7d b2 93 3d
       0.08686468 0.179903 0.03404221 0.07211778
0001f0 42 b9 cf 3d e1 16 0b 3e 4b 25 1d bd 9a a6 65 3e
       0.10142757 0.13582946 -0.038365643 0.22426835
000200 6e be ae bc 53 61 4f 3c 56 75 a8 bd ad 95 78 be
       -0.021331038 0.012657481 -0.08225505 -0.24275847
000210 59 e6 4e bc e2 00 dc bc 2f 4d 86 3c d8 7a 2c be
       -0.012628161 -0.02685589 0.016394226 -0.16843736
000220 19 e3 a2 bc db 07 cd 3c 84 1b cf bd 0c 33 ca 3d
       -0.01988368 0.02502816 -0.1011267 0.09873018
000230 97 b3 1a 3e be 14 95 bb ef ee 67 3d 7d 1c d7 3c
       0.1510757 -0.004549592 0.05662435 0.026258701
000240 21 30 18 3d f4 73 5d 3d 5f 70 33 3e ae 68 93 3d
       0.037155274 0.05406566 0.17523335 0.071977004
000250 54 53 24 3d fb 85 ee 3d ae c7 1d 3e bb 46 e0 38
       0.04011853 0.116466485 0.15408203 0.00010694327
000260 c4 f5 1c b9 88 24 f4 3d 1d 70 27 3e 49 13 e8 3d
       -0.00014968874 0.1192103 0.16351362 0.11331803
000270 d2 11 b9 3c 1f 23 40 3c 6d d0 1c 3c 25 2e 11 bd
       0.022591505 0.0117271235 0.009571177 -0.035444397
000280 df a3 1c 3e b9 69 9f bd c4 02 14 3d 8d 91 88 bc
       0.15296887 -0.07783837 0.03613545 -0.016670967
000290 91 0e 1b 3e f0 96 e5 bd 0c f9 81 bd 3b e8 e2 bd
       0.15142275 -0.1121043 -0.0634633 -0.11079451
0002a0 e9 2d 6e bd a5 5e a7 3d ed fc 8b bd 3a 26 20 3d
       -0.058149252 0.08172349 -0.06835351 0.039098956
0002b0 f2 e7 25 3e 61 32 8f bd e5 0e 45 bd 0c c1 09 3d
       0.16201761 -0.06992031 -0.048109908 0.03363137
0002c0 60 ef bb 3c f6 f1 f7 3d c6 68 d8 bc 2f e2 8a bd
       0.022941291 0.12106697 -0.026417147 -0.06781422
0002d0 c9 91 a4 3c 5d 45 88 bd 49 3e 2b 3e af bd 28 bc
       0.020089047 -0.06653855 0.16722979 -0.01029913
0002e0 0e ed 43 be a5 28 52 3c 0d 4e 12 be cf 8d b8 3d
       -0.19133398 0.012827073 -0.14287587 0.09011423
0002f0 97 90 cf bd 0c 71 08 3d 19 73 ba 3c bd 13 6b 3d
       -0.10135 0.033310935 0.022759961 0.05739187
