SimLoan/res/experiments_adj_generation_unfair_decisions_10_steps_2_interventions/LSTM_clf_effort_model_2layers_budget_40_eps_0_2_b_0_5.pth (torch, 819240 bytes, 13 tensors)

init_interventions f4 [1, 2]
0	0x3cf380a8	0.029724434
1	0xbd536a78	-0.05161521

clf.linear.weight f4 [1, 2]
0	0x3e9c9459	0.3058193
1	0x3ecd7ccf	0.40134284

lstm.weight_ih_l0 f4 [512, 9]
0	0x3d3019e2	0.042993434
1	0xbdb9d0b7	-0.09073012
2	0x3d51b7fb	0.051200848
3	0xbc4cca97	-0.012499473
4	0xbdbbc4d5	-0.09168402
5	0xbbb6ed52	-0.00558249
6	0x3d6ae9e1	0.05735195
7	0x3d3a7fb0	0.04553193
8	0x3d957b06	0.072988555
9	0xbd93e60b	-0.072216116
10	0xbcf5cac1	-0.030003907
11	0x3ca6a738	0.020343408
12	0xbdcad6cc	-0.099042505
13	0xbdbb1b2a	-0.091360405
14	0xbd0f7bea	-0.035030283
15	0xbd6d6484	-0.057957187
16	0xbdd76b68	-0.10518533
17	0xbc039d02	-0.008033039
18	0x3cc581d5	0.02410976
19	0xbb22657b	-0.0024779725
20	0xbd909e86	-0.07061486
21	0xbcdf4d25	-0.027258465
22	0xbe0f121f	-0.13971756
23	0xbd5bb026	-0.053634785
24	0xbde3d5b4	-0.11124745
25	0x3e1ffcca	0.15623775
26	0x3c015ad7	0.007895193
27	0x3d20e44f	0.039280232
28	0x3da61944	0.08110288
29	0xbd8197ed	-0.06327806
30	0xbd0619ff	-0.032739636
31	0xbcb9a57e	-0.02266192
32	0xbd3ac11e	-0.045594327
33	0xbda51223	-0.080601
34	0x3d43dcb6	0.04781791
35	0x3e137a4b	0.1440212
36	0xbe0923f2	-0.13392618
37	0xbc56dab3	-0.013113665
38	0xbc44dc35	-0.012015392
39	0xbe108ae7	-0.14115487
40	0x3c54e7da	0.012994731
41	0xbdb33156	-0.087496445
42	0xbd8e079b	-0.069350444
43	0x3d12e8b3	0.03586645
44	0xbbe6e65d	-0.0070465044
45	0xbdf02727	-0.11726218
46	0xbdc63871	-0.09678734
47	0x3d575623	0.05257238
48	0xbccbac22	-0.024862353
49	0xbc9e570c	-0.019328617
50	0x3d3decbc	0.046368346
51	0x3c907f3f	0.0176388
52	0x3d78bab6	0.060724936
53	0x3da0dcdb	0.07854625
54	0xbd307cdb	-0.04308782
55	0xbda61136	-0.081087515
56	0xbd7c7dc9	-0.061643396
57	0xbdf541cf	-0.119754426
58	0xbc6c8dca	-0.014438102
59	0xbe0f6d1c	-0.14006466
60	0xbc59a193	-0.013283151
61	0x3c8f11aa	0.017464478
62	0x3dbe605e	0.09295724
63	0x3d2dad19	0.042401407
64	0xbde96ae6	-0.113973424
65	0x3d591864	0.053001776
66	0x3bf1fe27	0.0073850336
67	0xbcffcf16	-0.031226676
68	0xbdcd5ed2	-0.10027851
69	0xbc2ee48c	-0.010674607
70	0x3a6010aa	0.0008547405
71	0x3e020875	0.12698539
72	0x3d9456f0	0.072431445
73	0x3d6cc7f8	0.057807893
74	0x3d7f6d30	0.06235999
75	0x3a6a7dbe	0.00089451286
76	0xba42795a	-0.00074185955
77	0x3c53efb0	0.012935564
78	0x3dad73e7	0.08469372
79	0xbd2126a9	-0.03934351
80	0x3d3c402b	0.045959633
81	0xbd661e2d	-0.05618112
82	0xbe00daa4	-0.12583405
83	0xbbb9496e	-0.0056545055
84	0xbdb4a57e	-0.08820628
85	0xbca10033	-0.019653415
86	0xbd896a5f	-0.06709742
87	0xbd8a4764	-0.06751898
88	0x3c79d8a4	0.015249405
89	0xbc3a125d	-0.011356917
90	0xbda42b50	-0.08016074
91	0x3d39144f	0.045185383
92	0x3d926e31	0.071499236
93	0xba05643e	-0.00050884846
94	0xbdc65e80	-0.09685993
95	0x3cedfe13	0.029051816
96	0xbd84ed99	-0.06490631
97	0x3dd2d989	0.10295398
98	0x3de7182a	0.11283906
99	0xbe0b2471	-0.1358812
100	0xbd0cc753	-0.034369778
101	0xbdf3bdf5	-0.11901466
102	0xbd9eb6cb	-0.07749709
103	0xbd65a544	-0.056065813
104	0xbcfd3dfe	-0.03091335
105	0xbdec4299	-0.1153614
106	0x3d01a686	0.03165295
107	0x3d2bed33	0.041974258
108	0xbd9acbf2	-0.07558431
109	0x3bfa0467	0.0076299193
110	0x3a336b28	0.00068442756
111	0xbd9209aa	-0.071307495
112	0x3d08d40f	0.03340536
113	0xbd7c8d81	-0.061658386
114	0xbda48ed3	-0.08035054
115	0x3c3b2633	0.011422682
116	0x3d51d621	0.0512296
117	0xbdee2204	-0.11627582
118	0xbda0df79	-0.07855124
119	0x3c519cad	0.012793702
120	0x3d3554a6	0.04427018
121	0x3d714c61	0.05891073
122	0x3da26db1	0.07931078
123	0x3cd927e5	0.026508281
124	0x3de704e0	0.11280227
125	0xbcb93891	-0.02260998
126	0x3da230ae	0.07919441
127	0x3c74d97a	0.014944429
128	0x3c3f3936	0.011671355
129	0xbc9610f6	-0.018318634
130	0x3d980a69	0.074238606
131	0xbdb474f1	-0.08811367
132	0xbc5830aa	-0.013195196
133	0xbc812750	-0.015765816
134	0xbdbb12fd	-0.09134481
135	0xbdfb8bac	-0.122825
136	0x3ce63061	0.02809924
137	0x3cb47235	0.022027114
138	0x3b6ff4ab	0.003661434
139	0xbd5c9eb3	-0.053862285
140	0xbd91780f	-0.071029775
141	0xbdc50ace	-0.096212015
142	0x3cc26abd	0.023732537
143	0x3cd15f3f	0.025558112
144	0xbda774f0	-0.08176601
145	0xbde9adc7	-0.114100985
146	0xbdc56635	-0.09638635
147	0xbb7b7496	-0.0038369051
148	0x3bc02af5	0.005864496
149	0xbdc74063	-0.09729078
150	0x3ceb6f4b	0.028739592
151	0x3db0d472	0.08634271
152	0x3cd0855e	0.02545422
153	0xbcbc5360	-0.022988975
154	0xbc922c9b	-0.017843535
155	0x3cd8faed	0.026486838
156	0xbd943c8e	-0.072381124
157	0xbd9a18cb	-0.0752426
158	0x3d8d7c7a	0.06908508
159	0x3ce5c8a7	0.02804978
160	0xbd61e64a	-0.05515126
161	0xbe1af558	-0.15132654
162	0xbdd2ee7a	-0.10299392
163	0x3d4db537	0.050221648
164	0xbc016242	-0.007896962
165	0xbdfaa9d3	-0.12239423
166	0xbd0e4b85	-0.03473999
167	0xbd9b442b	-0.075813614
168	0xbcdd6f62	-0.02703065
169	0x3c175096	0.009235522
170	0x3d02fd72	0.031979986
171	0x3d15bca7	0.036556866
172	0xbd1cd597	-0.038289633
173	0x3d8f98a3	0.07011535
174	0xbd737a55	-0.059442837
175	0x3d8d88cc	0.069108576
176	0xbd9566ff	-0.072950356
177	0x3c944d19	0.01810317
178	0x3dcc0bd0	0.099631906
179	0xbc10be88	-0.008834489
180	0xbdcf33be	-0.10117291
181	0xbd3fe2c8	-0.046847135
182	0xbd31b370	-0.043384016
183	0xbc751cd0	-0.014960483
184	0x3c8b2290	0.016984254
185	0xbe0dcffe	-0.13848874
186	0xbdda7d10	-0.10668385
187	0x3dd1de5d	0.102474906
188	0xbcfa3fd7	-0.03054802
189	0xbdadc571	-0.084849246
190	0xbd10d907	-0.035363223
191	0x3c8ddaaa	0.017316181
192	0xbc9a558a	-0.018839616
193	0xbbd1a4e5	-0.006397831
194	0xbd979aa4	-0.07402542
195	0xbc8b2817	-0.01698689
196	0x3d9aa893	0.07551684
197	0xbd45ceb4	-0.04829283
198	0xbc164687	-0.0091720885
199	0xbd1b07d5	-0.037849266
200	0xbdde3fb6	-0.10851996
201	0xbccafdef	-0.024779288
202	0xbdf16d3d	-0.11788414
203	0xbdbc5408	-0.09195715
204	0xbdf797f4	-0.1208953
205	0x3d56d46d	0.05244868
206	0x3de05d85	0.109553374
207	0x3d458299	0.04822025
208	0x3bdedf2a	0.0068015056
209	0xbd0fa082	-0.03506518
210	0xbdd24ff5	-0.10269157
211	0xbc682837	-0.014169744
212	0x3d487049	0.04893521
213	0xbccb6941	-0.024830462
214	0x3d722213	0.059114527
215	0x3dadc7f0	0.08485401
216	0xbe1435ce	-0.1447365
217	0xbd2cf45c	-0.042225227
218	0xbcc6535f	-0.024209676
219	0xbe0e98ae	-0.1392543
220	0xbe15c77a	-0.14626876
221	0xbcd5d21a	-0.02610116
222	0x3cce7342	0.025201444
223	0x3d187eaf	0.03723019
224	0x3c95e04e	0.018295433
225	0xbbb8d1c8	-0.0056402422
226	0x3d041f09	0.03225616
227	0xbdc24de3	-0.09487512
228	0x3d3b453f	0.045720335
229	0xbd5feaf9	-0.054667447
230	0x3cd41d7f	0.025892971
231	0xbde521a1	-0.11188055
232	0x3d90d381	0.07071591
233	0xbc48968d	-0.012242925
234	0xbbc18b58	-0.0059065036
235	0x3c3c3575	0.0114873545
236	0xbdcf741c	-0.10129568
237	0xbdad80d9	-0.08471841
238	0xbc82471c	-0.015903048
239	0x3d373bca	0.044734754
240	0xbd7acffa	-0.0612335
241	0xbd508cf5	-0.050915677
242	0x3e0fb8fa	0.14035407
243	0xbb69e068	-0.0035686735
244	0xbd833fe8	-0.064086735
245	0xbe00c1d1	-0.12573935
246	0xbd93e553	-0.072214745
247	0xbdc78a8e	-0.09743224
248	0xbdebdfa0	-0.115172625
249	0xbd18bddc	-0.03729044
250	0xbca03b77	-0.019559605
251	0x3dbb04b1	0.09131754
252	0xbe03318c	-0.1281187
253	0x3d32732b	0.043566864
254	0x3c5bd910	0.013418451
255	0x3b7a942c	0.003823529

lstm.weight_hh_l0 f4 [512, 128]
0	0xbceba82f	-0.02876672
1	0xbd4092cf	-0.047015008
2	0x3cc68287	0.024232162
3	0xbd28396e	-0.041070394
4	0xbc18b1f0	-0.009319767
5	0xbd592a67	-0.053018954
6	0xbd5343ce	-0.051578335
7	0x3d896133	0.067079924
8	0xbe13c004	-0.14428717
9	0xbd73f0eb	-0.05955593
10	0x3ce02efc	0.027366154
11	0x3c3c0fcb	0.011478375
12	0xb8b47a0b	-8.605801e-05
13	0xbcb64286	-0.022248518
14	0x3dd4da51	0.10393203
15	0x3de3904b	0.11111506
16	0xbcab74fb	-0.020929804
17	0x3a2a43b4	0.0006495074
18	0xb8cd6c5f	-9.7953474e-05
19	0x3dd7c217	0.105350666
20	0xbd189c0b	-0.03725819
21	0xbd77bd95	-0.060483534
22	0xbc9d8733	-0.019229507
23	0x3dfe612e	0.12420879
24	0xbbaa3c20	-0.0051951557
25	0x3dcea4f6	0.100900576
26	0xbcf34b21	-0.02969891
27	0x3cf776b4	0.03020797
28	0xbd45fcce	-0.048336796
29	0xbd34338a	-0.043994464
30	0xbb8487be	-0.004044502
31	0xbc91e2c7	-0.017808331
32	0x3d607029	0.054794464
33	0xbc115af4	-0.008871783
34	0x3d44baad	0.04802959
35	0xbd1ec1b6	-0.038758956
36	0x3de492ae	0.111607894
37	0x3d54529e	0.051836602
38	0xbd22a4ef	-0.039708074
39	0xbd8d0f06	-0.06887631
40	0xbe0f7251	-0.14008452
41	0xbe07ff83	-0.13281064
42	0xbc1bd3ab	-0.009510915
43	0x3c509fa2	0.012733372
44	0xbbaf808f	-0.0053559016
45	0x3db0abc1	0.086265095
46	0xbd27ce47	-0.040968206
47	0xbd7da4ac	-0.06192462
48	0x3d5849f3	0.0528049
49	0xbd32d0ed	-0.04365628
50	0x3cc76af7	0.024342997
51	0x3c905f5d	0.017623598
52	0x3de2da99	0.110768504
53	0x3aecbdc9	0.0018061931
54	0x3d95ffae	0.07324158
55	0xbd53004d	-0.05151396
56	0x3b2c13fb	0.0026257026
57	0xbcda02f7	-0.026612742
58	0x3da7de10	0.08196652
59	0xbd9c0720	-0.076185465
60	0xbd8d2c94	-0.06893268
61	0xbc35f46c	-0.011105638
62	0x3dfae3eb	0.12250503
63	0x3d6d6481	0.057957176
64	0xbd46e509	-0.04855827
65	0xbd05ba1c	-0.03264819
66	0x3da4ca2c	0.08046374
67	0x3daecb6a	0.08534892
68	0xbd9091dd	-0.07059071
69	0xbd0b2320	-0.033969045
70	0x3daaf153	0.0834681
71	0xbcb25299	-0.021767901
72	0x3a99968a	0.0011717838
73	0x3c77fc31	0.015135811
74	0x3c3a50a6	0.011371767
75	0xbbb3fbff	-0.0054926868
76	0x3d18790c	0.037224814
77	0xbdd847a0	-0.105605364
78	0xbdd433f7	-0.10361474
79	0xbd888755	-0.066664375
80	0xbd47e757	-0.048804607
81	0x3db0a456	0.086250946
82	0x3d03d296	0.032183252
83	0xbbc63f74	-0.0060500447
84	0x3db67c5a	0.08910437
85	0x3d945745	0.07243208
86	0x3d0e5cc0	0.034756422
87	0x3da99c9a	0.082818225
88	0xbd34e82a	-0.04416672
89	0x3de490ef	0.111604564
90	0xbdfd58bb	-0.123704396
91	0xbc17e637	-0.009271196
92	0x3dbe85ac	0.0930284
93	0x3da0784e	0.07835446
94	0xbc9ce7a8	-0.019153431
95	0xbd25299d	-0.04032289
96	0xbc58811b	-0.013214375
97	0xbc20ca97	-0.009813926
98	0xbca025f2	-0.019549344
99	0x3c8984a4	0.01678688
100	0xbda0337a	-0.078223184
101	0xbdd90329	-0.10596306
102	0x3dae6ea4	0.08517197
103	0x3c0c8823	0.008577379
104	0xbd1cbbe3	-0.03826512
105	0x3d335682	0.043783672
106	0xbceb2ae3	-0.028706973
107	0x3db6e56c	0.089304775
108	0xbd449ab2	-0.04799909
109	0xbc410f0d	-0.011783374
110	0x3b7fbe43	0.0039023317
111	0x3d20190a	0.03908638
112	0xbcc1c8d4	-0.023655333
113	0xbc9be6c9	-0.019030945
114	0x3debdf84	0.115172416
115	0xbddf6497	-0.10907858
116	0xbd4ad5a9	-0.04952017
117	0x3d19af71	0.03752083
118	0x3d01362e	0.03154581
119	0xbcd64d5f	-0.02615994
120	0x3d750873	0.05982251
121	0xbd7361b4	-0.05941935
122	0x3bab59d1	0.005229213
123	0x3de9a2d3	0.114080094
124	0xbc5b46ae	-0.013383551
125	0x3c871749	0.016490595
126	0xbd2e67b7	-0.04257938
127	0xbdbfb6ca	-0.09361036
128	0x3c0cb353	0.008587676
129	0xbda24cad	-0.07924781
130	0x3d997a21	0.07493997
131	0x3d86eee5	0.06588534
132	0x3d410344	0.047122255
133	0xbd97ae94	-0.07406345
134	0x3d488f1b	0.0489646
135	0x3cd700b6	0.026245456
136	0x3c3fa67d	0.011697409
137	0x3cba4614	0.022738494
138	0x3cb4e9c0	0.022084117
139	0xbdabe4ea	-0.08393271
140	0x3d73d262	0.05952681
141	0xbc0a3698	-0.008435868
142	0x3dd3c151	0.103396066
143	0x3e10331b	0.14081995
144	0xbdde3d9a	-0.10851593
145	0xbd951baf	-0.07280671
146	0xbd83b472	-0.064309016
147	0x3da9706f	0.08273398
148	0x3def3c8e	0.11681472
149	0xbc9d15f1	-0.019175502
150	0xbca66ff2	-0.020317052
151	0xbd541cac	-0.051785156
152	0xbd450140	-0.048096895
153	0x3d6a4684	0.057196155
154	0xbdb7be79	-0.08971877
155	0xbd748bc7	-0.059703615
156	0x3d349225	0.044084687
157	0xbd5a0518	-0.053227514
158	0xbd52a6e2	-0.051428683
159	0x3c98a182	0.0186317
160	0xbd75ad13	-0.05997951
161	0x3d171a32	0.036890216
162	0x3cf6f822	0.030147616
163	0xbc82fc34	-0.0159894
164	0x3b83f533	0.0040270328
165	0x3cf05745	0.029338488
166	0xbc31a608	-0.010842808
167	0x3ce36511	0.027758153
168	0x3d5b7da4	0.053586617
169	0x3dbf744b	0.09348353
170	0x3d0f0c66	0.034923933
171	0x3c8db20d	0.017296815
172	0x3d9a598c	0.07536611
173	0xbc4a2d36	-0.012339881
174	0xbc65e1e2	-0.014030905
175	0xbbf50e5e	-0.0074785193
176	0x3d2a9505	0.041646022
177	0xbdbfc402	-0.093635574
178	0xbda4a383	-0.08039
179	0x3e017064	0.1264053
180	0x3da4836c	0.08032879
181	0xbd28e2a5	-0.04123177
182	0x3d9e56d4	0.07731405
183	0x3d89bda4	0.06725624
184	0xbd3a5199	-0.045487974
185	0x3cbd40c3	0.02310217
186	0xbda14103	-0.07873728
187	0x3d7f2834	0.0622942
188	0xbd2dda90	-0.042444766
189	0x3d37bded	0.04485886
190	0x3d59e65f	0.053198215
191	0x3de1541a	0.11002369
192	0xbd53dd7e	-0.051724903
193	0xbda8556f	-0.0821942
194	0x3cd639d7	0.026150627
195	0x3daee5d7	0.08539932
196	0xbc02d023	-0.007984194
197	0x3db3c7d7	0.08778351
198	0xbd9147cb	-0.070937715
199	0x3d0f51b4	0.034990028
200	0xbd9e329a	-0.07724495
201	0xbd8c2e9c	-0.068448275
202	0xbd728986	-0.059213184
203	0xbbc3546a	-0.0059609907
204	0xbc155db5	-0.00911658
205	0xbd23524d	-0.03987341
206	0x3c2d83a9	0.010590472
207	0x3cd6a22c	0.026200376
208	0xbce843d3	-0.028352654
209	0xbe01c55f	-0.12672947
210	0x3c434ba7	0.011919892
211	0x3db8d776	0.09025471
212	0x3df206d7	0.11817711
213	0x3da2545b	0.07926246
214	0x3db2c06c	0.08728108
215	0xbc013ee6	-0.007888531
216	0x3c0ea527	0.008706368
217	0xbda9be42	-0.08288242
218	0xbd5cda9c	-0.05391942
219	0x3e116ea8	0.14202368
220	0x3c0084a2	0.007844122
221	0x3c451972	0.012029992
222	0xbda34db9	-0.07973809
223	0x3e03af86	0.12859926
224	0x3d95a542	0.07306911
225	0xbdf06497	-0.11737936
226	0xbdfc116d	-0.12308011
227	0x3cc8d657	0.024516268
228	0xbdd39320	-0.10330796
229	0xbe143899	-0.14474715
230	0xbe0745b3	-0.13210182
231	0xbdb32160	-0.087466
232	0x3dafdb40	0.085867405
233	0xbda2a7c9	-0.07942159
234	0x3d33a763	0.043860804
235	0xbdcc9fb2	-0.09991397
236	0xbcea4d1b	-0.02860122
237	0x3ca3f538	0.02001439
238	0xbda3ed3d	-0.08004234
239	0xbc1adec7	-0.009452528
240	0x3d77b23c	0.060472712
241	0x3d1a795f	0.037713405
242	0x3dbde131	0.092714675
243	0xbb868f26	-0.00410642
244	0x3bd438af	0.006476484
245	0xbd9f2443	-0.07770588
246	0xbdb81edc	-0.08990261
247	0x3c28e3e0	0.010308236
248	0x3d4bdaa6	0.049769066
249	0xbd8f174a	-0.06986864
250	0x3d8c9a18	0.068653286
251	0x3d400325	0.046878
252	0xbd11293a	-0.035439707
253	0xba959a50	-0.0011413787
254	0xbd3e0583	-0.046391975
255	0x3d852c7d	0.06502626

lstm.bias_ih_l0 f4 [512]
0	0xbdc96853	-0.098343514
1	0xbce928c1	-0.028461816
2	0xbe231773	-0.15926914
3	0xbd959868	-0.0730446
4	0xbe08ab50	-0.133466
5	0xbbad0368	-0.005279947
6	0xbd2a38be	-0.04155802
7	0x3cd59679	0.026072728
8	0xba528ae7	-0.00080315623
9	0xbd50a274	-0.050936177
10	0xbd2e92f5	-0.042620618
11	0xbd9e2a4c	-0.07722911
12	0x3d4b40bd	0.049622286
13	0x3ca6d511	0.02036527
14	0x3cfb9ed4	0.030715384
15	0xbddec5bc	-0.108775586
16	0xbde40752	-0.11134209
17	0x3c88de02	0.016707424
18	0xbdc926f0	-0.0982188
19	0x3d2ebb09	0.04265884
20	0xbda77f3f	-0.08178567
21	0xbd746480	-0.059666157
22	0x3d1581e3	0.036500823
23	0xbdc46252	-0.095890656
24	0xbcdf4a61	-0.027257146
25	0xbdcad3d7	-0.099036865
26	0xbd9dd033	-0.077057265
27	0x3a45a0f7	0.0007538939
28	0xbcfe4059	-0.031036543
29	0x3cd8ee3d	0.026480788
30	0xbdffbb14	-0.12486854
31	0xbda8376b	-0.08213695
32	0xbdcd9d55	-0.10039774
33	0xbdbbae38	-0.09164089
34	0xbd58820d	-0.0528584
35	0xbddad5bb	-0.10685297
36	0xbc97ae54	-0.018515743
37	0xbd7d17b8	-0.061790198
38	0xbd36aa37	-0.044595923
39	0xbd751e47	-0.059843328
40	0xbe08013b	-0.1328172
41	0xbd0dea42	-0.034647234
42	0xbdc3e13b	-0.09564444
43	0x3c934f0d	0.01798203
44	0xbe011083	-0.12603955
45	0x3c5103f4	0.01275729
46	0xbd29f163	-0.04148997
47	0x3d2bbdd1	0.04192907
48	0x3d53c84d	0.051704694
49	0xbd9210a4	-0.0713208
50	0xbc414f02	-0.011798622
51	0x3bc36603	0.0059630885
52	0xbdad65f0	-0.08466709
53	0xbde60094	-0.11230579
54	0xbd550193	-0.052003454
55	0x3cac8cd2	0.021063242
56	0xbde494c3	-0.111611865
57	0xba8b46f2	-0.0010626002
58	0xbcbb73b2	-0.022882316
59	0x3d009791	0.031394545
60	0x3d295ea8	0.041350037
61	0xbb7ad7a9	-0.0038275516
62	0x3a6d7d7c	0.0009059531
63	0xbd4849ef	-0.048898634
64	0x3c629742	0.013830008
65	0xbde5b3d3	-0.112159394
66	0x3ccb444b	0.024812838
67	0x3cff1feb	0.03114315
68	0x3d36c2b0	0.044619262
69	0xbe018e7b	-0.12652008
70	0xbdfce76a	-0.12348826
71	0xbdb81cbf	-0.08989858
72	0xbd2b8cfe	-0.041882508
73	0xbdeb014a	-0.11474855
74	0xbd259024	-0.040420666
75	0xbc950fc5	-0.018195996
76	0x388b93b1	6.655546e-05
77	0x3bb9f966	0.0056754826
78	0xbdc81d6d	-0.097712375
79	0x3c876b88	0.016530767
80	0xbb6213b4	-0.0034496607
81	0x3da5b61b	0.080913745
82	0x3c99597a	0.018719424
83	0x3ba7624f	0.005108155
84	0x3c5d787c	0.013517495
85	0x3a482277	0.000763453
86	0x3c857ad4	0.01629392
87	0xbd02bbd2	-0.0319174
88	0x3c8d8559	0.0172755
89	0xbe18f630	-0.14937663
90	0xbe26039c	-0.16212314
91	0xbdb867e4	-0.090041906
92	0xbc2de265	-0.010613059
93	0xbdb05416	-0.08609788
94	0xbe286215	-0.16443665
95	0xbcbbb665	-0.02291412
96	0xbd5d3c80	-0.054012775
97	0xbd7ad966	-0.061242484
98	0xbdbee93a	-0.09321828
99	0xbd75c37c	-0.06000088
100	0xbddef906	-0.10887341
101	0xbc2ec1e3	-0.010666343
102	0xbd658004	-0.05603029
103	0xbe1f1151	-0.1553395
104	0xbccbac36	-0.02486239
105	0xbcc1afea	-0.023643453
106	0xbe003400	-0.12519836
107	0xbddc96d4	-0.10770956
108	0xbdcc909e	-0.09988521
109	0xbd871502	-0.06595804
110	0xbe32ecb4	-0.17473108
111	0xbdc90f68	-0.09817392
112	0x3d421f8e	0.047393374
113	0xbda641ad	-0.081179954
114	0x3c8c3ce7	0.017118884
115	0xbc454b6a	-0.012041906
116	0xbd07b6d3	-0.03313334
117	0x3cd6ed81	0.026236298
118	0xbbec066c	-0.007202914
119	0x3adaf56e	0.0016705224
120	0x3da0798f	0.078356855
121	0xbc4cd6fe	-0.01250243
122	0xbdab769c	-0.08372232
123	0xbd843187	-0.06454759
124	0xbdd95bec	-0.10613236
125	0xbdc2fa69	-0.09520418
126	0xbd6187d2	-0.05506117
127	0xbe16c979	-0.14725293
128	0xbc1f8071	-0.009735213
129	0xbdee35de	-0.11631368
130	0xbd80708f	-0.06271469
131	0xbd219241	-0.03944612
132	0xbdfb830c	-0.122808546
133	0xbe0220c5	-0.12707813
134	0xbdce228c	-0.10065183
135	0xbdb9deca	-0.09075697
136	0x3a26405b	0.0006341987
137	0xbdcfea21	-0.101520784
138	0xbdf35fb2	-0.11883487
139	0xbd49f2e4	-0.049303904
140	0xbd313ac1	-0.043268923
141	0x3d085342	0.033282526
142	0x3c5aff7d	0.013366577
143	0xbd796ab8	-0.06089279
144	0xbdadac99	-0.08480186
145	0xbb8864bf	-0.0041624005
146	0xbcc1b80e	-0.023647334
147	0x3c2c60f7	0.010521165
148	0xbdde3a39	-0.10850949
149	0xbd42c063	-0.047546756
150	0xbd433332	-0.047656246
151	0x3d329675	0.04360052
152	0xbd9e61fd	-0.077335335
153	0xbc9511be	-0.018196937
154	0xbcbc50b9	-0.02298771
155	0xbc06be5f	-0.008224099
156	0xbc315ef0	-0.0108258575
157	0xbd24a439	-0.040195677
158	0xbe36ab54	-0.17838794
159	0x3d00fab9	0.031489108
160	0xbd02a8e0	-0.031899333
161	0xbdfd4802	-0.1236725
162	0xbce40155	-0.027832666
163	0xbcde72ff	-0.027154444
164	0xbb54e04d	-0.0032482326
165	0xbcc0cbcd	-0.02353468
166	0xbdb2efc2	-0.087371364
167	0xbe127dae	-0.14305755
168	0xbd9f8180	-0.07788372
169	0xbe03b0c5	-0.12860401
170	0x3c9e3103	0.01931048
171	0xbdbcf4bb	-0.09226366
172	0xbdc044b8	-0.09388107
173	0xbe038ae1	-0.12845947
174	0xbcff5628	-0.031169012
175	0xbc9ae0cf	-0.018906025
176	0xbbf098a0	-0.007342413
177	0xbe1e22db	-0.15442984
178	0xbd76addb	-0.060224395
179	0xbc376c82	-0.011195304
180	0xbd9c312e	-0.07626568
181	0xbd3ec7cc	-0.04657726
182	0xbd319c43	-0.043361913
183	0x3cf21548	0.029551163
184	0xbd1bcab8	-0.038035125
185	0xbdd54816	-0.1041414
186	0xbd5a854d	-0.05334978
187	0xbda9cc47	-0.08290916
188	0xbce5789f	-0.028011618
189	0xbdf1ed48	-0.11812836
190	0x3c9190bf	0.017769216
191	0x3d0d61f1	0.034517232
192	0xbd5bbf18	-0.053649038
193	0xbdf63353	-0.12021508
194	0x3d2d15d9	0.042257164
195	0xbda5262e	-0.08063923
196	0xbda41929	-0.080126114
197	0x3ae2c593	0.0017301313
198	0xbbe62c55	-0.0070243278
199	0x3d20dc03	0.03927232
200	0xbde4de35	-0.11175195
201	0xbdb4440d	-0.08802042
202	0xbd6b6cca	-0.057476796
203	0xbdc5a3ed	-0.09650407
204	0x3c1a2749	0.00940878
205	0xbd543a7b	-0.051813584
206	0xbd963732	-0.073347464
207	0x3d16f8e9	0.036858473
208	0xbdcdba1b	-0.100452624
209	0xbd0f570a	-0.034995116
210	0xbdd6079c	-0.1045067
211	0xbddce42a	-0.10785706
212	0xbcf9cc16	-0.030492824
213	0xbce68ae8	-0.028142408
214	0xbdc6ec35	-0.09713022
215	0xbdab8ab3	-0.08376064
216	0x3c656f00	0.014003515
217	0xbe24aa53	-0.16080599
218	0xbc7026c1	-0.014657677
219	0x3d3f3493	0.046680998
220	0xbdcd509a	-0.10025139
221	0xbdff6474	-0.12470332
222	0xbe1facbc	-0.15593237
223	0xbc3e5ca0	-0.011618763
224	0xbc8438eb	-0.016140422
225	0x3c862624	0.016375609
226	0x3c0a1f89	0.00843037
227	0xbda62bd0	-0.08113825
228	0xbcc85c60	-0.02445811
229	0x3cdfdd07	0.027327074
230	0xbd7ff4ff	-0.062489506
231	0xbdd76aa8	-0.1051839
232	0xbde2541a	-0.11051197
233	0xbc878d46	-0.016546857
234	0xbdb749da	-0.08949633
235	0x3bb67ba3	0.005568938
236	0xbd178ee7	-0.037001517
237	0xbe291d83	-0.16515164
238	0xbe2295d5	-0.15877469
239	0x3d461bff	0.048366543
240	0xbd9b8b30	-0.07594907
241	0xbd366575	-0.04453035
242	0x3d07c3bc	0.03314565
243	0xbda49243	-0.0803571
244	0xbe14ee04	-0.14543921
245	0xbd14ae21	-0.036298875
246	0xbca84d93	-0.020544803
247	0xbde57bc5	-0.11205248
248	0xbd79564f	-0.060873326
249	0xbd9ad37c	-0.07559869
250	0xbd8d4d60	-0.06899524
251	0xbd7e7fd3	-0.06213362
252	0xbdeaad25	-0.11458806
253	0x3cf18402	0.029481892
254	0xba307d89	-0.00067325734
255	0xbda8bf34	-0.08239594

lstm.bias_hh_l0 f4 [512]
0	0xbd7f6195	-0.06234892
1	0xbd3622b2	-0.04446668
2	0xbe2b3cde	-0.16722438
3	0x3d7d4765	0.061835665
4	0xbe1ccb57	-0.15311943
5	0xbbe78cc7	-0.0070663425
6	0xbe0c00fa	-0.13672248
7	0xbd8d75eb	-0.06907257
8	0xbd937f52	-0.07202019
9	0xbdac36d9	-0.08408899
10	0xbd82988d	-0.06376753
11	0xbe2bfb07	-0.16794978
12	0xbd41d858	-0.047325462
13	0xbdb01ee4	-0.08599642
14	0xbda124b7	-0.07868331
15	0x3c90c78e	0.01767328
16	0x3d478c8b	0.048718017
17	0xbde7e296	-0.11322515
18	0xbdcc6422	-0.09980036
19	0xbd6e98f7	-0.058251347
20	0xbccceace	-0.025014307
21	0xbc61a07b	-0.013771172
22	0xbdf5c13e	-0.11999749
23	0xbca01286	-0.019540083
24	0xbca2e918	-0.019886538
25	0xbde107ad	-0.10987792
26	0xbddeb4f0	-0.10874355
27	0xbd4ce05c	-0.050018653
28	0xbdbe3d44	-0.09289029
29	0xbd09e630	-0.03366679
30	0xbe2db084	-0.16961867
31	0xbd4f75b2	-0.050649352
32	0xbd86c7fb	-0.06581112
33	0xbe0f9e5b	-0.14025252
34	0xbd660335	-0.056155402
35	0xbd97dbc4	-0.07414964
36	0xbd6957f9	-0.056968663
37	0xbd596611	-0.053075854
38	0xbcc0d3a2	-0.023538414
39	0xbe4e8a91	-0.20170046
40	0xbd86c15f	-0.06579851
41	0xbe0043f3	-0.1252592
42	0xbd2a417b	-0.041566353
43	0xbd57e343	-0.052706968
44	0xbe15fddd	-0.14647622
45	0xbdaa3e54	-0.083126694
46	0xbd200d4e	-0.03907519
47	0x3db247fb	0.087051354
48	0xbd85b109	-0.065279074
49	0xbe2b9fcd	-0.16760178
50	0x3c2f5655	0.0107017355
51	0xbd29ea2c	-0.04148309
52	0xbd3eea1b	-0.04660998
53	0xbe25be36	-0.16185841
54	0xbce8240e	-0.028337505
55	0xbb7df3ba	-0.0038750009
56	0x3cc9ff48	0.02465786
57	0xbd256be4	-0.040386096
58	0xbe0a2d82	-0.13493922
59	0xbd6e83c4	-0.05823113
60	0xbca013c3	-0.019540673
61	0xbdbb4e04	-0.0914574
62	0xbd897557	-0.06711834
63	0xbd2942a0	-0.041323304
64	0xbba6d50f	-0.0050913165
65	0xbdd87fd4	-0.10571256
66	0x3d11d637	0.03560468
67	0xbd7122f2	-0.058871217
68	0xbd8526b8	-0.06501526
69	0xbde85f6c	-0.11346325
70	0xb9c38ab9	-0.00037296655
71	0xbd9ad523	-0.07560184
72	0xbbcabf2a	-0.0061873393
73	0xbd799fee	-0.060943536
74	0xbe0d0b86	-0.13773927
75	0xbdd2ea48	-0.10298592
76	0x3be43006	0.0069637327
77	0xbe0632fa	-0.13105384
78	0xbe24cb5d	-0.16093202
79	0xbdc08a3a	-0.094013646
80	0xbdcb0daf	-0.09914719
81	0xbd8552c1	-0.06509925
82	0xbdb098d1	-0.086228974
83	0xbdecf767	-0.11570626
84	0x3d946741	0.072462566
85	0xbd175fe9	-0.0369567
86	0xbd950888	-0.07277018
87	0xbdbe116d	-0.092806675
88	0x3c8831b0	0.016625255
89	0xbd4fc861	-0.050728206
90	0xbcf41dae	-0.029799309
91	0x3ca72dd9	0.020407604
92	0xbd989119	-0.0744955
93	0xbdbde85a	-0.09272833
94	0xbd059241	-0.03261018
95	0xbde03602	-0.10947801
96	0xbb81c36a	-0.0039600627
97	0x3c80f1ac	0.015740238
98	0xbd7331fa	-0.059373833
99	0xbdd2d36b	-0.10294231
100	0xbdfbc902	-0.122941986
101	0x3d472803	0.048622143
102	0xbde66e69	-0.11251528
103	0x3a7102b5	0.0009193824
104	0xbd58697f	-0.052834984
105	0x3bfe2f13	0.0077570765
106	0x3c895287	0.016762985
107	0xbe059bc7	-0.13047706
108	0xbdd1090a	-0.10206802
109	0xbd9a3550	-0.075297
110	0xbc932ed1	-0.01796666
111	0xbdf7b36b	-0.12094768
112	0xbdcb507f	-0.09927463
113	0xbc696478	-0.014245145
114	0xbd6feee7	-0.058577444
115	0xbca93fe8	-0.020660356
116	0xbdc7b9d7	-0.09752243
117	0x3c6cea21	0.014460118
118	0xbd9eaa08	-0.07747275
119	0xbd096fe7	-0.033553984
120	0x3d81f18a	0.06344898
121	0x3c681fa9	0.014167705
122	0xbdbee92c	-0.09321818
123	0xbd20728f	-0.03917175
124	0xbe1aa37c	-0.15101427
125	0xbde08333	-0.10962524
126	0x3d4a5f0e	0.049407057
127	0xbd8c4eec	-0.06850991
128	0xbd217f09	-0.03942779
129	0xbde07a9f	-0.10960888
130	0xbdb524ac	-0.08844885
131	0x3caaa212	0.020829234
132	0xbdd26051	-0.10272277
133	0xbc904269	-0.017609792
134	0xbd1def46	-0.038558267
135	0xbdc1a657	-0.09455555
136	0x3ce16fc5	0.027519116
137	0xbd324e7c	-0.04353188
138	0xbe09a6a6	-0.13442478
139	0xbe0f9cd2	-0.14024666
140	0xbd4d1818	-0.050071806
141	0xbbf9d32e	-0.0076240515
142	0xbcd9608d	-0.026535297
143	0xbdb67aa9	-0.08910114
144	0xbcac2940	-0.021015763
145	0xbdaa0de4	-0.08303431
146	0xbe2af343	-0.1669436
147	0xbd934386	-0.071906134
148	0xbdc26aa2	-0.09492995
149	0xbd88e733	-0.06684723
150	0x3bf2a792	0.00740523
151	0x3b083431	0.0020783062
152	0xbd575ea0	-0.052580476
153	0xbda89021	-0.082306154
154	0x3d5b263d	0.053503264
155	0x3c643776	0.013929239
156	0xbdc7d718	-0.09757823
157	0xbc9a6494	-0.018846788
158	0xbe1b03b3	-0.1513813
159	0xbd9b3346	-0.07578139
160	0xbdaeaf4a	-0.085295275
161	0xbbea6e15	-0.007154236
162	0xbda4f765	-0.08054999
163	0xbd9e1438	-0.077187
164	0xbda918d7	-0.08256691
165	0xbdcdab3f	-0.10042428
166	0x3d0608b5	0.032723147
167	0xbd6b2324	-0.05740656
168	0xbdd5ebb5	-0.10445348
169	0xbd9fc912	-0.07802023
170	0xbd1cfa20	-0.038324475
171	0xbddcf997	-0.10789793
172	0xbcb36b72	-0.02190182
173	0xbdeb4ee5	-0.11489657
174	0xbc92d0c7	-0.017921818
175	0x3d79c169	0.060975466
176	0xbbe6e0d6	-0.0070458455
177	0xbc85e46c	-0.016344272
178	0xbd1bd53d	-0.038045157
179	0xbc4e7b84	-0.012602691
180	0x3cb49857	0.022045298
181	0xbcfdee49	-0.030997412
182	0xbdacf715	-0.08445565
183	0xbc98bea1	-0.018645586
184	0x3c9d0bba	0.01917063
185	0x3ca2840c	0.019838355
186	0x374dc6f4	1.2265275e-05
187	0xbd52cc30	-0.05146426
188	0xbdb2a9b2	-0.08723773
189	0xbc64bb50	-0.013960674
190	0xbdcd326e	-0.10019384
191	0x3c33fdf6	0.010985842
192	0xbd8eb77a	-0.06968589
193	0xbd8dccc4	-0.069238216
194	0xbd5c34dc	-0.053761348
195	0x3c627a30	0.013823077
196	0x3d26f080	0.040756702
197	0xbd69aab6	-0.05704757
198	0x3c310390	0.010804072
199	0xbd988bc1	-0.07448531
200	0xbde9696d	-0.113970615
201	0xbde06092	-0.10955919
202	0xbe20e350	-0.15711713
203	0xbc2555b6	-0.010091236
204	0xbc5d1142	-0.013492884
205	0xbd1c8bd9	-0.038219307
206	0xbdec2be1	-0.11531807
207	0xbdbdca9e	-0.09267162
208	0xbc8ddbeb	-0.01731678
209	0xbaf62f3e	-0.001878239
210	0x3cc2d54e	0.023783352
211	0xbaf3b3ca	-0.001859301
212	0xbb104a16	-0.0022016815
213	0xbc4387f4	-0.011934269
214	0xbdc4e6fe	-0.09614371
215	0xbd7b1a5e	-0.061304443
216	0x3bf50bfb	0.007478235
217	0xbd8d49eb	-0.06898864
218	0xbd8e883d	-0.06959579
219	0x3d396d7a	0.04527042
220	0xbc76df36	-0.015067866
221	0xbd1a4e93	-0.03767259
222	0xbe13adc4	-0.14421755
223	0xbdb34d55	-0.08754984
224	0xbdc3944d	-0.095497705
225	0xbdd05076	-0.10171597
226	0xbda701ef	-0.08154666
227	0xbd0567ae	-0.03256958
228	0xbdd9bcd7	-0.106317215
229	0xbd81da74	-0.06340495
230	0xbe1a80b4	-0.15088159
231	0xbe28ce14	-0.16484863
232	0xbab0279d	-0.001343954
233	0xbe017934	-0.12643892
234	0xbd432486	-0.047642253
235	0x3d0be595	0.034154493
236	0xbd335507	-0.04378226
237	0xbd3a50ad	-0.045487095
238	0xbd900dcc	-0.070338815
239	0xbd115472	-0.035480924
240	0xbdde75e5	-0.1086233
241	0xbde32993	-0.11091914
242	0xbdbeccbb	-0.09316393
243	0xbd288772	-0.041144796
244	0xbda78492	-0.08179583
245	0xbda8e3ca	-0.08246572
246	0xbde36e64	-0.1110504
247	0xbe01c08f	-0.12671112
248	0x3d1d1017	0.038345423
249	0xbdc6154a	-0.09672029
250	0xbe104447	-0.14088546
251	0xbdcfc85f	-0.1014564
252	0xbe16dc83	-0.14732556
253	0xbdcdf258	-0.10055989
254	0x3d38e2d9	0.045138214
255	0xbdd721b4	-0.10504475

lstm.weight_ih_l1 f4 [512, 128]
0	0xbc276c4c	-0.010218691
1	0xbd48f970	-0.049066007
2	0x3d34edec	0.044172212
3	0x3dad68cf	0.08467256
4	0x3d3bed64	0.04588069
5	0xbda6b3c1	-0.08139754
6	0x3d2dff0c	0.04247956
7	0x3c5e9f4d	0.013587785
8	0xbcbd6b7a	-0.023122538
9	0xbd36a911	-0.044594828
10	0x3d9c268d	0.076245405
11	0x3dce87cc	0.10084495
12	0xbc906e20	-0.017630637
13	0x3d0bc57d	0.034123886
14	0x3d5e040b	0.054203074
15	0x3d1248a4	0.035713807
16	0x3daf5f2c	0.085630745
17	0x3d7ac007	0.061218288
18	0xbd77dabc	-0.060511336
19	0x3dd60977	0.10451024
20	0xbdbe8d97	-0.0930435
21	0xbd2cc411	-0.04217917
22	0x3be2bf9d	0.0069198147
23	0x3d2c118a	0.042008914
24	0xbcfec53e	-0.031099912
25	0xbd6f805e	-0.05847203
26	0xbdb4527a	-0.08804794
27	0xbafbbbb2	-0.0019205718
28	0x3d9a7747	0.075422816
29	0xbce64a0f	-0.028111486
30	0xbd2e96a7	-0.042624142
31	0x3db8ae19	0.090175815
32	0xbd28bbbb	-0.04119466
33	0xbce0352a	-0.0273691
34	0x3d212a2b	0.039346855
35	0x3dde333f	0.10849618
36	0x3cbcc309	0.023042219
37	0xbe0f9125	-0.14020212
38	0xbdc1582d	-0.09440646
39	0x3d18c57e	0.03729772
40	0xbb86ee88	-0.0041177906
41	0xbd93e8e9	-0.072221585
42	0x3d73c057	0.0595096
43	0xbb9edef7	-0.004848357
44	0xbccb343f	-0.024805186
45	0xbd6222ac	-0.055208847
46	0xbd2c7083	-0.042099487
47	0x3d934d42	0.0719247
48	0x3da81990	0.08208001
49	0x3d4672b7	0.048449244
50	0x3ce13239	0.027489768
51	0xbd311063	-0.04322852
52	0x3dc5b384	0.096533805
53	0xbd4ec561	-0.050481204
54	0x3d824908	0.06361586
55	0xbdcdc0e6	-0.10046558
56	0x3db38fe0	0.08767676
57	0xbcdfd933	-0.027325248
58	0x3d30f452	0.043201752
59	0xbd788dc1	-0.060682062
60	0xbd2729d5	-0.04081138
61	0x3beede15	0.007289658
62	0x3c87f6a1	0.016597094
63	0xbc9b55b6	-0.018961769
64	0x3d537d76	0.05163332
65	0x3d84e7c5	0.06489519
66	0x3c82deb8	0.015975341
67	0xbd3be6d2	-0.045874424
68	0xb90f849e	-0.00013686946
69	0xbd92a770	-0.071608424
70	0x3d87569e	0.06608318
71	0x3dcbe053	0.09954896
72	0x3caf2b76	0.021383028
73	0x3d503138	0.05082819
74	0x3e19f2b8	0.15033996
75	0x3d887147	0.06662231
76	0xbd55c95b	-0.05219398
77	0xbde64025	-0.11242703
78	0x3c2408d2	0.010011869
79	0xbd6d4c24	-0.05793394
80	0xbc80c524	-0.015719004
81	0xbd5b044f	-0.053470906
82	0xbc85d28d	-0.01633575
83	0xbd992282	-0.07477285
84	0x3d88fa4d	0.06688366
85	0x3dae2d2c	0.085047096
86	0x3cccd453	0.025003588
87	0xbbcc1e50	-0.0062291995
88	0x3cfe694b	0.031056067
89	0x3d6d3fa2	0.057922013
90	0x3dce23ca	0.1006542
91	0x3db75be5	0.08953074
92	0x3d60540b	0.05476765
93	0xbd5e5864	-0.054283515
94	0x3e0632da	0.13105336
95	0x3c809203	0.015694624
96	0x3d39b7d4	0.045341328
97	0xbdc3ca1f	-0.09560036
98	0xbd8254ff	-0.06363868
99	0x3d829f14	0.06377998
100	0xbab3e07a	-0.0013723515
101	0xbdedf291	-0.116185315
102	0x3d2092a0	0.039202332
103	0x3dfe658a	0.12421711
104	0xbd97a29b	-0.074040614
105	0x3dee62f2	0.11639966
106	0xbb13504d	-0.0022478283
107	0xbcfdca63	-0.030980295
108	0x3dab11fe	0.08353041
109	0xbd11eff3	-0.035629224
110	0x3db1909d	0.08670161
111	0xbcb732ae	-0.022363033
112	0xbd3b59dc	-0.045739993
113	0xbe0459b0	-0.12924838
114	0x3d94bc57	0.072624855
115	0x3d2995a9	0.041402493
116	0x3cc5c11c	0.024139933
117	0x3d4dfab4	0.050287917
118	0x3cdb94ab	0.026804289
119	0xbc9900f5	-0.018677214
120	0x3bcbb6e5	0.006216871
121	0xbd488f23	-0.04896463
122	0x3dbddc8e	0.09270583
123	0x3e39ca12	0.1814349
124	0x3d46d3eb	0.048541944
125	0x3d87d04f	0.066315286
126	0x3c0469cb	0.008081864
127	0xbd99ba9e	-0.075062975
128	0xbcbae1d0	-0.022812754
129	0x3d1892da	0.037249424
130	0x3de9756b	0.11399349
131	0x3dd0b1e7	0.10190182
132	0x3c83f58c	0.016108297
133	0xbe25e031	-0.16198803
134	0x3c7f90df	0.015598505
135	0x3d34dda4	0.044156685
136	0xbcd14c68	-0.025549129
137	0xbca7dfd1	-0.020492466
138	0x3d3eabfa	0.04655073
139	0x3d09b251	0.03361732
140	0xbd9d06a5	-0.07667283
141	0x3dcd6ee3	0.100309156
142	0xbd056eeb	-0.032576483
143	0x3e1b6349	0.15174593
144	0x3d0a601a	0.033783056
145	0x3b73a05f	0.0037174446
146	0x3e1e7b39	0.15476693
147	0x3c588dd1	0.013217405
148	0x3df95c28	0.121757805
149	0x3c27ba58	0.010237299
150	0x3c5aa17f	0.013344168
151	0x3cbe9287	0.023263229
152	0xbd6c69e3	-0.05771817
153	0xbc0ff3a4	-0.008786116
154	0xbe080cdc	-0.13286155
155	0xbd998170	-0.07495391
156	0x3dd9c364	0.10632971
157	0xbe1df20a	-0.15424362
158	0xbe083e76	-0.13305077
159	0x3d9d15a0	0.0767014
160	0x3e051413	0.12995939
161	0x3de86f6d	0.11349378
162	0xbd8e358d	-0.06943808
163	0xbc3a2157	-0.011360488
164	0x3e079b81	0.13242914
165	0x3d93716f	0.0719937
166	0xbda05173	-0.07828035
167	0x3d9266a0	0.071484804
168	0x3e11cb32	0.14237669
169	0x3d8024e4	0.06257036
170	0x3db2b7e9	0.08726484
171	0x3d0a9c65	0.033840556
172	0xbd4104a1	-0.047123555
173	0xbd85de7c	-0.06536576
174	0x3db0b301	0.08627892
175	0x3d71d692	0.05904252
176	0xbd414e65	-0.047193903
177	0xbdf2aeba	-0.11849733
178	0xbda23f7e	-0.079222664
179	0x3da6d896	0.08146779
180	0x3d6a57c3	0.057212602
181	0xbdf1a9cf	-0.117999665
182	0xbd73b54b	-0.059499066
183	0x3dfd2185	0.12359909
184	0x3dcbc557	0.09949749
185	0xbdca8df7	-0.09890359
186	0xbdf1f48f	-0.11814224
187	0xbe27b5a9	-0.16377892
188	0xbde68fe5	-0.112579145
189	0x3dffcb32	0.12489928
190	0xbd1453cf	-0.03621274
191	0x3ce0c04b	0.027435442
192	0xbdf22de2	-0.11825158
193	0xbd85ab16	-0.06526773
194	0x3e089bc6	0.13340673
195	0x3de24bc2	0.11049606
196	0xbd7217f8	-0.05910489
197	0xbb168004	-0.0022964487
198	0xbce5e6e4	-0.028064199
199	0x3b6f7f6d	0.0036544458
200	0x3d1878cf	0.037224587
201	0xbd0fdf59	-0.03512511
202	0xbdaa29f8	-0.08308786
203	0xb8c8a489	-9.56739e-05
204	0xbc5d4499	-0.0135051245
205	0xbdcde32b	-0.100530945
206	0xbd6ccb35	-0.05781098
207	0xbd171013	-0.036880564
208	0x3cd8120f	0.026375799
209	0x3e088028	0.13330138
210	0x3d8520e4	0.06500414
211	0xbd575dbb	-0.052579623
212	0x3bb39857	0.005480807
213	0x3e04e061	0.12976219
214	0x3d3ac2b3	0.045595836
215	0x3d3450c4	0.044022337
216	0x3da655ca	0.08121832
217	0xbe003f75	-0.12524207
218	0xbb77ef6c	-0.0037831916
219	0x3e0e598c	0.13901347
220	0x3e07280a	0.13198867
221	0xbd4316cc	-0.047629163
222	0x3cc909d9	0.024540829
223	0x3ce11df2	0.0274801
224	0xbd8fe6f5	-0.070264734
225	0xbda126aa	-0.07868703
226	0xbdc40923	-0.09572055
227	0xbb0b4866	-0.002125287
228	0xbd36eead	-0.044661213
229	0xbe065fea	-0.13122526
230	0xbda9b70d	-0.08286867
231	0xbd8afbf9	-0.06786341
232	0x3d32c8b3	0.043648433
233	0x3cac7a29	0.021054344
234	0x3d83385c	0.06407234
235	0xbb8468ad	-0.0040407986
236	0xbd4a7c55	-0.04943498
237	0xbd7144f2	-0.058903642
238	0xbd91e3ac	-0.07123503
239	0xbd1defcb	-0.038558763
240	0x3d04b692	0.032400675
241	0xbd1da26f	-0.038484987
242	0x3df06953	0.11738839
243	0xbd074d08	-0.033032447
244	0xbda48fc0	-0.08035231
245	0x3e0c00a5	0.13672121
246	0xbd9268d0	-0.07148898
247	0x3d94ebc6	0.07271533
248	0x3d999cc8	0.07500607
249	0x3caf7f4c	0.021423005
250	0xbbdef6d1	-0.006804325
251	0xbdad5367	-0.08463173
252	0xbe084c69	-0.13310398
253	0x3bf15a39	0.0073654917
254	0x3de6f131	0.11276472
255	0xbcce3183	-0.025170093

lstm.weight_hh_l1 f4 [512, 128]
0	0x3ae6018b	0.0017548067
1	0x3d2e21d8	0.042512745
2	0xbd9d8db6	-0.07693045
3	0xbd4ff65d	-0.05077206
4	0xbe0cd1df	-0.13751934
5	0xbd99d375	-0.07511035
6	0xbcf63865	-0.030056188
7	0xbe09ca98	-0.1345619
8	0x3d4460ff	0.047944065
9	0x3cfe9179	0.031075226
10	0xbd8a27ff	-0.0674591
11	0xbd5afd75	-0.05346437
12	0xbc46e344	-0.012139145
13	0xba88e52d	-0.0010444276
14	0xbd621505	-0.055195827
15	0x3d8ee403	0.069770835
16	0xbd243550	-0.040089905
17	0x3bb790ae	0.005601964
18	0x3d6426ab	0.05570094
19	0xbdc32209	-0.09527976
20	0xba8552ea	-0.0010171805
21	0x3d3bc53f	0.045842405
22	0xbb90e6b9	-0.0044220355
23	0xbd0b2d8d	-0.033978987
24	0xbd62d6e4	-0.055380717
25	0xbca83154	-0.020531334
26	0x3ca018ee	0.019543137
27	0xbe00cce8	-0.12578166
28	0x3d27086c	0.040779516
29	0x3e02847d	0.12745853
30	0x3d299dcc	0.041410252
31	0x3d156f76	0.03648325
32	0xbd02153a	-0.031758524
33	0xbc00ac13	-0.007853526
34	0x3c1f5361	0.009724469
35	0x3dd96e46	0.10616736
36	0xbc0b889a	-0.008516455
37	0xbc29c4fb	-0.010361905
38	0x3bdc9eba	0.006732789
39	0xbde1210a	-0.1099263
40	0xbbb2a8ce	-0.005452252
41	0xbc8a93a5	-0.016916106
42	0xbda519b4	-0.08061543
43	0x3e0241db	0.12720434
44	0xbdbc274a	-0.09187181
45	0xbc105ec7	-0.008811659
46	0x3e0cc8e1	0.13748504
47	0x3d18bfe2	0.03729237
48	0x3d8dc57c	0.06922433
49	0xbd04e089	-0.032440696
50	0x3d68fedb	0.056883674
51	0xbd895120	-0.067049265
52	0xbd8364fb	-0.06415745
53	0x3c6444b1	0.013932393
54	0xbdd634e0	-0.10459304
55	0x3dc41ac3	0.09575417
56	0x3ddab34a	0.10678728
57	0xbd8f1df4	-0.06988135
58	0xbdc02a11	-0.093830235
59	0x3dde763a	0.10862394
60	0x3db4c8bf	0.08827352
61	0x3d962a52	0.07332291
62	0x3cc6f21a	0.024285365
63	0xbd8a9c80	-0.06768131
64	0x3dc68f7b	0.096953355
65	0xbd789c99	-0.06069622
66	0x3dc26921	0.09492708
67	0xbdf3c297	-0.119023494
68	0xbbd5b905	-0.0065223
69	0xbd4da2dc	-0.050204143
70	0x3d6e6040	0.05819726
71	0x3a070fbc	0.0005152186
72	0x3da29de9	0.07940275
73	0xbd113507	-0.03545096
74	0xbc31c4a1	-0.010850103
75	0x3d249f4a	0.040190972
76	0x3c0b39ff	0.008497714
77	0xbcd2921a	-0.025704432
78	0xbd7b2f47	-0.061324384
79	0xbd121561	-0.03566492
80	0x3c80ebd4	0.015737452
81	0x3b0dd6f2	0.002164301
82	0xbcd5fb6c	-0.026120864
83	0xbd1886e5	-0.03723802
84	0xbe0b937d	-0.13630481
85	0xbd869f49	-0.0657335
86	0xbdc4d410	-0.0961076
87	0xbc329ff7	-0.010902396
88	0x3db31a38	0.08745235
89	0xbd559753	-0.052146267
90	0xbdbf2edd	-0.0933511
91	0x3de748d3	0.11293187
92	0xbc49250e	-0.012276901
93	0xbd57b80e	-0.052665763
94	0xbc370ce8	-0.011172511
95	0xbdf11340	-0.1177125
96	0x3dfa4a15	0.12221161
97	0x3db5e627	0.08881789
98	0x3d1a068d	0.037603904
99	0xbd2cc3bd	-0.042178858
100	0x3d509252	0.050920792
101	0xbd916dcd	-0.07101021
102	0x3d7967c3	0.06088997
103	0x3b894f47	0.004190359
104	0x3d209729	0.039206658
105	0x3dd65038	0.10464519
106	0xbccc55ca	-0.024943251
107	0x3c3c83d2	0.011506038
108	0x3d37f897	0.044914808
109	0x3cdb4d16	0.026770156
110	0xbd7bf474	-0.061512426
111	0x3d4455e4	0.047933474
112	0x3d7002b9	0.058596347
113	0x3d586010	0.052825987
114	0x3c60ef58	0.013728939
115	0x3c5d0e9b	0.013492252
116	0xbe0a75c6	-0.1352149
117	0x3e2aa8bf	0.16665934
118	0xbdee42f7	-0.11633866
119	0x3de46d37	0.111536436
120	0x3d219d4c	0.03945665
121	0x3dc2caa6	0.09511308
122	0xbd12eaba	-0.035868384
123	0xbd8d76db	-0.069074355
124	0xbd131a90	-0.035914004
125	0x3da4a042	0.08038379
126	0xbda4b70d	-0.08042727
127	0xbd6b32fb	-0.057421666
128	0xbca81dd0	-0.020522028
129	0xbd837aaf	-0.064198844
130	0xbd3ee206	-0.04660227
131	0xbd9d3116	-0.07675378
132	0x3d23440d	0.03985982
133	0xbcca76fb	-0.024714937
134	0x3e186491	0.14882113
135	0x3d7b1c73	0.06130643
136	0xbd13f9be	-0.036126845
137	0x3d6215af	0.05519646
138	0x3c2c48e2	0.0105154235
139	0x3ac3e6da	0.0014946118
140	0x3d32fbef	0.043697294
141	0x3cba763f	0.022761462
142	0xbde351f8	-0.11099619
143	0x3da1b73d	0.07896278
144	0xbc8cf81f	-0.017208157
145	0xbdd3bebf	-0.10339116
146	0x3db2b9dd	0.08726857
147	0xbd97fcf0	-0.07421291
148	0x3d7a6597	0.06113204
149	0x3b62c3cb	0.0034601565
150	0xbdc84011	-0.09777845
151	0x3cc3c620	0.023898184
152	0xbddcea5b	-0.10786887
153	0x3d5fdcf1	0.054654066
154	0xbd8bb992	-0.06822504
155	0xbd50dff0	-0.050994813
156	0xbc02a73a	-0.00797444
157	0xbac910d7	-0.0015340102
158	0xbda8a68f	-0.082348935
159	0x3d23712c	0.03990285
160	0xbda5b488	-0.08091074
161	0xbb0c192e	-0.0021377313
162	0x3d8ebef0	0.06970012
163	0x3d9b2e7f	0.07577228
164	0x3d27906b	0.040909212
165	0xbce3ea1c	-0.027821593
166	0xbd9ab547	-0.07554107
167	0xbce68b2d	-0.028142536
168	0x3d729742	0.059226282
169	0x3d800e6c	0.06252751
170	0xbdb87099	-0.09005851
171	0x3d904b8b	0.07045659
172	0xbe28f1d6	-0.16498503
173	0x3d3e5a33	0.04647274
174	0x3d891a4b	0.06694468
175	0x3d5300fb	0.051514607
176	0xbb6cf4c6	-0.0036156639
177	0x3c9c28ef	0.019062487
178	0x3e2af880	0.16696358
179	0x3b2b8698	0.0026172753
180	0x3d2f747b	0.042835694
181	0xbbab07c3	-0.005219431
182	0x3a7945e3	0.000950901
183	0x3d57dbb9	0.05269978
184	0xbc38cb57	-0.011278949
185	0xbdc39fa4	-0.095519334
186	0xbdaf252b	-0.08552011
187	0xbd95ca94	-0.07314029
188	0x3d711a5c	0.05886303
189	0xbe20875d	-0.15676637
190	0x3de0f080	0.10983372
191	0xbe23030d	-0.15919133
192	0x3da8aca7	0.08236056
193	0xbe1af770	-0.15133452
194	0xbca50983	-0.020146137
195	0xbdfc6ffd	-0.123260476
196	0xbda4878a	-0.080336645
197	0xbd18de06	-0.037321113
198	0xbdb822ae	-0.089909896
199	0xbd5a990f	-0.053368624
200	0xbe19e0ea	-0.15027204
201	0x3cb08e50	0.021552235
202	0x3ddd7f78	0.10815328
203	0xbdd596ec	-0.10429177
204	0x3cd766fa	0.02629422
205	0x3c9ec9bd	0.019383306
206	0xbd92a098	-0.07159537
207	0x3c8caed1	0.017173203
208	0x3da67489	0.08127696
209	0xbe141bf0	-0.14463782
210	0x3e15498e	0.1457884
211	0x3bd0a75e	0.006367608
212	0xbdea487c	-0.114396065
213	0xbd23f45f	-0.040027972
214	0xbd9cef0a	-0.076627806
215	0xbe06060e	-0.13088247
216	0x3d91f600	0.07126999
217	0x3c724638	0.014787249
218	0xbd29ee46	-0.041487
219	0xbdb409c1	-0.08790923
220	0x3e391d22	0.1807752
221	0x3dc3d171	0.09561432
222	0x3d800262	0.062504545
223	0xbd4bbed9	-0.049742553
224	0x3c5de520	0.013543397
225	0x3dce200b	0.100647055
226	0x3cb11be3	0.021619743
227	0x3ce7e36d	0.028306687
228	0x3da1988e	0.078904256
229	0x3cf92843	0.030414706
230	0x3da6cdd5	0.08144728
231	0x3dc7faa8	0.09764606
232	0x3a000381	0.00048833346
233	0x3d9d9226	0.07693891
234	0x3d16d7e2	0.036826976
235	0x3ca1df07	0.019759668
236	0x3cbe3121	0.023216786
237	0xbdf042c6	-0.11731486
238	0x3c206ef9	0.009792083
239	0xbd5696ac	-0.052389786
240	0xbdf201cc	-0.11816749
241	0x3e30e0f6	0.17273316
242	0x3df495fb	0.11942669
243	0x3dc70bd1	0.09719051
244	0xbdc255d9	-0.094890304
245	0xbcde14a0	-0.027109444
246	0xbd8142ee	-0.06311594
247	0xbdad7654	-0.08469835
248	0x3d5b3237	0.053514685
249	0xbdaae173	-0.08343782
250	0xbccf53b9	-0.025308477
251	0xbe0c6c56	-0.13713202
252	0x3db43c24	0.088005334
253	0x3c842c88	0.016134515
254	0xbdb61e68	-0.08892518
255	0xbd063c09	-0.032772098

lstm.bias_ih_l1 f4 [512]
0	0xbbc96a91	-0.006146737
1	0xbc55d9d4	-0.013052423
2	0xbdfd60ce	-0.1237198
3	0xbdceba42	-0.100941196
4	0xbdc3b7d5	-0.095565476
5	0xbd90f38b	-0.07077702
6	0xbda9b4ba	-0.08286424
7	0xbdb4dbee	-0.08831011
8	0xbdb21c78	-0.08696836
9	0x3d137f43	0.036010038
10	0xbe310f60	-0.17291021
11	0xbe0e64e4	-0.13905674
12	0x3d49ccaa	0.04926745
13	0xbd4e5466	-0.050373457
14	0xbde282e6	-0.11060123
15	0xbd357bcb	-0.04430751
16	0xbcc53833	-0.02407465
17	0xbd3dec41	-0.046367887
18	0xbdaec42f	-0.08533513
19	0xbd303c8a	-0.043026485
20	0xbd5c02aa	-0.05371348
21	0xbdc54029	-0.09631378
22	0xbdb6ef6c	-0.08932385
23	0xbe087123	-0.13324408
24	0x3d22f78b	0.039786857
25	0x3ac33580	0.0014893264
26	0xbd484a9b	-0.048899274
27	0x3d63a48d	0.05557685
28	0xbd739704	-0.05947019
29	0xbe163475	-0.14668448
30	0xbdcb5ebc	-0.099301785
31	0xbd15ccd5	-0.036572296
32	0x3ba1f44d	0.004942453
33	0x3d3eee66	0.046614073
34	0xbdc0bf52	-0.094114915
35	0xbdaf3cf2	-0.08556546
36	0xbcbaee95	-0.022818843
37	0xbd2f45cb	-0.04279117
38	0xbca19456	-0.019724052
39	0xbc8393a5	-0.016061613
40	0xbcffb053	-0.031212008
41	0xbdd88712	-0.105726376
42	0xbdd6b1cd	-0.104831316
43	0xbd2517a2	-0.04030574
44	0xbdbd17ea	-0.09233077
45	0xbdff2d57	-0.1245982
46	0xbdd5950a	-0.104288176
47	0xbc45933f	-0.012059032
48	0xbc05290b	-0.008127461
49	0xbafad60f	-0.0019137281
50	0xbdc0cc55	-0.09413973
51	0xbda80796	-0.08204572
52	0x3ca176a6	0.019709896
53	0xbdd3ed13	-0.10347953
54	0xbc2311c1	-0.009952963
55	0xbd1efbbe	-0.0388143
56	0xbd81cef4	-0.06338301
57	0xbde86f95	-0.113494076
58	0xbd98f044	-0.07467702
59	0xbe2f5de2	-0.17125657
60	0xbd800304	-0.06250575
61	0x3d60e887	0.054909255
62	0xbe1dbc5d	-0.15403886
63	0x3c3d50fd	0.011554954
64	0xbd8c9a83	-0.06865408
65	0x3d155f8d	0.036468077
66	0xbc3f9606	-0.011693483
67	0x3cefc75b	0.029269865
68	0xbd910346	-0.070807025
69	0xbd4ec0d0	-0.05047685
70	0x3ce19bc4	0.027540095
71	0xbc0d7c78	-0.008635633
72	0x3d39b03d	0.04533409
73	0x3d67e313	0.05661304
74	0xbcaa28da	-0.020771433
75	0xbdfd05ef	-0.12354647
76	0xbda73b90	-0.081656575
77	0x3b59ac8e	0.0033214423
78	0xbaee8b1c	-0.0018199417
79	0xbdbe31ed	-0.09286866
80	0x3d58eaae	0.052958183
81	0xbd394259	-0.04522929
82	0xbd9dcea4	-0.07705429
83	0x3da5e44d	0.081001855
84	0x3cd3a9dd	0.025837833
85	0xbd677513	-0.056508135
86	0x3c71a789	0.014749416
87	0x3c05dd34	0.008170415
88	0xbadb58ea	-0.0016734872
89	0xbd5ef328	-0.05443111
90	0xbda6bc82	-0.08141424
91	0xbdb06b6e	-0.086142406
92	0xbdba2f7d	-0.09091089
93	0xbe225ac0	-0.15854931
94	0xbd5ab556	-0.05339559
95	0xbdb943c3	-0.09046128
96	0xbbc8dd35	-0.0061298856
97	0x3c995ea9	0.018721895
98	0xbdfa926a	-0.122349575
99	0x3cdd6699	0.027026461
100	0x3d4f7d63	0.050656687
101	0xbd8dd866	-0.0692604
102	0x3bd8d78c	0.006617492
103	0xbe039f43	-0.12853722
104	0xbdb80750	-0.0898577
105	0x3d10568a	0.03523878
106	0xbdc34272	-0.09534158
107	0xbcad54e7	-0.021158649
108	0xbd26d613	-0.0407315
109	0xbd67d649	-0.056600843
110	0xbd90f741	-0.0707841
111	0xbdcdb5b7	-0.10044425
112	0xbdb91620	-0.09037423
113	0x3d24e11f	0.040253755
114	0xbdbc5fc5	-0.09197954
115	0xbd7b0b1f	-0.061289903
116	0xbd6374fd	-0.05553149
117	0xbdbd1062	-0.092316404
118	0x3cd33f73	0.02578709
119	0xbd00f699	-0.031485174
120	0xbdd4a871	-0.1038369
121	0xbd6c5ac3	-0.057703745
122	0xbcad5084	-0.021156557
123	0xbdd42b66	-0.1035984
124	0xbceecda6	-0.029150795
125	0x3d326bcd	0.043559838
126	0xbdf5d9db	-0.12004443
127	0x3d46b1fe	0.04850959
128	0xbc6d2d03	-0.014476064
129	0xbdadfc7b	-0.084954225
130	0xbdf6e6a3	-0.12055709
131	0xbc0b3e78	-0.00849878
132	0xbda8a0cb	-0.08233794
133	0xbc780985	-0.015138988
134	0x3ccab086	0.024742376
135	0xbd05a672	-0.032629438
136	0xbdc7fa70	-0.09764564
137	0x3d53c655	0.051702816
138	0xbe0dff11	-0.13866831
139	0xbd1bcf9d	-0.038039792
140	0xbd219f32	-0.03945846
141	0x3d2e3e4d	0.042539883
142	0xbd73ee63	-0.059553515
143	0xbd13a023	-0.03604139
144	0xbd6d1a9a	-0.057886697
145	0xbdbc3930	-0.09190595
146	0xbd0a5f0d	-0.033782054
147	0xbd811984	-0.06303695
148	0x3a157d93	0.0005702611
149	0xbd377ea2	-0.0447985
150	0xbdd8d5e7	-0.10587674
151	0xbe083210	-0.13300347
152	0xbd6270cc	-0.055283353
153	0xbdb6124a	-0.08890207
154	0xbd0ed23b	-0.03486846
155	0x3c8504ad	0.016237581
156	0xbdaa8218	-0.08325595
157	0xbd5ec789	-0.05438951
158	0xbdaac33d	-0.0833802
159	0xbdd42fcf	-0.10360681
160	0xbdd2a863	-0.102860235
161	0x3bffcff3	0.007806772
162	0xbd54a884	-0.05191852
163	0xbd883686	-0.066510245
164	0xba98d99c	-0.0011661532
165	0xbe21ac8a	-0.15788475
166	0xbd9d0b60	-0.07668185
167	0xbd60b109	-0.054856334
168	0x3c55d510	0.013051286
169	0xbdaeb58e	-0.085307226
170	0xbd7dbda1	-0.061948422
171	0xbd195fa0	-0.03744471
172	0xbda03195	-0.07821957
173	0xbd48dbec	-0.04903786
174	0xbd15262a	-0.03641335
175	0xbca9161f	-0.020640431
176	0xbe02848e	-0.12745878
177	0xbe08c542	-0.13356498
178	0xbd11ce28	-0.035596997
179	0x3d13282d	0.035926986
180	0x3ca7f767	0.020503713
181	0x3d1377ee	0.036003046
182	0xbd8c3f12	-0.06847967
183	0xbc803dfb	-0.015654555
184	0xbe00159c	-0.12508243
185	0x3d29495c	0.041329727
186	0x3c2a346a	0.010388473
187	0xbe31f7a7	-0.17379628
188	0x3c415ed9	0.011802399
189	0xbcba7676	-0.022761565
190	0x3cf7a54d	0.030230189
191	0x3c04b069	0.0080987
192	0x3b9bbc41	0.004752666
193	0x3c59d6ae	0.0132958125
194	0xbe131186	-0.14362153
195	0x3c964248	0.018342152
196	0xbd814ee1	-0.06313873
197	0xbd86be66	-0.06579284
198	0xbdbb192f	-0.09135663
199	0x3dd4c0dd	0.10388348
200	0x3cb7cf2b	0.022437653
201	0xbc7e87f1	-0.015535341
202	0xbc430041	-0.011901916
203	0xbe089ad9	-0.1334032
204	0xbdbcbe5c	-0.09215996
205	0xbdd143c7	-0.102180056
206	0x3c96f16c	0.018425666
207	0x3c95381e	0.018215235
208	0x3d47f1c3	0.048814546
209	0xbdc2a18c	-0.09503469
210	0xbd962661	-0.07331539
211	0x3cd76887	0.02629496
212	0x3caf2877	0.0213816
213	0x3cb51f96	0.022109788
214	0xbd730b11	-0.059336726
215	0x3a459d52	0.0007538396
216	0x3ce80614	0.02832321
217	0xbe081522	-0.13289312
218	0x3d485fdf	0.048919555
219	0x3c8e92fd	0.017404074
220	0xbde0d75a	-0.10978575
221	0xbcf86cd7	-0.030325336
222	0x3d2c663b	0.042089682
223	0xbd0932f9	-0.033495877
224	0xbca97e0d	-0.020689989
225	0x3d38248d	0.044956733
226	0xbd5f288d	-0.05448203
227	0xbc81495b	-0.015782049
228	0xbc537160	-0.012905449
229	0x3cf2a624	0.029620238
230	0x3ba5ff44	0.0050658304
231	0xbd8424ee	-0.06452356
232	0xbd226f5a	-0.039656974
233	0xbd686cc7	-0.056744363
234	0xbdec88b9	-0.11549515
235	0x3dc06584	0.093943626
236	0x3be5403b	0.0069961823
237	0xbc41800a	-0.011810312
238	0xbd835881	-0.06413365
239	0xbc27fe9d	-0.010253576
240	0xbdd6ca0b	-0.104877554
241	0xbdaac5e0	-0.08338523
242	0x3d0aedf7	0.033918347
243	0xbdcaf77c	-0.09910485
244	0xbda9d5bd	-0.082927205
245	0xbdfa615d	-0.12225602
246	0xbb8d8a5d	-0.0043194727
247	0xbd798df7	-0.060926404
248	0xbdddb484	-0.10825446
249	0xbd548aab	-0.051890057
250	0x399ea5d4	0.0003025966
251	0xbdc56c45	-0.096397914
252	0xbd1e6291	-0.03866822
253	0xbd5113c1	-0.05104423
254	0xbd9dd80e	-0.07707225
255	0x3d8b6952	0.06807198
