SimLoan/res/experiments_adj_generation_unfair_decisions_10_steps_2_interventions/LSTM_effort_model_2layers_budget_5.0_eps_0_5_b_0_5.pth (torch, 818486 bytes, 12 tensors)

init_interventions f4 [1, 2]
0	0xb91f7ae4	-0.00015209202
1	0xb920d8a3	-0.00015339493

lstm.weight_ih_l0 f4 [512, 9]
0	0x3d98bf04	0.07458308
1	0xbac66653	-0.0015136696
2	0x3c6ebf65	0.014571999
3	0xbda3bc92	-0.07994951
4	0x3cf69041	0.030098082
5	0xbd054a67	-0.03254166
6	0x3d9ae6c8	0.07563549
7	0x3d3b0009	0.04565433
8	0x3d43b95b	0.04778419
9	0xbd6b2f9e	-0.05741846
10	0xbd4533b6	-0.04814502
11	0x3d5b62ce	0.053561024
12	0xbda4eb90	-0.080527425
13	0xbd7b9180	-0.061418056
14	0x3db0937d	0.08621881
15	0xbd8db2ac	-0.069188446
16	0xbd9df1a1	-0.07712103
17	0xbda0bd90	-0.07848656
18	0xbd32a87e	-0.043617718
19	0x3db2a062	0.08721997
20	0xbd058035	-0.03259297
21	0x3cc8b8f9	0.024502264
22	0x3cf9726b	0.030450067
23	0x3d83dfb4	0.06439152
24	0xbda78a66	-0.08180694
25	0xbda490b9	-0.08035416
26	0x3c92fb15	0.01794199
27	0x3d8d58b9	0.06901688
28	0x3d1ad4be	0.037800543
29	0x3d1d421a	0.038393117
30	0x3d1d6057	0.038421955
31	0x3cc9345f	0.024561105
32	0xbdb26020	-0.08709741
33	0x3cb413ce	0.0219821
34	0xbdaa3e42	-0.08312656
35	0x3cd5b2e4	0.026086278
36	0xbd855a48	-0.065113604
37	0xbd5f5dc9	-0.0545328
38	0x3c95d4c6	0.018289935
39	0x3c1b7251	0.009487704
40	0xbd8d3682	-0.06895162
41	0xbafb9245	-0.0019193372
42	0xbd972a70	-0.07381141
43	0x3d81ba85	0.06334404
44	0x3d5c492e	0.053780727
45	0x3c30089f	0.010744243
46	0x3d4c73ee	0.049915247
47	0xbdac8e76	-0.0842561
48	0x3d407577	0.046987023
49	0x3cf127f3	0.029437995
50	0x3ca720c2	0.020401362
51	0x3d35497b	0.04425953
52	0x3dae8656	0.08521716
53	0x3d4eb355	0.050463993
54	0xbd148ecb	-0.03626899
55	0x3c88897a	0.016667116
56	0x3bac5be7	0.005259979
57	0x3d919d60	0.07110095
58	0xbd757132	-0.059922405
59	0x3d985155	0.07437388
60	0x3ced1d0d	0.028944517
61	0xbd833b22	-0.06407763
62	0x3cc97047	0.02458967
63	0x3daff037	0.08590739
64	0x3d2fb493	0.04289682
65	0x3d545d4c	0.051846787
66	0xbd633a6c	-0.055475637
67	0xbd99df8c	-0.07513341
68	0xbd90ab48	-0.07063919
69	0x3ca0f288	0.019646898
70	0xbce1dfe2	-0.027572576
71	0xbd303f3d	-0.04302906
72	0xbd413a28	-0.047174603
73	0xbb81cdc6	-0.0039612977
74	0xbd9ba8c1	-0.07600547
75	0xbd5c6331	-0.053805534
76	0x3db2e193	0.08734431
77	0xbd38465f	-0.044988986
78	0x3d889987	0.06669908
79	0xbd54e7df	-0.051978942
80	0x3d293700	0.041312218
81	0xbc92a1c3	-0.0178994
82	0x3daf7b2a	0.085684136
83	0xbb9e82a5	-0.0048373514
84	0xbd920c0a	-0.071312025
85	0x3c646dff	0.013942241
86	0xbd8cb7e0	-0.06871009
87	0xbd520319	-0.051272485
88	0xbd96ce5f	-0.07363581
89	0x3d8f5dca	0.07000311
90	0x3d090455	0.033451397
91	0xbcf0ac99	-0.029379176
92	0xbd5ab7b9	-0.053397868
93	0xbc446172	-0.011986123
94	0xbd971d66	-0.07378654
95	0x3ce863cc	0.0283679
96	0x3d7fd550	0.06245929
97	0xbd02a594	-0.03189619
98	0x3d953311	0.07285131
99	0xbdb316bb	-0.0874457
100	0x3cfe1cf0	0.031019658
101	0x3c8f8d95	0.017523566
102	0xbc912e33	-0.017722225
103	0x3cefca51	0.029271277
104	0x3d9b533d	0.07584236
105	0x3cd52e61	0.026023092
106	0x3cd49978	0.025952086
107	0x3d89b61f	0.0672419
108	0xbd06b721	-0.03288949
109	0xbd32986d	-0.043602396
110	0x3d30710f	0.04307657
111	0xbd0604e5	-0.03271951
112	0x3c2681bd	0.010162768
113	0x3d8ca3dd	0.06867192
114	0x3d0c0017	0.034179773
115	0xbcd75d5b	-0.026289633
116	0x3d98f6ab	0.07468923
117	0xbcc75ef4	-0.02433727
118	0x3d3363a8	0.04379621
119	0x3abc09c5	0.0014346173
120	0x3d16c79d	0.03681146
121	0xbd1b18ab	-0.037865322
122	0x3b0179e4	0.001975649
123	0x3d6768ff	0.056496616
124	0x3ca57e27	0.020201756
125	0xbd8cfc50	-0.06884062
126	0xbd79cfca	-0.06098918
127	0xbc82dd48	-0.015974656
128	0xbd48a9e2	-0.048990138
129	0x3d98cf1c	0.07461378
130	0xbc9e1a4e	-0.019299652
131	0x3d1f0e3c	0.038831934
132	0xbd70a312	-0.058749266
133	0x3d8ce4b3	0.068795584
134	0xba057142	-0.0005090424
135	0xbce69a85	-0.028149853
136	0x3d6b7ec8	0.057493955
137	0x3cd082b6	0.025452953
138	0x3cf9200e	0.030410793
139	0x3d88e749	0.06684739
140	0x3c2a4363	0.010392043
141	0x3b723628	0.003695855
142	0x3d573296	0.052538477
143	0xbd63b4b1	-0.055592243
144	0xbc04e3f0	-0.008110985
145	0xbd1316ce	-0.03591042
146	0x3c82e2b9	0.01597725
147	0xbbce05f4	-0.0062873308
148	0x3ce853d5	0.028360287
149	0xbc5d42c6	-0.01350469
150	0x3c75d908	0.015005358
151	0xbd8ead94	-0.06966701
152	0xbd6ba63d	-0.057531584
153	0xbd2579ba	-0.04039929
154	0x3db21b86	0.08696656
155	0x3d36a151	0.044587437
156	0x3cf04414	0.029329337
157	0x3d54cddb	0.05195413
158	0x3d8a59bb	0.06755396
159	0xbd69db98	-0.057094187
160	0xbd121d07	-0.035672214
161	0x3db1f2c0	0.08688879
162	0xbcbd3769	-0.02309771
163	0xbd93e0ac	-0.07220587
164	0xbcd02944	-0.025410302
165	0x3d7e1977	0.062036004
166	0xbd8b3fd3	-0.06799283
167	0x3d76a15d	0.06021248
168	0x3d5f9b48	0.054591447
169	0xbcc72b85	-0.024312744
170	0xbc18372f	-0.009290501
171	0x3bc7680f	0.006085403
172	0x3da7bf19	0.08190746
173	0xbd368fd6	-0.044570766
174	0x3db058db	0.08610698
175	0x3d1f366f	0.03887027
176	0x3db3b188	0.08774096
177	0x3cc9f16d	0.024651254
178	0xbd13dfc5	-0.036102075
179	0x3d8c9f98	0.068663776
180	0xbd1e2fe9	-0.03861991
181	0xbd92df56	-0.07171504
182	0x3c0af405	0.00848103
183	0x3d99e3ee	0.07514177
184	0x3d39144b	0.04518537
185	0x3d46fbe2	0.048580058
186	0xbd1b48ea	-0.037911333
187	0x3d1a594e	0.037682824
188	0x3d4aa207	0.049470928
189	0xbbc6314a	-0.006048356
190	0x3d23c3a7	0.03998151
191	0xbd68881d	-0.056770433
192	0xbae0c775	-0.0017149287
193	0xbd334a2a	-0.0437719
194	0x3d0825ae	0.03323906
195	0xbcbffed9	-0.02343695
196	0xbda8b188	-0.082369864
197	0x3ce0a78a	0.027423639
198	0x3d5fe418	0.054660887
199	0x3d464ccf	0.048413094
200	0x3d122e18	0.03568849
201	0x3d9ba926	0.07600622
202	0x3db3db23	0.087820314
203	0xbd5c34eb	-0.053761404
204	0xbd0873f6	-0.033313714
205	0x3c8ce52f	0.017199127
206	0x3d8b8969	0.06813318
207	0x3cfaad94	0.030600347
208	0xbca58015	-0.020202676
209	0xbdb4bda8	-0.088252366
210	0xbd537f17	-0.051634874
211	0xbd814b7d	-0.06313226
212	0x3beee80f	0.007290847
213	0xbc8586fa	-0.016299713
214	0x3cb66d6e	0.022268977
215	0x3d2396c5	0.039938707
216	0xbda66a09	-0.08125693
217	0xbda54012	-0.08068861
218	0xbd6c1dc0	-0.05764556
219	0x3caf0f39	0.021369563
220	0xbd823a2a	-0.0635875
221	0x3db137fa	0.08653255
222	0xbd1dff8e	-0.038573794
223	0xbd0f4ade	-0.03498351
224	0x3d807794	0.06272808
225	0x3db41684	0.08793357
226	0xbd26a720	-0.040686727
227	0x3dac141d	0.08402274
228	0x3cd1ac00	0.025594711
229	0x3cb96da3	0.022635287
230	0xbd637316	-0.055529676
231	0x3cad12a9	0.021127062
232	0x3d5cb3d6	0.053882442
233	0x3bfde758	0.0077485256
234	0x3c7bc893	0.015367645
235	0x3d3ba449	0.04581097
236	0x3cbd2414	0.023088492
237	0x3c6a3893	0.014295715
238	0x3d7b07e7	0.061286833
239	0xbbf259a7	-0.0073959413
240	0xbc2f5ee3	-0.010703775
241	0xbcf4dde4	-0.029890962
242	0x3ceb57eb	0.028728446
243	0x3c1c73e0	0.009549111
244	0xbb92b4b2	-0.004477107
245	0xbacff729	-0.0015866506
246	0x3d28e05c	0.04122959
247	0xbd2dbfae	-0.042419128
248	0xbdadfa64	-0.08495024
249	0xbd9f859c	-0.07789156
250	0x3bdac057	0.0066757607
251	0x3d49d92c	0.049279377
252	0x3ac00913	0.0014651142
253	0x3c887189	0.0166557
254	0x3c434d12	0.01192023
255	0x3ca34651	0.01993099

lstm.weight_hh_l0 f4 [512, 128]
0	0xbcf1589f	-0.029461203
1	0x3c797fa7	0.015228189
2	0xbd81760e	-0.06321345
3	0x3c582bee	0.013194067
4	0x3d3e27ae	0.04642456
5	0x3cf7faf5	0.030271033
6	0x3d816a78	0.063191354
7	0xbd2115d8	-0.039327472
8	0xbd548623	-0.051885735
9	0xbd4e53b4	-0.050372794
10	0xbcc01104	-0.023445614
11	0xbd5167e8	-0.051124483
12	0xbd3e54b2	-0.04646749
13	0xbd7afa55	-0.06127389
14	0xbd424b68	-0.047435194
15	0xbd341a8f	-0.04397064
16	0x3d35474d	0.04425745
17	0xbac465df	-0.0014983973
18	0x3d392e20	0.045210004
19	0x3d7ba19c	0.06143342
20	0x3d0cf91c	0.034417257
21	0xbd0caecf	-0.034346398
22	0xbcbdc411	-0.02316478
23	0xbd8feb09	-0.07027251
24	0xbd965e81	-0.07342244
25	0xbd9a9338	-0.07547611
26	0x3d15a3f6	0.03653332
27	0x3b22b508	0.0024827141
28	0x3cdbf951	0.026852282
29	0x3d938fe0	0.07205176
30	0x3adda24f	0.0016909334
31	0x3c7c1f6b	0.01538835
32	0x3d64be5d	0.055845607
33	0x3d58ec3b	0.052959662
34	0x3d2e39bd	0.042535532
35	0xbd7cbdc4	-0.061704412
36	0x3d09211d	0.033478845
37	0x3d98da2d	0.07463489
38	0xbc08b2d6	-0.008343419
39	0x3dac3354	0.084082276
40	0xbd54b10c	-0.051926658
41	0x3c239bec	0.009985905
42	0xbccf09ee	-0.02527329
43	0x3c3aa956	0.011392912
44	0x3cbb3a94	0.02285508
45	0xbce45284	-0.027871378
46	0xbab245b0	-0.0013601091
47	0xbd60ea77	-0.054911103
48	0xbd10e226	-0.035371922
49	0xbb40f0cd	-0.0029440403
50	0xbd1856e6	-0.037192248
51	0x3c974c5d	0.01846903
52	0xbb4d7e8b	-0.0031355943
53	0xbd2f5b7d	-0.04281186
54	0xbc02711f	-0.0079615405
55	0xbda76226	-0.08173017
56	0xbd6acfc0	-0.057327032
57	0xbd18be46	-0.037290834
58	0x3d264851	0.04059631
59	0xbd0f40e6	-0.034974
60	0xbd9e9dad	-0.07744918
61	0xbd5b8f4c	-0.053603455
62	0xbc5e3b70	-0.013563976
63	0x3d36ba09	0.04461101
64	0xbdb0796d	-0.0861691
65	0xbcc3116d	-0.02381202
66	0x3d7581ef	0.059938367
67	0xbc705258	-0.01466807
68	0xbd3b8e16	-0.0457898
69	0x3d27781b	0.040886026
70	0x3c2f5560	0.010701507
71	0x3c360a93	0.0111109195
72	0xbd76a412	-0.060215063
73	0x3db2d19f	0.08731388
74	0x3d10607b	0.03524826
75	0xbd696f93	-0.05699117
76	0x3d8ce1fc	0.068790406
77	0x3d858703	0.06519892
78	0x3bd2543f	0.0064187343
79	0xbcf9f465	-0.030512044
80	0x3c66bcc9	0.014083096
81	0xba09f63f	-0.0005262829
82	0xbd898a51	-0.06715835
83	0x3d870f24	0.06594685
84	0xbcaadd9a	-0.020857621
85	0x3d778e54	0.06043847
86	0x38204267	3.8208815e-05
87	0x3c10a2b0	0.00882785
88	0x3d9bbf83	0.07604887
89	0x3c9aee5b	0.018912485
90	0xbda808b5	-0.08204786
91	0xbda8407e	-0.08215426
92	0x3c9f91b5	0.019478658
93	0x3c983e84	0.018584497
94	0x3c888674	0.016665675
95	0xbda08065	-0.07836989
96	0x3d81406b	0.06311115
97	0xbd9529a7	-0.07283335
98	0x3aaeeb41	0.0013345258
99	0xbd9e85dc	-0.077403754
100	0xbd73ad6c	-0.05949156
101	0xbbd0aa5f	-0.006367966
102	0x3d4b8a14	0.04969223
103	0x3d34e6fc	0.044165596
104	0x3cc82c43	0.024435168
105	0xbd9d67ca	-0.07685812
106	0xbafa068d	-0.0019075439
107	0x3daf45e7	0.08558255
108	0x3cf93e25	0.03042514
109	0xbd64fc62	-0.055904754
110	0x3d11933e	0.03554081
111	0xbda10fae	-0.07864319
112	0xbcccb146	-0.024986874
113	0x3d84c48d	0.064828016
114	0x3d29a41f	0.041416284
115	0x3bb77006	0.005598071
116	0x3ba87c5c	0.005141778
117	0xbd175dc5	-0.03695466
118	0x3d06bb27	0.032893326
119	0x3d604cdd	0.054760803
120	0x3da29c2b	0.07939943
121	0x3ced7b2d	0.028989399
122	0x3c07eec3	0.008296671
123	0x3d94a404	0.07257846
124	0xbd6f6cdb	-0.058453422
125	0xbd86b588	-0.06577593
126	0xbd26a4fa	-0.040684678
127	0xbdb06766	-0.08613472
128	0x3cc6c5b3	0.024264192
129	0xbda3a8b9	-0.07991166
130	0x3c26e784	0.010187034
131	0x3d1c3c25	0.038143296
132	0xbd7dff63	-0.062011134
133	0xbd8d4335	-0.06897584
134	0x3d8310d8	0.06399697
135	0xbb1c37f0	-0.0023837052
136	0x3d13258e	0.035924487
137	0x3da9b4cc	0.082864374
138	0xbd685e8a	-0.056730784
139	0xbd127b7c	-0.035762295
140	0x3bc7c687	0.0060966644
141	0x3d6e089a	0.05811367
142	0xbbdfdf3c	-0.0068320315
143	0x3d8fc011	0.07019056
144	0x3d597420	0.05308926
145	0x3d2d4941	0.04230619
146	0x3d02b459	0.031910274
147	0x3d6fe71f	0.058570024
148	0x3d85d3e7	0.06534558
149	0xbc91e6e6	-0.017810296
150	0x3d0f83e3	0.035037886
151	0xbd3d3f4d	-0.046202946
152	0xbda4c09e	-0.08044551
153	0xbce10e02	-0.0274725
154	0x3d4d7dd5	0.05016883
155	0x3d7386de	0.05945479
156	0xbd08fea1	-0.033445958
157	0xbd401ab1	-0.046900455
158	0x3b24bc54	0.0025136666
159	0x3da3ab7d	0.07991693
160	0xbd55a2d0	-0.052157223
161	0xbd910246	-0.07080512
162	0x3d8c6a4c	0.06856212
163	0xbda04060	-0.078247786
164	0x3da173c8	0.07883412
165	0xbcf357c6	-0.02970494
166	0x3dac1ef1	0.08404339
167	0x3daea422	0.085273996
168	0xbd5c9ce8	-0.053860575
169	0xbd0fc6e1	-0.035101775
170	0x3ce5b14d	0.028038645
171	0xbd97cefb	-0.07412525
172	0xbd5481c2	-0.05188156
173	0xbc458846	-0.012056416
174	0x3d673164	0.056443587
175	0x3d9d8f64	0.07693365
176	0x3d8cedf1	0.06881321
177	0x3d82fffe	0.06396483
178	0x3c9a70c1	0.018852593
179	0xbd9e85e2	-0.0774038
180	0x3cbb43e5	0.022859523
181	0x3d97cd7f	0.07412242
182	0x3c8b472f	0.017001716
183	0xbccc5092	-0.024940763
184	0x3d6972a1	0.056994084
185	0xbd6844fd	-0.056706417
186	0xbc982f52	-0.018577252
187	0x3b9762c4	0.004619928
188	0xbc1621d0	-0.009163335
189	0x3cead1f3	0.028664565
190	0xbd7962c9	-0.060885224
191	0xbc24abe4	-0.010050748
192	0x3c2013a1	0.009770305
193	0xbc0bf789	-0.008542904
194	0x3c9b7620	0.018977225
195	0x3da30181	0.07959271
196	0x3b7533ca	0.0037414902
197	0xbd21cdb4	-0.039502814
198	0x3d805761	0.06266666
199	0xbdaae478	-0.08344358
200	0x3c382dc9	0.011241385
201	0xb84c661c	-4.8732487e-05
202	0x3d13c85f	0.03607976
203	0xbd8740c0	-0.06604147
204	0xbd2cf8fe	-0.042229645
205	0xbd01f32a	-0.03172604
206	0xbd6a08dc	-0.057137355
207	0x3d01584f	0.03157836
208	0xbdad6936	-0.08467333
209	0x3d9e5ab3	0.07732143
210	0x3d52ff49	0.05151299
211	0x3da9e513	0.082956456
212	0x3cc2a515	0.023760358
213	0x3d4929f8	0.04911229
214	0xbd1d63b3	-0.03842516
215	0xbced92ad	-0.029000605
216	0xbb0922b3	-0.0020925223
217	0x3d803710	0.06260502
218	0x3d053d1b	0.032528978
219	0xbd65f9b1	-0.056146327
220	0x3dabac0c	0.08382425
221	0xbd5829d4	-0.052774265
222	0x3d99d730	0.07511747
223	0xbdb2958a	-0.087199286
224	0xbd42ef59	-0.04759154
225	0x3d527387	0.051379707
226	0x3d0fc36c	0.03509848
227	0xbdaa2f6f	-0.083098285
228	0xbcaee8f5	-0.021351317
229	0x3da0755c	0.078348845
230	0xbd7458c3	-0.059654962
231	0x3cda1b56	0.026624363
232	0x3db43ed7	0.08801048
233	0x3db0e8b2	0.08638133
234	0xbd32b684	-0.04363109
235	0x39706a21	0.0002292772
236	0xbc9775b3	-0.01848874
237	0x3d6c445e	0.057682388
238	0x3cbbd3ab	0.02292808
239	0xbc99bedd	-0.018767769
240	0xbd84f505	-0.06492046
241	0x3d32d543	0.043660413
242	0x3d15beea	0.036559023
243	0x3c87820b	0.016541502
244	0x3d7bf611	0.061513964
245	0x3db39d2b	0.08770212
246	0xbd04f0b7	-0.032456126
247	0x3cb4b240	0.022057652
248	0xba4bbe41	-0.00077721855
249	0xbd92d1a4	-0.07168892
250	0x3c09b306	0.008404499
251	0xbc313625	-0.010816132
252	0x3cdbf63e	0.026850816
253	0xbd83cabc	-0.06435153
254	0x3c263aeb	0.010145883
255	0x3d58b62a	0.0529081

lstm.bias_ih_l0 f4 [512]
0	0x3cc60408	0.024171844
1	0x3d74e600	0.059789658
2	0x3d878036	0.06616251
3	0x3dafa4d7	0.085763626
4	0xbd8ee9d9	-0.06978197
5	0xbd0b8280	-0.03406
6	0x3d56e120	0.05246079
7	0x3b713e89	0.0036810955
8	0x3d12b8d2	0.03582079
9	0x3cdbae8b	0.026816627
10	0xbd91b987	-0.07115465
11	0xbd048aba	-0.032358862
12	0xbc657cf7	-0.014006845
13	0x3d475fe4	0.048675433
14	0x3d258e32	0.04041881
15	0x3cf6f150	0.030144364
16	0xbcec97c1	-0.028880956
17	0x3d982b8a	0.074301794
18	0xbaada62a	-0.0013248373
19	0xbcacb3ff	-0.021081923
20	0x3d1eaac3	0.03873707
21	0xbc2357bf	-0.009969651
22	0x3cade638	0.02122794
23	0x3d0d212f	0.034455474
24	0x3d9d5234	0.076816946
25	0xbd1d5336	-0.038409434
26	0x3d5908a2	0.05298675
27	0x3d7c7580	0.061635494
28	0x3b473ef0	0.0030402504
29	0x3c4030f5	0.011730422
30	0x3d8ec3ea	0.069709614
31	0x3c290ec4	0.010318462
32	0xbd308704	-0.04309751
33	0x3cbcec71	0.023061963
34	0xbd299131	-0.04139823
35	0x3cd5cf23	0.026099747
36	0x3d631032	0.055435367
37	0x3d96f7d2	0.07371487
38	0x3d2369e1	0.039895896
39	0x3c58026b	0.01318417
40	0x3da23941	0.079210766
41	0x3c2555b4	0.010091234
42	0x3d7f89df	0.062387343
43	0xbd130ed9	-0.03590283
44	0x3d180461	0.03711355
45	0xbbd9c1aa	-0.006645401
46	0x3d5c2028	0.053741604
47	0xbd832be2	-0.06404854
48	0x3d1df675	0.038565118
49	0x3d29e1a0	0.04147494
50	0x3d6b225d	0.05740582
51	0x3d7b0ad4	0.061289623
52	0x3943c673	0.00018670577
53	0xbcb911b4	-0.02259145
54	0xbbb8511a	-0.0056249024
55	0xbcb1fdae	-0.02172741
56	0xbd83382d	-0.06407199
57	0x3c5d5489	0.013508924
58	0xbd4baf70	-0.049727857
59	0xbd596ab1	-0.053080264
60	0x3dac6d24	0.084192544
61	0xbd6b5a09	-0.05745891
62	0x3c99feef	0.01879832
63	0x3d0af064	0.03392066
64	0x3d041421	0.03224576
65	0xbd137916	-0.03600415
66	0x3d8875da	0.066631034
67	0xbd04f5db	-0.03246103
68	0xbd91d28f	-0.07120239
69	0x3dac37db	0.08409091
70	0x3d9f62e9	0.077825375
71	0x3aef24d4	0.0018245229
72	0x3c91c0a9	0.017792063
73	0x3d9e7a84	0.07738212
74	0x3d9d5ed4	0.07684103
75	0xbcdf0963	-0.027226156
76	0x3d94e9d9	0.072711654
77	0xbd0a07a9	-0.03369871
78	0xbc97da3e	-0.018536683
79	0x3d496b41	0.04917455
80	0x3d9d291a	0.07673855
81	0x3db31db6	0.08745901
82	0xbc841ad2	-0.01612607
83	0xbd28fa4e	-0.041254334
84	0xbda7cd8e	-0.08193503
85	0xbd686114	-0.056733206
86	0xbb1376c9	-0.0022501221
87	0xbc8931e2	-0.016747419
88	0xbcb1ee57	-0.021720095
89	0x3d95bf29	0.073118515
90	0xbcffaa57	-0.031209154
91	0x3d3979b2	0.045282073
92	0x3cec2b4a	0.028829236
93	0x3ca673ae	0.020318832
94	0x3d956941	0.07295466
95	0xbda05990	-0.07829583
96	0x3d9851ba	0.07437463
97	0x3d34775b	0.04405914
98	0xbd33f364	-0.043933287
99	0x3cf5b9aa	0.029995758
100	0x3bde9365	0.006792473
101	0x3d20fc6d	0.039303232
102	0xbb92825f	-0.004471108
103	0x3d02532b	0.031817596
104	0x3dafddc9	0.08587224
105	0x3d65679e	0.05600702
106	0x3afa8f9d	0.0019116286
107	0xbd56b124	-0.05241503
108	0xbd9a5520	-0.075357676
109	0xbd94486e	-0.07240377
110	0x3cd66635	0.026171783
111	0x3b81dd25	0.00396313
112	0x3ca436d4	0.020045675
113	0xb93f8fc0	-0.0001826873
114	0xbcb77398	-0.022393987
115	0x3ccfea49	0.02538027
116	0xbc98b133	-0.018639183
117	0x3d974374	0.073859125
118	0xbd542488	-0.05179265
119	0xbce49386	-0.027902376
120	0xbd532542	-0.051549204
121	0x3be8cdf5	0.00710463
122	0x3d645d7b	0.055753212
123	0x3d87e75a	0.06635924
124	0xbdb32523	-0.08747318
125	0x3d51caeb	0.05121891
126	0xbc8dbb55	-0.017301241
127	0xbdb0ae04	-0.08626941
128	0x3d041c5a	0.0322536
129	0xbdb11098	-0.08645743
130	0xbc3ebd4e	-0.011641813
131	0xbd527d34	-0.051388934
132	0xbda6f243	-0.081516765
133	0xbd890e31	-0.0669216
134	0x3db385cc	0.08765754
135	0x3beb69a9	0.0071842265
136	0x3d2fba34	0.042902187
137	0xbd8b68dd	-0.068071105
138	0xbba6f85e	-0.0050955256
139	0x3d2ccac4	0.04218556
140	0x3dacd333	0.084387206
141	0xbda695e2	-0.08134057
142	0xbd97a4fd	-0.07404516
143	0xbd695298	-0.056963533
144	0xbd80bc3c	-0.06285903
145	0xbd5d4477	-0.05402037
146	0xbda84aa4	-0.082173616
147	0xbd94919f	-0.072543375
148	0xbda0b6e9	-0.07847387
149	0xbccf8fd3	-0.025337135
150	0xbd442933	-0.047890853
151	0xbc99644f	-0.018724589
152	0x3cbdf371	0.023187371
153	0xbd194c1c	-0.0374261
154	0x3da01471	0.07816399
155	0x3da4d221	0.080478914
156	0xbc6b4b0c	-0.014361154
157	0x3d02025b	0.031740528
158	0xbd06b7b8	-0.03289005
159	0x3d7ee998	0.06223449
160	0xbcf74823	-0.030185765
161	0x3cf27444	0.029596455
162	0xbcd8487b	-0.026401749
163	0x3c9cb3bd	0.019128675
164	0xbd10c073	-0.035339784
165	0x3c88f4d4	0.016718306
166	0xbb402e38	-0.0029324424
167	0xbd68f05a	-0.056869842
168	0x3cc9ae8e	0.024619367
169	0x3d09b995	0.03362425
170	0xbdac8441	-0.08423663
171	0xbcca0058	-0.024658367
172	0xbcf8262e	-0.030291643
173	0xbc1f672d	-0.009729189
174	0xbce7ff5a	-0.028320003
175	0xbd6b2893	-0.05741174
176	0x3cd57679	0.026057469
177	0x3d714250	0.05890113
178	0xbd31fd02	-0.043454178
179	0x3cea5a86	0.028607618
180	0x3d8b6c44	0.068077594
181	0xbd913bdf	-0.07091498
182	0xbda05cd7	-0.07830208
183	0xbd22ce71	-0.03974766
184	0x3cb534d3	0.022119915
185	0x3ca0cd2c	0.019629084
186	0xbd864844	-0.06556752
187	0x3dae5092	0.08511461
188	0xbd3feda2	-0.046857484
189	0xbc751130	-0.014957711
190	0xbd264cea	-0.040600695
191	0xbd63a107	-0.05557349
192	0xbcc08fd8	-0.02350609
193	0x3d18a4dc	0.037266597
194	0xbd44a022	-0.048004277
195	0x3cce45ab	0.025179705
196	0x3db42355	0.087958016
197	0xbd4f7beb	-0.050655287
198	0x3cfc8587	0.03082539
199	0xbc9b2b31	-0.018941494
200	0x3d901634	0.07035485
201	0xbd6f1dbb	-0.058377963
202	0xbc8b47c6	-0.017001998
203	0xbb711856	-0.0036788187
204	0x3d803710	0.06260502
205	0x3cfac4fb	0.030611506
206	0xbceb2c01	-0.028707506
207	0x3c093e8e	0.008376731
208	0x3d37cceb	0.04487316
209	0x3d68a272	0.056795545
210	0x3d38c297	0.04510745
211	0x3da324f7	0.07966035
212	0x3d27ec2b	0.04099671
213	0x3d8c6976	0.068560526
214	0x3ca32136	0.019913297
215	0x3d9d75dc	0.076884955
216	0x3cbb21ff	0.022843359
217	0xbda251ee	-0.07925783
218	0x3cc05ec4	0.023482688
219	0x3c838248	0.016053334
220	0xbd727fcf	-0.05920392
221	0x3d618f23	0.055068146
222	0xba8bcae4	-0.0010665325
223	0x3d43476c	0.047675535
224	0x3d836f56	0.0641772
225	0xbd601ca4	-0.054714814
226	0xbb37d294	-0.0028049098
227	0x3d652dd8	0.055951923
228	0xbd849e72	-0.064755335
229	0xbd8ee7c7	-0.06977802
230	0xbca147ec	-0.019687615
231	0x3d8991c6	0.06717257
232	0xbd57ff18	-0.05273351
233	0xbd20bc02	-0.0392418
234	0xbcf6c29e	-0.030122098
235	0x3c65e92b	0.014032642
236	0xbda41dc5	-0.080134906
237	0x3d4ec925	0.050484795
238	0x3d98d3e4	0.0746229
239	0xbd0a94b2	-0.033833213
240	0x3d821c8e	0.063531026
241	0x3c1c3770	0.009534702
242	0xbcff8133	-0.031189537
243	0x3d5e7e8c	0.054319903
244	0x3d9f8ce2	0.07790543
245	0x3c185c14	0.009299297
246	0x3d7a66ec	0.06113331
247	0x3d94a67c	0.07258317
248	0xbd6b4764	-0.05744113
249	0xbdaea2cb	-0.08527144
250	0xbcaddcc3	-0.021223431
251	0x3c3f2df0	0.011668667
252	0xbca55573	-0.020182347
253	0xbd5c93c0	-0.053851843
254	0xbc610c6d	-0.013735873
255	0xbdb0db83	-0.086356185

lstm.bias_hh_l0 f4 [512]
0	0xbcbd5e3c	-0.023116224
1	0xbd8bec49	-0.06832177
2	0xbd01cee5	-0.03169145
3	0xbda11479	-0.07865233
4	0x3d6d9c27	0.058010247
5	0xbd44f337	-0.04808351
6	0x3d6c2439	0.057651732
7	0x3c7e931d	0.015538004
8	0xbd99325f	-0.07480311
9	0x3c0d4525	0.008622442
10	0x3cfae11c	0.030624919
11	0xbc7b47e5	-0.015336965
12	0xbc7cab50	-0.015421703
13	0xbd1541b9	-0.03643963
14	0x3bfcf62f	0.007719777
15	0x3d08d198	0.03340301
16	0xbd3b8869	-0.045784388
17	0xbcf61fd8	-0.030044481
18	0x3c7e36d2	0.015516
19	0x3d4cfc0e	0.050045066
20	0x3d5def95	0.05418356
21	0xbccdc29f	-0.025117217
22	0x3cd4e3f0	0.025987595
23	0x3d13b942	0.036065347
24	0xbdab7ab1	-0.08373011
25	0xbd57a0ff	-0.052643772
26	0xbcbaaea2	-0.02278835
27	0xbd63f2da	-0.055651523
28	0xbcb81c35	-0.022474388
29	0xbcc9c7a9	-0.024631338
30	0xbda2e42b	-0.07953676
31	0x3d3a493c	0.045479998
32	0x3c70ca19	0.014696621
33	0xbd166460	-0.03671682
34	0xbd018299	-0.03161869
35	0x3c1b1e14	0.00946762
36	0xbd9d6dab	-0.07686933
37	0x3d86fa33	0.065906905
38	0xbbb4109e	-0.005495145
39	0x3d2eb2e5	0.042651076
40	0x3d70334d	0.058642674
41	0x3cbc32f3	0.022973513
42	0x3d1d9d82	0.03848029
43	0x3db3404e	0.087524995
44	0x3d5db7ca	0.054130353
45	0xbd9a4da0	-0.07534337
46	0xbd83671d	-0.06416152
47	0x3c9c881c	0.01910787
48	0xbcca2aa3	-0.024678534
49	0x3d915816	0.07096879
50	0x3da02ef7	0.07821458
51	0xbd546a40	-0.05185914
52	0xbd9a1f5f	-0.07525515
53	0x3d16de64	0.036833182
54	0xbceb0eaa	-0.028693516
55	0xbdaaef38	-0.083464086
56	0x3cf7e95f	0.030262647
57	0xbd798c6a	-0.060924925
58	0xbc8854fb	-0.016642084
59	0x3d6806d4	0.056647137
60	0xbd65d2c2	-0.056109197
61	0x3bae9ccd	0.0053287507
62	0xbd83112c	-0.0639976
63	0xbb4df3f2	-0.003142592
64	0x3da05cb2	0.0783018
65	0xbd8c159e	-0.06840061
66	0xbdb4a8c7	-0.08821254
67	0xbce358a9	-0.027752237
68	0x3d7ef455	0.062244732
69	0xbc9b6a63	-0.018971628
70	0xbd3df351	-0.046374623
71	0xbd5505e7	-0.052007582
72	0x3d01c7d3	0.031684708
73	0xbc776f3a	-0.015102202
74	0x3d96269b	0.07331582
75	0xbba881a3	-0.005142407
76	0xbd53a82e	-0.05167406
77	0xbd84d64f	-0.064861886
78	0xbd8d18a2	-0.06889464
79	0x3cf74be8	0.030187562
80	0x3bef7726	0.007307905
81	0xbd2ba630	-0.041906536
82	0x3cb3deec	0.021956883
83	0xbda8a2c2	-0.082341686
84	0xbdb25c68	-0.08709031
85	0x3db012a4	0.085973054
86	0x3d0dd833	0.03463001
87	0xbd9d028b	-0.07666501
88	0x3d11dc5a	0.035610534
89	0x3d9b57f2	0.075851336
90	0x3d1cb5d7	0.038259353
91	0x3d8e0422	0.06934382
92	0x3cfc86b6	0.030825954
93	0x3d6b1913	0.05739696
94	0xbc955850	-0.018230587
95	0xbd734539	-0.059392188
96	0xbd50063d	-0.0507872
97	0x3cc6acc8	0.02425231
98	0xbd738b9e	-0.05945932
99	0x3d8ce5e9	0.068797894
100	0xbd27314d	-0.0408185
101	0xbd1e8d6e	-0.038709097
102	0xbd1c4fb2	-0.03816194
103	0xbcdb70d7	-0.026787205
104	0x3d4e0b4f	0.050303753
105	0x3d665949	0.056237493
106	0xbd04352a	-0.032277264
107	0xbd44845b	-0.047977787
108	0xbd930cd3	-0.071801804
109	0xbd8bb207	-0.068210654
110	0x3cb7fb21	0.022458615
111	0x3c673dd3	0.014113861
112	0x3ce1387f	0.02749276
113	0xbbbc7b92	-0.0057520354
114	0xbd624826	-0.055244587
115	0x3cf8c333	0.030366516
116	0x3c107b26	0.008818423
117	0xbd4240d8	-0.04742512
118	0xbdb2e2b9	-0.0873465
119	0x3d87e370	0.06635177
120	0xbc80c3c5	-0.01571835
121	0xbbc04cde	-0.0058685383
122	0x3c1eaa0f	0.0096841
123	0xbd7de927	-0.06198993
124	0xbc0a46bf	-0.008439719
125	0xbd059f67	-0.03262272
126	0x3c38c74f	0.011277988
127	0x3d06f867	0.03295174
128	0x3dac632a	0.084173515
129	0x3d826438	0.063667715
130	0x3cbfe9ce	0.023426916
131	0x3d757daa	0.059934296
132	0x3c0f90f4	0.008762587
133	0xbcdd7667	-0.027033998
134	0x3d292f13	0.04130466
135	0xbd6c9519	-0.057759378
136	0xbcfec425	-0.031099388
137	0xbbf320c3	-0.007419677
138	0xbc6d3560	-0.014478058
139	0x3d86a44e	0.065743074
140	0xbc660137	-0.014038376
141	0xbdaf6dba	-0.085658506
142	0x3da82504	0.08210185
143	0xbda1827b	-0.07886215
144	0xbd1cfc3d	-0.03832649
145	0x3da1b0fc	0.07895085
146	0xbcd858fe	-0.026409622
147	0x3d6ca4bf	0.0577743
148	0x3d69d9fa	0.057092644
149	0xbbe09995	-0.006854246
150	0xbd346ef5	-0.04405113
151	0x3d81847d	0.06324098
152	0x3c11a10c	0.008888494
153	0x3bce2946	0.0062915413
154	0xbc8d22dc	-0.017228536
155	0xbd27a920	-0.040932775
156	0x3d8b4179	0.06799597
157	0xbcd5ce61	-0.026099386
158	0x3d5e5c08	0.054286987
159	0x3cc0f88f	0.023556022
160	0xbd1645a0	-0.036687493
161	0xbc03d420	-0.00804618
162	0xbd36b4ad	-0.0446059
163	0x3d5668b7	0.052345958
164	0x3d00d9ae	0.031457596
165	0x3d90fdd0	0.07079661
166	0xbd56e861	-0.052467708
167	0x3d040687	0.032232787
168	0x3dafafd7	0.08578461
169	0xbd0148f3	-0.03156371
170	0x3d3d43b2	0.046207137
171	0x3db09e33	0.08623924
172	0xbda268ab	-0.0793012
173	0x3c869d8f	0.016432552
174	0xbcbb5296	-0.022866528
175	0x3cff585e	0.031170066
176	0xbcc50187	-0.02404858
177	0x3d767a34	0.060175136
178	0x3b5a5f8e	0.0033321115
179	0xbd8ee04e	-0.069763765
180	0xbc9916eb	-0.018687686
181	0x3d2267f7	0.03964993
182	0x3d5da17f	0.054109093
183	0xbd9937d4	-0.074813515
184	0x3cb85643	0.02250207
185	0xbb1e86f2	-0.002418932
186	0x3db43da6	0.08800821
187	0x3cafc682	0.02145696
188	0xbd8dc8ca	-0.06923063
189	0x3d96e1e3	0.07367303
190	0xbd590bbf	-0.052989718
191	0x3da2d9b8	0.07951683
192	0x3d969d25	0.07354192
193	0xbd602a5f	-0.05472791
194	0x3c9acb16	0.018895667
195	0x3d8d91ce	0.06912576
196	0x3d43a526	0.04776492
197	0xbd225c58	-0.039638847
198	0x3d2eda9c	0.04268895
199	0x3d0dc1f1	0.034608785
200	0xbd381a88	-0.044947177
201	0x3bccea73	0.0062535345
202	0xbd18378a	-0.03716234
203	0x3ac1ba04	0.0014780168
204	0xbcbe107a	-0.023201216
205	0x3c08b8f0	0.008344874
206	0xbd68b189	-0.056809936
207	0x3ca61cc4	0.020277388
208	0x3d8c7edc	0.06860134
209	0xbdb1d1fd	-0.0868263
210	0x3da883fa	0.082282975
211	0xbae13ecb	-0.0017184851
212	0xbbc5fb36	-0.0060419096
213	0x3c6a469c	0.014299061
214	0xbd761e1f	-0.06008732
215	0x3d9a3ed6	0.07531516
216	0x3d3a1632	0.045431323
217	0xbd7e25f8	-0.06204793
218	0xbdaf7077	-0.08566373
219	0x3d915b14	0.0709745
220	0xbca8e383	-0.020616299
221	0x3c74c22d	0.014938873
222	0xbd8faa7a	-0.07014938
223	0xbcc067c0	-0.023486972
224	0x3cfba215	0.030716935
225	0xbb18b77d	-0.0023302727
226	0xbd84b4cf	-0.06479799
227	0xbd9bf620	-0.07615304
228	0x3da983c8	0.082770884
229	0xbd8ce647	-0.068798594
230	0xbd8dc353	-0.06922021
231	0x3d552e5e	0.052046172
232	0xbcc51aa7	-0.02406056
233	0x3d1972cd	0.037463
234	0xbd812b2c	-0.063070625
235	0xbd6c6a9c	-0.057718858
236	0xbd12135d	-0.035662998
237	0x3d9b730a	0.07590301
238	0xbc0713aa	-0.008244434
239	0x3d3b85dd	0.04578196
240	0xbd7e8ae8	-0.06214419
241	0x3aa03874	0.0012223856
242	0x3d82da1e	0.06389259
243	0x3d725a7d	0.059168328
244	0xbd6ac994	-0.057321146
245	0xbd743955	-0.05962499
246	0xbd6f50bf	-0.058426615
247	0x3daa9560	0.08329272
248	0x3d9d8107	0.07690626
249	0xbc8a566c	-0.016886912
250	0x3d807723	0.062727235
251	0xbda5c9bf	-0.08095121
252	0x3d54bf9c	0.051940545
253	0x3bbce3f9	0.005764481
254	0xbca49837	-0.020092113
255	0x3d8aceee	0.0677775

lstm.weight_ih_l1 f4 [512, 128]
0	0xbc9552ca	-0.018227953
1	0xbd32666f	-0.04355472
2	0xbd59c62b	-0.053167503
3	0x3d9c5a4e	0.07634412
4	0xbd88c9b5	-0.066790976
5	0xbd9c8f17	-0.0764448
6	0xbd0dd5be	-0.03462767
7	0x3cd868b4	0.026417114
8	0x3d3191f4	0.043352082
9	0xbda8d4e0	-0.08243728
10	0x3c0dc640	0.0086532235
11	0xbc8c4287	-0.017121566
12	0x3d590ace	0.05298882
13	0x3d802e3a	0.06258817
14	0xbd82fab9	-0.06395478
15	0x3c4deb7d	0.012568352
16	0x3d5a0136	0.05322381
17	0x3d082658	0.033239692
18	0x3d24e500	0.040257454
19	0x3d96f85d	0.0737159
20	0x3d054e74	0.03254552
21	0xbd63eba1	-0.055644635
22	0xbd664b36	-0.05622407
23	0xbd17a1cd	-0.03701954
24	0xbd5026d7	-0.05081829
25	0xbceedbd1	-0.029157551
26	0xbd93b9e0	-0.07213187
27	0xbc773e84	-0.0150905885
28	0x3d8ad62f	0.067791335
29	0x3c7512b2	0.014958071
30	0xbda89836	-0.08232157
31	0xbd791c75	-0.060818154
32	0xbd9220db	-0.07135173
33	0xbd6cd297	-0.05781802
34	0x3d440c29	0.04786316
35	0xbd8f2cd5	-0.06990973
36	0x3d393c84	0.045223728
37	0x3d34744c	0.04405622
38	0xbd7af156	-0.061265312
39	0xbd6dbc42	-0.058040865
40	0xbd484846	-0.04889705
41	0xbad53d98	-0.0016268967
42	0x3d9a89f1	0.075458415
43	0x3d012092	0.031525202
44	0x3d815df1	0.06316746
45	0xbd636d9d	-0.055524457
46	0x3d692a1e	0.05692493
47	0x3d1f2bc7	0.03886011
48	0x3d7e6c43	0.062114965
49	0x3d8911b2	0.06692828
50	0x3d39f407	0.04539874
51	0xbda83f49	-0.08215196
52	0x3caffc52	0.02148262
53	0xbdb09d5d	-0.08623765
54	0xbd9eef1c	-0.0776045
55	0xbd859776	-0.065230295
56	0x3d8d02fd	0.068853356
57	0xbcfcb2a5	-0.030846903
58	0x3d2506c5	0.04028966
59	0xbda906ac	-0.08253226
60	0xbdac6a44	-0.08418706
61	0xbd5bb2c5	-0.053637285
62	0x3cf80e4b	0.030280253
63	0xbcbb3716	-0.022853415
64	0xbd8660aa	-0.06561406
65	0x3daa3ecd	0.083127595
66	0xbd969953	-0.07353463
67	0x3d54f8af	0.051994976
68	0xbba88757	-0.005143087
69	0xbc976932	-0.018482778
70	0xbd5f77ff	-0.054557797
71	0x3d77f7a2	0.060538895
72	0x3d41f401	0.04735184
73	0xbc881dc1	-0.01661575
74	0x3b854dba	0.0040681036
75	0x3d015a3d	0.0315802
76	0xbd90c83a	-0.0706944
77	0xbd206527	-0.039158966
78	0xbcc7ee34	-0.024405576
79	0xbc2000a4	-0.009765778
80	0x3d58bf5d	0.052916873
81	0xbcb3a075	-0.021927098
82	0xbce264d4	-0.02763597
83	0xbd049fdc	-0.032379016
84	0x3c406027	0.0117416745
85	0x3d9695a6	0.07352762
86	0x3d795651	0.060873333
87	0x3dae84bf	0.08521413
88	0x3c2fa343	0.010720077
89	0x3ca7c30a	0.020478744
90	0xbd42fdb1	-0.04760522
91	0xbd991427	-0.07474547
92	0x3dae5d1c	0.08513853
93	0x3d38373c	0.04497455
94	0xbd7cf04c	-0.061752602
95	0x3da4e135	0.08050767
96	0xbd97fe84	-0.07421592
97	0xbda68311	-0.08130468
98	0xbcfba13d	-0.030716533
99	0x3d9b467d	0.07581804
100	0xbdb0d1c5	-0.0863376
101	0xbcdf3e07	-0.027251257
102	0x3cc2160e	0.023692157
103	0x3db19157	0.086702995
104	0x3db252a8	0.08707172
105	0xbc94fba4	-0.018186398
106	0x3c92e21d	0.017930085
107	0xbd8d035e	-0.06885408
108	0x3bb954b6	0.0056558503
109	0x3d36cd91	0.044629637
110	0xbd8edbe4	-0.069755346
111	0xbd2f3519	-0.042775247
112	0x3d8adf7d	0.06780908
113	0x3d55b5a2	0.05217517
114	0x3d9d4f5f	0.076811545
115	0xbd9011ec	-0.07034668
116	0xbd51f251	-0.05125648
117	0x3cdb56a1	0.026774706
118	0x3ca0f934	0.01965008
119	0x3bbb6542	0.005718858
120	0x3d3488b9	0.0440757
121	0xbc5fce44	-0.013660017
122	0xb9d08fe5	-0.0003978006
123	0x3d9b3e60	0.075802565
124	0xbdb1cc93	-0.086815976
125	0xbd3cfba8	-0.046138436
126	0xbd20014e	-0.039063744
127	0x3ce53ba0	0.027982533
128	0x3d502dcf	0.050824936
129	0x3d17e2bc	0.037081465
130	0xbc0cac57	-0.008586011
131	0xbcf94e5f	-0.030432878
132	0xbd8e0817	-0.06935137
133	0xbd0216a1	-0.03175986
134	0xbb0a56c4	-0.0021108845
135	0x3d2457f8	0.040122956
136	0xbd8cf40a	-0.06882484
137	0x3d18ac94	0.03727396
138	0xbcd8a80f	-0.026447324
139	0x3c7d55ad	0.015462321
140	0x3ca5062d	0.020144546
141	0x3cf5d383	0.030008083
142	0xbd59f24c	-0.053209588
143	0xbd4a684b	-0.049415868
144	0x3d565c48	0.0523341
145	0xbd94c575	-0.072642244
146	0xbd93177f	-0.07182216
147	0xbd8d1ff3	-0.068908595
148	0x3db2ee2f	0.08736836
149	0xbd959372	-0.073035136
150	0x3d6e1929	0.058129463
151	0xbd884c38	-0.066551626
152	0xbd9a067f	-0.0752077
153	0xbd5d9e71	-0.05410618
154	0xbca78b52	-0.020452175
155	0x3d7a431e	0.061099164
156	0x3be4668d	0.006970233
157	0xbd9ff121	-0.078096636
158	0x3dac8109	0.08423049
159	0xbd629641	-0.055319075
160	0xbcdcc1d6	-0.026947897
161	0x3da65965	0.081225194
162	0xbda1210d	-0.07867632
163	0x3d91c5fe	0.07117842
164	0xbaa8b1ff	-0.001287043
165	0x3d6dad09	0.058026347
166	0x3d595a0d	0.053064395
167	0xbd54c913	-0.05194957
168	0x3d08b9a6	0.033380173
169	0xbdadef67	-0.08492928
170	0xbb46318a	-0.003024193
171	0xbcef209f	-0.02919036
172	0x3d3ae871	0.04563183
173	0x3d68c93e	0.056832545
174	0x3d882260	0.066471815
175	0x3d0437d3	0.0322798
176	0x3d08c284	0.03338863
177	0x3dad3b68	0.084585965
178	0x3d50f1a0	0.05101168
179	0x3d098760	0.03357637
180	0xbd4dc215	-0.05023392
181	0xbcd5ee72	-0.026114676
182	0xbd07320f	-0.033006724
183	0xbcec2625	-0.028826782
184	0x3db0c266	0.086308286
185	0x3cf28f09	0.02960922
186	0xbdabb201	-0.08383561
187	0x3d1d1b7d	0.038356293
188	0x3db28531	0.087168105
189	0x3cf0b0e9	0.029381232
190	0x3b21e671	0.0024704004
191	0xbc58e9c2	-0.013239326
192	0x3d1b0457	0.037845936
193	0xbdad316b	-0.08456691
194	0x3d86eed2	0.0658852
195	0x3d464982	0.048409946
196	0x3d8f4e35	0.06997339
197	0xbd037ef2	-0.032103486
198	0xbc979c2c	-0.018507086
199	0xbba67760	-0.0050801486
200	0x3d126210	0.03573805
201	0x3d32eb7c	0.043681607
202	0xbd6826ce	-0.056677632
203	0x3d15f0a0	0.03660643
204	0xbd1a754c	-0.03770952
205	0x3d8aedbf	0.06783628
206	0x3c919d5d	0.017775232
207	0xbd17b3b4	-0.037036613
208	0xbd6d3858	-0.05791506
209	0x3db16368	0.08661538
210	0x3daddbaa	0.08489163
211	0xbd522ceb	-0.05131237
212	0xbc3a91c7	-0.011387295
213	0xbd5ba254	-0.053621605
214	0xbd1822d5	-0.037142593
215	0xbd19bcbd	-0.03753351
216	0xbc62a3f4	-0.013833035
217	0xbd982814	-0.07429519
218	0xbccc7566	-0.024958324
219	0x3bd29f0e	0.006427652
220	0xbd4357ba	-0.047691084
221	0x3c7a7944	0.015287701
222	0xbc734000	-0.014846802
223	0x3d0a7d41	0.033810858
224	0xbce774ce	-0.028253939
225	0xbda37b6d	-0.07982526
226	0x3d6866b3	0.056738567
227	0xbd84201a	-0.064514354
228	0x3d9e00a9	0.0771497
229	0xbd6c1e5f	-0.05764615
230	0x3d0cb1a8	0.034349114
231	0x3d5806e3	0.052740943
232	0xbc6aec5f	-0.014338582
233	0xbd2b10e9	-0.041764174
234	0x3d2e155c	0.04250084
235	0xbc5657dd	-0.013082472
236	0x3d83d412	0.064369336
237	0xbd812a4b	-0.06306895
238	0x3d2e5be7	0.042568114
239	0xbd7ed3a5	-0.06221356
240	0xbd87099a	-0.06593628
241	0xbd141de2	-0.03616131
242	0x3ccb2b24	0.024800844
243	0xbcf2f8d7	-0.029659672
244	0xbd3b765f	-0.045767184
245	0x3ca59a49	0.02021517
246	0x3bb11166	0.0054036854
247	0xbcf36306	-0.029710304
248	0xbb8e0657	-0.004334252
249	0x3d2291bc	0.039689764
250	0xbd89ca36	-0.06728022
251	0xbd067caf	-0.03283375
252	0x3b81f3dc	0.003965838
253	0xbd25d52d	-0.040486503
254	0xbd8963f9	-0.067085214
255	0xbd882e21	-0.066494234

lstm.weight_hh_l1 f4 [512, 128]
0	0xbbb24d2f	-0.00544133
1	0x3d345415	0.0440255
2	0xbc9861e0	-0.018601358
3	0xbd830463	-0.06397321
4	0xbd2fa506	-0.042881988
5	0xbbf796ce	-0.007555819
6	0xbd68642e	-0.056736164
7	0x3d89400b	0.06701668
8	0xbd117579	-0.03551242
9	0x3c966983	0.018360859
10	0x3da6b09c	0.08139154
11	0x3d5c7907	0.05382636
12	0xbd8d2b51	-0.068930276
13	0x3d7737b0	0.060355842
14	0x3d3e8d3b	0.046521407
15	0xbc73c5a3	-0.014878663
16	0x3d1b83b4	0.0379674
17	0x3daab44d	0.08335171
18	0x3d29a563	0.04141749
19	0x3bdea998	0.0067951195
20	0x3ccaed4f	0.02477136
21	0xbdb33787	-0.087508254
22	0xbd0e036e	-0.03467124
23	0x3d75d2ff	0.060015675
24	0x3ca616f4	0.020274617
25	0xbd2892c6	-0.0411556
26	0x3d514d5a	0.05109916
27	0xbd96fc88	-0.07372385
28	0x3abe0fe5	0.0014500587
29	0xbcfbccdd	-0.030737335
30	0x3d55bad8	0.05218014
31	0x3d8c2528	0.068430245
32	0xbda35576	-0.07975285
33	0xbd5b162a	-0.053487934
34	0x3cd3e5e5	0.025866458
35	0x3d7be64f	0.061498936
36	0x3da8465b	0.08216544
37	0xbd16171d	-0.036643136
38	0xbd8f417d	-0.06994913
39	0xbd385214	-0.04500015
40	0xbd353b10	-0.04424578
41	0x3cac84b6	0.021059375
42	0xbd08ffbc	-0.033447012
43	0xbc921d75	-0.017836312
44	0x3da35226	0.07974653
45	0xbd906f1f	-0.07052445
46	0xbda1ddb5	-0.079036154
47	0x3a8603f7	0.001022457
48	0x3d237fec	0.039916918
49	0x3d61dc42	0.055141695
50	0x3c8347f6	0.016025525
51	0x3b0e32de	0.00216978
52	0x3d341c6f	0.04397243
53	0x3cbf37c2	0.023342017
54	0x3cd82e71	0.026389332
55	0xbd94639b	-0.07245561
56	0xbd84231c	-0.06452009
57	0xbd597424	-0.053089276
58	0x3d770077	0.060303178
59	0xbd5f6f28	-0.054549366
60	0x3d60bab6	0.05486556
61	0x3d4f7d89	0.05065683
62	0x3da7f471	0.082009204
63	0xbd4220da	-0.04739461
64	0x3d291a29	0.041284714
65	0x3cc2a040	0.023758054
66	0x3ce8b7e5	0.028408
67	0xbda57fe2	-0.08081032
68	0xbda81bc3	-0.0820842
69	0xbdb38ec4	-0.08767465
70	0xbbcca769	-0.006245543
71	0x3b5767d3	0.003286828
72	0xbdab491e	-0.08363555
73	0x3db068f2	0.08613767
74	0xbd739df7	-0.05947682
75	0x3c00ff82	0.007873418
76	0xbcbb0ba2	-0.022832695
77	0x3da4bd17	0.080438785
78	0x3aefbe14	0.0018290901
79	0xbd991dae	-0.07476364
80	0x3db4d52c	0.08829722
81	0xbd2831ea	-0.041063227
82	0x3d31b87c	0.04338883
83	0xbd7a343c	-0.06108497
84	0xbc4a86e1	-0.012361259
85	0x3d0885c7	0.033330705
86	0xbce30009	-0.027709978
87	0x3d38ec21	0.045147065
88	0xbd189294	-0.037249163
89	0xbd7a4917	-0.06110486
90	0xbd3b0a7b	-0.04566429
91	0x3d9ad57c	0.0756025
92	0xbd960530	-0.07325208
93	0x3cdfb71f	0.027308999
94	0x3d8f5688	0.069989264
95	0xbd11ad8d	-0.0355659
96	0x3d90a3cf	0.07062494
97	0xbd7ddb45	-0.06197669
98	0x3ca8db88	0.020612493
99	0x3d63b774	0.055594876
100	0x3caa98b5	0.02082477
101	0x3daeec37	0.08541148
102	0xbdb1f52d	-0.08689342
103	0xbd4b2221	-0.049593095
104	0xbc22b69b	-0.009931232
105	0x3cb8dde0	0.022566736
106	0x3da829a5	0.08211068
107	0x3c960668	0.018313602
108	0x3d8ecf6d	0.06973157
109	0x3d0a03dd	0.03369509
110	0xbb9309cc	-0.004487252
111	0xbd7fbb0f	-0.062434252
112	0xbd9e359d	-0.0772507
113	0x3d5a9e8b	0.053373855
114	0xbd9cc973	-0.07655611
115	0xbd671d5c	-0.056424484
116	0x3ce4657b	0.02788042
117	0xbd9e59c2	-0.07731964
118	0x3d5e850e	0.05432611
119	0x3d909f45	0.07061628
120	0x3d521d18	0.051297277
121	0x3d9c0224	0.07617596
122	0x3c96eaff	0.018422602
123	0x3c7c78e9	0.015409687
124	0xbd5ba1b4	-0.05362101
125	0xbc98ffdc	-0.01867669
126	0xbd53af97	-0.051681127
127	0x3db507ce	0.08839379
128	0x3d2a50a2	0.041580804
129	0xbdb338cc	-0.087510675
130	0xbc085801	-0.008321763
131	0x3d2a1175	0.041520555
132	0xbd0ecbaa	-0.034862198
133	0xbd447d80	-0.04797125
134	0xbd011684	-0.031515613
135	0x3d4af17e	0.04954671
136	0x3d5e9a52	0.05434639
137	0xbcb8bc0f	-0.02255061
138	0x3d72b95c	0.059258804
139	0xbc0a723d	-0.008450088
140	0xbcba160c	-0.02271559
141	0x3d10edc7	0.035383012
142	0x3d8dddac	0.06927046
143	0x3d3ae00a	0.045623817
144	0xbd6d6f3b	-0.057967406
145	0xbd283311	-0.041064326
146	0x3d352ede	0.04423415
147	0x3d41ea50	0.0473426
148	0x3cb59c41	0.022169234
149	0x3d3c4e92	0.045973368
150	0xbcdb393f	-0.026760696
151	0x3cd42a9f	0.02589923
152	0xbd42be9d	-0.047545064
153	0x3d417670	0.04723209
154	0x3d341351	0.043963734
155	0x3970a208	0.00022948545
156	0x3daf5093	0.0856029
157	0x3d9e649a	0.07734032
158	0x3c986c1a	0.018606234
159	0x3cbfe995	0.02342681
160	0xbd1ded12	-0.038556166
161	0xbd85bb00	-0.06529808
162	0x3b40c225	0.0029412594
163	0xbd2bcdaa	-0.041944183
164	0xbb72bbfd	-0.003703832
165	0xbd9b6c12	-0.07588972
166	0xbda28a40	-0.07936525
167	0xbd42b3aa	-0.047534622
168	0xbd17b5b6	-0.037038527
169	0x3b8324a0	0.004002169
170	0x3cb2f54b	0.02184548
171	0xbd9c24a6	-0.07624178
172	0xbd4e0317	-0.050295915
173	0x3d0620ea	0.032746233
174	0xbdab948c	-0.083779424
175	0x3d87dd4c	0.06634006
176	0x3d99eb95	0.07515637
177	0xbd476033	-0.048675727
178	0x3d3e0043	0.04638697
179	0xbcd66bd3	-0.026174461
180	0x3cfcb56c	0.030848227
181	0x3d1251a6	0.035722397
182	0x3d389ae8	0.045069605
183	0xbd97de5b	-0.07415458
184	0x3d8acee9	0.06777746
185	0xbcb0f6b5	-0.021602014
186	0x3da2306d	0.07919393
187	0x3daac71e	0.0833876
188	0x3c398a7e	0.011324523
189	0x3d8faf6f	0.07015883
190	0xbccaa178	-0.024735197
191	0x3b4f56e3	0.0031637482
192	0x3d95c0e9	0.07312185
193	0x3ce36f14	0.027762927
194	0x3da4d171	0.0804776
195	0x3c66907d	0.014072535
196	0xbd232916	-0.039834104
197	0xbd794836	-0.06085988
198	0x3da2bd68	0.079462826
199	0x3d9d30be	0.076753125
200	0x3ccec823	0.025241917
201	0x3c895538	0.016764268
202	0xbd6c5111	-0.0576945
203	0xbd1670f1	-0.036728803
204	0x3b7abe24	0.0038260305
205	0xbd0aa1f1	-0.033845846
206	0x3da44ff1	0.0802306
207	0xbc64018f	-0.013916387
208	0x3d63829e	0.055544488
209	0xbd9e238e	-0.07721625
210	0xbd8967c7	-0.06709247
211	0xbc8a4996	-0.016880792
212	0xbd28632d	-0.041110206
213	0xbd95ea1d	-0.07320044
214	0xbd1b26f0	-0.03787893
215	0xbd7a77a3	-0.06114925
216	0x3d81bd3f	0.06334924
217	0xbd463b46	-0.04839637
218	0x3cb1c60b	0.02170088
219	0xbd8c8697	-0.068616085
220	0xbda1ce59	-0.07900686
221	0x3d24094b	0.040047925
222	0xbd957c6c	-0.07299122
223	0xbd3aaf74	-0.04557748
224	0x3a7c094e	0.00096144236
225	0x3c228dd2	0.009921508
226	0x3cb6fdd0	0.022337824
227	0x3d88522f	0.066563
228	0xbc9a46ae	-0.01883253
229	0xbc13010f	-0.00897242
230	0xbc8ee3b7	-0.017442567
231	0x3ce6300d	0.028099084
232	0xbcd6f26e	-0.026238646
233	0xbc577528	-0.013150491
234	0x3c4bbbb0	0.012434885
235	0xbdb23dc7	-0.08703189
236	0x3d228eca	0.039686956
237	0xbd4b2024	-0.0495912
238	0x3d80eca7	0.06295138
239	0xbbfbf149	-0.0076886755
240	0xbd54fb61	-0.051997546
241	0xbd275a00	-0.040857315
242	0xbd8a75a7	-0.06760722
243	0xbd312536	-0.043248378
244	0x3c566f2c	0.013088029
245	0xbd2a4b0e	-0.041575484
246	0xbc758a5f	-0.0149866035
247	0x3d8e0e30	0.069363
248	0xbd47b06f	-0.048752245
249	0x3ba5d348	0.005060587
250	0xbdb0171e	-0.08598159
251	0x3c505815	0.012716313
252	0xbd61d38c	-0.055133387
253	0xbd931b78	-0.071829736
254	0xbd86d63c	-0.06583831
255	0x3d7d68eb	0.061867636

lstm.bias_ih_l1 f4 [512]
0	0x39033c6a	0.0001251564
1	0xbca5791e	-0.020199355
2	0xbd649f8c	-0.05581622
3	0x3dab3c02	0.08361055
4	0xbd089353	-0.033343624
5	0x3d411928	0.04714313
6	0x3c4e2cc6	0.012583917
7	0x3d507b85	0.050899047
8	0xbd746913	-0.05967052
9	0xbd17d692	-0.037069865
10	0x3d8805a0	0.06641698
11	0x3d86ad31	0.065760024
12	0x3dad5b0e	0.08464633
13	0xbb6cdff3	-0.0036144226
14	0x3c8a6dfc	0.016898148
15	0x3c410f2e	0.011783404
16	0x3d97df5f	0.074156515
17	0xbdaeff17	-0.08544748
18	0x3d93911a	0.0720541
19	0xbc9066c1	-0.017627122
20	0xbd6e8fe2	-0.058242686
21	0xbca9aaf8	-0.020711407
22	0x3db320c7	0.08746486
23	0xbd6bb503	-0.057545673
24	0x3d13c1e4	0.03607358
25	0xbdb1d01d	-0.086822726
26	0xbdaf9a57	-0.0857436
27	0xbd5c3b99	-0.053767774
28	0xbd9bcf91	-0.076079495
29	0xbd9868d5	-0.0744187
30	0x3ce66fd1	0.02812949
31	0x3d955d46	0.07293181
32	0xbc539887	-0.012914783
33	0xbc723fbe	-0.014785705
34	0xbbc796cb	-0.006090974
35	0xbd86f611	-0.06589902
36	0xbca7add1	-0.020468624
37	0xbc67f82c	-0.01415829
38	0x3caa9ec9	0.020827668
39	0x3da1fc81	0.079094894
40	0x3d88e648	0.06684548
41	0x3c89e95a	0.016834904
42	0x3c8fba90	0.017545015
43	0xbbabb800	-0.0052404404
44	0xbc0d9bdb	-0.008643116
45	0xbcdd330e	-0.027001884
46	0xbd9aa24c	-0.07550487
47	0x3a7a449e	0.0009546968
48	0x3d7b32da	0.061327793
49	0x3abf6f16	0.001460525
50	0x3c70b203	0.014690879
51	0x3c71fa20	0.014769107
52	0x3cb280aa	0.021789867
53	0xbcf3637a	-0.02971052
54	0xbcc6f8cc	-0.024288557
55	0x3c749332	0.014927672
56	0xbd43d2bf	-0.047808405
57	0x3d94f3be	0.07273053
58	0x3da612ce	0.081090555
59	0xbc6f382c	-0.014600795
60	0x3d3bface	0.045893483
61	0xbd73bc69	-0.059505854
62	0x3d9ff715	0.07810799
63	0xbd800691	-0.062512524
64	0x3d7c03dc	0.061527118
65	0xbd023635	-0.031789977
66	0x3d9c5108	0.07632643
67	0xbd0c6e43	-0.03428484
68	0x3c85e74b	0.01634564
69	0x3d952797	0.07282942
70	0x3c788a4f	0.015169694
71	0xbd286c5d	-0.04111897
72	0x3d876ecf	0.06612932
73	0xbd1891d1	-0.037248436
74	0xbd33ad36	-0.04386636
75	0xbd74736f	-0.0596804
76	0xbb88e86e	-0.0041780984
77	0x3cb1a5e9	0.021685557
78	0xbc546974	-0.012964595
79	0x3d7fe16a	0.06247083
80	0x3d7be740	0.061499834
81	0x3c526598	0.012841605
82	0x3cc72643	0.024310237
83	0x3d8c32e8	0.06845647
84	0xbd5a772d	-0.05333631
85	0xbd0e5889	-0.034752402
86	0xbd1563f7	-0.036472287
87	0xbd13f64e	-0.036123566
88	0xbd47dba0	-0.048793435
89	0xbd10f059	-0.035385463
90	0xbbe11938	-0.0068694614
91	0x3d6c4723	0.05768503
92	0xbdae2b69	-0.085043736
93	0x3d036d5f	0.032086726
94	0x3d92d2c4	0.071691066
95	0x3d7180e1	0.0589608
96	0xbb6969cf	-0.0035616045
97	0xbce1b4bf	-0.027552007
98	0xbb441cac	-0.0029924316
99	0x3db1d5cc	0.08683357
100	0x3ce39175	0.02777932
101	0xbbb14f93	-0.0054110973
102	0x3d0fbaba	0.035090186
103	0x3d8433a3	0.064551614
104	0xbd35b94d	-0.04436617
105	0x3d9850d3	0.07437291
106	0x3db2dba8	0.08733302
107	0x3cfe274e	0.031024601
108	0xbd7a49d9	-0.061105583
109	0x3db1450a	0.08655746
110	0x3d907631	0.07053793
111	0x3d3cb151	0.04606754
112	0x3caf50b8	0.021400794
113	0x3d1e97a6	0.038718842
114	0xbd7577d9	-0.05992875
115	0xbdac130b	-0.0840207
116	0xbd1719a7	-0.0368897
117	0x3d26886c	0.040657446
118	0xbda7c2f6	-0.08191483
119	0xbc94a9e5	-0.018147418
120	0xbcb12a9a	-0.02162676
121	0x3a55395d	0.0008133853
122	0xbd9c6131	-0.07635725
123	0x3d82a982	0.06379987
124	0xbb9bd802	-0.0047559747
125	0x3dafd500	0.085855484
126	0xba0da3de	-0.0005403141
127	0xbd7d28b0	-0.06180638
128	0xbd4270e0	-0.047470927
129	0x3d68c995	0.05683287
130	0x3db06a32	0.08614005
131	0x3dade7bf	0.08491468
132	0x3d7ab655	0.06120904
133	0x3d1c945f	0.038227435
134	0xbd3af119	-0.045640085
135	0x3d9861cf	0.074405305
136	0x3ca80822	0.02051169
137	0x3a1fb65a	0.0006092541
138	0x3daa0b1a	0.08302899
139	0xbd377120	-0.04478562
140	0xbd85fdda	-0.06542559
141	0xbd180cda	-0.03712163
142	0xbbda2535	-0.0066572675
143	0x3d40cf3e	0.04707264
144	0x3d56f817	0.05248269
145	0xbbd959f8	-0.0066330396
146	0x3da3b5f4	0.07993689
147	0xbd3831b8	-0.04496929
148	0x3bd77d2f	0.0065762023
149	0xbcd95c8c	-0.026533388
150	0x3d57c39b	0.05267678
151	0xbd9269ff	-0.071491234
152	0x3c5442cd	0.01295538
153	0xbdb1c34a	-0.086798266
154	0x3d64934d	0.05580454
155	0x3d7a7fb7	0.061156955
156	0x3d526812	0.05136878
157	0xbd8b256b	-0.06794246
158	0xbd5411cc	-0.051774785
159	0xbc5e2446	-0.013558453
160	0x3c877da6	0.016539406
161	0xbd2905f9	-0.04126546
162	0x3d1659eb	0.036706846
163	0xbd8439a9	-0.0645631
164	0xbd452831	-0.048134033
165	0x3cd2745a	0.025690246
166	0x3d9eb35c	0.07749054
167	0xbcc368c5	-0.023853669
168	0xbd1e2d95	-0.03861769
169	0x3d08a5e8	0.033361346
170	0xbcd35c9c	-0.025800996
171	0x3d0985eb	0.03357498
172	0xbd1577fc	-0.03649138
173	0xbce82f6f	-0.02834293
174	0xbdade566	-0.0849102
175	0x3c403243	0.011730733
176	0xbd558bb7	-0.052135196
177	0xbcce0a90	-0.025151521
178	0x3d821f09	0.06353576
179	0x3d7210aa	0.059097923
180	0x3cdff6df	0.027339397
181	0xbce8bc2d	-0.028410042
182	0xbd43c587	-0.0477958
183	0x3d707b45	0.05871131
184	0x3d8a4c8b	0.06752881
185	0xbc924977	-0.017857296
186	0xbd2a7da9	-0.041623745
187	0xbbc7301c	-0.006078733
188	0x3d6983f1	0.057010595
189	0x3d9fe610	0.07807553
190	0xbd2cfb2c	-0.042231724
191	0x3d31c813	0.043403696
192	0xbcaf89c8	-0.021428004
193	0xbd926684	-0.071484596
194	0x3d02c45c	0.031925544
195	0xbd9b7e7c	-0.07592484
196	0xbd1d8faa	-0.038467087
197	0x3c19fdb0	0.009398863
198	0x3b753b9f	0.003741957
199	0x3cac380c	0.021022819
200	0x3cb665fd	0.022265429
201	0xbb82271d	-0.003971948
202	0xbd7db6ff	-0.061942097
203	0xbd0acc8f	-0.03388649
204	0x3d7d719e	0.061875932
205	0xbd8cdc3e	-0.06877945
206	0x3d70cbed	0.05878823
207	0x3d806b42	0.06270458
208	0x3d8d6fe1	0.06906105
209	0xbd567cdf	-0.05236518
210	0xbcb5129e	-0.022103604
211	0xbc31b609	-0.010846623
212	0x3c26cdbe	0.010180889
213	0xbc22f6b0	-0.00994651
214	0xbc4acf8f	-0.012378587
215	0x3d9c6e4f	0.07638227
216	0xbd234617	-0.039861765
217	0x3d49f4b0	0.049305618
218	0xbc8c90e7	-0.017158939
219	0x3d9dba1c	0.07701513
220	0x399e6705	0.00030212864
221	0xbda7ed46	-0.08199553
222	0x3d9ac24b	0.0755659
223	0x3d7a7a48	0.061151773
224	0x3d6f5d8a	0.058438815
225	0x3d8fff11	0.07031072
226	0x3c4ebb74	0.0126179345
227	0xbc93afbc	-0.018028133
228	0x3c159fb2	0.009132313
229	0x3d8e0b4c	0.069357485
230	0xbdae54af	-0.08512246
231	0x3d087c69	0.03332177
232	0xbbbd6f46	-0.005781087
233	0x3d86c1a1	0.065799005
234	0x3d95e798	0.073195636
235	0x3c33acf7	0.010966531
236	0xbc57d6ed	-0.013173801
237	0x3cf54017	0.029937787
238	0x3d8668db	0.06562968
239	0x3d6dd716	0.05806645
240	0xbd351fc2	-0.04421974
241	0xbcfb85d8	-0.03070347
242	0xbdb4385b	-0.087998115
243	0x3d3caa2e	0.046060733
244	0x3d78dfa1	0.060760144
245	0xbd820175	-0.06347934
246	0xbd33a826	-0.04386153
247	0x3cdf2500	0.027239323
248	0x3db3cff7	0.087799005
249	0xbd493f1f	-0.049132463
250	0x3d576fc6	0.05259683
251	0x3c3006b3	0.010743785
252	0x3d8f3ad7	0.06993645
253	0xbb3e3ace	-0.002902675
254	0x3b488071	0.0030594135
255	0xbdad6b16	-0.08467691
