SimLoan/res/experiments_adj_generation_unfair_decisions_10_steps_2_interventions/LSTM_effort_model_2layers_budget_5.0_eps_1_b_0_5_v2.pth (torch, 818496 bytes, 12 tensors)

init_interventions f4 [1, 2]
000000 00 00 00 00 00 00 00 00
       0.0 0.0

lstm.weight_ih_l0 f4 [512, 9]
000000 c6 12 28 bd 1f c8 03 3d 9c 78 5a bc 68 56 c0 bc
       -0.04103353 0.032173272 -0.01333442 -0.023478702
000010 0a 87 54 3d 5a 38 8b 3d 9d cf 00 3c 5c e2 59 bd
       0.051886596 0.067978576 0.007861999 -0.05319439
000020 a3 04 b0 bd 83 f8 96 3c 81 7e a1 bd 54 a8 7e 3c
       -0.085946344 0.018429046 -0.07885457 0.015543062
000030 f8 8a 31 bd cb 24 2c 3c ec 03 8d 3d b6 dd a2 3d
       -0.04334542 0.010506819 0.06885514 0.07952444
000040 3f 28 a8 bd 1c c1 b1 bd 7e f9 a5 bc f0 ce 7d 3d
       -0.08210801 -0.08679411 -0.020260569 0.06196493
000050 29 a6 a2 3c 83 e3 a0 3c 82 e7 40 bd 2b 87 37 3d
       0.019854622 0.019639736 -0.047095783 0.04480664
000060 05 77 04 3d b8 71 7f 3c 14 54 2d bd b5 6c 8a 3d
       0.03234007 0.0155910775 -0.04231651 0.067590155
000070 e8 50 2d bd 12 9a 9a bc 75 81 3b 3c ee e0 1f 3b
       -0.042313486 -0.018872295 0.011444439 0.0024395543
000080 3d 58 b8 bc 9e e0 a5 bd fa ee 79 3d 76 ef e8 3b
       -0.022503013 -0.08099483 0.06101892 0.007108624
000090 9e 29 b3 3d 79 f2 2a bd bb b5 ef bb f6 d0 59 bd
       0.08748172 -0.041735146 -0.007315365 -0.053177796
0000a0 92 16 b7 3b a7 d1 a7 bd 40 5f a3 3d 6b df 32 bd
       0.0055874074 -0.08194285 0.07977152 -0.0436701
0000b0 e2 da 89 3d d6 49 2b 3d 1f 9a c3 3b 38 7b de bc
       0.06731202 0.041818462 0.0059693004 -0.027158365
0000c0 81 07 99 bd f8 85 ed bb ea bf 90 bd e9 9b cb 3c
       -0.074721344 -0.0072486363 -0.07067855 0.024854617
0000d0 da c6 26 3d 39 5e 33 3d c6 1f 53 bd 28 58 b3 3c
       0.040716983 0.04379103 -0.051543973 0.021892622
0000e0 5b 53 62 3d 2a 7e f2 bc af c4 87 3b 3e 9d 6c bc
       0.055255275 -0.029601175 0.0041433196 -0.014441786
0000f0 43 f2 fa bc 94 e1 24 3d 34 7b 9f bd 8f 95 a8 3d
       -0.030633098 0.04025419 -0.07787171 0.08231651
000100 c8 03 83 bd 5b b9 30 3d ca 15 13 3b 23 64 17 bd
       -0.063972056 0.04314552 0.0022443407 -0.036960732
000110 8f 63 3b bd 11 52 ca 3c c3 96 c3 3b f4 c5 25 bd
       -0.045749243 0.024697335 0.0059689 -0.040471986
000120 46 b1 0f bd e9 8a 90 3d 65 6c b0 bd 83 bd e2 bc
       -0.03508117 0.07057745 -0.086144246 -0.027678257
000130 44 14 82 bc 3a eb 9c 3d 34 ae a9 3d 9b ad 39 3d
       -0.015878804 0.076620534 0.0828518 0.04533158
000140 ee 03 a8 bd b9 6e a7 3d 7b 05 92 bd 12 1c 23 bd
       -0.082038745 0.081754155 -0.071299516 -0.03982169
000150 3d d6 e2 bc 44 3f 7c bd f1 71 72 bc 2d ab 95 bc
       -0.027690047 -0.061583772 -0.014797674 -0.0182701
000160 f5 05 ae 3c 60 6f 12 3d a5 da a6 bd 7e c4 23 bc
       0.021243075 0.035750747 -0.08147172 -0.009995578
000170 0e b0 ab bc f6 38 aa bd e9 2f 58 bd 62 3e b3 3d
       -0.020957973 -0.08311646 -0.052780066 0.08752133
000180 5e 6d 2b bd 7a 29 33 bd d1 9b 55 bd f9 a3 aa bd
       -0.041852348 -0.043740727 -0.05215055 -0.083320566
000190 dd 59 62 bd 56 70 47 bd 5c 03 f4 3c 2c c3 72 bd
       -0.05526148 -0.048691116 0.029786758 -0.05926816
0001a0 17 93 7a bc e9 78 60 3d 24 48 86 bd 49 76 3b 3d
       -0.015293858 0.05480281 -0.065567285 0.045767102
0001b0 1b 6a 27 bd 49 f4 8e 3d be be 5d bd 3f 3b b4 bb
       -0.040872674 0.069801874 -0.054136984 -0.0055002267
0001c0 bd f4 76 bc 63 71 3a 3d b9 ff 9d bc b9 b0 69 3d
       -0.015072999 0.04551829 -0.019286977 0.0570533
0001d0 84 29 82 bd 7c 76 48 bd 2e 9d ac bc 41 1a 7c bd
       -0.06355575 -0.04894112 -0.021071043 -0.061548475
0001e0 0d 07 eb bc 7f 01 a0 bd 63 45 e7 bc 78 e9 7e 3d
       -0.028689886 -0.07812785 -0.028231328 0.062234372
0001f0 bf 1c 4a bd 40 10 51 3c 42 b1 73 bd 62 cf c1 bc
       -0.04934382 0.012760222 -0.059495218 -0.023658458
000200 76 59 a0 3d 31 f4 94 3d df 22 1b 3c f0 54 92 3d
       0.07829563 0.07273138 0.009468763 0.07145107
000210 86 fa 96 3c dd ff 54 bd 97 7f 35 3c ac 60 29 3c
       0.018430006 -0.052001823 0.011077783 0.01033799
000220 25 12 93 bd 83 b2 22 bd cc b0 37 bd c7 7a 47 3d
       -0.07181195 -0.039721023 -0.04484634 0.048701074
000230 f6 d1 b6 bc 28 40 9e 3d af a4 a8 bd 43 21 91 3d
       -0.022316914 0.077270806 -0.08234536 0.07086422
000240 de 2b 84 bd 37 2a ff 3c 91 eb 74 bd c9 22 98 bd
       -0.064536795 0.03114806 -0.059794966 -0.0742851
000250 ec f0 a6 bd 21 0e 94 3d 7c 99 83 3b fb c4 79 bd
       -0.08151421 0.072292574 0.0040160995 -0.06097887
000260 17 97 22 bd 3f 28 0e 3d 1f 70 46 3d 4c 36 83 bd
       -0.03969487 0.03470635 0.04844677 -0.06406841
000270 9a 35 34 3d b6 da 43 bd ae dd 19 bd c4 ba 94 3d
       0.04399643 -0.047816 -0.037564926 0.07262185
000280 94 93 19 bc 61 c0 ad 3d c6 d5 a5 3d 0f dd 87 bd
       -0.009373564 0.08483959 0.08097415 -0.066339605
000290 40 a5 88 3d c0 81 94 bc c8 f7 8f 3d 35 72 9e 3d
       0.06672144 -0.018128276 0.070296824 0.07736627
0002a0 81 a6 f8 3c f6 de 95 bd 16 5a 64 3d 70 11 a7 3d
       0.030352833 -0.07317917 0.055749975 0.08157623
0002b0 20 c3 aa 3d 46 ad 09 bd fa bd 53 3d 88 12 95 3d
       0.083379984 -0.033612512 0.051694848 0.07278925
0002c0 f0 b1 72 3b b8 0c b0 3d c7 85 e7 bb b5 aa de 3a
       0.0037032329 0.08596176 -0.007065508 0.001698813
0002d0 dd eb 9f 3d ec ed 30 3d 2f 21 ed 3c 1b 8c 24 bd
       0.07808659 0.04319565 0.028946487 -0.040172677
0002e0 1a 54 48 bd 61 5f 84 3d 5d f5 ad bc d4 07 a7 3d
       -0.04890833 0.064635046 -0.021235162 0.0815579
0002f0 a6 2e a8 bc 3f 58 37 3c 55 16 2c bd 43 15 9c 3d
       -0.020530056 0.011190473 -0.042013485 0.07621243
000300 80 d2 86 3b a2 55 ea 3c ba c6 64 bd b8 52 05 bd
       0.004114449 0.028605286 -0.055853583 -0.03254959
000310 f6 e9 ad bc 3c 89 26 3c 5a f2 69 bb 8c 9d e0 bc
       -0.021229725 0.010164555 -0.0035697431 -0.027418874
000320 43 f5 81 bc 9d 58 06 3b 4d e1 72 bd cb e0 31 bc
       -0.01586402 0.0020499595 -0.059296895 -0.0108568175
000330 0e c3 c9 3b e5 7a 80 bc af a3 09 3d 13 32 4e 3d
       0.0061572855 -0.0156836 0.033603366 0.050340723
000340 b8 d7 a6 3d d5 88 4d 3c 95 c1 8f 3d e3 26 60 bd
       0.08146614 0.01254483 0.07019345 -0.054724585
000350 e7 1c 13 3c 87 90 11 bb d8 b0 ac bb f5 19 5c bd
       0.008979059 -0.002221139 -0.005270105 -0.053735692
000360 27 56 97 bd cc ad d2 3c 48 25 da 3c 69 9d 9b bd
       -0.07389479 0.025717638 0.026629105 -0.07598383
000370 31 64 d6 bc d5 cb a9 bd 96 3c 03 3d b8 4f f1 bc
       -0.026170822 -0.08290831 0.0320402 -0.029456958
000380 c6 73 2b bd e0 43 5e bd 50 38 af 3c 4a f9 5d 3d
       -0.041858457 -0.05426395 0.021389157 0.05419282
000390 e8 27 91 3d ef 42 82 bc e6 75 70 3d a9 d5 7a 3d
       0.0708769 -0.015901057 0.058706187 0.06123892
0003a0 d2 3d 58 bd 10 0a e6 bb 6b aa 79 bd 9b 73 6f bd
       -0.05279333 -0.0070202425 -0.06095354 -0.05845986
0003b0 b9 2f 21 bd 6e c8 dd 39 0e 1d db bc 6a d3 90 3d
       -0.039352152 0.00042301737 -0.026747253 0.07071574
0003c0 38 d4 6a 3d 5d c9 80 bc b6 29 54 bc 64 cb 87 bd
       0.057331294 -0.015721017 -0.012949398 -0.066305906
0003d0 a7 e4 32 bc 53 58 30 3d 1d c6 83 bd d5 c6 28 3c
       -0.010918773 0.043052983 -0.064342715 0.0103013115
0003e0 76 5f d2 3b 5f 24 88 bd d2 7f c8 3c 6f 4b e4 bc
       0.0064200712 -0.06647562 0.024475012 -0.027868
0003f0 db 09 f8 bc 99 7b c4 bb ef cc 4b 3d d6 c1 ce 3c
       -0.030278137 -0.0059961793 0.049755987 0.025238913

lstm.weight_hh_l0 f4 [512, 128]
000000 60 ab b4 bd 30 b5 88 ba 32 ff 75 bc 81 df 41 3d
       -0.0882175 -0.0010429975 -0.015014457 0.04733229
000010 9b 09 90 bc ea 6a fb 3c c3 d6 8d 3d c2 5f 78 3d
       -0.017582705 0.030690629 0.06925728 0.060638197
000020 93 a3 b3 3b b1 82 86 bd 4b 56 1d bd 04 d0 ba bb
       0.005482146 -0.06567896 -0.038412374 -0.005701067
000030 3a b9 6a bc c1 7b e1 bc b1 ce 8c 3d e0 72 fe bc
       -0.014326388 -0.02752483 0.06875361 -0.031060636
000040 c0 d3 c3 bb f0 85 94 bd 76 2d 10 3d a6 cf eb 3c
       -0.0059761703 -0.07252109 0.035199605 0.028785538
000050 89 e0 75 bd e3 ff ef bb e5 3b 89 3d 46 82 d9 bb
       -0.060028587 -0.0073242052 0.06700877 -0.0066378443
000060 a0 c0 0a 3d a1 2d 03 bd 41 55 86 3b d4 00 d9 bc
       0.033875108 -0.032025937 0.0040995185 -0.026489653
000070 7a bd 34 bd 79 96 00 3c a4 aa 1a bd c3 58 94 bd
       -0.04412601 0.0078483755 -0.03776039 -0.072434925
000080 4b b4 9c bd 35 db 1d bd 55 d5 a8 bd 3f c0 84 bd
       -0.07651576 -0.03853913 -0.08243815 -0.064819805
000090 67 7a ab 3d bb 41 e9 bc 7e cd 3f 38 fa ec 7b bd
       0.08372956 -0.028473726 4.5729328e-05 -0.061505295
0000a0 7d c4 26 3d 59 0c f9 3c e5 2a a0 3d e4 c2 ed 3c
       0.04071473 0.030401396 0.078206815 0.029023595
0000b0 7d 03 31 3d 29 c0 30 3d 46 44 91 bd 2c 9d 8d 3d
       0.043216217 0.04315201 -0.070931 0.06914744
0000c0 b7 85 cd bc 1f c9 1d bd da 84 4b bd 2c a2 7a bd
       -0.025088174 -0.038521882 -0.049687244 -0.061189815
0000d0 58 48 f0 bc ea cc 7d bd 91 2c 38 3d f5 d8 a9 3d
       -0.029331371 -0.061963 0.044964377 0.082933344
0000e0 d6 0f 21 3c 79 51 b4 3d 76 f8 78 3d 09 bf 0a bb
       0.009830436 0.08804602 0.060783826 -0.0021170995
0000f0 7e 83 69 3d aa 3a 98 3d ca 75 d0 bb 31 dc 43 3c
       0.057010166 0.07433064 -0.006361698 0.011954353
000100 c0 c7 88 bb 2e 93 d8 bb e5 24 9d 3d c7 f0 3a bd
       -0.0041742027 -0.006609342 0.07673053 -0.04563978
000110 41 80 6b 3d 14 bc 4a bd b6 97 3f 3c 1a 94 8e 3c
       0.05749536 -0.04949577 0.011693886 0.017404605
000120 9e 14 22 bd 3f aa 9a bc 48 14 03 3c 1c 83 bc bc
       -0.039570443 -0.018880008 0.008000441 -0.023011737
000130 12 46 63 bd c8 63 7e bd 02 33 93 3d 71 7d 3e 3d
       -0.055486746 -0.062106878 0.07187463 0.04650635
000140 d8 5f 8c bd c7 2b 49 bc 37 05 a0 bc 0d cf 67 bd
       -0.06854218 -0.012278504 -0.019533737 -0.056593943
000150 b2 2f 1e bc d4 ff 91 bc c9 b3 7c b8 47 cc b7 bc
       -0.009654926 -0.017822184 -6.024892e-05 -0.022436274
000160 ba 49 f2 3c bd be 25 bc 27 67 aa 3d 1b 2a 2f bc
       0.029576171 -0.010116276 0.08320456 -0.010691191
000170 7b 15 58 3d 4d 36 ff 3c dd a1 7c 3d 63 71 4f 3d
       0.05275486 0.031153822 0.061677802 0.050645243
000180 84 57 48 bb 15 91 1f bd 1a de b1 3d 6f 0a 87 3d
       -0.0030569742 -0.03895672 0.08684941 0.06593787
000190 c8 de 9f bd d0 b6 9f bd e4 d9 a6 bd b2 2c 21 bd
       -0.07806164 -0.077985406 -0.08147028 -0.039349265
0001a0 3d d2 10 bd d3 ef 5e 3b e3 dd 2f bc d5 74 4d 3d
       -0.03535675 0.0034017458 -0.010734054 0.050160248
0001b0 0a 09 5f bd 97 07 4e bd 4f f9 22 3d 38 4e b2 bd
       -0.05445198 -0.050300207 0.03978854 -0.08706325
0001c0 6a 20 7b bd 4b 98 9d bd 25 bd 8d bd fe 04 22 3d
       -0.06131021 -0.07695063 -0.06920842 0.039555542
0001d0 90 c0 18 bd e4 a4 d6 bc 52 44 03 3c 95 f6 2c 3c
       -0.037293017 -0.026201673 0.008011894 0.010556837
0001e0 e0 d3 07 bd 07 d9 fe bc c1 89 74 3b 9a d1 94 bd
       -0.033161044 -0.031109346 0.0037313553 -0.07266541
0001f0 c5 c3 0d 3c 7e b3 a0 bc 74 14 32 bc bd 68 0b 3b
       0.008652632 -0.019616839 -0.010869134 0.0021272146
000200 bc a2 92 3d ac d4 16 3c 6c 11 2b bc ae 0c 27 3d
       0.07159945 0.009205978 -0.010441165 0.040783577
000210 f8 5e 8e 3d 9e e4 24 3d af 38 8e bd d2 5d 95 bd
       0.069517076 0.04025709 -0.06944405 -0.072932854
000220 c4 de ef bc ab e0 16 3d 46 39 b4 3d 0a 62 32 bd
       -0.029281028 0.036835354 0.087999865 -0.04355053
000230 5b d9 8b bd 88 e6 aa 3c 07 1a ab bd 42 5c 15 3d
       -0.06828567 0.020861879 -0.08354574 0.036464937
000240 e2 26 69 3a 34 d4 b0 bc 41 3f 19 3c 82 7c d8 3c
       0.00088940386 -0.021585561 0.00935346 0.026426557
000250 d8 34 68 bd a8 10 e8 3c 3c 49 32 bd 36 9a a1 bc
       -0.05669102 0.028328255 -0.043526873 -0.019726854
000260 3b e3 25 3d 3d 29 3c bd a5 f8 a5 bd b0 d8 ef 3c
       0.040499907 -0.045937765 -0.08104066 0.02927813
000270 1e 6a cd 36 93 61 32 bd c6 cd 64 3d 5a 03 e9 3b
       6.1218298e-06 -0.043550085 0.055860303 0.0071109952
000280 56 de 23 3d 2e 95 9a 3d e4 49 80 bd 60 ca a1 3d
       0.040006958 0.07547985 -0.062640935 0.07899928
000290 7a a8 1e bc 98 c2 98 bd 97 71 4e 3d 8d 31 44 bd
       -0.009683723 -0.07458991 0.050401296 -0.047898818
0002a0 5c dc b0 3d 3d c1 b1 3c aa fe 94 3d cb d5 aa bd
       0.0863578 0.021698589 0.07275136 -0.08341559
0002b0 d5 e0 93 bd 13 9c 63 3b df da b1 3d ee 5f 0a 3a
       -0.07220618 0.0034730479 0.086843245 0.0005278577
0002c0 d2 83 94 3d b9 9b ac 3d 9c e5 31 bc fd c3 18 3d
       0.07251705 0.08428139 -0.010857966 0.037296284
0002d0 5b 42 ae 3d de e0 91 bd bf d0 8f 3d 62 7b b2 3c
       0.0850875 -0.07122968 0.07022237 0.02178735
0002e0 e4 df b2 bd 13 2b 80 bd 60 c9 43 3d 3d 86 70 bd
       -0.0873411 -0.06258216 0.047799468 -0.05872177
0002f0 32 48 0c bd 3b af a4 bd b0 44 6c 3d 34 c6 28 bd
       -0.03424854 -0.08041235 0.057682693 -0.041204646
000300 9c 74 17 3b 79 76 a2 bd 92 a2 04 3d 7f b7 06 3d
       0.0023110276 -0.07932753 0.0323816 0.03288984
000310 11 fc b2 bd 3d d9 17 3c be 7c 8a bb e4 f9 94 3c
       -0.08739484 0.009268102 -0.004226296 0.018185563
000320 b7 5f 81 bd 7b aa 8f bd b3 cb 81 3d 48 39 a9 3d
       -0.06317084 -0.070149384 0.06337681 0.08262879
000330 5c 0e 77 bd 55 f2 9d bd 4c ea 28 3d 86 63 6a 3d
       -0.06031643 -0.07712237 0.041239068 0.05722382
000340 99 7f 3e bd 12 75 9c 3c 7e 4a 97 bc 45 40 8c bd
       -0.046508405 0.019098792 -0.018468138 -0.06848196
000350 4c 51 4e bd 78 1b e3 3b c7 6b af bd 64 29 eb 3c
       -0.0503705 0.0069307648 -0.08565479 0.02870626
000360 10 b6 1f 3c f0 bf e3 3c dd fd 28 bd 4f ec 1b 3c
       0.009747997 0.027801484 -0.041257728 0.00951679
000370 e7 4e 0c 3d 10 05 2c bd 44 8b 87 3d 7f 4d 90 bd
       0.034254935 -0.041997015 0.0661836 -0.07046031
000380 8f 4e 49 bc 8a 7e 1c 3d 61 f9 a5 bd 01 67 86 bd
       -0.012286796 0.038206615 -0.08104206 -0.06562615
000390 4e a4 d0 3c 66 da a6 3d 2a db 79 3d 88 39 15 3c
       0.025468972 0.08147125 0.061000027 0.009107955
0003a0 27 6f 02 bd 25 00 a6 3b 25 ae 14 3b 91 01 98 bc
       -0.031844284 0.005065935 0.0022686806 -0.018555434
0003b0 ef 40 24 bd 4d 54 f0 3a 77 7b 85 bd e9 0d 52 bd
       -0.040100988 0.001833567 -0.0651769 -0.051282797
0003c0 4f c5 a3 3c 51 95 49 3c e7 b4 8c 3b 92 a3 f7 3b
       0.019991545 0.012303666 0.004294026 0.007557341
0003d0 e0 ab 84 bd 57 06 07 bc 6a b9 1a 3d a7 b8 48 bc
       -0.06478095 -0.008241258 0.03777448 -0.012251056
0003e0 bf 42 4e 3d f9 9b 3d 3d f5 d5 85 bd 3d df 78 bd
       0.050356623 0.046291325 -0.0653495 -0.06075977
0003f0 0d c9 e1 3c 23 f5 45 bd 5b 9b 43 3d fd 77 54 bd
       0.027561689 -0.048329484 0.04775558 -0.051872242

lstm.bias_ih_l0 f4 [512]
000000 23 bc 9b 3d 04 b2 3d bd aa dc 0a bd 09 50 8b 3c
       0.076042436 -0.046312347 -0.033901848 0.017005937
000010 71 e3 03 bd e0 de c9 3c 54 69 63 3d 3b a6 79 bd
       -0.032199327 0.024642408 0.05552037 -0.060949545
000020 38 96 1f 3d 61 48 59 bd eb aa 7d bd ce 66 42 3d
       0.03896162 -0.05304754 -0.06193058 0.047461323
000030 5d 59 94 3d aa b2 ae 3d ad 71 9b 3d b3 6a 43 bd
       0.07243607 0.08530171 0.07590041 -0.04770918
000040 6d e9 ab 3d 87 db b3 3d 76 fc 3b 3d 6a a5 ab 3d
       0.08394132 0.08782106 0.045895062 0.083811596
000050 65 da 01 bd 38 b8 60 3c ce df a1 bd c4 81 aa bc
       -0.031702418 0.013715796 -0.079040155 -0.02081383
000060 06 85 6a 3d 9b 70 20 3d f3 e0 52 bb 7c cf aa bc
       0.057255767 0.03916989 -0.0032177537 -0.02085089
000070 51 86 87 bd 1c 34 73 bd 44 0d 0e 3b cd 72 77 3d
       -0.06617416 -0.059375867 0.0021675387 0.060412217
000080 ba a9 48 3d 4f 3c 49 bd 21 e0 57 3d 5c 69 20 bd
       0.04898999 -0.04912978 0.05270398 -0.03916298
000090 ef 93 45 3d 45 59 85 3d f8 de 88 3d c5 08 6e bd
       0.048236784 0.065111674 0.06683153 -0.058113832
0000a0 7e 43 89 bc 98 21 4d bc 9f e1 91 bd 6b 57 28 bd
       -0.016755816 -0.012520216 -0.07123112 -0.041098993
0000b0 6e 80 e7 3c 05 55 2c 3d b1 53 a0 bd 12 25 00 bc
       0.028259482 0.04207327 -0.07828463 -0.007821338
0000c0 32 ae 69 bd 01 6d 88 bd 2a e7 1f bc 2c 5e 9d bc
       -0.05705089 -0.06661416 -0.009759704 -0.019209944
0000d0 26 85 9b 3d cb d8 7d bc 30 19 1e bd 6f e3 8a 3d
       0.075937554 -0.015493582 -0.03859824 0.06781661
0000e0 1b 49 b4 bd 60 90 9d bb 21 5e a5 bd 38 6b 21 3d
       -0.08803006 -0.0048084706 -0.08074594 0.039408892
0000f0 22 f4 36 bd 13 7b 90 3c 0f 31 b0 bc c4 23 98 3d
       -0.044666417 0.017636811 -0.021507768 0.07428697
000100 05 8d ba bb f2 b2 45 bc 2e 2b b9 bc 65 2f 94 bb
       -0.0056930804 -0.01206659 -0.022603597 -0.0045222514
000110 c5 2a 72 3d ce e8 b3 bc 83 23 97 bc cd f3 e7 3c
       0.05912282 -0.021961596 -0.01844955 0.028314495
000120 29 46 f4 3c 12 c5 9c bd 96 2f 1c 3d aa 1b 18 3c
       0.029818611 -0.07654776 0.03813132 0.009283939
000130 1c d6 e1 bb 62 0c 9d bd b2 72 81 3d 46 30 6d bd
       -0.006891979 -0.076683775 0.063207045 -0.057907365
000140 5e a4 42 bd 97 60 e7 bc 4d c3 a5 bd b7 c8 1a bc
       -0.047520034 -0.0282443 -0.08093891 -0.009447268
000150 21 d3 65 3d 7d 95 80 3d 73 88 ec 3c 20 ba 0d 3d
       0.05610955 0.062785126 0.028873658 0.03460133
000160 af 8a b9 3c 4d 3a dd 3c 21 8e 4c 3d b4 09 6f 3d
       0.022649137 0.027005339 0.049940232 0.058358863
000170 ca 65 99 bd 09 30 ac 3d a7 fd db bc 83 68 71 3d
       -0.07490118 0.084075995 -0.02685435 0.05893756
000180 fa f4 b3 bc f7 06 2c 3d 50 ea e8 bc e6 67 86 bd
       -0.0219674 0.04199883 -0.028432041 -0.06562786
000190 50 10 85 bd b0 84 cf bc c7 1e 80 3d 64 f4 1e 3d
       -0.06497252 -0.025331825 0.0625587 0.038807288
0001a0 f4 bf 95 3d 81 7b af 3d 17 59 4f bb 6e 11 60 bd
       0.07312003 0.085684784 -0.0031638795 -0.054704122
0001b0 f2 e0 d7 3c 33 2e 14 3d 9e 43 ca 3c 3d 36 a6 3c
       0.02635238 0.03617687 0.024690446 0.020289535
0001c0 d3 78 84 3d a0 5c f5 bc 59 e8 80 3d e8 0e 22 bd
       0.06468358 -0.029951394 0.06294317 -0.039564997
0001d0 46 6d 34 bc f1 1a e2 3c 3c 1a 92 bb 7d 02 3b bc
       -0.011012381 0.027600737 -0.004458694 -0.0114141675
0001e0 ba 1d 71 3d 66 35 74 bd 4d e5 8b bd bc 79 39 bd
       0.05886624 -0.059621237 -0.06830845 -0.04528211
0001f0 0a c3 87 3d 3f a6 f6 bb 06 7e 9e 3d 40 02 3a 3c
       0.066289976 -0.0075271423 0.07738881 0.0113530755
000200 e0 85 22 3d 4b cd 9e 3c ff 70 87 bd 94 e5 61 3c
       0.039678454 0.019385 -0.06613349 0.013787646
000210 34 de 21 bd 2e ee 53 3a f0 6a 0f bd 9a 26 3e 3c
       -0.03951855 0.0008084503 -0.035014093 0.011605883
000220 28 23 31 bd 08 fe 99 bd 64 b3 55 3d 1d 33 80 bd
       -0.04324642 -0.07519156 0.052173033 -0.06259749
000230 e3 7c 0c bd f6 12 06 3c a2 30 44 3d 2b 1f 76 bd
       -0.03429879 0.008183232 0.047897942 -0.060088318
000240 20 ee de bc ba 49 59 3d 2f d1 a2 bc 8a 5d eb bb
       -0.027213156 0.053048827 -0.019875137 -0.0071827816
000250 ef f2 0d bd 76 23 9e 3d f2 88 ab 3c 38 14 95 bd
       -0.034655508 0.077216074 0.020939324 -0.07279247
000260 74 a6 96 bd 3d 57 b4 3d 47 78 8b bd 12 e0 2b 3b
       -0.07355967 0.08805702 -0.068100505 0.0026226086
000270 47 d6 9a bd 1b af af bd 79 5e 3c bc 63 81 1a 3c
       -0.075604014 -0.085783206 -0.011497133 0.009430262
000280 1c 58 d9 3b 5d e6 ce bb f7 53 91 3d b1 0a 2b bd
       0.006632818 -0.0063140825 0.07096093 -0.041758243
000290 9d 9e 93 b9 2a fb 44 bd db e6 97 bd bb 4e 2f 3d
       -0.000281562 -0.04809109 -0.07417079 0.042799693
0002a0 b6 cd 03 3d c8 48 69 bd 2d 66 59 bd a9 6a a8 3d
       0.032178603 -0.056954175 -0.053075958 0.08223469
0002b0 e4 85 1f 3b cf ce 93 bc 40 d8 97 bd 09 4e ae bd
       0.002434128 -0.01804295 -0.07414293 -0.08510978
0002c0 d5 40 b0 3d 2d 9d 9c 3d e9 9d ae 3d c7 62 bd 3a
       0.08606116 0.076471664 0.08526213 0.0014448994
0002d0 ac 5f c7 3b 82 32 5e bd 42 ae a0 bb 19 8c 17 3d
       0.006084403 -0.054247387 -0.0049035857 0.036998842
0002e0 f2 29 32 bd 1d 19 11 bc 80 de 8e bd 63 32 4d bd
       -0.043497033 -0.008856085 -0.06976032 -0.05009688
0002f0 1c 82 97 3d 2e b7 10 bd ca c7 22 bd 0f e4 a1 bc
       0.07397863 -0.035330944 -0.039741315 -0.019762067
000300 77 97 48 3c b4 f7 94 bc 37 fa 85 3d 7b ee f2 3c
       0.012243143 -0.01818452 0.06541865 0.029654732
000310 69 f7 c8 bb 58 ee 60 bd dd f2 45 3d b6 9e 09 bb
       -0.006133009 -0.054914802 0.048327316 -0.002099914
000320 af 8e 41 3d 02 de b1 bd 97 6b a4 ba 7e 68 14 bc
       0.047255214 -0.08684923 -0.0012544271 -0.009058116
000330 a4 95 8b 3c 60 de 7c 3d e3 00 88 3d de c4 71 bd
       0.017039128 0.06173551 0.06640794 -0.059025638
000340 62 db 1b 3c 60 f4 52 bd ea 1b 62 3d 01 1d a9 3d
       0.009512754 -0.051502585 0.055202402 0.08257485
000350 69 23 4e 3d a8 fc a9 3c 0c fb 52 3d 20 3c 1e bd
       0.05032674 0.020750359 0.05150895 -0.03863156
000360 fd 7d 7e bb b1 9d a7 3c 5e 7a 9d bb a7 b3 67 3c
       -0.003883242 0.020460935 -0.004805847 0.014141954
000370 ac 0d 5c bd 48 3d a2 bd f5 76 b2 3d 6f b2 86 3d
       -0.053723976 -0.07921845 0.087140955 0.06577002
000380 c1 15 88 bd 2a ae 60 3d c4 73 9d bd 87 62 ec 3c
       -0.06644774 0.054853596 -0.07688096 0.028855575
000390 56 4d 79 3c ad 9d a4 3d 56 50 cc bb 91 5e 80 bc
       0.015216192 0.08037887 -0.0062351627 -0.015670093
0003a0 03 9d 2c 3d b5 4a 82 3d af 1f e4 bb b7 1b b4 3c
       0.042141926 0.063619055 -0.006961785 0.021985872
0003b0 80 05 2d 3d 9f 69 46 bd f5 f1 b1 3d 43 19 9a bd
       0.042241573 -0.048440572 0.08688728 -0.075243495
0003c0 ea 0a 9b 3d 76 c7 a6 3a e3 eb 8f bb 7f 93 2d 3d
       0.07570441 0.0012724239 -0.0043921336 0.04237699
0003d0 f2 a0 67 bd af 4c 8c 3d d5 ca 97 bc f6 c9 56 3d
       -0.056549974 0.06850564 -0.018529335 0.0524387
0003e0 6d dd bb bc 04 36 af 3d b2 08 dd bc 69 57 79 3d
       -0.022932732 0.085552245 -0.026981685 0.060874376
0003f0 a3 f5 8b 3d f0 29 4f bc 70 e1 85 3d d5 05 1c bd
       0.06833961 -0.012644276 0.065371394 -0.0380915

lstm.bias_hh_l0 f4 [512]
000000 4d 29 83 3d 21 39 d1 bb 9c 81 90 bd e0 2c a1 3d
       0.06404362 -0.006384984 -0.07055971 0.07869887
000010 e0 1d b4 3d ac 76 ae bd 5c c8 0c 3d 9f da b2 bc
       0.08794761 -0.085187286 0.034370765 -0.021832762
000020 2e a8 8b bd d8 3b c5 bc 49 06 6a bc 89 26 0b bc
       -0.06819187 -0.024076387 -0.014283725 -0.008493074
000030 98 34 83 bd 91 e6 8b 3d cc 3a ad 3c 22 96 b4 3d
       -0.06406516 0.068310864 0.0211462 0.08817698
000040 d1 c7 af bd 41 80 52 3b a6 1c 0f bd c0 2b 6a 3d
       -0.08583034 0.0032119902 -0.03493943 0.05717063
000050 ea 7f a1 3b 8a 50 96 bd b0 37 9d 3d 85 5c e3 bb
       0.0049285786 -0.0733958 0.07676637 -0.0069385194
000060 9f f0 7b 3d 79 22 8f 3d b2 c9 5a 3d 3a 82 b4 3d
       0.06150877 0.06988997 0.053415008 0.08813901
000070 dc 57 a9 bd 26 36 61 3d 99 6b 66 3d c6 92 5a b9
       -0.08268711 0.05498328 0.056254957 -0.00020844777
000080 27 ae 5e 3c aa 46 d7 bb 25 78 9e 3d 64 eb 76 bd
       0.013591326 -0.006569703 0.077377595 -0.06028308
000090 61 0a 58 bd 6e cf 85 bd c4 cb 6a 3d f1 7c 06 bd
       -0.052744273 -0.06533705 0.057323232 -0.032833997
0000a0 78 29 b2 3c b2 04 90 bd bd f5 ac 3d 85 5b a0 3d
       0.02174829 -0.070321456 0.08445308 0.07829956
0000b0 28 ba c8 3a ea 31 42 bd 77 63 a7 bc f9 3a a9 bc
       0.0015314268 -0.047410883 -0.02043317 -0.020658003
0000c0 3f d6 88 bb fe 97 a9 3d e3 22 d3 bb 09 f2 0e bd
       -0.0041759307 0.08280943 -0.006443368 -0.03489879
0000d0 ad 33 76 3d 57 9b 83 bb be a0 46 3d 4a ad 83 3d
       0.060107876 -0.0040163207 0.04849314 0.06429537
0000e0 a1 57 54 3d 74 bf 8e 3d ab ae e1 bc 09 ee 90 bd
       0.051841382 0.069701105 -0.027549108 -0.070766516
0000f0 e0 14 0a bd a4 81 88 bd 6c cb 98 3c 15 3d 36 3d
       -0.033711314 -0.06665352 0.018651687 0.044491846
000100 1f 51 98 3d e1 a2 ca bc 99 97 c8 3b dd 2d 15 bc
       0.074373476 -0.02473587 0.0061215875 -0.009105173
000110 ae b3 96 bc ff 42 82 3d 61 18 4d 3d 4f 5b eb 3c
       -0.018396225 0.06360435 0.050072078 0.028730063
000120 5b 97 2c 3d 00 cf a5 bd 25 7b 79 bd 54 3c 96 3d
       0.04213653 -0.08096123 -0.060908455 0.073357254
000130 86 f9 7c 3d ff 15 96 bd c5 ca e2 bb 12 f1 94 bd
       0.0617614 -0.07328414 -0.0069211447 -0.07272543
000140 88 02 95 3c cc 7c 8e 3d dd 36 0e 3d 96 c5 b6 bc
       0.018189684 0.06957397 0.03472029 -0.022311013
000150 7e 6b 82 bd a5 f3 6d bd 4e be 06 bc 85 3f a7 bd
       -0.06368159 -0.058093686 -0.008224083 -0.08166412
000160 11 0c f4 bc e0 2d 04 3d 75 ed 56 3d 29 38 76 3d
       -0.02979091 0.032270312 0.05247255 0.060112152
000170 93 7a 24 bd ce 3b ad 3d 44 79 59 bd 8a 74 18 3c
       -0.04015596 0.084586725 -0.053094164 0.009305129
000180 c1 f7 a3 3d 61 6c 73 3d 8f 88 4a 3d 66 be 6a bc
       0.0800624 0.05942953 0.04944664 -0.014327621
000190 a9 8f 2f bd 06 3f 1b 3c c1 0a 1b 3d 07 57 59 bd
       -0.042861614 0.009475475 0.037852053 -0.05306151
0001a0 51 c2 14 3d 0d 69 97 bd 02 4b b2 3d b8 5a 1a 3d
       0.036318127 -0.07393084 0.08705713 0.037684172
0001b0 59 f1 69 bd c4 59 d1 3c 34 29 0a 3d 40 06 55 bd
       -0.057114933 0.025555499 0.0337307 -0.052007914
0001c0 90 99 22 bd 24 fa 28 3b f7 22 f7 ba 11 b5 6f bc
       -0.03969723 0.002578386 -0.0018855025 -0.014630572
0001d0 63 e1 79 3c 6b 8d 96 bd 81 24 a3 3d f3 a4 38 3d
       0.01525149 -0.07351192 0.07965947 0.045079183
0001e0 7f 1d 05 3d 2a 18 e1 bb 9a db a0 3b 65 6d 94 bd
       0.032498833 -0.0068693357 0.004908991 -0.07247428
0001f0 18 04 a5 3d b3 f8 ad bc 78 4d 14 bd 9f dc 84 bd
       0.080574214 -0.021236753 -0.036206692 -0.06487393
000200 59 7a 4d 3d 07 2f 10 3d 5c 00 92 3d 86 a5 60 bc
       0.050165508 0.0352011 0.07128975 -0.013711339
000210 c6 9c 5e 3d d8 9c 9c 3c b5 6b 8f bd 35 53 89 3d
       0.05434873 0.019117758 -0.07002965 0.067053236
000220 bb 9a 77 bd aa 69 8c bc ea 66 6c bd e0 c3 a8 bd
       -0.060450297 -0.017140228 -0.057715334 -0.08240485
000230 a0 f9 b0 bd 51 67 8d bd c9 54 31 3c ac 55 ca bc
       -0.08641362 -0.06904472 0.010823437 -0.024699055
000240 6b fc 97 bd 4a 92 75 bd 10 31 6c bd e6 f1 54 bd
       -0.07421192 -0.059953965 -0.057663977 -0.051988505
000250 86 22 59 bd 06 39 65 bb f0 69 86 ba 20 5a 30 bd
       -0.05301144 -0.0034976616 -0.001025496 -0.0430547
000260 68 f8 a7 3d 80 82 08 3d a8 96 4a 3d d6 ae aa 3d
       0.082016766 0.03332758 0.049460083 0.083341286
000270 74 8c 19 bd b2 cf 73 3c 56 08 92 3d d4 15 79 bd
       -0.037487462 0.014881061 0.07130496 -0.060811833
000280 5f fb 4b 3d 9d f2 a1 bd 43 6d 91 3b 8f 1f 0a bd
       0.049800273 -0.07907603 0.004438074 -0.033721503
000290 ab a3 a3 3d ef b1 a8 bd 62 cb a4 3c a4 fc 99 3d
       0.079902016 -0.08237063 0.020116512 0.075188905
0002a0 b4 15 7e bd 58 bc 4c 3d 08 cc 2f 3d d8 3c bb bc
       -0.062032416 0.049984306 0.04291919 -0.022856161
0002b0 0f 62 2a bc d2 36 14 3d 5e d2 28 bc d2 92 82 3d
       -0.010399356 0.036185093 -0.010304062 0.0637566
0002c0 77 20 c9 bc 10 48 54 3d 98 7d 3c bd 3e 38 34 bb
       -0.024551613 0.051826537 -0.046018213 -0.0027499343
0002d0 1b 6b 61 3d f8 eb c7 bc 98 64 92 3d 4c be 59 3d
       0.055033784 -0.02440451 0.07148093 0.053159997
0002e0 2c 48 13 3c 91 d3 89 3a 3e ab 8d bc 07 50 99 bc
       0.008989375 0.0010515322 -0.017293569 -0.018714918
0002f0 e1 c9 00 bd 37 6c 4f 3d 44 1f fd 3c 8d c8 57 bd
       -0.031442527 0.05064031 0.030898698 -0.052681495
000300 ad 13 b0 3d 21 21 49 3c 2c b4 32 3c 2e ba 50 bd
       0.08597503 0.012275965 0.010907214 -0.050958805
000310 11 04 fc 3a db ad ba 3c 22 fa 85 3d 91 fb 80 3c
       0.0019227286 0.022787979 0.0654185 0.015744956
000320 a8 2a 2b 3d 94 c2 56 3d 00 cf 80 bd 2d 17 f5 bb
       0.041788727 0.052431658 -0.06289482 -0.0074795694
000330 7c 59 aa bb e9 f8 d1 bc 0c 48 1a bd 4f 38 88 bd
       -0.0051986557 -0.025631385 -0.037666366 -0.06651365
000340 2e e3 8f 3d 85 19 09 3d 1e e2 ae 3d d7 06 0d 3c
       0.07025753 0.033471603 0.08539222 0.008607588
000350 34 92 ab bd b1 d3 b9 3c 41 87 1c bd 3e 0a 70 3d
       -0.083774954 0.02268395 -0.038214926 0.058603518
000360 89 a6 5f 3d 52 f8 e9 3c 73 95 40 3d ee a1 28 bc
       0.05460218 0.028560791 0.047017526 -0.010292513
000370 0b 62 98 3c b0 75 16 3d d3 5f 50 3c 53 f9 0a bd
       0.018601438 0.03673333 0.012718159 -0.03392918
000380 79 da 1c bc bd 06 9c bc 3f e8 f7 b9 d9 25 a1 bc
       -0.009573572 -0.019046182 -0.00047284548 -0.019671367
000390 7c 40 a8 3d 09 ad b2 3c fa 14 16 3d 34 4a aa 3d
       0.082154244 0.021811025 0.0366411 0.083149344
0003a0 06 78 84 bd 70 14 16 bd c3 8e 86 bd 6d 50 15 bd
       -0.06468205 -0.036640584 -0.065701984 -0.036453653
0003b0 a7 1c 5e bd 96 06 ac bc 17 38 d9 bc 57 0a c2 bc
       -0.054226544 -0.020999234 -0.026516004 -0.023686571
0003c0 d7 dd 12 3c 61 a4 46 3c 42 40 87 3d 06 22 27 bd
       0.008964024 0.012124152 0.06604053 -0.04080393
0003d0 9f 51 8e bd 99 56 22 bd 39 c7 fd bc 8b 73 2b 3d
       -0.06949162 -0.039633367 -0.030978786 0.041858237
0003e0 32 e3 4d 3d 80 d7 81 3d a5 99 49 bd c7 0d dd bc
       0.0502655 0.063399315 -0.049218792 -0.026984109
0003f0 7c f7 a5 bc 25 1d 6c 3d 4d 52 b7 bc 3d d2 92 bc
       -0.020259611 0.057644982 -0.022378111 -0.017922515

lstm.weight_ih_l1 f4 [512, 128]
000000 c0 f4 af bd cc af b2 3a 7b a0 8e 3d 72 26 2f 3d
       -0.08591604 0.0013632714 0.06964203 0.042761274
000010 2b 17 22 3d 5a 17 ab bd b6 b1 a6 bd c2 8c 85 bd
       0.039572876 -0.08354063 -0.081393644 -0.06520988
000020 47 2b 96 bd 11 8f 33 3b 34 22 99 bd cf 62 f6 3b
       -0.07332473 0.0027398507 -0.07477227 0.007519103
000030 4a e9 ee bc 06 fd b3 bb be b4 8a 3d d3 95 32 3d
       -0.029163975 -0.005492809 0.06772755 0.043599915
000040 95 b6 77 3d 8d 40 92 bc e2 0a 48 3d 39 7b c8 bc
       0.06047686 -0.017853046 0.048838504 -0.02447282
000050 f8 14 8a bd 19 5c 29 bd 72 91 82 bc 7e 52 60 3d
       -0.06742281 -0.041347597 -0.015938494 0.05476617
000060 97 46 a6 bc ae 8b 6b bd c4 c0 3b 3d 4a f4 0e bd
       -0.020297332 -0.057506256 0.045838133 -0.03490094
000070 2d 6c b1 bd 5c e5 2e bd b8 76 99 3c c3 63 99 bd
       -0.08663211 -0.042699203 0.018733367 -0.07489731
000080 d4 0f a6 3d e1 e8 2b bd 4e 4f 53 bc d5 db 6c bd
       0.08108488 -0.041970138 -0.012897326 -0.057826836
000090 67 2d 17 3d d6 7f 6b 3c 01 93 98 3d 6c 9d 5a bd
       0.036908533 0.01437374 0.07449914 -0.053372785
0000a0 bb ef 4e 3a 08 ae 8b bd 47 e4 2e 3d 4e 24 b4 bd
       0.0007893999 -0.06820303 0.04269817 -0.08795987
0000b0 be 19 61 bd 74 a8 2f 3a 47 9a 4b bd 24 19 58 bd
       -0.05495619 0.00067008217 -0.049707677 -0.05275835
0000c0 03 75 9c bd 6d 33 27 bc ff d6 93 3d 88 09 a7 bd
       -0.07639506 -0.010205132 0.072187416 -0.08156115
0000d0 85 98 9e 3d 6a 18 79 3d 36 43 69 3c f1 37 11 3d
       0.077439345 0.0608143 0.014237216 0.03545374
0000e0 c3 fa 96 3d 6f 54 95 bd f8 a8 19 3d e1 ac 08 bd
       0.07372048 -0.07291495 0.037514657 -0.033367995
0000f0 98 42 ad 3d d2 c7 62 bd 4f 84 61 3c a5 88 94 3c
       0.084599674 -0.055366345 0.013764455 0.018131563
000100 d9 63 26 3c 2c 3c 82 bb 05 f9 a7 bb 8e 13 72 bd
       0.0101556415 -0.003974458 -0.005126121 -0.05910068
000110 e8 5a 8d 3d bd d8 cc 3c 16 cb 52 bd 61 45 6f bd
       0.069021046 0.025005693 -0.05146321 -0.058415774
000120 d8 4c 4e bd 7c 92 3b 3d a8 5f 83 3d 4f b3 7e bd
       -0.050366253 0.045793995 0.06414729 -0.06218272
000130 91 da af 3d 59 1c 42 bd b1 1e a2 bd 8c 56 19 3d
       0.0858661 -0.047390316 -0.0791601 0.037436053
000140 cb b5 4c 3d 5d e2 3d 3d 04 54 1d 3d 26 a3 a3 3d
       0.04997806 0.046358455 0.0384102 0.079901025
000150 38 69 ed 3c 71 79 a6 3d e3 8f 50 3d 33 5e 9c 3c
       0.028980836 0.08128632 0.05091847 0.019087886
000160 2b c0 fa bc 59 3f fd 3b d2 44 a4 bd 45 85 a5 bd
       -0.030609211 0.007728499 -0.08020939 -0.0808206
000170 97 2f 5a 3d a4 68 15 bd 8b 11 55 bd f6 28 60 bd
       0.05326804 -0.036476746 -0.052018683 -0.054726563
000180 7d 44 22 3d 4d a6 a0 bd 1f 30 25 bd 84 dd b1 3d
       0.039616097 -0.07844219 -0.040329095 0.08684829
000190 13 13 23 3d ae eb b1 bd f6 c6 b5 bb 49 d9 9b bc
       0.039813112 -0.086875305 -0.0055473996 -0.019024508
0001a0 a1 bb 26 3d d1 50 ff bc df a6 ed 3c 5d 33 6a bd
       0.04070628 -0.031166466 0.029010234 -0.05717789
0001b0 21 d3 88 bd c5 85 6d bd 71 75 16 3d e5 04 31 bd
       -0.06680895 -0.0579889 0.036733095 -0.04321756
0001c0 05 8c e5 3b ba 71 02 bd 42 87 58 bd e0 08 a7 3d
       0.007005217 -0.03184674 -0.052863367 0.0815599
0001d0 c9 9e 14 bd 23 bb 2b 3d 60 d2 63 bd f6 77 92 bd
       -0.03628424 0.041926514 -0.05562055 -0.07151787
0001e0 ef b3 ad 3c bc 45 12 3d c9 37 04 b9 94 fd 02 3d
       0.021203963 0.035711035 -0.00012609283 0.031980112
0001f0 1f ce ce 3c cf 43 23 bd 1b 31 0a 3d df 1f 79 bd
       0.02524477 -0.03985959 0.033738237 -0.06082141
000200 65 5e 82 3d c9 9c 75 bd ea a2 30 3d 3a 21 30 bd
       0.063656606 -0.059963975 0.043124117 -0.043000437
000210 3d 4b 01 3d 8c 43 ac 3d 0e 4d a7 3d 62 9e a5 bd
       0.031565893 0.08411321 0.08168994 -0.0808685
000220 e2 fa 99 bd 6b b4 1f bd f1 6f 27 bd c9 5e fa bc
       -0.07518555 -0.03899042 -0.04087824 -0.030562775
000230 76 71 17 3d b1 4c 43 3d c5 76 7d bb a5 3a 4a 3b
       0.03697344 0.04768056 -0.0038675528 0.0030857709
000240 76 de af bc be 85 86 bd 76 0a c8 3c 91 53 0c 3d
       -0.021468382 -0.06568478 0.02441905 0.034259383
000250 64 7f aa 3d ed f0 e3 bc a5 bd 0e 3c 55 5b b4 3b
       0.08325079 -0.027824843 0.008712207 0.0055040517
000260 d5 99 9f 3d 56 ba a8 bd 0d ec a4 3d f0 3c 3a 3d
       0.07793013 -0.08238666 0.080528356 0.04546827
000270 5d db a5 3d c8 46 47 bd 1f 26 eb 3b 96 8e a1 3d
       0.08098481 -0.048651487 0.0071761752 0.07888524
000280 dd 45 43 bd 15 24 a0 bc 62 f6 96 3d 95 1a a4 bc
       -0.04767405 -0.019548455 0.073712125 -0.020032207
000290 f2 d6 af bb 06 5b 81 bd ff 01 10 bd 45 62 0e bd
       -0.0053661996 -0.063161895 -0.035158154 -0.034761686
0002a0 c8 19 08 3d 72 f1 a3 bd 1e 00 49 bd ed 3b af bd
       0.033227712 -0.080050364 -0.049072377 -0.08556352
0002b0 c5 f3 64 bc 94 30 bc bc 04 62 b2 3b 11 2a b3 3d
       -0.013974135 -0.022972383 0.0054438133 0.08748258
0002c0 4b 04 cd bc 25 68 f8 bc f3 c7 58 3d a0 f8 af bb
       -0.025026461 -0.030323097 0.05292506 -0.0053702146
0002d0 51 35 7d 3d 93 2b 8b 3b 5e 83 9e bd d2 eb b9 3c
       0.061818425 0.004247138 -0.077399 0.022695456
0002e0 f7 ec 66 3d 79 ee 94 3d 5f 74 2d 3d 8a 95 03 3d
       0.05637833 0.072720475 0.04234731 0.032125033
0002f0 29 50 ae 3c 4d bc d4 ba 52 13 01 3c 78 fe 0b 3d
       0.021278458 -0.0016230434 0.0078781415 0.034178227
000300 f2 6d bf bc 9a 3c 37 3d 81 2c b5 bc 50 1c b2 3d
       -0.023367856 0.04473553 -0.022115948 0.086968064
000310 42 32 af bd c9 ec 17 bd 12 85 58 bd 73 a0 30 3d
       -0.08554508 -0.03709105 -0.05286128 0.043121766
000320 de 4c ae 3c 0a 92 87 bb 9f 35 19 3d 90 8d b4 bd
       0.021276888 -0.0041372823 0.037404653 -0.088160634
000330 4b 72 03 3d 57 42 a3 3b e0 89 31 3d c0 29 1e 3d
       0.03209142 0.0049822736 0.04334438 0.038614035
000340 48 e1 a4 3d 6d ca 0e 3d de 56 9e bd 89 0e 3a bb
       0.080507815 0.034861017 -0.07731412 -0.0028390011
000350 35 c9 a4 3d e7 c8 cf bb dd 1c 0e 3d 37 1b e9 3a
       0.0804619 -0.006341088 0.034695495 0.00177846
000360 59 3d 7d 3d cd e0 a2 bd 29 f5 d8 3c 4b dd 80 bd
       0.061826084 -0.079530336 0.026484089 -0.06292208
000370 63 f5 90 bd e4 9e 65 3d 06 7a 5c 3d c7 7e 34 3c
       -0.07078054 0.056059733 0.053827308 0.011016554
000380 1a 09 07 3d 6e 91 72 bd 8d c8 a0 3c fb 5e 16 3d
       0.032967664 -0.059220724 0.01962688 0.036711674
000390 79 f8 cc bc 1e f8 3b bc 77 37 92 3d 54 62 29 bd
       -0.025020825 -0.01147273 0.07139485 -0.04135354
0003a0 94 a1 1b 3d 83 3e 2d 3d 55 ad 45 3c 22 f9 b3 3c
       0.03799589 0.042295944 0.012065251 0.021969382
0003b0 32 94 65 3d 0e 9c 45 3c b8 3b 3b 3d 6e f1 ad 3d
       0.056049533 0.012061132 0.04571125 0.08493315
0003c0 98 0d 5e bd e9 4b 64 bd 41 16 a8 bc b9 4e 8f bd
       -0.054212183 -0.055736456 -0.020518424 -0.06997437
0003d0 5f 7e 70 3a 6b aa 1b bb b7 4e b4 bd 8e 9f b2 bc
       0.0009174104 -0.00237527 -0.08804076 -0.021804597
0003e0 0f 97 97 bc bb 37 82 bd bb 53 6d 3d c5 c0 47 bd
       -0.018504648 -0.06358286 0.05794118 -0.048767824
0003f0 e2 2f 88 3d d0 d7 04 bd 47 58 07 3c 55 ba 9d bd
       0.06649758 -0.032432377 0.008260793 -0.07701556

lstm.weight_hh_l1 f4 [512, 128]
000000 4c d2 5f bd 5a 34 17 3d 49 21 81 3d a3 5a 66 3d
       -0.054643914 0.03691516 0.06305177 0.05623878
000010 d3 9c 2e 3d 28 56 5b 3d b2 67 a4 bd 67 39 e4 3b
       0.042630028 0.053548962 -0.08027591 0.0069648507
000020 48 e6 ac bd b1 4e b4 3d c3 76 a6 bb ed 53 76 3d
       -0.0844236 0.08804072 -0.0050800755 0.06013863
000030 0f 54 8f bc 33 c5 b2 3d 5b 98 36 3d c2 1a 2b bd
       -0.017496137 0.08729019 0.04457889 -0.041773565
000040 a5 0f 1c 3d 35 55 54 3d 00 75 57 3d 85 d9 f9 bc
       0.038100857 0.051839072 0.052601814 -0.03049923
000050 1f 53 99 bc 07 95 08 bd 1e ae 2a 3d f3 6a f4 bc
       -0.018716393 -0.03334525 0.041669957 -0.029836154
000060 ed 01 5a bd fc 7b 46 bd 1f 34 34 bd 9f 96 14 bd
       -0.053224493 -0.048458084 -0.04399502 -0.036276456
000070 40 35 d7 3b 91 58 6b 3d 16 85 b6 3c 44 ae a7 bc
       0.006567627 0.05745751 0.022280257 -0.020468839
000080 65 5d f6 3c b0 7d 39 bd f9 5d 38 3d b7 08 a9 bd
       0.03007383 -0.04528588 0.045011494 -0.08253615
000090 2c b8 08 3d 64 df 1e 3d f9 69 a9 bd d6 d9 5a 3b
       0.033378765 0.03878726 -0.08272166 0.0033394
0000a0 5a ad a1 bd 2f 41 3e 3d 46 55 e3 3c 18 db 82 bc
       -0.07894392 0.046448883 0.027750622 -0.015973613
0000b0 83 48 35 3d 48 1d b2 3d d2 29 af 3d 74 3f e9 bb
       0.044258606 0.08696991 0.085528985 -0.00711816
0000c0 7b 31 75 3d d8 98 40 bd 2a 2c ae bd 32 5a 01 bd
       0.05986164 -0.047020763 -0.085045174 -0.031580158
0000d0 81 fa 2a bd 82 81 14 bd ee 55 36 3c 88 a3 bb 3a
       -0.041742805 -0.03625632 0.011128886 0.0014315704
0000e0 dd f2 0c 3d e1 e7 7e bc 5e 21 a5 bd 7c a6 06 3d
       0.0344113 -0.015558214 -0.08063005 0.032873616
0000f0 2b 49 5e bd 29 2f f3 bc 73 af a2 bd 8b 14 8c 3d
       -0.054268997 -0.029685574 -0.079436205 0.06839856
000100 e3 a8 df 3c 9f 64 08 bc 93 fa b6 bc f6 dc ac bd
       0.027302211 -0.008324771 -0.02233628 -0.084405825
000110 41 ab 06 bc dc fc 58 3d 36 15 35 ba f2 8c 7f 3d
       -0.008219541 0.05297552 -0.0006907763 0.062390275
000120 11 63 45 3d ba 39 ae bd b6 a4 a5 bd 17 84 b6 3c
       0.04819018 -0.08507104 -0.08088057 0.022279782
000130 35 eb 08 3d 12 85 a2 bd 24 07 56 3d f6 03 1f bb
       0.033427436 -0.079355374 0.052252904 -0.0024263836
000140 81 da ff 3c 74 99 65 3d 7d f2 92 bd 07 ae 94 3d
       0.03123212 0.056054547 -0.07175157 0.072597556
000150 72 7c 08 bd a5 58 91 3d 9e a4 10 3c d5 8c 98 3d
       -0.033321805 0.07096986 0.00882831 0.074487366
000160 b7 ef 8a bc 48 66 0c 3d 53 95 47 bd 0a c0 90 3c
       -0.016960008 0.03427723 -0.04872639 0.017669696
000170 4c 41 9c bd 12 06 ba bc 8d 9a 81 3d 7a 6a 3d 3d
       -0.07629642 -0.022707973 0.06328306 0.046244122
000180 69 5f 5c bc 3c 35 3b bd 75 a6 af 3d 43 c7 ae 3d
       -0.013450482 -0.045705065 0.08576671 0.085341
000190 93 a3 26 3c 47 4c 74 bd a5 45 be bc 4d ea 66 3b
       0.010170835 -0.059643056 -0.023226568 0.003523487
0001a0 7e ee 59 bd 43 16 33 bd 89 1d bb 3a c2 8d 5c bd
       -0.05320596 -0.043722402 0.001427577 -0.05384613
0001b0 0e 94 c5 3a a2 13 24 3d 64 3b 30 bd 06 3e 29 3c
       0.0015074031 0.040057786 -0.04302539 0.010329729
0001c0 d0 07 f2 3c 82 c6 6a bd c4 af b0 bd 7f a2 ba ba
       0.02954474 -0.057318218 -0.08627275 -0.0014239101
0001d0 f7 5a 7a bc 24 95 51 3d d0 1e a2 bc 35 81 1f bc
       -0.015280477 0.051167622 -0.019790083 -0.009735395
0001e0 1c 6d ae 3d 12 e0 38 3c 0d 08 b8 3b 49 ee 4a bd
       0.08516905 0.011283891 0.005616194 -0.049543653
0001f0 c7 ba 56 3d f0 04 24 bd f3 69 73 bd 50 9c a0 bc
       0.05242422 -0.04004377 -0.059427213 -0.019605786
000200 ee f8 a6 bd fb a6 30 bd 58 da 65 bd fe 72 0f 3d
       -0.08152948 -0.043127995 -0.056116432 0.035021774
000210 ad e8 fe bb fc 02 e7 3c e6 9f 8a 3c 5c 32 59 bd
       -0.007779202 0.028199665 0.016921949 -0.053026542
000220 3a 55 9b bd 4a 75 18 3c a1 28 49 3d 08 2d f9 3c
       -0.07584615 0.009305308 0.049111012 0.03041698
000230 84 1b 5e bb 1a 4a ee b9 9d 60 f3 bc 0b b9 b9 bc
       -0.0033890912 -0.00045450107 -0.029709155 -0.022671243
000240 e6 5c 52 bc 7c 8c e5 bc d6 be c5 3c e2 79 f1 bc
       -0.0128395315 -0.02802109 0.02413885 -0.029477064
000250 57 c5 82 3d 62 a7 5b bd 40 82 76 3d 38 24 76 3d
       0.06385296 -0.053626426 0.06018281 0.060093135
000260 6a f6 b3 3c 01 08 2e 3d 16 2c 78 3c b5 72 82 3b
       0.021968085 0.042488102 0.01514723 0.0039809593
000270 3e d3 75 bd bd 0c 85 3d db 88 89 bc 5d 88 69 3d
       -0.06001591 0.0649657 -0.01678889 0.05701481
000280 17 f4 9f bd c7 4d e8 3c bf cc 25 bc d3 6f 9c 3d
       -0.07810228 0.0283574 -0.010119616 0.07638516
000290 af 6c 0f bd 8e 9e 55 3d 94 b1 62 3d 5f 6d cc bc
       -0.035015758 0.052153163 0.055345133 -0.024954496
0002a0 b3 4f 34 3d 9d 73 8e bd 1f ad 54 bd 81 ff aa bd
       0.04402132 -0.06955645 -0.051922914 -0.08349515
0002b0 08 ab 13 3d 7d 6e 15 3d f3 50 c4 bc 08 8b 4d 3d
       0.03605178 0.036482323 -0.02396438 0.05018142
0002c0 a0 ca 49 bd de 4d 57 3d e7 d3 6b bd 21 99 55 bd
       -0.049265504 0.052564494 -0.057575133 -0.05214799
0002d0 4c 22 81 3d 51 9e b0 3d b3 f8 68 3c d7 9f 39 3d
       0.0630537 0.086239465 0.014219451 0.04531845
0002e0 7d 26 a6 3d 8b 29 3d 3d 95 7a 5d 3d 5f 9a 90 3d
       0.0811281 0.046182197 0.05407198 0.07060694
0002f0 c4 9d 8b 3d 29 62 b0 bd 5d 16 ac bd ef 37 91 3d
       0.06817201 -0.086124726 -0.08402703 0.070907466
000300 99 20 c9 bc 81 4c 8f 3d d7 7f 2f 3c cd c8 2e 3d
       -0.024551677 0.06997014 0.010711632 0.042671967
000310 0f 65 6c 3d 9a 6a 32 3d 71 c4 44 3d 2e de 9d bc
       0.057713564 0.043558694 0.048038904 -0.019270983
000320 f7 f6 c4 3c b5 a8 38 bd 1e c5 3b 3c ee f7 a0 bd
       0.024043543 -0.045082767 0.011460571 -0.07859789
000330 27 ca 93 3d 34 1b 96 3d c4 6c da 3c c0 2f 89 3d
       0.07216292 0.07329407 0.026663192 0.06698561
000340 94 64 15 3a b5 5d 2e bb 17 17 f4 bc 02 26 83 3d
       0.0005698886 -0.0026606147 -0.029796166 0.06403734
000350 01 58 a4 3d db 8e 5b 3d 0b 51 04 bd 43 ce 83 bd
       0.08024598 0.053603034 -0.03230385 -0.06435826
000360 70 3d 16 bd b2 7c 82 bd 27 e3 38 bd e8 86 eb 3b
       -0.036679685 -0.0637144 -0.045138504 0.007187713
000370 f1 e3 9d bd 2a f2 8f bc 8b 7c 96 3d 6f 32 86 bd
       -0.07709492 -0.017571528 0.073479734 -0.06552588
000380 c0 10 91 bd 12 13 92 bd 15 a5 12 bd 9f 98 be bc
       -0.07083273 -0.071325436 -0.035801966 -0.023266135
000390 77 25 9f 3d ee 9f 80 3b 6f 94 05 3c c4 91 2a bd
       0.07770818 0.003925315 0.008153065 -0.04164292
0003a0 a8 b9 16 bd 1a 77 0f 3d 41 48 82 bd a2 67 68 3d
       -0.03679815 0.035025693 -0.063614376 0.056739457
0003b0 e6 5b 90 3d be e3 97 bd 95 46 73 3d 84 56 1f 3b
       0.07048778 -0.07416485 0.059393484 0.0024313042
0003c0 4b 82 68 3d ca 42 20 bd e9 74 51 bd b8 a8 85 3c
       0.056764882 -0.039126195 -0.051136885 0.016315803
0003d0 d7 16 e9 bc 93 27 4c 3d 32 21 0c 3d af 9c 30 3d
       -0.028453274 0.04984243 0.034211345 0.043118175
0003e0 b0 9f 43 3d 1a aa 31 bd fc ce 78 bd 6c 7e b4 bc
       0.04775971 -0.043375112 -0.06074427 -0.022032939
0003f0 56 32 f4 bb dc 4f 39 bd 67 25 99 3c 3d 93 34 3d
       -0.0074522896 -0.045242175 0.018694593 0.04408573

lstm.bias_ih_l1 f4 [512]
000000 1c d6 6c 3d b1 08 44 3c 8a 34 fe bb 11 0a 24 3d
       0.057821378 0.011964963 -0.007757728 0.040048663
000010 08 f0 82 bd 15 05 09 3d c2 aa 99 bd 33 ce cc ba
       -0.063934386 0.033452112 -0.075032726 -0.0015625417
000020 9f 1f 5b 3d aa 25 cc 3c 38 f1 7b 3d bb a9 a7 bd
       0.053496953 0.024920303 0.06150934 -0.081866704
000030 8b 99 37 bd b1 97 ba 3c 88 3a 87 3d b5 67 4f bd
       -0.044824164 0.02277741 0.06602961 -0.050636012
000040 19 f0 7e bd b7 18 85 3c cb ef 97 bd 4a b5 9d bd
       -0.062240694 0.016247137 -0.07418784 -0.07700594
000050 46 83 88 bc d8 f5 13 bd 8a fd a9 3c 78 d2 49 3d
       -0.016664159 -0.036123127 0.02075078 0.049272984
000060 88 dc 9b bb 33 ee b1 3d 1b f0 b4 bd a6 a7 c2 3c
       -0.004756514 0.08688011 -0.08834859 0.023761582
000070 c2 da 87 bd a0 0d 56 bd b4 27 e0 3c 13 cd 11 bd
       -0.066335216 -0.052259088 0.027362682 -0.035595965
000080 d7 44 84 bd 46 78 6a bd 44 85 c6 bc 51 ce 83 3c
       -0.06458443 -0.057243608 -0.024233468 0.01608959
000090 3f a0 8b bd 59 87 1f 3c a9 13 5c 3c e5 c5 1f 3d
       -0.06817674 0.009736859 0.013432422 0.039007086
0000a0 c8 d5 ac 3d 8d 4e a5 bc f4 80 f1 3c 59 cd 70 3d
       0.08439213 -0.020179057 0.029480435 0.058789585
0000b0 09 f2 51 3c fd e4 cb 3c f4 be a1 bd 17 d5 a4 bd
       0.012814053 0.024889464 -0.078977495 -0.08048456
0000c0 c8 c3 a0 3c c9 a3 c1 3c 5f 49 97 bd 93 cd af bd
       0.019624606 0.02363767 -0.07387041 -0.08584132
0000d0 d8 dc 89 bd 40 fa 8c 3d de a0 a3 bd 16 b7 3d bd
       -0.06731576 0.06883669 -0.07989667 -0.046317182
0000e0 38 c7 a9 bd 44 e9 3e 3d 91 34 16 3d 42 ee 29 3d
       -0.08289951 0.04660918 0.036671225 0.041486986
0000f0 a0 4b c0 3b be 1e 5e bd 4c 8d 94 bd cb 53 74 3c
       0.00586839 -0.054228537 -0.07253513 0.014912556
000100 8b 66 50 3d 92 20 33 bd dd c6 dd bc db f3 43 3d
       0.050879043 -0.043732233 -0.027072364 0.04783998
000110 54 f8 50 3d f6 92 b0 bd 45 a0 87 bd 94 02 58 3b
       0.051018074 -0.086217806 -0.06622366 0.003296052
000120 91 e8 b2 bc 76 ef a8 bd 1e 2d c7 ba a3 9e 28 3d
       -0.021839412 -0.082487985 -0.0015195941 0.041166913
000130 71 fa 97 3d 03 01 a5 3c c9 7f d3 bb 6d 1e fd 3c
       0.07420815 0.020142084 -0.006454442 0.030898297
000140 5e cb 66 bb ce 75 b2 bd b1 66 29 3d 52 63 30 bd
       -0.003521643 -0.08713876 0.0413577 -0.04306347
000150 40 87 08 bd ab 21 17 bd cf f8 10 3c 4c 08 7f bd
       -0.03333211 -0.036897343 0.008848383 -0.062263772
000160 b3 ad 43 bc 8b 97 8f bd 42 fd b4 3b 2e 6e 30 bc
       -0.011943269 -0.070113264 0.0055233547 -0.010768456
000170 70 12 40 bb c2 e2 82 3d a1 43 0f bd e4 be 06 bd
       -0.0029307865 0.06390907 -0.034976605 -0.03289689
000180 27 72 42 bd 9c e7 87 bd ca 4e 58 bd bb 16 9b 3d
       -0.047472145 -0.06635973 -0.052809514 0.07572695
000190 1a 19 57 bd 95 6a 85 bb ac 0b 23 3d 67 8c 2d bd
       -0.052514173 -0.0040715435 0.039806053 -0.042370226
0001a0 f8 e6 7f 3d e9 2b 88 bd bc bf b1 37 3d 05 a2 bd
       0.06247613 -0.06649 2.1189328e-05 -0.079111554
0001b0 b7 2d ab 3d 8f 5c 1f 3d 61 d3 97 3d 54 ac 5e 3d
       0.08358329 0.03890663 0.07413364 0.054363564
0001c0 e3 fa 12 bd be d6 56 bd 11 94 8f 3d 0f 9b 99 3d
       -0.035883795 -0.052450888 0.07010663 0.07500278
0001d0 53 0d c6 ba b3 fc cf bb c0 fd 97 3d b9 68 9f bb
       -0.0015110172 -0.0063472628 0.07421446 -0.004864779
0001e0 e4 6b c3 bb be 7b 46 bd 0d 97 79 3b bc 41 8d bd
       -0.0059637893 -0.048457853 0.0038084418 -0.068973035
0001f0 09 93 63 bd 14 d0 95 3d 87 9e 56 bd fc 4e b7 3c
       -0.055560146 0.073150784 -0.052397277 0.02237653
000200 69 29 f4 3b 39 1f 8b 3d d9 43 8c bd 93 22 7a bd
       0.0074512255 0.067930646 -0.068488784 -0.06106813
000210 70 81 81 bd 36 8f c6 bc 83 17 7c bb 77 ff f8 bc
       -0.06323516 -0.02423821 -0.0038466163 -0.030395253
000220 b5 88 0a bd 7a 36 44 bd a1 85 88 bd be ec a1 bc
       -0.03382178 -0.047903515 -0.06666113 -0.019766208
000230 42 9f 82 3d 9b 42 6f 3d 8f 83 9d 3b ee f9 39 bd
       0.06378032 0.05841313 0.004806943 -0.045404367
000240 e0 c9 a3 bd e4 1a 8e 3d fe 09 6f bd 99 6f 4d bb
       -0.07997489 0.06938723 -0.05835914 -0.0031347035
000250 2e 6b fb bc 73 6e 96 ba 23 a5 60 3d 2c bd a3 3d
       -0.030690756 -0.0011477008 0.054844987 0.07995066
000260 6d a9 66 3b 76 d4 64 bd 56 84 31 bb 4c 3e c5 bc
       0.00351962 -0.05586668 -0.0027086935 -0.024077557
000270 b5 b4 16 bd 37 b6 b2 3d 06 60 5f bd 98 e7 f9 3c
       -0.03679343 0.08726161 -0.054534934 0.03050594
000280 3c 92 10 bc 4b 96 b7 3c 77 0a 69 bd 4f c9 a3 3d
       -0.0088239275 0.022410532 -0.056894746 0.07997381
000290 56 5f a1 3d 9a e5 2e bd ff 0d 6a bd 23 21 9d bc
       0.07879512 -0.042699434 -0.057142254 -0.01918084
0002a0 e7 fb 90 bd d1 7e 6b 3c 4f bc 2d 3b 3b 32 34 3c
       -0.070792966 0.014373497 0.0026509946 0.010998304
0002b0 9f d5 09 3d 2f 19 86 bd 44 85 a0 3c 58 6a c3 3c
       0.03365099 -0.06547772 0.019594796 0.02385442
0002c0 3f 83 bb bc 28 39 56 bd 87 03 56 bd c0 48 8f bd
       -0.022889731 -0.052300602 -0.052249458 -0.06996298
0002d0 b0 c5 3e bd e4 3f 6e 3d e9 e5 91 3d dd 76 b1 3d
       -0.04657525 0.0581664 0.0712393 0.086652495
0002e0 a4 82 56 bd e5 44 cb 3c c7 82 3e 3d 46 31 7f 3d
       -0.052370682 0.024813125 0.046511438 0.06230285
0002f0 d0 15 00 3d 0d a4 7e bd 3c e8 62 bd 16 f3 29 bc
       0.031270802 -0.06216817 -0.055397257 -0.010372898
000300 e2 bc 18 3d bf eb c7 3c f7 21 99 bd ae f2 48 bd
       0.037289508 0.024404405 -0.074771814 -0.049059562
000310 a6 73 34 3d 56 14 fb bc 9e 01 fc 3c 84 cd 3b bd
       0.044055603 -0.030649345 0.03076249 -0.04585029
000320 bd 21 4b bc e2 99 df bb 0d 51 df 3c 0a 8d c3 bc
       -0.012398181 -0.006823764 0.027260328 -0.023870964
000330 21 dc d7 bb 41 9c 4f bd 9d 6b 0f bd 72 bc 28 ba
       -0.0065875207 -0.050686125 -0.035014737 -0.0006436772
000340 63 2b 4c 3d fd fc 1c 3d 37 26 dd bc 75 9f b8 bc
       0.049846064 0.038327206 -0.026995761 -0.022536973
000350 63 a1 52 3d 16 a5 db bc 23 c8 de bc ba 01 52 bd
       0.05142344 -0.026812118 -0.027195042 -0.051271178
000360 fe ee 41 3d 82 4d b2 ba 0d 15 a9 3d fe 4b 8e bd
       0.04734706 -0.0013603421 0.08255968 -0.06948088
000370 76 9a 41 bd b8 cb 0e 3d 71 19 e2 3c e8 32 b2 bb
       -0.047266446 0.03486225 0.027600022 -0.0054381974
000380 9a f0 dd 3c c6 20 02 3c 15 b9 4f 3d 18 2a b4 bd
       0.027092267 0.007942384 0.050713617 -0.08797091
000390 8d ff 9c bc 65 32 9c 3d 54 56 8e bd b6 cb 98 3c
       -0.019164825 0.076267995 -0.069500595 0.018651824
0003a0 1c 9f 44 bd c1 51 0e 3d 79 04 aa 3d d3 c5 9d 3d
       -0.0480033 0.034745935 0.08301634 0.077037476
0003b0 bb e5 55 bc e7 78 89 3c 98 da b3 bd 4f 94 e9 bb
       -0.01305526 0.016781284 -0.08781928 -0.0071282755
0003c0 25 f6 ef bc 4b 84 c6 bc 7b 6c f3 bc ce 46 32 bd
       -0.029292176 -0.024233004 -0.029714813 -0.043524556
0003d0 53 9a 89 3d 07 b6 99 bd c5 8f 77 3c 17 7c 04 3d
       0.06718888 -0.07505422 0.015109961 0.032344904
0003e0 37 0a 16 3b e0 d9 55 bd 47 a8 d9 bb 40 c0 bc 3c
       0.0022894272 -0.052209735 -0.0066423747 0.02304089
0003f0 09 fa 94 3d 8d a4 38 3d 11 17 51 bd dc 8b 64 bd
       0.07274253 0.045078803 -0.05104739 -0.055797443
