SimLoan/res/experiments_adj_generation_unfair_decisions_10_steps_2_interventions/LSTM_effort_model_2layers_budget_40_eps_1_b_0_5_v2.pth (torch, 818486 bytes, 12 tensors)

init_interventions f4 [1, 2]
00000000: 36ee 7137 dd96 42b6
1.4420182e-05 -2.8996067e-06

lstm.weight_ih_l0 f4 [512, 9]
00000000: 7c93 99bd 3196 b23d b82c 20bc df35 eabc
00000010: 13de 40bc fa1a 88bc b09f 83bd 979c 9fbc
00000020: 2d28 8cbd cd4a 8e3d df96 ef3c b685 ae3d
00000030: 0c62 b4bd 70c1 17bd c378 4e3d 0e33 3bbb
00000040: ba3c 5b3c ea65 95bd 0d14 7bbd e0a5 a0bd
00000050: dacc a73c b4b5 823d f0e1 313d f2e8 50bd
00000060: 343d 1e3b 8a48 81bd 79e3 89bd cd52 893d
00000070: dec0 2c3d 4f6f 24bd 1066 933d cc51 c9bc
00000080: 2c0d a03d 5bcd 203d e5ee 15bd fb07 3dbd
00000090: 5bfb 563d e99f 9f3d 47ac 8e3d 4640 033c
000000a0: da48 87bd 26b4 0bbd 61b1 97bd 7a3a cabc
000000b0: 384e 973d 4ac0 3fbd c222 543d b13d 71bd
000000c0: fe5f 973d 3869 893d 50d6 733d 2286 5a3d
000000d0: 8eee 513c d395 493d c744 503c 3db8 84bd
000000e0: 0156 b63c d0e0 773d d8dc 9cbd 18cf a9b9
000000f0: b76c 84bd 851f 8abd 0481 3bbc e048 bd3c
00000100: b4ec 3abc 1813 8fbd 7cb6 a3bd 5add a13d
00000110: 84c8 0abd 4f5f 2bbd 1cbc a9bc df48 60bd
00000120: 7d64 d23b 9b52 86bb 38cb f83c d0c7 3bbd
00000130: aff0 9bbd 097d 2d3d 944e 77bc 44c7 8b3d
00000140: 2a1a 7e3d dc27 143d 7af9 66bd 014f b3bd
00000150: 56f4 dabc 536a 383d 6277 8b3d 3a79 5f3d
00000160: d0fb d83c 5233 593d bafa 94bc 3f84 203d
00000170: e2fc 013d fe5c b93c a25b 573d ed2b 80bd
00000180: 11f1 fdbc 2014 823d 78d7 9c3b 3b34 f339
00000190: 375e 14bd ab13 443d b319 05bd b2cc 31bc
000001a0: 6261 9bbd bd23 5e3d c03f 11bd 0d19 883d
000001b0: c088 0fbd e8c1 9e3b ec94 083d 11f3 3f3d
000001c0: 0a4f 893d cb48 97bb 41cb a73d 7d97 833d
000001d0: 5892 60bc 4e51 b43c 11b0 393d b018 aabb
000001e0: 3b4e 15bc 488f 1cbd 1847 5b3d 39bc fb3c
000001f0: 22c5 b23d a48c ed3c b201 96bd c5c7 c6bc
00000200: 6782 a3bd 6750 49bd f822 86bd 118c 25bc
00000210: 4118 4e3d 75da 16bd 029b 4f3d d994 a8bd
00000220: 0b97 3abd 53d8 b3bd ce9a 4abc 4968 943c
00000230: 4ccb d4bc 0016 93bd 781c 4ebd 69f7 5fbd
00000240: a5c3 8b3d 2aa0 31bd 4704 52bd 0a8d 8f3b
00000250: 0cce 11bb 302a 24bd 2246 a83d 9cca d8bc
00000260: 1ac5 3a3c cc13 0bbd f67a 9cbd f50d 1abd
00000270: dd76 3f3b a356 843d 0175 9dbd e89b 8abc
00000280: 242f 87bc 9b02 9ebd adbb fbbc 5e33 933b
00000290: ad6c 823d 905c 223d bab6 b4bd 498c 9bbd
000002a0: e17d a33d eb4e 243d 14fd 883d c989 58bd
000002b0: a691 8f3d 4a09 6d3d 0376 563d dccc 943d
000002c0: c32e 81bd 2318 a0bd 7b1c 4d3d 5a4a d3bc
000002d0: ce21 90bb b44f 53bc 7e84 443d 165b 3ebc
000002e0: a6a7 68bb 286a 373d 8cf0 b33d e00c d33c
000002f0: b71c a63d 456c 4fbc 3248 583d 8915 e1bc
00000300: 3e5f 6abd 3d01 4f3d 8381 afbd 9ca7 4ebd
00000310: 45fc 463d 3843 59bd 4c02 913c 759f 8c3d
00000320: 2aa1 613b 3b74 94bd a7d8 42bb 57b9 303d
00000330: 8a6f 783d ec18 4cbd 40e0 a8bd dfe6 4dbd
00000340: ca3e bc3c a6df 99bd 7b75 7dbd d117 3d3c
00000350: c092 943d bb7f b6bc 8f69 13bc 64de a3bd
00000360: 0b78 a9bd 32c6 a4bd b744 76bd d397 5cbc
00000370: 7468 19ba 213f 313c c4c1 a53d 5195 42bd
00000380: 7001 11bd 3015 59bc fa02 443d 86d7 ba3c
00000390: 3cbf 443d eadf 8dbc ae22 80bd 4026 12bd
000003a0: 8263 fbbc b3f4 853d 5be3 a53b d8da 073d
000003b0: 4045 883c b012 5dbd 04fa fa3b 40c9 433d
000003c0: ff2c 3abc a432 2b3d 6bcc 7f3d 0512 6c3d
000003d0: b6e4 a6bc a689 85bd 6e72 9e3c c13d e63c
000003e0: 5cea b33d f3b0 77bd f784 fbbc 659d ab3d
000003f0: 59d9 213d 6bbf a2bd ceb6 923d 5a98 0c3d
-0.074988335 0.08720053 -0.009776287 -0.02859014 -0.011771697 -0.016614426 -0.06426942 -0.019483848
-0.068436004 0.06947861 0.029246746 0.08521597 -0.088077635 -0.03704971 0.050408136 -0.0028564367
0.013381178 -0.07294829 -0.06129842 -0.07844138 0.020483423 0.06382313 0.04342836 -0.051003404
0.0024145367 -0.06312664 -0.0673284 0.06705246 0.04217612 -0.040145215 0.07197201 -0.024575137
0.07815012 0.039258342 -0.03660478 -0.04615019 0.052485805 0.07794172 0.06966453 0.008010929
-0.06605692 -0.03410735 -0.07406879 -0.024686087 0.07387966 -0.04681424 0.05179096 -0.058896724
0.07391356 0.06709522 0.059530556 0.053350575 0.0128132235 0.04921515 0.01271171 -0.06480453
0.022257807 0.060517132 -0.0765931 -0.0003238849 -0.06466048 -0.06744293 -0.011444334 0.023106039
-0.0114089735 -0.06986064 -0.079937905 0.079035476 -0.033882633 -0.04183894 -0.02071958 -0.054756995
0.0064206705 -0.004099203 0.03037034 -0.045844853 -0.07614266 0.04235557 -0.015094418 0.06825116
0.06203667 0.036170825 -0.056390263 -0.08755303 -0.026727837 0.045023274 0.0680988 0.05455897
0.026487261 0.05302746 -0.018185962 0.03918862 0.03173531 0.02262735 0.052577622 -0.06258378
-0.030998738 0.06351495 0.004786428 0.00046387487 -0.036222663 0.04787032 -0.03249521 -0.010852026
-0.07586934 0.0542333 -0.035461187 0.06645403 -0.035042524 0.004844893 0.033345148 0.046862666
0.06704529 -0.004616832 0.081930645 0.064253785 -0.013706766 0.022011425 0.045333926 -0.0051909313
-0.00911289 -0.03822258 0.053534597 0.0307294 0.08729006 0.028997727 -0.07324542 -0.02426518
-0.07983857 -0.049148943 -0.065496385 -0.010104195 0.0503161 -0.03682943 0.050684936 -0.082315154
-0.045554202 -0.08781495 -0.01236601 0.018116133 -0.025975846 -0.071819305 -0.05032012 -0.054679308
0.068244256 -0.043365635 -0.05127361 0.004380827 -0.0022248058 -0.040079296 0.08216502 -0.0264638
0.011399532 -0.033954427 -0.076406404 -0.037610967 0.0029215135 0.06461837 -0.07688332 -0.016920045
-0.01650197 -0.07715341 -0.03072914 0.0044922074 0.063683845 0.039639056 -0.08823915 -0.07595117
0.07982994 0.040114325 0.06688896 -0.052865777 0.07010202 0.057870187 0.05235864 0.07265636
-0.06307747 -0.07817104 0.05007599 -0.02579229 -0.004398561 -0.012897421 0.047977917 -0.011618396
-0.0035500317 0.044778973 0.08786115 0.025762975 0.08110946 -0.012660091 0.052803226 -0.02747609
-0.057219736 0.05053829 -0.08569624 -0.050452814 0.048580427 -0.05304262 0.01770129 0.068663515
0.0034428337 -0.07248732 -0.0029731186 0.043145504 0.060653247 -0.049828455 -0.08245897 -0.050269004
0.022979159 -0.07513361 -0.061879616 0.011541323 0.07254553 -0.022277704 -0.008997335 -0.08001402
-0.082748495 -0.08045615 -0.060124125 -0.013463932 -0.00058520515 0.010818274 0.080935985 -0.04750568
-0.03540176 -0.01324968 0.0478544 0.022807848 0.048033938 -0.017318685 -0.062566146 -0.03568101
-0.030687097 0.06540813 0.0050625033 0.03316769 0.016634583 -0.0539729 0.0076591987 0.04779935
-0.011363267 0.04179634 0.062450808 0.057634372 -0.02037273 -0.06520395 0.019341674 0.028105618
0.08784935 -0.060471486 -0.030703051 0.0837963 0.03951392 -0.07946666 0.071637735 0.03432498

lstm.weight_hh_l0 f4 [512, 128]
00000000: 4dcd 1b3d dd99 b3bd b115 2c3d 389c c5bc
00000010: c21b 87bc 146e 063d 799f 513d 92e1 8bbd
00000020: 9904 033d 2ece 45bd 003c 77bc 91bf 8fbd
00000030: b04c 003d d5cb 093d b66f 4abd 2bf6 063d
00000040: 1c00 8c3d 9667 403c aabb 3d3d ea01 caba
00000050: 3253 993d 7800 943d 69e0 6c3d f3db acbd
00000060: 4aba f93c db6b 9fbd 4641 813d b558 3e3d
00000070: 9d13 7bbd 7d76 133c 2960 c7bc d46c 8a3a
00000080: c375 c73c 32a7 75bd 912a cc3c a9ca 26bd
00000090: 436d bbbb e5b4 d5bc beb6 56bd cc96 a53d
000000a0: 3fad be3c ecbc b13d 0702 febc c5a5 adbc
000000b0: f18c a6bd 3781 5e3d 3636 4ebd cb80 e53b
000000c0: 9833 b2bd c99c 563d 8821 62bc 37e4 c3bc
000000d0: edf9 f43c b434 0c3b bb08 4f39 62d7 28bd
000000e0: d6bf 23bd 347c aebc 3917 6dbd 2e4c 913d
000000f0: 38e3 863d 3e36 28bd 4597 3bbc 66f2 10bd
00000100: 4cfd 0b3d eb37 293c 6c3c 8d3d cc67 fb3c
00000110: 267a a0bc 8cfc 8dbc 1a1a 2e3d b4c8 843d
00000120: aa0f 8dbc 3a69 673c b31f d3bc a99f 813d
00000130: 07b8 aabd e1e7 32bd bc68 733c 803b 04ba
00000140: a44e c3bc 8e64 583d 028b 383d 432d 8dbd
00000150: 7032 80bd 7c0c 163d 30f8 ab3d f8ae 98ba
00000160: 97be 8ebd f05d b4bd 485f a0bc 82f4 8ebc
00000170: 0420 e83b 11ca 9bbd 8c60 ad3d 9777 123d
00000180: 2bd0 58bb bbd1 b0bd 2295 6f3c 60e9 aa3d
00000190: 125f 36bd e89b 9abb 50e1 8cbd 6553 85bd
000001a0: f145 7ebd 824a 523d 2de5 533d fd05 d3bc
000001b0: f996 66b9 605b 81bd 75f0 8f3d dda2 243d
000001c0: 1443 333d 3565 473d 1a58 023d a72c 05bc
000001d0: 839d 8c3d dbcd acbd 2515 0b3d 9311 043d
000001e0: 04cf 55bc cf4c a53d 877a 883c 48bf 92bd
000001f0: d5f1 8d3d 908c 41bd f467 a6bd 8fa9 61bc
00000200: 2401 38bd 4bea ae3b 515d 593d e17b 69bd
00000210: 69b9 59bc cb4d 4bbd b671 b8bc 5561 d0bc
00000220: 8ec6 b1bd 8511 83bc 7d1f 22bd 39f3 9d3b
00000230: e970 a5bd 2de2 a3bd 260b a73c 21cb 233d
00000240: 1247 a5bd f25b 493d 1bc9 013a 5bb8 47bc
00000250: d6b3 03bc 060c 39bc 0364 8ebd 7192 bc3c
00000260: 0c5e 973d 6c98 d6bc e2da 8dbd 4803 f3bb
00000270: fdf5 3a3d db3f 7ebd aa3e 89bd 39fb 1bba
00000280: fc5e d33c 4b8f 2e3d df7c af3d 8e27 e53b
00000290: a6c9 983d 7ceb b23d d287 aa3d 0f85 f0bc
000002a0: d454 98bd 8245 bb3c 2345 763d 9980 133c
000002b0: 4ecd 113d a0e4 9f3d 0c06 70bd d3af 3f3d
000002c0: 92d0 963c a866 0f3d 9479 993d 4bc7 35bd
000002d0: 34f4 87bd 2c94 50bc 0fa7 993d d8ba 823d
000002e0: 2cb7 aabc 40d5 7dbd b63e 4cbd ac14 083c
000002f0: e280 3dbd 3fa4 ef3c 1e70 9b3d 6bfb eebc
00000300: 9f85 2dbd 4a36 17bd afc8 ab3d 79b9 bb3b
00000310: c5db 903c f760 803d 25b5 2dbc 962e a53d
00000320: 2ba6 983d 1f96 923d 33ba 9c3d ae8c 5d3c
00000330: cf06 9f3d 4e60 2f3c 8c68 c3bc 5af8 703d
00000340: 006f 8ebd a7db 3abd 97f0 b4bc 7281 63bd
00000350: 3b09 0e3d 3657 653c 5974 df3c e4e2 8d3d
00000360: edc8 933d 6c42 f3bc 88ad acbd 404c 7cba
00000370: 9895 ba3c 8989 8f3c 01af 8c3d c5b7 8ebd
00000380: f300 dfbc 01b7 463c 0274 943d 98dc 1c3b
00000390: 69ad abbd ccd7 c43c cb24 8cbd 8fc3 983d
000003a0: 3f21 6c3d ad1a 813d b64c ecbc a3b2 973d
000003b0: 4e31 4e3a 0982 b83b 37f6 923d e401 e3bc
000003c0: 07f6 24bd a3a7 b8bc 6736 ef3a a1b7 36bd
000003d0: 403f 47bd c60b 5a3c d2b5 b23d 5bec a33d
000003e0: b7c6 0ebd 23e1 c43c dc73 d6bc 966a 18bc
000003f0: e297 0ebd 22e1 843d 66a7 0fbd ef74 da3c
0.038037587 -0.087695815 0.042012874 -0.024122342 -0.016492728 0.032819822 0.051177476 -0.068301335
0.031986807 -0.04829233 -0.015089989 -0.0701896 0.031323135 0.033641655 -0.049422942 0.032949608
0.06835958 0.011743447 0.04632155 -0.0015411947 0.07486571 0.07226652 0.0578312 -0.084403895
0.030484337 -0.07784244 0.06311278 0.046471316 -0.061298 0.009000418 -0.024337845 0.0010560998
0.024348145 -0.059973903 0.024922641 -0.040720616 -0.005719812 -0.026087234 -0.05242037 0.08085403
0.02327597 0.08678612 -0.031006826 -0.02119721 -0.08132351 0.054322448 -0.05034467 0.0070038787
-0.08701247 0.052395616 -0.01380194 -0.023912532 0.02990433 0.0021393718 0.0001974431 -0.04122103
-0.03997787 -0.021299459 -0.057883475 0.07094608 0.06586307 -0.041067354 -0.01144964 -0.03538742
0.03417711 0.010328273 0.0689629 0.030689143 -0.019589495 -0.017332338 0.04250536 0.064835936
-0.017219383 0.014124209 -0.025771951 0.06329281 -0.08335882 -0.04367817 0.014856514 -0.00050442666
-0.02384121 0.05283027 0.045054443 -0.068933986 -0.0625962 0.036633 0.083969474 -0.0011648824
-0.06969946 -0.0880698 -0.019576684 -0.017450575 0.0070838947 -0.076069005 0.084656805 0.03575858
-0.0033083062 -0.08633753 0.014622958 0.08345294 -0.04452426 -0.0047182925 -0.068789124 -0.06510047
-0.06207842 0.051340587 0.05173223 -0.025759691 -0.00021990751 -0.063162565 0.070282854 0.04019438
0.043765143 0.048680503 0.0318223 -0.008128322 0.068659805 -0.08437701 0.033955712 0.032243323
-0.013049845 0.08071291 0.016659988 -0.0716539 0.069308914 -0.04725319 -0.08125296 -0.013773336
-0.044922963 0.0053379885 0.05306751 -0.057002906 -0.013288834 -0.049634736 -0.02251516 -0.025437037
-0.086804494 -0.015999565 -0.03958081 0.004820254 -0.080781765 -0.08002124 0.020391058 0.03998864
-0.08070196 0.04915995 0.00049509265 -0.01218995 -0.008038482 -0.0112943705 -0.069526695 0.023019047
0.07390985 -0.026195727 -0.06926514 -0.0074161626 0.04564475 -0.062072616 -0.06701405 -0.0005950216
0.025802128 0.042617124 0.08568739 0.0069932407 0.074603364 0.08736321 0.08326687 -0.029360322
-0.07438055 0.022860292 0.060124528 0.009002828 0.035596184 0.07807279 -0.058599517 0.04679854
0.018410001 0.03501001 0.07493892 -0.044379514 -0.06638375 -0.012730639 0.07502567 0.06383294
-0.020839296 -0.06197095 -0.049864493 0.00830571 -0.04626549 0.029253123 0.07589744 -0.02917262
-0.04236376 -0.03691701 0.08387887 0.005728897 0.01768292 0.062684946 -0.01060227 0.08065526
0.07453569 0.071575396 0.07652702 0.01352231 0.077649705 0.010704113 -0.023853563 0.058830597
-0.06954765 -0.045619633 -0.022087378 -0.05554337 0.03467677 0.0139978435 0.027277159 0.069280416
0.07216058 -0.029694758 -0.08431536 -0.0009624399 0.02277641 0.017521637 0.06869317 -0.06968645
-0.027222132 0.0121285925 0.07248689 0.0023935195 -0.08382685 0.024028681 -0.06842955 0.07459175
0.057648893 0.06303916 -0.028845172 0.07407119 0.00078656233 0.005630736 0.07175868 -0.027710862
-0.040273692 -0.022540873 0.0018250466 -0.044608716 -0.048644304 0.013308471 0.08726086 0.080040656
-0.034857478 0.024033135 -0.026178293 -0.009302756 -0.034812815 0.06488253 -0.035071753 0.026667086

lstm.bias_ih_l0 f4 [512]
00000000: 7068 5bbd 112b a5bd 474f 4b3d 8df9 22bc
00000010: 7af3 443b 6993 283d 26be 24bd 92a9 663d
00000020: 8d1b b7bc 0988 823d bb19 bbbc 931f a73d
00000030: 0720 34bd 4d1f ad3d 4ab7 41bd bfb8 8c3d
00000040: e31e cfbc 3bc9 b1bc acaf 1bbd 7882 5ebd
00000050: 3961 32bd 211e 38bd 51ed 653d 9112 44bd
00000060: ccd7 8e3d e03f 253d 3f70 6f3d a1d9 6dbc
00000070: 47bb 2abd 31d9 8ebd 13e0 1cbc f7af 77bd
00000080: e7ee 58bd faf5 80bc 9e0d 15bd c9b1 abbd
00000090: fe8a c93c de27 7e3d 0202 03bd 0a6d 8d3d
000000a0: 69ba 28bc 677b 93bd 7745 833d aeca b2bd
000000b0: 284b 963d f832 c5bc 04b3 96bd aafa 193c
000000c0: c180 973b aeb7 2fbd 0701 9d3d 5494 633d
000000d0: 7caa bcbc d73c 95bd 3841 80bd acb6 3f3d
000000e0: adf1 2e3d afdc 6cbc a449 6c3d f7a6 8d3d
000000f0: 09c9 4bbd 0b7d c4bc b0e2 dd3c 74d0 9fbd
00000100: d8da 313d 9844 e0bc f7c2 10bc 7812 72bd
00000110: 261a a0bd 7b16 823d 1b2c 473d 28e8 9d3d
00000120: 5731 89bd 4168 be3c 8761 8f3d 4473 853d
00000130: ffe1 1c3d cd17 64bd ce4c 82bc dde0 21bd
00000140: a257 003d f533 a73d 04ec eb3c c6f1 27bd
00000150: 6503 923c 8bd0 02ba 2d82 fc3c b643 96bd
00000160: f7fb 003d e9aa 4b3d fc15 8f3d f89e 643a
00000170: 788b e7ba aa0c 33bd 3aa3 13bc 82e6 4bbd
00000180: 967c 46bd 50aa 083d d2e2 e0bc 01ef abbd
00000190: 05be 223d 7b35 a7bd cff9 383d 2dcf febc
000001a0: e4e8 b23d 947a 803d b3e2 2abc 2433 133d
000001b0: 8a98 acbd 6bda 64bd 918e da3b 3da4 99b8
000001c0: 3d54 9d3b 359c 52bd faa5 953d 5be9 9c3a
000001d0: 96b4 873d 7c75 6b3d 60e1 293d 3aad 6abd
000001e0: 7d26 9ebd 9970 803d 7990 5fba 5836 8e3d
000001f0: 1c7e 83bc abf0 83bb bd8f bd3c d4f1 01bd
00000200: a316 9bbd 4cd3 9b3d 250a 713c 2ad4 8cbd
00000210: 1009 77bd d690 db3c ff2a 1ebd a27a d33c
00000220: c21c 853d 90f9 663d dd2a ad3d a7c1 a7bc
00000230: a172 eebc 3361 1fbd 2a85 44bc 6c7d 943d
00000240: 6133 3aba 1dca 94bb dc27 8dbd abdb 30bc
00000250: f444 923d 00a3 a3bd 740d 29bc f67e 05bd
00000260: db13 fd3c 7c0f 803d b9fc 3dbd f3e1 b43d
00000270: e51a c0bc aa29 03bd 02be 9ebd ca8a acbd
00000280: 0e9f 563d 8bc3 a43d c7dc a63d 91c7 98bd
00000290: 57c1 4e3c 4943 a0bd 8755 a1bd 2c11 443d
000002a0: f09f 82bd a938 ac3d f384 773d e57f 31bd
000002b0: 18a8 713d ae79 09bc ab1a c8bc c4b9 70bd
000002c0: 38b2 31bb c1dc 55bd 88a3 033d dbed 623d
000002d0: da95 0abd 8983 a7bd 0d8a 4dbb cd6f 8dbc
000002e0: ec64 a73b 4aa7 713d 2720 9cbc 0757 233d
000002f0: 4baf 74bc e269 8fbd ae09 5b3d d05e 893c
00000300: 5688 72bd 7996 fbba 5e6c 89bd 4b31 25bb
00000310: 9531 df3c 671e 0f3d b792 1f3d 4484 003d
00000320: fff6 9fbd 98b9 0a3d 6c5b b1bd d02f 7b3c
00000330: d9e1 123d 379c 0abd 3b80 183c 044e 983d
00000340: 1e02 2d3d 5eb3 ab3b 48bb 543d 34fa edbc
00000350: ad07 413c e8ec 5cbd 78ab 3a3d 0f2c acbd
00000360: 3112 8cbd 9d50 cd3c 4b08 26bd ac15 9c3d
00000370: f748 80bd c69c 86bd 2d6c 0dbd 2253 8e3d
00000380: 1b65 ac3d 8148 8d3d d66b 09bc 540b c23c
00000390: ab12 9e3c 6f90 2d3d a44d aa3d 5447 93bd
000003a0: cb80 6d3d 40b1 b23d 69d1 05bb cb98 b2bd
000003b0: 04d7 7b3b b229 203d 9319 a6bd 5d48 4ebc
000003c0: 2fe7 ec3c 759a 3c3c ab18 18bd f794 8c3d
000003d0: 17fc beb9 35d9 a33b 7414 d13c 7318 aa3d
000003e0: 4fe7 413c 7b41 9b3d 734a 653d 3384 24bd
000003f0: d4b4 8abd 788b 7e3d b2ce ceba b165 ae3d
-0.053566396 -0.08064855 0.04963615 -0.009947193 0.003005235 0.041156206 -0.040220402 0.05631406
-0.022352004 0.06373603 -0.022839418 0.08160319 -0.043975856 0.08453236 -0.04729394 0.06871175
-0.025283283 -0.0217024 -0.03800933 -0.054323643 -0.04354975 -0.04495061 0.056134526 -0.04786927
0.06974754 0.04034412 0.058456656 -0.014517219 -0.041682508 -0.0697502 -0.009574908 -0.060470548
-0.05296221 -0.01574229 -0.03638994 -0.08383519 0.02460241 0.06204974 -0.031984337 0.06905563
-0.01029835 -0.072012715 0.06409734 -0.08730064 0.07338554 -0.024072155 -0.07358363 0.009398142
0.004623503 -0.04289978 0.076662116 0.05556138 -0.023030512 -0.07286995 -0.062624395 0.04680507
0.04271095 -0.014456912 0.057687417 0.06916612 -0.04975227 -0.023985406 0.027085632 -0.07803431
0.043421596 -0.027376458 -0.008835546 -0.059099644 -0.078174874 0.06351944 0.048626047 0.07710296
-0.06698864 0.023243072 0.07001024 0.06516126 0.038301464 -0.05568676 -0.015905764 -0.039521087
0.031333573 0.08164207 0.028799064 -0.041002057 0.017823884 -0.0004990182 0.030823791 -0.073371336
0.031490292 0.04972354 0.06986615 0.0008721198 -0.0017665466 -0.04371325 -0.009011084 -0.049780376
-0.04845866 0.033365548 -0.027451906 -0.08395196 0.039731998 -0.081644975 0.04516011 -0.031104648
0.087358266 0.0627338 -0.010430026 0.035937443 -0.08427532 -0.055872362 0.0066698273 -7.3262e-05
0.0048013018 -0.051418502 0.07307048 0.0011971401 0.06626241 0.05748509 0.0414747 -0.057294108
-0.07722185 0.06271476 -0.0008528303 0.06943959 -0.016051345 -0.0040264926 0.023139829 -0.031724766
-0.07572677 0.07608661 0.014711891 -0.068764046 -0.060311377 0.026802462 -0.038615223 0.025815312
0.06499626 0.056390345 0.08455441 -0.020478083 -0.029107394 -0.038911056 -0.011994639 0.07250485
-0.0007102993 -0.0045406953 -0.06892368 -0.01079456 0.07142058 -0.07990074 -0.010318149 -0.032591783
0.030893257 0.062529534 -0.046383593 0.08832159 -0.023450324 -0.032022156 -0.07751085 -0.084249094
0.05239778 0.08045109 0.08147579 -0.07459939 0.012619338 -0.078253336 -0.07877641 0.04786794
-0.06378162 0.084092446 0.060429525 -0.04333486 0.058998197 -0.008390827 -0.024426779 -0.05877091
-0.0027114283 -0.05221248 0.032138377 0.055402618 -0.033834316 -0.08179385 -0.0031362802 -0.017265225
0.0051084664 0.05899743 -0.0190583 0.039877918 -0.014934371 -0.070026174 0.05347603 0.016768843
-0.05921205 -0.0019194625 -0.067101225 -0.0025206383 0.027245322 0.034941103 0.038958278 0.03137614
-0.07810783 0.033868402 -0.086600155 0.015331224 0.035859916 -0.033840384 0.009307916 0.07436755
0.042238347 0.005239888 0.051936418 -0.02904997 0.011781615 -0.05393687 0.04557368 -0.08406841
-0.06839407 0.025062853 -0.040535253 0.07621321 -0.06263917 -0.06572871 -0.034526993 0.0694945
0.08417722 0.06898595 -0.0083875265 0.023687042 0.019296011 0.04237407 0.0831559 -0.07191339
0.057984155 0.08725214 -0.0020419008 -0.08720549 0.003842772 0.039102264 -0.08110347 -0.012590495
0.02891883 0.011511435 -0.0371329 0.0686435 -0.00036427446 0.0050002583 0.025522448 0.083054446
0.011834933 0.07580849 0.055979203 -0.040165137 -0.067727715 0.062144727 -0.0015778153 0.0851549

lstm.bias_hh_l0 f4 [512]
00000000: f9c5 ecbc 36ef 86bd 184e 90bd fc09 2dbd
00000010: d224 3bbd b777 b93b 3564 7a3d 5280 9e3c
00000020: 8d4b dcbc 39d7 a73d e23c b03c 81ff 35bd
00000030: e5d3 a13d ab6c adbc 45c5 b1bc e7ea 0d3b
00000040: 08de 863d f7d1 01bc 35fa b23d cce1 9f3d
00000050: abdf bebc 70b7 b0bc b3f8 c43b 27de 9bbc
00000060: 9030 49bd 1be2 593d cb77 aebc d079 1d3d
00000070: 9b43 97bd dabd b7bb 6808 8bbd 098d 8cbd
00000080: bc91 0b3d 66d4 a4bc 653a 513c b396 8d3d
00000090: 70a2 1dbd 80c1 abbd ffa9 8d3a 636a 9fbb
000000a0: 064a a7bd 3b4b 0ebd 6131 55bd 3eed 30bc
000000b0: c28b b1bd 83d4 bb3c ddca b0bc dd27 8dbc
000000c0: 6445 80bc e9d9 cabc cfdb aa3d 3c99 af3b
000000d0: 1282 753d 1040 cbbc 4484 99bd ba47 97ba
000000e0: 985e 58bd f38e 9d3c 32d6 30bc 9863 b0bd
000000f0: 4585 58bd 8ba2 0ebd 4040 8cbd 9609 47bd
00000100: 9804 ac3d 1d9a 44bd 37e8 86bd 6973 b3bd
00000110: 11b6 66bd b564 06bd 7909 ca3c 90ce 863d
00000120: cea1 9f3d dd14 b63a 2485 8abd 7580 1bbd
00000130: 502d 98ba 040e 523d 10c8 d33a 76d0 0bbd
00000140: 1679 bbbb e487 eb3c b562 debb dde7 ac3c
00000150: 8055 62ba f9cc b13d d778 46bd 5b70 293d
00000160: 5337 783d 361a 613c 0f0c 9b3c 3bcc b33d
00000170: de87 89bd 30c3 6abd 613b 83bc d55c 863d
00000180: a69d 873c 2732 9d3d 30f2 88bd 2999 c83c
00000190: 7b37 3a3d bcbc 033d b595 843d 9aae eaba
000001a0: 1c84 7e3c 9711 36bd 861e a73d 973a 30bd
000001b0: 64ba 27bd 1d24 7d3c 0697 883d 19aa d33c
000001c0: ea9a 35bd 1e12 683d bd5c 403d fb3b f3bc
000001d0: 64d1 8cbd 74fe 913d 1e8a 5bbd 6b46 53bd
000001e0: 8498 9abd 09b9 01bd 3182 20bc f860 8fbd
000001f0: e4cb 813c 60be 353d ef36 91bd 84f1 a9bd
00000200: 193e b13c 9205 1c3d 7d25 c4bc 368f a3bd
00000210: 17de 403d 0976 06bd eb93 90bb 382c 6f3d
00000220: dae2 59bd d3ef 10bd 23a6 9cbd e005 6dbd
00000230: ebe5 483d 6314 bdbc dbb3 55bc 3a3e b23d
00000240: 6712 963d 917f 913c 327f 85bd ba1d 7c3c
00000250: c886 aebd ea45 883c b659 97bd 9fda 33bd
00000260: 02d8 7dba 77d0 dd3b 4d41 86bd 5e3a 8bbb
00000270: 7c26 163d 4aba a93d 62d4 8ebd d8f4 af3c
00000280: 08bc 3fbd f0de 2f3b 65dc ff3c cda2 75ba
00000290: d2fb 17bd 3ec0 9b3d 2828 b4bc 4dca 5d3d
000002a0: b842 4a3c cf3d d4bc 82af bbbc 3513 b03d
000002b0: 68fc 93bc 3098 cabc 779d 82bd 9bd7 a0bd
000002c0: f756 50bc 10bd aabd 6097 253d 36d4 42bd
000002d0: 38c5 64bd 2619 72bd 48c8 9f3d 9b6b 563d
000002e0: dad7 2f3c 19a4 433d 3882 7e3d 2753 403d
000002f0: ab34 2b3d dbb3 ac3c fb4d 853c 0703 85bc
00000300: 782f ffbc e321 b2bd 013d b13c 70f5 853d
00000310: 8bb7 84bd 5144 44bd 048a 18bd 275d 033c
00000320: e719 7dbc 2eed 3abd c8cf 663b 134f 52bd
00000330: d3a8 a23c 0b39 90bd baa9 d03c ae81 263d
00000340: bf26 8ebd c6e2 b33c ae4b 393c 0afd f8bc
00000350: 6a69 c4bc bf32 26bc 6924 213d c9c5 9c3d
00000360: 1797 cfbc d557 4a3d e4fd 8bbd b2f1 5e3d
00000370: 4a5b b3bd 9cdc d83c ab07 853a 2cf5 b43d
00000380: e265 f03c fa94 833c 096d c8bc b67f 6f3d
00000390: ab24 e4bc 935d 7b3d e87b 5ebd 98d7 78bd
000003a0: 5aa1 923c 1943 a5bc 7dbb 663d 5ee2 7dbd
000003b0: 071e 83bd 14a4 a9bd 0465 b53c 1469 43bd
000003c0: 3785 51bd 3a3f 523d 1dc3 a13c 3391 5ebd
000003d0: 2b79 293d 19bf c6bc 69fc 663d 4b5a 7cbb
000003e0: 8625 eabc a6ec ac3d 7c35 13bd 9866 abbd
000003f0: aba6 94bd 5a13 a43d cf7e b03c 6ca1 91bc
-0.028902994 -0.065885946 -0.07046145 -0.04224585 -0.04568941 0.005660023 0.06113072 0.019348297
-0.026891494 0.08195347 0.021513406 -0.04443312 0.07901744 -0.021169981 -0.02170051 0.0021654905
0.06585318 -0.007923595 0.087391295 0.07806739 -0.023300013 -0.021571845 0.0060110926 -0.019026829
-0.04911858 0.053194147 -0.021297356 0.038446248 -0.073859416 -0.005607349 -0.06788713 -0.06862838
0.03407453 -0.02012081 0.01277027 0.06913509 -0.03848499 -0.083865166 0.0010808109 -0.004864977
-0.08168416 -0.034739714 -0.052049045 -0.01079875 -0.08669235 0.022928482 -0.021581108 -0.017230922
-0.015658088 -0.02476211 0.083427064 0.005358843 0.059938498 -0.02481082 -0.07495931 -0.0011541762
-0.052824587 0.019233203 -0.010793256 -0.08612746 -0.05286147 -0.03482298 -0.06848192 -0.048593126
0.08399314 -0.047998536 -0.0658726 -0.08762247 -0.056325976 -0.032810885 0.02466272 0.065823674
0.07794534 0.0013891716 -0.06763676 -0.037964303 -0.0011610184 0.051282898 0.0016157646 -0.03413435
-0.0057212217 0.028751321 -0.006786669 0.021106655 -0.00086339563 0.086816736 -0.048455086 0.041366916
0.060599636 0.013739159 0.018926648 0.08779188 -0.06715368 -0.05731505 -0.016019525 0.06560675
0.016554665 0.076755814 -0.066868186 0.024487095 0.045463067 0.032162413 0.06473867 -0.0017904819
0.015534427 -0.04445037 0.08160119 -0.043024626 -0.04094924 0.015450505 0.066694304 0.025837945
-0.04433719 0.056657903 0.046963442 -0.029691687 -0.068758756 0.07128611 -0.053598516 -0.051580828
-0.07548621 -0.031670604 -0.009796665 -0.07000917 0.015844293 0.04437101 -0.07090556 -0.082980186
0.021636056 0.03809125 -0.023943657 -0.079863 0.0470868 -0.03282741 -0.0044121644 0.05839178
-0.053194858 -0.035384964 -0.076488756 -0.05786693 0.04904739 -0.02308101 -0.013043369 0.08703275
0.07327729 0.017761024 -0.06518401 0.015387947 -0.08521801 0.0166349 -0.07390158 -0.043909665
-0.0009683372 0.0067692357 -0.06555424 -0.0042489013 0.036657795 0.08287485 -0.069741026 0.021479055
-0.04681018 0.0026835762 0.031233022 -0.00093702675 -0.03710539 0.07605027 -0.021991804 0.054148007
0.012345009 -0.025908379 -0.022910837 0.085974135 -0.018064693 -0.024730772 -0.0637769 -0.078536235
-0.012716047 -0.08336842 0.040427566 -0.04756566 -0.055852145 -0.059106015 0.078018725 0.052348714
0.010732615 0.047763918 0.062135905 0.0469543 0.041798275 0.021081856 0.016272536 -0.016236795
-0.031150565 -0.0869787 0.021635534 0.06540954 -0.064803205 -0.047916714 -0.037240997 0.008017815
-0.01544807 -0.04563635 0.0035219062 -0.051344942 0.019855892 -0.0704213 0.025471557 0.040651016
-0.06940984 0.02195872 0.011309547 -0.030394096 -0.023976047 -0.010143935 0.039341364 0.07654912
-0.0253406 0.04940017 -0.06835535 0.054429717 -0.087576464 0.026472382 0.001014938 0.08835825
0.029345457 0.016062248 -0.024466055 0.058471404 -0.027849516 0.061368536 -0.054317385 -0.06075248
0.017899204 -0.020173596 0.056331147 -0.06198346 -0.06402212 -0.082832485 0.022142895 -0.047707632
-0.051152434 0.05132983 0.019746358 -0.05433769 0.04137532 -0.024261044 0.05639306 -0.0038505967
-0.028582346 0.084435746 -0.03593968 -0.083691776 -0.07258352 0.080115035 0.021544842 -0.017777167

lstm.weight_ih_l1 f4 [512, 128]
00000000: d35c 14bd 40d2 cdbc 83ad 3b3d aaee 2b3d
00000010: 50bf 87bc 8741 493d 8d4e 583d 2398 dfbc
00000020: bb63 f4bc 4a14 aebc 1257 9bbd b737 353d
00000030: 4c81 98bc 4585 09bd b1b9 efbc 1aac 50bd
00000040: 9743 233d f235 5c3d 9b05 a3bd c276 abbc
00000050: ac5d 303d 4267 8bbd bbf8 813d ebfe 463d
00000060: e433 b0bd 4463 9fbb 557b 533c bc42 90bd
00000070: 2d3c 07bd a4ab a1bc 8f00 51bd 8ccb 8cbd
00000080: 3209 b3bc 986d eabb c2ee 81bc 29ec a6bd
00000090: 4358 d83c ea1e 043d 61c7 8abd 2ef9 d33c
000000a0: 429a 77bd 298a 9a3d 2656 943d 0218 c73b
000000b0: 7018 613d 5f4a 34bc 15cf 0e3c 1e19 233d
000000c0: 933b a1bd 2e05 a23d 3a15 32bd cc0d 5fbd
000000d0: 9241 733c 3baa 293d 772d 9bbd b9ff 103d
000000e0: 1d68 6c3b 9443 fe3b 55b6 64bd fcb4 af3d
000000f0: 4e1e 9e3d 03ef e13c 898c 56bd de43 6abd
00000100: f9f2 943d 6d8b 3bbd 8858 873b d4e9 8dbc
00000110: 5775 7ebd 7443 343d e40d 8f3d 11ba 53bd
00000120: ad77 743b 8bb0 b1bd 1b1b 433b c1e0 60bc
00000130: 6d39 b3bd 3e9d 573c 54ba 8f3d 4c04 96bd
00000140: b54e 11bd 1f9b 08bc b694 88bd adae 713d
00000150: 74a7 9f3d 29be 9a3d 2c92 35bc 440b a83d
00000160: 08ee 223d d3e4 54bc c9c9 83bd 2aa8 9ebc
00000170: 1b6f 6c3d d0c0 31bd 1d6a 49bd 31ab 803d
00000180: 407a 063d 0842 f53c febd 463d 1f8c 1b3d
00000190: 86af 7b3d e241 a0bc 30be 223d 26ef 7e3b
000001a0: d08c 2abd 70c4 3dbd cba2 74bd e625 f3bc
000001b0: 21f5 81bd 3c08 ac3d a648 4dbd 4fb9 83bc
000001c0: 8f26 5d3d 3e55 ff3b 16ef b43d 4862 68bd
000001d0: 2700 933d ea7f bd3c 5042 a3bd dd77 993a
000001e0: b9f8 b13c aad4 49bd 265d 5ebc b457 60bd
000001f0: a0a4 5bbd a9f3 133c 31de 52bc 32aa adbd
00000200: f09f 15bb 28d1 0c3d 0b42 303d e37e abbd
00000210: 3395 4ebc 6e20 af3c 86bd a4bd 0ef4 7fbc
00000220: c052 a0bc 9d4c a1bc 8bc7 02bc bb2f 55bd
00000230: ba34 293c f0b7 873c ed16 e0bb 2f53 9b3d
00000240: c860 983d 79a3 61bd 923a 6d3d 9bee 5abd
00000250: 1f04 3b3c 3fe4 dcbc 589d 883d 3165 053c
00000260: ffdf b3bb ee89 433d 6542 0fbd 124c 9a3b
00000270: 32fd a63d ae90 7abd ca3d 3dbd c3eb 24bd
00000280: fad2 9cbd 070a 90bd 3109 fa3c 1e2e 2c3d
00000290: 6c60 13bd 0d75 88bd 7c82 153d bcf2 b0bd
000002a0: 870a d2bc 0538 0dbd 4c8e 8a3d 47e4 9dbd
000002b0: 8000 773d 3b8b 0bbd bd7b a53d 0e5b 0fbd
000002c0: 3715 85bb 3902 40bd 2828 60bd a328 98bd
000002d0: 16b2 6d3b 31fb 9cbd ab8c f83c e67f 45bd
000002e0: 53c9 aebd 097d 3fbd dd68 b93b 4630 6c3d
000002f0: a905 a03d e9b6 213d 6fb8 5fbd ad72 303d
00000300: 1747 953d 279f 813d 259a ff3c 8ca4 cebb
00000310: 52e4 4ebd e450 113d 2798 253d 697f b73c
00000320: 8ef2 2c3d 6d67 813c a856 963d 7fa3 17bd
00000330: f153 343c 1e47 45bd 3340 d4bc 63d7 9ebd
00000340: 4f87 493d 6efa e3bc 4dfe b0bd b141 65bd
00000350: 8cea 5cbd 7b3b 1f3d 200d 1ebd 5a65 983b
00000360: 423d 44bd b45a 89bb 11d6 8e3d 3913 66bd
00000370: b7ff 18bc 1eab b0bc 2fe5 c0bc 37f0 45bd
00000380: 660d 69bc 8616 74bc 2fbb c03c 2ebd 283d
00000390: 03da 2c3c 1eb7 ad3c 2e1d 393d ee14 60bd
000003a0: ef99 9ebc 00af 573d f9ec 883d 53bc 063d
000003b0: 22df 97bc 81b8 a9bd a7f6 1bbd 5934 d2bc
000003c0: d5e2 93bd 52c5 83bd c310 863a 1523 1dbd
000003d0: 9746 07bd b85c 90bd 882e 8f3d e93d 983d
000003e0: 662c 7d39 040c 853d 78f1 59bd 9779 6f3d
000003f0: 79a7 173d 6a2a fbbc 7a1f 9abc 4a9d 0a3d
-0.036221337 -0.02512467 0.04581977 0.041975655 -0.016570717 0.049134757 0.052809287 -0.027294224
-0.029832711 -0.021249909 -0.07584967 0.044242587 -0.018616341 -0.03357436 -0.02926335 -0.05094538
0.03985938 0.053762384 -0.079600535 -0.020930652 0.043058082 -0.06806804 0.0634627 0.048582952
-0.08603647 -0.0048641283 0.012907823 -0.070439786 -0.033016372 -0.019735165 -0.051025923 -0.06874761
-0.02185497 -0.007154178 -0.015860919 -0.08150513 0.026409274 0.032256044 -0.0677631 0.025875654
-0.060449846 0.07545883 0.07242994 0.00607586 0.054954946 -0.01100406 0.008716364 0.039818875
-0.07872691 0.07911144 -0.043477274 -0.054456517 0.014847176 0.04142211 -0.07577031 0.035400126
0.0036072799 0.007759521 -0.055837948 0.08579442 0.07720624 0.02757979 -0.05238012 -0.05719363
0.07272906 -0.045787264 0.004130427 -0.017323412 -0.062123623 0.04400964 0.06985071 -0.05169112
0.0037302778 -0.08676251 0.0029770795 -0.0137254605 -0.087511875 0.013160048 0.07017961 -0.07325038
-0.03547545 -0.008337765 -0.06668989 0.059004474 0.07795611 0.075558014 -0.011082213 0.08205274
0.039777786 -0.012994009 -0.06434972 -0.019367296 0.057723146 -0.04339677 -0.049173463 0.06282652
0.03283143 0.029938713 0.048521034 0.037975427 0.06144669 -0.019562665 0.03973216 0.0038899868
-0.041638196 -0.046329916 -0.059725564 -0.029681157 -0.06345583 0.08400008 -0.05011811 -0.016079573
0.05399185 0.007792144 0.088346645 -0.056734353 0.071777634 0.023132283 -0.079716325 0.0011708696
0.021725046 -0.049275078 -0.013572013 -0.05477114 -0.053623796 0.009030261 -0.012870357 -0.08479728
-0.0022830926 0.034379154 0.043031733 -0.08373811 -0.012608814 0.021377768 -0.08043961 -0.015622152
-0.019570708 -0.019689852 -0.007982145 -0.052047472 0.010327512 0.0165672 -0.0068386705 0.075842254
0.074403346 -0.05508754 0.057917185 -0.05345021 0.011414557 -0.026964305 0.06670636 0.008141802
-0.005489349 0.047738962 -0.034975428 0.0047087753 0.08153762 -0.061173134 -0.046201505 -0.040263902
-0.07657428 -0.070331626 0.03052196 0.04203617 -0.035980627 -0.06662951 0.036501393 -0.08640048
-0.025639785 -0.034477253 0.06765422 -0.07709556 0.06030321 -0.034068327 0.08080242 -0.034998946
-0.004061367 -0.04687712 -0.054725796 -0.07429626 0.0036269478 -0.076650985 0.030340513 -0.048217677
-0.08534493 -0.046750102 0.0056582526 0.057663225 0.078135796 0.039481077 -0.05461925 0.043078113
0.0728895 0.06329184 0.031201432 -0.0063062366 -0.050510712 0.035477534 0.040428307 0.022399621
0.042223506 0.015796388 0.07340747 -0.037021156 0.011006341 -0.048163526 -0.025909519 -0.077559255
0.049201306 -0.027829375 -0.08642254 -0.05597085 -0.05393462 0.038875084 -0.038586736 0.004650754
-0.047909983 -0.004191721 0.06974424 -0.056170676 -0.009338311 -0.02156597 -0.023546783 -0.04832479
-0.014224386 -0.014897948 0.023526756 0.04119604 0.010550025 0.021205481 0.045193844 -0.05470746
-0.01936051 0.052657127 0.06685824 0.032894444 -0.018539015 -0.082871445 -0.038077023 -0.025659727
-0.07220999 -0.0643412 0.0010228384 -0.038363535 -0.033026304 -0.07048935 0.06991297 0.074336834
0.000241445 0.064964324 -0.0532088 0.058465566 0.03702495 -0.030659873 -0.018813837 0.03384141

lstm.weight_hh_l1 f4 [512, 128]
00000000: bf61 8f3c eaab 40bd 3e47 dfbb 3d04 9abd
00000010: 92de f53c b013 11bd 65ba ec3c ff33 f4bc
00000020: 95b2 953d a837 8d3d d7ac d739 75d5 913d
00000030: 13ef 11bd 2151 343d 53cd 08bd a754 6ebd
00000040: 7405 953d 25cd fa3c f5d0 833d 8fce f6bc
00000050: 72f8 253b 4f7e 88bd 5234 6f3d b987 85bd
00000060: 09ad 01bd 18b9 e63c 4d5f c33c f128 2cbd
00000070: 673b 98bc 66f5 7abd 8362 c8bc 44c5 903a
00000080: 88bd af3d fe14 94bd 7c92 473b 1704 993d
00000090: af02 ae3d 9ffd 6d3d b3cd 2ebd f535 3cbd
000000a0: efdd 0bb9 aa56 96bd fedf 8abd 2537 57bc
000000b0: 0791 2f3c 8096 bebc f6b0 18bb 232a f6bc
000000c0: ee12 953c 192b bebc f6e8 f53b faf2 e23c
000000d0: ca44 cfbc c00f 4d3b b3a9 80bd 50d1 9fbb
000000e0: 7242 4dbd 7d7e aa3d add7 e23c 2ad0 be3c
000000f0: 4609 8d3d d686 ec3c 8f02 2b3d 1183 a7bd
00000100: 709a 23bd 6dc1 9abb 8277 303d 1730 42bd
00000110: 723c a03c 2b23 78bd e8bc 223d f5de 39bd
00000120: d22d 98bd 2135 fd3c 7fa3 dc3b 7820 563d
00000130: 983d a5bd d6d1 b1bd 41d9 8d3d 117f 91bd
00000140: 0e3f f1bb d527 893d 1312 533d 0404 c6bb
00000150: bf61 9dbd 8054 4fbd 101a 6a3c c577 573d
00000160: d395 7ebd 8aac 8ebd 22f6 223d f5e9 863c
00000170: 0269 3dbd 66d1 81bc b19c 6e3d b86c 9b3c
00000180: cdad 02bd c07c 31bd 51e5 d7ba 548f 9e3d
00000190: 5204 1239 b06f 113d ef61 7cbc 91bf 513c
000001a0: df0d 443d f601 b4bd e8b3 ee3b 7ce0 27bc
000001b0: f993 00bd ce3e 233c e2fd dcbc ce97 b53c
000001c0: 9b44 4f3d 4c34 183d 6b24 7abd 5676 993d
000001d0: e4f7 ac3d 732b 29bd dd35 5cbd 10ae 3e3d
000001e0: db7d 9d3c 020a 323d 366e 0d3d 8e05 a6bd
000001f0: 98e8 8cbc 0c3c fabc dbef 9b3d b54f 3abd
00000200: 210e 6ebd f707 98bd 655b d4bc 503b 9ebd
00000210: 5174 1ebb 2134 213c 7b7d 0f3c c87e 5a3d
00000220: 83fa f93c 2dfe 21bd ebbb 23bd 8ba4 5e3d
00000230: 7899 8ebd 9578 81bd 0695 cb3c b26f 2fbd
00000240: fcbc 613d 1f39 2e3c 458b 873d 4880 76bd
00000250: b8c3 f7bc 03ae 99bd 46d6 a2bd a412 85bc
00000260: bbe2 95bc ffa5 a53c 390b 513d c10d 5abd
00000270: 5355 98bd 6ad8 8e3d 9c7c 8c3d 353e aa3d
00000280: a7be 05bd 7957 91bd 2995 ca3b c110 baba
00000290: bc68 453d 3c98 34bc 7bfd 3fbd d0ec 4bbd
000002a0: 4b97 0d3d f6c2 1b3d 190a d6bc cbc0 1d3d
000002b0: ba62 acbd 116a abbd d044 6b3d b503 f63c
000002c0: bc6d 8c3c e2db b13d 207e 5b3d e08d 8cbc
000002d0: 0ca7 3c3d bf80 703d 7407 a4bc ae38 e6bc
000002e0: 259d fe3c fbc2 3bbd 3028 4f3c d28c 693b
000002f0: 6924 733d 17c7 a33d e886 453d f3c0 73bd
00000300: c5ad 0bbd 4d06 483d 140e 5abb c38e 513d
00000310: 919e ff3c b6d6 e83b 0fb9 46bc 091d b4bd
00000320: b9a6 e73c 3d9b 2b3d cdd4 a5bd adcb 5cbc
00000330: a8a6 d33c a2cb a03d 96e8 53bd 5e44 083c
00000340: 7ddc a8bd 6c65 55bd 713e a7bd 1e87 21bd
00000350: e582 583d 5c16 e8bc 1f07 813b 5b8d 3cbd
00000360: 53ab aabd b7df 663c 79f4 c93c 96d0 aa3b
00000370: 9b2f eebc 27eb 733d bc87 793d f06f 28bd
00000380: c168 b43d 16f8 053c 3e1f 74bd 7c4d adbd
00000390: 237a 26bd 7f40 0c3d 55e2 913a 369c 653d
000003a0: 08ad 6b3d c01f 463c 44e2 313b 1f64 2bbc
000003b0: 316c c4bb 3427 5cbb ae9f 9b3d 2753 573d
000003c0: 1a6d 3ebd f17d 0f3d ee3d 98bd aa43 a03d
000003d0: 7d2c 89bc 59aa 893c d824 213d 287c bcbc
000003e0: 0d1f 78bc 5fae 7a3c 602a 81bd 412f 123d
000003f0: 4d1b 2bbd 3839 92bd 82f8 ac3c 6037 a0bd
0.017502664 -0.04703895 -0.0068139127 -0.0752034 0.030013356 -0.035419166 0.028897474 -0.02980995
0.073094524 0.06895381 0.0004113677 0.07120792 -0.03562839 0.044022683 -0.033398937 -0.0581862
0.07276431 0.030615399 0.0643634 -0.030127792 0.0025325087 -0.066647165 0.058399506 -0.06520028
-0.03165916 0.028164431 0.023849154 -0.042031232 -0.018583013 -0.061269186 -0.024461037 0.0011045118
0.08581072 -0.072305664 0.0030452302 0.07471483 0.084966056 0.0581032 -0.04267664 -0.045949895
-0.0001333875 -0.073407486 -0.06781004 -0.013135706 0.01071573 -0.023265123 -0.0023298836 -0.03004939
0.018197503 -0.02321391 0.0075045777 0.02770375 -0.025301356 0.0031289905 -0.062823676 -0.004877247
-0.050112195 0.08324907 0.027690733 0.02329262 0.068865344 0.028872889 0.041750487 -0.08179296
-0.039942205 -0.004722765 0.04308272 -0.047409143 0.019560073 -0.060580414 0.039730936 -0.045378644
-0.074306145 0.030909123 0.0067333574 0.05227706 -0.08068389 -0.08682601 0.069262035 -0.07104314
-0.007362253 0.066970505 0.05153091 -0.006042959 -0.07684659 -0.050617695 0.01428844 0.052604456
-0.062154602 -0.06966503 0.03978551 0.016468981 -0.04624272 -0.01584692 0.0582549 0.01897274
-0.03190403 -0.04333186 -0.001647154 0.077421814 0.00013925254 0.035506904 -0.015404209 0.012802021
0.04786479 -0.087894365 0.00728463 -0.010246392 -0.031391118 0.009963704 -0.02697653 0.022167113
0.050602537 0.03715925 -0.061069887 0.07493274 0.08445719 -0.041301202 -0.053762306 0.046552718
0.019225052 0.043466575 0.034528933 -0.08106528 -0.017200753 -0.03054621 0.07614108 -0.04548617
-0.058118943 -0.07423394 -0.025922487 -0.07726157 -0.0024178217 0.009839089 0.008757944 0.053343564
0.030514961 -0.03954904 -0.039974134 0.05435614 -0.069628656 -0.06321827 0.024851333 -0.04283113
0.05511187 0.010633736 0.066183604 -0.060180932 -0.030244693 -0.07503893 -0.07951026 -0.01624424
-0.01829659 0.020220755 0.051036093 -0.053235773 -0.07438149 0.069748715 0.06859705 0.08312646
-0.032652523 -0.07096762 0.006182332 -0.0014195667 0.048195586 -0.011022624 -0.046872597 -0.04978639
0.034568112 0.038027726 -0.026127862 0.03851394 -0.08417268 -0.0836984 0.05743867 0.030031065
0.01714217 0.086845174 0.05358708 -0.017157495 0.046057746 0.05871653 -0.020023085 -0.028103199
0.031080792 -0.045840245 0.012643859 0.0035636914 0.059360895 0.07996958 0.04822436 -0.059510183
-0.034101266 0.048834134 -0.0033272551 0.05116154 0.03120354 0.0071056737 -0.012129082 -0.087946005
0.028277742 0.041896094 -0.08097229 -0.013476294 0.025836304 0.0785134 -0.051735483 0.008317081
-0.0824518 -0.052098677 -0.08166207 -0.0394355 0.052859206 -0.028330974 0.0039376165 -0.046033245
-0.08333459 0.014091424 0.024652706 0.0052128537 -0.029075434 0.05955043 0.060920462 -0.041122377
0.08809043 0.008176824 -0.059600107 -0.084620446 -0.040643822 0.034241196 0.0011130074 0.056057177
0.057538062 0.012092531 0.0027142921 -0.010460882 -0.0059943427 -0.0033592703 0.07598816 0.052569535
-0.046490766 0.035032216 -0.07433687 0.07825406 -0.016744846 0.01680486 0.039341778 -0.023008421
-0.015144122 0.015300362 -0.063069105 0.035689596 -0.041774083 -0.0713982 0.021114592 -0.07823062

lstm.bias_ih_l1 f4 [512]
00000000: d1a7 813c 28c5 b83c 8823 98bd 108b 9dbd
00000010: 1b3b a43d b843 77bd ed70 b33d 0bf7 233d
00000020: b360 303b baec af3b 4d59 acbd aae6 aa3c
00000030: 84c5 dd3c d6ea e13c c1d6 47bd dd37 073d
00000040: 0e7f 7cbd 68d5 5a3d 7099 6dbb 4d03 2c3d
00000050: dcc8 953c 91c5 33bd acd6 20bc 9903 80bc
00000060: ad73 8a3b 8bdd 22bc f810 283c 44d6 793d
00000070: abc6 d63c 7169 403d 8986 143c 6909 3c3d
00000080: c8d3 ac3c f798 cabc 8140 de3c 731a 843b
00000090: ff1a 5cbd d815 9cbd 63c6 0fbd 906d 8abc
000000a0: 9ef6 f3bc fce0 5e3d 0543 61bd 425c 64bd
000000b0: c503 bebc 94ed 2d3d 72fd bdbc 5332 ce3c
000000c0: 3ffa 953c ac9e aebb 4b6f 3f3d 692a 9dbd
000000d0: 40b9 733a 24d5 52bd c712 7f3d 51bd 083c
000000e0: ba3e 98bc 6704 b5bb f3db 14bb 281d b2bd
000000f0: fe34 933d 22ca 9c3d f2a2 5fbd 2b19 433d
00000100: a27c 4ebd d246 4e3d 0c6f 8abc 21bd 9cbd
00000110: 7807 a03d 0526 4ebc 1e7e 2dbc 3d1e 9d3c
00000120: 1542 8e3d 488c 4cbc 5083 833d 78e6 b03d
00000130: f285 733d 36a3 773d 3162 843a 76fd 4a3d
00000140: f5cf 073d f6b7 78bd 60d3 233d 3cb8 4dbd
00000150: 288a 91bd 60c9 843d 2484 913d b1e5 e63c
00000160: 13cf a33d 7ccb 79bb db74 e7bc 17d1 e8bc
00000170: 2f93 ae3d e68e 27bd ea69 bc3c 225b 0dbc
00000180: b939 85bc 38d6 6dbd 6c3e 373c 4e47 3fbd
00000190: 3a0e 12bd c3fb af3d 0c80 5b3d cf0a 2cbd
000001a0: cf0a a9bd 8724 2e3d cadf 16bd be0d 9b3d
000001b0: 5c1a 04bd 82b9 813d 6339 b3bb 59a1 5dbd
000001c0: 5bd3 513d f1cf 7a3c 6c68 8abc 5a42 9bbd
000001d0: 89cd 4a3d 0150 553d c9d3 9b3d cdb2 503d
000001e0: e32e 373d b89a a1bd 626a 08bc 56f6 453d
000001f0: 3fa3 d6bc 30c3 93bd 79bb 183d 0cc6 373d
00000200: f567 2bbd 7a1f 303d 7065 0b3d 6bd2 2e3d
00000210: 663d 953d e810 abbd 16f6 9cbd b80a b23d
00000220: bccb 76bd 6a32 c8bc ee7c 2bbc 2f91 8b3d
00000230: e808 babc 576a 833c f910 91bd 58e5 fb3c
00000240: 25a4 08bb dadb 133d c786 7ebd c170 843d
00000250: f3a9 a73a 6130 013d 108f 46bd 1050 9b3b
00000260: 8332 a3bd 9731 923d 692d 96bd b918 9dbd
00000270: 1b9c 8e3c 82da 5ebc 6dbe f1bc 0181 9cbc
00000280: a970 823d bc27 853d 6c03 9bbd 371c e2bb
00000290: db9f b4bd e9b5 adbd f755 263d 30ab feba
000002a0: fe2b 523d c5fd 7d3d 08b5 b3bd e306 f0bc
000002b0: 0f36 853d 0ef7 8e3d 2054 aa3d 3783 3cbd
000002c0: 3f7e 113d 8949 8cbd 4cee a73a fcf3 66ba
000002d0: 4678 dcbb 6e27 67bd 1f2e 90bc 0b2d 733d
000002e0: 8abd 823d a20f dd3c f114 813d ba87 a13d
000002f0: 5530 acbd 58a2 8fbd f2fe 5e3d 5e09 963c
00000300: e847 22bd 60d8 f9bb 2268 b23d de20 9e3d
00000310: 0ce9 1abd efdc 32bd 60a2 223c 6ea7 9dbd
00000320: 6d10 18bb ea82 8d3d 3fc9 7ebd 4429 b23d
00000330: ad5e 33bc 62ad 0e3c 9e7c 593d 9149 a4bd
00000340: efaf 23bd 29c3 b53b 8fae a53c 7fa8 633c
00000350: 8f29 db3c c754 5ebb e573 b3bd 4365 41bd
00000360: 5c86 a1bd 0483 533b 703c 6b3d 9b50 7ebc
00000370: 4720 af3d 274e 943b ebd9 343d e147 9fbd
00000380: 43c0 4bbd defc 273d 843f 88bd 0f56 a03d
00000390: 9a33 a13d bbcd e3b6 7638 813d fb43 2b3c
000003a0: 57fc 2fbc 560b 813d 6540 73bd cd6d 5fbd
000003b0: 7d86 82bd 7571 3ebd 240c a13d 4550 a03d
000003c0: ccb6 603d 2cb4 9cbc 50df 07bd 4fc5 9abd
000003d0: b0f4 e0bc 6cd6 863c 5e31 523d a7f5 883d
000003e0: f5a3 8d3d b915 64bc 5b81 b4bd 005b 59bc
000003f0: c037 75bd 86ba 083d 9cd5 1b3d 6f5b aabd
0.015827091 0.022554949 -0.07428652 -0.0769254 0.08019086 -0.060367316 0.08761773 0.04003052
0.0026913106 0.005368796 -0.0841547 0.020861942 0.027071722 0.027577799 -0.04878879 0.03301226
-0.061644606 0.053426176 -0.0036254786 0.041995335 0.018284254 -0.043889586 -0.009816807 -0.015626715
0.0042252154 -0.009940515 0.010257952 0.060995355 0.02621778 0.046975557 0.009065279 0.04590741
0.021097079 -0.024731142 0.027130367 0.0040314733 -0.053736683 -0.07621354 -0.035101306 -0.016897947
-0.029780682 0.05441378 -0.054995555 -0.055752046 -0.023195157 0.0424629 -0.023192141 0.02517048
0.018307803 -0.0053289738 0.046736997 -0.07674105 0.0009297319 -0.051472798 0.062273767 0.008345918
-0.018584598 -0.0055242064 -0.0022714108 -0.08696967 0.07187842 0.07655741 -0.054598756 0.047631424
-0.050411828 0.05036051 -0.016898654 -0.07653261 0.078139246 -0.012582307 -0.010589151 0.019179458
0.06946198 -0.0124846175 0.0642153 0.086377084 0.059453912 0.060458384 0.0010100064 0.049558125
0.033157308 -0.060722314 0.039996505 -0.050224528 -0.07106429 0.06483722 0.07105282 0.028185697
0.07998481 -0.003811567 -0.028253963 -0.028420014 0.08524167 -0.040907763 0.022999723 -0.008627685
-0.016262876 -0.058065623 0.011184316 -0.04669886 -0.0356581 0.085929416 0.053588912 -0.042002495
-0.08254015 0.042515304 -0.036834516 0.075709805 -0.0322517 0.06334211 -0.0054694875 -0.05410895
0.051226955 0.015308366 -0.016895495 -0.07581015 0.04951242 0.05207825 0.07608754 0.050951768
0.04472245 -0.078908384 -0.008326145 0.048330627 -0.026200889 -0.072149634 0.037288163 0.044866607
-0.041847188 0.04299877 0.034032285 0.04268114 0.072871014 -0.08352834 -0.07664125 0.08693451
-0.06025289 -0.024438102 -0.010466797 0.06814801 -0.022709325 0.016041918 -0.070833154 0.030749008
-0.002084979 0.03609834 -0.062140252 0.064668186 0.0012791738 0.03154028 -0.04847628 0.004739769
-0.07968619 0.07138365 -0.0733288 -0.07670731 0.017408421 -0.013601901 -0.029509747 -0.019104483
0.063691445 0.06501719 -0.07569012 -0.006900336 -0.088195525 -0.08481962 0.040609326 -0.001942968
0.051311485 0.06200959 -0.08774763 -0.029300159 0.065044515 0.06980716 0.08316827 -0.046023574
0.03552079 -0.06849963 0.0012812107 -0.000881016 -0.006728205 -0.056434087 -0.017600117 0.05936913
0.06383808 0.026984993 0.063028224 0.07887216 -0.08407656 -0.070133865 0.054442354 0.018315013
-0.039619356 -0.007624671 0.08711268 0.07721113 -0.037819907 -0.04366773 0.0099264085 -0.0769795
-0.002320315 0.069097355 -0.062203642 0.08699277 -0.010947865 0.00870833 0.05309736 -0.08021844
-0.039962705 0.0055469465 0.020224838 0.013895153 0.026753215 -0.0033925043 -0.087623395 -0.04721571
-0.07886955 0.0032274136 0.057430685 -0.0155221475 0.08551078 0.004525918 0.044153135 -0.07777382
-0.049743902 0.041012637 -0.0665274 0.078289144 0.0787117 -6.7890774e-06 0.06309597 0.0104532195
-0.010741315 0.0630099 -0.059387583 -0.054548074 -0.06373308 -0.04649492 0.07863644 0.0782781
0.05486183 -0.019128881 -0.03317195 -0.07557165 -0.027460426 0.016459666 0.05131661 0.066874795
0.06916038 -0.013921195 -0.08813735 -0.013266325 -0.05986762 0.033381008 0.03804551 -0.08318221
