SimLoan/res/experiments_adj_generation_unfair_decisions_10_steps/effort_model_1 _5 _10.pth (torch, 43028 bytes, 12 tensors)

fc1.weight f4 [128, 7]
0	0xbe0ed484	-0.13948256
1	0x3e315f23	0.17321448
2	0xbe911b5d	-0.2834119
3	0xbe45e264	-0.19324642
4	0xbdcdd1a1	-0.10049749
5	0x3ec7c7a5	0.39019504
6	0x3cf306ad	0.02966627
7	0xbde901dc	-0.11377308
8	0xbe81047d	-0.25198737
9	0xbe226cba	-0.15861788
10	0xbe0fa219	-0.14026679
11	0xbca59969	-0.020214753
12	0x3d21c281	0.039492134
13	0xbe9daec5	-0.307974
14	0x3daeae35	0.08529321
15	0xbe82a734	-0.2551819
16	0x3e9d0e59	0.3067501
17	0xbd121e50	-0.03567344
18	0x3e0f64b8	0.14003265
19	0xbe8ee784	-0.27911007
20	0xbc04876e	-0.00808893
21	0x3ec5aa69	0.38606575
22	0xbe7a8242	-0.24463752
23	0xbd0a5d3b	-0.033780318
24	0xbe92b817	-0.28656074
25	0x3d81202b	0.06304964
26	0xbde86751	-0.11347831
27	0x3e92a49b	0.2864121
28	0x3ed4d851	0.41571286
29	0xbe3f3602	-0.18672946
30	0x3e925438	0.2857988
31	0xbe9ea8e5	-0.3098823
32	0xbe22a855	-0.15884526
33	0xbe5e5a01	-0.21714021
34	0xbe5999fc	-0.21250147
35	0xbd0e0402	-0.03467179
36	0xbe8584f8	-0.2607801
37	0xbd812714	-0.06306282
38	0x3ea12c8f	0.31479308
39	0x3d39f4d7	0.045399513
40	0x3e13bd9b	0.14427797
41	0xbe8b7d36	-0.27243966
42	0x3ee55fd2	0.44799668
43	0xbd53458d	-0.05158
44	0x3ec293d3	0.38003406
45	0x3c8f5470	0.017496318
46	0xbe8bfefe	-0.2734298
47	0xbe2677f0	-0.1625669
48	0x3e59231e	0.21204802
49	0x3eb1a130	0.3469329
50	0xbe8b720a	-0.27235442
51	0x3e861679	0.2618902
52	0x3e44c3e3	0.1921535
53	0xbe82b430	-0.25528097
54	0x3e79ad03	0.24382405
55	0xbe82d01f	-0.2554941
56	0xbe38dbb3	-0.18052559
57	0x3e142af9	0.14469518
58	0x3dd2a0e5	0.102845944
59	0xbee4a906	-0.44660205
60	0xbd05f9d2	-0.03270895
61	0xbdd68edd	-0.10476468
62	0xbe126c60	-0.14299154
63	0xbced7733	-0.028987503
64	0xbe94c461	-0.29056075
65	0x3e96bc95	0.29440752
66	0x3e2a544e	0.16633722
67	0x3e052dfb	0.13005821
68	0x3c46adc3	0.012126389
69	0xbe83fa2b	-0.257768
70	0xbd8cfb1a	-0.06883831
71	0xbc66efcc	-0.014095258
72	0x3e38b491	0.1803763
73	0x3e7e014b	0.2480518
74	0x3e1d845a	0.1538252
75	0xbe09a342	-0.13441184
76	0xbcf25d80	-0.0295856
77	0x3e495421	0.19660999
78	0x3dc0a051	0.09405578
79	0xbe8d7723	-0.27629957
80	0xbe3d06cf	-0.18459629
81	0x3e7c8c64	0.2466293
82	0x3c8b199c	0.016979985
83	0x3e8e670c	0.27812994
84	0xbebe45b7	-0.37162563
85	0x3e3f860d	0.1870348
86	0x3e7d8906	0.24759302
87	0x3e354800	0.17703247
88	0xbdb18a92	-0.08669008
89	0x3dd87fe9	0.10571272
90	0xbecc1079	-0.39856318
91	0x3d186d79	0.037213776
92	0xbe6e4a44	-0.23270518
93	0x3c293d89	0.0103296125
94	0x3e98bbc5	0.29830757
95	0xbe98b6b2	-0.29826885
96	0x3e8f2b24	0.279626
97	0x3eaa0bf3	0.33212242
98	0xbdd96187	-0.10614305
99	0x3e8c5b4e	0.2741341
100	0xbdd5b30d	-0.10434542
101	0xbd7ead41	-0.062176947
102	0xbd478170	-0.048707426
103	0xbd8a03f4	-0.06739035
104	0x3be4e8b7	0.0069857496
105	0x3e44dcb7	0.19224821
106	0xbe78a99e	-0.24283454
107	0xbdbe3655	-0.09287707
108	0xbdb4bf46	-0.08825545
109	0x3e099bcd	0.1343834
110	0x3d3166f6	0.04331108
111	0xbe7c1d57	-0.24620567
112	0xbdf7556d	-0.120768405
113	0x3e7a4af0	0.24442649
114	0xbe09fd8c	-0.13475627
115	0x3e588540	0.21144581
116	0xbdc4a6e6	-0.09602146
117	0xbbca790c	-0.0061789807
118	0x3cfd4cf9	0.030920492
119	0x3e224002	0.1584473
120	0xbe432440	-0.19056797
121	0x3e431bff	0.19053648
122	0x3d98df2d	0.074644424
123	0x3dd19378	0.102332056
124	0xbec76b3f	-0.3894901
125	0x3e8611f8	0.26185584
126	0xbe36658d	-0.17812176
127	0x3dd725fa	0.1050529
128	0x3c940a84	0.01807142
129	0xbcc38497	-0.023866935
130	0xbe36d1c5	-0.17853458
131	0xbd8a430b	-0.06751069
132	0x3e433f30	0.19067073
133	0x3e0cf905	0.13766868
134	0xbed7507d	-0.42053595
135	0x3e8f2e99	0.2796524
136	0xbe1e71dc	-0.15473121
137	0x3de3837d	0.11109064
138	0x3d997f0f	0.07494938
139	0xbe91b907	-0.28461477
140	0x3bbe9362	0.0058159092
141	0xbda6bfd3	-0.08142056
142	0x3e8bf8e4	0.27338326
143	0xbe375cb4	-0.17906457
144	0x3df5372e	0.11973415
145	0xbea2ded9	-0.31810644
146	0xbead8ac0	-0.3389492
147	0xbe07347c	-0.13203615
148	0x3e90fc7b	0.28317627
149	0x3e53ed9e	0.20696113
150	0xbe55af39	-0.20867623
151	0xbea7eca5	-0.32797733
152	0xbd6acbbb	-0.0573232
153	0xbebc8868	-0.3682282
154	0x3d5525ed	0.052038122
155	0xbe86c879	-0.26324823
156	0xbd1ad66a	-0.037802137
157	0x3e86cdf1	0.26328996
158	0xbe524011	-0.20532252
159	0x3eb6df56	0.35717267
160	0x3e930612	0.2871557
161	0x3c11e01a	0.008903528
162	0x3e6bf45c	0.23042434
163	0xbeaacc97	-0.33359215
164	0x3e833fd1	0.25634626
165	0xbeadbddf	-0.33933923
166	0x3e8b824b	0.27247843
167	0x3e30d43f	0.17268465
168	0x3e5845de	0.21120402
169	0xbe8af092	-0.27136666
170	0x3e2df08f	0.16986297
171	0x3e190444	0.14943033
172	0xbe88c92e	-0.26715988
173	0x3e0c67c4	0.13711458
174	0x3e0c1228	0.13678801
175	0x3ebae050	0.36499262
176	0xba812f58	-0.0009856028
177	0xbdfa9331	-0.12235106
178	0xbdb070a1	-0.08615232
179	0xbe2d67bd	-0.16934104
180	0x3e41da94	0.18931037
181	0xbd6773ae	-0.056506805
182	0xbdd8347d	-0.10556886
183	0x3da1ebce	0.07906304
184	0x3e14f691	0.14547183
185	0xbdbc9ee6	-0.09209995
186	0xbd56ebd0	-0.052470982
187	0xbdaf9049	-0.08572442
188	0xbecc394f	-0.39887473
189	0xbe2aa661	-0.16665031
190	0xbdece8cc	-0.1156784
191	0xbe8e23c7	-0.2776167
192	0x3ee23ad0	0.44185495
193	0x3ec76454	0.38943732
194	0x3dcc0c92	0.09963335
195	0xbe640653	-0.22268037
196	0xbd1daa9b	-0.03849278
197	0xbd8490e6	-0.0647295
198	0xbe7d41dc	-0.24732155
199	0x3d547538	0.0518696
200	0xbccbde17	-0.024886174
201	0x3c17c16b	0.009262423
202	0x3e682f10	0.22674203
203	0xbe0ace64	-0.13555294
204	0x3c5d88e3	0.013521406
205	0xbe737fd0	-0.23779225
206	0xbe6582b0	-0.22413135
207	0x3e918356	0.28420514
208	0xbe66c0c5	-0.22534473
209	0x3ee1e613	0.44120845
210	0xbe6bd744	-0.23031336
211	0x3e6615f2	0.22469309
212	0x3d95d952	0.07316841
213	0x3ece691c	0.40314567
214	0xbde9258a	-0.11384113
215	0xbe98bcd4	-0.29831564
216	0x3ec21056	0.37903088
217	0x3e88134f	0.2657723
218	0x3e71f9ff	0.23630522
219	0xbe28dc2c	-0.16490239
220	0xbed3b8ef	-0.4135203
221	0x3e1b6a1a	0.15177193
222	0xbe63537d	-0.22199817
223	0x3e34fec4	0.1767531
224	0xbe45ff35	-0.19335635
225	0xbe8e45f7	-0.27787754
226	0xbbbc8975	-0.005753691
227	0xbe26d91d	-0.1629376
228	0xbe025c82	-0.12730601
229	0xbd20b574	-0.039235547
230	0xbdbcde9f	-0.09222149
231	0x3e90bf92	0.28271157
232	0x3cf401d1	0.029786022
233	0x3c8c2590	0.017107755
234	0xbddcb688	-0.107770026
235	0x3e5bccb6	0.2146481
236	0x3c6e0a64	0.0145288445
237	0x3e1f1a02	0.15537265
238	0xbe0bab60	-0.13639593
239	0xbea14442	-0.3149739
240	0x3e8a2e8d	0.2698864
241	0x3e94d8fc	0.29071796
242	0x3e990b11	0.29891255
243	0xbe9722e8	-0.2951882
244	0xbe32feb6	-0.17479977
245	0xbea8df84	-0.3298303
246	0x3e968b02	0.2940293
247	0xbda5d229	-0.080967255
248	0x3e1c85fa	0.15285483
249	0x3d8aae28	0.06771499
250	0x3e028646	0.12746534
251	0xbe842a07	-0.25813314
252	0xbd407985	-0.04699089
253	0x3d7a214a	0.061066903
254	0x3e43b682	0.1911259
255	0x3e6b4d8e	0.22978804

fc1.bias f4 [128]
0	0x3eb55cfa	0.35422498
1	0x3e8e4980	0.2779045
2	0xbda5c968	-0.08095056
3	0xbe976f59	-0.2957714
4	0x3e4ee454	0.20204288
5	0x3e8bb23e	0.27284425
6	0x3e73a1e7	0.2379223
7	0xbe4153e6	-0.18879661
8	0xbeba3240	-0.36366463
9	0xbd841893	-0.0645
10	0xbed3ab32	-0.4134155
11	0xbe58fe7f	-0.21190833
12	0x3e61026a	0.21973577
13	0xbe91a62b	-0.2844709
14	0xbd73d1c0	-0.059526205
15	0x3e2d91b2	0.1695011
16	0xbe9dd1bd	-0.3082408
17	0xbe8843ba	-0.2661417
18	0x3d806780	0.06269741
19	0xbe0ba039	-0.13635339
20	0x3ebe79c9	0.3720229
21	0x3ddd031b	0.10791608
22	0x3e988ce0	0.2979498
23	0x3ec03672	0.37541538
24	0xbd8e8fb1	-0.06961001
25	0xbdd272dd	-0.10275815
26	0x3df3dbc8	0.11907154
27	0xbe405e72	-0.18786028
28	0x3e7b7178	0.24555004
29	0xbd17ad5a	-0.037030555
30	0x3e4400e4	0.19140965
31	0xbcc8ac1d	-0.024496133
32	0x3e886d93	0.26646098
33	0xbe8c2956	-0.27375287
34	0xbd497411	-0.049182955
35	0xbdb638f1	-0.088975795
36	0x3df48446	0.11939292
37	0xbec03198	-0.37537837
38	0xbec1e1d7	-0.37867615
39	0xbd813ae5	-0.06310061
40	0xbd99b2b6	-0.075047895
41	0x3e5c1921	0.21493961
42	0xbe5318fa	-0.20614997
43	0xbea39b3a	-0.31954366
44	0x3e0d8ebb	0.13823979
45	0xbe4d77c4	-0.20065218
46	0xbe2d5320	-0.16926241
47	0xbe5473dc	-0.20747322
48	0x3e4568b8	0.19278228
49	0x3e7b00b1	0.24511983
50	0x3e902d8b	0.28159747
51	0x3edea24d	0.434832
52	0xbe1676cf	-0.1469376
53	0x3cf9481f	0.030429898
54	0xbdf5853b	-0.11988302
55	0x3ddb1e86	0.10699181
56	0xbc7eb577	-0.015546194
57	0xbe87c47f	-0.26517102
58	0xbd75b39c	-0.059985742
59	0x3e08dade	0.13364741
60	0xbd45a928	-0.048257023
61	0x3df9e058	0.12200993
62	0x3ec5ed58	0.3865764
63	0xbe220d39	-0.15825357
64	0xbe137590	-0.14400315
65	0xbde1a03d	-0.11016891
66	0x3de61597	0.11234587
67	0xbd86f3ba	-0.06589456
68	0xbde673c8	-0.11252552
69	0xbe723737	-0.23653875
70	0x3e81bc30	0.25338888
71	0x3eb79784	0.35857785
72	0x3e6bd367	0.23029862
73	0x3e229c14	0.15879852
74	0x3d5e4409	0.054264102
75	0x3ed89dc7	0.42307875
76	0x3d7071b1	0.058702175
77	0x3ec1bf89	0.37841442
78	0x3cfa71d4	0.030571856
79	0x3ec102e5	0.3769752
80	0xbd97e45d	-0.07416604
81	0xbda28419	-0.07935352
82	0xbc57a575	-0.013162007
83	0xbe9d6477	-0.3074071
84	0x3e8c789e	0.27435774
85	0xbe54029f	-0.20704125
86	0xbebf3601	-0.3734589
87	0x3ec624d5	0.38699976
88	0xbed68660	-0.41899395
89	0xbeb7bf47	-0.3588812
90	0x3d58583e	0.05281853
91	0x3d257dac	0.040403053
92	0xbdf98601	-0.12183762
93	0xbe5b370a	-0.21407714
94	0x3d748700	0.05969906
95	0xbebbcf83	-0.36681756
96	0xbe6c0dbb	-0.23052113
97	0x3cbe8757	0.023257894
98	0x3e5fd782	0.21859553
99	0xbe3d2a7a	-0.18473235
100	0xbe3c2c02	-0.18376163
101	0xbdd56855	-0.104202904
102	0xbe8cfc33	-0.27536163
103	0x3e214b03	0.15751271
104	0xbd25219e	-0.040315263
105	0xbe247977	-0.1606196
106	0xbe92771d	-0.286065
107	0xbcf4a238	-0.029862508
108	0xbea53331	-0.32265618
109	0x3e48ef99	0.19622649
110	0xbe9cba81	-0.3061104
111	0x3d019ce7	0.031643774
112	0x3e495882	0.1966267
113	0xbed9dd76	-0.42551774
114	0xbe93eeb7	-0.28893062
115	0x3dcbb505	0.09946636
116	0xbe5c23cf	-0.21498035
117	0xbd2723d9	-0.04080567
118	0xbe82d9e3	-0.2555686
119	0xbe08d4ba	-0.13362399
120	0xbe135ea0	-0.14391565
121	0x3dbe0a40	0.09279299
122	0xbeab9b13	-0.3351675
123	0xbeed4ca7	-0.46347544
124	0x3e6fbb3b	0.23411267
125	0x3daaa3d9	0.08332033
126	0x3ec02827	0.37530634
127	0x3e47d988	0.19516575

fc2.weight f4 [64, 128]
0	0x3badd5a2	0.005305008
1	0xbd610f5a	-0.05494628
2	0x3cfe0bdf	0.03101152
3	0x3ccde81f	0.025135098
4	0xbd6d7ed1	-0.05798227
5	0xbcaf22ee	-0.02137896
6	0x3db88102	0.09008981
7	0xbda7daa0	-0.08195996
8	0x3d75d67b	0.060018998
9	0x3d558dd2	0.052137204
10	0xbdb2fbc2	-0.08739425
11	0x3d07f16d	0.033189226
12	0xbd39baf8	-0.045344323
13	0x3d2af593	0.041738104
14	0x3d0dea4e	0.03464728
15	0xba6541e3	-0.00087454746
16	0x3d1e9f46	0.038726114
17	0x3d200fa0	0.0390774
18	0x3d1742d2	0.03692896
19	0xbda5ba9c	-0.080922335
20	0x3ddca84d	0.10774288
21	0xbcb2bd1c	-0.02181869
22	0x3d109fbc	0.035308585
23	0x3b6ea4d1	0.0036414156
24	0xbd51f76e	-0.051261358
25	0x3d7483a7	0.059695866
26	0x3bed1855	0.0072355666
27	0x3dc091b6	0.09402792
28	0xbd30f940	-0.043206453
29	0x3d2555b5	0.04036494
30	0x3dcf6651	0.10126937
31	0x3d4c32aa	0.049853005
32	0x3cefa4c6	0.029253375
33	0xbcaeb9df	-0.021328865
34	0x3d1a0aa4	0.037607804
35	0xbd02df05	-0.03195097
36	0x3d7cf357	0.061755504
37	0x3c26da6a	0.01018391
38	0xbe0ed414	-0.13948089
39	0x3dd2534e	0.10269795
40	0x3ce99787	0.028514637
41	0x3d0bd647	0.034139898
42	0x3c209627	0.009801424
43	0x3d4d0bb5	0.050059993
44	0x3de59b6e	0.112112865
45	0xbdc11b6b	-0.09429058
46	0x3d55ebde	0.052226894
47	0x390b2a1d	0.00013271761
48	0x3dc6eaab	0.09712728
49	0xbd5c2a95	-0.053751547
50	0xbd03fd84	-0.032224193
51	0x3d44075b	0.047858577
52	0x3d6e8b18	0.05823812
53	0x3baf40f9	0.0053483215
54	0xbd7aeb52	-0.061259575
55	0xbca87085	-0.020561466
56	0x3d2a3635	0.041555602
57	0xbccddd46	-0.025129925
58	0xbcc6a634	-0.024249174
59	0x3d48dd41	0.04903913
60	0x3db92cd1	0.09041751
61	0x3b76c8fb	0.0037656415
62	0x3973bb13	0.00023243976
63	0xbd300678	-0.04297492
64	0xbcae1450	-0.02124992
65	0xbc989970	-0.018627852
66	0xbbaacbb9	-0.005212274
67	0xbce13b93	-0.027494228
68	0xbbf6466e	-0.00751572
69	0xbc9fe94d	-0.019520426
70	0xbde1be91	-0.11022676
71	0xbce13be2	-0.027494375
72	0x3dd01f17	0.1016218
73	0xbd52fcd8	-0.05151066
74	0xbca288bb	-0.019840589
75	0x3ceea45f	0.029131113
76	0xbd1c5802	-0.03816987
77	0x3bc47219	0.005995047
78	0xbd7018d9	-0.058617447
79	0x3d74e58a	0.059789218
80	0xbda71bf5	-0.08159629
81	0xbd014b47	-0.03156593
82	0x3d398268	0.04529038
83	0x3d86ff4c	0.06591663
84	0xbc530dfc	-0.012881752
85	0x3c9ef358	0.019403145
86	0xbdc8ac72	-0.09798516
87	0xbae50644	-0.0017473181
88	0xbdc7c555	-0.09754435
89	0xbd442b6c	-0.047892973
90	0xbd2edda8	-0.042691857
91	0xbd4c6319	-0.049899194
92	0x3cfa1967	0.03052969
93	0xbccb7728	-0.024837092
94	0xbd232e34	-0.039838985
95	0xbd3e6819	-0.046485994
96	0x3d132739	0.035926078
97	0x3ce6924f	0.028145937
98	0xbb29dc6f	-0.0025918742
99	0xbd2ebe28	-0.042661816
100	0x3d3a73c5	0.045520563
101	0xbd5e8e5b	-0.05433498
102	0x3c2c893c	0.010530766
103	0x3a13458b	0.00056179677
104	0x3c050e0b	0.008121024
105	0x3dd4405d	0.10363839
106	0x3db84f16	0.089994594
107	0x3cdf6f97	0.02727489
108	0xbcaa3760	-0.020778358
109	0x3d2d0ad6	0.042246662
110	0x3d6c75e7	0.057729628
111	0xbce24abc	-0.027623527
112	0x3d4c1025	0.049820084
113	0x3c6a532a	0.014302054
114	0x3d312249	0.043245587
115	0x3b9dbc39	0.0048136977
116	0x3d7408cd	0.059578706
117	0x3d8359b8	0.06413597
118	0xbd7981ec	-0.06091492
119	0x3ceb87d9	0.0287513
120	0x3db77772	0.08958329
121	0xbc43ac72	-0.01194297
122	0x3d1f3786	0.03887131
123	0xbd795753	-0.060874294
124	0xbc7afa9f	-0.015318542
125	0x3c19996e	0.009374959
126	0x3d6f37b6	0.05840274
127	0xbc941871	-0.01807806
128	0xbda34ee0	-0.079740286
129	0x3c81bb53	0.015836393
130	0x3d50ed91	0.05100781
131	0xbb8b712e	-0.0042554354
132	0x3d5d7d27	0.054074433
133	0xbc592620	-0.013253719
134	0xbdd78db0	-0.105250716
135	0xbd301539	-0.04298899
136	0x3d158c67	0.03651085
137	0x3d0dc21d	0.03460895
138	0xbd41c0a4	-0.047302857
139	0xbd147c63	-0.036251437
140	0x3d9500f3	0.07275572
141	0x3d4a892a	0.049447216
142	0x3c0b5889	0.008504995
143	0xbcf43e93	-0.029814994
144	0x3ca574ab	0.020197233
145	0x3d189033	0.037246894
146	0x3c2e8c32	0.010653542
147	0xbc498421	-0.012299568
148	0xbce78e4b	-0.028266093
149	0x3db3e9ed	0.08784852
150	0xbdb6f581	-0.08933545
151	0xbcf29260	-0.029610813
152	0xbc159c35	-0.009131481
153	0xbcbae796	-0.022815507
154	0x3be57607	0.0070025953
155	0x3c95161d	0.018199021
156	0xbd90e94d	-0.070757486
157	0xbd74ce15	-0.059766848
158	0xbd02f1c2	-0.03196884
159	0x3dbf51a6	0.09341745
160	0x3d0a711a	0.03379927
161	0xbd1c3686	-0.038137935
162	0xbdf490a3	-0.1194165
163	0x3d8644d8	0.065561
164	0xbddb27c5	-0.10700945
165	0xbcbe0da3	-0.023199862
166	0x3ccd4d13	0.025061166
167	0xbd93d40a	-0.072181776
168	0x3b8bb72c	0.004263779
169	0xbd728729	-0.05921093
170	0xbd8f18f0	-0.06987178
171	0x3d21e416	0.03952416
172	0xbcfb8276	-0.030701857
173	0x3d29386a	0.041313566
174	0xbd297c42	-0.041378267
175	0xbd9d3429	-0.076759644
176	0xbca6b321	-0.020349087
177	0xbc2c3dd8	-0.010512792
178	0xbd3f9390	-0.046771586
179	0x3bde1d37	0.006778385
180	0xbdb6d6ef	-0.08927714
181	0x3d2ab98e	0.041680865
182	0xbd367e91	-0.044554297
183	0x3c7526a0	0.014962822
184	0x3d4a3541	0.049367193
185	0x3d3e66e3	0.04648484
186	0x3de03ea5	0.109494485
187	0xbb33afe0	-0.0027418062
188	0x3ce7c5e1	0.028292598
189	0xbda57e4d	-0.080807306
190	0x3d1c5baf	0.038173374
191	0xbcf7be37	-0.030242069
192	0xbc8d2727	-0.017230583
193	0x3da93dbf	0.0826373
194	0x3c3fdd04	0.011710409
195	0xbdf2413f	-0.11828851
196	0x3d873255	0.06601397
197	0x3cb16139	0.021652805
198	0xbd0b8b7f	-0.03406858
199	0xbd81bc33	-0.06334724
200	0xbcbe2916	-0.02321295
201	0xbcee29cf	-0.02907267
202	0xbde036b8	-0.10947937
203	0xbd088d15	-0.03333767
204	0xbdbd96de	-0.09257291
205	0xbdac3a07	-0.08409505
206	0x3c1eab89	0.009684452
207	0x3cfdd75c	0.03098648
208	0x3d2ee23f	0.042696234
209	0xbd5a5a27	-0.053308632
210	0x3c886bc6	0.016652953
211	0xbdd9578e	-0.10612403
212	0xbc876902	-0.016529564
213	0x3d983ed1	0.07433856
214	0x3cdd0036	0.02697764
215	0x3c7b8b31	0.01535301
216	0x3db497a1	0.088179834
217	0x3d9f6df3	0.07784643
218	0x3d9b9d26	0.07598333
219	0xbdd05957	-0.1017329
220	0x3dd62eb7	0.10458129
221	0x3ddb15e6	0.10697536
222	0x3d281f73	0.041045617
223	0x3dd7e650	0.105419755
224	0x3d979266	0.0740097
225	0xbd4ff6ca	-0.050772466
226	0x3d86ff74	0.065916926
227	0x3d48fa1c	0.049066648
228	0xbd570ef2	-0.052504487
229	0x3dc6999c	0.096972674
230	0xbba234ab	-0.004950126
231	0x3d2f8dbb	0.042859774
232	0x3d4ef121	0.050522927
233	0x3d672b46	0.056437753
234	0xbda0ed65	-0.078577794
235	0xbe023b76	-0.12717995
236	0xba369140	-0.0006964393
237	0xba807cf0	-0.0009802859
238	0xbb8588e4	-0.0040751565
239	0xbd467842	-0.04845453
240	0xbcdb14b4	-0.02674327
241	0xbca1e6bc	-0.019763343
242	0x3af51768	0.0018698992
243	0x3db9234b	0.09039935
244	0x3d243210	0.040086806
245	0xbca2ef22	-0.019889418
246	0xb9b08b90	-0.00033673318
247	0x3df08369	0.117438145
248	0xbda1d0ec	-0.07901177
249	0x3ce17b04	0.027524479
250	0x3d2d90a3	0.042374264
251	0x3d380a9a	0.044931985
252	0xbcf44ecf	-0.029822735
253	0xbe05a398	-0.13050687
254	0xbd26397b	-0.04058216
255	0x3d89bdc9	0.06725652

fc2.bias f4 [64]
0	0xbd6db631	-0.05803508
1	0x3dd221d6	0.1026036
2	0xbd2db0bf	-0.042404886
3	0x3d85e735	0.0653824
4	0xbc8c7408	-0.017145172
5	0xbd8c33af	-0.06845795
6	0x3c73fd47	0.014891929
7	0xbd1ee5a8	-0.038793236
8	0x3c148e5a	0.009067142
9	0x3d5bbae0	0.053645015
10	0x3d9975bb	0.074931584
11	0xbc749da4	-0.014930163
12	0xbd8a47a6	-0.06751947
13	0xbd491e09	-0.04910091
14	0xbd4282a6	-0.047487877
15	0x3c6b5a41	0.01436478
16	0x3d08a579	0.033360932
17	0xbc01380c	-0.007886898
18	0xbd7205e6	-0.059087656
19	0xbc4e9db2	-0.01261084
20	0x3d62abc3	0.055339586
21	0xbd1bcba4	-0.038036004
22	0xbb5ee706	-0.0034012212
23	0x3d9090b8	0.07058853
24	0x3c70e3bc	0.014702734
25	0xbcd0e2e0	-0.025498807
26	0x3dc8c2cc	0.098027796
27	0x3c29e230	0.010368869
28	0x3d35a3fc	0.04434584
29	0xbd2e27af	-0.042518314
30	0xbd669948	-0.056298524
31	0xbc345afc	-0.0110080205
32	0xbd651b18	-0.05593404
33	0x3d842a7d	0.064534165
34	0xbd9706fa	-0.073743775
35	0xbd0cc0ff	-0.034363743
36	0xbd407b80	-0.04699278
37	0x3d292a1f	0.041299935
38	0xbd71604d	-0.05892973
39	0x3ced9636	0.02900229
40	0x3bea0cf7	0.007142659
41	0x3d2f74c2	0.04283596
42	0x3d81b11b	0.06332608
43	0x3d53308a	0.051559962
44	0xbd87c9e9	-0.06630308
45	0xbcebd0c4	-0.02878607
46	0xbca5d9db	-0.020245483
47	0x3ca9ea48	0.020741597
48	0xbbf9f7fe	-0.00762844
49	0xbd855c28	-0.06511718
50	0xbcc500b9	-0.024048196
51	0x3c5160bb	0.01277941
52	0xbce62e9c	-0.028098397
53	0xbdac2a44	-0.08406499
54	0xbda039ea	-0.07823546
55	0xbcc6bb82	-0.024259333
56	0xbc9d0dee	-0.019171681
57	0xbb7aa85e	-0.0038247327
58	0xbd75af2d	-0.059981514
59	0x3db2bcfd	0.08727453
60	0xbd2e926b	-0.042620104
61	0x3c990c97	0.018682761
62	0x3ca9ba28	0.020718649
63	0x3ccb003e	0.024780389

fc3.weight f4 [10, 64]
0	0x3cf1b682	0.029505972
1	0x3d238925	0.039925713
2	0xbdc07711	-0.0939771
3	0xbd9afa28	-0.07567245
4	0x3d1fce0d	0.039014865
5	0x3dc0844f	0.09400236
6	0x3d0e9c5e	0.034817092
7	0xbd8bd373	-0.0682744
8	0x3da88413	0.08228316
9	0x3c91f135	0.017815212
10	0xbcb8fa99	-0.022580432
11	0xbdd0bfc5	-0.10192827
12	0x3d16d7cb	0.03682689
13	0xbda270a5	-0.079316415
14	0xbd639b8f	-0.055568274
15	0xbc8d0e94	-0.017218865
16	0xbdadf1a6	-0.084933564
17	0xbd9bbb73	-0.076041125
18	0xbd0bb295	-0.034105856
19	0x3d88d259	0.06680746
20	0x3c1f8687	0.009736664
21	0xbe130b6d	-0.14359827
22	0xbdb324b3	-0.08747234
23	0x3d7625a1	0.06009448
24	0xbde0ddc9	-0.10979802
25	0x3d3f5247	0.046709325
26	0x3d90a0b2	0.070619
27	0x3d9c32f6	0.076269075
28	0x3c3858e7	0.011251665
29	0x3d70259c	0.058629617
30	0x3d7498e7	0.05971613
31	0xbd311f50	-0.043242753
32	0xbddfeff9	-0.10934443
33	0xbd014fa4	-0.03157009
34	0x3e446032	0.1917732
35	0x3d4b8319	0.04968557
36	0x3aada4e4	0.0013247994
37	0x3de9c848	0.11415154
38	0xbdd3363d	-0.103130795
39	0x3d2fa533	0.042882156
40	0xbe1c71cf	-0.1527779
41	0x3d75df1c	0.060027227
42	0xbdacbeb2	-0.0843481
43	0x3c9088d6	0.017643373
44	0xbda8973c	-0.08231971
45	0x3d5b1f3a	0.053496577
46	0xbd28acc3	-0.041180383
47	0xbdb529f2	-0.08845891
48	0x3cb4bb3c	0.022061937
49	0xbd7e832c	-0.062136814
50	0x3d47bd8c	0.04876475
51	0x3c9ed0b6	0.01938663
52	0xbd33533a	-0.043780543
53	0x3d77d896	0.060509287
54	0x3d0b1c23	0.03396238
55	0x3d3082a3	0.043093335
56	0xbdd3f18c	-0.10348806
57	0x3d28c730	0.041205585
58	0xbd8388ab	-0.06422552
59	0xbe180274	-0.14844686
60	0x3ddb12e4	0.106969625
61	0xbcc18886	-0.02362467
62	0xbdfe6e42	-0.12423374
63	0x3d394276	0.045229398
64	0xbb5b3865	-0.0033450362
65	0xbd6de179	-0.058076356
66	0x3d9508d0	0.072770715
67	0xbd1214ec	-0.035664484
68	0x3c209137	0.009800247
69	0x3cb30984	0.021855123
70	0xbc90effb	-0.017692557
71	0x3d507096	0.05088862
72	0xbdd60828	-0.104507744
73	0x3d11c77c	0.035590634
74	0xbc428f40	-0.011874974
75	0xbd92d1d1	-0.071689256
76	0x3d8e022d	0.06934009
77	0xbc9fae5f	-0.019492326
78	0x3c6bfa1e	0.014402894
79	0xbded9a0e	-0.11601649
80	0xbde3bd96	-0.11120145
81	0xbda01a06	-0.078174636
82	0x3d34fb41	0.044184927
83	0xb89d5a41	-7.5031545e-05
84	0x3df100aa	0.11767705
85	0xbd501872	-0.050804563
86	0x3d14002c	0.036132976
87	0xbdcb1cf9	-0.099176355
88	0x3c27dd4e	0.010245634
89	0xbe1def84	-0.15423399
90	0x3ddeaf0b	0.108732305
91	0x3db65c94	0.089043766
92	0xbda58b4f	-0.08083212
93	0x3d3a4f12	0.045485564
94	0xbd89bbca	-0.06725271
95	0x3be57c16	0.0070033176
96	0x3df20dd4	0.11819044
97	0x3e0e4746	0.13894376
98	0x3bf5fa1f	0.0075066234
99	0x3e09f630	0.1347282
100	0x3dd33295	0.10312382
101	0xbda92432	-0.08258857
102	0x3d89754c	0.06711826
103	0xbdb1179c	-0.08647081
104	0x3d277393	0.040881705
105	0x3d3b30d3	0.04570086
106	0x3d9fd9fc	0.07805249
107	0xbdc07b58	-0.09398526
108	0x3d92714e	0.071505174
109	0x3cd5fc30	0.026121229
110	0xbc22e140	-0.009941399
111	0xbd9e44ce	-0.07727967
112	0x3d624d84	0.055249706
113	0x3d90497e	0.070452675
114	0x3d0f5e11	0.035001818
115	0x3d8987b3	0.06715336
116	0x3ca72887	0.020405067
117	0xbd37cbe5	-0.044872183
118	0xbe20afa0	-0.15691996
119	0x3cdeb238	0.02718459
120	0xbd122950	-0.03568393
121	0xbd291ede	-0.041289203
122	0xbd070c42	-0.032970674
123	0x3bf8b834	0.007590318
124	0x3d6c2443	0.05765177
125	0x3df08c20	0.11745477
126	0xbd654dc4	-0.055982366
127	0x3c41a8b9	0.011820012
128	0x3d0e6fa8	0.034774452
129	0x3d50e9e2	0.051004298
130	0xbcd19383	-0.025583034
131	0x3da4819f	0.08032536
132	0x3d30f9ca	0.043206967
133	0x3dab9df6	0.08379738
134	0xbd04d788	-0.03243211
135	0xbd2d29af	-0.04227608
136	0x3d82a7ef	0.06379687
137	0x3c76d031	0.015064285
138	0x3cacda00	0.021100044
139	0xbdfc233c	-0.12311408
140	0x3dea255f	0.11432909
141	0x3d2a4cab	0.041577023
142	0x3d3c670a	0.045996703
143	0x3ce955ce	0.028483298
144	0xbbc2bdb6	-0.0059430255
145	0x3c814be0	0.01578325
146	0x3dd08561	0.1018169
147	0x3d3f26e5	0.046667952
148	0x3bcce955	0.0062534013
149	0x3dbaf97f	0.09129619
150	0xbd970183	-0.07373335
151	0x3e087515	0.13325913
152	0xbc93746c	-0.01799985
153	0xbd988a3f	-0.07448243
154	0xbd709939	-0.058739875
155	0xbe1335eb	-0.14376037
156	0xbd0bd39c	-0.034137353
157	0x3d96521c	0.0733988
158	0x3ddc167c	0.10746476
159	0xbb9d4965	-0.004800009
160	0xbaad1dbd	-0.0013207715
161	0xbd635fa7	-0.055511143
162	0xbd26bde7	-0.04070845
163	0xbd85a685	-0.06525902
164	0xbd1b0b80	-0.037852764
165	0xbca3d1d1	-0.01999751
166	0x3c80c0c5	0.01571692
167	0x3cc55d31	0.024092289
168	0x3bb1e2d3	0.005428651
169	0x3d4ff333	0.050769042
170	0xbc47be79	-0.012191408
171	0x3cb2f43e	0.02184498
172	0xbd9a29d2	-0.07527508
173	0xbdb2a772	-0.08723344
174	0x3caf32ce	0.02138653
175	0xbd3cc22d	-0.046083618
176	0x3d7974f5	0.060902555
177	0x3d651e05	0.055936832
178	0x3bbc316b	0.005743196
179	0xbd0d855b	-0.034551006
180	0xbd435d72	-0.04769654
181	0x3bee1899	0.007266116
182	0x3da77ed3	0.08178487
183	0x3d8081bc	0.06274745
184	0x3c9aa44f	0.018877177
185	0xbd40088b	-0.046883147
186	0xbc8358dc	-0.016033582
187	0x39f3a129	0.00046468645
188	0xbd056f07	-0.032576587
189	0x3c239b2c	0.009985726
190	0x3db45e59	0.08807058
191	0x3c588812	0.013216035
192	0xbdf5c765	-0.12000922
193	0xbcfcdc56	-0.030866783
194	0x3ce65b3c	0.028119676
195	0x3ddde3d5	0.10834471
196	0xbd022337	-0.031771865
197	0xba582ffb	-0.0008246896
198	0xbda591ad	-0.08084426
199	0xbd94557a	-0.07242866
200	0x3b7c9081	0.003853828
201	0x3d375ffe	0.04476928
202	0xbd5b5195	-0.0535446
203	0xbdb3af4f	-0.08773672
204	0x3db70dae	0.08938156
205	0xbdffce15	-0.12490479
206	0x3db2020a	0.08691795
207	0x3dbacd2a	0.09121163
208	0x3e008628	0.12551177
209	0x3dc388dc	0.09547588
210	0x3db8c9b8	0.0902285
211	0x3cc352f4	0.023843266
212	0x3d6afb98	0.057368845
213	0x3dadda38	0.084888875
214	0xbc195cab	-0.009360473
215	0xbb6148b3	-0.0034375608
216	0x3c4e2ad7	0.012583456
217	0xbd891482	-0.06693365
218	0xbd2a6b5b	-0.04160629
219	0xbc07c1e0	-0.0082859695
220	0x3d429cb9	0.047512744
221	0x3dc78e7f	0.09743976
222	0xbd60340e	-0.054737143
223	0x3d97a9d3	0.07405438
224	0xbd9df316	-0.077123806
225	0x3bce176a	0.0062894123
226	0x3aafdd0f	0.0013417321
227	0x3cacc686	0.021090757
228	0xbcd8d3a9	-0.026468115
229	0x3cb29d69	0.021803575
230	0x3d952f7d	0.07284448
231	0x3d8e1597	0.06937712
232	0xbbff0434	-0.0077824835
233	0xbddeef2e	-0.10885464
234	0xbc37f234	-0.011227179
235	0x3d0bb0f6	0.03410431
236	0x3df2f49e	0.11863063
237	0x3cb76ada	0.022389818
238	0xbde57ec8	-0.11205822
239	0x3dca5440	0.09879351
240	0x3d08bbc0	0.033382177
241	0x3d67bd20	0.056576848
242	0xbe076fa3	-0.1322618
243	0xbd302e3f	-0.043012854
244	0x3a61970e	0.0008605578
245	0xbcd4079c	-0.025882535
246	0xbaf00519	-0.0018312066
247	0xbd212d37	-0.03934976
248	0x3d43444c	0.047672555
249	0xbd534d5a	-0.05158744
250	0x3d646f4a	0.055770196
251	0xbdf6a970	-0.120440364
252	0x3d9eec50	0.07759917
253	0xbd575a57	-0.05257639
254	0x3ccadc0b	0.024763128
255	0x3d4ff654	0.050772026

fc3.bias f4 [10]
0	0xbd46afbe	-0.048507445
1	0x3d407b75	0.046992738
2	0x3c57e984	0.013178233
3	0xbde4899c	-0.111590594
4	0x3daa22df	0.083074324
5	0xbce8c944	-0.028416283
6	0x3dcb8d0a	0.099390104
7	0x3d6b0dc8	0.05738619
8	0x3ce4f2ad	0.027947748
9	0xbd2946a6	-0.04132714

model.0.weight f4 [128, 7]
0	0xbe0ed484	-0.13948256
1	0x3e315f23	0.17321448
2	0xbe911b5d	-0.2834119
3	0xbe45e264	-0.19324642
4	0xbdcdd1a1	-0.10049749
5	0x3ec7c7a5	0.39019504
6	0x3cf306ad	0.02966627
7	0xbde901dc	-0.11377308
8	0xbe81047d	-0.25198737
9	0xbe226cba	-0.15861788
10	0xbe0fa219	-0.14026679
11	0xbca59969	-0.020214753
12	0x3d21c281	0.039492134
13	0xbe9daec5	-0.307974
14	0x3daeae35	0.08529321
15	0xbe82a734	-0.2551819
16	0x3e9d0e59	0.3067501
17	0xbd121e50	-0.03567344
18	0x3e0f64b8	0.14003265
19	0xbe8ee784	-0.27911007
20	0xbc04876e	-0.00808893
21	0x3ec5aa69	0.38606575
22	0xbe7a8242	-0.24463752
23	0xbd0a5d3b	-0.033780318
24	0xbe92b817	-0.28656074
25	0x3d81202b	0.06304964
26	0xbde86751	-0.11347831
27	0x3e92a49b	0.2864121
28	0x3ed4d851	0.41571286
29	0xbe3f3602	-0.18672946
30	0x3e925438	0.2857988
31	0xbe9ea8e5	-0.3098823
32	0xbe22a855	-0.15884526
33	0xbe5e5a01	-0.21714021
34	0xbe5999fc	-0.21250147
35	0xbd0e0402	-0.03467179
36	0xbe8584f8	-0.2607801
37	0xbd812714	-0.06306282
38	0x3ea12c8f	0.31479308
39	0x3d39f4d7	0.045399513
40	0x3e13bd9b	0.14427797
41	0xbe8b7d36	-0.27243966
42	0x3ee55fd2	0.44799668
43	0xbd53458d	-0.05158
44	0x3ec293d3	0.38003406
45	0x3c8f5470	0.017496318
46	0xbe8bfefe	-0.2734298
47	0xbe2677f0	-0.1625669
48	0x3e59231e	0.21204802
49	0x3eb1a130	0.3469329
50	0xbe8b720a	-0.27235442
51	0x3e861679	0.2618902
52	0x3e44c3e3	0.1921535
53	0xbe82b430	-0.25528097
54	0x3e79ad03	0.24382405
55	0xbe82d01f	-0.2554941
56	0xbe38dbb3	-0.18052559
57	0x3e142af9	0.14469518
58	0x3dd2a0e5	0.102845944
59	0xbee4a906	-0.44660205
60	0xbd05f9d2	-0.03270895
61	0xbdd68edd	-0.10476468
62	0xbe126c60	-0.14299154
63	0xbced7733	-0.028987503
64	0xbe94c461	-0.29056075
65	0x3e96bc95	0.29440752
66	0x3e2a544e	0.16633722
67	0x3e052dfb	0.13005821
68	0x3c46adc3	0.012126389
69	0xbe83fa2b	-0.257768
70	0xbd8cfb1a	-0.06883831
71	0xbc66efcc	-0.014095258
72	0x3e38b491	0.1803763
73	0x3e7e014b	0.2480518
74	0x3e1d845a	0.1538252
75	0xbe09a342	-0.13441184
76	0xbcf25d80	-0.0295856
77	0x3e495421	0.19660999
78	0x3dc0a051	0.09405578
79	0xbe8d7723	-0.27629957
80	0xbe3d06cf	-0.18459629
81	0x3e7c8c64	0.2466293
82	0x3c8b199c	0.016979985
83	0x3e8e670c	0.27812994
84	0xbebe45b7	-0.37162563
85	0x3e3f860d	0.1870348
86	0x3e7d8906	0.24759302
87	0x3e354800	0.17703247
88	0xbdb18a92	-0.08669008
89	0x3dd87fe9	0.10571272
90	0xbecc1079	-0.39856318
91	0x3d186d79	0.037213776
92	0xbe6e4a44	-0.23270518
93	0x3c293d89	0.0103296125
94	0x3e98bbc5	0.29830757
95	0xbe98b6b2	-0.29826885
96	0x3e8f2b24	0.279626
97	0x3eaa0bf3	0.33212242
98	0xbdd96187	-0.10614305
99	0x3e8c5b4e	0.2741341
100	0xbdd5b30d	-0.10434542
101	0xbd7ead41	-0.062176947
102	0xbd478170	-0.048707426
103	0xbd8a03f4	-0.06739035
104	0x3be4e8b7	0.0069857496
105	0x3e44dcb7	0.19224821
106	0xbe78a99e	-0.24283454
107	0xbdbe3655	-0.09287707
108	0xbdb4bf46	-0.08825545
109	0x3e099bcd	0.1343834
110	0x3d3166f6	0.04331108
111	0xbe7c1d57	-0.24620567
112	0xbdf7556d	-0.120768405
113	0x3e7a4af0	0.24442649
114	0xbe09fd8c	-0.13475627
115	0x3e588540	0.21144581
116	0xbdc4a6e6	-0.09602146
117	0xbbca790c	-0.0061789807
118	0x3cfd4cf9	0.030920492
119	0x3e224002	0.1584473
120	0xbe432440	-0.19056797
121	0x3e431bff	0.19053648
122	0x3d98df2d	0.074644424
123	0x3dd19378	0.102332056
124	0xbec76b3f	-0.3894901
125	0x3e8611f8	0.26185584
126	0xbe36658d	-0.17812176
127	0x3dd725fa	0.1050529
128	0x3c940a84	0.01807142
129	0xbcc38497	-0.023866935
130	0xbe36d1c5	-0.17853458
131	0xbd8a430b	-0.06751069
132	0x3e433f30	0.19067073
133	0x3e0cf905	0.13766868
134	0xbed7507d	-0.42053595
135	0x3e8f2e99	0.2796524
136	0xbe1e71dc	-0.15473121
137	0x3de3837d	0.11109064
138	0x3d997f0f	0.07494938
139	0xbe91b907	-0.28461477
140	0x3bbe9362	0.0058159092
141	0xbda6bfd3	-0.08142056
142	0x3e8bf8e4	0.27338326
143	0xbe375cb4	-0.17906457
144	0x3df5372e	0.11973415
145	0xbea2ded9	-0.31810644
146	0xbead8ac0	-0.3389492
147	0xbe07347c	-0.13203615
148	0x3e90fc7b	0.28317627
149	0x3e53ed9e	0.20696113
150	0xbe55af39	-0.20867623
151	0xbea7eca5	-0.32797733
152	0xbd6acbbb	-0.0573232
153	0xbebc8868	-0.3682282
154	0x3d5525ed	0.052038122
155	0xbe86c879	-0.26324823
156	0xbd1ad66a	-0.037802137
157	0x3e86cdf1	0.26328996
158	0xbe524011	-0.20532252
159	0x3eb6df56	0.35717267
160	0x3e930612	0.2871557
161	0x3c11e01a	0.008903528
162	0x3e6bf45c	0.23042434
163	0xbeaacc97	-0.33359215
164	0x3e833fd1	0.25634626
165	0xbeadbddf	-0.33933923
166	0x3e8b824b	0.27247843
167	0x3e30d43f	0.17268465
168	0x3e5845de	0.21120402
169	0xbe8af092	-0.27136666
170	0x3e2df08f	0.16986297
171	0x3e190444	0.14943033
172	0xbe88c92e	-0.26715988
173	0x3e0c67c4	0.13711458
174	0x3e0c1228	0.13678801
175	0x3ebae050	0.36499262
176	0xba812f58	-0.0009856028
177	0xbdfa9331	-0.12235106
178	0xbdb070a1	-0.08615232
179	0xbe2d67bd	-0.16934104
180	0x3e41da94	0.18931037
181	0xbd6773ae	-0.056506805
182	0xbdd8347d	-0.10556886
183	0x3da1ebce	0.07906304
184	0x3e14f691	0.14547183
185	0xbdbc9ee6	-0.09209995
186	0xbd56ebd0	-0.052470982
187	0xbdaf9049	-0.08572442
188	0xbecc394f	-0.39887473
189	0xbe2aa661	-0.16665031
190	0xbdece8cc	-0.1156784
191	0xbe8e23c7	-0.2776167
192	0x3ee23ad0	0.44185495
193	0x3ec76454	0.38943732
194	0x3dcc0c92	0.09963335
195	0xbe640653	-0.22268037
196	0xbd1daa9b	-0.03849278
197	0xbd8490e6	-0.0647295
198	0xbe7d41dc	-0.24732155
199	0x3d547538	0.0518696
200	0xbccbde17	-0.024886174
201	0x3c17c16b	0.009262423
202	0x3e682f10	0.22674203
203	0xbe0ace64	-0.13555294
204	0x3c5d88e3	0.013521406
205	0xbe737fd0	-0.23779225
206	0xbe6582b0	-0.22413135
207	0x3e918356	0.28420514
208	0xbe66c0c5	-0.22534473
209	0x3ee1e613	0.44120845
210	0xbe6bd744	-0.23031336
211	0x3e6615f2	0.22469309
212	0x3d95d952	0.07316841
213	0x3ece691c	0.40314567
214	0xbde9258a	-0.11384113
215	0xbe98bcd4	-0.29831564
216	0x3ec21056	0.37903088
217	0x3e88134f	0.2657723
218	0x3e71f9ff	0.23630522
219	0xbe28dc2c	-0.16490239
220	0xbed3b8ef	-0.4135203
221	0x3e1b6a1a	0.15177193
222	0xbe63537d	-0.22199817
223	0x3e34fec4	0.1767531
224	0xbe45ff35	-0.19335635
225	0xbe8e45f7	-0.27787754
226	0xbbbc8975	-0.005753691
227	0xbe26d91d	-0.1629376
228	0xbe025c82	-0.12730601
229	0xbd20b574	-0.039235547
230	0xbdbcde9f	-0.09222149
231	0x3e90bf92	0.28271157
232	0x3cf401d1	0.029786022
233	0x3c8c2590	0.017107755
234	0xbddcb688	-0.107770026
235	0x3e5bccb6	0.2146481
236	0x3c6e0a64	0.0145288445
237	0x3e1f1a02	0.15537265
238	0xbe0bab60	-0.13639593
239	0xbea14442	-0.3149739
240	0x3e8a2e8d	0.2698864
241	0x3e94d8fc	0.29071796
242	0x3e990b11	0.29891255
243	0xbe9722e8	-0.2951882
244	0xbe32feb6	-0.17479977
245	0xbea8df84	-0.3298303
246	0x3e968b02	0.2940293
247	0xbda5d229	-0.080967255
248	0x3e1c85fa	0.15285483
249	0x3d8aae28	0.06771499
250	0x3e028646	0.12746534
251	0xbe842a07	-0.25813314
252	0xbd407985	-0.04699089
253	0x3d7a214a	0.061066903
254	0x3e43b682	0.1911259
255	0x3e6b4d8e	0.22978804

model.0.bias f4 [128]
0	0x3eb55cfa	0.35422498
1	0x3e8e4980	0.2779045
2	0xbda5c968	-0.08095056
3	0xbe976f59	-0.2957714
4	0x3e4ee454	0.20204288
5	0x3e8bb23e	0.27284425
6	0x3e73a1e7	0.2379223
7	0xbe4153e6	-0.18879661
8	0xbeba3240	-0.36366463
9	0xbd841893	-0.0645
10	0xbed3ab32	-0.4134155
11	0xbe58fe7f	-0.21190833
12	0x3e61026a	0.21973577
13	0xbe91a62b	-0.2844709
14	0xbd73d1c0	-0.059526205
15	0x3e2d91b2	0.1695011
16	0xbe9dd1bd	-0.3082408
17	0xbe8843ba	-0.2661417
18	0x3d806780	0.06269741
19	0xbe0ba039	-0.13635339
20	0x3ebe79c9	0.3720229
21	0x3ddd031b	0.10791608
22	0x3e988ce0	0.2979498
23	0x3ec03672	0.37541538
24	0xbd8e8fb1	-0.06961001
25	0xbdd272dd	-0.10275815
26	0x3df3dbc8	0.11907154
27	0xbe405e72	-0.18786028
28	0x3e7b7178	0.24555004
29	0xbd17ad5a	-0.037030555
30	0x3e4400e4	0.19140965
31	0xbcc8ac1d	-0.024496133
32	0x3e886d93	0.26646098
33	0xbe8c2956	-0.27375287
34	0xbd497411	-0.049182955
35	0xbdb638f1	-0.088975795
36	0x3df48446	0.11939292
37	0xbec03198	-0.37537837
38	0xbec1e1d7	-0.37867615
39	0xbd813ae5	-0.06310061
40	0xbd99b2b6	-0.075047895
41	0x3e5c1921	0.21493961
42	0xbe5318fa	-0.20614997
43	0xbea39b3a	-0.31954366
44	0x3e0d8ebb	0.13823979
45	0xbe4d77c4	-0.20065218
46	0xbe2d5320	-0.16926241
47	0xbe5473dc	-0.20747322
48	0x3e4568b8	0.19278228
49	0x3e7b00b1	0.24511983
50	0x3e902d8b	0.28159747
51	0x3edea24d	0.434832
52	0xbe1676cf	-0.1469376
53	0x3cf9481f	0.030429898
54	0xbdf5853b	-0.11988302
55	0x3ddb1e86	0.10699181
56	0xbc7eb577	-0.015546194
57	0xbe87c47f	-0.26517102
58	0xbd75b39c	-0.059985742
59	0x3e08dade	0.13364741
60	0xbd45a928	-0.048257023
61	0x3df9e058	0.12200993
62	0x3ec5ed58	0.3865764
63	0xbe220d39	-0.15825357
64	0xbe137590	-0.14400315
65	0xbde1a03d	-0.11016891
66	0x3de61597	0.11234587
67	0xbd86f3ba	-0.06589456
68	0xbde673c8	-0.11252552
69	0xbe723737	-0.23653875
70	0x3e81bc30	0.25338888
71	0x3eb79784	0.35857785
72	0x3e6bd367	0.23029862
73	0x3e229c14	0.15879852
74	0x3d5e4409	0.054264102
75	0x3ed89dc7	0.42307875
76	0x3d7071b1	0.058702175
77	0x3ec1bf89	0.37841442
78	0x3cfa71d4	0.030571856
79	0x3ec102e5	0.3769752
80	0xbd97e45d	-0.07416604
81	0xbda28419	-0.07935352
82	0xbc57a575	-0.013162007
83	0xbe9d6477	-0.3074071
84	0x3e8c789e	0.27435774
85	0xbe54029f	-0.20704125
86	0xbebf3601	-0.3734589
87	0x3ec624d5	0.38699976
88	0xbed68660	-0.41899395
89	0xbeb7bf47	-0.3588812
90	0x3d58583e	0.05281853
91	0x3d257dac	0.040403053
92	0xbdf98601	-0.12183762
93	0xbe5b370a	-0.21407714
94	0x3d748700	0.05969906
95	0xbebbcf83	-0.36681756
96	0xbe6c0dbb	-0.23052113
97	0x3cbe8757	0.023257894
98	0x3e5fd782	0.21859553
99	0xbe3d2a7a	-0.18473235
100	0xbe3c2c02	-0.18376163
101	0xbdd56855	-0.104202904
102	0xbe8cfc33	-0.27536163
103	0x3e214b03	0.15751271
104	0xbd25219e	-0.040315263
105	0xbe247977	-0.1606196
106	0xbe92771d	-0.286065
107	0xbcf4a238	-0.029862508
108	0xbea53331	-0.32265618
109	0x3e48ef99	0.19622649
110	0xbe9cba81	-0.3061104
111	0x3d019ce7	0.031643774
112	0x3e495882	0.1966267
113	0xbed9dd76	-0.42551774
114	0xbe93eeb7	-0.28893062
115	0x3dcbb505	0.09946636
116	0xbe5c23cf	-0.21498035
117	0xbd2723d9	-0.04080567
118	0xbe82d9e3	-0.2555686
119	0xbe08d4ba	-0.13362399
120	0xbe135ea0	-0.14391565
121	0x3dbe0a40	0.09279299
122	0xbeab9b13	-0.3351675
123	0xbeed4ca7	-0.46347544
124	0x3e6fbb3b	0.23411267
125	0x3daaa3d9	0.08332033
126	0x3ec02827	0.37530634
127	0x3e47d988	0.19516575

model.1.weight f4 [64, 128]
0	0x3badd5a2	0.005305008
1	0xbd610f5a	-0.05494628
2	0x3cfe0bdf	0.03101152
3	0x3ccde81f	0.025135098
4	0xbd6d7ed1	-0.05798227
5	0xbcaf22ee	-0.02137896
6	0x3db88102	0.09008981
7	0xbda7daa0	-0.08195996
8	0x3d75d67b	0.060018998
9	0x3d558dd2	0.052137204
10	0xbdb2fbc2	-0.08739425
11	0x3d07f16d	0.033189226
12	0xbd39baf8	-0.045344323
13	0x3d2af593	0.041738104
14	0x3d0dea4e	0.03464728
15	0xba6541e3	-0.00087454746
16	0x3d1e9f46	0.038726114
17	0x3d200fa0	0.0390774
18	0x3d1742d2	0.03692896
19	0xbda5ba9c	-0.080922335
20	0x3ddca84d	0.10774288
21	0xbcb2bd1c	-0.02181869
22	0x3d109fbc	0.035308585
23	0x3b6ea4d1	0.0036414156
24	0xbd51f76e	-0.051261358
25	0x3d7483a7	0.059695866
26	0x3bed1855	0.0072355666
27	0x3dc091b6	0.09402792
28	0xbd30f940	-0.043206453
29	0x3d2555b5	0.04036494
30	0x3dcf6651	0.10126937
31	0x3d4c32aa	0.049853005
32	0x3cefa4c6	0.029253375
33	0xbcaeb9df	-0.021328865
34	0x3d1a0aa4	0.037607804
35	0xbd02df05	-0.03195097
36	0x3d7cf357	0.061755504
37	0x3c26da6a	0.01018391
38	0xbe0ed414	-0.13948089
39	0x3dd2534e	0.10269795
40	0x3ce99787	0.028514637
41	0x3d0bd647	0.034139898
42	0x3c209627	0.009801424
43	0x3d4d0bb5	0.050059993
44	0x3de59b6e	0.112112865
45	0xbdc11b6b	-0.09429058
46	0x3d55ebde	0.052226894
47	0x390b2a1d	0.00013271761
48	0x3dc6eaab	0.09712728
49	0xbd5c2a95	-0.053751547
50	0xbd03fd84	-0.032224193
51	0x3d44075b	0.047858577
52	0x3d6e8b18	0.05823812
53	0x3baf40f9	0.0053483215
54	0xbd7aeb52	-0.061259575
55	0xbca87085	-0.020561466
56	0x3d2a3635	0.041555602
57	0xbccddd46	-0.025129925
58	0xbcc6a634	-0.024249174
59	0x3d48dd41	0.04903913
60	0x3db92cd1	0.09041751
61	0x3b76c8fb	0.0037656415
62	0x3973bb13	0.00023243976
63	0xbd300678	-0.04297492
64	0xbcae1450	-0.02124992
65	0xbc989970	-0.018627852
66	0xbbaacbb9	-0.005212274
67	0xbce13b93	-0.027494228
68	0xbbf6466e	-0.00751572
69	0xbc9fe94d	-0.019520426
70	0xbde1be91	-0.11022676
71	0xbce13be2	-0.027494375
72	0x3dd01f17	0.1016218
73	0xbd52fcd8	-0.05151066
74	0xbca288bb	-0.019840589
75	0x3ceea45f	0.029131113
76	0xbd1c5802	-0.03816987
77	0x3bc47219	0.005995047
78	0xbd7018d9	-0.058617447
79	0x3d74e58a	0.059789218
80	0xbda71bf5	-0.08159629
81	0xbd014b47	-0.03156593
82	0x3d398268	0.04529038
83	0x3d86ff4c	0.06591663
84	0xbc530dfc	-0.012881752
85	0x3c9ef358	0.019403145
86	0xbdc8ac72	-0.09798516
87	0xbae50644	-0.0017473181
88	0xbdc7c555	-0.09754435
89	0xbd442b6c	-0.047892973
90	0xbd2edda8	-0.042691857
91	0xbd4c6319	-0.049899194
92	0x3cfa1967	0.03052969
93	0xbccb7728	-0.024837092
94	0xbd232e34	-0.039838985
95	0xbd3e6819	-0.046485994
96	0x3d132739	0.035926078
97	0x3ce6924f	0.028145937
98	0xbb29dc6f	-0.0025918742
99	0xbd2ebe28	-0.042661816
100	0x3d3a73c5	0.045520563
101	0xbd5e8e5b	-0.05433498
102	0x3c2c893c	0.010530766
103	0x3a13458b	0.00056179677
104	0x3c050e0b	0.008121024
105	0x3dd4405d	0.10363839
106	0x3db84f16	0.089994594
107	0x3cdf6f97	0.02727489
108	0xbcaa3760	-0.020778358
109	0x3d2d0ad6	0.042246662
110	0x3d6c75e7	0.057729628
111	0xbce24abc	-0.027623527
112	0x3d4c1025	0.049820084
113	0x3c6a532a	0.014302054
114	0x3d312249	0.043245587
115	0x3b9dbc39	0.0048136977
116	0x3d7408cd	0.059578706
117	0x3d8359b8	0.06413597
118	0xbd7981ec	-0.06091492
119	0x3ceb87d9	0.0287513
120	0x3db77772	0.08958329
121	0xbc43ac72	-0.01194297
122	0x3d1f3786	0.03887131
123	0xbd795753	-0.060874294
124	0xbc7afa9f	-0.015318542
125	0x3c19996e	0.009374959
126	0x3d6f37b6	0.05840274
127	0xbc941871	-0.01807806
128	0xbda34ee0	-0.079740286
129	0x3c81bb53	0.015836393
130	0x3d50ed91	0.05100781
131	0xbb8b712e	-0.0042554354
132	0x3d5d7d27	0.054074433
133	0xbc592620	-0.013253719
134	0xbdd78db0	-0.105250716
135	0xbd301539	-0.04298899
136	0x3d158c67	0.03651085
137	0x3d0dc21d	0.03460895
138	0xbd41c0a4	-0.047302857
139	0xbd147c63	-0.036251437
140	0x3d9500f3	0.07275572
141	0x3d4a892a	0.049447216
142	0x3c0b5889	0.008504995
143	0xbcf43e93	-0.029814994
144	0x3ca574ab	0.020197233
145	0x3d189033	0.037246894
146	0x3c2e8c32	0.010653542
147	0xbc498421	-0.012299568
148	0xbce78e4b	-0.028266093
149	0x3db3e9ed	0.08784852
150	0xbdb6f581	-0.08933545
151	0xbcf29260	-0.029610813
152	0xbc159c35	-0.009131481
153	0xbcbae796	-0.022815507
154	0x3be57607	0.0070025953
155	0x3c95161d	0.018199021
156	0xbd90e94d	-0.070757486
157	0xbd74ce15	-0.059766848
158	0xbd02f1c2	-0.03196884
159	0x3dbf51a6	0.09341745
160	0x3d0a711a	0.03379927
161	0xbd1c3686	-0.038137935
162	0xbdf490a3	-0.1194165
163	0x3d8644d8	0.065561
164	0xbddb27c5	-0.10700945
165	0xbcbe0da3	-0.023199862
166	0x3ccd4d13	0.025061166
167	0xbd93d40a	-0.072181776
168	0x3b8bb72c	0.004263779
169	0xbd728729	-0.05921093
170	0xbd8f18f0	-0.06987178
171	0x3d21e416	0.03952416
172	0xbcfb8276	-0.030701857
173	0x3d29386a	0.041313566
174	0xbd297c42	-0.041378267
175	0xbd9d3429	-0.076759644
176	0xbca6b321	-0.020349087
177	0xbc2c3dd8	-0.010512792
178	0xbd3f9390	-0.046771586
179	0x3bde1d37	0.006778385
180	0xbdb6d6ef	-0.08927714
181	0x3d2ab98e	0.041680865
182	0xbd367e91	-0.044554297
183	0x3c7526a0	0.014962822
184	0x3d4a3541	0.049367193
185	0x3d3e66e3	0.04648484
186	0x3de03ea5	0.109494485
187	0xbb33afe0	-0.0027418062
188	0x3ce7c5e1	0.028292598
189	0xbda57e4d	-0.080807306
190	0x3d1c5baf	0.038173374
191	0xbcf7be37	-0.030242069
192	0xbc8d2727	-0.017230583
193	0x3da93dbf	0.0826373
194	0x3c3fdd04	0.011710409
195	0xbdf2413f	-0.11828851
196	0x3d873255	0.06601397
197	0x3cb16139	0.021652805
198	0xbd0b8b7f	-0.03406858
199	0xbd81bc33	-0.06334724
200	0xbcbe2916	-0.02321295
201	0xbcee29cf	-0.02907267
202	0xbde036b8	-0.10947937
203	0xbd088d15	-0.03333767
204	0xbdbd96de	-0.09257291
205	0xbdac3a07	-0.08409505
206	0x3c1eab89	0.009684452
207	0x3cfdd75c	0.03098648
208	0x3d2ee23f	0.042696234
209	0xbd5a5a27	-0.053308632
210	0x3c886bc6	0.016652953
211	0xbdd9578e	-0.10612403
212	0xbc876902	-0.016529564
213	0x3d983ed1	0.07433856
214	0x3cdd0036	0.02697764
215	0x3c7b8b31	0.01535301
216	0x3db497a1	0.088179834
217	0x3d9f6df3	0.07784643
218	0x3d9b9d26	0.07598333
219	0xbdd05957	-0.1017329
220	0x3dd62eb7	0.10458129
221	0x3ddb15e6	0.10697536
222	0x3d281f73	0.041045617
223	0x3dd7e650	0.105419755
224	0x3d979266	0.0740097
225	0xbd4ff6ca	-0.050772466
226	0x3d86ff74	0.065916926
227	0x3d48fa1c	0.049066648
228	0xbd570ef2	-0.052504487
229	0x3dc6999c	0.096972674
230	0xbba234ab	-0.004950126
231	0x3d2f8dbb	0.042859774
232	0x3d4ef121	0.050522927
233	0x3d672b46	0.056437753
234	0xbda0ed65	-0.078577794
235	0xbe023b76	-0.12717995
236	0xba369140	-0.0006964393
237	0xba807cf0	-0.0009802859
238	0xbb8588e4	-0.0040751565
239	0xbd467842	-0.04845453
240	0xbcdb14b4	-0.02674327
241	0xbca1e6bc	-0.019763343
242	0x3af51768	0.0018698992
243	0x3db9234b	0.09039935
244	0x3d243210	0.040086806
245	0xbca2ef22	-0.019889418
246	0xb9b08b90	-0.00033673318
247	0x3df08369	0.117438145
248	0xbda1d0ec	-0.07901177
249	0x3ce17b04	0.027524479
250	0x3d2d90a3	0.042374264
251	0x3d380a9a	0.044931985
252	0xbcf44ecf	-0.029822735
253	0xbe05a398	-0.13050687
254	0xbd26397b	-0.04058216
255	0x3d89bdc9	0.06725652

model.1.bias f4 [64]
0	0xbd6db631	-0.05803508
1	0x3dd221d6	0.1026036
2	0xbd2db0bf	-0.042404886
3	0x3d85e735	0.0653824
4	0xbc8c7408	-0.017145172
5	0xbd8c33af	-0.06845795
6	0x3c73fd47	0.014891929
7	0xbd1ee5a8	-0.038793236
8	0x3c148e5a	0.009067142
9	0x3d5bbae0	0.053645015
10	0x3d9975bb	0.074931584
11	0xbc749da4	-0.014930163
12	0xbd8a47a6	-0.06751947
13	0xbd491e09	-0.04910091
14	0xbd4282a6	-0.047487877
15	0x3c6b5a41	0.01436478
16	0x3d08a579	0.033360932
17	0xbc01380c	-0.007886898
18	0xbd7205e6	-0.059087656
19	0xbc4e9db2	-0.01261084
20	0x3d62abc3	0.055339586
21	0xbd1bcba4	-0.038036004
22	0xbb5ee706	-0.0034012212
23	0x3d9090b8	0.07058853
24	0x3c70e3bc	0.014702734
25	0xbcd0e2e0	-0.025498807
26	0x3dc8c2cc	0.098027796
27	0x3c29e230	0.010368869
28	0x3d35a3fc	0.04434584
29	0xbd2e27af	-0.042518314
30	0xbd669948	-0.056298524
31	0xbc345afc	-0.0110080205
32	0xbd651b18	-0.05593404
33	0x3d842a7d	0.064534165
34	0xbd9706fa	-0.073743775
35	0xbd0cc0ff	-0.034363743
36	0xbd407b80	-0.04699278
37	0x3d292a1f	0.041299935
38	0xbd71604d	-0.05892973
39	0x3ced9636	0.02900229
40	0x3bea0cf7	0.007142659
41	0x3d2f74c2	0.04283596
42	0x3d81b11b	0.06332608
43	0x3d53308a	0.051559962
44	0xbd87c9e9	-0.06630308
45	0xbcebd0c4	-0.02878607
46	0xbca5d9db	-0.020245483
47	0x3ca9ea48	0.020741597
48	0xbbf9f7fe	-0.00762844
49	0xbd855c28	-0.06511718
50	0xbcc500b9	-0.024048196
51	0x3c5160bb	0.01277941
52	0xbce62e9c	-0.028098397
53	0xbdac2a44	-0.08406499
54	0xbda039ea	-0.07823546
55	0xbcc6bb82	-0.024259333
56	0xbc9d0dee	-0.019171681
57	0xbb7aa85e	-0.0038247327
58	0xbd75af2d	-0.059981514
59	0x3db2bcfd	0.08727453
60	0xbd2e926b	-0.042620104
61	0x3c990c97	0.018682761
62	0x3ca9ba28	0.020718649
63	0x3ccb003e	0.024780389
