SimLoan/res/experiments_adj_generation_unfair_decisions_10_steps/effort_model_2 _1.pth (torch, 42988 bytes, 12 tensors)

fc1.weight f4 [128, 7]
0	0x3de4e6f2	0.11176862
1	0xbe932011	-0.28735402
2	0xbd4c3b0d	-0.049861003
3	0x3e983f73	0.29735908
4	0x3ed2c616	0.41166753
5	0xbdbf7268	-0.09347993
6	0x3e40f2b5	0.18842585
7	0xbd562172	-0.05227799
8	0x3da90160	0.082522154
9	0xbece842f	-0.40335223
10	0x3d910a55	0.07082049
11	0xbd5abc26	-0.05340209
12	0x3e862eca	0.26207572
13	0xbee64d13	-0.44980678
14	0x3eb90dd3	0.3614336
15	0x3e4f14b8	0.20222747
16	0xbde81c54	-0.11333528
17	0x3dc89e24	0.09795788
18	0xbcb3b8fd	-0.021938795
19	0x3cdb7cf2	0.026792977
20	0xbe1f8b1e	-0.15580413
21	0x3d4a0eec	0.049330637
22	0x3e0989c7	0.13431464
23	0xbdf3ee12	-0.11910643
24	0xbe0a351c	-0.13496822
25	0xbec2ea47	-0.38069364
26	0x3e604374	0.21900731
27	0x3e03412c	0.1281783
28	0xbd13df25	-0.03610148
29	0xbe7d34ce	-0.24727175
30	0xbe9726d3	-0.29521808
31	0xbcace5f9	-0.021105753
32	0xbd7a5cee	-0.06112378
33	0x3ec4d5f5	0.38444486
34	0x3e4cb1b6	0.19989666
35	0x3e4d8edb	0.20074026
36	0xbe9e5be7	-0.3092949
37	0xbe9769c7	-0.2957289
38	0x3e37b313	0.17939405
39	0x3e8f21ef	0.27955577
40	0x3e9c01d4	0.30470145
41	0x3e69dd67	0.22838365
42	0x3dfa35fb	0.12217327
43	0x3e3cae19	0.18425788
44	0x3d76469e	0.06012594
45	0xbea1faea	-0.31636745
46	0xbeb13891	-0.3461347
47	0x3e19ad31	0.15007474
48	0xbc9f74ef	-0.019464938
49	0xbd8e331f	-0.06943344
50	0x3e6d384b	0.23166005
51	0xbc4fc086	-0.0126801785
52	0x3d8cce2c	0.06875262
53	0xbe288bb2	-0.1645954
54	0x3db27926	0.087145135
55	0x3dd76876	0.10517971
56	0x3ea066aa	0.31328326
57	0xbe61c0be	-0.22046182
58	0xbe7dc431	-0.24781872
59	0x3e823e43	0.25438127
60	0xbdca782f	-0.098862045
61	0xbdf1f4c6	-0.11814265
62	0x3e0c0705	0.13674553
63	0xbe337efe	-0.17528912
64	0xbdfc2aa1	-0.12312818
65	0x3e6b9795	0.23007043
66	0xbeae1fae	-0.34008545
67	0xbd1a4522	-0.037663586
68	0xbe332bf6	-0.17497239
69	0x3e9535cb	0.29142603
70	0x3dbfd7d5	0.093673386
71	0x3df406fe	0.11915396
72	0xbe4da2c7	-0.20081626
73	0x3e01bfdb	0.12670843
74	0xbe38606d	-0.18005534
75	0x3e8e5a22	0.2780314
76	0xbeaf5c5b	-0.3425015
77	0x3e64ea7a	0.2235507
78	0xbe9e89bd	-0.3096446
79	0x3e61aeaa	0.22039285
80	0x3ea3584f	0.31903312
81	0xbd2ba33e	-0.041903727
82	0x3d2b1397	0.04176673
83	0xbd1a487b	-0.03766678
84	0xbe3360d5	-0.17517407
85	0x3ee1c173	0.44092903
86	0xbdcb97f5	-0.09941093
87	0x3cf10c51	0.029424818
88	0x3ce695c2	0.028147582
89	0xbdba8a44	-0.09108403
90	0xbe3deb91	-0.18546893
91	0xbc326411	-0.0108881155
92	0xbd8530d6	-0.06503455
93	0xbea200ee	-0.31641334
94	0x3d2dc93c	0.04242824
95	0xbe5a96f4	-0.21346647
96	0xbe3738a4	-0.178927
97	0xbe76e505	-0.24110802
98	0x3ead9d2e	0.3390898
99	0xbe90c049	-0.28271702
100	0xbe60e564	-0.21962506
101	0x3cb93017	0.022605939
102	0xbe39403f	-0.18090914
103	0x3ede4185	0.43409362
104	0xbba26473	-0.004955822
105	0x3e3fe370	0.18739104
106	0xbe649369	-0.22321858
107	0x3e9bd773	0.30437812
108	0x3e64e11e	0.223515
109	0x3e93fea3	0.2890521
110	0xbe49c9ea	-0.1970593
111	0xbe8c65fb	-0.27421555
112	0x3e0f3ea9	0.13988747
113	0x3df82c00	0.12117767
114	0xbe218c42	-0.1577616
115	0x3e8a8e7c	0.27061832
116	0x3e37bb90	0.17942643
117	0xbebf337b	-0.37343964
118	0x3e89b034	0.26892245
119	0x3e10d087	0.14142047
120	0xbd80d1fb	-0.062900506
121	0x3e16af4a	0.14715305
122	0x3e141e95	0.14464791
123	0x3e5e8dd5	0.21733792
124	0xbd5023ca	-0.05081538
125	0xbe05abc8	-0.1305381
126	0x3e4982c6	0.19678792
127	0xbea63271	-0.3246036
128	0x3d391ab5	0.045191485
129	0xbe6e7c8c	-0.23289698
130	0x3dda76f8	0.10667223
131	0x3e860c18	0.26181102
132	0xbc3b51a9	-0.0114330435
133	0xbe2db36d	-0.16962977
134	0xbe5d819a	-0.2163147
135	0x3e41932b	0.18903796
136	0x3e304e8a	0.1721746
137	0x3e92f992	0.28706032
138	0xbea64e8c	-0.32481802
139	0xbe94dc13	-0.29074153
140	0x3da3aae0	0.07991576
141	0x3e9bb562	0.30411822
142	0x3d1c3528	0.03813663
143	0xbe7c01dc	-0.24610084
144	0xbe45e919	-0.19327201
145	0xbdabf546	-0.083963916
146	0xbd94d138	-0.07266468
147	0x3d425fb3	0.047454547
148	0xbd0f9537	-0.03505441
149	0xbdde864a	-0.10865457
150	0x3eebd7bc	0.4606303
151	0x3e4df856	0.20114264
152	0xbe819846	-0.25311488
153	0xbe8e6146	-0.2780859
154	0x3ea7eaad	0.3279623
155	0x3e8195e7	0.2530968
156	0xbc337209	-0.010952481
157	0x3d3ac767	0.04560032
158	0xbe86f754	-0.2636057
159	0xbe9249d5	-0.28571954
160	0x3e75d8da	0.24008504
161	0xbe8c877c	-0.27447116
162	0xbe97a235	-0.29615942
163	0xbc3652f3	-0.011128175
164	0xbe365ec0	-0.17809582
165	0x3e238bee	0.15971348
166	0x3c7c00b5	0.015381028
167	0x3e154e7a	0.14580718
168	0x3e723c72	0.2365587
169	0x3c2f48c1	0.010698498
170	0x3d8b2faf	0.06796204
171	0x3e882fbe	0.26598924
172	0x3dd009ba	0.10158105
173	0xbdea04bb	-0.114266835
174	0xbbf7f0c7	-0.0075665447
175	0xbea5c31f	-0.32375428
176	0x3e513000	0.20428467
177	0x3e0ee6fd	0.13955303
178	0x3e07f129	0.13275589
179	0x3d43dd3a	0.0478184
180	0xbebb0225	-0.36525074
181	0x3e638139	0.22217263
182	0x3d716c3c	0.05894111
183	0x3e7b26ce	0.24526522
184	0xbe884df1	-0.26621965
185	0x3dbbd56e	0.09171568
186	0xbdfc2c9b	-0.12313195
187	0xbd8d0d18	-0.06887263
188	0x3e85dca2	0.26144892
189	0x3e64b38b	0.22334115
190	0x3e0d0d99	0.13774718
191	0x3e2b96df	0.16756772
192	0xbdc3bda7	-0.09557658
193	0xbe58a32f	-0.21156
194	0xbe552c68	-0.20817721
195	0xbc178ab7	-0.009249381
196	0x3ebeb1d2	0.3724504
197	0x3d517629	0.051138077
198	0x3cb6b62f	0.022303669
199	0x3ed2ee14	0.41197264
200	0x3e4bff86	0.19921693
201	0xbdd080b3	-0.101807974
202	0xbe5c2c00	-0.2150116
203	0xbed6f71c	-0.41985404
204	0xbe366ba1	-0.17814495
205	0x3e51c56a	0.20485464
206	0xbcf958d0	-0.030437857
207	0xbe799f65	-0.2437721
208	0x3e0412ce	0.12897798
209	0x3d1cd7b6	0.038291655
210	0xbe5d4b75	-0.21610816
211	0xbe35d454	-0.17756778
212	0x3e53525f	0.20636891
213	0x3e9a4aad	0.30135098
214	0xbe4cc5db	-0.19997351
215	0x3e25223d	0.16126342
216	0xbe08a982	-0.13345912
217	0x3c197b35	0.009367754
218	0xbd050361	-0.032473926
219	0xbe02ba24	-0.1276632
220	0x3e1b03fe	0.15138242
221	0xbd8a97d8	-0.06767243
222	0x3e097047	0.13421737
223	0xbddc4d7a	-0.10756965
224	0x3e118ea2	0.14214566
225	0xbe44e9e1	-0.19229843
226	0xbde669d3	-0.11250653
227	0x3dcbc523	0.0994971
228	0x3e0f529b	0.13996355
229	0xbc874833	-0.01651392
230	0x3d80b5ee	0.062847
231	0xbeb92d46	-0.36167353
232	0x3e3d9857	0.18515144
233	0xbd26650e	-0.040623717
234	0xbeafe2f3	-0.34352836
235	0xbe9434a5	-0.28946415
236	0x3e41de2d	0.1893241
237	0xbda4c9bc	-0.0804629
238	0x3de209b3	0.11037006
239	0xbe0fd580	-0.14046288
240	0x3e6eaf73	0.23309116
241	0x3e663692	0.22481754
242	0xbe0102b9	-0.12598695
243	0x3e7bb50f	0.24580787
244	0xbeb2f9ba	-0.3495615
245	0x3c24d101	0.010059596
246	0x3dedf9f9	0.11619944
247	0x3e05ce89	0.13067068
248	0x3e62c22f	0.22144388
249	0xbeb944c7	-0.36185285
250	0x3e3f0654	0.18654758
251	0xbe913137	-0.2835786
252	0x3d05fb36	0.032710277
253	0xbe1f7101	-0.15570451
254	0xbc92e301	-0.01793051
255	0x3ee99336	0.45620126

fc1.bias f4 [128]
0	0x3d77ce70	0.06049961
1	0x3e82f02e	0.25573868
2	0xbdf17898	-0.117905796
3	0x3d1c7850	0.038200676
4	0x3e47ffb6	0.1953114
5	0xbdb61275	-0.08890239
6	0xbd3b3bcd	-0.045711327
7	0xbd743ea6	-0.05963006
8	0x3da41b46	0.080130145
9	0xbecbe575	-0.398235
10	0x3e5d344b	0.2160198
11	0x3ea3ad3e	0.3196811
12	0xbdda1071	-0.10647667
13	0x3e618562	0.22023538
14	0xbe23917b	-0.15973465
15	0xbd71bf1a	-0.05902014
16	0x3a856fe3	0.001018044
17	0xbd26ab5c	-0.040690765
18	0x3e6e15db	0.23250525
19	0xbd51b7bc	-0.051200613
20	0x3e243742	0.16036704
21	0x3de8f55b	0.11374923
22	0x3e8d08f4	0.27545893
23	0x3e52bdf2	0.20580271
24	0x3daceea1	0.08443952
25	0x3e93f794	0.28899825
26	0xbeb40e0c	-0.35166967
27	0x3e1a1259	0.15046062
28	0xbe7df8ec	-0.24801987
29	0x3e064a3f	0.1311426
30	0xbde4c8f5	-0.11171142
31	0xbe0e2063	-0.13879542
32	0x3e9303f0	0.28713942
33	0x3e8e8d12	0.27842003
34	0xbea5c811	-0.323792
35	0xbea11e38	-0.31468368
36	0xbe675007	-0.22589122
37	0xbdd93450	-0.10605681
38	0x3e7ebcf5	0.24876769
39	0x3ec2b6bf	0.3803005
40	0xbdfee845	-0.12446646
41	0x3e3c6e6d	0.18401499
42	0x3e10637b	0.14100449
43	0xbe20fd13	-0.1572154
44	0xbddc26d5	-0.10749594
45	0x3e1b3b33	0.15159301
46	0xbe7de20b	-0.2479326
47	0xbea184ec	-0.31546724
48	0xbdca8b55	-0.09889857
49	0x3e10e9d2	0.14151695
50	0x3ea4de33	0.32200775
51	0x3ea3bf26	0.31981772
52	0xbe1fa3a8	-0.15589774
53	0xbe23d977	-0.16000925
54	0x3e1056f1	0.14095666
55	0xbeaa6040	-0.33276558
56	0xbddffeb1	-0.109372504
57	0x3e84c027	0.2592785
58	0xbdd81bab	-0.10552152
59	0x3db9bc4a	0.090691164
60	0xbedeb337	-0.43496105
61	0xbde87177	-0.11349767
62	0xbeab0bcb	-0.33407435
63	0xbea0898b	-0.31354937
64	0xbe66c244	-0.22535044
65	0x3e421cc5	0.18956287
66	0x3e593da0	0.21214914
67	0x3dc85ffe	0.09783934
68	0x3e4513a6	0.19245777
69	0x3e1024a7	0.14076482
70	0x3cba7488	0.022760645
71	0xbe8a9f9a	-0.2707489
72	0x3cbbc83b	0.022922626
73	0xbe5664b8	-0.20936859
74	0xbd4c00f2	-0.04980559
75	0xbe6ec94f	-0.2331898
76	0xbe621ebf	-0.22082041
77	0x3e37adab	0.17937343
78	0x3df1790a	0.117906645
79	0xbe760f04	-0.24029166
80	0xbe19e68c	-0.15029353
81	0xbe009ed0	-0.12560582
82	0xbe947865	-0.28998104
83	0x3e7a4411	0.24440028
84	0x3e2b69c5	0.16739567
85	0x3e3c52e3	0.18390994
86	0x3eeea21d	0.46608058
87	0xbe15dd6b	-0.14635246
88	0xbe97febf	-0.29686543
89	0x3e50fe4c	0.20409507
90	0xbe4e56e9	-0.20150341
91	0xbe4cfba4	-0.20017868
92	0xbdabf637	-0.08396571
93	0xbee96268	-0.4558289
94	0x3e9c3080	0.30505753
95	0xbe1df317	-0.15424763
96	0xbe2db26c	-0.16962594
97	0x3d9a52c8	0.075353205
98	0x3e1bf73b	0.1523103
99	0xbe4e1df8	-0.2012862
100	0x3e547596	0.2074798
101	0xbdd5e82d	-0.10444675
102	0xb96cbd14	-0.00022577151
103	0x3d8f8d3f	0.070093624
104	0x3bbc45e8	0.005745638
105	0xbe31bd95	-0.17357476
106	0xbe696caf	-0.22795366
107	0x3ec1a91d	0.37824336
108	0x3e24c59d	0.16091008
109	0x3e7a9272	0.24469927
110	0xbe07c55c	-0.1325888
111	0x3d8277a4	0.06370476
112	0x3ec69bf3	0.38790855
113	0x3e0116a1	0.12606288
114	0x3e48d711	0.19613291
115	0xbd6b736f	-0.057483133
116	0x3dbd9e83	0.09258749
117	0x3e831500	0.2560196
118	0xbd6b5f5e	-0.057463996
119	0xbd12ac3b	-0.035808783
120	0x3ea792c0	0.3272915
121	0xbea51d7b	-0.32249054
122	0xbe54e97d	-0.20792194
123	0x3e51e348	0.20496857
124	0x3e7c965c	0.24666733
125	0x3ec9b604	0.3939668
126	0xbceb1c9a	-0.028700162
127	0xbe279646	-0.16365919

fc2.weight f4 [64, 128]
0	0xbda89462	-0.08231427
1	0x3c2c8d43	0.010531726
2	0x3da67398	0.081275165
3	0xbd49b7b4	-0.04924746
4	0xbd827b55	-0.0637118
5	0x3bed267d	0.007237254
6	0xbd829282	-0.063756004
7	0xbdb93008	-0.09042364
8	0xbd2efabf	-0.0427196
9	0x3cba7386	0.022760164
10	0x3dbc71aa	0.09201367
11	0x3d178dbb	0.0370004
12	0x3b683bb4	0.0035435976
13	0xbc815267	-0.015786363
14	0xbd296656	-0.04135736
15	0xbcc7015b	-0.024292639
16	0x3c7c4b82	0.015398862
17	0x3da78ef9	0.08181567
18	0x3d282531	0.041051093
19	0x3d9deff1	0.07711781
20	0x3d883f5f	0.06652712
21	0x393a62b4	0.00017775112
22	0x3da9b1ae	0.08285843
23	0x3d45abd5	0.048259575
24	0x3d051188	0.032487422
25	0x3dcaebc9	0.09908254
26	0x3c3306b2	0.010926889
27	0x3c50fb84	0.0127552785
28	0x3d08504b	0.0332797
29	0x3d782603	0.060583126
30	0x3d1a07b7	0.037605014
31	0x3d7c4611	0.061590258
32	0x3d891908	0.066942275
33	0x3d311ecd	0.043242265
34	0xbd9b26cb	-0.075757585
35	0x3da9ec38	0.08297008
36	0x3d6efcde	0.05834662
37	0x3c496221	0.012291462
38	0xbce43397	-0.027856631
39	0x3d8a66f5	0.06757919
40	0xbc9e3253	-0.019311106
41	0xbd1b2ef5	-0.03788658
42	0xbd74e09d	-0.05978452
43	0xba3373d2	-0.00068455667
44	0xbd6cce8d	-0.05781417
45	0x3d5f1fcc	0.054473683
46	0xbd95e3a8	-0.073188126
47	0x3db2d3fa	0.087318376
48	0x3ceccc4b	0.028906008
49	0x3c13d053	0.009021836
50	0x3c4cc67c	0.012498494
51	0xbca477b5	-0.020076612
52	0xbda7bb70	-0.08190048
53	0xbd181682	-0.03713084
54	0xbd63521e	-0.055498235
55	0xbd948924	-0.0725272
56	0x3c4a58e1	0.012350292
57	0xbd927b13	-0.07152381
58	0xbba8bd02	-0.0051494846
59	0xbd2ddc1c	-0.04244624
60	0x3d8a951d	0.06766722
61	0x3cb085aa	0.021548111
62	0x3db9727c	0.09055039
63	0x3d13b245	0.036058683
64	0x3c274d47	0.010211295
65	0x3cbe326b	0.0232174
66	0x3d08c240	0.033388376
67	0xbd0cd72c	-0.03438489
68	0xbda83acb	-0.08214339
69	0x3d75355c	0.05986534
70	0x3dd4e796	0.10395734
71	0xbd331334	-0.043719485
72	0xbd682358	-0.05667433
73	0xbd154807	-0.036445644
74	0xbd6f9caf	-0.058499034
75	0x3d5cfc0a	0.0539513
76	0x3d95482e	0.07289158
77	0xbcf2bd0a	-0.029631156
78	0xbdc0fee8	-0.094236195
79	0xbd15118c	-0.036393687
80	0x3ccc69c5	0.024952779
81	0xbcc7f13b	-0.02440702
82	0xbd307b2d	-0.04308622
83	0x3d1e85c8	0.038701802
84	0x3d2dcdc1	0.04243255
85	0x3d7250d8	0.05915913
86	0x3ceca880	0.02888894
87	0x3c0e685b	0.0086918725
88	0xbd508a17	-0.050912943
89	0x3d752395	0.059848387
90	0xbd0a5b38	-0.0337784
91	0x3cea2d2b	0.02858599
92	0x3d84889d	0.064713694
93	0x3d865b87	0.06560426
94	0xbd0e068f	-0.034674224
95	0x3d0c5164	0.034257308
96	0x3cec0841	0.02881253
97	0x3c1e811a	0.009674335
98	0x3d826c80	0.06368351
99	0x3bd86e5a	0.006604952
100	0x3daea40e	0.08527385
101	0xbbb14867	-0.0054102424
102	0xbd92547a	-0.07145019
103	0x3cf3e99b	0.029774478
104	0x3c6e2c69	0.014536955
105	0x3dacf483	0.084450744
106	0xbd3947ee	-0.045234613
107	0x3cef9745	0.029246936
108	0xbccafe18	-0.024779364
109	0x3cb27005	0.02178193
110	0x3d26e6bf	0.0407474
111	0x3da37c9d	0.079827525
112	0xbd8cbc05	-0.068717994
113	0xbd285b07	-0.041102435
114	0x3d2634a0	0.04057753
115	0x3be7ef22	0.0070780674
116	0x3d7422ff	0.059603687
117	0x3c200b69	0.009768345
118	0x3d410973	0.047128152
119	0x3ccff443	0.025385028
120	0xbd0677ec	-0.03282921
121	0x3c78d3a2	0.015187176
122	0xbca80adf	-0.020512996
123	0xbd2021f0	-0.039094865
124	0x3cbe4d61	0.023230257
125	0xbda64ca2	-0.08120085
126	0xbd8c3ac9	-0.0684715
127	0x3d73dc93	0.059536528
128	0xbda0abd9	-0.07845277
129	0xbcbb4661	-0.022860708
130	0x3b51f865	0.0032038924
131	0x3da1dbf2	0.07903279
132	0xbdb15fb4	-0.08660832
133	0x3d85d663	0.06535032
134	0xbcd40ef2	-0.025886033
135	0xbd37927f	-0.044817444
136	0x3d573b31	0.052546684
137	0x3b0ab976	0.0021167672
138	0xbbb1bc5a	-0.0054240646
139	0x3d5ba189	0.05362085
140	0xbd5c011a	-0.053711988
141	0x3d8e85d1	0.06959117
142	0xbd95c6db	-0.07313319
143	0x3d979754	0.074019104
144	0x39a06f5d	0.0003060055
145	0x3d8f83f6	0.070075914
146	0xbd07bf2d	-0.033141304
147	0x3c3290b2	0.010898756
148	0x3ce062c4	0.027390845
149	0x3d78b963	0.060723674
150	0xbc53f71d	-0.012937334
151	0x3c987aa2	0.018613163
152	0x3db815b3	0.08988514
153	0x3db8f3ea	0.09030898
154	0x3d5a600c	0.053314254
155	0xbd81aa43	-0.06331303
156	0x3ca09ed7	0.01960699
157	0xbd0ebfd1	-0.0348509
158	0xbceff324	-0.029290743
159	0xbd400bc5	-0.046886224
160	0xbdbb0950	-0.091326356
161	0x3dad19dd	0.08452199
162	0x3d458fec	0.048232958
163	0x3dba536b	0.09097942
164	0xbd6b49bd	-0.05744337
165	0x3d5a94f7	0.05336472
166	0xbcbaef22	-0.022819106
167	0xbce03891	-0.027370723
168	0xbd0d592f	-0.03450888
169	0x3d59e2ab	0.053194683
170	0x3da16773	0.078810595
171	0xbdc50a20	-0.09621072
172	0xbd3c0112	-0.04589946
173	0xbca05e4c	-0.019576214
174	0xbd831d4f	-0.064020745
175	0x3d09bcb8	0.03362724
176	0x3d55fe67	0.05224457
177	0xbcd7cb72	-0.026342127
178	0x3cd228f3	0.025654292
179	0xbd9eeeae	-0.07760368
180	0xbd493b42	-0.04912878
181	0xbd9a0355	-0.07520167
182	0xbd4966ba	-0.049170233
183	0xbd707af2	-0.058711
184	0x3d24ee1d	0.040266145
185	0xbdb9486f	-0.09047019
186	0xbd395ba8	-0.045253426
187	0x3da3e2f0	0.08002269
188	0xbce102c9	-0.027467148
189	0xbd14b1c2	-0.036302336
190	0x3db1efda	0.08688326
191	0x39a62bc6	0.000316946
192	0xbc752080	-0.014961362
193	0xbd614f5e	-0.05500733
194	0x3c98a4ab	0.018633207
195	0xbd9d940a	-0.07694252
196	0xbda4ed92	-0.080531254
197	0xbbd0f7ad	-0.0063771815
198	0x3dc02228	0.09381515
199	0x3cc498eb	0.023998698
200	0x3d927d24	0.07152775
201	0xbd7c6431	-0.061618987
202	0x3d05b847	0.032646444
203	0xbd983255	-0.07431475
204	0xbd781cca	-0.06057433
205	0x3d9fd265	0.078038014
206	0x3d33a397	0.043857183
207	0xbd278561	-0.040898684
208	0x3c8a49d7	0.016880913
209	0xbd979eef	-0.07403361
210	0xbc74abd9	-0.01493355
211	0xbc51a819	-0.012796425
212	0x3d893e87	0.06701379
213	0x3c8d44ba	0.017244685
214	0xbc2b132e	-0.0104415845
215	0x3bebdf1a	0.0071982266
216	0x3d36059d	0.044438947
217	0x3b3823d6	0.0028097532
218	0x3b9e8104	0.004837157
219	0xbc8e6255	-0.017380873
220	0xbc370417	-0.011170409
221	0x3ca62c9c	0.020284943
222	0x3d69463d	0.05695175
223	0xbd24c3d1	-0.040225808
224	0x3d88fab6	0.06688444
225	0xbd20f19c	-0.039292917
226	0xbd0f980f	-0.035057124
227	0x3d150335	0.03638001
228	0x3da2c3b0	0.07947481
229	0xbd18471a	-0.037177183
230	0x3da9f5dd	0.08298848
231	0xbc9be5fc	-0.019030564
232	0x3d908e1c	0.07058355
233	0x3c83434c	0.0160233
234	0xbd451da1	-0.04812396
235	0x3cffe05c	0.031234913
236	0x3d91792f	0.07103192
237	0xbd47b579	-0.04875705
238	0x3c14ed2b	0.009089748
239	0x3c5eaf3d	0.013591585
240	0xbcefc01f	-0.029266415
241	0x3d6f690e	0.058449797
242	0xbc25a485	-0.010110025
243	0x3c87cb0b	0.01657631
244	0xbd50c959	-0.05097327
245	0xbd102428	-0.03519073
246	0xbce0c126	-0.02743585
247	0x3cf5f566	0.030024242
248	0x3d34a233	0.044099998
249	0xbd013d51	-0.031552617
250	0xbd842c19	-0.064537235
251	0x3c13b590	0.009015456
252	0xbd4cc6c9	-0.049994264
253	0xbc535dd2	-0.0129007865
254	0xbd46ade9	-0.048505697
255	0x3c1f9421	0.0097399065

fc2.bias f4 [64]
0	0x3d63f3f8	0.05565259
1	0x3d2be699	0.041967962
2	0x3d79aa82	0.060953625
3	0x3d1bfdfe	0.038084023
4	0x3dd85583	0.10563185
5	0x3cc5455b	0.024080923
6	0x3d3d5a37	0.046228614
7	0xbb58cab1	-0.0033079798
8	0x3d61bced	0.055111814
9	0x3d947938	0.07249683
10	0xbce3c8c0	-0.027805686
11	0x3dbd01df	0.092288725
12	0xbdd48e71	-0.10378731
13	0xbd2c7bdf	-0.04211032
14	0x3d133927	0.035943177
15	0xbcf88947	-0.030338896
16	0xbcbe5927	-0.02323587
17	0xbb99c4d2	-0.0046926523
18	0x3d401828	0.046898037
19	0x3c454c1a	0.01204207
20	0x3bebb189	0.0071927947
21	0xbdb9f110	-0.09079182
22	0xbca3fb83	-0.020017391
23	0xbdb02c23	-0.086021684
24	0xbd6829b0	-0.05668038
25	0xbc1056f3	-0.008809793
26	0x3bb96155	0.005657355
27	0xbce438a9	-0.027859049
28	0x3d912786	0.070876166
29	0x3cc7da89	0.024396198
30	0xbd0e0045	-0.034668226
31	0xbce06977	-0.02739404
32	0x3c264fab	0.01015083
33	0xbd6745f9	-0.056463216
34	0x3d49272c	0.049109623
35	0x3dd1157f	0.10209178
36	0x3c0d751a	0.008633876
37	0x3d8e61a2	0.06952216
38	0xbdb1eb7e	-0.08687495
39	0xbdad7706	-0.084699675
40	0xb9af7ac8	-0.0003347008
41	0xbd008dce	-0.031385235
42	0x3d984e7f	0.07436847
43	0x3d873a84	0.06602958
44	0xbd4a3928	-0.049370915
45	0xbd548820	-0.05188763
46	0x3d222b49	0.03959206
47	0x3d3d27f5	0.046180684
48	0x3c455cf8	0.012046091
49	0x3d1a7e08	0.03771785
50	0x3cb76185	0.022385368
51	0x3cdf77c8	0.027278796
52	0xbdc37acb	-0.09544905
53	0xbc32ddec	-0.010917168
54	0x3d1dc702	0.038519867
55	0x3d161893	0.03664453
56	0xbca304c6	-0.019899737
57	0x3c44ac4e	0.012003971
58	0xbd15060e	-0.036382727
59	0xbd120bb0	-0.035655677
60	0x3d02c7e3	0.031928908
61	0x3bdcedf5	0.006742234
62	0x3dbd7d69	0.09252436
63	0xbda40e08	-0.08010489

fc3.weight f4 [10, 64]
0	0x3d6af17b	0.0573592
1	0x3a59dd79	0.0008310895
2	0x3c037892	0.008024352
3	0xbd25e984	-0.0405059
4	0xbdf68105	-0.12036327
5	0x3dfb7f70	0.12280166
6	0xbcef2723	-0.029193467
7	0x3c81212c	0.015762888
8	0x3d5d3f4c	0.054015443
9	0x3d30aabf	0.043131586
10	0xbd6616bd	-0.05617403
11	0xbe07a469	-0.13246311
12	0x3cc1511f	0.023598252
13	0x3cd5836e	0.026063647
14	0xbd40b3f2	-0.04704661
15	0xbd8ad86b	-0.0677956
16	0x3c88dc6b	0.016706666
17	0xbd653bdb	-0.055965286
18	0xbbcf5a01	-0.006327868
19	0x3d936224	0.07196453
20	0xbcd46959	-0.02592914
21	0x3d3c0c37	0.045910086
22	0x3e1022df	0.14075802
23	0x3da4d6f3	0.08048811
24	0xbd850ed4	-0.06496969
25	0x3d129424	0.03578581
26	0xbdfe960e	-0.124309644
27	0xbd281e95	-0.04104479
28	0x3d176ce7	0.03696909
29	0x3dc8aacb	0.09798201
30	0x3cfa16c3	0.030528432
31	0x3c831d66	0.01600523
32	0x3b8698fa	0.0041075917
33	0x3e25c4b9	0.16188325
34	0xbe090d9a	-0.13384095
35	0x3d4f600a	0.0506287
36	0x3dbf9fb8	0.09356636
37	0xba1c9dcc	-0.00059744413
38	0xbdcca7ab	-0.099929176
39	0xbd252b2b	-0.04032437
40	0x3cfba9b2	0.030720565
41	0xbd9f7f99	-0.07788009
42	0xbdaad886	-0.0834208
43	0x3db665fa	0.08906169
44	0xbe0e6868	-0.13907015
45	0x3cfa3370	0.030542105
46	0xbd582ed2	-0.052779026
47	0xbdafb86e	-0.08580099
48	0xbcaa63c7	-0.02079953
49	0x3d3ada34	0.04561825
50	0x3c3b56e0	0.011434287
51	0xbd9f9ba6	-0.077933595
52	0x3d96f3a5	0.0737069
53	0x3d80aa3e	0.06282471
54	0xbd1c1509	-0.038106
55	0x3dab6b93	0.083701275
56	0x3e209a75	0.1568392
57	0xbbd62dff	-0.006536245
58	0x3801a10a	3.0905976e-05
59	0x3d23dd3e	0.040005915
60	0x3dbf36e9	0.09336645
61	0xbdfb810d	-0.12280474
62	0x3d90c3bc	0.07068583
63	0x3c6525b9	0.013986045
64	0x3d72d0a1	0.059280995
65	0xbd534689	-0.05158094
66	0xbd442c23	-0.047893655
67	0x3d02327c	0.031786427
68	0x3d4af698	0.049551576
69	0xbda6fa55	-0.08153216
70	0xbd35a2e4	-0.044344798
71	0xbc08f155	-0.008358319
72	0x3d47f0aa	0.0488135
73	0xbd51d2ca	-0.051226415
74	0x3d8295a7	0.063762
75	0x3cc3d61f	0.023905812
76	0x3db556aa	0.088544205
77	0xbd68d9de	-0.0568484
78	0x3debe007	0.11517339
79	0x3d00a11e	0.031403653
80	0x3d66d29f	0.056353208
81	0xbdfd71d2	-0.12375225
82	0xbdc777b7	-0.09739631
83	0xbdab3f61	-0.08361698
84	0xbca6008b	-0.02026393
85	0x3e024791	0.12722613
86	0xbcececd6	-0.028921526
87	0xbd396c1e	-0.045269124
88	0x3d18c799	0.037299726
89	0xbe0ca722	-0.13735631
90	0xbd95175d	-0.07279847
91	0xbbfdf459	-0.007750076
92	0x3d3bdd29	0.04586521
93	0xbd087a9f	-0.033320066
94	0xbce2a651	-0.027667196
95	0x3d007e94	0.031370714
96	0xbd4af706	-0.049551986
97	0x3e08a78c	0.13345164
98	0xbd3e4596	-0.04645308
99	0xbd561d20	-0.05227387
100	0x3e0a5c14	0.13511688
101	0x3c93063a	0.017947305
102	0x3b2524cf	0.0025198942
103	0xbcf608a1	-0.030033411
104	0xbd84bd0d	-0.06481371
105	0x3dd94db4	0.10610524
106	0x3cce0e8c	0.02515342
107	0x3d24f6ea	0.040274538
108	0x3d9d9484	0.07694343
109	0xbd8e4898	-0.0694744
110	0x3bdb4757	0.006691854
111	0x3cf2d029	0.029640274
112	0x3d9a8809	0.07545478
113	0xbd636b46	-0.055522226
114	0x3d5bc0c6	0.05365064
115	0x3d5317d5	0.0515364
116	0xba644510	-0.0008707801
117	0xbdda91ac	-0.10672316
118	0xbde331a9	-0.11093456
119	0xbd442ea1	-0.04789603
120	0xbca67b71	-0.020322533
121	0x3db3914a	0.08767946
122	0x39b7366e	0.00034945033
123	0x3d8ca095	0.06866566
124	0x3b81f484	0.003965916
125	0x3d3a3149	0.04545716
126	0xbd4857ab	-0.04891173
127	0xbda140d3	-0.07873692
128	0xbdf55001	-0.1197815
129	0xbe024f3b	-0.12725537
130	0x3d6f8e09	0.058485065
131	0xbe13b135	-0.14423068
132	0x3d80b791	0.062850125
133	0x3d8ac028	0.06774932
134	0x3d43674b	0.04770593
135	0x3d69ebed	0.057109762
136	0x3d237d2b	0.03991429
137	0x3ca866b0	0.020556778
138	0x3d51d9f6	0.051233254
139	0xbdae879a	-0.08521958
140	0xbd81f8b2	-0.06346263
141	0xbd6e0337	-0.058108535
142	0x3bb7d6dd	0.0056103305
143	0x3e0f8208	0.14014447
144	0xbd9816e3	-0.0742624
145	0xbdfb131f	-0.122595064
146	0xbdbcfc13	-0.09227767
147	0x3d78b858	0.06072268
148	0xbc076a81	-0.008265139
149	0x3a511bd7	0.0007976866
150	0x3d0a2eaa	0.03373591
151	0x3d204420	0.03912747
152	0xbc43c01d	-0.011947659
153	0xbdb71136	-0.089388296
154	0xbdcc9552	-0.09989418
155	0x3e490393	0.1963027
156	0xbc7af369	-0.015316823
157	0x3ced5492	0.02897099
158	0xbb52a1f8	-0.0032139998
159	0x3da49539	0.080362745
160	0xbd934fc9	-0.07192952
161	0xbcfdfe11	-0.031004937
162	0x3d0d1179	0.03444049
163	0xbda5a535	-0.08088151
164	0x3e1a6b1d	0.15079923
165	0xbdef5b0a	-0.11687286
166	0xbe0a2f57	-0.13494621
167	0x3d9eb720	0.07749772
168	0xbbc1f22b	-0.0059187612
169	0x3cea1cb9	0.02857815
170	0xbb88f78f	-0.004179902
171	0x3e069f0f	0.13146614
172	0xbcfab13a	-0.030602086
173	0x3df9f487	0.12204843
174	0x3dbbdda6	0.091731355
175	0xbcfa8110	-0.03057912
176	0xbd6ff571	-0.05858368
177	0xbd3e174a	-0.04640893
178	0x3c2e01c0	0.010620534
179	0x3de39dd4	0.11114088
180	0x3bf360a9	0.0074272943
181	0xbca7a3af	-0.020463793
182	0x39a3ea9f	0.0003126459
183	0x3e01d8ff	0.12680434
184	0x3d1d2683	0.038366806
185	0xbdca184d	-0.09867916
186	0x3defac4a	0.117027834
187	0xbdbc4602	-0.091930404
188	0x3d941608	0.072307646
189	0xbdeae092	-0.11468615
190	0xbc1194de	-0.00888559
191	0x3d66f7fd	0.056388844
192	0xbbcfcccc	-0.0063415524
193	0xbc9bf184	-0.019036062
194	0xbd594096	-0.05304011
195	0xbd8e237f	-0.06940364
196	0x3cea0950	0.028568894
197	0xbcb52b09	-0.022115247
198	0x3da08fb0	0.07839906
199	0x3dc5b288	0.09653193
200	0x3d4e9896	0.050438486
201	0x3c3738f1	0.0111830095
202	0xbd12a70e	-0.035803847
203	0x3c923f1d	0.01785236
204	0xbdb5833b	-0.08862921
205	0xbd999041	-0.074982174
206	0x3d339294	0.04384096
207	0x3bbbd6aa	0.005732377
208	0xbdf24c99	-0.11831016
209	0x3daf3fab	0.085570656
210	0x3d8bb23d	0.06821106
211	0x3d5fe63b	0.054662924
212	0xbdd12285	-0.10211662
213	0xbd0974bf	-0.033558603
214	0xb9dfcae7	-0.00042685049
215	0xbe05342a	-0.1300818
216	0x3d670416	0.05640038
217	0xbd68e6eb	-0.056860846
218	0xbc6d9964	-0.014501903
219	0x3d9ac687	0.07557397
220	0xbccdb105	-0.025108824
221	0xbe116d69	-0.14201893
222	0xbc581a84	-0.013189916
223	0xbdffc2f4	-0.12488356
224	0x3b971a41	0.004611284
225	0xbd8b7b8a	-0.068106726
226	0x3d3b1d7c	0.045682415
227	0x3e108ccd	0.14116211
228	0x3b61c397	0.0034448856
229	0xbd8dc301	-0.0692196
230	0x3cc6bd0a	0.024260063
231	0x3c7bd995	0.0153717
232	0x3d234d22	0.03986848
233	0xbd999515	-0.07499138
234	0x3d2cc66e	0.042181425
235	0xbd4a503d	-0.049392927
236	0xbd9f4496	-0.077767536
237	0xbdc0e0e8	-0.094178975
238	0xbdb7d4df	-0.08976149
239	0xbc176a9f	-0.009241729
240	0xbd9da8e3	-0.07698228
241	0xbd89eb79	-0.06734366
242	0x3d158dc4	0.03651215
243	0x3d8b0c55	0.067894615
244	0x3d532707	0.05155089
245	0xbd838515	-0.06421868
246	0x3d21d0b1	0.039505664
247	0x3d0b91db	0.034074645
248	0xbd6d9f17	-0.058013048
249	0xbd963797	-0.07334822
250	0xbb84afef	-0.004049293
251	0x3d4f6484	0.05063297
252	0xbde3b9d7	-0.111194305
253	0x3d3d4f44	0.04621817
254	0xbd0d68b1	-0.03452367
255	0xbd3dba78	-0.04632041

fc3.bias f4 [10]
0	0xbda35085	-0.07974342
1	0x3d4bbc64	0.04974021
2	0xbc99f498	-0.01879339
3	0x3ce691d8	0.028145716
4	0x3dcdef65	0.100554265
5	0xbce3f7bc	-0.02782809
6	0x3cb488e9	0.02203794
7	0xbd906f65	-0.07052497
8	0x3ccb214c	0.02479615
9	0xbc18291a	-0.009287143

model.0.weight f4 [128, 7]
0	0x3de4e6f2	0.11176862
1	0xbe932011	-0.28735402
2	0xbd4c3b0d	-0.049861003
3	0x3e983f73	0.29735908
4	0x3ed2c616	0.41166753
5	0xbdbf7268	-0.09347993
6	0x3e40f2b5	0.18842585
7	0xbd562172	-0.05227799
8	0x3da90160	0.082522154
9	0xbece842f	-0.40335223
10	0x3d910a55	0.07082049
11	0xbd5abc26	-0.05340209
12	0x3e862eca	0.26207572
13	0xbee64d13	-0.44980678
14	0x3eb90dd3	0.3614336
15	0x3e4f14b8	0.20222747
16	0xbde81c54	-0.11333528
17	0x3dc89e24	0.09795788
18	0xbcb3b8fd	-0.021938795
19	0x3cdb7cf2	0.026792977
20	0xbe1f8b1e	-0.15580413
21	0x3d4a0eec	0.049330637
22	0x3e0989c7	0.13431464
23	0xbdf3ee12	-0.11910643
24	0xbe0a351c	-0.13496822
25	0xbec2ea47	-0.38069364
26	0x3e604374	0.21900731
27	0x3e03412c	0.1281783
28	0xbd13df25	-0.03610148
29	0xbe7d34ce	-0.24727175
30	0xbe9726d3	-0.29521808
31	0xbcace5f9	-0.021105753
32	0xbd7a5cee	-0.06112378
33	0x3ec4d5f5	0.38444486
34	0x3e4cb1b6	0.19989666
35	0x3e4d8edb	0.20074026
36	0xbe9e5be7	-0.3092949
37	0xbe9769c7	-0.2957289
38	0x3e37b313	0.17939405
39	0x3e8f21ef	0.27955577
40	0x3e9c01d4	0.30470145
41	0x3e69dd67	0.22838365
42	0x3dfa35fb	0.12217327
43	0x3e3cae19	0.18425788
44	0x3d76469e	0.06012594
45	0xbea1faea	-0.31636745
46	0xbeb13891	-0.3461347
47	0x3e19ad31	0.15007474
48	0xbc9f74ef	-0.019464938
49	0xbd8e331f	-0.06943344
50	0x3e6d384b	0.23166005
51	0xbc4fc086	-0.0126801785
52	0x3d8cce2c	0.06875262
53	0xbe288bb2	-0.1645954
54	0x3db27926	0.087145135
55	0x3dd76876	0.10517971
56	0x3ea066aa	0.31328326
57	0xbe61c0be	-0.22046182
58	0xbe7dc431	-0.24781872
59	0x3e823e43	0.25438127
60	0xbdca782f	-0.098862045
61	0xbdf1f4c6	-0.11814265
62	0x3e0c0705	0.13674553
63	0xbe337efe	-0.17528912
64	0xbdfc2aa1	-0.12312818
65	0x3e6b9795	0.23007043
66	0xbeae1fae	-0.34008545
67	0xbd1a4522	-0.037663586
68	0xbe332bf6	-0.17497239
69	0x3e9535cb	0.29142603
70	0x3dbfd7d5	0.093673386
71	0x3df406fe	0.11915396
72	0xbe4da2c7	-0.20081626
73	0x3e01bfdb	0.12670843
74	0xbe38606d	-0.18005534
75	0x3e8e5a22	0.2780314
76	0xbeaf5c5b	-0.3425015
77	0x3e64ea7a	0.2235507
78	0xbe9e89bd	-0.3096446
79	0x3e61aeaa	0.22039285
80	0x3ea3584f	0.31903312
81	0xbd2ba33e	-0.041903727
82	0x3d2b1397	0.04176673
83	0xbd1a487b	-0.03766678
84	0xbe3360d5	-0.17517407
85	0x3ee1c173	0.44092903
86	0xbdcb97f5	-0.09941093
87	0x3cf10c51	0.029424818
88	0x3ce695c2	0.028147582
89	0xbdba8a44	-0.09108403
90	0xbe3deb91	-0.18546893
91	0xbc326411	-0.0108881155
92	0xbd8530d6	-0.06503455
93	0xbea200ee	-0.31641334
94	0x3d2dc93c	0.04242824
95	0xbe5a96f4	-0.21346647
96	0xbe3738a4	-0.178927
97	0xbe76e505	-0.24110802
98	0x3ead9d2e	0.3390898
99	0xbe90c049	-0.28271702
100	0xbe60e564	-0.21962506
101	0x3cb93017	0.022605939
102	0xbe39403f	-0.18090914
103	0x3ede4185	0.43409362
104	0xbba26473	-0.004955822
105	0x3e3fe370	0.18739104
106	0xbe649369	-0.22321858
107	0x3e9bd773	0.30437812
108	0x3e64e11e	0.223515
109	0x3e93fea3	0.2890521
110	0xbe49c9ea	-0.1970593
111	0xbe8c65fb	-0.27421555
112	0x3e0f3ea9	0.13988747
113	0x3df82c00	0.12117767
114	0xbe218c42	-0.1577616
115	0x3e8a8e7c	0.27061832
116	0x3e37bb90	0.17942643
117	0xbebf337b	-0.37343964
118	0x3e89b034	0.26892245
119	0x3e10d087	0.14142047
120	0xbd80d1fb	-0.062900506
121	0x3e16af4a	0.14715305
122	0x3e141e95	0.14464791
123	0x3e5e8dd5	0.21733792
124	0xbd5023ca	-0.05081538
125	0xbe05abc8	-0.1305381
126	0x3e4982c6	0.19678792
127	0xbea63271	-0.3246036
128	0x3d391ab5	0.045191485
129	0xbe6e7c8c	-0.23289698
130	0x3dda76f8	0.10667223
131	0x3e860c18	0.26181102
132	0xbc3b51a9	-0.0114330435
133	0xbe2db36d	-0.16962977
134	0xbe5d819a	-0.2163147
135	0x3e41932b	0.18903796
136	0x3e304e8a	0.1721746
137	0x3e92f992	0.28706032
138	0xbea64e8c	-0.32481802
139	0xbe94dc13	-0.29074153
140	0x3da3aae0	0.07991576
141	0x3e9bb562	0.30411822
142	0x3d1c3528	0.03813663
143	0xbe7c01dc	-0.24610084
144	0xbe45e919	-0.19327201
145	0xbdabf546	-0.083963916
146	0xbd94d138	-0.07266468
147	0x3d425fb3	0.047454547
148	0xbd0f9537	-0.03505441
149	0xbdde864a	-0.10865457
150	0x3eebd7bc	0.4606303
151	0x3e4df856	0.20114264
152	0xbe819846	-0.25311488
153	0xbe8e6146	-0.2780859
154	0x3ea7eaad	0.3279623
155	0x3e8195e7	0.2530968
156	0xbc337209	-0.010952481
157	0x3d3ac767	0.04560032
158	0xbe86f754	-0.2636057
159	0xbe9249d5	-0.28571954
160	0x3e75d8da	0.24008504
161	0xbe8c877c	-0.27447116
162	0xbe97a235	-0.29615942
163	0xbc3652f3	-0.011128175
164	0xbe365ec0	-0.17809582
165	0x3e238bee	0.15971348
166	0x3c7c00b5	0.015381028
167	0x3e154e7a	0.14580718
168	0x3e723c72	0.2365587
169	0x3c2f48c1	0.010698498
170	0x3d8b2faf	0.06796204
171	0x3e882fbe	0.26598924
172	0x3dd009ba	0.10158105
173	0xbdea04bb	-0.114266835
174	0xbbf7f0c7	-0.0075665447
175	0xbea5c31f	-0.32375428
176	0x3e513000	0.20428467
177	0x3e0ee6fd	0.13955303
178	0x3e07f129	0.13275589
179	0x3d43dd3a	0.0478184
180	0xbebb0225	-0.36525074
181	0x3e638139	0.22217263
182	0x3d716c3c	0.05894111
183	0x3e7b26ce	0.24526522
184	0xbe884df1	-0.26621965
185	0x3dbbd56e	0.09171568
186	0xbdfc2c9b	-0.12313195
187	0xbd8d0d18	-0.06887263
188	0x3e85dca2	0.26144892
189	0x3e64b38b	0.22334115
190	0x3e0d0d99	0.13774718
191	0x3e2b96df	0.16756772
192	0xbdc3bda7	-0.09557658
193	0xbe58a32f	-0.21156
194	0xbe552c68	-0.20817721
195	0xbc178ab7	-0.009249381
196	0x3ebeb1d2	0.3724504
197	0x3d517629	0.051138077
198	0x3cb6b62f	0.022303669
199	0x3ed2ee14	0.41197264
200	0x3e4bff86	0.19921693
201	0xbdd080b3	-0.101807974
202	0xbe5c2c00	-0.2150116
203	0xbed6f71c	-0.41985404
204	0xbe366ba1	-0.17814495
205	0x3e51c56a	0.20485464
206	0xbcf958d0	-0.030437857
207	0xbe799f65	-0.2437721
208	0x3e0412ce	0.12897798
209	0x3d1cd7b6	0.038291655
210	0xbe5d4b75	-0.21610816
211	0xbe35d454	-0.17756778
212	0x3e53525f	0.20636891
213	0x3e9a4aad	0.30135098
214	0xbe4cc5db	-0.19997351
215	0x3e25223d	0.16126342
216	0xbe08a982	-0.13345912
217	0x3c197b35	0.009367754
218	0xbd050361	-0.032473926
219	0xbe02ba24	-0.1276632
220	0x3e1b03fe	0.15138242
221	0xbd8a97d8	-0.06767243
222	0x3e097047	0.13421737
223	0xbddc4d7a	-0.10756965
224	0x3e118ea2	0.14214566
225	0xbe44e9e1	-0.19229843
226	0xbde669d3	-0.11250653
227	0x3dcbc523	0.0994971
228	0x3e0f529b	0.13996355
229	0xbc874833	-0.01651392
230	0x3d80b5ee	0.062847
231	0xbeb92d46	-0.36167353
232	0x3e3d9857	0.18515144
233	0xbd26650e	-0.040623717
234	0xbeafe2f3	-0.34352836
235	0xbe9434a5	-0.28946415
236	0x3e41de2d	0.1893241
237	0xbda4c9bc	-0.0804629
238	0x3de209b3	0.11037006
239	0xbe0fd580	-0.14046288
240	0x3e6eaf73	0.23309116
241	0x3e663692	0.22481754
242	0xbe0102b9	-0.12598695
243	0x3e7bb50f	0.24580787
244	0xbeb2f9ba	-0.3495615
245	0x3c24d101	0.010059596
246	0x3dedf9f9	0.11619944
247	0x3e05ce89	0.13067068
248	0x3e62c22f	0.22144388
249	0xbeb944c7	-0.36185285
250	0x3e3f0654	0.18654758
251	0xbe913137	-0.2835786
252	0x3d05fb36	0.032710277
253	0xbe1f7101	-0.15570451
254	0xbc92e301	-0.01793051
255	0x3ee99336	0.45620126

model.0.bias f4 [128]
0	0x3d77ce70	0.06049961
1	0x3e82f02e	0.25573868
2	0xbdf17898	-0.117905796
3	0x3d1c7850	0.038200676
4	0x3e47ffb6	0.1953114
5	0xbdb61275	-0.08890239
6	0xbd3b3bcd	-0.045711327
7	0xbd743ea6	-0.05963006
8	0x3da41b46	0.080130145
9	0xbecbe575	-0.398235
10	0x3e5d344b	0.2160198
11	0x3ea3ad3e	0.3196811
12	0xbdda1071	-0.10647667
13	0x3e618562	0.22023538
14	0xbe23917b	-0.15973465
15	0xbd71bf1a	-0.05902014
16	0x3a856fe3	0.001018044
17	0xbd26ab5c	-0.040690765
18	0x3e6e15db	0.23250525
19	0xbd51b7bc	-0.051200613
20	0x3e243742	0.16036704
21	0x3de8f55b	0.11374923
22	0x3e8d08f4	0.27545893
23	0x3e52bdf2	0.20580271
24	0x3daceea1	0.08443952
25	0x3e93f794	0.28899825
26	0xbeb40e0c	-0.35166967
27	0x3e1a1259	0.15046062
28	0xbe7df8ec	-0.24801987
29	0x3e064a3f	0.1311426
30	0xbde4c8f5	-0.11171142
31	0xbe0e2063	-0.13879542
32	0x3e9303f0	0.28713942
33	0x3e8e8d12	0.27842003
34	0xbea5c811	-0.323792
35	0xbea11e38	-0.31468368
36	0xbe675007	-0.22589122
37	0xbdd93450	-0.10605681
38	0x3e7ebcf5	0.24876769
39	0x3ec2b6bf	0.3803005
40	0xbdfee845	-0.12446646
41	0x3e3c6e6d	0.18401499
42	0x3e10637b	0.14100449
43	0xbe20fd13	-0.1572154
44	0xbddc26d5	-0.10749594
45	0x3e1b3b33	0.15159301
46	0xbe7de20b	-0.2479326
47	0xbea184ec	-0.31546724
48	0xbdca8b55	-0.09889857
49	0x3e10e9d2	0.14151695
50	0x3ea4de33	0.32200775
51	0x3ea3bf26	0.31981772
52	0xbe1fa3a8	-0.15589774
53	0xbe23d977	-0.16000925
54	0x3e1056f1	0.14095666
55	0xbeaa6040	-0.33276558
56	0xbddffeb1	-0.109372504
57	0x3e84c027	0.2592785
58	0xbdd81bab	-0.10552152
59	0x3db9bc4a	0.090691164
60	0xbedeb337	-0.43496105
61	0xbde87177	-0.11349767
62	0xbeab0bcb	-0.33407435
63	0xbea0898b	-0.31354937
64	0xbe66c244	-0.22535044
65	0x3e421cc5	0.18956287
66	0x3e593da0	0.21214914
67	0x3dc85ffe	0.09783934
68	0x3e4513a6	0.19245777
69	0x3e1024a7	0.14076482
70	0x3cba7488	0.022760645
71	0xbe8a9f9a	-0.2707489
72	0x3cbbc83b	0.022922626
73	0xbe5664b8	-0.20936859
74	0xbd4c00f2	-0.04980559
75	0xbe6ec94f	-0.2331898
76	0xbe621ebf	-0.22082041
77	0x3e37adab	0.17937343
78	0x3df1790a	0.117906645
79	0xbe760f04	-0.24029166
80	0xbe19e68c	-0.15029353
81	0xbe009ed0	-0.12560582
82	0xbe947865	-0.28998104
83	0x3e7a4411	0.24440028
84	0x3e2b69c5	0.16739567
85	0x3e3c52e3	0.18390994
86	0x3eeea21d	0.46608058
87	0xbe15dd6b	-0.14635246
88	0xbe97febf	-0.29686543
89	0x3e50fe4c	0.20409507
90	0xbe4e56e9	-0.20150341
91	0xbe4cfba4	-0.20017868
92	0xbdabf637	-0.08396571
93	0xbee96268	-0.4558289
94	0x3e9c3080	0.30505753
95	0xbe1df317	-0.15424763
96	0xbe2db26c	-0.16962594
97	0x3d9a52c8	0.075353205
98	0x3e1bf73b	0.1523103
99	0xbe4e1df8	-0.2012862
100	0x3e547596	0.2074798
101	0xbdd5e82d	-0.10444675
102	0xb96cbd14	-0.00022577151
103	0x3d8f8d3f	0.070093624
104	0x3bbc45e8	0.005745638
105	0xbe31bd95	-0.17357476
106	0xbe696caf	-0.22795366
107	0x3ec1a91d	0.37824336
108	0x3e24c59d	0.16091008
109	0x3e7a9272	0.24469927
110	0xbe07c55c	-0.1325888
111	0x3d8277a4	0.06370476
112	0x3ec69bf3	0.38790855
113	0x3e0116a1	0.12606288
114	0x3e48d711	0.19613291
115	0xbd6b736f	-0.057483133
116	0x3dbd9e83	0.09258749
117	0x3e831500	0.2560196
118	0xbd6b5f5e	-0.057463996
119	0xbd12ac3b	-0.035808783
120	0x3ea792c0	0.3272915
121	0xbea51d7b	-0.32249054
122	0xbe54e97d	-0.20792194
123	0x3e51e348	0.20496857
124	0x3e7c965c	0.24666733
125	0x3ec9b604	0.3939668
126	0xbceb1c9a	-0.028700162
127	0xbe279646	-0.16365919

model.1.weight f4 [64, 128]
0	0xbda89462	-0.08231427
1	0x3c2c8d43	0.010531726
2	0x3da67398	0.081275165
3	0xbd49b7b4	-0.04924746
4	0xbd827b55	-0.0637118
5	0x3bed267d	0.007237254
6	0xbd829282	-0.063756004
7	0xbdb93008	-0.09042364
8	0xbd2efabf	-0.0427196
9	0x3cba7386	0.022760164
10	0x3dbc71aa	0.09201367
11	0x3d178dbb	0.0370004
12	0x3b683bb4	0.0035435976
13	0xbc815267	-0.015786363
14	0xbd296656	-0.04135736
15	0xbcc7015b	-0.024292639
16	0x3c7c4b82	0.015398862
17	0x3da78ef9	0.08181567
18	0x3d282531	0.041051093
19	0x3d9deff1	0.07711781
20	0x3d883f5f	0.06652712
21	0x393a62b4	0.00017775112
22	0x3da9b1ae	0.08285843
23	0x3d45abd5	0.048259575
24	0x3d051188	0.032487422
25	0x3dcaebc9	0.09908254
26	0x3c3306b2	0.010926889
27	0x3c50fb84	0.0127552785
28	0x3d08504b	0.0332797
29	0x3d782603	0.060583126
30	0x3d1a07b7	0.037605014
31	0x3d7c4611	0.061590258
32	0x3d891908	0.066942275
33	0x3d311ecd	0.043242265
34	0xbd9b26cb	-0.075757585
35	0x3da9ec38	0.08297008
36	0x3d6efcde	0.05834662
37	0x3c496221	0.012291462
38	0xbce43397	-0.027856631
39	0x3d8a66f5	0.06757919
40	0xbc9e3253	-0.019311106
41	0xbd1b2ef5	-0.03788658
42	0xbd74e09d	-0.05978452
43	0xba3373d2	-0.00068455667
44	0xbd6cce8d	-0.05781417
45	0x3d5f1fcc	0.054473683
46	0xbd95e3a8	-0.073188126
47	0x3db2d3fa	0.087318376
48	0x3ceccc4b	0.028906008
49	0x3c13d053	0.009021836
50	0x3c4cc67c	0.012498494
51	0xbca477b5	-0.020076612
52	0xbda7bb70	-0.08190048
53	0xbd181682	-0.03713084
54	0xbd63521e	-0.055498235
55	0xbd948924	-0.0725272
56	0x3c4a58e1	0.012350292
57	0xbd927b13	-0.07152381
58	0xbba8bd02	-0.0051494846
59	0xbd2ddc1c	-0.04244624
60	0x3d8a951d	0.06766722
61	0x3cb085aa	0.021548111
62	0x3db9727c	0.09055039
63	0x3d13b245	0.036058683
64	0x3c274d47	0.010211295
65	0x3cbe326b	0.0232174
66	0x3d08c240	0.033388376
67	0xbd0cd72c	-0.03438489
68	0xbda83acb	-0.08214339
69	0x3d75355c	0.05986534
70	0x3dd4e796	0.10395734
71	0xbd331334	-0.043719485
72	0xbd682358	-0.05667433
73	0xbd154807	-0.036445644
74	0xbd6f9caf	-0.058499034
75	0x3d5cfc0a	0.0539513
76	0x3d95482e	0.07289158
77	0xbcf2bd0a	-0.029631156
78	0xbdc0fee8	-0.094236195
79	0xbd15118c	-0.036393687
80	0x3ccc69c5	0.024952779
81	0xbcc7f13b	-0.02440702
82	0xbd307b2d	-0.04308622
83	0x3d1e85c8	0.038701802
84	0x3d2dcdc1	0.04243255
85	0x3d7250d8	0.05915913
86	0x3ceca880	0.02888894
87	0x3c0e685b	0.0086918725
88	0xbd508a17	-0.050912943
89	0x3d752395	0.059848387
90	0xbd0a5b38	-0.0337784
91	0x3cea2d2b	0.02858599
92	0x3d84889d	0.064713694
93	0x3d865b87	0.06560426
94	0xbd0e068f	-0.034674224
95	0x3d0c5164	0.034257308
96	0x3cec0841	0.02881253
97	0x3c1e811a	0.009674335
98	0x3d826c80	0.06368351
99	0x3bd86e5a	0.006604952
100	0x3daea40e	0.08527385
101	0xbbb14867	-0.0054102424
102	0xbd92547a	-0.07145019
103	0x3cf3e99b	0.029774478
104	0x3c6e2c69	0.014536955
105	0x3dacf483	0.084450744
106	0xbd3947ee	-0.045234613
107	0x3cef9745	0.029246936
108	0xbccafe18	-0.024779364
109	0x3cb27005	0.02178193
110	0x3d26e6bf	0.0407474
111	0x3da37c9d	0.079827525
112	0xbd8cbc05	-0.068717994
113	0xbd285b07	-0.041102435
114	0x3d2634a0	0.04057753
115	0x3be7ef22	0.0070780674
116	0x3d7422ff	0.059603687
117	0x3c200b69	0.009768345
118	0x3d410973	0.047128152
119	0x3ccff443	0.025385028
120	0xbd0677ec	-0.03282921
121	0x3c78d3a2	0.015187176
122	0xbca80adf	-0.020512996
123	0xbd2021f0	-0.039094865
124	0x3cbe4d61	0.023230257
125	0xbda64ca2	-0.08120085
126	0xbd8c3ac9	-0.0684715
127	0x3d73dc93	0.059536528
128	0xbda0abd9	-0.07845277
129	0xbcbb4661	-0.022860708
130	0x3b51f865	0.0032038924
131	0x3da1dbf2	0.07903279
132	0xbdb15fb4	-0.08660832
133	0x3d85d663	0.06535032
134	0xbcd40ef2	-0.025886033
135	0xbd37927f	-0.044817444
136	0x3d573b31	0.052546684
137	0x3b0ab976	0.0021167672
138	0xbbb1bc5a	-0.0054240646
139	0x3d5ba189	0.05362085
140	0xbd5c011a	-0.053711988
141	0x3d8e85d1	0.06959117
142	0xbd95c6db	-0.07313319
143	0x3d979754	0.074019104
144	0x39a06f5d	0.0003060055
145	0x3d8f83f6	0.070075914
146	0xbd07bf2d	-0.033141304
147	0x3c3290b2	0.010898756
148	0x3ce062c4	0.027390845
149	0x3d78b963	0.060723674
150	0xbc53f71d	-0.012937334
151	0x3c987aa2	0.018613163
152	0x3db815b3	0.08988514
153	0x3db8f3ea	0.09030898
154	0x3d5a600c	0.053314254
155	0xbd81aa43	-0.06331303
156	0x3ca09ed7	0.01960699
157	0xbd0ebfd1	-0.0348509
158	0xbceff324	-0.029290743
159	0xbd400bc5	-0.046886224
160	0xbdbb0950	-0.091326356
161	0x3dad19dd	0.08452199
162	0x3d458fec	0.048232958
163	0x3dba536b	0.09097942
164	0xbd6b49bd	-0.05744337
165	0x3d5a94f7	0.05336472
166	0xbcbaef22	-0.022819106
167	0xbce03891	-0.027370723
168	0xbd0d592f	-0.03450888
169	0x3d59e2ab	0.053194683
170	0x3da16773	0.078810595
171	0xbdc50a20	-0.09621072
172	0xbd3c0112	-0.04589946
173	0xbca05e4c	-0.019576214
174	0xbd831d4f	-0.064020745
175	0x3d09bcb8	0.03362724
176	0x3d55fe67	0.05224457
177	0xbcd7cb72	-0.026342127
178	0x3cd228f3	0.025654292
179	0xbd9eeeae	-0.07760368
180	0xbd493b42	-0.04912878
181	0xbd9a0355	-0.07520167
182	0xbd4966ba	-0.049170233
183	0xbd707af2	-0.058711
184	0x3d24ee1d	0.040266145
185	0xbdb9486f	-0.09047019
186	0xbd395ba8	-0.045253426
187	0x3da3e2f0	0.08002269
188	0xbce102c9	-0.027467148
189	0xbd14b1c2	-0.036302336
190	0x3db1efda	0.08688326
191	0x39a62bc6	0.000316946
192	0xbc752080	-0.014961362
193	0xbd614f5e	-0.05500733
194	0x3c98a4ab	0.018633207
195	0xbd9d940a	-0.07694252
196	0xbda4ed92	-0.080531254
197	0xbbd0f7ad	-0.0063771815
198	0x3dc02228	0.09381515
199	0x3cc498eb	0.023998698
200	0x3d927d24	0.07152775
201	0xbd7c6431	-0.061618987
202	0x3d05b847	0.032646444
203	0xbd983255	-0.07431475
204	0xbd781cca	-0.06057433
205	0x3d9fd265	0.078038014
206	0x3d33a397	0.043857183
207	0xbd278561	-0.040898684
208	0x3c8a49d7	0.016880913
209	0xbd979eef	-0.07403361
210	0xbc74abd9	-0.01493355
211	0xbc51a819	-0.012796425
212	0x3d893e87	0.06701379
213	0x3c8d44ba	0.017244685
214	0xbc2b132e	-0.0104415845
215	0x3bebdf1a	0.0071982266
216	0x3d36059d	0.044438947
217	0x3b3823d6	0.0028097532
218	0x3b9e8104	0.004837157
219	0xbc8e6255	-0.017380873
220	0xbc370417	-0.011170409
221	0x3ca62c9c	0.020284943
222	0x3d69463d	0.05695175
223	0xbd24c3d1	-0.040225808
224	0x3d88fab6	0.06688444
225	0xbd20f19c	-0.039292917
226	0xbd0f980f	-0.035057124
227	0x3d150335	0.03638001
228	0x3da2c3b0	0.07947481
229	0xbd18471a	-0.037177183
230	0x3da9f5dd	0.08298848
231	0xbc9be5fc	-0.019030564
232	0x3d908e1c	0.07058355
233	0x3c83434c	0.0160233
234	0xbd451da1	-0.04812396
235	0x3cffe05c	0.031234913
236	0x3d91792f	0.07103192
237	0xbd47b579	-0.04875705
238	0x3c14ed2b	0.009089748
239	0x3c5eaf3d	0.013591585
240	0xbcefc01f	-0.029266415
241	0x3d6f690e	0.058449797
242	0xbc25a485	-0.010110025
243	0x3c87cb0b	0.01657631
244	0xbd50c959	-0.05097327
245	0xbd102428	-0.03519073
246	0xbce0c126	-0.02743585
247	0x3cf5f566	0.030024242
248	0x3d34a233	0.044099998
249	0xbd013d51	-0.031552617
250	0xbd842c19	-0.064537235
251	0x3c13b590	0.009015456
252	0xbd4cc6c9	-0.049994264
253	0xbc535dd2	-0.0129007865
254	0xbd46ade9	-0.048505697
255	0x3c1f9421	0.0097399065

model.1.bias f4 [64]
0	0x3d63f3f8	0.05565259
1	0x3d2be699	0.041967962
2	0x3d79aa82	0.060953625
3	0x3d1bfdfe	0.038084023
4	0x3dd85583	0.10563185
5	0x3cc5455b	0.024080923
6	0x3d3d5a37	0.046228614
7	0xbb58cab1	-0.0033079798
8	0x3d61bced	0.055111814
9	0x3d947938	0.07249683
10	0xbce3c8c0	-0.027805686
11	0x3dbd01df	0.092288725
12	0xbdd48e71	-0.10378731
13	0xbd2c7bdf	-0.04211032
14	0x3d133927	0.035943177
15	0xbcf88947	-0.030338896
16	0xbcbe5927	-0.02323587
17	0xbb99c4d2	-0.0046926523
18	0x3d401828	0.046898037
19	0x3c454c1a	0.01204207
20	0x3bebb189	0.0071927947
21	0xbdb9f110	-0.09079182
22	0xbca3fb83	-0.020017391
23	0xbdb02c23	-0.086021684
24	0xbd6829b0	-0.05668038
25	0xbc1056f3	-0.008809793
26	0x3bb96155	0.005657355
27	0xbce438a9	-0.027859049
28	0x3d912786	0.070876166
29	0x3cc7da89	0.024396198
30	0xbd0e0045	-0.034668226
31	0xbce06977	-0.02739404
32	0x3c264fab	0.01015083
33	0xbd6745f9	-0.056463216
34	0x3d49272c	0.049109623
35	0x3dd1157f	0.10209178
36	0x3c0d751a	0.008633876
37	0x3d8e61a2	0.06952216
38	0xbdb1eb7e	-0.08687495
39	0xbdad7706	-0.084699675
40	0xb9af7ac8	-0.0003347008
41	0xbd008dce	-0.031385235
42	0x3d984e7f	0.07436847
43	0x3d873a84	0.06602958
44	0xbd4a3928	-0.049370915
45	0xbd548820	-0.05188763
46	0x3d222b49	0.03959206
47	0x3d3d27f5	0.046180684
48	0x3c455cf8	0.012046091
49	0x3d1a7e08	0.03771785
50	0x3cb76185	0.022385368
51	0x3cdf77c8	0.027278796
52	0xbdc37acb	-0.09544905
53	0xbc32ddec	-0.010917168
54	0x3d1dc702	0.038519867
55	0x3d161893	0.03664453
56	0xbca304c6	-0.019899737
57	0x3c44ac4e	0.012003971
58	0xbd15060e	-0.036382727
59	0xbd120bb0	-0.035655677
60	0x3d02c7e3	0.031928908
61	0x3bdcedf5	0.006742234
62	0x3dbd7d69	0.09252436
63	0xbda40e08	-0.08010489
