SimLoan/VACA/exper_test_10pct_noise_adj_l/toy_/vaca/dgnn_elbo_8_8_16_4_normal_0.0_0.2_0.0_0.0_0_True_[BernoulliLikelihood()]_[NormalLikelihood()]_[NormalLikelihood()]_[BernoulliLikelihood()]_[NormalLikelihood()]_[NormalLikelihood()]_[BernoulliLikelihood()]_7_21/adam/0.005_0.9_0.999_1.2e-06_exp_lr_0.99/9/ckpt/checkpoint-epoch=461.ckpt (torch, 166358 bytes, 81 tensors)

model._encoder_embeddings.0.0.weight f4 [16, 1]
00000000: 3d85 9fbb f9fc a33e ef98 2c00 a9f9 92be
00000010: ab76 1c3d 2c05 14bf 1978 fa3e 6db9 2c80
00000020: 0e5b 5e8b c8f8 013f e89f ce3e f82c de3c
00000030: fbd2 82bb 0861 aa3e 4fae 89be 1ac8 0b3f
-0.004868178 0.3202894 4.095624e-39 -0.287061 0.038199108 -0.5782039 0.48919752 -4.10728e-39
-4.2824147e-32 0.50770235 0.40356374 0.027121052 -0.003992436 0.33277154 -0.268908 0.54602206

model._encoder_embeddings.0.0.bias f4 [16]
00000000: df47 89ba 6570 a5be 6e90 b8b1 1b83 b93e
00000010: 7567 853e 345a 253f 3278 6d3e 799f 7faf
00000020: 21e2 248c c7f0 82be 3035 153f db79 0dbd
00000030: fbd2 82bb 5ac7 063e 84c0 853e 22f5 0dbf
-0.001047369 -0.32312313 -5.3715246e-09 0.36232838 0.26055494 0.64590764 0.23190382 -2.3248771e-10
-1.2702149e-31 -0.25574324 0.5828428 -0.03454004 -0.003992436 0.13161984 0.2612344 -0.5545217

model._encoder_embeddings.1.0.weight f4 [16, 1]
00000000: ee2a 47bf ae19 a73e 9733 2a3c a134 9dbe
00000010: fd09 25bf 700a f1be 0242 443f a9d8 cbbd
00000020: 02e6 afbe f1cd c8bc c007 d13d 6d49 0c3f
00000030: 8ba0 f2be 7aad 303e 8ae1 cbbe 190b 423f
-0.7779988 0.3263678 0.010388277 -0.30704215 -0.64468366 -0.47078276 0.7666322 -0.09953434
-0.3435517 -0.024512263 0.10206556 0.5479954 -0.4738811 0.17253676 -0.3982051 0.75798184

model._encoder_embeddings.1.0.bias f4 [16]
00000000: c6c8 0cbf c714 6c3e 135b 4ebd 63f3 42bf
00000010: 49a5 04be d077 303f af55 213e 2fa0 ea3e
00000020: b137 48be 2cb8 aebd ef3b b4be dcf1 4dbf
00000030: ad01 323f c270 fb3e a3a0 90bf 317a 0a3f
-0.54993856 0.23054801 -0.050379824 -0.7615263 -0.12953676 0.6893282 0.15755342 0.45825335
-0.19552495 -0.08531222 -0.35201976 -0.80447173 0.6953381 0.49109465 -1.1299022 0.540927

model._encoder_embeddings.2.0.weight f4 [16, 1]
00000000: acb7 68bd c10c 5fbf 5c97 3f3f 87e5 2dbf
00000010: e4cf 61be 6a94 bd3c 2113 5a3f 8feb a13e
00000020: 678c 54bf 7926 13be 4f20 1d3c da02 e93a
00000030: 495f 21bf 9dc7 49be 538c 0b3f de6e a9bc
-0.05681579 -0.87128836 0.7484033 -0.67928356 -0.2205196 0.023142058 0.8518544 0.3162503
-0.83026737 -0.14370145 0.0095902225 0.0017777339 -0.6303602 -0.19705053 0.5451099 -0.020682748

model._encoder_embeddings.2.0.bias f4 [16]
00000000: 5401 793e 056f c4be b8ae 33be 7212 6dbf
00000010: 080c 513f 9e60 a5bd 4164 33be c082 533f
00000020: 71db 433e 107e d0be be1d b6bd 5eaa b5bc
00000030: ec28 5abf 2295 1e3f c571 3d3f 00b0 73bd
0.24316913 -0.3836595 -0.17547119 -0.9260627 0.81658983 -0.08075069 -0.17518713 0.82621384
0.19126679 -0.40721178 -0.088923916 -0.022175964 -0.8521869 0.6194631 0.74001724 -0.05949402

model._encoder_embeddings.3.0.weight f4 [16, 1]
00000000: c152 07bd ca0e 7fb0 aa98 44ac 932f 6a81
00000010: ed0e 8ea4 bc47 b83b 98e2 1f3d 5331 063e
00000020: 0015 20a8 951d 4a3e 3573 233d 6d41 83bd
00000030: 236b 8f3e 867a cebc cafe 353f 7e6e eb3e
-0.033037905 -9.2789476e-10 -2.793802e-12 -4.3013145e-38 -6.160797e-17 0.005623786 0.039034456 0.13104753
-8.886338e-15 0.19737847 0.03990479 -0.06408963 0.28011426 -0.025204908 0.710919 0.45982736

model._encoder_embeddings.3.0.bias f4 [16]
00000000: 230d da3c 122f 26b5 1a08 05b1 469b af82
00000010: d539 e2ac f9b9 573e c6a2 0fbc 75a8 5e3d
00000020: 4805 d3ad 5503 2ebe 7e83 253f 68aa 693d
00000030: cea4 96be 2cb0 ab3e b6d5 36bf cc69 ecbe
0.026617592 -6.1908315e-07 -1.9358652e-09 -2.5803062e-37 -6.429727e-12 0.21067037 -0.008766836 0.054359872
-2.3990268e-11 -0.16993459 0.64653766 0.057047278 -0.2942261 0.33532846 -0.71419847 -0.46174467

model._encoder_embeddings.4.0.weight f4 [16, 1]
00000000: 96ff b7be 0b59 e2bd 4de4 dcbe 2b70 71be
00000010: 5e8b 273e 8250 c1be 8d86 fa3d 01e7 75bc
00000020: 459a ffbe 3e1f 24bf 8fb1 f0bc 974a 833d
00000030: 0605 b83e f2d6 dabe 6847 163e 19c8 95bd
-0.35937184 -0.1105214 -0.4314293 -0.23577945 0.16361758 -0.37756735 0.12232695 -0.015008689
-0.49922386 -0.6411017 -0.029381542 0.06410711 0.35941333 -0.42742115 0.14675677 -0.07313556

model._encoder_embeddings.4.0.bias f4 [16]
00000000: b659 4dbf b7ba 173f ade8 39be 27e6 e7be
00000010: 4ed5 c3be 22c5 22be bcc9 513d 792e f73e
00000020: f295 57be 745f 8abe 076a 0f3d d254 3e3f
00000030: d78c d7be 39d3 76bf b2e4 adbe 9062 dd3e
-0.80215013 0.5926928 -0.18155165 -0.4529278 -0.38248676 -0.15895513 0.05121778 0.48277643
-0.21053293 -0.2702595 0.035013225 0.74348176 -0.4209964 -0.9641605 -0.33963543 0.4323926

model._encoder_embeddings.5.0.weight f4 [16, 1]
00000000: 64a1 80be d703 94be d11b d32c 709c 6dbe
00000010: 8595 aebe 489b 193f e4c5 f83e 8970 12bf
00000020: d994 10bf 3591 83be 43bf 1fbf 480e 0a3e
00000030: 0156 34bf 1400 0bb7 b9e5 ab3a 01fa 213f
-0.2512313 -0.2890918 6.000069e-12 -0.23204207 -0.3409845 0.60002565 0.4858848 -0.57202965
-0.56477123 -0.25696722 -0.6240122 0.1348201 -0.7044373 -8.285064e-06 0.0013114727 0.632721

model._encoder_embeddings.5.0.bias f4 [16]
00000000: 2bc3 833f 00ab 613f 6abc 45b2 4958 783f
00000010: 348f 47be 0d69 713d a83a 043f 6e0f 9e3b
00000020: a0ce a1bd 9e63 07be 5360 bebe ac54 83be
00000030: 4c14 22bf dbc1 b9b8 a314 123c d3a4 f83e
1.0293936 0.8815155 -1.150975e-08 0.9700971 -0.19488221 0.058938075 0.51652 0.0048236167
-0.07900739 -0.13221595 -0.37182865 -0.25650537 -0.6331222 -8.857596e-05 0.008916053 0.4856325

model._encoder_embeddings.6.0.weight f4 [16, 1]
00000000: 4c49 b8be 0df1 293f 185a 86be d2b8 953e
00000010: 703a 4ebe ca7f 00be 0adc 3480 276b f4bd
00000020: ebea 2d00 6647 e23d 3cce 033f 3362 853e
00000030: 9af9 273e d28c f7bd 1591 2c80 2ff9 2c80
-0.3599342 0.6638344 -0.2624061 0.2924257 -0.2013948 -0.12548748 -4.854381e-39 -0.119345
4.21687e-39 0.110487744 0.51486564 0.26051483 0.16403809 -0.12087406 -4.092807e-39 -4.130152e-39

model._encoder_embeddings.6.0.bias f4 [16]
00000000: f403 1a3f 773a 503f bd0c c23e 3b71 413e
00000010: 55ee 523e 14c0 fe3d 3c2f 3680 faef 283e
00000020: 9064 e98a e54a 1d3f b54d 1a3f 4a4a 5bbe
00000030: 5560 e23d ff88 a73e a187 2c80 85d3 3980
0.6016228 0.8133921 0.37900344 0.1889085 0.20598729 0.1243898 -4.976061e-39 0.16497794
-2.2474911e-32 0.61442405 0.6027482 -0.21415058 0.1105353 0.32721707 -4.089416e-39 -5.310502e-39

model.encoder_module.convs.0.m_net_list.0.weights.weight f4 [256, 21]
00000000: 2b14 ca3c 3e70 aa3b 0fc2 063e 44d3 a43d
00000010: 8b86 9dbc de09 8f3e 2d4f 8bbe c725 1ebc
00000020: 43bd d1bd 6980 813d 1b80 36bc d120 003e
00000030: cafe e6bd 1444 40bc dcea 633e 249f 3f3d
00000040: e9c9 bbbd 4743 1abe 91fb dbbc dad4 883c
00000050: f7b3 55be 5ed5 0cbc 3dd3 68bd bb14 4e3e
00000060: f406 a73d 0da7 5bbe 45ed 3bbe 4fb2 c93c
00000070: 2d84 d1bd a389 a33d 5f6c cabc acfe d0bd
00000080: 363e 13be 738e e0bc 149c 9b3d d572 0cbc
00000090: 67b4 12be 4559 a93a d78c 1cbd dc50 f83d
000000a0: 2899 17be 04ff 1c3e 69ec 0fbe a90a e4bd
000000b0: 432c 00bd a44c 833c f8e6 0a3e cfa8 833d
000000c0: b6a4 2d3e 11da ab3d 4526 dfbd 6eb4 1dbd
000000d0: 6127 ae3d 8aed ebbd 797f cb3d 1ca1 a4bd
000000e0: 5d33 873c 2fe6 733c 150d f53d c542 9b3c
000000f0: 2e9d d93d 072c 09be a389 80ba 3251 713d
00000100: 4233 053e c672 363e c27f 693d 0799 2cbe
00000110: d0ab aa3d 520b 103e 7d64 36be 4e92 96bd
00000120: 7ce1 803d 1ce2 35be ceab e4bd c3b9 45be
00000130: 8b10 acbd 7c8e 493d 5d27 ab3d eb89 d4bd
00000140: 5f9b 1b3d bb30 413d b09b fe3c df3f 20bd
00000150: e1d9 953c 59ed bf3e ee85 153e d016 a83c
00000160: 2490 65bc 4c5b fb3e 570d d53d e18e 8a3c
00000170: 7308 aebb d9f3 f33d 497f 893c 6818 213d
00000180: 8d1b a1b9 539e 033c 094c 923e 7f5e 3f3d
00000190: 97a8 c13e ed94 4e3c d7ab 0fbf d748 fdbd
000001a0: c981 073d 07cb 32be 5abb bb3d f53b 3d3e
000001b0: ae5f 25bd af6a 5f3e b351 32be 0a70 9f3c
000001c0: c1f1 893d a8c5 363d fe66 403e 3373 8b3d
000001d0: 1011 a23d 053d a9bd f39f 41bd 2dc3 25bd
000001e0: 0eaf 33bd 7011 37be e7fb f83c b9d9 823d
000001f0: d4e0 ca3d a0e0 173e fb08 793d 2331 423e
00000200: 9c45 bebd f5f9 7ebc cf7c c9bd 29f4 d4bd
00000210: dbd0 753e 98dd a83d 7f0b 4ebd de92 84bf
00000220: 4c8b a93d 9d03 e7bd 19cc 0cbb af28 be3c
00000230: ec9b 10bd 9d85 94bc 76cf 24be 2fe7 15bd
00000240: 1c00 77bd 939e e43d 2e0a 793d 3d4b 463c
00000250: c523 cf3c f1a0 ce3d 5817 22bb a731 1abe
00000260: d47a ed3d c094 073e 40c7 d33d 40c8 c43c
00000270: 402e 02be 23ce d33d 9693 703d f418 163c
00000280: 7bbb 8a3a 74a4 443e e86b e0bc 0f9a 1b3e
00000290: 584b 1a3e 7830 a5bd cae8 14bd 9c7e 583d
000002a0: 52b0 443d 9e3e aabd fbd2 8dbc 19b1 6c3e
000002b0: 49ab 27be c236 5dbe 1c27 a83c 9bc3 e681
000002c0: c1f2 693e c158 79bd c899 e781 aaab 513e
000002d0: 9767 2085 ed6e cbbd 7620 3fbd 9fb2 ee3d
000002e0: ed69 623e 95b3 43be eaf6 64be 40e0 2c3e
000002f0: 2049 2cbe 2694 183d c2f3 043e 44eb 983d
00000300: 1318 a0bd 49c8 3e3e b647 0e3d e907 bbbd
00000310: 1ec2 8a12 bdf5 58be fbec c13d 26b0 8a12
00000320: edc8 2d3e d92d 4d11 ac58 8838 fb8e 9cbd
00000330: 24af 353d 6cd5 103e 1d87 3ebd e807 573d
00000340: 27be 47be 95ef 2cbe 085d 88bd 27b4 b03d
00000350: 81d2 8e3e 3f2f 303e 7e4e 32be 3832 e6bd
00000360: 0b55 9b3d 0491 2c00 6938 f3bd f71c 25be
00000370: e5a0 2c00 da57 4d3e 8088 2c00 466b 4bbe
00000380: e1ea ed3d bb94 11be d9ee 5dbe 130e 1cbe
00000390: c664 223e da9c ffbd 98a7 43be ad50 713d
000003a0: 4378 3ebd a175 793d 454b 08be 12f9 5b3d
000003b0: 6ab1 1bbe a9ff 66bd 5245 1391 1d22 a03d
000003c0: 52df 26be bcb5 1291 b737 adbb 37d1 ae93
000003d0: 84b9 023e e66f a9bd fa51 27be 09ea 703e
000003e0: 3bc2 1a3c 061c d3bd 80bc e2bd 9649 65bd
000003f0: 140d a83b 6886 833e 1691 24be 94c4 343e
0.02466782 0.0052013686 0.13159965 0.08048108 -0.019229194 0.27937216 -0.27208844 -0.0096525615
-0.10241177 0.063233204 -0.011138941 0.12512518 -0.11279066 -0.011734981 0.2225756 0.046782628
-0.09169371 -0.15064727 -0.026853355 0.016703058 -0.20869432 -0.008595793 -0.056842078 0.20125096
0.08155623 -0.21450444 -0.1835223 0.024621157 -0.10230289 0.079852365 -0.024709878 -0.10204825
-0.143792 -0.027411675 0.07598129 -0.0085723 -0.1432663 0.0012920281 -0.038220253 0.12124798
-0.14804518 0.15331656 -0.14055027 -0.11134846 -0.03129221 0.016027756 0.1356467 0.06428682
0.16957363 0.08391202 -0.10895971 -0.03850215 0.08503605 -0.11519916 0.09936423 -0.08038542
0.016503984 0.014886423 0.11965386 0.018952737 0.10625683 -0.13395701 -0.0009806644 0.058915325
0.13007835 0.1781722 0.057006605 -0.1685525 0.08333552 0.14066818 -0.1781177 -0.07352124
0.06293008 -0.17762035 -0.11165582 -0.19309144 -0.08401593 0.04920815 0.08357117 -0.10377868
0.03798997 0.047165614 0.031080097 -0.039123412 0.01829237 0.3748577 0.14601871 0.02051869
-0.014011417 0.4909309 0.10402935 0.016913833 -0.005311066 0.119117446 0.016784327 0.039329916
-0.0003072884 0.008033353 0.28573635 0.046720978 0.37823936 0.012608749 -0.5612158 -0.12367409
0.033082757 -0.17460261 0.09166594 0.18479903 -0.04037445 0.2181804 -0.17413978 0.019462604
0.06735564 0.044622093 0.18789288 0.06809082 0.07913411 -0.08263592 -0.04727168 -0.040469337
-0.043868117 -0.17877746 0.030393554 0.063891836 0.09906164 0.14831781 0.06079958 0.18964057
-0.09290621 -0.015562524 -0.098382585 -0.10398132 0.24005453 0.08245391 -0.050303932 -1.035732
0.08278522 -0.11279986 -0.0021483956 0.023212759 -0.03530495 -0.018130118 -0.16094765 -0.036597427
-0.06030284 0.11163058 0.060800724 0.012102899 0.02528561 0.10089291 -0.0024733152 -0.15058003
0.11595693 0.13240337 0.10340738 0.024021268 -0.12712955 0.10342052 0.0587345 0.009161223
0.0010584438 0.19203359 -0.027395204 0.15195487 0.15067804 -0.08065885 -0.036354817 0.05285512
0.048019715 -0.083127245 -0.017312517 0.23114432 -0.16373934 -0.2160292 0.020526461 -8.4769337e-38
0.2284651 -0.060875658 -8.5076664e-38 0.20475641 -7.54219e-36 -0.09933267 -0.046661817 0.11655163
0.2211072 -0.19111474 -0.22359815 0.1688242 -0.1682477 0.03725066 0.12983611 0.07466748
-0.07817092 0.1863109 0.034736358 -0.09132368 8.756878e-28 -0.21187492 0.094690286 8.752448e-28
0.16971178 1.6185776e-28 6.501502e-05 -0.07644459 0.04435648 0.14143914 -0.046515573 0.052497774
-0.19506131 -0.16888268 -0.06658369 0.08628111 0.27894977 0.17205523 -0.17412755 -0.11240047
0.0758458 4.092784e-39 -0.11875994 -0.1612433 4.09848e-39 0.20053044 4.089729e-39 -0.1986514
0.11617065 -0.14216892 -0.21673144 -0.15239744 0.15858755 -0.12481089 -0.191069 0.05891483
-0.04650141 0.060903195 -0.13309963 0.05370433 -0.15204397 -0.05639616 -1.1617616e-28 0.078190066
-0.16296127 -1.157337e-28 -0.0052861827 -4.4130077e-27 0.12766081 -0.08273296 -0.16339865 0.23526777
0.009445722 -0.103080794 -0.1107111 -0.05597838 0.005128512 0.2568848 -0.16070971 0.17653114

model.encoder_module.convs.0.m_net_list.0.bias.weight f4 [8, 21]
00000000: 3e5b 0b3d cc98 153e e2ef 183d 5fce dcbc
00000010: f736 0c3e 357e 6cbd dac1 95bd 7ba0 cf3d
00000020: 2602 e3bd 3d28 2dbe 5739 02be 0950 44be
00000030: 4d16 c53c af18 11be 4157 163e 2885 15bd
00000040: ecfd f8bd 84ff 183e ecf4 2c3e 1262 50bd
00000050: b2f7 923d 8bde e9bd 6676 68be b18d 8fbc
00000060: ffbf 04be 8800 1abe 417c f0bc 5e3f 00bd
00000070: f78f 113e 271a 42bb 7316 06be b20a 13be
00000080: 0908 69bd a605 873c cd81 d8bc aa58 0dbe
00000090: 5e97 6cbd 66f3 a73c 6623 26be 9482 aabd
000000a0: 75b6 523e aa29 333e 582a 293c fdb1 6c3d
000000b0: 626e 0fbd 72ad 263e 972d 1bbc c869 0fbc
000000c0: b47d b3bd ff74 57be fde6 c7bd 0319 613c
000000d0: 363a 8b3d 642e 04be ed9b 37be 13b7 4abd
000000e0: 1bbe 173e 92d6 21be 0abb e7bd fcac 39be
000000f0: bb82 a33d 2c57 2fbd d2ec e63d 32bd 03be
00000100: 322f c83d c945 42be 41c8 27be 7f7f a53d
00000110: 9d0a 013e d487 2cbe 39e0 ec3c b6ed f2bd
00000120: 8539 9bbd b21d 0abe 5131 90bd f91f 453d
00000130: efef 4bbe 6377 d3bd 63ca 013e 2c3c 053e
00000140: 9d16 443e 63e8 43bd e06f 0bbe 53be 613e
00000150: 738e cabd 783a c5be a2e1 f13d 5e1c 31be
00000160: b4e6 d53a 212d d6bf e836 1e3d 3935 68be
00000170: 8a8c 44bd f8f0 173e 64a9 8d3d 4dcb e13d
00000180: f519 2bbd 0c86 26be 65a6 a73c 33d4 80bd
00000190: b7f9 8d3d 6a80 65be 4508 33bf 92b9 143e
000001a0: c599 1dbe 11a7 cabe 025e 053e b606 4f3d
000001b0: 3231 59be 2a7d eb3d 1eaf c5bd e702 e03d
000001c0: ee62 b43d 2b7e 153e 59be 9c3d 1d15 c5bd
000001d0: 284e 5f3d d77b d83c 99b5 c33c 9996 aebd
000001e0: 74f4 d6bd cb0b 4a3e 07fd 293d e331 3abc
000001f0: 5031 4dbe 4153 ffbd e849 91bc 124f 563e
00000200: 0b0c 623d f251 53be f5c3 9aba a74f 89bd
00000210: 2c36 5fbe daf1 cbbd e13c 3c3e cf21 b8bf
00000220: 0184 19bc b533 3e3e cb41 8c3d 1385 b1bc
00000230: 9ca2 02bd cdc9 c83d c541 56be ba7c d33d
00000240: 577b 533e b9f4 8cbd 1284 f4bc f430 cb3d
00000250: 2942 1cbc a620 883d 2044 253e 2fa6 5cba
00000260: 74a9 033d a411 f3bd d2c9 303e 6d1b 08be
00000270: d5c3 013e 8da9 96bd 975d e5bd 0738 213d
00000280: dfcc c4bc 8d87 ad3d 38fb 93bd 5fdb 133e
00000290: 4c95 37be ab04 18bd c8c1 533e 65d6 253e
0.034022562 0.14609069 0.037338145 -0.026953874 0.13692842 -0.057737548 -0.07312365 0.10138031
-0.11084394 -0.16909881 -0.12717186 -0.19171156 0.024058485 -0.14169572 0.14681722 -0.03650394
-0.12157807 0.14941221 0.16890305 -0.050874777 0.071761504 -0.114194 -0.22701415 -0.017523618
-0.12963866 -0.15039265 -0.029356124 -0.03131043 0.14215074 -0.0029617639 -0.13094501 -0.14359549
-0.05689243 0.016482186 -0.026429081 -0.13803354 -0.057761542 0.020501804 -0.16224441 -0.08325687
0.20577414 0.17496362 0.010325037 0.05778693 -0.03501738 0.16277102 -0.009471319 -0.008753248
-0.0876421 -0.21040724 -0.097608544 0.013738873 0.06798212 -0.12908322 -0.17930575 -0.049491
0.14818613 -0.15804508 -0.11314972 -0.18132395 0.07983919 -0.042807743 0.11275639 -0.12865141
0.09774627 -0.18971933 -0.16384985 0.080809586 0.12601705 -0.1684869 0.028915511 -0.11861746
-0.0757933 -0.1348789 -0.07040656 0.048126195 -0.19915746 -0.103255056 0.1267486 0.13011235
0.19149251 -0.047829043 -0.13616896 0.22045259 -0.09890451 -0.3852117 0.11810614 -0.17295977
0.0016319365 -1.6732522 0.03862658 -0.22676553 -0.04798559 0.14838016 0.06917074 0.11025105
-0.0417728 -0.16262072 0.020465085 -0.06290474 0.06932395 -0.22412267 -0.69934493 0.14523914
-0.1539069 -0.39580587 0.13024142 0.05054351 -0.21210173 0.114984825 -0.096525416 0.109380536
0.08807932 0.1459891 0.076534934 -0.09623168 0.054517895 0.026426239 0.023890303 -0.08524818
-0.104958445 0.19731061 0.04150107 -0.011364433 -0.20038342 -0.12467051 -0.017735437 0.209286
0.055187266 -0.20636728 -0.0011807667 -0.067046456 -0.21798009 -0.09958239 0.18382598 -1.4385318
-0.009369851 0.18574412 0.068484865 -0.0216699 -0.031893358 0.098041154 -0.20923527 0.10326524
0.20652519 -0.06882615 -0.029848132 0.099214464 -0.009537258 0.06646852 0.16139269 -0.0008417097
0.032144025 -0.11868599 0.17264488 -0.13291712 0.1267236 -0.07356558 -0.111994915 0.039360072
-0.024023471 0.0847312 -0.072256505 0.14439152 -0.17928046 -0.037113827 0.2067939 0.16195066

model.decoder_module.convs.0.m_net_list.0.weights.weight f4 [64, 21]
00000000: ccc7 643d 1698 6a3e a7f4 7bbc fd76 223d
00000010: 8dca 34be a790 173f f906 0dbd 2674 ecbb
00000020: f2b4 2abb 6980 d63d b9e1 883c 5b61 133e
00000030: ca9b 1a3e d718 46bd f498 66bd c729 25bd
00000040: d453 93be 0306 593d 610c ff3d 2c2e 5e3d
00000050: b47c 043e d890 823d 0b75 d03b 68e7 8d3d
00000060: c1a3 e43c ddd7 51be 12d8 1ebf 5be1 14bd
00000070: 2fa2 d33d 8650 0dbd a5f0 0bbe 5a35 ddbd
00000080: 0644 dcbe f467 3fbe a141 c03c bdeb 71be
00000090: 8dff 6dbd 2517 60be 1fe3 88bd 899c 203f
000000a0: a062 813c 3886 00bd bde1 2bbe befb 293c
000000b0: 0c86 01bd 7958 b03c b1bc ff3d 60c1 06bf
000000c0: 0ff8 423d adff b03d 2799 19bc f1c2 0abe
000000d0: 523e b6bd 9317 f4bd a26e a63c 2bc5 85bc
000000e0: 71fa e33d fb88 483d 5893 273e 6335 e63c
000000f0: 9624 a3be f7f2 1f3d 29ef fabd bec3 eebd
00000100: a5d3 d83e 3398 d03d 3423 bcb9 f0de da3d
00000110: dc8b 72be 8d96 cabd 2299 09be 3d30 b93d
00000120: 0fc2 d2bc 9967 eb3d 5ba8 aa3e 881b 39bb
00000130: 7ac7 f0bd 0a51 cb3d b0b6 8ebd 7ff5 843e
00000140: 2e58 a1bc 0c8d 07bf 289f 1a3e 8603 acbc
00000150: d743 1abd a43a d93c e773 2c3e e79d c4bc
00000160: e89d a13e eb2c d33e c884 53be 2674 c1bc
00000170: d66a ba3c 3053 e73d 1abb 913c 826b 083d
00000180: a6ff 183d be74 88bc e961 e63d 01ba de3d
00000190: 4f13 733e 31b3 bfbb 45a3 c9be 666a 3bbd
000001a0: b471 bbbd bc58 9f3c 0253 84be eaea 62bc
000001b0: ae26 2f3d e8df 39be eacf f4be 80ef 2f3d
000001c0: 497a 29bd cc02 cfbd 4074 a0bd 429f 913c
000001d0: 715b fb3c 677d 163e 5a4f 863d 4707 723e
000001e0: e1d9 c23d 6d2a 04be c5c1 973d 0105 d3bd
000001f0: 7a26 cf3a d0a1 a03c b20c e63d a173 79be
00000200: f5f3 1b3e 9060 06bd 9c09 013e 593d 093f
00000210: 2e05 f0bd bbde 57bd 1ebe 773c 1f3d 473d
00000220: cfc6 9f3d 1351 30be f3c7 61bd 7121 ab3a
00000230: 06a6 93bd b189 a83c 7a70 e33c 5081 23bd
00000240: 4217 c23d cd49 b7bb b916 3a3c 8589 cdbb
00000250: e9b6 87bd a22f d03d 29db 10be 83a8 4c3e
00000260: c8d2 36bd 4b45 e2bd 3418 adbd 2915 843e
00000270: 6bef 18be 890e 363d 65b7 6e3e 2cab 123d
00000280: 0dca ecbd fd86 e13d 5cb8 3fbe 1937 1a3e
00000290: aa03 75bb 184a 83be 4a27 febb 21a0 7a3d
000002a0: 647c 32bd c62e dcb9 cfb2 f2bc f0cc 023d
000002b0: 03b9 cfbd 96ce 86bd c48c 2e3d a204 9c3d
000002c0: 98ee bebd 44ce 2ebc 0c8f 5dbe a19b 4f3e
000002d0: 2cd4 383e 845b e53c 8c51 2b3e 549f e23d
000002e0: bf9c 31be e768 fc3d 9a0d 18be d388 f5bd
000002f0: 6c21 ecbd 07f1 94bc fd89 adbb 13f9 f0bd
00000300: 4d47 a83b a9e1 6a3d cd73 dc3c d249 073e
00000310: 5e29 003d ab47 c3bb 4064 71bd 3875 f2bb
00000320: 41f8 41be 82a0 50bd ee5d a33c 9524 043d
00000330: c147 a73d 0a87 b53d acca 383c bc32 4e3c
00000340: 43b6 9c3c db38 c83c 050d 31be 8a3d 193b
00000350: cfc6 9e3c cca1 4c3b 4280 a63c f31c 9f3d
00000360: 26f0 843b 3d0c 8abc 76f1 bbbc 8663 673c
00000370: 027c a5bc 9b9a 1d3d 7cf3 443d c279 1c3c
00000380: 7f2d 373e 384d 2b3a fb87 993c 6658 f9bb
00000390: 5310 303c 3221 8a3b 6cf0 aa3c 7f48 e5be
000003a0: 2cf1 bd3a 553f 063d 6f15 843d f9a6 b6bd
000003b0: a52e 91bc c58e 12bd 190b d83c bebd 24bd
000003c0: df21 963d a6f0 11bd 20c7 1c3d 3d5b d0ba
000003d0: b231 82bc b084 e5bd 5c28 cfbd 406c 2c3e
000003e0: c82c 503d 4744 2ebd 086c c5bd 1d26 98bc
000003f0: aa33 c43e 3814 baba b507 a9bd 8685 e23d
0.055854604 0.22909579 -0.015378154 0.039664257 -0.17655392 0.59205097 -0.034430478 -0.0072159944
-0.0026047793 0.10473711 0.016709195 0.14392607 0.15098491 -0.048363533 -0.05629821 -0.040323045
-0.28774893 0.05298425 0.12453533 0.05424325 0.12938195 0.06375283 0.006361609 0.06928903
0.027910115 -0.20492502 -0.6204845 -0.03634773 0.103336684 -0.03450062 -0.13666017 -0.10801192
-0.43020648 -0.18691999 0.023468794 -0.23625083 -0.05810504 -0.21883829 -0.06683945 0.62738854
0.015794098 -0.031378 -0.16785331 0.010374961 -0.031621978 0.021526562 0.12487162 -0.52638817
0.04759985 0.08642516 -0.009374893 -0.13550927 -0.088986054 -0.11918559 0.020316426 -0.016329369
0.11131752 0.04895876 0.16364801 0.028101629 -0.3186385 0.03905007 -0.122526474 -0.116584286
0.42348972 0.1018528 -0.00035884383 0.10687053 -0.23686165 -0.098919965 -0.13437322 0.09042404
-0.0257273 0.11494369 0.3333157 -0.002824517 -0.11756797 0.09927566 -0.069684386 0.2596855
-0.019695368 -0.52949595 0.15099776 -0.020997774 -0.037662353 0.02651722 0.16841088 -0.024001075
0.31565785 0.41245207 -0.20656121 -0.023614954 0.022756021 0.11295164 0.017789412 0.033305652
0.03735318 -0.01665723 0.11249144 0.10875321 0.23737834 -0.0058502187 -0.39382377 -0.045755766
-0.091525465 0.019451492 -0.2584458 -0.013849953 0.042761497 -0.1815182 -0.47814876 0.042953014
-0.041376386 -0.10107955 -0.07834673 0.017776135 0.030683251 0.14696275 0.06558104 0.23635589
0.09514213 -0.12906809 0.074100055 -0.10303689 0.0015804314 0.019608408 0.1123289 -0.24360515
0.15229781 -0.032806933 0.12601322 0.53609234 -0.11719738 -0.052702647 0.015121011 0.048642274
0.078015916 -0.17218427 -0.055122327 0.0013056231 -0.07209401 0.020573469 0.027763594 -0.039918244
0.09477092 -0.0055935145 0.011357957 -0.006272497 -0.06626684 0.10165335 -0.14146103 0.19986157
-0.04463461 -0.11048373 -0.08451882 0.25797394 -0.1493508 0.044447456 0.23312147 0.035807773
-0.11561976 0.11012075 -0.18722671 0.1506008 -0.0037386217 -0.25642467 -0.0077561485 0.061187867
-0.04357566 -0.0004199652 -0.029626278 0.031933725 -0.1014271 -0.06582372 0.042614713 0.07618071
-0.09322852 -0.010669295 -0.216366 0.20274211 0.18049687 0.02799774 0.16730326 0.11065546
-0.1734495 0.12324696 -0.14848939 -0.11988988 -0.11529812 -0.018181337 -0.0052959905 -0.11766257
0.005135453 0.057344113 0.026910687 0.13211754 0.03128945 -0.005959471 -0.058933496 -0.0073992275
-0.18942358 -0.050934322 0.01994225 0.03226145 0.08167983 0.08863647 0.0112787895 0.012585338
0.019129878 0.024441173 -0.17290123 0.0023382627 0.019381909 0.0031224368 0.02032483 0.077691935
0.0040569482 -0.016851539 -0.022942286 0.014122849 -0.020200733 0.03847752 0.048083767 0.009550514
0.17888449 0.0006534639 0.018741598 -0.007609415 0.0107460795 0.004215383 0.020866595 -0.44781873
0.001449143 0.032775242 0.06449401 -0.08918566 -0.017722437 -0.035780687 0.02637248 -0.040220015
0.07330679 -0.03562989 0.038275838 -0.0015896332 -0.015892837 -0.11206949 -0.1011512 0.16838169
0.050823957 -0.042545583 -0.09639746 -0.018572861 0.38320667 -0.00141967 -0.08253423 0.11060624

model.decoder_module.convs.0.m_net_list.0.bias.weight f4 [8, 21]
00000000: 3224 a8bd 5b33 bd3e d71a 52bd ce7d 0fbe
00000010: 08ad 153e fef0 533e b371 3ebe 23b5 44bd
00000020: 94d7 33be 82e5 f63b 69ee dcbd cede 743e
00000030: a879 48be 4830 27be ef59 fdbd f4eb 8f3e
00000040: f4aa 513e 172d 00bf 793f 743e 4ea3 31be
00000050: 16c4 f8be 4d0e 713e 3dc5 e8bd f0e6 52be
00000060: ceb0 ddbd 00f4 ddbe a825 91be f276 49be
00000070: 399f 813d 5abd 09be a5bf a63d 67f4 663d
00000080: da74 3abf 88c1 563e 1117 483d 3b0a febe
00000090: 2721 8fbb b55e 0cbf 290c 5fbe a6c9 493f
000000a0: ac1f 64be ed88 4fbd 3e22 17bd 2c1e 9abe
000000b0: 15e8 38bf fa61 e6bd 3a16 dabe c9b4 fdbd
000000c0: e2c9 31bf e42a 2ebe e584 fabd aa2c 8e3f
000000d0: a816 66be 72fd 13bf 81d6 11be a0bf cdbd
000000e0: 3cdc 0dbf 8c0d abbd 1c31 d2be 8fe7 92bd
000000f0: f236 353e 4e35 1fbd aae8 b4be 028f 8b3c
00000100: d830 013e ba87 41be 87bd 9f3c d0dd 12be
00000110: 77ae b6bd d9d2 a0bd 33c4 adbd 2855 2cbe
00000120: 84ed ba3c 1227 f4bc d966 43be c199 19be
00000130: 93f2 1cbe 744b 75be a2b6 63be 6056 e1be
00000140: af94 e5be 5a38 1fbf ffa8 82be aea2 97be
00000150: 5ee8 933e 5808 c2be 0ae5 9cbe fefd 8ebd
00000160: 6882 73be 8151 48be 5917 c8be 951e 3cbd
00000170: 7a84 5abe e8f5 85bd 54f5 9bbe 446f a8be
00000180: 5327 4cbe fc9f 52be 20ba debe 7029 5abe
00000190: 029f 53be b8f5 45be 634f d1be 7392 60bd
000001a0: c67b 3ebe 1e4b ae3d 400b 3a3e d625 ed3d
000001b0: 8d56 c63d 5ddb 45be 8f0a 043f 4828 023e
000001c0: 39b9 d1be d34f 46be 6321 ce3d 8db2 c4be
000001d0: a885 c93d 6513 e8be e2ee 3bbe 8641 a0bd
000001e0: 7368 8c3d c503 21be 476c b6be e4d5 20be
000001f0: 60a2 d6be 26fc d5be 430f 763d 7a10 a1bc
00000200: 4db2 963d 8c0c 27be 9338 1a3e 5b67 8b3e
00000210: db37 8a3e 3b8e 8c3d 6079 02be 3c9f e63e
00000220: 8698 02be a7f9 683d 0b65 0bbe 36dc 12bd
00000230: ddeb cc3d 6f79 4bbe 4302 113e 325c debd
00000240: 4d93 9b3d c0c9 3abd 2d62 a1be 3881 92be
00000250: 6383 67be 443b 453e def0 02be ceb7 39bf
00000260: 0253 473f 1479 c13e d07f 1abe b7a9 073e
00000270: ee8e 0e3f 4814 8cbe afae 4ebf f7ac f7be
00000280: d531 273e 19a0 2bbf 1270 5b3d db43 36bf
00000290: 6594 07bd 4826 8b3f fcd3 dcbd c157 17be
-0.08210029 0.36953244 -0.051295128 -0.14012834 0.14616787 0.206974 -0.1859806 -0.048024308
-0.17562705 0.0075346837 -0.10787661 0.23913118 -0.19577658 -0.16327012 -0.12370669 0.28109705
0.2047537 -0.500688 0.23852338 -0.17347452 -0.48587102 0.23540612 -0.11365745 -0.20595908
-0.108247384 -0.4335022 -0.28349042 -0.1967428 0.063291974 -0.13451138 0.08142022 0.056385424
-0.7283455 0.20972264 0.048850123 -0.4961718 -0.0043679657 -0.5483201 -0.21781982 0.78823316
-0.22277707 -0.050667692 -0.03689789 -0.30101144 -0.7222913 -0.11249156 -0.42595083 -0.12387998
-0.69448674 -0.17008549 -0.12232379 1.110738 -0.2246958 -0.578086 -0.14241983 -0.10046315
-0.55414176 -0.08352193 -0.41053092 -0.071730725 0.17696741 -0.038869195 -0.3533376 0.017035965
0.12616289 -0.18899432 0.019499553 -0.14342427 -0.08919995 -0.07852716 -0.08484688 -0.1682936
0.022818334 -0.029803786 -0.19082202 -0.15000059 -0.1532691 -0.23954564 -0.22237638 -0.4401121
-0.4484 -0.6219536 -0.2551956 -0.29616302 0.2888822 -0.3789699 -0.30643493 -0.06982039
-0.23780215 -0.19562341 -0.39080313 -0.045927603 -0.21339598 -0.065410435 -0.30460608 -0.3289739
-0.19936876 -0.20568842 -0.43501377 -0.2130487 -0.20666125 -0.19332016 -0.4088088 -0.054827165
-0.18601903 0.08510421 0.18168354 0.11579482 0.09684477 -0.19321962 0.5157861 0.12710679
-0.40961626 -0.19366388 0.10064962 -0.38417473 0.09839946 -0.45327297 -0.18352845 -0.078249976
0.068558596 -0.15724094 -0.35629484 -0.15706593 -0.41920757 -0.41793936 0.06007315 -0.019661177
0.07358227 -0.1631338 0.15060644 0.2722729 0.2699574 0.06863066 -0.12741613 0.4504336
-0.12753496 0.056878712 -0.13612764 -0.03585454 0.10005925 -0.19870542 0.14161019 -0.108574286
0.07596455 -0.04560256 -0.31520215 -0.2861421 -0.22608714 0.1926089 -0.12787196 -0.7254609
0.77861035 0.37787688 -0.15087819 0.13248335 0.55686843 -0.27359223 -0.80735296 -0.4837415
0.16327603 -0.67041165 0.053573675 -0.7119729 -0.033100504 1.0871058 -0.1078262 -0.14779569

model.decoder_module.convs.1.m_net_list.0.weights.weight f4 [128, 21]
00000000: aaaf 0a34 dc9b e03d 3861 aabd 6dfe 093c
00000010: 453b 5abc c2cb 3b3e f6bf 2f3e 6803 173d
00000020: a2cf 293c 53ea d93e ed7a 7b3e db04 a7bc
00000030: 8669 4bbe 5be5 76bc 22bd 2bbe 0f09 873d
00000040: 0aa2 8fbc 9a8a b7bd c936 19be 1fad 153b
00000050: a723 5f3c dbb8 2a20 0ffb 88bd ec51 8bbd
00000060: b877 c3bb 2433 9a3e 281f 9e3c 19de f03c
00000070: 048a 273e c987 12bb 9506 233d f9b1 b03e
00000080: 48cb 9cbd e2c1 1d3e 8aef 6f3d fde7 3abd
00000090: e4c1 41bd d5c6 83bd 24f9 fcbd 928c 20be
000000a0: 6d8f babd 4d41 0a3e 194c b5b8 48dc 093e
000000b0: 6ea3 36bb de19 593c f57c 25be 61b4 003c
000000c0: 7dda 73be bcd0 1ebe 604f 9bbb 4606 43bd
000000d0: f9af b2bd 55f9 f43d 58a1 613d d8bf b2bc
000000e0: b94c 8a3c f5e7 16bc 46ca 6bbe 640c 2ebe
000000f0: 9555 a9bc e9f2 99bd 5f5e d3bd 4aab f037
00000100: 8dab 49bd 9794 683e 3a54 4bbd a861 673d
00000110: a601 3fbe a312 05be 0f6e c9be f811 693d
00000120: b904 ac3c 8ef4 debe b155 543d ca66 acbd
00000130: d69d e6bb 83ec 253d 5a3b 953d 21a5 ddbd
00000140: 5cdc 26be 8c16 3ebe 0bc9 1abd 2f9f bd3d
00000150: bb07 5437 3e73 d2bd b39c be3c 286a 083d
00000160: cd7f 2d3d e7e8 623e ac3e 23be deae 98be
00000170: 7a60 233d 0abf b7bd 4f25 98be dde0 653c
00000180: 47b0 98bd 0014 a7ba 4fe5 b3bc 0f80 b3be
00000190: b687 04be 40ef b03d a932 533e b3a0 f7bc
000001a0: 9524 07be 64c4 0bb7 1313 363d a481 12be
000001b0: 3a1e 1ebd a0aa 02be 4b1d a53e 951b 81bd
000001c0: 788b 423e 5905 02bd a228 243e 4250 a93e
000001d0: 2a6c 1fbe 90d1 f7bd 426a c4bc 4b3f 0f3e
000001e0: 9ffa e1bc 8fac ad3d c55c 783d 0b02 e83d
000001f0: 9fb2 2b3d 3e49 b03d cf16 a5b5 8a62 293d
00000200: e825 893d bd63 34bd 416f 1bbe 5626 83bd
00000210: 66d0 c8bd aab2 d1be 2ca0 3d3d 3c26 7a3e
00000220: fa57 eebe a91e 803e 3b97 e83d 6e11 0b3d
00000230: 95ae 823d 604a 4c3d fb0f 5a3e 55e7 3abe
00000240: 0111 9f3d 96ee 2b3e d137 113e 327e 63a2
00000250: d082 b8bd ace0 97bd 268b 533d ba8a 6d3d
00000260: 050f 51bc ae36 0dbe d492 8bbe b068 52bd
00000270: ef18 653c 62ee 9bbe a53d dfbc 3e0b 26be
00000280: 7a2d 8dbd 6fa1 b13c 0c80 8f3d 382a 373e
00000290: cc2c a9bd 8266 a8bd ebb1 783d 2992 0abe
000002a0: e2a7 523e a3bb a43d e60f 8abd 5c67 943e
000002b0: c8b8 45bc 03ea 94be 57da f63d 6eb7 9bbd
000002c0: 12fe b0bb 8523 16bc 3241 2c3e d3c2 923c
000002d0: f735 f2bd 39e0 b53d 0f53 2e3c ed5c 3b3e
000002e0: bd0d 293c 43c0 f7b8 bb57 9d3b 28bf 633b
000002f0: 7be2 dd3d 2d59 88be 4536 abbd 5fe0 353c
00000300: cf68 81be e836 a53c ed9c 87bd 304d c0bc
00000310: 84ee 2a3e 8455 a0be 0a39 f7bd b6cf 0f3e
00000320: f92e adbc c17d 893e e378 d73b 99fb d13d
00000330: a16e 0e3d 16fe a73d 5f9b 0dbc 272d 04bf
00000340: c570 fcbb 4121 01bd 81e2 b9be f602 8c3e
00000350: c5b6 8b3e c723 bfbd 114f 8e3b bf11 1cbe
00000360: 7731 88bc b121 19be 3ff9 383e 300e bd3d
00000370: 81d8 25be 94d7 23bd e297 a23d beb6 70bd
00000380: dfd2 d9bb 699e fb3d 653f d93c 5b92 74ba
00000390: d05a 4d3e 0cdf 4739 abc7 fabd f4cc 73bc
000003a0: bf21 833d 7b00 87bd 5bfb 0fbe 6f44 143e
000003b0: 7c2c a83d bf41 883d f03f e43d de67 243e
000003c0: 5bda 18be fbdf 58be 6730 e93d d2d0 8a3d
000003d0: 4415 d13d fd6a 173d b9d3 29bd d28d c3bc
000003e0: 8517 aabb d215 0bbf be8f 1a3a b7cd 8fbb
000003f0: 8f45 b3bb 314c 153e aea5 afbd 8853 0ebe
1.2916158e-07 0.10967228 -0.08319324 0.008422476 -0.013319795 0.18339446 0.17163071 0.036868483
0.010364445 0.42561588 0.24558611 -0.020388057 -0.19864473 -0.015069331 -0.16771367 0.06593525
-0.017533321 -0.08961983 -0.14962305 0.0022838784 0.01361934 1.4460724e-19 -0.066885106 -0.06802735
-0.0059651993 0.30117142 0.019301966 0.02940278 0.16361243 -0.0022358766 0.0398012 0.34510782
-0.0765596 0.15405992 0.05857805 -0.045631398 -0.04730405 -0.064344086 -0.12352207 -0.15678623
-0.091093875 0.13501473 -8.644927e-05 0.13462937 -0.0027868408 0.013250796 -0.16160949 0.007855506
-0.23813815 -0.15509313 -0.004739687 -0.047613405 -0.0872497 0.11961619 0.05508551 -0.021819994
0.016882287 -0.009210576 -0.2302638 -0.16996914 -0.020670692 -0.075170346 -0.10320734 2.8689992e-05
-0.04923587 0.22712933 -0.04964087 0.056489617 -0.18652973 -0.1299539 -0.3934178 0.056901902
0.020998346 -0.43545955 0.051839534 -0.08418043 -0.0070378585 0.04050876 0.07286711 -0.108225115
-0.16294998 -0.18563288 -0.037789386 0.092588775 1.2637985e-05 -0.10275887 0.02326808 0.033304363
0.04235821 0.22159158 -0.15941876 -0.29820913 0.03988693 -0.08971985 -0.29715964 0.014030662
-0.07455497 -0.0012747049 -0.021959929 -0.35058638 -0.12942395 0.08639383 0.20624794 -0.030227995
-0.13197549 -8.330771e-06 0.044451784 -0.14307266 -0.038603045 -0.12760401 0.3224891 -0.06304089
0.18998516 -0.03174338 0.16031125 0.33069044 -0.15568605 -0.12100518 -0.023976449 0.13988988
-0.027585326 0.084801786 0.060635347 0.11328515 0.041918393 0.0860772 -1.2300096e-06 0.04135374
0.06696683 -0.04404043 -0.15179159 -0.064037964 -0.09805374 -0.40956622 0.04629533 0.24428648
-0.46551496 0.25023392 0.1135697 0.03395217 0.06380955 0.049875617 0.21295159 -0.18252309
0.07766915 0.16790232 0.14181449 -3.0831044e-18 -0.090093255 -0.074159 0.051646374 0.057993628
-0.012759929 -0.1379039 -0.27260458 -0.05136937 0.013982995 -0.3045531 -0.027251074 -0.16215226
-0.068934396 0.021683423 0.07006845 0.17887199 -0.082604975 -0.08222677 0.06071655 -0.13532318
0.20571855 0.08043601 -0.06741314 0.28985107 -0.012067981 -0.29084787 0.12053364 -0.07603346
-0.0054013813 -0.009163742 0.16821745 0.017915165 -0.11826699 0.08880658 0.01063992 0.18297167
0.010318217 -0.00011813689 0.004801718 0.003475139 0.10834213 -0.26630536 -0.083599605 0.0111008575
-0.25275275 0.020167783 -0.06621728 -0.023474306 0.16692549 -0.31315243 -0.12071426 0.14044079
-0.021140562 0.26853755 0.00657569 0.102530666 0.034773473 0.0820276 -0.008643 -0.51631397
-0.007703873 -0.031525854 -0.3630562 0.2734601 0.2728788 -0.09332996 0.0043429215 -0.15241145
-0.01662515 -0.14954259 0.1806383 0.09231222 -0.16195871 -0.040000513 0.079391256 -0.058768027
-0.0066474522 0.12286074 0.026519487 -0.000932967 0.20054173 0.0001906121 -0.12245115 -0.014880408
0.06402921 -0.065918885 -0.14060728 0.1447923 0.0821161 0.06653165 0.111450076 0.16055247
-0.14927046 -0.21179192 0.11386185 0.067781106 0.10209134 0.036967266 -0.04146168 -0.023871336
-0.005190792 -0.5433017 0.0005896053 -0.004388537 -0.0054709385 0.14579846 -0.08576523 -0.13899052

model.decoder_module.convs.1.m_net_list.0.bias.weight f4 [8, 21]
00000000: 1740 23be 6e77 bc3d 2172 553e 8920 2cbf
00000010: 4437 86be d6cc 3a3e 6443 833c 48f0 5d3e
00000020: 5f2d 1abf b5eb 0bbe 5f28 673e 146f bd3c
00000030: 2393 fbbd ac7b 63bf 2c8a 4cbd d6b5 d33d
00000040: 9f61 13be cddc d63d ac44 11be 109a 953b
00000050: 6959 3d3e 5481 633e 4448 13be 2d2d b23e
00000060: 7d8d 1e3e 221d bc3e 2a4e 253d 2aa7 013f
00000070: b40b 203e 33b2 c23d b17c 293f 39eb 773d
00000080: cdd9 b23e 2122 193e 2ce4 0c3e e2bb ad3d
00000090: d909 ad3d bc36 653e db89 433e b7f9 4b3e
000000a0: cda6 ffbd 6372 b43d 7496 c03e fcb5 b5bd
000000b0: b281 0e3e 5f4a ccbd ee13 e63e c683 bbbe
000000c0: 02d9 4c3d 97e3 783b 8165 86be 6a22 df3e
000000d0: c860 2cbd 39fa b63d f450 183d 0ccb b1bc
000000e0: c16e 453e 0805 16be f372 e83e cd92 393e
000000f0: 1606 df3e 9bad 97bd 7dce 9bbd 7d03 ab3e
00000100: dcc8 95be 2625 a1be 8765 f23d 87fc 813e
00000110: a078 36bf eb19 bbbe 44ba 5bbd 797e 583c
00000120: 4fb4 bbbf e64a 7b3c a517 0d3e 78eb 3f3d
00000130: 845c 83be a082 023e 3e6c efbd d3c0 6d3e
00000140: bb0e b43d df45 98bc 5155 2d3d ba48 613e
00000150: 3b05 8dbe 85c4 41be af41 023f db0e 5f3e
00000160: 1eed ae3d 7146 79bf 44ea e43e 1e85 30be
00000170: 4774 c83e 94d6 a93f 1388 153d b085 7dbe
00000180: ae53 963d cda6 4f3e 34f1 fa3d cdf5 e4bd
00000190: 1584 373c 2429 f33d 402f d73e 7954 34be
000001a0: d54e a73c b063 6c3e ecb8 d0bd 848a 943e
000001b0: 5325 9c3d fa5d b2be 7d40 523d 2c6d 9b3b
000001c0: 7a66 a83e 5148 54be 6bef 4e3e b670 733c
000001d0: c7a4 e0bd 53ab 883e 2f8e 10be b829 1dbe
000001e0: 0afd 52be 46d0 2cbe f383 9f3d 624c a7be
000001f0: f07d 4c3e a931 80ba d80d a4be b741 3b3e
00000200: 6d83 93bd 6e5b 1cbe c123 173f a2d6 a83e
00000210: 4f7f 5ebe b202 27be fd71 43be 8d0d 27bf
00000220: 3c69 6ebe 713b 033f a7af cabd e1b4 3dbd
00000230: e954 503f 01c4 1f3d 38d4 ce3e 1b03 5abd
00000240: 2f4b bf3e b3a0 e53d a2e5 983d 1ef1 38be
00000250: 1100 bbbe b818 d33c 2e21 d93e 189f da3c
00000260: eed8 c6bf eb7f 2e3d bf08 9abc 0d9b af3e
00000270: 773d 353d 6a40 87be 5f42 5e3d 0152 98bd
00000280: 67be 923d ab16 2fbe 7174 2e3e 70eb 353d
00000290: 8efe 143e 0ede e33c 4ab5 2bbe b71d ef3d
-0.15942417 0.09202467 0.20844318 -0.67237145 -0.2621404 0.18242201 0.016023345 0.21673691
-0.6022548 -0.13664134 0.22573994 0.023124255 -0.122839235 -0.88860583 -0.04993646 0.10337417
-0.14392708 0.10491333 -0.14186352 0.004565485 0.18491139 0.22217304 -0.14383036 0.3480009
0.15483661 0.36740977 0.040357746 0.506457 0.15629464 0.09506645 0.6620589 0.06052706
0.34931794 0.14954425 0.13758916 0.084831014 0.08449144 0.22384161 0.19095556 0.19919477
-0.124829866 0.0881088 0.37614787 -0.088726014 0.13916662 -0.09975123 0.4493708 -0.36623973
0.050011642 0.003797745 -0.26249316 0.43580943 -0.042084485 0.08934445 0.037186578 -0.021703266
0.1928053 -0.14650357 0.454002 0.18122406 0.4355933 -0.074061595 -0.07607744 0.334011
-0.29254806 -0.31473655 0.11835771 0.25387976 -0.7127781 -0.3654321 -0.053644434 0.013213747
-1.4664401 0.015337681 0.13778551 0.04685542 -0.2565652 0.12745142 -0.116905674 0.23218088
0.08791872 -0.018588005 0.042317692 0.22000399 -0.27543053 -0.18922623 0.50881475 0.2178301
0.0854132 -0.9737311 0.4470998 -0.1723828 0.39151213 1.3268609 0.036506724 -0.24758029
0.073401794 0.20278473 0.12253037 -0.11179695 0.011200924 0.11873081 0.42028236 -0.17610349
0.020423332 0.23084903 -0.10191521 0.2901193 0.076243065 -0.34837323 0.051331032 0.004743239
0.32890683 -0.20730712 0.20208518 0.014858415 -0.10968929 0.2669321 -0.14116739 -0.15347946
-0.20604339 -0.16876325 0.07788839 -0.32675463 0.19969916 -0.0009780425 -0.32041812 0.18286787
-0.07202802 -0.15269253 0.5903893 0.32976252 -0.21728252 -0.16309622 -0.19086452 -0.6525505
-0.23282331 0.51262575 -0.09896784 -0.046315078 0.8137956 0.039005283 0.40396285 -0.053225618
0.37362048 0.112122916 0.07465674 -0.18060729 -0.36523488 0.025768623 0.42408127 0.02668719
-1.5534952 0.04260246 -0.018802999 0.34297982 0.04424807 -0.26416332 0.054262515 -0.07437516
0.071652226 -0.17098491 0.17036606 0.044413984 0.1455023 0.027815845 -0.16768375 0.116755895

model.prob_model_x._decoder_embeddings.0.weight f4 [1, 8]
00000000: 3b77 2f3f b111 40be 52ba 7bbf 5232 84bf
00000010: fb0a 5a3f 0051 46bf 630d 4c3f 9c62 9f3e
0.68541306 -0.18756749 -0.9833118 -1.0327857 0.85173005 -0.77467346 0.79707927 0.3112992

model.prob_model_x._decoder_embeddings.1.weight f4 [2, 8]
00000000: 1ba2 0fbe 4645 92bd cb98 46ba 04c8 7f3d
00000010: 0671 0ebc f41d 97be 5695 383e 8580 213b
00000020: 9b44 13bf 5f91 a5be 8e8d 1a3f c2b9 923f
00000030: c787 ae3f caf4 f43d 5741 42bf 81d9 a53f
-0.14026682 -0.07142119 -0.00075758685 0.06244661 -0.008693939 -0.2951504 0.18025717 0.0024643254
-0.5752656 -0.32337472 0.60372245 1.1462939 1.3635186 0.11960752 -0.7588095 1.2957002

model.prob_model_x._decoder_embeddings.2.weight f4 [2, 8]
00000000: 942b 4a3e 12f8 e139 1a13 f6ba fe9d 34bb
00000010: c4a6 553b bfd1 bdbb 9afc 313e 225a b73d
00000020: bf74 c6be ca20 0cbf 3874 09bf 8513 863f
00000030: 7b7e 6abf fb13 02be 048c 873f 309e 56be
0.19743186 0.0004310017 -0.0018774003 -0.002755999 0.003260062 -0.005792826 0.17381516 0.08952738
-0.38760945 -0.5473753 -0.5369296 1.0474707 -0.91599244 -0.12702934 1.0589604 -0.20958781

model.prob_model_x._decoder_embeddings.3.weight f4 [1, 8]
00000000: 18e9 1e3e f463 e33e 1cc6 d3be 6140 28be
00000010: 9bde b9be a4aa 073f ef7d eabe 4912 acbe
0.15518606 0.44412196 -0.41362083 -0.16430809 -0.36302647 0.5299475 -0.45799205 -0.336077

model.prob_model_x._decoder_embeddings.4.weight f4 [2, 8]
00000000: 6371 513c a53b 863d 60e4 adbd c034 9d3d
00000010: 10f7 273d 0920 86be 24bb fa3d e37c 45be
00000020: f0c2 5f3f 5dc3 2abf 8112 ca3e 00f7 8e3e
00000030: 74e7 41bf 5a6b 133f caef 083f 2f69 7fbf
0.012783381 0.06554345 -0.08490825 0.07676077 0.0410071 -0.26196316 0.122427255 -0.19285922
0.87406826 -0.6670435 0.39467242 0.2792282 -0.75743794 0.5758568 0.5349089 -0.9976987

model.prob_model_x._decoder_embeddings.5.weight f4 [2, 8]
00000000: 3232 bf3a aed1 1ebe d911 2e3c 3053 69be
00000010: 98bd 083b 3ff7 89bd cc05 833a 780e d5bd
00000020: f86d 973e 7bd7 06bf 7e69 2bbf 7b1c b1be
00000030: 31fb c7be b551 463f fff0 39bf 6fe4 a23e
0.0014587103 -0.15509674 0.010624372 -0.2278564 0.002086496 -0.067366116 0.0009996234 -0.1040315
0.29576087 -0.5267255 -0.66957843 -0.3459204 -0.3905883 0.77468425 -0.72633356 0.31814906

model.prob_model_x._decoder_embeddings.6.weight f4 [1, 8]
00000000: ba55 383f 8bb3 6bbf dcec 37bf 501b 723f
00000010: e389 59bf c234 0c3f d8e5 4d3f 76e8 943f
0.7200581 -0.92070836 -0.71845794 0.94572926 -0.84976023 0.54768 0.8042884 1.1633441

exp_avg f4 [16, 1]
00000000: 2cba c8b1 f958 ce34 0000 0000 02ea 6e3e
00000010: 6a04 44bd bb38 363e ce0b 923d 0000 0080
00000020: ef1b 9581 f72c bebc ddd6 9ebd fe82 0c33
00000030: 779d a4b1 8c19 30be 2d3e adb4 0bf9 2f35
-5.8419314e-09 3.8435226e-07 0.0 0.23331454 -0.047855772 0.17795078 0.07131158 -0.0
-5.477404e-38 -0.0232148 -0.07755826 3.2715427e-08 -4.79093e-09 -0.17197245 -3.2269e-07 6.5554985e-07

exp_avg_sq f4 [16, 1]
00000000: 6382 6d30 db57 0131 2da7 f218 bd0a bf3f
00000010: cb1d bd3e d18f 6c3f a02a 0d40 8971 6617
00000020: 9c6c 9517 82f8 8f40 94a0 993f 6976 3c28
00000030: ce49 ec34 1211 1b40 8f0d 2d35 1267 c02b
8.640539e-10 1.882191e-09 6.272434e-24 1.4925152 0.36936793 0.92406946 2.2057266 7.446031e-25
9.656316e-25 4.4990854 1.200213 1.04617725e-14 4.4012125e-07 2.422917 6.446725e-07 1.3671028e-12

exp_avg f4 [16]
00000000: c1bd acb0 5e2c d0b4 7558 efa7 0f64 863d
00000010: afe1 e2bc f81a a03d c4c2 04be a770 a6a5
00000020: 809f 5c82 112f bebc 1544 95bd ace2 32b3
00000030: 779d a4b1 eb76 78bd 04f7 8e3e 30b6 32b5
-1.2568578e-09 -3.87753e-07 -6.643173e-15 0.065620534 -0.027695505 0.07817644 -0.12964922 -2.8872746e-16
-1.6208822e-37 -0.023215802 -0.07288376 -4.165001e-08 -4.79093e-09 -0.060660284 0.27922833 -6.6575285e-07

exp_avg_sq f4 [16]
00000000: fb4d 1e31 c457 0131 2ec8 ec24 ff7f 6140
00000010: 4f33 463f ca20 0940 2ff9 9840 4733 8c24
00000020: 6a16 0c20 81f8 8f40 c709 2340 eba4 5b28
00000030: ce49 ec34 35a1 a740 eb73 9e40 7673 c22b
2.3036353e-09 1.882186e-09 1.026878e-16 3.5234373 0.7742204 2.1426263 4.780418 6.080219e-17
1.1865877e-19 4.499085 2.5474718 1.2192703e-14 4.4012125e-07 5.2384286 4.95165 1.3816576e-12

exp_avg f4 [16, 1]
00000000: fb18 713f d373 b23e e06b 5632 e45a 02ba
00000010: a42c ba3e c37d 483d 1e71 a73e 7c31 d8bd
00000020: 640c 1d3f 3eae fcb2 bd82 0334 3cf9 6f3f
00000030: c7b1 963f 5622 86bd 5a45 00b5 5831 f63e
0.9417874 0.34853992 1.2480967e-08 -0.000497265 0.36362183 0.04894806 0.3270349 -0.105563134
0.6134703 -2.9415897e-08 1.2247888e-07 0.93739676 1.1773003 -0.06549518 -4.7784636e-07 0.4808452

exp_avg_sq f4 [16, 1]
00000000: 2c92 2742 e84c 9441 4c9c 7b2a dd08 503a
00000010: e7f8 0641 a4f2 943f 4f1e 2641 aa45 7140
00000020: f4c9 f041 5f98 652f 0bd5 8a34 ec91 7641
00000030: 4805 0c42 9508 6c41 96d3 2538 1b47 2942
41.892746 18.537552 2.2347505e-13 0.0007935891 8.435767 1.1636548 10.3824 3.769877
30.09861 2.0881562e-10 2.5859512e-07 15.410625 35.005157 14.752095 3.953612e-05 42.31944

exp_avg f4 [16]
00000000: a988 8bbf a159 f03d 511c 82b3 e402 4039
00000010: b488 a9be 6492 98be 0c43 a83e c937 04bf
00000020: 38ec 18bf 6edf dbb3 afc9 e2b4 3748 d13e
00000030: 07c9 efbe 3d1c 003f c3fb b5b5 f08a 883e
-1.090108 0.11735845 -6.0587475e-08 0.00018311624 -0.3311211 -0.29799187 0.32863653 -0.5164762
-0.5973544 -1.0238624e-07 -4.2242525e-07 0.40875408 -0.4683306 0.5004309 -1.3558823e-06 0.266685

exp_avg_sq f4 [16]
00000000: 1909 c341 7cd4 d341 97b7 9529 fd4f e738
00000010: 2de9 0e41 3d0e c93f 4002 2241 082c 5940
00000020: 46dd a141 9008 e72d 5715 d332 d195 8440
00000030: b095 7c42 6678 8c41 eecb a636 3292 6d42
24.379442 26.478752 6.648777e-14 0.00011029837 8.931928 1.570747 10.125549 3.3933125
20.233044 2.6265462e-11 2.4573337e-08 4.143288 63.14618 17.558788 4.970926e-06 59.39277

exp_avg f4 [16, 1]
00000000: 68ee 2a3e 24e8 a63d 3715 a43c 1c28 0e3f
00000010: aefe 983e e2b8 ee32 4528 22ba 529d 3dbe
00000020: 7fec 803f 8628 39b4 ceec 4532 1799 1231
00000030: cb58 993e 2b34 793e dfd6 9c3d 4532 d5b2
0.16692507 0.08149746 0.020029647 0.5552995 0.29881805 2.7790922e-08 -0.000618581 -0.18517044
1.0072173 -1.724421e-07 1.1520752e-08 2.1332818e-09 0.29950556 0.24336307 0.07658171 -2.4819323e-08

exp_avg_sq f4 [16, 1]
00000000: 7c39 6e3f 40ac 4f3f 5322 4441 b534 4840
00000010: 5498 4440 b732 2b2b 5d3b 7640 7adb 8340
00000020: 4261 cf41 5c02 fe33 850a 9c2a 119a 2035
00000030: 0950 8b3f 5cec 0640 c17d 3c42 0df2 5a35
0.93056464 0.8112221 12.25838 3.128217 3.0717974 6.0821785e-13 3.8473732 4.1205416
25.92249 1.1828226e-07 2.7718466e-13 5.982884e-07 1.08838 2.1081762 47.122807 8.156356e-07

exp_avg f4 [16]
00000000: 448a 0b3e 15ed 3b3d fc2b 51bd da34 b4be
00000010: 53bb be3d 4447 d0b3 e7f8 aebd 466d 3ebd
00000020: ec24 2d3e 322c 03b5 f896 e5b3 a796 e4b2
00000030: 9e70 42be f068 203e 0f7f 40bf ae50 99b3
0.13626963 0.045880396 -0.051067337 -0.35196573 0.09313073 -9.698718e-08 -0.08543568 -0.04649093
0.16908616 -4.8865616e-07 -1.06911045e-07 -2.6611202e-08 -0.18988273 0.1566503 -0.75193876 -7.139293e-08

exp_avg_sq f4 [16]
00000000: 7d96 833f 98ed 033f ea0f 1941 a2e2 813f
00000010: 5d66 7640 b4b8 e82a 731d 3f40 99f4 ab40
00000020: 5572 1142 f5f9 8532 727a c729 e010 fd33
00000030: 576d b63e b971 1d40 bab4 8d42 2549 1234
1.02803 0.51534414 9.566385 1.0147288 3.8499978 4.1339642e-13 2.9861724 5.373608
36.361652 1.5596905e-08 8.858616e-14 1.17843e-07 0.35630295 2.460066 70.85298 1.362392e-07

exp_avg f4 [16, 1]
00000000: c248 2ab3 b412 a6a6 d2b8 80a2 2900 0080
00000010: 8a50 bb9a 61f0 8938 80bb 9e36 69b4 22b9
00000020: 0878 529e 2776 7db8 7ebf 8238 ac28 a5b3
00000030: d7a9 b434 1804 1d37 e20a 6535 6140 1435
-3.9647382e-08 -1.1523633e-15 -3.4890156e-18 -5.7e-44 -7.7471505e-23 6.577443e-05 4.730595e-06 -0.00015516732
-1.1142129e-20 -6.042994e-05 6.234551e-05 -7.6908094e-08 3.3651187e-07 9.358882e-06 8.5324984e-07 5.522798e-07

exp_avg_sq f4 [16, 1]
00000000: 8472 212f 9717 8c24 2e68 0824 19ef 801e
00000010: 4e61 4823 7c71 3134 4616 1634 81f3 a134
00000020: c61a 9c23 f342 6134 eb1f b534 991f 0832
00000030: e734 942a f453 b134 3ac7 462d dbbb ee2a
1.4683549e-10 6.0755284e-17 2.9578543e-17 1.3651416e-20 1.0862627e-17 1.6525695e-07 1.3977942e-07 3.016576e-07
1.6924893e-17 2.0979114e-07 3.37371e-07 7.923426e-09 2.632679e-13 3.3029903e-07 1.1299234e-11 4.2407644e-13

exp_avg f4 [16]
00000000: bf73 60b9 e2a7 56ab cd1a 2da7 eb00 0080
00000010: f305 14a3 8edc 1139 cbce 9c36 460f bdb8
00000020: 61e8 09a4 6e4f 7fb8 da03 feb8 168f a039
00000030: 84c2 bdb4 5ccf eab7 5c19 66b5 85de 14b5
-0.00021405423 -7.6261057e-13 -2.4023102e-15 -3.3e-43 -8.024356e-18 0.0001391044 4.673236e-06 -9.015067e-05
-2.9903972e-17 -6.0870712e-05 -0.00012112381 0.00030624185 -3.5345522e-07 -2.7991533e-05 -8.571858e-07 -5.5458105e-07

exp_avg_sq f4 [16]
00000000: 2c6a 2135 5b5f 4425 2f7b 9a24 0581 711e
00000010: 7414 1524 1d36 c634 3219 1634 c85a 3335
00000020: 86af 2e24 ae43 6134 5858 2835 f7e0 0335
00000030: 1efd 9b2a 4e62 3d35 3ce5 462d 255b f02a
6.0131674e-07 1.7032598e-16 6.6995535e-17 1.2785114e-20 3.232655e-17 3.6919747e-07 1.3979005e-07 6.68148e-07
3.787891e-17 2.097938e-07 6.2713434e-07 4.912867e-07 2.7709166e-13 7.055104e-07 1.1305897e-11 4.2695808e-13

exp_avg f4 [16, 1]
00000000: c7af 85b7 d90f 8038 fa88 2237 4052 69b7
00000010: 9ffc cd37 bb89 e538 1f9c 31b9 e39e 91b8
00000020: 621e 8bb8 58ae 4db8 ba83 f0b7 78e0 6e39
00000030: 738b f838 65e2 b835 7ee8 2938 ea45 adb7
-1.5936688e-05 6.1064675e-05 9.687845e-06 -1.3907033e-05 2.455554e-05 0.00010945225 -0.00016938195 -6.943734e-05
-6.633696e-05 -4.903818e-05 -2.867157e-05 0.0002278107 0.00011851536 1.3774958e-06 4.0509265e-05 -2.0655763e-05

exp_avg_sq f4 [16, 1]
00000000: 0825 2232 f8bf b834 ed56 6933 7b84 0e33
00000010: fc23 cc31 0ff7 2c35 51c9 1b34 f20c f134
00000020: 876b 7e34 86ba 8c34 b6fd 4234 0a80 fc34
00000030: 789d 5433 e98d 4d31 55c3 8632 9a37 4e34
9.438061e-09 3.4412346e-07 5.43286e-08 3.318244e-08 5.9412724e-09 6.443451e-07 1.4508738e-07 4.4899167e-07
2.3694712e-07 2.6212746e-07 1.8159957e-07 4.7031818e-07 4.9503313e-08 2.9912093e-09 1.568848e-08 1.9205473e-07

exp_avg f4 [16]
00000000: 64f3 a436 3d46 e1b8 d9a8 ae37 0481 d336
00000010: 6910 0f37 88cc 48b9 63d9 b4b8 4efe ae38
00000020: 3255 9938 0791 6338 0971 5038 288b 2539
00000030: 0c28 6c38 dc72 f6b5 36e7 7237 c27a 15b9
4.9159153e-06 -0.00010741919 2.0821042e-05 6.3033094e-06 8.527285e-06 -0.0001914968 -8.62356e-05 8.3443345e-05
7.3114774e-05 5.4256085e-05 4.9696337e-05 0.00015787466 5.630408e-05 -1.8361857e-06 1.4478157e-05 -0.00014255478

exp_avg_sq f4 [16]
00000000: 2c80 d630 6293 1035 37ac 1e33 3e4a ea31
00000010: 5ab5 6530 eb9e cc34 d172 6f34 16fc 4535
00000020: 61e4 4834 ce61 5434 98e2 9534 c4ac 1f35
00000030: b6e8 3632 0395 0730 35a9 1831 c64e 5234
1.5606978e-09 5.385865e-07 3.694387e-08 6.8187367e-09 8.356743e-10 3.811359e-07 2.230038e-07 7.375505e-07
1.8709535e-07 1.977962e-07 2.791828e-07 5.948352e-07 1.0646707e-08 4.932447e-10 2.2215094e-09 1.9586432e-07

exp_avg f4 [16, 1]
00000000: a585 e13b 05aa 3f3d 45f0 0923 9cb3 903b
00000010: beae ff3a 62a7 52bd 786d 1ebd 6bce fe3b
00000020: accc 653c 8dcd 65ba f493 b5ba a667 5abd
00000030: 7c2c 9ebc 513b 31ad 6a9b afb9 b83b aabd
0.0068823867 0.046793003 7.477664e-18 0.0044159424 0.0019507033 -0.05142916 -0.038678616 0.007776072
0.014025848 -0.0008766286 -0.0013853298 -0.053321503 -0.019308321 -1.0074456e-11 -0.00033494394 -0.08312172

exp_avg_sq f4 [16, 1]
00000000: 6238 373b 9114 d93c f423 3324 def8 223b
00000010: 4089 ad3b 7c65 c23c f992 bf3b 58aa 853b
00000020: 8aff 633c 69d3 9639 630d 973b 8bc3 0d3c
00000030: 5ae9 dd3c 0043 ae26 16e3 2337 b065 cc3c
0.002795719 0.026499065 3.884489e-17 0.0024867575 0.0052959025 0.023730032 0.005846378 0.0040791444
0.013915906 0.00028767742 0.00460975 0.008652578 0.02708881 1.2091836e-15 9.76843e-06 0.024950832

exp_avg f4 [16]
00000000: 5194 10bc b37d 77bc 2466 80a8 d77e 0ebc
00000010: eb35 20bc 296a ecbc 9530 aa3b 450e 8cbc
00000020: ddb9 10bd 7206 beba 621d b6bb 07c7 cdbc
00000030: 95ec 623c 55cb edae b7e7 2bba eae2 823c
-0.008824424 -0.015105653 -1.4255151e-14 -0.008697233 -0.00977848 -0.028859215 0.0051937797 -0.017096648
-0.035333503 -0.001449777 -0.005557702 -0.025119318 0.013850351 -1.0813631e-10 -0.00065576605 0.015977342

exp_avg_sq f4 [16]
00000000: 73cd 453b 3c93 073d 106e c524 6dcd 2a3b
00000010: 58d2 7a3b cb8a f33c 152e 213c 1335 b73b
00000020: 31f2 8e3c 5cfa 5a39 fb77 4f3b 7048 e33a
00000030: 8c5c 633c d79a 2e26 7367 2237 b0aa 3c3d
0.0030182272 0.033099398 8.5621584e-17 0.0026062385 0.0038272347 0.029729268 0.009837647 0.0055910437
0.01744947 0.00020883366 0.0031657207 0.0017340314 0.013877045 6.0578224e-16 9.680039e-06 0.046061218

exp_avg f4 [16, 1]
00000000: 53e9 10b7 6086 2bb7 5427 bab6 0ffd 7c36
00000010: da1c efb5 10b6 21b4 0000 0080 bdd6 ba36
00000020: 0000 0000 0dd7 2f36 c923 3f36 b538 f535
00000030: f6db 6336 ce6f 8936 0000 0080 0000 0080
-8.637394e-06 -1.0223681e-05 -5.5478104e-06 3.7698226e-06 -1.7815285e-06 -1.5060527e-07 -0.0 5.568231e-06
0.0 2.6202208e-06 2.8482048e-06 1.8270426e-06 3.395367e-06 4.095934e-06 -0.0 -0.0

exp_avg_sq f4 [16, 1]
00000000: 5e71 a431 e4fd 9f31 e721 b730 320c 1631
00000010: 0315 1331 4210 a22d d47c 5b1f 9409 8531
00000020: 2eed b215 b823 bf31 a6d3 ab30 50ba 5f30
00000030: 660b 1d31 afee 5a31 e4e2 ab1f 5cb0 2a19
4.7859166e-09 4.656373e-09 1.3324638e-09 2.1834805e-09 2.140326e-09 1.8424488e-11 4.647831e-20 3.8718984e-09
7.226783e-26 5.5628924e-09 1.2502042e-09 8.1391693e-10 2.2852986e-09 3.1858851e-09 7.2796676e-20 8.8244095e-24

exp_avg f4 [16]
00000000: 7a65 1fb6 d988 d1b5 26cf beb6 c70f 3235
00000010: b1e3 1736 dc75 1a37 0000 0080 2791 dcb5
00000020: 166b 1b81 f48f 3535 dde9 4035 10c5 a835
00000030: 9629 eab6 ae3b 8db5 0000 0080 0900 0080
-2.3751913e-06 -1.5611541e-06 -5.6865565e-06 6.6333126e-07 2.2633287e-06 9.206557e-06 -0.0 -1.6433522e-06
-2.8545834e-38 6.7637234e-07 7.186589e-07 1.2574328e-06 -6.9785847e-06 -1.0522688e-06 -0.0 -1.3e-44

exp_avg_sq f4 [16]
00000000: dc07 4132 58b6 4332 f5cc 5831 58d4 aa31
00000010: 2f06 aa31 5c16 1c31 2287 5b1f deb9 1232
00000020: e2b9 b821 2470 5432 92a9 4331 1ac0 5f30
00000030: adf4 b531 36b6 ff31 e8db 1c20 0a2c 3521
1.1235866e-08 1.1391954e-08 3.1548641e-09 4.971792e-09 4.948354e-09 2.2713698e-09 4.6486833e-20 8.54058e-09
1.2517528e-18 1.2365522e-08 2.8472624e-09 8.139992e-10 5.2956097e-09 7.4421918e-09 1.3286475e-19 6.138347e-19
