SimLoan/VACA/exper_test_10pct_noise_adj_l/toy_/vaca/dgnn_elbo_8_8_16_4_normal_0.0_0.2_0.0_0.0_0_True_[BernoulliLikelihood()]_[NormalLikelihood()]_[NormalLikelihood()]_[BernoulliLikelihood()]_[NormalLikelihood()]_[NormalLikelihood()]_[BernoulliLikelihood()]_7_21/adam/0.005_0.9_0.999_1.2e-06_exp_lr_0.99/9/ckpt/last-v1.ckpt (torch, 166358 bytes, 81 tensors)

model._encoder_embeddings.0.0.weight f4 [16, 1]
000000 98 bd 9e bb c8 71 a3 3e ef 98 2c 00 59 f7 92 be
       -0.0048443787 0.31922746 4.095624e-39 -0.28704336
000010 92 af 1d 3d 1f 0a 14 bf 41 a1 fa 3e 6d b9 2c 80
       0.038497515 -0.57827944 0.48951152 -4.10728e-39
000020 01 ef 8f 84 00 0c 02 3f bd b5 ce 3e 40 c9 09 3c
       -3.383863e-36 0.5079956 0.4037303 0.008409798
000030 b5 cb 82 bb e0 78 aa 3e 09 a7 89 be 94 5e fd 3e
       -0.003991569 0.33295345 -0.2688525 0.4948622

model._encoder_embeddings.0.0.bias f4 [16]
000000 8c de 88 ba f2 e3 a4 be 92 e5 b3 ad 9e 82 b9 3e
       -0.0010442301 -0.32205158 -2.0451894e-11 0.36232466
000010 16 7f 85 3e 6a 56 25 3f 04 94 6d 3e 8e a4 0c ab
       0.2607352 0.6458498 0.23200995 -4.9966357e-13
000020 c5 87 85 85 68 ca 82 be 00 3f 15 3f 90 a2 40 bc
       -1.2557134e-35 -0.2554505 0.58299255 -0.011757508
000030 b5 cb 82 bb 18 ec 06 3e b6 c6 85 3e 99 c3 00 bf
       -0.003991569 0.13176 0.26128167 -0.5029846

model._encoder_embeddings.1.0.weight f4 [16, 1]
000000 81 29 47 bf bf 31 a7 3e 05 96 fd 3b 8d 16 9e be
       -0.77797705 0.3265514 0.007738831 -0.3087658
000010 bc ff 24 bf d7 0c f1 be ab 35 44 3f 61 94 ca bd
       -0.6445272 -0.4708011 0.7664439 -0.09891582
000020 2f f8 af be 79 d0 c6 bc 25 f8 d0 3d 47 44 0c 3f
       -0.34369037 -0.02426933 0.1020358 0.5479168
000030 4f 90 f2 be f0 a5 30 3e 8a e1 cb be cd 1b 42 3f
       -0.47375724 0.172508 -0.3982051 0.7582367

model._encoder_embeddings.1.0.bias f4 [16]
000000 1b d1 0c bf e0 f1 6b 3e d3 73 f8 bc 38 7e 42 bf
       -0.5500657 0.23041487 -0.030328667 -0.75973845
000010 b6 1b 05 be 54 91 30 3f af 5e 21 3e c7 f1 ea 3e
       -0.12998852 0.68971753 0.15758775 0.45887586
000020 4c 75 48 be 7e e4 a9 bd 91 11 b4 be 6d f2 4d bf
       -0.19575995 -0.082955346 -0.35169652 -0.8044804
000030 8a 0b 32 3f 58 a5 fb 3e a3 a0 90 bf 49 69 0a 3f
       0.6954886 0.49149585 -1.1299022 0.540669

model._encoder_embeddings.2.0.weight f4 [16, 1]
000000 ca 04 67 bd 17 f2 5e bf 73 8e 3f 3f 08 e4 2d bf
       -0.05640105 -0.8708815 0.74826735 -0.67926073
000010 0d a8 61 be 32 3b 9e 3c 1f f5 59 3f b5 bc a1 3e
       -0.22036763 0.019315336 0.8513965 0.31589285
000020 a4 8f 54 bf 53 16 13 be 0a 05 f1 3b db f7 e8 3a
       -0.8303168 -0.14363985 0.007355337 0.0017774062
000030 f5 5e 21 bf 65 77 49 be 33 89 0b 3f 98 67 a9 bc
       -0.6303552 -0.19674452 0.54506224 -0.02067928

model._encoder_embeddings.2.0.bias f4 [16]
000000 94 89 79 3e 77 d4 c3 be bc 85 33 be e4 0e 6d bf
       0.24368888 -0.38248035 -0.17531484 -0.92600846
000010 9c 21 51 3f 0b 78 85 bd f0 c7 33 be 03 a6 53 3f
       0.8169191 -0.06517037 -0.17556739 0.8267519
000020 88 d1 43 3e 6b 40 d0 be 5b 82 6e bd 66 97 b5 bc
       0.19122899 -0.40674147 -0.058229785 -0.022166919
000030 a6 24 5a bf 69 aa 1e 3f 0b 7f 3d 3f 4b 97 73 bd
       -0.8521217 0.61978775 0.7402198 -0.059470456

model._encoder_embeddings.3.0.weight f4 [16, 1]
000000 bd b9 05 bd b4 37 0c ac 14 77 53 a7 cc 83 2c 80
       -0.032647837 -1.9926118e-12 -2.9346685e-15 -4.088042e-39
000010 4d 8d 06 9f e7 19 b2 3b 2f 14 1b 3d 5e ac 07 3e
       -2.8492485e-20 0.0054352167 0.037861045 0.13249347
000020 75 41 d4 a2 e6 8d 49 3e 65 86 1e 3d 04 0b 83 bd
       -5.753202e-18 0.19683036 0.038702387 -0.063985854
000030 3e bb 67 3e 8f 8f d0 bc 3f d4 2e 3f 8d 5e ca 3e
       0.22630021 -0.02545908 0.6829261 0.39525262

model._encoder_embeddings.3.0.bias f4 [16]
000000 b6 e5 dd 3c 83 45 90 b1 3c 49 a2 ac 38 91 2c 80
       0.027087074 -4.198854e-09 -4.6124476e-12 -4.092857e-39
000010 a6 32 04 a8 fe 06 58 3e d0 ac 22 bc ef 89 5f 3d
       -7.338455e-15 0.21096417 -0.009928897 0.054574903
000020 d3 8c 0f a9 b3 80 2e be 3d 92 25 3f 31 2f 67 3d
       -3.1874524e-14 -0.17041282 0.64676267 0.05644149
000030 28 27 75 be 9d ed ab 3e 18 a4 2f bf 2e 54 cb be
       -0.23940718 0.33579722 -0.6860976 -0.39712662

model._encoder_embeddings.4.0.weight f4 [16, 1]
000000 e6 34 b8 be 98 37 e4 bd bb 4f dc be 75 4a 70 be
       -0.35977858 -0.11143416 -0.4302958 -0.23465903
000010 a7 dc 28 3e 9e 1a c1 be 54 68 f9 3d 2c fe 73 bc
       0.16490422 -0.3771562 0.12178102 -0.014892142
000020 a2 94 ff be 6c 27 24 bf fc 6d f3 bc d1 2b 84 3d
       -0.49918085 -0.64122653 -0.02971553 0.0645367
000030 e8 77 b8 3e 12 16 da be 42 c2 17 3e 6a 6a 95 bd
       0.3602898 -0.42594963 0.14820197 -0.072956875

model._encoder_embeddings.4.0.bias f4 [16]
000000 8a 92 4c bf 55 bc 17 3f 27 b9 3a be 33 12 e8 be
       -0.799111 0.59271747 -0.18234693 -0.45326385
000010 9a 6f c2 be b2 2b 22 be a4 f8 53 3d d1 5d f7 3e
       -0.3797577 -0.15836981 0.051750794 0.48313764
000020 f8 85 57 be 77 58 8a be dd 53 0d 3d 06 6b 3e 3f
       -0.21047199 -0.27020618 0.034503806 0.74382055
000030 d7 02 d6 be 97 fa 75 bf 95 bc ac be cf 1f dd 3e
       -0.41799042 -0.96085495 -0.33737627 0.4318833

model._encoder_embeddings.5.0.weight f4 [16, 1]
000000 63 a4 80 be 8f e0 93 be 42 2f 13 28 ab b5 6d be
       -0.25125417 -0.28882262 8.170387e-15 -0.23213832
000010 c4 70 ae be 0a 70 19 3f 70 d1 f8 3e 7f 71 12 bf
       -0.34070408 0.59936583 0.48597288 -0.5720443
000020 89 9f 10 bf 53 b3 83 be 77 b1 1f bf d0 78 08 3e
       -0.5649343 -0.2572275 -0.62380165 0.13327336
000030 c8 70 34 bf 3f d0 02 b5 c9 b0 76 3a 81 cd 21 3f
       -0.7048459 -4.873181e-07 0.00094104983 0.632042

model._encoder_embeddings.5.0.bias f4 [16]
000000 df f6 83 3f 9f da 61 3f 90 74 1d ae 07 c9 78 3f
       1.0309714 0.88224214 -3.5801195e-11 0.97181743
000010 d9 c8 47 be 05 5f 72 3d 89 26 04 3f af c0 8e 3b
       -0.19510211 0.05917265 0.516213 0.004356466
000020 89 90 9f bd 6a 89 07 be 67 8e be be 43 48 84 be
       -0.0779124 -0.13236013 -0.3721802 -0.2583638
000030 39 ca 21 bf fe f4 2a b6 32 59 27 3c be a5 f8 3e
       -0.6319919 -2.5474578e-06 0.010214137 0.4856395

model._encoder_embeddings.6.0.weight f4 [16, 1]
000000 d6 3b b8 be 44 a9 29 3f cd e0 85 be 23 69 95 3e
       -0.3598315 0.66273904 -0.26148072 0.29181775
000010 ed da 4d be 58 6f fe bd 0a dc 34 80 79 6c f4 bd
       -0.20103045 -0.12423581 -4.854381e-39 -0.11934752
000020 eb ea 2d 00 5e 0d e2 3d 15 7c 03 3f ee fc 84 3e
       4.21687e-39 0.11037706 0.5136121 0.2597422
000030 8a fc 26 3e af d1 f6 bd 15 91 2c 80 f9 cc 0d 80
       0.16307274 -0.12051713 -4.092807e-39 -1.267392e-39

model._encoder_embeddings.6.0.bias f4 [16]
000000 d6 e2 19 3f aa 06 50 3f 3b b9 c1 3e 57 44 41 3e
       0.6011175 0.8126017 0.37836632 0.18873726
000010 42 b4 52 3e 1c 7d fd 3d 3c 2f 36 80 20 e4 28 3e
       0.20576575 0.12377378 -4.976061e-39 0.16493273
000020 90 87 96 84 5e 24 1d 3f 38 0d 1a 3f c0 70 5a be
       -3.5389325e-36 0.61383617 0.6017642 -0.21332073
000030 c0 6d e2 3d 71 58 a7 3e a1 87 2c 80 0c d7 27 80
       0.110560894 0.32684663 -4.089416e-39 -3.658729e-39

model.encoder_module.convs.0.m_net_list.0.weights.weight f4 [256, 21]
000000 63 60 8f 3c 33 f0 a5 3b 49 f0 06 3e a0 39 a2 3d
       0.017502015 0.0050640344 0.13177599 0.07921147
000010 cc 97 9c bc d7 13 8f 3e f8 33 8b be 3b 90 5e bc
       -0.019115351 0.27944824 -0.27188087 -0.013584192
000020 e6 87 cf bd d9 23 81 3d 1e bb 76 bc ae 3c 00 3e
       -0.101333424 0.063056655 -0.015059261 0.12523147
000030 3f 59 ff bd b4 ad 41 bc 3a 05 64 3e bf 0b 46 3d
       -0.12468194 -0.011821199 0.22267619 0.048351046
000040 35 8c bb bd 08 39 1a be 72 2a de bc 15 86 87 3c
       -0.09157602 -0.15060818 -0.027119849 0.016543427
000050 4a 62 55 be b4 e7 03 bc 8f 0f 69 bd 58 0f 4e 3e
       -0.20838276 -0.008050848 -0.056899603 0.2012304
000060 8d ba a1 3d c4 93 5b be 64 4b 3c be e6 a9 c9 3c
       0.0789691 -0.21443087 -0.18388134 0.024617147
000070 f7 66 dd bd 5d 49 9e 3d ec 39 c9 bc 71 e2 dc bd
       -0.108106546 0.07728837 -0.024563752 -0.10785378
000080 a4 2c 13 be 23 fc dc bc c5 77 96 3d f0 8f 0b bc
       -0.14372498 -0.026975697 0.07347063 -0.008518204
000090 f3 0a 12 be fc 51 b0 3a 64 11 1c bd 8d ad f7 3d
       -0.1426199 0.0013452168 -0.038102522 0.12093649
0000a0 27 49 17 be 37 c5 1c 3e e1 89 e7 bd ba 96 e5 bd
       -0.14773999 0.15309606 -0.11305595 -0.112103894
0000b0 58 5a 00 bd 3f d7 7e 3c 13 d7 0a 3e c3 6d 83 3d
       -0.03133616 0.015554248 0.13558607 0.0641742
0000c0 22 99 2d 3e 25 d2 b1 3d f5 e6 db bd d0 23 1d bd
       0.16952947 0.0868266 -0.10737411 -0.03836423
0000d0 ed 1c b4 3d 6c 01 ec bd c8 1a cf 3d 8c 58 a2 bd
       0.0879458 -0.11523709 0.1011253 -0.07927045
0000e0 90 ca 86 3c d0 02 5f 3c 08 ee f4 3d 35 13 9b 3c
       0.016454011 0.01361151 0.11959463 0.018930057
0000f0 18 7c d9 3d db ef 08 be 16 16 8b ba be 17 38 3d
       0.10619372 -0.13372748 -0.001061144 0.044944517
000100 52 a0 05 3e 3d 5a 36 3e 17 99 5a 3d a6 7a 2c be
       0.13049439 0.1780786 0.053368654 -0.16843662
000110 8d 0a aa 3d ca f3 0f 3e 2f 39 37 be 0d 9e 97 bd
       0.08302794 0.14057842 -0.17892908 -0.07403193
000120 e3 4b 81 3d 9f b7 36 be 63 71 e4 bd 91 4e 45 be
       0.06313302 -0.17843483 -0.11154439 -0.19268252
000130 7c 98 ac bd 71 f5 49 3d b2 2b a7 3d e8 4f d4 bd
       -0.084275216 0.049306337 0.08162631 -0.103668034
000140 77 9a 1c 3d 33 37 41 3d 48 55 00 3d 38 f0 21 bd
       0.038233247 0.047171783 0.03133133 -0.03953573
000150 f3 26 db 3b 12 f7 bd 3e 92 50 15 3e aa 13 9e 3c
       0.0066879927 0.37102562 0.14581516 0.019296486
000160 82 53 5c bc b4 11 f9 3e 4f a6 d4 3d 9c 9f 8b 3c
       -0.013447644 0.4864632 0.10383283 0.017043881
000170 f6 9a c0 bb 80 df f3 3d 74 94 8a 3c cd 65 23 3d
       -0.005877848 0.119078636 0.016916491 0.039892007
000180 ad 12 de ba 66 91 e9 3b ab 94 92 3e 90 c6 36 3d
       -0.0016942822 0.0071279285 0.2862905 0.044622958
000190 e4 f0 c1 3e 5e a4 4e 3c 89 25 10 bf 19 de fc bd
       0.37879097 0.01261243 -0.56307274 -0.12347049
0001a0 04 23 07 3d 7d ff 1a be e8 4e bd 3d d5 fc 3c 3e
       0.032992378 -0.15136524 0.09243566 0.18455823
0001b0 98 13 1e bd 72 53 5f 3e 9e 48 32 be 9a c0 9d 3c
       -0.038592905 0.21809176 -0.17410514 0.019256879
0001c0 f8 9b 86 3d 02 d4 35 3d 00 33 40 3e ce 17 88 3d
       0.065727174 0.04439164 0.18769455 0.066451654
0001d0 07 ee a1 3d e3 05 a7 bd 96 a8 39 bd c3 f5 25 bd
       0.07906728 -0.0815542 -0.04532679 -0.04051758
0001e0 25 d1 36 bd 6a 18 37 be 2b b7 f9 3c 49 52 83 3d
       -0.04463305 -0.17880407 0.03048285 0.06412179
0001f0 e7 9c ca 3d 25 68 17 3e ed 71 f1 3c f0 ff 3f 3e
       0.09893208 0.14785822 0.02947327 0.18749976
000200 cb ae c2 bd 83 b2 7d bc 6d 6a c9 bd 88 18 d4 bd
       -0.09505995 -0.015484455 -0.09834752 -0.103562415
000210 c4 9b 73 3e 59 a3 a6 3d fd 58 49 bd 17 2d 85 bf
       0.23789889 0.08136625 -0.04915713 -1.0404385
000220 7b 4f a7 3d 11 f0 e6 bd 65 99 09 bb c7 07 b5 3c
       0.081694566 -0.11276258 -0.0020995971 0.022098435
000230 5e 82 10 bd 12 45 9a bc 9d c3 24 be 1d ae 14 bd
       -0.035280578 -0.018831763 -0.16090246 -0.03629886
000240 93 e9 76 bd 8a b3 e3 3d 5c 5b 78 3d 4e eb d6 3b
       -0.060281347 0.11118229 0.060634002 0.006558812
000250 fe 46 c8 3c fd 8f ce 3d 6c 29 0f bb d2 2b 1a be
       0.024447914 0.10086057 -0.0021844758 -0.15055779
000260 47 05 ee 3d 8a 8a 07 3e 2c b9 d0 3d 41 b7 bc 3c
       0.116221 0.13236442 0.10191569 0.023036601
000270 a5 43 02 be f0 bf d0 3d 7e 8e 70 3d c5 d5 0d 3c
       -0.12721117 0.10192859 0.05872964 0.008656924
000280 97 56 9a 3a bd 9e 44 3e f4 d3 cf bc 9d 95 1b 3e
       0.0011775073 0.19201179 -0.025369622 0.15193792
000290 8d 12 1a 3e 03 4f a5 bd 67 72 14 bd a9 b3 57 3d
       0.15046139 -0.08071711 -0.036241915 0.05266157
0002a0 86 90 c2 3c 94 62 aa bd b6 f8 8d bc 1b f3 6c 3e
       0.023750555 -0.083195835 -0.017330509 0.23139612
0002b0 26 8c 27 be 7d 17 5d be ef fb a7 3c d6 8c 2c 00
       -0.16362056 -0.21590991 0.020505873 4.091284e-39
0002c0 db 34 6a 3e cb 00 79 bd ce 8e 2c 00 c5 c4 51 3e
       0.22871725 -0.06079177 4.09199e-39 0.20485218
0002d0 0a b1 23 00 a5 d3 ca bd 77 ab 3e bd 20 6e ee 3d
       3.277752e-39 -0.09903649 -0.04655024 0.116420984
0002e0 b9 82 62 3e 86 97 43 be 5a 34 65 be 04 d8 2c 3e
       0.22120179 -0.1910077 -0.22383252 0.16879278
0002f0 4f 49 2c be c4 d5 00 3d 48 b0 04 3e 92 d3 98 3d
       -0.1682484 0.031453863 0.12957871 0.07462229
000300 27 67 a0 bd cb cd 3e 3e 79 bd 0d 3d 54 19 bb bd
       -0.07832175 0.18633191 0.034604523 -0.0913569
000310 67 56 5a 0c 50 18 59 be 5e b9 c0 3d 1f 3a 5a 0c
       1.682011e-31 -0.2120068 0.09410356 1.6811599e-31
000320 d7 ce 2d 3e 9a 5b 20 0b 73 2f cb b8 9c 75 9c bd
       0.16973434 3.0883792e-32 -9.6886324e-05 -0.0763962
000330 c1 77 35 3d 10 dc 10 3e 80 2a 3e bd 10 8f 55 3d
       0.04430366 0.14146447 -0.04642725 0.05213839
000340 4a 91 47 be 2b f1 2c be 13 65 38 bd b8 8a af 3d
       -0.19489017 -0.16888873 -0.045018267 0.085713804
000350 46 b9 8e 3e 99 10 30 3e b0 5c 32 be 2e 27 e5 bd
       0.27875727 0.17193832 -0.1741817 -0.111891136
000360 19 f0 9a 3d 04 91 2c 00 a6 5f f3 bd e2 da 24 be
       0.07565326 4.092784e-39 -0.11883478 -0.16099122
000370 e5 a0 2c 00 96 3f 4d 3e 80 88 2c 00 f0 7b 4b be
       4.09848e-39 0.20043787 4.089729e-39 -0.19871497
000380 c7 be ed 3d fe 52 11 be e1 fb 5d be ee d5 1b be
       0.116086535 -0.14191815 -0.21678115 -0.15218326
000390 0b 57 22 3e db 34 ff bd ee 97 43 be ad 93 07 3d
       0.15853517 -0.12461253 -0.19100925 0.03309982
0003a0 62 ff 3d bd 6e 26 7a 3d 08 6e 08 be c7 77 5c 3d
       -0.04638613 0.061071806 -0.13323224 0.053825166
0003b0 19 72 1b be 0a 47 66 bd d9 e9 d8 8a 0b ca 9f 3d
       -0.15180244 -0.056220092 -2.0888007e-32 0.078022085
0003c0 88 db 26 be 21 16 d8 8a 3e 14 a9 bb fc c3 8b 8d
       -0.16294682 -2.0808367e-32 -0.0051598838 -8.613718e-31
0003d0 59 8b 02 3e dd 29 a9 bd e4 46 27 be 37 05 71 3e
       0.1274847 -0.08259938 -0.16335636 0.23537146
0003e0 bb 7b 19 3c b3 1c d3 bd d5 cd e2 bd 7f b7 64 bd
       0.009367879 -0.10308208 -0.110744156 -0.055839058
0003f0 2a ef 26 3a 9f 6c 81 3e 51 08 25 be 2e 9f 34 3e
       0.00063680357 0.25278184 -0.16116454 0.17638847

model.encoder_module.convs.0.m_net_list.0.bias.weight f4 [8, 21]
000000 4c 82 0b 3d 42 a6 15 3e d5 be 19 3d 0b a4 db bc
       0.034059808 0.14614204 0.037535507 -0.02681162
000010 9a 54 0c 3e 70 98 6c bd 4e 59 95 bd a2 4a cf 3d
       0.13704148 -0.057762563 -0.07292424 0.10121657
000020 c5 b3 e2 bd f0 55 2d be 07 5e 02 be 37 2d 44 be
       -0.110694446 -0.16927314 -0.12731181 -0.19157873
000030 7b a7 c1 3c d6 f0 10 be bb 74 16 3e 44 21 16 bd
       0.023639431 -0.14154372 0.14692967 -0.03665282
000040 9f ba f8 bd 61 e4 18 3e 1f 97 2c 3e 35 6b 50 bd
       -0.1214497 0.1493087 0.16854523 -0.05088349
000050 c4 e8 92 3d 71 eb e7 bd 72 a6 68 be 63 b9 8f bc
       0.07173303 -0.11324204 -0.22719744 -0.017544454
000060 97 a4 04 be 02 e2 19 be 7f 62 f0 bc e9 54 00 bd
       -0.12953411 -0.15027621 -0.029343842 -0.031330977
000070 2f a3 11 3e 41 fa 3b bb ec f1 05 be 2b ef 12 be
       0.14222406 -0.0028683098 -0.13080567 -0.14349048
000080 c3 97 68 bd 49 dd 86 3c 7e b9 d7 bc 7a 3a 0d be
       -0.056785356 0.016462939 -0.026333567 -0.13791838
000090 68 cf 6d bd c2 c3 a8 3c fb f6 25 be b3 c6 aa bd
       -0.058059126 0.020601157 -0.16207497 -0.0833868
0000a0 3e a1 52 3e 70 ff 32 3e ad 17 2b 3c d2 68 6c 3d
       0.20569322 0.17480254 0.010442656 0.057717152
0000b0 a5 83 0f bd 47 84 26 3e 6d bd 1a bc 84 d9 0a bc
       -0.035037655 0.16261397 -0.009444577 -0.008474711
0000c0 55 88 b3 bd 5b 32 57 be a2 2c c8 bd a5 fc 62 3c
       -0.08766238 -0.21015303 -0.09774138 0.01385418
0000d0 49 b5 8b 3d 60 24 04 be 30 61 37 be 11 47 4b bd
       0.06821687 -0.12904501 -0.17908168 -0.04962832
0000e0 11 c1 17 3e fc 98 21 be ba a7 e7 bd c2 76 39 be
       0.14819743 -0.15781015 -0.11311288 -0.18111709
0000f0 8c 48 a3 3d 01 e1 2e bd 90 a9 e6 3d d8 b7 03 be
       0.079728216 -0.04269505 0.1126281 -0.128631
000100 97 56 c8 3d a8 51 42 be bd 01 28 be 7c 8a a5 3d
       0.09782141 -0.18976462 -0.16406913 0.080830544
000110 c1 2c 01 3e d2 93 2c be 77 d7 eb 3c 03 63 f3 bd
       0.12614729 -0.16853264 0.028789265 -0.11884119
000120 f5 d6 9a bd 6d 3a 0a be 64 1f 90 bd 79 45 45 3d
       -0.07560531 -0.1349885 -0.07037237 0.048161957
000130 6a 28 4c be 11 64 d3 bd a9 20 02 3e 8f 40 05 3e
       -0.19937292 -0.103218205 0.12707771 0.13012908
000140 be 0f 44 3e 94 9e 43 bd 62 4f 0b be 0f 8e 61 3e
       0.1914663 -0.047758654 -0.13604501 0.22026847
000150 7f a5 ca bd ed 5e c8 be 70 a3 f1 3d 23 1a 31 be
       -0.09894847 -0.39134923 0.11798751 -0.17295127
000160 ed e1 0c 3b 44 18 d7 bf 03 be 1d 3d ce 2c 68 be
       0.0021496967 -1.680428 0.038511287 -0.22673342
000170 59 98 44 bd 6f e6 17 3e 9a 96 8d 3d d7 d8 e2 3d
       -0.047996853 0.14833997 0.069134906 0.11076515
000180 91 f4 2a bd 42 84 26 be e1 e2 ab 3c 79 bd 80 bd
       -0.041737143 -0.1626139 0.020982208 -0.06286139
000190 ef 07 8f 3d 48 61 65 be a2 7f 33 bf 30 a0 14 3e
       0.06983935 -0.22400391 -0.7011663 0.14514232
0001a0 a9 89 1d be 54 87 cb be c2 5d 05 3e c9 71 4e 3d
       -0.15384544 -0.39751685 0.13024047 0.050401483
0001b0 f1 39 59 be e8 3e eb 3d dd c2 c5 bd d3 b6 df 3d
       -0.21213509 0.11486608 -0.09656308 0.10923543
0001c0 be 68 b4 3d 64 66 15 3e 0a 83 9c 3d 0f f9 c4 bd
       0.088090405 0.1458984 0.07642181 -0.09617817
0001d0 64 da 5e 3d 3c 7f d6 3c ed 1f c3 3c 67 c6 ae bd
       0.054407492 0.026183717 0.023818934 -0.08533936
0001e0 b9 2a d7 bd b3 e9 49 3e 6e ed 29 3d 61 81 36 bc
       -0.105061956 0.19718055 0.041486196 -0.011139245
0001f0 bf e5 4c be 29 f5 fe bd 1e de 93 bc 8e 6c 56 3e
       -0.20009516 -0.12449104 -0.01805025 0.20939848
000200 7b 20 59 3d 4a 6c 53 be f5 17 9a ba bd 45 89 bd
       0.05300949 -0.20646778 -0.0011756407 -0.06702755
000210 ef 70 61 be d1 3b cc bd 9d 10 3c 3e 5a c3 b8 bf
       -0.22015737 -0.099723466 0.18365712 -1.4434617
000220 44 06 1c bc 37 2c 3e 3e c2 23 8c 3d c3 9b b2 bc
       -0.009522978 0.18571554 0.06842758 -0.021802789
000230 81 97 02 bd fd 53 c9 3d 95 36 56 be 5a 18 d3 3d
       -0.031882767 0.098304726 -0.20919259 0.10307379
000240 b9 6d 53 3e ed a4 8c bd 14 21 f4 bc e5 8f cb 3d
       0.20647325 -0.068673946 -0.02980093 0.09939555
000250 25 f3 21 bc 14 20 88 3d ee 4d 25 3e 97 67 61 ba
       -0.00988463 0.066467434 0.16143009 -0.0008598505
000260 94 1f 03 3d 4d 0d f3 bd 9b bc 30 3e 20 04 08 be
       0.032012537 -0.11867771 0.17259447 -0.13282824
000270 4e a3 01 3e 81 aa 96 bd ff 5e e5 bd f1 c9 20 3d
       0.12659952 -0.0735674 -0.1119976 0.039255086
000280 8d 3a c4 bc d1 77 ad 3d f1 2e 95 bd 54 d1 13 3e
       -0.0239537 0.08470119 -0.07284344 0.14435321
000290 2b 74 37 be 3a 2c 18 bd 40 9d 53 3e 80 b4 25 3e
       -0.17915408 -0.037151553 0.20665455 0.16182137

model.decoder_module.convs.0.m_net_list.0.weights.weight f4 [64, 21]
000000 70 a4 f4 3c 37 6b 6a 3e 51 48 74 bc 6f 6b 22 3d
       0.029863566 0.22892462 -0.01490982 0.039653238
000010 af 38 35 be a0 97 17 3f df 1b 0b bd 9b 1d f7 bb
       -0.17697404 0.59215736 -0.033962127 -0.007541371
000020 c2 a8 2a bb 33 70 d6 3d 2b 37 86 3c 1f f3 12 3e
       -0.002604053 0.10470619 0.016383728 0.14350556
000030 e4 97 1a 3e 8c 0a 46 bd 91 51 68 bd 35 35 24 bd
       0.15097004 -0.048349902 -0.056718413 -0.040089805
000040 f0 8a 93 be 34 95 55 3d 81 eb fe 3d 23 bc 5a 3d
       -0.28816938 0.052144244 0.124472626 0.053402077
000050 3f 8b 03 3e 0e df 83 3d e4 45 d2 3b f9 e7 8c 3d
       0.12846087 0.06439029 0.006417023 0.06880183
000060 e8 f7 e0 3c dd d7 51 be 14 d8 1e bf 30 e0 16 bd
       0.02746196 -0.20492502 -0.6204846 -0.036834896
000070 1b 52 d7 3d 66 26 0f bd ee 27 0c be 53 85 d9 bd
       0.10513707 -0.03494873 -0.13687107 -0.10621133
000080 06 44 dc be e0 b8 3d be c9 95 bc 3c bd eb 71 be
       -0.43020648 -0.18527555 0.023020642 -0.23625083
000090 82 72 6d bd 25 17 60 be 96 58 19 bd 34 51 20 3f
       -0.05797053 -0.21883829 -0.037437998 0.62623906
0000a0 b5 e2 00 3c 79 8d 03 bd ba 96 2b be 28 51 29 3c
       0.007866551 -0.03211734 -0.16756716 0.010334291
0000b0 1e ca fd bc 38 da 06 3c 45 fa fc 3d e1 c4 06 bf
       -0.030980166 0.008230738 0.123524226 -0.52644163
0000c0 cb 97 45 3d 20 3e 67 3d 2b 4e 60 bb 24 15 0b be
       0.048240464 0.05645573 -0.003422628 -0.13582283
0000d0 e8 ee 6e bd 61 b4 f6 bd 25 40 a6 3c f3 e2 c7 bb
       -0.058333308 -0.12046123 0.020294258 -0.0061000525
0000e0 bf 39 e1 3d d4 b1 bd 3c ec 2d 26 3e 76 7e e1 3c
       0.10997342 0.023156084 0.16228455 0.027526122
0000f0 2f d2 a3 be 88 4a 19 3d 15 e8 f8 bd 51 fa ed bd
       -0.31996295 0.037424594 -0.12153641 -0.1162001
000100 df d2 d8 3e f2 19 d1 3d 8b 37 b2 ba 41 13 e0 3d
       0.42348382 0.10210027 -0.0013596875 0.109411724
000110 e6 d9 72 be cd 14 ca bd e6 78 09 be 2d 23 b7 3d
       -0.23715934 -0.09867249 -0.13425025 0.08942256
000120 e0 34 d2 bc a7 a7 eb 3d 6f f5 ab 3e 6a 13 31 bb
       -0.025659978 0.115065865 0.33585688 -0.0027019628
000130 ee d3 f2 bd 5c 85 d0 3d 3c c3 90 bd 95 42 86 3e
       -0.11856829 0.10181686 -0.07068488 0.26222673
000140 ca 34 92 bc eb 62 07 bf 71 06 1c 3e 32 4a 9b bc
       -0.017847437 -0.5288531 0.15236832 -0.018956278
000150 ab 04 1c bd 41 79 d8 3c 6b 67 2c 3e 1e a7 16 bc
       -0.03809039 0.026425006 0.16836326 -0.009195117
000160 9d f7 a2 3e 78 15 d3 3e 43 91 53 be c1 ac c2 bc
       0.3182954 0.41227317 -0.20660882 -0.023764016
000170 44 e3 0d 3c d5 6f e6 3d c3 77 90 3c 18 3b 13 3d
       0.008660141 0.11251799 0.017635232 0.035945028
000180 87 5b 18 3d a7 bc c9 bb 3f c9 eb 3d e0 b9 b2 3d
       0.037196662 -0.0061565223 0.11512994 0.08726859
000190 8a c6 75 3e f6 f6 8b bb 5c 3f c9 be 86 53 2c bd
       0.24001518 -0.0042713834 -0.39306152 -0.04207184
0001a0 a3 b6 b9 bd 1c 97 9b 3c fe 84 84 be a9 e7 60 bc
       -0.09068038 0.018992953 -0.25882715 -0.013727107
0001b0 87 75 30 3d b2 b3 3c be 9c b8 f4 be 51 70 30 3d
       0.043080833 -0.18427923 -0.47797096 0.043075863
0001c0 04 66 1d bd 53 5b ce bd ba c9 a0 bd 24 3c 87 3c
       -0.038427368 -0.100760125 -0.07850976 0.01650817
0001d0 fe ba e4 3c 36 f5 0b 3e ac f6 86 3d 1a 33 6f 3e
       0.027921196 0.1366776 0.06590018 0.23359337
0001e0 a5 c6 c2 3d 43 fe 06 be b7 ba 9a 3d 8a a2 d8 bd
       0.09510545 -0.1318293 0.07555144 -0.10577877
0001f0 df 50 6f 3b b1 cb af 3c 74 ac e6 3d a3 fc 79 be
       0.0036516709 0.021459432 0.112633616 -0.2441278
000200 5c 37 1c 3e 1b 03 8d bc aa 37 02 3e ce 48 09 3f
       0.15255493 -0.017213395 0.12716547 0.53626716
000210 46 7e ef bd ac 20 58 bd f6 30 fd 3b a3 70 49 3d
       -0.116940066 -0.052765533 0.007726784 0.049179684
000220 b1 a5 9f 3d f3 22 2f be 82 96 5f bd 94 8d 2d 3a
       0.07795275 -0.17103176 -0.054586895 0.0006620523
000230 ea 49 91 bd 33 ed 9d 3c af e0 ec 3c 9d 3e 24 bd
       -0.07094176 0.019278144 0.028915731 -0.040098775
000240 d6 03 c3 3d ef 46 bd bb c6 34 34 3c f6 b8 b8 bb
       0.09522216 -0.005776278 0.01099891 -0.0056372834
000250 b2 54 88 bd 2a 6b d0 3d 9b 5f 12 be 28 33 4b 3e
       -0.06656779 0.1017669 -0.14294283 0.19843733
000260 06 94 36 bd be 09 e2 bd eb 95 af bd f2 52 83 3e
       -0.04457476 -0.110370144 -0.085735165 0.2564922
000270 f1 e1 18 be f2 0c 31 3d 02 04 6d 3e 0a aa 0d 3d
       -0.1492994 0.043225236 0.2314606 0.03458599
000280 e1 d2 ef bd 8f eb df 3d a8 5b 40 be b7 1d 19 3e
       -0.11710144 0.10933601 -0.18784964 0.14952742
000290 ec f0 73 ba 39 2b 83 be 16 63 01 bb 04 bf 1d 3d
       -0.00093056145 -0.25618914 -0.0019742898 0.038512245
0002a0 ba be ab bc a1 ed 22 ba 16 ff f4 bc aa c5 02 3d
       -0.020964969 -0.0006215219 -0.02990679 0.03192679
0002b0 09 5d d1 bd b2 8f 86 bd a4 66 2d 3d 50 f7 9c 3d
       -0.10222823 -0.065703765 0.042334214 0.076643586
0002c0 c3 e5 be bd 1b e2 2b bc 81 15 5d be 8b c9 4e 3e
       -0.09321167 -0.010490919 -0.21590234 0.2019407
0002d0 8f fb 38 3e 45 50 e5 3c 77 7f 2a 3e 58 a6 e4 3d
       0.18064712 0.027992377 0.16650186 0.1116454
0002e0 b8 6e 32 be 33 77 fc 3d 0c c3 16 be 9b 6b f4 bd
       -0.17425048 0.12327423 -0.14722842 -0.119345866
0002f0 5a 09 eb bd 33 16 8f bc 67 0e a2 bb 06 ab f2 bd
       -0.11476393 -0.01746664 -0.0049455645 -0.118490264
000300 8e d9 b7 3b 81 db 6a 3d 96 8f dc 3c dd 70 06 3e
       0.0056106513 0.05733824 0.026923936 0.13128991
000310 e3 04 fd 3c 48 b5 b3 bb 3e 57 71 bd 24 ac ff bb
       0.03088612 -0.005484257 -0.05892109 -0.007802503
000320 a3 f4 41 be 89 73 52 bd 7d 42 a7 3c 95 24 04 3d
       -0.18940978 -0.051379714 0.020417446 0.03226145
000330 3c 61 a9 3d 49 84 b5 3d e9 ba 98 3b 73 87 5d 3c
       0.08270499 0.08863122 0.0046609533 0.013521063
000340 7e 08 04 3c 2c 59 cf 3c 43 fd 31 be c7 eb 16 3b
       0.008058665 0.025311075 -0.17381768 0.0023028718
000350 7d 7b a7 3c f3 0b 6b 3a a0 b3 9b 3c 94 42 9e 3d
       0.020444626 0.0008966319 0.01900655 0.077275425
000360 40 c4 a7 3b dc 38 1d bc e5 7b f5 bb 1c 61 69 3c
       0.0051198304 -0.009596076 -0.007491576 0.014244344
000370 21 e9 3c bc 68 34 18 3d 4e 5e 44 3d 9b 2a 38 3b
       -0.011530192 0.037159353 0.0479415 0.0028101567
000380 8f d1 35 3e 9c c3 74 39 6a bc 8e 3c 95 e8 5a bb
       0.17755722 0.00023342523 0.017423827 -0.003340279
000390 69 b9 35 3c a9 f5 cf 3b 52 5f c0 3c 77 c5 e6 be
       0.0110915685 0.0063464236 0.023482952 -0.4507253
0003a0 f6 0b 1d 3b be 27 05 3d 1c 4c 86 3d 90 45 bb bd
       0.0023963428 0.032508604 0.065574855 -0.09144127
0003b0 22 ce 8f bc 5a a6 13 bd b7 71 cd 3c bf 4f 20 bd
       -0.017554346 -0.036047317 0.025078638 -0.03913855
0003c0 63 85 96 3d 24 3d 17 bd 7f 89 13 3d b5 f7 3c bb
       0.0734966 -0.036923543 0.0360198 -0.0028834168
0003d0 20 ac 72 bc 40 23 ea bd 2e f1 cc bd c7 1c 2a 3e
       -0.014811546 -0.11432505 -0.10006939 0.1661254
0003e0 73 4f 52 3d 32 07 35 bd 75 ea c3 bd b5 be 97 bc
       0.0513453 -0.044196315 -0.095662035 -0.018523553
0003f0 6d 5c c4 3e d7 a1 af ba ef 9c a8 bd 18 45 97 3d
       0.38351765 -0.0013399672 -0.08233058 0.073862255

model.decoder_module.convs.0.m_net_list.0.bias.weight f4 [8, 21]
000000 3d d4 40 bd 97 3a bd 3e 4c fa 51 bd b4 6b 0f be
       -0.047077406 0.36958763 -0.051264092 -0.14005929
000010 16 ea 15 3e 06 f0 53 3e 80 69 3e be f6 4d 44 bd
       0.14640078 0.2069703 -0.18594933 -0.04792591
000020 5e c0 33 be 9a 88 e6 3b be ba dc bd d9 1b 75 3e
       -0.17553851 0.007035327 -0.10777806 0.23936404
000030 95 27 48 be 01 1b 27 be b3 df fc bd 70 c2 8d 3e
       -0.1954635 -0.16318895 -0.12347355 0.27687407
000040 00 e8 51 3e 54 2b 00 bf e4 c8 73 3e 94 36 32 be
       0.20498657 -0.50066113 0.23807102 -0.17403632
000050 4c c4 f8 be 35 fe 71 3e e3 1f e9 bd d6 95 52 be
       -0.48587263 0.23632129 -0.11383035 -0.2056497
000060 86 b5 db bd 41 ed dd be 19 10 91 be d8 25 49 be
       -0.10727982 -0.43345073 -0.28332594 -0.19643342
000070 38 c6 82 3d a7 bf 08 be 9d 6a a6 3d 48 42 69 3d
       0.063854635 -0.1335436 0.081258036 0.056947976
000080 6b 70 3a bf a3 2d 57 3e a6 0d 4c 3d f5 02 fe be
       -0.72827786 0.21013503 0.049817704 -0.4961163
000090 cf 5c 7d bb 09 5e 0c bf de 50 24 be 65 b9 49 3f
       -0.0038660055 -0.54830986 -0.16046473 0.78798515
0000a0 da 0d 29 be be 2e 52 bd aa 15 1b bd 12 09 9a be
       -0.1650919 -0.051314108 -0.037862457 -0.30085045
0000b0 48 5c 38 bf f8 d8 89 bd 2b bd da be 9a eb fd bd
       -0.7201581 -0.06730837 -0.4272245 -0.12398453
0000c0 1c 3e 31 bf bb 22 fa bd 3e 72 9a bd 69 31 8e 3f
       -0.69235396 -0.122136556 -0.07541321 1.1108829
0000d0 b1 ff 2e be e1 4f 14 bf bf 5a 11 be e0 42 6c bd
       -0.17089726 -0.57934386 -0.14194773 -0.057680964
0000e0 3e 2f 0e bf f6 5e 3b bd 0e d8 d2 be 02 1d 72 bd
       -0.55540836 -0.04574486 -0.41180462 -0.059109695
0000f0 01 1f 37 3e fb 51 f4 bc be 25 b3 be 67 4f 82 3c
       0.17882921 -0.029824248 -0.34989733 0.015907003
000100 7c 93 00 3e c3 58 41 be fc b6 cb 3c eb 7d 15 be
       0.12556261 -0.18881516 0.024867527 -0.14598815
000110 84 37 b5 bd 04 75 a0 bd 08 29 ad bd b0 d5 26 be
       -0.088484794 -0.07834819 -0.08455092 -0.16292453
000120 29 d7 bb 3c c3 ba f1 bc ee 06 46 be 21 4c 19 be
       0.022929745 -0.029508 -0.19338581 -0.14970447
000130 25 73 17 be 7d eb 77 be 00 37 5e be 3a a6 e2 be
       -0.14790018 -0.24210925 -0.21700668 -0.44267446
000140 98 af e5 be 5f 46 1f bf ae 04 83 be d6 b4 98 be
       -0.4486053 -0.6221675 -0.25589508 -0.29825467
000150 30 f2 93 3e c6 ff c1 be bd 02 9d be db 27 17 bd
       0.28895712 -0.37890452 -0.30666152 -0.036903244
000160 70 e3 70 be af 2c 48 be 0c 35 c8 be d1 e3 29 bd
       -0.2352426 -0.19548295 -0.39102972 -0.04147703
000170 63 05 21 be 5c cc 85 bd 9b a9 99 be be 1f a7 be
       -0.15724711 -0.06533119 -0.3001221 -0.32641405
000180 71 93 47 be 77 be 19 be 77 6a dd be 06 74 32 be
       -0.19489838 -0.15014063 -0.4324529 -0.17427072
000190 1c 00 51 be f3 97 34 be 3c 49 d1 be 45 d8 49 bd
       -0.20410198 -0.17636089 -0.40876186 -0.049278516
0001a0 d9 fa 3b be 44 25 b0 3d 07 ae 39 3e 1d 98 ed 3d
       -0.1835741 0.08600858 0.18132792 0.11601279
0001b0 25 d4 c7 3d c8 9a 44 be cf 22 04 3f 73 61 02 3e
       0.0975726 -0.1919967 0.51615614 0.12732486
0001c0 80 87 ca be cd 90 45 be 95 03 cd 3d bb ee bd be
       -0.39556503 -0.19293518 0.10010449 -0.370962
0001d0 35 06 cc 3d 07 29 e0 be de 2f 3b be 9a c0 9d bd
       0.099621214 -0.437813 -0.18279979 -0.077027515
0001e0 d3 b9 8e 3d 3c c3 1f be 9c c3 b4 be 17 8f 1f be
       0.06969037 -0.1560182 -0.35305488 -0.15581928
0001f0 2f ca d4 be d7 35 d4 be 90 29 78 3d 4e 12 9e bc
       -0.41560504 -0.41447327 0.060586512 -0.019295838
000200 ed 36 96 3d 24 56 e2 bd 61 96 1a 3e 4a 79 8b 3e
       0.07334695 -0.11051586 0.15096428 0.27240974
000210 10 19 8a 3e 47 56 8f 3d a3 a8 a2 bd d3 cf e6 3e
       0.26972246 0.06998878 -0.07942321 0.45080432
000220 62 34 01 be e8 70 6a 3d 30 66 0a be 03 36 6b bc
       -0.12617639 0.057236582 -0.13515544 -0.014356139
000230 79 a7 cd 3d 5d 1e 49 be 12 60 11 3e 16 40 dc bd
       0.100417085 -0.19640489 0.14196804 -0.10754411
000240 38 1b 9e 3d 6c 99 36 bd 94 c4 a0 be db 5c 92 be
       0.07720035 -0.04457991 -0.31399977 -0.28586468
000250 78 3b 66 be 3c 49 45 3e 29 c1 01 be 71 9e 38 bf
       -0.22483623 0.19266218 -0.12671341 -0.7211676
000260 c9 87 47 3f 26 80 c1 3e 83 32 1a be 4d d9 08 3e
       0.77941567 0.37793082 -0.15058331 0.13364144
000270 ed 90 0e 3f db ec 8b be bf 75 4d bf 36 84 f7 be
       0.5568989 -0.27329144 -0.8025779 -0.48343056
000280 65 61 28 3e 17 9c 2a bf ab a3 59 3d b4 2f 35 bf
       0.16443403 -0.66644424 0.0531346 -0.70775914
000290 c0 25 31 bc 6c 41 8b 3f e7 36 7d bd 9b ad cf bd
       -0.010812223 1.087934 -0.061819937 -0.101405345

model.decoder_module.convs.1.m_net_list.0.weights.weight f4 [128, 21]
000000 d5 f6 3d 30 46 94 e0 3d 63 74 aa bd 70 31 01 3c
       6.910857e-10 0.10965781 -0.0832298 0.007885322
000010 bf 20 51 bc 4d e5 3b 3e 5b b6 2f 3e 7b d5 0d 3d
       -0.012764155 0.1834919 0.17159407 0.03462742
000020 3a fb 1e 3c 32 f0 d9 3e b5 f6 78 3e a8 77 a2 bc
       0.009703452 0.42566067 0.24312861 -0.019832447
000030 0f fe 4a be 67 26 67 bc 4e 2b 2b be 19 9e 81 3d
       -0.19823478 -0.014108277 -0.16715738 0.06328983
000040 d9 14 8b bc 41 ae b7 bd 5b f9 18 be f1 a9 e1 3a
       -0.016977714 -0.08968783 -0.14938872 0.0017216784
000050 1d ee 54 3c 2d d5 72 1a ad 03 89 bd 89 70 8c bd
       0.012996224 5.021663e-23 -0.06690154 -0.06857402
000060 c5 36 bf bb 11 36 9a 3e cb e5 9e 3c 04 63 ec 3c
       -0.0058353865 0.30119374 0.019396683 0.028855808
000070 ea 38 25 3e 77 57 0f bb b7 bc 24 3d cc 80 af 3e
       0.16134992 -0.0021872201 0.040219035 0.34277952
000080 8e bf 9c bd bf 11 1e 3e e3 b6 6a 3d 77 d0 3a bd
       -0.07653724 0.15436457 0.05730332 -0.045608964
000090 00 c9 35 bd 1c bb 83 bd e7 c8 fa bd cb 6e 20 be
       -0.04438114 -0.06432173 -0.1224535 -0.15667264
0000a0 98 a6 b8 bd 34 3c 0a 3e 66 fa 04 b6 56 6f 09 3e
       -0.0901615 0.13499528 -1.9815284e-06 0.13421378
0000b0 a4 60 57 bb 58 1d 55 3c ef 08 26 be b6 f5 ea 3b
       -0.0032863999 0.013007484 -0.16214345 0.0071704043
0000c0 4e 5d 74 be 69 7f 1c be 48 75 98 bb e0 8c 41 bd
       -0.23863718 -0.15282978 -0.004652653 -0.04725349
0000d0 11 1b ae bd 3f e1 f3 3d f0 42 60 3d 85 77 af bc
       -0.08501256 0.11908197 0.054751337 -0.021419296
0000e0 73 ec 85 3c 01 bc 49 bc 3b 56 6c be e1 8b 2c be
       0.0163481 -0.01231289 -0.2307977 -0.16850235
0000f0 fa de ab bc 03 fe 97 bd 43 1a d1 bd bb dd 36 35
       -0.020980347 -0.07421496 -0.10210087 6.8122944e-07
000100 b6 b8 49 bd c8 20 69 3e 14 ca 46 bd f4 93 67 3d
       -0.04924842 0.22766411 -0.04853256 0.056537583
000110 c0 26 3f be 54 86 04 be c2 1a c8 be 72 dd 63 3d
       -0.18667126 -0.12941867 -0.39082915 0.05563111
000120 d5 87 a8 3c d4 9b dd be fd 87 54 3d 2b 01 ad bd
       0.020572582 -0.4328295 0.0518875 -0.084474884
000130 67 77 e1 bb d0 1e 26 3d 5b 69 91 3d fc 8b dd bd
       -0.006880689 0.04055673 0.07100173 -0.108177155
000140 54 bd 26 be d5 f5 3d be a9 66 1c bd 2c b8 bb 3d
       -0.1628316 -0.18550809 -0.03818384 0.09165987
000150 79 45 36 34 37 0c d3 bd 7f 62 ba 3c b1 4c 04 3d
       1.6975345e-07 -0.10305064 0.022752045 0.0322997
000160 bc 25 2b 3d ca 86 62 3e e2 c5 23 be 1b 7d 97 be
       0.041784033 0.2212173 -0.15993455 -0.29587635
000170 db 72 1e 3d 49 ee b6 bd 99 f3 96 be 10 79 5c 3c
       0.038683753 -0.08932168 -0.29482725 0.013456598
000180 57 55 99 bd c4 09 a2 ba f5 98 b8 bc 74 0d b2 be
       -0.074869804 -0.001236253 -0.022533873 -0.3477589
000190 17 1e 05 be 95 40 b1 3d 12 e9 52 3e 48 00 f2 bc
       -0.1299976 0.08654896 0.20596722 -0.02954115
0001a0 d1 f6 05 be c9 60 d6 b3 fa fb 35 3d 8b 8f 12 be
       -0.13082434 -9.982757e-08 0.044429757 -0.1431257
0001b0 54 23 1d bd d5 70 02 be 59 28 a5 3e 77 37 81 bd
       -0.03836377 -0.12738355 0.32257345 -0.06309407
0001c0 bd 3a 40 3e ff 36 01 bd 20 27 24 3e 4c 22 a8 3e
       0.18772407 -0.03154659 0.1603055 0.32838666
0001d0 5e 32 1f be b4 1e f7 bd 8d 32 c3 bc 10 79 0f 3e
       -0.15546557 -0.12066403 -0.023827815 0.14011025
0001e0 53 c8 fb bc 03 20 ae 3d d7 5a 74 3d 56 6b e8 3d
       -0.03073517 0.085021995 0.059656944 0.11348598
0001f0 4c 3b 28 3d e4 e9 ad 3d 4c b7 30 b2 53 81 29 3d
       0.041072175 0.08491877 -1.0286225e-08 0.0413831
000200 6d 21 89 3d 9e d5 31 bd d9 0b 1c be 19 4c 83 bd
       0.066958286 -0.04341661 -0.15238895 -0.06410999
000210 de d4 c8 bd 31 7f d0 be 6c f0 3a 3d e7 2b 7a 3e
       -0.09806226 -0.4072204 0.04563944 0.2443081
000220 e3 21 ed be 70 a0 7f 3e da e3 e7 3d 08 19 09 3d
       -0.46314916 0.24963546 0.11322756 0.033471137
000230 18 75 81 3d 33 17 44 3d 2c 73 59 3e 49 91 3a be
       0.06321162 0.047873687 0.21235341 -0.18219484
000240 9f 7b 9e 3d 6a 8a 2a 3e 9b f4 0f 3e 88 7e b0 9c
       0.077384226 0.16654363 0.14058153 -1.1679411e-21
000250 a3 6a b9 bd 2d f6 97 bd ad 9e 51 3d 2f 02 6e 3d
       -0.090535425 -0.07420001 0.051176716 0.05810755
000260 f2 93 5d bc 6a 41 0d be f9 60 8a be d8 7e 50 bd
       -0.013524042 -0.13794485 -0.2702711 -0.050902218
000270 14 ca 65 3c 88 ba 9a be c0 4e de bc 08 59 26 be
       0.01402523 -0.30220437 -0.02713716 -0.162449
000280 cf e4 8b bd 4e 90 b2 3c 4a d2 93 3d 17 48 37 3e
       -0.06830751 0.021797325 0.07217844 0.17898594
000290 c2 bc a9 bd 4d 14 a8 bd 5e 9d 75 3d 13 ac 0a be
       -0.08287956 -0.08206997 0.05996453 -0.13542204
0002a0 b9 95 54 3e 3e c9 a4 3d f1 fa 89 bd 1f c0 94 3e
       0.2076024 0.080461964 -0.067373164 0.29052827
0002b0 90 50 bd bb d1 e8 94 be 4a ef f6 3d 12 d1 9d bd
       -0.005777426 -0.29083875 0.120573595 -0.077058926
0002c0 9d bd 9a bb 3d 13 14 bc 15 27 2b 3e b8 7c 0e 3c
       -0.0047223107 -0.00903779 0.16714127 0.008696727
0002d0 ad a3 f2 bd 0c 44 b7 3d cf 30 a7 3b 80 f5 3b 3e
       -0.11847625 0.08948526 0.005102254 0.1835537
0002e0 d7 10 a2 3b 53 1f 6c b7 ab 0f 48 3b a1 e7 e7 39
       0.004945855 -1.4073989e-05 0.0030526917 0.0004423233
0002f0 86 4c dd 3d 7b 4c 89 be 4d 27 ab bd a2 82 33 3c
       0.10805611 -0.26816162 -0.083571054 0.010956438
000300 5f b5 81 be 91 a3 a4 3c 6f 96 87 bd bd 7b c1 bc
       -0.25333688 0.020097526 -0.0662049 -0.023618573
000310 6f db 29 3e 11 a2 a0 be e4 d6 f5 bd 18 bd 0e 3e
       0.16587614 -0.31373647 -0.12003878 0.13939321
000320 90 94 ac bc 0b 5f 89 3e f0 55 c4 3b 51 40 d1 3d
       -0.021066934 0.26830325 0.00599169 0.102173455
000330 52 28 0c 3d 3a 68 a7 3d b3 62 d7 ba 83 c7 03 bf
       0.03421814 0.081741765 -0.0016432613 -0.51476306
000340 e9 56 bc ba 93 0a 00 bd 67 d9 ba be a7 7b 8c 3e
       -0.0014369163 -0.031260084 -0.3649399 0.2743809
000350 1b 9f 8b 3e a6 2c be bd a9 6a 87 3b b7 01 1b be
       0.27269825 -0.0928586 0.004132588 -0.15137373
000360 ad a9 89 bc f8 0e 18 be a6 74 39 3e f9 33 be 3d
       -0.01680454 -0.1484946 0.18110904 0.09287257
000370 86 c5 24 be 84 e8 1b bd dd 0a a3 3d 98 c8 6e bd
       -0.16090974 -0.03806354 0.079610564 -0.05829677
000380 fc 45 cf bb 92 8d fc 3d cd ba ce 3c bc 04 74 b8
       -0.0063254815 0.1233169 0.025235558 -5.8178543e-05
000390 9a e3 4e 3e a5 44 39 37 1e 30 fa bd 44 68 89 bc
       0.2020401 1.1042842e-05 -0.12216209 -0.01677335
0003a0 73 31 83 3d 38 b6 86 bd 0a 44 10 be 52 ea 13 3e
       0.06405916 -0.06577724 -0.14088455 0.14444855
0003b0 9b 46 a8 3d db 8b 88 3d a5 54 e6 3d 16 1f 24 3e
       0.08216592 0.066673 0.112466134 0.16027483
0003c0 78 8f 19 be 1b c5 57 be b8 a2 e8 3d 6c 42 8b 3d
       -0.14996135 -0.21071284 0.11359161 0.06799778
0003d0 90 83 d0 3d fc 0e 17 3d c1 fd 2a bd fc 16 c3 bc
       0.101813436 0.036879525 -0.041745905 -0.02381467
0003e0 a9 bc 80 ba 90 bd 0a bf 57 ce e1 38 d6 45 98 bb
       -0.000982185 -0.541955 0.0001076727 -0.004646997
0003f0 bf 75 6a bb b3 e1 15 3e 64 eb af bd 63 13 0f be
       -0.0035775749 0.14636879 -0.08589819 -0.13972239

model.decoder_module.convs.1.m_net_list.0.bias.weight f4 [8, 21]
000000 a4 5d 21 be 59 8c bc 3d 79 71 55 3e 4a 02 2c bf
       -0.15758377 0.09206457 0.20844068 -0.6719099
000010 4b 34 86 be 02 b9 3a 3e e5 3d 83 3c 4b 56 5d 3e
       -0.2621177 0.18234637 0.016020725 0.2161495
000020 20 0f 1a bf 03 dd 0b be 4f 8e 66 3e bd 9c bd 3c
       -0.6017933 -0.13658528 0.22515224 0.023146028
000030 55 8f fb bd 69 5d 63 bf fb 72 4c bd 6d b2 d2 3d
       -0.12283198 -0.8881441 -0.04991434 0.10287938
000040 bf 5b 13 be 83 9d d5 3d e5 eb 11 be c2 ab 81 3b
       -0.14390467 0.104304336 -0.14250143 0.0039572427
000050 97 4e 3d 3e 1c 9c 61 3e 62 3b 13 be 95 26 b3 3e
       0.18487011 0.22032207 -0.14378121 0.34990373
000060 a6 6e 1e 3e 4c 1b bc 3e 90 05 25 3d cf 23 02 3f
       0.15471897 0.36739576 0.040288508 0.5083589
000070 8b 73 1f 3e 64 74 c2 3d af 05 2a 3f 40 8c 75 3d
       0.1557142 0.09494856 0.6641492 0.059948206
000080 f7 d7 b2 3e 49 22 19 3e 56 c5 0c 3e aa b4 ad 3d
       0.34930393 0.14954485 0.13747153 0.084817246
000090 20 6c ad 3d 19 33 65 3e 89 28 44 3e 44 17 4c 3e
       0.08467889 0.22382773 0.19156088 0.1993075
0000a0 84 68 fe bd 81 86 b4 3d ee a4 bf 3e 49 b7 be bd
       -0.124222785 0.08814717 0.3743052 -0.093123026
0000b0 33 29 10 3e bf 2f cc bd 22 13 e6 3e f3 fd bc be
       0.14078216 -0.09970044 0.44936472 -0.36912498
0000c0 aa 77 53 3d f6 5a 8f 3b e1 5e 86 be d5 06 e0 3e
       0.051627792 0.004374857 -0.26244262 0.43755212
0000d0 ff 02 2a bd 54 f7 b6 3d 37 4d 18 3d a3 60 b1 bc
       -0.041506764 0.08933893 0.037183013 -0.021652525
0000e0 44 6d 45 3e 7f 20 16 be 27 72 e8 3e b0 31 3a 3e
       0.19279963 -0.14660834 0.4539959 0.18183017
0000f0 0a 4b df 3e 01 6f 96 bd b6 b9 9b bd f9 11 aa 3e
       0.43611938 -0.07345391 -0.07603781 0.33216837
000100 ab ef 95 be c9 14 a2 be c7 84 f2 3d dd fa 81 3e
       -0.29284415 -0.31656483 0.118417315 0.25386706
000110 63 7f 36 bf 8c 09 bc be 6f 5c 59 bd 8f 78 59 3c
       -0.71288127 -0.36726034 -0.053066667 0.013273372
000120 b0 f7 bb bf 84 5c 82 3c 5d 14 0d 3e 95 e6 3f 3d
       -1.4684963 0.015913256 0.13777299 0.04685076
000130 ae 54 83 be 58 7f 02 3e a9 78 ef bd 8b bd 6d 3e
       -0.25650543 0.1274389 -0.11692936 0.23216836
000140 b8 cf b2 3d 47 9e 97 bc 6e d7 2a 3d e8 3d 61 3e
       0.087310255 -0.01850809 0.041709356 0.21996272
000150 bf 13 8c be 27 44 44 be a1 b0 02 3f 8a d7 5e 3e
       -0.27358815 -0.19166623 0.51050764 0.21761909
000160 25 fb ae 3d 40 ba 79 bf 3b c8 e5 3e fb ec 2f be
       0.08543996 -0.9754982 0.44879326 -0.17180245
000170 a0 58 c8 3e 34 15 aa 3f 42 e5 17 3d 55 7e 7d be
       0.39130116 1.3287721 0.03708387 -0.24755223
000180 8c 52 96 3d 7d 6f 4f 3e 2d ff fa 3d 73 5e e4 bd
       0.07339963 0.20257373 0.12255702 -0.11150827
000190 d2 f5 37 3c ce 66 f4 3d 32 83 d7 3e 3f b5 33 be
       0.011228042 0.11933671 0.42092282 -0.17549609
0001a0 bb 9f a7 3c 0d 81 6a 3e 7a ce d0 bd ab a9 94 3e
       0.020461908 0.22900791 -0.10195632 0.29035696
0001b0 f6 2e 9c 3d 2e 5f b2 be ea b5 51 3d f7 37 a3 3b
       0.076261446 -0.3483824 0.051198877 0.0049810368
0001c0 36 1a a8 3e 81 43 54 be c2 21 4f 3e 12 f7 69 3c
       0.32832497 -0.20728876 0.20227721 0.014280098
0001d0 e7 a9 e0 bd 55 ab 88 3e 5f 89 10 be 3e 2c 1d be
       -0.10969906 0.26693216 -0.14114903 -0.15348908
0001e0 a9 0e 53 be cc d2 2c be e0 43 9e 3d a8 5f a7 be
       -0.20611061 -0.16877288 0.0772779 -0.32690167
0001f0 b0 dd 4b 3e 1b 70 85 ba 4d 1c a3 be 32 5e 3b 3e
       0.19908786 -0.0010180505 -0.3185753 0.18297651
000200 c2 b5 93 bd 6c 49 1c be 4f 22 17 3f fd ed a8 3e
       -0.07212402 -0.15262383 0.59036726 0.3299407
000210 61 98 5e be 60 6a 26 be fb 5f 43 be d5 10 27 bf
       -0.21737815 -0.16251516 -0.19079582 -0.6526006
000220 b0 d0 6d be 03 3a 03 3f 2d b0 ca bd 24 6d 3d bd
       -0.23224139 0.51260394 -0.09896884 -0.046246663
000230 72 53 50 3f 55 9e 1f 3d 39 d1 ce 3e ca 80 5c bd
       0.8137733 0.038969357 0.40394 -0.05383376
000240 a8 9e bf 3e 70 61 e4 3d 7a d0 98 3d df 0d 37 be
       0.37425733 0.11151397 0.07461639 -0.17876385
000250 96 39 bd be d8 1f d3 3c 20 17 d9 3e a8 88 da 3c
       -0.36957997 0.02577202 0.42400455 0.02667649
000260 7f 36 c7 bf 7d 83 2e 3d 02 49 95 bc 00 91 af 3e
       -1.5563506 0.042605866 -0.01822329 0.34290314
000270 b6 7d 35 3d e5 f3 86 be 37 37 5e 3d 46 52 98 bd
       0.04430934 -0.26357952 0.054251876 -0.074375674
000280 6b 96 92 3d 68 19 2f be cc 81 2e 3e 48 e0 35 3d
       0.07157596 -0.17099535 0.17041701 0.044403344
000290 4c 5f 14 3e 04 da e3 3c 35 54 2c be be 08 ef 3d
       0.14489478 0.027813919 -0.16828997 0.11671589

model.prob_model_x._decoder_embeddings.0.weight f4 [1, 8]
000000 9c 4e 2f 3f 92 cb 3d be ad 3c 7b bf df 08 84 bf
       0.68479323 -0.18534687 -0.9813946 -1.0315207
000010 2e b2 59 3f 67 2a 46 bf 58 d7 4b 3f f2 44 9e 3e
       0.85037506 -0.7740845 0.79625463 0.30911976

model.prob_model_x._decoder_embeddings.1.weight f4 [2, 8]
000000 ae a2 0f be 02 32 92 bd 52 c3 5b ba 19 be 7f 3d
       -0.14026901 -0.071384445 -0.0008383292 0.06243715
000010 2a fa 0e bc 72 1e 97 be 7b 9b 38 3e 72 19 1e 3b
       -0.008726636 -0.29515415 0.18028061 0.0024124053
000020 1e c5 13 bf 74 37 a6 be a2 82 1b 3f 52 09 93 3f
       -0.5772265 -0.32464182 0.60746205 1.1487219
000030 23 f0 ae 3f fa 8a f5 3d c5 df 42 bf d6 4d a6 3f
       1.3667034 0.11989398 -0.76122695 1.2992504

model.prob_model_x._decoder_embeddings.2.weight f4 [2, 8]
000000 4d 2d 4a 3e 87 8f f6 39 fa fc fe ba de 10 3a bb
       0.19743843 0.00047027713 -0.0019454055 -0.0028391401
000010 2a 68 5a 3b 61 15 f0 bb 24 0f 32 3e 06 c7 b7 3d
       0.0033326247 -0.0073267673 0.17388588 0.089735076
000020 63 8d c6 be 17 b5 0c bf e5 1b 0a bf 69 60 86 3f
       -0.38779745 -0.5496382 -0.53948814 1.0498172
000030 60 14 6b bf 26 18 0b be 11 bf 87 3f d7 b2 56 be
       -0.91827965 -0.1358343 1.0605184 -0.2096666

model.prob_model_x._decoder_embeddings.3.weight f4 [1, 8]
000000 bc a5 1f 3e 82 a6 e3 3e e5 4b d4 be 73 e1 28 be
       0.15590566 0.44462973 -0.41464153 -0.16492252
000010 db c2 b9 be c6 c1 07 3f 82 af ea be 2d 56 ac be
       -0.36281475 0.5303005 -0.45837027 -0.33659497

model.prob_model_x._decoder_embeddings.4.weight f4 [2, 8]
000000 d4 a0 52 3c 18 b2 86 3d ae 04 ae bd 61 67 9d 3d
       0.012855727 0.065769374 -0.08496986 0.076857336
000010 37 e2 27 3d 20 1f 86 be 18 ca fa 3d 1e 67 45 be
       0.04098722 -0.26195621 0.122455776 -0.19277617
000020 b7 c3 5f 3f 89 17 2b bf e2 63 ca 3e 79 0a 8f 3e
       0.8740801 -0.66832787 0.3952933 0.27937678
000030 9a f6 41 bf f8 7f 13 3f 9a ce 08 3f 3d 52 7f bf
       -0.7576691 0.5761714 0.5344025 -0.9973486

model.prob_model_x._decoder_embeddings.5.weight f4 [2, 8]
000000 05 d7 8a 3a ff b6 1e be f6 f0 2c 3c 2a 42 69 be
       0.0010592645 -0.15499495 0.010555496 -0.22779146
000010 c4 d1 d8 3a 56 cb 89 bd a2 3c 82 3a 31 b4 d4 bd
       0.0016542007 -0.067282364 0.0009936283 -0.10385931
000020 a3 a5 98 3e 65 e9 06 bf 77 95 2b bf 09 2f b1 be
       0.2981387 -0.5269988 -0.6702494 -0.34606197
000030 f7 48 c9 be 73 67 46 3f fc 15 3a bf ab 31 a3 3e
       -0.3931348 0.775016 -0.72689795 0.3187383

model.prob_model_x._decoder_embeddings.6.weight f4 [1, 8]
000000 e3 91 38 3f 91 40 6c bf d2 73 38 bf 34 96 72 3f
       0.72097605 -0.9228602 -0.7205173 0.9476044
000010 73 17 5a bf b3 00 0d 3f bc ca 4e 3f d0 2e 95 3f
       -0.8519203 0.5507919 0.807781 1.1654911

exp_avg f4 [16, 1]
000000 ad bf c7 b1 60 aa cd 34 00 00 00 00 20 9e 51 be
       -5.8134533e-09 3.830819e-07 0.0 -0.20470476
000010 91 77 0c 3c da cd 0f be 55 55 18 be 00 00 00 80
       0.008573429 -0.1404337 -0.14876302 -0.0
000020 ce 0b 00 80 b8 27 03 3e 6f 1d 13 3e 79 ae 2e 32
       -4.235e-42 0.1280812 0.14366697 1.01678035e-08
000030 50 94 a4 b1 0f fa a3 3d 06 35 ad b4 f5 7d 1f 35
       -4.7898894e-09 0.08006679 -3.226234e-07 5.941541e-07

exp_avg_sq f4 [16, 1]
000000 17 77 13 2f 5c ae a0 2f b7 a8 96 17 ed 33 c4 3f
       1.3411881e-10 2.922772e-10 9.736112e-25 1.5328346
000010 6b 9e c7 3e 2f 0c 75 3f e5 56 12 40 f6 13 0f 16
       0.3898805 0.95721716 2.2865536 1.1557747e-25
000020 c3 8c 39 16 02 8b 95 40 24 89 9f 3f 96 d9 07 27
       1.4988598e-25 4.6732187 1.2463727 1.8852967e-15
000030 11 b5 92 33 59 08 23 40 1e e4 d6 33 37 d9 15 2b
       6.8315906e-08 2.5473845 1.0006646e-07 5.323688e-13

exp_avg f4 [16]
000000 9d 39 ac b0 26 7c cf b4 48 2b e9 a3 72 f2 9e 3e
       -1.2531022e-09 -3.8647084e-07 -2.5280241e-17 0.31044346
000010 42 46 65 bb ec 5f 6c 3e d9 3d 39 3e d3 b0 36 a1
       -0.0034984504 0.23083466 0.1809 -6.1898023e-19
000020 cb 2b 00 80 72 27 03 3e 2a 87 15 3e a7 0e 74 b2
       -1.571e-41 0.12808016 0.14602342 -1.4206001e-08
000030 50 94 a4 b1 06 4e 44 be ac 57 52 be db 1b 22 b5
       -4.7898894e-09 -0.19170389 -0.20541257 -6.039024e-07

exp_avg_sq f4 [16]
000000 aa 93 c4 2f 42 ae a0 2f 8b 03 93 23 a4 f2 58 40
       3.5757114e-10 2.9227648e-10 1.5939272e-17 3.3898096
000010 df 3e 56 3f 99 fd 08 40 ab 17 98 40 8a 18 2e 23
       0.83689684 2.1404784 4.752889 9.437755e-18
000020 b6 f4 ad 1e 03 8b 95 40 0b 75 2b 40 38 67 29 27
       1.8418298e-20 4.673219 2.6790187 2.3509416e-15
000030 11 b5 92 33 c5 ba b2 40 03 8a a9 40 63 66 19 2b
       6.8315906e-08 5.585299 5.298097 5.449861e-13

exp_avg f4 [16, 1]
000000 5e 08 24 c0 3f ed 43 bf a0 dd 1f 32 00 00 83 b9
       -2.5630107 -0.76533884 9.30541e-09 -0.00024986267
000010 59 5e 6c bf 1d a2 2a bf d4 53 66 be f4 f7 5d bf
       -0.92331463 -0.66653615 -0.22492915 -0.8670647
000020 b9 62 00 c0 09 2f fa b2 ec 78 03 34 a5 e5 97 be
       -2.0060256 -2.912522e-08 1.2244317e-07 -0.29667392
000030 a2 e4 be bf 54 37 6d 3e 5a 45 00 b5 c3 74 89 bf
       -1.4913523 0.23165637 -4.7784636e-07 -1.0738758

exp_avg_sq f4 [16, 1]
000000 d0 bc 3d 42 95 67 9c 41 e9 a3 1c 29 f2 e7 70 3a
       47.434387 19.550577 3.4781128e-14 0.0009189836
000010 29 24 15 41 f6 2f 94 3f b7 7d 37 41 f1 20 81 40
       9.321328 1.1577137 11.468192 4.035271
000020 53 cf 08 42 3d 8d 0e 2e 9d 65 2c 33 cd 93 8d 41
       34.202465 3.2412507e-11 4.0139287e-08 17.697168
000030 af 46 10 42 21 ce 75 41 c7 ea cd 36 c4 0c 33 42
       36.069027 15.362824 6.1368078e-06 44.762466

exp_avg f4 [16]
000000 5d 13 d9 3f 87 72 79 3e 7e d5 1c b3 b3 7b 95 37
       1.6959034 0.24360095 -3.651575e-08 1.7819786e-05
000010 5e a8 0a 3f ea 98 09 3d d0 67 9a 3e f7 60 9a bd
       0.5416316 0.033593096 0.30157328 -0.07538026
000020 36 2b 9f 3f e8 d0 d5 b3 8a 94 e2 b4 1c 65 74 be
       1.2435062 -9.956585e-08 -4.2203857e-07 -0.23866695
000030 6d f6 1c 3f 29 b1 c5 be c3 fb b5 b5 a0 05 c0 3e
       0.61313516 -0.38611725 -1.3558823e-06 0.37504292

exp_avg_sq f4 [16]
000000 5f ab de 41 9a 4e e2 41 14 fa 58 28 41 94 08 39
       27.833677 28.28838 1.2044636e-14 0.000130252
000010 6b 0c 16 41 29 de df 3f fc bf 2e 41 f9 fe 7a 40
       9.378032 1.7489673 10.921871 3.9218123
000020 7b c7 b7 41 51 bf 8f 2c d0 0e 83 31 2f 43 96 40
       22.972403 4.085545e-12 3.8142858e-09 4.695701
000030 c8 d6 83 42 1d 2d 96 41 4d 1f 4f 35 14 3a 7f 42
       65.919495 18.772028 7.715906e-07 63.806717

exp_avg f4 [16, 1]
000000 13 6f d1 3e f7 7b e5 bb a3 33 33 bf 5b b3 bb 3b
       0.40905055 -0.007003303 -0.70000666 0.005728168
000010 8f d1 7b 3e 87 59 c7 32 e5 27 39 bf 87 d1 21 be
       0.24591659 2.3207361e-08 -0.723265 -0.15802585
000020 cf 38 fe be 3e 14 39 b4 ea e9 17 32 36 92 12 31
       -0.49652717 -1.7236832e-07 8.842543e-09 2.1328908e-09
000030 80 e0 a6 bb 9e 6f ec 3e 37 5c 72 be 1f 29 d5 b2
       -0.0050926805 0.46178907 -0.2366799 -2.4815163e-08

exp_avg_sq f4 [16, 1]
000000 a6 89 6b 3f 35 c6 4b 3f ea d4 46 41 d3 e9 4f 40
       0.9200691 0.79599315 12.426981 3.2486465
000010 67 b1 47 40 dd c5 d5 29 22 0f 79 40 76 1f 88 40
       3.1202028 9.493424e-14 3.8915486 4.2538404
000020 ba c8 cc 41 bd b5 9d 32 e3 22 42 29 e2 6d c7 33
       25.598011 1.835985e-08 4.3106913e-14 9.286647e-08
000030 29 73 90 3f a9 1c 06 40 d3 c1 45 42 84 f0 07 34
       1.1285144 2.0954993 49.43928 1.2660354e-07

exp_avg f4 [16]
000000 86 46 6e bd 8a 2a 1a 3d 0d b6 19 bf 99 7a 4a 3d
       -0.058172725 0.037638225 -0.6004341 0.049433324
000010 f2 ee a8 3d 7d 2f a8 b3 a3 0d ec be 2a aa 8c be
       0.082487 -7.831748e-08 -0.46104154 -0.27473575
000020 ce 25 84 be 87 05 03 b5 c8 74 96 b3 d6 7e e4 b2
       -0.25810093 -4.8809346e-07 -7.006162e-08 -2.6600372e-08
000030 4e 88 11 3d fe 61 36 bc be 5d 57 bf 2c 41 99 b3
       0.03553038 -0.011131762 -0.84127414 -7.1364724e-08

exp_avg_sq f4 [16]
000000 b7 93 78 3f 1a 11 01 3f d1 27 1b 41 7d 2e 86 3f
       0.97100395 0.5041672 9.697221 1.0482937
000010 2d e0 61 40 d2 59 9e 29 ec 60 41 40 c5 d1 9d 40
       3.5293076 7.032191e-14 3.0215406 4.9318566
000020 01 af 04 42 e1 61 26 31 9b 84 b0 28 ce 1f 9d 32
       33.170902 2.4211817e-09 1.9597434e-14 1.8291669e-08
000030 41 1f bc 3e 90 18 12 40 ce 51 86 42 03 a7 b5 32
       0.36742595 2.2827492 67.159775 2.1147121e-08

exp_avg f4 [16, 1]
000000 96 47 28 b3 94 23 36 a2 54 b2 89 9d 00 00 00 80
       -3.9180655e-08 -2.4684434e-18 -3.6447985e-21 -0.0
000010 b5 b4 2f 95 ba a5 48 38 7c d9 d9 b8 21 ff e0 37
       -3.548352e-26 4.783806e-05 -0.00010387876 2.6821685e-05
000020 ef 6f 0a 99 f3 cb 02 b9 44 31 8e b8 67 e4 a4 b3
       -7.1570376e-24 -0.00012473743 -6.780264e-05 -7.678391e-08
000030 c3 f5 91 34 61 f8 2a b9 e9 0a 5c 35 25 d4 fe 34
       2.718717e-07 -0.00016304992 8.1972263e-07 4.7465542e-07

exp_avg_sq f4 [16, 1]
000000 b8 7b c8 2d 33 f6 2d 23 94 62 a9 22 05 1b 20 1d
       2.279231e-11 9.4304835e-18 4.5911915e-18 2.1189792e-21
000010 42 d3 f8 21 85 d8 39 34 ac 05 15 34 8e 5a bb 34
       1.6861053e-18 1.7308237e-07 1.387877e-07 3.4897351e-07
000020 5f d8 41 22 19 10 80 34 86 20 ce 34 8e 08 a9 30
       2.6270923e-18 2.385357e-07 3.8394154e-07 1.22988e-09
000030 35 29 00 2a 90 07 05 35 4b 9b 24 2c 59 01 9c 2a
       1.138298e-13 4.9557366e-07 2.3392007e-12 2.7712102e-13

exp_avg f4 [16]
000000 cc 33 0f b8 60 8e ba a7 34 b9 d2 a2 00 00 00 80
       -3.4142096e-05 -5.1779734e-15 -5.7116705e-18 -0.0
000010 ec 1c 2c 9e 06 44 f1 38 47 f8 d9 b8 21 ba 0b 38
       -9.111585e-21 0.00011504446 -0.000103936116 3.331353e-05
000020 08 cb 3a 9f 3f 42 03 b9 1e 3e 0e b9 c9 79 1a 39
       -3.9554976e-20 -0.00012517812 -0.00013565316 0.00014731953
000030 0f 68 9a b4 da 55 4a b9 7e 10 5d b5 a3 04 00 b5
       -2.8760448e-07 -0.00019296203 -8.2352915e-07 -4.7690463e-07
