SimLoan/VACA/exper_test_10pct_noise_adj_l/toy_/vaca/dgnn_elbo_8_8_16_4_normal_0.0_0.2_0.0_0.0_0_True_[BernoulliLikelihood()]_[NormalLikelihood()]_[NormalLikelihood()]_[BernoulliLikelihood()]_[NormalLikelihood()]_[NormalLikelihood()]_[BernoulliLikelihood()]_7_21/adam/0.005_0.9_0.999_1.2e-06_exp_lr_0.99/9/ckpt/last.ckpt (torch, 166358 bytes, 81 tensors)

model._encoder_embeddings.0.0.weight f4 [16, 1]
000000 86 0c 2d 80 1c 5a 53 be 6d bc 41 be 1f ce a2 bb
       -4.13709e-39 -0.20639843 -0.18919535 -0.004968419
000010 cc ca 10 b8 44 2a 91 bc 12 47 bb be 26 8a d7 bc
       -3.4521145e-05 -0.01772035 -0.3657766 -0.026310991
000020 20 79 39 3e af 0c f3 3e 51 63 85 be 15 db b6 bc
       0.18112612 0.47470614 -0.26052335 -0.022321263
000030 05 fd cb be 7d 5b ec 3e d1 25 34 be c9 d8 30 3f
       -0.39841476 0.4616355 -0.17592551 0.6908079

model._encoder_embeddings.0.0.bias f4 [16]
000000 ff 59 05 bb 66 3e b7 3e 98 6e 3b 3e bd 26 0a bd
       -0.0020347831 0.35789794 0.18303907 -0.03372835
000010 6d 74 57 bc a5 0e 09 3e e1 ea 1d 3f 2c a8 81 bc
       -0.013150317 0.13384493 0.6168652 -0.01582726
000020 cf c1 d1 3e 27 2a 96 3e 56 b0 83 3e 30 84 76 bc
       0.40968177 0.29329035 0.2572047 -0.015046164
000030 c4 2e bd 3e e1 f1 ee 3d 4f a5 34 3e 4d 07 58 be
       0.36949742 0.116672285 0.17641185 -0.21096535

model._encoder_embeddings.1.0.weight f4 [16, 1]
000000 21 f1 f7 be 9e b2 6b 3e 18 6b 85 bb 7c fd 27 bf
       -0.48426154 0.23017356 -0.0040716045 -0.6562116
000010 a0 88 0a 3f 7b 6f 21 3f 4c f0 da 3e 51 6f 63 be
       0.54114723 0.6306073 0.42761457 -0.22210433
000020 4d ed 45 bf 51 9a 4d 3e 5b 81 59 bf c0 73 34 3d
       -0.7731522 0.20078398 -0.84963006 0.0440557
000030 6f 2f 22 3f dc e8 ec 38 d5 f6 92 be 37 1b 7e bc
       0.6335363 0.000112967304 -0.28703943 -0.015509418

model._encoder_embeddings.1.0.bias f4 [16]
000000 6b df 80 bf 7e f6 77 bc 88 af 2a bd 9a c3 93 3a
       -1.0068182 -0.015134452 -0.041671306 0.0011273504
000010 6f 35 f7 3d 1d 5e a6 39 8e 7a b2 3e 24 b3 3d 3f
       0.120707385 0.00031732107 0.34859127 0.7410147
000020 b7 17 25 be d3 a9 31 bf 26 92 2f bf c7 c9 7c 3f
       -0.16122328 -0.69399756 -0.6858238 0.9874539
000030 d6 de 01 3f 8f 4a 4e bb 4c 60 67 3f cd 19 e9 bd
       0.50730646 -0.0031477546 0.9038131 -0.11381874

model._encoder_embeddings.2.0.weight f4 [16, 1]
000000 e2 71 14 3f d3 3b 11 3d 30 e3 42 3f 9d db 48 3f
       0.5798627 0.035457443 0.7612791 0.78460103
000010 b2 ad ca 3e ae 76 73 3e 10 bd 82 bb 50 6a 2f be
       0.39585644 0.23775741 -0.003989823 -0.17130399
000020 bc f9 21 bf 4b 38 42 3f 6b 1f 59 bf 11 ec b0 bc
       -0.6327169 0.75867146 -0.84813565 -0.02159694
000030 b1 3a 49 3c e3 50 9a be 6c a5 5d 3d 85 c3 38 bf
       0.0122820595 -0.30139837 0.054112837 -0.7217334

model._encoder_embeddings.2.0.bias f4 [16]
000000 8e 6b 64 be 01 cc e1 3e 4f 1f a7 3e fa 84 2e bf
       -0.22306654 0.44100955 0.32641074 -0.68171656
000010 b8 92 73 bf 2e a6 28 3f 5f 10 22 bd d2 26 d0 3e
       -0.9514575 0.6587857 -0.039566394 0.40654618
000020 42 be 36 bf 44 f4 5a 3f 2c 50 3e 3f 47 29 0c 3f
       -0.7138406 0.8552897 0.7434108 0.54750484
000030 14 f9 1d bd 8d 62 82 3e 33 c0 2d be b4 22 9c be
       -0.038567618 0.25465813 -0.1696785 -0.30495226

model._encoder_embeddings.3.0.weight f4 [16, 1]
000000 86 b8 5d 3d ae 1e 19 be e1 6e c4 3b cc c4 2e 00
       0.054131053 -0.1495311 0.005994663 4.29503e-39
000010 30 3e bb be 58 d1 92 82 06 7f b7 8c 67 d8 2c 80
       -0.36570883 -2.157293e-37 -2.8272064e-31 -4.118392e-39
000020 d3 71 a6 93 15 66 96 3e e3 95 9b 3e 32 95 8a ae
       -4.201653e-27 0.29374757 0.30387792 -6.302016e-11
000030 de 36 f3 be 93 b2 41 3f 90 25 5a be 60 9f 93 94
       -0.47502798 0.7566311 -0.21303391 -1.4906069e-26

model._encoder_embeddings.3.0.bias f4 [16]
000000 db e9 95 bb 8e c4 17 3e 0f b4 ae 3c df 4b a8 82
       -0.004574997 0.14821073 0.021326093 -2.472893e-37
000010 93 68 bd 3e 46 c0 6a 84 f3 26 5a 98 b4 e1 b3 9a
       0.36993846 -2.7594855e-36 -2.8195504e-24 -7.439731e-23
000020 02 ab 3d b2 8d 72 7e bd ed 66 01 be 41 f3 42 b4
       -1.1040131e-08 -0.062120963 -0.1263692 -1.8156153e-07
000030 65 9b f6 3e d6 3a 94 be b4 fb a1 3e 8b 65 0a 9d
       0.48165432 -0.28951138 0.31637347 -1.8316644e-21

model._encoder_embeddings.4.0.weight f4 [16, 1]
000000 00 e3 83 be 14 ec e5 24 a1 2d 74 be a2 1f f6 3e
       -0.25759125 9.971285e-17 -0.23845531 0.4807101
000010 43 0b 6c 3e e3 93 67 be 18 89 d6 bd 7a 79 e1 3d
       0.23051171 -0.22615008 -0.10475367 0.11009498
000020 07 64 cf bd 32 e4 3f 3e ee 90 4f be 62 e4 4f 3e
       -0.101265006 0.18739393 -0.2027013 0.20301965
000030 36 da bc 3e 02 5c cc 3e 29 e1 9a be 9b 96 ae 3a
       0.36885232 0.39913946 -0.3024991 0.001332003

model._encoder_embeddings.4.0.bias f4 [16]
000000 2d 1a 08 3d 57 8b 21 a7 9d 1f f2 3e 8d 70 72 bf
       0.03322809 -2.2418775e-15 0.47289744 -0.9470299
000010 84 d4 e6 bc ed d0 b7 be dc c8 4f 3e c7 79 31 3e
       -0.028177507 -0.35901585 0.20291466 0.1733161
000020 e6 2e 0f be 0e f5 24 3f 95 38 01 bf a3 30 d7 bc
       -0.13982734 0.64436424 -0.5047696 -0.026268309
000030 3a f4 42 bf ff d3 49 bf 1d d1 f6 be 42 3c 93 bb
       -0.7615391 -0.78839105 -0.48206416 -0.0044932673

model._encoder_embeddings.5.0.weight f4 [16, 1]
000000 79 8c 08 be 16 02 30 3e 96 13 54 be bd 6a af 3a
       -0.13334836 0.17188296 -0.20710596 0.0013383251
000010 99 ad cf 1f 0f 64 3f 3f d1 19 e8 be ff 7a 55 be
       8.7955103e-20 0.7476205 -0.45332196 -0.208477
000020 7a 52 e4 be 7e 8f ac 3e c7 1c 75 bf 3d fd 71 bd
       -0.44594175 0.33703226 -0.95747036 -0.059079397
000030 fd d7 00 3f 03 e2 86 bd a9 6f ce 3e 7f b7 c5 be
       0.5032957 -0.06586077 0.40319565 -0.3861656

model._encoder_embeddings.5.0.bias f4 [16]
000000 32 a9 8c 3d cc 4b a5 be dd b0 61 3f 5b f8 c2 bb
       0.06868209 -0.3228439 0.88160497 -0.0059500164
000010 0d 22 9b a1 61 4b 1b bf c7 20 34 bf 56 7d c7 be
       -1.0512222e-18 -0.60661894 -0.70362514 -0.3896281
000020 c1 53 a7 bd 0c f5 66 3f 60 01 4e 3f 80 56 e6 bd
       -0.08170272 0.9021766 0.8047085 -0.11246967
000030 66 86 ec be 93 30 5e be 66 72 b8 be c4 18 ca bd
       -0.46196288 -0.21698217 -0.3602478 -0.09868005

model._encoder_embeddings.6.0.weight f4 [16, 1]
000000 a2 ff 33 3f f1 b3 2c 80 19 90 2c 80 54 9c 38 80
       0.7031194 -4.105313e-39 -4.092454e-39 -5.198868e-39
000010 f1 6c 3b 3f 2b db d5 3e 81 ec 09 a8 d4 8c 4d 3e
       0.73213106 0.41768774 -7.656311e-15 0.20073253
000020 9f f0 86 3d 70 9c 2c 00 72 90 2c 00 ad 75 2d 80
       0.065888636 4.096881e-39 4.092579e-39 -4.174811e-39
000030 2f d0 2c 80 1a 83 b4 be a3 6e 78 bd 9f 86 2c 80
       -4.115444e-39 -0.35256273 -0.060652386 -4.089055e-39

model._encoder_embeddings.6.0.bias f4 [16]
000000 33 f5 b6 3e 08 98 38 80 2d 82 2c 80 dc 9e 2c 80
       0.35733947 -5.197326e-39 -4.08746e-39 -4.09775e-39
000010 31 01 88 be e2 89 4c be 9e cd dc b9 b5 ee d0 3e
       -0.2656341 -0.19974473 -0.00042114867 0.4080712
000020 b4 12 23 3e 23 1d 3b a3 21 47 fa 93 63 d7 a9 b8
       0.15925103 -1.014346e-17 -6.317901e-27 -8.098667e-05
000030 a9 db ce a4 76 ea f3 3e 5f 96 79 3d a1 8d 2c 80
       -8.971038e-17 0.47639817 0.06093442 -4.091569e-39

model.encoder_module.convs.0.m_net_list.0.weights.weight f4 [256, 21]
000000 8f d3 5e ab 4a 49 1b 3d 30 36 39 3e 60 45 81 bc
       -7.916384e-13 0.03791169 0.18087077 -0.01578015
000010 1a a6 2f 3e b7 97 40 bd 36 bb 0c be d1 13 be bd
       0.17153206 -0.047019687 -0.1374329 -0.092811234
000020 7a 93 6e be ec 3c 39 3d 8b 7d 91 bd a0 16 aa 3d
       -0.23298445 0.045224115 -0.071040235 0.083050966
000030 9e d6 1e 3e 5b a1 c6 3c 25 40 08 bd 93 23 df 3d
       0.15511557 0.024246862 -0.033264298 0.10895457
000040 19 03 55 be 4f 83 14 3d 2e 56 fb bc f5 1d 98 bc
       -0.20801963 0.036258038 -0.030680742 -0.018568972
000050 88 6f 2a 3d bf 92 5e 1e 68 3e fe bd 2a 6e 08 be
       0.04161027 1.17829285e-20 -0.12414247 -0.13323274
000060 3e a3 dd 3d 75 ad 9c bd 27 b3 09 3e bd 15 f8 bd
       0.108221516 -0.07650272 0.13447247 -0.12113521
000070 bd fe 09 3d 08 a5 e9 bb a6 4a 77 3e ba f2 98 bd
       0.033690203 -0.007130269 0.2414957 -0.074681714
000080 44 f0 19 be e9 2f ac 3d e8 ea e4 bc e1 55 01 be
       -0.1503306 0.08407576 -0.027944043 -0.12630416
000090 ee 18 f6 bd 26 af 34 3e e2 dc 44 3d c0 25 ca 3d
       -0.12016474 0.17644939 0.048062213 0.098704815
0000a0 0d df 4a 3e 98 23 8b 3c 81 04 4b 0b b9 8d 0e bd
       0.1981165 0.016984746 3.9099766e-32 -0.034803126
0000b0 fd 6a 1b be 5c 9f 93 bd 35 cf 50 be 58 36 0a 3e
       -0.15177532 -0.0720813 -0.20391543 0.13497293
0000c0 11 4d 21 3e d2 e5 39 be 04 61 bc 3d 6c b7 b4 3d
       0.15752055 -0.18154076 0.09198192 0.088240474
0000d0 02 17 d9 3d 5f 4f 3b 3e fd 7b 7a 3b 47 0e 3b bd
       0.106000915 0.18291996 0.0038220875 -0.045667913
0000e0 fc 69 eb 3c c6 3f 7d 3d 78 96 c8 3c f4 51 4a 3d
       0.02873706 0.061828397 0.024485812 0.049394563
0000f0 47 c6 fa 3c 0c a9 78 bd 3c 94 37 bd b9 7a f1 29
       0.030612124 -0.06070809 -0.0448191 1.0723839e-13
000100 2f 79 8b bd d4 cf 0a bd 50 9c 3a 3d 99 78 ba bd
       -0.06810223 -0.033889607 0.045559227 -0.091050334
000110 dc 87 28 3c 74 01 89 3b 74 a5 c2 bd 12 fc 9e bb
       0.010286298 0.0041810814 -0.09504214 -0.0048518265
000120 72 1d 0a bd 02 0c 75 3e f3 2c b1 bd 71 ea 1e be
       -0.033719487 0.23930362 -0.086511515 -0.1551912
000130 a4 55 12 be fb 42 38 3e ae dd 19 3e 07 74 a6 bd
       -0.14290482 0.17994301 0.1502597 -0.08127599
000140 62 c7 43 bc af 98 21 3e c5 9f e8 bd a7 4e cb bd
       -0.011949392 0.157809 -0.113585986 -0.09927111
000150 3f 33 93 1f f0 d5 d7 3c 7c e4 11 3e 12 02 70 bd
       6.23417e-20 0.02634713 0.14247316 -0.058595724
000160 88 01 f6 3d 9d 6a 87 3d 23 8c 15 be ed b6 94 3c
       0.12012011 0.06612132 -0.14604239 0.018153632
000170 17 a8 0f bd 08 5d 14 3e 46 c9 a0 bc 99 65 61 be
       -0.035072412 0.14488614 -0.019627225 -0.22011413
000180 e1 13 2d be 9e ca 1a be f1 a5 fb bd 26 74 56 bd
       -0.16902114 -0.15116355 -0.1228751 -0.05235686
000190 8f 27 09 bd 64 e8 ae bd e0 ad 15 3e f9 7a 2e 3e
       -0.03348499 -0.08540419 0.1461711 0.17039098
0001a0 e1 d8 3f be 3e 12 d1 82 dd 76 a3 bb eb ba 63 3c
       -0.18735076 -3.072026e-37 -0.004988535 0.013899545
0001b0 32 88 31 be 84 c3 03 be 5e 7b 87 bd 0f 9a 51 3d
       -0.1733711 -0.12867552 -0.06615327 0.051172312
0001c0 1a 92 80 bd ce a4 29 bd 04 44 af 3e e3 dc 0e be
       -0.06277867 -0.041416936 0.3423158 -0.13951449
0001d0 ff 4d 1d 3e ee 11 b2 bd 33 fe 56 3e 5d df 71 3d
       0.15361784 -0.08694826 0.20995407 0.059050906
0001e0 3b 16 99 3d b1 52 bb 3d 43 61 b7 3d 10 67 31 3d
       0.07474943 0.091466315 0.08954098 0.04331118
0001f0 b7 48 ca 3d 57 0b 12 be ce be fa 92 54 de b1 3d
       0.098771505 -0.14262138 -1.5824255e-27 0.08684984
000200 f2 25 1b 3e a0 ca 25 be bf 4d 47 be c8 54 f9 bd
       0.15151194 -0.16190577 -0.19463252 -0.12174374
000210 00 2a 03 be 71 b7 4d 3c ad 35 ce 3c 32 0d 52 bd
       -0.1280899 0.012555943 0.025172079 -0.051282115
000220 1c ac 40 3d 23 17 d9 3d e2 db 7b 3e 90 16 5d 3d
       0.047039136 0.10600116 0.24595597 0.053976595
000230 7d fb c5 bd 5d 31 f3 3d 8a 03 32 be d2 98 20 be
       -0.09667108 0.1187465 -0.17384163 -0.15683296
000240 cf 12 01 3e 4c dd 7a bd e0 28 b3 bd 1a 42 40 96
       0.12604831 -0.0612462 -0.08748031 -1.5530494e-25
000250 39 59 5d 3e 90 6d 63 3c ad ab 85 bd ae cb 0d 3e
       0.21616067 0.013881102 -0.06526885 0.13847229
000260 26 15 ae 3c 9a ea 2d bd 1c 6f 6c bd 2b 6d bd 3d
       0.021250319 -0.04246006 -0.05772315 0.09249338
000270 cb d6 0d bd f6 28 43 3e 07 50 ac 3d f1 10 1b 3c
       -0.03462867 0.19058594 0.084137015 0.009464488
000280 8e 41 42 be 23 a9 a3 3c cd e1 13 3d d7 47 1a 3e
       -0.1897032 0.019978112 0.036104012 0.15066467
000290 1c 65 f4 3d 7b 22 25 3b 6b bb ea 3d 76 d4 08 3d
       0.119333476 0.0025197554 0.114615284 0.033405744
0002a0 fd 43 16 be 91 12 19 3e a3 21 34 3e c0 88 2c 80
       -0.14674373 0.14948489 0.17590956 -4.089818e-39
0002b0 75 ee c0 3d 5b 14 b7 3d 89 f0 a5 bd d8 3b 84 3d
       0.09420482 0.089394294 -0.08102519 0.06456727
0002c0 27 93 2c 80 c4 bf 9c b9 1a 1c d8 bc 8f 9f d8 bd
       -4.09355e-39 -0.00029897515 -0.026380587 -0.105773084
0002d0 7a ae b6 3c b1 87 2c 80 d4 5f 1c 3e 46 8a 2c 80
       0.022299994 -4.089439e-39 0.1527093 -4.090365e-39
0002e0 73 5d 82 bd 9d 9a 2c 00 32 a9 fd bb a6 b5 2c 00
       -0.0636548 4.096227e-39 -0.007741117 4.105925e-39
0002f0 87 81 2c 00 d4 cf 5b 3e d9 80 8c bc f9 03 cd 3d
       4.087227e-39 0.21465999 -0.017151283 0.10010523
000300 15 2b 8d 03 2e 10 86 3d a9 1a 11 3e 32 91 1c be
       8.297126e-37 0.06546055 0.14170326 -0.15289763
000310 5c 77 35 3e 15 2b 8d 03 dd d5 34 3e 65 42 9c 3d
       0.17721313 8.297126e-37 0.17659707 0.07629851
000320 cd bf 30 3d 6d 37 2f bd a9 2b 8d 03 4a a7 6b bd
       0.043151665 -0.042777468 8.297259e-37 -0.057532586
000330 27 e7 4a 04 7f aa 48 be 07 9c 2c 80 de d3 58 3e
       2.3851126e-36 -0.19596289 -4.096734e-39 0.21174571
000340 48 b7 2c 80 0b bb 2c 80 70 47 4c bd 4c 1e 13 3e
       -4.106511e-39 -4.10786e-39 -0.049872816 0.14367026
000350 70 0e 8a bd 11 a4 2c 00 89 a3 ae bd 97 ce 6e 3d
       -0.06741035 4.099618e-39 -0.085272856 0.05830249
000360 b6 d4 ee bd ff e6 62 bd d0 82 2c 00 e6 e7 df bd
       -0.11661665 -0.055396076 4.087689e-39 -0.10932903
000370 4c ca 0e be 1a 00 99 3d 5f 78 a9 3c b9 8b 2c 00
       -0.13944358 0.074707225 0.02068728 4.090885e-39
000380 3f 19 3b be 38 8c 2c 00 e0 ef e3 3d 5b 94 2c 00
       -0.1827135 4.091063e-39 0.11129737 4.093982e-39
000390 b7 d3 36 3e e2 a0 2c 00 cc be 2c 80 a7 3b 42 3e
       0.178542 4.098476e-39 -4.109207e-39 0.18968068
0003a0 6a 57 83 bc 6c ed 74 be 94 84 2c 80 a4 49 a5 bd
       -0.016032893 -0.23918694 -4.088322e-39 -0.080706865
0003b0 b9 96 1d be a5 ae 80 3c c6 2b 8c be 31 ae 2c 80
       -0.15389527 0.015708277 -0.27377146 -4.10325e-39
0003c0 d5 67 39 3e 2a 1b 94 be 6f aa e7 3d bc 23 dd 3e
       0.18106015 -0.28926975 0.113118045 0.43191326
0003d0 29 8c 2c 80 b7 f9 53 3e 4d 85 2c 80 a5 8a 77 3d
       -4.091042e-39 0.20700727 -4.088581e-39 0.060434956
0003e0 60 c9 2c 80 e4 2a 8f be 42 ad 2c 80 08 85 2c 80
       -4.113002e-39 -0.2796241 -4.102915e-39 -4.088484e-39
0003f0 e8 3e e7 bd 99 16 27 3c 07 ef 54 be 73 87 2c 80
       -0.11291295 0.010198259 -0.20794307 -4.089352e-39

model.encoder_module.convs.0.m_net_list.0.bias.weight f4 [8, 21]
000000 85 61 6b 3d 8c 18 09 3e ee 17 0f 3d 87 a7 50 bd
       0.05746605 0.1338827 0.03493493 -0.050941017
000010 2b ee cc bc b9 fa 94 bb 49 a8 5c 3e f0 cf 66 3c
       -0.025015911 -0.00454649 0.2154857 0.014087662
000020 bc b9 20 be cd d6 ff bc 54 39 1f be 90 d0 45 be
       -0.15695852 -0.031230355 -0.15549213 -0.19317842
000030 68 bc 2f bc 25 54 0e be 91 02 ed bb 46 37 03 be
       -0.010726072 -0.13899286 -0.007232972 -0.12814054
000040 93 da 52 be d1 ff 06 be ce cf 49 3e ac d2 57 3e
       -0.20591192 -0.13183524 0.19708177 0.21076459
000050 bc ba e5 3c 11 22 25 be c3 35 5f be 72 c6 aa 3d
       0.028043143 -0.16126277 -0.21797852 0.08338632
000060 67 38 30 bd 7d e5 c9 bd 57 df 10 3d ff fb ea 3c
       -0.04302254 -0.098582245 0.035369243 0.028684614
000070 7d 19 15 be a9 3f 38 bd 12 87 07 be 78 3b fc 3d
       -0.14560504 -0.044982586 -0.13235119 0.1231603
000080 da 8f c4 bc 0e a7 c2 bc f8 81 e7 bd c8 e2 15 3c
       -0.023994375 -0.023761299 -0.113040864 0.009148307
000090 99 7a 3b be f4 0f e2 bb f2 fa 00 be 28 ad 75 3d
       -0.18308486 -0.0068988744 -0.12595728 0.059979588
0000a0 17 b6 ea 3d f5 f6 30 3d e8 df 71 3d 6b bc e5 3d
       0.11460512 0.043204267 0.059051424 0.112175785
0000b0 5c de 28 3e 5e c7 41 be fa 57 27 3c 50 b8 be bc
       0.16491073 -0.18923709 0.010213846 -0.023281246
0000c0 28 2c 09 3e 0a 0f 65 be cd 72 e9 3d 2c 02 2b 3d
       0.1339575 -0.22369018 0.1139885 0.041750118
0000d0 d2 4c f9 bd 57 a6 ce bd 7c 09 36 bd 05 a1 f9 3c
       -0.121728554 -0.100903206 -0.04444264 0.030472288
0000e0 3c 95 44 bd 11 10 66 bd 80 4e 28 be 2c 1b 43 be
       -0.047993883 -0.056167666 -0.16436195 -0.19053334
0000f0 f9 1b fe 3d 36 e0 0e 3e 54 8d 14 bd 06 f0 02 be
       0.12407679 0.13952717 -0.036267594 -0.12786874
000100 a6 06 0f 3d 80 20 07 3e 4e 8a d0 3d 3a 97 fd bc
       0.03491845 0.13195992 0.101826295 -0.0309559
000110 6a be a7 3d de 78 e5 3c 93 23 d4 3d 0f 99 2f bd
       0.081906155 0.028011736 0.10358348 -0.042870577
000120 3a 52 04 be e0 a7 0d 3e ae cb 19 3e 35 d9 a3 3d
       -0.12921992 0.1383357 0.15019104 0.08000413
000130 38 22 2d bd 16 61 f4 bd 69 e9 51 be d1 f3 3e bd
       -0.04226896 -0.1193258 -0.20499195 -0.04661924
000140 ec 3d 56 bc 21 3b 89 be 1e b5 f3 3d 81 42 ef 3d
       -0.013076287 -0.26802924 0.1189978 0.116826065
000150 4d 9a e7 3d 04 59 10 3e 94 61 3e bc 32 bc 13 be
       0.113087274 0.14096457 -0.011619944 -0.1442726
000160 51 1d 5b 3d 2d 69 0e 3e c8 80 f8 3d b8 1a 16 3e
       0.053494755 0.13907309 0.12133938 0.1465863
000170 ff f7 ff 3d 84 64 7c bd 92 85 18 be d0 86 5a bd
       0.124984734 -0.061619297 -0.14894703 -0.053351223
000180 ec a2 65 3d 62 8b 82 bd 48 7f 32 3e f1 c7 c4 bd
       0.056063578 -0.063742414 0.17431366 -0.09608448
000190 80 19 55 be 46 a2 00 3e 64 11 0a 3e d8 c5 58 bd
       -0.20810509 0.12561902 0.13483196 -0.052923054
0001a0 9c 36 54 3d f5 7a a6 be 1d d2 5b 3c 53 35 3d 3d
       0.051809892 -0.32515684 0.013416794 0.046193432
0001b0 0e e5 c6 bc 1d 2e 59 3d d2 18 17 3d 66 2f 85 be
       -0.024279144 0.053022493 0.036888905 -0.26012725
0001c0 f1 12 0b be 1e 42 53 3d 42 63 8a bf da 33 2e 3b
       -0.13581444 0.051576726 -1.0811541 0.00265812
0001d0 cd fd 0a be 2b b8 ac bd 85 72 2c 3e be 15 09 3e
       -0.1357338 -0.08433565 0.1684056 0.133872
0001e0 46 af 4d bd c3 38 4c be ed bc 4c 3e 48 04 a9 3c
       -0.050215982 -0.19943528 0.19993944 0.020631924
0001f0 ec f0 2a be e9 5b f7 3d 3f d7 1c be 3b 9b 34 be
       -0.16693467 0.12078077 -0.15316485 -0.1763734
000200 c3 73 cb bd bf a2 2b bd 08 fd 26 3e b8 d2 69 ba
       -0.09934189 -0.041903254 0.16307461 -0.0008919644
000210 f6 17 89 3d 02 7b 91 3d 6e a8 5b 3e 45 5e 08 be
       0.06694023 0.0710354 0.2145097 -0.13317211
000220 b3 2b 98 bd 83 5b 31 3e e0 3a a2 bd aa fd 19 be
       -0.0743021 0.17320065 -0.07921386 -0.15038171
000230 5e 3b 4c bc d6 dd b0 3d 0f d2 39 3d c7 2b f3 3d
       -0.012465326 0.08636062 0.045366343 0.11873584
000240 96 1c 45 bc 47 dd 34 bc 6a 8d ce 3d bf 09 27 bc
       -0.012030741 -0.011039085 0.10085566 -0.010195195
000250 e1 6e 50 bd ea 51 e1 bd 7d 93 48 3d 76 e6 b4 3e
       -0.050886992 -0.11001952 0.04896878 0.35332078
000260 c5 36 b5 bf 30 72 00 3d 6b 8b eb 3d 92 80 46 3e
       -1.4157339 0.031358898 0.11501201 0.19384983
000270 f7 91 e6 3d f9 e8 27 be fa 13 b1 3d 1a 8f 76 be
       0.11258309 -0.16397466 0.08646388 -0.24078026
000280 87 4f c5 bd 82 f2 65 3e 36 53 3a bd c2 d9 23 3e
       -0.09634309 0.2245579 -0.045489512 0.16001037
000290 8e be 11 3e a8 5c 8e bf b9 f0 c0 bc 50 ba 80 3d
       0.14232847 -1.1122026 -0.023552286 0.06285536

model.decoder_module.convs.0.m_net_list.0.weights.weight f4 [64, 21]
000000 4b 5b 1a bd a1 05 5e 3c 69 09 67 3d 1c 3d 92 bc
       -0.03768472 0.013551147 0.05640546 -0.017851405
000010 bf ae 11 be f5 4f fd bc 9a af 51 bb ea 4c 4a be
       -0.14226817 -0.030921916 -0.0031995536 -0.19755903
000020 ae e7 19 3d d6 57 ef 37 28 62 4c 3e b8 a6 cc 3d
       0.037574463 2.8531922e-05 0.19959319 0.099927366
000030 bb 38 46 bb e8 94 42 bc ef a5 67 bb ee 0b f1 3c
       -0.0030246216 -0.011876322 -0.0035346707 0.029424634
000040 a4 11 c5 3d de 82 57 be 41 03 c0 bb 46 f2 22 bd
       0.09622505 -0.21046016 -0.005859763 -0.03978183
000050 17 30 24 3d 8b 44 c9 bc 55 3c 23 3c 34 67 c0 bc
       0.040084925 -0.024568817 0.009963115 -0.023486711
000060 7f 88 c6 3b a8 b4 d3 bd ab 80 ef 3d 63 4a 21 bd
       0.006058752 -0.10337192 0.11694463 -0.03937758
000070 0a 76 7d bc 8f 6e 41 3d ea 5a 17 3d 73 ca 33 3c
       -0.015470037 0.047224578 0.036951937 0.010973561
000080 b7 39 6d 3e 3f 98 c0 3d d2 e3 53 3d 92 ba c5 bd
       0.23166548 0.09404039 0.05173094 -0.09654726
000090 b7 28 74 bc 25 cf 81 bd 27 98 48 3d 08 7c 29 be
       -0.014902285 -0.06338338 0.04897323 -0.1655122
0000a0 fd 5a d5 bd cc df a8 bd 2e eb 13 bd a7 fb 11 bd
       -0.10417745 -0.08245811 -0.036112957 -0.035640385
0000b0 48 42 02 bd 29 09 30 bd d2 e9 31 3e 84 cf c6 3d
       -0.031801492 -0.042977486 0.17374352 0.09707549
0000c0 aa b9 3c 3d ce f9 d0 bb bd 5c 6f 3c fd 0f c2 3d
       0.0460755 -0.0063774353 0.014609513 0.09475706
0000d0 ff c0 76 3c 6f 42 26 be b0 78 5d bd 83 92 57 3c
       0.015060662 -0.1623628 -0.054070175 0.01315749
0000e0 59 73 1f 3e e4 69 7f bc 98 23 49 be 5f 00 9a 3c
       0.15571345 -0.015589211 -0.19642484 0.018799005
0000f0 4c f4 3e 3d 77 db a7 3c 1b 0b e9 bd 45 be 9a 3b
       0.0466197 0.020490391 -0.11379071 0.004722389
000100 df eb cb bc 51 6b 00 bd 99 64 ba bc f8 7b 87 3d
       -0.024892746 -0.031352345 -0.022753047 0.06615442
000110 67 89 89 3d d0 1d e6 3c 8e 8f c6 bd e1 23 f0 bb
       0.067156605 0.028090388 -0.0969535 -0.007328496
000120 b3 d4 f7 3d 20 1b b6 3d e5 d1 da 39 17 8a 91 bd
       0.12101116 0.088918924 0.00041736584 -0.07106417
000130 6a 1a 28 3d 79 e1 51 be ac 5e 5e bd 3c 82 3a 3d
       0.041040815 -0.20496167 -0.054289505 0.045534357
000140 0f d1 e6 bd 3a 28 a2 bd f0 16 1b 3d da 19 44 3c
       -0.112703435 -0.07917829 0.03786367 0.011969054
000150 0b 44 1c 3e 95 bb 27 bc ec b6 25 bc 42 40 69 3d
       0.15260331 -0.010237594 -0.010114413 0.056946047
000160 12 d8 a5 3d b5 6d 2c bd 9f bd 0c 3d 85 09 74 bd
       0.08097853 -0.042096812 0.034360524 -0.05957939
000170 e9 97 80 3d 01 e7 21 be 39 77 75 3d a0 8e 1b be
       0.062789746 -0.15810777 0.059928153 -0.15191126
000180 fe 78 ce bd fe 12 03 be 79 a2 31 be 02 10 44 3e
       -0.10081671 -0.12800214 -0.17347135 0.19146731
000190 f5 e4 59 3e 09 e2 d5 3d 43 50 4c 3a 76 d2 c5 bc
       0.21278746 0.104435034 0.00077939423 -0.024148207
0001a0 5d 74 13 3d d4 11 ce bd a6 8f f9 3c 7a ca 13 b8
       0.035999645 -0.10061994 0.030464005 -3.5236102e-05
0001b0 d4 7a 3a bc d6 33 ef bd fd 3e 4b be 2c 43 8f bd
       -0.011381824 -0.11679809 -0.19848247 -0.06995234
0001c0 59 c7 f7 bd d6 6b dc 3b a5 18 a4 bd cc 8c 4a 3e
       -0.120985694 0.0067267222 -0.08012513 0.19780272
0001d0 3d 03 aa bd 21 c9 c6 3c 6a 95 46 bd f4 fe fb 3c
       -0.08301399 0.024265828 -0.048482336 0.03076122
0001e0 52 a4 e2 bd bb a6 e2 3d be 7c f1 b6 c4 ce 5c 3d
       -0.11066498 0.110669576 -7.1968816e-06 0.053908125
0001f0 d1 48 07 b7 c2 d6 2b 3c 1b 48 b1 3d 91 45 24 3c
       -8.063581e-06 0.010488214 0.08656331 0.010026352
000200 0b 29 c6 bc 6f 78 9c bc 8d 62 fc 3d 36 fc 8d bd
       -0.024189493 -0.019100396 0.123234846 -0.06932871
000210 c2 c8 0e 3d c8 ec 2f be ba e2 12 3e fd da c1 3c
       0.034859426 -0.17180169 0.14344302 0.023663992
000220 52 ca db 3d d3 c9 3d 3d 5a ff 4c be d8 3f 5f bd
       0.10731949 0.046335053 -0.20019284 -0.054504246
000230 65 9e 8c bd 3e ae f1 3c 8b 15 0e be e9 73 14 3c
       -0.06866149 0.02950203 -0.13875405 0.009060838
000240 59 e5 08 3e 11 b5 dd bb cb b1 53 3c ed 6d bc bc
       0.13368739 -0.0067659696 0.012920807 -0.023001635
000250 f8 85 99 3c 26 99 f4 3d 28 bc 96 bd f0 ec a9 3d
       0.01874064 0.11943273 -0.07360107 0.08297145
000260 e8 74 33 be 08 98 2b bd 9b 22 1b be b5 f7 2a 3d
       -0.17525065 -0.041893035 -0.1514992 0.041740138
000270 fe e4 64 bd 13 df 10 3e ed 2a c6 3c 6b a3 42 bd
       -0.055882446 0.14147596 0.02419039 -0.04751913
000280 bf cc 27 3d a3 20 92 bd 49 f7 b9 bc 08 49 d8 bc
       0.040966745 -0.07135131 -0.022700923 -0.026402012
000290 2e 92 fa bd 90 a5 ce bc 93 8c 0d be 62 3a 13 3e
       -0.12234913 -0.02522543 -0.13823156 0.1437774
0002a0 b0 05 dd be a1 b2 01 3d f6 63 fd be 06 79 08 3c
       -0.43168402 0.031664494 -0.49490327 0.0083296355
0002b0 c6 e9 ba bb a7 b5 03 be ee 1e 0e bf 2f 44 34 be
       -0.0057041375 -0.12862264 -0.55515945 -0.17604135
0002c0 75 af d7 bc cb 5a 1f 3f 0b 53 32 3e b1 2d 49 3e
       -0.026328782 0.62247914 0.17414491 0.19646336
0002d0 e1 ee d2 3d 4b d3 0f 3c 16 0b 7a bd 56 31 d6 bd
       0.10299469 0.0087784035 -0.06104573 -0.10458629
0002e0 61 7b c7 bc 13 e7 18 bd cb 6c 8f bc 95 8a c1 bc
       -0.024350824 -0.037329745 -0.017507931 -0.023625651
0002f0 6c 49 f9 3d 1f e4 cc be 6f c4 83 3b 8f 43 b0 3e
       0.12172207 -0.40017793 0.0040212194 0.34426543
000300 62 b4 90 bd 5f ea 77 bd 92 df 90 bd 33 27 ab 3e
       -0.07065655 -0.060526248 -0.07073893 0.33428344
000310 c2 14 1e 3e 98 72 60 3d cb 53 13 3f 1d f7 26 be
       0.15437606 0.054796785 0.5754973 -0.16305204
000320 74 ca 7f 3e 18 5e be 3d 05 6a 32 3d f3 8a 2f bc
       0.24979573 0.09295291 0.04355814 -0.01071428
000330 67 af 08 bd 22 76 8c 3b 43 e1 18 be d2 ca 24 bd
       -0.0333704 0.0042865435 -0.1492968 -0.040232487
000340 2a c3 67 bd 7d fc cf 3d 4b 17 9f 3d 06 db 83 3b
       -0.056582607 0.1015558 0.07768115 0.0040239124
000350 89 07 8e be a6 3c 14 bd f2 91 ef bb 98 a7 43 3c
       -0.27740124 -0.03619065 -0.007311099 0.011941813
000360 9d 4f 3e 3d b9 f6 6e 3b 0d 3b bb 3d db d5 4c bf
       0.046462644 0.0036462976 0.091421224 -0.8001382
000370 13 76 03 3b 8d 96 1d 3e 2f 7c 32 3d bd 83 b7 bc
       0.0020059391 0.15389462 0.043575462 -0.022401685
000380 18 60 33 be 81 56 3e 3d a5 d7 14 3d fa e0 8d 3b
       -0.17517126 0.046469215 0.036338467 0.004329798
000390 09 7d 16 3e 36 f7 f9 bc 75 8f 6f bc 4e 4e 15 bc
       0.14696135 -0.030513387 -0.014621605 -0.009112908
0003a0 38 a2 df 3b ef 64 16 be bc 5e c1 3d bb 84 2b be
       0.006824758 -0.1468694 0.09441897 -0.16749851
0003b0 c4 b9 aa 3c 87 ea 41 3e 85 7f 15 3d 2b fa ca 39
       0.020840533 0.18937121 0.036498565 0.00038714832
0003c0 f0 e1 db bd ac a1 35 3d 93 54 7f 3d ee 01 bd bc
       -0.107364535 0.044343635 0.062336516 -0.02307221
0003d0 37 c3 ca bc eb 19 b8 bd 58 64 5d 3d 29 9a b0 3d
       -0.024751289 -0.089893185 0.054050773 0.08623154
0003e0 57 8a e9 3d e5 10 d4 bd de bf 27 bd be 85 c7 3d
       0.11403339 -0.10354785 -0.040954463 0.09742306
0003f0 c5 37 61 be 81 09 8c bb e7 a5 f9 3a b9 b1 bd 3d
       -0.2199393 -0.004273594 0.0019046635 0.092624135

model.decoder_module.convs.0.m_net_list.0.bias.weight f4 [8, 21]
000000 fb 1d 9b be 44 6e 13 3e 42 4a f3 3d 26 93 fc 3d
       -0.3029631 0.14397532 0.11879398 0.12332754
000010 45 90 c5 be 90 85 10 3d 4e 6d 43 bd bd fe 32 3c
       -0.3858663 0.035283625 -0.047711663 0.010924992
000020 97 ca 00 3c e6 a5 2e bd 32 40 d0 3d ed 73 13 bf
       0.007860801 -0.04263868 0.10168494 -0.57598764
000030 94 9c 92 3e d6 19 2b 3d f1 02 38 bf 41 22 79 3e
       0.28635085 0.041772686 -0.7187949 0.24329473
000040 eb 8f f7 be d6 fc 05 bf d8 84 92 3f 46 08 ba be
       -0.48351988 -0.5233892 1.1446791 -0.36334437
000050 6a 7d 01 bf d9 05 82 3e 8d 3f d9 be 49 12 5d 3d
       -0.5058199 0.25395086 -0.42431298 0.053972516
000060 0b ed 1f bd 88 e6 b5 be 21 73 19 3f 57 04 a1 3e
       -0.03904442 -0.35527444 0.599413 0.31448624
000070 72 e5 25 be 62 7c 41 be c6 0c 14 3e 73 a8 ff bd
       -0.16200808 -0.18895105 0.14457998 -0.12483301
000080 30 c0 30 bf a0 09 7f be 01 6a 34 bd 65 05 28 bf
       -0.69043255 -0.24906015 -0.044046406 -0.6563323
000090 4e bb 82 be f1 c1 9e be c7 d9 7b be b9 f0 7a 3e
       -0.25533527 -0.3100734 -0.24594794 0.24505891
0000a0 bd ad 8b be 3e 00 f5 be f4 54 2a be df 9d 4c be
       -0.2728099 -0.47851747 -0.1663397 -0.19982098
0000b0 35 a3 95 bd 42 8f 18 be 82 8e 91 bc dc 4b 29 3d
       -0.0730652 -0.14898399 -0.017768148 0.04133211
0000c0 b5 0f 1c be b1 77 05 bd 98 07 00 3e ec a3 36 be
       -0.15240367 -0.03258485 0.12502897 -0.17835969
0000d0 4d fc a3 bd e1 8a 85 bc eb 9f 83 be 7e fd 00 3e
       -0.08007107 -0.016301574 -0.25707945 0.125967
0000e0 e4 bf ae 3d 42 ef 77 3e 58 da 6c 3e 42 bb d6 bd
       0.08532694 0.24212363 0.23130167 -0.10484935
0000f0 5d b8 8a 3e 2a e3 bb bd 2d 38 5d be 09 12 08 bd
       0.27093783 -0.091741875 -0.2160346 -0.033220325
000100 ca 9b 63 bd 89 64 61 3e 3a e6 88 bd 67 be 22 bf
       -0.055568494 0.22011007 -0.06684537 -0.6357178
000110 27 1a 6f 3e e0 e5 85 3e 84 ea 80 be 35 fc c1 bd
       0.2334982 0.26151943 -0.2517892 -0.09471933
000120 fd 10 86 3f a9 6b aa be 89 ed c7 be 04 55 4a be
       1.0473934 -0.33285263 -0.39048412 -0.19758993
000130 54 6d 81 be 06 48 ff be 24 b7 f0 bd 61 1d c5 be
       -0.25278723 -0.49859637 -0.11753681 -0.38498977
000140 0e 28 03 bf b6 a7 62 be 00 35 12 be e2 2a b4 be
       -0.51232994 -0.22134289 -0.1427803 -0.35188967
000150 02 7b 83 3c ea 76 81 3e dc 56 61 be 5e 49 17 3d
       0.016049866 0.25286037 -0.2200579 0.036935203
000160 22 a6 0e 3e c5 69 44 3f 7a af a9 bd fc c2 81 be
       0.13930562 0.7672389 -0.082854226 -0.25344074
000170 bf 85 88 bd ec 9d e4 3e 83 8b 04 3e cc 5a af 3d
       -0.06666135 0.44651735 0.12943844 0.0856224
000180 cc fa ba 3d 7e 1d 8f bd 18 f2 2c bc 12 b1 52 be
       0.09129867 -0.06988047 -0.0105557665 -0.2057536
000190 6a de d7 3d df fe 37 be ce cc 98 3e b0 30 1a be
       0.10540469 -0.1796832 0.29843754 -0.15057635
0001a0 95 97 0e bf d9 84 70 3c b7 f5 21 3d 2f c0 0c be
       -0.55700046 0.014680111 0.039540973 -0.13745187
0001b0 34 25 a6 be d2 b4 16 be fa ed ac 3d 68 7d 2e be
       -0.3245026 -0.14717415 0.08443828 -0.17040026
0001c0 fc a7 d1 be ea 8a 8f be c7 30 21 3e 12 21 38 be
       -0.40948474 -0.2803567 0.15741263 -0.17981365
0001d0 e2 e2 54 be c1 d9 80 b8 d9 f4 1d be b5 b4 c1 be
       -0.20789674 -6.1440755e-05 -0.15425433 -0.3783318
0001e0 b8 90 bf be 88 50 73 be 5f ac 7f b8 5c af ab be
       -0.374151 -0.23761189 -6.095727e-05 -0.33532226
0001f0 64 7a 98 b7 62 a0 0a be b9 2b 89 bd 35 4d 5b bd
       -1.8176805e-05 -0.13537744 -0.066977926 -0.053540427
000200 38 ef 6f be bb 77 32 be a9 c1 88 be 04 0b 68 be
       -0.23431098 -0.17428486 -0.2671025 -0.22660452
000210 31 ec 29 be 49 5e e3 be 5c 0e c9 bd 26 0c e6 3e
       -0.16594006 -0.4440787 -0.09817192 0.44931144
000220 3a 34 eb bd 53 e2 0e bf eb 7f fc bc 57 23 88 be
       -0.11484571 -0.55814093 -0.030822715 -0.26589462
000230 5d 48 dd be b9 a3 0f bf 35 00 e1 be d2 e9 23 be
       -0.4321927 -0.56109196 -0.4394547 -0.16007164
000240 da d4 8b 3f 33 c8 11 bd 0b be d1 be b4 bf 09 be
       1.0924332 -0.035591315 -0.40965304 -0.13452035
000250 39 65 12 3e a4 c7 2c be a5 ef ae be ef a5 39 be
       0.14296426 -0.16873032 -0.3416721 -0.18129705
000260 2e 74 c6 3d 48 e2 04 bc 9d 67 85 bd 2d 66 e2 bd
       0.09690128 -0.00811059 -0.06513903 -0.11054645
000270 4b da 18 be 3f ee 22 3d d0 68 66 be 53 da 04 be
       -0.14927022 0.03977799 -0.2250092 -0.12973909
000280 fb e0 2f be a5 51 00 be c5 20 6f 3e 82 48 5b be
       -0.17175667 -0.12531145 0.23352344 -0.21414378
000290 ce 5e bf be a2 30 55 3e 88 0d f2 be 5a 91 ba be
       -0.37377018 0.20819333 -0.4727595 -0.3643902

model.decoder_module.convs.1.m_net_list.0.weights.weight f4 [128, 21]
000000 51 85 e2 3e 98 da 3f be 05 aa 4d 3e db af 15 3e
       0.44242337 -0.1873573 0.20084389 0.14617865
000010 a5 60 41 be 1d 22 91 3e 88 d4 1b 3e e6 60 96 3e
       -0.18884523 0.2834634 0.15217793 0.29370803
000020 3c 7a d9 3d 9a 64 94 be c4 bb 9c 3e 28 cc 90 39
       0.106190175 -0.28983003 0.30612004 0.0002761793
000030 48 11 bf bd af 04 aa bc 1b 3a 6a be 33 c6 a3 bd
       -0.09329468 -0.020754186 -0.22873728 -0.07996788
000040 af da eb bd 05 79 53 bd 0a 13 dd 3e 7d 12 1d 3e
       -0.1151632 -0.051629085 0.43178588 0.15339084
000050 ce 49 0e 3d dd e9 06 bf a8 c5 71 3e d1 b5 85 bd
       0.034738354 -0.527006 0.23610556 -0.06528819
000060 38 ad e5 3d ff b9 71 bc 9f 38 a5 3b 7a 52 a3 be
       0.112146795 -0.014753818 0.00504215 -0.31898862
000070 aa 57 1c bc 28 2f 44 bd 95 e0 eb bd ab fd 84 3e
       -0.009542385 -0.047896534 -0.11517445 0.25974783
000080 e7 69 3d 3c 98 f9 68 be d0 7c fd 3d 65 6e 19 bc
       0.011560894 -0.22751462 0.12377322 -0.009364699
000090 c2 fa 4b be a8 0f 43 bc ff 37 17 3e 91 2f cb bd
       -0.19919875 -0.011905588 0.14767455 -0.09921182
0000a0 74 51 99 bc 65 df df 3d c1 02 0d 3f 05 bb ec 3d
       -0.018715598 0.10931281 0.5508233 0.11559109
0000b0 8f 45 45 be ad a5 27 3c 4e b7 90 3c bf 95 4c be
       -0.19264816 0.010232371 0.017665531 -0.19978999
0000c0 3b 35 6a bd 03 7f 2d bd 8b 2a 6f 3d 26 33 d8 bd
       -0.05717967 -0.042357456 0.05839018 -0.10556631
0000d0 a2 de 7d 3e f0 57 83 3c b7 30 c5 be 6a 4c 45 be
       0.24791959 0.016033143 -0.3851373 -0.19267431
0000e0 9e 1e f7 3d 6e c8 52 be 1e ee df 3d a6 a4 47 3d
       0.12066387 -0.2058427 0.10934089 0.048741005
0000f0 55 27 e8 be ae 1c ad 3d f4 d9 6b bd b9 7d ba be
       -0.45342508 0.08452736 -0.057580903 -0.36424044
000100 42 fc 63 3e 1d ac 29 be fa cc 6b bd b1 46 2c be
       0.22264197 -0.16569562 -0.057568528 -0.16823842
000110 c2 34 04 be 85 2d 5c be f6 14 a4 3c 56 71 0b be
       -0.1291075 -0.2150174 0.020029526 -0.13617453
000120 06 b9 38 3d 8d c8 96 3e 2a 05 b0 bd 5a 42 1c be
       0.045098327 0.29449883 -0.08594735 -0.15259686
000130 61 b5 d9 3d 7e 53 41 bd 1b 8d 80 3e 17 3b 3e be
       0.106302984 -0.047198765 0.25107655 -0.18577228
000140 88 cb 82 bc 3e 6c 0a 3e f4 e7 34 be 47 bf 24 bd
       -0.015966192 0.13517854 -0.17666608 -0.04022148
000150 ce f8 19 bf af 57 49 be 75 0d 69 3d 65 7f 7d 3e
       -0.6014527 -0.19662355 0.0568976 0.24755628
000160 6a 79 b9 bb b9 92 95 3c 76 a2 22 be 21 04 b5 3d
       -0.0056602256 0.01825844 -0.15882286 0.08838678
000170 54 82 0f 3d 59 60 22 3e 0e 63 3b 3e c8 a0 44 3a
       0.0350364 0.15857066 0.18299505 0.0007500765
000180 d3 74 7c be 83 da 99 3e 55 a0 47 3b 94 0b ee bc
       -0.2465394 0.30049524 0.0030460556 -0.029058255
000190 83 0f 9e 3b fa f8 cb 3d 1b 8b 47 3d 2e 55 1c 3e
       0.0048236265 0.09959598 0.048716646 0.15266868
0001a0 72 27 48 3e 73 b6 10 3f 31 28 3f be ea 6d 96 be
       0.19546297 0.56528395 -0.18667676 -0.29380733
0001b0 c1 7f 54 3e 3a 2a 68 bd 99 7b 01 ba fb f0 b2 be
       0.20751859 -0.056680895 -0.0004939377 -0.34949479
0001c0 47 19 13 3e df 94 b1 3d 66 40 99 3e 87 73 53 3e
       0.14365111 0.08670973 0.29931945 0.20649539
0001d0 97 94 24 3e fd 86 e2 be 74 8f 9c 3d 11 01 83 3b
       0.16072308 -0.44243613 0.07644549 0.00399793
0001e0 c3 be 3c 3e 4c d8 12 3e 14 e6 e7 bd e5 e2 a5 be
       0.18432145 0.14340323 -0.11323181 -0.3239967
0001f0 09 a7 6b 3d 84 8f 37 3e ec 86 e8 3e 3c 29 10 be
       0.057532344 0.1792584 0.45415437 -0.1407823
000200 fa 8a 9a 3e c8 ad bb bc 14 3b 01 3e ca 26 2b 3e
       0.30184156 -0.022910014 0.12620193 0.16714016
000210 5f b4 d6 3d e7 0e f3 3d de a1 4e 3e ea b9 75 be
       0.10483622 0.11868077 0.20178935 -0.23996702
000220 dd 23 5d 3e d3 a2 7d 3d 4f 15 ef be a5 41 41 be
       0.21595712 0.06192286 -0.46695945 -0.18872698
000230 18 6d 70 3e db 7b 85 bd 3d ec 0b 3e 8b 46 ba bd
       0.23479116 -0.06517764 0.13664337 -0.09095486
000240 5a d7 f4 be 58 9b 91 bd b7 b5 52 3d 3e 96 b3 3e
       -0.4782055 -0.071097076 0.051442828 0.35075563
000250 3c 17 06 3d c1 64 b9 be d3 66 89 bd 14 68 a8 bc
       0.032737 -0.36209682 -0.06709065 -0.02055744
000260 f5 15 bc 3d 2d 25 59 be 40 e0 0f bd aa 62 9c bd
       0.091838755 -0.21205588 -0.03512597 -0.07636006
000270 b3 df 28 3e 62 49 9c be fb 1e 80 bc 0c 8f 28 3e
       0.16491584 -0.30524737 -0.015639773 0.16460818
000280 84 7f 12 3d d2 f5 c0 3b d4 ea 0b bd c7 60 7c 3c
       0.03576614 0.005888679 -0.034159496 0.015403933
000290 9d 3f 80 3c 6b cf 36 3e 8e ba be bd b6 65 90 3d
       0.015655333 0.17852561 -0.09312926 0.0705065
0002a0 c2 19 8c 3e 46 8a bb bd f2 45 76 3e e3 73 09 bd
       0.27363402 -0.09157233 0.2405012 -0.033557784
0002b0 74 8a 74 3e 6e 35 76 bc f4 5c b7 bc 01 11 ec 3d
       0.2388094 -0.015027387 -0.02238319 0.11526681
0002c0 24 61 29 3e 98 b1 60 be b4 da 04 be e9 6f e7 bc
       0.16540962 -0.21942747 -0.12974054 -0.028251605
0002d0 61 41 69 3d 6e 51 fd 3d f9 bb 79 3e b9 09 d3 3c
       0.056947116 0.12369047 0.24388112 0.025761472
0002e0 48 14 0a 3e 73 55 0f 3e a0 2b 08 be 0f 30 16 bd
       0.13484299 0.1399744 -0.13297892 -0.036666926
0002f0 6d 64 18 be 9f f1 cb bd 63 6b 0f 3f 54 59 e0 3d
       -0.1488206 -0.09958195 0.56023234 0.10954538
000300 27 3c 73 3d 7c ae 06 be 60 dd cf be 43 4a 35 be
       0.059383538 -0.13152498 -0.40598583 -0.1770411
000310 21 a2 0c 3e 3c 36 d5 bd 75 59 49 3e 75 b1 90 3d
       0.13733722 -0.10410735 0.19663031 0.07065097
000320 ef ae 33 be 83 fc 74 be 55 51 37 bd 9c 5d 84 3d
       -0.175472 -0.2392445 -0.0447553 0.06463167
000330 53 67 89 3d 89 9d 00 be 9e f7 3c 3e fe bc f5 3d
       0.06709161 -0.12560095 0.18453833 0.11998938
000340 7c 94 79 bd 22 ec 14 bd ee 54 ee 3e 90 c5 30 3f
       -0.06093262 -0.036358006 0.4654917 0.69051456
000350 22 d0 31 be fd fc 11 3e fe d8 32 bd c4 eb 86 be
       -0.17364553 0.14256664 -0.04366397 -0.2635175
000360 a4 d2 33 3d 6f 63 40 bd ee 43 26 bd e3 cd 0f be
       0.043902054 -0.046969827 -0.040592127 -0.14043383
000370 6e 83 a9 3d 81 60 03 bd 58 0c 42 bc 6a f0 20 3d
       0.08277021 -0.032074455 -0.011843763 0.039291777
000380 4e 58 07 be f0 ef 92 3e e4 b9 44 3d e9 1c 1e be
       -0.1321728 0.28698683 0.04802884 -0.15440716
000390 ac 4e b4 3e 37 51 f1 bd 31 5a 21 bd cd bd ab be
       0.35216272 -0.117830686 -0.039392654 -0.33543244
0003a0 d9 2e 01 be 92 11 94 3d 4f 48 14 bd 9e 9c a0 3d
       -0.12615527 0.07229914 -0.03620177 0.07842372
0003b0 83 2a 11 be 80 ba 07 be 3f 82 dd 3c 52 b3 cf 3d
       -0.14176373 -0.13254738 0.027039645 0.101416245
0003c0 24 3f 8c bd 4b f6 c2 3d fd 65 75 3e 3a d3 a4 3c
       -0.068479806 0.09519633 0.23964687 0.020120252
0003d0 a7 99 9e 3c 79 15 38 3e a0 dd 62 3e 9a d8 99 3d
       0.019360377 0.17976941 0.22154856 0.075120166
0003e0 76 be 83 bd 0c ac 9c be 8d 9b 5c 3d c7 13 27 3d
       -0.06432812 -0.3060001 0.053859282 0.040790346
0003f0 82 13 1b bf e1 0e f3 bd 89 36 e0 bc 21 b3 9b 3e
       -0.6057664 -0.11868072 -0.027369754 0.30410102

model.decoder_module.convs.1.m_net_list.0.bias.weight f4 [8, 21]
000000 d6 62 06 be 1d 41 43 be 49 ea c4 3c a1 61 10 3e
       -0.1312364 -0.19067807 0.024037497 0.14099742
000010 62 5a 47 3e 9c 58 cd 3c 0d d7 3e bd 2f 58 cf be
       0.19468072 0.025066666 -0.046591807 -0.40496966
000020 df 55 af 3d 0c 0c 3d ba c1 b9 ae be 07 de 8e 3e
       0.085613005 -0.0007211573 -0.34126094 0.27903768
000030 fc b2 f8 bd 7a b9 69 3c dc 89 c8 3d 71 96 aa bd
       -0.121435136 0.014265412 0.097919196 -0.08329476
000040 88 09 cb 3e 01 b5 14 bd 25 36 5e 3c 34 e9 f9 3d
       0.3965571 -0.03630543 0.013562714 0.12202683
000050 f2 54 44 3e fa 9e 52 3d 02 05 06 bf 0b cb 40 3d
       0.19173029 0.051421143 -0.5235139 0.047068637
000060 7b b9 9c 3c 81 49 f2 bd 34 f0 e7 bf cd 73 50 3d
       0.019131413 -0.11830426 -1.8120179 0.050891686
000070 ad f2 f9 be 75 c5 a4 3d 51 f8 81 bf de b7 81 be
       -0.4881796 0.080454744 -1.0153905 -0.25335592
000080 7b 5c 84 bd d1 d4 16 bc b2 c3 de 3d e3 54 65 be
       -0.06462952 -0.009206013 0.1087717 -0.22395663
000090 98 51 8a be d4 c2 8d bd d8 a6 3a 3e f1 c5 88 be
       -0.27015376 -0.06921926 0.18227708 -0.26713517
0000a0 72 33 a3 3d 00 ee 93 be 13 5e 86 be 6a 05 2f be
       0.07968797 -0.28892517 -0.26243648 -0.17091909
0000b0 d5 4e be 3e 80 2c 7f be b2 b2 a7 be 50 02 88 bf
       0.3716952 -0.24919319 -0.3275352 -1.0625706
0000c0 6c f9 cc 3c d5 ed 8c be 23 b8 17 bf eb 0a fc 3f
       0.025021277 -0.275252 -0.59265345 1.9690832
0000d0 9d 5f 6c be a5 f4 9d bd 3f 98 8c bc 5a c3 19 bf
       -0.23083349 -0.07712678 -0.01716244 -0.6006371
0000e0 39 22 9f bd 16 e2 bf be bf 11 65 3c 00 b8 18 3e
       -0.07770199 -0.37477177 0.013981282 0.1491394
0000f0 3b c5 08 bd b8 fa 95 3d 0b 93 69 bd 56 1e bf 3c
       -0.03339122 0.073232114 -0.057024997 0.023329895
000100 98 99 e6 3b 62 ae 64 3e 6e 33 2b bf b1 ab f1 be
       0.007037353 0.22332147 -0.6687535 -0.47201303
000110 02 b6 69 3e 3e ab 40 bd 2a 04 74 be d6 04 1a bf
       0.22823337 -0.04703831 -0.23829713 -0.6016363
000120 1d 3a b6 3f 56 92 74 be 78 32 a5 be ac 40 c3 3d
       1.4236485 -0.23883948 -0.32265067 0.095338196
000130 00 ab 61 bf b6 0f d9 be 82 16 d0 3a b3 2a 47 be
       -0.8815155 -0.423948 0.0015875848 -0.19449882
000140 43 68 c6 bc 12 5c 9d be f1 33 62 bc 1c bb be bd
       -0.024219638 -0.30734307 -0.013806329 -0.09313032
000150 22 a4 c7 3d f8 05 86 3e 21 f6 8c 3e f2 84 9d bd
       0.09748103 0.2617643 0.2753153 -0.07691373
000160 f0 5e 21 3e 80 f9 9c 3e 2a 9e 81 3e 75 73 b1 be
       0.15758872 0.30659103 0.25315982 -0.346584
000170 ee c1 f5 bd ab 98 5b 3f d7 79 d9 bd 6a 54 8e 3d
       -0.1199988 0.8577983 -0.10618942 0.069496945
000180 51 03 c1 3d 7b 4c cc be da 3a d1 3d 4c 94 1f 3b
       0.09424461 -0.399021 0.10216303 0.0024349866
000190 8d 45 cf 3c 24 f9 45 3e 08 59 e2 3e 5a de da bd
       0.02530172 0.19333321 0.4420855 -0.106869414
0001a0 eb 28 0f be e2 aa a5 be 64 96 eb be bb c2 45 3c
       -0.13980453 -0.32356936 -0.46013176 0.012070353
0001b0 73 26 8c 3e 70 70 14 3f e9 ba 40 bf 43 8d 1f 3b
       0.27373084 0.57984066 -0.752852 0.0024345673
0001c0 3d 26 09 be d8 91 19 3e 42 79 bf be 04 1c ec be
       -0.13393493 0.14997041 -0.373972 -0.46115124
0001d0 fb 63 c5 3e 3d a2 51 3e cd a3 fe 3c cc 72 9c 3e
       0.38552842 0.20472045 0.031083966 0.30556333
0001e0 d7 66 b3 bd 74 fd c7 3e a0 49 45 be 83 9b a1 3e
       -0.087598495 0.39060557 -0.19266367 0.3156396
0001f0 2c a3 fd bd 2a 6a a2 3d da 2e 0f be a6 69 b5 3d
       -0.12384638 0.079304054 -0.13982716 0.088580415
000200 07 ea 62 3e 70 fb 06 bb d6 a3 74 be 4e 39 c0 3e
       0.22159587 -0.0020596646 -0.23890623 0.3754372
000210 d1 3f d0 3d d7 42 0c bf 9e 37 4f 3d aa 3f d8 3d
       0.10168422 -0.5478949 0.05059015 0.10559018
000220 96 f9 ac be 5d 78 e3 3d 70 10 52 bc 45 36 a6 bd
       -0.3378417 0.11106942 -0.012821302 -0.0811582
000230 7c 6f cf bd f7 c5 a2 3d 4e e0 23 bd 09 69 23 3e
       -0.10128686 0.07947915 -0.040008835 0.15958036
000240 9b 16 4c be 23 19 31 be 96 a6 e3 bd 82 a5 2b bc
       -0.19930498 -0.17294745 -0.11115758 -0.010476472
000250 b3 74 5c be e2 27 b6 3d f7 a9 0b bd fc d5 a3 3e
       -0.21528892 0.08894326 -0.034097638 0.31999195
000260 f1 8b e1 be 53 4e b1 bd 4f 77 0d 3f 08 19 4f 3d
       -0.4405208 -0.08657517 0.55260175 0.05056098
000270 42 ed 80 bd ab b2 23 3e a5 f1 7b 3e 1a c9 60 3c
       -0.06295253 0.15986125 0.24603899 0.013719821
000280 11 0a ac bb 5a 1f b1 3e 13 18 da bd 6a c6 93 3e
       -0.0052502234 0.34594232 -0.10649123 0.28862315
000290 77 b2 0e be 96 47 2e bd 4f fd b5 bc 38 54 b4 3d
       -0.13935266 -0.04254874 -0.022215514 0.08805126

model.prob_model_x._decoder_embeddings.0.weight f4 [1, 8]
000000 db 7a e5 3e 57 a0 b1 be dd 62 83 3f 24 46 06 bf
       0.44820294 -0.34692642 1.0264546 -0.52450776
000010 d7 9c 31 bf 62 3a 5b 3f 8e 13 78 3f fa b7 49 3f
       -0.69379944 0.8563596 0.9690484 0.7879635

model.prob_model_x._decoder_embeddings.1.weight f4 [2, 8]
000000 0b a3 74 be 24 6d 82 3b ff b1 a7 3b 4d 75 63 3d
       -0.23890321 0.0039802957 0.0051176543 0.05553179
000010 d2 b4 36 be 86 db 96 bd 5a 86 8f bd be 63 3c bd
       -0.17842415 -0.073660895 -0.070080474 -0.04599356
000020 55 17 0d be c9 f2 a0 3f 8e fd 88 3f bb 99 17 bf
       -0.13778432 1.2574092 1.0702379 -0.5921895
000030 8c 28 57 bf ae 23 91 3f 4d c8 5e bf dd 3a 4b 3f
       -0.84046245 1.1339014 -0.87024385 0.79386693

model.prob_model_x._decoder_embeddings.2.weight f4 [2, 8]
000000 a1 d5 89 bd dc 68 a9 3b 1e 84 e5 bb 87 1c ee b9
       -0.067301996 0.005169971 -0.007004275 -0.00045416152
000010 84 4c 1c 3d 3e 8d 53 3d b3 dd 6b be b8 78 b6 3c
       0.03815891 0.05164837 -0.2303379 0.02227436
000020 c2 46 9e bd 64 20 3c 3f d3 3d 86 bf 04 1f 2c bf
       -0.0772834 0.73486924 -1.0487617 -0.67234826
000030 d2 e0 a0 bf 58 d3 1c 3f 05 c6 1d be af 2e 70 39
       -1.256861 0.61259985 -0.1540757 0.00022905575

model.prob_model_x._decoder_embeddings.3.weight f4 [1, 8]
000000 44 fb 10 be c1 77 fc be d5 0b dd be f9 bc ca be
       -0.1415835 -0.49310115 -0.4317309 -0.395973
000010 7e 62 c5 be d5 bd 85 be f5 87 f0 be 4d d9 06 3f
       -0.38551706 -0.26121393 -0.46978727 0.52675325

model.prob_model_x._decoder_embeddings.4.weight f4 [2, 8]
000000 be d8 70 bd c1 91 c0 3d 33 6c 5b 3d 80 b1 14 3c
       -0.05880045 0.094028 0.053569984 0.009075522
000010 89 36 d7 ba 75 75 51 3d aa 24 a2 3e de a4 be bd
       -0.0016419451 0.051137406 0.31668597 -0.0930879
000020 b9 85 5d 3c 00 a5 f6 3c 54 68 4e 3f 3b da 5b 3f
       0.0135206515 0.030107975 0.8062794 0.8587987
000030 4b b4 44 3f ea ba 2d bf ef 9d be be be be b4 be
       0.76837605 -0.67863333 -0.3722987 -0.35301775

model.prob_model_x._decoder_embeddings.5.weight f4 [2, 8]
000000 d1 65 e7 3d 84 1f aa bb 27 1a ff bc 80 ef cb 3d
       0.11298717 -0.0051917452 -0.0311404 0.099577904
000010 74 f0 e9 bb 44 e6 a3 bd 2c 6e 75 be bb 80 01 bc
       -0.00713926 -0.08002904 -0.23967808 -0.007904227
000020 71 a2 3c bf 41 c3 f7 3e b1 58 ca 3e 8b b9 3d 3f
       -0.73685366 0.48391154 0.3952079 0.7411124
000030 3a 07 c6 be f8 cb 4b bf 68 a9 0a 3f 17 c8 fb be
       -0.38677388 -0.79608107 0.54164743 -0.49176094

model.prob_model_x._decoder_embeddings.6.weight f4 [1, 8]
000000 50 78 8b 3f 06 fe 5d bf 89 22 74 3f 7a e8 53 3f
       1.0896091 -0.86715734 0.95365196 0.82776606
000010 bc 10 ca be 61 1d 67 3f 67 29 a5 3e 9e 12 70 3f
       -0.39465892 0.90279204 0.3225815 0.9377841

exp_avg f4 [16, 1]
000000 00 00 00 80 0a 00 69 3e 0a c7 73 b4 f5 40 cd b1
       -0.0 0.22753921 -2.2703549e-07 -5.97367e-09
000010 82 40 39 ae 04 30 2e bd 99 1a 8a bf 37 1c 08 b3
       -4.2121424e-11 -0.04252626 -1.0789367 -3.169063e-08
000020 42 1d b7 3e d5 08 60 bd 41 d7 a7 b4 4c ad e6 b2
       0.3576451 -0.054695923 -3.1262792e-07 -2.685433e-08
000030 66 57 00 b5 b4 63 3a be 28 6e 40 be 08 1b 37 bf
       -4.78109e-07 -0.18202096 -0.18792021 -0.7152562

exp_avg_sq f4 [16, 1]
000000 e0 26 96 16 52 05 05 3f 4a 35 f5 31 f2 81 2b 29
       2.425834e-25 0.51961243 7.1364967e-09 3.8082337e-14
000010 d7 f4 6e 25 9f 3a b2 3e 00 aa ce 3f 35 fc 2a 28
       2.0726164e-16 0.3481035 1.614563 9.491584e-15
000020 ad 93 63 3e 45 ef 89 3e 88 52 1c 38 5b b5 bd 28
       0.22224303 0.2694036 3.727016e-05 2.1061866e-14
000030 9a 99 99 2f c2 de 10 40 54 2e 23 3d 75 f8 c2 3f
       2.7939678e-10 2.263596 0.039839104 1.5232073

exp_avg f4 [16]
000000 bf f1 28 b1 ad 83 f8 3e 5d a5 0d 3f 2a 13 2e b3
       -2.4584634e-09 0.4853796 0.5533045 -4.052996e-08
000010 1b 4f 88 b2 36 08 6f be dc 36 8d bf 02 bd a3 b2
       -1.5868457e-08 -0.23342976 -1.1032367 -1.9061648e-08
000020 3b 10 eb 3e ee 97 eb 3d a7 b7 97 be ba 86 9b b2
       0.4591082 0.11503588 -0.29632303 -1.8105641e-08
000030 55 47 fb 3e 01 46 88 3e 6d d1 09 bf 1a 1b 37 bf
       0.4907786 0.2661591 -0.53835183 -0.7152573

exp_avg_sq f4 [16]
000000 0a c4 2a 27 8a 98 8f 3f 55 6d 0b 40 6f 91 ad 29
       2.3698512e-15 1.1218426 2.178548 7.707972e-14
000010 ab cd 89 27 24 da 39 3f 6b c1 6a 40 40 48 34 28
       3.8248124e-15 0.7259848 3.6680553 1.0007674e-14
000020 fb 75 fd 3e 78 1a 0d 3f 93 cd 05 40 98 fb 9f 28
       0.49504074 0.55118513 2.0906723 1.7761657e-14
000030 2c 5a 76 40 62 16 97 40 1e 18 92 3f 77 f8 c2 3f
       3.8492537 4.7214823 1.141361 1.5232075

exp_avg f4 [16, 1]
000000 16 d9 e1 39 ff 0d 88 bf d4 44 a8 b1 cf e8 63 40
       0.00043077086 -1.0629271 -4.8972684e-09 3.5610845
000010 c8 2d 4e be 01 80 15 bf 93 0e ce be 9c 03 13 40
       -0.20134652 -0.58398443 -0.40245494 2.2970953
000020 6e a3 85 40 81 5c 81 34 b6 f3 19 40 bc e9 33 bf
       4.1762 2.4095428e-07 2.4055 -0.70278525
000030 cf b1 8d bf 23 0d 15 2f 7a 2e 3c 3f cc 05 a0 b2
       -1.1069888 1.3556138e-10 0.7350842 -1.8629088e-08

exp_avg_sq f4 [16, 1]
000000 8e af af 3c 8f 8a 3b 42 36 17 eb 28 55 b6 e2 41
       0.021446016 46.88531 2.6100307e-14 28.33903
000010 7e 4a 00 42 39 a1 f1 41 bb b0 aa 41 3e 31 ce 41
       32.072746 30.203722 21.336294 25.774044
000020 d0 7b 18 42 be 7c 59 2e 12 c7 54 41 9c 7d 95 40
       38.12091 4.945088e-11 13.298601 4.671583
000030 a1 ac 72 41 b4 32 0e 32 25 da a5 40 e1 3c 39 2a
       15.167146 8.277016e-09 5.182879 1.6452422e-13

exp_avg f4 [16]
000000 b4 55 90 b9 29 19 c4 bf fa 6c 57 b3 5a e4 a4 bf
       -0.00027529674 -1.5320178 -5.0157702e-08 -1.2882187
000010 f0 24 e5 be 2c 07 c5 be 8c c2 8d bf 19 64 d0 be
       -0.44754744 -0.38482034 -1.1074996 -0.40701368
000020 d7 56 f5 bf 1a 97 5f b5 e3 df bc bf cd ae 0c 3f
       -1.9167126 -8.3293855e-07 -1.4755825 0.54954225
000030 85 af b8 bf f1 c9 81 b1 71 b4 70 bf 20 d6 12 b4
       -1.4428564 -3.777352e-09 -0.9402533 -1.3675208e-07

exp_avg_sq f4 [16]
000000 de 1b 6d 3b 97 fa 1c 42 5c 4e 84 28 ef 5c 08 42
       0.003617994 39.244717 1.4688927e-14 34.090755
000010 fe dc 08 42 e5 5c d7 41 9b 73 f0 41 b0 cd f6 41
       34.215813 26.920359 30.056448 30.850433
000020 4a cf 0c 42 0e 37 be 2c d6 cf ea 40 62 b3 aa 40
       35.20243 5.406237e-12 7.3378706 5.3343973
000030 60 eb a7 41 e9 67 8c 30 dc ab e0 40 5e e0 d8 29
       20.98993 1.0215874e-09 7.020979 9.6312484e-14

exp_avg f4 [16, 1]
000000 02 bb 7f 3e af 33 15 3e ee ea c8 3f 23 6d db 3f
       0.24973682 0.14570497 1.5696695 1.7142681
000010 5f 9c 17 bc 69 8a a1 3f d2 a6 a4 b1 68 ae 35 bf
       -0.00925359 1.2620364 -4.7919935e-09 -0.7096925
000020 55 b3 41 3f 89 c9 c4 3f f9 b7 96 3e 92 24 3f 3d
       0.75664264 1.5374004 0.29437235 0.046665736
000030 b1 36 7d 32 ec a7 8b bd 4d 73 8b 33 97 53 01 3f
       1.4738974e-08 -0.06819138 6.493665e-08 0.5051817

exp_avg_sq f4 [16, 1]
000000 e9 6d 35 3f 5d 4d df 3d ff 4d cc 40 04 1c 50 41
       0.70870835 0.10903428 6.384521 13.00684
000010 4f 63 47 3e 48 5b 51 41 7a 0c 5c 2a 59 bf 4d 41
       0.19471477 13.084785 1.9544254e-13 12.859216
000020 fc 80 f9 40 12 3d 4d 41 55 ad db 40 bd 5d f7 3c
       7.796995 12.82741 6.8649087 0.030196065
000030 bb 32 15 2f 70 df aa 40 8f b6 ed 2f da 88 22 41
       1.3569494e-10 5.339775 4.3239765e-10 10.158411

exp_avg f4 [16]
000000 14 55 49 3e 4f 63 cc 3d e0 c7 b3 3f 3d f6 a3 3f
       0.19661361 0.09979879 1.4045372 1.2809521
000010 1a b7 79 bb 13 62 fe 3f b3 12 4c b3 99 97 20 c0
       -0.0038103522 1.987368 -4.7514458e-08 -2.5092528
000020 03 96 0c bf 95 03 28 40 7f ea bb bf c3 ce 83 3d
       -0.549164 2.6252186 -1.4680938 0.06435921
000030 32 c9 46 b3 48 21 1a bf 55 a3 5a b4 c5 1f 2b bf
       -4.6283454e-08 -0.60207033 -2.0362252e-07 -0.6684535

exp_avg_sq f4 [16]
000000 78 07 b5 3e a4 e0 c1 3d f1 ce 05 41 68 00 ba 40
       0.3535726 0.09466675 8.363023 5.8125496
000010 1a ea e6 3c e6 ea 75 41 ce 4e 9f 2a 61 e8 90 41
       0.0281878 15.369848 2.8298755e-13 18.113466
000020 1c ee 50 40 b5 c5 a6 41 d0 0f 47 41 43 b5 f0 3c
       3.264533 20.846537 12.44136 0.029383307
000030 d0 ea 8a 2e 8c 05 08 41 24 4a ce 2e d1 7b e2 40
       6.3172245e-11 8.501354 9.3809654e-11 7.0776143

exp_avg f4 [16, 1]
000000 48 30 4f b7 b0 ab 40 b4 d0 0d 83 b8 00 00 00 00
       -1.2349403e-05 -1.7943853e-07 -6.2491396e-05 0.0
000010 2e 77 4c b8 bf 00 00 80 bf 40 f0 82 00 00 00 80
       -4.8748385e-05 -2.68e-43 -3.5301993e-37 -0.0
000020 be ca d9 89 1e a3 56 39 bd db d0 39 9e bf b3 a4
       -5.2431508e-33 0.00020469396 0.0003983657 -7.795349e-17
000030 2b 25 a9 b8 8a fb 07 3a 47 f0 36 38 d4 1f c1 8a
       -8.065471e-05 0.00051873235 4.3615957e-05 -1.8597196e-32

exp_avg_sq f4 [16, 1]
000000 bc 14 c4 36 02 72 58 31 b5 22 96 34 5d 67 ec 17
       5.843669e-06 3.1496943e-09 2.796493e-07 1.5277235e-24
000010 b3 5c 6f 38 24 f4 2c 1e d6 08 ce 20 8a 08 13 18
       5.7068373e-05 9.156091e-21 3.4903605e-19 1.9003616e-24
000020 12 76 25 21 4b 11 f2 38 97 03 0c 39 44 c0 79 23
       5.606044e-19 0.0001154268 0.00013352778 1.3539031e-17
000030 31 c9 2e 38 4e cb 40 39 3c 35 f4 34 e7 89 3d 21
       4.1672207e-05 0.00018386284 4.5487275e-07 6.4218203e-19

exp_avg f4 [16]
000000 68 5f 50 b7 2e 03 96 bb 66 3b d7 b9 df 00 00 80
       -1.241998e-05 -0.0045780158 -0.0004105225 -3.12e-43
000010 a7 ff 3e bb a1 09 00 80 19 a1 8e 8e 8d 19 eb 90
       -0.002914408 -3.454e-42 -3.5160834e-30 -9.2730524e-29
000020 18 f2 74 a8 6e 30 56 39 5f 96 d0 39 37 5f 7a aa
       -1.3597217e-14 0.00020426672 0.00039784887 -2.2237495e-13
000030 98 68 3f bb 47 a7 07 3a 7e ba f0 b9 b6 d0 34 93
       -0.002920663 0.00051747676 -0.00045915315 -2.2822097e-27
